…
I0801 16:11:22.071962  5218 net.cpp:294] The NetState phase (0) differed from the phase (1) specified by a rule in layer data
I0801 16:11:22.072703  5218 net.cpp:51] Initializing net from parameters: 
state {
  phase: TRAIN
}
layer {
  name: "data"
  type: "Python"
  top: "data"
  top: "label"
  include {
    phase: TRAIN
  }
  python_param {
    module: "dataset_lidar"
    layer: "InputShapenet"
    param_str: "{\'sample_size\': 8192, \'test_area\': \'6\', \'batch_size\': 9, \'feat_dims\': \'x_y_z\', \'subset\': \'train\', \'root\': \'../../data/shapenet_ericyi_ply\', \'jitter_xyz\': 0.01, \'jitter_stretch\': 0.05, \'jitter_rotation\': 5.0}"
  }
}
layer {
  name: "data_feat"
  type: "Python"
  bottom: "data"
  top: "data_feat"
  python_param {
    module: "custom_layers"
    layer: "PickAndScale"
    param_str: "0_1_2"
  }
}
layer {
  name: "conv1"
  type: "Convolution"
  bottom: "data_feat"
  top: "conv1"
  param {
    lr_mult: 1
  }
  param {
    lr_mult: 0.1
  }
  convolution_param {
    num_output: 32
    pad: 0
    kernel_size: 1
    stride: 1
    weight_filler {
      type: "xavier"
    }
    bias_filler {
      type: "constant"
      value: 0
    }
  }
}
layer {
  name: "bn1"
  type: "BatchNorm"
  bottom: "conv1"
  top: "bn1"
}
layer {
  name: "relu1"
  type: "ReLU"
  bottom: "bn1"
  top: "bn1"
}
layer {
  name: "data_lattice0"
  type: "Python"
  bottom: "data"
  top: "data_lattice0"
  python_param {
    module: "custom_layers"
    layer: "PickAndScale"
    param_str: "0*48_1*48_2*48"
  }
}
layer {
  name: "fconv1"
  type: "Convolution"
  bottom: "data_lattice0"
  top: "fconv1"
  param {
    lr_mult: 1
  }
  param {
    lr_mult: 0.1
  }
  convolution_param {
    num_output: 3
    pad: 0
    kernel_size: 1
    stride: 1
    weight_filler {
      type: "xavier"
    }
    bias_filler {
      type: "constant"
      value: 0
    }
  }
}
layer {
  name: "fbn1"
  type: "BatchNorm"
  bottom: "fconv1"
  top: "fbn1"
}
layer {
  name: "frelu1"
  type: "ReLU"
  bottom: "fbn1"
  top: "fbn1"
}
layer {
  name: "feat1"
  type: "Eltwise"
  bottom: "data_lattice0"
  bottom: "fbn1"
  top: "feat1"
  eltwise_param {
    operation: SUM
  }
}
layer {
  name: "conv2"
  type: "Permutohedral"
  bottom: "bn1"
  bottom: "feat1"
  bottom: "feat1"
  top: "conv2"
  param {
    lr_mult: 1
    decay_mult: 1
  }
  param {
    lr_mult: 2
    decay_mult: 0
  }
  permutohedral_param {
    num_output: 64
    neighborhood_size: 2
    filter_filler {
      type: "gaussian"
      std: 0.001
    }
    bias_term: true
    bias_filler {
      type: "constant"
      value: 0
    }
    group: 1
    norm_type: AFTER
    offset_type: NONE
  }
}
layer {
  name: "bn2"
  type: "BatchNorm"
  bottom: "conv2"
  top: "bn2"
}
layer {
  name: "relu2"
  type: "ReLU"
  bottom: "bn2"
  top: "bn2"
}
layer {
  name: "data_lattice1"
  type: "Python"
  bottom: "data"
  top: "data_lattice1"
  python_param {
    module: "custom_layers"
    layer: "PickAndScale"
    param_str: "0*24_1*24_2*24"
  }
}
layer {
  name: "fconv2"
  type: "Convolution"
  bottom: "data_lattice1"
  top: "fconv2"
  param {
    lr_mult: 1
  }
  param {
    lr_mult: 0.1
  }
  convolution_param {
    num_output: 3
    pad: 0
    kernel_size: 1
    stride: 1
    weight_filler {
      type: "xavier"
    }
    bias_filler {
      type: "constant"
      value: 0
    }
  }
}
layer {
  name: "fbn2"
  type: "BatchNorm"
  bottom: "fconv2"
  top: "fbn2"
}
layer {
  name: "frelu2"
  type: "ReLU"
  bottom: "fbn2"
  top: "fbn2"
}
layer {
  name: "feat2"
  type: "Eltwise"
  bottom: "data_lattice1"
  bottom: "fbn2"
  top: "feat2"
  eltwise_param {
    operation: SUM
  }
}
layer {
  name: "conv3"
  type: "Permutohedral"
  bottom: "bn2"
  bottom: "feat2"
  bottom: "feat2"
  top: "conv3"
  param {
    lr_mult: 1
    decay_mult: 1
  }
  param {
    lr_mult: 2
    decay_mult: 0
  }
  permutohedral_param {
    num_output: 128
    neighborhood_size: 2
    filter_filler {
      type: "gaussian"
      std: 0.001
    }
    bias_term: true
    bias_filler {
      type: "constant"
      value: 0
    }
    group: 1
    norm_type: AFTER
    offset_type: NONE
  }
}
layer {
  name: "bn3"
  type: "BatchNorm"
  bottom: "conv3"
  top: "bn3"
}
layer {
  name: "relu3"
  type: "ReLU"
  bottom: "bn3"
  top: "bn3"
}
layer {
  name: "data_lattice2"
  type: "Python"
  bottom: "data"
  top: "data_lattice2"
  python_param {
    module: "custom_layers"
    layer: "PickAndScale"
    param_str: "0*12_1*12_2*12"
  }
}
layer {
  name: "fconv3"
  type: "Convolution"
  bottom: "data_lattice2"
  top: "fconv3"
  param {
    lr_mult: 1
  }
  param {
    lr_mult: 0.1
  }
  convolution_param {
    num_output: 3
    pad: 0
    kernel_size: 1
    stride: 1
    weight_filler {
      type: "xavier"
    }
    bias_filler {
      type: "constant"
      value: 0
    }
  }
}
layer {
  name: "fbn3"
  type: "BatchNorm"
  bottom: "fconv3"
  top: "fbn3"
}
layer {
  name: "frelu3"
  type: "ReLU"
  bottom: "fbn3"
  top: "fbn3"
}
layer {
  name: "feat3"
  type: "Eltwise"
  bottom: "data_lattice2"
  bottom: "fbn3"
  top: "feat3"
  eltwise_param {
    operation: SUM
  }
}
layer {
  name: "conv4"
  type: "Permutohedral"
  bottom: "bn3"
  bottom: "feat3"
  bottom: "feat3"
  top: "conv4"
  param {
    lr_mult: 1
    decay_mult: 1
  }
  param {
    lr_mult: 2
    decay_mult: 0
  }
  permutohedral_param {
    num_output: 256
    neighborhood_size: 2
    filter_filler {
      type: "gaussian"
      std: 0.001
    }
    bias_term: true
    bias_filler {
      type: "constant"
      value: 0
    }
    group: 1
    norm_type: AFTER
    offset_type: NONE
  }
}
layer {
  name: "bn4"
  type: "BatchNorm"
  bottom: "conv4"
  top: "bn4"
}
layer {
  name: "relu4"
  type: "ReLU"
  bottom: "bn4"
  top: "bn4"
}
layer {
  name: "data_lattice3"
  type: "Python"
  bottom: "data"
  top: "data_lattice3"
  python_param {
    module: "custom_layers"
    layer: "PickAndScale"
    param_str: "0*6_1*6_2*6"
  }
}
layer {
  name: "fconv4"
  type: "Convolution"
  bottom: "data_lattice3"
  top: "fconv4"
  param {
    lr_mult: 1
  }
  param {
    lr_mult: 0.1
  }
  convolution_param {
    num_output: 3
    pad: 0
    kernel_size: 1
    stride: 1
    weight_filler {
      type: "xavier"
    }
    bias_filler {
      type: "constant"
      value: 0
    }
  }
}
layer {
  name: "fbn4"
  type: "BatchNorm"
  bottom: "fconv4"
  top: "fbn4"
}
layer {
  name: "frelu4"
  type: "ReLU"
  bottom: "fbn4"
  top: "fbn4"
}
layer {
  name: "feat4"
  type: "Eltwise"
  bottom: "data_lattice3"
  bottom: "fbn4"
  top: "feat4"
  eltwise_param {
    operation: SUM
  }
}
layer {
  name: "conv5"
  type: "Permutohedral"
  bottom: "bn4"
  bottom: "feat4"
  bottom: "feat4"
  top: "conv5"
  param {
    lr_mult: 1
    decay_mult: 1
  }
  param {
    lr_mult: 2
    decay_mult: 0
  }
  permutohedral_param {
    num_output: 256
    neighborhood_size: 2
    filter_filler {
      type: "gaussian"
      std: 0.001
    }
    bias_term: true
    bias_filler {
      type: "constant"
      value: 0
    }
    group: 1
    norm_type: AFTER
    offset_type: NONE
  }
}
layer {
  name: "bn5"
  type: "BatchNorm"
  bottom: "conv5"
  top: "bn5"
}
layer {
  name: "relu5"
  type: "ReLU"
  bottom: "bn5"
  top: "bn5"
}
layer {
  name: "data_lattice4"
  type: "Python"
  bottom: "data"
  top: "data_lattice4"
  python_param {
    module: "custom_layers"
    layer: "PickAndScale"
    param_str: "0*3_1*3_2*3"
  }
}
layer {
  name: "fconv5"
  type: "Convolution"
  bottom: "data_lattice4"
  top: "fconv5"
  param {
    lr_mult: 1
  }
  param {
    lr_mult: 0.1
  }
  convolution_param {
    num_output: 3
    pad: 0
    kernel_size: 1
    stride: 1
    weight_filler {
      type: "xavier"
    }
    bias_filler {
      type: "constant"
      value: 0
    }
  }
}
layer {
  name: "fbn5"
  type: "BatchNorm"
  bottom: "fconv5"
  top: "fbn5"
}
layer {
  name: "frelu5"
  type: "ReLU"
  bottom: "fbn5"
  top: "fbn5"
}
layer {
  name: "feat5"
  type: "Eltwise"
  bottom: "data_lattice4"
  bottom: "fbn5"
  top: "feat5"
  eltwise_param {
    operation: SUM
  }
}
layer {
  name: "conv6"
  type: "Permutohedral"
  bottom: "bn5"
  bottom: "feat5"
  bottom: "feat5"
  top: "conv6"
  param {
    lr_mult: 1
    decay_mult: 1
  }
  param {
    lr_mult: 2
    decay_mult: 0
  }
  permutohedral_param {
    num_output: 256
    neighborhood_size: 2
    filter_filler {
      type: "gaussian"
      std: 0.001
    }
    bias_term: true
    bias_filler {
      type: "constant"
      value: 0
    }
    group: 1
    norm_type: AFTER
    offset_type: NONE
  }
}
layer {
  name: "bn6"
  type: "BatchNorm"
  bottom: "conv6"
  top: "bn6"
}
layer {
  name: "relu6"
  type: "ReLU"
  bottom: "bn6"
  top: "bn6"
}
layer {
  name: "concat6"
  type: "Concat"
  bottom: "bn6"
  bottom: "bn2"
  bottom: "bn3"
  bottom: "bn4"
  bottom: "bn5"
  top: "concat6"
}
layer {
  name: "conv7"
  type: "Convolution"
  bottom: "concat6"
  top: "conv7"
  param {
    lr_mult: 1
  }
  param {
    lr_mult: 0.1
  }
  convolution_param {
    num_output: 128
    pad: 0
    kernel_size: 1
    stride: 1
    weight_filler {
      type: "xavier"
    }
    bias_filler {
      type: "constant"
      value: 0
    }
  }
}
layer {
  name: "bn7"
  type: "BatchNorm"
  bottom: "conv7"
  top: "bn7"
}
layer {
  name: "relu7"
  type: "ReLU"
  bottom: "bn7"
  top: "bn7"
}
layer {
  name: "conv8"
  type: "Convolution"
  bottom: "bn7"
  top: "conv8"
  param {
    lr_mult: 1
  }
  param {
    lr_mult: 0.1
  }
  convolution_param {
    num_output: 13
    pad: 0
    kernel_size: 1
    stride: 1
    weight_filler {
      type: "xavier"
    }
    bias_filler {
      type: "constant"
      value: 0
    }
  }
}
layer {
  name: "loss"
  type: "SoftmaxWithLoss"
  bottom: "conv8"
  bottom: "label"
  top: "loss"
}
layer {
  name: "accuracy"
  type: "Accuracy"
  bottom: "conv8"
  bottom: "label"
  top: "accuracy"
}
I0801 16:11:22.094323  5218 layer_factory.hpp:77] Creating layer data
I0801 16:11:22.121034  5218 net.cpp:84] Creating Layer data
I0801 16:11:22.121400  5218 net.cpp:380] data -> data
I0801 16:11:22.122222  5218 net.cpp:380] data -> label
I0801 16:18:21.804101  5218 net.cpp:122] Setting up data
I0801 16:18:21.804201  5218 net.cpp:129] Top shape: 9 3 1 8192 (221184)
I0801 16:18:21.804210  5218 net.cpp:129] Top shape: 9 1 1 8192 (73728)
I0801 16:18:21.804214  5218 net.cpp:137] Memory required for data: 1179648
I0801 16:18:21.804237  5218 layer_factory.hpp:77] Creating layer data_data_0_split
I0801 16:18:21.804327  5218 net.cpp:84] Creating Layer data_data_0_split
I0801 16:18:21.804347  5218 net.cpp:406] data_data_0_split <- data
I0801 16:18:21.804368  5218 net.cpp:380] data_data_0_split -> data_data_0_split_0
I0801 16:18:21.804392  5218 net.cpp:380] data_data_0_split -> data_data_0_split_1
I0801 16:18:21.804404  5218 net.cpp:380] data_data_0_split -> data_data_0_split_2
I0801 16:18:21.804414  5218 net.cpp:380] data_data_0_split -> data_data_0_split_3
I0801 16:18:21.804421  5218 net.cpp:380] data_data_0_split -> data_data_0_split_4
I0801 16:18:21.804428  5218 net.cpp:380] data_data_0_split -> data_data_0_split_5
I0801 16:18:21.804531  5218 net.cpp:122] Setting up data_data_0_split
I0801 16:18:21.804546  5218 net.cpp:129] Top shape: 9 3 1 8192 (221184)
I0801 16:18:21.804553  5218 net.cpp:129] Top shape: 9 3 1 8192 (221184)
I0801 16:18:21.804556  5218 net.cpp:129] Top shape: 9 3 1 8192 (221184)
I0801 16:18:21.804560  5218 net.cpp:129] Top shape: 9 3 1 8192 (221184)
I0801 16:18:21.804566  5218 net.cpp:129] Top shape: 9 3 1 8192 (221184)
I0801 16:18:21.804570  5218 net.cpp:129] Top shape: 9 3 1 8192 (221184)
I0801 16:18:21.804575  5218 net.cpp:137] Memory required for data: 6488064
I0801 16:18:21.804579  5218 layer_factory.hpp:77] Creating layer label_data_1_split
I0801 16:18:21.804592  5218 net.cpp:84] Creating Layer label_data_1_split
I0801 16:18:21.804597  5218 net.cpp:406] label_data_1_split <- label
I0801 16:18:21.804605  5218 net.cpp:380] label_data_1_split -> label_data_1_split_0
I0801 16:18:21.804611  5218 net.cpp:380] label_data_1_split -> label_data_1_split_1
I0801 16:18:21.804652  5218 net.cpp:122] Setting up label_data_1_split
I0801 16:18:21.804661  5218 net.cpp:129] Top shape: 9 1 1 8192 (73728)
I0801 16:18:21.804666  5218 net.cpp:129] Top shape: 9 1 1 8192 (73728)
I0801 16:18:21.804669  5218 net.cpp:137] Memory required for data: 7077888
I0801 16:18:21.804674  5218 layer_factory.hpp:77] Creating layer data_feat
I0801 16:18:21.809100  5218 net.cpp:84] Creating Layer data_feat
I0801 16:18:21.809120  5218 net.cpp:406] data_feat <- data_data_0_split_0
I0801 16:18:21.809129  5218 net.cpp:380] data_feat -> data_feat
I0801 16:18:21.810636  5218 net.cpp:122] Setting up data_feat
I0801 16:18:21.810652  5218 net.cpp:129] Top shape: 9 3 1 8192 (221184)
I0801 16:18:21.810655  5218 net.cpp:137] Memory required for data: 7962624
I0801 16:18:21.810658  5218 layer_factory.hpp:77] Creating layer conv1
I0801 16:18:21.810696  5218 net.cpp:84] Creating Layer conv1
I0801 16:18:21.810703  5218 net.cpp:406] conv1 <- data_feat
I0801 16:18:21.810714  5218 net.cpp:380] conv1 -> conv1
I0801 16:18:22.523777  5218 net.cpp:122] Setting up conv1
I0801 16:18:22.523829  5218 net.cpp:129] Top shape: 9 32 1 8192 (2359296)
I0801 16:18:22.523839  5218 net.cpp:137] Memory required for data: 17399808
I0801 16:18:22.540107  5218 layer_factory.hpp:77] Creating layer bn1
I0801 16:18:22.547655  5218 net.cpp:84] Creating Layer bn1
I0801 16:18:22.547680  5218 net.cpp:406] bn1 <- conv1
I0801 16:18:22.547696  5218 net.cpp:380] bn1 -> bn1
I0801 16:18:22.575619  5218 net.cpp:122] Setting up bn1
I0801 16:18:22.575659  5218 net.cpp:129] Top shape: 9 32 1 8192 (2359296)
I0801 16:18:22.575670  5218 net.cpp:137] Memory required for data: 26836992
I0801 16:18:22.575717  5218 layer_factory.hpp:77] Creating layer relu1
I0801 16:18:22.576658  5218 net.cpp:84] Creating Layer relu1
I0801 16:18:22.576690  5218 net.cpp:406] relu1 <- bn1
I0801 16:18:22.576705  5218 net.cpp:367] relu1 -> bn1 (in-place)
I0801 16:18:22.577762  5218 net.cpp:122] Setting up relu1
I0801 16:18:22.577800  5218 net.cpp:129] Top shape: 9 32 1 8192 (2359296)
I0801 16:18:22.577811  5218 net.cpp:137] Memory required for data: 36274176
I0801 16:18:22.577821  5218 layer_factory.hpp:77] Creating layer data_lattice0
I0801 16:18:22.577913  5218 net.cpp:84] Creating Layer data_lattice0
I0801 16:18:22.577930  5218 net.cpp:406] data_lattice0 <- data_data_0_split_1
I0801 16:18:22.577963  5218 net.cpp:380] data_lattice0 -> data_lattice0
I0801 16:18:22.578393  5218 net.cpp:122] Setting up data_lattice0
I0801 16:18:22.578423  5218 net.cpp:129] Top shape: 9 3 1 8192 (221184)
I0801 16:18:22.578431  5218 net.cpp:137] Memory required for data: 37158912
I0801 16:18:22.578439  5218 layer_factory.hpp:77] Creating layer data_lattice0_data_lattice0_0_split
I0801 16:18:22.578459  5218 net.cpp:84] Creating Layer data_lattice0_data_lattice0_0_split
I0801 16:18:22.578467  5218 net.cpp:406] data_lattice0_data_lattice0_0_split <- data_lattice0
I0801 16:18:22.578480  5218 net.cpp:380] data_lattice0_data_lattice0_0_split -> data_lattice0_data_lattice0_0_split_0
I0801 16:18:22.578496  5218 net.cpp:380] data_lattice0_data_lattice0_0_split -> data_lattice0_data_lattice0_0_split_1
I0801 16:18:22.578573  5218 net.cpp:122] Setting up data_lattice0_data_lattice0_0_split
I0801 16:18:22.578589  5218 net.cpp:129] Top shape: 9 3 1 8192 (221184)
I0801 16:18:22.578598  5218 net.cpp:129] Top shape: 9 3 1 8192 (221184)
I0801 16:18:22.578605  5218 net.cpp:137] Memory required for data: 38928384
I0801 16:18:22.578611  5218 layer_factory.hpp:77] Creating layer fconv1
I0801 16:18:22.578637  5218 net.cpp:84] Creating Layer fconv1
I0801 16:18:22.578650  5218 net.cpp:406] fconv1 <- data_lattice0_data_lattice0_0_split_0
I0801 16:18:22.578665  5218 net.cpp:380] fconv1 -> fconv1
I0801 16:18:22.582396  5218 net.cpp:122] Setting up fconv1
I0801 16:18:22.582427  5218 net.cpp:129] Top shape: 9 3 1 8192 (221184)
I0801 16:18:22.582437  5218 net.cpp:137] Memory required for data: 39813120
I0801 16:18:22.582464  5218 layer_factory.hpp:77] Creating layer fbn1
I0801 16:18:22.582490  5218 net.cpp:84] Creating Layer fbn1
I0801 16:18:22.582499  5218 net.cpp:406] fbn1 <- fconv1
I0801 16:18:22.582512  5218 net.cpp:380] fbn1 -> fbn1
I0801 16:18:22.582901  5218 net.cpp:122] Setting up fbn1
I0801 16:18:22.582922  5218 net.cpp:129] Top shape: 9 3 1 8192 (221184)
I0801 16:18:22.582929  5218 net.cpp:137] Memory required for data: 40697856
I0801 16:18:22.582950  5218 layer_factory.hpp:77] Creating layer frelu1
I0801 16:18:22.582962  5218 net.cpp:84] Creating Layer frelu1
I0801 16:18:22.582969  5218 net.cpp:406] frelu1 <- fbn1
I0801 16:18:22.582979  5218 net.cpp:367] frelu1 -> fbn1 (in-place)
I0801 16:18:22.583542  5218 net.cpp:122] Setting up frelu1
I0801 16:18:22.583564  5218 net.cpp:129] Top shape: 9 3 1 8192 (221184)
I0801 16:18:22.583573  5218 net.cpp:137] Memory required for data: 41582592
I0801 16:18:22.583580  5218 layer_factory.hpp:77] Creating layer feat1
I0801 16:18:22.583640  5218 net.cpp:84] Creating Layer feat1
I0801 16:18:22.583657  5218 net.cpp:406] feat1 <- data_lattice0_data_lattice0_0_split_1
I0801 16:18:22.583667  5218 net.cpp:406] feat1 <- fbn1
I0801 16:18:22.583678  5218 net.cpp:380] feat1 -> feat1
I0801 16:18:22.583801  5218 net.cpp:122] Setting up feat1
I0801 16:18:22.583820  5218 net.cpp:129] Top shape: 9 3 1 8192 (221184)
I0801 16:18:22.583827  5218 net.cpp:137] Memory required for data: 42467328
I0801 16:18:22.583834  5218 layer_factory.hpp:77] Creating layer feat1_feat1_0_split
I0801 16:18:22.583845  5218 net.cpp:84] Creating Layer feat1_feat1_0_split
I0801 16:18:22.583853  5218 net.cpp:406] feat1_feat1_0_split <- feat1
I0801 16:18:22.583864  5218 net.cpp:380] feat1_feat1_0_split -> feat1_feat1_0_split_0
I0801 16:18:22.583878  5218 net.cpp:380] feat1_feat1_0_split -> feat1_feat1_0_split_1
I0801 16:18:22.583945  5218 net.cpp:122] Setting up feat1_feat1_0_split
I0801 16:18:22.583958  5218 net.cpp:129] Top shape: 9 3 1 8192 (221184)
I0801 16:18:22.583966  5218 net.cpp:129] Top shape: 9 3 1 8192 (221184)
I0801 16:18:22.583972  5218 net.cpp:137] Memory required for data: 44236800
I0801 16:18:22.583978  5218 layer_factory.hpp:77] Creating layer conv2
I0801 16:18:22.584031  5218 net.cpp:84] Creating Layer conv2
I0801 16:18:22.584046  5218 net.cpp:406] conv2 <- bn1
I0801 16:18:22.584055  5218 net.cpp:406] conv2 <- feat1_feat1_0_split_0
I0801 16:18:22.584064  5218 net.cpp:406] conv2 <- feat1_feat1_0_split_1
I0801 16:18:22.584075  5218 net.cpp:380] conv2 -> conv2
I0801 16:18:22.608876  5218 net.cpp:122] Setting up conv2
I0801 16:18:22.608911  5218 net.cpp:129] Top shape: 9 64 1 8192 (4718592)
I0801 16:18:22.608919  5218 net.cpp:137] Memory required for data: 63111168
I0801 16:18:22.608950  5218 layer_factory.hpp:77] Creating layer bn2
I0801 16:18:22.608968  5218 net.cpp:84] Creating Layer bn2
I0801 16:18:22.608978  5218 net.cpp:406] bn2 <- conv2
I0801 16:18:22.608990  5218 net.cpp:380] bn2 -> bn2
I0801 16:18:22.609438  5218 net.cpp:122] Setting up bn2
I0801 16:18:22.609455  5218 net.cpp:129] Top shape: 9 64 1 8192 (4718592)
I0801 16:18:22.609468  5218 net.cpp:137] Memory required for data: 81985536
I0801 16:18:22.609483  5218 layer_factory.hpp:77] Creating layer relu2
I0801 16:18:22.609498  5218 net.cpp:84] Creating Layer relu2
I0801 16:18:22.609504  5218 net.cpp:406] relu2 <- bn2
I0801 16:18:22.609513  5218 net.cpp:367] relu2 -> bn2 (in-place)
I0801 16:18:22.610848  5218 net.cpp:122] Setting up relu2
I0801 16:18:22.610883  5218 net.cpp:129] Top shape: 9 64 1 8192 (4718592)
I0801 16:18:22.610893  5218 net.cpp:137] Memory required for data: 100859904
I0801 16:18:22.610900  5218 layer_factory.hpp:77] Creating layer bn2_relu2_0_split
I0801 16:18:22.610913  5218 net.cpp:84] Creating Layer bn2_relu2_0_split
I0801 16:18:22.610921  5218 net.cpp:406] bn2_relu2_0_split <- bn2
I0801 16:18:22.610949  5218 net.cpp:380] bn2_relu2_0_split -> bn2_relu2_0_split_0
I0801 16:18:22.610965  5218 net.cpp:380] bn2_relu2_0_split -> bn2_relu2_0_split_1
I0801 16:18:22.611043  5218 net.cpp:122] Setting up bn2_relu2_0_split
I0801 16:18:22.611058  5218 net.cpp:129] Top shape: 9 64 1 8192 (4718592)
I0801 16:18:22.611068  5218 net.cpp:129] Top shape: 9 64 1 8192 (4718592)
I0801 16:18:22.611073  5218 net.cpp:137] Memory required for data: 138608640
I0801 16:18:22.611079  5218 layer_factory.hpp:77] Creating layer data_lattice1
I0801 16:18:22.611179  5218 net.cpp:84] Creating Layer data_lattice1
I0801 16:18:22.611197  5218 net.cpp:406] data_lattice1 <- data_data_0_split_2
I0801 16:18:22.611212  5218 net.cpp:380] data_lattice1 -> data_lattice1
I0801 16:18:22.611485  5218 net.cpp:122] Setting up data_lattice1
I0801 16:18:22.611508  5218 net.cpp:129] Top shape: 9 3 1 8192 (221184)
I0801 16:18:22.611515  5218 net.cpp:137] Memory required for data: 139493376
I0801 16:18:22.611523  5218 layer_factory.hpp:77] Creating layer data_lattice1_data_lattice1_0_split
I0801 16:18:22.611534  5218 net.cpp:84] Creating Layer data_lattice1_data_lattice1_0_split
I0801 16:18:22.611542  5218 net.cpp:406] data_lattice1_data_lattice1_0_split <- data_lattice1
I0801 16:18:22.611554  5218 net.cpp:380] data_lattice1_data_lattice1_0_split -> data_lattice1_data_lattice1_0_split_0
I0801 16:18:22.611568  5218 net.cpp:380] data_lattice1_data_lattice1_0_split -> data_lattice1_data_lattice1_0_split_1
I0801 16:18:22.611634  5218 net.cpp:122] Setting up data_lattice1_data_lattice1_0_split
I0801 16:18:22.611649  5218 net.cpp:129] Top shape: 9 3 1 8192 (221184)
I0801 16:18:22.611656  5218 net.cpp:129] Top shape: 9 3 1 8192 (221184)
I0801 16:18:22.611662  5218 net.cpp:137] Memory required for data: 141262848
I0801 16:18:22.611668  5218 layer_factory.hpp:77] Creating layer fconv2
I0801 16:18:22.611685  5218 net.cpp:84] Creating Layer fconv2
I0801 16:18:22.611693  5218 net.cpp:406] fconv2 <- data_lattice1_data_lattice1_0_split_0
I0801 16:18:22.611706  5218 net.cpp:380] fconv2 -> fconv2
I0801 16:18:22.614568  5218 net.cpp:122] Setting up fconv2
I0801 16:18:22.614598  5218 net.cpp:129] Top shape: 9 3 1 8192 (221184)
I0801 16:18:22.614608  5218 net.cpp:137] Memory required for data: 142147584
I0801 16:18:22.614629  5218 layer_factory.hpp:77] Creating layer fbn2
I0801 16:18:22.614641  5218 net.cpp:84] Creating Layer fbn2
I0801 16:18:22.614650  5218 net.cpp:406] fbn2 <- fconv2
I0801 16:18:22.614662  5218 net.cpp:380] fbn2 -> fbn2
I0801 16:18:22.615059  5218 net.cpp:122] Setting up fbn2
I0801 16:18:22.615074  5218 net.cpp:129] Top shape: 9 3 1 8192 (221184)
I0801 16:18:22.615084  5218 net.cpp:137] Memory required for data: 143032320
I0801 16:18:22.615099  5218 layer_factory.hpp:77] Creating layer frelu2
I0801 16:18:22.615145  5218 net.cpp:84] Creating Layer frelu2
I0801 16:18:22.615156  5218 net.cpp:406] frelu2 <- fbn2
I0801 16:18:22.615167  5218 net.cpp:367] frelu2 -> fbn2 (in-place)
I0801 16:18:22.615725  5218 net.cpp:122] Setting up frelu2
I0801 16:18:22.615752  5218 net.cpp:129] Top shape: 9 3 1 8192 (221184)
I0801 16:18:22.615761  5218 net.cpp:137] Memory required for data: 143917056
I0801 16:18:22.615768  5218 layer_factory.hpp:77] Creating layer feat2
I0801 16:18:22.615782  5218 net.cpp:84] Creating Layer feat2
I0801 16:18:22.615789  5218 net.cpp:406] feat2 <- data_lattice1_data_lattice1_0_split_1
I0801 16:18:22.615799  5218 net.cpp:406] feat2 <- fbn2
I0801 16:18:22.615809  5218 net.cpp:380] feat2 -> feat2
I0801 16:18:22.615860  5218 net.cpp:122] Setting up feat2
I0801 16:18:22.615875  5218 net.cpp:129] Top shape: 9 3 1 8192 (221184)
I0801 16:18:22.615880  5218 net.cpp:137] Memory required for data: 144801792
I0801 16:18:22.615886  5218 layer_factory.hpp:77] Creating layer feat2_feat2_0_split
I0801 16:18:22.615896  5218 net.cpp:84] Creating Layer feat2_feat2_0_split
I0801 16:18:22.615903  5218 net.cpp:406] feat2_feat2_0_split <- feat2
I0801 16:18:22.615913  5218 net.cpp:380] feat2_feat2_0_split -> feat2_feat2_0_split_0
I0801 16:18:22.615926  5218 net.cpp:380] feat2_feat2_0_split -> feat2_feat2_0_split_1
I0801 16:18:22.615998  5218 net.cpp:122] Setting up feat2_feat2_0_split
I0801 16:18:22.616010  5218 net.cpp:129] Top shape: 9 3 1 8192 (221184)
I0801 16:18:22.616020  5218 net.cpp:129] Top shape: 9 3 1 8192 (221184)
I0801 16:18:22.616025  5218 net.cpp:137] Memory required for data: 146571264
I0801 16:18:22.616032  5218 layer_factory.hpp:77] Creating layer conv3
I0801 16:18:22.616045  5218 net.cpp:84] Creating Layer conv3
I0801 16:18:22.616052  5218 net.cpp:406] conv3 <- bn2_relu2_0_split_0
I0801 16:18:22.616061  5218 net.cpp:406] conv3 <- feat2_feat2_0_split_0
I0801 16:18:22.616070  5218 net.cpp:406] conv3 <- feat2_feat2_0_split_1
I0801 16:18:22.616081  5218 net.cpp:380] conv3 -> conv3
I0801 16:18:22.648792  5218 net.cpp:122] Setting up conv3
I0801 16:18:22.648820  5218 net.cpp:129] Top shape: 9 128 1 8192 (9437184)
I0801 16:18:22.648829  5218 net.cpp:137] Memory required for data: 184320000
I0801 16:18:22.648841  5218 layer_factory.hpp:77] Creating layer bn3
I0801 16:18:22.648865  5218 net.cpp:84] Creating Layer bn3
I0801 16:18:22.648872  5218 net.cpp:406] bn3 <- conv3
I0801 16:18:22.648882  5218 net.cpp:380] bn3 -> bn3
I0801 16:18:22.649232  5218 net.cpp:122] Setting up bn3
I0801 16:18:22.649246  5218 net.cpp:129] Top shape: 9 128 1 8192 (9437184)
I0801 16:18:22.649251  5218 net.cpp:137] Memory required for data: 222068736
I0801 16:18:22.649263  5218 layer_factory.hpp:77] Creating layer relu3
I0801 16:18:22.649281  5218 net.cpp:84] Creating Layer relu3
I0801 16:18:22.649286  5218 net.cpp:406] relu3 <- bn3
I0801 16:18:22.649294  5218 net.cpp:367] relu3 -> bn3 (in-place)
I0801 16:18:22.650261  5218 net.cpp:122] Setting up relu3
I0801 16:18:22.650291  5218 net.cpp:129] Top shape: 9 128 1 8192 (9437184)
I0801 16:18:22.650298  5218 net.cpp:137] Memory required for data: 259817472
I0801 16:18:22.650305  5218 layer_factory.hpp:77] Creating layer bn3_relu3_0_split
I0801 16:18:22.650315  5218 net.cpp:84] Creating Layer bn3_relu3_0_split
I0801 16:18:22.650321  5218 net.cpp:406] bn3_relu3_0_split <- bn3
I0801 16:18:22.650331  5218 net.cpp:380] bn3_relu3_0_split -> bn3_relu3_0_split_0
I0801 16:18:22.650341  5218 net.cpp:380] bn3_relu3_0_split -> bn3_relu3_0_split_1
I0801 16:18:22.650403  5218 net.cpp:122] Setting up bn3_relu3_0_split
I0801 16:18:22.650415  5218 net.cpp:129] Top shape: 9 128 1 8192 (9437184)
I0801 16:18:22.650422  5218 net.cpp:129] Top shape: 9 128 1 8192 (9437184)
I0801 16:18:22.650426  5218 net.cpp:137] Memory required for data: 335314944
I0801 16:18:22.650431  5218 layer_factory.hpp:77] Creating layer data_lattice2
I0801 16:18:22.650480  5218 net.cpp:84] Creating Layer data_lattice2
I0801 16:18:22.650491  5218 net.cpp:406] data_lattice2 <- data_data_0_split_3
I0801 16:18:22.650502  5218 net.cpp:380] data_lattice2 -> data_lattice2
I0801 16:18:22.652320  5218 net.cpp:122] Setting up data_lattice2
I0801 16:18:22.652348  5218 net.cpp:129] Top shape: 9 3 1 8192 (221184)
I0801 16:18:22.652355  5218 net.cpp:137] Memory required for data: 336199680
I0801 16:18:22.652361  5218 layer_factory.hpp:77] Creating layer data_lattice2_data_lattice2_0_split
I0801 16:18:22.652380  5218 net.cpp:84] Creating Layer data_lattice2_data_lattice2_0_split
I0801 16:18:22.652386  5218 net.cpp:406] data_lattice2_data_lattice2_0_split <- data_lattice2
I0801 16:18:22.652397  5218 net.cpp:380] data_lattice2_data_lattice2_0_split -> data_lattice2_data_lattice2_0_split_0
I0801 16:18:22.652410  5218 net.cpp:380] data_lattice2_data_lattice2_0_split -> data_lattice2_data_lattice2_0_split_1
I0801 16:18:22.652467  5218 net.cpp:122] Setting up data_lattice2_data_lattice2_0_split
I0801 16:18:22.652478  5218 net.cpp:129] Top shape: 9 3 1 8192 (221184)
I0801 16:18:22.652485  5218 net.cpp:129] Top shape: 9 3 1 8192 (221184)
I0801 16:18:22.652489  5218 net.cpp:137] Memory required for data: 337969152
I0801 16:18:22.652494  5218 layer_factory.hpp:77] Creating layer fconv3
I0801 16:18:22.652516  5218 net.cpp:84] Creating Layer fconv3
I0801 16:18:22.652525  5218 net.cpp:406] fconv3 <- data_lattice2_data_lattice2_0_split_0
I0801 16:18:22.652545  5218 net.cpp:380] fconv3 -> fconv3
I0801 16:18:22.655148  5218 net.cpp:122] Setting up fconv3
I0801 16:18:22.655177  5218 net.cpp:129] Top shape: 9 3 1 8192 (221184)
I0801 16:18:22.655184  5218 net.cpp:137] Memory required for data: 338853888
I0801 16:18:22.655195  5218 layer_factory.hpp:77] Creating layer fbn3
I0801 16:18:22.655211  5218 net.cpp:84] Creating Layer fbn3
I0801 16:18:22.655218  5218 net.cpp:406] fbn3 <- fconv3
I0801 16:18:22.655228  5218 net.cpp:380] fbn3 -> fbn3
I0801 16:18:22.655550  5218 net.cpp:122] Setting up fbn3
I0801 16:18:22.655562  5218 net.cpp:129] Top shape: 9 3 1 8192 (221184)
I0801 16:18:22.655568  5218 net.cpp:137] Memory required for data: 339738624
I0801 16:18:22.655580  5218 layer_factory.hpp:77] Creating layer frelu3
I0801 16:18:22.655588  5218 net.cpp:84] Creating Layer frelu3
I0801 16:18:22.655594  5218 net.cpp:406] frelu3 <- fbn3
I0801 16:18:22.655602  5218 net.cpp:367] frelu3 -> fbn3 (in-place)
I0801 16:18:22.656041  5218 net.cpp:122] Setting up frelu3
I0801 16:18:22.656059  5218 net.cpp:129] Top shape: 9 3 1 8192 (221184)
I0801 16:18:22.656071  5218 net.cpp:137] Memory required for data: 340623360
I0801 16:18:22.656090  5218 layer_factory.hpp:77] Creating layer feat3
I0801 16:18:22.656101  5218 net.cpp:84] Creating Layer feat3
I0801 16:18:22.656107  5218 net.cpp:406] feat3 <- data_lattice2_data_lattice2_0_split_1
I0801 16:18:22.656122  5218 net.cpp:406] feat3 <- fbn3
I0801 16:18:22.656133  5218 net.cpp:380] feat3 -> feat3
I0801 16:18:22.656177  5218 net.cpp:122] Setting up feat3
I0801 16:18:22.656188  5218 net.cpp:129] Top shape: 9 3 1 8192 (221184)
I0801 16:18:22.656193  5218 net.cpp:137] Memory required for data: 341508096
I0801 16:18:22.656198  5218 layer_factory.hpp:77] Creating layer feat3_feat3_0_split
I0801 16:18:22.656208  5218 net.cpp:84] Creating Layer feat3_feat3_0_split
I0801 16:18:22.656213  5218 net.cpp:406] feat3_feat3_0_split <- feat3
I0801 16:18:22.656221  5218 net.cpp:380] feat3_feat3_0_split -> feat3_feat3_0_split_0
I0801 16:18:22.656231  5218 net.cpp:380] feat3_feat3_0_split -> feat3_feat3_0_split_1
I0801 16:18:22.656283  5218 net.cpp:122] Setting up feat3_feat3_0_split
I0801 16:18:22.656294  5218 net.cpp:129] Top shape: 9 3 1 8192 (221184)
I0801 16:18:22.656301  5218 net.cpp:129] Top shape: 9 3 1 8192 (221184)
I0801 16:18:22.656304  5218 net.cpp:137] Memory required for data: 343277568
I0801 16:18:22.656309  5218 layer_factory.hpp:77] Creating layer conv4
I0801 16:18:22.656328  5218 net.cpp:84] Creating Layer conv4
I0801 16:18:22.656335  5218 net.cpp:406] conv4 <- bn3_relu3_0_split_0
I0801 16:18:22.656343  5218 net.cpp:406] conv4 <- feat3_feat3_0_split_0
I0801 16:18:22.656349  5218 net.cpp:406] conv4 <- feat3_feat3_0_split_1
I0801 16:18:22.656359  5218 net.cpp:380] conv4 -> conv4
I0801 16:18:22.745801  5218 net.cpp:122] Setting up conv4
I0801 16:18:22.745833  5218 net.cpp:129] Top shape: 9 256 1 8192 (18874368)
I0801 16:18:22.745841  5218 net.cpp:137] Memory required for data: 418775040
I0801 16:18:22.745851  5218 layer_factory.hpp:77] Creating layer bn4
I0801 16:18:22.745860  5218 net.cpp:84] Creating Layer bn4
I0801 16:18:22.745867  5218 net.cpp:406] bn4 <- conv4
I0801 16:18:22.745875  5218 net.cpp:380] bn4 -> bn4
I0801 16:18:22.746112  5218 net.cpp:122] Setting up bn4
I0801 16:18:22.746127  5218 net.cpp:129] Top shape: 9 256 1 8192 (18874368)
I0801 16:18:22.746131  5218 net.cpp:137] Memory required for data: 494272512
I0801 16:18:22.746165  5218 layer_factory.hpp:77] Creating layer relu4
I0801 16:18:22.746176  5218 net.cpp:84] Creating Layer relu4
I0801 16:18:22.746181  5218 net.cpp:406] relu4 <- bn4
I0801 16:18:22.746186  5218 net.cpp:367] relu4 -> bn4 (in-place)
I0801 16:18:22.747052  5218 net.cpp:122] Setting up relu4
I0801 16:18:22.747069  5218 net.cpp:129] Top shape: 9 256 1 8192 (18874368)
I0801 16:18:22.747074  5218 net.cpp:137] Memory required for data: 569769984
I0801 16:18:22.747079  5218 layer_factory.hpp:77] Creating layer bn4_relu4_0_split
I0801 16:18:22.747087  5218 net.cpp:84] Creating Layer bn4_relu4_0_split
I0801 16:18:22.747090  5218 net.cpp:406] bn4_relu4_0_split <- bn4
I0801 16:18:22.747098  5218 net.cpp:380] bn4_relu4_0_split -> bn4_relu4_0_split_0
I0801 16:18:22.747107  5218 net.cpp:380] bn4_relu4_0_split -> bn4_relu4_0_split_1
I0801 16:18:22.747160  5218 net.cpp:122] Setting up bn4_relu4_0_split
I0801 16:18:22.747169  5218 net.cpp:129] Top shape: 9 256 1 8192 (18874368)
I0801 16:18:22.747172  5218 net.cpp:129] Top shape: 9 256 1 8192 (18874368)
I0801 16:18:22.747176  5218 net.cpp:137] Memory required for data: 720764928
I0801 16:18:22.747179  5218 layer_factory.hpp:77] Creating layer data_lattice3
I0801 16:18:22.747248  5218 net.cpp:84] Creating Layer data_lattice3
I0801 16:18:22.747259  5218 net.cpp:406] data_lattice3 <- data_data_0_split_4
I0801 16:18:22.747269  5218 net.cpp:380] data_lattice3 -> data_lattice3
I0801 16:18:22.747505  5218 net.cpp:122] Setting up data_lattice3
I0801 16:18:22.747520  5218 net.cpp:129] Top shape: 9 3 1 8192 (221184)
I0801 16:18:22.747524  5218 net.cpp:137] Memory required for data: 721649664
I0801 16:18:22.747529  5218 layer_factory.hpp:77] Creating layer data_lattice3_data_lattice3_0_split
I0801 16:18:22.747535  5218 net.cpp:84] Creating Layer data_lattice3_data_lattice3_0_split
I0801 16:18:22.747539  5218 net.cpp:406] data_lattice3_data_lattice3_0_split <- data_lattice3
I0801 16:18:22.747546  5218 net.cpp:380] data_lattice3_data_lattice3_0_split -> data_lattice3_data_lattice3_0_split_0
I0801 16:18:22.747555  5218 net.cpp:380] data_lattice3_data_lattice3_0_split -> data_lattice3_data_lattice3_0_split_1
I0801 16:18:22.747596  5218 net.cpp:122] Setting up data_lattice3_data_lattice3_0_split
I0801 16:18:22.747604  5218 net.cpp:129] Top shape: 9 3 1 8192 (221184)
I0801 16:18:22.747608  5218 net.cpp:129] Top shape: 9 3 1 8192 (221184)
I0801 16:18:22.747612  5218 net.cpp:137] Memory required for data: 723419136
I0801 16:18:22.747624  5218 layer_factory.hpp:77] Creating layer fconv4
I0801 16:18:22.747635  5218 net.cpp:84] Creating Layer fconv4
I0801 16:18:22.747640  5218 net.cpp:406] fconv4 <- data_lattice3_data_lattice3_0_split_0
I0801 16:18:22.747648  5218 net.cpp:380] fconv4 -> fconv4
I0801 16:18:22.749341  5218 net.cpp:122] Setting up fconv4
I0801 16:18:22.749359  5218 net.cpp:129] Top shape: 9 3 1 8192 (221184)
I0801 16:18:22.749364  5218 net.cpp:137] Memory required for data: 724303872
I0801 16:18:22.749372  5218 layer_factory.hpp:77] Creating layer fbn4
I0801 16:18:22.749380  5218 net.cpp:84] Creating Layer fbn4
I0801 16:18:22.749384  5218 net.cpp:406] fbn4 <- fconv4
I0801 16:18:22.749392  5218 net.cpp:380] fbn4 -> fbn4
I0801 16:18:22.749634  5218 net.cpp:122] Setting up fbn4
I0801 16:18:22.749644  5218 net.cpp:129] Top shape: 9 3 1 8192 (221184)
I0801 16:18:22.749647  5218 net.cpp:137] Memory required for data: 725188608
I0801 16:18:22.749655  5218 layer_factory.hpp:77] Creating layer frelu4
I0801 16:18:22.749671  5218 net.cpp:84] Creating Layer frelu4
I0801 16:18:22.749676  5218 net.cpp:406] frelu4 <- fbn4
I0801 16:18:22.749682  5218 net.cpp:367] frelu4 -> fbn4 (in-place)
I0801 16:18:22.750007  5218 net.cpp:122] Setting up frelu4
I0801 16:18:22.750021  5218 net.cpp:129] Top shape: 9 3 1 8192 (221184)
I0801 16:18:22.750025  5218 net.cpp:137] Memory required for data: 726073344
I0801 16:18:22.750033  5218 layer_factory.hpp:77] Creating layer feat4
I0801 16:18:22.750042  5218 net.cpp:84] Creating Layer feat4
I0801 16:18:22.750046  5218 net.cpp:406] feat4 <- data_lattice3_data_lattice3_0_split_1
I0801 16:18:22.750052  5218 net.cpp:406] feat4 <- fbn4
I0801 16:18:22.750059  5218 net.cpp:380] feat4 -> feat4
I0801 16:18:22.750092  5218 net.cpp:122] Setting up feat4
I0801 16:18:22.750097  5218 net.cpp:129] Top shape: 9 3 1 8192 (221184)
I0801 16:18:22.750102  5218 net.cpp:137] Memory required for data: 726958080
I0801 16:18:22.750113  5218 layer_factory.hpp:77] Creating layer feat4_feat4_0_split
I0801 16:18:22.750126  5218 net.cpp:84] Creating Layer feat4_feat4_0_split
I0801 16:18:22.750131  5218 net.cpp:406] feat4_feat4_0_split <- feat4
I0801 16:18:22.750138  5218 net.cpp:380] feat4_feat4_0_split -> feat4_feat4_0_split_0
I0801 16:18:22.750145  5218 net.cpp:380] feat4_feat4_0_split -> feat4_feat4_0_split_1
I0801 16:18:22.750187  5218 net.cpp:122] Setting up feat4_feat4_0_split
I0801 16:18:22.750195  5218 net.cpp:129] Top shape: 9 3 1 8192 (221184)
I0801 16:18:22.750200  5218 net.cpp:129] Top shape: 9 3 1 8192 (221184)
I0801 16:18:22.750203  5218 net.cpp:137] Memory required for data: 728727552
I0801 16:18:22.750207  5218 layer_factory.hpp:77] Creating layer conv5
I0801 16:18:22.750216  5218 net.cpp:84] Creating Layer conv5
I0801 16:18:22.750221  5218 net.cpp:406] conv5 <- bn4_relu4_0_split_0
I0801 16:18:22.750226  5218 net.cpp:406] conv5 <- feat4_feat4_0_split_0
I0801 16:18:22.750231  5218 net.cpp:406] conv5 <- feat4_feat4_0_split_1
I0801 16:18:22.750238  5218 net.cpp:380] conv5 -> conv5
I0801 16:18:22.909512  5218 net.cpp:122] Setting up conv5
I0801 16:18:22.909545  5218 net.cpp:129] Top shape: 9 256 1 8192 (18874368)
I0801 16:18:22.909550  5218 net.cpp:137] Memory required for data: 804225024
I0801 16:18:22.909560  5218 layer_factory.hpp:77] Creating layer bn5
I0801 16:18:22.909569  5218 net.cpp:84] Creating Layer bn5
I0801 16:18:22.909577  5218 net.cpp:406] bn5 <- conv5
I0801 16:18:22.909585  5218 net.cpp:380] bn5 -> bn5
I0801 16:18:22.909822  5218 net.cpp:122] Setting up bn5
I0801 16:18:22.909832  5218 net.cpp:129] Top shape: 9 256 1 8192 (18874368)
I0801 16:18:22.909837  5218 net.cpp:137] Memory required for data: 879722496
I0801 16:18:22.909844  5218 layer_factory.hpp:77] Creating layer relu5
I0801 16:18:22.909863  5218 net.cpp:84] Creating Layer relu5
I0801 16:18:22.909868  5218 net.cpp:406] relu5 <- bn5
I0801 16:18:22.909874  5218 net.cpp:367] relu5 -> bn5 (in-place)
I0801 16:18:22.910738  5218 net.cpp:122] Setting up relu5
I0801 16:18:22.910755  5218 net.cpp:129] Top shape: 9 256 1 8192 (18874368)
I0801 16:18:22.910760  5218 net.cpp:137] Memory required for data: 955219968
I0801 16:18:22.910764  5218 layer_factory.hpp:77] Creating layer bn5_relu5_0_split
I0801 16:18:22.910773  5218 net.cpp:84] Creating Layer bn5_relu5_0_split
I0801 16:18:22.910778  5218 net.cpp:406] bn5_relu5_0_split <- bn5
I0801 16:18:22.910784  5218 net.cpp:380] bn5_relu5_0_split -> bn5_relu5_0_split_0
I0801 16:18:22.910792  5218 net.cpp:380] bn5_relu5_0_split -> bn5_relu5_0_split_1
I0801 16:18:22.910840  5218 net.cpp:122] Setting up bn5_relu5_0_split
I0801 16:18:22.910845  5218 net.cpp:129] Top shape: 9 256 1 8192 (18874368)
I0801 16:18:22.910851  5218 net.cpp:129] Top shape: 9 256 1 8192 (18874368)
I0801 16:18:22.910853  5218 net.cpp:137] Memory required for data: 1106214912
I0801 16:18:22.910857  5218 layer_factory.hpp:77] Creating layer data_lattice4
I0801 16:18:22.910909  5218 net.cpp:84] Creating Layer data_lattice4
I0801 16:18:22.910919  5218 net.cpp:406] data_lattice4 <- data_data_0_split_5
I0801 16:18:22.910928  5218 net.cpp:380] data_lattice4 -> data_lattice4
I0801 16:18:22.912416  5218 net.cpp:122] Setting up data_lattice4
I0801 16:18:22.912434  5218 net.cpp:129] Top shape: 9 3 1 8192 (221184)
I0801 16:18:22.912438  5218 net.cpp:137] Memory required for data: 1107099648
I0801 16:18:22.912443  5218 layer_factory.hpp:77] Creating layer data_lattice4_data_lattice4_0_split
I0801 16:18:22.912451  5218 net.cpp:84] Creating Layer data_lattice4_data_lattice4_0_split
I0801 16:18:22.912456  5218 net.cpp:406] data_lattice4_data_lattice4_0_split <- data_lattice4
I0801 16:18:22.912463  5218 net.cpp:380] data_lattice4_data_lattice4_0_split -> data_lattice4_data_lattice4_0_split_0
I0801 16:18:22.912472  5218 net.cpp:380] data_lattice4_data_lattice4_0_split -> data_lattice4_data_lattice4_0_split_1
I0801 16:18:22.912515  5218 net.cpp:122] Setting up data_lattice4_data_lattice4_0_split
I0801 16:18:22.912521  5218 net.cpp:129] Top shape: 9 3 1 8192 (221184)
I0801 16:18:22.912526  5218 net.cpp:129] Top shape: 9 3 1 8192 (221184)
I0801 16:18:22.912529  5218 net.cpp:137] Memory required for data: 1108869120
I0801 16:18:22.912533  5218 layer_factory.hpp:77] Creating layer fconv5
I0801 16:18:22.912554  5218 net.cpp:84] Creating Layer fconv5
I0801 16:18:22.912564  5218 net.cpp:406] fconv5 <- data_lattice4_data_lattice4_0_split_0
I0801 16:18:22.912572  5218 net.cpp:380] fconv5 -> fconv5
I0801 16:18:22.914317  5218 net.cpp:122] Setting up fconv5
I0801 16:18:22.914338  5218 net.cpp:129] Top shape: 9 3 1 8192 (221184)
I0801 16:18:22.914343  5218 net.cpp:137] Memory required for data: 1109753856
I0801 16:18:22.914352  5218 layer_factory.hpp:77] Creating layer fbn5
I0801 16:18:22.914361  5218 net.cpp:84] Creating Layer fbn5
I0801 16:18:22.914364  5218 net.cpp:406] fbn5 <- fconv5
I0801 16:18:22.914371  5218 net.cpp:380] fbn5 -> fbn5
I0801 16:18:22.914608  5218 net.cpp:122] Setting up fbn5
I0801 16:18:22.914618  5218 net.cpp:129] Top shape: 9 3 1 8192 (221184)
I0801 16:18:22.914621  5218 net.cpp:137] Memory required for data: 1110638592
I0801 16:18:22.914630  5218 layer_factory.hpp:77] Creating layer frelu5
I0801 16:18:22.914636  5218 net.cpp:84] Creating Layer frelu5
I0801 16:18:22.914640  5218 net.cpp:406] frelu5 <- fbn5
I0801 16:18:22.914646  5218 net.cpp:367] frelu5 -> fbn5 (in-place)
I0801 16:18:22.915343  5218 net.cpp:122] Setting up frelu5
I0801 16:18:22.915359  5218 net.cpp:129] Top shape: 9 3 1 8192 (221184)
I0801 16:18:22.915364  5218 net.cpp:137] Memory required for data: 1111523328
I0801 16:18:22.915369  5218 layer_factory.hpp:77] Creating layer feat5
I0801 16:18:22.915386  5218 net.cpp:84] Creating Layer feat5
I0801 16:18:22.915392  5218 net.cpp:406] feat5 <- data_lattice4_data_lattice4_0_split_1
I0801 16:18:22.915400  5218 net.cpp:406] feat5 <- fbn5
I0801 16:18:22.915406  5218 net.cpp:380] feat5 -> feat5
I0801 16:18:22.915441  5218 net.cpp:122] Setting up feat5
I0801 16:18:22.915452  5218 net.cpp:129] Top shape: 9 3 1 8192 (221184)
I0801 16:18:22.915455  5218 net.cpp:137] Memory required for data: 1112408064
I0801 16:18:22.915459  5218 layer_factory.hpp:77] Creating layer feat5_feat5_0_split
I0801 16:18:22.915467  5218 net.cpp:84] Creating Layer feat5_feat5_0_split
I0801 16:18:22.915470  5218 net.cpp:406] feat5_feat5_0_split <- feat5
I0801 16:18:22.915477  5218 net.cpp:380] feat5_feat5_0_split -> feat5_feat5_0_split_0
I0801 16:18:22.915483  5218 net.cpp:380] feat5_feat5_0_split -> feat5_feat5_0_split_1
I0801 16:18:22.915522  5218 net.cpp:122] Setting up feat5_feat5_0_split
I0801 16:18:22.915530  5218 net.cpp:129] Top shape: 9 3 1 8192 (221184)
I0801 16:18:22.915534  5218 net.cpp:129] Top shape: 9 3 1 8192 (221184)
I0801 16:18:22.915537  5218 net.cpp:137] Memory required for data: 1114177536
I0801 16:18:22.915541  5218 layer_factory.hpp:77] Creating layer conv6
I0801 16:18:22.915557  5218 net.cpp:84] Creating Layer conv6
I0801 16:18:22.915562  5218 net.cpp:406] conv6 <- bn5_relu5_0_split_0
I0801 16:18:22.915568  5218 net.cpp:406] conv6 <- feat5_feat5_0_split_0
I0801 16:18:22.915572  5218 net.cpp:406] conv6 <- feat5_feat5_0_split_1
I0801 16:18:22.915580  5218 net.cpp:380] conv6 -> conv6
I0801 16:18:23.075021  5218 net.cpp:122] Setting up conv6
I0801 16:18:23.075058  5218 net.cpp:129] Top shape: 9 256 1 8192 (18874368)
I0801 16:18:23.075064  5218 net.cpp:137] Memory required for data: 1189675008
I0801 16:18:23.075073  5218 layer_factory.hpp:77] Creating layer bn6
I0801 16:18:23.075083  5218 net.cpp:84] Creating Layer bn6
I0801 16:18:23.075089  5218 net.cpp:406] bn6 <- conv6
I0801 16:18:23.075098  5218 net.cpp:380] bn6 -> bn6
I0801 16:18:23.075346  5218 net.cpp:122] Setting up bn6
I0801 16:18:23.075357  5218 net.cpp:129] Top shape: 9 256 1 8192 (18874368)
I0801 16:18:23.075361  5218 net.cpp:137] Memory required for data: 1265172480
I0801 16:18:23.075371  5218 layer_factory.hpp:77] Creating layer relu6
I0801 16:18:23.075392  5218 net.cpp:84] Creating Layer relu6
I0801 16:18:23.075397  5218 net.cpp:406] relu6 <- bn6
I0801 16:18:23.075402  5218 net.cpp:367] relu6 -> bn6 (in-place)
I0801 16:18:23.075798  5218 net.cpp:122] Setting up relu6
I0801 16:18:23.075811  5218 net.cpp:129] Top shape: 9 256 1 8192 (18874368)
I0801 16:18:23.075815  5218 net.cpp:137] Memory required for data: 1340669952
I0801 16:18:23.075820  5218 layer_factory.hpp:77] Creating layer concat6
I0801 16:18:23.075857  5218 net.cpp:84] Creating Layer concat6
I0801 16:18:23.075866  5218 net.cpp:406] concat6 <- bn6
I0801 16:18:23.075872  5218 net.cpp:406] concat6 <- bn2_relu2_0_split_1
I0801 16:18:23.075878  5218 net.cpp:406] concat6 <- bn3_relu3_0_split_1
I0801 16:18:23.075882  5218 net.cpp:406] concat6 <- bn4_relu4_0_split_1
I0801 16:18:23.075886  5218 net.cpp:406] concat6 <- bn5_relu5_0_split_1
I0801 16:18:23.075893  5218 net.cpp:380] concat6 -> concat6
I0801 16:18:23.075947  5218 net.cpp:122] Setting up concat6
I0801 16:18:23.075958  5218 net.cpp:129] Top shape: 9 960 1 8192 (70778880)
I0801 16:18:23.075963  5218 net.cpp:137] Memory required for data: 1623785472
I0801 16:18:23.075975  5218 layer_factory.hpp:77] Creating layer conv7
I0801 16:18:23.075989  5218 net.cpp:84] Creating Layer conv7
I0801 16:18:23.075995  5218 net.cpp:406] conv7 <- concat6
I0801 16:18:23.076002  5218 net.cpp:380] conv7 -> conv7
I0801 16:18:23.084318  5218 net.cpp:122] Setting up conv7
I0801 16:18:23.084347  5218 net.cpp:129] Top shape: 9 128 1 8192 (9437184)
I0801 16:18:23.084352  5218 net.cpp:137] Memory required for data: 1661534208
I0801 16:18:23.084360  5218 layer_factory.hpp:77] Creating layer bn7
I0801 16:18:23.084369  5218 net.cpp:84] Creating Layer bn7
I0801 16:18:23.084374  5218 net.cpp:406] bn7 <- conv7
I0801 16:18:23.084383  5218 net.cpp:380] bn7 -> bn7
I0801 16:18:23.084645  5218 net.cpp:122] Setting up bn7
I0801 16:18:23.084655  5218 net.cpp:129] Top shape: 9 128 1 8192 (9437184)
I0801 16:18:23.084658  5218 net.cpp:137] Memory required for data: 1699282944
I0801 16:18:23.084666  5218 layer_factory.hpp:77] Creating layer relu7
I0801 16:18:23.084695  5218 net.cpp:84] Creating Layer relu7
I0801 16:18:23.084702  5218 net.cpp:406] relu7 <- bn7
I0801 16:18:23.084708  5218 net.cpp:367] relu7 -> bn7 (in-place)
I0801 16:18:23.085572  5218 net.cpp:122] Setting up relu7
I0801 16:18:23.085593  5218 net.cpp:129] Top shape: 9 128 1 8192 (9437184)
I0801 16:18:23.085597  5218 net.cpp:137] Memory required for data: 1737031680
I0801 16:18:23.085603  5218 layer_factory.hpp:77] Creating layer conv8
I0801 16:18:23.085615  5218 net.cpp:84] Creating Layer conv8
I0801 16:18:23.085620  5218 net.cpp:406] conv8 <- bn7
I0801 16:18:23.085629  5218 net.cpp:380] conv8 -> conv8
I0801 16:18:23.088706  5218 net.cpp:122] Setting up conv8
I0801 16:18:23.088723  5218 net.cpp:129] Top shape: 9 13 1 8192 (958464)
I0801 16:18:23.088728  5218 net.cpp:137] Memory required for data: 1740865536
I0801 16:18:23.088737  5218 layer_factory.hpp:77] Creating layer conv8_conv8_0_split
I0801 16:18:23.088745  5218 net.cpp:84] Creating Layer conv8_conv8_0_split
I0801 16:18:23.088752  5218 net.cpp:406] conv8_conv8_0_split <- conv8
I0801 16:18:23.088758  5218 net.cpp:380] conv8_conv8_0_split -> conv8_conv8_0_split_0
I0801 16:18:23.088768  5218 net.cpp:380] conv8_conv8_0_split -> conv8_conv8_0_split_1
I0801 16:18:23.088812  5218 net.cpp:122] Setting up conv8_conv8_0_split
I0801 16:18:23.088822  5218 net.cpp:129] Top shape: 9 13 1 8192 (958464)
I0801 16:18:23.088826  5218 net.cpp:129] Top shape: 9 13 1 8192 (958464)
I0801 16:18:23.088829  5218 net.cpp:137] Memory required for data: 1748533248
I0801 16:18:23.088834  5218 layer_factory.hpp:77] Creating layer loss
I0801 16:18:23.088887  5218 net.cpp:84] Creating Layer loss
I0801 16:18:23.088897  5218 net.cpp:406] loss <- conv8_conv8_0_split_0
I0801 16:18:23.088903  5218 net.cpp:406] loss <- label_data_1_split_0
I0801 16:18:23.088910  5218 net.cpp:380] loss -> loss
…
