…
I0817 13:20:42.873265 24806 net.cpp:294] The NetState phase (0) differed from the phase (1) specified by a rule in layer data
I0817 13:20:42.874038 24806 net.cpp:51] Initializing net from parameters: 
state {
  phase: TRAIN
}
layer {
  name: "data"
  type: "Python"
  top: "data"
  top: "label"
  include {
    phase: TRAIN
  }
  python_param {
    module: "dataset_lidar"
    layer: "InputShapenet"
    param_str: "{\'sample_size\': 4096, \'test_area\': \'6\', \'batch_size\': 12, \'feat_dims\': \'x_y_z_r_g_b\', \'subset\': \'train\', \'root\': \'../../data/shapenet_ericyi_ply\', \'jitter_xyz\': 0.01, \'jitter_stretch\': 0.05, \'jitter_rotation\': 5.0}"
  }
}
layer {
  name: "data_feat"
  type: "Python"
  bottom: "data"
  top: "data_feat"
  python_param {
    module: "custom_layers"
    layer: "PickAndScale2"
    param_str: "0_1_2"
  }
}
layer {
  name: "conv1"
  type: "Convolution"
  bottom: "data"
  top: "conv1"
  param {
    lr_mult: 1
  }
  param {
    lr_mult: 0.1
  }
  convolution_param {
    num_output: 64
    pad: 0
    kernel_size: 1
    stride: 1
    weight_filler {
      type: "xavier"
    }
    bias_filler {
      type: "constant"
      value: 0
    }
  }
}
layer {
  name: "bn1"
  type: "BatchNorm"
  bottom: "conv1"
  top: "bn1"
}
layer {
  name: "relu1"
  type: "ReLU"
  bottom: "bn1"
  top: "bn1"
}
layer {
  name: "conv1a"
  type: "Convolution"
  bottom: "bn1"
  top: "conv1a"
  param {
    lr_mult: 1
  }
  param {
    lr_mult: 0.1
  }
  convolution_param {
    num_output: 64
    pad: 0
    kernel_size: 1
    stride: 1
    weight_filler {
      type: "xavier"
    }
    bias_filler {
      type: "constant"
      value: 0
    }
  }
}
layer {
  name: "bn1a"
  type: "BatchNorm"
  bottom: "conv1a"
  top: "bn1a"
}
layer {
  name: "relu1a"
  type: "ReLU"
  bottom: "bn1a"
  top: "bn1a"
}
layer {
  name: "fconv1"
  type: "Convolution"
  bottom: "bn1a"
  top: "fconv1"
  param {
    lr_mult: 1
  }
  param {
    lr_mult: 0.1
  }
  convolution_param {
    num_output: 3
    pad: 0
    kernel_size: 1
    stride: 1
    weight_filler {
      type: "xavier"
    }
    bias_filler {
      type: "constant"
      value: 0
    }
  }
}
layer {
  name: "fconv1_"
  type: "ReLU2"
  bottom: "fconv1"
  top: "fconv1_"
  relu2_param {
    threshold: 0.2
  }
}
layer {
  name: "fconv1__"
  type: "ReLU3"
  bottom: "fconv1_"
  top: "fconv1__"
  relu2_param {
    threshold: -0.2
  }
}
layer {
  name: "feat1"
  type: "Eltwise"
  bottom: "data_feat"
  bottom: "fconv1__"
  top: "feat1"
  eltwise_param {
    operation: SUM
  }
}
layer {
  name: "data_lattice0"
  type: "Python"
  bottom: "feat1"
  top: "data_lattice0"
  python_param {
    module: "custom_layers"
    layer: "PickAndScale2"
    param_str: "0*48_1*48_2*48"
  }
}
layer {
  name: "conv2"
  type: "Permutohedral"
  bottom: "bn1a"
  bottom: "data_lattice0"
  bottom: "data_lattice0"
  top: "conv2"
  param {
    lr_mult: 1
    decay_mult: 1
  }
  param {
    lr_mult: 2
    decay_mult: 0
  }
  permutohedral_param {
    num_output: 64
    neighborhood_size: 1
    filter_filler {
      type: "gaussian"
      std: 0.001
    }
    bias_term: true
    bias_filler {
      type: "constant"
      value: 0
    }
    group: 1
    norm_type: AFTER
    offset_type: NONE
  }
}
layer {
  name: "bn2"
  type: "BatchNorm"
  bottom: "conv2"
  top: "bn2"
}
layer {
  name: "relu2"
  type: "ReLU"
  bottom: "bn2"
  top: "bn2"
}
layer {
  name: "fconv2"
  type: "Convolution"
  bottom: "bn2"
  top: "fconv2"
  param {
    lr_mult: 1
  }
  param {
    lr_mult: 0.1
  }
  convolution_param {
    num_output: 3
    pad: 0
    kernel_size: 1
    stride: 1
    weight_filler {
      type: "xavier"
    }
    bias_filler {
      type: "constant"
      value: 0
    }
  }
}
layer {
  name: "fconv2_"
  type: "ReLU2"
  bottom: "fconv2"
  top: "fconv2_"
  relu2_param {
    threshold: 0.2
  }
}
layer {
  name: "fconv2__"
  type: "ReLU3"
  bottom: "fconv2_"
  top: "fconv2__"
  relu2_param {
    threshold: -0.2
  }
}
layer {
  name: "feat2"
  type: "Eltwise"
  bottom: "data_feat"
  bottom: "fconv2__"
  top: "feat2"
  eltwise_param {
    operation: SUM
  }
}
layer {
  name: "data_lattice1"
  type: "Python"
  bottom: "feat2"
  top: "data_lattice1"
  python_param {
    module: "custom_layers"
    layer: "PickAndScale2"
    param_str: "0*24_1*24_2*24"
  }
}
layer {
  name: "conv3"
  type: "Permutohedral"
  bottom: "bn2"
  bottom: "data_lattice1"
  bottom: "data_lattice1"
  top: "conv3"
  param {
    lr_mult: 1
    decay_mult: 1
  }
  param {
    lr_mult: 2
    decay_mult: 0
  }
  permutohedral_param {
    num_output: 128
    neighborhood_size: 1
    filter_filler {
      type: "gaussian"
      std: 0.001
    }
    bias_term: true
    bias_filler {
      type: "constant"
      value: 0
    }
    group: 1
    norm_type: AFTER
    offset_type: NONE
  }
}
layer {
  name: "bn3"
  type: "BatchNorm"
  bottom: "conv3"
  top: "bn3"
}
layer {
  name: "relu3"
  type: "ReLU"
  bottom: "bn3"
  top: "bn3"
}
layer {
  name: "fconv3"
  type: "Convolution"
  bottom: "bn3"
  top: "fconv3"
  param {
    lr_mult: 1
  }
  param {
    lr_mult: 0.1
  }
  convolution_param {
    num_output: 3
    pad: 0
    kernel_size: 1
    stride: 1
    weight_filler {
      type: "xavier"
    }
    bias_filler {
      type: "constant"
      value: 0
    }
  }
}
layer {
  name: "fconv3_"
  type: "ReLU2"
  bottom: "fconv3"
  top: "fconv3_"
  relu2_param {
    threshold: 0.2
  }
}
layer {
  name: "fconv3__"
  type: "ReLU3"
  bottom: "fconv3_"
  top: "fconv3__"
  relu2_param {
    threshold: -0.2
  }
}
layer {
  name: "feat3"
  type: "Eltwise"
  bottom: "data_feat"
  bottom: "fconv3__"
  top: "feat3"
  eltwise_param {
    operation: SUM
  }
}
layer {
  name: "data_lattice2"
  type: "Python"
  bottom: "feat3"
  top: "data_lattice2"
  python_param {
    module: "custom_layers"
    layer: "PickAndScale2"
    param_str: "0*12_1*12_2*12"
  }
}
layer {
  name: "conv4"
  type: "Permutohedral"
  bottom: "bn3"
  bottom: "data_lattice2"
  bottom: "data_lattice2"
  top: "conv4"
  param {
    lr_mult: 1
    decay_mult: 1
  }
  param {
    lr_mult: 2
    decay_mult: 0
  }
  permutohedral_param {
    num_output: 256
    neighborhood_size: 1
    filter_filler {
      type: "gaussian"
      std: 0.001
    }
    bias_term: true
    bias_filler {
      type: "constant"
      value: 0
    }
    group: 1
    norm_type: AFTER
    offset_type: NONE
  }
}
layer {
  name: "bn4"
  type: "BatchNorm"
  bottom: "conv4"
  top: "bn4"
}
layer {
  name: "relu4"
  type: "ReLU"
  bottom: "bn4"
  top: "bn4"
}
layer {
  name: "fconv4"
  type: "Convolution"
  bottom: "bn4"
  top: "fconv4"
  param {
    lr_mult: 1
  }
  param {
    lr_mult: 0.1
  }
  convolution_param {
    num_output: 3
    pad: 0
    kernel_size: 1
    stride: 1
    weight_filler {
      type: "xavier"
    }
    bias_filler {
      type: "constant"
      value: 0
    }
  }
}
layer {
  name: "fconv4_"
  type: "ReLU2"
  bottom: "fconv4"
  top: "fconv4_"
  relu2_param {
    threshold: 0.2
  }
}
layer {
  name: "fconv4__"
  type: "ReLU3"
  bottom: "fconv4_"
  top: "fconv4__"
  relu2_param {
    threshold: -0.2
  }
}
layer {
  name: "feat4"
  type: "Eltwise"
  bottom: "data_feat"
  bottom: "fconv4__"
  top: "feat4"
  eltwise_param {
    operation: SUM
  }
}
layer {
  name: "data_lattice3"
  type: "Python"
  bottom: "feat4"
  top: "data_lattice3"
  python_param {
    module: "custom_layers"
    layer: "PickAndScale2"
    param_str: "0*6_1*6_2*6"
  }
}
layer {
  name: "conv5"
  type: "Permutohedral"
  bottom: "bn4"
  bottom: "data_lattice3"
  bottom: "data_lattice3"
  top: "conv5"
  param {
    lr_mult: 1
    decay_mult: 1
  }
  param {
    lr_mult: 2
    decay_mult: 0
  }
  permutohedral_param {
    num_output: 256
    neighborhood_size: 1
    filter_filler {
      type: "gaussian"
      std: 0.001
    }
    bias_term: true
    bias_filler {
      type: "constant"
      value: 0
    }
    group: 1
    norm_type: AFTER
    offset_type: NONE
  }
}
layer {
  name: "bn5"
  type: "BatchNorm"
  bottom: "conv5"
  top: "bn5"
}
layer {
  name: "relu5"
  type: "ReLU"
  bottom: "bn5"
  top: "bn5"
}
layer {
  name: "fconv5"
  type: "Convolution"
  bottom: "bn5"
  top: "fconv5"
  param {
    lr_mult: 1
  }
  param {
    lr_mult: 0.1
  }
  convolution_param {
    num_output: 3
    pad: 0
    kernel_size: 1
    stride: 1
    weight_filler {
      type: "xavier"
    }
    bias_filler {
      type: "constant"
      value: 0
    }
  }
}
layer {
  name: "fconv5_"
  type: "ReLU2"
  bottom: "fconv5"
  top: "fconv5_"
  relu2_param {
    threshold: 0.2
  }
}
layer {
  name: "fconv5__"
  type: "ReLU3"
  bottom: "fconv5_"
  top: "fconv5__"
  relu2_param {
    threshold: -0.2
  }
}
layer {
  name: "feat5"
  type: "Eltwise"
  bottom: "data_feat"
  bottom: "fconv5__"
  top: "feat5"
  eltwise_param {
    operation: SUM
  }
}
layer {
  name: "data_lattice4"
  type: "Python"
  bottom: "feat5"
  top: "data_lattice4"
  python_param {
    module: "custom_layers"
    layer: "PickAndScale2"
    param_str: "0*3_1*3_2*3"
  }
}
layer {
  name: "conv6"
  type: "Permutohedral"
  bottom: "bn5"
  bottom: "data_lattice4"
  bottom: "data_lattice4"
  top: "conv6"
  param {
    lr_mult: 1
    decay_mult: 1
  }
  param {
    lr_mult: 2
    decay_mult: 0
  }
  permutohedral_param {
    num_output: 256
    neighborhood_size: 1
    filter_filler {
      type: "gaussian"
      std: 0.001
    }
    bias_term: true
    bias_filler {
      type: "constant"
      value: 0
    }
    group: 1
    norm_type: AFTER
    offset_type: NONE
  }
}
layer {
  name: "bn6"
  type: "BatchNorm"
  bottom: "conv6"
  top: "bn6"
}
layer {
  name: "relu6"
  type: "ReLU"
  bottom: "bn6"
  top: "bn6"
}
layer {
  name: "concat6"
  type: "Concat"
  bottom: "bn6"
  bottom: "bn2"
  bottom: "bn3"
  bottom: "bn4"
  bottom: "bn5"
  top: "concat6"
}
layer {
  name: "conv7"
  type: "Convolution"
  bottom: "concat6"
  top: "conv7"
  param {
    lr_mult: 1
  }
  param {
    lr_mult: 0.1
  }
  convolution_param {
    num_output: 128
    pad: 0
    kernel_size: 1
    stride: 1
    weight_filler {
      type: "xavier"
    }
    bias_filler {
      type: "constant"
      value: 0
    }
  }
}
layer {
  name: "bn7"
  type: "BatchNorm"
  bottom: "conv7"
  top: "bn7"
}
layer {
  name: "relu7"
  type: "ReLU"
  bottom: "bn7"
  top: "bn7"
}
layer {
  name: "conv8"
  type: "Convolution"
  bottom: "bn7"
  top: "conv8"
  param {
    lr_mult: 1
  }
  param {
    lr_mult: 0.1
  }
  convolution_param {
    num_output: 13
    pad: 0
    kernel_size: 1
    stride: 1
    weight_filler {
      type: "xavier"
    }
    bias_filler {
      type: "constant"
      value: 0
    }
  }
}
layer {
  name: "loss"
  type: "SoftmaxWithLoss"
  bottom: "conv8"
  bottom: "label"
  top: "loss"
}
layer {
  name: "accuracy"
  type: "Accuracy"
  bottom: "conv8"
  bottom: "label"
  top: "accuracy"
}
I0817 13:20:42.882663 24806 layer_factory.hpp:77] Creating layer data
I0817 13:20:42.916661 24806 net.cpp:84] Creating Layer data
I0817 13:20:42.917304 24806 net.cpp:380] data -> data
I0817 13:20:42.918015 24806 net.cpp:380] data -> label
I0817 13:20:43.569351 24812 upgrade_proto.cpp:1084] Attempting to upgrade input file specified using deprecated 'solver_type' field (enum)': /mnt/lustre/wangjiayun/repos/splatnet/exp/lidar3d/area6/6_solver.prototxt
…
I0817 13:20:44.625037 24808 upgrade_proto.cpp:1084] Attempting to upgrade input file specified using deprecated 'solver_type' field (enum)': /mnt/lustre/wangjiayun/repos/splatnet/exp/lidar3d/area6/6_solver.prototxt
I0817 13:20:44.625123 24808 upgrade_proto.cpp:1091] Successfully upgraded file specified using deprecated 'solver_type' field (enum) to 'type' field (string).
W0817 13:20:44.625129 24808 upgrade_proto.cpp:1093] Note that future Caffe releases will only support 'type' field (string) for a solver's type.
I0817 13:22:02.149534 24806 net.cpp:122] Setting up data
I0817 13:22:02.149654 24806 net.cpp:129] Top shape: 12 6 1 4096 (294912)
I0817 13:22:02.149663 24806 net.cpp:129] Top shape: 12 1 1 4096 (49152)
I0817 13:22:02.149667 24806 net.cpp:137] Memory required for data: 1376256
I0817 13:22:02.149686 24806 layer_factory.hpp:77] Creating layer data_data_0_split
I0817 13:22:02.149745 24806 net.cpp:84] Creating Layer data_data_0_split
I0817 13:22:02.149755 24806 net.cpp:406] data_data_0_split <- data
I0817 13:22:02.149770 24806 net.cpp:380] data_data_0_split -> data_data_0_split_0
I0817 13:22:02.149790 24806 net.cpp:380] data_data_0_split -> data_data_0_split_1
I0817 13:22:02.149857 24806 net.cpp:122] Setting up data_data_0_split
I0817 13:22:02.149868 24806 net.cpp:129] Top shape: 12 6 1 4096 (294912)
I0817 13:22:02.149873 24806 net.cpp:129] Top shape: 12 6 1 4096 (294912)
I0817 13:22:02.149876 24806 net.cpp:137] Memory required for data: 3735552
I0817 13:22:02.149880 24806 layer_factory.hpp:77] Creating layer label_data_1_split
I0817 13:22:02.149888 24806 net.cpp:84] Creating Layer label_data_1_split
I0817 13:22:02.149904 24806 net.cpp:406] label_data_1_split <- label
I0817 13:22:02.149910 24806 net.cpp:380] label_data_1_split -> label_data_1_split_0
I0817 13:22:02.149917 24806 net.cpp:380] label_data_1_split -> label_data_1_split_1
I0817 13:22:02.149947 24806 net.cpp:122] Setting up label_data_1_split
I0817 13:22:02.149966 24806 net.cpp:129] Top shape: 12 1 1 4096 (49152)
I0817 13:22:02.149971 24806 net.cpp:129] Top shape: 12 1 1 4096 (49152)
I0817 13:22:02.149973 24806 net.cpp:137] Memory required for data: 4128768
I0817 13:22:02.149977 24806 layer_factory.hpp:77] Creating layer data_feat
I0817 13:22:02.155666 24806 net.cpp:84] Creating Layer data_feat
I0817 13:22:02.155681 24806 net.cpp:406] data_feat <- data_data_0_split_0
I0817 13:22:02.155689 24806 net.cpp:380] data_feat -> data_feat
I0817 13:22:02.157261 24806 net.cpp:122] Setting up data_feat
I0817 13:22:02.157289 24806 net.cpp:129] Top shape: 12 3 1 4096 (147456)
I0817 13:22:02.157294 24806 net.cpp:137] Memory required for data: 4718592
I0817 13:22:02.157306 24806 layer_factory.hpp:77] Creating layer data_feat_data_feat_0_split
I0817 13:22:02.157315 24806 net.cpp:84] Creating Layer data_feat_data_feat_0_split
I0817 13:22:02.157320 24806 net.cpp:406] data_feat_data_feat_0_split <- data_feat
I0817 13:22:02.157326 24806 net.cpp:380] data_feat_data_feat_0_split -> data_feat_data_feat_0_split_0
I0817 13:22:02.157333 24806 net.cpp:380] data_feat_data_feat_0_split -> data_feat_data_feat_0_split_1
I0817 13:22:02.157341 24806 net.cpp:380] data_feat_data_feat_0_split -> data_feat_data_feat_0_split_2
I0817 13:22:02.157346 24806 net.cpp:380] data_feat_data_feat_0_split -> data_feat_data_feat_0_split_3
I0817 13:22:02.157351 24806 net.cpp:380] data_feat_data_feat_0_split -> data_feat_data_feat_0_split_4
I0817 13:22:02.157414 24806 net.cpp:122] Setting up data_feat_data_feat_0_split
I0817 13:22:02.157423 24806 net.cpp:129] Top shape: 12 3 1 4096 (147456)
I0817 13:22:02.157428 24806 net.cpp:129] Top shape: 12 3 1 4096 (147456)
I0817 13:22:02.157433 24806 net.cpp:129] Top shape: 12 3 1 4096 (147456)
I0817 13:22:02.157435 24806 net.cpp:129] Top shape: 12 3 1 4096 (147456)
I0817 13:22:02.157439 24806 net.cpp:129] Top shape: 12 3 1 4096 (147456)
I0817 13:22:02.157443 24806 net.cpp:137] Memory required for data: 7667712
I0817 13:22:02.157445 24806 layer_factory.hpp:77] Creating layer conv1
I0817 13:22:02.157487 24806 net.cpp:84] Creating Layer conv1
I0817 13:22:02.157496 24806 net.cpp:406] conv1 <- data_data_0_split_1
I0817 13:22:02.157513 24806 net.cpp:380] conv1 -> conv1
I0817 13:22:06.366722 24806 net.cpp:122] Setting up conv1
I0817 13:22:06.366777 24806 net.cpp:129] Top shape: 12 64 1 4096 (3145728)
I0817 13:22:06.366789 24806 net.cpp:137] Memory required for data: 20250624
I0817 13:22:06.367094 24806 layer_factory.hpp:77] Creating layer bn1
I0817 13:22:06.367686 24806 net.cpp:84] Creating Layer bn1
I0817 13:22:06.367715 24806 net.cpp:406] bn1 <- conv1
I0817 13:22:06.367729 24806 net.cpp:380] bn1 -> bn1
I0817 13:22:06.370282 24806 net.cpp:122] Setting up bn1
I0817 13:22:06.370318 24806 net.cpp:129] Top shape: 12 64 1 4096 (3145728)
I0817 13:22:06.370327 24806 net.cpp:137] Memory required for data: 32833536
I0817 13:22:06.370349 24806 layer_factory.hpp:77] Creating layer relu1
I0817 13:22:06.371068 24806 net.cpp:84] Creating Layer relu1
I0817 13:22:06.371088 24806 net.cpp:406] relu1 <- bn1
I0817 13:22:06.371099 24806 net.cpp:367] relu1 -> bn1 (in-place)
I0817 13:22:06.372035 24806 net.cpp:122] Setting up relu1
I0817 13:22:06.372068 24806 net.cpp:129] Top shape: 12 64 1 4096 (3145728)
I0817 13:22:06.372076 24806 net.cpp:137] Memory required for data: 45416448
I0817 13:22:06.372084 24806 layer_factory.hpp:77] Creating layer conv1a
I0817 13:22:06.372109 24806 net.cpp:84] Creating Layer conv1a
I0817 13:22:06.372117 24806 net.cpp:406] conv1a <- bn1
I0817 13:22:06.372129 24806 net.cpp:380] conv1a -> conv1a
I0817 13:22:06.375573 24806 net.cpp:122] Setting up conv1a
I0817 13:22:06.375609 24806 net.cpp:129] Top shape: 12 64 1 4096 (3145728)
I0817 13:22:06.375617 24806 net.cpp:137] Memory required for data: 57999360
I0817 13:22:06.375630 24806 layer_factory.hpp:77] Creating layer bn1a
I0817 13:22:06.375643 24806 net.cpp:84] Creating Layer bn1a
I0817 13:22:06.375649 24806 net.cpp:406] bn1a <- conv1a
I0817 13:22:06.375660 24806 net.cpp:380] bn1a -> bn1a
I0817 13:22:06.376026 24806 net.cpp:122] Setting up bn1a
I0817 13:22:06.376042 24806 net.cpp:129] Top shape: 12 64 1 4096 (3145728)
I0817 13:22:06.376049 24806 net.cpp:137] Memory required for data: 70582272
I0817 13:22:06.376067 24806 layer_factory.hpp:77] Creating layer relu1a
I0817 13:22:06.376090 24806 net.cpp:84] Creating Layer relu1a
I0817 13:22:06.376099 24806 net.cpp:406] relu1a <- bn1a
I0817 13:22:06.376116 24806 net.cpp:367] relu1a -> bn1a (in-place)
I0817 13:22:06.376622 24806 net.cpp:122] Setting up relu1a
I0817 13:22:06.376649 24806 net.cpp:129] Top shape: 12 64 1 4096 (3145728)
I0817 13:22:06.376657 24806 net.cpp:137] Memory required for data: 83165184
I0817 13:22:06.376673 24806 layer_factory.hpp:77] Creating layer bn1a_relu1a_0_split
I0817 13:22:06.376685 24806 net.cpp:84] Creating Layer bn1a_relu1a_0_split
I0817 13:22:06.376691 24806 net.cpp:406] bn1a_relu1a_0_split <- bn1a
I0817 13:22:06.376701 24806 net.cpp:380] bn1a_relu1a_0_split -> bn1a_relu1a_0_split_0
I0817 13:22:06.376716 24806 net.cpp:380] bn1a_relu1a_0_split -> bn1a_relu1a_0_split_1
I0817 13:22:06.376785 24806 net.cpp:122] Setting up bn1a_relu1a_0_split
I0817 13:22:06.376799 24806 net.cpp:129] Top shape: 12 64 1 4096 (3145728)
I0817 13:22:06.376806 24806 net.cpp:129] Top shape: 12 64 1 4096 (3145728)
I0817 13:22:06.376812 24806 net.cpp:137] Memory required for data: 108331008
I0817 13:22:06.376817 24806 layer_factory.hpp:77] Creating layer fconv1
I0817 13:22:06.376833 24806 net.cpp:84] Creating Layer fconv1
I0817 13:22:06.376848 24806 net.cpp:406] fconv1 <- bn1a_relu1a_0_split_0
I0817 13:22:06.376860 24806 net.cpp:380] fconv1 -> fconv1
I0817 13:22:06.379350 24806 net.cpp:122] Setting up fconv1
I0817 13:22:06.379384 24806 net.cpp:129] Top shape: 12 3 1 4096 (147456)
I0817 13:22:06.379391 24806 net.cpp:137] Memory required for data: 108920832
I0817 13:22:06.379403 24806 layer_factory.hpp:77] Creating layer fconv1_
I0817 13:22:06.379772 24806 net.cpp:84] Creating Layer fconv1_
I0817 13:22:06.379808 24806 net.cpp:406] fconv1_ <- fconv1
I0817 13:22:06.379822 24806 net.cpp:380] fconv1_ -> fconv1_
I0817 13:22:06.379910 24806 net.cpp:122] Setting up fconv1_
I0817 13:22:06.379931 24806 net.cpp:129] Top shape: 12 3 1 4096 (147456)
I0817 13:22:06.379945 24806 net.cpp:137] Memory required for data: 109510656
I0817 13:22:06.379952 24806 layer_factory.hpp:77] Creating layer fconv1__
I0817 13:22:06.380020 24806 net.cpp:84] Creating Layer fconv1__
I0817 13:22:06.380041 24806 net.cpp:406] fconv1__ <- fconv1_
I0817 13:22:06.380071 24806 net.cpp:380] fconv1__ -> fconv1__
I0817 13:22:06.380136 24806 net.cpp:122] Setting up fconv1__
I0817 13:22:06.380151 24806 net.cpp:129] Top shape: 12 3 1 4096 (147456)
I0817 13:22:06.380157 24806 net.cpp:137] Memory required for data: 110100480
I0817 13:22:06.380164 24806 layer_factory.hpp:77] Creating layer feat1
I0817 13:22:06.380213 24806 net.cpp:84] Creating Layer feat1
I0817 13:22:06.380228 24806 net.cpp:406] feat1 <- data_feat_data_feat_0_split_0
I0817 13:22:06.380242 24806 net.cpp:406] feat1 <- fconv1__
I0817 13:22:06.380252 24806 net.cpp:380] feat1 -> feat1
I0817 13:22:06.380913 24806 net.cpp:122] Setting up feat1
I0817 13:22:06.380937 24806 net.cpp:129] Top shape: 12 3 1 4096 (147456)
I0817 13:22:06.380945 24806 net.cpp:137] Memory required for data: 110690304
I0817 13:22:06.380952 24806 layer_factory.hpp:77] Creating layer data_lattice0
I0817 13:22:06.381081 24806 net.cpp:84] Creating Layer data_lattice0
I0817 13:22:06.381098 24806 net.cpp:406] data_lattice0 <- feat1
I0817 13:22:06.381117 24806 net.cpp:380] data_lattice0 -> data_lattice0
I0817 13:22:06.381433 24806 net.cpp:122] Setting up data_lattice0
I0817 13:22:06.381462 24806 net.cpp:129] Top shape: 12 3 1 4096 (147456)
I0817 13:22:06.381469 24806 net.cpp:137] Memory required for data: 111280128
I0817 13:22:06.381489 24806 layer_factory.hpp:77] Creating layer data_lattice0_data_lattice0_0_split
I0817 13:22:06.381501 24806 net.cpp:84] Creating Layer data_lattice0_data_lattice0_0_split
I0817 13:22:06.381510 24806 net.cpp:406] data_lattice0_data_lattice0_0_split <- data_lattice0
I0817 13:22:06.381520 24806 net.cpp:380] data_lattice0_data_lattice0_0_split -> data_lattice0_data_lattice0_0_split_0
I0817 13:22:06.381534 24806 net.cpp:380] data_lattice0_data_lattice0_0_split -> data_lattice0_data_lattice0_0_split_1
I0817 13:22:06.381614 24806 net.cpp:122] Setting up data_lattice0_data_lattice0_0_split
I0817 13:22:06.381633 24806 net.cpp:129] Top shape: 12 3 1 4096 (147456)
I0817 13:22:06.381642 24806 net.cpp:129] Top shape: 12 3 1 4096 (147456)
I0817 13:22:06.381649 24806 net.cpp:137] Memory required for data: 112459776
I0817 13:22:06.381655 24806 layer_factory.hpp:77] Creating layer conv2
I0817 13:22:06.381707 24806 net.cpp:84] Creating Layer conv2
I0817 13:22:06.381726 24806 net.cpp:406] conv2 <- bn1a_relu1a_0_split_1
I0817 13:22:06.381736 24806 net.cpp:406] conv2 <- data_lattice0_data_lattice0_0_split_0
I0817 13:22:06.381745 24806 net.cpp:406] conv2 <- data_lattice0_data_lattice0_0_split_1
I0817 13:22:06.381757 24806 net.cpp:380] conv2 -> conv2
I0817 13:22:06.389187 24806 net.cpp:122] Setting up conv2
I0817 13:22:06.389226 24806 net.cpp:129] Top shape: 12 64 1 4096 (3145728)
I0817 13:22:06.389236 24806 net.cpp:137] Memory required for data: 125042688
I0817 13:22:06.389256 24806 layer_factory.hpp:77] Creating layer bn2
I0817 13:22:06.389271 24806 net.cpp:84] Creating Layer bn2
I0817 13:22:06.389281 24806 net.cpp:406] bn2 <- conv2
I0817 13:22:06.389302 24806 net.cpp:380] bn2 -> bn2
I0817 13:22:06.389735 24806 net.cpp:122] Setting up bn2
I0817 13:22:06.389751 24806 net.cpp:129] Top shape: 12 64 1 4096 (3145728)
I0817 13:22:06.389758 24806 net.cpp:137] Memory required for data: 137625600
I0817 13:22:06.389780 24806 layer_factory.hpp:77] Creating layer relu2
I0817 13:22:06.389817 24806 net.cpp:84] Creating Layer relu2
I0817 13:22:06.389827 24806 net.cpp:406] relu2 <- bn2
I0817 13:22:06.389838 24806 net.cpp:367] relu2 -> bn2 (in-place)
I0817 13:22:06.391420 24806 net.cpp:122] Setting up relu2
I0817 13:22:06.391449 24806 net.cpp:129] Top shape: 12 64 1 4096 (3145728)
I0817 13:22:06.391461 24806 net.cpp:137] Memory required for data: 150208512
I0817 13:22:06.391469 24806 layer_factory.hpp:77] Creating layer bn2_relu2_0_split
I0817 13:22:06.391482 24806 net.cpp:84] Creating Layer bn2_relu2_0_split
I0817 13:22:06.391492 24806 net.cpp:406] bn2_relu2_0_split <- bn2
I0817 13:22:06.391513 24806 net.cpp:380] bn2_relu2_0_split -> bn2_relu2_0_split_0
I0817 13:22:06.391530 24806 net.cpp:380] bn2_relu2_0_split -> bn2_relu2_0_split_1
I0817 13:22:06.391546 24806 net.cpp:380] bn2_relu2_0_split -> bn2_relu2_0_split_2
I0817 13:22:06.391654 24806 net.cpp:122] Setting up bn2_relu2_0_split
I0817 13:22:06.391669 24806 net.cpp:129] Top shape: 12 64 1 4096 (3145728)
I0817 13:22:06.391680 24806 net.cpp:129] Top shape: 12 64 1 4096 (3145728)
I0817 13:22:06.391687 24806 net.cpp:129] Top shape: 12 64 1 4096 (3145728)
I0817 13:22:06.391695 24806 net.cpp:137] Memory required for data: 187957248
I0817 13:22:06.391717 24806 layer_factory.hpp:77] Creating layer fconv2
I0817 13:22:06.391739 24806 net.cpp:84] Creating Layer fconv2
I0817 13:22:06.391749 24806 net.cpp:406] fconv2 <- bn2_relu2_0_split_0
I0817 13:22:06.391763 24806 net.cpp:380] fconv2 -> fconv2
I0817 13:22:06.394795 24806 net.cpp:122] Setting up fconv2
I0817 13:22:06.394825 24806 net.cpp:129] Top shape: 12 3 1 4096 (147456)
I0817 13:22:06.394836 24806 net.cpp:137] Memory required for data: 188547072
I0817 13:22:06.394870 24806 layer_factory.hpp:77] Creating layer fconv2_
I0817 13:22:06.394886 24806 net.cpp:84] Creating Layer fconv2_
I0817 13:22:06.394896 24806 net.cpp:406] fconv2_ <- fconv2
I0817 13:22:06.394912 24806 net.cpp:380] fconv2_ -> fconv2_
I0817 13:22:06.394968 24806 net.cpp:122] Setting up fconv2_
I0817 13:22:06.394981 24806 net.cpp:129] Top shape: 12 3 1 4096 (147456)
I0817 13:22:06.394990 24806 net.cpp:137] Memory required for data: 189136896
I0817 13:22:06.394996 24806 layer_factory.hpp:77] Creating layer fconv2__
I0817 13:22:06.395006 24806 net.cpp:84] Creating Layer fconv2__
I0817 13:22:06.395015 24806 net.cpp:406] fconv2__ <- fconv2_
I0817 13:22:06.395027 24806 net.cpp:380] fconv2__ -> fconv2__
I0817 13:22:06.395078 24806 net.cpp:122] Setting up fconv2__
I0817 13:22:06.395092 24806 net.cpp:129] Top shape: 12 3 1 4096 (147456)
I0817 13:22:06.395102 24806 net.cpp:137] Memory required for data: 189726720
I0817 13:22:06.395107 24806 layer_factory.hpp:77] Creating layer feat2
I0817 13:22:06.395133 24806 net.cpp:84] Creating Layer feat2
I0817 13:22:06.395143 24806 net.cpp:406] feat2 <- data_feat_data_feat_0_split_1
I0817 13:22:06.395153 24806 net.cpp:406] feat2 <- fconv2__
I0817 13:22:06.395164 24806 net.cpp:380] feat2 -> feat2
I0817 13:22:06.395215 24806 net.cpp:122] Setting up feat2
I0817 13:22:06.395228 24806 net.cpp:129] Top shape: 12 3 1 4096 (147456)
I0817 13:22:06.395234 24806 net.cpp:137] Memory required for data: 190316544
I0817 13:22:06.395251 24806 layer_factory.hpp:77] Creating layer data_lattice1
I0817 13:22:06.395313 24806 net.cpp:84] Creating Layer data_lattice1
I0817 13:22:06.395326 24806 net.cpp:406] data_lattice1 <- feat2
I0817 13:22:06.395339 24806 net.cpp:380] data_lattice1 -> data_lattice1
I0817 13:22:06.397795 24806 net.cpp:122] Setting up data_lattice1
I0817 13:22:06.397825 24806 net.cpp:129] Top shape: 12 3 1 4096 (147456)
I0817 13:22:06.397832 24806 net.cpp:137] Memory required for data: 190906368
I0817 13:22:06.397853 24806 layer_factory.hpp:77] Creating layer data_lattice1_data_lattice1_0_split
I0817 13:22:06.397868 24806 net.cpp:84] Creating Layer data_lattice1_data_lattice1_0_split
I0817 13:22:06.397878 24806 net.cpp:406] data_lattice1_data_lattice1_0_split <- data_lattice1
I0817 13:22:06.397891 24806 net.cpp:380] data_lattice1_data_lattice1_0_split -> data_lattice1_data_lattice1_0_split_0
I0817 13:22:06.397908 24806 net.cpp:380] data_lattice1_data_lattice1_0_split -> data_lattice1_data_lattice1_0_split_1
I0817 13:22:06.397987 24806 net.cpp:122] Setting up data_lattice1_data_lattice1_0_split
I0817 13:22:06.398001 24806 net.cpp:129] Top shape: 12 3 1 4096 (147456)
I0817 13:22:06.398010 24806 net.cpp:129] Top shape: 12 3 1 4096 (147456)
I0817 13:22:06.398022 24806 net.cpp:137] Memory required for data: 192086016
I0817 13:22:06.398030 24806 layer_factory.hpp:77] Creating layer conv3
I0817 13:22:06.398042 24806 net.cpp:84] Creating Layer conv3
I0817 13:22:06.398052 24806 net.cpp:406] conv3 <- bn2_relu2_0_split_1
I0817 13:22:06.398062 24806 net.cpp:406] conv3 <- data_lattice1_data_lattice1_0_split_0
I0817 13:22:06.398072 24806 net.cpp:406] conv3 <- data_lattice1_data_lattice1_0_split_1
I0817 13:22:06.398083 24806 net.cpp:380] conv3 -> conv3
I0817 13:22:06.405912 24806 net.cpp:122] Setting up conv3
I0817 13:22:06.405931 24806 net.cpp:129] Top shape: 12 128 1 4096 (6291456)
I0817 13:22:06.405938 24806 net.cpp:137] Memory required for data: 217251840
I0817 13:22:06.405949 24806 layer_factory.hpp:77] Creating layer bn3
I0817 13:22:06.405982 24806 net.cpp:84] Creating Layer bn3
I0817 13:22:06.405992 24806 net.cpp:406] bn3 <- conv3
I0817 13:22:06.406002 24806 net.cpp:380] bn3 -> bn3
I0817 13:22:06.406369 24806 net.cpp:122] Setting up bn3
I0817 13:22:06.406383 24806 net.cpp:129] Top shape: 12 128 1 4096 (6291456)
I0817 13:22:06.406390 24806 net.cpp:137] Memory required for data: 242417664
I0817 13:22:06.406424 24806 layer_factory.hpp:77] Creating layer relu3
I0817 13:22:06.406436 24806 net.cpp:84] Creating Layer relu3
I0817 13:22:06.406448 24806 net.cpp:406] relu3 <- bn3
I0817 13:22:06.406457 24806 net.cpp:367] relu3 -> bn3 (in-place)
I0817 13:22:06.407712 24806 net.cpp:122] Setting up relu3
I0817 13:22:06.407739 24806 net.cpp:129] Top shape: 12 128 1 4096 (6291456)
I0817 13:22:06.407749 24806 net.cpp:137] Memory required for data: 267583488
I0817 13:22:06.407757 24806 layer_factory.hpp:77] Creating layer bn3_relu3_0_split
I0817 13:22:06.407778 24806 net.cpp:84] Creating Layer bn3_relu3_0_split
I0817 13:22:06.407785 24806 net.cpp:406] bn3_relu3_0_split <- bn3
I0817 13:22:06.407796 24806 net.cpp:380] bn3_relu3_0_split -> bn3_relu3_0_split_0
I0817 13:22:06.407811 24806 net.cpp:380] bn3_relu3_0_split -> bn3_relu3_0_split_1
I0817 13:22:06.407824 24806 net.cpp:380] bn3_relu3_0_split -> bn3_relu3_0_split_2
I0817 13:22:06.407934 24806 net.cpp:122] Setting up bn3_relu3_0_split
I0817 13:22:06.407949 24806 net.cpp:129] Top shape: 12 128 1 4096 (6291456)
I0817 13:22:06.407960 24806 net.cpp:129] Top shape: 12 128 1 4096 (6291456)
I0817 13:22:06.407968 24806 net.cpp:129] Top shape: 12 128 1 4096 (6291456)
I0817 13:22:06.407975 24806 net.cpp:137] Memory required for data: 343080960
I0817 13:22:06.407982 24806 layer_factory.hpp:77] Creating layer fconv3
I0817 13:22:06.408005 24806 net.cpp:84] Creating Layer fconv3
I0817 13:22:06.408015 24806 net.cpp:406] fconv3 <- bn3_relu3_0_split_0
I0817 13:22:06.408026 24806 net.cpp:380] fconv3 -> fconv3
I0817 13:22:06.410823 24806 net.cpp:122] Setting up fconv3
I0817 13:22:06.410868 24806 net.cpp:129] Top shape: 12 3 1 4096 (147456)
I0817 13:22:06.410878 24806 net.cpp:137] Memory required for data: 343670784
I0817 13:22:06.410905 24806 layer_factory.hpp:77] Creating layer fconv3_
I0817 13:22:06.410928 24806 net.cpp:84] Creating Layer fconv3_
I0817 13:22:06.410938 24806 net.cpp:406] fconv3_ <- fconv3
I0817 13:22:06.410950 24806 net.cpp:380] fconv3_ -> fconv3_
I0817 13:22:06.411006 24806 net.cpp:122] Setting up fconv3_
I0817 13:22:06.411020 24806 net.cpp:129] Top shape: 12 3 1 4096 (147456)
I0817 13:22:06.411028 24806 net.cpp:137] Memory required for data: 344260608
I0817 13:22:06.411036 24806 layer_factory.hpp:77] Creating layer fconv3__
I0817 13:22:06.411046 24806 net.cpp:84] Creating Layer fconv3__
I0817 13:22:06.411054 24806 net.cpp:406] fconv3__ <- fconv3_
I0817 13:22:06.411065 24806 net.cpp:380] fconv3__ -> fconv3__
I0817 13:22:06.411108 24806 net.cpp:122] Setting up fconv3__
I0817 13:22:06.411120 24806 net.cpp:129] Top shape: 12 3 1 4096 (147456)
I0817 13:22:06.411128 24806 net.cpp:137] Memory required for data: 344850432
I0817 13:22:06.411134 24806 layer_factory.hpp:77] Creating layer feat3
I0817 13:22:06.411144 24806 net.cpp:84] Creating Layer feat3
I0817 13:22:06.411154 24806 net.cpp:406] feat3 <- data_feat_data_feat_0_split_2
I0817 13:22:06.411162 24806 net.cpp:406] feat3 <- fconv3__
I0817 13:22:06.411175 24806 net.cpp:380] feat3 -> feat3
I0817 13:22:06.411218 24806 net.cpp:122] Setting up feat3
I0817 13:22:06.411231 24806 net.cpp:129] Top shape: 12 3 1 4096 (147456)
I0817 13:22:06.411238 24806 net.cpp:137] Memory required for data: 345440256
I0817 13:22:06.411244 24806 layer_factory.hpp:77] Creating layer data_lattice2
I0817 13:22:06.411304 24806 net.cpp:84] Creating Layer data_lattice2
I0817 13:22:06.411317 24806 net.cpp:406] data_lattice2 <- feat3
I0817 13:22:06.411330 24806 net.cpp:380] data_lattice2 -> data_lattice2
I0817 13:22:06.411554 24806 net.cpp:122] Setting up data_lattice2
I0817 13:22:06.411574 24806 net.cpp:129] Top shape: 12 3 1 4096 (147456)
I0817 13:22:06.411582 24806 net.cpp:137] Memory required for data: 346030080
I0817 13:22:06.411588 24806 layer_factory.hpp:77] Creating layer data_lattice2_data_lattice2_0_split
I0817 13:22:06.411612 24806 net.cpp:84] Creating Layer data_lattice2_data_lattice2_0_split
I0817 13:22:06.411622 24806 net.cpp:406] data_lattice2_data_lattice2_0_split <- data_lattice2
I0817 13:22:06.411633 24806 net.cpp:380] data_lattice2_data_lattice2_0_split -> data_lattice2_data_lattice2_0_split_0
I0817 13:22:06.411648 24806 net.cpp:380] data_lattice2_data_lattice2_0_split -> data_lattice2_data_lattice2_0_split_1
I0817 13:22:06.411716 24806 net.cpp:122] Setting up data_lattice2_data_lattice2_0_split
I0817 13:22:06.411728 24806 net.cpp:129] Top shape: 12 3 1 4096 (147456)
I0817 13:22:06.411736 24806 net.cpp:129] Top shape: 12 3 1 4096 (147456)
I0817 13:22:06.411743 24806 net.cpp:137] Memory required for data: 347209728
I0817 13:22:06.411749 24806 layer_factory.hpp:77] Creating layer conv4
I0817 13:22:06.411762 24806 net.cpp:84] Creating Layer conv4
I0817 13:22:06.411772 24806 net.cpp:406] conv4 <- bn3_relu3_0_split_1
I0817 13:22:06.411780 24806 net.cpp:406] conv4 <- data_lattice2_data_lattice2_0_split_0
I0817 13:22:06.411789 24806 net.cpp:406] conv4 <- data_lattice2_data_lattice2_0_split_1
I0817 13:22:06.411801 24806 net.cpp:380] conv4 -> conv4
I0817 13:22:06.441731 24806 net.cpp:122] Setting up conv4
I0817 13:22:06.441761 24806 net.cpp:129] Top shape: 12 256 1 4096 (12582912)
I0817 13:22:06.441767 24806 net.cpp:137] Memory required for data: 397541376
I0817 13:22:06.441778 24806 layer_factory.hpp:77] Creating layer bn4
I0817 13:22:06.441789 24806 net.cpp:84] Creating Layer bn4
I0817 13:22:06.441797 24806 net.cpp:406] bn4 <- conv4
I0817 13:22:06.441807 24806 net.cpp:380] bn4 -> bn4
I0817 13:22:06.442129 24806 net.cpp:122] Setting up bn4
I0817 13:22:06.442143 24806 net.cpp:129] Top shape: 12 256 1 4096 (12582912)
I0817 13:22:06.442149 24806 net.cpp:137] Memory required for data: 447873024
I0817 13:22:06.442162 24806 layer_factory.hpp:77] Creating layer relu4
I0817 13:22:06.442170 24806 net.cpp:84] Creating Layer relu4
I0817 13:22:06.442176 24806 net.cpp:406] relu4 <- bn4
I0817 13:22:06.442184 24806 net.cpp:367] relu4 -> bn4 (in-place)
I0817 13:22:06.442698 24806 net.cpp:122] Setting up relu4
I0817 13:22:06.442715 24806 net.cpp:129] Top shape: 12 256 1 4096 (12582912)
I0817 13:22:06.442723 24806 net.cpp:137] Memory required for data: 498204672
I0817 13:22:06.442741 24806 layer_factory.hpp:77] Creating layer bn4_relu4_0_split
I0817 13:22:06.442751 24806 net.cpp:84] Creating Layer bn4_relu4_0_split
I0817 13:22:06.442757 24806 net.cpp:406] bn4_relu4_0_split <- bn4
I0817 13:22:06.442767 24806 net.cpp:380] bn4_relu4_0_split -> bn4_relu4_0_split_0
I0817 13:22:06.442778 24806 net.cpp:380] bn4_relu4_0_split -> bn4_relu4_0_split_1
I0817 13:22:06.442787 24806 net.cpp:380] bn4_relu4_0_split -> bn4_relu4_0_split_2
I0817 13:22:06.442878 24806 net.cpp:122] Setting up bn4_relu4_0_split
I0817 13:22:06.442891 24806 net.cpp:129] Top shape: 12 256 1 4096 (12582912)
I0817 13:22:06.442898 24806 net.cpp:129] Top shape: 12 256 1 4096 (12582912)
I0817 13:22:06.442904 24806 net.cpp:129] Top shape: 12 256 1 4096 (12582912)
I0817 13:22:06.442909 24806 net.cpp:137] Memory required for data: 649199616
I0817 13:22:06.442914 24806 layer_factory.hpp:77] Creating layer fconv4
I0817 13:22:06.442940 24806 net.cpp:84] Creating Layer fconv4
I0817 13:22:06.442950 24806 net.cpp:406] fconv4 <- bn4_relu4_0_split_0
I0817 13:22:06.442961 24806 net.cpp:380] fconv4 -> fconv4
I0817 13:22:06.446097 24806 net.cpp:122] Setting up fconv4
I0817 13:22:06.446122 24806 net.cpp:129] Top shape: 12 3 1 4096 (147456)
I0817 13:22:06.446130 24806 net.cpp:137] Memory required for data: 649789440
I0817 13:22:06.446151 24806 layer_factory.hpp:77] Creating layer fconv4_
I0817 13:22:06.446162 24806 net.cpp:84] Creating Layer fconv4_
I0817 13:22:06.446171 24806 net.cpp:406] fconv4_ <- fconv4
I0817 13:22:06.446182 24806 net.cpp:380] fconv4_ -> fconv4_
I0817 13:22:06.446225 24806 net.cpp:122] Setting up fconv4_
I0817 13:22:06.446238 24806 net.cpp:129] Top shape: 12 3 1 4096 (147456)
I0817 13:22:06.446243 24806 net.cpp:137] Memory required for data: 650379264
I0817 13:22:06.446247 24806 layer_factory.hpp:77] Creating layer fconv4__
I0817 13:22:06.446269 24806 net.cpp:84] Creating Layer fconv4__
I0817 13:22:06.446277 24806 net.cpp:406] fconv4__ <- fconv4_
I0817 13:22:06.446286 24806 net.cpp:380] fconv4__ -> fconv4__
I0817 13:22:06.446324 24806 net.cpp:122] Setting up fconv4__
I0817 13:22:06.446336 24806 net.cpp:129] Top shape: 12 3 1 4096 (147456)
I0817 13:22:06.446341 24806 net.cpp:137] Memory required for data: 650969088
I0817 13:22:06.446352 24806 layer_factory.hpp:77] Creating layer feat4
I0817 13:22:06.446362 24806 net.cpp:84] Creating Layer feat4
I0817 13:22:06.446369 24806 net.cpp:406] feat4 <- data_feat_data_feat_0_split_3
I0817 13:22:06.446377 24806 net.cpp:406] feat4 <- fconv4__
I0817 13:22:06.446386 24806 net.cpp:380] feat4 -> feat4
I0817 13:22:06.446424 24806 net.cpp:122] Setting up feat4
I0817 13:22:06.446434 24806 net.cpp:129] Top shape: 12 3 1 4096 (147456)
I0817 13:22:06.446439 24806 net.cpp:137] Memory required for data: 651558912
I0817 13:22:06.446444 24806 layer_factory.hpp:77] Creating layer data_lattice3
I0817 13:22:06.446496 24806 net.cpp:84] Creating Layer data_lattice3
I0817 13:22:06.446504 24806 net.cpp:406] data_lattice3 <- feat4
I0817 13:22:06.446516 24806 net.cpp:380] data_lattice3 -> data_lattice3
I0817 13:22:06.448392 24806 net.cpp:122] Setting up data_lattice3
I0817 13:22:06.448415 24806 net.cpp:129] Top shape: 12 3 1 4096 (147456)
I0817 13:22:06.448424 24806 net.cpp:137] Memory required for data: 652148736
I0817 13:22:06.448431 24806 layer_factory.hpp:77] Creating layer data_lattice3_data_lattice3_0_split
I0817 13:22:06.448441 24806 net.cpp:84] Creating Layer data_lattice3_data_lattice3_0_split
I0817 13:22:06.448448 24806 net.cpp:406] data_lattice3_data_lattice3_0_split <- data_lattice3
I0817 13:22:06.448459 24806 net.cpp:380] data_lattice3_data_lattice3_0_split -> data_lattice3_data_lattice3_0_split_0
I0817 13:22:06.448472 24806 net.cpp:380] data_lattice3_data_lattice3_0_split -> data_lattice3_data_lattice3_0_split_1
I0817 13:22:06.448534 24806 net.cpp:122] Setting up data_lattice3_data_lattice3_0_split
I0817 13:22:06.448545 24806 net.cpp:129] Top shape: 12 3 1 4096 (147456)
I0817 13:22:06.448552 24806 net.cpp:129] Top shape: 12 3 1 4096 (147456)
I0817 13:22:06.448556 24806 net.cpp:137] Memory required for data: 653328384
I0817 13:22:06.448562 24806 layer_factory.hpp:77] Creating layer conv5
I0817 13:22:06.448585 24806 net.cpp:84] Creating Layer conv5
I0817 13:22:06.448595 24806 net.cpp:406] conv5 <- bn4_relu4_0_split_1
I0817 13:22:06.448601 24806 net.cpp:406] conv5 <- data_lattice3_data_lattice3_0_split_0
I0817 13:22:06.448608 24806 net.cpp:406] conv5 <- data_lattice3_data_lattice3_0_split_1
I0817 13:22:06.448617 24806 net.cpp:380] conv5 -> conv5
I0817 13:22:06.494160 24806 net.cpp:122] Setting up conv5
I0817 13:22:06.494194 24806 net.cpp:129] Top shape: 12 256 1 4096 (12582912)
I0817 13:22:06.494199 24806 net.cpp:137] Memory required for data: 703660032
I0817 13:22:06.494225 24806 layer_factory.hpp:77] Creating layer bn5
I0817 13:22:06.494235 24806 net.cpp:84] Creating Layer bn5
I0817 13:22:06.494243 24806 net.cpp:406] bn5 <- conv5
I0817 13:22:06.494251 24806 net.cpp:380] bn5 -> bn5
I0817 13:22:06.494520 24806 net.cpp:122] Setting up bn5
I0817 13:22:06.494531 24806 net.cpp:129] Top shape: 12 256 1 4096 (12582912)
I0817 13:22:06.494535 24806 net.cpp:137] Memory required for data: 753991680
I0817 13:22:06.494545 24806 layer_factory.hpp:77] Creating layer relu5
I0817 13:22:06.494554 24806 net.cpp:84] Creating Layer relu5
I0817 13:22:06.494559 24806 net.cpp:406] relu5 <- bn5
I0817 13:22:06.494565 24806 net.cpp:367] relu5 -> bn5 (in-place)
I0817 13:22:06.495020 24806 net.cpp:122] Setting up relu5
I0817 13:22:06.495035 24806 net.cpp:129] Top shape: 12 256 1 4096 (12582912)
I0817 13:22:06.495040 24806 net.cpp:137] Memory required for data: 804323328
I0817 13:22:06.495044 24806 layer_factory.hpp:77] Creating layer bn5_relu5_0_split
I0817 13:22:06.495054 24806 net.cpp:84] Creating Layer bn5_relu5_0_split
I0817 13:22:06.495057 24806 net.cpp:406] bn5_relu5_0_split <- bn5
I0817 13:22:06.495065 24806 net.cpp:380] bn5_relu5_0_split -> bn5_relu5_0_split_0
I0817 13:22:06.495074 24806 net.cpp:380] bn5_relu5_0_split -> bn5_relu5_0_split_1
I0817 13:22:06.495092 24806 net.cpp:380] bn5_relu5_0_split -> bn5_relu5_0_split_2
I0817 13:22:06.495159 24806 net.cpp:122] Setting up bn5_relu5_0_split
I0817 13:22:06.495168 24806 net.cpp:129] Top shape: 12 256 1 4096 (12582912)
I0817 13:22:06.495174 24806 net.cpp:129] Top shape: 12 256 1 4096 (12582912)
I0817 13:22:06.495179 24806 net.cpp:129] Top shape: 12 256 1 4096 (12582912)
I0817 13:22:06.495183 24806 net.cpp:137] Memory required for data: 955318272
I0817 13:22:06.495187 24806 layer_factory.hpp:77] Creating layer fconv5
I0817 13:22:06.495208 24806 net.cpp:84] Creating Layer fconv5
I0817 13:22:06.495216 24806 net.cpp:406] fconv5 <- bn5_relu5_0_split_0
I0817 13:22:06.495225 24806 net.cpp:380] fconv5 -> fconv5
I0817 13:22:06.497169 24806 net.cpp:122] Setting up fconv5
I0817 13:22:06.497187 24806 net.cpp:129] Top shape: 12 3 1 4096 (147456)
I0817 13:22:06.497193 24806 net.cpp:137] Memory required for data: 955908096
I0817 13:22:06.497201 24806 layer_factory.hpp:77] Creating layer fconv5_
I0817 13:22:06.497211 24806 net.cpp:84] Creating Layer fconv5_
I0817 13:22:06.497217 24806 net.cpp:406] fconv5_ <- fconv5
I0817 13:22:06.497225 24806 net.cpp:380] fconv5_ -> fconv5_
I0817 13:22:06.497259 24806 net.cpp:122] Setting up fconv5_
I0817 13:22:06.497267 24806 net.cpp:129] Top shape: 12 3 1 4096 (147456)
I0817 13:22:06.497272 24806 net.cpp:137] Memory required for data: 956497920
I0817 13:22:06.497274 24806 layer_factory.hpp:77] Creating layer fconv5__
I0817 13:22:06.497282 24806 net.cpp:84] Creating Layer fconv5__
I0817 13:22:06.497287 24806 net.cpp:406] fconv5__ <- fconv5_
I0817 13:22:06.497294 24806 net.cpp:380] fconv5__ -> fconv5__
I0817 13:22:06.497323 24806 net.cpp:122] Setting up fconv5__
I0817 13:22:06.497332 24806 net.cpp:129] Top shape: 12 3 1 4096 (147456)
I0817 13:22:06.497336 24806 net.cpp:137] Memory required for data: 957087744
I0817 13:22:06.497340 24806 layer_factory.hpp:77] Creating layer feat5
I0817 13:22:06.497357 24806 net.cpp:84] Creating Layer feat5
I0817 13:22:06.497364 24806 net.cpp:406] feat5 <- data_feat_data_feat_0_split_4
I0817 13:22:06.497371 24806 net.cpp:406] feat5 <- fconv5__
I0817 13:22:06.497378 24806 net.cpp:380] feat5 -> feat5
I0817 13:22:06.497411 24806 net.cpp:122] Setting up feat5
I0817 13:22:06.497419 24806 net.cpp:129] Top shape: 12 3 1 4096 (147456)
I0817 13:22:06.497422 24806 net.cpp:137] Memory required for data: 957677568
I0817 13:22:06.497432 24806 layer_factory.hpp:77] Creating layer data_lattice4
I0817 13:22:06.497478 24806 net.cpp:84] Creating Layer data_lattice4
I0817 13:22:06.497488 24806 net.cpp:406] data_lattice4 <- feat5
I0817 13:22:06.497496 24806 net.cpp:380] data_lattice4 -> data_lattice4
I0817 13:22:06.497684 24806 net.cpp:122] Setting up data_lattice4
I0817 13:22:06.497697 24806 net.cpp:129] Top shape: 12 3 1 4096 (147456)
I0817 13:22:06.497701 24806 net.cpp:137] Memory required for data: 958267392
I0817 13:22:06.497706 24806 layer_factory.hpp:77] Creating layer data_lattice4_data_lattice4_0_split
I0817 13:22:06.497714 24806 net.cpp:84] Creating Layer data_lattice4_data_lattice4_0_split
I0817 13:22:06.497719 24806 net.cpp:406] data_lattice4_data_lattice4_0_split <- data_lattice4
I0817 13:22:06.497727 24806 net.cpp:380] data_lattice4_data_lattice4_0_split -> data_lattice4_data_lattice4_0_split_0
I0817 13:22:06.497735 24806 net.cpp:380] data_lattice4_data_lattice4_0_split -> data_lattice4_data_lattice4_0_split_1
I0817 13:22:06.497781 24806 net.cpp:122] Setting up data_lattice4_data_lattice4_0_split
I0817 13:22:06.497790 24806 net.cpp:129] Top shape: 12 3 1 4096 (147456)
I0817 13:22:06.497795 24806 net.cpp:129] Top shape: 12 3 1 4096 (147456)
I0817 13:22:06.497799 24806 net.cpp:137] Memory required for data: 959447040
I0817 13:22:06.497802 24806 layer_factory.hpp:77] Creating layer conv6
I0817 13:22:06.497812 24806 net.cpp:84] Creating Layer conv6
I0817 13:22:06.497817 24806 net.cpp:406] conv6 <- bn5_relu5_0_split_1
I0817 13:22:06.497822 24806 net.cpp:406] conv6 <- data_lattice4_data_lattice4_0_split_0
I0817 13:22:06.497828 24806 net.cpp:406] conv6 <- data_lattice4_data_lattice4_0_split_1
I0817 13:22:06.497836 24806 net.cpp:380] conv6 -> conv6
I0817 13:22:06.535665 24806 net.cpp:122] Setting up conv6
I0817 13:22:06.535696 24806 net.cpp:129] Top shape: 12 256 1 4096 (12582912)
I0817 13:22:06.535702 24806 net.cpp:137] Memory required for data: 1009778688
I0817 13:22:06.535710 24806 layer_factory.hpp:77] Creating layer bn6
I0817 13:22:06.535719 24806 net.cpp:84] Creating Layer bn6
I0817 13:22:06.535725 24806 net.cpp:406] bn6 <- conv6
I0817 13:22:06.535733 24806 net.cpp:380] bn6 -> bn6
I0817 13:22:06.535982 24806 net.cpp:122] Setting up bn6
I0817 13:22:06.535993 24806 net.cpp:129] Top shape: 12 256 1 4096 (12582912)
I0817 13:22:06.535997 24806 net.cpp:137] Memory required for data: 1060110336
I0817 13:22:06.536006 24806 layer_factory.hpp:77] Creating layer relu6
I0817 13:22:06.536027 24806 net.cpp:84] Creating Layer relu6
I0817 13:22:06.536032 24806 net.cpp:406] relu6 <- bn6
I0817 13:22:06.536038 24806 net.cpp:367] relu6 -> bn6 (in-place)
I0817 13:22:06.536864 24806 net.cpp:122] Setting up relu6
I0817 13:22:06.536880 24806 net.cpp:129] Top shape: 12 256 1 4096 (12582912)
I0817 13:22:06.536890 24806 net.cpp:137] Memory required for data: 1110441984
I0817 13:22:06.536895 24806 layer_factory.hpp:77] Creating layer concat6
I0817 13:22:06.536931 24806 net.cpp:84] Creating Layer concat6
I0817 13:22:06.536937 24806 net.cpp:406] concat6 <- bn6
I0817 13:22:06.536943 24806 net.cpp:406] concat6 <- bn2_relu2_0_split_2
I0817 13:22:06.536948 24806 net.cpp:406] concat6 <- bn3_relu3_0_split_2
I0817 13:22:06.536952 24806 net.cpp:406] concat6 <- bn4_relu4_0_split_2
I0817 13:22:06.536957 24806 net.cpp:406] concat6 <- bn5_relu5_0_split_2
I0817 13:22:06.536963 24806 net.cpp:380] concat6 -> concat6
I0817 13:22:06.537019 24806 net.cpp:122] Setting up concat6
I0817 13:22:06.537032 24806 net.cpp:129] Top shape: 12 960 1 4096 (47185920)
I0817 13:22:06.537036 24806 net.cpp:137] Memory required for data: 1299185664
I0817 13:22:06.537039 24806 layer_factory.hpp:77] Creating layer conv7
I0817 13:22:06.537060 24806 net.cpp:84] Creating Layer conv7
I0817 13:22:06.537065 24806 net.cpp:406] conv7 <- concat6
I0817 13:22:06.537075 24806 net.cpp:380] conv7 -> conv7
I0817 13:22:06.539880 24806 net.cpp:122] Setting up conv7
I0817 13:22:06.539898 24806 net.cpp:129] Top shape: 12 128 1 4096 (6291456)
I0817 13:22:06.539903 24806 net.cpp:137] Memory required for data: 1324351488
I0817 13:22:06.539913 24806 layer_factory.hpp:77] Creating layer bn7
I0817 13:22:06.539922 24806 net.cpp:84] Creating Layer bn7
I0817 13:22:06.539927 24806 net.cpp:406] bn7 <- conv7
I0817 13:22:06.539935 24806 net.cpp:380] bn7 -> bn7
I0817 13:22:06.540176 24806 net.cpp:122] Setting up bn7
I0817 13:22:06.540186 24806 net.cpp:129] Top shape: 12 128 1 4096 (6291456)
I0817 13:22:06.540190 24806 net.cpp:137] Memory required for data: 1349517312
I0817 13:22:06.540199 24806 layer_factory.hpp:77] Creating layer relu7
I0817 13:22:06.540215 24806 net.cpp:84] Creating Layer relu7
I0817 13:22:06.540220 24806 net.cpp:406] relu7 <- bn7
I0817 13:22:06.540225 24806 net.cpp:367] relu7 -> bn7 (in-place)
I0817 13:22:06.540560 24806 net.cpp:122] Setting up relu7
I0817 13:22:06.540573 24806 net.cpp:129] Top shape: 12 128 1 4096 (6291456)
I0817 13:22:06.540582 24806 net.cpp:137] Memory required for data: 1374683136
I0817 13:22:06.540587 24806 layer_factory.hpp:77] Creating layer conv8
I0817 13:22:06.540612 24806 net.cpp:84] Creating Layer conv8
I0817 13:22:06.540621 24806 net.cpp:406] conv8 <- bn7
I0817 13:22:06.540629 24806 net.cpp:380] conv8 -> conv8
I0817 13:22:06.542910 24806 net.cpp:122] Setting up conv8
I0817 13:22:06.542930 24806 net.cpp:129] Top shape: 12 13 1 4096 (638976)
I0817 13:22:06.542937 24806 net.cpp:137] Memory required for data: 1377239040
I0817 13:22:06.542944 24806 layer_factory.hpp:77] Creating layer conv8_conv8_0_split
I0817 13:22:06.542953 24806 net.cpp:84] Creating Layer conv8_conv8_0_split
I0817 13:22:06.542958 24806 net.cpp:406] conv8_conv8_0_split <- conv8
I0817 13:22:06.542965 24806 net.cpp:380] conv8_conv8_0_split -> conv8_conv8_0_split_0
I0817 13:22:06.542974 24806 net.cpp:380] conv8_conv8_0_split -> conv8_conv8_0_split_1
I0817 13:22:06.543022 24806 net.cpp:122] Setting up conv8_conv8_0_split
I0817 13:22:06.543032 24806 net.cpp:129] Top shape: 12 13 1 4096 (638976)
I0817 13:22:06.543037 24806 net.cpp:129] Top shape: 12 13 1 4096 (638976)
I0817 13:22:06.543040 24806 net.cpp:137] Memory required for data: 1382350848
I0817 13:22:06.543045 24806 layer_factory.hpp:77] Creating layer loss
I0817 13:22:06.543088 24806 net.cpp:84] Creating Layer loss
I0817 13:22:06.543097 24806 net.cpp:406] loss <- conv8_conv8_0_split_0
I0817 13:22:06.543104 24806 net.cpp:406] loss <- label_data_1_split_0
I0817 13:22:06.543112 24806 net.cpp:380] loss -> loss
…
