…
I0730 18:02:35.475170  1522 net.cpp:294] The NetState phase (0) differed from the phase (1) specified by a rule in layer data
I0730 18:02:35.475657  1522 net.cpp:51] Initializing net from parameters: 
state {
  phase: TRAIN
}
layer {
  name: "data"
  type: "Python"
  top: "data"
  top: "label"
  include {
    phase: TRAIN
  }
  python_param {
    module: "dataset_lidar"
    layer: "InputShapenet"
    param_str: "{\'sample_size\': 70000, \'test_area\': \'6\', \'batch_size\': 1, \'feat_dims\': \'x_y_z\', \'subset\': \'train\', \'root\': \'../../data/shapenet_ericyi_ply\', \'jitter_xyz\': 0.01, \'jitter_stretch\': 0.05, \'jitter_rotation\': 5.0}"
  }
}
layer {
  name: "data_feat"
  type: "Python"
  bottom: "data"
  top: "data_feat"
  python_param {
    module: "custom_layers"
    layer: "PickAndScale"
    param_str: "0_1_2"
  }
}
layer {
  name: "conv1"
  type: "Convolution"
  bottom: "data_feat"
  top: "conv1"
  param {
    lr_mult: 1
  }
  param {
    lr_mult: 0.1
  }
  convolution_param {
    num_output: 32
    pad: 0
    kernel_size: 1
    stride: 1
    weight_filler {
      type: "xavier"
    }
    bias_filler {
      type: "constant"
      value: 0
    }
  }
}
layer {
  name: "bn1"
  type: "BatchNorm"
  bottom: "conv1"
  top: "bn1"
}
layer {
  name: "relu1"
  type: "ReLU"
  bottom: "bn1"
  top: "bn1"
}
layer {
  name: "fconv1"
  type: "Convolution"
  bottom: "bn1"
  top: "fconv1"
  param {
    lr_mult: 0.5
  }
  param {
    lr_mult: 0.05
  }
  convolution_param {
    num_output: 3
    pad: 0
    kernel_size: 1
    stride: 1
    weight_filler {
      type: "xavier"
    }
    bias_filler {
      type: "constant"
      value: 0
    }
  }
}
layer {
  name: "fbn1"
  type: "BatchNorm"
  bottom: "fconv1"
  top: "fbn1"
}
layer {
  name: "frelu1"
  type: "ReLU"
  bottom: "fbn1"
  top: "fbn1"
}
layer {
  name: "data_lattice0"
  type: "Python"
  bottom: "data"
  top: "data_lattice0"
  python_param {
    module: "custom_layers"
    layer: "PickAndScale"
    param_str: "0*48_1*48_2*48"
  }
}
layer {
  name: "feat1"
  type: "Eltwise"
  bottom: "data_lattice0"
  bottom: "fbn1"
  top: "feat1"
  eltwise_param {
    operation: SUM
  }
}
layer {
  name: "conv2"
  type: "Permutohedral"
  bottom: "bn1"
  bottom: "feat1"
  bottom: "feat1"
  top: "conv2"
  param {
    lr_mult: 1
    decay_mult: 1
  }
  param {
    lr_mult: 2
    decay_mult: 0
  }
  permutohedral_param {
    num_output: 64
    neighborhood_size: 4
    filter_filler {
      type: "gaussian"
      std: 0.001
    }
    bias_term: true
    bias_filler {
      type: "constant"
      value: 0
    }
    group: 1
    norm_type: AFTER
    offset_type: NONE
  }
}
layer {
  name: "bn2"
  type: "BatchNorm"
  bottom: "conv2"
  top: "bn2"
}
layer {
  name: "relu2"
  type: "ReLU"
  bottom: "bn2"
  top: "bn2"
}
layer {
  name: "fconv2"
  type: "Convolution"
  bottom: "bn2"
  top: "fconv2"
  param {
    lr_mult: 0.5
  }
  param {
    lr_mult: 0.05
  }
  convolution_param {
    num_output: 3
    pad: 0
    kernel_size: 1
    stride: 1
    weight_filler {
      type: "xavier"
    }
    bias_filler {
      type: "constant"
      value: 0
    }
  }
}
layer {
  name: "fbn2"
  type: "BatchNorm"
  bottom: "fconv2"
  top: "fbn2"
}
layer {
  name: "frelu2"
  type: "ReLU"
  bottom: "fbn2"
  top: "fbn2"
}
layer {
  name: "data_lattice1"
  type: "Python"
  bottom: "data"
  top: "data_lattice1"
  python_param {
    module: "custom_layers"
    layer: "PickAndScale"
    param_str: "0*24_1*24_2*24"
  }
}
layer {
  name: "feat2"
  type: "Eltwise"
  bottom: "data_lattice1"
  bottom: "fbn2"
  top: "feat2"
  eltwise_param {
    operation: SUM
  }
}
layer {
  name: "conv3"
  type: "Permutohedral"
  bottom: "bn2"
  bottom: "feat2"
  bottom: "feat2"
  top: "conv3"
  param {
    lr_mult: 1
    decay_mult: 1
  }
  param {
    lr_mult: 2
    decay_mult: 0
  }
  permutohedral_param {
    num_output: 128
    neighborhood_size: 4
    filter_filler {
      type: "gaussian"
      std: 0.001
    }
    bias_term: true
    bias_filler {
      type: "constant"
      value: 0
    }
    group: 1
    norm_type: AFTER
    offset_type: NONE
  }
}
layer {
  name: "bn3"
  type: "BatchNorm"
  bottom: "conv3"
  top: "bn3"
}
layer {
  name: "relu3"
  type: "ReLU"
  bottom: "bn3"
  top: "bn3"
}
layer {
  name: "fconv3"
  type: "Convolution"
  bottom: "bn3"
  top: "fconv3"
  param {
    lr_mult: 0.5
  }
  param {
    lr_mult: 0.05
  }
  convolution_param {
    num_output: 3
    pad: 0
    kernel_size: 1
    stride: 1
    weight_filler {
      type: "xavier"
    }
    bias_filler {
      type: "constant"
      value: 0
    }
  }
}
layer {
  name: "fbn3"
  type: "BatchNorm"
  bottom: "fconv3"
  top: "fbn3"
}
layer {
  name: "frelu3"
  type: "ReLU"
  bottom: "fbn3"
  top: "fbn3"
}
layer {
  name: "data_lattice2"
  type: "Python"
  bottom: "data"
  top: "data_lattice2"
  python_param {
    module: "custom_layers"
    layer: "PickAndScale"
    param_str: "0*12_1*12_2*12"
  }
}
layer {
  name: "feat3"
  type: "Eltwise"
  bottom: "data_lattice2"
  bottom: "fbn3"
  top: "feat3"
  eltwise_param {
    operation: SUM
  }
}
layer {
  name: "conv4"
  type: "Permutohedral"
  bottom: "bn3"
  bottom: "feat3"
  bottom: "feat3"
  top: "conv4"
  param {
    lr_mult: 1
    decay_mult: 1
  }
  param {
    lr_mult: 2
    decay_mult: 0
  }
  permutohedral_param {
    num_output: 256
    neighborhood_size: 2
    filter_filler {
      type: "gaussian"
      std: 0.001
    }
    bias_term: true
    bias_filler {
      type: "constant"
      value: 0
    }
    group: 1
    norm_type: AFTER
    offset_type: NONE
  }
}
layer {
  name: "bn4"
  type: "BatchNorm"
  bottom: "conv4"
  top: "bn4"
}
layer {
  name: "relu4"
  type: "ReLU"
  bottom: "bn4"
  top: "bn4"
}
layer {
  name: "fconv4"
  type: "Convolution"
  bottom: "bn4"
  top: "fconv4"
  param {
    lr_mult: 0.5
  }
  param {
    lr_mult: 0.05
  }
  convolution_param {
    num_output: 3
    pad: 0
    kernel_size: 1
    stride: 1
    weight_filler {
      type: "xavier"
    }
    bias_filler {
      type: "constant"
      value: 0
    }
  }
}
layer {
  name: "fbn4"
  type: "BatchNorm"
  bottom: "fconv4"
  top: "fbn4"
}
layer {
  name: "frelu4"
  type: "ReLU"
  bottom: "fbn4"
  top: "fbn4"
}
layer {
  name: "data_lattice3"
  type: "Python"
  bottom: "data"
  top: "data_lattice3"
  python_param {
    module: "custom_layers"
    layer: "PickAndScale"
    param_str: "0*6_1*6_2*6"
  }
}
layer {
  name: "feat4"
  type: "Eltwise"
  bottom: "data_lattice3"
  bottom: "fbn4"
  top: "feat4"
  eltwise_param {
    operation: SUM
  }
}
layer {
  name: "conv5"
  type: "Permutohedral"
  bottom: "bn4"
  bottom: "feat4"
  bottom: "feat4"
  top: "conv5"
  param {
    lr_mult: 1
    decay_mult: 1
  }
  param {
    lr_mult: 2
    decay_mult: 0
  }
  permutohedral_param {
    num_output: 256
    neighborhood_size: 2
    filter_filler {
      type: "gaussian"
      std: 0.001
    }
    bias_term: true
    bias_filler {
      type: "constant"
      value: 0
    }
    group: 1
    norm_type: AFTER
    offset_type: NONE
  }
}
layer {
  name: "bn5"
  type: "BatchNorm"
  bottom: "conv5"
  top: "bn5"
}
layer {
  name: "relu5"
  type: "ReLU"
  bottom: "bn5"
  top: "bn5"
}
layer {
  name: "fconv5"
  type: "Convolution"
  bottom: "bn5"
  top: "fconv5"
  param {
    lr_mult: 0.5
  }
  param {
    lr_mult: 0.05
  }
  convolution_param {
    num_output: 3
    pad: 0
    kernel_size: 1
    stride: 1
    weight_filler {
      type: "xavier"
    }
    bias_filler {
      type: "constant"
      value: 0
    }
  }
}
layer {
  name: "fbn5"
  type: "BatchNorm"
  bottom: "fconv5"
  top: "fbn5"
}
layer {
  name: "frelu5"
  type: "ReLU"
  bottom: "fbn5"
  top: "fbn5"
}
layer {
  name: "data_lattice4"
  type: "Python"
  bottom: "data"
  top: "data_lattice4"
  python_param {
    module: "custom_layers"
    layer: "PickAndScale"
    param_str: "0*3_1*3_2*3"
  }
}
layer {
  name: "feat5"
  type: "Eltwise"
  bottom: "data_lattice4"
  bottom: "fbn5"
  top: "feat5"
  eltwise_param {
    operation: SUM
  }
}
layer {
  name: "conv6"
  type: "Permutohedral"
  bottom: "bn5"
  bottom: "feat5"
  bottom: "feat5"
  top: "conv6"
  param {
    lr_mult: 1
    decay_mult: 1
  }
  param {
    lr_mult: 2
    decay_mult: 0
  }
  permutohedral_param {
    num_output: 256
    neighborhood_size: 1
    filter_filler {
      type: "gaussian"
      std: 0.001
    }
    bias_term: true
    bias_filler {
      type: "constant"
      value: 0
    }
    group: 1
    norm_type: AFTER
    offset_type: NONE
  }
}
layer {
  name: "bn6"
  type: "BatchNorm"
  bottom: "conv6"
  top: "bn6"
}
layer {
  name: "relu6"
  type: "ReLU"
  bottom: "bn6"
  top: "bn6"
}
layer {
  name: "concat6"
  type: "Concat"
  bottom: "bn6"
  bottom: "bn2"
  bottom: "bn3"
  bottom: "bn4"
  bottom: "bn5"
  top: "concat6"
}
layer {
  name: "conv7"
  type: "Convolution"
  bottom: "concat6"
  top: "conv7"
  param {
    lr_mult: 1
  }
  param {
    lr_mult: 0.1
  }
  convolution_param {
    num_output: 128
    pad: 0
    kernel_size: 1
    stride: 1
    weight_filler {
      type: "xavier"
    }
    bias_filler {
      type: "constant"
      value: 0
    }
  }
}
layer {
  name: "bn7"
  type: "BatchNorm"
  bottom: "conv7"
  top: "bn7"
}
layer {
  name: "relu7"
  type: "ReLU"
  bottom: "bn7"
  top: "bn7"
}
layer {
  name: "conv8"
  type: "Convolution"
  bottom: "bn7"
  top: "conv8"
  param {
    lr_mult: 1
  }
  param {
    lr_mult: 0.1
  }
  convolution_param {
    num_output: 13
    pad: 0
    kernel_size: 1
    stride: 1
    weight_filler {
      type: "xavier"
    }
    bias_filler {
      type: "constant"
      value: 0
    }
  }
}
layer {
  name: "loss"
  type: "SoftmaxWithLoss"
  bottom: "conv8"
  bottom: "label"
  top: "loss"
}
layer {
  name: "accuracy"
  type: "Accuracy"
  bottom: "conv8"
  bottom: "label"
  top: "accuracy"
}
I0730 18:02:35.506767  1522 layer_factory.hpp:77] Creating layer data
I0730 18:02:35.563843  1522 net.cpp:84] Creating Layer data
I0730 18:02:35.563896  1522 net.cpp:380] data -> data
I0730 18:02:35.563997  1522 net.cpp:380] data -> label
I0730 18:02:35.808625  1524 upgrade_proto.cpp:1084] Attempting to upgrade input file specified using deprecated 'solver_type' field (enum)': /mnt/lustre/wangjiayun/repos/splatnet/exp/lidar3d/area6/6_solver.prototxt
…
I0730 18:02:35.893530  1528 upgrade_proto.cpp:1084] Attempting to upgrade input file specified using deprecated 'solver_type' field (enum)': /mnt/lustre/wangjiayun/repos/splatnet/exp/lidar3d/area6/6_solver.prototxt
I0730 18:02:35.893601  1528 upgrade_proto.cpp:1091] Successfully upgraded file specified using deprecated 'solver_type' field (enum) to 'type' field (string).
W0730 18:02:35.893609  1528 upgrade_proto.cpp:1093] Note that future Caffe releases will only support 'type' field (string) for a solver's type.
I0730 18:08:51.729147  1522 net.cpp:122] Setting up data
I0730 18:08:51.729223  1522 net.cpp:129] Top shape: 1 3 1 70000 (210000)
I0730 18:08:51.729230  1522 net.cpp:129] Top shape: 1 1 1 70000 (70000)
I0730 18:08:51.729233  1522 net.cpp:137] Memory required for data: 1120000
I0730 18:08:51.729246  1522 layer_factory.hpp:77] Creating layer data_data_0_split
I0730 18:08:51.729285  1522 net.cpp:84] Creating Layer data_data_0_split
I0730 18:08:51.729297  1522 net.cpp:406] data_data_0_split <- data
I0730 18:08:51.729310  1522 net.cpp:380] data_data_0_split -> data_data_0_split_0
I0730 18:08:51.729324  1522 net.cpp:380] data_data_0_split -> data_data_0_split_1
I0730 18:08:51.729331  1522 net.cpp:380] data_data_0_split -> data_data_0_split_2
I0730 18:08:51.729336  1522 net.cpp:380] data_data_0_split -> data_data_0_split_3
I0730 18:08:51.729348  1522 net.cpp:380] data_data_0_split -> data_data_0_split_4
I0730 18:08:51.729354  1522 net.cpp:380] data_data_0_split -> data_data_0_split_5
I0730 18:08:51.729429  1522 net.cpp:122] Setting up data_data_0_split
I0730 18:08:51.729439  1522 net.cpp:129] Top shape: 1 3 1 70000 (210000)
I0730 18:08:51.729444  1522 net.cpp:129] Top shape: 1 3 1 70000 (210000)
I0730 18:08:51.729447  1522 net.cpp:129] Top shape: 1 3 1 70000 (210000)
I0730 18:08:51.729451  1522 net.cpp:129] Top shape: 1 3 1 70000 (210000)
I0730 18:08:51.729454  1522 net.cpp:129] Top shape: 1 3 1 70000 (210000)
I0730 18:08:51.729457  1522 net.cpp:129] Top shape: 1 3 1 70000 (210000)
I0730 18:08:51.729460  1522 net.cpp:137] Memory required for data: 6160000
I0730 18:08:51.729465  1522 layer_factory.hpp:77] Creating layer label_data_1_split
I0730 18:08:51.729471  1522 net.cpp:84] Creating Layer label_data_1_split
I0730 18:08:51.729475  1522 net.cpp:406] label_data_1_split <- label
I0730 18:08:51.729480  1522 net.cpp:380] label_data_1_split -> label_data_1_split_0
I0730 18:08:51.729486  1522 net.cpp:380] label_data_1_split -> label_data_1_split_1
I0730 18:08:51.729511  1522 net.cpp:122] Setting up label_data_1_split
I0730 18:08:51.729516  1522 net.cpp:129] Top shape: 1 1 1 70000 (70000)
I0730 18:08:51.729519  1522 net.cpp:129] Top shape: 1 1 1 70000 (70000)
I0730 18:08:51.729522  1522 net.cpp:137] Memory required for data: 6720000
I0730 18:08:51.729526  1522 layer_factory.hpp:77] Creating layer data_feat
I0730 18:08:51.733927  1522 net.cpp:84] Creating Layer data_feat
I0730 18:08:51.733939  1522 net.cpp:406] data_feat <- data_data_0_split_0
I0730 18:08:51.733958  1522 net.cpp:380] data_feat -> data_feat
I0730 18:08:51.735250  1522 net.cpp:122] Setting up data_feat
I0730 18:08:51.735276  1522 net.cpp:129] Top shape: 1 3 1 70000 (210000)
I0730 18:08:51.735280  1522 net.cpp:137] Memory required for data: 7560000
I0730 18:08:51.735283  1522 layer_factory.hpp:77] Creating layer conv1
I0730 18:08:51.735319  1522 net.cpp:84] Creating Layer conv1
I0730 18:08:51.735325  1522 net.cpp:406] conv1 <- data_feat
I0730 18:08:51.735332  1522 net.cpp:380] conv1 -> conv1
I0730 18:08:52.738428  1522 net.cpp:122] Setting up conv1
I0730 18:08:52.738492  1522 net.cpp:129] Top shape: 1 32 1 70000 (2240000)
I0730 18:08:52.738503  1522 net.cpp:137] Memory required for data: 16520000
I0730 18:08:52.747083  1522 layer_factory.hpp:77] Creating layer bn1
I0730 18:08:52.757881  1522 net.cpp:84] Creating Layer bn1
I0730 18:08:52.757917  1522 net.cpp:406] bn1 <- conv1
I0730 18:08:52.757935  1522 net.cpp:380] bn1 -> bn1
I0730 18:08:52.787560  1522 net.cpp:122] Setting up bn1
I0730 18:08:52.787600  1522 net.cpp:129] Top shape: 1 32 1 70000 (2240000)
I0730 18:08:52.787611  1522 net.cpp:137] Memory required for data: 25480000
I0730 18:08:52.787638  1522 layer_factory.hpp:77] Creating layer relu1
I0730 18:08:52.788383  1522 net.cpp:84] Creating Layer relu1
I0730 18:08:52.788417  1522 net.cpp:406] relu1 <- bn1
I0730 18:08:52.788434  1522 net.cpp:367] relu1 -> bn1 (in-place)
I0730 18:08:52.802497  1522 net.cpp:122] Setting up relu1
I0730 18:08:52.802537  1522 net.cpp:129] Top shape: 1 32 1 70000 (2240000)
I0730 18:08:52.802547  1522 net.cpp:137] Memory required for data: 34440000
I0730 18:08:52.802557  1522 layer_factory.hpp:77] Creating layer bn1_relu1_0_split
I0730 18:08:52.802573  1522 net.cpp:84] Creating Layer bn1_relu1_0_split
I0730 18:08:52.802582  1522 net.cpp:406] bn1_relu1_0_split <- bn1
I0730 18:08:52.802595  1522 net.cpp:380] bn1_relu1_0_split -> bn1_relu1_0_split_0
I0730 18:08:52.802613  1522 net.cpp:380] bn1_relu1_0_split -> bn1_relu1_0_split_1
I0730 18:08:52.802702  1522 net.cpp:122] Setting up bn1_relu1_0_split
I0730 18:08:52.802721  1522 net.cpp:129] Top shape: 1 32 1 70000 (2240000)
I0730 18:08:52.802731  1522 net.cpp:129] Top shape: 1 32 1 70000 (2240000)
I0730 18:08:52.802738  1522 net.cpp:137] Memory required for data: 52360000
I0730 18:08:52.802745  1522 layer_factory.hpp:77] Creating layer fconv1
I0730 18:08:52.802772  1522 net.cpp:84] Creating Layer fconv1
I0730 18:08:52.802798  1522 net.cpp:406] fconv1 <- bn1_relu1_0_split_0
I0730 18:08:52.802812  1522 net.cpp:380] fconv1 -> fconv1
I0730 18:08:52.807312  1522 net.cpp:122] Setting up fconv1
I0730 18:08:52.807364  1522 net.cpp:129] Top shape: 1 3 1 70000 (210000)
I0730 18:08:52.807375  1522 net.cpp:137] Memory required for data: 53200000
I0730 18:08:52.807392  1522 layer_factory.hpp:77] Creating layer fbn1
I0730 18:08:52.807407  1522 net.cpp:84] Creating Layer fbn1
I0730 18:08:52.807415  1522 net.cpp:406] fbn1 <- fconv1
I0730 18:08:52.807427  1522 net.cpp:380] fbn1 -> fbn1
I0730 18:08:52.807963  1522 net.cpp:122] Setting up fbn1
I0730 18:08:52.807986  1522 net.cpp:129] Top shape: 1 3 1 70000 (210000)
I0730 18:08:52.807996  1522 net.cpp:137] Memory required for data: 54040000
I0730 18:08:52.808017  1522 layer_factory.hpp:77] Creating layer frelu1
I0730 18:08:52.808030  1522 net.cpp:84] Creating Layer frelu1
I0730 18:08:52.808038  1522 net.cpp:406] frelu1 <- fbn1
I0730 18:08:52.808049  1522 net.cpp:367] frelu1 -> fbn1 (in-place)
I0730 18:08:52.808655  1522 net.cpp:122] Setting up frelu1
I0730 18:08:52.808687  1522 net.cpp:129] Top shape: 1 3 1 70000 (210000)
I0730 18:08:52.808696  1522 net.cpp:137] Memory required for data: 54880000
I0730 18:08:52.808708  1522 layer_factory.hpp:77] Creating layer data_lattice0
I0730 18:08:52.808840  1522 net.cpp:84] Creating Layer data_lattice0
I0730 18:08:52.808861  1522 net.cpp:406] data_lattice0 <- data_data_0_split_1
I0730 18:08:52.808878  1522 net.cpp:380] data_lattice0 -> data_lattice0
I0730 18:08:52.811487  1522 net.cpp:122] Setting up data_lattice0
I0730 18:08:52.811527  1522 net.cpp:129] Top shape: 1 3 1 70000 (210000)
I0730 18:08:52.811537  1522 net.cpp:137] Memory required for data: 55720000
I0730 18:08:52.811547  1522 layer_factory.hpp:77] Creating layer feat1
I0730 18:08:52.811605  1522 net.cpp:84] Creating Layer feat1
I0730 18:08:52.811623  1522 net.cpp:406] feat1 <- data_lattice0
I0730 18:08:52.811635  1522 net.cpp:406] feat1 <- fbn1
I0730 18:08:52.811647  1522 net.cpp:380] feat1 -> feat1
I0730 18:08:52.811765  1522 net.cpp:122] Setting up feat1
I0730 18:08:52.811787  1522 net.cpp:129] Top shape: 1 3 1 70000 (210000)
I0730 18:08:52.811794  1522 net.cpp:137] Memory required for data: 56560000
I0730 18:08:52.811802  1522 layer_factory.hpp:77] Creating layer feat1_feat1_0_split
I0730 18:08:52.811816  1522 net.cpp:84] Creating Layer feat1_feat1_0_split
I0730 18:08:52.811823  1522 net.cpp:406] feat1_feat1_0_split <- feat1
I0730 18:08:52.811839  1522 net.cpp:380] feat1_feat1_0_split -> feat1_feat1_0_split_0
I0730 18:08:52.811853  1522 net.cpp:380] feat1_feat1_0_split -> feat1_feat1_0_split_1
I0730 18:08:52.811926  1522 net.cpp:122] Setting up feat1_feat1_0_split
I0730 18:08:52.811942  1522 net.cpp:129] Top shape: 1 3 1 70000 (210000)
I0730 18:08:52.811950  1522 net.cpp:129] Top shape: 1 3 1 70000 (210000)
I0730 18:08:52.811957  1522 net.cpp:137] Memory required for data: 58240000
I0730 18:08:52.811964  1522 layer_factory.hpp:77] Creating layer conv2
I0730 18:08:52.812005  1522 net.cpp:84] Creating Layer conv2
I0730 18:08:52.812021  1522 net.cpp:406] conv2 <- bn1_relu1_0_split_1
I0730 18:08:52.812031  1522 net.cpp:406] conv2 <- feat1_feat1_0_split_0
I0730 18:08:52.812039  1522 net.cpp:406] conv2 <- feat1_feat1_0_split_1
I0730 18:08:52.812050  1522 net.cpp:380] conv2 -> conv2
I0730 18:08:52.858121  1522 net.cpp:122] Setting up conv2
I0730 18:08:52.858161  1522 net.cpp:129] Top shape: 1 64 1 70000 (4480000)
I0730 18:08:52.858168  1522 net.cpp:137] Memory required for data: 76160000
I0730 18:08:52.858182  1522 layer_factory.hpp:77] Creating layer bn2
I0730 18:08:52.858194  1522 net.cpp:84] Creating Layer bn2
I0730 18:08:52.858202  1522 net.cpp:406] bn2 <- conv2
I0730 18:08:52.858213  1522 net.cpp:380] bn2 -> bn2
I0730 18:08:52.858650  1522 net.cpp:122] Setting up bn2
I0730 18:08:52.858665  1522 net.cpp:129] Top shape: 1 64 1 70000 (4480000)
I0730 18:08:52.858671  1522 net.cpp:137] Memory required for data: 94080000
I0730 18:08:52.858690  1522 layer_factory.hpp:77] Creating layer relu2
I0730 18:08:52.858705  1522 net.cpp:84] Creating Layer relu2
I0730 18:08:52.858711  1522 net.cpp:406] relu2 <- bn2
I0730 18:08:52.858719  1522 net.cpp:367] relu2 -> bn2 (in-place)
I0730 18:08:52.859812  1522 net.cpp:122] Setting up relu2
I0730 18:08:52.859838  1522 net.cpp:129] Top shape: 1 64 1 70000 (4480000)
I0730 18:08:52.859844  1522 net.cpp:137] Memory required for data: 112000000
I0730 18:08:52.859850  1522 layer_factory.hpp:77] Creating layer bn2_relu2_0_split
I0730 18:08:52.859861  1522 net.cpp:84] Creating Layer bn2_relu2_0_split
I0730 18:08:52.859868  1522 net.cpp:406] bn2_relu2_0_split <- bn2
I0730 18:08:52.859879  1522 net.cpp:380] bn2_relu2_0_split -> bn2_relu2_0_split_0
I0730 18:08:52.859890  1522 net.cpp:380] bn2_relu2_0_split -> bn2_relu2_0_split_1
I0730 18:08:52.859900  1522 net.cpp:380] bn2_relu2_0_split -> bn2_relu2_0_split_2
I0730 18:08:52.859982  1522 net.cpp:122] Setting up bn2_relu2_0_split
I0730 18:08:52.859994  1522 net.cpp:129] Top shape: 1 64 1 70000 (4480000)
I0730 18:08:52.860002  1522 net.cpp:129] Top shape: 1 64 1 70000 (4480000)
I0730 18:08:52.860008  1522 net.cpp:129] Top shape: 1 64 1 70000 (4480000)
I0730 18:08:52.860011  1522 net.cpp:137] Memory required for data: 165760000
I0730 18:08:52.860018  1522 layer_factory.hpp:77] Creating layer fconv2
I0730 18:08:52.860034  1522 net.cpp:84] Creating Layer fconv2
I0730 18:08:52.860044  1522 net.cpp:406] fconv2 <- bn2_relu2_0_split_0
I0730 18:08:52.860054  1522 net.cpp:380] fconv2 -> fconv2
I0730 18:08:52.862952  1522 net.cpp:122] Setting up fconv2
I0730 18:08:52.862977  1522 net.cpp:129] Top shape: 1 3 1 70000 (210000)
I0730 18:08:52.862984  1522 net.cpp:137] Memory required for data: 166600000
I0730 18:08:52.863003  1522 layer_factory.hpp:77] Creating layer fbn2
I0730 18:08:52.863019  1522 net.cpp:84] Creating Layer fbn2
I0730 18:08:52.863026  1522 net.cpp:406] fbn2 <- fconv2
I0730 18:08:52.863036  1522 net.cpp:380] fbn2 -> fbn2
I0730 18:08:52.863476  1522 net.cpp:122] Setting up fbn2
I0730 18:08:52.863492  1522 net.cpp:129] Top shape: 1 3 1 70000 (210000)
I0730 18:08:52.863497  1522 net.cpp:137] Memory required for data: 167440000
I0730 18:08:52.863509  1522 layer_factory.hpp:77] Creating layer frelu2
I0730 18:08:52.863519  1522 net.cpp:84] Creating Layer frelu2
I0730 18:08:52.863525  1522 net.cpp:406] frelu2 <- fbn2
I0730 18:08:52.863534  1522 net.cpp:367] frelu2 -> fbn2 (in-place)
I0730 18:08:52.863983  1522 net.cpp:122] Setting up frelu2
I0730 18:08:52.864001  1522 net.cpp:129] Top shape: 1 3 1 70000 (210000)
I0730 18:08:52.864006  1522 net.cpp:137] Memory required for data: 168280000
I0730 18:08:52.864012  1522 layer_factory.hpp:77] Creating layer data_lattice1
I0730 18:08:52.864074  1522 net.cpp:84] Creating Layer data_lattice1
I0730 18:08:52.864089  1522 net.cpp:406] data_lattice1 <- data_data_0_split_2
I0730 18:08:52.864099  1522 net.cpp:380] data_lattice1 -> data_lattice1
I0730 18:08:52.866385  1522 net.cpp:122] Setting up data_lattice1
I0730 18:08:52.866408  1522 net.cpp:129] Top shape: 1 3 1 70000 (210000)
I0730 18:08:52.866415  1522 net.cpp:137] Memory required for data: 169120000
I0730 18:08:52.866421  1522 layer_factory.hpp:77] Creating layer feat2
I0730 18:08:52.866436  1522 net.cpp:84] Creating Layer feat2
I0730 18:08:52.866441  1522 net.cpp:406] feat2 <- data_lattice1
I0730 18:08:52.866449  1522 net.cpp:406] feat2 <- fbn2
I0730 18:08:52.866458  1522 net.cpp:380] feat2 -> feat2
I0730 18:08:52.866502  1522 net.cpp:122] Setting up feat2
I0730 18:08:52.866514  1522 net.cpp:129] Top shape: 1 3 1 70000 (210000)
I0730 18:08:52.866519  1522 net.cpp:137] Memory required for data: 169960000
I0730 18:08:52.866524  1522 layer_factory.hpp:77] Creating layer feat2_feat2_0_split
I0730 18:08:52.866534  1522 net.cpp:84] Creating Layer feat2_feat2_0_split
I0730 18:08:52.866540  1522 net.cpp:406] feat2_feat2_0_split <- feat2
I0730 18:08:52.866549  1522 net.cpp:380] feat2_feat2_0_split -> feat2_feat2_0_split_0
I0730 18:08:52.866557  1522 net.cpp:380] feat2_feat2_0_split -> feat2_feat2_0_split_1
I0730 18:08:52.866608  1522 net.cpp:122] Setting up feat2_feat2_0_split
I0730 18:08:52.866619  1522 net.cpp:129] Top shape: 1 3 1 70000 (210000)
I0730 18:08:52.866626  1522 net.cpp:129] Top shape: 1 3 1 70000 (210000)
I0730 18:08:52.866631  1522 net.cpp:137] Memory required for data: 171640000
I0730 18:08:52.866634  1522 layer_factory.hpp:77] Creating layer conv3
I0730 18:08:52.866647  1522 net.cpp:84] Creating Layer conv3
I0730 18:08:52.866652  1522 net.cpp:406] conv3 <- bn2_relu2_0_split_1
I0730 18:08:52.866659  1522 net.cpp:406] conv3 <- feat2_feat2_0_split_0
I0730 18:08:52.866665  1522 net.cpp:406] conv3 <- feat2_feat2_0_split_1
I0730 18:08:52.866673  1522 net.cpp:380] conv3 -> conv3
I0730 18:08:52.988026  1522 net.cpp:122] Setting up conv3
I0730 18:08:52.988072  1522 net.cpp:129] Top shape: 1 128 1 70000 (8960000)
I0730 18:08:52.988077  1522 net.cpp:137] Memory required for data: 207480000
I0730 18:08:52.988088  1522 layer_factory.hpp:77] Creating layer bn3
I0730 18:08:52.988099  1522 net.cpp:84] Creating Layer bn3
I0730 18:08:52.988106  1522 net.cpp:406] bn3 <- conv3
I0730 18:08:52.988114  1522 net.cpp:380] bn3 -> bn3
I0730 18:08:52.988416  1522 net.cpp:122] Setting up bn3
I0730 18:08:52.988428  1522 net.cpp:129] Top shape: 1 128 1 70000 (8960000)
I0730 18:08:52.988431  1522 net.cpp:137] Memory required for data: 243320000
I0730 18:08:52.988440  1522 layer_factory.hpp:77] Creating layer relu3
I0730 18:08:52.988456  1522 net.cpp:84] Creating Layer relu3
I0730 18:08:52.988459  1522 net.cpp:406] relu3 <- bn3
I0730 18:08:52.988466  1522 net.cpp:367] relu3 -> bn3 (in-place)
I0730 18:08:52.989322  1522 net.cpp:122] Setting up relu3
I0730 18:08:52.989339  1522 net.cpp:129] Top shape: 1 128 1 70000 (8960000)
I0730 18:08:52.989356  1522 net.cpp:137] Memory required for data: 279160000
I0730 18:08:52.989363  1522 layer_factory.hpp:77] Creating layer bn3_relu3_0_split
I0730 18:08:52.989372  1522 net.cpp:84] Creating Layer bn3_relu3_0_split
I0730 18:08:52.989377  1522 net.cpp:406] bn3_relu3_0_split <- bn3
I0730 18:08:52.989384  1522 net.cpp:380] bn3_relu3_0_split -> bn3_relu3_0_split_0
I0730 18:08:52.989392  1522 net.cpp:380] bn3_relu3_0_split -> bn3_relu3_0_split_1
I0730 18:08:52.989399  1522 net.cpp:380] bn3_relu3_0_split -> bn3_relu3_0_split_2
I0730 18:08:52.989456  1522 net.cpp:122] Setting up bn3_relu3_0_split
I0730 18:08:52.989466  1522 net.cpp:129] Top shape: 1 128 1 70000 (8960000)
I0730 18:08:52.989471  1522 net.cpp:129] Top shape: 1 128 1 70000 (8960000)
I0730 18:08:52.989475  1522 net.cpp:129] Top shape: 1 128 1 70000 (8960000)
I0730 18:08:52.989478  1522 net.cpp:137] Memory required for data: 386680000
I0730 18:08:52.989482  1522 layer_factory.hpp:77] Creating layer fconv3
I0730 18:08:52.989495  1522 net.cpp:84] Creating Layer fconv3
I0730 18:08:52.989500  1522 net.cpp:406] fconv3 <- bn3_relu3_0_split_0
I0730 18:08:52.989508  1522 net.cpp:380] fconv3 -> fconv3
I0730 18:08:52.993068  1522 net.cpp:122] Setting up fconv3
I0730 18:08:52.993085  1522 net.cpp:129] Top shape: 1 3 1 70000 (210000)
I0730 18:08:52.993090  1522 net.cpp:137] Memory required for data: 387520000
I0730 18:08:52.993099  1522 layer_factory.hpp:77] Creating layer fbn3
I0730 18:08:52.993108  1522 net.cpp:84] Creating Layer fbn3
I0730 18:08:52.993111  1522 net.cpp:406] fbn3 <- fconv3
I0730 18:08:52.993119  1522 net.cpp:380] fbn3 -> fbn3
I0730 18:08:52.993432  1522 net.cpp:122] Setting up fbn3
I0730 18:08:52.993443  1522 net.cpp:129] Top shape: 1 3 1 70000 (210000)
I0730 18:08:52.993453  1522 net.cpp:137] Memory required for data: 388360000
I0730 18:08:52.993460  1522 layer_factory.hpp:77] Creating layer frelu3
I0730 18:08:52.993476  1522 net.cpp:84] Creating Layer frelu3
I0730 18:08:52.993480  1522 net.cpp:406] frelu3 <- fbn3
I0730 18:08:52.993486  1522 net.cpp:367] frelu3 -> fbn3 (in-place)
I0730 18:08:52.993818  1522 net.cpp:122] Setting up frelu3
I0730 18:08:52.993830  1522 net.cpp:129] Top shape: 1 3 1 70000 (210000)
I0730 18:08:52.993834  1522 net.cpp:137] Memory required for data: 389200000
I0730 18:08:52.993840  1522 layer_factory.hpp:77] Creating layer data_lattice2
I0730 18:08:52.993912  1522 net.cpp:84] Creating Layer data_lattice2
I0730 18:08:52.993922  1522 net.cpp:406] data_lattice2 <- data_data_0_split_3
I0730 18:08:52.993930  1522 net.cpp:380] data_lattice2 -> data_lattice2
I0730 18:08:52.995520  1522 net.cpp:122] Setting up data_lattice2
I0730 18:08:52.995537  1522 net.cpp:129] Top shape: 1 3 1 70000 (210000)
I0730 18:08:52.995543  1522 net.cpp:137] Memory required for data: 390040000
I0730 18:08:52.995548  1522 layer_factory.hpp:77] Creating layer feat3
I0730 18:08:52.995563  1522 net.cpp:84] Creating Layer feat3
I0730 18:08:52.995568  1522 net.cpp:406] feat3 <- data_lattice2
I0730 18:08:52.995573  1522 net.cpp:406] feat3 <- fbn3
I0730 18:08:52.995580  1522 net.cpp:380] feat3 -> feat3
I0730 18:08:52.995613  1522 net.cpp:122] Setting up feat3
I0730 18:08:52.995620  1522 net.cpp:129] Top shape: 1 3 1 70000 (210000)
I0730 18:08:52.995623  1522 net.cpp:137] Memory required for data: 390880000
I0730 18:08:52.995627  1522 layer_factory.hpp:77] Creating layer feat3_feat3_0_split
I0730 18:08:52.995633  1522 net.cpp:84] Creating Layer feat3_feat3_0_split
I0730 18:08:52.995637  1522 net.cpp:406] feat3_feat3_0_split <- feat3
I0730 18:08:52.995643  1522 net.cpp:380] feat3_feat3_0_split -> feat3_feat3_0_split_0
I0730 18:08:52.995651  1522 net.cpp:380] feat3_feat3_0_split -> feat3_feat3_0_split_1
I0730 18:08:52.995687  1522 net.cpp:122] Setting up feat3_feat3_0_split
I0730 18:08:52.995695  1522 net.cpp:129] Top shape: 1 3 1 70000 (210000)
I0730 18:08:52.995700  1522 net.cpp:129] Top shape: 1 3 1 70000 (210000)
I0730 18:08:52.995703  1522 net.cpp:137] Memory required for data: 392560000
I0730 18:08:52.995707  1522 layer_factory.hpp:77] Creating layer conv4
I0730 18:08:52.995715  1522 net.cpp:84] Creating Layer conv4
I0730 18:08:52.995719  1522 net.cpp:406] conv4 <- bn3_relu3_0_split_1
I0730 18:08:52.995725  1522 net.cpp:406] conv4 <- feat3_feat3_0_split_0
I0730 18:08:52.995729  1522 net.cpp:406] conv4 <- feat3_feat3_0_split_1
I0730 18:08:52.995735  1522 net.cpp:380] conv4 -> conv4
I0730 18:08:53.075628  1522 net.cpp:122] Setting up conv4
I0730 18:08:53.075675  1522 net.cpp:129] Top shape: 1 256 1 70000 (17920000)
I0730 18:08:53.075681  1522 net.cpp:137] Memory required for data: 464240000
I0730 18:08:53.075700  1522 layer_factory.hpp:77] Creating layer bn4
I0730 18:08:53.075714  1522 net.cpp:84] Creating Layer bn4
I0730 18:08:53.075721  1522 net.cpp:406] bn4 <- conv4
I0730 18:08:53.075731  1522 net.cpp:380] bn4 -> bn4
I0730 18:08:53.076040  1522 net.cpp:122] Setting up bn4
I0730 18:08:53.076050  1522 net.cpp:129] Top shape: 1 256 1 70000 (17920000)
I0730 18:08:53.076052  1522 net.cpp:137] Memory required for data: 535920000
I0730 18:08:53.076071  1522 layer_factory.hpp:77] Creating layer relu4
I0730 18:08:53.076078  1522 net.cpp:84] Creating Layer relu4
I0730 18:08:53.076082  1522 net.cpp:406] relu4 <- bn4
I0730 18:08:53.076089  1522 net.cpp:367] relu4 -> bn4 (in-place)
I0730 18:08:53.076997  1522 net.cpp:122] Setting up relu4
I0730 18:08:53.077014  1522 net.cpp:129] Top shape: 1 256 1 70000 (17920000)
I0730 18:08:53.077019  1522 net.cpp:137] Memory required for data: 607600000
I0730 18:08:53.077024  1522 layer_factory.hpp:77] Creating layer bn4_relu4_0_split
I0730 18:08:53.077033  1522 net.cpp:84] Creating Layer bn4_relu4_0_split
I0730 18:08:53.077036  1522 net.cpp:406] bn4_relu4_0_split <- bn4
I0730 18:08:53.077044  1522 net.cpp:380] bn4_relu4_0_split -> bn4_relu4_0_split_0
I0730 18:08:53.077052  1522 net.cpp:380] bn4_relu4_0_split -> bn4_relu4_0_split_1
I0730 18:08:53.077059  1522 net.cpp:380] bn4_relu4_0_split -> bn4_relu4_0_split_2
I0730 18:08:53.077119  1522 net.cpp:122] Setting up bn4_relu4_0_split
I0730 18:08:53.077127  1522 net.cpp:129] Top shape: 1 256 1 70000 (17920000)
I0730 18:08:53.077132  1522 net.cpp:129] Top shape: 1 256 1 70000 (17920000)
I0730 18:08:53.077136  1522 net.cpp:129] Top shape: 1 256 1 70000 (17920000)
I0730 18:08:53.077141  1522 net.cpp:137] Memory required for data: 822640000
I0730 18:08:53.077143  1522 layer_factory.hpp:77] Creating layer fconv4
I0730 18:08:53.077158  1522 net.cpp:84] Creating Layer fconv4
I0730 18:08:53.077162  1522 net.cpp:406] fconv4 <- bn4_relu4_0_split_0
I0730 18:08:53.077172  1522 net.cpp:380] fconv4 -> fconv4
I0730 18:08:53.079305  1522 net.cpp:122] Setting up fconv4
I0730 18:08:53.079324  1522 net.cpp:129] Top shape: 1 3 1 70000 (210000)
I0730 18:08:53.079329  1522 net.cpp:137] Memory required for data: 823480000
I0730 18:08:53.079339  1522 layer_factory.hpp:77] Creating layer fbn4
I0730 18:08:53.079354  1522 net.cpp:84] Creating Layer fbn4
I0730 18:08:53.079358  1522 net.cpp:406] fbn4 <- fconv4
I0730 18:08:53.079365  1522 net.cpp:380] fbn4 -> fbn4
I0730 18:08:53.079670  1522 net.cpp:122] Setting up fbn4
I0730 18:08:53.079680  1522 net.cpp:129] Top shape: 1 3 1 70000 (210000)
I0730 18:08:53.079684  1522 net.cpp:137] Memory required for data: 824320000
I0730 18:08:53.079692  1522 layer_factory.hpp:77] Creating layer frelu4
I0730 18:08:53.079699  1522 net.cpp:84] Creating Layer frelu4
I0730 18:08:53.079704  1522 net.cpp:406] frelu4 <- fbn4
I0730 18:08:53.079710  1522 net.cpp:367] frelu4 -> fbn4 (in-place)
I0730 18:08:53.080040  1522 net.cpp:122] Setting up frelu4
I0730 18:08:53.080054  1522 net.cpp:129] Top shape: 1 3 1 70000 (210000)
I0730 18:08:53.080057  1522 net.cpp:137] Memory required for data: 825160000
I0730 18:08:53.080061  1522 layer_factory.hpp:77] Creating layer data_lattice3
I0730 18:08:53.080130  1522 net.cpp:84] Creating Layer data_lattice3
I0730 18:08:53.080139  1522 net.cpp:406] data_lattice3 <- data_data_0_split_4
I0730 18:08:53.080147  1522 net.cpp:380] data_lattice3 -> data_lattice3
I0730 18:08:53.081586  1522 net.cpp:122] Setting up data_lattice3
I0730 18:08:53.081604  1522 net.cpp:129] Top shape: 1 3 1 70000 (210000)
I0730 18:08:53.081609  1522 net.cpp:137] Memory required for data: 826000000
I0730 18:08:53.081614  1522 layer_factory.hpp:77] Creating layer feat4
I0730 18:08:53.081625  1522 net.cpp:84] Creating Layer feat4
I0730 18:08:53.081630  1522 net.cpp:406] feat4 <- data_lattice3
I0730 18:08:53.081636  1522 net.cpp:406] feat4 <- fbn4
I0730 18:08:53.081645  1522 net.cpp:380] feat4 -> feat4
I0730 18:08:53.081676  1522 net.cpp:122] Setting up feat4
I0730 18:08:53.081682  1522 net.cpp:129] Top shape: 1 3 1 70000 (210000)
I0730 18:08:53.081686  1522 net.cpp:137] Memory required for data: 826840000
I0730 18:08:53.081691  1522 layer_factory.hpp:77] Creating layer feat4_feat4_0_split
I0730 18:08:53.081697  1522 net.cpp:84] Creating Layer feat4_feat4_0_split
I0730 18:08:53.081701  1522 net.cpp:406] feat4_feat4_0_split <- feat4
I0730 18:08:53.081707  1522 net.cpp:380] feat4_feat4_0_split -> feat4_feat4_0_split_0
I0730 18:08:53.081715  1522 net.cpp:380] feat4_feat4_0_split -> feat4_feat4_0_split_1
I0730 18:08:53.081753  1522 net.cpp:122] Setting up feat4_feat4_0_split
I0730 18:08:53.081761  1522 net.cpp:129] Top shape: 1 3 1 70000 (210000)
I0730 18:08:53.081765  1522 net.cpp:129] Top shape: 1 3 1 70000 (210000)
I0730 18:08:53.081769  1522 net.cpp:137] Memory required for data: 828520000
I0730 18:08:53.081773  1522 layer_factory.hpp:77] Creating layer conv5
I0730 18:08:53.081781  1522 net.cpp:84] Creating Layer conv5
I0730 18:08:53.081785  1522 net.cpp:406] conv5 <- bn4_relu4_0_split_1
I0730 18:08:53.081790  1522 net.cpp:406] conv5 <- feat4_feat4_0_split_0
I0730 18:08:53.081795  1522 net.cpp:406] conv5 <- feat4_feat4_0_split_1
I0730 18:08:53.081801  1522 net.cpp:380] conv5 -> conv5
I0730 18:08:53.200054  1524 solver.cpp:190] Creating test net (#0) specified by test_net file: area6_netm_sum4.prototxt
I0730 18:08:53.241050  1522 net.cpp:122] Setting up conv5
I0730 18:08:53.241084  1522 net.cpp:129] Top shape: 1 256 1 70000 (17920000)
I0730 18:08:53.241088  1522 net.cpp:137] Memory required for data: 900200000
I0730 18:08:53.241099  1522 layer_factory.hpp:77] Creating layer bn5
I0730 18:08:53.241112  1522 net.cpp:84] Creating Layer bn5
I0730 18:08:53.241118  1522 net.cpp:406] bn5 <- conv5
I0730 18:08:53.241127  1522 net.cpp:380] bn5 -> bn5
I0730 18:08:53.241447  1522 net.cpp:122] Setting up bn5
I0730 18:08:53.241457  1522 net.cpp:129] Top shape: 1 256 1 70000 (17920000)
I0730 18:08:53.241461  1522 net.cpp:137] Memory required for data: 971880000
I0730 18:08:53.241470  1522 layer_factory.hpp:77] Creating layer relu5
I0730 18:08:53.241487  1522 net.cpp:84] Creating Layer relu5
I0730 18:08:53.241490  1522 net.cpp:406] relu5 <- bn5
I0730 18:08:53.241497  1522 net.cpp:367] relu5 -> bn5 (in-place)
I0730 18:08:53.242449  1522 net.cpp:122] Setting up relu5
I0730 18:08:53.242465  1522 net.cpp:129] Top shape: 1 256 1 70000 (17920000)
I0730 18:08:53.242470  1522 net.cpp:137] Memory required for data: 1043560000
I0730 18:08:53.242477  1522 layer_factory.hpp:77] Creating layer bn5_relu5_0_split
I0730 18:08:53.242486  1522 net.cpp:84] Creating Layer bn5_relu5_0_split
I0730 18:08:53.242491  1522 net.cpp:406] bn5_relu5_0_split <- bn5
I0730 18:08:53.242497  1522 net.cpp:380] bn5_relu5_0_split -> bn5_relu5_0_split_0
I0730 18:08:53.242506  1522 net.cpp:380] bn5_relu5_0_split -> bn5_relu5_0_split_1
I0730 18:08:53.242513  1522 net.cpp:380] bn5_relu5_0_split -> bn5_relu5_0_split_2
I0730 18:08:53.242573  1522 net.cpp:122] Setting up bn5_relu5_0_split
I0730 18:08:53.242583  1522 net.cpp:129] Top shape: 1 256 1 70000 (17920000)
I0730 18:08:53.242586  1522 net.cpp:129] Top shape: 1 256 1 70000 (17920000)
I0730 18:08:53.242591  1522 net.cpp:129] Top shape: 1 256 1 70000 (17920000)
I0730 18:08:53.242594  1522 net.cpp:137] Memory required for data: 1258600000
I0730 18:08:53.242599  1522 layer_factory.hpp:77] Creating layer fconv5
I0730 18:08:53.242612  1522 net.cpp:84] Creating Layer fconv5
I0730 18:08:53.242619  1522 net.cpp:406] fconv5 <- bn5_relu5_0_split_0
I0730 18:08:53.242627  1522 net.cpp:380] fconv5 -> fconv5
I0730 18:08:53.244740  1522 net.cpp:122] Setting up fconv5
I0730 18:08:53.244757  1522 net.cpp:129] Top shape: 1 3 1 70000 (210000)
I0730 18:08:53.244762  1522 net.cpp:137] Memory required for data: 1259440000
I0730 18:08:53.244771  1522 layer_factory.hpp:77] Creating layer fbn5
I0730 18:08:53.244778  1522 net.cpp:84] Creating Layer fbn5
I0730 18:08:53.244783  1522 net.cpp:406] fbn5 <- fconv5
I0730 18:08:53.244791  1522 net.cpp:380] fbn5 -> fbn5
I0730 18:08:53.245100  1522 net.cpp:122] Setting up fbn5
I0730 18:08:53.245110  1522 net.cpp:129] Top shape: 1 3 1 70000 (210000)
I0730 18:08:53.245115  1522 net.cpp:137] Memory required for data: 1260280000
I0730 18:08:53.245123  1522 layer_factory.hpp:77] Creating layer frelu5
I0730 18:08:53.245132  1522 net.cpp:84] Creating Layer frelu5
I0730 18:08:53.245137  1522 net.cpp:406] frelu5 <- fbn5
I0730 18:08:53.245143  1522 net.cpp:367] frelu5 -> fbn5 (in-place)
I0730 18:08:53.245838  1522 net.cpp:122] Setting up frelu5
I0730 18:08:53.245856  1522 net.cpp:129] Top shape: 1 3 1 70000 (210000)
I0730 18:08:53.245860  1522 net.cpp:137] Memory required for data: 1261120000
I0730 18:08:53.245864  1522 layer_factory.hpp:77] Creating layer data_lattice4
I0730 18:08:53.245925  1522 net.cpp:84] Creating Layer data_lattice4
I0730 18:08:53.245934  1522 net.cpp:406] data_lattice4 <- data_data_0_split_5
I0730 18:08:53.245942  1522 net.cpp:380] data_lattice4 -> data_lattice4
I0730 18:08:53.247414  1522 net.cpp:122] Setting up data_lattice4
I0730 18:08:53.247432  1522 net.cpp:129] Top shape: 1 3 1 70000 (210000)
I0730 18:08:53.247437  1522 net.cpp:137] Memory required for data: 1261960000
I0730 18:08:53.247442  1522 layer_factory.hpp:77] Creating layer feat5
I0730 18:08:53.247452  1522 net.cpp:84] Creating Layer feat5
I0730 18:08:53.247457  1522 net.cpp:406] feat5 <- data_lattice4
I0730 18:08:53.247462  1522 net.cpp:406] feat5 <- fbn5
I0730 18:08:53.247470  1522 net.cpp:380] feat5 -> feat5
I0730 18:08:53.247503  1522 net.cpp:122] Setting up feat5
I0730 18:08:53.247511  1522 net.cpp:129] Top shape: 1 3 1 70000 (210000)
I0730 18:08:53.247515  1522 net.cpp:137] Memory required for data: 1262800000
I0730 18:08:53.247519  1522 layer_factory.hpp:77] Creating layer feat5_feat5_0_split
I0730 18:08:53.247525  1522 net.cpp:84] Creating Layer feat5_feat5_0_split
I0730 18:08:53.247529  1522 net.cpp:406] feat5_feat5_0_split <- feat5
I0730 18:08:53.247535  1522 net.cpp:380] feat5_feat5_0_split -> feat5_feat5_0_split_0
I0730 18:08:53.247543  1522 net.cpp:380] feat5_feat5_0_split -> feat5_feat5_0_split_1
I0730 18:08:53.247592  1522 net.cpp:122] Setting up feat5_feat5_0_split
I0730 18:08:53.247601  1522 net.cpp:129] Top shape: 1 3 1 70000 (210000)
I0730 18:08:53.247606  1522 net.cpp:129] Top shape: 1 3 1 70000 (210000)
I0730 18:08:53.247609  1522 net.cpp:137] Memory required for data: 1264480000
I0730 18:08:53.247612  1522 layer_factory.hpp:77] Creating layer conv6
I0730 18:08:53.247624  1522 net.cpp:84] Creating Layer conv6
I0730 18:08:53.247628  1522 net.cpp:406] conv6 <- bn5_relu5_0_split_1
I0730 18:08:53.247634  1522 net.cpp:406] conv6 <- feat5_feat5_0_split_0
I0730 18:08:53.247638  1522 net.cpp:406] conv6 <- feat5_feat5_0_split_1
I0730 18:08:53.247645  1522 net.cpp:380] conv6 -> conv6
I0730 18:08:53.284853  1522 net.cpp:122] Setting up conv6
I0730 18:08:53.284895  1522 net.cpp:129] Top shape: 1 256 1 70000 (17920000)
I0730 18:08:53.284900  1522 net.cpp:137] Memory required for data: 1336160000
I0730 18:08:53.284914  1522 layer_factory.hpp:77] Creating layer bn6
I0730 18:08:53.284926  1522 net.cpp:84] Creating Layer bn6
I0730 18:08:53.284934  1522 net.cpp:406] bn6 <- conv6
I0730 18:08:53.284943  1522 net.cpp:380] bn6 -> bn6
I0730 18:08:53.285262  1522 net.cpp:122] Setting up bn6
I0730 18:08:53.285274  1522 net.cpp:129] Top shape: 1 256 1 70000 (17920000)
I0730 18:08:53.285277  1522 net.cpp:137] Memory required for data: 1407840000
I0730 18:08:53.285285  1522 layer_factory.hpp:77] Creating layer relu6
I0730 18:08:53.285293  1522 net.cpp:84] Creating Layer relu6
I0730 18:08:53.285297  1522 net.cpp:406] relu6 <- bn6
I0730 18:08:53.285303  1522 net.cpp:367] relu6 -> bn6 (in-place)
I0730 18:08:53.285733  1522 net.cpp:122] Setting up relu6
I0730 18:08:53.285748  1522 net.cpp:129] Top shape: 1 256 1 70000 (17920000)
I0730 18:08:53.285751  1522 net.cpp:137] Memory required for data: 1479520000
I0730 18:08:53.285763  1522 layer_factory.hpp:77] Creating layer concat6
I0730 18:08:53.285821  1522 net.cpp:84] Creating Layer concat6
I0730 18:08:53.285830  1522 net.cpp:406] concat6 <- bn6
I0730 18:08:53.285837  1522 net.cpp:406] concat6 <- bn2_relu2_0_split_2
I0730 18:08:53.285842  1522 net.cpp:406] concat6 <- bn3_relu3_0_split_2
I0730 18:08:53.285847  1522 net.cpp:406] concat6 <- bn4_relu4_0_split_2
I0730 18:08:53.285851  1522 net.cpp:406] concat6 <- bn5_relu5_0_split_2
I0730 18:08:53.285857  1522 net.cpp:380] concat6 -> concat6
I0730 18:08:53.285912  1522 net.cpp:122] Setting up concat6
I0730 18:08:53.285924  1522 net.cpp:129] Top shape: 1 960 1 70000 (67200000)
I0730 18:08:53.285928  1522 net.cpp:137] Memory required for data: 1748320000
I0730 18:08:53.285931  1522 layer_factory.hpp:77] Creating layer conv7
I0730 18:08:53.285945  1522 net.cpp:84] Creating Layer conv7
I0730 18:08:53.285951  1522 net.cpp:406] conv7 <- concat6
I0730 18:08:53.285959  1522 net.cpp:380] conv7 -> conv7
I0730 18:08:53.290673  1522 net.cpp:122] Setting up conv7
I0730 18:08:53.290693  1522 net.cpp:129] Top shape: 1 128 1 70000 (8960000)
I0730 18:08:53.290697  1522 net.cpp:137] Memory required for data: 1784160000
I0730 18:08:53.290706  1522 layer_factory.hpp:77] Creating layer bn7
I0730 18:08:53.290714  1522 net.cpp:84] Creating Layer bn7
I0730 18:08:53.290719  1522 net.cpp:406] bn7 <- conv7
I0730 18:08:53.290726  1522 net.cpp:380] bn7 -> bn7
I0730 18:08:53.291012  1522 net.cpp:122] Setting up bn7
I0730 18:08:53.291021  1522 net.cpp:129] Top shape: 1 128 1 70000 (8960000)
I0730 18:08:53.291025  1522 net.cpp:137] Memory required for data: 1820000000
I0730 18:08:53.291033  1522 layer_factory.hpp:77] Creating layer relu7
I0730 18:08:53.291043  1522 net.cpp:84] Creating Layer relu7
I0730 18:08:53.291049  1522 net.cpp:406] relu7 <- bn7
I0730 18:08:53.291054  1522 net.cpp:367] relu7 -> bn7 (in-place)
I0730 18:08:53.291784  1522 net.cpp:122] Setting up relu7
I0730 18:08:53.291800  1522 net.cpp:129] Top shape: 1 128 1 70000 (8960000)
I0730 18:08:53.291805  1522 net.cpp:137] Memory required for data: 1855840000
I0730 18:08:53.291810  1522 layer_factory.hpp:77] Creating layer conv8
I0730 18:08:53.291822  1522 net.cpp:84] Creating Layer conv8
I0730 18:08:53.291827  1522 net.cpp:406] conv8 <- bn7
I0730 18:08:53.291836  1522 net.cpp:380] conv8 -> conv8
I0730 18:08:53.295274  1522 net.cpp:122] Setting up conv8
I0730 18:08:53.295294  1522 net.cpp:129] Top shape: 1 13 1 70000 (910000)
I0730 18:08:53.295298  1522 net.cpp:137] Memory required for data: 1859480000
I0730 18:08:53.295307  1522 layer_factory.hpp:77] Creating layer conv8_conv8_0_split
I0730 18:08:53.295316  1522 net.cpp:84] Creating Layer conv8_conv8_0_split
I0730 18:08:53.295322  1522 net.cpp:406] conv8_conv8_0_split <- conv8
I0730 18:08:53.295330  1522 net.cpp:380] conv8_conv8_0_split -> conv8_conv8_0_split_0
I0730 18:08:53.295338  1522 net.cpp:380] conv8_conv8_0_split -> conv8_conv8_0_split_1
I0730 18:08:53.295401  1522 net.cpp:122] Setting up conv8_conv8_0_split
I0730 18:08:53.295411  1522 net.cpp:129] Top shape: 1 13 1 70000 (910000)
I0730 18:08:53.295421  1522 net.cpp:129] Top shape: 1 13 1 70000 (910000)
I0730 18:08:53.295425  1522 net.cpp:137] Memory required for data: 1866760000
I0730 18:08:53.295429  1522 layer_factory.hpp:77] Creating layer loss
I0730 18:08:53.295470  1522 net.cpp:84] Creating Layer loss
I0730 18:08:53.295480  1522 net.cpp:406] loss <- conv8_conv8_0_split_0
I0730 18:08:53.295486  1522 net.cpp:406] loss <- label_data_1_split_0
I0730 18:08:53.295493  1522 net.cpp:380] loss -> loss
…
