…
I0730 13:01:14.302660 28498 net.cpp:317] The NetState phase (0) differed from the phase (1) specified by a rule in layer data
I0730 13:01:14.303570 28498 net.cpp:50] Initializing net from parameters: 
state {
  phase: TRAIN
}
layer {
  name: "data"
  type: "Python"
  top: "data"
  top: "label"
  include {
    phase: TRAIN
  }
  python_param {
    module: "dataset_lidar"
    layer: "InputShapenet"
    param_str: "{\'sample_size\': 70000, \'test_area\': \'6\', \'batch_size\': 1, \'feat_dims\': \'x_y_z\', \'subset\': \'train\', \'root\': \'../../data/shapenet_ericyi_ply\', \'jitter_xyz\': 0.01, \'jitter_stretch\': 0.05, \'jitter_rotation\': 5.0}"
  }
}
layer {
  name: "data_feat"
  type: "Python"
  bottom: "data"
  top: "data_feat"
  python_param {
    module: "custom_layers"
    layer: "PickAndScale"
    param_str: "0_1_2"
  }
}
layer {
  name: "conv1"
  type: "Convolution"
  bottom: "data_feat"
  top: "conv1"
  param {
    lr_mult: 0
  }
  param {
    lr_mult: 0
  }
  convolution_param {
    num_output: 32
    pad: 0
    kernel_size: 1
    stride: 1
    weight_filler {
      type: "xavier"
    }
    bias_filler {
      type: "constant"
      value: 0
    }
  }
}
layer {
  name: "bn1"
  type: "BatchNorm"
  bottom: "conv1"
  top: "bn1"
}
layer {
  name: "relu1"
  type: "ReLU"
  bottom: "bn1"
  top: "bn1"
}
layer {
  name: "fconv1"
  type: "Convolution"
  bottom: "bn1"
  top: "fconv1"
  param {
    lr_mult: 0.5
  }
  param {
    lr_mult: 0.05
  }
  convolution_param {
    num_output: 3
    pad: 0
    kernel_size: 1
    stride: 1
    weight_filler {
      type: "xavier"
    }
    bias_filler {
      type: "constant"
      value: 0
    }
  }
}
layer {
  name: "fbn1"
  type: "BatchNorm"
  bottom: "fconv1"
  top: "fbn1"
}
layer {
  name: "frelu1"
  type: "ReLU"
  bottom: "fbn1"
  top: "fbn1"
}
layer {
  name: "data_lattice0"
  type: "Python"
  bottom: "data"
  top: "data_lattice0"
  python_param {
    module: "custom_layers"
    layer: "PickAndScale"
    param_str: "0*48_1*48_2*48"
  }
}
layer {
  name: "feat1"
  type: "Eltwise"
  bottom: "data_lattice0"
  bottom: "fbn1"
  top: "feat1"
  eltwise_param {
    operation: SUM
  }
}
layer {
  name: "conv2"
  type: "Permutohedral"
  bottom: "bn1"
  bottom: "feat1"
  bottom: "feat1"
  top: "conv2"
  param {
    lr_mult: 0
    decay_mult: 0
  }
  param {
    lr_mult: 0
    decay_mult: 0
  }
  permutohedral_param {
    num_output: 64
    neighborhood_size: 4
    filter_filler {
      type: "gaussian"
      std: 0.001
    }
    bias_term: true
    bias_filler {
      type: "constant"
      value: 0
    }
    group: 1
    norm_type: AFTER
    offset_type: NONE
  }
}
layer {
  name: "bn2"
  type: "BatchNorm"
  bottom: "conv2"
  top: "bn2"
}
layer {
  name: "relu2"
  type: "ReLU"
  bottom: "bn2"
  top: "bn2"
}
layer {
  name: "fconv2"
  type: "Convolution"
  bottom: "bn2"
  top: "fconv2"
  param {
    lr_mult: 0.5
  }
  param {
    lr_mult: 0.05
  }
  convolution_param {
    num_output: 3
    pad: 0
    kernel_size: 1
    stride: 1
    weight_filler {
      type: "xavier"
    }
    bias_filler {
      type: "constant"
      value: 0
    }
  }
}
layer {
  name: "fbn2"
  type: "BatchNorm"
  bottom: "fconv2"
  top: "fbn2"
}
layer {
  name: "frelu2"
  type: "ReLU"
  bottom: "fbn2"
  top: "fbn2"
}
layer {
  name: "data_lattice1"
  type: "Python"
  bottom: "data"
  top: "data_lattice1"
  python_param {
    module: "custom_layers"
    layer: "PickAndScale"
    param_str: "0*24_1*24_2*24"
  }
}
layer {
  name: "feat2"
  type: "Eltwise"
  bottom: "data_lattice1"
  bottom: "fbn2"
  top: "feat2"
  eltwise_param {
    operation: SUM
  }
}
layer {
  name: "conv3"
  type: "Permutohedral"
  bottom: "bn2"
  bottom: "feat2"
  bottom: "feat2"
  top: "conv3"
  param {
    lr_mult: 0
    decay_mult: 0
  }
  param {
    lr_mult: 0
    decay_mult: 0
  }
  permutohedral_param {
    num_output: 128
    neighborhood_size: 4
    filter_filler {
      type: "gaussian"
      std: 0.001
    }
    bias_term: true
    bias_filler {
      type: "constant"
      value: 0
    }
    group: 1
    norm_type: AFTER
    offset_type: NONE
  }
}
layer {
  name: "bn3"
  type: "BatchNorm"
  bottom: "conv3"
  top: "bn3"
}
layer {
  name: "relu3"
  type: "ReLU"
  bottom: "bn3"
  top: "bn3"
}
layer {
  name: "fconv3"
  type: "Convolution"
  bottom: "bn3"
  top: "fconv3"
  param {
    lr_mult: 0.5
  }
  param {
    lr_mult: 0.05
  }
  convolution_param {
    num_output: 3
    pad: 0
    kernel_size: 1
    stride: 1
    weight_filler {
      type: "xavier"
    }
    bias_filler {
      type: "constant"
      value: 0
    }
  }
}
layer {
  name: "fbn3"
  type: "BatchNorm"
  bottom: "fconv3"
  top: "fbn3"
}
layer {
  name: "frelu3"
  type: "ReLU"
  bottom: "fbn3"
  top: "fbn3"
}
layer {
  name: "data_lattice2"
  type: "Python"
  bottom: "data"
  top: "data_lattice2"
  python_param {
    module: "custom_layers"
    layer: "PickAndScale"
    param_str: "0*12_1*12_2*12"
  }
}
layer {
  name: "feat3"
  type: "Eltwise"
  bottom: "data_lattice2"
  bottom: "fbn3"
  top: "feat3"
  eltwise_param {
    operation: SUM
  }
}
layer {
  name: "conv4"
  type: "Permutohedral"
  bottom: "bn3"
  bottom: "feat3"
  bottom: "feat3"
  top: "conv4"
  param {
    lr_mult: 0
    decay_mult: 0
  }
  param {
    lr_mult: 0
    decay_mult: 0
  }
  permutohedral_param {
    num_output: 256
    neighborhood_size: 2
    filter_filler {
      type: "gaussian"
      std: 0.001
    }
    bias_term: true
    bias_filler {
      type: "constant"
      value: 0
    }
    group: 1
    norm_type: AFTER
    offset_type: NONE
  }
}
layer {
  name: "bn4"
  type: "BatchNorm"
  bottom: "conv4"
  top: "bn4"
}
layer {
  name: "relu4"
  type: "ReLU"
  bottom: "bn4"
  top: "bn4"
}
layer {
  name: "fconv4"
  type: "Convolution"
  bottom: "bn4"
  top: "fconv4"
  param {
    lr_mult: 0.5
  }
  param {
    lr_mult: 0.05
  }
  convolution_param {
    num_output: 3
    pad: 0
    kernel_size: 1
    stride: 1
    weight_filler {
      type: "xavier"
    }
    bias_filler {
      type: "constant"
      value: 0
    }
  }
}
layer {
  name: "fbn4"
  type: "BatchNorm"
  bottom: "fconv4"
  top: "fbn4"
}
layer {
  name: "frelu4"
  type: "ReLU"
  bottom: "fbn4"
  top: "fbn4"
}
layer {
  name: "data_lattice3"
  type: "Python"
  bottom: "data"
  top: "data_lattice3"
  python_param {
    module: "custom_layers"
    layer: "PickAndScale"
    param_str: "0*6_1*6_2*6"
  }
}
layer {
  name: "feat4"
  type: "Eltwise"
  bottom: "data_lattice3"
  bottom: "fbn4"
  top: "feat4"
  eltwise_param {
    operation: SUM
  }
}
layer {
  name: "conv5"
  type: "Permutohedral"
  bottom: "bn4"
  bottom: "feat4"
  bottom: "feat4"
  top: "conv5"
  param {
    lr_mult: 0
    decay_mult: 0
  }
  param {
    lr_mult: 0
    decay_mult: 0
  }
  permutohedral_param {
    num_output: 256
    neighborhood_size: 2
    filter_filler {
      type: "gaussian"
      std: 0.001
    }
    bias_term: true
    bias_filler {
      type: "constant"
      value: 0
    }
    group: 1
    norm_type: AFTER
    offset_type: NONE
  }
}
layer {
  name: "bn5"
  type: "BatchNorm"
  bottom: "conv5"
  top: "bn5"
}
layer {
  name: "relu5"
  type: "ReLU"
  bottom: "bn5"
  top: "bn5"
}
layer {
  name: "fconv5"
  type: "Convolution"
  bottom: "bn5"
  top: "fconv5"
  param {
    lr_mult: 0.5
  }
  param {
    lr_mult: 0.05
  }
  convolution_param {
    num_output: 3
    pad: 0
    kernel_size: 1
    stride: 1
    weight_filler {
      type: "xavier"
    }
    bias_filler {
      type: "constant"
      value: 0
    }
  }
}
layer {
  name: "fbn5"
  type: "BatchNorm"
  bottom: "fconv5"
  top: "fbn5"
}
layer {
  name: "frelu5"
  type: "ReLU"
  bottom: "fbn5"
  top: "fbn5"
}
layer {
  name: "data_lattice4"
  type: "Python"
  bottom: "data"
  top: "data_lattice4"
  python_param {
    module: "custom_layers"
    layer: "PickAndScale"
    param_str: "0*3_1*3_2*3"
  }
}
layer {
  name: "feat5"
  type: "Eltwise"
  bottom: "data_lattice4"
  bottom: "fbn5"
  top: "feat5"
  eltwise_param {
    operation: SUM
  }
}
layer {
  name: "conv6"
  type: "Permutohedral"
  bottom: "bn5"
  bottom: "feat5"
  bottom: "feat5"
  top: "conv6"
  param {
    lr_mult: 0
    decay_mult: 0
  }
  param {
    lr_mult: 0
    decay_mult: 0
  }
  permutohedral_param {
    num_output: 256
    neighborhood_size: 1
    filter_filler {
      type: "gaussian"
      std: 0.001
    }
    bias_term: true
    bias_filler {
      type: "constant"
      value: 0
    }
    group: 1
    norm_type: AFTER
    offset_type: NONE
  }
}
layer {
  name: "bn6"
  type: "BatchNorm"
  bottom: "conv6"
  top: "bn6"
}
layer {
  name: "relu6"
  type: "ReLU"
  bottom: "bn6"
  top: "bn6"
}
layer {
  name: "concat6"
  type: "Concat"
  bottom: "bn6"
  bottom: "bn2"
  bottom: "bn3"
  bottom: "bn4"
  bottom: "bn5"
  top: "concat6"
}
layer {
  name: "conv7"
  type: "Convolution"
  bottom: "concat6"
  top: "conv7"
  param {
    lr_mult: 0
  }
  param {
    lr_mult: 0
  }
  convolution_param {
    num_output: 128
    pad: 0
    kernel_size: 1
    stride: 1
    weight_filler {
      type: "xavier"
    }
    bias_filler {
      type: "constant"
      value: 0
    }
  }
}
layer {
  name: "bn7"
  type: "BatchNorm"
  bottom: "conv7"
  top: "bn7"
}
layer {
  name: "relu7"
  type: "ReLU"
  bottom: "bn7"
  top: "bn7"
}
layer {
  name: "conv8"
  type: "Convolution"
  bottom: "bn7"
  top: "conv8"
  param {
    lr_mult: 0
  }
  param {
    lr_mult: 0
  }
  convolution_param {
    num_output: 13
    pad: 0
    kernel_size: 1
    stride: 1
    weight_filler {
      type: "xavier"
    }
    bias_filler {
      type: "constant"
      value: 0
    }
  }
}
layer {
  name: "loss"
  type: "SoftmaxWithLoss"
  bottom: "conv8"
  bottom: "label"
  top: "loss"
}
layer {
  name: "accuracy"
  type: "Accuracy"
  bottom: "conv8"
  bottom: "label"
  top: "accuracy"
}
I0730 13:01:14.333842 28498 layer_factory.hpp:76] Creating layer data
I0730 13:01:14.364410 28498 net.cpp:98] Creating Layer data
I0730 13:01:14.365557 28498 net.cpp:398] data -> data
I0730 13:01:14.386927 28498 net.cpp:398] data -> label
I0730 13:01:14.386997 28498 net.cpp:133] Setting up data
Using network defined at area6_netm_sum4_f.prototxt
I0730 13:01:15.429702 28499 solver.cpp:68] Initializing solver from parameters: 
…
I0730 13:01:15.487016 28500 net.cpp:317] The NetState phase (0) differed from the phase (1) specified by a rule in layer data
I0730 13:01:15.487444 28500 net.cpp:50] Initializing net from parameters: 
state {
  phase: TRAIN
}
layer {
  name: "data"
  type: "Python"
  top: "data"
  top: "label"
  include {
    phase: TRAIN
  }
  python_param {
    module: "dataset_lidar"
    layer: "InputShapenet"
    param_str: "{\'sample_size\': 70000, \'test_area\': \'6\', \'batch_size\': 1, \'feat_dims\': \'x_y_z\', \'subset\': \'train\', \'root\': \'../../data/shapenet_ericyi_ply\', \'jitter_xyz\': 0.01, \'jitter_stretch\': 0.05, \'jitter_rotation\': 5.0}"
  }
}
layer {
  name: "data_feat"
  type: "Python"
  bottom: "data"
  top: "data_feat"
  python_param {
    module: "custom_layers"
    layer: "PickAndScale"
    param_str: "0_1_2"
  }
}
layer {
  name: "conv1"
  type: "Convolution"
  bottom: "data_feat"
  top: "conv1"
  param {
    lr_mult: 0
  }
  param {
    lr_mult: 0
  }
  convolution_param {
    num_output: 32
    pad: 0
    kernel_size: 1
    stride: 1
    weight_filler {
      type: "xavier"
    }
    bias_filler {
      type: "constant"
      value: 0
    }
  }
}
layer {
  name: "bn1"
  type: "BatchNorm"
  bottom: "conv1"
  top: "bn1"
}
layer {
  name: "relu1"
  type: "ReLU"
  bottom: "bn1"
  top: "bn1"
}
layer {
  name: "fconv1"
  type: "Convolution"
  bottom: "bn1"
  top: "fconv1"
  param {
    lr_mult: 0.5
  }
  param {
    lr_mult: 0.05
  }
  convolution_param {
    num_output: 3
    pad: 0
    kernel_size: 1
    stride: 1
    weight_filler {
      type: "xavier"
    }
    bias_filler {
      type: "constant"
      value: 0
    }
  }
}
layer {
  name: "fbn1"
  type: "BatchNorm"
  bottom: "fconv1"
  top: "fbn1"
}
layer {
  name: "frelu1"
  type: "ReLU"
  bottom: "fbn1"
  top: "fbn1"
}
layer {
  name: "data_lattice0"
  type: "Python"
  bottom: "data"
  top: "data_lattice0"
  python_param {
    module: "custom_layers"
    layer: "PickAndScale"
    param_str: "0*48_1*48_2*48"
  }
}
layer {
  name: "feat1"
  type: "Eltwise"
  bottom: "data_lattice0"
  bottom: "fbn1"
  top: "feat1"
  eltwise_param {
    operation: SUM
  }
}
layer {
  name: "conv2"
  type: "Permutohedral"
  bottom: "bn1"
  bottom: "feat1"
  bottom: "feat1"
  top: "conv2"
  param {
    lr_mult: 0
    decay_mult: 0
  }
  param {
    lr_mult: 0
    decay_mult: 0
  }
  permutohedral_param {
    num_output: 64
    neighborhood_size: 4
    filter_filler {
      type: "gaussian"
      std: 0.001
    }
    bias_term: true
    bias_filler {
      type: "constant"
      value: 0
    }
    group: 1
    norm_type: AFTER
    offset_type: NONE
  }
}
layer {
  name: "bn2"
  type: "BatchNorm"
  bottom: "conv2"
  top: "bn2"
}
layer {
  name: "relu2"
  type: "ReLU"
  bottom: "bn2"
  top: "bn2"
}
layer {
  name: "fconv2"
  type: "Convolution"
  bottom: "bn2"
  top: "fconv2"
  param {
    lr_mult: 0.5
  }
  param {
    lr_mult: 0.05
  }
  convolution_param {
    num_output: 3
    pad: 0
    kernel_size: 1
    stride: 1
    weight_filler {
      type: "xavier"
    }
    bias_filler {
      type: "constant"
      value: 0
    }
  }
}
layer {
  name: "fbn2"
  type: "BatchNorm"
  bottom: "fconv2"
  top: "fbn2"
}
layer {
  name: "frelu2"
  type: "ReLU"
  bottom: "fbn2"
  top: "fbn2"
}
layer {
  name: "data_lattice1"
  type: "Python"
  bottom: "data"
  top: "data_lattice1"
  python_param {
    module: "custom_layers"
    layer: "PickAndScale"
    param_str: "0*24_1*24_2*24"
  }
}
layer {
  name: "feat2"
  type: "Eltwise"
  bottom: "data_lattice1"
  bottom: "fbn2"
  top: "feat2"
  eltwise_param {
    operation: SUM
  }
}
layer {
  name: "conv3"
  type: "Permutohedral"
  bottom: "bn2"
  bottom: "feat2"
  bottom: "feat2"
  top: "conv3"
  param {
    lr_mult: 0
    decay_mult: 0
  }
  param {
    lr_mult: 0
    decay_mult: 0
  }
  permutohedral_param {
    num_output: 128
    neighborhood_size: 4
    filter_filler {
      type: "gaussian"
      std: 0.001
    }
    bias_term: true
    bias_filler {
      type: "constant"
      value: 0
    }
    group: 1
    norm_type: AFTER
    offset_type: NONE
  }
}
layer {
  name: "bn3"
  type: "BatchNorm"
  bottom: "conv3"
  top: "bn3"
}
layer {
  name: "relu3"
  type: "ReLU"
  bottom: "bn3"
  top: "bn3"
}
layer {
  name: "fconv3"
  type: "Convolution"
  bottom: "bn3"
  top: "fconv3"
  param {
    lr_mult: 0.5
  }
  param {
    lr_mult: 0.05
  }
  convolution_param {
    num_output: 3
    pad: 0
    kernel_size: 1
    stride: 1
    weight_filler {
      type: "xavier"
    }
    bias_filler {
      type: "constant"
      value: 0
    }
  }
}
layer {
  name: "fbn3"
  type: "BatchNorm"
  bottom: "fconv3"
  top: "fbn3"
}
layer {
  name: "frelu3"
  type: "ReLU"
  bottom: "fbn3"
  top: "fbn3"
}
layer {
  name: "data_lattice2"
  type: "Python"
  bottom: "data"
  top: "data_lattice2"
  python_param {
    module: "custom_layers"
    layer: "PickAndScale"
    param_str: "0*12_1*12_2*12"
  }
}
layer {
  name: "feat3"
  type: "Eltwise"
  bottom: "data_lattice2"
  bottom: "fbn3"
  top: "feat3"
  eltwise_param {
    operation: SUM
  }
}
layer {
  name: "conv4"
  type: "Permutohedral"
  bottom: "bn3"
  bottom: "feat3"
  bottom: "feat3"
  top: "conv4"
  param {
    lr_mult: 0
    decay_mult: 0
  }
  param {
    lr_mult: 0
    decay_mult: 0
  }
  permutohedral_param {
    num_output: 256
    neighborhood_size: 2
    filter_filler {
      type: "gaussian"
      std: 0.001
    }
    bias_term: true
    bias_filler {
      type: "constant"
      value: 0
    }
    group: 1
    norm_type: AFTER
    offset_type: NONE
  }
}
layer {
  name: "bn4"
  type: "BatchNorm"
  bottom: "conv4"
  top: "bn4"
}
layer {
  name: "relu4"
  type: "ReLU"
  bottom: "bn4"
  top: "bn4"
}
layer {
  name: "fconv4"
  type: "Convolution"
  bottom: "bn4"
  top: "fconv4"
  param {
    lr_mult: 0.5
  }
  param {
    lr_mult: 0.05
  }
  convolution_param {
    num_output: 3
    pad: 0
    kernel_size: 1
    stride: 1
    weight_filler {
      type: "xavier"
    }
    bias_filler {
      type: "constant"
      value: 0
    }
  }
}
layer {
  name: "fbn4"
  type: "BatchNorm"
  bottom: "fconv4"
  top: "fbn4"
}
layer {
  name: "frelu4"
  type: "ReLU"
  bottom: "fbn4"
  top: "fbn4"
}
layer {
  name: "data_lattice3"
  type: "Python"
  bottom: "data"
  top: "data_lattice3"
  python_param {
    module: "custom_layers"
    layer: "PickAndScale"
    param_str: "0*6_1*6_2*6"
  }
}
layer {
  name: "feat4"
  type: "Eltwise"
  bottom: "data_lattice3"
  bottom: "fbn4"
  top: "feat4"
  eltwise_param {
    operation: SUM
  }
}
layer {
  name: "conv5"
  type: "Permutohedral"
  bottom: "bn4"
  bottom: "feat4"
  bottom: "feat4"
  top: "conv5"
  param {
    lr_mult: 0
    decay_mult: 0
  }
  param {
    lr_mult: 0
    decay_mult: 0
  }
  permutohedral_param {
    num_output: 256
    neighborhood_size: 2
    filter_filler {
      type: "gaussian"
      std: 0.001
    }
    bias_term: true
    bias_filler {
      type: "constant"
      value: 0
    }
    group: 1
    norm_type: AFTER
    offset_type: NONE
  }
}
layer {
  name: "bn5"
  type: "BatchNorm"
  bottom: "conv5"
  top: "bn5"
}
layer {
  name: "relu5"
  type: "ReLU"
  bottom: "bn5"
  top: "bn5"
}
layer {
  name: "fconv5"
  type: "Convolution"
  bottom: "bn5"
  top: "fconv5"
  param {
    lr_mult: 0.5
  }
  param {
    lr_mult: 0.05
  }
  convolution_param {
    num_output: 3
    pad: 0
    kernel_size: 1
    stride: 1
    weight_filler {
      type: "xavier"
    }
    bias_filler {
      type: "constant"
      value: 0
    }
  }
}
layer {
  name: "fbn5"
  type: "BatchNorm"
  bottom: "fconv5"
  top: "fbn5"
}
layer {
  name: "frelu5"
  type: "ReLU"
  bottom: "fbn5"
  top: "fbn5"
}
layer {
  name: "data_lattice4"
  type: "Python"
  bottom: "data"
  top: "data_lattice4"
  python_param {
    module: "custom_layers"
    layer: "PickAndScale"
    param_str: "0*3_1*3_2*3"
  }
}
layer {
  name: "feat5"
  type: "Eltwise"
  bottom: "data_lattice4"
  bottom: "fbn5"
  top: "feat5"
  eltwise_param {
    operation: SUM
  }
}
layer {
  name: "conv6"
  type: "Permutohedral"
  bottom: "bn5"
  bottom: "feat5"
  bottom: "feat5"
  top: "conv6"
  param {
    lr_mult: 0
    decay_mult: 0
  }
  param {
    lr_mult: 0
    decay_mult: 0
  }
  permutohedral_param {
    num_output: 256
    neighborhood_size: 1
    filter_filler {
      type: "gaussian"
      std: 0.001
    }
    bias_term: true
    bias_filler {
      type: "constant"
      value: 0
    }
    group: 1
    norm_type: AFTER
    offset_type: NONE
  }
}
layer {
  name: "bn6"
  type: "BatchNorm"
  bottom: "conv6"
  top: "bn6"
}
layer {
  name: "relu6"
  type: "ReLU"
  bottom: "bn6"
  top: "bn6"
}
layer {
  name: "concat6"
  type: "Concat"
  bottom: "bn6"
  bottom: "bn2"
  bottom: "bn3"
  bottom: "bn4"
  bottom: "bn5"
  top: "concat6"
}
layer {
  name: "conv7"
  type: "Convolution"
  bottom: "concat6"
  top: "conv7"
  param {
    lr_mult: 0
  }
  param {
    lr_mult: 0
  }
  convolution_param {
    num_output: 128
    pad: 0
    kernel_size: 1
    stride: 1
    weight_filler {
      type: "xavier"
    }
    bias_filler {
      type: "constant"
      value: 0
    }
  }
}
layer {
  name: "bn7"
  type: "BatchNorm"
  bottom: "conv7"
  top: "bn7"
}
layer {
  name: "relu7"
  type: "ReLU"
  bottom: "bn7"
  top: "bn7"
}
layer {
  name: "conv8"
  type: "Convolution"
  bottom: "bn7"
  top: "conv8"
  param {
    lr_mult: 0
  }
  param {
    lr_mult: 0
  }
  convolution_param {
    num_output: 13
    pad: 0
    kernel_size: 1
    stride: 1
    weight_filler {
      type: "xavier"
    }
    bias_filler {
      type: "constant"
      value: 0
    }
  }
}
layer {
  name: "loss"
  type: "SoftmaxWithLoss"
  bottom: "conv8"
  bottom: "label"
  top: "loss"
}
layer {
  name: "accuracy"
  type: "Accuracy"
  bottom: "conv8"
  bottom: "label"
  top: "accuracy"
}
I0730 13:01:15.487849 28501 solver.cpp:68] Initializing solver from parameters: 
train_net: "area6_netm_sum4_f.prototxt"
test_net: "area6_netm_sum4_f.prototxt"
test_iter: 10
test_interval: 50
base_lr: 1e-05
display: 1
max_iter: 20000
lr_policy: "step"
gamma: 0.6
momentum: 0.9
weight_decay: 0.001
stepsize: 2000
snapshot: 100
snapshot_prefix: "/mnt/lustre/wangjiayun/repos/splatnet/exp/lidar3d/area6/6_netm_sum4_f_lr1e-5"
solver_mode: GPU
random_seed: 0
debug_info: false
solver_type: ADAM
iter_size: 10
momentum2: 0.999
I0730 13:01:15.487891 28500 layer_factory.hpp:76] Creating layer data
I0730 13:01:15.487913 28501 solver.cpp:98] Creating training net from train_net file: area6_netm_sum4_f.prototxt
I0730 13:01:15.489941 28501 net.cpp:317] The NetState phase (0) differed from the phase (1) specified by a rule in layer data
I0730 13:01:15.490397 28501 net.cpp:50] Initializing net from parameters: 
state {
  phase: TRAIN
}
layer {
  name: "data"
  type: "Python"
  top: "data"
  top: "label"
  include {
    phase: TRAIN
  }
  python_param {
    module: "dataset_lidar"
    layer: "InputShapenet"
    param_str: "{\'sample_size\': 70000, \'test_area\': \'6\', \'batch_size\': 1, \'feat_dims\': \'x_y_z\', \'subset\': \'train\', \'root\': \'../../data/shapenet_ericyi_ply\', \'jitter_xyz\': 0.01, \'jitter_stretch\': 0.05, \'jitter_rotation\': 5.0}"
  }
}
layer {
  name: "data_feat"
  type: "Python"
  bottom: "data"
  top: "data_feat"
  python_param {
    module: "custom_layers"
    layer: "PickAndScale"
    param_str: "0_1_2"
  }
}
layer {
  name: "conv1"
  type: "Convolution"
  bottom: "data_feat"
  top: "conv1"
  param {
    lr_mult: 0
  }
  param {
    lr_mult: 0
  }
  convolution_param {
    num_output: 32
    pad: 0
    kernel_size: 1
    stride: 1
    weight_filler {
      type: "xavier"
    }
    bias_filler {
      type: "constant"
      value: 0
    }
  }
}
layer {
  name: "bn1"
  type: "BatchNorm"
  bottom: "conv1"
  top: "bn1"
}
layer {
  name: "relu1"
  type: "ReLU"
  bottom: "bn1"
  top: "bn1"
}
layer {
  name: "fconv1"
  type: "Convolution"
  bottom: "bn1"
  top: "fconv1"
  param {
    lr_mult: 0.5
  }
  param {
    lr_mult: 0.05
  }
  convolution_param {
    num_output: 3
    pad: 0
    kernel_size: 1
    stride: 1
    weight_filler {
      type: "xavier"
    }
    bias_filler {
      type: "constant"
      value: 0
    }
  }
}
layer {
  name: "fbn1"
  type: "BatchNorm"
  bottom: "fconv1"
  top: "fbn1"
}
layer {
  name: "frelu1"
  type: "ReLU"
  bottom: "fbn1"
  top: "fbn1"
}
layer {
  name: "data_lattice0"
  type: "Python"
  bottom: "data"
  top: "data_lattice0"
  python_param {
    module: "custom_layers"
    layer: "PickAndScale"
    param_str: "0*48_1*48_2*48"
  }
}
layer {
  name: "feat1"
  type: "Eltwise"
  bottom: "data_lattice0"
  bottom: "fbn1"
  top: "feat1"
  eltwise_param {
    operation: SUM
  }
}
layer {
  name: "conv2"
  type: "Permutohedral"
  bottom: "bn1"
  bottom: "feat1"
  bottom: "feat1"
  top: "conv2"
  param {
    lr_mult: 0
    decay_mult: 0
  }
  param {
    lr_mult: 0
    decay_mult: 0
  }
  permutohedral_param {
    num_output: 64
    neighborhood_size: 4
    filter_filler {
      type: "gaussian"
      std: 0.001
    }
    bias_term: true
    bias_filler {
      type: "constant"
      value: 0
    }
    group: 1
    norm_type: AFTER
    offset_type: NONE
  }
}
layer {
  name: "bn2"
  type: "BatchNorm"
  bottom: "conv2"
  top: "bn2"
}
layer {
  name: "relu2"
  type: "ReLU"
  bottom: "bn2"
  top: "bn2"
}
layer {
  name: "fconv2"
  type: "Convolution"
  bottom: "bn2"
  top: "fconv2"
  param {
    lr_mult: 0.5
  }
  param {
    lr_mult: 0.05
  }
  convolution_param {
    num_output: 3
    pad: 0
    kernel_size: 1
    stride: 1
    weight_filler {
      type: "xavier"
    }
    bias_filler {
      type: "constant"
      value: 0
    }
  }
}
layer {
  name: "fbn2"
  type: "BatchNorm"
  bottom: "fconv2"
  top: "fbn2"
}
layer {
  name: "frelu2"
  type: "ReLU"
  bottom: "fbn2"
  top: "fbn2"
}
layer {
  name: "data_lattice1"
  type: "Python"
  bottom: "data"
  top: "data_lattice1"
  python_param {
    module: "custom_layers"
    layer: "PickAndScale"
    param_str: "0*24_1*24_2*24"
  }
}
layer {
  name: "feat2"
  type: "Eltwise"
  bottom: "data_lattice1"
  bottom: "fbn2"
  top: "feat2"
  eltwise_param {
    operation: SUM
  }
}
layer {
  name: "conv3"
  type: "Permutohedral"
  bottom: "bn2"
  bottom: "feat2"
  bottom: "feat2"
  top: "conv3"
  param {
    lr_mult: 0
    decay_mult: 0
  }
  param {
    lr_mult: 0
    decay_mult: 0
  }
  permutohedral_param {
    num_output: 128
    neighborhood_size: 4
    filter_filler {
      type: "gaussian"
      std: 0.001
    }
    bias_term: true
    bias_filler {
      type: "constant"
      value: 0
    }
    group: 1
    norm_type: AFTER
    offset_type: NONE
  }
}
layer {
  name: "bn3"
  type: "BatchNorm"
  bottom: "conv3"
  top: "bn3"
}
layer {
  name: "relu3"
  type: "ReLU"
  bottom: "bn3"
  top: "bn3"
}
layer {
  name: "fconv3"
  type: "Convolution"
  bottom: "bn3"
  top: "fconv3"
  param {
    lr_mult: 0.5
  }
  param {
    lr_mult: 0.05
  }
  convolution_param {
    num_output: 3
    pad: 0
    kernel_size: 1
    stride: 1
    weight_filler {
      type: "xavier"
    }
    bias_filler {
      type: "constant"
      value: 0
    }
  }
}
layer {
  name: "fbn3"
  type: "BatchNorm"
  bottom: "fconv3"
  top: "fbn3"
}
layer {
  name: "frelu3"
  type: "ReLU"
  bottom: "fbn3"
  top: "fbn3"
}
layer {
  name: "data_lattice2"
  type: "Python"
  bottom: "data"
  top: "data_lattice2"
  python_param {
    module: "custom_layers"
    layer: "PickAndScale"
    param_str: "0*12_1*12_2*12"
  }
}
layer {
  name: "feat3"
  type: "Eltwise"
  bottom: "data_lattice2"
  bottom: "fbn3"
  top: "feat3"
  eltwise_param {
    operation: SUM
  }
}
layer {
  name: "conv4"
  type: "Permutohedral"
  bottom: "bn3"
  bottom: "feat3"
  bottom: "feat3"
  top: "conv4"
  param {
    lr_mult: 0
    decay_mult: 0
  }
  param {
    lr_mult: 0
    decay_mult: 0
  }
  permutohedral_param {
    num_output: 256
    neighborhood_size: 2
    filter_filler {
      type: "gaussian"
      std: 0.001
    }
    bias_term: true
    bias_filler {
      type: "constant"
      value: 0
    }
    group: 1
    norm_type: AFTER
    offset_type: NONE
  }
}
layer {
  name: "bn4"
  type: "BatchNorm"
  bottom: "conv4"
  top: "bn4"
}
layer {
  name: "relu4"
  type: "ReLU"
  bottom: "bn4"
  top: "bn4"
}
layer {
  name: "fconv4"
  type: "Convolution"
  bottom: "bn4"
  top: "fconv4"
  param {
    lr_mult: 0.5
  }
  param {
    lr_mult: 0.05
  }
  convolution_param {
    num_output: 3
    pad: 0
    kernel_size: 1
    stride: 1
    weight_filler {
      type: "xavier"
    }
    bias_filler {
      type: "constant"
      value: 0
    }
  }
}
layer {
  name: "fbn4"
  type: "BatchNorm"
  bottom: "fconv4"
  top: "fbn4"
}
layer {
  name: "frelu4"
  type: "ReLU"
  bottom: "fbn4"
  top: "fbn4"
}
layer {
  name: "data_lattice3"
  type: "Python"
  bottom: "data"
  top: "data_lattice3"
  python_param {
    module: "custom_layers"
    layer: "PickAndScale"
    param_str: "0*6_1*6_2*6"
  }
}
layer {
  name: "feat4"
  type: "Eltwise"
  bottom: "data_lattice3"
  bottom: "fbn4"
  top: "feat4"
  eltwise_param {
    operation: SUM
  }
}
layer {
  name: "conv5"
  type: "Permutohedral"
  bottom: "bn4"
  bottom: "feat4"
  bottom: "feat4"
  top: "conv5"
  param {
    lr_mult: 0
    decay_mult: 0
  }
  param {
    lr_mult: 0
    decay_mult: 0
  }
  permutohedral_param {
    num_output: 256
    neighborhood_size: 2
    filter_filler {
      type: "gaussian"
      std: 0.001
    }
    bias_term: true
    bias_filler {
      type: "constant"
      value: 0
    }
    group: 1
    norm_type: AFTER
    offset_type: NONE
  }
}
layer {
  name: "bn5"
  type: "BatchNorm"
  bottom: "conv5"
  top: "bn5"
}
layer {
  name: "relu5"
  type: "ReLU"
  bottom: "bn5"
  top: "bn5"
}
layer {
  name: "fconv5"
  type: "Convolution"
  bottom: "bn5"
  top: "fconv5"
  param {
    lr_mult: 0.5
  }
  param {
    lr_mult: 0.05
  }
  convolution_param {
    num_output: 3
    pad: 0
    kernel_size: 1
    stride: 1
    weight_filler {
      type: "xavier"
    }
    bias_filler {
      type: "constant"
      value: 0
    }
  }
}
layer {
  name: "fbn5"
  type: "BatchNorm"
  bottom: "fconv5"
  top: "fbn5"
}
layer {
  name: "frelu5"
  type: "ReLU"
  bottom: "fbn5"
  top: "fbn5"
}
layer {
  name: "data_lattice4"
  type: "Python"
  bottom: "data"
  top: "data_lattice4"
  python_param {
    module: "custom_layers"
    layer: "PickAndScale"
    param_str: "0*3_1*3_2*3"
  }
}
layer {
  name: "feat5"
  type: "Eltwise"
  bottom: "data_lattice4"
  bottom: "fbn5"
  top: "feat5"
  eltwise_param {
    operation: SUM
  }
}
layer {
  name: "conv6"
  type: "Permutohedral"
  bottom: "bn5"
  bottom: "feat5"
  bottom: "feat5"
  top: "conv6"
  param {
    lr_mult: 0
    decay_mult: 0
  }
  param {
    lr_mult: 0
    decay_mult: 0
  }
  permutohedral_param {
    num_output: 256
    neighborhood_size: 1
    filter_filler {
      type: "gaussian"
      std: 0.001
    }
    bias_term: true
    bias_filler {
      type: "constant"
      value: 0
    }
    group: 1
    norm_type: AFTER
    offset_type: NONE
  }
}
layer {
  name: "bn6"
  type: "BatchNorm"
  bottom: "conv6"
  top: "bn6"
}
layer {
  name: "relu6"
  type: "ReLU"
  bottom: "bn6"
  top: "bn6"
}
layer {
  name: "concat6"
  type: "Concat"
  bottom: "bn6"
  bottom: "bn2"
  bottom: "bn3"
  bottom: "bn4"
  bottom: "bn5"
  top: "concat6"
}
layer {
  name: "conv7"
  type: "Convolution"
  bottom: "concat6"
  top: "conv7"
  param {
    lr_mult: 0
  }
  param {
    lr_mult: 0
  }
  convolution_param {
    num_output: 128
    pad: 0
    kernel_size: 1
    stride: 1
    weight_filler {
      type: "xavier"
    }
    bias_filler {
      type: "constant"
      value: 0
    }
  }
}
layer {
  name: "bn7"
  type: "BatchNorm"
  bottom: "conv7"
  top: "bn7"
}
layer {
  name: "relu7"
  type: "ReLU"
  bottom: "bn7"
  top: "bn7"
}
layer {
  name: "conv8"
  type: "Convolution"
  bottom: "bn7"
  top: "conv8"
  param {
    lr_mult: 0
  }
  param {
    lr_mult: 0
  }
  convolution_param {
    num_output: 13
    pad: 0
    kernel_size: 1
    stride: 1
    weight_filler {
      type: "xavier"
    }
    bias_filler {
      type: "constant"
      value: 0
    }
  }
}
layer {
  name: "loss"
  type: "SoftmaxWithLoss"
  bottom: "conv8"
  bottom: "label"
  top: "loss"
}
layer {
  name: "accuracy"
  type: "Accuracy"
  bottom: "conv8"
  bottom: "label"
  top: "accuracy"
}
I0730 13:01:15.490866 28501 layer_factory.hpp:76] Creating layer data
I0730 13:01:15.493010 28500 net.cpp:98] Creating Layer data
I0730 13:01:15.493049 28500 net.cpp:398] data -> data
I0730 13:01:15.493118 28500 net.cpp:398] data -> label
I0730 13:01:15.493130 28500 net.cpp:133] Setting up data
I0730 13:01:15.495064 28501 net.cpp:98] Creating Layer data
I0730 13:01:15.495107 28501 net.cpp:398] data -> data
I0730 13:01:15.495177 28501 net.cpp:398] data -> label
I0730 13:01:15.495190 28501 net.cpp:133] Setting up data
I0730 13:08:25.576409 28501 net.cpp:140] Top shape: 1 3 1 70000 (210000)
I0730 13:08:25.576473 28501 net.cpp:140] Top shape: 1 1 1 70000 (70000)
I0730 13:08:25.586624 28501 layer_factory.hpp:76] Creating layer data_data_0_split
I0730 13:08:25.598268 28501 net.cpp:98] Creating Layer data_data_0_split
I0730 13:08:25.598336 28501 net.cpp:443] data_data_0_split <- data
I0730 13:08:25.598369 28501 net.cpp:398] data_data_0_split -> data_data_0_split_0
I0730 13:08:25.598395 28501 net.cpp:398] data_data_0_split -> data_data_0_split_1
I0730 13:08:25.598409 28501 net.cpp:398] data_data_0_split -> data_data_0_split_2
I0730 13:08:25.598446 28501 net.cpp:398] data_data_0_split -> data_data_0_split_3
I0730 13:08:25.598459 28501 net.cpp:398] data_data_0_split -> data_data_0_split_4
I0730 13:08:25.598595 28501 net.cpp:398] data_data_0_split -> data_data_0_split_5
I0730 13:08:25.598605 28501 net.cpp:133] Setting up data_data_0_split
I0730 13:08:25.606485 28501 net.cpp:140] Top shape: 1 3 1 70000 (210000)
I0730 13:08:25.606529 28501 net.cpp:140] Top shape: 1 3 1 70000 (210000)
I0730 13:08:25.606535 28501 net.cpp:140] Top shape: 1 3 1 70000 (210000)
I0730 13:08:25.606539 28501 net.cpp:140] Top shape: 1 3 1 70000 (210000)
I0730 13:08:25.606554 28501 net.cpp:140] Top shape: 1 3 1 70000 (210000)
I0730 13:08:25.606559 28501 net.cpp:140] Top shape: 1 3 1 70000 (210000)
I0730 13:08:25.606565 28501 layer_factory.hpp:76] Creating layer label_data_1_split
I0730 13:08:25.606592 28501 net.cpp:98] Creating Layer label_data_1_split
I0730 13:08:25.606597 28501 net.cpp:443] label_data_1_split <- label
I0730 13:08:25.606606 28501 net.cpp:398] label_data_1_split -> label_data_1_split_0
I0730 13:08:25.606618 28501 net.cpp:398] label_data_1_split -> label_data_1_split_1
I0730 13:08:25.606624 28501 net.cpp:133] Setting up label_data_1_split
I0730 13:08:25.606631 28501 net.cpp:140] Top shape: 1 1 1 70000 (70000)
I0730 13:08:25.606636 28501 net.cpp:140] Top shape: 1 1 1 70000 (70000)
I0730 13:08:25.606638 28501 layer_factory.hpp:76] Creating layer data_feat
I0730 13:08:26.097105 28499 net.cpp:140] Top shape: 1 3 1 70000 (210000)
I0730 13:08:26.097162 28499 net.cpp:140] Top shape: 1 1 1 70000 (70000)
I0730 13:08:26.097190 28499 layer_factory.hpp:76] Creating layer data_data_0_split
I0730 13:08:26.097241 28499 net.cpp:98] Creating Layer data_data_0_split
I0730 13:08:26.097247 28499 net.cpp:443] data_data_0_split <- data
I0730 13:08:26.097257 28499 net.cpp:398] data_data_0_split -> data_data_0_split_0
I0730 13:08:26.097270 28499 net.cpp:398] data_data_0_split -> data_data_0_split_1
I0730 13:08:26.097275 28499 net.cpp:398] data_data_0_split -> data_data_0_split_2
I0730 13:08:26.097281 28499 net.cpp:398] data_data_0_split -> data_data_0_split_3
I0730 13:08:26.097286 28499 net.cpp:398] data_data_0_split -> data_data_0_split_4
I0730 13:08:26.097291 28499 net.cpp:398] data_data_0_split -> data_data_0_split_5
I0730 13:08:26.097295 28499 net.cpp:133] Setting up data_data_0_split
I0730 13:08:26.097318 28499 net.cpp:140] Top shape: 1 3 1 70000 (210000)
I0730 13:08:26.097323 28499 net.cpp:140] Top shape: 1 3 1 70000 (210000)
I0730 13:08:26.097327 28499 net.cpp:140] Top shape: 1 3 1 70000 (210000)
I0730 13:08:26.097331 28499 net.cpp:140] Top shape: 1 3 1 70000 (210000)
I0730 13:08:26.097333 28499 net.cpp:140] Top shape: 1 3 1 70000 (210000)
I0730 13:08:26.097337 28499 net.cpp:140] Top shape: 1 3 1 70000 (210000)
I0730 13:08:26.097340 28499 layer_factory.hpp:76] Creating layer label_data_1_split
I0730 13:08:26.097347 28499 net.cpp:98] Creating Layer label_data_1_split
I0730 13:08:26.097352 28499 net.cpp:443] label_data_1_split <- label
I0730 13:08:26.097357 28499 net.cpp:398] label_data_1_split -> label_data_1_split_0
I0730 13:08:26.097363 28499 net.cpp:398] label_data_1_split -> label_data_1_split_1
I0730 13:08:26.097368 28499 net.cpp:133] Setting up label_data_1_split
I0730 13:08:26.097373 28499 net.cpp:140] Top shape: 1 1 1 70000 (70000)
I0730 13:08:26.097376 28499 net.cpp:140] Top shape: 1 1 1 70000 (70000)
I0730 13:08:26.097379 28499 layer_factory.hpp:76] Creating layer data_feat
I0730 13:08:26.180857 28498 net.cpp:140] Top shape: 1 3 1 70000 (210000)
I0730 13:08:26.180908 28498 net.cpp:140] Top shape: 1 1 1 70000 (70000)
I0730 13:08:26.180934 28498 layer_factory.hpp:76] Creating layer data_data_0_split
I0730 13:08:26.180977 28498 net.cpp:98] Creating Layer data_data_0_split
I0730 13:08:26.180982 28498 net.cpp:443] data_data_0_split <- data
I0730 13:08:26.180991 28498 net.cpp:398] data_data_0_split -> data_data_0_split_0
I0730 13:08:26.181004 28498 net.cpp:398] data_data_0_split -> data_data_0_split_1
I0730 13:08:26.181008 28498 net.cpp:398] data_data_0_split -> data_data_0_split_2
I0730 13:08:26.181013 28498 net.cpp:398] data_data_0_split -> data_data_0_split_3
I0730 13:08:26.181018 28498 net.cpp:398] data_data_0_split -> data_data_0_split_4
I0730 13:08:26.181022 28498 net.cpp:398] data_data_0_split -> data_data_0_split_5
I0730 13:08:26.181027 28498 net.cpp:133] Setting up data_data_0_split
I0730 13:08:26.181048 28498 net.cpp:140] Top shape: 1 3 1 70000 (210000)
I0730 13:08:26.181053 28498 net.cpp:140] Top shape: 1 3 1 70000 (210000)
I0730 13:08:26.181056 28498 net.cpp:140] Top shape: 1 3 1 70000 (210000)
I0730 13:08:26.181061 28498 net.cpp:140] Top shape: 1 3 1 70000 (210000)
I0730 13:08:26.181063 28498 net.cpp:140] Top shape: 1 3 1 70000 (210000)
I0730 13:08:26.181066 28498 net.cpp:140] Top shape: 1 3 1 70000 (210000)
I0730 13:08:26.181069 28498 layer_factory.hpp:76] Creating layer label_data_1_split
I0730 13:08:26.181077 28498 net.cpp:98] Creating Layer label_data_1_split
I0730 13:08:26.181079 28498 net.cpp:443] label_data_1_split <- label
I0730 13:08:26.181083 28498 net.cpp:398] label_data_1_split -> label_data_1_split_0
I0730 13:08:26.181089 28498 net.cpp:398] label_data_1_split -> label_data_1_split_1
I0730 13:08:26.181094 28498 net.cpp:133] Setting up label_data_1_split
I0730 13:08:26.181098 28498 net.cpp:140] Top shape: 1 1 1 70000 (70000)
I0730 13:08:26.181102 28498 net.cpp:140] Top shape: 1 1 1 70000 (70000)
I0730 13:08:26.181104 28498 layer_factory.hpp:76] Creating layer data_feat
I0730 13:08:26.700580 28500 net.cpp:140] Top shape: 1 3 1 70000 (210000)
I0730 13:08:26.700624 28500 net.cpp:140] Top shape: 1 1 1 70000 (70000)
I0730 13:08:26.700659 28500 layer_factory.hpp:76] Creating layer data_data_0_split
I0730 13:08:26.700709 28500 net.cpp:98] Creating Layer data_data_0_split
I0730 13:08:26.700716 28500 net.cpp:443] data_data_0_split <- data
I0730 13:08:26.700734 28500 net.cpp:398] data_data_0_split -> data_data_0_split_0
I0730 13:08:26.700747 28500 net.cpp:398] data_data_0_split -> data_data_0_split_1
I0730 13:08:26.700752 28500 net.cpp:398] data_data_0_split -> data_data_0_split_2
I0730 13:08:26.700757 28500 net.cpp:398] data_data_0_split -> data_data_0_split_3
I0730 13:08:26.700760 28500 net.cpp:398] data_data_0_split -> data_data_0_split_4
I0730 13:08:26.700765 28500 net.cpp:398] data_data_0_split -> data_data_0_split_5
I0730 13:08:26.700768 28500 net.cpp:133] Setting up data_data_0_split
I0730 13:08:26.700791 28500 net.cpp:140] Top shape: 1 3 1 70000 (210000)
I0730 13:08:26.700796 28500 net.cpp:140] Top shape: 1 3 1 70000 (210000)
I0730 13:08:26.700800 28500 net.cpp:140] Top shape: 1 3 1 70000 (210000)
I0730 13:08:26.700803 28500 net.cpp:140] Top shape: 1 3 1 70000 (210000)
I0730 13:08:26.700806 28500 net.cpp:140] Top shape: 1 3 1 70000 (210000)
I0730 13:08:26.700809 28500 net.cpp:140] Top shape: 1 3 1 70000 (210000)
I0730 13:08:26.700812 28500 layer_factory.hpp:76] Creating layer label_data_1_split
I0730 13:08:26.700827 28500 net.cpp:98] Creating Layer label_data_1_split
I0730 13:08:26.700831 28500 net.cpp:443] label_data_1_split <- label
I0730 13:08:26.700836 28500 net.cpp:398] label_data_1_split -> label_data_1_split_0
I0730 13:08:26.700842 28500 net.cpp:398] label_data_1_split -> label_data_1_split_1
I0730 13:08:26.700846 28500 net.cpp:133] Setting up label_data_1_split
I0730 13:08:26.700851 28500 net.cpp:140] Top shape: 1 1 1 70000 (70000)
I0730 13:08:26.700855 28500 net.cpp:140] Top shape: 1 1 1 70000 (70000)
I0730 13:08:26.700857 28500 layer_factory.hpp:76] Creating layer data_feat
I0730 13:08:26.713273 28500 net.cpp:98] Creating Layer data_feat
I0730 13:08:26.713286 28500 net.cpp:443] data_feat <- data_data_0_split_0
I0730 13:08:26.713305 28500 net.cpp:398] data_feat -> data_feat
I0730 13:08:26.713312 28500 net.cpp:133] Setting up data_feat
I0730 13:08:26.713552 28500 net.cpp:140] Top shape: 1 3 1 70000 (210000)
I0730 13:08:26.713564 28500 layer_factory.hpp:76] Creating layer conv1
I0730 13:08:26.713599 28500 net.cpp:98] Creating Layer conv1
I0730 13:08:26.713606 28500 net.cpp:443] conv1 <- data_feat
I0730 13:08:26.713613 28500 net.cpp:398] conv1 -> conv1
I0730 13:08:26.713621 28500 net.cpp:133] Setting up conv1
I0730 13:08:26.713853 28501 net.cpp:98] Creating Layer data_feat
I0730 13:08:26.713871 28499 net.cpp:98] Creating Layer data_feat
I0730 13:08:26.713891 28501 net.cpp:443] data_feat <- data_data_0_split_0
I0730 13:08:26.713901 28499 net.cpp:443] data_feat <- data_data_0_split_0
I0730 13:08:26.713919 28499 net.cpp:398] data_feat -> data_feat
I0730 13:08:26.713908 28501 net.cpp:398] data_feat -> data_feat
I0730 13:08:26.713924 28501 net.cpp:133] Setting up data_feat
I0730 13:08:26.713937 28499 net.cpp:133] Setting up data_feat
I0730 13:08:26.714339 28498 net.cpp:98] Creating Layer data_feat
I0730 13:08:26.714375 28498 net.cpp:443] data_feat <- data_data_0_split_0
I0730 13:08:26.714331 28499 net.cpp:140] Top shape: 1 3 1 70000 (210000)
I0730 13:08:26.714355 28499 layer_factory.hpp:76] Creating layer conv1
I0730 13:08:26.714391 28498 net.cpp:398] data_feat -> data_feat
I0730 13:08:26.714406 28498 net.cpp:133] Setting up data_feat
I0730 13:08:26.714403 28501 net.cpp:140] Top shape: 1 3 1 70000 (210000)
I0730 13:08:26.714421 28501 layer_factory.hpp:76] Creating layer conv1
I0730 13:08:26.714418 28499 net.cpp:98] Creating Layer conv1
I0730 13:08:26.714432 28499 net.cpp:443] conv1 <- data_feat
I0730 13:08:26.714444 28499 net.cpp:398] conv1 -> conv1
I0730 13:08:26.714460 28499 net.cpp:133] Setting up conv1
I0730 13:08:26.714479 28501 net.cpp:98] Creating Layer conv1
I0730 13:08:26.714493 28501 net.cpp:443] conv1 <- data_feat
I0730 13:08:26.714506 28501 net.cpp:398] conv1 -> conv1
I0730 13:08:26.714522 28501 net.cpp:133] Setting up conv1
I0730 13:08:26.714746 28498 net.cpp:140] Top shape: 1 3 1 70000 (210000)
I0730 13:08:26.714768 28498 layer_factory.hpp:76] Creating layer conv1
I0730 13:08:26.714818 28498 net.cpp:98] Creating Layer conv1
I0730 13:08:26.714830 28498 net.cpp:443] conv1 <- data_feat
I0730 13:08:26.714843 28498 net.cpp:398] conv1 -> conv1
I0730 13:08:26.714860 28498 net.cpp:133] Setting up conv1
I0730 13:08:28.003022 28498 net.cpp:140] Top shape: 1 32 1 70000 (2240000)
I0730 13:08:28.003263 28499 net.cpp:140] Top shape: 1 32 1 70000 (2240000)
I0730 13:08:28.003398 28500 net.cpp:140] Top shape: 1 32 1 70000 (2240000)
I0730 13:08:28.003517 28501 net.cpp:140] Top shape: 1 32 1 70000 (2240000)
I0730 13:08:28.016700 28498 layer_factory.hpp:76] Creating layer bn1
I0730 13:08:28.016741 28499 layer_factory.hpp:76] Creating layer bn1
I0730 13:08:28.016744 28501 layer_factory.hpp:76] Creating layer bn1
I0730 13:08:28.016746 28500 layer_factory.hpp:76] Creating layer bn1
I0730 13:08:28.025897 28499 net.cpp:98] Creating Layer bn1
I0730 13:08:28.025918 28499 net.cpp:443] bn1 <- conv1
I0730 13:08:28.025931 28499 net.cpp:398] bn1 -> bn1
I0730 13:08:28.025944 28499 net.cpp:133] Setting up bn1
I0730 13:08:28.025943 28498 net.cpp:98] Creating Layer bn1
I0730 13:08:28.025969 28498 net.cpp:443] bn1 <- conv1
I0730 13:08:28.025952 28500 net.cpp:98] Creating Layer bn1
I0730 13:08:28.025981 28500 net.cpp:443] bn1 <- conv1
I0730 13:08:28.025941 28501 net.cpp:98] Creating Layer bn1
I0730 13:08:28.025969 28501 net.cpp:443] bn1 <- conv1
I0730 13:08:28.025986 28501 net.cpp:398] bn1 -> bn1
I0730 13:08:28.025985 28498 net.cpp:398] bn1 -> bn1
I0730 13:08:28.026007 28498 net.cpp:133] Setting up bn1
I0730 13:08:28.025996 28500 net.cpp:398] bn1 -> bn1
I0730 13:08:28.026015 28500 net.cpp:133] Setting up bn1
I0730 13:08:28.026005 28501 net.cpp:133] Setting up bn1
I0730 13:08:28.027907 28499 net.cpp:140] Top shape: 1 32 1 70000 (2240000)
I0730 13:08:28.027937 28499 layer_factory.hpp:76] Creating layer relu1
I0730 13:08:28.027940 28500 net.cpp:140] Top shape: 1 32 1 70000 (2240000)
I0730 13:08:28.027956 28498 net.cpp:140] Top shape: 1 32 1 70000 (2240000)
I0730 13:08:28.027992 28498 layer_factory.hpp:76] Creating layer relu1
I0730 13:08:28.027979 28499 net.cpp:98] Creating Layer relu1
I0730 13:08:28.027988 28499 net.cpp:443] relu1 <- bn1
I0730 13:08:28.027997 28499 net.cpp:387] relu1 -> bn1 (in-place)
I0730 13:08:28.028005 28499 net.cpp:133] Setting up relu1
I0730 13:08:28.027971 28500 layer_factory.hpp:76] Creating layer relu1
I0730 13:08:28.028012 28500 net.cpp:98] Creating Layer relu1
I0730 13:08:28.027956 28501 net.cpp:140] Top shape: 1 32 1 70000 (2240000)
I0730 13:08:28.027995 28501 layer_factory.hpp:76] Creating layer relu1
I0730 13:08:28.028021 28500 net.cpp:443] relu1 <- bn1
I0730 13:08:28.028033 28500 net.cpp:387] relu1 -> bn1 (in-place)
I0730 13:08:28.028044 28500 net.cpp:133] Setting up relu1
I0730 13:08:28.028039 28498 net.cpp:98] Creating Layer relu1
I0730 13:08:28.028051 28498 net.cpp:443] relu1 <- bn1
I0730 13:08:28.028062 28498 net.cpp:387] relu1 -> bn1 (in-place)
I0730 13:08:28.028048 28501 net.cpp:98] Creating Layer relu1
I0730 13:08:28.028060 28501 net.cpp:443] relu1 <- bn1
I0730 13:08:28.028077 28498 net.cpp:133] Setting up relu1
I0730 13:08:28.028074 28501 net.cpp:387] relu1 -> bn1 (in-place)
I0730 13:08:28.028090 28501 net.cpp:133] Setting up relu1
I0730 13:08:28.029392 28498 net.cpp:140] Top shape: 1 32 1 70000 (2240000)
I0730 13:08:28.029428 28498 layer_factory.hpp:76] Creating layer bn1_relu1_0_split
I0730 13:08:28.029445 28498 net.cpp:98] Creating Layer bn1_relu1_0_split
I0730 13:08:28.029454 28498 net.cpp:443] bn1_relu1_0_split <- bn1
I0730 13:08:28.029418 28499 net.cpp:140] Top shape: 1 32 1 70000 (2240000)
I0730 13:08:28.029443 28499 layer_factory.hpp:76] Creating layer bn1_relu1_0_split
I0730 13:08:28.029419 28500 net.cpp:140] Top shape: 1 32 1 70000 (2240000)
I0730 13:08:28.029445 28500 layer_factory.hpp:76] Creating layer bn1_relu1_0_split
I0730 13:08:28.029409 28501 net.cpp:140] Top shape: 1 32 1 70000 (2240000)
I0730 13:08:28.029435 28501 layer_factory.hpp:76] Creating layer bn1_relu1_0_split
I0730 13:08:28.029453 28501 net.cpp:98] Creating Layer bn1_relu1_0_split
I0730 13:08:28.029460 28501 net.cpp:443] bn1_relu1_0_split <- bn1
I0730 13:08:28.029479 28498 net.cpp:398] bn1_relu1_0_split -> bn1_relu1_0_split_0
I0730 13:08:28.029497 28498 net.cpp:398] bn1_relu1_0_split -> bn1_relu1_0_split_1
I0730 13:08:28.029510 28498 net.cpp:133] Setting up bn1_relu1_0_split
I0730 13:08:28.029525 28498 net.cpp:140] Top shape: 1 32 1 70000 (2240000)
I0730 13:08:28.029484 28499 net.cpp:98] Creating Layer bn1_relu1_0_split
I0730 13:08:28.029495 28499 net.cpp:443] bn1_relu1_0_split <- bn1
I0730 13:08:28.029507 28499 net.cpp:398] bn1_relu1_0_split -> bn1_relu1_0_split_0
I0730 13:08:28.029523 28499 net.cpp:398] bn1_relu1_0_split -> bn1_relu1_0_split_1
I0730 13:08:28.029494 28501 net.cpp:398] bn1_relu1_0_split -> bn1_relu1_0_split_0
I0730 13:08:28.029511 28501 net.cpp:398] bn1_relu1_0_split -> bn1_relu1_0_split_1
I0730 13:08:28.029525 28501 net.cpp:133] Setting up bn1_relu1_0_split
I0730 13:08:28.029538 28501 net.cpp:140] Top shape: 1 32 1 70000 (2240000)
I0730 13:08:28.029534 28498 net.cpp:140] Top shape: 1 32 1 70000 (2240000)
I0730 13:08:28.029541 28498 layer_factory.hpp:76] Creating layer fconv1
I0730 13:08:28.029536 28499 net.cpp:133] Setting up bn1_relu1_0_split
I0730 13:08:28.029551 28499 net.cpp:140] Top shape: 1 32 1 70000 (2240000)
I0730 13:08:28.029559 28499 net.cpp:140] Top shape: 1 32 1 70000 (2240000)
I0730 13:08:28.029547 28501 net.cpp:140] Top shape: 1 32 1 70000 (2240000)
I0730 13:08:28.029556 28501 layer_factory.hpp:76] Creating layer fconv1
I0730 13:08:28.029559 28498 net.cpp:98] Creating Layer fconv1
I0730 13:08:28.029567 28498 net.cpp:443] fconv1 <- bn1_relu1_0_split_0
I0730 13:08:28.029579 28498 net.cpp:398] fconv1 -> fconv1
I0730 13:08:28.029567 28499 layer_factory.hpp:76] Creating layer fconv1
I0730 13:08:28.029585 28499 net.cpp:98] Creating Layer fconv1
I0730 13:08:28.029574 28501 net.cpp:98] Creating Layer fconv1
I0730 13:08:28.029582 28501 net.cpp:443] fconv1 <- bn1_relu1_0_split_0
I0730 13:08:28.029595 28501 net.cpp:398] fconv1 -> fconv1
I0730 13:08:28.029594 28498 net.cpp:133] Setting up fconv1
I0730 13:08:28.029593 28499 net.cpp:443] fconv1 <- bn1_relu1_0_split_0
I0730 13:08:28.029608 28499 net.cpp:398] fconv1 -> fconv1
I0730 13:08:28.029621 28499 net.cpp:133] Setting up fconv1
I0730 13:08:28.029461 28500 net.cpp:98] Creating Layer bn1_relu1_0_split
I0730 13:08:28.029625 28500 net.cpp:443] bn1_relu1_0_split <- bn1
I0730 13:08:28.029610 28501 net.cpp:133] Setting up fconv1
I0730 13:08:28.029654 28500 net.cpp:398] bn1_relu1_0_split -> bn1_relu1_0_split_0
I0730 13:08:28.029669 28500 net.cpp:398] bn1_relu1_0_split -> bn1_relu1_0_split_1
I0730 13:08:28.029680 28500 net.cpp:133] Setting up bn1_relu1_0_split
I0730 13:08:28.029692 28500 net.cpp:140] Top shape: 1 32 1 70000 (2240000)
I0730 13:08:28.029701 28500 net.cpp:140] Top shape: 1 32 1 70000 (2240000)
I0730 13:08:28.029707 28500 layer_factory.hpp:76] Creating layer fconv1
I0730 13:08:28.029723 28500 net.cpp:98] Creating Layer fconv1
I0730 13:08:28.029731 28500 net.cpp:443] fconv1 <- bn1_relu1_0_split_0
I0730 13:08:28.029741 28500 net.cpp:398] fconv1 -> fconv1
I0730 13:08:28.029753 28500 net.cpp:133] Setting up fconv1
I0730 13:08:28.032361 28499 net.cpp:140] Top shape: 1 3 1 70000 (210000)
I0730 13:08:28.032383 28499 layer_factory.hpp:76] Creating layer fbn1
I0730 13:08:28.032393 28499 net.cpp:98] Creating Layer fbn1
I0730 13:08:28.032399 28499 net.cpp:443] fbn1 <- fconv1
I0730 13:08:28.032407 28499 net.cpp:398] fbn1 -> fbn1
I0730 13:08:28.032418 28499 net.cpp:133] Setting up fbn1
I0730 13:08:28.032506 28499 net.cpp:140] Top shape: 1 3 1 70000 (210000)
I0730 13:08:28.032524 28499 layer_factory.hpp:76] Creating layer frelu1
I0730 13:08:28.032533 28499 net.cpp:98] Creating Layer frelu1
I0730 13:08:28.032538 28499 net.cpp:443] frelu1 <- fbn1
I0730 13:08:28.032546 28499 net.cpp:387] frelu1 -> fbn1 (in-place)
I0730 13:08:28.032553 28499 net.cpp:133] Setting up frelu1
I0730 13:08:28.032790 28498 net.cpp:140] Top shape: 1 3 1 70000 (210000)
I0730 13:08:28.032826 28498 layer_factory.hpp:76] Creating layer fbn1
I0730 13:08:28.032801 28499 net.cpp:140] Top shape: 1 3 1 70000 (210000)
I0730 13:08:28.032812 28499 layer_factory.hpp:76] Creating layer data_lattice0
I0730 13:08:28.032841 28498 net.cpp:98] Creating Layer fbn1
I0730 13:08:28.032850 28498 net.cpp:443] fbn1 <- fconv1
I0730 13:08:28.032862 28498 net.cpp:398] fbn1 -> fbn1
I0730 13:08:28.032878 28498 net.cpp:133] Setting up fbn1
I0730 13:08:28.032896 28499 net.cpp:98] Creating Layer data_lattice0
I0730 13:08:28.032904 28499 net.cpp:443] data_lattice0 <- data_data_0_split_1
I0730 13:08:28.032913 28499 net.cpp:398] data_lattice0 -> data_lattice0
I0730 13:08:28.032922 28499 net.cpp:133] Setting up data_lattice0
I0730 13:08:28.032977 28498 net.cpp:140] Top shape: 1 3 1 70000 (210000)
I0730 13:08:28.033002 28498 layer_factory.hpp:76] Creating layer frelu1
I0730 13:08:28.033016 28498 net.cpp:98] Creating Layer frelu1
I0730 13:08:28.033023 28498 net.cpp:443] frelu1 <- fbn1
I0730 13:08:28.033033 28498 net.cpp:387] frelu1 -> fbn1 (in-place)
I0730 13:08:28.033043 28498 net.cpp:133] Setting up frelu1
I0730 13:08:28.033262 28499 net.cpp:140] Top shape: 1 3 1 70000 (210000)
I0730 13:08:28.033279 28499 layer_factory.hpp:76] Creating layer feat1
I0730 13:08:28.033303 28500 net.cpp:140] Top shape: 1 3 1 70000 (210000)
I0730 13:08:28.033331 28500 layer_factory.hpp:76] Creating layer fbn1
I0730 13:08:28.033365 28500 net.cpp:98] Creating Layer fbn1
I0730 13:08:28.033375 28500 net.cpp:443] fbn1 <- fconv1
I0730 13:08:28.033388 28500 net.cpp:398] fbn1 -> fbn1
I0730 13:08:28.033404 28500 net.cpp:133] Setting up fbn1
I0730 13:08:28.033409 28498 net.cpp:140] Top shape: 1 3 1 70000 (210000)
I0730 13:08:28.033423 28498 layer_factory.hpp:76] Creating layer data_lattice0
I0730 13:08:28.033519 28498 net.cpp:98] Creating Layer data_lattice0
I0730 13:08:28.033517 28500 net.cpp:140] Top shape: 1 3 1 70000 (210000)
I0730 13:08:28.033515 28501 net.cpp:140] Top shape: 1 3 1 70000 (210000)
I0730 13:08:28.033533 28498 net.cpp:443] data_lattice0 <- data_data_0_split_1
I0730 13:08:28.033547 28498 net.cpp:398] data_lattice0 -> data_lattice0
I0730 13:08:28.033542 28500 layer_factory.hpp:76] Creating layer frelu1
I0730 13:08:28.033545 28501 layer_factory.hpp:76] Creating layer fbn1
I0730 13:08:28.033560 28501 net.cpp:98] Creating Layer fbn1
I0730 13:08:28.033569 28501 net.cpp:443] fbn1 <- fconv1
I0730 13:08:28.033560 28498 net.cpp:133] Setting up data_lattice0
I0730 13:08:28.033567 28500 net.cpp:98] Creating Layer frelu1
I0730 13:08:28.033576 28500 net.cpp:443] frelu1 <- fbn1
I0730 13:08:28.033586 28500 net.cpp:387] frelu1 -> fbn1 (in-place)
I0730 13:08:28.033582 28501 net.cpp:398] fbn1 -> fbn1
I0730 13:08:28.033598 28501 net.cpp:133] Setting up fbn1
I0730 13:08:28.033596 28500 net.cpp:133] Setting up frelu1
I0730 13:08:28.033699 28501 net.cpp:140] Top shape: 1 3 1 70000 (210000)
I0730 13:08:28.033725 28501 layer_factory.hpp:76] Creating layer frelu1
I0730 13:08:28.033744 28501 net.cpp:98] Creating Layer frelu1
I0730 13:08:28.033752 28501 net.cpp:443] frelu1 <- fbn1
I0730 13:08:28.033763 28501 net.cpp:387] frelu1 -> fbn1 (in-place)
I0730 13:08:28.033774 28501 net.cpp:133] Setting up frelu1
I0730 13:08:28.033841 28498 net.cpp:140] Top shape: 1 3 1 70000 (210000)
I0730 13:08:28.033860 28498 layer_factory.hpp:76] Creating layer feat1
I0730 13:08:28.033926 28500 net.cpp:140] Top shape: 1 3 1 70000 (210000)
I0730 13:08:28.033943 28500 layer_factory.hpp:76] Creating layer data_lattice0
I0730 13:08:28.034016 28500 net.cpp:98] Creating Layer data_lattice0
I0730 13:08:28.034030 28500 net.cpp:443] data_lattice0 <- data_data_0_split_1
I0730 13:08:28.034044 28500 net.cpp:398] data_lattice0 -> data_lattice0
I0730 13:08:28.034071 28500 net.cpp:133] Setting up data_lattice0
I0730 13:08:28.034152 28501 net.cpp:140] Top shape: 1 3 1 70000 (210000)
I0730 13:08:28.034170 28501 layer_factory.hpp:76] Creating layer data_lattice0
I0730 13:08:28.034250 28501 net.cpp:98] Creating Layer data_lattice0
I0730 13:08:28.034267 28501 net.cpp:443] data_lattice0 <- data_data_0_split_1
I0730 13:08:28.034281 28501 net.cpp:398] data_lattice0 -> data_lattice0
I0730 13:08:28.034296 28501 net.cpp:133] Setting up data_lattice0
I0730 13:08:28.034348 28500 net.cpp:140] Top shape: 1 3 1 70000 (210000)
I0730 13:08:28.034366 28500 layer_factory.hpp:76] Creating layer feat1
I0730 13:08:28.034592 28501 net.cpp:140] Top shape: 1 3 1 70000 (210000)
I0730 13:08:28.034612 28501 layer_factory.hpp:76] Creating layer feat1
I0730 13:08:28.038822 28498 net.cpp:98] Creating Layer feat1
I0730 13:08:28.038816 28499 net.cpp:98] Creating Layer feat1
I0730 13:08:28.038844 28499 net.cpp:443] feat1 <- data_lattice0
I0730 13:08:28.038843 28498 net.cpp:443] feat1 <- data_lattice0
I0730 13:08:28.038856 28498 net.cpp:443] feat1 <- fbn1
I0730 13:08:28.038856 28499 net.cpp:443] feat1 <- fbn1
I0730 13:08:28.038841 28501 net.cpp:98] Creating Layer feat1
I0730 13:08:28.038868 28501 net.cpp:443] feat1 <- data_lattice0
I0730 13:08:28.038867 28498 net.cpp:398] feat1 -> feat1
I0730 13:08:28.038883 28498 net.cpp:133] Setting up feat1
I0730 13:08:28.038868 28499 net.cpp:398] feat1 -> feat1
I0730 13:08:28.038884 28499 net.cpp:133] Setting up feat1
I0730 13:08:28.038851 28500 net.cpp:98] Creating Layer feat1
I0730 13:08:28.038878 28500 net.cpp:443] feat1 <- data_lattice0
I0730 13:08:28.038892 28500 net.cpp:443] feat1 <- fbn1
I0730 13:08:28.038904 28500 net.cpp:398] feat1 -> feat1
I0730 13:08:28.038882 28501 net.cpp:443] feat1 <- fbn1
I0730 13:08:28.038895 28501 net.cpp:398] feat1 -> feat1
I0730 13:08:28.038913 28501 net.cpp:133] Setting up feat1
I0730 13:08:28.038921 28500 net.cpp:133] Setting up feat1
I0730 13:08:28.047755 28499 net.cpp:140] Top shape: 1 3 1 70000 (210000)
I0730 13:08:28.047789 28499 layer_factory.hpp:76] Creating layer feat1_feat1_0_split
I0730 13:08:28.047771 28498 net.cpp:140] Top shape: 1 3 1 70000 (210000)
I0730 13:08:28.047796 28498 layer_factory.hpp:76] Creating layer feat1_feat1_0_split
I0730 13:08:28.047811 28498 net.cpp:98] Creating Layer feat1_feat1_0_split
I0730 13:08:28.047818 28498 net.cpp:443] feat1_feat1_0_split <- feat1
I0730 13:08:28.047813 28499 net.cpp:98] Creating Layer feat1_feat1_0_split
I0730 13:08:28.047823 28499 net.cpp:443] feat1_feat1_0_split <- feat1
I0730 13:08:28.047797 28501 net.cpp:140] Top shape: 1 3 1 70000 (210000)
I0730 13:08:28.047822 28501 layer_factory.hpp:76] Creating layer feat1_feat1_0_split
I0730 13:08:28.047830 28498 net.cpp:398] feat1_feat1_0_split -> feat1_feat1_0_split_0
I0730 13:08:28.047847 28498 net.cpp:398] feat1_feat1_0_split -> feat1_feat1_0_split_1
I0730 13:08:28.047858 28498 net.cpp:133] Setting up feat1_feat1_0_split
I0730 13:08:28.047837 28499 net.cpp:398] feat1_feat1_0_split -> feat1_feat1_0_split_0
I0730 13:08:28.047855 28499 net.cpp:398] feat1_feat1_0_split -> feat1_feat1_0_split_1
I0730 13:08:28.047868 28499 net.cpp:133] Setting up feat1_feat1_0_split
I0730 13:08:28.047816 28500 net.cpp:140] Top shape: 1 3 1 70000 (210000)
I0730 13:08:28.047842 28500 layer_factory.hpp:76] Creating layer feat1_feat1_0_split
I0730 13:08:28.047860 28500 net.cpp:98] Creating Layer feat1_feat1_0_split
I0730 13:08:28.047870 28500 net.cpp:443] feat1_feat1_0_split <- feat1
I0730 13:08:28.047839 28501 net.cpp:98] Creating Layer feat1_feat1_0_split
I0730 13:08:28.047848 28501 net.cpp:443] feat1_feat1_0_split <- feat1
I0730 13:08:28.047861 28501 net.cpp:398] feat1_feat1_0_split -> feat1_feat1_0_split_0
I0730 13:08:28.047878 28501 net.cpp:398] feat1_feat1_0_split -> feat1_feat1_0_split_1
I0730 13:08:28.047870 28498 net.cpp:140] Top shape: 1 3 1 70000 (210000)
I0730 13:08:28.047878 28498 net.cpp:140] Top shape: 1 3 1 70000 (210000)
I0730 13:08:28.047885 28498 layer_factory.hpp:76] Creating layer conv2
I0730 13:08:28.047881 28499 net.cpp:140] Top shape: 1 3 1 70000 (210000)
I0730 13:08:28.047890 28499 net.cpp:140] Top shape: 1 3 1 70000 (210000)
I0730 13:08:28.047897 28499 layer_factory.hpp:76] Creating layer conv2
I0730 13:08:28.047883 28500 net.cpp:398] feat1_feat1_0_split -> feat1_feat1_0_split_0
I0730 13:08:28.047901 28500 net.cpp:398] feat1_feat1_0_split -> feat1_feat1_0_split_1
I0730 13:08:28.047914 28500 net.cpp:133] Setting up feat1_feat1_0_split
I0730 13:08:28.047890 28501 net.cpp:133] Setting up feat1_feat1_0_split
I0730 13:08:28.047904 28501 net.cpp:140] Top shape: 1 3 1 70000 (210000)
I0730 13:08:28.047914 28501 net.cpp:140] Top shape: 1 3 1 70000 (210000)
I0730 13:08:28.047920 28501 layer_factory.hpp:76] Creating layer conv2
I0730 13:08:28.047927 28500 net.cpp:140] Top shape: 1 3 1 70000 (210000)
I0730 13:08:28.047937 28500 net.cpp:140] Top shape: 1 3 1 70000 (210000)
I0730 13:08:28.047950 28500 layer_factory.hpp:76] Creating layer conv2
I0730 13:08:28.048321 28499 net.cpp:98] Creating Layer conv2
I0730 13:08:28.048346 28498 net.cpp:98] Creating Layer conv2
I0730 13:08:28.048343 28499 net.cpp:443] conv2 <- bn1_relu1_0_split_1
I0730 13:08:28.048355 28499 net.cpp:443] conv2 <- feat1_feat1_0_split_0
I0730 13:08:28.048365 28498 net.cpp:443] conv2 <- bn1_relu1_0_split_1
…
I0730 13:08:28.048403 28501 net.cpp:443] conv2 <- bn1_relu1_0_split_1
I0730 13:08:28.048416 28501 net.cpp:443] conv2 <- feat1_feat1_0_split_0
I0730 13:08:28.048411 28498 net.cpp:133] Setting up conv2
I0730 13:08:28.048426 28500 net.cpp:443] conv2 <- feat1_feat1_0_split_1
I0730 13:08:28.048439 28500 net.cpp:398] conv2 -> conv2
I0730 13:08:28.048425 28501 net.cpp:443] conv2 <- feat1_feat1_0_split_1
I0730 13:08:28.048439 28501 net.cpp:398] conv2 -> conv2
I0730 13:08:28.048458 28500 net.cpp:133] Setting up conv2
I0730 13:08:28.048456 28501 net.cpp:133] Setting up conv2
I0730 13:08:28.090739 28500 net.cpp:140] Top shape: 1 64 1 70000 (4480000)
I0730 13:08:28.090775 28500 layer_factory.hpp:76] Creating layer bn2
I0730 13:08:28.090790 28500 net.cpp:98] Creating Layer bn2
I0730 13:08:28.090796 28500 net.cpp:443] bn2 <- conv2
I0730 13:08:28.090809 28500 net.cpp:398] bn2 -> bn2
I0730 13:08:28.090821 28500 net.cpp:133] Setting up bn2
I0730 13:08:28.090909 28500 net.cpp:140] Top shape: 1 64 1 70000 (4480000)
I0730 13:08:28.090926 28500 layer_factory.hpp:76] Creating layer relu2
I0730 13:08:28.090939 28500 net.cpp:98] Creating Layer relu2
I0730 13:08:28.090945 28500 net.cpp:443] relu2 <- bn2
I0730 13:08:28.090953 28500 net.cpp:387] relu2 -> bn2 (in-place)
I0730 13:08:28.090961 28500 net.cpp:133] Setting up relu2
I0730 13:08:28.091289 28500 net.cpp:140] Top shape: 1 64 1 70000 (4480000)
I0730 13:08:28.091332 28500 layer_factory.hpp:76] Creating layer bn2_relu2_0_split
I0730 13:08:28.091348 28500 net.cpp:98] Creating Layer bn2_relu2_0_split
I0730 13:08:28.091354 28500 net.cpp:443] bn2_relu2_0_split <- bn2
I0730 13:08:28.091365 28500 net.cpp:398] bn2_relu2_0_split -> bn2_relu2_0_split_0
I0730 13:08:28.091375 28500 net.cpp:398] bn2_relu2_0_split -> bn2_relu2_0_split_1
I0730 13:08:28.091385 28500 net.cpp:398] bn2_relu2_0_split -> bn2_relu2_0_split_2
I0730 13:08:28.091387 28498 net.cpp:140] Top shape: 1 64 1 70000 (4480000)
I0730 13:08:28.091393 28500 net.cpp:133] Setting up bn2_relu2_0_split
I0730 13:08:28.091403 28500 net.cpp:140] Top shape: 1 64 1 70000 (4480000)
I0730 13:08:28.091411 28498 layer_factory.hpp:76] Creating layer bn2
I0730 13:08:28.091410 28500 net.cpp:140] Top shape: 1 64 1 70000 (4480000)
I0730 13:08:28.091415 28500 net.cpp:140] Top shape: 1 64 1 70000 (4480000)
I0730 13:08:28.091420 28500 layer_factory.hpp:76] Creating layer fconv2
I0730 13:08:28.091424 28498 net.cpp:98] Creating Layer bn2
I0730 13:08:28.091433 28498 net.cpp:443] bn2 <- conv2
I0730 13:08:28.091434 28500 net.cpp:98] Creating Layer fconv2
I0730 13:08:28.091439 28500 net.cpp:443] fconv2 <- bn2_relu2_0_split_0
I0730 13:08:28.091442 28498 net.cpp:398] bn2 -> bn2
I0730 13:08:28.091452 28498 net.cpp:133] Setting up bn2
I0730 13:08:28.091449 28500 net.cpp:398] fconv2 -> fconv2
I0730 13:08:28.091459 28500 net.cpp:133] Setting up fconv2
I0730 13:08:28.091547 28498 net.cpp:140] Top shape: 1 64 1 70000 (4480000)
I0730 13:08:28.091567 28498 layer_factory.hpp:76] Creating layer relu2
I0730 13:08:28.091578 28498 net.cpp:98] Creating Layer relu2
I0730 13:08:28.091584 28498 net.cpp:443] relu2 <- bn2
I0730 13:08:28.091593 28498 net.cpp:387] relu2 -> bn2 (in-place)
I0730 13:08:28.091603 28498 net.cpp:133] Setting up relu2
I0730 13:08:28.091940 28498 net.cpp:140] Top shape: 1 64 1 70000 (4480000)
I0730 13:08:28.091967 28498 layer_factory.hpp:76] Creating layer bn2_relu2_0_split
I0730 13:08:28.091979 28498 net.cpp:98] Creating Layer bn2_relu2_0_split
I0730 13:08:28.091984 28498 net.cpp:443] bn2_relu2_0_split <- bn2
I0730 13:08:28.091994 28498 net.cpp:398] bn2_relu2_0_split -> bn2_relu2_0_split_0
I0730 13:08:28.092005 28498 net.cpp:398] bn2_relu2_0_split -> bn2_relu2_0_split_1
I0730 13:08:28.092015 28498 net.cpp:398] bn2_relu2_0_split -> bn2_relu2_0_split_2
I0730 13:08:28.092023 28498 net.cpp:133] Setting up bn2_relu2_0_split
I0730 13:08:28.092033 28498 net.cpp:140] Top shape: 1 64 1 70000 (4480000)
I0730 13:08:28.092041 28498 net.cpp:140] Top shape: 1 64 1 70000 (4480000)
I0730 13:08:28.092046 28498 net.cpp:140] Top shape: 1 64 1 70000 (4480000)
I0730 13:08:28.092051 28498 layer_factory.hpp:76] Creating layer fconv2
I0730 13:08:28.092063 28498 net.cpp:98] Creating Layer fconv2
I0730 13:08:28.092069 28498 net.cpp:443] fconv2 <- bn2_relu2_0_split_0
I0730 13:08:28.092080 28498 net.cpp:398] fconv2 -> fconv2
I0730 13:08:28.092090 28498 net.cpp:133] Setting up fconv2
I0730 13:08:28.092849 28501 net.cpp:140] Top shape: 1 64 1 70000 (4480000)
I0730 13:08:28.092886 28501 layer_factory.hpp:76] Creating layer bn2
I0730 13:08:28.092902 28501 net.cpp:98] Creating Layer bn2
I0730 13:08:28.092911 28501 net.cpp:443] bn2 <- conv2
I0730 13:08:28.092921 28501 net.cpp:398] bn2 -> bn2
I0730 13:08:28.092933 28501 net.cpp:133] Setting up bn2
I0730 13:08:28.093027 28501 net.cpp:140] Top shape: 1 64 1 70000 (4480000)
I0730 13:08:28.093046 28501 layer_factory.hpp:76] Creating layer relu2
I0730 13:08:28.093060 28501 net.cpp:98] Creating Layer relu2
I0730 13:08:28.093066 28501 net.cpp:443] relu2 <- bn2
I0730 13:08:28.093075 28501 net.cpp:387] relu2 -> bn2 (in-place)
I0730 13:08:28.093084 28501 net.cpp:133] Setting up relu2
I0730 13:08:28.093447 28501 net.cpp:140] Top shape: 1 64 1 70000 (4480000)
I0730 13:08:28.093479 28501 layer_factory.hpp:76] Creating layer bn2_relu2_0_split
I0730 13:08:28.093493 28501 net.cpp:98] Creating Layer bn2_relu2_0_split
I0730 13:08:28.093499 28501 net.cpp:443] bn2_relu2_0_split <- bn2
I0730 13:08:28.093510 28501 net.cpp:398] bn2_relu2_0_split -> bn2_relu2_0_split_0
I0730 13:08:28.093523 28501 net.cpp:398] bn2_relu2_0_split -> bn2_relu2_0_split_1
I0730 13:08:28.093534 28501 net.cpp:398] bn2_relu2_0_split -> bn2_relu2_0_split_2
I0730 13:08:28.093544 28501 net.cpp:133] Setting up bn2_relu2_0_split
I0730 13:08:28.093555 28501 net.cpp:140] Top shape: 1 64 1 70000 (4480000)
I0730 13:08:28.093564 28501 net.cpp:140] Top shape: 1 64 1 70000 (4480000)
I0730 13:08:28.093569 28501 net.cpp:140] Top shape: 1 64 1 70000 (4480000)
I0730 13:08:28.093575 28501 layer_factory.hpp:76] Creating layer fconv2
I0730 13:08:28.093590 28501 net.cpp:98] Creating Layer fconv2
I0730 13:08:28.093595 28501 net.cpp:443] fconv2 <- bn2_relu2_0_split_0
I0730 13:08:28.093605 28501 net.cpp:398] fconv2 -> fconv2
I0730 13:08:28.093617 28501 net.cpp:133] Setting up fconv2
I0730 13:08:28.093982 28499 net.cpp:140] Top shape: 1 64 1 70000 (4480000)
I0730 13:08:28.094012 28499 layer_factory.hpp:76] Creating layer bn2
I0730 13:08:28.094027 28499 net.cpp:98] Creating Layer bn2
I0730 13:08:28.094034 28499 net.cpp:443] bn2 <- conv2
I0730 13:08:28.094045 28499 net.cpp:398] bn2 -> bn2
I0730 13:08:28.094056 28499 net.cpp:133] Setting up bn2
I0730 13:08:28.094149 28499 net.cpp:140] Top shape: 1 64 1 70000 (4480000)
I0730 13:08:28.094168 28499 layer_factory.hpp:76] Creating layer relu2
I0730 13:08:28.094182 28499 net.cpp:98] Creating Layer relu2
I0730 13:08:28.094187 28499 net.cpp:443] relu2 <- bn2
I0730 13:08:28.094197 28499 net.cpp:387] relu2 -> bn2 (in-place)
I0730 13:08:28.094205 28499 net.cpp:133] Setting up relu2
I0730 13:08:28.094610 28499 net.cpp:140] Top shape: 1 64 1 70000 (4480000)
I0730 13:08:28.094630 28499 layer_factory.hpp:76] Creating layer bn2_relu2_0_split
I0730 13:08:28.094641 28499 net.cpp:98] Creating Layer bn2_relu2_0_split
I0730 13:08:28.094648 28499 net.cpp:443] bn2_relu2_0_split <- bn2
I0730 13:08:28.094660 28499 net.cpp:398] bn2_relu2_0_split -> bn2_relu2_0_split_0
I0730 13:08:28.094671 28499 net.cpp:398] bn2_relu2_0_split -> bn2_relu2_0_split_1
I0730 13:08:28.094681 28499 net.cpp:398] bn2_relu2_0_split -> bn2_relu2_0_split_2
I0730 13:08:28.094691 28499 net.cpp:133] Setting up bn2_relu2_0_split
I0730 13:08:28.094700 28499 net.cpp:140] Top shape: 1 64 1 70000 (4480000)
I0730 13:08:28.094707 28499 net.cpp:140] Top shape: 1 64 1 70000 (4480000)
I0730 13:08:28.094713 28499 net.cpp:140] Top shape: 1 64 1 70000 (4480000)
I0730 13:08:28.094722 28499 layer_factory.hpp:76] Creating layer fconv2
I0730 13:08:28.094738 28499 net.cpp:98] Creating Layer fconv2
I0730 13:08:28.094744 28499 net.cpp:443] fconv2 <- bn2_relu2_0_split_0
I0730 13:08:28.094755 28499 net.cpp:398] fconv2 -> fconv2
I0730 13:08:28.094766 28499 net.cpp:133] Setting up fconv2
I0730 13:08:28.100683 28498 net.cpp:140] Top shape: 1 3 1 70000 (210000)
I0730 13:08:28.100715 28498 layer_factory.hpp:76] Creating layer fbn2
I0730 13:08:28.100729 28498 net.cpp:98] Creating Layer fbn2
I0730 13:08:28.100736 28498 net.cpp:443] fbn2 <- fconv2
I0730 13:08:28.100747 28498 net.cpp:398] fbn2 -> fbn2
I0730 13:08:28.100759 28498 net.cpp:133] Setting up fbn2
I0730 13:08:28.100847 28498 net.cpp:140] Top shape: 1 3 1 70000 (210000)
I0730 13:08:28.100869 28498 layer_factory.hpp:76] Creating layer frelu2
I0730 13:08:28.100880 28498 net.cpp:98] Creating Layer frelu2
I0730 13:08:28.100886 28498 net.cpp:443] frelu2 <- fbn2
I0730 13:08:28.100895 28498 net.cpp:387] frelu2 -> fbn2 (in-place)
I0730 13:08:28.100903 28498 net.cpp:133] Setting up frelu2
I0730 13:08:28.100984 28500 net.cpp:140] Top shape: 1 3 1 70000 (210000)
I0730 13:08:28.101016 28500 layer_factory.hpp:76] Creating layer fbn2
I0730 13:08:28.101030 28500 net.cpp:98] Creating Layer fbn2
I0730 13:08:28.101037 28500 net.cpp:443] fbn2 <- fconv2
I0730 13:08:28.101045 28500 net.cpp:398] fbn2 -> fbn2
I0730 13:08:28.101056 28500 net.cpp:133] Setting up fbn2
I0730 13:08:28.101145 28500 net.cpp:140] Top shape: 1 3 1 70000 (210000)
I0730 13:08:28.101176 28500 layer_factory.hpp:76] Creating layer frelu2
I0730 13:08:28.101186 28500 net.cpp:98] Creating Layer frelu2
I0730 13:08:28.101192 28500 net.cpp:443] frelu2 <- fbn2
I0730 13:08:28.101195 28498 net.cpp:140] Top shape: 1 3 1 70000 (210000)
I0730 13:08:28.101207 28498 layer_factory.hpp:76] Creating layer data_lattice1
I0730 13:08:28.101183 28499 net.cpp:140] Top shape: 1 3 1 70000 (210000)
I0730 13:08:28.101212 28499 layer_factory.hpp:76] Creating layer fbn2
I0730 13:08:28.101200 28500 net.cpp:387] frelu2 -> fbn2 (in-place)
I0730 13:08:28.101208 28500 net.cpp:133] Setting up frelu2
I0730 13:08:28.101225 28499 net.cpp:98] Creating Layer fbn2
I0730 13:08:28.101233 28499 net.cpp:443] fbn2 <- fconv2
I0730 13:08:28.101227 28501 net.cpp:140] Top shape: 1 3 1 70000 (210000)
I0730 13:08:28.101243 28499 net.cpp:398] fbn2 -> fbn2
I0730 13:08:28.101253 28499 net.cpp:133] Setting up fbn2
I0730 13:08:28.101258 28501 layer_factory.hpp:76] Creating layer fbn2
I0730 13:08:28.101271 28501 net.cpp:98] Creating Layer fbn2
I0730 13:08:28.101279 28501 net.cpp:443] fbn2 <- fconv2
I0730 13:08:28.101289 28501 net.cpp:398] fbn2 -> fbn2
I0730 13:08:28.101289 28498 net.cpp:98] Creating Layer data_lattice1
I0730 13:08:28.101297 28498 net.cpp:443] data_lattice1 <- data_data_0_split_2
I0730 13:08:28.101301 28501 net.cpp:133] Setting up fbn2
I0730 13:08:28.101310 28498 net.cpp:398] data_lattice1 -> data_lattice1
I0730 13:08:28.101320 28498 net.cpp:133] Setting up data_lattice1
I0730 13:08:28.101349 28499 net.cpp:140] Top shape: 1 3 1 70000 (210000)
I0730 13:08:28.101364 28499 layer_factory.hpp:76] Creating layer frelu2
I0730 13:08:28.101379 28499 net.cpp:98] Creating Layer frelu2
I0730 13:08:28.101385 28499 net.cpp:443] frelu2 <- fbn2
I0730 13:08:28.101394 28499 net.cpp:387] frelu2 -> fbn2 (in-place)
I0730 13:08:28.101403 28499 net.cpp:133] Setting up frelu2
I0730 13:08:28.101395 28501 net.cpp:140] Top shape: 1 3 1 70000 (210000)
I0730 13:08:28.101410 28501 layer_factory.hpp:76] Creating layer frelu2
I0730 13:08:28.101421 28501 net.cpp:98] Creating Layer frelu2
I0730 13:08:28.101428 28501 net.cpp:443] frelu2 <- fbn2
I0730 13:08:28.101438 28501 net.cpp:387] frelu2 -> fbn2 (in-place)
I0730 13:08:28.101446 28501 net.cpp:133] Setting up frelu2
I0730 13:08:28.101500 28500 net.cpp:140] Top shape: 1 3 1 70000 (210000)
I0730 13:08:28.101513 28500 layer_factory.hpp:76] Creating layer data_lattice1
I0730 13:08:28.101591 28500 net.cpp:98] Creating Layer data_lattice1
I0730 13:08:28.101603 28498 net.cpp:140] Top shape: 1 3 1 70000 (210000)
I0730 13:08:28.101615 28498 layer_factory.hpp:76] Creating layer feat2
I0730 13:08:28.101606 28500 net.cpp:443] data_lattice1 <- data_data_0_split_2
I0730 13:08:28.101617 28500 net.cpp:398] data_lattice1 -> data_lattice1
I0730 13:08:28.101625 28498 net.cpp:98] Creating Layer feat2
I0730 13:08:28.101632 28498 net.cpp:443] feat2 <- data_lattice1
I0730 13:08:28.101626 28500 net.cpp:133] Setting up data_lattice1
I0730 13:08:28.101640 28498 net.cpp:443] feat2 <- fbn2
I0730 13:08:28.101649 28498 net.cpp:398] feat2 -> feat2
I0730 13:08:28.101661 28498 net.cpp:133] Setting up feat2
I0730 13:08:28.101670 28498 net.cpp:140] Top shape: 1 3 1 70000 (210000)
I0730 13:08:28.101678 28498 layer_factory.hpp:76] Creating layer feat2_feat2_0_split
I0730 13:08:28.101688 28498 net.cpp:98] Creating Layer feat2_feat2_0_split
I0730 13:08:28.101693 28498 net.cpp:443] feat2_feat2_0_split <- feat2
I0730 13:08:28.101702 28498 net.cpp:398] feat2_feat2_0_split -> feat2_feat2_0_split_0
I0730 13:08:28.101711 28498 net.cpp:398] feat2_feat2_0_split -> feat2_feat2_0_split_1
I0730 13:08:28.101721 28498 net.cpp:133] Setting up feat2_feat2_0_split
I0730 13:08:28.101729 28498 net.cpp:140] Top shape: 1 3 1 70000 (210000)
I0730 13:08:28.101714 28499 net.cpp:140] Top shape: 1 3 1 70000 (210000)
I0730 13:08:28.101727 28499 layer_factory.hpp:76] Creating layer data_lattice1
I0730 13:08:28.101735 28498 net.cpp:140] Top shape: 1 3 1 70000 (210000)
I0730 13:08:28.101740 28498 layer_factory.hpp:76] Creating layer conv3
I0730 13:08:28.101754 28498 net.cpp:98] Creating Layer conv3
I0730 13:08:28.101760 28498 net.cpp:443] conv3 <- bn2_relu2_0_split_1
I0730 13:08:28.101768 28498 net.cpp:443] conv3 <- feat2_feat2_0_split_0
I0730 13:08:28.101774 28498 net.cpp:443] conv3 <- feat2_feat2_0_split_1
I0730 13:08:28.101755 28501 net.cpp:140] Top shape: 1 3 1 70000 (210000)
I0730 13:08:28.101770 28501 layer_factory.hpp:76] Creating layer data_lattice1
I0730 13:08:28.101783 28498 net.cpp:398] conv3 -> conv3
I0730 13:08:28.101795 28498 net.cpp:133] Setting up conv3
I0730 13:08:28.101796 28499 net.cpp:98] Creating Layer data_lattice1
I0730 13:08:28.101807 28499 net.cpp:443] data_lattice1 <- data_data_0_split_2
I0730 13:08:28.101819 28499 net.cpp:398] data_lattice1 -> data_lattice1
I0730 13:08:28.101830 28499 net.cpp:133] Setting up data_lattice1
I0730 13:08:28.101841 28501 net.cpp:98] Creating Layer data_lattice1
I0730 13:08:28.101853 28501 net.cpp:443] data_lattice1 <- data_data_0_split_2
I0730 13:08:28.101866 28500 net.cpp:140] Top shape: 1 3 1 70000 (210000)
I0730 13:08:28.101864 28501 net.cpp:398] data_lattice1 -> data_lattice1
I0730 13:08:28.101876 28501 net.cpp:133] Setting up data_lattice1
I0730 13:08:28.101876 28500 layer_factory.hpp:76] Creating layer feat2
I0730 13:08:28.101888 28500 net.cpp:98] Creating Layer feat2
I0730 13:08:28.101893 28500 net.cpp:443] feat2 <- data_lattice1
I0730 13:08:28.101902 28500 net.cpp:443] feat2 <- fbn2
I0730 13:08:28.101913 28500 net.cpp:398] feat2 -> feat2
I0730 13:08:28.101923 28500 net.cpp:133] Setting up feat2
I0730 13:08:28.101933 28500 net.cpp:140] Top shape: 1 3 1 70000 (210000)
I0730 13:08:28.101948 28500 layer_factory.hpp:76] Creating layer feat2_feat2_0_split
I0730 13:08:28.101959 28500 net.cpp:98] Creating Layer feat2_feat2_0_split
I0730 13:08:28.101964 28500 net.cpp:443] feat2_feat2_0_split <- feat2
I0730 13:08:28.101974 28500 net.cpp:398] feat2_feat2_0_split -> feat2_feat2_0_split_0
I0730 13:08:28.101984 28500 net.cpp:398] feat2_feat2_0_split -> feat2_feat2_0_split_1
I0730 13:08:28.101990 28500 net.cpp:133] Setting up feat2_feat2_0_split
I0730 13:08:28.101999 28500 net.cpp:140] Top shape: 1 3 1 70000 (210000)
I0730 13:08:28.102005 28500 net.cpp:140] Top shape: 1 3 1 70000 (210000)
I0730 13:08:28.102010 28500 layer_factory.hpp:76] Creating layer conv3
I0730 13:08:28.102021 28500 net.cpp:98] Creating Layer conv3
I0730 13:08:28.102027 28500 net.cpp:443] conv3 <- bn2_relu2_0_split_1
I0730 13:08:28.102033 28500 net.cpp:443] conv3 <- feat2_feat2_0_split_0
I0730 13:08:28.102039 28500 net.cpp:443] conv3 <- feat2_feat2_0_split_1
I0730 13:08:28.102049 28500 net.cpp:398] conv3 -> conv3
I0730 13:08:28.102064 28500 net.cpp:133] Setting up conv3
I0730 13:08:28.102092 28499 net.cpp:140] Top shape: 1 3 1 70000 (210000)
I0730 13:08:28.102105 28499 layer_factory.hpp:76] Creating layer feat2
I0730 13:08:28.102118 28499 net.cpp:98] Creating Layer feat2
I0730 13:08:28.102123 28499 net.cpp:443] feat2 <- data_lattice1
I0730 13:08:28.102131 28499 net.cpp:443] feat2 <- fbn2
I0730 13:08:28.102141 28499 net.cpp:398] feat2 -> feat2
I0730 13:08:28.102152 28499 net.cpp:133] Setting up feat2
I0730 13:08:28.102164 28499 net.cpp:140] Top shape: 1 3 1 70000 (210000)
I0730 13:08:28.102169 28499 layer_factory.hpp:76] Creating layer feat2_feat2_0_split
I0730 13:08:28.102182 28499 net.cpp:98] Creating Layer feat2_feat2_0_split
I0730 13:08:28.102187 28499 net.cpp:443] feat2_feat2_0_split <- feat2
I0730 13:08:28.102195 28499 net.cpp:398] feat2_feat2_0_split -> feat2_feat2_0_split_0
I0730 13:08:28.102205 28499 net.cpp:398] feat2_feat2_0_split -> feat2_feat2_0_split_1
I0730 13:08:28.102213 28499 net.cpp:133] Setting up feat2_feat2_0_split
I0730 13:08:28.102222 28499 net.cpp:140] Top shape: 1 3 1 70000 (210000)
I0730 13:08:28.102228 28499 net.cpp:140] Top shape: 1 3 1 70000 (210000)
I0730 13:08:28.102233 28499 layer_factory.hpp:76] Creating layer conv3
I0730 13:08:28.102226 28501 net.cpp:140] Top shape: 1 3 1 70000 (210000)
I0730 13:08:28.102241 28501 layer_factory.hpp:76] Creating layer feat2
I0730 13:08:28.102247 28499 net.cpp:98] Creating Layer conv3
I0730 13:08:28.102253 28499 net.cpp:443] conv3 <- bn2_relu2_0_split_1
I0730 13:08:28.102254 28501 net.cpp:98] Creating Layer feat2
I0730 13:08:28.102262 28501 net.cpp:443] feat2 <- data_lattice1
I0730 13:08:28.102260 28499 net.cpp:443] conv3 <- feat2_feat2_0_split_0
I0730 13:08:28.102267 28499 net.cpp:443] conv3 <- feat2_feat2_0_split_1
I0730 13:08:28.102277 28499 net.cpp:398] conv3 -> conv3
I0730 13:08:28.102269 28501 net.cpp:443] feat2 <- fbn2
I0730 13:08:28.102279 28501 net.cpp:398] feat2 -> feat2
I0730 13:08:28.102288 28499 net.cpp:133] Setting up conv3
I0730 13:08:28.102290 28501 net.cpp:133] Setting up feat2
I0730 13:08:28.102300 28501 net.cpp:140] Top shape: 1 3 1 70000 (210000)
I0730 13:08:28.102306 28501 layer_factory.hpp:76] Creating layer feat2_feat2_0_split
I0730 13:08:28.102316 28501 net.cpp:98] Creating Layer feat2_feat2_0_split
I0730 13:08:28.102324 28501 net.cpp:443] feat2_feat2_0_split <- feat2
I0730 13:08:28.102332 28501 net.cpp:398] feat2_feat2_0_split -> feat2_feat2_0_split_0
I0730 13:08:28.102342 28501 net.cpp:398] feat2_feat2_0_split -> feat2_feat2_0_split_1
I0730 13:08:28.102352 28501 net.cpp:133] Setting up feat2_feat2_0_split
I0730 13:08:28.102361 28501 net.cpp:140] Top shape: 1 3 1 70000 (210000)
I0730 13:08:28.102368 28501 net.cpp:140] Top shape: 1 3 1 70000 (210000)
I0730 13:08:28.102373 28501 layer_factory.hpp:76] Creating layer conv3
I0730 13:08:28.102389 28501 net.cpp:98] Creating Layer conv3
I0730 13:08:28.102396 28501 net.cpp:443] conv3 <- bn2_relu2_0_split_1
I0730 13:08:28.102403 28501 net.cpp:443] conv3 <- feat2_feat2_0_split_0
I0730 13:08:28.102409 28501 net.cpp:443] conv3 <- feat2_feat2_0_split_1
I0730 13:08:28.102421 28501 net.cpp:398] conv3 -> conv3
I0730 13:08:28.102437 28501 net.cpp:133] Setting up conv3
I0730 13:08:28.207654 28500 net.cpp:140] Top shape: 1 128 1 70000 (8960000)
I0730 13:08:28.207684 28500 layer_factory.hpp:76] Creating layer bn3
I0730 13:08:28.207696 28500 net.cpp:98] Creating Layer bn3
I0730 13:08:28.207705 28500 net.cpp:443] bn3 <- conv3
I0730 13:08:28.207715 28500 net.cpp:398] bn3 -> bn3
I0730 13:08:28.207726 28500 net.cpp:133] Setting up bn3
I0730 13:08:28.207796 28500 net.cpp:140] Top shape: 1 128 1 70000 (8960000)
I0730 13:08:28.207806 28500 layer_factory.hpp:76] Creating layer relu3
I0730 13:08:28.207834 28500 net.cpp:98] Creating Layer relu3
I0730 13:08:28.207839 28500 net.cpp:443] relu3 <- bn3
I0730 13:08:28.207844 28500 net.cpp:387] relu3 -> bn3 (in-place)
I0730 13:08:28.207849 28500 net.cpp:133] Setting up relu3
I0730 13:08:28.212054 28500 net.cpp:140] Top shape: 1 128 1 70000 (8960000)
I0730 13:08:28.212072 28500 layer_factory.hpp:76] Creating layer bn3_relu3_0_split
I0730 13:08:28.212083 28500 net.cpp:98] Creating Layer bn3_relu3_0_split
I0730 13:08:28.212088 28500 net.cpp:443] bn3_relu3_0_split <- bn3
I0730 13:08:28.212095 28500 net.cpp:398] bn3_relu3_0_split -> bn3_relu3_0_split_0
I0730 13:08:28.212105 28500 net.cpp:398] bn3_relu3_0_split -> bn3_relu3_0_split_1
I0730 13:08:28.212110 28500 net.cpp:398] bn3_relu3_0_split -> bn3_relu3_0_split_2
I0730 13:08:28.212116 28500 net.cpp:133] Setting up bn3_relu3_0_split
I0730 13:08:28.212124 28500 net.cpp:140] Top shape: 1 128 1 70000 (8960000)
I0730 13:08:28.212128 28500 net.cpp:140] Top shape: 1 128 1 70000 (8960000)
I0730 13:08:28.212132 28500 net.cpp:140] Top shape: 1 128 1 70000 (8960000)
I0730 13:08:28.212136 28500 layer_factory.hpp:76] Creating layer fconv3
I0730 13:08:28.212146 28500 net.cpp:98] Creating Layer fconv3
I0730 13:08:28.212149 28500 net.cpp:443] fconv3 <- bn3_relu3_0_split_0
I0730 13:08:28.212157 28500 net.cpp:398] fconv3 -> fconv3
I0730 13:08:28.212165 28500 net.cpp:133] Setting up fconv3
I0730 13:08:28.212895 28501 net.cpp:140] Top shape: 1 128 1 70000 (8960000)
I0730 13:08:28.212919 28501 layer_factory.hpp:76] Creating layer bn3
I0730 13:08:28.212929 28501 net.cpp:98] Creating Layer bn3
I0730 13:08:28.212939 28501 net.cpp:443] bn3 <- conv3
I0730 13:08:28.212947 28501 net.cpp:398] bn3 -> bn3
I0730 13:08:28.212954 28501 net.cpp:133] Setting up bn3
I0730 13:08:28.213063 28501 net.cpp:140] Top shape: 1 128 1 70000 (8960000)
I0730 13:08:28.213075 28501 layer_factory.hpp:76] Creating layer relu3
I0730 13:08:28.213086 28501 net.cpp:98] Creating Layer relu3
I0730 13:08:28.213090 28501 net.cpp:443] relu3 <- bn3
I0730 13:08:28.213095 28501 net.cpp:387] relu3 -> bn3 (in-place)
I0730 13:08:28.213100 28501 net.cpp:133] Setting up relu3
I0730 13:08:28.213224 28499 net.cpp:140] Top shape: 1 128 1 70000 (8960000)
I0730 13:08:28.213245 28499 layer_factory.hpp:76] Creating layer bn3
I0730 13:08:28.213255 28499 net.cpp:98] Creating Layer bn3
I0730 13:08:28.213260 28499 net.cpp:443] bn3 <- conv3
I0730 13:08:28.213268 28499 net.cpp:398] bn3 -> bn3
I0730 13:08:28.213275 28499 net.cpp:133] Setting up bn3
I0730 13:08:28.213340 28499 net.cpp:140] Top shape: 1 128 1 70000 (8960000)
I0730 13:08:28.213352 28499 layer_factory.hpp:76] Creating layer relu3
I0730 13:08:28.213371 28499 net.cpp:98] Creating Layer relu3
I0730 13:08:28.213376 28499 net.cpp:443] relu3 <- bn3
I0730 13:08:28.213382 28499 net.cpp:387] relu3 -> bn3 (in-place)
I0730 13:08:28.213387 28499 net.cpp:133] Setting up relu3
I0730 13:08:28.215003 28498 net.cpp:140] Top shape: 1 128 1 70000 (8960000)
I0730 13:08:28.215023 28498 layer_factory.hpp:76] Creating layer bn3
I0730 13:08:28.215032 28498 net.cpp:98] Creating Layer bn3
I0730 13:08:28.215039 28498 net.cpp:443] bn3 <- conv3
I0730 13:08:28.215046 28498 net.cpp:398] bn3 -> bn3
I0730 13:08:28.215054 28498 net.cpp:133] Setting up bn3
I0730 13:08:28.215064 28501 net.cpp:140] Top shape: 1 128 1 70000 (8960000)
I0730 13:08:28.215097 28499 net.cpp:140] Top shape: 1 128 1 70000 (8960000)
I0730 13:08:28.215077 28501 layer_factory.hpp:76] Creating layer bn3_relu3_0_split
I0730 13:08:28.215090 28501 net.cpp:98] Creating Layer bn3_relu3_0_split
I0730 13:08:28.215095 28501 net.cpp:443] bn3_relu3_0_split <- bn3
I0730 13:08:28.215103 28501 net.cpp:398] bn3_relu3_0_split -> bn3_relu3_0_split_0
I0730 13:08:28.215113 28501 net.cpp:398] bn3_relu3_0_split -> bn3_relu3_0_split_1
I0730 13:08:28.215117 28498 net.cpp:140] Top shape: 1 128 1 70000 (8960000)
I0730 13:08:28.215111 28499 layer_factory.hpp:76] Creating layer bn3_relu3_0_split
I0730 13:08:28.215121 28499 net.cpp:98] Creating Layer bn3_relu3_0_split
I0730 13:08:28.215126 28499 net.cpp:443] bn3_relu3_0_split <- bn3
I0730 13:08:28.215134 28499 net.cpp:398] bn3_relu3_0_split -> bn3_relu3_0_split_0
I0730 13:08:28.215121 28501 net.cpp:398] bn3_relu3_0_split -> bn3_relu3_0_split_2
I0730 13:08:28.215127 28501 net.cpp:133] Setting up bn3_relu3_0_split
I0730 13:08:28.215135 28501 net.cpp:140] Top shape: 1 128 1 70000 (8960000)
I0730 13:08:28.215139 28501 net.cpp:140] Top shape: 1 128 1 70000 (8960000)
I0730 13:08:28.215131 28498 layer_factory.hpp:76] Creating layer relu3
I0730 13:08:28.215138 28498 net.cpp:98] Creating Layer relu3
I0730 13:08:28.215142 28498 net.cpp:443] relu3 <- bn3
I0730 13:08:28.215147 28498 net.cpp:387] relu3 -> bn3 (in-place)
I0730 13:08:28.215153 28498 net.cpp:133] Setting up relu3
I0730 13:08:28.215142 28499 net.cpp:398] bn3_relu3_0_split -> bn3_relu3_0_split_1
I0730 13:08:28.215150 28499 net.cpp:398] bn3_relu3_0_split -> bn3_relu3_0_split_2
I0730 13:08:28.215157 28499 net.cpp:133] Setting up bn3_relu3_0_split
I0730 13:08:28.215143 28501 net.cpp:140] Top shape: 1 128 1 70000 (8960000)
I0730 13:08:28.215147 28501 layer_factory.hpp:76] Creating layer fconv3
I0730 13:08:28.215157 28501 net.cpp:98] Creating Layer fconv3
I0730 13:08:28.215162 28501 net.cpp:443] fconv3 <- bn3_relu3_0_split_0
I0730 13:08:28.215163 28499 net.cpp:140] Top shape: 1 128 1 70000 (8960000)
I0730 13:08:28.215168 28499 net.cpp:140] Top shape: 1 128 1 70000 (8960000)
I0730 13:08:28.215173 28499 net.cpp:140] Top shape: 1 128 1 70000 (8960000)
I0730 13:08:28.215175 28499 layer_factory.hpp:76] Creating layer fconv3
I0730 13:08:28.215169 28501 net.cpp:398] fconv3 -> fconv3
I0730 13:08:28.215176 28501 net.cpp:133] Setting up fconv3
I0730 13:08:28.215185 28499 net.cpp:98] Creating Layer fconv3
I0730 13:08:28.215189 28499 net.cpp:443] fconv3 <- bn3_relu3_0_split_0
I0730 13:08:28.215196 28499 net.cpp:398] fconv3 -> fconv3
I0730 13:08:28.215204 28499 net.cpp:133] Setting up fconv3
I0730 13:08:28.215961 28498 net.cpp:140] Top shape: 1 128 1 70000 (8960000)
I0730 13:08:28.215976 28498 layer_factory.hpp:76] Creating layer bn3_relu3_0_split
I0730 13:08:28.215986 28498 net.cpp:98] Creating Layer bn3_relu3_0_split
I0730 13:08:28.215991 28498 net.cpp:443] bn3_relu3_0_split <- bn3
I0730 13:08:28.215998 28498 net.cpp:398] bn3_relu3_0_split -> bn3_relu3_0_split_0
I0730 13:08:28.216006 28498 net.cpp:398] bn3_relu3_0_split -> bn3_relu3_0_split_1
I0730 13:08:28.216013 28498 net.cpp:398] bn3_relu3_0_split -> bn3_relu3_0_split_2
I0730 13:08:28.216019 28498 net.cpp:133] Setting up bn3_relu3_0_split
I0730 13:08:28.216027 28498 net.cpp:140] Top shape: 1 128 1 70000 (8960000)
I0730 13:08:28.216030 28498 net.cpp:140] Top shape: 1 128 1 70000 (8960000)
I0730 13:08:28.216034 28498 net.cpp:140] Top shape: 1 128 1 70000 (8960000)
I0730 13:08:28.216038 28498 layer_factory.hpp:76] Creating layer fconv3
I0730 13:08:28.216048 28498 net.cpp:98] Creating Layer fconv3
I0730 13:08:28.216051 28498 net.cpp:443] fconv3 <- bn3_relu3_0_split_0
I0730 13:08:28.216058 28498 net.cpp:398] fconv3 -> fconv3
I0730 13:08:28.216066 28498 net.cpp:133] Setting up fconv3
I0730 13:08:28.217782 28498 net.cpp:140] Top shape: 1 3 1 70000 (210000)
I0730 13:08:28.217802 28498 layer_factory.hpp:76] Creating layer fbn3
I0730 13:08:28.217811 28498 net.cpp:98] Creating Layer fbn3
I0730 13:08:28.217818 28498 net.cpp:443] fbn3 <- fconv3
I0730 13:08:28.217824 28498 net.cpp:398] fbn3 -> fbn3
I0730 13:08:28.217833 28498 net.cpp:133] Setting up fbn3
I0730 13:08:28.217916 28498 net.cpp:140] Top shape: 1 3 1 70000 (210000)
I0730 13:08:28.217929 28498 layer_factory.hpp:76] Creating layer frelu3
I0730 13:08:28.217936 28498 net.cpp:98] Creating Layer frelu3
I0730 13:08:28.217941 28498 net.cpp:443] frelu3 <- fbn3
I0730 13:08:28.217947 28498 net.cpp:387] frelu3 -> fbn3 (in-place)
I0730 13:08:28.217952 28498 net.cpp:133] Setting up frelu3
I0730 13:08:28.218145 28498 net.cpp:140] Top shape: 1 3 1 70000 (210000)
I0730 13:08:28.218156 28498 layer_factory.hpp:76] Creating layer data_lattice2
I0730 13:08:28.218228 28498 net.cpp:98] Creating Layer data_lattice2
I0730 13:08:28.218237 28498 net.cpp:443] data_lattice2 <- data_data_0_split_3
I0730 13:08:28.218245 28498 net.cpp:398] data_lattice2 -> data_lattice2
I0730 13:08:28.218253 28498 net.cpp:133] Setting up data_lattice2
I0730 13:08:28.218309 28499 net.cpp:140] Top shape: 1 3 1 70000 (210000)
I0730 13:08:28.218327 28499 layer_factory.hpp:76] Creating layer fbn3
I0730 13:08:28.218336 28499 net.cpp:98] Creating Layer fbn3
I0730 13:08:28.218341 28499 net.cpp:443] fbn3 <- fconv3
I0730 13:08:28.218348 28499 net.cpp:398] fbn3 -> fbn3
I0730 13:08:28.218356 28499 net.cpp:133] Setting up fbn3
I0730 13:08:28.218344 28500 net.cpp:140] Top shape: 1 3 1 70000 (210000)
I0730 13:08:28.218360 28500 layer_factory.hpp:76] Creating layer fbn3
I0730 13:08:28.218384 28500 net.cpp:98] Creating Layer fbn3
I0730 13:08:28.218390 28500 net.cpp:443] fbn3 <- fconv3
I0730 13:08:28.218399 28500 net.cpp:398] fbn3 -> fbn3
I0730 13:08:28.218380 28501 net.cpp:140] Top shape: 1 3 1 70000 (210000)
I0730 13:08:28.218396 28501 layer_factory.hpp:76] Creating layer fbn3
I0730 13:08:28.218406 28501 net.cpp:98] Creating Layer fbn3
I0730 13:08:28.218406 28500 net.cpp:133] Setting up fbn3
I0730 13:08:28.218411 28501 net.cpp:443] fbn3 <- fconv3
I0730 13:08:28.218420 28501 net.cpp:398] fbn3 -> fbn3
I0730 13:08:28.218427 28501 net.cpp:133] Setting up fbn3
I0730 13:08:28.218423 28499 net.cpp:140] Top shape: 1 3 1 70000 (210000)
I0730 13:08:28.218438 28499 layer_factory.hpp:76] Creating layer frelu3
I0730 13:08:28.218446 28499 net.cpp:98] Creating Layer frelu3
I0730 13:08:28.218449 28499 net.cpp:443] frelu3 <- fbn3
I0730 13:08:28.218456 28499 net.cpp:387] frelu3 -> fbn3 (in-place)
I0730 13:08:28.218461 28499 net.cpp:133] Setting up frelu3
I0730 13:08:28.218474 28498 net.cpp:140] Top shape: 1 3 1 70000 (210000)
I0730 13:08:28.218484 28498 layer_factory.hpp:76] Creating layer feat3
I0730 13:08:28.218482 28500 net.cpp:140] Top shape: 1 3 1 70000 (210000)
I0730 13:08:28.218492 28500 layer_factory.hpp:76] Creating layer frelu3
I0730 13:08:28.218494 28498 net.cpp:98] Creating Layer feat3
I0730 13:08:28.218498 28498 net.cpp:443] feat3 <- data_lattice2
I0730 13:08:28.218504 28498 net.cpp:443] feat3 <- fbn3
I0730 13:08:28.218511 28498 net.cpp:398] feat3 -> feat3
I0730 13:08:28.218499 28500 net.cpp:98] Creating Layer frelu3
I0730 13:08:28.218503 28500 net.cpp:443] frelu3 <- fbn3
I0730 13:08:28.218509 28500 net.cpp:387] frelu3 -> fbn3 (in-place)
I0730 13:08:28.218515 28500 net.cpp:133] Setting up frelu3
I0730 13:08:28.218505 28501 net.cpp:140] Top shape: 1 3 1 70000 (210000)
I0730 13:08:28.218518 28501 layer_factory.hpp:76] Creating layer frelu3
I0730 13:08:28.218519 28498 net.cpp:133] Setting up feat3
I0730 13:08:28.218526 28498 net.cpp:140] Top shape: 1 3 1 70000 (210000)
I0730 13:08:28.218530 28498 layer_factory.hpp:76] Creating layer feat3_feat3_0_split
I0730 13:08:28.218536 28498 net.cpp:98] Creating Layer feat3_feat3_0_split
I0730 13:08:28.218540 28498 net.cpp:443] feat3_feat3_0_split <- feat3
I0730 13:08:28.218528 28501 net.cpp:98] Creating Layer frelu3
I0730 13:08:28.218533 28501 net.cpp:443] frelu3 <- fbn3
I0730 13:08:28.218538 28501 net.cpp:387] frelu3 -> fbn3 (in-place)
I0730 13:08:28.218544 28501 net.cpp:133] Setting up frelu3
I0730 13:08:28.218545 28498 net.cpp:398] feat3_feat3_0_split -> feat3_feat3_0_split_0
I0730 13:08:28.218552 28498 net.cpp:398] feat3_feat3_0_split -> feat3_feat3_0_split_1
I0730 13:08:28.218559 28498 net.cpp:133] Setting up feat3_feat3_0_split
I0730 13:08:28.218564 28498 net.cpp:140] Top shape: 1 3 1 70000 (210000)
I0730 13:08:28.218569 28498 net.cpp:140] Top shape: 1 3 1 70000 (210000)
I0730 13:08:28.218571 28498 layer_factory.hpp:76] Creating layer conv4
I0730 13:08:28.218580 28498 net.cpp:98] Creating Layer conv4
I0730 13:08:28.218585 28498 net.cpp:443] conv4 <- bn3_relu3_0_split_1
I0730 13:08:28.218590 28498 net.cpp:443] conv4 <- feat3_feat3_0_split_0
I0730 13:08:28.218595 28498 net.cpp:443] conv4 <- feat3_feat3_0_split_1
I0730 13:08:28.218601 28498 net.cpp:398] conv4 -> conv4
I0730 13:08:28.218607 28498 net.cpp:133] Setting up conv4
I0730 13:08:28.218672 28499 net.cpp:140] Top shape: 1 3 1 70000 (210000)
I0730 13:08:28.218683 28499 layer_factory.hpp:76] Creating layer data_lattice2
I0730 13:08:28.218719 28500 net.cpp:140] Top shape: 1 3 1 70000 (210000)
I0730 13:08:28.218726 28500 layer_factory.hpp:76] Creating layer data_lattice2
I0730 13:08:28.218734 28499 net.cpp:98] Creating Layer data_lattice2
I0730 13:08:28.218740 28499 net.cpp:443] data_lattice2 <- data_data_0_split_3
I0730 13:08:28.218749 28499 net.cpp:398] data_lattice2 -> data_lattice2
I0730 13:08:28.218755 28499 net.cpp:133] Setting up data_lattice2
I0730 13:08:28.218755 28501 net.cpp:140] Top shape: 1 3 1 70000 (210000)
I0730 13:08:28.218762 28501 layer_factory.hpp:76] Creating layer data_lattice2
I0730 13:08:28.218777 28500 net.cpp:98] Creating Layer data_lattice2
I0730 13:08:28.218785 28500 net.cpp:443] data_lattice2 <- data_data_0_split_3
I0730 13:08:28.218792 28500 net.cpp:398] data_lattice2 -> data_lattice2
I0730 13:08:28.218801 28500 net.cpp:133] Setting up data_lattice2
I0730 13:08:28.218821 28501 net.cpp:98] Creating Layer data_lattice2
I0730 13:08:28.218829 28501 net.cpp:443] data_lattice2 <- data_data_0_split_3
I0730 13:08:28.218837 28501 net.cpp:398] data_lattice2 -> data_lattice2
I0730 13:08:28.218845 28501 net.cpp:133] Setting up data_lattice2
I0730 13:08:28.218961 28499 net.cpp:140] Top shape: 1 3 1 70000 (210000)
I0730 13:08:28.218974 28499 layer_factory.hpp:76] Creating layer feat3
I0730 13:08:28.218984 28499 net.cpp:98] Creating Layer feat3
I0730 13:08:28.218992 28499 net.cpp:443] feat3 <- data_lattice2
I0730 13:08:28.218997 28499 net.cpp:443] feat3 <- fbn3
I0730 13:08:28.219004 28499 net.cpp:398] feat3 -> feat3
I0730 13:08:28.219012 28499 net.cpp:133] Setting up feat3
I0730 13:08:28.219018 28499 net.cpp:140] Top shape: 1 3 1 70000 (210000)
I0730 13:08:28.219024 28499 layer_factory.hpp:76] Creating layer feat3_feat3_0_split
I0730 13:08:28.219030 28499 net.cpp:98] Creating Layer feat3_feat3_0_split
I0730 13:08:28.219034 28499 net.cpp:443] feat3_feat3_0_split <- feat3
I0730 13:08:28.219039 28499 net.cpp:398] feat3_feat3_0_split -> feat3_feat3_0_split_0
I0730 13:08:28.219027 28500 net.cpp:140] Top shape: 1 3 1 70000 (210000)
I0730 13:08:28.219035 28500 layer_factory.hpp:76] Creating layer feat3
I0730 13:08:28.219045 28500 net.cpp:98] Creating Layer feat3
I0730 13:08:28.219050 28500 net.cpp:443] feat3 <- data_lattice2
I0730 13:08:28.219046 28499 net.cpp:398] feat3_feat3_0_split -> feat3_feat3_0_split_1
I0730 13:08:28.219053 28499 net.cpp:133] Setting up feat3_feat3_0_split
I0730 13:08:28.219058 28499 net.cpp:140] Top shape: 1 3 1 70000 (210000)
I0730 13:08:28.219063 28499 net.cpp:140] Top shape: 1 3 1 70000 (210000)
I0730 13:08:28.219065 28499 layer_factory.hpp:76] Creating layer conv4
I0730 13:08:28.219055 28500 net.cpp:443] feat3 <- fbn3
I0730 13:08:28.219063 28500 net.cpp:398] feat3 -> feat3
I0730 13:08:28.219070 28500 net.cpp:133] Setting up feat3
I0730 13:08:28.219075 28499 net.cpp:98] Creating Layer conv4
I0730 13:08:28.219079 28499 net.cpp:443] conv4 <- bn3_relu3_0_split_1
I0730 13:08:28.219084 28499 net.cpp:443] conv4 <- feat3_feat3_0_split_0
I0730 13:08:28.219089 28499 net.cpp:443] conv4 <- feat3_feat3_0_split_1
I0730 13:08:28.219076 28500 net.cpp:140] Top shape: 1 3 1 70000 (210000)
I0730 13:08:28.219081 28500 layer_factory.hpp:76] Creating layer feat3_feat3_0_split
I0730 13:08:28.219089 28500 net.cpp:98] Creating Layer feat3_feat3_0_split
I0730 13:08:28.219091 28500 net.cpp:443] feat3_feat3_0_split <- feat3
I0730 13:08:28.219066 28501 net.cpp:140] Top shape: 1 3 1 70000 (210000)
I0730 13:08:28.219074 28501 layer_factory.hpp:76] Creating layer feat3
I0730 13:08:28.219084 28501 net.cpp:98] Creating Layer feat3
I0730 13:08:28.219089 28501 net.cpp:443] feat3 <- data_lattice2
I0730 13:08:28.219094 28501 net.cpp:443] feat3 <- fbn3
I0730 13:08:28.219095 28499 net.cpp:398] conv4 -> conv4
I0730 13:08:28.219102 28499 net.cpp:133] Setting up conv4
I0730 13:08:28.219097 28500 net.cpp:398] feat3_feat3_0_split -> feat3_feat3_0_split_0
I0730 13:08:28.219105 28500 net.cpp:398] feat3_feat3_0_split -> feat3_feat3_0_split_1
I0730 13:08:28.219110 28500 net.cpp:133] Setting up feat3_feat3_0_split
I0730 13:08:28.219116 28500 net.cpp:140] Top shape: 1 3 1 70000 (210000)
I0730 13:08:28.219120 28500 net.cpp:140] Top shape: 1 3 1 70000 (210000)
I0730 13:08:28.219125 28500 layer_factory.hpp:76] Creating layer conv4
I0730 13:08:28.219102 28501 net.cpp:398] feat3 -> feat3
I0730 13:08:28.219111 28501 net.cpp:133] Setting up feat3
I0730 13:08:28.219117 28501 net.cpp:140] Top shape: 1 3 1 70000 (210000)
I0730 13:08:28.219121 28501 layer_factory.hpp:76] Creating layer feat3_feat3_0_split
I0730 13:08:28.219128 28501 net.cpp:98] Creating Layer feat3_feat3_0_split
I0730 13:08:28.219135 28500 net.cpp:98] Creating Layer conv4
I0730 13:08:28.219138 28500 net.cpp:443] conv4 <- bn3_relu3_0_split_1
I0730 13:08:28.219143 28500 net.cpp:443] conv4 <- feat3_feat3_0_split_0
I0730 13:08:28.219147 28500 net.cpp:443] conv4 <- feat3_feat3_0_split_1
I0730 13:08:28.219132 28501 net.cpp:443] feat3_feat3_0_split <- feat3
I0730 13:08:28.219141 28501 net.cpp:398] feat3_feat3_0_split -> feat3_feat3_0_split_0
I0730 13:08:28.219147 28501 net.cpp:398] feat3_feat3_0_split -> feat3_feat3_0_split_1
I0730 13:08:28.219153 28501 net.cpp:133] Setting up feat3_feat3_0_split
I0730 13:08:28.219154 28500 net.cpp:398] conv4 -> conv4
I0730 13:08:28.219162 28500 net.cpp:133] Setting up conv4
I0730 13:08:28.219158 28501 net.cpp:140] Top shape: 1 3 1 70000 (210000)
I0730 13:08:28.219163 28501 net.cpp:140] Top shape: 1 3 1 70000 (210000)
I0730 13:08:28.219168 28501 layer_factory.hpp:76] Creating layer conv4
I0730 13:08:28.219180 28501 net.cpp:98] Creating Layer conv4
I0730 13:08:28.219184 28501 net.cpp:443] conv4 <- bn3_relu3_0_split_1
I0730 13:08:28.219189 28501 net.cpp:443] conv4 <- feat3_feat3_0_split_0
I0730 13:08:28.219194 28501 net.cpp:443] conv4 <- feat3_feat3_0_split_1
I0730 13:08:28.219202 28501 net.cpp:398] conv4 -> conv4
I0730 13:08:28.219208 28501 net.cpp:133] Setting up conv4
I0730 13:08:28.286720 28498 net.cpp:140] Top shape: 1 256 1 70000 (17920000)
I0730 13:08:28.286751 28498 layer_factory.hpp:76] Creating layer bn4
I0730 13:08:28.286763 28498 net.cpp:98] Creating Layer bn4
I0730 13:08:28.286769 28498 net.cpp:443] bn4 <- conv4
I0730 13:08:28.286777 28498 net.cpp:398] bn4 -> bn4
I0730 13:08:28.286784 28498 net.cpp:133] Setting up bn4
I0730 13:08:28.286715 28499 net.cpp:140] Top shape: 1 256 1 70000 (17920000)
I0730 13:08:28.286746 28499 layer_factory.hpp:76] Creating layer bn4
I0730 13:08:28.286759 28499 net.cpp:98] Creating Layer bn4
I0730 13:08:28.286767 28499 net.cpp:443] bn4 <- conv4
I0730 13:08:28.286775 28499 net.cpp:398] bn4 -> bn4
I0730 13:08:28.286784 28499 net.cpp:133] Setting up bn4
I0730 13:08:28.286857 28498 net.cpp:140] Top shape: 1 256 1 70000 (17920000)
I0730 13:08:28.286872 28498 layer_factory.hpp:76] Creating layer relu4
I0730 13:08:28.286881 28498 net.cpp:98] Creating Layer relu4
I0730 13:08:28.286885 28498 net.cpp:443] relu4 <- bn4
I0730 13:08:28.286857 28499 net.cpp:140] Top shape: 1 256 1 70000 (17920000)
I0730 13:08:28.286872 28499 layer_factory.hpp:76] Creating layer relu4
I0730 13:08:28.286886 28499 net.cpp:98] Creating Layer relu4
I0730 13:08:28.286890 28499 net.cpp:443] relu4 <- bn4
I0730 13:08:28.286890 28498 net.cpp:387] relu4 -> bn4 (in-place)
I0730 13:08:28.286895 28498 net.cpp:133] Setting up relu4
I0730 13:08:28.286895 28499 net.cpp:387] relu4 -> bn4 (in-place)
I0730 13:08:28.286900 28499 net.cpp:133] Setting up relu4
I0730 13:08:28.286939 28501 net.cpp:140] Top shape: 1 256 1 70000 (17920000)
I0730 13:08:28.286958 28501 layer_factory.hpp:76] Creating layer bn4
I0730 13:08:28.286968 28501 net.cpp:98] Creating Layer bn4
I0730 13:08:28.286975 28501 net.cpp:443] bn4 <- conv4
I0730 13:08:28.286983 28501 net.cpp:398] bn4 -> bn4
I0730 13:08:28.286990 28501 net.cpp:133] Setting up bn4
I0730 13:08:28.287061 28501 net.cpp:140] Top shape: 1 256 1 70000 (17920000)
I0730 13:08:28.287078 28501 layer_factory.hpp:76] Creating layer relu4
I0730 13:08:28.287086 28501 net.cpp:98] Creating Layer relu4
I0730 13:08:28.287091 28501 net.cpp:443] relu4 <- bn4
I0730 13:08:28.287096 28501 net.cpp:387] relu4 -> bn4 (in-place)
I0730 13:08:28.287102 28501 net.cpp:133] Setting up relu4
I0730 13:08:28.287214 28498 net.cpp:140] Top shape: 1 256 1 70000 (17920000)
I0730 13:08:28.287227 28498 layer_factory.hpp:76] Creating layer bn4_relu4_0_split
I0730 13:08:28.287215 28499 net.cpp:140] Top shape: 1 256 1 70000 (17920000)
I0730 13:08:28.287230 28499 layer_factory.hpp:76] Creating layer bn4_relu4_0_split
I0730 13:08:28.287235 28498 net.cpp:98] Creating Layer bn4_relu4_0_split
I0730 13:08:28.287240 28498 net.cpp:443] bn4_relu4_0_split <- bn4
I0730 13:08:28.287246 28498 net.cpp:398] bn4_relu4_0_split -> bn4_relu4_0_split_0
I0730 13:08:28.287238 28499 net.cpp:98] Creating Layer bn4_relu4_0_split
I0730 13:08:28.287243 28499 net.cpp:443] bn4_relu4_0_split <- bn4
I0730 13:08:28.287250 28499 net.cpp:398] bn4_relu4_0_split -> bn4_relu4_0_split_0
I0730 13:08:28.287253 28498 net.cpp:398] bn4_relu4_0_split -> bn4_relu4_0_split_1
I0730 13:08:28.287261 28498 net.cpp:398] bn4_relu4_0_split -> bn4_relu4_0_split_2
I0730 13:08:28.287266 28498 net.cpp:133] Setting up bn4_relu4_0_split
I0730 13:08:28.287273 28498 net.cpp:140] Top shape: 1 256 1 70000 (17920000)
I0730 13:08:28.287256 28499 net.cpp:398] bn4_relu4_0_split -> bn4_relu4_0_split_1
I0730 13:08:28.287263 28499 net.cpp:398] bn4_relu4_0_split -> bn4_relu4_0_split_2
I0730 13:08:28.287269 28499 net.cpp:133] Setting up bn4_relu4_0_split
I0730 13:08:28.287276 28499 net.cpp:140] Top shape: 1 256 1 70000 (17920000)
I0730 13:08:28.287279 28499 net.cpp:140] Top shape: 1 256 1 70000 (17920000)
I0730 13:08:28.287277 28498 net.cpp:140] Top shape: 1 256 1 70000 (17920000)
I0730 13:08:28.287281 28498 net.cpp:140] Top shape: 1 256 1 70000 (17920000)
I0730 13:08:28.287286 28498 layer_factory.hpp:76] Creating layer fconv4
I0730 13:08:28.287295 28498 net.cpp:98] Creating Layer fconv4
I0730 13:08:28.287284 28499 net.cpp:140] Top shape: 1 256 1 70000 (17920000)
I0730 13:08:28.287288 28499 layer_factory.hpp:76] Creating layer fconv4
I0730 13:08:28.287297 28499 net.cpp:98] Creating Layer fconv4
I0730 13:08:28.287302 28499 net.cpp:443] fconv4 <- bn4_relu4_0_split_0
I0730 13:08:28.287299 28498 net.cpp:443] fconv4 <- bn4_relu4_0_split_0
I0730 13:08:28.287307 28498 net.cpp:398] fconv4 -> fconv4
I0730 13:08:28.287314 28498 net.cpp:133] Setting up fconv4
I0730 13:08:28.287308 28499 net.cpp:398] fconv4 -> fconv4
I0730 13:08:28.287317 28499 net.cpp:133] Setting up fconv4
I0730 13:08:28.287420 28501 net.cpp:140] Top shape: 1 256 1 70000 (17920000)
I0730 13:08:28.287437 28501 layer_factory.hpp:76] Creating layer bn4_relu4_0_split
I0730 13:08:28.287446 28501 net.cpp:98] Creating Layer bn4_relu4_0_split
I0730 13:08:28.287451 28501 net.cpp:443] bn4_relu4_0_split <- bn4
I0730 13:08:28.287456 28501 net.cpp:398] bn4_relu4_0_split -> bn4_relu4_0_split_0
I0730 13:08:28.287463 28501 net.cpp:398] bn4_relu4_0_split -> bn4_relu4_0_split_1
I0730 13:08:28.287477 28501 net.cpp:398] bn4_relu4_0_split -> bn4_relu4_0_split_2
I0730 13:08:28.287482 28501 net.cpp:133] Setting up bn4_relu4_0_split
I0730 13:08:28.287490 28501 net.cpp:140] Top shape: 1 256 1 70000 (17920000)
I0730 13:08:28.287494 28501 net.cpp:140] Top shape: 1 256 1 70000 (17920000)
I0730 13:08:28.287498 28501 net.cpp:140] Top shape: 1 256 1 70000 (17920000)
I0730 13:08:28.287501 28501 layer_factory.hpp:76] Creating layer fconv4
I0730 13:08:28.287511 28501 net.cpp:98] Creating Layer fconv4
I0730 13:08:28.287515 28501 net.cpp:443] fconv4 <- bn4_relu4_0_split_0
I0730 13:08:28.287523 28501 net.cpp:398] fconv4 -> fconv4
I0730 13:08:28.287531 28501 net.cpp:133] Setting up fconv4
I0730 13:08:28.287998 28500 net.cpp:140] Top shape: 1 256 1 70000 (17920000)
I0730 13:08:28.288045 28500 layer_factory.hpp:76] Creating layer bn4
I0730 13:08:28.288058 28500 net.cpp:98] Creating Layer bn4
I0730 13:08:28.288065 28500 net.cpp:443] bn4 <- conv4
I0730 13:08:28.288074 28500 net.cpp:398] bn4 -> bn4
I0730 13:08:28.288080 28500 net.cpp:133] Setting up bn4
I0730 13:08:28.288151 28500 net.cpp:140] Top shape: 1 256 1 70000 (17920000)
I0730 13:08:28.288167 28500 layer_factory.hpp:76] Creating layer relu4
I0730 13:08:28.288175 28500 net.cpp:98] Creating Layer relu4
I0730 13:08:28.288179 28500 net.cpp:443] relu4 <- bn4
I0730 13:08:28.288185 28500 net.cpp:387] relu4 -> bn4 (in-place)
I0730 13:08:28.288190 28500 net.cpp:133] Setting up relu4
I0730 13:08:28.288493 28500 net.cpp:140] Top shape: 1 256 1 70000 (17920000)
I0730 13:08:28.288506 28500 layer_factory.hpp:76] Creating layer bn4_relu4_0_split
I0730 13:08:28.288514 28500 net.cpp:98] Creating Layer bn4_relu4_0_split
I0730 13:08:28.288519 28500 net.cpp:443] bn4_relu4_0_split <- bn4
I0730 13:08:28.288525 28500 net.cpp:398] bn4_relu4_0_split -> bn4_relu4_0_split_0
I0730 13:08:28.288533 28500 net.cpp:398] bn4_relu4_0_split -> bn4_relu4_0_split_1
I0730 13:08:28.288539 28500 net.cpp:398] bn4_relu4_0_split -> bn4_relu4_0_split_2
I0730 13:08:28.288545 28500 net.cpp:133] Setting up bn4_relu4_0_split
I0730 13:08:28.288552 28500 net.cpp:140] Top shape: 1 256 1 70000 (17920000)
I0730 13:08:28.288556 28500 net.cpp:140] Top shape: 1 256 1 70000 (17920000)
I0730 13:08:28.288560 28500 net.cpp:140] Top shape: 1 256 1 70000 (17920000)
I0730 13:08:28.288564 28500 layer_factory.hpp:76] Creating layer fconv4
I0730 13:08:28.288573 28500 net.cpp:98] Creating Layer fconv4
I0730 13:08:28.288578 28500 net.cpp:443] fconv4 <- bn4_relu4_0_split_0
I0730 13:08:28.288589 28500 net.cpp:398] fconv4 -> fconv4
I0730 13:08:28.288597 28500 net.cpp:133] Setting up fconv4
I0730 13:08:28.289258 28498 net.cpp:140] Top shape: 1 3 1 70000 (210000)
I0730 13:08:28.289279 28498 layer_factory.hpp:76] Creating layer fbn4
I0730 13:08:28.289288 28498 net.cpp:98] Creating Layer fbn4
I0730 13:08:28.289294 28498 net.cpp:443] fbn4 <- fconv4
I0730 13:08:28.289301 28498 net.cpp:398] fbn4 -> fbn4
I0730 13:08:28.289309 28498 net.cpp:133] Setting up fbn4
I0730 13:08:28.289377 28498 net.cpp:140] Top shape: 1 3 1 70000 (210000)
I0730 13:08:28.289389 28498 layer_factory.hpp:76] Creating layer frelu4
I0730 13:08:28.289397 28498 net.cpp:98] Creating Layer frelu4
I0730 13:08:28.289402 28498 net.cpp:443] frelu4 <- fbn4
I0730 13:08:28.289407 28498 net.cpp:387] frelu4 -> fbn4 (in-place)
I0730 13:08:28.289412 28498 net.cpp:133] Setting up frelu4
I0730 13:08:28.289613 28498 net.cpp:140] Top shape: 1 3 1 70000 (210000)
I0730 13:08:28.289625 28498 layer_factory.hpp:76] Creating layer data_lattice3
I0730 13:08:28.289701 28498 net.cpp:98] Creating Layer data_lattice3
I0730 13:08:28.289710 28498 net.cpp:443] data_lattice3 <- data_data_0_split_4
I0730 13:08:28.289718 28498 net.cpp:398] data_lattice3 -> data_lattice3
I0730 13:08:28.289726 28498 net.cpp:133] Setting up data_lattice3
I0730 13:08:28.289717 28499 net.cpp:140] Top shape: 1 3 1 70000 (210000)
I0730 13:08:28.289737 28499 layer_factory.hpp:76] Creating layer fbn4
I0730 13:08:28.289747 28499 net.cpp:98] Creating Layer fbn4
I0730 13:08:28.289753 28499 net.cpp:443] fbn4 <- fconv4
I0730 13:08:28.289762 28499 net.cpp:398] fbn4 -> fbn4
I0730 13:08:28.289769 28499 net.cpp:133] Setting up fbn4
I0730 13:08:28.289836 28499 net.cpp:140] Top shape: 1 3 1 70000 (210000)
I0730 13:08:28.289849 28499 layer_factory.hpp:76] Creating layer frelu4
I0730 13:08:28.289856 28499 net.cpp:98] Creating Layer frelu4
I0730 13:08:28.289860 28499 net.cpp:443] frelu4 <- fbn4
I0730 13:08:28.289867 28499 net.cpp:387] frelu4 -> fbn4 (in-place)
I0730 13:08:28.289873 28499 net.cpp:133] Setting up frelu4
I0730 13:08:28.289942 28498 net.cpp:140] Top shape: 1 3 1 70000 (210000)
I0730 13:08:28.289952 28498 layer_factory.hpp:76] Creating layer feat4
I0730 13:08:28.289961 28498 net.cpp:98] Creating Layer feat4
I0730 13:08:28.289965 28498 net.cpp:443] feat4 <- data_lattice3
I0730 13:08:28.289971 28498 net.cpp:443] feat4 <- fbn4
I0730 13:08:28.289978 28498 net.cpp:398] feat4 -> feat4
I0730 13:08:28.289986 28498 net.cpp:133] Setting up feat4
I0730 13:08:28.289994 28498 net.cpp:140] Top shape: 1 3 1 70000 (210000)
I0730 13:08:28.289999 28498 layer_factory.hpp:76] Creating layer feat4_feat4_0_split
I0730 13:08:28.290005 28498 net.cpp:98] Creating Layer feat4_feat4_0_split
I0730 13:08:28.290009 28498 net.cpp:443] feat4_feat4_0_split <- feat4
I0730 13:08:28.290015 28498 net.cpp:398] feat4_feat4_0_split -> feat4_feat4_0_split_0
I0730 13:08:28.290022 28498 net.cpp:398] feat4_feat4_0_split -> feat4_feat4_0_split_1
I0730 13:08:28.290027 28498 net.cpp:133] Setting up feat4_feat4_0_split
I0730 13:08:28.290033 28498 net.cpp:140] Top shape: 1 3 1 70000 (210000)
I0730 13:08:28.290037 28498 net.cpp:140] Top shape: 1 3 1 70000 (210000)
I0730 13:08:28.290041 28498 layer_factory.hpp:76] Creating layer conv5
I0730 13:08:28.290051 28498 net.cpp:98] Creating Layer conv5
I0730 13:08:28.290055 28498 net.cpp:443] conv5 <- bn4_relu4_0_split_1
I0730 13:08:28.290060 28498 net.cpp:443] conv5 <- feat4_feat4_0_split_0
I0730 13:08:28.290064 28498 net.cpp:443] conv5 <- feat4_feat4_0_split_1
I0730 13:08:28.290071 28498 net.cpp:398] conv5 -> conv5
I0730 13:08:28.290078 28498 net.cpp:133] Setting up conv5
I0730 13:08:28.290081 28499 net.cpp:140] Top shape: 1 3 1 70000 (210000)
I0730 13:08:28.290091 28499 layer_factory.hpp:76] Creating layer data_lattice3
I0730 13:08:28.290143 28499 net.cpp:98] Creating Layer data_lattice3
I0730 13:08:28.290154 28499 net.cpp:443] data_lattice3 <- data_data_0_split_4
I0730 13:08:28.290163 28499 net.cpp:398] data_lattice3 -> data_lattice3
I0730 13:08:28.290169 28499 net.cpp:133] Setting up data_lattice3
I0730 13:08:28.290366 28499 net.cpp:140] Top shape: 1 3 1 70000 (210000)
I0730 13:08:28.290377 28499 layer_factory.hpp:76] Creating layer feat4
I0730 13:08:28.290385 28499 net.cpp:98] Creating Layer feat4
I0730 13:08:28.290390 28499 net.cpp:443] feat4 <- data_lattice3
I0730 13:08:28.290395 28499 net.cpp:443] feat4 <- fbn4
I0730 13:08:28.290402 28499 net.cpp:398] feat4 -> feat4
I0730 13:08:28.290410 28499 net.cpp:133] Setting up feat4
I0730 13:08:28.290416 28499 net.cpp:140] Top shape: 1 3 1 70000 (210000)
I0730 13:08:28.290422 28499 layer_factory.hpp:76] Creating layer feat4_feat4_0_split
I0730 13:08:28.290431 28499 net.cpp:98] Creating Layer feat4_feat4_0_split
I0730 13:08:28.290434 28499 net.cpp:443] feat4_feat4_0_split <- feat4
I0730 13:08:28.290441 28499 net.cpp:398] feat4_feat4_0_split -> feat4_feat4_0_split_0
I0730 13:08:28.290446 28499 net.cpp:398] feat4_feat4_0_split -> feat4_feat4_0_split_1
I0730 13:08:28.290452 28499 net.cpp:133] Setting up feat4_feat4_0_split
I0730 13:08:28.290458 28499 net.cpp:140] Top shape: 1 3 1 70000 (210000)
I0730 13:08:28.290462 28499 net.cpp:140] Top shape: 1 3 1 70000 (210000)
I0730 13:08:28.290474 28499 layer_factory.hpp:76] Creating layer conv5
I0730 13:08:28.290485 28499 net.cpp:98] Creating Layer conv5
I0730 13:08:28.290489 28499 net.cpp:443] conv5 <- bn4_relu4_0_split_1
I0730 13:08:28.290494 28499 net.cpp:443] conv5 <- feat4_feat4_0_split_0
I0730 13:08:28.290499 28499 net.cpp:443] conv5 <- feat4_feat4_0_split_1
I0730 13:08:28.290506 28499 net.cpp:398] conv5 -> conv5
I0730 13:08:28.290513 28499 net.cpp:133] Setting up conv5
I0730 13:08:28.290827 28501 net.cpp:140] Top shape: 1 3 1 70000 (210000)
I0730 13:08:28.290845 28501 layer_factory.hpp:76] Creating layer fbn4
I0730 13:08:28.290855 28501 net.cpp:98] Creating Layer fbn4
I0730 13:08:28.290860 28501 net.cpp:443] fbn4 <- fconv4
I0730 13:08:28.290868 28501 net.cpp:398] fbn4 -> fbn4
I0730 13:08:28.290864 28500 net.cpp:140] Top shape: 1 3 1 70000 (210000)
I0730 13:08:28.290891 28500 layer_factory.hpp:76] Creating layer fbn4
I0730 13:08:28.290877 28501 net.cpp:133] Setting up fbn4
I0730 13:08:28.290902 28500 net.cpp:98] Creating Layer fbn4
I0730 13:08:28.290908 28500 net.cpp:443] fbn4 <- fconv4
I0730 13:08:28.290917 28500 net.cpp:398] fbn4 -> fbn4
I0730 13:08:28.290925 28500 net.cpp:133] Setting up fbn4
I0730 13:08:28.290988 28501 net.cpp:140] Top shape: 1 3 1 70000 (210000)
I0730 13:08:28.291003 28501 layer_factory.hpp:76] Creating layer frelu4
I0730 13:08:28.291013 28501 net.cpp:98] Creating Layer frelu4
I0730 13:08:28.291018 28501 net.cpp:443] frelu4 <- fbn4
I0730 13:08:28.291024 28501 net.cpp:387] frelu4 -> fbn4 (in-place)
I0730 13:08:28.291030 28501 net.cpp:133] Setting up frelu4
I0730 13:08:28.291050 28500 net.cpp:140] Top shape: 1 3 1 70000 (210000)
I0730 13:08:28.291060 28500 layer_factory.hpp:76] Creating layer frelu4
I0730 13:08:28.291069 28500 net.cpp:98] Creating Layer frelu4
I0730 13:08:28.291072 28500 net.cpp:443] frelu4 <- fbn4
I0730 13:08:28.291079 28500 net.cpp:387] frelu4 -> fbn4 (in-place)
I0730 13:08:28.291085 28500 net.cpp:133] Setting up frelu4
I0730 13:08:28.291234 28501 net.cpp:140] Top shape: 1 3 1 70000 (210000)
I0730 13:08:28.291250 28501 layer_factory.hpp:76] Creating layer data_lattice3
I0730 13:08:28.291291 28500 net.cpp:140] Top shape: 1 3 1 70000 (210000)
I0730 13:08:28.291302 28500 layer_factory.hpp:76] Creating layer data_lattice3
I0730 13:08:28.291306 28501 net.cpp:98] Creating Layer data_lattice3
I0730 13:08:28.291314 28501 net.cpp:443] data_lattice3 <- data_data_0_split_4
I0730 13:08:28.291322 28501 net.cpp:398] data_lattice3 -> data_lattice3
I0730 13:08:28.291329 28501 net.cpp:133] Setting up data_lattice3
I0730 13:08:28.291357 28500 net.cpp:98] Creating Layer data_lattice3
I0730 13:08:28.291364 28500 net.cpp:443] data_lattice3 <- data_data_0_split_4
I0730 13:08:28.291373 28500 net.cpp:398] data_lattice3 -> data_lattice3
I0730 13:08:28.291379 28500 net.cpp:133] Setting up data_lattice3
I0730 13:08:28.291544 28501 net.cpp:140] Top shape: 1 3 1 70000 (210000)
I0730 13:08:28.291558 28501 layer_factory.hpp:76] Creating layer feat4
I0730 13:08:28.291565 28501 net.cpp:98] Creating Layer feat4
I0730 13:08:28.291570 28501 net.cpp:443] feat4 <- data_lattice3
I0730 13:08:28.291576 28501 net.cpp:443] feat4 <- fbn4
I0730 13:08:28.291584 28501 net.cpp:398] feat4 -> feat4
I0730 13:08:28.291591 28501 net.cpp:133] Setting up feat4
I0730 13:08:28.291599 28501 net.cpp:140] Top shape: 1 3 1 70000 (210000)
I0730 13:08:28.291602 28501 layer_factory.hpp:76] Creating layer feat4_feat4_0_split
I0730 13:08:28.291609 28501 net.cpp:98] Creating Layer feat4_feat4_0_split
I0730 13:08:28.291613 28501 net.cpp:443] feat4_feat4_0_split <- feat4
I0730 13:08:28.291620 28501 net.cpp:398] feat4_feat4_0_split -> feat4_feat4_0_split_0
I0730 13:08:28.291625 28501 net.cpp:398] feat4_feat4_0_split -> feat4_feat4_0_split_1
I0730 13:08:28.291631 28501 net.cpp:133] Setting up feat4_feat4_0_split
I0730 13:08:28.291637 28501 net.cpp:140] Top shape: 1 3 1 70000 (210000)
I0730 13:08:28.291646 28500 net.cpp:140] Top shape: 1 3 1 70000 (210000)
I0730 13:08:28.291656 28500 layer_factory.hpp:76] Creating layer feat4
I0730 13:08:28.291641 28501 net.cpp:140] Top shape: 1 3 1 70000 (210000)
I0730 13:08:28.291646 28501 layer_factory.hpp:76] Creating layer conv5
I0730 13:08:28.291656 28501 net.cpp:98] Creating Layer conv5
I0730 13:08:28.291659 28501 net.cpp:443] conv5 <- bn4_relu4_0_split_1
I0730 13:08:28.291663 28501 net.cpp:443] conv5 <- feat4_feat4_0_split_0
I0730 13:08:28.291663 28500 net.cpp:98] Creating Layer feat4
I0730 13:08:28.291668 28500 net.cpp:443] feat4 <- data_lattice3
I0730 13:08:28.291673 28500 net.cpp:443] feat4 <- fbn4
I0730 13:08:28.291668 28501 net.cpp:443] conv5 <- feat4_feat4_0_split_1
I0730 13:08:28.291676 28501 net.cpp:398] conv5 -> conv5
I0730 13:08:28.291682 28501 net.cpp:133] Setting up conv5
I0730 13:08:28.291682 28500 net.cpp:398] feat4 -> feat4
I0730 13:08:28.291688 28500 net.cpp:133] Setting up feat4
I0730 13:08:28.291695 28500 net.cpp:140] Top shape: 1 3 1 70000 (210000)
I0730 13:08:28.291698 28500 layer_factory.hpp:76] Creating layer feat4_feat4_0_split
I0730 13:08:28.291705 28500 net.cpp:98] Creating Layer feat4_feat4_0_split
I0730 13:08:28.291709 28500 net.cpp:443] feat4_feat4_0_split <- feat4
I0730 13:08:28.291716 28500 net.cpp:398] feat4_feat4_0_split -> feat4_feat4_0_split_0
I0730 13:08:28.291723 28500 net.cpp:398] feat4_feat4_0_split -> feat4_feat4_0_split_1
I0730 13:08:28.291728 28500 net.cpp:133] Setting up feat4_feat4_0_split
I0730 13:08:28.291733 28500 net.cpp:140] Top shape: 1 3 1 70000 (210000)
I0730 13:08:28.291738 28500 net.cpp:140] Top shape: 1 3 1 70000 (210000)
I0730 13:08:28.291751 28500 layer_factory.hpp:76] Creating layer conv5
I0730 13:08:28.291764 28500 net.cpp:98] Creating Layer conv5
I0730 13:08:28.291767 28500 net.cpp:443] conv5 <- bn4_relu4_0_split_1
I0730 13:08:28.291772 28500 net.cpp:443] conv5 <- feat4_feat4_0_split_0
I0730 13:08:28.291776 28500 net.cpp:443] conv5 <- feat4_feat4_0_split_1
I0730 13:08:28.291784 28500 net.cpp:398] conv5 -> conv5
I0730 13:08:28.291791 28500 net.cpp:133] Setting up conv5
I0730 13:08:28.425027 28498 net.cpp:140] Top shape: 1 256 1 70000 (17920000)
I0730 13:08:28.425060 28498 layer_factory.hpp:76] Creating layer bn5
I0730 13:08:28.425072 28498 net.cpp:98] Creating Layer bn5
I0730 13:08:28.425079 28498 net.cpp:443] bn5 <- conv5
I0730 13:08:28.425091 28498 net.cpp:398] bn5 -> bn5
I0730 13:08:28.425055 28499 net.cpp:140] Top shape: 1 256 1 70000 (17920000)
I0730 13:08:28.425078 28499 layer_factory.hpp:76] Creating layer bn5
I0730 13:08:28.425089 28499 net.cpp:98] Creating Layer bn5
I0730 13:08:28.425097 28499 net.cpp:443] bn5 <- conv5
I0730 13:08:28.425107 28499 net.cpp:398] bn5 -> bn5
I0730 13:08:28.425114 28499 net.cpp:133] Setting up bn5
I0730 13:08:28.425101 28498 net.cpp:133] Setting up bn5
I0730 13:08:28.425175 28498 net.cpp:140] Top shape: 1 256 1 70000 (17920000)
I0730 13:08:28.425187 28498 layer_factory.hpp:76] Creating layer relu5
I0730 13:08:28.425194 28498 net.cpp:98] Creating Layer relu5
I0730 13:08:28.425189 28499 net.cpp:140] Top shape: 1 256 1 70000 (17920000)
I0730 13:08:28.425200 28499 layer_factory.hpp:76] Creating layer relu5
I0730 13:08:28.425199 28498 net.cpp:443] relu5 <- bn5
I0730 13:08:28.425204 28498 net.cpp:387] relu5 -> bn5 (in-place)
I0730 13:08:28.425209 28498 net.cpp:133] Setting up relu5
I0730 13:08:28.425209 28499 net.cpp:98] Creating Layer relu5
I0730 13:08:28.425213 28499 net.cpp:443] relu5 <- bn5
I0730 13:08:28.425217 28499 net.cpp:387] relu5 -> bn5 (in-place)
I0730 13:08:28.425222 28499 net.cpp:133] Setting up relu5
I0730 13:08:28.426275 28498 net.cpp:140] Top shape: 1 256 1 70000 (17920000)
I0730 13:08:28.426290 28498 layer_factory.hpp:76] Creating layer bn5_relu5_0_split
I0730 13:08:28.426301 28498 net.cpp:98] Creating Layer bn5_relu5_0_split
I0730 13:08:28.426306 28498 net.cpp:443] bn5_relu5_0_split <- bn5
I0730 13:08:28.426312 28498 net.cpp:398] bn5_relu5_0_split -> bn5_relu5_0_split_0
I0730 13:08:28.426321 28498 net.cpp:398] bn5_relu5_0_split -> bn5_relu5_0_split_1
I0730 13:08:28.426302 28499 net.cpp:140] Top shape: 1 256 1 70000 (17920000)
I0730 13:08:28.426316 28499 layer_factory.hpp:76] Creating layer bn5_relu5_0_split
I0730 13:08:28.426331 28499 net.cpp:98] Creating Layer bn5_relu5_0_split
I0730 13:08:28.426337 28499 net.cpp:443] bn5_relu5_0_split <- bn5
I0730 13:08:28.426327 28498 net.cpp:398] bn5_relu5_0_split -> bn5_relu5_0_split_2
I0730 13:08:28.426332 28498 net.cpp:133] Setting up bn5_relu5_0_split
I0730 13:08:28.426340 28498 net.cpp:140] Top shape: 1 256 1 70000 (17920000)
I0730 13:08:28.426344 28498 net.cpp:140] Top shape: 1 256 1 70000 (17920000)
I0730 13:08:28.426348 28498 net.cpp:140] Top shape: 1 256 1 70000 (17920000)
I0730 13:08:28.426352 28498 layer_factory.hpp:76] Creating layer fconv5
I0730 13:08:28.426342 28499 net.cpp:398] bn5_relu5_0_split -> bn5_relu5_0_split_0
I0730 13:08:28.426350 28499 net.cpp:398] bn5_relu5_0_split -> bn5_relu5_0_split_1
I0730 13:08:28.426357 28499 net.cpp:398] bn5_relu5_0_split -> bn5_relu5_0_split_2
I0730 13:08:28.426362 28499 net.cpp:133] Setting up bn5_relu5_0_split
I0730 13:08:28.426363 28498 net.cpp:98] Creating Layer fconv5
I0730 13:08:28.426367 28498 net.cpp:443] fconv5 <- bn5_relu5_0_split_0
I0730 13:08:28.426374 28498 net.cpp:398] fconv5 -> fconv5
I0730 13:08:28.426381 28498 net.cpp:133] Setting up fconv5
I0730 13:08:28.426369 28499 net.cpp:140] Top shape: 1 256 1 70000 (17920000)
I0730 13:08:28.426374 28499 net.cpp:140] Top shape: 1 256 1 70000 (17920000)
I0730 13:08:28.426378 28499 net.cpp:140] Top shape: 1 256 1 70000 (17920000)
I0730 13:08:28.426381 28499 layer_factory.hpp:76] Creating layer fconv5
I0730 13:08:28.426393 28499 net.cpp:98] Creating Layer fconv5
I0730 13:08:28.426396 28499 net.cpp:443] fconv5 <- bn5_relu5_0_split_0
I0730 13:08:28.426403 28499 net.cpp:398] fconv5 -> fconv5
I0730 13:08:28.426411 28499 net.cpp:133] Setting up fconv5
I0730 13:08:28.426766 28501 net.cpp:140] Top shape: 1 256 1 70000 (17920000)
I0730 13:08:28.426792 28501 layer_factory.hpp:76] Creating layer bn5
I0730 13:08:28.426805 28501 net.cpp:98] Creating Layer bn5
I0730 13:08:28.426811 28501 net.cpp:443] bn5 <- conv5
I0730 13:08:28.426821 28501 net.cpp:398] bn5 -> bn5
I0730 13:08:28.426829 28501 net.cpp:133] Setting up bn5
I0730 13:08:28.426901 28501 net.cpp:140] Top shape: 1 256 1 70000 (17920000)
I0730 13:08:28.426915 28501 layer_factory.hpp:76] Creating layer relu5
I0730 13:08:28.426923 28501 net.cpp:98] Creating Layer relu5
I0730 13:08:28.426928 28501 net.cpp:443] relu5 <- bn5
I0730 13:08:28.426932 28501 net.cpp:387] relu5 -> bn5 (in-place)
I0730 13:08:28.426939 28501 net.cpp:133] Setting up relu5
I0730 13:08:28.427861 28498 net.cpp:140] Top shape: 1 3 1 70000 (210000)
I0730 13:08:28.427877 28498 layer_factory.hpp:76] Creating layer fbn5
I0730 13:08:28.427831 28501 net.cpp:140] Top shape: 1 256 1 70000 (17920000)
I0730 13:08:28.427846 28501 layer_factory.hpp:76] Creating layer bn5_relu5_0_split
I0730 13:08:28.427858 28501 net.cpp:98] Creating Layer bn5_relu5_0_split
I0730 13:08:28.427863 28501 net.cpp:443] bn5_relu5_0_split <- bn5
I0730 13:08:28.427870 28501 net.cpp:398] bn5_relu5_0_split -> bn5_relu5_0_split_0
I0730 13:08:28.427877 28501 net.cpp:398] bn5_relu5_0_split -> bn5_relu5_0_split_1
I0730 13:08:28.427883 28501 net.cpp:398] bn5_relu5_0_split -> bn5_relu5_0_split_2
I0730 13:08:28.427889 28501 net.cpp:133] Setting up bn5_relu5_0_split
I0730 13:08:28.427886 28498 net.cpp:98] Creating Layer fbn5
I0730 13:08:28.427891 28498 net.cpp:443] fbn5 <- fconv5
I0730 13:08:28.427899 28498 net.cpp:398] fbn5 -> fbn5
I0730 13:08:28.427906 28498 net.cpp:133] Setting up fbn5
I0730 13:08:28.427896 28501 net.cpp:140] Top shape: 1 256 1 70000 (17920000)
I0730 13:08:28.427902 28501 net.cpp:140] Top shape: 1 256 1 70000 (17920000)
I0730 13:08:28.427906 28501 net.cpp:140] Top shape: 1 256 1 70000 (17920000)
I0730 13:08:28.427909 28501 layer_factory.hpp:76] Creating layer fconv5
I0730 13:08:28.427922 28501 net.cpp:98] Creating Layer fconv5
I0730 13:08:28.427925 28501 net.cpp:443] fconv5 <- bn5_relu5_0_split_0
I0730 13:08:28.427932 28501 net.cpp:398] fconv5 -> fconv5
I0730 13:08:28.427940 28501 net.cpp:133] Setting up fconv5
I0730 13:08:28.427970 28498 net.cpp:140] Top shape: 1 3 1 70000 (210000)
I0730 13:08:28.427979 28498 layer_factory.hpp:76] Creating layer frelu5
I0730 13:08:28.427986 28498 net.cpp:98] Creating Layer frelu5
I0730 13:08:28.427990 28498 net.cpp:443] frelu5 <- fbn5
I0730 13:08:28.427996 28498 net.cpp:387] frelu5 -> fbn5 (in-place)
I0730 13:08:28.428001 28498 net.cpp:133] Setting up frelu5
I0730 13:08:28.428025 28499 net.cpp:140] Top shape: 1 3 1 70000 (210000)
I0730 13:08:28.428043 28499 layer_factory.hpp:76] Creating layer fbn5
I0730 13:08:28.428053 28499 net.cpp:98] Creating Layer fbn5
I0730 13:08:28.428058 28499 net.cpp:443] fbn5 <- fconv5
I0730 13:08:28.428066 28499 net.cpp:398] fbn5 -> fbn5
I0730 13:08:28.428073 28499 net.cpp:133] Setting up fbn5
I0730 13:08:28.428139 28499 net.cpp:140] Top shape: 1 3 1 70000 (210000)
I0730 13:08:28.428153 28499 layer_factory.hpp:76] Creating layer frelu5
I0730 13:08:28.428159 28499 net.cpp:98] Creating Layer frelu5
I0730 13:08:28.428164 28499 net.cpp:443] frelu5 <- fbn5
I0730 13:08:28.428169 28499 net.cpp:387] frelu5 -> fbn5 (in-place)
I0730 13:08:28.428175 28499 net.cpp:133] Setting up frelu5
I0730 13:08:28.428200 28498 net.cpp:140] Top shape: 1 3 1 70000 (210000)
I0730 13:08:28.428208 28498 layer_factory.hpp:76] Creating layer data_lattice4
I0730 13:08:28.428284 28498 net.cpp:98] Creating Layer data_lattice4
I0730 13:08:28.428295 28498 net.cpp:443] data_lattice4 <- data_data_0_split_5
I0730 13:08:28.428303 28498 net.cpp:398] data_lattice4 -> data_lattice4
I0730 13:08:28.428310 28498 net.cpp:133] Setting up data_lattice4
I0730 13:08:28.428375 28499 net.cpp:140] Top shape: 1 3 1 70000 (210000)
I0730 13:08:28.428386 28499 layer_factory.hpp:76] Creating layer data_lattice4
I0730 13:08:28.428439 28499 net.cpp:98] Creating Layer data_lattice4
I0730 13:08:28.428449 28499 net.cpp:443] data_lattice4 <- data_data_0_split_5
I0730 13:08:28.428457 28499 net.cpp:398] data_lattice4 -> data_lattice4
I0730 13:08:28.428470 28499 net.cpp:133] Setting up data_lattice4
I0730 13:08:28.428491 28500 net.cpp:140] Top shape: 1 256 1 70000 (17920000)
I0730 13:08:28.428514 28500 layer_factory.hpp:76] Creating layer bn5
I0730 13:08:28.428525 28500 net.cpp:98] Creating Layer bn5
I0730 13:08:28.428529 28498 net.cpp:140] Top shape: 1 3 1 70000 (210000)
I0730 13:08:28.428537 28498 layer_factory.hpp:76] Creating layer feat5
I0730 13:08:28.428534 28500 net.cpp:443] bn5 <- conv5
I0730 13:08:28.428544 28500 net.cpp:398] bn5 -> bn5
I0730 13:08:28.428545 28498 net.cpp:98] Creating Layer feat5
I0730 13:08:28.428550 28498 net.cpp:443] feat5 <- data_lattice4
I0730 13:08:28.428555 28498 net.cpp:443] feat5 <- fbn5
I0730 13:08:28.428550 28500 net.cpp:133] Setting up bn5
I0730 13:08:28.428562 28498 net.cpp:398] feat5 -> feat5
I0730 13:08:28.428570 28498 net.cpp:133] Setting up feat5
I0730 13:08:28.428576 28498 net.cpp:140] Top shape: 1 3 1 70000 (210000)
I0730 13:08:28.428580 28498 layer_factory.hpp:76] Creating layer feat5_feat5_0_split
I0730 13:08:28.428587 28498 net.cpp:98] Creating Layer feat5_feat5_0_split
I0730 13:08:28.428591 28498 net.cpp:443] feat5_feat5_0_split <- feat5
I0730 13:08:28.428596 28498 net.cpp:398] feat5_feat5_0_split -> feat5_feat5_0_split_0
I0730 13:08:28.428603 28498 net.cpp:398] feat5_feat5_0_split -> feat5_feat5_0_split_1
I0730 13:08:28.428611 28498 net.cpp:133] Setting up feat5_feat5_0_split
I0730 13:08:28.428617 28498 net.cpp:140] Top shape: 1 3 1 70000 (210000)
I0730 13:08:28.428623 28498 net.cpp:140] Top shape: 1 3 1 70000 (210000)
I0730 13:08:28.428627 28498 layer_factory.hpp:76] Creating layer conv6
I0730 13:08:28.428620 28500 net.cpp:140] Top shape: 1 256 1 70000 (17920000)
I0730 13:08:28.428632 28500 layer_factory.hpp:76] Creating layer relu5
I0730 13:08:28.428637 28498 net.cpp:98] Creating Layer conv6
I0730 13:08:28.428640 28498 net.cpp:443] conv6 <- bn5_relu5_0_split_1
I0730 13:08:28.428647 28498 net.cpp:443] conv6 <- feat5_feat5_0_split_0
I0730 13:08:28.428642 28500 net.cpp:98] Creating Layer relu5
I0730 13:08:28.428645 28500 net.cpp:443] relu5 <- bn5
I0730 13:08:28.428650 28500 net.cpp:387] relu5 -> bn5 (in-place)
I0730 13:08:28.428650 28498 net.cpp:443] conv6 <- feat5_feat5_0_split_1
I0730 13:08:28.428658 28498 net.cpp:398] conv6 -> conv6
I0730 13:08:28.428664 28498 net.cpp:133] Setting up conv6
I0730 13:08:28.428655 28500 net.cpp:133] Setting up relu5
I0730 13:08:28.428666 28499 net.cpp:140] Top shape: 1 3 1 70000 (210000)
I0730 13:08:28.428674 28499 layer_factory.hpp:76] Creating layer feat5
I0730 13:08:28.428681 28499 net.cpp:98] Creating Layer feat5
I0730 13:08:28.428686 28499 net.cpp:443] feat5 <- data_lattice4
I0730 13:08:28.428691 28499 net.cpp:443] feat5 <- fbn5
I0730 13:08:28.428699 28499 net.cpp:398] feat5 -> feat5
I0730 13:08:28.428707 28499 net.cpp:133] Setting up feat5
I0730 13:08:28.428714 28499 net.cpp:140] Top shape: 1 3 1 70000 (210000)
I0730 13:08:28.428719 28499 layer_factory.hpp:76] Creating layer feat5_feat5_0_split
I0730 13:08:28.428725 28499 net.cpp:98] Creating Layer feat5_feat5_0_split
I0730 13:08:28.428728 28499 net.cpp:443] feat5_feat5_0_split <- feat5
I0730 13:08:28.428733 28499 net.cpp:398] feat5_feat5_0_split -> feat5_feat5_0_split_0
I0730 13:08:28.428740 28499 net.cpp:398] feat5_feat5_0_split -> feat5_feat5_0_split_1
I0730 13:08:28.428748 28499 net.cpp:133] Setting up feat5_feat5_0_split
I0730 13:08:28.428755 28499 net.cpp:140] Top shape: 1 3 1 70000 (210000)
I0730 13:08:28.428759 28499 net.cpp:140] Top shape: 1 3 1 70000 (210000)
I0730 13:08:28.428762 28499 layer_factory.hpp:76] Creating layer conv6
I0730 13:08:28.428773 28499 net.cpp:98] Creating Layer conv6
I0730 13:08:28.428777 28499 net.cpp:443] conv6 <- bn5_relu5_0_split_1
I0730 13:08:28.428782 28499 net.cpp:443] conv6 <- feat5_feat5_0_split_0
I0730 13:08:28.428787 28499 net.cpp:443] conv6 <- feat5_feat5_0_split_1
I0730 13:08:28.428795 28499 net.cpp:398] conv6 -> conv6
I0730 13:08:28.428802 28499 net.cpp:133] Setting up conv6
I0730 13:08:28.429534 28500 net.cpp:140] Top shape: 1 256 1 70000 (17920000)
I0730 13:08:28.429549 28500 layer_factory.hpp:76] Creating layer bn5_relu5_0_split
I0730 13:08:28.429560 28500 net.cpp:98] Creating Layer bn5_relu5_0_split
I0730 13:08:28.429565 28500 net.cpp:443] bn5_relu5_0_split <- bn5
I0730 13:08:28.429571 28500 net.cpp:398] bn5_relu5_0_split -> bn5_relu5_0_split_0
I0730 13:08:28.429580 28500 net.cpp:398] bn5_relu5_0_split -> bn5_relu5_0_split_1
I0730 13:08:28.429586 28500 net.cpp:398] bn5_relu5_0_split -> bn5_relu5_0_split_2
I0730 13:08:28.429592 28500 net.cpp:133] Setting up bn5_relu5_0_split
I0730 13:08:28.429600 28500 net.cpp:140] Top shape: 1 256 1 70000 (17920000)
I0730 13:08:28.429603 28500 net.cpp:140] Top shape: 1 256 1 70000 (17920000)
I0730 13:08:28.429607 28500 net.cpp:140] Top shape: 1 256 1 70000 (17920000)
I0730 13:08:28.429627 28500 layer_factory.hpp:76] Creating layer fconv5
I0730 13:08:28.429639 28500 net.cpp:98] Creating Layer fconv5
I0730 13:08:28.429643 28500 net.cpp:443] fconv5 <- bn5_relu5_0_split_0
I0730 13:08:28.429651 28500 net.cpp:398] fconv5 -> fconv5
I0730 13:08:28.429659 28500 net.cpp:133] Setting up fconv5
I0730 13:08:28.431501 28500 net.cpp:140] Top shape: 1 3 1 70000 (210000)
I0730 13:08:28.431519 28500 layer_factory.hpp:76] Creating layer fbn5
I0730 13:08:28.431527 28500 net.cpp:98] Creating Layer fbn5
I0730 13:08:28.431532 28500 net.cpp:443] fbn5 <- fconv5
I0730 13:08:28.431540 28500 net.cpp:398] fbn5 -> fbn5
I0730 13:08:28.431548 28500 net.cpp:133] Setting up fbn5
I0730 13:08:28.431538 28501 net.cpp:140] Top shape: 1 3 1 70000 (210000)
I0730 13:08:28.431555 28501 layer_factory.hpp:76] Creating layer fbn5
I0730 13:08:28.431565 28501 net.cpp:98] Creating Layer fbn5
I0730 13:08:28.431571 28501 net.cpp:443] fbn5 <- fconv5
I0730 13:08:28.431578 28501 net.cpp:398] fbn5 -> fbn5
I0730 13:08:28.431587 28501 net.cpp:133] Setting up fbn5
I0730 13:08:28.431615 28500 net.cpp:140] Top shape: 1 3 1 70000 (210000)
I0730 13:08:28.431624 28500 layer_factory.hpp:76] Creating layer frelu5
I0730 13:08:28.431632 28500 net.cpp:98] Creating Layer frelu5
I0730 13:08:28.431637 28500 net.cpp:443] frelu5 <- fbn5
I0730 13:08:28.431643 28500 net.cpp:387] frelu5 -> fbn5 (in-place)
I0730 13:08:28.431648 28500 net.cpp:133] Setting up frelu5
I0730 13:08:28.431654 28501 net.cpp:140] Top shape: 1 3 1 70000 (210000)
I0730 13:08:28.431664 28501 layer_factory.hpp:76] Creating layer frelu5
I0730 13:08:28.431672 28501 net.cpp:98] Creating Layer frelu5
I0730 13:08:28.431676 28501 net.cpp:443] frelu5 <- fbn5
I0730 13:08:28.431684 28501 net.cpp:387] frelu5 -> fbn5 (in-place)
I0730 13:08:28.431690 28501 net.cpp:133] Setting up frelu5
I0730 13:08:28.431850 28500 net.cpp:140] Top shape: 1 3 1 70000 (210000)
I0730 13:08:28.431861 28500 layer_factory.hpp:76] Creating layer data_lattice4
I0730 13:08:28.431901 28501 net.cpp:140] Top shape: 1 3 1 70000 (210000)
I0730 13:08:28.431913 28501 layer_factory.hpp:76] Creating layer data_lattice4
I0730 13:08:28.431912 28500 net.cpp:98] Creating Layer data_lattice4
I0730 13:08:28.431919 28500 net.cpp:443] data_lattice4 <- data_data_0_split_5
I0730 13:08:28.431927 28500 net.cpp:398] data_lattice4 -> data_lattice4
I0730 13:08:28.431934 28500 net.cpp:133] Setting up data_lattice4
I0730 13:08:28.431965 28501 net.cpp:98] Creating Layer data_lattice4
I0730 13:08:28.431973 28501 net.cpp:443] data_lattice4 <- data_data_0_split_5
I0730 13:08:28.431984 28501 net.cpp:398] data_lattice4 -> data_lattice4
I0730 13:08:28.431991 28501 net.cpp:133] Setting up data_lattice4
I0730 13:08:28.432119 28500 net.cpp:140] Top shape: 1 3 1 70000 (210000)
I0730 13:08:28.432140 28500 layer_factory.hpp:76] Creating layer feat5
I0730 13:08:28.432150 28500 net.cpp:98] Creating Layer feat5
I0730 13:08:28.432154 28500 net.cpp:443] feat5 <- data_lattice4
I0730 13:08:28.432160 28500 net.cpp:443] feat5 <- fbn5
I0730 13:08:28.432168 28500 net.cpp:398] feat5 -> feat5
I0730 13:08:28.432175 28500 net.cpp:133] Setting up feat5
I0730 13:08:28.432183 28500 net.cpp:140] Top shape: 1 3 1 70000 (210000)
I0730 13:08:28.432186 28500 layer_factory.hpp:76] Creating layer feat5_feat5_0_split
I0730 13:08:28.432193 28500 net.cpp:98] Creating Layer feat5_feat5_0_split
I0730 13:08:28.432184 28501 net.cpp:140] Top shape: 1 3 1 70000 (210000)
I0730 13:08:28.432193 28501 layer_factory.hpp:76] Creating layer feat5
I0730 13:08:28.432196 28500 net.cpp:443] feat5_feat5_0_split <- feat5
I0730 13:08:28.432202 28500 net.cpp:398] feat5_feat5_0_split -> feat5_feat5_0_split_0
I0730 13:08:28.432209 28500 net.cpp:398] feat5_feat5_0_split -> feat5_feat5_0_split_1
I0730 13:08:28.432200 28501 net.cpp:98] Creating Layer feat5
I0730 13:08:28.432205 28501 net.cpp:443] feat5 <- data_lattice4
I0730 13:08:28.432210 28501 net.cpp:443] feat5 <- fbn5
I0730 13:08:28.432219 28501 net.cpp:398] feat5 -> feat5
I0730 13:08:28.432219 28500 net.cpp:133] Setting up feat5_feat5_0_split
I0730 13:08:28.432225 28500 net.cpp:140] Top shape: 1 3 1 70000 (210000)
I0730 13:08:28.432230 28500 net.cpp:140] Top shape: 1 3 1 70000 (210000)
I0730 13:08:28.432234 28500 layer_factory.hpp:76] Creating layer conv6
I0730 13:08:28.432226 28501 net.cpp:133] Setting up feat5
I0730 13:08:28.432232 28501 net.cpp:140] Top shape: 1 3 1 70000 (210000)
I0730 13:08:28.432236 28501 layer_factory.hpp:76] Creating layer feat5_feat5_0_split
I0730 13:08:28.432243 28501 net.cpp:98] Creating Layer feat5_feat5_0_split
I0730 13:08:28.432242 28500 net.cpp:98] Creating Layer conv6
I0730 13:08:28.432246 28500 net.cpp:443] conv6 <- bn5_relu5_0_split_1
I0730 13:08:28.432251 28500 net.cpp:443] conv6 <- feat5_feat5_0_split_0
I0730 13:08:28.432256 28500 net.cpp:443] conv6 <- feat5_feat5_0_split_1
I0730 13:08:28.432247 28501 net.cpp:443] feat5_feat5_0_split <- feat5
I0730 13:08:28.432253 28501 net.cpp:398] feat5_feat5_0_split -> feat5_feat5_0_split_0
I0730 13:08:28.432260 28501 net.cpp:398] feat5_feat5_0_split -> feat5_feat5_0_split_1
I0730 13:08:28.432263 28500 net.cpp:398] conv6 -> conv6
I0730 13:08:28.432271 28500 net.cpp:133] Setting up conv6
I0730 13:08:28.432268 28501 net.cpp:133] Setting up feat5_feat5_0_split
I0730 13:08:28.432274 28501 net.cpp:140] Top shape: 1 3 1 70000 (210000)
I0730 13:08:28.432278 28501 net.cpp:140] Top shape: 1 3 1 70000 (210000)
I0730 13:08:28.432284 28501 layer_factory.hpp:76] Creating layer conv6
I0730 13:08:28.432294 28501 net.cpp:98] Creating Layer conv6
I0730 13:08:28.432299 28501 net.cpp:443] conv6 <- bn5_relu5_0_split_1
I0730 13:08:28.432304 28501 net.cpp:443] conv6 <- feat5_feat5_0_split_0
I0730 13:08:28.432309 28501 net.cpp:443] conv6 <- feat5_feat5_0_split_1
I0730 13:08:28.432317 28501 net.cpp:398] conv6 -> conv6
I0730 13:08:28.432324 28501 net.cpp:133] Setting up conv6
I0730 13:08:28.459900 28498 net.cpp:140] Top shape: 1 256 1 70000 (17920000)
I0730 13:08:28.459924 28498 layer_factory.hpp:76] Creating layer bn6
I0730 13:08:28.459935 28498 net.cpp:98] Creating Layer bn6
I0730 13:08:28.459941 28498 net.cpp:443] bn6 <- conv6
I0730 13:08:28.459950 28498 net.cpp:398] bn6 -> bn6
I0730 13:08:28.459957 28498 net.cpp:133] Setting up bn6
I0730 13:08:28.459990 28499 net.cpp:140] Top shape: 1 256 1 70000 (17920000)
I0730 13:08:28.460009 28499 layer_factory.hpp:76] Creating layer bn6
I0730 13:08:28.460018 28499 net.cpp:98] Creating Layer bn6
I0730 13:08:28.460024 28498 net.cpp:140] Top shape: 1 256 1 70000 (17920000)
I0730 13:08:28.460034 28498 layer_factory.hpp:76] Creating layer relu6
I0730 13:08:28.460026 28499 net.cpp:443] bn6 <- conv6
I0730 13:08:28.460032 28499 net.cpp:398] bn6 -> bn6
I0730 13:08:28.460039 28499 net.cpp:133] Setting up bn6
I0730 13:08:28.460041 28498 net.cpp:98] Creating Layer relu6
I0730 13:08:28.460047 28498 net.cpp:443] relu6 <- bn6
I0730 13:08:28.460052 28498 net.cpp:387] relu6 -> bn6 (in-place)
I0730 13:08:28.460057 28498 net.cpp:133] Setting up relu6
I0730 13:08:28.460103 28499 net.cpp:140] Top shape: 1 256 1 70000 (17920000)
I0730 13:08:28.460116 28499 layer_factory.hpp:76] Creating layer relu6
I0730 13:08:28.460126 28499 net.cpp:98] Creating Layer relu6
I0730 13:08:28.460130 28499 net.cpp:443] relu6 <- bn6
I0730 13:08:28.460136 28499 net.cpp:387] relu6 -> bn6 (in-place)
I0730 13:08:28.460141 28499 net.cpp:133] Setting up relu6
I0730 13:08:28.460332 28498 net.cpp:140] Top shape: 1 256 1 70000 (17920000)
I0730 13:08:28.460343 28498 layer_factory.hpp:76] Creating layer concat6
I0730 13:08:28.460352 28498 net.cpp:98] Creating Layer concat6
I0730 13:08:28.460356 28498 net.cpp:443] concat6 <- bn6
I0730 13:08:28.460362 28498 net.cpp:443] concat6 <- bn2_relu2_0_split_2
I0730 13:08:28.460367 28498 net.cpp:443] concat6 <- bn3_relu3_0_split_2
I0730 13:08:28.460372 28498 net.cpp:443] concat6 <- bn4_relu4_0_split_2
I0730 13:08:28.460376 28498 net.cpp:443] concat6 <- bn5_relu5_0_split_2
I0730 13:08:28.460381 28498 net.cpp:398] concat6 -> concat6
I0730 13:08:28.460388 28498 net.cpp:133] Setting up concat6
I0730 13:08:28.460413 28499 net.cpp:140] Top shape: 1 256 1 70000 (17920000)
I0730 13:08:28.460427 28499 layer_factory.hpp:76] Creating layer concat6
I0730 13:08:28.460436 28499 net.cpp:98] Creating Layer concat6
I0730 13:08:28.460440 28499 net.cpp:443] concat6 <- bn6
I0730 13:08:28.460446 28499 net.cpp:443] concat6 <- bn2_relu2_0_split_2
I0730 13:08:28.460451 28499 net.cpp:443] concat6 <- bn3_relu3_0_split_2
I0730 13:08:28.460455 28499 net.cpp:443] concat6 <- bn4_relu4_0_split_2
I0730 13:08:28.460459 28499 net.cpp:443] concat6 <- bn5_relu5_0_split_2
I0730 13:08:28.460472 28499 net.cpp:398] concat6 -> concat6
I0730 13:08:28.460480 28499 net.cpp:133] Setting up concat6
I0730 13:08:28.463459 28501 net.cpp:140] Top shape: 1 256 1 70000 (17920000)
I0730 13:08:28.463477 28501 layer_factory.hpp:76] Creating layer bn6
I0730 13:08:28.463486 28501 net.cpp:98] Creating Layer bn6
I0730 13:08:28.463491 28501 net.cpp:443] bn6 <- conv6
I0730 13:08:28.463500 28501 net.cpp:398] bn6 -> bn6
I0730 13:08:28.463506 28501 net.cpp:133] Setting up bn6
I0730 13:08:28.463574 28501 net.cpp:140] Top shape: 1 256 1 70000 (17920000)
I0730 13:08:28.463587 28501 layer_factory.hpp:76] Creating layer relu6
I0730 13:08:28.463594 28501 net.cpp:98] Creating Layer relu6
I0730 13:08:28.463598 28501 net.cpp:443] relu6 <- bn6
I0730 13:08:28.463605 28501 net.cpp:387] relu6 -> bn6 (in-place)
I0730 13:08:28.463610 28501 net.cpp:133] Setting up relu6
I0730 13:08:28.463758 28500 net.cpp:140] Top shape: 1 256 1 70000 (17920000)
I0730 13:08:28.463778 28500 layer_factory.hpp:76] Creating layer bn6
I0730 13:08:28.463788 28500 net.cpp:98] Creating Layer bn6
I0730 13:08:28.463793 28500 net.cpp:443] bn6 <- conv6
I0730 13:08:28.463800 28500 net.cpp:398] bn6 -> bn6
I0730 13:08:28.463806 28500 net.cpp:133] Setting up bn6
I0730 13:08:28.463872 28500 net.cpp:140] Top shape: 1 256 1 70000 (17920000)
I0730 13:08:28.463874 28501 net.cpp:140] Top shape: 1 256 1 70000 (17920000)
I0730 13:08:28.463884 28501 layer_factory.hpp:76] Creating layer concat6
I0730 13:08:28.463884 28500 layer_factory.hpp:76] Creating layer relu6
I0730 13:08:28.463893 28501 net.cpp:98] Creating Layer concat6
I0730 13:08:28.463898 28501 net.cpp:443] concat6 <- bn6
I0730 13:08:28.463904 28501 net.cpp:443] concat6 <- bn2_relu2_0_split_2
I0730 13:08:28.463904 28500 net.cpp:98] Creating Layer relu6
I0730 13:08:28.463909 28500 net.cpp:443] relu6 <- bn6
I0730 13:08:28.463915 28500 net.cpp:387] relu6 -> bn6 (in-place)
I0730 13:08:28.463920 28500 net.cpp:133] Setting up relu6
I0730 13:08:28.463909 28501 net.cpp:443] concat6 <- bn3_relu3_0_split_2
I0730 13:08:28.463914 28501 net.cpp:443] concat6 <- bn4_relu4_0_split_2
I0730 13:08:28.463918 28501 net.cpp:443] concat6 <- bn5_relu5_0_split_2
I0730 13:08:28.463924 28501 net.cpp:398] concat6 -> concat6
I0730 13:08:28.463930 28501 net.cpp:133] Setting up concat6
I0730 13:08:28.464176 28500 net.cpp:140] Top shape: 1 256 1 70000 (17920000)
I0730 13:08:28.464188 28500 layer_factory.hpp:76] Creating layer concat6
I0730 13:08:28.464197 28500 net.cpp:98] Creating Layer concat6
I0730 13:08:28.464202 28500 net.cpp:443] concat6 <- bn6
I0730 13:08:28.464207 28500 net.cpp:443] concat6 <- bn2_relu2_0_split_2
I0730 13:08:28.464213 28500 net.cpp:443] concat6 <- bn3_relu3_0_split_2
I0730 13:08:28.464217 28500 net.cpp:443] concat6 <- bn4_relu4_0_split_2
I0730 13:08:28.464221 28500 net.cpp:443] concat6 <- bn5_relu5_0_split_2
I0730 13:08:28.464226 28500 net.cpp:398] concat6 -> concat6
I0730 13:08:28.464233 28500 net.cpp:133] Setting up concat6
I0730 13:08:28.468166 28498 net.cpp:140] Top shape: 1 960 1 70000 (67200000)
I0730 13:08:28.468176 28498 layer_factory.hpp:76] Creating layer conv7
I0730 13:08:28.468165 28499 net.cpp:140] Top shape: 1 960 1 70000 (67200000)
I0730 13:08:28.468175 28499 layer_factory.hpp:76] Creating layer conv7
I0730 13:08:28.468186 28499 net.cpp:98] Creating Layer conv7
I0730 13:08:28.468190 28499 net.cpp:443] conv7 <- concat6
I0730 13:08:28.468199 28499 net.cpp:398] conv7 -> conv7
I0730 13:08:28.468169 28500 net.cpp:140] Top shape: 1 960 1 70000 (67200000)
I0730 13:08:28.468178 28500 layer_factory.hpp:76] Creating layer conv7
I0730 13:08:28.468189 28500 net.cpp:98] Creating Layer conv7
I0730 13:08:28.468192 28500 net.cpp:443] conv7 <- concat6
I0730 13:08:28.468200 28500 net.cpp:398] conv7 -> conv7
I0730 13:08:28.468173 28501 net.cpp:140] Top shape: 1 960 1 70000 (67200000)
I0730 13:08:28.468184 28501 layer_factory.hpp:76] Creating layer conv7
I0730 13:08:28.468195 28501 net.cpp:98] Creating Layer conv7
I0730 13:08:28.468199 28501 net.cpp:443] conv7 <- concat6
I0730 13:08:28.468207 28501 net.cpp:398] conv7 -> conv7
I0730 13:08:28.468185 28498 net.cpp:98] Creating Layer conv7
I0730 13:08:28.468190 28498 net.cpp:443] conv7 <- concat6
I0730 13:08:28.468199 28498 net.cpp:398] conv7 -> conv7
I0730 13:08:28.468207 28498 net.cpp:133] Setting up conv7
I0730 13:08:28.468206 28499 net.cpp:133] Setting up conv7
I0730 13:08:28.468209 28500 net.cpp:133] Setting up conv7
I0730 13:08:28.468216 28501 net.cpp:133] Setting up conv7
I0730 13:08:28.471679 28498 net.cpp:140] Top shape: 1 128 1 70000 (8960000)
I0730 13:08:28.471698 28498 layer_factory.hpp:76] Creating layer bn7
I0730 13:08:28.471706 28498 net.cpp:98] Creating Layer bn7
I0730 13:08:28.471711 28498 net.cpp:443] bn7 <- conv7
I0730 13:08:28.471720 28498 net.cpp:398] bn7 -> bn7
I0730 13:08:28.471729 28498 net.cpp:133] Setting up bn7
I0730 13:08:28.471796 28498 net.cpp:140] Top shape: 1 128 1 70000 (8960000)
I0730 13:08:28.471812 28498 layer_factory.hpp:76] Creating layer relu7
I0730 13:08:28.471818 28498 net.cpp:98] Creating Layer relu7
I0730 13:08:28.471822 28498 net.cpp:443] relu7 <- bn7
I0730 13:08:28.471827 28498 net.cpp:387] relu7 -> bn7 (in-place)
I0730 13:08:28.471832 28498 net.cpp:133] Setting up relu7
I0730 13:08:28.472035 28498 net.cpp:140] Top shape: 1 128 1 70000 (8960000)
I0730 13:08:28.472046 28498 layer_factory.hpp:76] Creating layer conv8
I0730 13:08:28.472056 28498 net.cpp:98] Creating Layer conv8
I0730 13:08:28.472060 28498 net.cpp:443] conv8 <- bn7
I0730 13:08:28.472040 28500 net.cpp:140] Top shape: 1 128 1 70000 (8960000)
I0730 13:08:28.472055 28500 layer_factory.hpp:76] Creating layer bn7
I0730 13:08:28.472064 28500 net.cpp:98] Creating Layer bn7
I0730 13:08:28.472069 28498 net.cpp:398] conv8 -> conv8
I0730 13:08:28.472076 28498 net.cpp:133] Setting up conv8
I0730 13:08:28.472069 28500 net.cpp:443] bn7 <- conv7
I0730 13:08:28.472077 28500 net.cpp:398] bn7 -> bn7
I0730 13:08:28.472085 28500 net.cpp:133] Setting up bn7
I0730 13:08:28.472076 28501 net.cpp:140] Top shape: 1 128 1 70000 (8960000)
I0730 13:08:28.472091 28501 layer_factory.hpp:76] Creating layer bn7
I0730 13:08:28.472101 28501 net.cpp:98] Creating Layer bn7
I0730 13:08:28.472105 28501 net.cpp:443] bn7 <- conv7
I0730 13:08:28.472113 28501 net.cpp:398] bn7 -> bn7
I0730 13:08:28.472110 28499 net.cpp:140] Top shape: 1 128 1 70000 (8960000)
I0730 13:08:28.472124 28499 layer_factory.hpp:76] Creating layer bn7
I0730 13:08:28.472121 28501 net.cpp:133] Setting up bn7
I0730 13:08:28.472133 28499 net.cpp:98] Creating Layer bn7
I0730 13:08:28.472139 28499 net.cpp:443] bn7 <- conv7
I0730 13:08:28.472146 28499 net.cpp:398] bn7 -> bn7
I0730 13:08:28.472154 28499 net.cpp:133] Setting up bn7
I0730 13:08:28.472151 28500 net.cpp:140] Top shape: 1 128 1 70000 (8960000)
I0730 13:08:28.472162 28500 layer_factory.hpp:76] Creating layer relu7
I0730 13:08:28.472167 28500 net.cpp:98] Creating Layer relu7
I0730 13:08:28.472172 28500 net.cpp:443] relu7 <- bn7
I0730 13:08:28.472178 28500 net.cpp:387] relu7 -> bn7 (in-place)
I0730 13:08:28.472183 28500 net.cpp:133] Setting up relu7
I0730 13:08:28.472185 28501 net.cpp:140] Top shape: 1 128 1 70000 (8960000)
I0730 13:08:28.472195 28501 layer_factory.hpp:76] Creating layer relu7
I0730 13:08:28.472203 28501 net.cpp:98] Creating Layer relu7
I0730 13:08:28.472208 28501 net.cpp:443] relu7 <- bn7
I0730 13:08:28.472213 28501 net.cpp:387] relu7 -> bn7 (in-place)
I0730 13:08:28.472218 28501 net.cpp:133] Setting up relu7
I0730 13:08:28.472223 28499 net.cpp:140] Top shape: 1 128 1 70000 (8960000)
I0730 13:08:28.472236 28499 layer_factory.hpp:76] Creating layer relu7
I0730 13:08:28.472244 28499 net.cpp:98] Creating Layer relu7
I0730 13:08:28.472249 28499 net.cpp:443] relu7 <- bn7
I0730 13:08:28.472254 28499 net.cpp:387] relu7 -> bn7 (in-place)
I0730 13:08:28.472259 28499 net.cpp:133] Setting up relu7
I0730 13:08:28.472383 28500 net.cpp:140] Top shape: 1 128 1 70000 (8960000)
I0730 13:08:28.472394 28500 layer_factory.hpp:76] Creating layer conv8
I0730 13:08:28.472404 28500 net.cpp:98] Creating Layer conv8
I0730 13:08:28.472409 28500 net.cpp:443] conv8 <- bn7
I0730 13:08:28.472416 28500 net.cpp:398] conv8 -> conv8
I0730 13:08:28.472424 28500 net.cpp:133] Setting up conv8
I0730 13:08:28.472429 28501 net.cpp:140] Top shape: 1 128 1 70000 (8960000)
I0730 13:08:28.472436 28501 layer_factory.hpp:76] Creating layer conv8
I0730 13:08:28.472446 28501 net.cpp:98] Creating Layer conv8
I0730 13:08:28.472450 28501 net.cpp:443] conv8 <- bn7
I0730 13:08:28.472458 28501 net.cpp:398] conv8 -> conv8
I0730 13:08:28.472473 28499 net.cpp:140] Top shape: 1 128 1 70000 (8960000)
I0730 13:08:28.472482 28499 layer_factory.hpp:76] Creating layer conv8
I0730 13:08:28.472492 28499 net.cpp:98] Creating Layer conv8
I0730 13:08:28.472497 28499 net.cpp:443] conv8 <- bn7
I0730 13:08:28.472504 28499 net.cpp:398] conv8 -> conv8
I0730 13:08:28.472473 28501 net.cpp:133] Setting up conv8
I0730 13:08:28.472512 28499 net.cpp:133] Setting up conv8
I0730 13:08:28.473551 28498 net.cpp:140] Top shape: 1 13 1 70000 (910000)
I0730 13:08:28.473569 28498 layer_factory.hpp:76] Creating layer conv8_conv8_0_split
I0730 13:08:28.473579 28498 net.cpp:98] Creating Layer conv8_conv8_0_split
I0730 13:08:28.473584 28498 net.cpp:443] conv8_conv8_0_split <- conv8
I0730 13:08:28.473592 28498 net.cpp:398] conv8_conv8_0_split -> conv8_conv8_0_split_0
I0730 13:08:28.473599 28498 net.cpp:398] conv8_conv8_0_split -> conv8_conv8_0_split_1
I0730 13:08:28.473606 28498 net.cpp:133] Setting up conv8_conv8_0_split
I0730 13:08:28.473613 28498 net.cpp:140] Top shape: 1 13 1 70000 (910000)
I0730 13:08:28.473618 28498 net.cpp:140] Top shape: 1 13 1 70000 (910000)
I0730 13:08:28.473620 28498 layer_factory.hpp:76] Creating layer loss
I0730 13:08:28.474589 28500 net.cpp:140] Top shape: 1 13 1 70000 (910000)
I0730 13:08:28.474606 28500 layer_factory.hpp:76] Creating layer conv8_conv8_0_split
I0730 13:08:28.474615 28500 net.cpp:98] Creating Layer conv8_conv8_0_split
I0730 13:08:28.474620 28500 net.cpp:443] conv8_conv8_0_split <- conv8
I0730 13:08:28.474628 28500 net.cpp:398] conv8_conv8_0_split -> conv8_conv8_0_split_0
I0730 13:08:28.474637 28500 net.cpp:398] conv8_conv8_0_split -> conv8_conv8_0_split_1
I0730 13:08:28.474643 28500 net.cpp:133] Setting up conv8_conv8_0_split
I0730 13:08:28.474650 28500 net.cpp:140] Top shape: 1 13 1 70000 (910000)
I0730 13:08:28.474654 28500 net.cpp:140] Top shape: 1 13 1 70000 (910000)
I0730 13:08:28.474658 28500 layer_factory.hpp:76] Creating layer loss
I0730 13:08:28.474628 28501 net.cpp:140] Top shape: 1 13 1 70000 (910000)
I0730 13:08:28.474643 28501 layer_factory.hpp:76] Creating layer conv8_conv8_0_split
I0730 13:08:28.474653 28501 net.cpp:98] Creating Layer conv8_conv8_0_split
I0730 13:08:28.474658 28501 net.cpp:443] conv8_conv8_0_split <- conv8
I0730 13:08:28.474665 28501 net.cpp:398] conv8_conv8_0_split -> conv8_conv8_0_split_0
I0730 13:08:28.474660 28499 net.cpp:140] Top shape: 1 13 1 70000 (910000)
I0730 13:08:28.474675 28499 layer_factory.hpp:76] Creating layer conv8_conv8_0_split
I0730 13:08:28.474686 28499 net.cpp:98] Creating Layer conv8_conv8_0_split
I0730 13:08:28.474691 28499 net.cpp:443] conv8_conv8_0_split <- conv8
I0730 13:08:28.474673 28501 net.cpp:398] conv8_conv8_0_split -> conv8_conv8_0_split_1
I0730 13:08:28.474680 28501 net.cpp:133] Setting up conv8_conv8_0_split
I0730 13:08:28.474687 28501 net.cpp:140] Top shape: 1 13 1 70000 (910000)
I0730 13:08:28.474691 28501 net.cpp:140] Top shape: 1 13 1 70000 (910000)
I0730 13:08:28.474695 28501 layer_factory.hpp:76] Creating layer loss
I0730 13:08:28.474697 28499 net.cpp:398] conv8_conv8_0_split -> conv8_conv8_0_split_0
I0730 13:08:28.474706 28499 net.cpp:398] conv8_conv8_0_split -> conv8_conv8_0_split_1
I0730 13:08:28.474712 28499 net.cpp:133] Setting up conv8_conv8_0_split
I0730 13:08:28.474720 28499 net.cpp:140] Top shape: 1 13 1 70000 (910000)
I0730 13:08:28.474725 28499 net.cpp:140] Top shape: 1 13 1 70000 (910000)
I0730 13:08:28.474728 28499 layer_factory.hpp:76] Creating layer loss
I0730 13:08:28.488497 28499 net.cpp:98] Creating Layer loss
I0730 13:08:28.488509 28499 net.cpp:443] loss <- conv8_conv8_0_split_0
I0730 13:08:28.488517 28499 net.cpp:443] loss <- label_data_1_split_0
I0730 13:08:28.488521 28499 net.cpp:398] loss -> loss
I0730 13:08:28.488512 28500 net.cpp:98] Creating Layer loss
…
I0730 13:08:28.518920 28500 solver.cpp:191] Creating test net (#0) specified by test_net file: area6_netm_sum4_f.prototxt
I0730 13:08:28.519035 28498 net.cpp:50] Initializing net from parameters: 
state {
…
I0730 13:09:43.142828 28500 layer_factory.hpp:76] Creating layer feat4
I0730 13:09:43.142835 28500 net.cpp:98] Creating Layer feat4
I0730 13:09:43.142839 28500 net.cpp:443] feat4 <- data_lattice3
I0730 13:09:43.142850 28498 net.cpp:98] Creating Layer data_lattice3
I0730 13:09:43.142856 28498 net.cpp:443] data_lattice3 <- data_data_0_split_4
I0730 13:09:43.142843 28500 net.cpp:443] feat4 <- fbn4
I0730 13:09:43.142849 28500 net.cpp:398] feat4 -> feat4
I0730 13:09:43.142855 28500 net.cpp:133] Setting up feat4
I0730 13:09:43.142861 28500 net.cpp:140] Top shape: 1 3 1 70000 (210000)
I0730 13:09:43.142864 28498 net.cpp:398] data_lattice3 -> data_lattice3
I0730 13:09:43.142873 28498 net.cpp:133] Setting up data_lattice3
I0730 13:09:43.142866 28500 layer_factory.hpp:76] Creating layer feat4_feat4_0_split
I0730 13:09:43.142871 28500 net.cpp:98] Creating Layer feat4_feat4_0_split
I0730 13:09:43.142874 28500 net.cpp:443] feat4_feat4_0_split <- feat4
I0730 13:09:43.142879 28500 net.cpp:398] feat4_feat4_0_split -> feat4_feat4_0_split_0
I0730 13:09:43.142884 28500 net.cpp:398] feat4_feat4_0_split -> feat4_feat4_0_split_1
I0730 13:09:43.142889 28500 net.cpp:133] Setting up feat4_feat4_0_split
I0730 13:09:43.142892 28500 net.cpp:140] Top shape: 1 3 1 70000 (210000)
I0730 13:09:43.142896 28500 net.cpp:140] Top shape: 1 3 1 70000 (210000)
I0730 13:09:43.142899 28500 layer_factory.hpp:76] Creating layer conv5
I0730 13:09:43.142906 28500 net.cpp:98] Creating Layer conv5
I0730 13:09:43.142910 28500 net.cpp:443] conv5 <- bn4_relu4_0_split_1
I0730 13:09:43.142913 28500 net.cpp:443] conv5 <- feat4_feat4_0_split_0
I0730 13:09:43.142917 28500 net.cpp:443] conv5 <- feat4_feat4_0_split_1
I0730 13:09:43.142922 28500 net.cpp:398] conv5 -> conv5
I0730 13:09:43.142928 28500 net.cpp:133] Setting up conv5
I0730 13:09:43.142918 28501 net.cpp:140] Top shape: 1 3 1 70000 (210000)
I0730 13:09:43.142925 28501 layer_factory.hpp:76] Creating layer feat4
I0730 13:09:43.142932 28501 net.cpp:98] Creating Layer feat4
I0730 13:09:43.142935 28501 net.cpp:443] feat4 <- data_lattice3
I0730 13:09:43.142940 28501 net.cpp:443] feat4 <- fbn4
I0730 13:09:43.142946 28501 net.cpp:398] feat4 -> feat4
I0730 13:09:43.142951 28501 net.cpp:133] Setting up feat4
I0730 13:09:43.142956 28501 net.cpp:140] Top shape: 1 3 1 70000 (210000)
I0730 13:09:43.142961 28501 layer_factory.hpp:76] Creating layer feat4_feat4_0_split
I0730 13:09:43.142966 28501 net.cpp:98] Creating Layer feat4_feat4_0_split
I0730 13:09:43.142969 28501 net.cpp:443] feat4_feat4_0_split <- feat4
I0730 13:09:43.142973 28501 net.cpp:398] feat4_feat4_0_split -> feat4_feat4_0_split_0
I0730 13:09:43.142979 28501 net.cpp:398] feat4_feat4_0_split -> feat4_feat4_0_split_1
I0730 13:09:43.142984 28501 net.cpp:133] Setting up feat4_feat4_0_split
I0730 13:09:43.142989 28501 net.cpp:140] Top shape: 1 3 1 70000 (210000)
I0730 13:09:43.142992 28501 net.cpp:140] Top shape: 1 3 1 70000 (210000)
I0730 13:09:43.142995 28501 layer_factory.hpp:76] Creating layer conv5
I0730 13:09:43.143007 28501 net.cpp:98] Creating Layer conv5
I0730 13:09:43.143010 28501 net.cpp:443] conv5 <- bn4_relu4_0_split_1
I0730 13:09:43.143014 28501 net.cpp:443] conv5 <- feat4_feat4_0_split_0
I0730 13:09:43.143018 28501 net.cpp:443] conv5 <- feat4_feat4_0_split_1
I0730 13:09:43.143026 28501 net.cpp:398] conv5 -> conv5
I0730 13:09:43.143033 28501 net.cpp:133] Setting up conv5
I0730 13:09:43.143090 28498 net.cpp:140] Top shape: 1 3 1 70000 (210000)
I0730 13:09:43.143098 28498 layer_factory.hpp:76] Creating layer feat4
I0730 13:09:43.143106 28498 net.cpp:98] Creating Layer feat4
I0730 13:09:43.143110 28498 net.cpp:443] feat4 <- data_lattice3
I0730 13:09:43.143116 28498 net.cpp:443] feat4 <- fbn4
I0730 13:09:43.143132 28498 net.cpp:398] feat4 -> feat4
I0730 13:09:43.143141 28498 net.cpp:133] Setting up feat4
I0730 13:09:43.143147 28498 net.cpp:140] Top shape: 1 3 1 70000 (210000)
I0730 13:09:43.143151 28498 layer_factory.hpp:76] Creating layer feat4_feat4_0_split
I0730 13:09:43.143158 28498 net.cpp:98] Creating Layer feat4_feat4_0_split
I0730 13:09:43.143162 28498 net.cpp:443] feat4_feat4_0_split <- feat4
I0730 13:09:43.143169 28498 net.cpp:398] feat4_feat4_0_split -> feat4_feat4_0_split_0
I0730 13:09:43.143175 28498 net.cpp:398] feat4_feat4_0_split -> feat4_feat4_0_split_1
I0730 13:09:43.143182 28498 net.cpp:133] Setting up feat4_feat4_0_split
I0730 13:09:43.143187 28498 net.cpp:140] Top shape: 1 3 1 70000 (210000)
I0730 13:09:43.143191 28498 net.cpp:140] Top shape: 1 3 1 70000 (210000)
I0730 13:09:43.143195 28498 layer_factory.hpp:76] Creating layer conv5
I0730 13:09:43.143204 28498 net.cpp:98] Creating Layer conv5
I0730 13:09:43.143208 28498 net.cpp:443] conv5 <- bn4_relu4_0_split_1
I0730 13:09:43.143213 28498 net.cpp:443] conv5 <- feat4_feat4_0_split_0
I0730 13:09:43.143218 28498 net.cpp:443] conv5 <- feat4_feat4_0_split_1
I0730 13:09:43.143224 28498 net.cpp:398] conv5 -> conv5
I0730 13:09:43.143230 28498 net.cpp:133] Setting up conv5
I0730 13:09:43.164218 28499 net.cpp:140] Top shape: 1 128 1 70000 (8960000)
I0730 13:09:43.164234 28499 layer_factory.hpp:76] Creating layer bn3
I0730 13:09:43.164243 28499 net.cpp:98] Creating Layer bn3
I0730 13:09:43.164249 28499 net.cpp:443] bn3 <- conv3
I0730 13:09:43.164257 28499 net.cpp:398] bn3 -> bn3
I0730 13:09:43.164263 28499 net.cpp:133] Setting up bn3
I0730 13:09:43.164386 28499 net.cpp:140] Top shape: 1 128 1 70000 (8960000)
I0730 13:09:43.164399 28499 layer_factory.hpp:76] Creating layer relu3
I0730 13:09:43.164408 28499 net.cpp:98] Creating Layer relu3
I0730 13:09:43.164412 28499 net.cpp:443] relu3 <- bn3
I0730 13:09:43.164417 28499 net.cpp:387] relu3 -> bn3 (in-place)
I0730 13:09:43.164422 28499 net.cpp:133] Setting up relu3
I0730 13:09:43.164718 28499 net.cpp:140] Top shape: 1 128 1 70000 (8960000)
I0730 13:09:43.164729 28499 layer_factory.hpp:76] Creating layer bn3_relu3_0_split
I0730 13:09:43.164737 28499 net.cpp:98] Creating Layer bn3_relu3_0_split
I0730 13:09:43.164742 28499 net.cpp:443] bn3_relu3_0_split <- bn3
I0730 13:09:43.164747 28499 net.cpp:398] bn3_relu3_0_split -> bn3_relu3_0_split_0
I0730 13:09:43.164757 28499 net.cpp:398] bn3_relu3_0_split -> bn3_relu3_0_split_1
I0730 13:09:43.164763 28499 net.cpp:398] bn3_relu3_0_split -> bn3_relu3_0_split_2
I0730 13:09:43.164769 28499 net.cpp:133] Setting up bn3_relu3_0_split
I0730 13:09:43.164775 28499 net.cpp:140] Top shape: 1 128 1 70000 (8960000)
I0730 13:09:43.164780 28499 net.cpp:140] Top shape: 1 128 1 70000 (8960000)
I0730 13:09:43.164784 28499 net.cpp:140] Top shape: 1 128 1 70000 (8960000)
I0730 13:09:43.164788 28499 layer_factory.hpp:76] Creating layer fconv3
I0730 13:09:43.164798 28499 net.cpp:98] Creating Layer fconv3
I0730 13:09:43.164801 28499 net.cpp:443] fconv3 <- bn3_relu3_0_split_0
I0730 13:09:43.164808 28499 net.cpp:398] fconv3 -> fconv3
I0730 13:09:43.164815 28499 net.cpp:133] Setting up fconv3
I0730 13:09:43.166491 28499 net.cpp:140] Top shape: 1 3 1 70000 (210000)
I0730 13:09:43.166509 28499 layer_factory.hpp:76] Creating layer fbn3
I0730 13:09:43.166519 28499 net.cpp:98] Creating Layer fbn3
I0730 13:09:43.166524 28499 net.cpp:443] fbn3 <- fconv3
I0730 13:09:43.166532 28499 net.cpp:398] fbn3 -> fbn3
I0730 13:09:43.166539 28499 net.cpp:133] Setting up fbn3
I0730 13:09:43.166618 28499 net.cpp:140] Top shape: 1 3 1 70000 (210000)
I0730 13:09:43.166630 28499 layer_factory.hpp:76] Creating layer frelu3
I0730 13:09:43.166640 28499 net.cpp:98] Creating Layer frelu3
I0730 13:09:43.166643 28499 net.cpp:443] frelu3 <- fbn3
I0730 13:09:43.166651 28499 net.cpp:387] frelu3 -> fbn3 (in-place)
I0730 13:09:43.166656 28499 net.cpp:133] Setting up frelu3
I0730 13:09:43.167306 28499 net.cpp:140] Top shape: 1 3 1 70000 (210000)
I0730 13:09:43.167321 28499 layer_factory.hpp:76] Creating layer data_lattice2
I0730 13:09:43.167371 28499 net.cpp:98] Creating Layer data_lattice2
I0730 13:09:43.167379 28499 net.cpp:443] data_lattice2 <- data_data_0_split_3
I0730 13:09:43.167388 28499 net.cpp:398] data_lattice2 -> data_lattice2
I0730 13:09:43.167395 28499 net.cpp:133] Setting up data_lattice2
I0730 13:09:43.167608 28499 net.cpp:140] Top shape: 1 3 1 70000 (210000)
I0730 13:09:43.167619 28499 layer_factory.hpp:76] Creating layer feat3
I0730 13:09:43.167632 28499 net.cpp:98] Creating Layer feat3
I0730 13:09:43.167637 28499 net.cpp:443] feat3 <- data_lattice2
I0730 13:09:43.167644 28499 net.cpp:443] feat3 <- fbn3
I0730 13:09:43.167651 28499 net.cpp:398] feat3 -> feat3
I0730 13:09:43.167659 28499 net.cpp:133] Setting up feat3
I0730 13:09:43.167665 28499 net.cpp:140] Top shape: 1 3 1 70000 (210000)
I0730 13:09:43.167670 28499 layer_factory.hpp:76] Creating layer feat3_feat3_0_split
I0730 13:09:43.167675 28499 net.cpp:98] Creating Layer feat3_feat3_0_split
I0730 13:09:43.167678 28499 net.cpp:443] feat3_feat3_0_split <- feat3
I0730 13:09:43.167685 28499 net.cpp:398] feat3_feat3_0_split -> feat3_feat3_0_split_0
I0730 13:09:43.167692 28499 net.cpp:398] feat3_feat3_0_split -> feat3_feat3_0_split_1
I0730 13:09:43.167698 28499 net.cpp:133] Setting up feat3_feat3_0_split
I0730 13:09:43.167704 28499 net.cpp:140] Top shape: 1 3 1 70000 (210000)
I0730 13:09:43.167708 28499 net.cpp:140] Top shape: 1 3 1 70000 (210000)
I0730 13:09:43.167711 28499 layer_factory.hpp:76] Creating layer conv4
I0730 13:09:43.167721 28499 net.cpp:98] Creating Layer conv4
I0730 13:09:43.167724 28499 net.cpp:443] conv4 <- bn3_relu3_0_split_1
I0730 13:09:43.167732 28499 net.cpp:443] conv4 <- feat3_feat3_0_split_0
I0730 13:09:43.167735 28499 net.cpp:443] conv4 <- feat3_feat3_0_split_1
I0730 13:09:43.167742 28499 net.cpp:398] conv4 -> conv4
I0730 13:09:43.167748 28499 net.cpp:133] Setting up conv4
I0730 13:09:43.235277 28499 net.cpp:140] Top shape: 1 256 1 70000 (17920000)
I0730 13:09:43.235298 28499 layer_factory.hpp:76] Creating layer bn4
I0730 13:09:43.235309 28499 net.cpp:98] Creating Layer bn4
I0730 13:09:43.235316 28499 net.cpp:443] bn4 <- conv4
I0730 13:09:43.235323 28499 net.cpp:398] bn4 -> bn4
I0730 13:09:43.235332 28499 net.cpp:133] Setting up bn4
I0730 13:09:43.235393 28499 net.cpp:140] Top shape: 1 256 1 70000 (17920000)
I0730 13:09:43.235405 28499 layer_factory.hpp:76] Creating layer relu4
I0730 13:09:43.235412 28499 net.cpp:98] Creating Layer relu4
I0730 13:09:43.235415 28499 net.cpp:443] relu4 <- bn4
I0730 13:09:43.235421 28499 net.cpp:387] relu4 -> bn4 (in-place)
I0730 13:09:43.235426 28499 net.cpp:133] Setting up relu4
I0730 13:09:43.235733 28499 net.cpp:140] Top shape: 1 256 1 70000 (17920000)
I0730 13:09:43.235744 28499 layer_factory.hpp:76] Creating layer bn4_relu4_0_split
I0730 13:09:43.235754 28499 net.cpp:98] Creating Layer bn4_relu4_0_split
I0730 13:09:43.235757 28499 net.cpp:443] bn4_relu4_0_split <- bn4
I0730 13:09:43.235764 28499 net.cpp:398] bn4_relu4_0_split -> bn4_relu4_0_split_0
I0730 13:09:43.235770 28499 net.cpp:398] bn4_relu4_0_split -> bn4_relu4_0_split_1
I0730 13:09:43.235776 28499 net.cpp:398] bn4_relu4_0_split -> bn4_relu4_0_split_2
I0730 13:09:43.235782 28499 net.cpp:133] Setting up bn4_relu4_0_split
I0730 13:09:43.235788 28499 net.cpp:140] Top shape: 1 256 1 70000 (17920000)
I0730 13:09:43.235793 28499 net.cpp:140] Top shape: 1 256 1 70000 (17920000)
I0730 13:09:43.235797 28499 net.cpp:140] Top shape: 1 256 1 70000 (17920000)
I0730 13:09:43.235800 28499 layer_factory.hpp:76] Creating layer fconv4
I0730 13:09:43.235810 28499 net.cpp:98] Creating Layer fconv4
I0730 13:09:43.235815 28499 net.cpp:443] fconv4 <- bn4_relu4_0_split_0
I0730 13:09:43.235821 28499 net.cpp:398] fconv4 -> fconv4
I0730 13:09:43.235828 28499 net.cpp:133] Setting up fconv4
I0730 13:09:43.237673 28499 net.cpp:140] Top shape: 1 3 1 70000 (210000)
I0730 13:09:43.237690 28499 layer_factory.hpp:76] Creating layer fbn4
I0730 13:09:43.237701 28499 net.cpp:98] Creating Layer fbn4
I0730 13:09:43.237706 28499 net.cpp:443] fbn4 <- fconv4
I0730 13:09:43.237713 28499 net.cpp:398] fbn4 -> fbn4
I0730 13:09:43.237720 28499 net.cpp:133] Setting up fbn4
I0730 13:09:43.237783 28499 net.cpp:140] Top shape: 1 3 1 70000 (210000)
I0730 13:09:43.237795 28499 layer_factory.hpp:76] Creating layer frelu4
I0730 13:09:43.237802 28499 net.cpp:98] Creating Layer frelu4
I0730 13:09:43.237805 28499 net.cpp:443] frelu4 <- fbn4
I0730 13:09:43.237810 28499 net.cpp:387] frelu4 -> fbn4 (in-place)
I0730 13:09:43.237817 28499 net.cpp:133] Setting up frelu4
I0730 13:09:43.238032 28499 net.cpp:140] Top shape: 1 3 1 70000 (210000)
I0730 13:09:43.238044 28499 layer_factory.hpp:76] Creating layer data_lattice3
I0730 13:09:43.238107 28499 net.cpp:98] Creating Layer data_lattice3
I0730 13:09:43.238116 28499 net.cpp:443] data_lattice3 <- data_data_0_split_4
I0730 13:09:43.238124 28499 net.cpp:398] data_lattice3 -> data_lattice3
I0730 13:09:43.238131 28499 net.cpp:133] Setting up data_lattice3
I0730 13:09:43.238481 28499 net.cpp:140] Top shape: 1 3 1 70000 (210000)
I0730 13:09:43.238490 28499 layer_factory.hpp:76] Creating layer feat4
I0730 13:09:43.238502 28499 net.cpp:98] Creating Layer feat4
I0730 13:09:43.238507 28499 net.cpp:443] feat4 <- data_lattice3
I0730 13:09:43.238512 28499 net.cpp:443] feat4 <- fbn4
I0730 13:09:43.238520 28499 net.cpp:398] feat4 -> feat4
I0730 13:09:43.238528 28499 net.cpp:133] Setting up feat4
I0730 13:09:43.238534 28499 net.cpp:140] Top shape: 1 3 1 70000 (210000)
I0730 13:09:43.238538 28499 layer_factory.hpp:76] Creating layer feat4_feat4_0_split
I0730 13:09:43.238543 28499 net.cpp:98] Creating Layer feat4_feat4_0_split
I0730 13:09:43.238548 28499 net.cpp:443] feat4_feat4_0_split <- feat4
I0730 13:09:43.238553 28499 net.cpp:398] feat4_feat4_0_split -> feat4_feat4_0_split_0
I0730 13:09:43.238559 28499 net.cpp:398] feat4_feat4_0_split -> feat4_feat4_0_split_1
I0730 13:09:43.238564 28499 net.cpp:133] Setting up feat4_feat4_0_split
I0730 13:09:43.238569 28499 net.cpp:140] Top shape: 1 3 1 70000 (210000)
I0730 13:09:43.238574 28499 net.cpp:140] Top shape: 1 3 1 70000 (210000)
I0730 13:09:43.238577 28499 layer_factory.hpp:76] Creating layer conv5
I0730 13:09:43.238590 28499 net.cpp:98] Creating Layer conv5
I0730 13:09:43.238593 28499 net.cpp:443] conv5 <- bn4_relu4_0_split_1
I0730 13:09:43.238598 28499 net.cpp:443] conv5 <- feat4_feat4_0_split_0
I0730 13:09:43.238603 28499 net.cpp:443] conv5 <- feat4_feat4_0_split_1
I0730 13:09:43.238610 28499 net.cpp:398] conv5 -> conv5
I0730 13:09:43.238617 28499 net.cpp:133] Setting up conv5
I0730 13:09:43.251111 28500 net.cpp:140] Top shape: 1 256 1 70000 (17920000)
I0730 13:09:43.251142 28500 layer_factory.hpp:76] Creating layer bn5
I0730 13:09:43.251153 28500 net.cpp:98] Creating Layer bn5
I0730 13:09:43.251160 28500 net.cpp:443] bn5 <- conv5
I0730 13:09:43.251168 28500 net.cpp:398] bn5 -> bn5
I0730 13:09:43.251178 28500 net.cpp:133] Setting up bn5
I0730 13:09:43.251241 28500 net.cpp:140] Top shape: 1 256 1 70000 (17920000)
I0730 13:09:43.251260 28500 layer_factory.hpp:76] Creating layer relu5
I0730 13:09:43.251267 28500 net.cpp:98] Creating Layer relu5
I0730 13:09:43.251271 28500 net.cpp:443] relu5 <- bn5
I0730 13:09:43.251276 28500 net.cpp:387] relu5 -> bn5 (in-place)
I0730 13:09:43.251281 28500 net.cpp:133] Setting up relu5
I0730 13:09:43.251384 28501 net.cpp:140] Top shape: 1 256 1 70000 (17920000)
I0730 13:09:43.251399 28501 layer_factory.hpp:76] Creating layer bn5
I0730 13:09:43.251410 28501 net.cpp:98] Creating Layer bn5
I0730 13:09:43.251415 28501 net.cpp:443] bn5 <- conv5
I0730 13:09:43.251421 28501 net.cpp:398] bn5 -> bn5
I0730 13:09:43.251426 28501 net.cpp:133] Setting up bn5
I0730 13:09:43.251526 28501 net.cpp:140] Top shape: 1 256 1 70000 (17920000)
I0730 13:09:43.251536 28501 layer_factory.hpp:76] Creating layer relu5
I0730 13:09:43.251543 28501 net.cpp:98] Creating Layer relu5
I0730 13:09:43.251547 28501 net.cpp:443] relu5 <- bn5
I0730 13:09:43.251554 28501 net.cpp:387] relu5 -> bn5 (in-place)
I0730 13:09:43.251576 28500 net.cpp:140] Top shape: 1 256 1 70000 (17920000)
I0730 13:09:43.251559 28501 net.cpp:133] Setting up relu5
I0730 13:09:43.251585 28500 layer_factory.hpp:76] Creating layer bn5_relu5_0_split
I0730 13:09:43.251592 28500 net.cpp:98] Creating Layer bn5_relu5_0_split
I0730 13:09:43.251595 28500 net.cpp:443] bn5_relu5_0_split <- bn5
I0730 13:09:43.251605 28500 net.cpp:398] bn5_relu5_0_split -> bn5_relu5_0_split_0
I0730 13:09:43.251612 28500 net.cpp:398] bn5_relu5_0_split -> bn5_relu5_0_split_1
I0730 13:09:43.251617 28500 net.cpp:398] bn5_relu5_0_split -> bn5_relu5_0_split_2
I0730 13:09:43.251622 28500 net.cpp:133] Setting up bn5_relu5_0_split
I0730 13:09:43.251629 28500 net.cpp:140] Top shape: 1 256 1 70000 (17920000)
I0730 13:09:43.251632 28500 net.cpp:140] Top shape: 1 256 1 70000 (17920000)
I0730 13:09:43.251636 28500 net.cpp:140] Top shape: 1 256 1 70000 (17920000)
I0730 13:09:43.251638 28500 layer_factory.hpp:76] Creating layer fconv5
I0730 13:09:43.251647 28500 net.cpp:98] Creating Layer fconv5
I0730 13:09:43.251651 28500 net.cpp:443] fconv5 <- bn5_relu5_0_split_0
I0730 13:09:43.251657 28500 net.cpp:398] fconv5 -> fconv5
I0730 13:09:43.251663 28500 net.cpp:133] Setting up fconv5
I0730 13:09:43.251808 28501 net.cpp:140] Top shape: 1 256 1 70000 (17920000)
I0730 13:09:43.251817 28501 layer_factory.hpp:76] Creating layer bn5_relu5_0_split
I0730 13:09:43.251826 28501 net.cpp:98] Creating Layer bn5_relu5_0_split
I0730 13:09:43.251829 28501 net.cpp:443] bn5_relu5_0_split <- bn5
I0730 13:09:43.251835 28501 net.cpp:398] bn5_relu5_0_split -> bn5_relu5_0_split_0
I0730 13:09:43.251842 28501 net.cpp:398] bn5_relu5_0_split -> bn5_relu5_0_split_1
I0730 13:09:43.251847 28501 net.cpp:398] bn5_relu5_0_split -> bn5_relu5_0_split_2
I0730 13:09:43.251853 28501 net.cpp:133] Setting up bn5_relu5_0_split
I0730 13:09:43.251859 28501 net.cpp:140] Top shape: 1 256 1 70000 (17920000)
I0730 13:09:43.251863 28501 net.cpp:140] Top shape: 1 256 1 70000 (17920000)
I0730 13:09:43.251866 28501 net.cpp:140] Top shape: 1 256 1 70000 (17920000)
I0730 13:09:43.251869 28501 layer_factory.hpp:76] Creating layer fconv5
I0730 13:09:43.251878 28501 net.cpp:98] Creating Layer fconv5
I0730 13:09:43.251881 28501 net.cpp:443] fconv5 <- bn5_relu5_0_split_0
I0730 13:09:43.251888 28501 net.cpp:398] fconv5 -> fconv5
I0730 13:09:43.251894 28501 net.cpp:133] Setting up fconv5
I0730 13:09:43.278192 28498 net.cpp:140] Top shape: 1 256 1 70000 (17920000)
I0730 13:09:43.278210 28498 layer_factory.hpp:76] Creating layer bn5
I0730 13:09:43.278219 28498 net.cpp:98] Creating Layer bn5
I0730 13:09:43.278226 28498 net.cpp:443] bn5 <- conv5
I0730 13:09:43.278234 28498 net.cpp:398] bn5 -> bn5
I0730 13:09:43.278240 28498 net.cpp:133] Setting up bn5
I0730 13:09:43.278352 28498 net.cpp:140] Top shape: 1 256 1 70000 (17920000)
I0730 13:09:43.278367 28498 layer_factory.hpp:76] Creating layer relu5
I0730 13:09:43.278374 28498 net.cpp:98] Creating Layer relu5
I0730 13:09:43.278378 28498 net.cpp:443] relu5 <- bn5
I0730 13:09:43.278383 28498 net.cpp:387] relu5 -> bn5 (in-place)
I0730 13:09:43.278388 28498 net.cpp:133] Setting up relu5
I0730 13:09:43.278692 28498 net.cpp:140] Top shape: 1 256 1 70000 (17920000)
I0730 13:09:43.278702 28498 layer_factory.hpp:76] Creating layer bn5_relu5_0_split
I0730 13:09:43.278710 28498 net.cpp:98] Creating Layer bn5_relu5_0_split
I0730 13:09:43.278714 28498 net.cpp:443] bn5_relu5_0_split <- bn5
I0730 13:09:43.278722 28498 net.cpp:398] bn5_relu5_0_split -> bn5_relu5_0_split_0
I0730 13:09:43.278729 28498 net.cpp:398] bn5_relu5_0_split -> bn5_relu5_0_split_1
I0730 13:09:43.278735 28498 net.cpp:398] bn5_relu5_0_split -> bn5_relu5_0_split_2
I0730 13:09:43.278741 28498 net.cpp:133] Setting up bn5_relu5_0_split
I0730 13:09:43.278748 28498 net.cpp:140] Top shape: 1 256 1 70000 (17920000)
I0730 13:09:43.278753 28498 net.cpp:140] Top shape: 1 256 1 70000 (17920000)
I0730 13:09:43.278756 28498 net.cpp:140] Top shape: 1 256 1 70000 (17920000)
I0730 13:09:43.278760 28498 layer_factory.hpp:76] Creating layer fconv5
I0730 13:09:43.278772 28498 net.cpp:98] Creating Layer fconv5
I0730 13:09:43.278776 28498 net.cpp:443] fconv5 <- bn5_relu5_0_split_0
I0730 13:09:43.278784 28498 net.cpp:398] fconv5 -> fconv5
I0730 13:09:43.278790 28498 net.cpp:133] Setting up fconv5
I0730 13:09:43.281507 28498 net.cpp:140] Top shape: 1 3 1 70000 (210000)
I0730 13:09:43.281523 28498 layer_factory.hpp:76] Creating layer fbn5
I0730 13:09:43.281535 28498 net.cpp:98] Creating Layer fbn5
I0730 13:09:43.281541 28498 net.cpp:443] fbn5 <- fconv5
I0730 13:09:43.281529 28501 net.cpp:140] Top shape: 1 3 1 70000 (210000)
I0730 13:09:43.281543 28501 layer_factory.hpp:76] Creating layer fbn5
I0730 13:09:43.281548 28498 net.cpp:398] fbn5 -> fbn5
I0730 13:09:43.281555 28498 net.cpp:133] Setting up fbn5
I0730 13:09:43.281549 28501 net.cpp:98] Creating Layer fbn5
I0730 13:09:43.281554 28501 net.cpp:443] fbn5 <- fconv5
I0730 13:09:43.281563 28501 net.cpp:398] fbn5 -> fbn5
I0730 13:09:43.281569 28501 net.cpp:133] Setting up fbn5
I0730 13:09:43.281615 28500 net.cpp:140] Top shape: 1 3 1 70000 (210000)
I0730 13:09:43.281627 28501 net.cpp:140] Top shape: 1 3 1 70000 (210000)
I0730 13:09:43.281638 28501 layer_factory.hpp:76] Creating layer frelu5
I0730 13:09:43.281644 28501 net.cpp:98] Creating Layer frelu5
I0730 13:09:43.281648 28500 layer_factory.hpp:76] Creating layer fbn5
I0730 13:09:43.281647 28501 net.cpp:443] frelu5 <- fbn5
I0730 13:09:43.281653 28501 net.cpp:387] frelu5 -> fbn5 (in-place)
I0730 13:09:43.281658 28501 net.cpp:133] Setting up frelu5
I0730 13:09:43.281666 28498 net.cpp:140] Top shape: 1 3 1 70000 (210000)
I0730 13:09:43.281675 28498 layer_factory.hpp:76] Creating layer frelu5
I0730 13:09:43.281663 28500 net.cpp:98] Creating Layer fbn5
I0730 13:09:43.281673 28500 net.cpp:443] fbn5 <- fconv5
I0730 13:09:43.281682 28498 net.cpp:98] Creating Layer frelu5
I0730 13:09:43.281687 28498 net.cpp:443] frelu5 <- fbn5
I0730 13:09:43.281692 28498 net.cpp:387] frelu5 -> fbn5 (in-place)
I0730 13:09:43.281698 28498 net.cpp:133] Setting up frelu5
I0730 13:09:43.281690 28500 net.cpp:398] fbn5 -> fbn5
I0730 13:09:43.281705 28500 net.cpp:133] Setting up fbn5
I0730 13:09:43.281839 28501 net.cpp:140] Top shape: 1 3 1 70000 (210000)
I0730 13:09:43.281852 28501 layer_factory.hpp:76] Creating layer data_lattice4
I0730 13:09:43.281898 28500 net.cpp:140] Top shape: 1 3 1 70000 (210000)
I0730 13:09:43.281905 28498 net.cpp:140] Top shape: 1 3 1 70000 (210000)
I0730 13:09:43.281913 28498 layer_factory.hpp:76] Creating layer data_lattice4
I0730 13:09:43.281909 28500 layer_factory.hpp:76] Creating layer frelu5
I0730 13:09:43.281918 28500 net.cpp:98] Creating Layer frelu5
I0730 13:09:43.281921 28500 net.cpp:443] frelu5 <- fbn5
I0730 13:09:43.281905 28501 net.cpp:98] Creating Layer data_lattice4
I0730 13:09:43.281913 28501 net.cpp:443] data_lattice4 <- data_data_0_split_5
I0730 13:09:43.281919 28501 net.cpp:398] data_lattice4 -> data_lattice4
I0730 13:09:43.281924 28501 net.cpp:133] Setting up data_lattice4
I0730 13:09:43.281925 28500 net.cpp:387] frelu5 -> fbn5 (in-place)
I0730 13:09:43.281930 28500 net.cpp:133] Setting up frelu5
I0730 13:09:43.281966 28498 net.cpp:98] Creating Layer data_lattice4
I0730 13:09:43.281973 28498 net.cpp:443] data_lattice4 <- data_data_0_split_5
I0730 13:09:43.281981 28498 net.cpp:398] data_lattice4 -> data_lattice4
I0730 13:09:43.281989 28498 net.cpp:133] Setting up data_lattice4
I0730 13:09:43.282099 28500 net.cpp:140] Top shape: 1 3 1 70000 (210000)
I0730 13:09:43.282107 28500 layer_factory.hpp:76] Creating layer data_lattice4
I0730 13:09:43.282117 28501 net.cpp:140] Top shape: 1 3 1 70000 (210000)
I0730 13:09:43.282124 28501 layer_factory.hpp:76] Creating layer feat5
I0730 13:09:43.282130 28501 net.cpp:98] Creating Layer feat5
I0730 13:09:43.282133 28501 net.cpp:443] feat5 <- data_lattice4
I0730 13:09:43.282138 28501 net.cpp:443] feat5 <- fbn5
I0730 13:09:43.282143 28501 net.cpp:398] feat5 -> feat5
I0730 13:09:43.282150 28501 net.cpp:133] Setting up feat5
I0730 13:09:43.282156 28501 net.cpp:140] Top shape: 1 3 1 70000 (210000)
I0730 13:09:43.282160 28501 layer_factory.hpp:76] Creating layer feat5_feat5_0_split
I0730 13:09:43.282168 28501 net.cpp:98] Creating Layer feat5_feat5_0_split
I0730 13:09:43.282172 28501 net.cpp:443] feat5_feat5_0_split <- feat5
I0730 13:09:43.282176 28501 net.cpp:398] feat5_feat5_0_split -> feat5_feat5_0_split_0
I0730 13:09:43.282177 28500 net.cpp:98] Creating Layer data_lattice4
I0730 13:09:43.282183 28500 net.cpp:443] data_lattice4 <- data_data_0_split_5
I0730 13:09:43.282189 28500 net.cpp:398] data_lattice4 -> data_lattice4
I0730 13:09:43.282196 28500 net.cpp:133] Setting up data_lattice4
I0730 13:09:43.282183 28501 net.cpp:398] feat5_feat5_0_split -> feat5_feat5_0_split_1
I0730 13:09:43.282191 28501 net.cpp:133] Setting up feat5_feat5_0_split
I0730 13:09:43.282196 28501 net.cpp:140] Top shape: 1 3 1 70000 (210000)
I0730 13:09:43.282200 28501 net.cpp:140] Top shape: 1 3 1 70000 (210000)
I0730 13:09:43.282203 28501 layer_factory.hpp:76] Creating layer conv6
I0730 13:09:43.282212 28501 net.cpp:98] Creating Layer conv6
I0730 13:09:43.282215 28501 net.cpp:443] conv6 <- bn5_relu5_0_split_1
I0730 13:09:43.282219 28501 net.cpp:443] conv6 <- feat5_feat5_0_split_0
I0730 13:09:43.282235 28498 net.cpp:140] Top shape: 1 3 1 70000 (210000)
I0730 13:09:43.282223 28501 net.cpp:443] conv6 <- feat5_feat5_0_split_1
I0730 13:09:43.282229 28501 net.cpp:398] conv6 -> conv6
I0730 13:09:43.282235 28501 net.cpp:133] Setting up conv6
I0730 13:09:43.282243 28498 layer_factory.hpp:76] Creating layer feat5
I0730 13:09:43.282253 28498 net.cpp:98] Creating Layer feat5
I0730 13:09:43.282258 28498 net.cpp:443] feat5 <- data_lattice4
I0730 13:09:43.282263 28498 net.cpp:443] feat5 <- fbn5
I0730 13:09:43.282271 28498 net.cpp:398] feat5 -> feat5
I0730 13:09:43.282279 28498 net.cpp:133] Setting up feat5
I0730 13:09:43.282286 28498 net.cpp:140] Top shape: 1 3 1 70000 (210000)
I0730 13:09:43.282290 28498 layer_factory.hpp:76] Creating layer feat5_feat5_0_split
I0730 13:09:43.282296 28498 net.cpp:98] Creating Layer feat5_feat5_0_split
I0730 13:09:43.282300 28498 net.cpp:443] feat5_feat5_0_split <- feat5
I0730 13:09:43.282307 28498 net.cpp:398] feat5_feat5_0_split -> feat5_feat5_0_split_0
I0730 13:09:43.282313 28498 net.cpp:398] feat5_feat5_0_split -> feat5_feat5_0_split_1
I0730 13:09:43.282322 28498 net.cpp:133] Setting up feat5_feat5_0_split
I0730 13:09:43.282330 28498 net.cpp:140] Top shape: 1 3 1 70000 (210000)
I0730 13:09:43.282335 28498 net.cpp:140] Top shape: 1 3 1 70000 (210000)
I0730 13:09:43.282337 28498 layer_factory.hpp:76] Creating layer conv6
I0730 13:09:43.282348 28498 net.cpp:98] Creating Layer conv6
I0730 13:09:43.282352 28498 net.cpp:443] conv6 <- bn5_relu5_0_split_1
I0730 13:09:43.282358 28498 net.cpp:443] conv6 <- feat5_feat5_0_split_0
I0730 13:09:43.282363 28498 net.cpp:443] conv6 <- feat5_feat5_0_split_1
I0730 13:09:43.282371 28498 net.cpp:398] conv6 -> conv6
I0730 13:09:43.282378 28498 net.cpp:133] Setting up conv6
I0730 13:09:43.282522 28500 net.cpp:140] Top shape: 1 3 1 70000 (210000)
I0730 13:09:43.282532 28500 layer_factory.hpp:76] Creating layer feat5
I0730 13:09:43.282541 28500 net.cpp:98] Creating Layer feat5
I0730 13:09:43.282544 28500 net.cpp:443] feat5 <- data_lattice4
I0730 13:09:43.282548 28500 net.cpp:443] feat5 <- fbn5
I0730 13:09:43.282558 28500 net.cpp:398] feat5 -> feat5
I0730 13:09:43.282565 28500 net.cpp:133] Setting up feat5
I0730 13:09:43.282572 28500 net.cpp:140] Top shape: 1 3 1 70000 (210000)
I0730 13:09:43.282574 28500 layer_factory.hpp:76] Creating layer feat5_feat5_0_split
I0730 13:09:43.282579 28500 net.cpp:98] Creating Layer feat5_feat5_0_split
I0730 13:09:43.282582 28500 net.cpp:443] feat5_feat5_0_split <- feat5
I0730 13:09:43.282588 28500 net.cpp:398] feat5_feat5_0_split -> feat5_feat5_0_split_0
I0730 13:09:43.282594 28500 net.cpp:398] feat5_feat5_0_split -> feat5_feat5_0_split_1
I0730 13:09:43.282603 28500 net.cpp:133] Setting up feat5_feat5_0_split
I0730 13:09:43.282608 28500 net.cpp:140] Top shape: 1 3 1 70000 (210000)
I0730 13:09:43.282611 28500 net.cpp:140] Top shape: 1 3 1 70000 (210000)
I0730 13:09:43.282615 28500 layer_factory.hpp:76] Creating layer conv6
I0730 13:09:43.282624 28500 net.cpp:98] Creating Layer conv6
I0730 13:09:43.282629 28500 net.cpp:443] conv6 <- bn5_relu5_0_split_1
I0730 13:09:43.282632 28500 net.cpp:443] conv6 <- feat5_feat5_0_split_0
I0730 13:09:43.282636 28500 net.cpp:443] conv6 <- feat5_feat5_0_split_1
I0730 13:09:43.282644 28500 net.cpp:398] conv6 -> conv6
I0730 13:09:43.282650 28500 net.cpp:133] Setting up conv6
I0730 13:09:43.306991 28500 net.cpp:140] Top shape: 1 256 1 70000 (17920000)
I0730 13:09:43.307003 28500 layer_factory.hpp:76] Creating layer bn6
I0730 13:09:43.307010 28500 net.cpp:98] Creating Layer bn6
I0730 13:09:43.307014 28500 net.cpp:443] bn6 <- conv6
I0730 13:09:43.307019 28500 net.cpp:398] bn6 -> bn6
I0730 13:09:43.307024 28500 net.cpp:133] Setting up bn6
I0730 13:09:43.307124 28500 net.cpp:140] Top shape: 1 256 1 70000 (17920000)
I0730 13:09:43.307134 28500 layer_factory.hpp:76] Creating layer relu6
I0730 13:09:43.307140 28500 net.cpp:98] Creating Layer relu6
I0730 13:09:43.307143 28500 net.cpp:443] relu6 <- bn6
I0730 13:09:43.307149 28500 net.cpp:387] relu6 -> bn6 (in-place)
I0730 13:09:43.307154 28500 net.cpp:133] Setting up relu6
I0730 13:09:43.307338 28501 net.cpp:140] Top shape: 1 256 1 70000 (17920000)
I0730 13:09:43.307350 28501 layer_factory.hpp:76] Creating layer bn6
I0730 13:09:43.307359 28501 net.cpp:98] Creating Layer bn6
I0730 13:09:43.307363 28501 net.cpp:443] bn6 <- conv6
I0730 13:09:43.307368 28501 net.cpp:398] bn6 -> bn6
I0730 13:09:43.307374 28501 net.cpp:133] Setting up bn6
I0730 13:09:43.307427 28501 net.cpp:140] Top shape: 1 256 1 70000 (17920000)
I0730 13:09:43.307437 28501 layer_factory.hpp:76] Creating layer relu6
I0730 13:09:43.307445 28501 net.cpp:98] Creating Layer relu6
I0730 13:09:43.307448 28501 net.cpp:443] relu6 <- bn6
I0730 13:09:43.307453 28501 net.cpp:387] relu6 -> bn6 (in-place)
I0730 13:09:43.307458 28501 net.cpp:133] Setting up relu6
I0730 13:09:43.307750 28500 net.cpp:140] Top shape: 1 256 1 70000 (17920000)
I0730 13:09:43.307763 28500 layer_factory.hpp:76] Creating layer concat6
I0730 13:09:43.307775 28500 net.cpp:98] Creating Layer concat6
I0730 13:09:43.307777 28500 net.cpp:443] concat6 <- bn6
I0730 13:09:43.307782 28500 net.cpp:443] concat6 <- bn2_relu2_0_split_2
I0730 13:09:43.307786 28500 net.cpp:443] concat6 <- bn3_relu3_0_split_2
I0730 13:09:43.307790 28500 net.cpp:443] concat6 <- bn4_relu4_0_split_2
I0730 13:09:43.307792 28500 net.cpp:443] concat6 <- bn5_relu5_0_split_2
I0730 13:09:43.307797 28500 net.cpp:398] concat6 -> concat6
I0730 13:09:43.307803 28500 net.cpp:133] Setting up concat6
I0730 13:09:43.307811 28500 net.cpp:140] Top shape: 1 960 1 70000 (67200000)
I0730 13:09:43.307816 28500 layer_factory.hpp:76] Creating layer conv7
I0730 13:09:43.307823 28500 net.cpp:98] Creating Layer conv7
I0730 13:09:43.307826 28500 net.cpp:443] conv7 <- concat6
I0730 13:09:43.307834 28500 net.cpp:398] conv7 -> conv7
I0730 13:09:43.307840 28500 net.cpp:133] Setting up conv7
I0730 13:09:43.308063 28501 net.cpp:140] Top shape: 1 256 1 70000 (17920000)
I0730 13:09:43.308074 28501 layer_factory.hpp:76] Creating layer concat6
I0730 13:09:43.308084 28501 net.cpp:98] Creating Layer concat6
I0730 13:09:43.308089 28501 net.cpp:443] concat6 <- bn6
I0730 13:09:43.308094 28501 net.cpp:443] concat6 <- bn2_relu2_0_split_2
I0730 13:09:43.308099 28501 net.cpp:443] concat6 <- bn3_relu3_0_split_2
I0730 13:09:43.308101 28501 net.cpp:443] concat6 <- bn4_relu4_0_split_2
I0730 13:09:43.308104 28501 net.cpp:443] concat6 <- bn5_relu5_0_split_2
I0730 13:09:43.308109 28501 net.cpp:398] concat6 -> concat6
I0730 13:09:43.308115 28501 net.cpp:133] Setting up concat6
I0730 13:09:43.308123 28501 net.cpp:140] Top shape: 1 960 1 70000 (67200000)
I0730 13:09:43.308126 28501 layer_factory.hpp:76] Creating layer conv7
I0730 13:09:43.308133 28501 net.cpp:98] Creating Layer conv7
I0730 13:09:43.308136 28501 net.cpp:443] conv7 <- concat6
I0730 13:09:43.308145 28501 net.cpp:398] conv7 -> conv7
I0730 13:09:43.308151 28501 net.cpp:133] Setting up conv7
I0730 13:09:43.313885 28498 net.cpp:140] Top shape: 1 256 1 70000 (17920000)
I0730 13:09:43.313899 28498 layer_factory.hpp:76] Creating layer bn6
I0730 13:09:43.313907 28498 net.cpp:98] Creating Layer bn6
I0730 13:09:43.313912 28498 net.cpp:443] bn6 <- conv6
I0730 13:09:43.313920 28498 net.cpp:398] bn6 -> bn6
I0730 13:09:43.313925 28498 net.cpp:133] Setting up bn6
I0730 13:09:43.314033 28498 net.cpp:140] Top shape: 1 256 1 70000 (17920000)
I0730 13:09:43.314044 28498 layer_factory.hpp:76] Creating layer relu6
I0730 13:09:43.314051 28498 net.cpp:98] Creating Layer relu6
I0730 13:09:43.314055 28498 net.cpp:443] relu6 <- bn6
I0730 13:09:43.314062 28498 net.cpp:387] relu6 -> bn6 (in-place)
I0730 13:09:43.314067 28498 net.cpp:133] Setting up relu6
I0730 13:09:43.314672 28498 net.cpp:140] Top shape: 1 256 1 70000 (17920000)
I0730 13:09:43.314687 28498 layer_factory.hpp:76] Creating layer concat6
I0730 13:09:43.314697 28498 net.cpp:98] Creating Layer concat6
I0730 13:09:43.314700 28498 net.cpp:443] concat6 <- bn6
I0730 13:09:43.314707 28498 net.cpp:443] concat6 <- bn2_relu2_0_split_2
I0730 13:09:43.314712 28498 net.cpp:443] concat6 <- bn3_relu3_0_split_2
I0730 13:09:43.314715 28498 net.cpp:443] concat6 <- bn4_relu4_0_split_2
I0730 13:09:43.314719 28498 net.cpp:443] concat6 <- bn5_relu5_0_split_2
I0730 13:09:43.314725 28498 net.cpp:398] concat6 -> concat6
I0730 13:09:43.314733 28498 net.cpp:133] Setting up concat6
I0730 13:09:43.314744 28498 net.cpp:140] Top shape: 1 960 1 70000 (67200000)
I0730 13:09:43.314749 28498 layer_factory.hpp:76] Creating layer conv7
I0730 13:09:43.314756 28498 net.cpp:98] Creating Layer conv7
I0730 13:09:43.314760 28498 net.cpp:443] conv7 <- concat6
I0730 13:09:43.314769 28498 net.cpp:398] conv7 -> conv7
I0730 13:09:43.314776 28498 net.cpp:133] Setting up conv7
I0730 13:09:43.318053 28500 net.cpp:140] Top shape: 1 128 1 70000 (8960000)
I0730 13:09:43.318083 28500 layer_factory.hpp:76] Creating layer bn7
I0730 13:09:43.318055 28501 net.cpp:140] Top shape: 1 128 1 70000 (8960000)
I0730 13:09:43.318069 28501 layer_factory.hpp:76] Creating layer bn7
I0730 13:09:43.318076 28501 net.cpp:98] Creating Layer bn7
I0730 13:09:43.318080 28501 net.cpp:443] bn7 <- conv7
I0730 13:09:43.318087 28501 net.cpp:398] bn7 -> bn7
I0730 13:09:43.318094 28501 net.cpp:133] Setting up bn7
I0730 13:09:43.318089 28498 net.cpp:140] Top shape: 1 128 1 70000 (8960000)
I0730 13:09:43.318104 28498 layer_factory.hpp:76] Creating layer bn7
I0730 13:09:43.318097 28500 net.cpp:98] Creating Layer bn7
I0730 13:09:43.318107 28500 net.cpp:443] bn7 <- conv7
I0730 13:09:43.318111 28498 net.cpp:98] Creating Layer bn7
I0730 13:09:43.318116 28498 net.cpp:443] bn7 <- conv7
I0730 13:09:43.318125 28498 net.cpp:398] bn7 -> bn7
I0730 13:09:43.318132 28498 net.cpp:133] Setting up bn7
I0730 13:09:43.318123 28500 net.cpp:398] bn7 -> bn7
I0730 13:09:43.318140 28500 net.cpp:133] Setting up bn7
I0730 13:09:43.318181 28501 net.cpp:140] Top shape: 1 128 1 70000 (8960000)
I0730 13:09:43.318188 28501 layer_factory.hpp:76] Creating layer relu7
I0730 13:09:43.318197 28501 net.cpp:98] Creating Layer relu7
I0730 13:09:43.318199 28501 net.cpp:443] relu7 <- bn7
I0730 13:09:43.318203 28501 net.cpp:387] relu7 -> bn7 (in-place)
I0730 13:09:43.318209 28501 net.cpp:133] Setting up relu7
I0730 13:09:43.318236 28498 net.cpp:140] Top shape: 1 128 1 70000 (8960000)
I0730 13:09:43.318246 28498 layer_factory.hpp:76] Creating layer relu7
I0730 13:09:43.318254 28498 net.cpp:98] Creating Layer relu7
I0730 13:09:43.318259 28498 net.cpp:443] relu7 <- bn7
I0730 13:09:43.318244 28500 net.cpp:140] Top shape: 1 128 1 70000 (8960000)
I0730 13:09:43.318264 28498 net.cpp:387] relu7 -> bn7 (in-place)
I0730 13:09:43.318269 28498 net.cpp:133] Setting up relu7
I0730 13:09:43.318265 28500 layer_factory.hpp:76] Creating layer relu7
I0730 13:09:43.318281 28500 net.cpp:98] Creating Layer relu7
I0730 13:09:43.318290 28500 net.cpp:443] relu7 <- bn7
I0730 13:09:43.318301 28500 net.cpp:387] relu7 -> bn7 (in-place)
I0730 13:09:43.318312 28500 net.cpp:133] Setting up relu7
I0730 13:09:43.318384 28501 net.cpp:140] Top shape: 1 128 1 70000 (8960000)
I0730 13:09:43.318393 28501 layer_factory.hpp:76] Creating layer conv8
I0730 13:09:43.318403 28501 net.cpp:98] Creating Layer conv8
I0730 13:09:43.318406 28501 net.cpp:443] conv8 <- bn7
I0730 13:09:43.318413 28501 net.cpp:398] conv8 -> conv8
I0730 13:09:43.318419 28501 net.cpp:133] Setting up conv8
I0730 13:09:43.318482 28498 net.cpp:140] Top shape: 1 128 1 70000 (8960000)
I0730 13:09:43.318492 28498 layer_factory.hpp:76] Creating layer conv8
I0730 13:09:43.318503 28498 net.cpp:98] Creating Layer conv8
I0730 13:09:43.318507 28498 net.cpp:443] conv8 <- bn7
I0730 13:09:43.318516 28498 net.cpp:398] conv8 -> conv8
I0730 13:09:43.318524 28498 net.cpp:133] Setting up conv8
I0730 13:09:43.318567 28500 net.cpp:140] Top shape: 1 128 1 70000 (8960000)
I0730 13:09:43.318576 28500 layer_factory.hpp:76] Creating layer conv8
I0730 13:09:43.318584 28500 net.cpp:98] Creating Layer conv8
I0730 13:09:43.318588 28500 net.cpp:443] conv8 <- bn7
I0730 13:09:43.318594 28500 net.cpp:398] conv8 -> conv8
I0730 13:09:43.318601 28500 net.cpp:133] Setting up conv8
I0730 13:09:43.320469 28498 net.cpp:140] Top shape: 1 13 1 70000 (910000)
I0730 13:09:43.320487 28498 layer_factory.hpp:76] Creating layer conv8_conv8_0_split
I0730 13:09:43.320497 28498 net.cpp:98] Creating Layer conv8_conv8_0_split
I0730 13:09:43.320502 28498 net.cpp:443] conv8_conv8_0_split <- conv8
I0730 13:09:43.320509 28498 net.cpp:398] conv8_conv8_0_split -> conv8_conv8_0_split_0
I0730 13:09:43.320494 28500 net.cpp:140] Top shape: 1 13 1 70000 (910000)
I0730 13:09:43.320508 28500 layer_factory.hpp:76] Creating layer conv8_conv8_0_split
I0730 13:09:43.320514 28500 net.cpp:98] Creating Layer conv8_conv8_0_split
I0730 13:09:43.320518 28500 net.cpp:443] conv8_conv8_0_split <- conv8
I0730 13:09:43.320524 28500 net.cpp:398] conv8_conv8_0_split -> conv8_conv8_0_split_0
I0730 13:09:43.320518 28498 net.cpp:398] conv8_conv8_0_split -> conv8_conv8_0_split_1
I0730 13:09:43.320525 28498 net.cpp:133] Setting up conv8_conv8_0_split
I0730 13:09:43.320533 28498 net.cpp:140] Top shape: 1 13 1 70000 (910000)
I0730 13:09:43.320536 28498 net.cpp:140] Top shape: 1 13 1 70000 (910000)
I0730 13:09:43.320539 28498 layer_factory.hpp:76] Creating layer loss
I0730 13:09:43.320531 28500 net.cpp:398] conv8_conv8_0_split -> conv8_conv8_0_split_1
I0730 13:09:43.320536 28500 net.cpp:133] Setting up conv8_conv8_0_split
I0730 13:09:43.320542 28500 net.cpp:140] Top shape: 1 13 1 70000 (910000)
I0730 13:09:43.320545 28500 net.cpp:140] Top shape: 1 13 1 70000 (910000)
I0730 13:09:43.320549 28500 layer_factory.hpp:76] Creating layer loss
I0730 13:09:43.320526 28501 net.cpp:140] Top shape: 1 13 1 70000 (910000)
I0730 13:09:43.320538 28501 layer_factory.hpp:76] Creating layer conv8_conv8_0_split
I0730 13:09:43.320546 28501 net.cpp:98] Creating Layer conv8_conv8_0_split
I0730 13:09:43.320550 28501 net.cpp:443] conv8_conv8_0_split <- conv8
I0730 13:09:43.320556 28501 net.cpp:398] conv8_conv8_0_split -> conv8_conv8_0_split_0
I0730 13:09:43.320550 28498 net.cpp:98] Creating Layer loss
I0730 13:09:43.320554 28498 net.cpp:443] loss <- conv8_conv8_0_split_0
I0730 13:09:43.320559 28498 net.cpp:443] loss <- label_data_1_split_0
I0730 13:09:43.320564 28498 net.cpp:398] loss -> loss
I0730 13:09:43.320570 28498 net.cpp:133] Setting up loss
I0730 13:09:43.320577 28498 layer_factory.hpp:76] Creating layer loss
I0730 13:09:43.320559 28500 net.cpp:98] Creating Layer loss
I0730 13:09:43.320562 28500 net.cpp:443] loss <- conv8_conv8_0_split_0
I0730 13:09:43.320566 28500 net.cpp:443] loss <- label_data_1_split_0
I0730 13:09:43.320571 28500 net.cpp:398] loss -> loss
I0730 13:09:43.320576 28500 net.cpp:133] Setting up loss
I0730 13:09:43.320582 28500 layer_factory.hpp:76] Creating layer loss
I0730 13:09:43.320562 28501 net.cpp:398] conv8_conv8_0_split -> conv8_conv8_0_split_1
I0730 13:09:43.320569 28501 net.cpp:133] Setting up conv8_conv8_0_split
I0730 13:09:43.320574 28501 net.cpp:140] Top shape: 1 13 1 70000 (910000)
I0730 13:09:43.320577 28501 net.cpp:140] Top shape: 1 13 1 70000 (910000)
I0730 13:09:43.320580 28501 layer_factory.hpp:76] Creating layer loss
I0730 13:09:43.320588 28501 net.cpp:98] Creating Layer loss
I0730 13:09:43.320591 28501 net.cpp:443] loss <- conv8_conv8_0_split_0
I0730 13:09:43.320595 28501 net.cpp:443] loss <- label_data_1_split_0
I0730 13:09:43.320601 28501 net.cpp:398] loss -> loss
I0730 13:09:43.320607 28501 net.cpp:133] Setting up loss
…
I0730 13:09:43.322432 28501 solver.cpp:79] Solver scaffolding done.
I0730 13:09:43.322453 28498 net.cpp:515] Collecting Learning Rate and Weight Decay.
I0730 13:09:43.322469 28498 net.cpp:532] Geting PQC Status For Parameter Blobs.
I0730 13:09:43.322476 28498 net.cpp:556] Geting Prune Threshold For Parameter Blobs.
I0730 13:09:43.322484 28498 net.cpp:273] Network initialization done.
I0730 13:09:43.322486 28498 net.cpp:274] Memory required for data: 1866760008
I0730 13:09:43.322928 28500 solver.cpp:79] Solver scaffolding done.
I0730 13:09:43.323303 28498 solver.cpp:79] Solver scaffolding done.
I0730 13:09:43.374040 28499 net.cpp:140] Top shape: 1 256 1 70000 (17920000)
I0730 13:09:43.374060 28499 layer_factory.hpp:76] Creating layer bn5
I0730 13:09:43.374076 28499 net.cpp:98] Creating Layer bn5
I0730 13:09:43.374083 28499 net.cpp:443] bn5 <- conv5
I0730 13:09:43.374092 28499 net.cpp:398] bn5 -> bn5
I0730 13:09:43.374099 28499 net.cpp:133] Setting up bn5
I0730 13:09:43.374215 28499 net.cpp:140] Top shape: 1 256 1 70000 (17920000)
I0730 13:09:43.374228 28499 layer_factory.hpp:76] Creating layer relu5
I0730 13:09:43.374238 28499 net.cpp:98] Creating Layer relu5
I0730 13:09:43.374241 28499 net.cpp:443] relu5 <- bn5
I0730 13:09:43.374248 28499 net.cpp:387] relu5 -> bn5 (in-place)
I0730 13:09:43.374254 28499 net.cpp:133] Setting up relu5
I0730 13:09:43.374564 28499 net.cpp:140] Top shape: 1 256 1 70000 (17920000)
I0730 13:09:43.374575 28499 layer_factory.hpp:76] Creating layer bn5_relu5_0_split
I0730 13:09:43.374585 28499 net.cpp:98] Creating Layer bn5_relu5_0_split
I0730 13:09:43.374590 28499 net.cpp:443] bn5_relu5_0_split <- bn5
I0730 13:09:43.374595 28499 net.cpp:398] bn5_relu5_0_split -> bn5_relu5_0_split_0
I0730 13:09:43.374604 28499 net.cpp:398] bn5_relu5_0_split -> bn5_relu5_0_split_1
I0730 13:09:43.374611 28499 net.cpp:398] bn5_relu5_0_split -> bn5_relu5_0_split_2
I0730 13:09:43.374616 28499 net.cpp:133] Setting up bn5_relu5_0_split
I0730 13:09:43.374624 28499 net.cpp:140] Top shape: 1 256 1 70000 (17920000)
I0730 13:09:43.374627 28499 net.cpp:140] Top shape: 1 256 1 70000 (17920000)
I0730 13:09:43.374631 28499 net.cpp:140] Top shape: 1 256 1 70000 (17920000)
I0730 13:09:43.374636 28499 layer_factory.hpp:76] Creating layer fconv5
I0730 13:09:43.374646 28499 net.cpp:98] Creating Layer fconv5
I0730 13:09:43.374650 28499 net.cpp:443] fconv5 <- bn5_relu5_0_split_0
I0730 13:09:43.374658 28499 net.cpp:398] fconv5 -> fconv5
I0730 13:09:43.374665 28499 net.cpp:133] Setting up fconv5
I0730 13:09:43.376895 28499 net.cpp:140] Top shape: 1 3 1 70000 (210000)
I0730 13:09:43.376912 28499 layer_factory.hpp:76] Creating layer fbn5
I0730 13:09:43.376922 28499 net.cpp:98] Creating Layer fbn5
I0730 13:09:43.376929 28499 net.cpp:443] fbn5 <- fconv5
I0730 13:09:43.376935 28499 net.cpp:398] fbn5 -> fbn5
I0730 13:09:43.376942 28499 net.cpp:133] Setting up fbn5
I0730 13:09:43.377063 28499 net.cpp:140] Top shape: 1 3 1 70000 (210000)
I0730 13:09:43.377074 28499 layer_factory.hpp:76] Creating layer frelu5
I0730 13:09:43.377085 28499 net.cpp:98] Creating Layer frelu5
I0730 13:09:43.377089 28499 net.cpp:443] frelu5 <- fbn5
I0730 13:09:43.377094 28499 net.cpp:387] frelu5 -> fbn5 (in-place)
I0730 13:09:43.377099 28499 net.cpp:133] Setting up frelu5
I0730 13:09:43.377316 28499 net.cpp:140] Top shape: 1 3 1 70000 (210000)
I0730 13:09:43.377326 28499 layer_factory.hpp:76] Creating layer data_lattice4
I0730 13:09:43.377387 28499 net.cpp:98] Creating Layer data_lattice4
I0730 13:09:43.377395 28499 net.cpp:443] data_lattice4 <- data_data_0_split_5
I0730 13:09:43.377403 28499 net.cpp:398] data_lattice4 -> data_lattice4
I0730 13:09:43.377410 28499 net.cpp:133] Setting up data_lattice4
I0730 13:09:43.377769 28499 net.cpp:140] Top shape: 1 3 1 70000 (210000)
I0730 13:09:43.377787 28499 layer_factory.hpp:76] Creating layer feat5
I0730 13:09:43.377794 28499 net.cpp:98] Creating Layer feat5
I0730 13:09:43.377806 28499 net.cpp:443] feat5 <- data_lattice4
I0730 13:09:43.377811 28499 net.cpp:443] feat5 <- fbn5
I0730 13:09:43.377817 28499 net.cpp:398] feat5 -> feat5
I0730 13:09:43.377825 28499 net.cpp:133] Setting up feat5
I0730 13:09:43.377832 28499 net.cpp:140] Top shape: 1 3 1 70000 (210000)
I0730 13:09:43.377835 28499 layer_factory.hpp:76] Creating layer feat5_feat5_0_split
I0730 13:09:43.377845 28499 net.cpp:98] Creating Layer feat5_feat5_0_split
I0730 13:09:43.377849 28499 net.cpp:443] feat5_feat5_0_split <- feat5
I0730 13:09:43.377854 28499 net.cpp:398] feat5_feat5_0_split -> feat5_feat5_0_split_0
I0730 13:09:43.377866 28499 net.cpp:398] feat5_feat5_0_split -> feat5_feat5_0_split_1
I0730 13:09:43.377874 28499 net.cpp:133] Setting up feat5_feat5_0_split
I0730 13:09:43.377880 28499 net.cpp:140] Top shape: 1 3 1 70000 (210000)
I0730 13:09:43.377887 28499 net.cpp:140] Top shape: 1 3 1 70000 (210000)
I0730 13:09:43.377889 28499 layer_factory.hpp:76] Creating layer conv6
I0730 13:09:43.377898 28499 net.cpp:98] Creating Layer conv6
I0730 13:09:43.377902 28499 net.cpp:443] conv6 <- bn5_relu5_0_split_1
I0730 13:09:43.377907 28499 net.cpp:443] conv6 <- feat5_feat5_0_split_0
I0730 13:09:43.377912 28499 net.cpp:443] conv6 <- feat5_feat5_0_split_1
I0730 13:09:43.377919 28499 net.cpp:398] conv6 -> conv6
I0730 13:09:43.377926 28499 net.cpp:133] Setting up conv6
I0730 13:09:43.409584 28499 net.cpp:140] Top shape: 1 256 1 70000 (17920000)
I0730 13:09:43.409615 28499 layer_factory.hpp:76] Creating layer bn6
I0730 13:09:43.409633 28499 net.cpp:98] Creating Layer bn6
I0730 13:09:43.409641 28499 net.cpp:443] bn6 <- conv6
I0730 13:09:43.409651 28499 net.cpp:398] bn6 -> bn6
I0730 13:09:43.409659 28499 net.cpp:133] Setting up bn6
I0730 13:09:43.409721 28499 net.cpp:140] Top shape: 1 256 1 70000 (17920000)
I0730 13:09:43.409732 28499 layer_factory.hpp:76] Creating layer relu6
I0730 13:09:43.409742 28499 net.cpp:98] Creating Layer relu6
I0730 13:09:43.409747 28499 net.cpp:443] relu6 <- bn6
I0730 13:09:43.409754 28499 net.cpp:387] relu6 -> bn6 (in-place)
I0730 13:09:43.409759 28499 net.cpp:133] Setting up relu6
I0730 13:09:43.410764 28499 net.cpp:140] Top shape: 1 256 1 70000 (17920000)
I0730 13:09:43.410781 28499 layer_factory.hpp:76] Creating layer concat6
I0730 13:09:43.410792 28499 net.cpp:98] Creating Layer concat6
I0730 13:09:43.410797 28499 net.cpp:443] concat6 <- bn6
I0730 13:09:43.410804 28499 net.cpp:443] concat6 <- bn2_relu2_0_split_2
I0730 13:09:43.410809 28499 net.cpp:443] concat6 <- bn3_relu3_0_split_2
I0730 13:09:43.410815 28499 net.cpp:443] concat6 <- bn4_relu4_0_split_2
I0730 13:09:43.410820 28499 net.cpp:443] concat6 <- bn5_relu5_0_split_2
I0730 13:09:43.410825 28499 net.cpp:398] concat6 -> concat6
I0730 13:09:43.410833 28499 net.cpp:133] Setting up concat6
I0730 13:09:43.410842 28499 net.cpp:140] Top shape: 1 960 1 70000 (67200000)
I0730 13:09:43.410846 28499 layer_factory.hpp:76] Creating layer conv7
I0730 13:09:43.410856 28499 net.cpp:98] Creating Layer conv7
I0730 13:09:43.410861 28499 net.cpp:443] conv7 <- concat6
I0730 13:09:43.410867 28499 net.cpp:398] conv7 -> conv7
I0730 13:09:43.410876 28499 net.cpp:133] Setting up conv7
I0730 13:09:43.412716 28499 net.cpp:140] Top shape: 1 128 1 70000 (8960000)
I0730 13:09:43.412732 28499 layer_factory.hpp:76] Creating layer bn7
I0730 13:09:43.412747 28499 net.cpp:98] Creating Layer bn7
I0730 13:09:43.412752 28499 net.cpp:443] bn7 <- conv7
I0730 13:09:43.412760 28499 net.cpp:398] bn7 -> bn7
I0730 13:09:43.412766 28499 net.cpp:133] Setting up bn7
I0730 13:09:43.412873 28499 net.cpp:140] Top shape: 1 128 1 70000 (8960000)
I0730 13:09:43.412884 28499 layer_factory.hpp:76] Creating layer relu7
I0730 13:09:43.412892 28499 net.cpp:98] Creating Layer relu7
I0730 13:09:43.412897 28499 net.cpp:443] relu7 <- bn7
I0730 13:09:43.412902 28499 net.cpp:387] relu7 -> bn7 (in-place)
I0730 13:09:43.412907 28499 net.cpp:133] Setting up relu7
I0730 13:09:43.413121 28499 net.cpp:140] Top shape: 1 128 1 70000 (8960000)
I0730 13:09:43.413131 28499 layer_factory.hpp:76] Creating layer conv8
I0730 13:09:43.413142 28499 net.cpp:98] Creating Layer conv8
I0730 13:09:43.413147 28499 net.cpp:443] conv8 <- bn7
I0730 13:09:43.413156 28499 net.cpp:398] conv8 -> conv8
I0730 13:09:43.413162 28499 net.cpp:133] Setting up conv8
I0730 13:09:43.414755 28499 net.cpp:140] Top shape: 1 13 1 70000 (910000)
I0730 13:09:43.414772 28499 layer_factory.hpp:76] Creating layer conv8_conv8_0_split
I0730 13:09:43.414783 28499 net.cpp:98] Creating Layer conv8_conv8_0_split
I0730 13:09:43.414788 28499 net.cpp:443] conv8_conv8_0_split <- conv8
I0730 13:09:43.414796 28499 net.cpp:398] conv8_conv8_0_split -> conv8_conv8_0_split_0
I0730 13:09:43.414804 28499 net.cpp:398] conv8_conv8_0_split -> conv8_conv8_0_split_1
I0730 13:09:43.414811 28499 net.cpp:133] Setting up conv8_conv8_0_split
I0730 13:09:43.414819 28499 net.cpp:140] Top shape: 1 13 1 70000 (910000)
I0730 13:09:43.414824 28499 net.cpp:140] Top shape: 1 13 1 70000 (910000)
I0730 13:09:43.414827 28499 layer_factory.hpp:76] Creating layer loss
I0730 13:09:43.414837 28499 net.cpp:98] Creating Layer loss
I0730 13:09:43.414841 28499 net.cpp:443] loss <- conv8_conv8_0_split_0
I0730 13:09:43.414846 28499 net.cpp:443] loss <- label_data_1_split_0
I0730 13:09:43.414856 28499 net.cpp:398] loss -> loss
I0730 13:09:43.414862 28499 net.cpp:133] Setting up loss
…
