…
I0803 23:16:40.422230 27789 net.cpp:294] The NetState phase (0) differed from the phase (1) specified by a rule in layer data
I0803 23:16:40.423013 27789 net.cpp:51] Initializing net from parameters: 
state {
  phase: TRAIN
}
layer {
  name: "data"
  type: "Python"
  top: "data"
  top: "label"
  include {
    phase: TRAIN
  }
  python_param {
    module: "dataset_lidar"
    layer: "InputShapenet"
    param_str: "{\'sample_size\': 8192, \'test_area\': \'6\', \'batch_size\': 12, \'feat_dims\': \'x_y_z\', \'subset\': \'train\', \'root\': \'../../data/shapenet_ericyi_ply\', \'jitter_xyz\': 0.02, \'jitter_stretch\': 0.1, \'jitter_rotation\': 10.0}"
  }
}
layer {
  name: "data_feat"
  type: "Python"
  bottom: "data"
  top: "data_feat"
  python_param {
    module: "custom_layers"
    layer: "PickAndScale"
    param_str: "0_1_2"
  }
}
layer {
  name: "conv1"
  type: "Convolution"
  bottom: "data_feat"
  top: "conv1"
  param {
    lr_mult: 1
  }
  param {
    lr_mult: 0.1
  }
  convolution_param {
    num_output: 32
    pad: 0
    kernel_size: 1
    stride: 1
    weight_filler {
      type: "xavier"
    }
    bias_filler {
      type: "constant"
      value: 0
    }
  }
}
layer {
  name: "bn1"
  type: "BatchNorm"
  bottom: "conv1"
  top: "bn1"
}
layer {
  name: "relu1"
  type: "ReLU"
  bottom: "bn1"
  top: "bn1"
}
layer {
  name: "fconv1_"
  type: "Convolution"
  bottom: "bn1"
  top: "fconv1_"
  param {
    lr_mult: 1
  }
  param {
    lr_mult: 0.1
  }
  convolution_param {
    num_output: 3
    pad: 0
    kernel_size: 1
    stride: 1
    weight_filler {
      type: "xavier"
    }
    bias_filler {
      type: "constant"
      value: 0
    }
  }
}
layer {
  name: "fbn1"
  type: "BatchNorm"
  bottom: "fconv1_"
  top: "fbn1"
}
layer {
  name: "frelu1"
  type: "ReLU"
  bottom: "fbn1"
  top: "fbn1"
}
layer {
  name: "feat1"
  type: "Eltwise"
  bottom: "data"
  bottom: "fbn1"
  top: "feat1"
  eltwise_param {
    operation: SUM
  }
}
layer {
  name: "data_lattice0"
  type: "Python"
  bottom: "feat1"
  top: "data_lattice0"
  python_param {
    module: "custom_layers"
    layer: "PickAndScale"
    param_str: "0*48_1*48_2*48"
  }
}
layer {
  name: "conv2"
  type: "Permutohedral"
  bottom: "bn1"
  bottom: "data_lattice0"
  bottom: "data_lattice0"
  top: "conv2"
  param {
    lr_mult: 1
    decay_mult: 1
  }
  param {
    lr_mult: 2
    decay_mult: 0
  }
  permutohedral_param {
    num_output: 64
    neighborhood_size: 2
    filter_filler {
      type: "gaussian"
      std: 0.001
    }
    bias_term: true
    bias_filler {
      type: "constant"
      value: 0
    }
    group: 1
    norm_type: AFTER
    offset_type: NONE
  }
}
layer {
  name: "bn2"
  type: "BatchNorm"
  bottom: "conv2"
  top: "bn2"
}
layer {
  name: "relu2"
  type: "ReLU"
  bottom: "bn2"
  top: "bn2"
}
layer {
  name: "fconv2"
  type: "Convolution"
  bottom: "fbn1"
  top: "fconv2"
  param {
    lr_mult: 1
  }
  param {
    lr_mult: 0.1
  }
  convolution_param {
    num_output: 3
    pad: 0
    kernel_size: 1
    stride: 1
    weight_filler {
      type: "xavier"
    }
    bias_filler {
      type: "constant"
      value: 0
    }
  }
}
layer {
  name: "fbn2"
  type: "BatchNorm"
  bottom: "fconv2"
  top: "fbn2"
}
layer {
  name: "frelu2"
  type: "ReLU"
  bottom: "fbn2"
  top: "fbn2"
}
layer {
  name: "feat2"
  type: "Eltwise"
  bottom: "data"
  bottom: "fbn2"
  top: "feat2"
  eltwise_param {
    operation: SUM
  }
}
layer {
  name: "data_lattice1"
  type: "Python"
  bottom: "feat2"
  top: "data_lattice1"
  python_param {
    module: "custom_layers"
    layer: "PickAndScale"
    param_str: "0*24_1*24_2*24"
  }
}
layer {
  name: "conv3"
  type: "Permutohedral"
  bottom: "bn2"
  bottom: "data_lattice1"
  bottom: "data_lattice1"
  top: "conv3"
  param {
    lr_mult: 1
    decay_mult: 1
  }
  param {
    lr_mult: 2
    decay_mult: 0
  }
  permutohedral_param {
    num_output: 128
    neighborhood_size: 2
    filter_filler {
      type: "gaussian"
      std: 0.001
    }
    bias_term: true
    bias_filler {
      type: "constant"
      value: 0
    }
    group: 1
    norm_type: AFTER
    offset_type: NONE
  }
}
layer {
  name: "bn3"
  type: "BatchNorm"
  bottom: "conv3"
  top: "bn3"
}
layer {
  name: "relu3"
  type: "ReLU"
  bottom: "bn3"
  top: "bn3"
}
layer {
  name: "fconv3"
  type: "Convolution"
  bottom: "fbn2"
  top: "fconv3"
  param {
    lr_mult: 1
  }
  param {
    lr_mult: 0.1
  }
  convolution_param {
    num_output: 3
    pad: 0
    kernel_size: 1
    stride: 1
    weight_filler {
      type: "xavier"
    }
    bias_filler {
      type: "constant"
      value: 0
    }
  }
}
layer {
  name: "fbn3"
  type: "BatchNorm"
  bottom: "fconv3"
  top: "fbn3"
}
layer {
  name: "frelu3"
  type: "ReLU"
  bottom: "fbn3"
  top: "fbn3"
}
layer {
  name: "feat3"
  type: "Eltwise"
  bottom: "data"
  bottom: "fbn3"
  top: "feat3"
  eltwise_param {
    operation: SUM
  }
}
layer {
  name: "data_lattice2"
  type: "Python"
  bottom: "feat3"
  top: "data_lattice2"
  python_param {
    module: "custom_layers"
    layer: "PickAndScale"
    param_str: "0*12_1*12_2*12"
  }
}
layer {
  name: "conv4"
  type: "Permutohedral"
  bottom: "bn3"
  bottom: "data_lattice2"
  bottom: "data_lattice2"
  top: "conv4"
  param {
    lr_mult: 1
    decay_mult: 1
  }
  param {
    lr_mult: 2
    decay_mult: 0
  }
  permutohedral_param {
    num_output: 256
    neighborhood_size: 2
    filter_filler {
      type: "gaussian"
      std: 0.001
    }
    bias_term: true
    bias_filler {
      type: "constant"
      value: 0
    }
    group: 1
    norm_type: AFTER
    offset_type: NONE
  }
}
layer {
  name: "bn4"
  type: "BatchNorm"
  bottom: "conv4"
  top: "bn4"
}
layer {
  name: "relu4"
  type: "ReLU"
  bottom: "bn4"
  top: "bn4"
}
layer {
  name: "fconv4"
  type: "Convolution"
  bottom: "fbn3"
  top: "fconv4"
  param {
    lr_mult: 1
  }
  param {
    lr_mult: 0.1
  }
  convolution_param {
    num_output: 3
    pad: 0
    kernel_size: 1
    stride: 1
    weight_filler {
      type: "xavier"
    }
    bias_filler {
      type: "constant"
      value: 0
    }
  }
}
layer {
  name: "fbn4"
  type: "BatchNorm"
  bottom: "fconv4"
  top: "fbn4"
}
layer {
  name: "frelu4"
  type: "ReLU"
  bottom: "fbn4"
  top: "fbn4"
}
layer {
  name: "feat4"
  type: "Eltwise"
  bottom: "data"
  bottom: "fbn4"
  top: "feat4"
  eltwise_param {
    operation: SUM
  }
}
layer {
  name: "data_lattice3"
  type: "Python"
  bottom: "feat4"
  top: "data_lattice3"
  python_param {
    module: "custom_layers"
    layer: "PickAndScale"
    param_str: "0*6_1*6_2*6"
  }
}
layer {
  name: "conv5"
  type: "Permutohedral"
  bottom: "bn4"
  bottom: "data_lattice3"
  bottom: "data_lattice3"
  top: "conv5"
  param {
    lr_mult: 1
    decay_mult: 1
  }
  param {
    lr_mult: 2
    decay_mult: 0
  }
  permutohedral_param {
    num_output: 256
    neighborhood_size: 2
    filter_filler {
      type: "gaussian"
      std: 0.001
    }
    bias_term: true
    bias_filler {
      type: "constant"
      value: 0
    }
    group: 1
    norm_type: AFTER
    offset_type: NONE
  }
}
layer {
  name: "bn5"
  type: "BatchNorm"
  bottom: "conv5"
  top: "bn5"
}
layer {
  name: "relu5"
  type: "ReLU"
  bottom: "bn5"
  top: "bn5"
}
layer {
  name: "fconv5"
  type: "Convolution"
  bottom: "fbn4"
  top: "fconv5"
  param {
    lr_mult: 1
  }
  param {
    lr_mult: 0.1
  }
  convolution_param {
    num_output: 3
    pad: 0
    kernel_size: 1
    stride: 1
    weight_filler {
      type: "xavier"
    }
    bias_filler {
      type: "constant"
      value: 0
    }
  }
}
layer {
  name: "fbn5"
  type: "BatchNorm"
  bottom: "fconv5"
  top: "fbn5"
}
layer {
  name: "frelu5"
  type: "ReLU"
  bottom: "fbn5"
  top: "fbn5"
}
layer {
  name: "feat5"
  type: "Eltwise"
  bottom: "data"
  bottom: "fbn5"
  top: "feat5"
  eltwise_param {
    operation: SUM
  }
}
layer {
  name: "data_lattice4"
  type: "Python"
  bottom: "feat5"
  top: "data_lattice4"
  python_param {
    module: "custom_layers"
    layer: "PickAndScale"
    param_str: "0*3_1*3_2*3"
  }
}
layer {
  name: "conv6"
  type: "Permutohedral"
  bottom: "bn5"
  bottom: "data_lattice4"
  bottom: "data_lattice4"
  top: "conv6"
  param {
    lr_mult: 1
    decay_mult: 1
  }
  param {
    lr_mult: 2
    decay_mult: 0
  }
  permutohedral_param {
    num_output: 256
    neighborhood_size: 2
    filter_filler {
      type: "gaussian"
      std: 0.001
    }
    bias_term: true
    bias_filler {
      type: "constant"
      value: 0
    }
    group: 1
    norm_type: AFTER
    offset_type: NONE
  }
}
layer {
  name: "bn6"
  type: "BatchNorm"
  bottom: "conv6"
  top: "bn6"
}
layer {
  name: "relu6"
  type: "ReLU"
  bottom: "bn6"
  top: "bn6"
}
layer {
  name: "concat6"
  type: "Concat"
  bottom: "bn6"
  bottom: "bn2"
  bottom: "bn3"
  bottom: "bn4"
  bottom: "bn5"
  top: "concat6"
}
layer {
  name: "conv7"
  type: "Convolution"
  bottom: "concat6"
  top: "conv7"
  param {
    lr_mult: 1
  }
  param {
    lr_mult: 0.1
  }
  convolution_param {
    num_output: 128
    pad: 0
    kernel_size: 1
    stride: 1
    weight_filler {
      type: "xavier"
    }
    bias_filler {
      type: "constant"
      value: 0
    }
  }
}
layer {
  name: "bn7"
  type: "BatchNorm"
  bottom: "conv7"
  top: "bn7"
}
layer {
  name: "relu7"
  type: "ReLU"
  bottom: "bn7"
  top: "bn7"
}
layer {
  name: "conv8"
  type: "Convolution"
  bottom: "bn7"
  top: "conv8"
  param {
    lr_mult: 1
  }
  param {
    lr_mult: 0.1
  }
  convolution_param {
    num_output: 13
    pad: 0
    kernel_size: 1
    stride: 1
    weight_filler {
      type: "xavier"
    }
    bias_filler {
      type: "constant"
      value: 0
    }
  }
}
layer {
  name: "loss"
  type: "SoftmaxWithLoss"
  bottom: "conv8"
  bottom: "label"
  top: "loss"
}
layer {
  name: "accuracy"
  type: "Accuracy"
  bottom: "conv8"
  bottom: "label"
  top: "accuracy"
}
I0803 23:16:40.440958 27789 layer_factory.hpp:77] Creating layer data
I0803 23:16:40.463860 27789 net.cpp:84] Creating Layer data
I0803 23:16:40.463927 27789 net.cpp:380] data -> data
I0803 23:16:40.464658 27789 net.cpp:380] data -> label
I0803 23:21:04.687757 27789 net.cpp:122] Setting up data
I0803 23:21:04.724298 27789 net.cpp:129] Top shape: 12 3 1 8192 (294912)
I0803 23:21:04.724337 27789 net.cpp:129] Top shape: 12 1 1 8192 (98304)
I0803 23:21:04.724345 27789 net.cpp:137] Memory required for data: 1572864
I0803 23:21:04.745880 27789 layer_factory.hpp:77] Creating layer data_data_0_split
I0803 23:21:04.834461 27789 net.cpp:84] Creating Layer data_data_0_split
I0803 23:21:04.860913 27789 net.cpp:406] data_data_0_split <- data
I0803 23:21:04.862016 27789 net.cpp:380] data_data_0_split -> data_data_0_split_0
I0803 23:21:04.903538 27789 net.cpp:380] data_data_0_split -> data_data_0_split_1
I0803 23:21:04.903585 27789 net.cpp:380] data_data_0_split -> data_data_0_split_2
I0803 23:21:04.903609 27789 net.cpp:380] data_data_0_split -> data_data_0_split_3
I0803 23:21:04.903621 27789 net.cpp:380] data_data_0_split -> data_data_0_split_4
I0803 23:21:04.903640 27789 net.cpp:380] data_data_0_split -> data_data_0_split_5
I0803 23:21:04.914808 27789 net.cpp:122] Setting up data_data_0_split
I0803 23:21:04.914867 27789 net.cpp:129] Top shape: 12 3 1 8192 (294912)
I0803 23:21:04.914880 27789 net.cpp:129] Top shape: 12 3 1 8192 (294912)
I0803 23:21:04.914889 27789 net.cpp:129] Top shape: 12 3 1 8192 (294912)
I0803 23:21:04.914898 27789 net.cpp:129] Top shape: 12 3 1 8192 (294912)
I0803 23:21:04.914906 27789 net.cpp:129] Top shape: 12 3 1 8192 (294912)
I0803 23:21:04.914914 27789 net.cpp:129] Top shape: 12 3 1 8192 (294912)
I0803 23:21:04.914921 27789 net.cpp:137] Memory required for data: 8650752
I0803 23:21:04.914932 27789 layer_factory.hpp:77] Creating layer label_data_1_split
I0803 23:21:04.914958 27789 net.cpp:84] Creating Layer label_data_1_split
I0803 23:21:04.914969 27789 net.cpp:406] label_data_1_split <- label
I0803 23:21:04.914985 27789 net.cpp:380] label_data_1_split -> label_data_1_split_0
I0803 23:21:04.915004 27789 net.cpp:380] label_data_1_split -> label_data_1_split_1
I0803 23:21:04.915072 27789 net.cpp:122] Setting up label_data_1_split
I0803 23:21:04.915089 27789 net.cpp:129] Top shape: 12 1 1 8192 (98304)
I0803 23:21:04.915097 27789 net.cpp:129] Top shape: 12 1 1 8192 (98304)
I0803 23:21:04.915104 27789 net.cpp:137] Memory required for data: 9437184
I0803 23:21:04.915112 27789 layer_factory.hpp:77] Creating layer data_feat
I0803 23:21:04.950433 27789 net.cpp:84] Creating Layer data_feat
I0803 23:21:04.950469 27789 net.cpp:406] data_feat <- data_data_0_split_0
I0803 23:21:04.950487 27789 net.cpp:380] data_feat -> data_feat
I0803 23:21:04.953341 27789 net.cpp:122] Setting up data_feat
I0803 23:21:04.953375 27789 net.cpp:129] Top shape: 12 3 1 8192 (294912)
I0803 23:21:04.953383 27789 net.cpp:137] Memory required for data: 10616832
I0803 23:21:04.953392 27789 layer_factory.hpp:77] Creating layer conv1
I0803 23:21:04.974741 27789 net.cpp:84] Creating Layer conv1
I0803 23:21:04.974766 27789 net.cpp:406] conv1 <- data_feat
I0803 23:21:04.974782 27789 net.cpp:380] conv1 -> conv1
I0803 23:21:12.350508 27789 net.cpp:122] Setting up conv1
I0803 23:21:12.350576 27789 net.cpp:129] Top shape: 12 32 1 8192 (3145728)
I0803 23:21:12.350587 27789 net.cpp:137] Memory required for data: 23199744
I0803 23:21:12.359012 27789 layer_factory.hpp:77] Creating layer bn1
I0803 23:21:12.372119 27789 net.cpp:84] Creating Layer bn1
I0803 23:21:12.372174 27789 net.cpp:406] bn1 <- conv1
I0803 23:21:12.372200 27789 net.cpp:380] bn1 -> bn1
I0803 23:21:12.420572 27789 net.cpp:122] Setting up bn1
I0803 23:21:12.420648 27789 net.cpp:129] Top shape: 12 32 1 8192 (3145728)
I0803 23:21:12.420658 27789 net.cpp:137] Memory required for data: 35782656
I0803 23:21:12.420696 27789 layer_factory.hpp:77] Creating layer relu1
I0803 23:21:12.445134 27789 net.cpp:84] Creating Layer relu1
I0803 23:21:12.445176 27789 net.cpp:406] relu1 <- bn1
I0803 23:21:12.445195 27789 net.cpp:367] relu1 -> bn1 (in-place)
I0803 23:21:12.464165 27789 net.cpp:122] Setting up relu1
I0803 23:21:12.464238 27789 net.cpp:129] Top shape: 12 32 1 8192 (3145728)
I0803 23:21:12.464248 27789 net.cpp:137] Memory required for data: 48365568
I0803 23:21:12.464263 27789 layer_factory.hpp:77] Creating layer bn1_relu1_0_split
I0803 23:21:12.464287 27789 net.cpp:84] Creating Layer bn1_relu1_0_split
I0803 23:21:12.464298 27789 net.cpp:406] bn1_relu1_0_split <- bn1
I0803 23:21:12.464326 27789 net.cpp:380] bn1_relu1_0_split -> bn1_relu1_0_split_0
I0803 23:21:12.464347 27789 net.cpp:380] bn1_relu1_0_split -> bn1_relu1_0_split_1
I0803 23:21:12.464455 27789 net.cpp:122] Setting up bn1_relu1_0_split
I0803 23:21:12.464476 27789 net.cpp:129] Top shape: 12 32 1 8192 (3145728)
I0803 23:21:12.464486 27789 net.cpp:129] Top shape: 12 32 1 8192 (3145728)
I0803 23:21:12.464493 27789 net.cpp:137] Memory required for data: 73531392
I0803 23:21:12.464500 27789 layer_factory.hpp:77] Creating layer fconv1_
I0803 23:21:12.464534 27789 net.cpp:84] Creating Layer fconv1_
I0803 23:21:12.464546 27789 net.cpp:406] fconv1_ <- bn1_relu1_0_split_0
I0803 23:21:12.464562 27789 net.cpp:380] fconv1_ -> fconv1_
I0803 23:21:12.468904 27789 net.cpp:122] Setting up fconv1_
I0803 23:21:12.468941 27789 net.cpp:129] Top shape: 12 3 1 8192 (294912)
I0803 23:21:12.468951 27789 net.cpp:137] Memory required for data: 74711040
I0803 23:21:12.468969 27789 layer_factory.hpp:77] Creating layer fbn1
I0803 23:21:12.468986 27789 net.cpp:84] Creating Layer fbn1
I0803 23:21:12.468997 27789 net.cpp:406] fbn1 <- fconv1_
I0803 23:21:12.469010 27789 net.cpp:380] fbn1 -> fbn1
I0803 23:21:12.469461 27789 net.cpp:122] Setting up fbn1
I0803 23:21:12.469483 27789 net.cpp:129] Top shape: 12 3 1 8192 (294912)
I0803 23:21:12.469491 27789 net.cpp:137] Memory required for data: 75890688
I0803 23:21:12.469521 27789 layer_factory.hpp:77] Creating layer frelu1
I0803 23:21:12.469537 27789 net.cpp:84] Creating Layer frelu1
I0803 23:21:12.469545 27789 net.cpp:406] frelu1 <- fbn1
I0803 23:21:12.469558 27789 net.cpp:367] frelu1 -> fbn1 (in-place)
I0803 23:21:12.470209 27789 net.cpp:122] Setting up frelu1
I0803 23:21:12.470237 27789 net.cpp:129] Top shape: 12 3 1 8192 (294912)
I0803 23:21:12.470245 27789 net.cpp:137] Memory required for data: 77070336
I0803 23:21:12.470253 27789 layer_factory.hpp:77] Creating layer fbn1_frelu1_0_split
I0803 23:21:12.470268 27789 net.cpp:84] Creating Layer fbn1_frelu1_0_split
I0803 23:21:12.470276 27789 net.cpp:406] fbn1_frelu1_0_split <- fbn1
I0803 23:21:12.470289 27789 net.cpp:380] fbn1_frelu1_0_split -> fbn1_frelu1_0_split_0
I0803 23:21:12.470305 27789 net.cpp:380] fbn1_frelu1_0_split -> fbn1_frelu1_0_split_1
I0803 23:21:12.470389 27789 net.cpp:122] Setting up fbn1_frelu1_0_split
I0803 23:21:12.470407 27789 net.cpp:129] Top shape: 12 3 1 8192 (294912)
I0803 23:21:12.470415 27789 net.cpp:129] Top shape: 12 3 1 8192 (294912)
I0803 23:21:12.470422 27789 net.cpp:137] Memory required for data: 79429632
I0803 23:21:12.470429 27789 layer_factory.hpp:77] Creating layer feat1
I0803 23:21:12.471520 27789 net.cpp:84] Creating Layer feat1
I0803 23:21:12.471555 27789 net.cpp:406] feat1 <- data_data_0_split_1
I0803 23:21:12.471571 27789 net.cpp:406] feat1 <- fbn1_frelu1_0_split_0
I0803 23:21:12.471587 27789 net.cpp:380] feat1 -> feat1
I0803 23:21:12.472295 27789 net.cpp:122] Setting up feat1
I0803 23:21:12.472333 27789 net.cpp:129] Top shape: 12 3 1 8192 (294912)
I0803 23:21:12.472342 27789 net.cpp:137] Memory required for data: 80609280
I0803 23:21:12.472352 27789 layer_factory.hpp:77] Creating layer data_lattice0
I0803 23:21:12.472460 27789 net.cpp:84] Creating Layer data_lattice0
I0803 23:21:12.472481 27789 net.cpp:406] data_lattice0 <- feat1
I0803 23:21:12.472497 27789 net.cpp:380] data_lattice0 -> data_lattice0
I0803 23:21:12.475226 27789 net.cpp:122] Setting up data_lattice0
I0803 23:21:12.475261 27789 net.cpp:129] Top shape: 12 3 1 8192 (294912)
I0803 23:21:12.475270 27789 net.cpp:137] Memory required for data: 81788928
I0803 23:21:12.475280 27789 layer_factory.hpp:77] Creating layer data_lattice0_data_lattice0_0_split
I0803 23:21:12.475294 27789 net.cpp:84] Creating Layer data_lattice0_data_lattice0_0_split
I0803 23:21:12.475303 27789 net.cpp:406] data_lattice0_data_lattice0_0_split <- data_lattice0
I0803 23:21:12.475317 27789 net.cpp:380] data_lattice0_data_lattice0_0_split -> data_lattice0_data_lattice0_0_split_0
I0803 23:21:12.475333 27789 net.cpp:380] data_lattice0_data_lattice0_0_split -> data_lattice0_data_lattice0_0_split_1
I0803 23:21:12.475411 27789 net.cpp:122] Setting up data_lattice0_data_lattice0_0_split
I0803 23:21:12.475428 27789 net.cpp:129] Top shape: 12 3 1 8192 (294912)
I0803 23:21:12.475436 27789 net.cpp:129] Top shape: 12 3 1 8192 (294912)
I0803 23:21:12.475442 27789 net.cpp:137] Memory required for data: 84148224
I0803 23:21:12.475452 27789 layer_factory.hpp:77] Creating layer conv2
I0803 23:21:12.475986 27789 net.cpp:84] Creating Layer conv2
I0803 23:21:12.476019 27789 net.cpp:406] conv2 <- bn1_relu1_0_split_1
I0803 23:21:12.476033 27789 net.cpp:406] conv2 <- data_lattice0_data_lattice0_0_split_0
I0803 23:21:12.476042 27789 net.cpp:406] conv2 <- data_lattice0_data_lattice0_0_split_1
I0803 23:21:12.476058 27789 net.cpp:380] conv2 -> conv2
I0803 23:21:12.487172 27789 net.cpp:122] Setting up conv2
I0803 23:21:12.487210 27789 net.cpp:129] Top shape: 12 64 1 8192 (6291456)
I0803 23:21:12.487218 27789 net.cpp:137] Memory required for data: 109314048
I0803 23:21:12.487234 27789 layer_factory.hpp:77] Creating layer bn2
I0803 23:21:12.487252 27789 net.cpp:84] Creating Layer bn2
I0803 23:21:12.487262 27789 net.cpp:406] bn2 <- conv2
I0803 23:21:12.487277 27789 net.cpp:380] bn2 -> bn2
I0803 23:21:12.487707 27789 net.cpp:122] Setting up bn2
I0803 23:21:12.487726 27789 net.cpp:129] Top shape: 12 64 1 8192 (6291456)
I0803 23:21:12.487735 27789 net.cpp:137] Memory required for data: 134479872
I0803 23:21:12.487751 27789 layer_factory.hpp:77] Creating layer relu2
I0803 23:21:12.487767 27789 net.cpp:84] Creating Layer relu2
I0803 23:21:12.487776 27789 net.cpp:406] relu2 <- bn2
I0803 23:21:12.487787 27789 net.cpp:367] relu2 -> bn2 (in-place)
I0803 23:21:12.489102 27789 net.cpp:122] Setting up relu2
I0803 23:21:12.489136 27789 net.cpp:129] Top shape: 12 64 1 8192 (6291456)
I0803 23:21:12.489145 27789 net.cpp:137] Memory required for data: 159645696
I0803 23:21:12.489153 27789 layer_factory.hpp:77] Creating layer bn2_relu2_0_split
I0803 23:21:12.489168 27789 net.cpp:84] Creating Layer bn2_relu2_0_split
I0803 23:21:12.489176 27789 net.cpp:406] bn2_relu2_0_split <- bn2
I0803 23:21:12.489190 27789 net.cpp:380] bn2_relu2_0_split -> bn2_relu2_0_split_0
I0803 23:21:12.489207 27789 net.cpp:380] bn2_relu2_0_split -> bn2_relu2_0_split_1
I0803 23:21:12.489292 27789 net.cpp:122] Setting up bn2_relu2_0_split
I0803 23:21:12.489310 27789 net.cpp:129] Top shape: 12 64 1 8192 (6291456)
I0803 23:21:12.489317 27789 net.cpp:129] Top shape: 12 64 1 8192 (6291456)
I0803 23:21:12.489323 27789 net.cpp:137] Memory required for data: 209977344
I0803 23:21:12.489336 27789 layer_factory.hpp:77] Creating layer fconv2
I0803 23:21:12.489356 27789 net.cpp:84] Creating Layer fconv2
I0803 23:21:12.489368 27789 net.cpp:406] fconv2 <- fbn1_frelu1_0_split_1
I0803 23:21:12.489384 27789 net.cpp:380] fconv2 -> fconv2
I0803 23:21:12.492385 27789 net.cpp:122] Setting up fconv2
I0803 23:21:12.492419 27789 net.cpp:129] Top shape: 12 3 1 8192 (294912)
I0803 23:21:12.492429 27789 net.cpp:137] Memory required for data: 211156992
I0803 23:21:12.492451 27789 layer_factory.hpp:77] Creating layer fbn2
I0803 23:21:12.492472 27789 net.cpp:84] Creating Layer fbn2
I0803 23:21:12.492482 27789 net.cpp:406] fbn2 <- fconv2
I0803 23:21:12.492494 27789 net.cpp:380] fbn2 -> fbn2
I0803 23:21:12.492935 27789 net.cpp:122] Setting up fbn2
I0803 23:21:12.492956 27789 net.cpp:129] Top shape: 12 3 1 8192 (294912)
I0803 23:21:12.492964 27789 net.cpp:137] Memory required for data: 212336640
I0803 23:21:12.492980 27789 layer_factory.hpp:77] Creating layer frelu2
I0803 23:21:12.492992 27789 net.cpp:84] Creating Layer frelu2
I0803 23:21:12.493000 27789 net.cpp:406] frelu2 <- fbn2
I0803 23:21:12.493010 27789 net.cpp:367] frelu2 -> fbn2 (in-place)
I0803 23:21:12.493605 27789 net.cpp:122] Setting up frelu2
I0803 23:21:12.493630 27789 net.cpp:129] Top shape: 12 3 1 8192 (294912)
I0803 23:21:12.493638 27789 net.cpp:137] Memory required for data: 213516288
I0803 23:21:12.493645 27789 layer_factory.hpp:77] Creating layer fbn2_frelu2_0_split
I0803 23:21:12.493659 27789 net.cpp:84] Creating Layer fbn2_frelu2_0_split
I0803 23:21:12.493666 27789 net.cpp:406] fbn2_frelu2_0_split <- fbn2
I0803 23:21:12.493680 27789 net.cpp:380] fbn2_frelu2_0_split -> fbn2_frelu2_0_split_0
I0803 23:21:12.493693 27789 net.cpp:380] fbn2_frelu2_0_split -> fbn2_frelu2_0_split_1
I0803 23:21:12.493777 27789 net.cpp:122] Setting up fbn2_frelu2_0_split
I0803 23:21:12.493794 27789 net.cpp:129] Top shape: 12 3 1 8192 (294912)
I0803 23:21:12.493803 27789 net.cpp:129] Top shape: 12 3 1 8192 (294912)
I0803 23:21:12.493808 27789 net.cpp:137] Memory required for data: 215875584
I0803 23:21:12.493818 27789 layer_factory.hpp:77] Creating layer feat2
I0803 23:21:12.493832 27789 net.cpp:84] Creating Layer feat2
I0803 23:21:12.493855 27789 net.cpp:406] feat2 <- data_data_0_split_2
I0803 23:21:12.493867 27789 net.cpp:406] feat2 <- fbn2_frelu2_0_split_0
I0803 23:21:12.493880 27789 net.cpp:380] feat2 -> feat2
I0803 23:21:12.493938 27789 net.cpp:122] Setting up feat2
I0803 23:21:12.493954 27789 net.cpp:129] Top shape: 12 3 1 8192 (294912)
I0803 23:21:12.493962 27789 net.cpp:137] Memory required for data: 217055232
I0803 23:21:12.493968 27789 layer_factory.hpp:77] Creating layer data_lattice1
I0803 23:21:12.494037 27789 net.cpp:84] Creating Layer data_lattice1
I0803 23:21:12.494055 27789 net.cpp:406] data_lattice1 <- feat2
I0803 23:21:12.494068 27789 net.cpp:380] data_lattice1 -> data_lattice1
I0803 23:21:12.496608 27789 net.cpp:122] Setting up data_lattice1
I0803 23:21:12.496641 27789 net.cpp:129] Top shape: 12 3 1 8192 (294912)
I0803 23:21:12.496650 27789 net.cpp:137] Memory required for data: 218234880
I0803 23:21:12.496659 27789 layer_factory.hpp:77] Creating layer data_lattice1_data_lattice1_0_split
I0803 23:21:12.496671 27789 net.cpp:84] Creating Layer data_lattice1_data_lattice1_0_split
I0803 23:21:12.496680 27789 net.cpp:406] data_lattice1_data_lattice1_0_split <- data_lattice1
I0803 23:21:12.496692 27789 net.cpp:380] data_lattice1_data_lattice1_0_split -> data_lattice1_data_lattice1_0_split_0
I0803 23:21:12.496707 27789 net.cpp:380] data_lattice1_data_lattice1_0_split -> data_lattice1_data_lattice1_0_split_1
I0803 23:21:12.496781 27789 net.cpp:122] Setting up data_lattice1_data_lattice1_0_split
I0803 23:21:12.496798 27789 net.cpp:129] Top shape: 12 3 1 8192 (294912)
I0803 23:21:12.496805 27789 net.cpp:129] Top shape: 12 3 1 8192 (294912)
I0803 23:21:12.496810 27789 net.cpp:137] Memory required for data: 220594176
I0803 23:21:12.496817 27789 layer_factory.hpp:77] Creating layer conv3
I0803 23:21:12.496835 27789 net.cpp:84] Creating Layer conv3
I0803 23:21:12.496855 27789 net.cpp:406] conv3 <- bn2_relu2_0_split_0
I0803 23:21:12.496866 27789 net.cpp:406] conv3 <- data_lattice1_data_lattice1_0_split_0
I0803 23:21:12.496875 27789 net.cpp:406] conv3 <- data_lattice1_data_lattice1_0_split_1
I0803 23:21:12.496886 27789 net.cpp:380] conv3 -> conv3
I0803 23:21:12.531953 27789 net.cpp:122] Setting up conv3
I0803 23:21:12.532016 27789 net.cpp:129] Top shape: 12 128 1 8192 (12582912)
I0803 23:21:12.532025 27789 net.cpp:137] Memory required for data: 270925824
I0803 23:21:12.532043 27789 layer_factory.hpp:77] Creating layer bn3
I0803 23:21:12.532064 27789 net.cpp:84] Creating Layer bn3
I0803 23:21:12.532074 27789 net.cpp:406] bn3 <- conv3
I0803 23:21:12.532088 27789 net.cpp:380] bn3 -> bn3
I0803 23:21:12.532464 27789 net.cpp:122] Setting up bn3
I0803 23:21:12.532481 27789 net.cpp:129] Top shape: 12 128 1 8192 (12582912)
I0803 23:21:12.532487 27789 net.cpp:137] Memory required for data: 321257472
I0803 23:21:12.532501 27789 layer_factory.hpp:77] Creating layer relu3
I0803 23:21:12.532524 27789 net.cpp:84] Creating Layer relu3
I0803 23:21:12.532531 27789 net.cpp:406] relu3 <- bn3
I0803 23:21:12.532541 27789 net.cpp:367] relu3 -> bn3 (in-place)
I0803 23:21:12.534044 27789 net.cpp:122] Setting up relu3
I0803 23:21:12.534072 27789 net.cpp:129] Top shape: 12 128 1 8192 (12582912)
I0803 23:21:12.534080 27789 net.cpp:137] Memory required for data: 371589120
I0803 23:21:12.534087 27789 layer_factory.hpp:77] Creating layer bn3_relu3_0_split
I0803 23:21:12.534099 27789 net.cpp:84] Creating Layer bn3_relu3_0_split
I0803 23:21:12.534107 27789 net.cpp:406] bn3_relu3_0_split <- bn3
I0803 23:21:12.534123 27789 net.cpp:380] bn3_relu3_0_split -> bn3_relu3_0_split_0
I0803 23:21:12.534138 27789 net.cpp:380] bn3_relu3_0_split -> bn3_relu3_0_split_1
I0803 23:21:12.534211 27789 net.cpp:122] Setting up bn3_relu3_0_split
I0803 23:21:12.534227 27789 net.cpp:129] Top shape: 12 128 1 8192 (12582912)
I0803 23:21:12.534235 27789 net.cpp:129] Top shape: 12 128 1 8192 (12582912)
I0803 23:21:12.534240 27789 net.cpp:137] Memory required for data: 472252416
I0803 23:21:12.534245 27789 layer_factory.hpp:77] Creating layer fconv3
I0803 23:21:12.534267 27789 net.cpp:84] Creating Layer fconv3
I0803 23:21:12.534279 27789 net.cpp:406] fconv3 <- fbn2_frelu2_0_split_1
I0803 23:21:12.534293 27789 net.cpp:380] fconv3 -> fconv3
I0803 23:21:12.536808 27789 net.cpp:122] Setting up fconv3
I0803 23:21:12.536836 27789 net.cpp:129] Top shape: 12 3 1 8192 (294912)
I0803 23:21:12.536855 27789 net.cpp:137] Memory required for data: 473432064
I0803 23:21:12.536869 27789 layer_factory.hpp:77] Creating layer fbn3
I0803 23:21:12.536881 27789 net.cpp:84] Creating Layer fbn3
I0803 23:21:12.536888 27789 net.cpp:406] fbn3 <- fconv3
I0803 23:21:12.536902 27789 net.cpp:380] fbn3 -> fbn3
I0803 23:21:12.537252 27789 net.cpp:122] Setting up fbn3
I0803 23:21:12.537268 27789 net.cpp:129] Top shape: 12 3 1 8192 (294912)
I0803 23:21:12.537274 27789 net.cpp:137] Memory required for data: 474611712
I0803 23:21:12.537287 27789 layer_factory.hpp:77] Creating layer frelu3
I0803 23:21:12.537307 27789 net.cpp:84] Creating Layer frelu3
I0803 23:21:12.537314 27789 net.cpp:406] frelu3 <- fbn3
I0803 23:21:12.537323 27789 net.cpp:367] frelu3 -> fbn3 (in-place)
I0803 23:21:12.537808 27789 net.cpp:122] Setting up frelu3
I0803 23:21:12.537828 27789 net.cpp:129] Top shape: 12 3 1 8192 (294912)
I0803 23:21:12.537835 27789 net.cpp:137] Memory required for data: 475791360
I0803 23:21:12.537852 27789 layer_factory.hpp:77] Creating layer fbn3_frelu3_0_split
I0803 23:21:12.537863 27789 net.cpp:84] Creating Layer fbn3_frelu3_0_split
I0803 23:21:12.537869 27789 net.cpp:406] fbn3_frelu3_0_split <- fbn3
I0803 23:21:12.537880 27789 net.cpp:380] fbn3_frelu3_0_split -> fbn3_frelu3_0_split_0
I0803 23:21:12.537892 27789 net.cpp:380] fbn3_frelu3_0_split -> fbn3_frelu3_0_split_1
I0803 23:21:12.537963 27789 net.cpp:122] Setting up fbn3_frelu3_0_split
I0803 23:21:12.537977 27789 net.cpp:129] Top shape: 12 3 1 8192 (294912)
I0803 23:21:12.537984 27789 net.cpp:129] Top shape: 12 3 1 8192 (294912)
I0803 23:21:12.537989 27789 net.cpp:137] Memory required for data: 478150656
I0803 23:21:12.537994 27789 layer_factory.hpp:77] Creating layer feat3
I0803 23:21:12.538007 27789 net.cpp:84] Creating Layer feat3
I0803 23:21:12.538013 27789 net.cpp:406] feat3 <- data_data_0_split_3
I0803 23:21:12.538022 27789 net.cpp:406] feat3 <- fbn3_frelu3_0_split_0
I0803 23:21:12.538033 27789 net.cpp:380] feat3 -> feat3
I0803 23:21:12.538071 27789 net.cpp:122] Setting up feat3
I0803 23:21:12.538084 27789 net.cpp:129] Top shape: 12 3 1 8192 (294912)
I0803 23:21:12.538089 27789 net.cpp:137] Memory required for data: 479330304
I0803 23:21:12.538098 27789 layer_factory.hpp:77] Creating layer data_lattice2
I0803 23:21:12.538188 27789 net.cpp:84] Creating Layer data_lattice2
I0803 23:21:12.538202 27789 net.cpp:406] data_lattice2 <- feat3
I0803 23:21:12.538213 27789 net.cpp:380] data_lattice2 -> data_lattice2
I0803 23:21:12.540478 27789 net.cpp:122] Setting up data_lattice2
I0803 23:21:12.540508 27789 net.cpp:129] Top shape: 12 3 1 8192 (294912)
I0803 23:21:12.540514 27789 net.cpp:137] Memory required for data: 480509952
I0803 23:21:12.540521 27789 layer_factory.hpp:77] Creating layer data_lattice2_data_lattice2_0_split
I0803 23:21:12.540534 27789 net.cpp:84] Creating Layer data_lattice2_data_lattice2_0_split
I0803 23:21:12.540540 27789 net.cpp:406] data_lattice2_data_lattice2_0_split <- data_lattice2
I0803 23:21:12.540552 27789 net.cpp:380] data_lattice2_data_lattice2_0_split -> data_lattice2_data_lattice2_0_split_0
I0803 23:21:12.540566 27789 net.cpp:380] data_lattice2_data_lattice2_0_split -> data_lattice2_data_lattice2_0_split_1
I0803 23:21:12.540633 27789 net.cpp:122] Setting up data_lattice2_data_lattice2_0_split
I0803 23:21:12.540647 27789 net.cpp:129] Top shape: 12 3 1 8192 (294912)
I0803 23:21:12.540654 27789 net.cpp:129] Top shape: 12 3 1 8192 (294912)
I0803 23:21:12.540659 27789 net.cpp:137] Memory required for data: 482869248
I0803 23:21:12.540664 27789 layer_factory.hpp:77] Creating layer conv4
I0803 23:21:12.540681 27789 net.cpp:84] Creating Layer conv4
I0803 23:21:12.540688 27789 net.cpp:406] conv4 <- bn3_relu3_0_split_0
I0803 23:21:12.540696 27789 net.cpp:406] conv4 <- data_lattice2_data_lattice2_0_split_0
I0803 23:21:12.540704 27789 net.cpp:406] conv4 <- data_lattice2_data_lattice2_0_split_1
I0803 23:21:12.540714 27789 net.cpp:380] conv4 -> conv4
I0803 23:21:12.636850 27789 net.cpp:122] Setting up conv4
I0803 23:21:12.636896 27789 net.cpp:129] Top shape: 12 256 1 8192 (25165824)
I0803 23:21:12.636903 27789 net.cpp:137] Memory required for data: 583532544
I0803 23:21:12.636919 27789 layer_factory.hpp:77] Creating layer bn4
I0803 23:21:12.636934 27789 net.cpp:84] Creating Layer bn4
I0803 23:21:12.636941 27789 net.cpp:406] bn4 <- conv4
I0803 23:21:12.636951 27789 net.cpp:380] bn4 -> bn4
I0803 23:21:12.637197 27789 net.cpp:122] Setting up bn4
I0803 23:21:12.637207 27789 net.cpp:129] Top shape: 12 256 1 8192 (25165824)
I0803 23:21:12.637212 27789 net.cpp:137] Memory required for data: 684195840
I0803 23:21:12.637233 27789 layer_factory.hpp:77] Creating layer relu4
I0803 23:21:12.637240 27789 net.cpp:84] Creating Layer relu4
I0803 23:21:12.637245 27789 net.cpp:406] relu4 <- bn4
I0803 23:21:12.637251 27789 net.cpp:367] relu4 -> bn4 (in-place)
I0803 23:21:12.638312 27789 net.cpp:122] Setting up relu4
I0803 23:21:12.638330 27789 net.cpp:129] Top shape: 12 256 1 8192 (25165824)
I0803 23:21:12.638335 27789 net.cpp:137] Memory required for data: 784859136
I0803 23:21:12.638339 27789 layer_factory.hpp:77] Creating layer bn4_relu4_0_split
I0803 23:21:12.638350 27789 net.cpp:84] Creating Layer bn4_relu4_0_split
I0803 23:21:12.638353 27789 net.cpp:406] bn4_relu4_0_split <- bn4
I0803 23:21:12.638361 27789 net.cpp:380] bn4_relu4_0_split -> bn4_relu4_0_split_0
I0803 23:21:12.638370 27789 net.cpp:380] bn4_relu4_0_split -> bn4_relu4_0_split_1
I0803 23:21:12.638419 27789 net.cpp:122] Setting up bn4_relu4_0_split
I0803 23:21:12.638429 27789 net.cpp:129] Top shape: 12 256 1 8192 (25165824)
I0803 23:21:12.638434 27789 net.cpp:129] Top shape: 12 256 1 8192 (25165824)
I0803 23:21:12.638438 27789 net.cpp:137] Memory required for data: 986185728
I0803 23:21:12.638442 27789 layer_factory.hpp:77] Creating layer fconv4
I0803 23:21:12.638455 27789 net.cpp:84] Creating Layer fconv4
I0803 23:21:12.638463 27789 net.cpp:406] fconv4 <- fbn3_frelu3_0_split_1
I0803 23:21:12.638470 27789 net.cpp:380] fconv4 -> fconv4
I0803 23:21:12.640214 27789 net.cpp:122] Setting up fconv4
I0803 23:21:12.640233 27789 net.cpp:129] Top shape: 12 3 1 8192 (294912)
I0803 23:21:12.640238 27789 net.cpp:137] Memory required for data: 987365376
I0803 23:21:12.640246 27789 layer_factory.hpp:77] Creating layer fbn4
I0803 23:21:12.640259 27789 net.cpp:84] Creating Layer fbn4
I0803 23:21:12.640264 27789 net.cpp:406] fbn4 <- fconv4
I0803 23:21:12.640271 27789 net.cpp:380] fbn4 -> fbn4
I0803 23:21:12.640512 27789 net.cpp:122] Setting up fbn4
I0803 23:21:12.640523 27789 net.cpp:129] Top shape: 12 3 1 8192 (294912)
I0803 23:21:12.640527 27789 net.cpp:137] Memory required for data: 988545024
I0803 23:21:12.640537 27789 layer_factory.hpp:77] Creating layer frelu4
I0803 23:21:12.640543 27789 net.cpp:84] Creating Layer frelu4
I0803 23:21:12.640548 27789 net.cpp:406] frelu4 <- fbn4
I0803 23:21:12.640554 27789 net.cpp:367] frelu4 -> fbn4 (in-place)
I0803 23:21:12.640889 27789 net.cpp:122] Setting up frelu4
I0803 23:21:12.640903 27789 net.cpp:129] Top shape: 12 3 1 8192 (294912)
I0803 23:21:12.640908 27789 net.cpp:137] Memory required for data: 989724672
I0803 23:21:12.640913 27789 layer_factory.hpp:77] Creating layer fbn4_frelu4_0_split
I0803 23:21:12.640919 27789 net.cpp:84] Creating Layer fbn4_frelu4_0_split
I0803 23:21:12.640924 27789 net.cpp:406] fbn4_frelu4_0_split <- fbn4
I0803 23:21:12.640930 27789 net.cpp:380] fbn4_frelu4_0_split -> fbn4_frelu4_0_split_0
I0803 23:21:12.640938 27789 net.cpp:380] fbn4_frelu4_0_split -> fbn4_frelu4_0_split_1
I0803 23:21:12.640986 27789 net.cpp:122] Setting up fbn4_frelu4_0_split
I0803 23:21:12.640995 27789 net.cpp:129] Top shape: 12 3 1 8192 (294912)
I0803 23:21:12.641000 27789 net.cpp:129] Top shape: 12 3 1 8192 (294912)
I0803 23:21:12.641003 27789 net.cpp:137] Memory required for data: 992083968
I0803 23:21:12.641007 27789 layer_factory.hpp:77] Creating layer feat4
I0803 23:21:12.641016 27789 net.cpp:84] Creating Layer feat4
I0803 23:21:12.641021 27789 net.cpp:406] feat4 <- data_data_0_split_4
I0803 23:21:12.641027 27789 net.cpp:406] feat4 <- fbn4_frelu4_0_split_0
I0803 23:21:12.641033 27789 net.cpp:380] feat4 -> feat4
I0803 23:21:12.641062 27789 net.cpp:122] Setting up feat4
I0803 23:21:12.641072 27789 net.cpp:129] Top shape: 12 3 1 8192 (294912)
I0803 23:21:12.641074 27789 net.cpp:137] Memory required for data: 993263616
I0803 23:21:12.641077 27789 layer_factory.hpp:77] Creating layer data_lattice3
I0803 23:21:12.641150 27789 net.cpp:84] Creating Layer data_lattice3
I0803 23:21:12.641160 27789 net.cpp:406] data_lattice3 <- feat4
I0803 23:21:12.641168 27789 net.cpp:380] data_lattice3 -> data_lattice3
I0803 23:21:12.642781 27789 net.cpp:122] Setting up data_lattice3
I0803 23:21:12.642802 27789 net.cpp:129] Top shape: 12 3 1 8192 (294912)
I0803 23:21:12.642805 27789 net.cpp:137] Memory required for data: 994443264
I0803 23:21:12.642810 27789 layer_factory.hpp:77] Creating layer data_lattice3_data_lattice3_0_split
I0803 23:21:12.642819 27789 net.cpp:84] Creating Layer data_lattice3_data_lattice3_0_split
I0803 23:21:12.642824 27789 net.cpp:406] data_lattice3_data_lattice3_0_split <- data_lattice3
I0803 23:21:12.642832 27789 net.cpp:380] data_lattice3_data_lattice3_0_split -> data_lattice3_data_lattice3_0_split_0
I0803 23:21:12.642848 27789 net.cpp:380] data_lattice3_data_lattice3_0_split -> data_lattice3_data_lattice3_0_split_1
I0803 23:21:12.642896 27789 net.cpp:122] Setting up data_lattice3_data_lattice3_0_split
I0803 23:21:12.642906 27789 net.cpp:129] Top shape: 12 3 1 8192 (294912)
I0803 23:21:12.642910 27789 net.cpp:129] Top shape: 12 3 1 8192 (294912)
I0803 23:21:12.642913 27789 net.cpp:137] Memory required for data: 996802560
I0803 23:21:12.642918 27789 layer_factory.hpp:77] Creating layer conv5
I0803 23:21:12.642928 27789 net.cpp:84] Creating Layer conv5
I0803 23:21:12.642932 27789 net.cpp:406] conv5 <- bn4_relu4_0_split_0
I0803 23:21:12.642938 27789 net.cpp:406] conv5 <- data_lattice3_data_lattice3_0_split_0
I0803 23:21:12.642942 27789 net.cpp:406] conv5 <- data_lattice3_data_lattice3_0_split_1
I0803 23:21:12.642949 27789 net.cpp:380] conv5 -> conv5
I0803 23:21:12.808856 27789 net.cpp:122] Setting up conv5
I0803 23:21:12.808909 27789 net.cpp:129] Top shape: 12 256 1 8192 (25165824)
I0803 23:21:12.808915 27789 net.cpp:137] Memory required for data: 1097465856
I0803 23:21:12.808928 27789 layer_factory.hpp:77] Creating layer bn5
I0803 23:21:12.808943 27789 net.cpp:84] Creating Layer bn5
I0803 23:21:12.808951 27789 net.cpp:406] bn5 <- conv5
I0803 23:21:12.808960 27789 net.cpp:380] bn5 -> bn5
I0803 23:21:12.809216 27789 net.cpp:122] Setting up bn5
I0803 23:21:12.809227 27789 net.cpp:129] Top shape: 12 256 1 8192 (25165824)
I0803 23:21:12.809232 27789 net.cpp:137] Memory required for data: 1198129152
I0803 23:21:12.809242 27789 layer_factory.hpp:77] Creating layer relu5
I0803 23:21:12.809257 27789 net.cpp:84] Creating Layer relu5
I0803 23:21:12.809262 27789 net.cpp:406] relu5 <- bn5
I0803 23:21:12.809267 27789 net.cpp:367] relu5 -> bn5 (in-place)
I0803 23:21:12.810343 27789 net.cpp:122] Setting up relu5
I0803 23:21:12.810360 27789 net.cpp:129] Top shape: 12 256 1 8192 (25165824)
I0803 23:21:12.810365 27789 net.cpp:137] Memory required for data: 1298792448
I0803 23:21:12.810370 27789 layer_factory.hpp:77] Creating layer bn5_relu5_0_split
I0803 23:21:12.810379 27789 net.cpp:84] Creating Layer bn5_relu5_0_split
I0803 23:21:12.810384 27789 net.cpp:406] bn5_relu5_0_split <- bn5
I0803 23:21:12.810391 27789 net.cpp:380] bn5_relu5_0_split -> bn5_relu5_0_split_0
I0803 23:21:12.810400 27789 net.cpp:380] bn5_relu5_0_split -> bn5_relu5_0_split_1
I0803 23:21:12.810451 27789 net.cpp:122] Setting up bn5_relu5_0_split
I0803 23:21:12.810461 27789 net.cpp:129] Top shape: 12 256 1 8192 (25165824)
I0803 23:21:12.810467 27789 net.cpp:129] Top shape: 12 256 1 8192 (25165824)
I0803 23:21:12.810469 27789 net.cpp:137] Memory required for data: 1500119040
I0803 23:21:12.810473 27789 layer_factory.hpp:77] Creating layer fconv5
I0803 23:21:12.810488 27789 net.cpp:84] Creating Layer fconv5
I0803 23:21:12.810494 27789 net.cpp:406] fconv5 <- fbn4_frelu4_0_split_1
I0803 23:21:12.810503 27789 net.cpp:380] fconv5 -> fconv5
I0803 23:21:12.812258 27789 net.cpp:122] Setting up fconv5
I0803 23:21:12.812278 27789 net.cpp:129] Top shape: 12 3 1 8192 (294912)
I0803 23:21:12.812283 27789 net.cpp:137] Memory required for data: 1501298688
I0803 23:21:12.812290 27789 layer_factory.hpp:77] Creating layer fbn5
I0803 23:21:12.812299 27789 net.cpp:84] Creating Layer fbn5
I0803 23:21:12.812304 27789 net.cpp:406] fbn5 <- fconv5
I0803 23:21:12.812311 27789 net.cpp:380] fbn5 -> fbn5
I0803 23:21:12.812567 27789 net.cpp:122] Setting up fbn5
I0803 23:21:12.812579 27789 net.cpp:129] Top shape: 12 3 1 8192 (294912)
I0803 23:21:12.812584 27789 net.cpp:137] Memory required for data: 1502478336
I0803 23:21:12.812592 27789 layer_factory.hpp:77] Creating layer frelu5
I0803 23:21:12.812602 27789 net.cpp:84] Creating Layer frelu5
I0803 23:21:12.812608 27789 net.cpp:406] frelu5 <- fbn5
I0803 23:21:12.812613 27789 net.cpp:367] frelu5 -> fbn5 (in-place)
I0803 23:21:12.813340 27789 net.cpp:122] Setting up frelu5
I0803 23:21:12.813359 27789 net.cpp:129] Top shape: 12 3 1 8192 (294912)
I0803 23:21:12.813364 27789 net.cpp:137] Memory required for data: 1503657984
I0803 23:21:12.813367 27789 layer_factory.hpp:77] Creating layer feat5
I0803 23:21:12.813379 27789 net.cpp:84] Creating Layer feat5
I0803 23:21:12.813382 27789 net.cpp:406] feat5 <- data_data_0_split_5
I0803 23:21:12.813388 27789 net.cpp:406] feat5 <- fbn5
I0803 23:21:12.813395 27789 net.cpp:380] feat5 -> feat5
I0803 23:21:12.813432 27789 net.cpp:122] Setting up feat5
I0803 23:21:12.813439 27789 net.cpp:129] Top shape: 12 3 1 8192 (294912)
I0803 23:21:12.813443 27789 net.cpp:137] Memory required for data: 1504837632
I0803 23:21:12.813447 27789 layer_factory.hpp:77] Creating layer data_lattice4
I0803 23:21:12.813518 27789 net.cpp:84] Creating Layer data_lattice4
I0803 23:21:12.813526 27789 net.cpp:406] data_lattice4 <- feat5
I0803 23:21:12.813534 27789 net.cpp:380] data_lattice4 -> data_lattice4
I0803 23:21:12.815284 27789 net.cpp:122] Setting up data_lattice4
I0803 23:21:12.815304 27789 net.cpp:129] Top shape: 12 3 1 8192 (294912)
I0803 23:21:12.815310 27789 net.cpp:137] Memory required for data: 1506017280
I0803 23:21:12.815313 27789 layer_factory.hpp:77] Creating layer data_lattice4_data_lattice4_0_split
I0803 23:21:12.815321 27789 net.cpp:84] Creating Layer data_lattice4_data_lattice4_0_split
I0803 23:21:12.815326 27789 net.cpp:406] data_lattice4_data_lattice4_0_split <- data_lattice4
I0803 23:21:12.815335 27789 net.cpp:380] data_lattice4_data_lattice4_0_split -> data_lattice4_data_lattice4_0_split_0
I0803 23:21:12.815345 27789 net.cpp:380] data_lattice4_data_lattice4_0_split -> data_lattice4_data_lattice4_0_split_1
I0803 23:21:12.815392 27789 net.cpp:122] Setting up data_lattice4_data_lattice4_0_split
I0803 23:21:12.815400 27789 net.cpp:129] Top shape: 12 3 1 8192 (294912)
I0803 23:21:12.815407 27789 net.cpp:129] Top shape: 12 3 1 8192 (294912)
I0803 23:21:12.815409 27789 net.cpp:137] Memory required for data: 1508376576
I0803 23:21:12.815413 27789 layer_factory.hpp:77] Creating layer conv6
I0803 23:21:12.815425 27789 net.cpp:84] Creating Layer conv6
I0803 23:21:12.815430 27789 net.cpp:406] conv6 <- bn5_relu5_0_split_0
I0803 23:21:12.815436 27789 net.cpp:406] conv6 <- data_lattice4_data_lattice4_0_split_0
I0803 23:21:12.815441 27789 net.cpp:406] conv6 <- data_lattice4_data_lattice4_0_split_1
I0803 23:21:12.815448 27789 net.cpp:380] conv6 -> conv6
I0803 23:21:12.980818 27789 net.cpp:122] Setting up conv6
I0803 23:21:12.980870 27789 net.cpp:129] Top shape: 12 256 1 8192 (25165824)
I0803 23:21:12.980876 27789 net.cpp:137] Memory required for data: 1609039872
I0803 23:21:12.980897 27789 layer_factory.hpp:77] Creating layer bn6
I0803 23:21:12.980912 27789 net.cpp:84] Creating Layer bn6
I0803 23:21:12.980921 27789 net.cpp:406] bn6 <- conv6
I0803 23:21:12.980931 27789 net.cpp:380] bn6 -> bn6
I0803 23:21:12.981189 27789 net.cpp:122] Setting up bn6
I0803 23:21:12.981200 27789 net.cpp:129] Top shape: 12 256 1 8192 (25165824)
I0803 23:21:12.981205 27789 net.cpp:137] Memory required for data: 1709703168
I0803 23:21:12.981215 27789 layer_factory.hpp:77] Creating layer relu6
I0803 23:21:12.981223 27789 net.cpp:84] Creating Layer relu6
I0803 23:21:12.981228 27789 net.cpp:406] relu6 <- bn6
I0803 23:21:12.981233 27789 net.cpp:367] relu6 -> bn6 (in-place)
I0803 23:21:12.981684 27789 net.cpp:122] Setting up relu6
I0803 23:21:12.981699 27789 net.cpp:129] Top shape: 12 256 1 8192 (25165824)
I0803 23:21:12.981703 27789 net.cpp:137] Memory required for data: 1810366464
I0803 23:21:12.981708 27789 layer_factory.hpp:77] Creating layer concat6
I0803 23:21:12.981765 27789 net.cpp:84] Creating Layer concat6
I0803 23:21:12.981779 27789 net.cpp:406] concat6 <- bn6
I0803 23:21:12.981786 27789 net.cpp:406] concat6 <- bn2_relu2_0_split_1
I0803 23:21:12.981791 27789 net.cpp:406] concat6 <- bn3_relu3_0_split_1
I0803 23:21:12.981796 27789 net.cpp:406] concat6 <- bn4_relu4_0_split_1
I0803 23:21:12.981801 27789 net.cpp:406] concat6 <- bn5_relu5_0_split_1
I0803 23:21:12.981806 27789 net.cpp:380] concat6 -> concat6
I0803 23:21:12.981878 27789 net.cpp:122] Setting up concat6
I0803 23:21:12.981891 27789 net.cpp:129] Top shape: 12 960 1 8192 (94371840)
I0803 23:21:12.981895 27789 net.cpp:137] Memory required for data: 2187853824
I0803 23:21:12.981899 27789 layer_factory.hpp:77] Creating layer conv7
I0803 23:21:12.981914 27789 net.cpp:84] Creating Layer conv7
I0803 23:21:12.981920 27789 net.cpp:406] conv7 <- concat6
I0803 23:21:12.981927 27789 net.cpp:380] conv7 -> conv7
I0803 23:21:12.986363 27789 net.cpp:122] Setting up conv7
I0803 23:21:12.986400 27789 net.cpp:129] Top shape: 12 128 1 8192 (12582912)
I0803 23:21:12.986410 27789 net.cpp:137] Memory required for data: 2238185472
I0803 23:21:12.986426 27789 layer_factory.hpp:77] Creating layer bn7
I0803 23:21:12.986443 27789 net.cpp:84] Creating Layer bn7
I0803 23:21:12.986451 27789 net.cpp:406] bn7 <- conv7
I0803 23:21:12.986464 27789 net.cpp:380] bn7 -> bn7
I0803 23:21:12.986955 27789 net.cpp:122] Setting up bn7
I0803 23:21:12.986976 27789 net.cpp:129] Top shape: 12 128 1 8192 (12582912)
I0803 23:21:12.986984 27789 net.cpp:137] Memory required for data: 2288517120
I0803 23:21:12.987001 27789 layer_factory.hpp:77] Creating layer relu7
I0803 23:21:12.987036 27789 net.cpp:84] Creating Layer relu7
I0803 23:21:12.987045 27789 net.cpp:406] relu7 <- bn7
I0803 23:21:12.987056 27789 net.cpp:367] relu7 -> bn7 (in-place)
I0803 23:21:12.988436 27789 net.cpp:122] Setting up relu7
I0803 23:21:12.988469 27789 net.cpp:129] Top shape: 12 128 1 8192 (12582912)
I0803 23:21:12.988478 27789 net.cpp:137] Memory required for data: 2338848768
I0803 23:21:12.988488 27789 layer_factory.hpp:77] Creating layer conv8
I0803 23:21:12.988512 27789 net.cpp:84] Creating Layer conv8
I0803 23:21:12.988521 27789 net.cpp:406] conv8 <- bn7
I0803 23:21:12.988538 27789 net.cpp:380] conv8 -> conv8
I0803 23:21:12.994179 27789 net.cpp:122] Setting up conv8
I0803 23:21:12.994222 27789 net.cpp:129] Top shape: 12 13 1 8192 (1277952)
I0803 23:21:12.994232 27789 net.cpp:137] Memory required for data: 2343960576
I0803 23:21:12.994249 27789 layer_factory.hpp:77] Creating layer conv8_conv8_0_split
I0803 23:21:12.994266 27789 net.cpp:84] Creating Layer conv8_conv8_0_split
I0803 23:21:12.994276 27789 net.cpp:406] conv8_conv8_0_split <- conv8
I0803 23:21:12.994288 27789 net.cpp:380] conv8_conv8_0_split -> conv8_conv8_0_split_0
I0803 23:21:12.994305 27789 net.cpp:380] conv8_conv8_0_split -> conv8_conv8_0_split_1
I0803 23:21:12.994391 27789 net.cpp:122] Setting up conv8_conv8_0_split
I0803 23:21:12.994408 27789 net.cpp:129] Top shape: 12 13 1 8192 (1277952)
I0803 23:21:12.994418 27789 net.cpp:129] Top shape: 12 13 1 8192 (1277952)
I0803 23:21:12.994424 27789 net.cpp:137] Memory required for data: 2354184192
I0803 23:21:12.994431 27789 layer_factory.hpp:77] Creating layer loss
I0803 23:21:12.994530 27789 net.cpp:84] Creating Layer loss
I0803 23:21:12.994549 27789 net.cpp:406] loss <- conv8_conv8_0_split_0
I0803 23:21:12.994561 27789 net.cpp:406] loss <- label_data_1_split_0
I0803 23:21:12.994573 27789 net.cpp:380] loss -> loss
…
