…
I0809 11:31:59.320199 25403 net.cpp:294] The NetState phase (0) differed from the phase (1) specified by a rule in layer data
I0809 11:31:59.320552 25403 net.cpp:51] Initializing net from parameters: 
state {
  phase: TRAIN
}
layer {
  name: "data"
  type: "Python"
  top: "data"
  top: "label"
  include {
    phase: TRAIN
  }
  python_param {
    module: "dataset_lidar"
    layer: "InputShapenet"
    param_str: "{\'sample_size\': 8192, \'test_area\': \'6\', \'batch_size\': 12, \'feat_dims\': \'x_y_z\', \'subset\': \'train\', \'root\': \'../../data/shapenet_ericyi_ply\', \'jitter_xyz\': 0.02, \'jitter_stretch\': 0.1, \'jitter_rotation\': 10.0}"
  }
}
layer {
  name: "data_feat"
  type: "Python"
  bottom: "data"
  top: "data_feat"
  python_param {
    module: "custom_layers"
    layer: "PickAndScale"
    param_str: "0_1_2"
  }
}
layer {
  name: "conv1"
  type: "Convolution"
  bottom: "data_feat"
  top: "conv1"
  param {
    lr_mult: 1
  }
  param {
    lr_mult: 0.1
  }
  convolution_param {
    num_output: 32
    pad: 0
    kernel_size: 1
    stride: 1
    weight_filler {
      type: "xavier"
    }
    bias_filler {
      type: "constant"
      value: 0
    }
  }
}
layer {
  name: "bn1"
  type: "BatchNorm"
  bottom: "conv1"
  top: "bn1"
}
layer {
  name: "relu1"
  type: "ReLU"
  bottom: "bn1"
  top: "bn1"
}
layer {
  name: "fconv1"
  type: "Convolution"
  bottom: "bn1"
  top: "fconv1"
  param {
    lr_mult: 1
  }
  param {
    lr_mult: 0.1
  }
  convolution_param {
    num_output: 3
    pad: 0
    kernel_size: 1
    stride: 1
    weight_filler {
      type: "xavier"
    }
    bias_filler {
      type: "constant"
      value: 0
    }
  }
}
layer {
  name: "fbn1"
  type: "BatchNorm"
  bottom: "fconv1"
  top: "fbn1"
}
layer {
  name: "frelu1"
  type: "ReLU"
  bottom: "fbn1"
  top: "fbn1"
}
layer {
  name: "feat1"
  type: "Eltwise"
  bottom: "data"
  bottom: "fbn1"
  top: "feat1"
  eltwise_param {
    operation: SUM
  }
}
layer {
  name: "data_lattice0"
  type: "Python"
  bottom: "feat1"
  top: "data_lattice0"
  python_param {
    module: "custom_layers"
    layer: "PickAndScale"
    param_str: "0*48_1*48_2*48"
  }
}
layer {
  name: "conv2"
  type: "Permutohedral"
  bottom: "bn1"
  bottom: "data_lattice0"
  bottom: "data_lattice0"
  top: "conv2"
  param {
    lr_mult: 1
    decay_mult: 1
  }
  param {
    lr_mult: 2
    decay_mult: 0
  }
  permutohedral_param {
    num_output: 64
    neighborhood_size: 2
    filter_filler {
      type: "gaussian"
      std: 0.001
    }
    bias_term: true
    bias_filler {
      type: "constant"
      value: 0
    }
    group: 1
    norm_type: AFTER
    offset_type: NONE
  }
}
layer {
  name: "bn2"
  type: "BatchNorm"
  bottom: "conv2"
  top: "bn2"
}
layer {
  name: "relu2"
  type: "ReLU"
  bottom: "bn2"
  top: "bn2"
}
layer {
  name: "fconv2"
  type: "Convolution"
  bottom: "bn2"
  top: "fconv2"
  param {
    lr_mult: 1
  }
  param {
    lr_mult: 0.1
  }
  convolution_param {
    num_output: 3
    pad: 0
    kernel_size: 1
    stride: 1
    weight_filler {
      type: "xavier"
    }
    bias_filler {
      type: "constant"
      value: 0
    }
  }
}
layer {
  name: "fbn2"
  type: "BatchNorm"
  bottom: "fconv2"
  top: "fbn2"
}
layer {
  name: "frelu2"
  type: "ReLU"
  bottom: "fbn2"
  top: "fbn2"
}
layer {
  name: "feat2"
  type: "Eltwise"
  bottom: "data"
  bottom: "fbn2"
  top: "feat2"
  eltwise_param {
    operation: SUM
  }
}
layer {
  name: "data_lattice1"
  type: "Python"
  bottom: "feat2"
  top: "data_lattice1"
  python_param {
    module: "custom_layers"
    layer: "PickAndScale"
    param_str: "0*24_1*24_2*24"
  }
}
layer {
  name: "conv3"
  type: "Permutohedral"
  bottom: "bn2"
  bottom: "data_lattice1"
  bottom: "data_lattice1"
  top: "conv3"
  param {
    lr_mult: 1
    decay_mult: 1
  }
  param {
    lr_mult: 2
    decay_mult: 0
  }
  permutohedral_param {
    num_output: 128
    neighborhood_size: 2
    filter_filler {
      type: "gaussian"
      std: 0.001
    }
    bias_term: true
    bias_filler {
      type: "constant"
      value: 0
    }
    group: 1
    norm_type: AFTER
    offset_type: NONE
  }
}
layer {
  name: "bn3"
  type: "BatchNorm"
  bottom: "conv3"
  top: "bn3"
}
layer {
  name: "relu3"
  type: "ReLU"
  bottom: "bn3"
  top: "bn3"
}
layer {
  name: "fconv3"
  type: "Convolution"
  bottom: "bn3"
  top: "fconv3"
  param {
    lr_mult: 1
  }
  param {
    lr_mult: 0.1
  }
  convolution_param {
    num_output: 3
    pad: 0
    kernel_size: 1
    stride: 1
    weight_filler {
      type: "xavier"
    }
    bias_filler {
      type: "constant"
      value: 0
    }
  }
}
layer {
  name: "fbn3"
  type: "BatchNorm"
  bottom: "fconv3"
  top: "fbn3"
}
layer {
  name: "frelu3"
  type: "ReLU"
  bottom: "fbn3"
  top: "fbn3"
}
layer {
  name: "feat3"
  type: "Eltwise"
  bottom: "data"
  bottom: "fbn3"
  top: "feat3"
  eltwise_param {
    operation: SUM
  }
}
layer {
  name: "data_lattice2"
  type: "Python"
  bottom: "feat3"
  top: "data_lattice2"
  python_param {
    module: "custom_layers"
    layer: "PickAndScale"
    param_str: "0*12_1*12_2*12"
  }
}
layer {
  name: "conv4"
  type: "Permutohedral"
  bottom: "bn3"
  bottom: "data_lattice2"
  bottom: "data_lattice2"
  top: "conv4"
  param {
    lr_mult: 1
    decay_mult: 1
  }
  param {
    lr_mult: 2
    decay_mult: 0
  }
  permutohedral_param {
    num_output: 256
    neighborhood_size: 2
    filter_filler {
      type: "gaussian"
      std: 0.001
    }
    bias_term: true
    bias_filler {
      type: "constant"
      value: 0
    }
    group: 1
    norm_type: AFTER
    offset_type: NONE
  }
}
layer {
  name: "bn4"
  type: "BatchNorm"
  bottom: "conv4"
  top: "bn4"
}
layer {
  name: "relu4"
  type: "ReLU"
  bottom: "bn4"
  top: "bn4"
}
layer {
  name: "fconv4"
  type: "Convolution"
  bottom: "bn4"
  top: "fconv4"
  param {
    lr_mult: 1
  }
  param {
    lr_mult: 0.1
  }
  convolution_param {
    num_output: 3
    pad: 0
    kernel_size: 1
    stride: 1
    weight_filler {
      type: "xavier"
    }
    bias_filler {
      type: "constant"
      value: 0
    }
  }
}
layer {
  name: "fbn4"
  type: "BatchNorm"
  bottom: "fconv4"
  top: "fbn4"
}
layer {
  name: "frelu4"
  type: "ReLU"
  bottom: "fbn4"
  top: "fbn4"
}
layer {
  name: "feat4"
  type: "Eltwise"
  bottom: "data"
  bottom: "fbn4"
  top: "feat4"
  eltwise_param {
    operation: SUM
  }
}
layer {
  name: "data_lattice3"
  type: "Python"
  bottom: "feat4"
  top: "data_lattice3"
  python_param {
    module: "custom_layers"
    layer: "PickAndScale"
    param_str: "0*6_1*6_2*6"
  }
}
layer {
  name: "conv5"
  type: "Permutohedral"
  bottom: "bn4"
  bottom: "data_lattice3"
  bottom: "data_lattice3"
  top: "conv5"
  param {
    lr_mult: 1
    decay_mult: 1
  }
  param {
    lr_mult: 2
    decay_mult: 0
  }
  permutohedral_param {
    num_output: 256
    neighborhood_size: 2
    filter_filler {
      type: "gaussian"
      std: 0.001
    }
    bias_term: true
    bias_filler {
      type: "constant"
      value: 0
    }
    group: 1
    norm_type: AFTER
    offset_type: NONE
  }
}
layer {
  name: "bn5"
  type: "BatchNorm"
  bottom: "conv5"
  top: "bn5"
}
layer {
  name: "relu5"
  type: "ReLU"
  bottom: "bn5"
  top: "bn5"
}
layer {
  name: "fconv5"
  type: "Convolution"
  bottom: "bn5"
  top: "fconv5"
  param {
    lr_mult: 1
  }
  param {
    lr_mult: 0.1
  }
  convolution_param {
    num_output: 3
    pad: 0
    kernel_size: 1
    stride: 1
    weight_filler {
      type: "xavier"
    }
    bias_filler {
      type: "constant"
      value: 0
    }
  }
}
layer {
  name: "fbn5"
  type: "BatchNorm"
  bottom: "fconv5"
  top: "fbn5"
}
layer {
  name: "frelu5"
  type: "ReLU"
  bottom: "fbn5"
  top: "fbn5"
}
layer {
  name: "feat5"
  type: "Eltwise"
  bottom: "data"
  bottom: "fbn5"
  top: "feat5"
  eltwise_param {
    operation: SUM
  }
}
layer {
  name: "data_lattice4"
  type: "Python"
  bottom: "feat5"
  top: "data_lattice4"
  python_param {
    module: "custom_layers"
    layer: "PickAndScale"
    param_str: "0*3_1*3_2*3"
  }
}
layer {
  name: "conv6"
  type: "Permutohedral"
  bottom: "bn5"
  bottom: "data_lattice4"
  bottom: "data_lattice4"
  top: "conv6"
  param {
    lr_mult: 1
    decay_mult: 1
  }
  param {
    lr_mult: 2
    decay_mult: 0
  }
  permutohedral_param {
    num_output: 256
    neighborhood_size: 2
    filter_filler {
      type: "gaussian"
      std: 0.001
    }
    bias_term: true
    bias_filler {
      type: "constant"
      value: 0
    }
    group: 1
    norm_type: AFTER
    offset_type: NONE
  }
}
layer {
  name: "bn6"
  type: "BatchNorm"
  bottom: "conv6"
  top: "bn6"
}
layer {
  name: "relu6"
  type: "ReLU"
  bottom: "bn6"
  top: "bn6"
}
layer {
  name: "concat6"
  type: "Concat"
  bottom: "bn6"
  bottom: "bn2"
  bottom: "bn3"
  bottom: "bn4"
  bottom: "bn5"
  top: "concat6"
}
layer {
  name: "conv7"
  type: "Convolution"
  bottom: "concat6"
  top: "conv7"
  param {
    lr_mult: 1
  }
  param {
    lr_mult: 0.1
  }
  convolution_param {
    num_output: 128
    pad: 0
    kernel_size: 1
    stride: 1
    weight_filler {
      type: "xavier"
    }
    bias_filler {
      type: "constant"
      value: 0
    }
  }
}
layer {
  name: "bn7"
  type: "BatchNorm"
  bottom: "conv7"
  top: "bn7"
}
layer {
  name: "relu7"
  type: "ReLU"
  bottom: "bn7"
  top: "bn7"
}
layer {
  name: "conv8"
  type: "Convolution"
  bottom: "bn7"
  top: "conv8"
  param {
    lr_mult: 1
  }
  param {
    lr_mult: 0.1
  }
  convolution_param {
    num_output: 13
    pad: 0
    kernel_size: 1
    stride: 1
    weight_filler {
      type: "xavier"
    }
    bias_filler {
      type: "constant"
      value: 0
    }
  }
}
layer {
  name: "loss"
  type: "SoftmaxWithLoss"
  bottom: "conv8"
  bottom: "label"
  top: "loss"
}
layer {
  name: "accuracy"
  type: "Accuracy"
  bottom: "conv8"
  bottom: "label"
  top: "accuracy"
}
I0809 11:31:59.332547 25405 upgrade_proto.cpp:1084] Attempting to upgrade input file specified using deprecated 'solver_type' field (enum)': /mnt/lustre/wangjiayun/repos/splatnet/exp/lidar3d/area6/6_solver.prototxt
I0809 11:31:59.332614 25405 upgrade_proto.cpp:1091] Successfully upgraded file specified using deprecated 'solver_type' field (enum) to 'type' field (string).
W0809 11:31:59.332620 25405 upgrade_proto.cpp:1093] Note that future Caffe releases will only support 'type' field (string) for a solver's type.
I0809 11:31:59.363476 25403 layer_factory.hpp:77] Creating layer data
I0809 11:31:59.383232 25403 net.cpp:84] Creating Layer data
I0809 11:31:59.383695 25403 net.cpp:380] data -> data
I0809 11:31:59.384186 25403 net.cpp:380] data -> label
I0809 11:42:03.958250 25403 net.cpp:122] Setting up data
I0809 11:42:03.958786 25403 net.cpp:129] Top shape: 12 3 1 8192 (294912)
I0809 11:42:03.958802 25403 net.cpp:129] Top shape: 12 1 1 8192 (98304)
I0809 11:42:03.958817 25403 net.cpp:137] Memory required for data: 1572864
I0809 11:42:03.958883 25403 layer_factory.hpp:77] Creating layer data_data_0_split
I0809 11:42:03.959024 25403 net.cpp:84] Creating Layer data_data_0_split
I0809 11:42:03.959048 25403 net.cpp:406] data_data_0_split <- data
I0809 11:42:03.959084 25403 net.cpp:380] data_data_0_split -> data_data_0_split_0
I0809 11:42:03.959136 25403 net.cpp:380] data_data_0_split -> data_data_0_split_1
I0809 11:42:03.959146 25403 net.cpp:380] data_data_0_split -> data_data_0_split_2
I0809 11:42:03.959153 25403 net.cpp:380] data_data_0_split -> data_data_0_split_3
I0809 11:42:03.959158 25403 net.cpp:380] data_data_0_split -> data_data_0_split_4
I0809 11:42:03.959167 25403 net.cpp:380] data_data_0_split -> data_data_0_split_5
I0809 11:42:03.959285 25403 net.cpp:122] Setting up data_data_0_split
I0809 11:42:03.959296 25403 net.cpp:129] Top shape: 12 3 1 8192 (294912)
I0809 11:42:03.959300 25403 net.cpp:129] Top shape: 12 3 1 8192 (294912)
I0809 11:42:03.959305 25403 net.cpp:129] Top shape: 12 3 1 8192 (294912)
I0809 11:42:03.959308 25403 net.cpp:129] Top shape: 12 3 1 8192 (294912)
I0809 11:42:03.959312 25403 net.cpp:129] Top shape: 12 3 1 8192 (294912)
I0809 11:42:03.959316 25403 net.cpp:129] Top shape: 12 3 1 8192 (294912)
I0809 11:42:03.959318 25403 net.cpp:137] Memory required for data: 8650752
I0809 11:42:03.959321 25403 layer_factory.hpp:77] Creating layer label_data_1_split
I0809 11:42:03.959331 25403 net.cpp:84] Creating Layer label_data_1_split
I0809 11:42:03.959336 25403 net.cpp:406] label_data_1_split <- label
I0809 11:42:03.959342 25403 net.cpp:380] label_data_1_split -> label_data_1_split_0
I0809 11:42:03.959352 25403 net.cpp:380] label_data_1_split -> label_data_1_split_1
I0809 11:42:03.959383 25403 net.cpp:122] Setting up label_data_1_split
I0809 11:42:03.959389 25403 net.cpp:129] Top shape: 12 1 1 8192 (98304)
I0809 11:42:03.959393 25403 net.cpp:129] Top shape: 12 1 1 8192 (98304)
I0809 11:42:03.959396 25403 net.cpp:137] Memory required for data: 9437184
I0809 11:42:03.959399 25403 layer_factory.hpp:77] Creating layer data_feat
I0809 11:42:03.965970 25403 net.cpp:84] Creating Layer data_feat
I0809 11:42:03.965982 25403 net.cpp:406] data_feat <- data_data_0_split_0
I0809 11:42:03.965989 25403 net.cpp:380] data_feat -> data_feat
I0809 11:42:03.967337 25403 net.cpp:122] Setting up data_feat
I0809 11:42:03.967352 25403 net.cpp:129] Top shape: 12 3 1 8192 (294912)
I0809 11:42:03.967356 25403 net.cpp:137] Memory required for data: 10616832
I0809 11:42:03.967360 25403 layer_factory.hpp:77] Creating layer conv1
I0809 11:42:03.967418 25403 net.cpp:84] Creating Layer conv1
I0809 11:42:03.967427 25403 net.cpp:406] conv1 <- data_feat
I0809 11:42:03.967433 25403 net.cpp:380] conv1 -> conv1
I0809 11:42:09.159327 25403 net.cpp:122] Setting up conv1
I0809 11:42:09.159404 25403 net.cpp:129] Top shape: 12 32 1 8192 (3145728)
I0809 11:42:09.159409 25403 net.cpp:137] Memory required for data: 23199744
I0809 11:42:09.166152 25403 layer_factory.hpp:77] Creating layer bn1
I0809 11:42:09.173760 25403 net.cpp:84] Creating Layer bn1
I0809 11:42:09.173828 25403 net.cpp:406] bn1 <- conv1
I0809 11:42:09.173853 25403 net.cpp:380] bn1 -> bn1
I0809 11:42:09.232671 25403 net.cpp:122] Setting up bn1
I0809 11:42:09.232695 25403 net.cpp:129] Top shape: 12 32 1 8192 (3145728)
I0809 11:42:09.232700 25403 net.cpp:137] Memory required for data: 35782656
I0809 11:42:09.232713 25403 layer_factory.hpp:77] Creating layer relu1
I0809 11:42:09.249934 25403 net.cpp:84] Creating Layer relu1
I0809 11:42:09.249971 25403 net.cpp:406] relu1 <- bn1
I0809 11:42:09.249987 25403 net.cpp:367] relu1 -> bn1 (in-place)
I0809 11:42:09.264725 25403 net.cpp:122] Setting up relu1
I0809 11:42:09.264760 25403 net.cpp:129] Top shape: 12 32 1 8192 (3145728)
I0809 11:42:09.264765 25403 net.cpp:137] Memory required for data: 48365568
I0809 11:42:09.264770 25403 layer_factory.hpp:77] Creating layer bn1_relu1_0_split
I0809 11:42:09.264782 25403 net.cpp:84] Creating Layer bn1_relu1_0_split
I0809 11:42:09.264787 25403 net.cpp:406] bn1_relu1_0_split <- bn1
I0809 11:42:09.264794 25403 net.cpp:380] bn1_relu1_0_split -> bn1_relu1_0_split_0
I0809 11:42:09.264803 25403 net.cpp:380] bn1_relu1_0_split -> bn1_relu1_0_split_1
I0809 11:42:09.264874 25403 net.cpp:122] Setting up bn1_relu1_0_split
I0809 11:42:09.264889 25403 net.cpp:129] Top shape: 12 32 1 8192 (3145728)
I0809 11:42:09.264892 25403 net.cpp:129] Top shape: 12 32 1 8192 (3145728)
I0809 11:42:09.264896 25403 net.cpp:137] Memory required for data: 73531392
I0809 11:42:09.264899 25403 layer_factory.hpp:77] Creating layer fconv1
I0809 11:42:09.264919 25403 net.cpp:84] Creating Layer fconv1
I0809 11:42:09.264926 25403 net.cpp:406] fconv1 <- bn1_relu1_0_split_0
I0809 11:42:09.264936 25403 net.cpp:380] fconv1 -> fconv1
I0809 11:42:09.267675 25403 net.cpp:122] Setting up fconv1
I0809 11:42:09.267714 25403 net.cpp:129] Top shape: 12 3 1 8192 (294912)
I0809 11:42:09.267720 25403 net.cpp:137] Memory required for data: 74711040
I0809 11:42:09.267729 25403 layer_factory.hpp:77] Creating layer fbn1
I0809 11:42:09.267737 25403 net.cpp:84] Creating Layer fbn1
I0809 11:42:09.267742 25403 net.cpp:406] fbn1 <- fconv1
I0809 11:42:09.267755 25403 net.cpp:380] fbn1 -> fbn1
I0809 11:42:09.268024 25403 net.cpp:122] Setting up fbn1
I0809 11:42:09.268054 25403 net.cpp:129] Top shape: 12 3 1 8192 (294912)
I0809 11:42:09.268057 25403 net.cpp:137] Memory required for data: 75890688
I0809 11:42:09.268082 25403 layer_factory.hpp:77] Creating layer frelu1
I0809 11:42:09.268090 25403 net.cpp:84] Creating Layer frelu1
I0809 11:42:09.268095 25403 net.cpp:406] frelu1 <- fbn1
I0809 11:42:09.268100 25403 net.cpp:367] frelu1 -> fbn1 (in-place)
I0809 11:42:09.268466 25403 net.cpp:122] Setting up frelu1
I0809 11:42:09.268482 25403 net.cpp:129] Top shape: 12 3 1 8192 (294912)
I0809 11:42:09.268499 25403 net.cpp:137] Memory required for data: 77070336
I0809 11:42:09.268503 25403 layer_factory.hpp:77] Creating layer feat1
I0809 11:42:09.280624 25403 net.cpp:84] Creating Layer feat1
I0809 11:42:09.280644 25403 net.cpp:406] feat1 <- data_data_0_split_1
I0809 11:42:09.280666 25403 net.cpp:406] feat1 <- fbn1
I0809 11:42:09.280674 25403 net.cpp:380] feat1 -> feat1
I0809 11:42:09.281193 25403 net.cpp:122] Setting up feat1
I0809 11:42:09.281229 25403 net.cpp:129] Top shape: 12 3 1 8192 (294912)
I0809 11:42:09.281234 25403 net.cpp:137] Memory required for data: 78249984
I0809 11:42:09.281241 25403 layer_factory.hpp:77] Creating layer data_lattice0
I0809 11:42:09.281399 25403 net.cpp:84] Creating Layer data_lattice0
I0809 11:42:09.281412 25403 net.cpp:406] data_lattice0 <- feat1
I0809 11:42:09.281420 25403 net.cpp:380] data_lattice0 -> data_lattice0
I0809 11:42:09.283933 25403 net.cpp:122] Setting up data_lattice0
I0809 11:42:09.283972 25403 net.cpp:129] Top shape: 12 3 1 8192 (294912)
I0809 11:42:09.283977 25403 net.cpp:137] Memory required for data: 79429632
I0809 11:42:09.283982 25403 layer_factory.hpp:77] Creating layer data_lattice0_data_lattice0_0_split
I0809 11:42:09.283996 25403 net.cpp:84] Creating Layer data_lattice0_data_lattice0_0_split
I0809 11:42:09.284003 25403 net.cpp:406] data_lattice0_data_lattice0_0_split <- data_lattice0
I0809 11:42:09.284009 25403 net.cpp:380] data_lattice0_data_lattice0_0_split -> data_lattice0_data_lattice0_0_split_0
I0809 11:42:09.284018 25403 net.cpp:380] data_lattice0_data_lattice0_0_split -> data_lattice0_data_lattice0_0_split_1
I0809 11:42:09.284091 25403 net.cpp:122] Setting up data_lattice0_data_lattice0_0_split
I0809 11:42:09.284103 25403 net.cpp:129] Top shape: 12 3 1 8192 (294912)
I0809 11:42:09.284108 25403 net.cpp:129] Top shape: 12 3 1 8192 (294912)
I0809 11:42:09.284111 25403 net.cpp:137] Memory required for data: 81788928
I0809 11:42:09.284116 25403 layer_factory.hpp:77] Creating layer conv2
I0809 11:42:09.284670 25403 net.cpp:84] Creating Layer conv2
I0809 11:42:09.284692 25403 net.cpp:406] conv2 <- bn1_relu1_0_split_1
I0809 11:42:09.284713 25403 net.cpp:406] conv2 <- data_lattice0_data_lattice0_0_split_0
I0809 11:42:09.284718 25403 net.cpp:406] conv2 <- data_lattice0_data_lattice0_0_split_1
I0809 11:42:09.284725 25403 net.cpp:380] conv2 -> conv2
I0809 11:42:09.294641 25403 net.cpp:122] Setting up conv2
I0809 11:42:09.294692 25403 net.cpp:129] Top shape: 12 64 1 8192 (6291456)
I0809 11:42:09.294697 25403 net.cpp:137] Memory required for data: 106954752
I0809 11:42:09.294704 25403 layer_factory.hpp:77] Creating layer bn2
I0809 11:42:09.294725 25403 net.cpp:84] Creating Layer bn2
I0809 11:42:09.294730 25403 net.cpp:406] bn2 <- conv2
I0809 11:42:09.294739 25403 net.cpp:380] bn2 -> bn2
I0809 11:42:09.294983 25403 net.cpp:122] Setting up bn2
I0809 11:42:09.294998 25403 net.cpp:129] Top shape: 12 64 1 8192 (6291456)
I0809 11:42:09.295002 25403 net.cpp:137] Memory required for data: 132120576
I0809 11:42:09.295014 25403 layer_factory.hpp:77] Creating layer relu2
I0809 11:42:09.295024 25403 net.cpp:84] Creating Layer relu2
I0809 11:42:09.295032 25403 net.cpp:406] relu2 <- bn2
I0809 11:42:09.295037 25403 net.cpp:367] relu2 -> bn2 (in-place)
I0809 11:42:09.296263 25403 net.cpp:122] Setting up relu2
I0809 11:42:09.296284 25403 net.cpp:129] Top shape: 12 64 1 8192 (6291456)
I0809 11:42:09.296303 25403 net.cpp:137] Memory required for data: 157286400
I0809 11:42:09.296308 25403 layer_factory.hpp:77] Creating layer bn2_relu2_0_split
I0809 11:42:09.296329 25403 net.cpp:84] Creating Layer bn2_relu2_0_split
I0809 11:42:09.296335 25403 net.cpp:406] bn2_relu2_0_split <- bn2
I0809 11:42:09.296342 25403 net.cpp:380] bn2_relu2_0_split -> bn2_relu2_0_split_0
I0809 11:42:09.296350 25403 net.cpp:380] bn2_relu2_0_split -> bn2_relu2_0_split_1
I0809 11:42:09.296367 25403 net.cpp:380] bn2_relu2_0_split -> bn2_relu2_0_split_2
I0809 11:42:09.296442 25403 net.cpp:122] Setting up bn2_relu2_0_split
I0809 11:42:09.296452 25403 net.cpp:129] Top shape: 12 64 1 8192 (6291456)
I0809 11:42:09.296458 25403 net.cpp:129] Top shape: 12 64 1 8192 (6291456)
I0809 11:42:09.296460 25403 net.cpp:129] Top shape: 12 64 1 8192 (6291456)
I0809 11:42:09.296464 25403 net.cpp:137] Memory required for data: 232783872
I0809 11:42:09.296468 25403 layer_factory.hpp:77] Creating layer fconv2
I0809 11:42:09.296484 25403 net.cpp:84] Creating Layer fconv2
I0809 11:42:09.296489 25403 net.cpp:406] fconv2 <- bn2_relu2_0_split_0
I0809 11:42:09.296504 25403 net.cpp:380] fconv2 -> fconv2
I0809 11:42:09.298265 25403 net.cpp:122] Setting up fconv2
I0809 11:42:09.298300 25403 net.cpp:129] Top shape: 12 3 1 8192 (294912)
I0809 11:42:09.298305 25403 net.cpp:137] Memory required for data: 233963520
I0809 11:42:09.298319 25403 layer_factory.hpp:77] Creating layer fbn2
I0809 11:42:09.298329 25403 net.cpp:84] Creating Layer fbn2
I0809 11:42:09.298334 25403 net.cpp:406] fbn2 <- fconv2
I0809 11:42:09.298342 25403 net.cpp:380] fbn2 -> fbn2
I0809 11:42:09.298564 25403 net.cpp:122] Setting up fbn2
I0809 11:42:09.298576 25403 net.cpp:129] Top shape: 12 3 1 8192 (294912)
I0809 11:42:09.298580 25403 net.cpp:137] Memory required for data: 235143168
I0809 11:42:09.298593 25403 layer_factory.hpp:77] Creating layer frelu2
I0809 11:42:09.298604 25403 net.cpp:84] Creating Layer frelu2
I0809 11:42:09.298610 25403 net.cpp:406] frelu2 <- fbn2
I0809 11:42:09.298616 25403 net.cpp:367] frelu2 -> fbn2 (in-place)
I0809 11:42:09.298972 25403 net.cpp:122] Setting up frelu2
I0809 11:42:09.298990 25403 net.cpp:129] Top shape: 12 3 1 8192 (294912)
I0809 11:42:09.298995 25403 net.cpp:137] Memory required for data: 236322816
I0809 11:42:09.299000 25403 layer_factory.hpp:77] Creating layer feat2
I0809 11:42:09.299010 25403 net.cpp:84] Creating Layer feat2
I0809 11:42:09.299013 25403 net.cpp:406] feat2 <- data_data_0_split_2
I0809 11:42:09.299021 25403 net.cpp:406] feat2 <- fbn2
I0809 11:42:09.299026 25403 net.cpp:380] feat2 -> feat2
I0809 11:42:09.299064 25403 net.cpp:122] Setting up feat2
I0809 11:42:09.299074 25403 net.cpp:129] Top shape: 12 3 1 8192 (294912)
I0809 11:42:09.299078 25403 net.cpp:137] Memory required for data: 237502464
I0809 11:42:09.299082 25403 layer_factory.hpp:77] Creating layer data_lattice1
I0809 11:42:09.299127 25403 net.cpp:84] Creating Layer data_lattice1
I0809 11:42:09.299137 25403 net.cpp:406] data_lattice1 <- feat2
I0809 11:42:09.299145 25403 net.cpp:380] data_lattice1 -> data_lattice1
I0809 11:42:09.300825 25403 net.cpp:122] Setting up data_lattice1
I0809 11:42:09.300869 25403 net.cpp:129] Top shape: 12 3 1 8192 (294912)
I0809 11:42:09.300875 25403 net.cpp:137] Memory required for data: 238682112
I0809 11:42:09.300880 25403 layer_factory.hpp:77] Creating layer data_lattice1_data_lattice1_0_split
I0809 11:42:09.300889 25403 net.cpp:84] Creating Layer data_lattice1_data_lattice1_0_split
I0809 11:42:09.300894 25403 net.cpp:406] data_lattice1_data_lattice1_0_split <- data_lattice1
I0809 11:42:09.300902 25403 net.cpp:380] data_lattice1_data_lattice1_0_split -> data_lattice1_data_lattice1_0_split_0
I0809 11:42:09.300911 25403 net.cpp:380] data_lattice1_data_lattice1_0_split -> data_lattice1_data_lattice1_0_split_1
I0809 11:42:09.300961 25403 net.cpp:122] Setting up data_lattice1_data_lattice1_0_split
I0809 11:42:09.300971 25403 net.cpp:129] Top shape: 12 3 1 8192 (294912)
I0809 11:42:09.300976 25403 net.cpp:129] Top shape: 12 3 1 8192 (294912)
I0809 11:42:09.300979 25403 net.cpp:137] Memory required for data: 241041408
I0809 11:42:09.300985 25403 layer_factory.hpp:77] Creating layer conv3
I0809 11:42:09.300997 25403 net.cpp:84] Creating Layer conv3
I0809 11:42:09.301003 25403 net.cpp:406] conv3 <- bn2_relu2_0_split_1
I0809 11:42:09.301008 25403 net.cpp:406] conv3 <- data_lattice1_data_lattice1_0_split_0
I0809 11:42:09.301013 25403 net.cpp:406] conv3 <- data_lattice1_data_lattice1_0_split_1
I0809 11:42:09.301020 25403 net.cpp:380] conv3 -> conv3
I0809 11:42:09.319144 25403 net.cpp:122] Setting up conv3
I0809 11:42:09.319169 25403 net.cpp:129] Top shape: 12 128 1 8192 (12582912)
I0809 11:42:09.319185 25403 net.cpp:137] Memory required for data: 291373056
I0809 11:42:09.319195 25403 layer_factory.hpp:77] Creating layer bn3
I0809 11:42:09.319205 25403 net.cpp:84] Creating Layer bn3
I0809 11:42:09.319208 25403 net.cpp:406] bn3 <- conv3
I0809 11:42:09.319216 25403 net.cpp:380] bn3 -> bn3
I0809 11:42:09.319425 25403 net.cpp:122] Setting up bn3
I0809 11:42:09.319437 25403 net.cpp:129] Top shape: 12 128 1 8192 (12582912)
I0809 11:42:09.319440 25403 net.cpp:137] Memory required for data: 341704704
I0809 11:42:09.319448 25403 layer_factory.hpp:77] Creating layer relu3
I0809 11:42:09.319456 25403 net.cpp:84] Creating Layer relu3
I0809 11:42:09.319460 25403 net.cpp:406] relu3 <- bn3
I0809 11:42:09.319466 25403 net.cpp:367] relu3 -> bn3 (in-place)
I0809 11:42:09.320255 25403 net.cpp:122] Setting up relu3
I0809 11:42:09.320272 25403 net.cpp:129] Top shape: 12 128 1 8192 (12582912)
I0809 11:42:09.320289 25403 net.cpp:137] Memory required for data: 392036352
I0809 11:42:09.320294 25403 layer_factory.hpp:77] Creating layer bn3_relu3_0_split
I0809 11:42:09.320305 25403 net.cpp:84] Creating Layer bn3_relu3_0_split
I0809 11:42:09.320310 25403 net.cpp:406] bn3_relu3_0_split <- bn3
I0809 11:42:09.320318 25403 net.cpp:380] bn3_relu3_0_split -> bn3_relu3_0_split_0
I0809 11:42:09.320327 25403 net.cpp:380] bn3_relu3_0_split -> bn3_relu3_0_split_1
I0809 11:42:09.320333 25403 net.cpp:380] bn3_relu3_0_split -> bn3_relu3_0_split_2
I0809 11:42:09.320394 25403 net.cpp:122] Setting up bn3_relu3_0_split
I0809 11:42:09.320403 25403 net.cpp:129] Top shape: 12 128 1 8192 (12582912)
I0809 11:42:09.320407 25403 net.cpp:129] Top shape: 12 128 1 8192 (12582912)
I0809 11:42:09.320411 25403 net.cpp:129] Top shape: 12 128 1 8192 (12582912)
I0809 11:42:09.320415 25403 net.cpp:137] Memory required for data: 543031296
I0809 11:42:09.320417 25403 layer_factory.hpp:77] Creating layer fconv3
I0809 11:42:09.320431 25403 net.cpp:84] Creating Layer fconv3
I0809 11:42:09.320437 25403 net.cpp:406] fconv3 <- bn3_relu3_0_split_0
I0809 11:42:09.320447 25403 net.cpp:380] fconv3 -> fconv3
I0809 11:42:09.323809 25403 net.cpp:122] Setting up fconv3
I0809 11:42:09.323828 25403 net.cpp:129] Top shape: 12 3 1 8192 (294912)
I0809 11:42:09.323853 25403 net.cpp:137] Memory required for data: 544210944
I0809 11:42:09.323861 25403 layer_factory.hpp:77] Creating layer fbn3
I0809 11:42:09.323870 25403 net.cpp:84] Creating Layer fbn3
I0809 11:42:09.323874 25403 net.cpp:406] fbn3 <- fconv3
I0809 11:42:09.323882 25403 net.cpp:380] fbn3 -> fbn3
I0809 11:42:09.324101 25403 net.cpp:122] Setting up fbn3
I0809 11:42:09.324113 25403 net.cpp:129] Top shape: 12 3 1 8192 (294912)
I0809 11:42:09.324116 25403 net.cpp:137] Memory required for data: 545390592
I0809 11:42:09.324126 25403 layer_factory.hpp:77] Creating layer frelu3
I0809 11:42:09.324132 25403 net.cpp:84] Creating Layer frelu3
I0809 11:42:09.324136 25403 net.cpp:406] frelu3 <- fbn3
I0809 11:42:09.324142 25403 net.cpp:367] frelu3 -> fbn3 (in-place)
I0809 11:42:09.324467 25403 net.cpp:122] Setting up frelu3
I0809 11:42:09.324481 25403 net.cpp:129] Top shape: 12 3 1 8192 (294912)
I0809 11:42:09.324497 25403 net.cpp:137] Memory required for data: 546570240
I0809 11:42:09.324501 25403 layer_factory.hpp:77] Creating layer feat3
I0809 11:42:09.324515 25403 net.cpp:84] Creating Layer feat3
I0809 11:42:09.324520 25403 net.cpp:406] feat3 <- data_data_0_split_3
I0809 11:42:09.324527 25403 net.cpp:406] feat3 <- fbn3
I0809 11:42:09.324532 25403 net.cpp:380] feat3 -> feat3
I0809 11:42:09.324568 25403 net.cpp:122] Setting up feat3
I0809 11:42:09.324576 25403 net.cpp:129] Top shape: 12 3 1 8192 (294912)
I0809 11:42:09.324579 25403 net.cpp:137] Memory required for data: 547749888
I0809 11:42:09.324584 25403 layer_factory.hpp:77] Creating layer data_lattice2
I0809 11:42:09.324647 25403 net.cpp:84] Creating Layer data_lattice2
I0809 11:42:09.324656 25403 net.cpp:406] data_lattice2 <- feat3
I0809 11:42:09.324663 25403 net.cpp:380] data_lattice2 -> data_lattice2
I0809 11:42:09.326304 25403 net.cpp:122] Setting up data_lattice2
I0809 11:42:09.326324 25403 net.cpp:129] Top shape: 12 3 1 8192 (294912)
I0809 11:42:09.326341 25403 net.cpp:137] Memory required for data: 548929536
I0809 11:42:09.326346 25403 layer_factory.hpp:77] Creating layer data_lattice2_data_lattice2_0_split
I0809 11:42:09.326354 25403 net.cpp:84] Creating Layer data_lattice2_data_lattice2_0_split
I0809 11:42:09.326359 25403 net.cpp:406] data_lattice2_data_lattice2_0_split <- data_lattice2
I0809 11:42:09.326366 25403 net.cpp:380] data_lattice2_data_lattice2_0_split -> data_lattice2_data_lattice2_0_split_0
I0809 11:42:09.326375 25403 net.cpp:380] data_lattice2_data_lattice2_0_split -> data_lattice2_data_lattice2_0_split_1
I0809 11:42:09.326421 25403 net.cpp:122] Setting up data_lattice2_data_lattice2_0_split
I0809 11:42:09.326429 25403 net.cpp:129] Top shape: 12 3 1 8192 (294912)
I0809 11:42:09.326434 25403 net.cpp:129] Top shape: 12 3 1 8192 (294912)
I0809 11:42:09.326437 25403 net.cpp:137] Memory required for data: 551288832
I0809 11:42:09.326441 25403 layer_factory.hpp:77] Creating layer conv4
I0809 11:42:09.326449 25403 net.cpp:84] Creating Layer conv4
I0809 11:42:09.326457 25403 net.cpp:406] conv4 <- bn3_relu3_0_split_1
I0809 11:42:09.326462 25403 net.cpp:406] conv4 <- data_lattice2_data_lattice2_0_split_0
I0809 11:42:09.326467 25403 net.cpp:406] conv4 <- data_lattice2_data_lattice2_0_split_1
I0809 11:42:09.326473 25403 net.cpp:380] conv4 -> conv4
I0809 11:42:09.395236 25403 net.cpp:122] Setting up conv4
I0809 11:42:09.395292 25403 net.cpp:129] Top shape: 12 256 1 8192 (25165824)
I0809 11:42:09.395296 25403 net.cpp:137] Memory required for data: 651952128
I0809 11:42:09.395310 25403 layer_factory.hpp:77] Creating layer bn4
I0809 11:42:09.395326 25403 net.cpp:84] Creating Layer bn4
I0809 11:42:09.395334 25403 net.cpp:406] bn4 <- conv4
I0809 11:42:09.395344 25403 net.cpp:380] bn4 -> bn4
I0809 11:42:09.395562 25403 net.cpp:122] Setting up bn4
I0809 11:42:09.395572 25403 net.cpp:129] Top shape: 12 256 1 8192 (25165824)
I0809 11:42:09.395576 25403 net.cpp:137] Memory required for data: 752615424
I0809 11:42:09.395608 25403 layer_factory.hpp:77] Creating layer relu4
I0809 11:42:09.395620 25403 net.cpp:84] Creating Layer relu4
I0809 11:42:09.395627 25403 net.cpp:406] relu4 <- bn4
I0809 11:42:09.395632 25403 net.cpp:367] relu4 -> bn4 (in-place)
I0809 11:42:09.396544 25403 net.cpp:122] Setting up relu4
I0809 11:42:09.396560 25403 net.cpp:129] Top shape: 12 256 1 8192 (25165824)
I0809 11:42:09.396577 25403 net.cpp:137] Memory required for data: 853278720
I0809 11:42:09.396582 25403 layer_factory.hpp:77] Creating layer bn4_relu4_0_split
I0809 11:42:09.396590 25403 net.cpp:84] Creating Layer bn4_relu4_0_split
I0809 11:42:09.396595 25403 net.cpp:406] bn4_relu4_0_split <- bn4
I0809 11:42:09.396601 25403 net.cpp:380] bn4_relu4_0_split -> bn4_relu4_0_split_0
I0809 11:42:09.396610 25403 net.cpp:380] bn4_relu4_0_split -> bn4_relu4_0_split_1
I0809 11:42:09.396616 25403 net.cpp:380] bn4_relu4_0_split -> bn4_relu4_0_split_2
I0809 11:42:09.396672 25403 net.cpp:122] Setting up bn4_relu4_0_split
I0809 11:42:09.396680 25403 net.cpp:129] Top shape: 12 256 1 8192 (25165824)
I0809 11:42:09.396685 25403 net.cpp:129] Top shape: 12 256 1 8192 (25165824)
I0809 11:42:09.396688 25403 net.cpp:129] Top shape: 12 256 1 8192 (25165824)
I0809 11:42:09.396692 25403 net.cpp:137] Memory required for data: 1155268608
I0809 11:42:09.396695 25403 layer_factory.hpp:77] Creating layer fconv4
I0809 11:42:09.396708 25403 net.cpp:84] Creating Layer fconv4
I0809 11:42:09.396714 25403 net.cpp:406] fconv4 <- bn4_relu4_0_split_0
I0809 11:42:09.396723 25403 net.cpp:380] fconv4 -> fconv4
I0809 11:42:09.398798 25403 net.cpp:122] Setting up fconv4
I0809 11:42:09.398814 25403 net.cpp:129] Top shape: 12 3 1 8192 (294912)
I0809 11:42:09.398831 25403 net.cpp:137] Memory required for data: 1156448256
I0809 11:42:09.398844 25403 layer_factory.hpp:77] Creating layer fbn4
I0809 11:42:09.398855 25403 net.cpp:84] Creating Layer fbn4
I0809 11:42:09.398859 25403 net.cpp:406] fbn4 <- fconv4
I0809 11:42:09.398867 25403 net.cpp:380] fbn4 -> fbn4
I0809 11:42:09.399101 25403 net.cpp:122] Setting up fbn4
I0809 11:42:09.399109 25403 net.cpp:129] Top shape: 12 3 1 8192 (294912)
I0809 11:42:09.399113 25403 net.cpp:137] Memory required for data: 1157627904
I0809 11:42:09.399121 25403 layer_factory.hpp:77] Creating layer frelu4
I0809 11:42:09.399128 25403 net.cpp:84] Creating Layer frelu4
I0809 11:42:09.399132 25403 net.cpp:406] frelu4 <- fbn4
I0809 11:42:09.399138 25403 net.cpp:367] frelu4 -> fbn4 (in-place)
I0809 11:42:09.399441 25403 net.cpp:122] Setting up frelu4
I0809 11:42:09.399451 25403 net.cpp:129] Top shape: 12 3 1 8192 (294912)
I0809 11:42:09.399468 25403 net.cpp:137] Memory required for data: 1158807552
I0809 11:42:09.399472 25403 layer_factory.hpp:77] Creating layer feat4
I0809 11:42:09.399480 25403 net.cpp:84] Creating Layer feat4
I0809 11:42:09.399485 25403 net.cpp:406] feat4 <- data_data_0_split_4
I0809 11:42:09.399490 25403 net.cpp:406] feat4 <- fbn4
I0809 11:42:09.399497 25403 net.cpp:380] feat4 -> feat4
I0809 11:42:09.399530 25403 net.cpp:122] Setting up feat4
I0809 11:42:09.399538 25403 net.cpp:129] Top shape: 12 3 1 8192 (294912)
I0809 11:42:09.399541 25403 net.cpp:137] Memory required for data: 1159987200
I0809 11:42:09.399544 25403 layer_factory.hpp:77] Creating layer data_lattice3
I0809 11:42:09.399613 25403 net.cpp:84] Creating Layer data_lattice3
I0809 11:42:09.399621 25403 net.cpp:406] data_lattice3 <- feat4
I0809 11:42:09.399628 25403 net.cpp:380] data_lattice3 -> data_lattice3
I0809 11:42:09.401067 25403 net.cpp:122] Setting up data_lattice3
I0809 11:42:09.401083 25403 net.cpp:129] Top shape: 12 3 1 8192 (294912)
I0809 11:42:09.401100 25403 net.cpp:137] Memory required for data: 1161166848
I0809 11:42:09.401106 25403 layer_factory.hpp:77] Creating layer data_lattice3_data_lattice3_0_split
I0809 11:42:09.401114 25403 net.cpp:84] Creating Layer data_lattice3_data_lattice3_0_split
I0809 11:42:09.401119 25403 net.cpp:406] data_lattice3_data_lattice3_0_split <- data_lattice3
I0809 11:42:09.401126 25403 net.cpp:380] data_lattice3_data_lattice3_0_split -> data_lattice3_data_lattice3_0_split_0
I0809 11:42:09.401134 25403 net.cpp:380] data_lattice3_data_lattice3_0_split -> data_lattice3_data_lattice3_0_split_1
I0809 11:42:09.401175 25403 net.cpp:122] Setting up data_lattice3_data_lattice3_0_split
I0809 11:42:09.401183 25403 net.cpp:129] Top shape: 12 3 1 8192 (294912)
I0809 11:42:09.401187 25403 net.cpp:129] Top shape: 12 3 1 8192 (294912)
I0809 11:42:09.401190 25403 net.cpp:137] Memory required for data: 1163526144
I0809 11:42:09.401193 25403 layer_factory.hpp:77] Creating layer conv5
I0809 11:42:09.401203 25403 net.cpp:84] Creating Layer conv5
I0809 11:42:09.401208 25403 net.cpp:406] conv5 <- bn4_relu4_0_split_1
I0809 11:42:09.401213 25403 net.cpp:406] conv5 <- data_lattice3_data_lattice3_0_split_0
I0809 11:42:09.401217 25403 net.cpp:406] conv5 <- data_lattice3_data_lattice3_0_split_1
I0809 11:42:09.401223 25403 net.cpp:380] conv5 -> conv5
I0809 11:42:09.535317 25403 net.cpp:122] Setting up conv5
I0809 11:42:09.535370 25403 net.cpp:129] Top shape: 12 256 1 8192 (25165824)
I0809 11:42:09.535375 25403 net.cpp:137] Memory required for data: 1264189440
I0809 11:42:09.535389 25403 layer_factory.hpp:77] Creating layer bn5
I0809 11:42:09.535403 25403 net.cpp:84] Creating Layer bn5
I0809 11:42:09.535410 25403 net.cpp:406] bn5 <- conv5
I0809 11:42:09.535420 25403 net.cpp:380] bn5 -> bn5
I0809 11:42:09.535645 25403 net.cpp:122] Setting up bn5
I0809 11:42:09.535652 25403 net.cpp:129] Top shape: 12 256 1 8192 (25165824)
I0809 11:42:09.535656 25403 net.cpp:137] Memory required for data: 1364852736
I0809 11:42:09.535665 25403 layer_factory.hpp:77] Creating layer relu5
I0809 11:42:09.535676 25403 net.cpp:84] Creating Layer relu5
I0809 11:42:09.535681 25403 net.cpp:406] relu5 <- bn5
I0809 11:42:09.535686 25403 net.cpp:367] relu5 -> bn5 (in-place)
I0809 11:42:09.536600 25403 net.cpp:122] Setting up relu5
I0809 11:42:09.536615 25403 net.cpp:129] Top shape: 12 256 1 8192 (25165824)
I0809 11:42:09.536631 25403 net.cpp:137] Memory required for data: 1465516032
I0809 11:42:09.536638 25403 layer_factory.hpp:77] Creating layer bn5_relu5_0_split
I0809 11:42:09.536645 25403 net.cpp:84] Creating Layer bn5_relu5_0_split
I0809 11:42:09.536649 25403 net.cpp:406] bn5_relu5_0_split <- bn5
I0809 11:42:09.536656 25403 net.cpp:380] bn5_relu5_0_split -> bn5_relu5_0_split_0
I0809 11:42:09.536664 25403 net.cpp:380] bn5_relu5_0_split -> bn5_relu5_0_split_1
I0809 11:42:09.536670 25403 net.cpp:380] bn5_relu5_0_split -> bn5_relu5_0_split_2
I0809 11:42:09.536727 25403 net.cpp:122] Setting up bn5_relu5_0_split
I0809 11:42:09.536736 25403 net.cpp:129] Top shape: 12 256 1 8192 (25165824)
I0809 11:42:09.536739 25403 net.cpp:129] Top shape: 12 256 1 8192 (25165824)
I0809 11:42:09.536743 25403 net.cpp:129] Top shape: 12 256 1 8192 (25165824)
I0809 11:42:09.536746 25403 net.cpp:137] Memory required for data: 1767505920
I0809 11:42:09.536749 25403 layer_factory.hpp:77] Creating layer fconv5
I0809 11:42:09.536762 25403 net.cpp:84] Creating Layer fconv5
I0809 11:42:09.536768 25403 net.cpp:406] fconv5 <- bn5_relu5_0_split_0
I0809 11:42:09.536777 25403 net.cpp:380] fconv5 -> fconv5
I0809 11:42:09.538312 25403 net.cpp:122] Setting up fconv5
I0809 11:42:09.538327 25403 net.cpp:129] Top shape: 12 3 1 8192 (294912)
I0809 11:42:09.538344 25403 net.cpp:137] Memory required for data: 1768685568
I0809 11:42:09.538352 25403 layer_factory.hpp:77] Creating layer fbn5
I0809 11:42:09.538360 25403 net.cpp:84] Creating Layer fbn5
I0809 11:42:09.538364 25403 net.cpp:406] fbn5 <- fconv5
I0809 11:42:09.538372 25403 net.cpp:380] fbn5 -> fbn5
I0809 11:42:09.538583 25403 net.cpp:122] Setting up fbn5
I0809 11:42:09.538592 25403 net.cpp:129] Top shape: 12 3 1 8192 (294912)
I0809 11:42:09.538596 25403 net.cpp:137] Memory required for data: 1769865216
I0809 11:42:09.538604 25403 layer_factory.hpp:77] Creating layer frelu5
I0809 11:42:09.538609 25403 net.cpp:84] Creating Layer frelu5
I0809 11:42:09.538614 25403 net.cpp:406] frelu5 <- fbn5
I0809 11:42:09.538619 25403 net.cpp:367] frelu5 -> fbn5 (in-place)
I0809 11:42:09.539234 25403 net.cpp:122] Setting up frelu5
I0809 11:42:09.539249 25403 net.cpp:129] Top shape: 12 3 1 8192 (294912)
I0809 11:42:09.539264 25403 net.cpp:137] Memory required for data: 1771044864
I0809 11:42:09.539268 25403 layer_factory.hpp:77] Creating layer feat5
I0809 11:42:09.539280 25403 net.cpp:84] Creating Layer feat5
I0809 11:42:09.539285 25403 net.cpp:406] feat5 <- data_data_0_split_5
I0809 11:42:09.539290 25403 net.cpp:406] feat5 <- fbn5
I0809 11:42:09.539297 25403 net.cpp:380] feat5 -> feat5
I0809 11:42:09.539330 25403 net.cpp:122] Setting up feat5
I0809 11:42:09.539340 25403 net.cpp:129] Top shape: 12 3 1 8192 (294912)
I0809 11:42:09.539342 25403 net.cpp:137] Memory required for data: 1772224512
I0809 11:42:09.539346 25403 layer_factory.hpp:77] Creating layer data_lattice4
I0809 11:42:09.539412 25403 net.cpp:84] Creating Layer data_lattice4
I0809 11:42:09.539419 25403 net.cpp:406] data_lattice4 <- feat5
I0809 11:42:09.539439 25403 net.cpp:380] data_lattice4 -> data_lattice4
I0809 11:42:09.540776 25403 net.cpp:122] Setting up data_lattice4
I0809 11:42:09.540791 25403 net.cpp:129] Top shape: 12 3 1 8192 (294912)
I0809 11:42:09.540807 25403 net.cpp:137] Memory required for data: 1773404160
I0809 11:42:09.540812 25403 layer_factory.hpp:77] Creating layer data_lattice4_data_lattice4_0_split
I0809 11:42:09.540818 25403 net.cpp:84] Creating Layer data_lattice4_data_lattice4_0_split
I0809 11:42:09.540823 25403 net.cpp:406] data_lattice4_data_lattice4_0_split <- data_lattice4
I0809 11:42:09.540829 25403 net.cpp:380] data_lattice4_data_lattice4_0_split -> data_lattice4_data_lattice4_0_split_0
I0809 11:42:09.540843 25403 net.cpp:380] data_lattice4_data_lattice4_0_split -> data_lattice4_data_lattice4_0_split_1
I0809 11:42:09.540894 25403 net.cpp:122] Setting up data_lattice4_data_lattice4_0_split
I0809 11:42:09.540902 25403 net.cpp:129] Top shape: 12 3 1 8192 (294912)
I0809 11:42:09.540907 25403 net.cpp:129] Top shape: 12 3 1 8192 (294912)
I0809 11:42:09.540910 25403 net.cpp:137] Memory required for data: 1775763456
I0809 11:42:09.540913 25403 layer_factory.hpp:77] Creating layer conv6
I0809 11:42:09.540922 25403 net.cpp:84] Creating Layer conv6
I0809 11:42:09.540928 25403 net.cpp:406] conv6 <- bn5_relu5_0_split_1
I0809 11:42:09.540933 25403 net.cpp:406] conv6 <- data_lattice4_data_lattice4_0_split_0
I0809 11:42:09.540937 25403 net.cpp:406] conv6 <- data_lattice4_data_lattice4_0_split_1
I0809 11:42:09.540943 25403 net.cpp:380] conv6 -> conv6
I0809 11:42:09.675084 25403 net.cpp:122] Setting up conv6
I0809 11:42:09.675137 25403 net.cpp:129] Top shape: 12 256 1 8192 (25165824)
I0809 11:42:09.675143 25403 net.cpp:137] Memory required for data: 1876426752
I0809 11:42:09.675154 25403 layer_factory.hpp:77] Creating layer bn6
I0809 11:42:09.675166 25403 net.cpp:84] Creating Layer bn6
I0809 11:42:09.675173 25403 net.cpp:406] bn6 <- conv6
I0809 11:42:09.675184 25403 net.cpp:380] bn6 -> bn6
I0809 11:42:09.675402 25403 net.cpp:122] Setting up bn6
I0809 11:42:09.675410 25403 net.cpp:129] Top shape: 12 256 1 8192 (25165824)
I0809 11:42:09.675415 25403 net.cpp:137] Memory required for data: 1977090048
I0809 11:42:09.675422 25403 layer_factory.hpp:77] Creating layer relu6
I0809 11:42:09.675433 25403 net.cpp:84] Creating Layer relu6
I0809 11:42:09.675438 25403 net.cpp:406] relu6 <- bn6
I0809 11:42:09.675443 25403 net.cpp:367] relu6 -> bn6 (in-place)
I0809 11:42:09.675858 25403 net.cpp:122] Setting up relu6
I0809 11:42:09.675869 25403 net.cpp:129] Top shape: 12 256 1 8192 (25165824)
I0809 11:42:09.675884 25403 net.cpp:137] Memory required for data: 2077753344
I0809 11:42:09.675889 25403 layer_factory.hpp:77] Creating layer concat6
I0809 11:42:09.675963 25403 net.cpp:84] Creating Layer concat6
I0809 11:42:09.675973 25403 net.cpp:406] concat6 <- bn6
I0809 11:42:09.675979 25403 net.cpp:406] concat6 <- bn2_relu2_0_split_2
I0809 11:42:09.675983 25403 net.cpp:406] concat6 <- bn3_relu3_0_split_2
I0809 11:42:09.675987 25403 net.cpp:406] concat6 <- bn4_relu4_0_split_2
I0809 11:42:09.675992 25403 net.cpp:406] concat6 <- bn5_relu5_0_split_2
I0809 11:42:09.675997 25403 net.cpp:380] concat6 -> concat6
I0809 11:42:09.676050 25403 net.cpp:122] Setting up concat6
I0809 11:42:09.676061 25403 net.cpp:129] Top shape: 12 960 1 8192 (94371840)
I0809 11:42:09.676064 25403 net.cpp:137] Memory required for data: 2455240704
I0809 11:42:09.676069 25403 layer_factory.hpp:77] Creating layer conv7
I0809 11:42:09.676084 25403 net.cpp:84] Creating Layer conv7
I0809 11:42:09.676089 25403 net.cpp:406] conv7 <- concat6
I0809 11:42:09.676096 25403 net.cpp:380] conv7 -> conv7
I0809 11:42:09.679184 25403 net.cpp:122] Setting up conv7
I0809 11:42:09.679200 25403 net.cpp:129] Top shape: 12 128 1 8192 (12582912)
I0809 11:42:09.679217 25403 net.cpp:137] Memory required for data: 2505572352
I0809 11:42:09.679237 25403 layer_factory.hpp:77] Creating layer bn7
I0809 11:42:09.679244 25403 net.cpp:84] Creating Layer bn7
I0809 11:42:09.679250 25403 net.cpp:406] bn7 <- conv7
I0809 11:42:09.679256 25403 net.cpp:380] bn7 -> bn7
I0809 11:42:09.679478 25403 net.cpp:122] Setting up bn7
I0809 11:42:09.679487 25403 net.cpp:129] Top shape: 12 128 1 8192 (12582912)
I0809 11:42:09.679491 25403 net.cpp:137] Memory required for data: 2555904000
I0809 11:42:09.679498 25403 layer_factory.hpp:77] Creating layer relu7
I0809 11:42:09.679505 25403 net.cpp:84] Creating Layer relu7
I0809 11:42:09.679508 25403 net.cpp:406] relu7 <- bn7
I0809 11:42:09.679514 25403 net.cpp:367] relu7 -> bn7 (in-place)
I0809 11:42:09.680162 25403 net.cpp:122] Setting up relu7
I0809 11:42:09.680177 25403 net.cpp:129] Top shape: 12 128 1 8192 (12582912)
I0809 11:42:09.680193 25403 net.cpp:137] Memory required for data: 2606235648
I0809 11:42:09.680197 25403 layer_factory.hpp:77] Creating layer conv8
I0809 11:42:09.680212 25403 net.cpp:84] Creating Layer conv8
I0809 11:42:09.680217 25403 net.cpp:406] conv8 <- bn7
I0809 11:42:09.680225 25403 net.cpp:380] conv8 -> conv8
I0809 11:42:09.682886 25403 net.cpp:122] Setting up conv8
I0809 11:42:09.682902 25403 net.cpp:129] Top shape: 12 13 1 8192 (1277952)
I0809 11:42:09.682919 25403 net.cpp:137] Memory required for data: 2611347456
I0809 11:42:09.682926 25403 layer_factory.hpp:77] Creating layer conv8_conv8_0_split
I0809 11:42:09.682934 25403 net.cpp:84] Creating Layer conv8_conv8_0_split
I0809 11:42:09.682940 25403 net.cpp:406] conv8_conv8_0_split <- conv8
I0809 11:42:09.682945 25403 net.cpp:380] conv8_conv8_0_split -> conv8_conv8_0_split_0
I0809 11:42:09.682953 25403 net.cpp:380] conv8_conv8_0_split -> conv8_conv8_0_split_1
I0809 11:42:09.682999 25403 net.cpp:122] Setting up conv8_conv8_0_split
I0809 11:42:09.683007 25403 net.cpp:129] Top shape: 12 13 1 8192 (1277952)
I0809 11:42:09.683012 25403 net.cpp:129] Top shape: 12 13 1 8192 (1277952)
I0809 11:42:09.683014 25403 net.cpp:137] Memory required for data: 2621571072
I0809 11:42:09.683017 25403 layer_factory.hpp:77] Creating layer loss
I0809 11:42:09.683058 25403 net.cpp:84] Creating Layer loss
I0809 11:42:09.683068 25403 net.cpp:406] loss <- conv8_conv8_0_split_0
I0809 11:42:09.683073 25403 net.cpp:406] loss <- label_data_1_split_0
I0809 11:42:09.683079 25403 net.cpp:380] loss -> loss
…
