…
I0806 16:28:41.713829 14743 net.cpp:294] The NetState phase (0) differed from the phase (1) specified by a rule in layer data
I0806 16:28:41.714383 14743 net.cpp:51] Initializing net from parameters: 
state {
  phase: TRAIN
}
layer {
  name: "data"
  type: "Python"
  top: "data"
  top: "label"
  include {
    phase: TRAIN
  }
  python_param {
    module: "dataset_lidar"
    layer: "InputShapenet"
    param_str: "{\'sample_size\': 8192, \'test_area\': \'6\', \'batch_size\': 12, \'feat_dims\': \'x_y_z\', \'subset\': \'train\', \'root\': \'../../data/shapenet_ericyi_ply\', \'jitter_xyz\': 0.02, \'jitter_stretch\': 0.1, \'jitter_rotation\': 10.0}"
  }
}
layer {
  name: "data_feat"
  type: "Python"
  bottom: "data"
  top: "data_feat"
  python_param {
    module: "custom_layers"
    layer: "PickAndScale"
    param_str: "0_1_2"
  }
}
layer {
  name: "conv1"
  type: "Convolution"
  bottom: "data_feat"
  top: "conv1"
  param {
    lr_mult: 1
  }
  param {
    lr_mult: 0.1
  }
  convolution_param {
    num_output: 32
    pad: 0
    kernel_size: 1
    stride: 1
    weight_filler {
      type: "xavier"
    }
    bias_filler {
      type: "constant"
      value: 0
    }
  }
}
layer {
  name: "bn1"
  type: "BatchNorm"
  bottom: "conv1"
  top: "bn1"
}
layer {
  name: "relu1"
  type: "ReLU"
  bottom: "bn1"
  top: "bn1"
}
layer {
  name: "data_lattice0"
  type: "Python"
  bottom: "data"
  top: "data_lattice0"
  python_param {
    module: "custom_layers"
    layer: "PickAndScale"
    param_str: "0*48_1*48_2*48"
  }
}
layer {
  name: "conv2"
  type: "Permutohedral"
  bottom: "bn1"
  bottom: "data_lattice0"
  bottom: "data_lattice0"
  top: "conv2"
  param {
    lr_mult: 1
    decay_mult: 1
  }
  param {
    lr_mult: 2
    decay_mult: 0
  }
  permutohedral_param {
    num_output: 64
    neighborhood_size: 1
    filter_filler {
      type: "gaussian"
      std: 0.001
    }
    bias_term: true
    bias_filler {
      type: "constant"
      value: 0
    }
    group: 1
    norm_type: AFTER
    offset_type: NONE
  }
}
layer {
  name: "bn2"
  type: "BatchNorm"
  bottom: "conv2"
  top: "bn2"
}
layer {
  name: "relu2"
  type: "ReLU"
  bottom: "bn2"
  top: "bn2"
}
layer {
  name: "data_lattice1"
  type: "Python"
  bottom: "data"
  top: "data_lattice1"
  python_param {
    module: "custom_layers"
    layer: "PickAndScale"
    param_str: "0*24_1*24_2*24"
  }
}
layer {
  name: "conv3"
  type: "Permutohedral"
  bottom: "bn2"
  bottom: "data_lattice1"
  bottom: "data_lattice1"
  top: "conv3"
  param {
    lr_mult: 1
    decay_mult: 1
  }
  param {
    lr_mult: 2
    decay_mult: 0
  }
  permutohedral_param {
    num_output: 128
    neighborhood_size: 1
    filter_filler {
      type: "gaussian"
      std: 0.001
    }
    bias_term: true
    bias_filler {
      type: "constant"
      value: 0
    }
    group: 1
    norm_type: AFTER
    offset_type: NONE
  }
}
layer {
  name: "bn3"
  type: "BatchNorm"
  bottom: "conv3"
  top: "bn3"
}
layer {
  name: "relu3"
  type: "ReLU"
  bottom: "bn3"
  top: "bn3"
}
layer {
  name: "data_lattice2"
  type: "Python"
  bottom: "data"
  top: "data_lattice2"
  python_param {
    module: "custom_layers"
    layer: "PickAndScale"
    param_str: "0*12_1*12_2*12"
  }
}
layer {
  name: "conv4"
  type: "Permutohedral"
  bottom: "bn3"
  bottom: "data_lattice2"
  bottom: "data_lattice2"
  top: "conv4"
  param {
    lr_mult: 1
    decay_mult: 1
  }
  param {
    lr_mult: 2
    decay_mult: 0
  }
  permutohedral_param {
    num_output: 256
    neighborhood_size: 1
    filter_filler {
      type: "gaussian"
      std: 0.001
    }
    bias_term: true
    bias_filler {
      type: "constant"
      value: 0
    }
    group: 1
    norm_type: AFTER
    offset_type: NONE
  }
}
layer {
  name: "bn4"
  type: "BatchNorm"
  bottom: "conv4"
  top: "bn4"
}
layer {
  name: "relu4"
  type: "ReLU"
  bottom: "bn4"
  top: "bn4"
}
layer {
  name: "data_lattice3"
  type: "Python"
  bottom: "data"
  top: "data_lattice3"
  python_param {
    module: "custom_layers"
    layer: "PickAndScale"
    param_str: "0*6_1*6_2*6"
  }
}
layer {
  name: "conv5"
  type: "Permutohedral"
  bottom: "bn4"
  bottom: "data_lattice3"
  bottom: "data_lattice3"
  top: "conv5"
  param {
    lr_mult: 1
    decay_mult: 1
  }
  param {
    lr_mult: 2
    decay_mult: 0
  }
  permutohedral_param {
    num_output: 256
    neighborhood_size: 1
    filter_filler {
      type: "gaussian"
      std: 0.001
    }
    bias_term: true
    bias_filler {
      type: "constant"
      value: 0
    }
    group: 1
    norm_type: AFTER
    offset_type: NONE
  }
}
layer {
  name: "bn5"
  type: "BatchNorm"
  bottom: "conv5"
  top: "bn5"
}
layer {
  name: "relu5"
  type: "ReLU"
  bottom: "bn5"
  top: "bn5"
}
layer {
  name: "data_lattice4"
  type: "Python"
  bottom: "data"
  top: "data_lattice4"
  python_param {
    module: "custom_layers"
    layer: "PickAndScale"
    param_str: "0*3_1*3_2*3"
  }
}
layer {
  name: "conv6"
  type: "Permutohedral"
  bottom: "bn5"
  bottom: "data_lattice4"
  bottom: "data_lattice4"
  top: "conv6"
  param {
    lr_mult: 1
    decay_mult: 1
  }
  param {
    lr_mult: 2
    decay_mult: 0
  }
  permutohedral_param {
    num_output: 256
    neighborhood_size: 1
    filter_filler {
      type: "gaussian"
      std: 0.001
    }
    bias_term: true
    bias_filler {
      type: "constant"
      value: 0
    }
    group: 1
    norm_type: AFTER
    offset_type: NONE
  }
}
layer {
  name: "bn6"
  type: "BatchNorm"
  bottom: "conv6"
  top: "bn6"
}
layer {
  name: "relu6"
  type: "ReLU"
  bottom: "bn6"
  top: "bn6"
}
layer {
  name: "concat6"
  type: "Concat"
  bottom: "bn6"
  bottom: "bn2"
  bottom: "bn3"
  bottom: "bn4"
  bottom: "bn5"
  top: "concat6"
}
layer {
  name: "conv7"
  type: "Convolution"
  bottom: "concat6"
  top: "conv7"
  param {
    lr_mult: 1
  }
  param {
    lr_mult: 0.1
  }
  convolution_param {
    num_output: 128
    pad: 0
    kernel_size: 1
    stride: 1
    weight_filler {
      type: "xavier"
    }
    bias_filler {
      type: "constant"
      value: 0
    }
  }
}
layer {
  name: "bn7"
  type: "BatchNorm"
  bottom: "conv7"
  top: "bn7"
}
layer {
  name: "relu7"
  type: "ReLU"
  bottom: "bn7"
  top: "bn7"
}
layer {
  name: "conv8"
  type: "Convolution"
  bottom: "bn7"
  top: "conv8"
  param {
    lr_mult: 1
  }
  param {
    lr_mult: 0.1
  }
  convolution_param {
    num_output: 13
    pad: 0
    kernel_size: 1
    stride: 1
    weight_filler {
      type: "xavier"
    }
    bias_filler {
      type: "constant"
      value: 0
    }
  }
}
layer {
  name: "loss"
  type: "SoftmaxWithLoss"
  bottom: "conv8"
  bottom: "label"
  top: "loss"
}
layer {
  name: "accuracy"
  type: "Accuracy"
  bottom: "conv8"
  bottom: "label"
  top: "accuracy"
}
I0806 16:28:41.715034 14743 layer_factory.hpp:77] Creating layer data
I0806 16:28:41.728526 14743 net.cpp:84] Creating Layer data
I0806 16:28:41.730023 14743 net.cpp:380] data -> data
I0806 16:28:41.730172 14743 net.cpp:380] data -> label
I0806 16:28:42.439811 14745 upgrade_proto.cpp:1084] Attempting to upgrade input file specified using deprecated 'solver_type' field (enum)': /mnt/lustre/wangjiayun/repos/splatnet/exp/lidar3d/area6/6_solver.prototxt
…
I0806 16:28:42.605605 14749 upgrade_proto.cpp:1084] Attempting to upgrade input file specified using deprecated 'solver_type' field (enum)': /mnt/lustre/wangjiayun/repos/splatnet/exp/lidar3d/area6/6_solver.prototxt
I0806 16:28:42.605748 14749 upgrade_proto.cpp:1091] Successfully upgraded file specified using deprecated 'solver_type' field (enum) to 'type' field (string).
W0806 16:28:42.605756 14749 upgrade_proto.cpp:1093] Note that future Caffe releases will only support 'type' field (string) for a solver's type.
I0806 16:34:18.095687 14743 net.cpp:122] Setting up data
I0806 16:34:18.115963 14743 net.cpp:129] Top shape: 12 3 1 8192 (294912)
I0806 16:34:18.116019 14743 net.cpp:129] Top shape: 12 1 1 8192 (98304)
I0806 16:34:18.116029 14743 net.cpp:137] Memory required for data: 1572864
I0806 16:34:18.148774 14743 layer_factory.hpp:77] Creating layer data_data_0_split
I0806 16:34:18.188379 14743 net.cpp:84] Creating Layer data_data_0_split
I0806 16:34:18.209127 14743 net.cpp:406] data_data_0_split <- data
I0806 16:34:18.210064 14743 net.cpp:380] data_data_0_split -> data_data_0_split_0
I0806 16:34:18.224944 14743 net.cpp:380] data_data_0_split -> data_data_0_split_1
I0806 16:34:18.224992 14743 net.cpp:380] data_data_0_split -> data_data_0_split_2
I0806 16:34:18.225009 14743 net.cpp:380] data_data_0_split -> data_data_0_split_3
I0806 16:34:18.225023 14743 net.cpp:380] data_data_0_split -> data_data_0_split_4
I0806 16:34:18.225034 14743 net.cpp:380] data_data_0_split -> data_data_0_split_5
I0806 16:34:18.239892 14743 net.cpp:122] Setting up data_data_0_split
I0806 16:34:18.239951 14743 net.cpp:129] Top shape: 12 3 1 8192 (294912)
I0806 16:34:18.239962 14743 net.cpp:129] Top shape: 12 3 1 8192 (294912)
I0806 16:34:18.239971 14743 net.cpp:129] Top shape: 12 3 1 8192 (294912)
I0806 16:34:18.239979 14743 net.cpp:129] Top shape: 12 3 1 8192 (294912)
I0806 16:34:18.239987 14743 net.cpp:129] Top shape: 12 3 1 8192 (294912)
I0806 16:34:18.239995 14743 net.cpp:129] Top shape: 12 3 1 8192 (294912)
I0806 16:34:18.240000 14743 net.cpp:137] Memory required for data: 8650752
I0806 16:34:18.240010 14743 layer_factory.hpp:77] Creating layer label_data_1_split
I0806 16:34:18.240041 14743 net.cpp:84] Creating Layer label_data_1_split
I0806 16:34:18.240051 14743 net.cpp:406] label_data_1_split <- label
I0806 16:34:18.240064 14743 net.cpp:380] label_data_1_split -> label_data_1_split_0
I0806 16:34:18.240082 14743 net.cpp:380] label_data_1_split -> label_data_1_split_1
I0806 16:34:18.240145 14743 net.cpp:122] Setting up label_data_1_split
I0806 16:34:18.240159 14743 net.cpp:129] Top shape: 12 1 1 8192 (98304)
I0806 16:34:18.240169 14743 net.cpp:129] Top shape: 12 1 1 8192 (98304)
I0806 16:34:18.240175 14743 net.cpp:137] Memory required for data: 9437184
I0806 16:34:18.240180 14743 layer_factory.hpp:77] Creating layer data_feat
I0806 16:34:18.276255 14743 net.cpp:84] Creating Layer data_feat
I0806 16:34:18.276304 14743 net.cpp:406] data_feat <- data_data_0_split_0
I0806 16:34:18.276326 14743 net.cpp:380] data_feat -> data_feat
I0806 16:34:18.288983 14743 net.cpp:122] Setting up data_feat
I0806 16:34:18.289032 14743 net.cpp:129] Top shape: 12 3 1 8192 (294912)
I0806 16:34:18.289041 14743 net.cpp:137] Memory required for data: 10616832
I0806 16:34:18.289057 14743 layer_factory.hpp:77] Creating layer conv1
I0806 16:34:18.295836 14743 net.cpp:84] Creating Layer conv1
I0806 16:34:18.295871 14743 net.cpp:406] conv1 <- data_feat
I0806 16:34:18.295891 14743 net.cpp:380] conv1 -> conv1
I0806 16:34:25.126044 14743 net.cpp:122] Setting up conv1
I0806 16:34:25.126101 14743 net.cpp:129] Top shape: 12 32 1 8192 (3145728)
I0806 16:34:25.126111 14743 net.cpp:137] Memory required for data: 23199744
I0806 16:34:25.126222 14743 layer_factory.hpp:77] Creating layer bn1
I0806 16:34:25.134405 14743 net.cpp:84] Creating Layer bn1
I0806 16:34:25.134449 14743 net.cpp:406] bn1 <- conv1
I0806 16:34:25.134472 14743 net.cpp:380] bn1 -> bn1
I0806 16:34:25.175179 14743 net.cpp:122] Setting up bn1
I0806 16:34:25.175233 14743 net.cpp:129] Top shape: 12 32 1 8192 (3145728)
I0806 16:34:25.175245 14743 net.cpp:137] Memory required for data: 35782656
I0806 16:34:25.175277 14743 layer_factory.hpp:77] Creating layer relu1
I0806 16:34:25.196475 14743 net.cpp:84] Creating Layer relu1
I0806 16:34:25.196511 14743 net.cpp:406] relu1 <- bn1
I0806 16:34:25.196527 14743 net.cpp:367] relu1 -> bn1 (in-place)
I0806 16:34:25.217347 14743 net.cpp:122] Setting up relu1
I0806 16:34:25.217394 14743 net.cpp:129] Top shape: 12 32 1 8192 (3145728)
I0806 16:34:25.217404 14743 net.cpp:137] Memory required for data: 48365568
I0806 16:34:25.217416 14743 layer_factory.hpp:77] Creating layer data_lattice0
I0806 16:34:25.217528 14743 net.cpp:84] Creating Layer data_lattice0
I0806 16:34:25.217546 14743 net.cpp:406] data_lattice0 <- data_data_0_split_1
I0806 16:34:25.217572 14743 net.cpp:380] data_lattice0 -> data_lattice0
I0806 16:34:25.220705 14743 net.cpp:122] Setting up data_lattice0
I0806 16:34:25.220736 14743 net.cpp:129] Top shape: 12 3 1 8192 (294912)
I0806 16:34:25.220744 14743 net.cpp:137] Memory required for data: 49545216
I0806 16:34:25.220753 14743 layer_factory.hpp:77] Creating layer data_lattice0_data_lattice0_0_split
I0806 16:34:25.220778 14743 net.cpp:84] Creating Layer data_lattice0_data_lattice0_0_split
I0806 16:34:25.220788 14743 net.cpp:406] data_lattice0_data_lattice0_0_split <- data_lattice0
I0806 16:34:25.220803 14743 net.cpp:380] data_lattice0_data_lattice0_0_split -> data_lattice0_data_lattice0_0_split_0
I0806 16:34:25.220826 14743 net.cpp:380] data_lattice0_data_lattice0_0_split -> data_lattice0_data_lattice0_0_split_1
I0806 16:34:25.220906 14743 net.cpp:122] Setting up data_lattice0_data_lattice0_0_split
I0806 16:34:25.220921 14743 net.cpp:129] Top shape: 12 3 1 8192 (294912)
I0806 16:34:25.220932 14743 net.cpp:129] Top shape: 12 3 1 8192 (294912)
I0806 16:34:25.220938 14743 net.cpp:137] Memory required for data: 51904512
I0806 16:34:25.220944 14743 layer_factory.hpp:77] Creating layer conv2
I0806 16:34:25.221576 14743 net.cpp:84] Creating Layer conv2
I0806 16:34:25.221596 14743 net.cpp:406] conv2 <- bn1
I0806 16:34:25.221608 14743 net.cpp:406] conv2 <- data_lattice0_data_lattice0_0_split_0
I0806 16:34:25.221617 14743 net.cpp:406] conv2 <- data_lattice0_data_lattice0_0_split_1
I0806 16:34:25.221643 14743 net.cpp:380] conv2 -> conv2
I0806 16:34:25.227846 14743 net.cpp:122] Setting up conv2
I0806 16:34:25.227882 14743 net.cpp:129] Top shape: 12 64 1 8192 (6291456)
I0806 16:34:25.227897 14743 net.cpp:137] Memory required for data: 77070336
I0806 16:34:25.227916 14743 layer_factory.hpp:77] Creating layer bn2
I0806 16:34:25.227931 14743 net.cpp:84] Creating Layer bn2
I0806 16:34:25.227941 14743 net.cpp:406] bn2 <- conv2
I0806 16:34:25.227955 14743 net.cpp:380] bn2 -> bn2
I0806 16:34:25.228358 14743 net.cpp:122] Setting up bn2
I0806 16:34:25.228374 14743 net.cpp:129] Top shape: 12 64 1 8192 (6291456)
I0806 16:34:25.228379 14743 net.cpp:137] Memory required for data: 102236160
I0806 16:34:25.228402 14743 layer_factory.hpp:77] Creating layer relu2
I0806 16:34:25.228416 14743 net.cpp:84] Creating Layer relu2
I0806 16:34:25.228423 14743 net.cpp:406] relu2 <- bn2
I0806 16:34:25.228435 14743 net.cpp:367] relu2 -> bn2 (in-place)
I0806 16:34:25.229986 14743 net.cpp:122] Setting up relu2
I0806 16:34:25.230015 14743 net.cpp:129] Top shape: 12 64 1 8192 (6291456)
I0806 16:34:25.230023 14743 net.cpp:137] Memory required for data: 127401984
I0806 16:34:25.230031 14743 layer_factory.hpp:77] Creating layer bn2_relu2_0_split
I0806 16:34:25.230046 14743 net.cpp:84] Creating Layer bn2_relu2_0_split
I0806 16:34:25.230056 14743 net.cpp:406] bn2_relu2_0_split <- bn2
I0806 16:34:25.230069 14743 net.cpp:380] bn2_relu2_0_split -> bn2_relu2_0_split_0
I0806 16:34:25.230084 14743 net.cpp:380] bn2_relu2_0_split -> bn2_relu2_0_split_1
I0806 16:34:25.230163 14743 net.cpp:122] Setting up bn2_relu2_0_split
I0806 16:34:25.230177 14743 net.cpp:129] Top shape: 12 64 1 8192 (6291456)
I0806 16:34:25.230186 14743 net.cpp:129] Top shape: 12 64 1 8192 (6291456)
I0806 16:34:25.230191 14743 net.cpp:137] Memory required for data: 177733632
I0806 16:34:25.230198 14743 layer_factory.hpp:77] Creating layer data_lattice1
I0806 16:34:25.230288 14743 net.cpp:84] Creating Layer data_lattice1
I0806 16:34:25.230303 14743 net.cpp:406] data_lattice1 <- data_data_0_split_2
I0806 16:34:25.230320 14743 net.cpp:380] data_lattice1 -> data_lattice1
I0806 16:34:25.232834 14743 net.cpp:122] Setting up data_lattice1
I0806 16:34:25.232867 14743 net.cpp:129] Top shape: 12 3 1 8192 (294912)
I0806 16:34:25.232875 14743 net.cpp:137] Memory required for data: 178913280
I0806 16:34:25.232885 14743 layer_factory.hpp:77] Creating layer data_lattice1_data_lattice1_0_split
I0806 16:34:25.232904 14743 net.cpp:84] Creating Layer data_lattice1_data_lattice1_0_split
I0806 16:34:25.232914 14743 net.cpp:406] data_lattice1_data_lattice1_0_split <- data_lattice1
I0806 16:34:25.232928 14743 net.cpp:380] data_lattice1_data_lattice1_0_split -> data_lattice1_data_lattice1_0_split_0
I0806 16:34:25.232950 14743 net.cpp:380] data_lattice1_data_lattice1_0_split -> data_lattice1_data_lattice1_0_split_1
I0806 16:34:25.233026 14743 net.cpp:122] Setting up data_lattice1_data_lattice1_0_split
I0806 16:34:25.233039 14743 net.cpp:129] Top shape: 12 3 1 8192 (294912)
I0806 16:34:25.233049 14743 net.cpp:129] Top shape: 12 3 1 8192 (294912)
I0806 16:34:25.233055 14743 net.cpp:137] Memory required for data: 181272576
I0806 16:34:25.233062 14743 layer_factory.hpp:77] Creating layer conv3
I0806 16:34:25.233079 14743 net.cpp:84] Creating Layer conv3
I0806 16:34:25.233089 14743 net.cpp:406] conv3 <- bn2_relu2_0_split_0
I0806 16:34:25.233098 14743 net.cpp:406] conv3 <- data_lattice1_data_lattice1_0_split_0
I0806 16:34:25.233108 14743 net.cpp:406] conv3 <- data_lattice1_data_lattice1_0_split_1
I0806 16:34:25.233121 14743 net.cpp:380] conv3 -> conv3
I0806 16:34:25.240820 14743 net.cpp:122] Setting up conv3
I0806 16:34:25.240844 14743 net.cpp:129] Top shape: 12 128 1 8192 (12582912)
I0806 16:34:25.240850 14743 net.cpp:137] Memory required for data: 231604224
I0806 16:34:25.240864 14743 layer_factory.hpp:77] Creating layer bn3
I0806 16:34:25.240883 14743 net.cpp:84] Creating Layer bn3
I0806 16:34:25.240891 14743 net.cpp:406] bn3 <- conv3
I0806 16:34:25.240906 14743 net.cpp:380] bn3 -> bn3
I0806 16:34:25.241277 14743 net.cpp:122] Setting up bn3
I0806 16:34:25.241291 14743 net.cpp:129] Top shape: 12 128 1 8192 (12582912)
I0806 16:34:25.241297 14743 net.cpp:137] Memory required for data: 281935872
I0806 16:34:25.241312 14743 layer_factory.hpp:77] Creating layer relu3
I0806 16:34:25.241327 14743 net.cpp:84] Creating Layer relu3
I0806 16:34:25.241334 14743 net.cpp:406] relu3 <- bn3
I0806 16:34:25.241344 14743 net.cpp:367] relu3 -> bn3 (in-place)
I0806 16:34:25.242022 14743 net.cpp:122] Setting up relu3
I0806 16:34:25.242043 14743 net.cpp:129] Top shape: 12 128 1 8192 (12582912)
I0806 16:34:25.242050 14743 net.cpp:137] Memory required for data: 332267520
I0806 16:34:25.242058 14743 layer_factory.hpp:77] Creating layer bn3_relu3_0_split
I0806 16:34:25.242074 14743 net.cpp:84] Creating Layer bn3_relu3_0_split
I0806 16:34:25.242081 14743 net.cpp:406] bn3_relu3_0_split <- bn3
I0806 16:34:25.242094 14743 net.cpp:380] bn3_relu3_0_split -> bn3_relu3_0_split_0
I0806 16:34:25.242107 14743 net.cpp:380] bn3_relu3_0_split -> bn3_relu3_0_split_1
I0806 16:34:25.242182 14743 net.cpp:122] Setting up bn3_relu3_0_split
I0806 16:34:25.242197 14743 net.cpp:129] Top shape: 12 128 1 8192 (12582912)
I0806 16:34:25.242203 14743 net.cpp:129] Top shape: 12 128 1 8192 (12582912)
I0806 16:34:25.242219 14743 net.cpp:137] Memory required for data: 432930816
I0806 16:34:25.242226 14743 layer_factory.hpp:77] Creating layer data_lattice2
I0806 16:34:25.242293 14743 net.cpp:84] Creating Layer data_lattice2
I0806 16:34:25.242307 14743 net.cpp:406] data_lattice2 <- data_data_0_split_3
I0806 16:34:25.242321 14743 net.cpp:380] data_lattice2 -> data_lattice2
I0806 16:34:25.244729 14743 net.cpp:122] Setting up data_lattice2
I0806 16:34:25.244757 14743 net.cpp:129] Top shape: 12 3 1 8192 (294912)
I0806 16:34:25.244765 14743 net.cpp:137] Memory required for data: 434110464
I0806 16:34:25.244772 14743 layer_factory.hpp:77] Creating layer data_lattice2_data_lattice2_0_split
I0806 16:34:25.244786 14743 net.cpp:84] Creating Layer data_lattice2_data_lattice2_0_split
I0806 16:34:25.244794 14743 net.cpp:406] data_lattice2_data_lattice2_0_split <- data_lattice2
I0806 16:34:25.244807 14743 net.cpp:380] data_lattice2_data_lattice2_0_split -> data_lattice2_data_lattice2_0_split_0
I0806 16:34:25.244823 14743 net.cpp:380] data_lattice2_data_lattice2_0_split -> data_lattice2_data_lattice2_0_split_1
I0806 16:34:25.244894 14743 net.cpp:122] Setting up data_lattice2_data_lattice2_0_split
I0806 16:34:25.244907 14743 net.cpp:129] Top shape: 12 3 1 8192 (294912)
I0806 16:34:25.244915 14743 net.cpp:129] Top shape: 12 3 1 8192 (294912)
I0806 16:34:25.244922 14743 net.cpp:137] Memory required for data: 436469760
I0806 16:34:25.244928 14743 layer_factory.hpp:77] Creating layer conv4
I0806 16:34:25.244948 14743 net.cpp:84] Creating Layer conv4
I0806 16:34:25.244957 14743 net.cpp:406] conv4 <- bn3_relu3_0_split_0
I0806 16:34:25.244968 14743 net.cpp:406] conv4 <- data_lattice2_data_lattice2_0_split_0
I0806 16:34:25.244976 14743 net.cpp:406] conv4 <- data_lattice2_data_lattice2_0_split_1
I0806 16:34:25.244988 14743 net.cpp:380] conv4 -> conv4
I0806 16:34:25.273555 14743 net.cpp:122] Setting up conv4
I0806 16:34:25.273587 14743 net.cpp:129] Top shape: 12 256 1 8192 (25165824)
I0806 16:34:25.273594 14743 net.cpp:137] Memory required for data: 537133056
I0806 16:34:25.273615 14743 layer_factory.hpp:77] Creating layer bn4
I0806 16:34:25.273643 14743 net.cpp:84] Creating Layer bn4
I0806 16:34:25.273653 14743 net.cpp:406] bn4 <- conv4
I0806 16:34:25.273663 14743 net.cpp:380] bn4 -> bn4
I0806 16:34:25.273998 14743 net.cpp:122] Setting up bn4
I0806 16:34:25.274010 14743 net.cpp:129] Top shape: 12 256 1 8192 (25165824)
I0806 16:34:25.274016 14743 net.cpp:137] Memory required for data: 637796352
I0806 16:34:25.274029 14743 layer_factory.hpp:77] Creating layer relu4
I0806 16:34:25.274041 14743 net.cpp:84] Creating Layer relu4
I0806 16:34:25.274049 14743 net.cpp:406] relu4 <- bn4
I0806 16:34:25.274056 14743 net.cpp:367] relu4 -> bn4 (in-place)
I0806 16:34:25.275176 14743 net.cpp:122] Setting up relu4
I0806 16:34:25.275197 14743 net.cpp:129] Top shape: 12 256 1 8192 (25165824)
I0806 16:34:25.275204 14743 net.cpp:137] Memory required for data: 738459648
I0806 16:34:25.275210 14743 layer_factory.hpp:77] Creating layer bn4_relu4_0_split
I0806 16:34:25.275221 14743 net.cpp:84] Creating Layer bn4_relu4_0_split
I0806 16:34:25.275228 14743 net.cpp:406] bn4_relu4_0_split <- bn4
I0806 16:34:25.275240 14743 net.cpp:380] bn4_relu4_0_split -> bn4_relu4_0_split_0
I0806 16:34:25.275260 14743 net.cpp:380] bn4_relu4_0_split -> bn4_relu4_0_split_1
I0806 16:34:25.275333 14743 net.cpp:122] Setting up bn4_relu4_0_split
I0806 16:34:25.275346 14743 net.cpp:129] Top shape: 12 256 1 8192 (25165824)
I0806 16:34:25.275354 14743 net.cpp:129] Top shape: 12 256 1 8192 (25165824)
I0806 16:34:25.275359 14743 net.cpp:137] Memory required for data: 939786240
I0806 16:34:25.275364 14743 layer_factory.hpp:77] Creating layer data_lattice3
I0806 16:34:25.275421 14743 net.cpp:84] Creating Layer data_lattice3
I0806 16:34:25.275434 14743 net.cpp:406] data_lattice3 <- data_data_0_split_4
I0806 16:34:25.275444 14743 net.cpp:380] data_lattice3 -> data_lattice3
I0806 16:34:25.277523 14743 net.cpp:122] Setting up data_lattice3
I0806 16:34:25.277545 14743 net.cpp:129] Top shape: 12 3 1 8192 (294912)
I0806 16:34:25.277552 14743 net.cpp:137] Memory required for data: 940965888
I0806 16:34:25.277559 14743 layer_factory.hpp:77] Creating layer data_lattice3_data_lattice3_0_split
I0806 16:34:25.277572 14743 net.cpp:84] Creating Layer data_lattice3_data_lattice3_0_split
I0806 16:34:25.277580 14743 net.cpp:406] data_lattice3_data_lattice3_0_split <- data_lattice3
I0806 16:34:25.277590 14743 net.cpp:380] data_lattice3_data_lattice3_0_split -> data_lattice3_data_lattice3_0_split_0
I0806 16:34:25.277603 14743 net.cpp:380] data_lattice3_data_lattice3_0_split -> data_lattice3_data_lattice3_0_split_1
I0806 16:34:25.277676 14743 net.cpp:122] Setting up data_lattice3_data_lattice3_0_split
I0806 16:34:25.277690 14743 net.cpp:129] Top shape: 12 3 1 8192 (294912)
I0806 16:34:25.277696 14743 net.cpp:129] Top shape: 12 3 1 8192 (294912)
I0806 16:34:25.277701 14743 net.cpp:137] Memory required for data: 943325184
I0806 16:34:25.277706 14743 layer_factory.hpp:77] Creating layer conv5
I0806 16:34:25.277722 14743 net.cpp:84] Creating Layer conv5
I0806 16:34:25.277729 14743 net.cpp:406] conv5 <- bn4_relu4_0_split_0
I0806 16:34:25.277736 14743 net.cpp:406] conv5 <- data_lattice3_data_lattice3_0_split_0
I0806 16:34:25.277743 14743 net.cpp:406] conv5 <- data_lattice3_data_lattice3_0_split_1
I0806 16:34:25.277753 14743 net.cpp:380] conv5 -> conv5
I0806 16:34:25.322947 14743 net.cpp:122] Setting up conv5
I0806 16:34:25.322980 14743 net.cpp:129] Top shape: 12 256 1 8192 (25165824)
I0806 16:34:25.322985 14743 net.cpp:137] Memory required for data: 1043988480
I0806 16:34:25.322996 14743 layer_factory.hpp:77] Creating layer bn5
I0806 16:34:25.323007 14743 net.cpp:84] Creating Layer bn5
I0806 16:34:25.323016 14743 net.cpp:406] bn5 <- conv5
I0806 16:34:25.323026 14743 net.cpp:380] bn5 -> bn5
I0806 16:34:25.323305 14743 net.cpp:122] Setting up bn5
I0806 16:34:25.323316 14743 net.cpp:129] Top shape: 12 256 1 8192 (25165824)
I0806 16:34:25.323320 14743 net.cpp:137] Memory required for data: 1144651776
I0806 16:34:25.323329 14743 layer_factory.hpp:77] Creating layer relu5
I0806 16:34:25.323338 14743 net.cpp:84] Creating Layer relu5
I0806 16:34:25.323343 14743 net.cpp:406] relu5 <- bn5
I0806 16:34:25.323354 14743 net.cpp:367] relu5 -> bn5 (in-place)
I0806 16:34:25.323854 14743 net.cpp:122] Setting up relu5
I0806 16:34:25.323869 14743 net.cpp:129] Top shape: 12 256 1 8192 (25165824)
I0806 16:34:25.323874 14743 net.cpp:137] Memory required for data: 1245315072
I0806 16:34:25.323879 14743 layer_factory.hpp:77] Creating layer bn5_relu5_0_split
I0806 16:34:25.323889 14743 net.cpp:84] Creating Layer bn5_relu5_0_split
I0806 16:34:25.323895 14743 net.cpp:406] bn5_relu5_0_split <- bn5
I0806 16:34:25.323904 14743 net.cpp:380] bn5_relu5_0_split -> bn5_relu5_0_split_0
I0806 16:34:25.323913 14743 net.cpp:380] bn5_relu5_0_split -> bn5_relu5_0_split_1
I0806 16:34:25.323971 14743 net.cpp:122] Setting up bn5_relu5_0_split
I0806 16:34:25.323982 14743 net.cpp:129] Top shape: 12 256 1 8192 (25165824)
I0806 16:34:25.323987 14743 net.cpp:129] Top shape: 12 256 1 8192 (25165824)
I0806 16:34:25.323990 14743 net.cpp:137] Memory required for data: 1446641664
I0806 16:34:25.323994 14743 layer_factory.hpp:77] Creating layer data_lattice4
I0806 16:34:25.324064 14743 net.cpp:84] Creating Layer data_lattice4
I0806 16:34:25.324074 14743 net.cpp:406] data_lattice4 <- data_data_0_split_5
I0806 16:34:25.324084 14743 net.cpp:380] data_lattice4 -> data_lattice4
I0806 16:34:25.325764 14743 net.cpp:122] Setting up data_lattice4
I0806 16:34:25.325783 14743 net.cpp:129] Top shape: 12 3 1 8192 (294912)
I0806 16:34:25.325788 14743 net.cpp:137] Memory required for data: 1447821312
I0806 16:34:25.325793 14743 layer_factory.hpp:77] Creating layer data_lattice4_data_lattice4_0_split
I0806 16:34:25.325811 14743 net.cpp:84] Creating Layer data_lattice4_data_lattice4_0_split
I0806 16:34:25.325817 14743 net.cpp:406] data_lattice4_data_lattice4_0_split <- data_lattice4
I0806 16:34:25.325826 14743 net.cpp:380] data_lattice4_data_lattice4_0_split -> data_lattice4_data_lattice4_0_split_0
I0806 16:34:25.325836 14743 net.cpp:380] data_lattice4_data_lattice4_0_split -> data_lattice4_data_lattice4_0_split_1
I0806 16:34:25.325887 14743 net.cpp:122] Setting up data_lattice4_data_lattice4_0_split
I0806 16:34:25.325897 14743 net.cpp:129] Top shape: 12 3 1 8192 (294912)
I0806 16:34:25.325902 14743 net.cpp:129] Top shape: 12 3 1 8192 (294912)
I0806 16:34:25.325906 14743 net.cpp:137] Memory required for data: 1450180608
I0806 16:34:25.325911 14743 layer_factory.hpp:77] Creating layer conv6
I0806 16:34:25.325923 14743 net.cpp:84] Creating Layer conv6
I0806 16:34:25.325928 14743 net.cpp:406] conv6 <- bn5_relu5_0_split_0
I0806 16:34:25.325934 14743 net.cpp:406] conv6 <- data_lattice4_data_lattice4_0_split_0
I0806 16:34:25.325940 14743 net.cpp:406] conv6 <- data_lattice4_data_lattice4_0_split_1
I0806 16:34:25.325948 14743 net.cpp:380] conv6 -> conv6
I0806 16:34:25.363885 14743 net.cpp:122] Setting up conv6
I0806 16:34:25.363922 14743 net.cpp:129] Top shape: 12 256 1 8192 (25165824)
I0806 16:34:25.363927 14743 net.cpp:137] Memory required for data: 1550843904
I0806 16:34:25.363937 14743 layer_factory.hpp:77] Creating layer bn6
I0806 16:34:25.363946 14743 net.cpp:84] Creating Layer bn6
I0806 16:34:25.363955 14743 net.cpp:406] bn6 <- conv6
I0806 16:34:25.363963 14743 net.cpp:380] bn6 -> bn6
I0806 16:34:25.364217 14743 net.cpp:122] Setting up bn6
I0806 16:34:25.364226 14743 net.cpp:129] Top shape: 12 256 1 8192 (25165824)
I0806 16:34:25.364230 14743 net.cpp:137] Memory required for data: 1651507200
I0806 16:34:25.364238 14743 layer_factory.hpp:77] Creating layer relu6
I0806 16:34:25.364253 14743 net.cpp:84] Creating Layer relu6
I0806 16:34:25.364257 14743 net.cpp:406] relu6 <- bn6
I0806 16:34:25.364264 14743 net.cpp:367] relu6 -> bn6 (in-place)
I0806 16:34:25.364733 14743 net.cpp:122] Setting up relu6
I0806 16:34:25.364748 14743 net.cpp:129] Top shape: 12 256 1 8192 (25165824)
I0806 16:34:25.364753 14743 net.cpp:137] Memory required for data: 1752170496
I0806 16:34:25.364758 14743 layer_factory.hpp:77] Creating layer concat6
I0806 16:34:25.364794 14743 net.cpp:84] Creating Layer concat6
I0806 16:34:25.364801 14743 net.cpp:406] concat6 <- bn6
I0806 16:34:25.364809 14743 net.cpp:406] concat6 <- bn2_relu2_0_split_1
I0806 16:34:25.364814 14743 net.cpp:406] concat6 <- bn3_relu3_0_split_1
I0806 16:34:25.364818 14743 net.cpp:406] concat6 <- bn4_relu4_0_split_1
I0806 16:34:25.364823 14743 net.cpp:406] concat6 <- bn5_relu5_0_split_1
I0806 16:34:25.364830 14743 net.cpp:380] concat6 -> concat6
I0806 16:34:25.364892 14743 net.cpp:122] Setting up concat6
I0806 16:34:25.364909 14743 net.cpp:129] Top shape: 12 960 1 8192 (94371840)
I0806 16:34:25.364919 14743 net.cpp:137] Memory required for data: 2129657856
I0806 16:34:25.364926 14743 layer_factory.hpp:77] Creating layer conv7
I0806 16:34:25.364941 14743 net.cpp:84] Creating Layer conv7
I0806 16:34:25.364948 14743 net.cpp:406] conv7 <- concat6
I0806 16:34:25.364956 14743 net.cpp:380] conv7 -> conv7
I0806 16:34:25.368389 14743 net.cpp:122] Setting up conv7
I0806 16:34:25.368407 14743 net.cpp:129] Top shape: 12 128 1 8192 (12582912)
I0806 16:34:25.368412 14743 net.cpp:137] Memory required for data: 2179989504
I0806 16:34:25.368420 14743 layer_factory.hpp:77] Creating layer bn7
I0806 16:34:25.368430 14743 net.cpp:84] Creating Layer bn7
I0806 16:34:25.368436 14743 net.cpp:406] bn7 <- conv7
I0806 16:34:25.368444 14743 net.cpp:380] bn7 -> bn7
I0806 16:34:25.368727 14743 net.cpp:122] Setting up bn7
I0806 16:34:25.368738 14743 net.cpp:129] Top shape: 12 128 1 8192 (12582912)
I0806 16:34:25.368742 14743 net.cpp:137] Memory required for data: 2230321152
I0806 16:34:25.368760 14743 layer_factory.hpp:77] Creating layer relu7
I0806 16:34:25.368770 14743 net.cpp:84] Creating Layer relu7
I0806 16:34:25.368775 14743 net.cpp:406] relu7 <- bn7
I0806 16:34:25.368782 14743 net.cpp:367] relu7 -> bn7 (in-place)
I0806 16:34:25.369118 14743 net.cpp:122] Setting up relu7
I0806 16:34:25.369132 14743 net.cpp:129] Top shape: 12 128 1 8192 (12582912)
I0806 16:34:25.369137 14743 net.cpp:137] Memory required for data: 2280652800
I0806 16:34:25.369140 14743 layer_factory.hpp:77] Creating layer conv8
I0806 16:34:25.369154 14743 net.cpp:84] Creating Layer conv8
I0806 16:34:25.369158 14743 net.cpp:406] conv8 <- bn7
I0806 16:34:25.369168 14743 net.cpp:380] conv8 -> conv8
I0806 16:34:25.372346 14743 net.cpp:122] Setting up conv8
I0806 16:34:25.372364 14743 net.cpp:129] Top shape: 12 13 1 8192 (1277952)
I0806 16:34:25.372370 14743 net.cpp:137] Memory required for data: 2285764608
I0806 16:34:25.372378 14743 layer_factory.hpp:77] Creating layer conv8_conv8_0_split
I0806 16:34:25.372387 14743 net.cpp:84] Creating Layer conv8_conv8_0_split
I0806 16:34:25.372393 14743 net.cpp:406] conv8_conv8_0_split <- conv8
I0806 16:34:25.372401 14743 net.cpp:380] conv8_conv8_0_split -> conv8_conv8_0_split_0
I0806 16:34:25.372411 14743 net.cpp:380] conv8_conv8_0_split -> conv8_conv8_0_split_1
I0806 16:34:25.372458 14743 net.cpp:122] Setting up conv8_conv8_0_split
I0806 16:34:25.372468 14743 net.cpp:129] Top shape: 12 13 1 8192 (1277952)
I0806 16:34:25.372473 14743 net.cpp:129] Top shape: 12 13 1 8192 (1277952)
I0806 16:34:25.372476 14743 net.cpp:137] Memory required for data: 2295988224
I0806 16:34:25.372480 14743 layer_factory.hpp:77] Creating layer loss
I0806 16:34:25.372531 14743 net.cpp:84] Creating Layer loss
I0806 16:34:25.372541 14743 net.cpp:406] loss <- conv8_conv8_0_split_0
I0806 16:34:25.372548 14743 net.cpp:406] loss <- label_data_1_split_0
I0806 16:34:25.372556 14743 net.cpp:380] loss -> loss
…
