…
I0816 06:16:55.222878 12507 net.cpp:294] The NetState phase (0) differed from the phase (1) specified by a rule in layer data
I0816 06:16:55.223369 12507 net.cpp:51] Initializing net from parameters: 
state {
  phase: TRAIN
}
layer {
  name: "data"
  type: "Python"
  top: "data"
  top: "label"
  include {
    phase: TRAIN
  }
  python_param {
    module: "dataset_lidar"
    layer: "InputShapenet"
    param_str: "{\'sample_size\': 4096, \'test_area\': \'6\', \'batch_size\': 12, \'feat_dims\': \'x_y_z_r_g_b\', \'subset\': \'train\', \'root\': \'../../data/shapenet_ericyi_ply\', \'jitter_xyz\': 0.01, \'jitter_stretch\': 0.05, \'jitter_rotation\': 5.0}"
  }
}
layer {
  name: "data_feat"
  type: "Python"
  bottom: "data"
  top: "data_feat"
  python_param {
    module: "custom_layers"
    layer: "PickAndScale"
    param_str: "0_1_2"
  }
}
layer {
  name: "conv1"
  type: "Convolution"
  bottom: "data"
  top: "conv1"
  param {
    lr_mult: 1
  }
  param {
    lr_mult: 0.1
  }
  convolution_param {
    num_output: 64
    pad: 0
    kernel_size: 1
    stride: 1
    weight_filler {
      type: "xavier"
    }
    bias_filler {
      type: "constant"
      value: 0
    }
  }
}
layer {
  name: "bn1"
  type: "BatchNorm"
  bottom: "conv1"
  top: "bn1"
}
layer {
  name: "relu1"
  type: "ReLU"
  bottom: "bn1"
  top: "bn1"
}
layer {
  name: "conv1a"
  type: "Convolution"
  bottom: "bn1"
  top: "conv1a"
  param {
    lr_mult: 1
  }
  param {
    lr_mult: 0.1
  }
  convolution_param {
    num_output: 64
    pad: 0
    kernel_size: 1
    stride: 1
    weight_filler {
      type: "xavier"
    }
    bias_filler {
      type: "constant"
      value: 0
    }
  }
}
layer {
  name: "bn1a"
  type: "BatchNorm"
  bottom: "conv1a"
  top: "bn1a"
}
layer {
  name: "relu1a"
  type: "ReLU"
  bottom: "bn1a"
  top: "bn1a"
}
layer {
  name: "fconv1"
  type: "Convolution"
  bottom: "bn1a"
  top: "fconv1"
  param {
    lr_mult: 1
  }
  param {
    lr_mult: 0.1
  }
  convolution_param {
    num_output: 3
    pad: 0
    kernel_size: 1
    stride: 1
    weight_filler {
      type: "xavier"
    }
    bias_filler {
      type: "constant"
      value: 0
    }
  }
}
layer {
  name: "fbn1"
  type: "BatchNorm"
  bottom: "fconv1"
  top: "fbn1"
}
layer {
  name: "frelu1"
  type: "ReLU"
  bottom: "fbn1"
  top: "fbn1"
}
layer {
  name: "feat1"
  type: "Eltwise"
  bottom: "data_feat"
  bottom: "fbn1"
  top: "feat1"
  eltwise_param {
    operation: SUM
  }
}
layer {
  name: "data_lattice0"
  type: "Python"
  bottom: "feat1"
  top: "data_lattice0"
  python_param {
    module: "custom_layers"
    layer: "PickAndScale"
    param_str: "0*48_1*48_2*48"
  }
}
layer {
  name: "conv2"
  type: "Permutohedral"
  bottom: "bn1a"
  bottom: "data_lattice0"
  bottom: "data_lattice0"
  top: "conv2"
  param {
    lr_mult: 1
    decay_mult: 1
  }
  param {
    lr_mult: 2
    decay_mult: 0
  }
  permutohedral_param {
    num_output: 64
    neighborhood_size: 1
    filter_filler {
      type: "gaussian"
      std: 0.001
    }
    bias_term: true
    bias_filler {
      type: "constant"
      value: 0
    }
    group: 1
    norm_type: AFTER
    offset_type: NONE
  }
}
layer {
  name: "bn2"
  type: "BatchNorm"
  bottom: "conv2"
  top: "bn2"
}
layer {
  name: "relu2"
  type: "ReLU"
  bottom: "bn2"
  top: "bn2"
}
layer {
  name: "fconv2"
  type: "Convolution"
  bottom: "bn2"
  top: "fconv2"
  param {
    lr_mult: 1
  }
  param {
    lr_mult: 0.1
  }
  convolution_param {
    num_output: 3
    pad: 0
    kernel_size: 1
    stride: 1
    weight_filler {
      type: "xavier"
    }
    bias_filler {
      type: "constant"
      value: 0
    }
  }
}
layer {
  name: "fbn2"
  type: "BatchNorm"
  bottom: "fconv2"
  top: "fbn2"
}
layer {
  name: "frelu2"
  type: "ReLU"
  bottom: "fbn2"
  top: "fbn2"
}
layer {
  name: "feat2"
  type: "Eltwise"
  bottom: "data_feat"
  bottom: "fbn2"
  top: "feat2"
  eltwise_param {
    operation: SUM
  }
}
layer {
  name: "data_lattice1"
  type: "Python"
  bottom: "feat2"
  top: "data_lattice1"
  python_param {
    module: "custom_layers"
    layer: "PickAndScale"
    param_str: "0*24_1*24_2*24"
  }
}
layer {
  name: "conv3"
  type: "Permutohedral"
  bottom: "bn2"
  bottom: "data_lattice1"
  bottom: "data_lattice1"
  top: "conv3"
  param {
    lr_mult: 1
    decay_mult: 1
  }
  param {
    lr_mult: 2
    decay_mult: 0
  }
  permutohedral_param {
    num_output: 128
    neighborhood_size: 1
    filter_filler {
      type: "gaussian"
      std: 0.001
    }
    bias_term: true
    bias_filler {
      type: "constant"
      value: 0
    }
    group: 1
    norm_type: AFTER
    offset_type: NONE
  }
}
layer {
  name: "bn3"
  type: "BatchNorm"
  bottom: "conv3"
  top: "bn3"
}
layer {
  name: "relu3"
  type: "ReLU"
  bottom: "bn3"
  top: "bn3"
}
layer {
  name: "fconv3"
  type: "Convolution"
  bottom: "bn3"
  top: "fconv3"
  param {
    lr_mult: 1
  }
  param {
    lr_mult: 0.1
  }
  convolution_param {
    num_output: 3
    pad: 0
    kernel_size: 1
    stride: 1
    weight_filler {
      type: "xavier"
    }
    bias_filler {
      type: "constant"
      value: 0
    }
  }
}
layer {
  name: "fbn3"
  type: "BatchNorm"
  bottom: "fconv3"
  top: "fbn3"
}
layer {
  name: "frelu3"
  type: "ReLU"
  bottom: "fbn3"
  top: "fbn3"
}
layer {
  name: "feat3"
  type: "Eltwise"
  bottom: "data_feat"
  bottom: "fbn3"
  top: "feat3"
  eltwise_param {
    operation: SUM
  }
}
layer {
  name: "data_lattice2"
  type: "Python"
  bottom: "feat3"
  top: "data_lattice2"
  python_param {
    module: "custom_layers"
    layer: "PickAndScale"
    param_str: "0*12_1*12_2*12"
  }
}
layer {
  name: "conv4"
  type: "Permutohedral"
  bottom: "bn3"
  bottom: "data_lattice2"
  bottom: "data_lattice2"
  top: "conv4"
  param {
    lr_mult: 1
    decay_mult: 1
  }
  param {
    lr_mult: 2
    decay_mult: 0
  }
  permutohedral_param {
    num_output: 256
    neighborhood_size: 1
    filter_filler {
      type: "gaussian"
      std: 0.001
    }
    bias_term: true
    bias_filler {
      type: "constant"
      value: 0
    }
    group: 1
    norm_type: AFTER
    offset_type: NONE
  }
}
layer {
  name: "bn4"
  type: "BatchNorm"
  bottom: "conv4"
  top: "bn4"
}
layer {
  name: "relu4"
  type: "ReLU"
  bottom: "bn4"
  top: "bn4"
}
layer {
  name: "fconv4"
  type: "Convolution"
  bottom: "bn4"
  top: "fconv4"
  param {
    lr_mult: 1
  }
  param {
    lr_mult: 0.1
  }
  convolution_param {
    num_output: 3
    pad: 0
    kernel_size: 1
    stride: 1
    weight_filler {
      type: "xavier"
    }
    bias_filler {
      type: "constant"
      value: 0
    }
  }
}
layer {
  name: "fbn4"
  type: "BatchNorm"
  bottom: "fconv4"
  top: "fbn4"
}
layer {
  name: "frelu4"
  type: "ReLU"
  bottom: "fbn4"
  top: "fbn4"
}
layer {
  name: "feat4"
  type: "Eltwise"
  bottom: "data_feat"
  bottom: "fbn4"
  top: "feat4"
  eltwise_param {
    operation: SUM
  }
}
layer {
  name: "data_lattice3"
  type: "Python"
  bottom: "feat4"
  top: "data_lattice3"
  python_param {
    module: "custom_layers"
    layer: "PickAndScale"
    param_str: "0*6_1*6_2*6"
  }
}
layer {
  name: "conv5"
  type: "Permutohedral"
  bottom: "bn4"
  bottom: "data_lattice3"
  bottom: "data_lattice3"
  top: "conv5"
  param {
    lr_mult: 1
    decay_mult: 1
  }
  param {
    lr_mult: 2
    decay_mult: 0
  }
  permutohedral_param {
    num_output: 256
    neighborhood_size: 1
    filter_filler {
      type: "gaussian"
      std: 0.001
    }
    bias_term: true
    bias_filler {
      type: "constant"
      value: 0
    }
    group: 1
    norm_type: AFTER
    offset_type: NONE
  }
}
layer {
  name: "bn5"
  type: "BatchNorm"
  bottom: "conv5"
  top: "bn5"
}
layer {
  name: "relu5"
  type: "ReLU"
  bottom: "bn5"
  top: "bn5"
}
layer {
  name: "fconv5"
  type: "Convolution"
  bottom: "bn5"
  top: "fconv5"
  param {
    lr_mult: 1
  }
  param {
    lr_mult: 0.1
  }
  convolution_param {
    num_output: 3
    pad: 0
    kernel_size: 1
    stride: 1
    weight_filler {
      type: "xavier"
    }
    bias_filler {
      type: "constant"
      value: 0
    }
  }
}
layer {
  name: "fbn5"
  type: "BatchNorm"
  bottom: "fconv5"
  top: "fbn5"
}
layer {
  name: "frelu5"
  type: "ReLU"
  bottom: "fbn5"
  top: "fbn5"
}
layer {
  name: "feat5"
  type: "Eltwise"
  bottom: "data_feat"
  bottom: "fbn5"
  top: "feat5"
  eltwise_param {
    operation: SUM
  }
}
layer {
  name: "data_lattice4"
  type: "Python"
  bottom: "feat5"
  top: "data_lattice4"
  python_param {
    module: "custom_layers"
    layer: "PickAndScale"
    param_str: "0*3_1*3_2*3"
  }
}
layer {
  name: "conv6"
  type: "Permutohedral"
  bottom: "bn5"
  bottom: "data_lattice4"
  bottom: "data_lattice4"
  top: "conv6"
  param {
    lr_mult: 1
    decay_mult: 1
  }
  param {
    lr_mult: 2
    decay_mult: 0
  }
  permutohedral_param {
    num_output: 256
    neighborhood_size: 1
    filter_filler {
      type: "gaussian"
      std: 0.001
    }
    bias_term: true
    bias_filler {
      type: "constant"
      value: 0
    }
    group: 1
    norm_type: AFTER
    offset_type: NONE
  }
}
layer {
  name: "bn6"
  type: "BatchNorm"
  bottom: "conv6"
  top: "bn6"
}
layer {
  name: "relu6"
  type: "ReLU"
  bottom: "bn6"
  top: "bn6"
}
layer {
  name: "concat6"
  type: "Concat"
  bottom: "bn6"
  bottom: "bn2"
  bottom: "bn3"
  bottom: "bn4"
  bottom: "bn5"
  top: "concat6"
}
layer {
  name: "conv7"
  type: "Convolution"
  bottom: "concat6"
  top: "conv7"
  param {
    lr_mult: 1
  }
  param {
    lr_mult: 0.1
  }
  convolution_param {
    num_output: 128
    pad: 0
    kernel_size: 1
    stride: 1
    weight_filler {
      type: "xavier"
    }
    bias_filler {
      type: "constant"
      value: 0
    }
  }
}
layer {
  name: "bn7"
  type: "BatchNorm"
  bottom: "conv7"
  top: "bn7"
}
layer {
  name: "relu7"
  type: "ReLU"
  bottom: "bn7"
  top: "bn7"
}
layer {
  name: "conv8"
  type: "Convolution"
  bottom: "bn7"
  top: "conv8"
  param {
    lr_mult: 1
  }
  param {
    lr_mult: 0.1
  }
  convolution_param {
    num_output: 13
    pad: 0
    kernel_size: 1
    stride: 1
    weight_filler {
      type: "xavier"
    }
    bias_filler {
      type: "constant"
      value: 0
    }
  }
}
layer {
  name: "loss"
  type: "SoftmaxWithLoss"
  bottom: "conv8"
  bottom: "label"
  top: "loss"
}
layer {
  name: "accuracy"
  type: "Accuracy"
  bottom: "conv8"
  bottom: "label"
  top: "accuracy"
}
I0816 06:16:55.237031 12507 layer_factory.hpp:77] Creating layer data
I0816 06:16:55.268903 12507 net.cpp:84] Creating Layer data
I0816 06:16:55.268955 12507 net.cpp:380] data -> data
I0816 06:16:55.269052 12507 net.cpp:380] data -> label
I0816 06:16:55.621522 12509 upgrade_proto.cpp:1084] Attempting to upgrade input file specified using deprecated 'solver_type' field (enum)': /mnt/lustre/wangjiayun/repos/splatnet/exp/lidar3d/area6/6_solver.prototxt
…
I0816 06:16:55.668928 12511 upgrade_proto.cpp:1084] Attempting to upgrade input file specified using deprecated 'solver_type' field (enum)': /mnt/lustre/wangjiayun/repos/splatnet/exp/lidar3d/area6/6_solver.prototxt
I0816 06:16:55.669001 12511 upgrade_proto.cpp:1091] Successfully upgraded file specified using deprecated 'solver_type' field (enum) to 'type' field (string).
W0816 06:16:55.669008 12511 upgrade_proto.cpp:1093] Note that future Caffe releases will only support 'type' field (string) for a solver's type.
I0816 06:18:10.302073 12507 net.cpp:122] Setting up data
I0816 06:18:10.302137 12507 net.cpp:129] Top shape: 12 6 1 4096 (294912)
I0816 06:18:10.302145 12507 net.cpp:129] Top shape: 12 1 1 4096 (49152)
I0816 06:18:10.302150 12507 net.cpp:137] Memory required for data: 1376256
I0816 06:18:10.302160 12507 layer_factory.hpp:77] Creating layer data_data_0_split
I0816 06:18:10.302193 12507 net.cpp:84] Creating Layer data_data_0_split
I0816 06:18:10.302211 12507 net.cpp:406] data_data_0_split <- data
I0816 06:18:10.302222 12507 net.cpp:380] data_data_0_split -> data_data_0_split_0
I0816 06:18:10.302234 12507 net.cpp:380] data_data_0_split -> data_data_0_split_1
I0816 06:18:10.302278 12507 net.cpp:122] Setting up data_data_0_split
I0816 06:18:10.302289 12507 net.cpp:129] Top shape: 12 6 1 4096 (294912)
I0816 06:18:10.302292 12507 net.cpp:129] Top shape: 12 6 1 4096 (294912)
I0816 06:18:10.302295 12507 net.cpp:137] Memory required for data: 3735552
I0816 06:18:10.302299 12507 layer_factory.hpp:77] Creating layer label_data_1_split
I0816 06:18:10.302305 12507 net.cpp:84] Creating Layer label_data_1_split
I0816 06:18:10.302309 12507 net.cpp:406] label_data_1_split <- label
I0816 06:18:10.302314 12507 net.cpp:380] label_data_1_split -> label_data_1_split_0
I0816 06:18:10.302321 12507 net.cpp:380] label_data_1_split -> label_data_1_split_1
I0816 06:18:10.302347 12507 net.cpp:122] Setting up label_data_1_split
I0816 06:18:10.302354 12507 net.cpp:129] Top shape: 12 1 1 4096 (49152)
I0816 06:18:10.302358 12507 net.cpp:129] Top shape: 12 1 1 4096 (49152)
I0816 06:18:10.302361 12507 net.cpp:137] Memory required for data: 4128768
I0816 06:18:10.302363 12507 layer_factory.hpp:77] Creating layer data_feat
I0816 06:18:10.311103 12507 net.cpp:84] Creating Layer data_feat
I0816 06:18:10.311116 12507 net.cpp:406] data_feat <- data_data_0_split_0
I0816 06:18:10.311123 12507 net.cpp:380] data_feat -> data_feat
I0816 06:18:10.312520 12507 net.cpp:122] Setting up data_feat
I0816 06:18:10.312536 12507 net.cpp:129] Top shape: 12 3 1 4096 (147456)
I0816 06:18:10.312538 12507 net.cpp:137] Memory required for data: 4718592
I0816 06:18:10.312542 12507 layer_factory.hpp:77] Creating layer data_feat_data_feat_0_split
I0816 06:18:10.312549 12507 net.cpp:84] Creating Layer data_feat_data_feat_0_split
I0816 06:18:10.312552 12507 net.cpp:406] data_feat_data_feat_0_split <- data_feat
I0816 06:18:10.312558 12507 net.cpp:380] data_feat_data_feat_0_split -> data_feat_data_feat_0_split_0
I0816 06:18:10.312566 12507 net.cpp:380] data_feat_data_feat_0_split -> data_feat_data_feat_0_split_1
I0816 06:18:10.312572 12507 net.cpp:380] data_feat_data_feat_0_split -> data_feat_data_feat_0_split_2
I0816 06:18:10.312577 12507 net.cpp:380] data_feat_data_feat_0_split -> data_feat_data_feat_0_split_3
I0816 06:18:10.312580 12507 net.cpp:380] data_feat_data_feat_0_split -> data_feat_data_feat_0_split_4
I0816 06:18:10.312633 12507 net.cpp:122] Setting up data_feat_data_feat_0_split
I0816 06:18:10.312639 12507 net.cpp:129] Top shape: 12 3 1 4096 (147456)
I0816 06:18:10.312644 12507 net.cpp:129] Top shape: 12 3 1 4096 (147456)
I0816 06:18:10.312647 12507 net.cpp:129] Top shape: 12 3 1 4096 (147456)
I0816 06:18:10.312650 12507 net.cpp:129] Top shape: 12 3 1 4096 (147456)
I0816 06:18:10.312654 12507 net.cpp:129] Top shape: 12 3 1 4096 (147456)
I0816 06:18:10.312656 12507 net.cpp:137] Memory required for data: 7667712
I0816 06:18:10.312662 12507 layer_factory.hpp:77] Creating layer conv1
I0816 06:18:10.312693 12507 net.cpp:84] Creating Layer conv1
I0816 06:18:10.312700 12507 net.cpp:406] conv1 <- data_data_0_split_1
I0816 06:18:10.312706 12507 net.cpp:380] conv1 -> conv1
I0816 06:18:13.490116 12507 net.cpp:122] Setting up conv1
I0816 06:18:13.490190 12507 net.cpp:129] Top shape: 12 64 1 4096 (3145728)
I0816 06:18:13.490216 12507 net.cpp:137] Memory required for data: 20250624
I0816 06:18:13.500985 12507 layer_factory.hpp:77] Creating layer bn1
I0816 06:18:13.517565 12507 net.cpp:84] Creating Layer bn1
I0816 06:18:13.517592 12507 net.cpp:406] bn1 <- conv1
I0816 06:18:13.517606 12507 net.cpp:380] bn1 -> bn1
I0816 06:18:13.544245 12507 net.cpp:122] Setting up bn1
I0816 06:18:13.544283 12507 net.cpp:129] Top shape: 12 64 1 4096 (3145728)
I0816 06:18:13.544293 12507 net.cpp:137] Memory required for data: 32833536
I0816 06:18:13.544322 12507 layer_factory.hpp:77] Creating layer relu1
I0816 06:18:13.545717 12507 net.cpp:84] Creating Layer relu1
I0816 06:18:13.545759 12507 net.cpp:406] relu1 <- bn1
I0816 06:18:13.545786 12507 net.cpp:367] relu1 -> bn1 (in-place)
I0816 06:18:13.547384 12507 net.cpp:122] Setting up relu1
I0816 06:18:13.547423 12507 net.cpp:129] Top shape: 12 64 1 4096 (3145728)
I0816 06:18:13.547433 12507 net.cpp:137] Memory required for data: 45416448
I0816 06:18:13.547443 12507 layer_factory.hpp:77] Creating layer conv1a
I0816 06:18:13.547477 12507 net.cpp:84] Creating Layer conv1a
I0816 06:18:13.547487 12507 net.cpp:406] conv1a <- bn1
I0816 06:18:13.547503 12507 net.cpp:380] conv1a -> conv1a
I0816 06:18:13.551715 12507 net.cpp:122] Setting up conv1a
I0816 06:18:13.551754 12507 net.cpp:129] Top shape: 12 64 1 4096 (3145728)
I0816 06:18:13.551764 12507 net.cpp:137] Memory required for data: 57999360
I0816 06:18:13.551780 12507 layer_factory.hpp:77] Creating layer bn1a
I0816 06:18:13.551802 12507 net.cpp:84] Creating Layer bn1a
I0816 06:18:13.551811 12507 net.cpp:406] bn1a <- conv1a
I0816 06:18:13.551826 12507 net.cpp:380] bn1a -> bn1a
I0816 06:18:13.552294 12507 net.cpp:122] Setting up bn1a
I0816 06:18:13.552316 12507 net.cpp:129] Top shape: 12 64 1 4096 (3145728)
I0816 06:18:13.552325 12507 net.cpp:137] Memory required for data: 70582272
I0816 06:18:13.552347 12507 layer_factory.hpp:77] Creating layer relu1a
I0816 06:18:13.552362 12507 net.cpp:84] Creating Layer relu1a
I0816 06:18:13.552371 12507 net.cpp:406] relu1a <- bn1a
I0816 06:18:13.552382 12507 net.cpp:367] relu1a -> bn1a (in-place)
I0816 06:18:13.553020 12507 net.cpp:122] Setting up relu1a
I0816 06:18:13.553045 12507 net.cpp:129] Top shape: 12 64 1 4096 (3145728)
I0816 06:18:13.553055 12507 net.cpp:137] Memory required for data: 83165184
I0816 06:18:13.553062 12507 layer_factory.hpp:77] Creating layer bn1a_relu1a_0_split
I0816 06:18:13.553076 12507 net.cpp:84] Creating Layer bn1a_relu1a_0_split
I0816 06:18:13.553084 12507 net.cpp:406] bn1a_relu1a_0_split <- bn1a
I0816 06:18:13.553098 12507 net.cpp:380] bn1a_relu1a_0_split -> bn1a_relu1a_0_split_0
I0816 06:18:13.553117 12507 net.cpp:380] bn1a_relu1a_0_split -> bn1a_relu1a_0_split_1
I0816 06:18:13.553222 12507 net.cpp:122] Setting up bn1a_relu1a_0_split
I0816 06:18:13.553244 12507 net.cpp:129] Top shape: 12 64 1 4096 (3145728)
I0816 06:18:13.553272 12507 net.cpp:129] Top shape: 12 64 1 4096 (3145728)
I0816 06:18:13.553279 12507 net.cpp:137] Memory required for data: 108331008
I0816 06:18:13.553289 12507 layer_factory.hpp:77] Creating layer fconv1
I0816 06:18:13.553313 12507 net.cpp:84] Creating Layer fconv1
I0816 06:18:13.553323 12507 net.cpp:406] fconv1 <- bn1a_relu1a_0_split_0
I0816 06:18:13.553339 12507 net.cpp:380] fconv1 -> fconv1
I0816 06:18:13.556334 12507 net.cpp:122] Setting up fconv1
I0816 06:18:13.556368 12507 net.cpp:129] Top shape: 12 3 1 4096 (147456)
I0816 06:18:13.556377 12507 net.cpp:137] Memory required for data: 108920832
I0816 06:18:13.556392 12507 layer_factory.hpp:77] Creating layer fbn1
I0816 06:18:13.556407 12507 net.cpp:84] Creating Layer fbn1
I0816 06:18:13.556416 12507 net.cpp:406] fbn1 <- fconv1
I0816 06:18:13.556428 12507 net.cpp:380] fbn1 -> fbn1
I0816 06:18:13.556841 12507 net.cpp:122] Setting up fbn1
I0816 06:18:13.556860 12507 net.cpp:129] Top shape: 12 3 1 4096 (147456)
I0816 06:18:13.556867 12507 net.cpp:137] Memory required for data: 109510656
I0816 06:18:13.556883 12507 layer_factory.hpp:77] Creating layer frelu1
I0816 06:18:13.556896 12507 net.cpp:84] Creating Layer frelu1
I0816 06:18:13.556903 12507 net.cpp:406] frelu1 <- fbn1
I0816 06:18:13.556915 12507 net.cpp:367] frelu1 -> fbn1 (in-place)
I0816 06:18:13.558151 12507 net.cpp:122] Setting up frelu1
I0816 06:18:13.558184 12507 net.cpp:129] Top shape: 12 3 1 4096 (147456)
I0816 06:18:13.558192 12507 net.cpp:137] Memory required for data: 110100480
I0816 06:18:13.558213 12507 layer_factory.hpp:77] Creating layer feat1
I0816 06:18:13.558282 12507 net.cpp:84] Creating Layer feat1
I0816 06:18:13.558305 12507 net.cpp:406] feat1 <- data_feat_data_feat_0_split_0
I0816 06:18:13.558322 12507 net.cpp:406] feat1 <- fbn1
I0816 06:18:13.558334 12507 net.cpp:380] feat1 -> feat1
I0816 06:18:13.558903 12507 net.cpp:122] Setting up feat1
I0816 06:18:13.558944 12507 net.cpp:129] Top shape: 12 3 1 4096 (147456)
I0816 06:18:13.558950 12507 net.cpp:137] Memory required for data: 110690304
I0816 06:18:13.558956 12507 layer_factory.hpp:77] Creating layer data_lattice0
I0816 06:18:13.559052 12507 net.cpp:84] Creating Layer data_lattice0
I0816 06:18:13.559065 12507 net.cpp:406] data_lattice0 <- feat1
I0816 06:18:13.559077 12507 net.cpp:380] data_lattice0 -> data_lattice0
I0816 06:18:13.559386 12507 net.cpp:122] Setting up data_lattice0
I0816 06:18:13.559408 12507 net.cpp:129] Top shape: 12 3 1 4096 (147456)
I0816 06:18:13.559413 12507 net.cpp:137] Memory required for data: 111280128
I0816 06:18:13.559419 12507 layer_factory.hpp:77] Creating layer data_lattice0_data_lattice0_0_split
I0816 06:18:13.559430 12507 net.cpp:84] Creating Layer data_lattice0_data_lattice0_0_split
I0816 06:18:13.559437 12507 net.cpp:406] data_lattice0_data_lattice0_0_split <- data_lattice0
I0816 06:18:13.559448 12507 net.cpp:380] data_lattice0_data_lattice0_0_split -> data_lattice0_data_lattice0_0_split_0
I0816 06:18:13.559459 12507 net.cpp:380] data_lattice0_data_lattice0_0_split -> data_lattice0_data_lattice0_0_split_1
I0816 06:18:13.559520 12507 net.cpp:122] Setting up data_lattice0_data_lattice0_0_split
I0816 06:18:13.559531 12507 net.cpp:129] Top shape: 12 3 1 4096 (147456)
I0816 06:18:13.559538 12507 net.cpp:129] Top shape: 12 3 1 4096 (147456)
I0816 06:18:13.559543 12507 net.cpp:137] Memory required for data: 112459776
I0816 06:18:13.559548 12507 layer_factory.hpp:77] Creating layer conv2
I0816 06:18:13.559597 12507 net.cpp:84] Creating Layer conv2
I0816 06:18:13.559610 12507 net.cpp:406] conv2 <- bn1a_relu1a_0_split_1
I0816 06:18:13.559619 12507 net.cpp:406] conv2 <- data_lattice0_data_lattice0_0_split_0
I0816 06:18:13.559626 12507 net.cpp:406] conv2 <- data_lattice0_data_lattice0_0_split_1
I0816 06:18:13.559636 12507 net.cpp:380] conv2 -> conv2
I0816 06:18:13.566437 12507 net.cpp:122] Setting up conv2
I0816 06:18:13.566468 12507 net.cpp:129] Top shape: 12 64 1 4096 (3145728)
I0816 06:18:13.566476 12507 net.cpp:137] Memory required for data: 125042688
I0816 06:18:13.566495 12507 layer_factory.hpp:77] Creating layer bn2
I0816 06:18:13.566507 12507 net.cpp:84] Creating Layer bn2
I0816 06:18:13.566514 12507 net.cpp:406] bn2 <- conv2
I0816 06:18:13.566524 12507 net.cpp:380] bn2 -> bn2
I0816 06:18:13.566848 12507 net.cpp:122] Setting up bn2
I0816 06:18:13.566862 12507 net.cpp:129] Top shape: 12 64 1 4096 (3145728)
I0816 06:18:13.566867 12507 net.cpp:137] Memory required for data: 137625600
I0816 06:18:13.566880 12507 layer_factory.hpp:77] Creating layer relu2
I0816 06:18:13.566896 12507 net.cpp:84] Creating Layer relu2
I0816 06:18:13.566902 12507 net.cpp:406] relu2 <- bn2
I0816 06:18:13.566911 12507 net.cpp:367] relu2 -> bn2 (in-place)
I0816 06:18:13.567397 12507 net.cpp:122] Setting up relu2
I0816 06:18:13.567420 12507 net.cpp:129] Top shape: 12 64 1 4096 (3145728)
I0816 06:18:13.567425 12507 net.cpp:137] Memory required for data: 150208512
I0816 06:18:13.567432 12507 layer_factory.hpp:77] Creating layer bn2_relu2_0_split
I0816 06:18:13.567443 12507 net.cpp:84] Creating Layer bn2_relu2_0_split
I0816 06:18:13.567451 12507 net.cpp:406] bn2_relu2_0_split <- bn2
I0816 06:18:13.567461 12507 net.cpp:380] bn2_relu2_0_split -> bn2_relu2_0_split_0
I0816 06:18:13.567471 12507 net.cpp:380] bn2_relu2_0_split -> bn2_relu2_0_split_1
I0816 06:18:13.567481 12507 net.cpp:380] bn2_relu2_0_split -> bn2_relu2_0_split_2
I0816 06:18:13.567565 12507 net.cpp:122] Setting up bn2_relu2_0_split
I0816 06:18:13.567579 12507 net.cpp:129] Top shape: 12 64 1 4096 (3145728)
I0816 06:18:13.567585 12507 net.cpp:129] Top shape: 12 64 1 4096 (3145728)
I0816 06:18:13.567592 12507 net.cpp:129] Top shape: 12 64 1 4096 (3145728)
I0816 06:18:13.567596 12507 net.cpp:137] Memory required for data: 187957248
I0816 06:18:13.567601 12507 layer_factory.hpp:77] Creating layer fconv2
I0816 06:18:13.567618 12507 net.cpp:84] Creating Layer fconv2
I0816 06:18:13.567625 12507 net.cpp:406] fconv2 <- bn2_relu2_0_split_0
I0816 06:18:13.567636 12507 net.cpp:380] fconv2 -> fconv2
I0816 06:18:13.570456 12507 net.cpp:122] Setting up fconv2
I0816 06:18:13.570483 12507 net.cpp:129] Top shape: 12 3 1 4096 (147456)
I0816 06:18:13.570490 12507 net.cpp:137] Memory required for data: 188547072
I0816 06:18:13.570502 12507 layer_factory.hpp:77] Creating layer fbn2
I0816 06:18:13.570514 12507 net.cpp:84] Creating Layer fbn2
I0816 06:18:13.570521 12507 net.cpp:406] fbn2 <- fconv2
I0816 06:18:13.570531 12507 net.cpp:380] fbn2 -> fbn2
I0816 06:18:13.570847 12507 net.cpp:122] Setting up fbn2
I0816 06:18:13.570861 12507 net.cpp:129] Top shape: 12 3 1 4096 (147456)
I0816 06:18:13.570868 12507 net.cpp:137] Memory required for data: 189136896
I0816 06:18:13.570878 12507 layer_factory.hpp:77] Creating layer frelu2
I0816 06:18:13.570894 12507 net.cpp:84] Creating Layer frelu2
I0816 06:18:13.570901 12507 net.cpp:406] frelu2 <- fbn2
I0816 06:18:13.570910 12507 net.cpp:367] frelu2 -> fbn2 (in-place)
I0816 06:18:13.571367 12507 net.cpp:122] Setting up frelu2
I0816 06:18:13.571386 12507 net.cpp:129] Top shape: 12 3 1 4096 (147456)
I0816 06:18:13.571391 12507 net.cpp:137] Memory required for data: 189726720
I0816 06:18:13.571398 12507 layer_factory.hpp:77] Creating layer feat2
I0816 06:18:13.571409 12507 net.cpp:84] Creating Layer feat2
I0816 06:18:13.571415 12507 net.cpp:406] feat2 <- data_feat_data_feat_0_split_1
I0816 06:18:13.571424 12507 net.cpp:406] feat2 <- fbn2
I0816 06:18:13.571432 12507 net.cpp:380] feat2 -> feat2
I0816 06:18:13.571480 12507 net.cpp:122] Setting up feat2
I0816 06:18:13.571493 12507 net.cpp:129] Top shape: 12 3 1 4096 (147456)
I0816 06:18:13.571498 12507 net.cpp:137] Memory required for data: 190316544
I0816 06:18:13.571503 12507 layer_factory.hpp:77] Creating layer data_lattice1
I0816 06:18:13.571554 12507 net.cpp:84] Creating Layer data_lattice1
I0816 06:18:13.571568 12507 net.cpp:406] data_lattice1 <- feat2
I0816 06:18:13.571578 12507 net.cpp:380] data_lattice1 -> data_lattice1
I0816 06:18:13.573604 12507 net.cpp:122] Setting up data_lattice1
I0816 06:18:13.573633 12507 net.cpp:129] Top shape: 12 3 1 4096 (147456)
I0816 06:18:13.573653 12507 net.cpp:137] Memory required for data: 190906368
I0816 06:18:13.573659 12507 layer_factory.hpp:77] Creating layer data_lattice1_data_lattice1_0_split
I0816 06:18:13.573670 12507 net.cpp:84] Creating Layer data_lattice1_data_lattice1_0_split
I0816 06:18:13.573676 12507 net.cpp:406] data_lattice1_data_lattice1_0_split <- data_lattice1
I0816 06:18:13.573686 12507 net.cpp:380] data_lattice1_data_lattice1_0_split -> data_lattice1_data_lattice1_0_split_0
I0816 06:18:13.573698 12507 net.cpp:380] data_lattice1_data_lattice1_0_split -> data_lattice1_data_lattice1_0_split_1
I0816 06:18:13.573758 12507 net.cpp:122] Setting up data_lattice1_data_lattice1_0_split
I0816 06:18:13.573770 12507 net.cpp:129] Top shape: 12 3 1 4096 (147456)
I0816 06:18:13.573777 12507 net.cpp:129] Top shape: 12 3 1 4096 (147456)
I0816 06:18:13.573781 12507 net.cpp:137] Memory required for data: 192086016
I0816 06:18:13.573786 12507 layer_factory.hpp:77] Creating layer conv3
I0816 06:18:13.573802 12507 net.cpp:84] Creating Layer conv3
I0816 06:18:13.573807 12507 net.cpp:406] conv3 <- bn2_relu2_0_split_1
I0816 06:18:13.573815 12507 net.cpp:406] conv3 <- data_lattice1_data_lattice1_0_split_0
I0816 06:18:13.573822 12507 net.cpp:406] conv3 <- data_lattice1_data_lattice1_0_split_1
I0816 06:18:13.573832 12507 net.cpp:380] conv3 -> conv3
I0816 06:18:13.579227 12507 net.cpp:122] Setting up conv3
I0816 06:18:13.579244 12507 net.cpp:129] Top shape: 12 128 1 4096 (6291456)
I0816 06:18:13.579249 12507 net.cpp:137] Memory required for data: 217251840
I0816 06:18:13.579258 12507 layer_factory.hpp:77] Creating layer bn3
I0816 06:18:13.579267 12507 net.cpp:84] Creating Layer bn3
I0816 06:18:13.579272 12507 net.cpp:406] bn3 <- conv3
I0816 06:18:13.579280 12507 net.cpp:380] bn3 -> bn3
I0816 06:18:13.579550 12507 net.cpp:122] Setting up bn3
I0816 06:18:13.579563 12507 net.cpp:129] Top shape: 12 128 1 4096 (6291456)
I0816 06:18:13.579568 12507 net.cpp:137] Memory required for data: 242417664
I0816 06:18:13.579579 12507 layer_factory.hpp:77] Creating layer relu3
I0816 06:18:13.579588 12507 net.cpp:84] Creating Layer relu3
I0816 06:18:13.579594 12507 net.cpp:406] relu3 <- bn3
I0816 06:18:13.579601 12507 net.cpp:367] relu3 -> bn3 (in-place)
I0816 06:18:13.580024 12507 net.cpp:122] Setting up relu3
I0816 06:18:13.580042 12507 net.cpp:129] Top shape: 12 128 1 4096 (6291456)
I0816 06:18:13.580047 12507 net.cpp:137] Memory required for data: 267583488
I0816 06:18:13.580052 12507 layer_factory.hpp:77] Creating layer bn3_relu3_0_split
I0816 06:18:13.580061 12507 net.cpp:84] Creating Layer bn3_relu3_0_split
I0816 06:18:13.580066 12507 net.cpp:406] bn3_relu3_0_split <- bn3
I0816 06:18:13.580075 12507 net.cpp:380] bn3_relu3_0_split -> bn3_relu3_0_split_0
I0816 06:18:13.580085 12507 net.cpp:380] bn3_relu3_0_split -> bn3_relu3_0_split_1
I0816 06:18:13.580093 12507 net.cpp:380] bn3_relu3_0_split -> bn3_relu3_0_split_2
I0816 06:18:13.580171 12507 net.cpp:122] Setting up bn3_relu3_0_split
I0816 06:18:13.580183 12507 net.cpp:129] Top shape: 12 128 1 4096 (6291456)
I0816 06:18:13.580188 12507 net.cpp:129] Top shape: 12 128 1 4096 (6291456)
I0816 06:18:13.580193 12507 net.cpp:129] Top shape: 12 128 1 4096 (6291456)
I0816 06:18:13.580198 12507 net.cpp:137] Memory required for data: 343080960
I0816 06:18:13.580214 12507 layer_factory.hpp:77] Creating layer fconv3
I0816 06:18:13.580240 12507 net.cpp:84] Creating Layer fconv3
I0816 06:18:13.580245 12507 net.cpp:406] fconv3 <- bn3_relu3_0_split_0
I0816 06:18:13.580255 12507 net.cpp:380] fconv3 -> fconv3
I0816 06:18:13.582895 12507 net.cpp:122] Setting up fconv3
I0816 06:18:13.582921 12507 net.cpp:129] Top shape: 12 3 1 4096 (147456)
I0816 06:18:13.582927 12507 net.cpp:137] Memory required for data: 343670784
I0816 06:18:13.582937 12507 layer_factory.hpp:77] Creating layer fbn3
I0816 06:18:13.582948 12507 net.cpp:84] Creating Layer fbn3
I0816 06:18:13.582955 12507 net.cpp:406] fbn3 <- fconv3
I0816 06:18:13.582967 12507 net.cpp:380] fbn3 -> fbn3
I0816 06:18:13.583289 12507 net.cpp:122] Setting up fbn3
I0816 06:18:13.583303 12507 net.cpp:129] Top shape: 12 3 1 4096 (147456)
I0816 06:18:13.583308 12507 net.cpp:137] Memory required for data: 344260608
I0816 06:18:13.583328 12507 layer_factory.hpp:77] Creating layer frelu3
I0816 06:18:13.583338 12507 net.cpp:84] Creating Layer frelu3
I0816 06:18:13.583343 12507 net.cpp:406] frelu3 <- fbn3
I0816 06:18:13.583351 12507 net.cpp:367] frelu3 -> fbn3 (in-place)
I0816 06:18:13.583765 12507 net.cpp:122] Setting up frelu3
I0816 06:18:13.583782 12507 net.cpp:129] Top shape: 12 3 1 4096 (147456)
I0816 06:18:13.583787 12507 net.cpp:137] Memory required for data: 344850432
I0816 06:18:13.583792 12507 layer_factory.hpp:77] Creating layer feat3
I0816 06:18:13.583802 12507 net.cpp:84] Creating Layer feat3
I0816 06:18:13.583807 12507 net.cpp:406] feat3 <- data_feat_data_feat_0_split_2
I0816 06:18:13.583815 12507 net.cpp:406] feat3 <- fbn3
I0816 06:18:13.583823 12507 net.cpp:380] feat3 -> feat3
I0816 06:18:13.583866 12507 net.cpp:122] Setting up feat3
I0816 06:18:13.583879 12507 net.cpp:129] Top shape: 12 3 1 4096 (147456)
I0816 06:18:13.583884 12507 net.cpp:137] Memory required for data: 345440256
I0816 06:18:13.583891 12507 layer_factory.hpp:77] Creating layer data_lattice2
I0816 06:18:13.583935 12507 net.cpp:84] Creating Layer data_lattice2
I0816 06:18:13.583945 12507 net.cpp:406] data_lattice2 <- feat3
I0816 06:18:13.583956 12507 net.cpp:380] data_lattice2 -> data_lattice2
I0816 06:18:13.584141 12507 net.cpp:122] Setting up data_lattice2
I0816 06:18:13.584161 12507 net.cpp:129] Top shape: 12 3 1 4096 (147456)
I0816 06:18:13.584165 12507 net.cpp:137] Memory required for data: 346030080
I0816 06:18:13.584172 12507 layer_factory.hpp:77] Creating layer data_lattice2_data_lattice2_0_split
I0816 06:18:13.584182 12507 net.cpp:84] Creating Layer data_lattice2_data_lattice2_0_split
I0816 06:18:13.584187 12507 net.cpp:406] data_lattice2_data_lattice2_0_split <- data_lattice2
I0816 06:18:13.584195 12507 net.cpp:380] data_lattice2_data_lattice2_0_split -> data_lattice2_data_lattice2_0_split_0
I0816 06:18:13.584215 12507 net.cpp:380] data_lattice2_data_lattice2_0_split -> data_lattice2_data_lattice2_0_split_1
I0816 06:18:13.584270 12507 net.cpp:122] Setting up data_lattice2_data_lattice2_0_split
I0816 06:18:13.584282 12507 net.cpp:129] Top shape: 12 3 1 4096 (147456)
I0816 06:18:13.584288 12507 net.cpp:129] Top shape: 12 3 1 4096 (147456)
I0816 06:18:13.584292 12507 net.cpp:137] Memory required for data: 347209728
I0816 06:18:13.584297 12507 layer_factory.hpp:77] Creating layer conv4
I0816 06:18:13.584307 12507 net.cpp:84] Creating Layer conv4
I0816 06:18:13.584312 12507 net.cpp:406] conv4 <- bn3_relu3_0_split_1
I0816 06:18:13.584319 12507 net.cpp:406] conv4 <- data_lattice2_data_lattice2_0_split_0
I0816 06:18:13.584326 12507 net.cpp:406] conv4 <- data_lattice2_data_lattice2_0_split_1
I0816 06:18:13.584334 12507 net.cpp:380] conv4 -> conv4
I0816 06:18:13.606431 12507 net.cpp:122] Setting up conv4
I0816 06:18:13.606456 12507 net.cpp:129] Top shape: 12 256 1 4096 (12582912)
I0816 06:18:13.606462 12507 net.cpp:137] Memory required for data: 397541376
I0816 06:18:13.606470 12507 layer_factory.hpp:77] Creating layer bn4
I0816 06:18:13.606479 12507 net.cpp:84] Creating Layer bn4
I0816 06:18:13.606484 12507 net.cpp:406] bn4 <- conv4
I0816 06:18:13.606494 12507 net.cpp:380] bn4 -> bn4
I0816 06:18:13.606745 12507 net.cpp:122] Setting up bn4
I0816 06:18:13.606757 12507 net.cpp:129] Top shape: 12 256 1 4096 (12582912)
I0816 06:18:13.606761 12507 net.cpp:137] Memory required for data: 447873024
I0816 06:18:13.606775 12507 layer_factory.hpp:77] Creating layer relu4
I0816 06:18:13.606784 12507 net.cpp:84] Creating Layer relu4
I0816 06:18:13.606789 12507 net.cpp:406] relu4 <- bn4
I0816 06:18:13.606796 12507 net.cpp:367] relu4 -> bn4 (in-place)
I0816 06:18:13.607187 12507 net.cpp:122] Setting up relu4
I0816 06:18:13.607208 12507 net.cpp:129] Top shape: 12 256 1 4096 (12582912)
I0816 06:18:13.607213 12507 net.cpp:137] Memory required for data: 498204672
I0816 06:18:13.607218 12507 layer_factory.hpp:77] Creating layer bn4_relu4_0_split
I0816 06:18:13.607226 12507 net.cpp:84] Creating Layer bn4_relu4_0_split
I0816 06:18:13.607230 12507 net.cpp:406] bn4_relu4_0_split <- bn4
I0816 06:18:13.607239 12507 net.cpp:380] bn4_relu4_0_split -> bn4_relu4_0_split_0
I0816 06:18:13.607247 12507 net.cpp:380] bn4_relu4_0_split -> bn4_relu4_0_split_1
I0816 06:18:13.607255 12507 net.cpp:380] bn4_relu4_0_split -> bn4_relu4_0_split_2
I0816 06:18:13.607324 12507 net.cpp:122] Setting up bn4_relu4_0_split
I0816 06:18:13.607334 12507 net.cpp:129] Top shape: 12 256 1 4096 (12582912)
I0816 06:18:13.607340 12507 net.cpp:129] Top shape: 12 256 1 4096 (12582912)
I0816 06:18:13.607345 12507 net.cpp:129] Top shape: 12 256 1 4096 (12582912)
I0816 06:18:13.607348 12507 net.cpp:137] Memory required for data: 649199616
I0816 06:18:13.607352 12507 layer_factory.hpp:77] Creating layer fconv4
I0816 06:18:13.607365 12507 net.cpp:84] Creating Layer fconv4
I0816 06:18:13.607374 12507 net.cpp:406] fconv4 <- bn4_relu4_0_split_0
I0816 06:18:13.607384 12507 net.cpp:380] fconv4 -> fconv4
I0816 06:18:13.610381 12507 net.cpp:122] Setting up fconv4
I0816 06:18:13.610405 12507 net.cpp:129] Top shape: 12 3 1 4096 (147456)
I0816 06:18:13.610411 12507 net.cpp:137] Memory required for data: 649789440
I0816 06:18:13.610421 12507 layer_factory.hpp:77] Creating layer fbn4
I0816 06:18:13.610431 12507 net.cpp:84] Creating Layer fbn4
I0816 06:18:13.610436 12507 net.cpp:406] fbn4 <- fconv4
I0816 06:18:13.610445 12507 net.cpp:380] fbn4 -> fbn4
I0816 06:18:13.610718 12507 net.cpp:122] Setting up fbn4
I0816 06:18:13.610729 12507 net.cpp:129] Top shape: 12 3 1 4096 (147456)
I0816 06:18:13.610733 12507 net.cpp:137] Memory required for data: 650379264
I0816 06:18:13.610746 12507 layer_factory.hpp:77] Creating layer frelu4
I0816 06:18:13.610756 12507 net.cpp:84] Creating Layer frelu4
I0816 06:18:13.610761 12507 net.cpp:406] frelu4 <- fbn4
I0816 06:18:13.610769 12507 net.cpp:367] frelu4 -> fbn4 (in-place)
I0816 06:18:13.611153 12507 net.cpp:122] Setting up frelu4
I0816 06:18:13.611169 12507 net.cpp:129] Top shape: 12 3 1 4096 (147456)
I0816 06:18:13.611174 12507 net.cpp:137] Memory required for data: 650969088
I0816 06:18:13.611178 12507 layer_factory.hpp:77] Creating layer feat4
I0816 06:18:13.611188 12507 net.cpp:84] Creating Layer feat4
I0816 06:18:13.611193 12507 net.cpp:406] feat4 <- data_feat_data_feat_0_split_3
I0816 06:18:13.611210 12507 net.cpp:406] feat4 <- fbn4
I0816 06:18:13.611220 12507 net.cpp:380] feat4 -> feat4
I0816 06:18:13.611263 12507 net.cpp:122] Setting up feat4
I0816 06:18:13.611274 12507 net.cpp:129] Top shape: 12 3 1 4096 (147456)
I0816 06:18:13.611277 12507 net.cpp:137] Memory required for data: 651558912
I0816 06:18:13.611281 12507 layer_factory.hpp:77] Creating layer data_lattice3
I0816 06:18:13.611321 12507 net.cpp:84] Creating Layer data_lattice3
I0816 06:18:13.611331 12507 net.cpp:406] data_lattice3 <- feat4
I0816 06:18:13.611340 12507 net.cpp:380] data_lattice3 -> data_lattice3
I0816 06:18:13.613795 12507 net.cpp:122] Setting up data_lattice3
I0816 06:18:13.613819 12507 net.cpp:129] Top shape: 12 3 1 4096 (147456)
I0816 06:18:13.613826 12507 net.cpp:137] Memory required for data: 652148736
I0816 06:18:13.613831 12507 layer_factory.hpp:77] Creating layer data_lattice3_data_lattice3_0_split
I0816 06:18:13.613839 12507 net.cpp:84] Creating Layer data_lattice3_data_lattice3_0_split
I0816 06:18:13.613845 12507 net.cpp:406] data_lattice3_data_lattice3_0_split <- data_lattice3
I0816 06:18:13.613857 12507 net.cpp:380] data_lattice3_data_lattice3_0_split -> data_lattice3_data_lattice3_0_split_0
I0816 06:18:13.613868 12507 net.cpp:380] data_lattice3_data_lattice3_0_split -> data_lattice3_data_lattice3_0_split_1
I0816 06:18:13.613924 12507 net.cpp:122] Setting up data_lattice3_data_lattice3_0_split
I0816 06:18:13.613934 12507 net.cpp:129] Top shape: 12 3 1 4096 (147456)
I0816 06:18:13.613940 12507 net.cpp:129] Top shape: 12 3 1 4096 (147456)
I0816 06:18:13.613943 12507 net.cpp:137] Memory required for data: 653328384
I0816 06:18:13.613950 12507 layer_factory.hpp:77] Creating layer conv5
I0816 06:18:13.613960 12507 net.cpp:84] Creating Layer conv5
I0816 06:18:13.613965 12507 net.cpp:406] conv5 <- bn4_relu4_0_split_1
I0816 06:18:13.613971 12507 net.cpp:406] conv5 <- data_lattice3_data_lattice3_0_split_0
I0816 06:18:13.613977 12507 net.cpp:406] conv5 <- data_lattice3_data_lattice3_0_split_1
I0816 06:18:13.613984 12507 net.cpp:380] conv5 -> conv5
I0816 06:18:13.654163 12507 net.cpp:122] Setting up conv5
I0816 06:18:13.654196 12507 net.cpp:129] Top shape: 12 256 1 4096 (12582912)
I0816 06:18:13.654207 12507 net.cpp:137] Memory required for data: 703660032
I0816 06:18:13.654217 12507 layer_factory.hpp:77] Creating layer bn5
I0816 06:18:13.654227 12507 net.cpp:84] Creating Layer bn5
I0816 06:18:13.654233 12507 net.cpp:406] bn5 <- conv5
I0816 06:18:13.654242 12507 net.cpp:380] bn5 -> bn5
I0816 06:18:13.654482 12507 net.cpp:122] Setting up bn5
I0816 06:18:13.654495 12507 net.cpp:129] Top shape: 12 256 1 4096 (12582912)
I0816 06:18:13.654498 12507 net.cpp:137] Memory required for data: 753991680
I0816 06:18:13.654507 12507 layer_factory.hpp:77] Creating layer relu5
I0816 06:18:13.654515 12507 net.cpp:84] Creating Layer relu5
I0816 06:18:13.654521 12507 net.cpp:406] relu5 <- bn5
I0816 06:18:13.654527 12507 net.cpp:367] relu5 -> bn5 (in-place)
I0816 06:18:13.655413 12507 net.cpp:122] Setting up relu5
I0816 06:18:13.655432 12507 net.cpp:129] Top shape: 12 256 1 4096 (12582912)
I0816 06:18:13.655437 12507 net.cpp:137] Memory required for data: 804323328
I0816 06:18:13.655441 12507 layer_factory.hpp:77] Creating layer bn5_relu5_0_split
I0816 06:18:13.655450 12507 net.cpp:84] Creating Layer bn5_relu5_0_split
I0816 06:18:13.655454 12507 net.cpp:406] bn5_relu5_0_split <- bn5
I0816 06:18:13.655462 12507 net.cpp:380] bn5_relu5_0_split -> bn5_relu5_0_split_0
I0816 06:18:13.655472 12507 net.cpp:380] bn5_relu5_0_split -> bn5_relu5_0_split_1
I0816 06:18:13.655479 12507 net.cpp:380] bn5_relu5_0_split -> bn5_relu5_0_split_2
I0816 06:18:13.655544 12507 net.cpp:122] Setting up bn5_relu5_0_split
I0816 06:18:13.655555 12507 net.cpp:129] Top shape: 12 256 1 4096 (12582912)
I0816 06:18:13.655560 12507 net.cpp:129] Top shape: 12 256 1 4096 (12582912)
I0816 06:18:13.655565 12507 net.cpp:129] Top shape: 12 256 1 4096 (12582912)
I0816 06:18:13.655567 12507 net.cpp:137] Memory required for data: 955318272
I0816 06:18:13.655571 12507 layer_factory.hpp:77] Creating layer fconv5
I0816 06:18:13.655586 12507 net.cpp:84] Creating Layer fconv5
I0816 06:18:13.655591 12507 net.cpp:406] fconv5 <- bn5_relu5_0_split_0
I0816 06:18:13.655601 12507 net.cpp:380] fconv5 -> fconv5
I0816 06:18:13.657364 12507 net.cpp:122] Setting up fconv5
I0816 06:18:13.657384 12507 net.cpp:129] Top shape: 12 3 1 4096 (147456)
I0816 06:18:13.657389 12507 net.cpp:137] Memory required for data: 955908096
I0816 06:18:13.657397 12507 layer_factory.hpp:77] Creating layer fbn5
I0816 06:18:13.657407 12507 net.cpp:84] Creating Layer fbn5
I0816 06:18:13.657411 12507 net.cpp:406] fbn5 <- fconv5
I0816 06:18:13.657418 12507 net.cpp:380] fbn5 -> fbn5
I0816 06:18:13.657658 12507 net.cpp:122] Setting up fbn5
I0816 06:18:13.657670 12507 net.cpp:129] Top shape: 12 3 1 4096 (147456)
I0816 06:18:13.657675 12507 net.cpp:137] Memory required for data: 956497920
I0816 06:18:13.657682 12507 layer_factory.hpp:77] Creating layer frelu5
I0816 06:18:13.657690 12507 net.cpp:84] Creating Layer frelu5
I0816 06:18:13.657694 12507 net.cpp:406] frelu5 <- fbn5
I0816 06:18:13.657701 12507 net.cpp:367] frelu5 -> fbn5 (in-place)
I0816 06:18:13.658042 12507 net.cpp:122] Setting up frelu5
I0816 06:18:13.658056 12507 net.cpp:129] Top shape: 12 3 1 4096 (147456)
I0816 06:18:13.658061 12507 net.cpp:137] Memory required for data: 957087744
I0816 06:18:13.658066 12507 layer_factory.hpp:77] Creating layer feat5
I0816 06:18:13.658077 12507 net.cpp:84] Creating Layer feat5
I0816 06:18:13.658082 12507 net.cpp:406] feat5 <- data_feat_data_feat_0_split_4
I0816 06:18:13.658088 12507 net.cpp:406] feat5 <- fbn5
I0816 06:18:13.658097 12507 net.cpp:380] feat5 -> feat5
I0816 06:18:13.658143 12507 net.cpp:122] Setting up feat5
I0816 06:18:13.658154 12507 net.cpp:129] Top shape: 12 3 1 4096 (147456)
I0816 06:18:13.658157 12507 net.cpp:137] Memory required for data: 957677568
I0816 06:18:13.658161 12507 layer_factory.hpp:77] Creating layer data_lattice4
I0816 06:18:13.658221 12507 net.cpp:84] Creating Layer data_lattice4
I0816 06:18:13.658232 12507 net.cpp:406] data_lattice4 <- feat5
I0816 06:18:13.658239 12507 net.cpp:380] data_lattice4 -> data_lattice4
I0816 06:18:13.658452 12507 net.cpp:122] Setting up data_lattice4
I0816 06:18:13.658468 12507 net.cpp:129] Top shape: 12 3 1 4096 (147456)
I0816 06:18:13.658471 12507 net.cpp:137] Memory required for data: 958267392
I0816 06:18:13.658476 12507 layer_factory.hpp:77] Creating layer data_lattice4_data_lattice4_0_split
I0816 06:18:13.658483 12507 net.cpp:84] Creating Layer data_lattice4_data_lattice4_0_split
I0816 06:18:13.658488 12507 net.cpp:406] data_lattice4_data_lattice4_0_split <- data_lattice4
I0816 06:18:13.658495 12507 net.cpp:380] data_lattice4_data_lattice4_0_split -> data_lattice4_data_lattice4_0_split_0
I0816 06:18:13.658504 12507 net.cpp:380] data_lattice4_data_lattice4_0_split -> data_lattice4_data_lattice4_0_split_1
I0816 06:18:13.658550 12507 net.cpp:122] Setting up data_lattice4_data_lattice4_0_split
I0816 06:18:13.658557 12507 net.cpp:129] Top shape: 12 3 1 4096 (147456)
I0816 06:18:13.658562 12507 net.cpp:129] Top shape: 12 3 1 4096 (147456)
I0816 06:18:13.658566 12507 net.cpp:137] Memory required for data: 959447040
I0816 06:18:13.658569 12507 layer_factory.hpp:77] Creating layer conv6
I0816 06:18:13.658579 12507 net.cpp:84] Creating Layer conv6
I0816 06:18:13.658583 12507 net.cpp:406] conv6 <- bn5_relu5_0_split_1
I0816 06:18:13.658588 12507 net.cpp:406] conv6 <- data_lattice4_data_lattice4_0_split_0
I0816 06:18:13.658594 12507 net.cpp:406] conv6 <- data_lattice4_data_lattice4_0_split_1
I0816 06:18:13.658601 12507 net.cpp:380] conv6 -> conv6
I0816 06:18:13.696085 12507 net.cpp:122] Setting up conv6
I0816 06:18:13.696116 12507 net.cpp:129] Top shape: 12 256 1 4096 (12582912)
I0816 06:18:13.696121 12507 net.cpp:137] Memory required for data: 1009778688
I0816 06:18:13.696131 12507 layer_factory.hpp:77] Creating layer bn6
I0816 06:18:13.696146 12507 net.cpp:84] Creating Layer bn6
I0816 06:18:13.696152 12507 net.cpp:406] bn6 <- conv6
I0816 06:18:13.696162 12507 net.cpp:380] bn6 -> bn6
I0816 06:18:13.696408 12507 net.cpp:122] Setting up bn6
I0816 06:18:13.696419 12507 net.cpp:129] Top shape: 12 256 1 4096 (12582912)
I0816 06:18:13.696422 12507 net.cpp:137] Memory required for data: 1060110336
I0816 06:18:13.696431 12507 layer_factory.hpp:77] Creating layer relu6
I0816 06:18:13.696439 12507 net.cpp:84] Creating Layer relu6
I0816 06:18:13.696444 12507 net.cpp:406] relu6 <- bn6
I0816 06:18:13.696449 12507 net.cpp:367] relu6 -> bn6 (in-place)
I0816 06:18:13.697316 12507 net.cpp:122] Setting up relu6
I0816 06:18:13.697333 12507 net.cpp:129] Top shape: 12 256 1 4096 (12582912)
I0816 06:18:13.697338 12507 net.cpp:137] Memory required for data: 1110441984
I0816 06:18:13.697343 12507 layer_factory.hpp:77] Creating layer concat6
I0816 06:18:13.697415 12507 net.cpp:84] Creating Layer concat6
I0816 06:18:13.697427 12507 net.cpp:406] concat6 <- bn6
I0816 06:18:13.697433 12507 net.cpp:406] concat6 <- bn2_relu2_0_split_2
I0816 06:18:13.697439 12507 net.cpp:406] concat6 <- bn3_relu3_0_split_2
I0816 06:18:13.697444 12507 net.cpp:406] concat6 <- bn4_relu4_0_split_2
I0816 06:18:13.697448 12507 net.cpp:406] concat6 <- bn5_relu5_0_split_2
I0816 06:18:13.697455 12507 net.cpp:380] concat6 -> concat6
I0816 06:18:13.697520 12507 net.cpp:122] Setting up concat6
I0816 06:18:13.697532 12507 net.cpp:129] Top shape: 12 960 1 4096 (47185920)
I0816 06:18:13.697536 12507 net.cpp:137] Memory required for data: 1299185664
I0816 06:18:13.697540 12507 layer_factory.hpp:77] Creating layer conv7
I0816 06:18:13.697556 12507 net.cpp:84] Creating Layer conv7
I0816 06:18:13.697559 12507 net.cpp:406] conv7 <- concat6
I0816 06:18:13.697567 12507 net.cpp:380] conv7 -> conv7
I0816 06:18:13.700922 12507 net.cpp:122] Setting up conv7
I0816 06:18:13.700943 12507 net.cpp:129] Top shape: 12 128 1 4096 (6291456)
I0816 06:18:13.700948 12507 net.cpp:137] Memory required for data: 1324351488
I0816 06:18:13.700958 12507 layer_factory.hpp:77] Creating layer bn7
I0816 06:18:13.700966 12507 net.cpp:84] Creating Layer bn7
I0816 06:18:13.700970 12507 net.cpp:406] bn7 <- conv7
I0816 06:18:13.700978 12507 net.cpp:380] bn7 -> bn7
I0816 06:18:13.701236 12507 net.cpp:122] Setting up bn7
I0816 06:18:13.701248 12507 net.cpp:129] Top shape: 12 128 1 4096 (6291456)
I0816 06:18:13.701252 12507 net.cpp:137] Memory required for data: 1349517312
I0816 06:18:13.701277 12507 layer_factory.hpp:77] Creating layer relu7
I0816 06:18:13.701295 12507 net.cpp:84] Creating Layer relu7
I0816 06:18:13.701303 12507 net.cpp:406] relu7 <- bn7
I0816 06:18:13.701309 12507 net.cpp:367] relu7 -> bn7 (in-place)
I0816 06:18:13.701664 12507 net.cpp:122] Setting up relu7
I0816 06:18:13.701678 12507 net.cpp:129] Top shape: 12 128 1 4096 (6291456)
I0816 06:18:13.701683 12507 net.cpp:137] Memory required for data: 1374683136
I0816 06:18:13.701687 12507 layer_factory.hpp:77] Creating layer conv8
I0816 06:18:13.701704 12507 net.cpp:84] Creating Layer conv8
I0816 06:18:13.701709 12507 net.cpp:406] conv8 <- bn7
I0816 06:18:13.701719 12507 net.cpp:380] conv8 -> conv8
I0816 06:18:13.703886 12507 net.cpp:122] Setting up conv8
I0816 06:18:13.703905 12507 net.cpp:129] Top shape: 12 13 1 4096 (638976)
I0816 06:18:13.703910 12507 net.cpp:137] Memory required for data: 1377239040
I0816 06:18:13.703918 12507 layer_factory.hpp:77] Creating layer conv8_conv8_0_split
I0816 06:18:13.703927 12507 net.cpp:84] Creating Layer conv8_conv8_0_split
I0816 06:18:13.703933 12507 net.cpp:406] conv8_conv8_0_split <- conv8
I0816 06:18:13.703940 12507 net.cpp:380] conv8_conv8_0_split -> conv8_conv8_0_split_0
I0816 06:18:13.703949 12507 net.cpp:380] conv8_conv8_0_split -> conv8_conv8_0_split_1
I0816 06:18:13.703999 12507 net.cpp:122] Setting up conv8_conv8_0_split
I0816 06:18:13.704010 12507 net.cpp:129] Top shape: 12 13 1 4096 (638976)
I0816 06:18:13.704015 12507 net.cpp:129] Top shape: 12 13 1 4096 (638976)
I0816 06:18:13.704018 12507 net.cpp:137] Memory required for data: 1382350848
I0816 06:18:13.704022 12507 layer_factory.hpp:77] Creating layer loss
I0816 06:18:13.704068 12507 net.cpp:84] Creating Layer loss
I0816 06:18:13.704078 12507 net.cpp:406] loss <- conv8_conv8_0_split_0
I0816 06:18:13.704085 12507 net.cpp:406] loss <- label_data_1_split_0
I0816 06:18:13.704093 12507 net.cpp:380] loss -> loss
…
