…
I0809 17:53:07.791239 21642 net.cpp:294] The NetState phase (0) differed from the phase (1) specified by a rule in layer data
I0809 17:53:07.791967 21642 net.cpp:51] Initializing net from parameters: 
state {
  phase: TRAIN
}
layer {
  name: "data"
  type: "Python"
  top: "data"
  top: "label"
  include {
    phase: TRAIN
  }
  python_param {
    module: "dataset_lidar"
    layer: "InputShapenet"
    param_str: "{\'sample_size\': 8192, \'test_area\': \'6\', \'batch_size\': 12, \'feat_dims\': \'x_y_z\', \'subset\': \'train\', \'root\': \'../../data/shapenet_ericyi_ply\', \'jitter_xyz\': 0.02, \'jitter_stretch\': 0.1, \'jitter_rotation\': 10.0}"
  }
}
layer {
  name: "data_feat"
  type: "Python"
  bottom: "data"
  top: "data_feat"
  python_param {
    module: "custom_layers"
    layer: "PickAndScale"
    param_str: "0_1_2"
  }
}
layer {
  name: "conv1"
  type: "Convolution"
  bottom: "data_feat"
  top: "conv1"
  param {
    lr_mult: 1
  }
  param {
    lr_mult: 0.1
  }
  convolution_param {
    num_output: 64
    pad: 0
    kernel_size: 1
    stride: 1
    weight_filler {
      type: "xavier"
    }
    bias_filler {
      type: "constant"
      value: 0
    }
  }
}
layer {
  name: "bn1"
  type: "BatchNorm"
  bottom: "conv1"
  top: "bn1"
}
layer {
  name: "relu1"
  type: "ReLU"
  bottom: "bn1"
  top: "bn1"
}
layer {
  name: "fconv1"
  type: "Convolution"
  bottom: "bn1"
  top: "fconv1"
  param {
    lr_mult: 1
  }
  param {
    lr_mult: 0.1
  }
  convolution_param {
    num_output: 3
    pad: 0
    kernel_size: 1
    stride: 1
    weight_filler {
      type: "xavier"
    }
    bias_filler {
      type: "constant"
      value: 0
    }
  }
}
layer {
  name: "fbn1"
  type: "BatchNorm"
  bottom: "fconv1"
  top: "fbn1"
}
layer {
  name: "frelu1"
  type: "ReLU"
  bottom: "fbn1"
  top: "fbn1"
}
layer {
  name: "feat1"
  type: "Eltwise"
  bottom: "data"
  bottom: "fbn1"
  top: "feat1"
  eltwise_param {
    operation: SUM
  }
}
layer {
  name: "data_lattice0"
  type: "Python"
  bottom: "feat1"
  top: "data_lattice0"
  python_param {
    module: "custom_layers"
    layer: "PickAndScale"
    param_str: "0*48_1*48_2*48"
  }
}
layer {
  name: "conv2"
  type: "Permutohedral"
  bottom: "bn1"
  bottom: "data_lattice0"
  bottom: "data_lattice0"
  top: "conv2"
  param {
    lr_mult: 1
    decay_mult: 1
  }
  param {
    lr_mult: 2
    decay_mult: 0
  }
  permutohedral_param {
    num_output: 64
    neighborhood_size: 2
    filter_filler {
      type: "gaussian"
      std: 0.001
    }
    bias_term: true
    bias_filler {
      type: "constant"
      value: 0
    }
    group: 1
    norm_type: AFTER
    offset_type: NONE
  }
}
layer {
  name: "bn2"
  type: "BatchNorm"
  bottom: "conv2"
  top: "bn2"
}
layer {
  name: "relu2"
  type: "ReLU"
  bottom: "bn2"
  top: "bn2"
}
layer {
  name: "fconv2"
  type: "Convolution"
  bottom: "bn2"
  top: "fconv2"
  param {
    lr_mult: 1
  }
  param {
    lr_mult: 0.1
  }
  convolution_param {
    num_output: 3
    pad: 0
    kernel_size: 1
    stride: 1
    weight_filler {
      type: "xavier"
    }
    bias_filler {
      type: "constant"
      value: 0
    }
  }
}
layer {
  name: "fbn2"
  type: "BatchNorm"
  bottom: "fconv2"
  top: "fbn2"
}
layer {
  name: "frelu2"
  type: "ReLU"
  bottom: "fbn2"
  top: "fbn2"
}
layer {
  name: "feat2"
  type: "Eltwise"
  bottom: "data"
  bottom: "fbn2"
  top: "feat2"
  eltwise_param {
    operation: SUM
  }
}
layer {
  name: "data_lattice1"
  type: "Python"
  bottom: "feat2"
  top: "data_lattice1"
  python_param {
    module: "custom_layers"
    layer: "PickAndScale"
    param_str: "0*24_1*24_2*24"
  }
}
layer {
  name: "conv3"
  type: "Permutohedral"
  bottom: "bn2"
  bottom: "data_lattice1"
  bottom: "data_lattice1"
  top: "conv3"
  param {
    lr_mult: 1
    decay_mult: 1
  }
  param {
    lr_mult: 2
    decay_mult: 0
  }
  permutohedral_param {
    num_output: 128
    neighborhood_size: 2
    filter_filler {
      type: "gaussian"
      std: 0.001
    }
    bias_term: true
    bias_filler {
      type: "constant"
      value: 0
    }
    group: 1
    norm_type: AFTER
    offset_type: NONE
  }
}
layer {
  name: "bn3"
  type: "BatchNorm"
  bottom: "conv3"
  top: "bn3"
}
layer {
  name: "relu3"
  type: "ReLU"
  bottom: "bn3"
  top: "bn3"
}
layer {
  name: "fconv3"
  type: "Convolution"
  bottom: "bn3"
  top: "fconv3"
  param {
    lr_mult: 1
  }
  param {
    lr_mult: 0.1
  }
  convolution_param {
    num_output: 3
    pad: 0
    kernel_size: 1
    stride: 1
    weight_filler {
      type: "xavier"
    }
    bias_filler {
      type: "constant"
      value: 0
    }
  }
}
layer {
  name: "fbn3"
  type: "BatchNorm"
  bottom: "fconv3"
  top: "fbn3"
}
layer {
  name: "frelu3"
  type: "ReLU"
  bottom: "fbn3"
  top: "fbn3"
}
layer {
  name: "feat3"
  type: "Eltwise"
  bottom: "data"
  bottom: "fbn3"
  top: "feat3"
  eltwise_param {
    operation: SUM
  }
}
layer {
  name: "data_lattice2"
  type: "Python"
  bottom: "feat3"
  top: "data_lattice2"
  python_param {
    module: "custom_layers"
    layer: "PickAndScale"
    param_str: "0*12_1*12_2*12"
  }
}
layer {
  name: "conv4"
  type: "Permutohedral"
  bottom: "bn3"
  bottom: "data_lattice2"
  bottom: "data_lattice2"
  top: "conv4"
  param {
    lr_mult: 1
    decay_mult: 1
  }
  param {
    lr_mult: 2
    decay_mult: 0
  }
  permutohedral_param {
    num_output: 256
    neighborhood_size: 2
    filter_filler {
      type: "gaussian"
      std: 0.001
    }
    bias_term: true
    bias_filler {
      type: "constant"
      value: 0
    }
    group: 1
    norm_type: AFTER
    offset_type: NONE
  }
}
layer {
  name: "bn4"
  type: "BatchNorm"
  bottom: "conv4"
  top: "bn4"
}
layer {
  name: "relu4"
  type: "ReLU"
  bottom: "bn4"
  top: "bn4"
}
layer {
  name: "fconv4"
  type: "Convolution"
  bottom: "bn4"
  top: "fconv4"
  param {
    lr_mult: 1
  }
  param {
    lr_mult: 0.1
  }
  convolution_param {
    num_output: 3
    pad: 0
    kernel_size: 1
    stride: 1
    weight_filler {
      type: "xavier"
    }
    bias_filler {
      type: "constant"
      value: 0
    }
  }
}
layer {
  name: "fbn4"
  type: "BatchNorm"
  bottom: "fconv4"
  top: "fbn4"
}
layer {
  name: "frelu4"
  type: "ReLU"
  bottom: "fbn4"
  top: "fbn4"
}
layer {
  name: "feat4"
  type: "Eltwise"
  bottom: "data"
  bottom: "fbn4"
  top: "feat4"
  eltwise_param {
    operation: SUM
  }
}
layer {
  name: "data_lattice3"
  type: "Python"
  bottom: "feat4"
  top: "data_lattice3"
  python_param {
    module: "custom_layers"
    layer: "PickAndScale"
    param_str: "0*6_1*6_2*6"
  }
}
layer {
  name: "conv5"
  type: "Permutohedral"
  bottom: "bn4"
  bottom: "data_lattice3"
  bottom: "data_lattice3"
  top: "conv5"
  param {
    lr_mult: 1
    decay_mult: 1
  }
  param {
    lr_mult: 2
    decay_mult: 0
  }
  permutohedral_param {
    num_output: 256
    neighborhood_size: 2
    filter_filler {
      type: "gaussian"
      std: 0.001
    }
    bias_term: true
    bias_filler {
      type: "constant"
      value: 0
    }
    group: 1
    norm_type: AFTER
    offset_type: NONE
  }
}
layer {
  name: "bn5"
  type: "BatchNorm"
  bottom: "conv5"
  top: "bn5"
}
layer {
  name: "relu5"
  type: "ReLU"
  bottom: "bn5"
  top: "bn5"
}
layer {
  name: "fconv5"
  type: "Convolution"
  bottom: "bn5"
  top: "fconv5"
  param {
    lr_mult: 1
  }
  param {
    lr_mult: 0.1
  }
  convolution_param {
    num_output: 3
    pad: 0
    kernel_size: 1
    stride: 1
    weight_filler {
      type: "xavier"
    }
    bias_filler {
      type: "constant"
      value: 0
    }
  }
}
layer {
  name: "fbn5"
  type: "BatchNorm"
  bottom: "fconv5"
  top: "fbn5"
}
layer {
  name: "frelu5"
  type: "ReLU"
  bottom: "fbn5"
  top: "fbn5"
}
layer {
  name: "feat5"
  type: "Eltwise"
  bottom: "data"
  bottom: "fbn5"
  top: "feat5"
  eltwise_param {
    operation: SUM
  }
}
layer {
  name: "data_lattice4"
  type: "Python"
  bottom: "feat5"
  top: "data_lattice4"
  python_param {
    module: "custom_layers"
    layer: "PickAndScale"
    param_str: "0*3_1*3_2*3"
  }
}
layer {
  name: "conv6"
  type: "Permutohedral"
  bottom: "bn5"
  bottom: "data_lattice4"
  bottom: "data_lattice4"
  top: "conv6"
  param {
    lr_mult: 1
    decay_mult: 1
  }
  param {
    lr_mult: 2
    decay_mult: 0
  }
  permutohedral_param {
    num_output: 256
    neighborhood_size: 2
    filter_filler {
      type: "gaussian"
      std: 0.001
    }
    bias_term: true
    bias_filler {
      type: "constant"
      value: 0
    }
    group: 1
    norm_type: AFTER
    offset_type: NONE
  }
}
layer {
  name: "bn6"
  type: "BatchNorm"
  bottom: "conv6"
  top: "bn6"
}
layer {
  name: "relu6"
  type: "ReLU"
  bottom: "bn6"
  top: "bn6"
}
layer {
  name: "concat6"
  type: "Concat"
  bottom: "bn6"
  bottom: "bn2"
  bottom: "bn3"
  bottom: "bn4"
  bottom: "bn5"
  top: "concat6"
}
layer {
  name: "conv7"
  type: "Convolution"
  bottom: "concat6"
  top: "conv7"
  param {
    lr_mult: 1
  }
  param {
    lr_mult: 0.1
  }
  convolution_param {
    num_output: 128
    pad: 0
    kernel_size: 1
    stride: 1
    weight_filler {
      type: "xavier"
    }
    bias_filler {
      type: "constant"
      value: 0
    }
  }
}
layer {
  name: "bn7"
  type: "BatchNorm"
  bottom: "conv7"
  top: "bn7"
}
layer {
  name: "relu7"
  type: "ReLU"
  bottom: "bn7"
  top: "bn7"
}
layer {
  name: "conv8"
  type: "Convolution"
  bottom: "bn7"
  top: "conv8"
  param {
    lr_mult: 1
  }
  param {
    lr_mult: 0.1
  }
  convolution_param {
    num_output: 13
    pad: 0
    kernel_size: 1
    stride: 1
    weight_filler {
      type: "xavier"
    }
    bias_filler {
      type: "constant"
      value: 0
    }
  }
}
layer {
  name: "loss"
  type: "SoftmaxWithLoss"
  bottom: "conv8"
  bottom: "label"
  top: "loss"
}
layer {
  name: "accuracy"
  type: "Accuracy"
  bottom: "conv8"
  bottom: "label"
  top: "accuracy"
}
I0809 17:53:07.835275 21642 layer_factory.hpp:77] Creating layer data
I0809 17:53:07.857185 21642 net.cpp:84] Creating Layer data
I0809 17:53:07.857251 21642 net.cpp:380] data -> data
I0809 17:53:07.857400 21642 net.cpp:380] data -> label
I0809 17:53:07.923143 21648 upgrade_proto.cpp:1084] Attempting to upgrade input file specified using deprecated 'solver_type' field (enum)': /mnt/lustre/wangjiayun/repos/splatnet/exp/lidar3d/area6/6_solver.prototxt
…
I0809 17:53:07.979135 21644 upgrade_proto.cpp:1084] Attempting to upgrade input file specified using deprecated 'solver_type' field (enum)': /mnt/lustre/wangjiayun/repos/splatnet/exp/lidar3d/area6/6_solver.prototxt
I0809 17:53:07.979245 21644 upgrade_proto.cpp:1091] Successfully upgraded file specified using deprecated 'solver_type' field (enum) to 'type' field (string).
W0809 17:53:07.979257 21644 upgrade_proto.cpp:1093] Note that future Caffe releases will only support 'type' field (string) for a solver's type.
I0809 18:05:04.102954 21642 net.cpp:122] Setting up data
I0809 18:05:04.103513 21642 net.cpp:129] Top shape: 12 3 1 8192 (294912)
I0809 18:05:04.103538 21642 net.cpp:129] Top shape: 12 1 1 8192 (98304)
I0809 18:05:04.103541 21642 net.cpp:137] Memory required for data: 1572864
I0809 18:05:04.103595 21642 layer_factory.hpp:77] Creating layer data_data_0_split
I0809 18:05:04.103698 21642 net.cpp:84] Creating Layer data_data_0_split
I0809 18:05:04.103718 21642 net.cpp:406] data_data_0_split <- data
I0809 18:05:04.103752 21642 net.cpp:380] data_data_0_split -> data_data_0_split_0
I0809 18:05:04.103808 21642 net.cpp:380] data_data_0_split -> data_data_0_split_1
I0809 18:05:04.103818 21642 net.cpp:380] data_data_0_split -> data_data_0_split_2
I0809 18:05:04.103824 21642 net.cpp:380] data_data_0_split -> data_data_0_split_3
I0809 18:05:04.103829 21642 net.cpp:380] data_data_0_split -> data_data_0_split_4
I0809 18:05:04.103834 21642 net.cpp:380] data_data_0_split -> data_data_0_split_5
I0809 18:05:04.103929 21642 net.cpp:122] Setting up data_data_0_split
I0809 18:05:04.103940 21642 net.cpp:129] Top shape: 12 3 1 8192 (294912)
I0809 18:05:04.103943 21642 net.cpp:129] Top shape: 12 3 1 8192 (294912)
I0809 18:05:04.103946 21642 net.cpp:129] Top shape: 12 3 1 8192 (294912)
I0809 18:05:04.103950 21642 net.cpp:129] Top shape: 12 3 1 8192 (294912)
I0809 18:05:04.103953 21642 net.cpp:129] Top shape: 12 3 1 8192 (294912)
I0809 18:05:04.103956 21642 net.cpp:129] Top shape: 12 3 1 8192 (294912)
I0809 18:05:04.103960 21642 net.cpp:137] Memory required for data: 8650752
I0809 18:05:04.103963 21642 layer_factory.hpp:77] Creating layer label_data_1_split
I0809 18:05:04.103971 21642 net.cpp:84] Creating Layer label_data_1_split
I0809 18:05:04.103974 21642 net.cpp:406] label_data_1_split <- label
I0809 18:05:04.103981 21642 net.cpp:380] label_data_1_split -> label_data_1_split_0
I0809 18:05:04.103987 21642 net.cpp:380] label_data_1_split -> label_data_1_split_1
I0809 18:05:04.104013 21642 net.cpp:122] Setting up label_data_1_split
I0809 18:05:04.104020 21642 net.cpp:129] Top shape: 12 1 1 8192 (98304)
I0809 18:05:04.104024 21642 net.cpp:129] Top shape: 12 1 1 8192 (98304)
I0809 18:05:04.104027 21642 net.cpp:137] Memory required for data: 9437184
I0809 18:05:04.104030 21642 layer_factory.hpp:77] Creating layer data_feat
I0809 18:05:04.112144 21642 net.cpp:84] Creating Layer data_feat
I0809 18:05:04.112157 21642 net.cpp:406] data_feat <- data_data_0_split_0
I0809 18:05:04.112176 21642 net.cpp:380] data_feat -> data_feat
I0809 18:05:04.113659 21642 net.cpp:122] Setting up data_feat
I0809 18:05:04.113685 21642 net.cpp:129] Top shape: 12 3 1 8192 (294912)
I0809 18:05:04.113689 21642 net.cpp:137] Memory required for data: 10616832
I0809 18:05:04.113692 21642 layer_factory.hpp:77] Creating layer conv1
I0809 18:05:04.113749 21642 net.cpp:84] Creating Layer conv1
I0809 18:05:04.113757 21642 net.cpp:406] conv1 <- data_feat
I0809 18:05:04.113765 21642 net.cpp:380] conv1 -> conv1
I0809 18:05:11.257776 21642 net.cpp:122] Setting up conv1
I0809 18:05:11.257835 21642 net.cpp:129] Top shape: 12 64 1 8192 (6291456)
I0809 18:05:11.257845 21642 net.cpp:137] Memory required for data: 35782656
I0809 18:05:11.268549 21642 layer_factory.hpp:77] Creating layer bn1
I0809 18:05:11.285398 21642 net.cpp:84] Creating Layer bn1
I0809 18:05:11.285460 21642 net.cpp:406] bn1 <- conv1
I0809 18:05:11.285485 21642 net.cpp:380] bn1 -> bn1
I0809 18:05:11.314594 21642 net.cpp:122] Setting up bn1
I0809 18:05:11.314630 21642 net.cpp:129] Top shape: 12 64 1 8192 (6291456)
I0809 18:05:11.314640 21642 net.cpp:137] Memory required for data: 60948480
I0809 18:05:11.314671 21642 layer_factory.hpp:77] Creating layer relu1
I0809 18:05:11.349133 21642 net.cpp:84] Creating Layer relu1
I0809 18:05:11.349166 21642 net.cpp:406] relu1 <- bn1
I0809 18:05:11.349184 21642 net.cpp:367] relu1 -> bn1 (in-place)
I0809 18:05:11.368227 21642 net.cpp:122] Setting up relu1
I0809 18:05:11.368268 21642 net.cpp:129] Top shape: 12 64 1 8192 (6291456)
I0809 18:05:11.368278 21642 net.cpp:137] Memory required for data: 86114304
I0809 18:05:11.368288 21642 layer_factory.hpp:77] Creating layer bn1_relu1_0_split
I0809 18:05:11.368304 21642 net.cpp:84] Creating Layer bn1_relu1_0_split
I0809 18:05:11.368314 21642 net.cpp:406] bn1_relu1_0_split <- bn1
I0809 18:05:11.368329 21642 net.cpp:380] bn1_relu1_0_split -> bn1_relu1_0_split_0
I0809 18:05:11.368345 21642 net.cpp:380] bn1_relu1_0_split -> bn1_relu1_0_split_1
I0809 18:05:11.368458 21642 net.cpp:122] Setting up bn1_relu1_0_split
I0809 18:05:11.368480 21642 net.cpp:129] Top shape: 12 64 1 8192 (6291456)
I0809 18:05:11.368490 21642 net.cpp:129] Top shape: 12 64 1 8192 (6291456)
I0809 18:05:11.368497 21642 net.cpp:137] Memory required for data: 136445952
I0809 18:05:11.368505 21642 layer_factory.hpp:77] Creating layer fconv1
I0809 18:05:11.368540 21642 net.cpp:84] Creating Layer fconv1
I0809 18:05:11.368551 21642 net.cpp:406] fconv1 <- bn1_relu1_0_split_0
I0809 18:05:11.368566 21642 net.cpp:380] fconv1 -> fconv1
I0809 18:05:11.372642 21642 net.cpp:122] Setting up fconv1
I0809 18:05:11.372680 21642 net.cpp:129] Top shape: 12 3 1 8192 (294912)
I0809 18:05:11.372689 21642 net.cpp:137] Memory required for data: 137625600
I0809 18:05:11.372706 21642 layer_factory.hpp:77] Creating layer fbn1
I0809 18:05:11.372727 21642 net.cpp:84] Creating Layer fbn1
I0809 18:05:11.372737 21642 net.cpp:406] fbn1 <- fconv1
I0809 18:05:11.372751 21642 net.cpp:380] fbn1 -> fbn1
I0809 18:05:11.373206 21642 net.cpp:122] Setting up fbn1
I0809 18:05:11.373230 21642 net.cpp:129] Top shape: 12 3 1 8192 (294912)
I0809 18:05:11.373239 21642 net.cpp:137] Memory required for data: 138805248
I0809 18:05:11.373262 21642 layer_factory.hpp:77] Creating layer frelu1
I0809 18:05:11.373280 21642 net.cpp:84] Creating Layer frelu1
I0809 18:05:11.373288 21642 net.cpp:406] frelu1 <- fbn1
I0809 18:05:11.373301 21642 net.cpp:367] frelu1 -> fbn1 (in-place)
I0809 18:05:11.373947 21642 net.cpp:122] Setting up frelu1
I0809 18:05:11.373975 21642 net.cpp:129] Top shape: 12 3 1 8192 (294912)
I0809 18:05:11.373984 21642 net.cpp:137] Memory required for data: 139984896
I0809 18:05:11.373992 21642 layer_factory.hpp:77] Creating layer feat1
I0809 18:05:11.375069 21642 net.cpp:84] Creating Layer feat1
I0809 18:05:11.375104 21642 net.cpp:406] feat1 <- data_data_0_split_1
I0809 18:05:11.375126 21642 net.cpp:406] feat1 <- fbn1
I0809 18:05:11.375144 21642 net.cpp:380] feat1 -> feat1
I0809 18:05:11.375810 21642 net.cpp:122] Setting up feat1
I0809 18:05:11.375844 21642 net.cpp:129] Top shape: 12 3 1 8192 (294912)
I0809 18:05:11.375854 21642 net.cpp:137] Memory required for data: 141164544
I0809 18:05:11.375861 21642 layer_factory.hpp:77] Creating layer data_lattice0
I0809 18:05:11.375975 21642 net.cpp:84] Creating Layer data_lattice0
I0809 18:05:11.375994 21642 net.cpp:406] data_lattice0 <- feat1
I0809 18:05:11.376010 21642 net.cpp:380] data_lattice0 -> data_lattice0
I0809 18:05:11.378798 21642 net.cpp:122] Setting up data_lattice0
I0809 18:05:11.378834 21642 net.cpp:129] Top shape: 12 3 1 8192 (294912)
I0809 18:05:11.378844 21642 net.cpp:137] Memory required for data: 142344192
I0809 18:05:11.378856 21642 layer_factory.hpp:77] Creating layer data_lattice0_data_lattice0_0_split
I0809 18:05:11.378872 21642 net.cpp:84] Creating Layer data_lattice0_data_lattice0_0_split
I0809 18:05:11.378882 21642 net.cpp:406] data_lattice0_data_lattice0_0_split <- data_lattice0
I0809 18:05:11.378897 21642 net.cpp:380] data_lattice0_data_lattice0_0_split -> data_lattice0_data_lattice0_0_split_0
I0809 18:05:11.378916 21642 net.cpp:380] data_lattice0_data_lattice0_0_split -> data_lattice0_data_lattice0_0_split_1
I0809 18:05:11.378999 21642 net.cpp:122] Setting up data_lattice0_data_lattice0_0_split
I0809 18:05:11.379016 21642 net.cpp:129] Top shape: 12 3 1 8192 (294912)
I0809 18:05:11.379026 21642 net.cpp:129] Top shape: 12 3 1 8192 (294912)
I0809 18:05:11.379032 21642 net.cpp:137] Memory required for data: 144703488
I0809 18:05:11.379040 21642 layer_factory.hpp:77] Creating layer conv2
I0809 18:05:11.379607 21642 net.cpp:84] Creating Layer conv2
I0809 18:05:11.379643 21642 net.cpp:406] conv2 <- bn1_relu1_0_split_1
I0809 18:05:11.379659 21642 net.cpp:406] conv2 <- data_lattice0_data_lattice0_0_split_0
I0809 18:05:11.379670 21642 net.cpp:406] conv2 <- data_lattice0_data_lattice0_0_split_1
I0809 18:05:11.379688 21642 net.cpp:380] conv2 -> conv2
I0809 18:05:11.402251 21642 net.cpp:122] Setting up conv2
I0809 18:05:11.402290 21642 net.cpp:129] Top shape: 12 64 1 8192 (6291456)
I0809 18:05:11.402300 21642 net.cpp:137] Memory required for data: 169869312
I0809 18:05:11.402315 21642 layer_factory.hpp:77] Creating layer bn2
I0809 18:05:11.402331 21642 net.cpp:84] Creating Layer bn2
I0809 18:05:11.402340 21642 net.cpp:406] bn2 <- conv2
I0809 18:05:11.402354 21642 net.cpp:380] bn2 -> bn2
I0809 18:05:11.402801 21642 net.cpp:122] Setting up bn2
I0809 18:05:11.402822 21642 net.cpp:129] Top shape: 12 64 1 8192 (6291456)
I0809 18:05:11.402829 21642 net.cpp:137] Memory required for data: 195035136
I0809 18:05:11.402845 21642 layer_factory.hpp:77] Creating layer relu2
I0809 18:05:11.402870 21642 net.cpp:84] Creating Layer relu2
I0809 18:05:11.402878 21642 net.cpp:406] relu2 <- bn2
I0809 18:05:11.402889 21642 net.cpp:367] relu2 -> bn2 (in-place)
I0809 18:05:11.404613 21642 net.cpp:122] Setting up relu2
I0809 18:05:11.404649 21642 net.cpp:129] Top shape: 12 64 1 8192 (6291456)
I0809 18:05:11.404657 21642 net.cpp:137] Memory required for data: 220200960
I0809 18:05:11.404671 21642 layer_factory.hpp:77] Creating layer bn2_relu2_0_split
I0809 18:05:11.404686 21642 net.cpp:84] Creating Layer bn2_relu2_0_split
I0809 18:05:11.404695 21642 net.cpp:406] bn2_relu2_0_split <- bn2
I0809 18:05:11.404711 21642 net.cpp:380] bn2_relu2_0_split -> bn2_relu2_0_split_0
I0809 18:05:11.404726 21642 net.cpp:380] bn2_relu2_0_split -> bn2_relu2_0_split_1
I0809 18:05:11.404739 21642 net.cpp:380] bn2_relu2_0_split -> bn2_relu2_0_split_2
I0809 18:05:11.404851 21642 net.cpp:122] Setting up bn2_relu2_0_split
I0809 18:05:11.404870 21642 net.cpp:129] Top shape: 12 64 1 8192 (6291456)
I0809 18:05:11.404878 21642 net.cpp:129] Top shape: 12 64 1 8192 (6291456)
I0809 18:05:11.404886 21642 net.cpp:129] Top shape: 12 64 1 8192 (6291456)
I0809 18:05:11.404892 21642 net.cpp:137] Memory required for data: 295698432
I0809 18:05:11.404899 21642 layer_factory.hpp:77] Creating layer fconv2
I0809 18:05:11.404922 21642 net.cpp:84] Creating Layer fconv2
I0809 18:05:11.404932 21642 net.cpp:406] fconv2 <- bn2_relu2_0_split_0
I0809 18:05:11.404945 21642 net.cpp:380] fconv2 -> fconv2
I0809 18:05:11.407975 21642 net.cpp:122] Setting up fconv2
I0809 18:05:11.408010 21642 net.cpp:129] Top shape: 12 3 1 8192 (294912)
I0809 18:05:11.408020 21642 net.cpp:137] Memory required for data: 296878080
I0809 18:05:11.408043 21642 layer_factory.hpp:77] Creating layer fbn2
I0809 18:05:11.408059 21642 net.cpp:84] Creating Layer fbn2
I0809 18:05:11.408068 21642 net.cpp:406] fbn2 <- fconv2
I0809 18:05:11.408082 21642 net.cpp:380] fbn2 -> fbn2
I0809 18:05:11.408525 21642 net.cpp:122] Setting up fbn2
I0809 18:05:11.408546 21642 net.cpp:129] Top shape: 12 3 1 8192 (294912)
I0809 18:05:11.408553 21642 net.cpp:137] Memory required for data: 298057728
I0809 18:05:11.408569 21642 layer_factory.hpp:77] Creating layer frelu2
I0809 18:05:11.408589 21642 net.cpp:84] Creating Layer frelu2
I0809 18:05:11.408598 21642 net.cpp:406] frelu2 <- fbn2
I0809 18:05:11.408609 21642 net.cpp:367] frelu2 -> fbn2 (in-place)
I0809 18:05:11.409191 21642 net.cpp:122] Setting up frelu2
I0809 18:05:11.409215 21642 net.cpp:129] Top shape: 12 3 1 8192 (294912)
I0809 18:05:11.409224 21642 net.cpp:137] Memory required for data: 299237376
I0809 18:05:11.409231 21642 layer_factory.hpp:77] Creating layer feat2
I0809 18:05:11.409246 21642 net.cpp:84] Creating Layer feat2
I0809 18:05:11.409255 21642 net.cpp:406] feat2 <- data_data_0_split_2
I0809 18:05:11.409266 21642 net.cpp:406] feat2 <- fbn2
I0809 18:05:11.409277 21642 net.cpp:380] feat2 -> feat2
I0809 18:05:11.409337 21642 net.cpp:122] Setting up feat2
I0809 18:05:11.409354 21642 net.cpp:129] Top shape: 12 3 1 8192 (294912)
I0809 18:05:11.409360 21642 net.cpp:137] Memory required for data: 300417024
I0809 18:05:11.409368 21642 layer_factory.hpp:77] Creating layer data_lattice1
I0809 18:05:11.409461 21642 net.cpp:84] Creating Layer data_lattice1
I0809 18:05:11.409479 21642 net.cpp:406] data_lattice1 <- feat2
I0809 18:05:11.409492 21642 net.cpp:380] data_lattice1 -> data_lattice1
I0809 18:05:11.412041 21642 net.cpp:122] Setting up data_lattice1
I0809 18:05:11.412075 21642 net.cpp:129] Top shape: 12 3 1 8192 (294912)
I0809 18:05:11.412081 21642 net.cpp:137] Memory required for data: 301596672
I0809 18:05:11.412089 21642 layer_factory.hpp:77] Creating layer data_lattice1_data_lattice1_0_split
I0809 18:05:11.412103 21642 net.cpp:84] Creating Layer data_lattice1_data_lattice1_0_split
I0809 18:05:11.412111 21642 net.cpp:406] data_lattice1_data_lattice1_0_split <- data_lattice1
I0809 18:05:11.412125 21642 net.cpp:380] data_lattice1_data_lattice1_0_split -> data_lattice1_data_lattice1_0_split_0
I0809 18:05:11.412140 21642 net.cpp:380] data_lattice1_data_lattice1_0_split -> data_lattice1_data_lattice1_0_split_1
I0809 18:05:11.412219 21642 net.cpp:122] Setting up data_lattice1_data_lattice1_0_split
I0809 18:05:11.412235 21642 net.cpp:129] Top shape: 12 3 1 8192 (294912)
I0809 18:05:11.412242 21642 net.cpp:129] Top shape: 12 3 1 8192 (294912)
I0809 18:05:11.412248 21642 net.cpp:137] Memory required for data: 303955968
I0809 18:05:11.412255 21642 layer_factory.hpp:77] Creating layer conv3
I0809 18:05:11.412274 21642 net.cpp:84] Creating Layer conv3
I0809 18:05:11.412282 21642 net.cpp:406] conv3 <- bn2_relu2_0_split_1
I0809 18:05:11.412292 21642 net.cpp:406] conv3 <- data_lattice1_data_lattice1_0_split_0
I0809 18:05:11.412300 21642 net.cpp:406] conv3 <- data_lattice1_data_lattice1_0_split_1
I0809 18:05:11.412313 21642 net.cpp:380] conv3 -> conv3
I0809 18:05:11.446333 21642 net.cpp:122] Setting up conv3
I0809 18:05:11.446364 21642 net.cpp:129] Top shape: 12 128 1 8192 (12582912)
I0809 18:05:11.446372 21642 net.cpp:137] Memory required for data: 354287616
I0809 18:05:11.446384 21642 layer_factory.hpp:77] Creating layer bn3
I0809 18:05:11.446396 21642 net.cpp:84] Creating Layer bn3
I0809 18:05:11.446404 21642 net.cpp:406] bn3 <- conv3
I0809 18:05:11.446415 21642 net.cpp:380] bn3 -> bn3
I0809 18:05:11.446765 21642 net.cpp:122] Setting up bn3
I0809 18:05:11.446781 21642 net.cpp:129] Top shape: 12 128 1 8192 (12582912)
I0809 18:05:11.446786 21642 net.cpp:137] Memory required for data: 404619264
I0809 18:05:11.446799 21642 layer_factory.hpp:77] Creating layer relu3
I0809 18:05:11.446810 21642 net.cpp:84] Creating Layer relu3
I0809 18:05:11.446817 21642 net.cpp:406] relu3 <- bn3
I0809 18:05:11.446826 21642 net.cpp:367] relu3 -> bn3 (in-place)
I0809 18:05:11.447945 21642 net.cpp:122] Setting up relu3
I0809 18:05:11.447973 21642 net.cpp:129] Top shape: 12 128 1 8192 (12582912)
I0809 18:05:11.447979 21642 net.cpp:137] Memory required for data: 454950912
I0809 18:05:11.447985 21642 layer_factory.hpp:77] Creating layer bn3_relu3_0_split
I0809 18:05:11.447998 21642 net.cpp:84] Creating Layer bn3_relu3_0_split
I0809 18:05:11.448004 21642 net.cpp:406] bn3_relu3_0_split <- bn3
I0809 18:05:11.448015 21642 net.cpp:380] bn3_relu3_0_split -> bn3_relu3_0_split_0
I0809 18:05:11.448029 21642 net.cpp:380] bn3_relu3_0_split -> bn3_relu3_0_split_1
I0809 18:05:11.448040 21642 net.cpp:380] bn3_relu3_0_split -> bn3_relu3_0_split_2
I0809 18:05:11.448132 21642 net.cpp:122] Setting up bn3_relu3_0_split
I0809 18:05:11.448145 21642 net.cpp:129] Top shape: 12 128 1 8192 (12582912)
I0809 18:05:11.448153 21642 net.cpp:129] Top shape: 12 128 1 8192 (12582912)
I0809 18:05:11.448158 21642 net.cpp:129] Top shape: 12 128 1 8192 (12582912)
I0809 18:05:11.448164 21642 net.cpp:137] Memory required for data: 605945856
I0809 18:05:11.448169 21642 layer_factory.hpp:77] Creating layer fconv3
I0809 18:05:11.448192 21642 net.cpp:84] Creating Layer fconv3
I0809 18:05:11.448204 21642 net.cpp:406] fconv3 <- bn3_relu3_0_split_0
I0809 18:05:11.448217 21642 net.cpp:380] fconv3 -> fconv3
I0809 18:05:11.452744 21642 net.cpp:122] Setting up fconv3
I0809 18:05:11.452770 21642 net.cpp:129] Top shape: 12 3 1 8192 (294912)
I0809 18:05:11.452777 21642 net.cpp:137] Memory required for data: 607125504
I0809 18:05:11.452790 21642 layer_factory.hpp:77] Creating layer fbn3
I0809 18:05:11.452801 21642 net.cpp:84] Creating Layer fbn3
I0809 18:05:11.452810 21642 net.cpp:406] fbn3 <- fconv3
I0809 18:05:11.452819 21642 net.cpp:380] fbn3 -> fbn3
I0809 18:05:11.453155 21642 net.cpp:122] Setting up fbn3
I0809 18:05:11.453169 21642 net.cpp:129] Top shape: 12 3 1 8192 (294912)
I0809 18:05:11.453176 21642 net.cpp:137] Memory required for data: 608305152
I0809 18:05:11.453187 21642 layer_factory.hpp:77] Creating layer frelu3
I0809 18:05:11.453197 21642 net.cpp:84] Creating Layer frelu3
I0809 18:05:11.453204 21642 net.cpp:406] frelu3 <- fbn3
I0809 18:05:11.453212 21642 net.cpp:367] frelu3 -> fbn3 (in-place)
I0809 18:05:11.453680 21642 net.cpp:122] Setting up frelu3
I0809 18:05:11.453699 21642 net.cpp:129] Top shape: 12 3 1 8192 (294912)
I0809 18:05:11.453706 21642 net.cpp:137] Memory required for data: 609484800
I0809 18:05:11.453711 21642 layer_factory.hpp:77] Creating layer feat3
I0809 18:05:11.453722 21642 net.cpp:84] Creating Layer feat3
I0809 18:05:11.453729 21642 net.cpp:406] feat3 <- data_data_0_split_3
I0809 18:05:11.453739 21642 net.cpp:406] feat3 <- fbn3
I0809 18:05:11.453748 21642 net.cpp:380] feat3 -> feat3
I0809 18:05:11.453795 21642 net.cpp:122] Setting up feat3
I0809 18:05:11.453809 21642 net.cpp:129] Top shape: 12 3 1 8192 (294912)
I0809 18:05:11.453814 21642 net.cpp:137] Memory required for data: 610664448
I0809 18:05:11.453822 21642 layer_factory.hpp:77] Creating layer data_lattice2
I0809 18:05:11.453889 21642 net.cpp:84] Creating Layer data_lattice2
I0809 18:05:11.453903 21642 net.cpp:406] data_lattice2 <- feat3
I0809 18:05:11.453913 21642 net.cpp:380] data_lattice2 -> data_lattice2
I0809 18:05:11.456441 21642 net.cpp:122] Setting up data_lattice2
I0809 18:05:11.456465 21642 net.cpp:129] Top shape: 12 3 1 8192 (294912)
I0809 18:05:11.456472 21642 net.cpp:137] Memory required for data: 611844096
I0809 18:05:11.456478 21642 layer_factory.hpp:77] Creating layer data_lattice2_data_lattice2_0_split
I0809 18:05:11.456490 21642 net.cpp:84] Creating Layer data_lattice2_data_lattice2_0_split
I0809 18:05:11.456497 21642 net.cpp:406] data_lattice2_data_lattice2_0_split <- data_lattice2
I0809 18:05:11.456508 21642 net.cpp:380] data_lattice2_data_lattice2_0_split -> data_lattice2_data_lattice2_0_split_0
I0809 18:05:11.456521 21642 net.cpp:380] data_lattice2_data_lattice2_0_split -> data_lattice2_data_lattice2_0_split_1
I0809 18:05:11.456584 21642 net.cpp:122] Setting up data_lattice2_data_lattice2_0_split
I0809 18:05:11.456598 21642 net.cpp:129] Top shape: 12 3 1 8192 (294912)
I0809 18:05:11.456604 21642 net.cpp:129] Top shape: 12 3 1 8192 (294912)
I0809 18:05:11.456609 21642 net.cpp:137] Memory required for data: 614203392
I0809 18:05:11.456614 21642 layer_factory.hpp:77] Creating layer conv4
I0809 18:05:11.456627 21642 net.cpp:84] Creating Layer conv4
I0809 18:05:11.456634 21642 net.cpp:406] conv4 <- bn3_relu3_0_split_1
I0809 18:05:11.456642 21642 net.cpp:406] conv4 <- data_lattice2_data_lattice2_0_split_0
I0809 18:05:11.456650 21642 net.cpp:406] conv4 <- data_lattice2_data_lattice2_0_split_1
I0809 18:05:11.456660 21642 net.cpp:380] conv4 -> conv4
I0809 18:05:11.550134 21642 net.cpp:122] Setting up conv4
I0809 18:05:11.550168 21642 net.cpp:129] Top shape: 12 256 1 8192 (25165824)
I0809 18:05:11.550173 21642 net.cpp:137] Memory required for data: 714866688
I0809 18:05:11.550182 21642 layer_factory.hpp:77] Creating layer bn4
I0809 18:05:11.550194 21642 net.cpp:84] Creating Layer bn4
I0809 18:05:11.550199 21642 net.cpp:406] bn4 <- conv4
I0809 18:05:11.550209 21642 net.cpp:380] bn4 -> bn4
I0809 18:05:11.550458 21642 net.cpp:122] Setting up bn4
I0809 18:05:11.550470 21642 net.cpp:129] Top shape: 12 256 1 8192 (25165824)
I0809 18:05:11.550474 21642 net.cpp:137] Memory required for data: 815529984
I0809 18:05:11.550501 21642 layer_factory.hpp:77] Creating layer relu4
I0809 18:05:11.550511 21642 net.cpp:84] Creating Layer relu4
I0809 18:05:11.550516 21642 net.cpp:406] relu4 <- bn4
I0809 18:05:11.550523 21642 net.cpp:367] relu4 -> bn4 (in-place)
I0809 18:05:11.551507 21642 net.cpp:122] Setting up relu4
I0809 18:05:11.551525 21642 net.cpp:129] Top shape: 12 256 1 8192 (25165824)
I0809 18:05:11.551530 21642 net.cpp:137] Memory required for data: 916193280
I0809 18:05:11.551534 21642 layer_factory.hpp:77] Creating layer bn4_relu4_0_split
I0809 18:05:11.551543 21642 net.cpp:84] Creating Layer bn4_relu4_0_split
I0809 18:05:11.551548 21642 net.cpp:406] bn4_relu4_0_split <- bn4
I0809 18:05:11.551556 21642 net.cpp:380] bn4_relu4_0_split -> bn4_relu4_0_split_0
I0809 18:05:11.551565 21642 net.cpp:380] bn4_relu4_0_split -> bn4_relu4_0_split_1
I0809 18:05:11.551573 21642 net.cpp:380] bn4_relu4_0_split -> bn4_relu4_0_split_2
I0809 18:05:11.551636 21642 net.cpp:122] Setting up bn4_relu4_0_split
I0809 18:05:11.551645 21642 net.cpp:129] Top shape: 12 256 1 8192 (25165824)
I0809 18:05:11.551651 21642 net.cpp:129] Top shape: 12 256 1 8192 (25165824)
I0809 18:05:11.551656 21642 net.cpp:129] Top shape: 12 256 1 8192 (25165824)
I0809 18:05:11.551658 21642 net.cpp:137] Memory required for data: 1218183168
I0809 18:05:11.551662 21642 layer_factory.hpp:77] Creating layer fconv4
I0809 18:05:11.551676 21642 net.cpp:84] Creating Layer fconv4
I0809 18:05:11.551679 21642 net.cpp:406] fconv4 <- bn4_relu4_0_split_0
I0809 18:05:11.551688 21642 net.cpp:380] fconv4 -> fconv4
I0809 18:05:11.553715 21642 net.cpp:122] Setting up fconv4
I0809 18:05:11.553735 21642 net.cpp:129] Top shape: 12 3 1 8192 (294912)
I0809 18:05:11.553740 21642 net.cpp:137] Memory required for data: 1219362816
I0809 18:05:11.553748 21642 layer_factory.hpp:77] Creating layer fbn4
I0809 18:05:11.553756 21642 net.cpp:84] Creating Layer fbn4
I0809 18:05:11.553761 21642 net.cpp:406] fbn4 <- fconv4
I0809 18:05:11.553772 21642 net.cpp:380] fbn4 -> fbn4
I0809 18:05:11.554023 21642 net.cpp:122] Setting up fbn4
I0809 18:05:11.554033 21642 net.cpp:129] Top shape: 12 3 1 8192 (294912)
I0809 18:05:11.554039 21642 net.cpp:137] Memory required for data: 1220542464
I0809 18:05:11.554049 21642 layer_factory.hpp:77] Creating layer frelu4
I0809 18:05:11.554055 21642 net.cpp:84] Creating Layer frelu4
I0809 18:05:11.554060 21642 net.cpp:406] frelu4 <- fbn4
I0809 18:05:11.554066 21642 net.cpp:367] frelu4 -> fbn4 (in-place)
I0809 18:05:11.554397 21642 net.cpp:122] Setting up frelu4
I0809 18:05:11.554411 21642 net.cpp:129] Top shape: 12 3 1 8192 (294912)
I0809 18:05:11.554415 21642 net.cpp:137] Memory required for data: 1221722112
I0809 18:05:11.554419 21642 layer_factory.hpp:77] Creating layer feat4
I0809 18:05:11.554436 21642 net.cpp:84] Creating Layer feat4
I0809 18:05:11.554442 21642 net.cpp:406] feat4 <- data_data_0_split_4
I0809 18:05:11.554448 21642 net.cpp:406] feat4 <- fbn4
I0809 18:05:11.554455 21642 net.cpp:380] feat4 -> feat4
I0809 18:05:11.554494 21642 net.cpp:122] Setting up feat4
I0809 18:05:11.554502 21642 net.cpp:129] Top shape: 12 3 1 8192 (294912)
I0809 18:05:11.554505 21642 net.cpp:137] Memory required for data: 1222901760
I0809 18:05:11.554509 21642 layer_factory.hpp:77] Creating layer data_lattice3
I0809 18:05:11.554560 21642 net.cpp:84] Creating Layer data_lattice3
I0809 18:05:11.554570 21642 net.cpp:406] data_lattice3 <- feat4
I0809 18:05:11.554579 21642 net.cpp:380] data_lattice3 -> data_lattice3
I0809 18:05:11.556315 21642 net.cpp:122] Setting up data_lattice3
I0809 18:05:11.556337 21642 net.cpp:129] Top shape: 12 3 1 8192 (294912)
I0809 18:05:11.556344 21642 net.cpp:137] Memory required for data: 1224081408
I0809 18:05:11.556349 21642 layer_factory.hpp:77] Creating layer data_lattice3_data_lattice3_0_split
I0809 18:05:11.556358 21642 net.cpp:84] Creating Layer data_lattice3_data_lattice3_0_split
I0809 18:05:11.556365 21642 net.cpp:406] data_lattice3_data_lattice3_0_split <- data_lattice3
I0809 18:05:11.556372 21642 net.cpp:380] data_lattice3_data_lattice3_0_split -> data_lattice3_data_lattice3_0_split_0
I0809 18:05:11.556382 21642 net.cpp:380] data_lattice3_data_lattice3_0_split -> data_lattice3_data_lattice3_0_split_1
I0809 18:05:11.556435 21642 net.cpp:122] Setting up data_lattice3_data_lattice3_0_split
I0809 18:05:11.556443 21642 net.cpp:129] Top shape: 12 3 1 8192 (294912)
I0809 18:05:11.556447 21642 net.cpp:129] Top shape: 12 3 1 8192 (294912)
I0809 18:05:11.556452 21642 net.cpp:137] Memory required for data: 1226440704
I0809 18:05:11.556457 21642 layer_factory.hpp:77] Creating layer conv5
I0809 18:05:11.556468 21642 net.cpp:84] Creating Layer conv5
I0809 18:05:11.556474 21642 net.cpp:406] conv5 <- bn4_relu4_0_split_1
I0809 18:05:11.556480 21642 net.cpp:406] conv5 <- data_lattice3_data_lattice3_0_split_0
I0809 18:05:11.556485 21642 net.cpp:406] conv5 <- data_lattice3_data_lattice3_0_split_1
I0809 18:05:11.556493 21642 net.cpp:380] conv5 -> conv5
I0809 18:05:11.716595 21642 net.cpp:122] Setting up conv5
I0809 18:05:11.716632 21642 net.cpp:129] Top shape: 12 256 1 8192 (25165824)
I0809 18:05:11.716637 21642 net.cpp:137] Memory required for data: 1327104000
I0809 18:05:11.716646 21642 layer_factory.hpp:77] Creating layer bn5
I0809 18:05:11.716655 21642 net.cpp:84] Creating Layer bn5
I0809 18:05:11.716662 21642 net.cpp:406] bn5 <- conv5
I0809 18:05:11.716670 21642 net.cpp:380] bn5 -> bn5
I0809 18:05:11.716922 21642 net.cpp:122] Setting up bn5
I0809 18:05:11.716933 21642 net.cpp:129] Top shape: 12 256 1 8192 (25165824)
I0809 18:05:11.716935 21642 net.cpp:137] Memory required for data: 1427767296
I0809 18:05:11.716944 21642 layer_factory.hpp:77] Creating layer relu5
I0809 18:05:11.716953 21642 net.cpp:84] Creating Layer relu5
I0809 18:05:11.716958 21642 net.cpp:406] relu5 <- bn5
I0809 18:05:11.716962 21642 net.cpp:367] relu5 -> bn5 (in-place)
I0809 18:05:11.718245 21642 net.cpp:122] Setting up relu5
I0809 18:05:11.718263 21642 net.cpp:129] Top shape: 12 256 1 8192 (25165824)
I0809 18:05:11.718268 21642 net.cpp:137] Memory required for data: 1528430592
I0809 18:05:11.718272 21642 layer_factory.hpp:77] Creating layer bn5_relu5_0_split
I0809 18:05:11.718281 21642 net.cpp:84] Creating Layer bn5_relu5_0_split
I0809 18:05:11.718286 21642 net.cpp:406] bn5_relu5_0_split <- bn5
I0809 18:05:11.718293 21642 net.cpp:380] bn5_relu5_0_split -> bn5_relu5_0_split_0
I0809 18:05:11.718302 21642 net.cpp:380] bn5_relu5_0_split -> bn5_relu5_0_split_1
I0809 18:05:11.718309 21642 net.cpp:380] bn5_relu5_0_split -> bn5_relu5_0_split_2
I0809 18:05:11.718377 21642 net.cpp:122] Setting up bn5_relu5_0_split
I0809 18:05:11.718386 21642 net.cpp:129] Top shape: 12 256 1 8192 (25165824)
I0809 18:05:11.718391 21642 net.cpp:129] Top shape: 12 256 1 8192 (25165824)
I0809 18:05:11.718396 21642 net.cpp:129] Top shape: 12 256 1 8192 (25165824)
I0809 18:05:11.718400 21642 net.cpp:137] Memory required for data: 1830420480
I0809 18:05:11.718405 21642 layer_factory.hpp:77] Creating layer fconv5
I0809 18:05:11.718420 21642 net.cpp:84] Creating Layer fconv5
I0809 18:05:11.718425 21642 net.cpp:406] fconv5 <- bn5_relu5_0_split_0
I0809 18:05:11.718438 21642 net.cpp:380] fconv5 -> fconv5
I0809 18:05:11.720190 21642 net.cpp:122] Setting up fconv5
I0809 18:05:11.720207 21642 net.cpp:129] Top shape: 12 3 1 8192 (294912)
I0809 18:05:11.720212 21642 net.cpp:137] Memory required for data: 1831600128
I0809 18:05:11.720221 21642 layer_factory.hpp:77] Creating layer fbn5
I0809 18:05:11.720228 21642 net.cpp:84] Creating Layer fbn5
I0809 18:05:11.720233 21642 net.cpp:406] fbn5 <- fconv5
I0809 18:05:11.720242 21642 net.cpp:380] fbn5 -> fbn5
I0809 18:05:11.720500 21642 net.cpp:122] Setting up fbn5
I0809 18:05:11.720511 21642 net.cpp:129] Top shape: 12 3 1 8192 (294912)
I0809 18:05:11.720515 21642 net.cpp:137] Memory required for data: 1832779776
I0809 18:05:11.720525 21642 layer_factory.hpp:77] Creating layer frelu5
I0809 18:05:11.720532 21642 net.cpp:84] Creating Layer frelu5
I0809 18:05:11.720537 21642 net.cpp:406] frelu5 <- fbn5
I0809 18:05:11.720544 21642 net.cpp:367] frelu5 -> fbn5 (in-place)
I0809 18:05:11.721513 21642 net.cpp:122] Setting up frelu5
I0809 18:05:11.721531 21642 net.cpp:129] Top shape: 12 3 1 8192 (294912)
I0809 18:05:11.721536 21642 net.cpp:137] Memory required for data: 1833959424
I0809 18:05:11.721541 21642 layer_factory.hpp:77] Creating layer feat5
I0809 18:05:11.721552 21642 net.cpp:84] Creating Layer feat5
I0809 18:05:11.721559 21642 net.cpp:406] feat5 <- data_data_0_split_5
I0809 18:05:11.721565 21642 net.cpp:406] feat5 <- fbn5
I0809 18:05:11.721572 21642 net.cpp:380] feat5 -> feat5
I0809 18:05:11.721609 21642 net.cpp:122] Setting up feat5
I0809 18:05:11.721617 21642 net.cpp:129] Top shape: 12 3 1 8192 (294912)
I0809 18:05:11.721621 21642 net.cpp:137] Memory required for data: 1835139072
I0809 18:05:11.721624 21642 layer_factory.hpp:77] Creating layer data_lattice4
I0809 18:05:11.721671 21642 net.cpp:84] Creating Layer data_lattice4
I0809 18:05:11.721681 21642 net.cpp:406] data_lattice4 <- feat5
I0809 18:05:11.721689 21642 net.cpp:380] data_lattice4 -> data_lattice4
I0809 18:05:11.723273 21642 net.cpp:122] Setting up data_lattice4
I0809 18:05:11.723294 21642 net.cpp:129] Top shape: 12 3 1 8192 (294912)
I0809 18:05:11.723299 21642 net.cpp:137] Memory required for data: 1836318720
I0809 18:05:11.723302 21642 layer_factory.hpp:77] Creating layer data_lattice4_data_lattice4_0_split
I0809 18:05:11.723311 21642 net.cpp:84] Creating Layer data_lattice4_data_lattice4_0_split
I0809 18:05:11.723316 21642 net.cpp:406] data_lattice4_data_lattice4_0_split <- data_lattice4
I0809 18:05:11.723325 21642 net.cpp:380] data_lattice4_data_lattice4_0_split -> data_lattice4_data_lattice4_0_split_0
I0809 18:05:11.723335 21642 net.cpp:380] data_lattice4_data_lattice4_0_split -> data_lattice4_data_lattice4_0_split_1
I0809 18:05:11.723393 21642 net.cpp:122] Setting up data_lattice4_data_lattice4_0_split
I0809 18:05:11.723402 21642 net.cpp:129] Top shape: 12 3 1 8192 (294912)
I0809 18:05:11.723408 21642 net.cpp:129] Top shape: 12 3 1 8192 (294912)
I0809 18:05:11.723412 21642 net.cpp:137] Memory required for data: 1838678016
I0809 18:05:11.723417 21642 layer_factory.hpp:77] Creating layer conv6
I0809 18:05:11.723425 21642 net.cpp:84] Creating Layer conv6
I0809 18:05:11.723436 21642 net.cpp:406] conv6 <- bn5_relu5_0_split_1
I0809 18:05:11.723443 21642 net.cpp:406] conv6 <- data_lattice4_data_lattice4_0_split_0
I0809 18:05:11.723448 21642 net.cpp:406] conv6 <- data_lattice4_data_lattice4_0_split_1
I0809 18:05:11.723454 21642 net.cpp:380] conv6 -> conv6
I0809 18:05:11.884086 21642 net.cpp:122] Setting up conv6
I0809 18:05:11.884127 21642 net.cpp:129] Top shape: 12 256 1 8192 (25165824)
I0809 18:05:11.884132 21642 net.cpp:137] Memory required for data: 1939341312
I0809 18:05:11.884142 21642 layer_factory.hpp:77] Creating layer bn6
I0809 18:05:11.884152 21642 net.cpp:84] Creating Layer bn6
I0809 18:05:11.884160 21642 net.cpp:406] bn6 <- conv6
I0809 18:05:11.884167 21642 net.cpp:380] bn6 -> bn6
I0809 18:05:11.884420 21642 net.cpp:122] Setting up bn6
I0809 18:05:11.884435 21642 net.cpp:129] Top shape: 12 256 1 8192 (25165824)
I0809 18:05:11.884439 21642 net.cpp:137] Memory required for data: 2040004608
I0809 18:05:11.884449 21642 layer_factory.hpp:77] Creating layer relu6
I0809 18:05:11.884466 21642 net.cpp:84] Creating Layer relu6
I0809 18:05:11.884471 21642 net.cpp:406] relu6 <- bn6
I0809 18:05:11.884476 21642 net.cpp:367] relu6 -> bn6 (in-place)
I0809 18:05:11.884912 21642 net.cpp:122] Setting up relu6
I0809 18:05:11.884927 21642 net.cpp:129] Top shape: 12 256 1 8192 (25165824)
I0809 18:05:11.884930 21642 net.cpp:137] Memory required for data: 2140667904
I0809 18:05:11.884934 21642 layer_factory.hpp:77] Creating layer concat6
I0809 18:05:11.884979 21642 net.cpp:84] Creating Layer concat6
I0809 18:05:11.884986 21642 net.cpp:406] concat6 <- bn6
I0809 18:05:11.884992 21642 net.cpp:406] concat6 <- bn2_relu2_0_split_2
I0809 18:05:11.884997 21642 net.cpp:406] concat6 <- bn3_relu3_0_split_2
I0809 18:05:11.885002 21642 net.cpp:406] concat6 <- bn4_relu4_0_split_2
I0809 18:05:11.885006 21642 net.cpp:406] concat6 <- bn5_relu5_0_split_2
I0809 18:05:11.885013 21642 net.cpp:380] concat6 -> concat6
I0809 18:05:11.885071 21642 net.cpp:122] Setting up concat6
I0809 18:05:11.885082 21642 net.cpp:129] Top shape: 12 960 1 8192 (94371840)
I0809 18:05:11.885087 21642 net.cpp:137] Memory required for data: 2518155264
I0809 18:05:11.885090 21642 layer_factory.hpp:77] Creating layer conv7
I0809 18:05:11.885105 21642 net.cpp:84] Creating Layer conv7
I0809 18:05:11.885110 21642 net.cpp:406] conv7 <- concat6
I0809 18:05:11.885118 21642 net.cpp:380] conv7 -> conv7
I0809 18:05:11.888089 21642 net.cpp:122] Setting up conv7
I0809 18:05:11.888108 21642 net.cpp:129] Top shape: 12 128 1 8192 (12582912)
I0809 18:05:11.888113 21642 net.cpp:137] Memory required for data: 2568486912
I0809 18:05:11.888121 21642 layer_factory.hpp:77] Creating layer bn7
I0809 18:05:11.888129 21642 net.cpp:84] Creating Layer bn7
I0809 18:05:11.888134 21642 net.cpp:406] bn7 <- conv7
I0809 18:05:11.888142 21642 net.cpp:380] bn7 -> bn7
I0809 18:05:11.888383 21642 net.cpp:122] Setting up bn7
I0809 18:05:11.888396 21642 net.cpp:129] Top shape: 12 128 1 8192 (12582912)
I0809 18:05:11.888399 21642 net.cpp:137] Memory required for data: 2618818560
I0809 18:05:11.888408 21642 layer_factory.hpp:77] Creating layer relu7
I0809 18:05:11.888415 21642 net.cpp:84] Creating Layer relu7
I0809 18:05:11.888420 21642 net.cpp:406] relu7 <- bn7
I0809 18:05:11.888425 21642 net.cpp:367] relu7 -> bn7 (in-place)
I0809 18:05:11.889173 21642 net.cpp:122] Setting up relu7
I0809 18:05:11.889190 21642 net.cpp:129] Top shape: 12 128 1 8192 (12582912)
I0809 18:05:11.889195 21642 net.cpp:137] Memory required for data: 2669150208
I0809 18:05:11.889200 21642 layer_factory.hpp:77] Creating layer conv8
I0809 18:05:11.889216 21642 net.cpp:84] Creating Layer conv8
I0809 18:05:11.889221 21642 net.cpp:406] conv8 <- bn7
I0809 18:05:11.889231 21642 net.cpp:380] conv8 -> conv8
I0809 18:05:11.892468 21642 net.cpp:122] Setting up conv8
I0809 18:05:11.892487 21642 net.cpp:129] Top shape: 12 13 1 8192 (1277952)
I0809 18:05:11.892491 21642 net.cpp:137] Memory required for data: 2674262016
I0809 18:05:11.892499 21642 layer_factory.hpp:77] Creating layer conv8_conv8_0_split
I0809 18:05:11.892508 21642 net.cpp:84] Creating Layer conv8_conv8_0_split
I0809 18:05:11.892513 21642 net.cpp:406] conv8_conv8_0_split <- conv8
I0809 18:05:11.892519 21642 net.cpp:380] conv8_conv8_0_split -> conv8_conv8_0_split_0
I0809 18:05:11.892529 21642 net.cpp:380] conv8_conv8_0_split -> conv8_conv8_0_split_1
I0809 18:05:11.892578 21642 net.cpp:122] Setting up conv8_conv8_0_split
I0809 18:05:11.892588 21642 net.cpp:129] Top shape: 12 13 1 8192 (1277952)
I0809 18:05:11.892593 21642 net.cpp:129] Top shape: 12 13 1 8192 (1277952)
I0809 18:05:11.892596 21642 net.cpp:137] Memory required for data: 2684485632
I0809 18:05:11.892601 21642 layer_factory.hpp:77] Creating layer loss
I0809 18:05:11.892642 21642 net.cpp:84] Creating Layer loss
I0809 18:05:11.892652 21642 net.cpp:406] loss <- conv8_conv8_0_split_0
I0809 18:05:11.892658 21642 net.cpp:406] loss <- label_data_1_split_0
I0809 18:05:11.892665 21642 net.cpp:380] loss -> loss
…
