…
I0728 20:21:14.122861 18612 net.cpp:294] The NetState phase (0) differed from the phase (1) specified by a rule in layer data
I0728 20:21:14.126440 18612 net.cpp:51] Initializing net from parameters: 
state {
  phase: TRAIN
}
layer {
  name: "data"
  type: "Python"
  top: "data"
  top: "label"
  include {
    phase: TRAIN
  }
  python_param {
    module: "dataset_lidar"
    layer: "InputShapenet"
    param_str: "{\'sample_size\': 70000, \'test_area\': \'6\', \'batch_size\': 1, \'feat_dims\': \'x_y_z\', \'subset\': \'train\', \'root\': \'../../data/shapenet_ericyi_ply\', \'jitter_xyz\': 0.01, \'jitter_stretch\': 0.05, \'jitter_rotation\': 5.0}"
  }
}
layer {
  name: "data_feat"
  type: "Python"
  bottom: "data"
  top: "data_feat"
  python_param {
    module: "custom_layers"
    layer: "PickAndScale"
    param_str: "0_1_2"
  }
}
layer {
  name: "conv1"
  type: "Convolution"
  bottom: "data_feat"
  top: "conv1"
  param {
    lr_mult: 1
  }
  param {
    lr_mult: 0.1
  }
  convolution_param {
    num_output: 32
    pad: 0
    kernel_size: 1
    stride: 1
    weight_filler {
      type: "xavier"
    }
    bias_filler {
      type: "constant"
      value: 0
    }
  }
}
layer {
  name: "bn1"
  type: "BatchNorm"
  bottom: "conv1"
  top: "bn1"
}
layer {
  name: "relu1"
  type: "ReLU"
  bottom: "bn1"
  top: "bn1"
}
layer {
  name: "fconv1"
  type: "Convolution"
  bottom: "bn1"
  top: "fconv1"
  param {
    lr_mult: 0.5
  }
  param {
    lr_mult: 0.05
  }
  convolution_param {
    num_output: 3
    pad: 0
    kernel_size: 1
    stride: 1
    weight_filler {
      type: "xavier"
    }
    bias_filler {
      type: "constant"
      value: 0
    }
  }
}
layer {
  name: "fbn1"
  type: "BatchNorm"
  bottom: "fconv1"
  top: "fbn1"
}
layer {
  name: "frelu1"
  type: "ReLU"
  bottom: "fbn1"
  top: "fbn1"
}
layer {
  name: "data_lattice0"
  type: "Python"
  bottom: "data"
  top: "data_lattice0"
  python_param {
    module: "custom_layers"
    layer: "PickAndScale"
    param_str: "0*48_1*48_2*48"
  }
}
layer {
  name: "feat1"
  type: "Eltwise"
  bottom: "data_lattice0"
  bottom: "fbn1"
  top: "feat1"
  eltwise_param {
    operation: SUM
  }
}
layer {
  name: "conv2"
  type: "Permutohedral"
  bottom: "bn1"
  bottom: "feat1"
  bottom: "feat1"
  top: "conv2"
  param {
    lr_mult: 1
    decay_mult: 1
  }
  param {
    lr_mult: 2
    decay_mult: 0
  }
  permutohedral_param {
    num_output: 64
    neighborhood_size: 4
    filter_filler {
      type: "gaussian"
      std: 0.001
    }
    bias_term: true
    bias_filler {
      type: "constant"
      value: 0
    }
    group: 1
    norm_type: AFTER
    offset_type: NONE
  }
}
layer {
  name: "bn2"
  type: "BatchNorm"
  bottom: "conv2"
  top: "bn2"
}
layer {
  name: "relu2"
  type: "ReLU"
  bottom: "bn2"
  top: "bn2"
}
layer {
  name: "fconv2"
  type: "Convolution"
  bottom: "bn2"
  top: "fconv2"
  param {
    lr_mult: 0.5
  }
  param {
    lr_mult: 0.05
  }
  convolution_param {
    num_output: 3
    pad: 0
    kernel_size: 1
    stride: 1
    weight_filler {
      type: "xavier"
    }
    bias_filler {
      type: "constant"
      value: 0
    }
  }
}
layer {
  name: "fbn2"
  type: "BatchNorm"
  bottom: "fconv2"
  top: "fbn2"
}
layer {
  name: "frelu2"
  type: "ReLU"
  bottom: "fbn2"
  top: "fbn2"
}
layer {
  name: "data_lattice1"
  type: "Python"
  bottom: "data"
  top: "data_lattice1"
  python_param {
    module: "custom_layers"
    layer: "PickAndScale"
    param_str: "0*24_1*24_2*24"
  }
}
layer {
  name: "feat2"
  type: "Eltwise"
  bottom: "data_lattice1"
  bottom: "fbn2"
  top: "feat2"
  eltwise_param {
    operation: SUM
  }
}
layer {
  name: "conv3"
  type: "Permutohedral"
  bottom: "bn2"
  bottom: "feat2"
  bottom: "feat2"
  top: "conv3"
  param {
    lr_mult: 1
    decay_mult: 1
  }
  param {
    lr_mult: 2
    decay_mult: 0
  }
  permutohedral_param {
    num_output: 128
    neighborhood_size: 4
    filter_filler {
      type: "gaussian"
      std: 0.001
    }
    bias_term: true
    bias_filler {
      type: "constant"
      value: 0
    }
    group: 1
    norm_type: AFTER
    offset_type: NONE
  }
}
layer {
  name: "bn3"
  type: "BatchNorm"
  bottom: "conv3"
  top: "bn3"
}
layer {
  name: "relu3"
  type: "ReLU"
  bottom: "bn3"
  top: "bn3"
}
layer {
  name: "fconv3"
  type: "Convolution"
  bottom: "bn3"
  top: "fconv3"
  param {
    lr_mult: 0.5
  }
  param {
    lr_mult: 0.05
  }
  convolution_param {
    num_output: 3
    pad: 0
    kernel_size: 1
    stride: 1
    weight_filler {
      type: "xavier"
    }
    bias_filler {
      type: "constant"
      value: 0
    }
  }
}
layer {
  name: "fbn3"
  type: "BatchNorm"
  bottom: "fconv3"
  top: "fbn3"
}
layer {
  name: "frelu3"
  type: "ReLU"
  bottom: "fbn3"
  top: "fbn3"
}
layer {
  name: "data_lattice2"
  type: "Python"
  bottom: "data"
  top: "data_lattice2"
  python_param {
    module: "custom_layers"
    layer: "PickAndScale"
    param_str: "0*12_1*12_2*12"
  }
}
layer {
  name: "feat3"
  type: "Eltwise"
  bottom: "data_lattice2"
  bottom: "fbn3"
  top: "feat3"
  eltwise_param {
    operation: SUM
  }
}
layer {
  name: "conv4"
  type: "Permutohedral"
  bottom: "bn3"
  bottom: "feat3"
  bottom: "feat3"
  top: "conv4"
  param {
    lr_mult: 1
    decay_mult: 1
  }
  param {
    lr_mult: 2
    decay_mult: 0
  }
  permutohedral_param {
    num_output: 256
    neighborhood_size: 2
    filter_filler {
      type: "gaussian"
      std: 0.001
    }
    bias_term: true
    bias_filler {
      type: "constant"
      value: 0
    }
    group: 1
    norm_type: AFTER
    offset_type: NONE
  }
}
layer {
  name: "bn4"
  type: "BatchNorm"
  bottom: "conv4"
  top: "bn4"
}
layer {
  name: "relu4"
  type: "ReLU"
  bottom: "bn4"
  top: "bn4"
}
layer {
  name: "fconv4"
  type: "Convolution"
  bottom: "bn4"
  top: "fconv4"
  param {
    lr_mult: 0.5
  }
  param {
    lr_mult: 0.05
  }
  convolution_param {
    num_output: 3
    pad: 0
    kernel_size: 1
    stride: 1
    weight_filler {
      type: "xavier"
    }
    bias_filler {
      type: "constant"
      value: 0
    }
  }
}
layer {
  name: "fbn4"
  type: "BatchNorm"
  bottom: "fconv4"
  top: "fbn4"
}
layer {
  name: "frelu4"
  type: "ReLU"
  bottom: "fbn4"
  top: "fbn4"
}
layer {
  name: "data_lattice3"
  type: "Python"
  bottom: "data"
  top: "data_lattice3"
  python_param {
    module: "custom_layers"
    layer: "PickAndScale"
    param_str: "0*6_1*6_2*6"
  }
}
layer {
  name: "feat4"
  type: "Eltwise"
  bottom: "data_lattice3"
  bottom: "fbn4"
  top: "feat4"
  eltwise_param {
    operation: SUM
  }
}
layer {
  name: "conv5"
  type: "Permutohedral"
  bottom: "bn4"
  bottom: "feat4"
  bottom: "feat4"
  top: "conv5"
  param {
    lr_mult: 1
    decay_mult: 1
  }
  param {
    lr_mult: 2
    decay_mult: 0
  }
  permutohedral_param {
    num_output: 256
    neighborhood_size: 2
    filter_filler {
      type: "gaussian"
      std: 0.001
    }
    bias_term: true
    bias_filler {
      type: "constant"
      value: 0
    }
    group: 1
    norm_type: AFTER
    offset_type: NONE
  }
}
layer {
  name: "bn5"
  type: "BatchNorm"
  bottom: "conv5"
  top: "bn5"
}
layer {
  name: "relu5"
  type: "ReLU"
  bottom: "bn5"
  top: "bn5"
}
layer {
  name: "fconv5"
  type: "Convolution"
  bottom: "bn5"
  top: "fconv5"
  param {
    lr_mult: 0.5
  }
  param {
    lr_mult: 0.05
  }
  convolution_param {
    num_output: 3
    pad: 0
    kernel_size: 1
    stride: 1
    weight_filler {
      type: "xavier"
    }
    bias_filler {
      type: "constant"
      value: 0
    }
  }
}
layer {
  name: "fbn5"
  type: "BatchNorm"
  bottom: "fconv5"
  top: "fbn5"
}
layer {
  name: "frelu5"
  type: "ReLU"
  bottom: "fbn5"
  top: "fbn5"
}
layer {
  name: "data_lattice4"
  type: "Python"
  bottom: "data"
  top: "data_lattice4"
  python_param {
    module: "custom_layers"
    layer: "PickAndScale"
    param_str: "0*3_1*3_2*3"
  }
}
layer {
  name: "feat5"
  type: "Eltwise"
  bottom: "data_lattice4"
  bottom: "fbn5"
  top: "feat5"
  eltwise_param {
    operation: SUM
  }
}
layer {
  name: "conv6"
  type: "Permutohedral"
  bottom: "bn5"
  bottom: "feat5"
  bottom: "feat5"
  top: "conv6"
  param {
    lr_mult: 1
    decay_mult: 1
  }
  param {
    lr_mult: 2
    decay_mult: 0
  }
  permutohedral_param {
    num_output: 256
    neighborhood_size: 1
    filter_filler {
      type: "gaussian"
      std: 0.001
    }
    bias_term: true
    bias_filler {
      type: "constant"
      value: 0
    }
    group: 1
    norm_type: AFTER
    offset_type: NONE
  }
}
layer {
  name: "bn6"
  type: "BatchNorm"
  bottom: "conv6"
  top: "bn6"
}
layer {
  name: "relu6"
  type: "ReLU"
  bottom: "bn6"
  top: "bn6"
}
layer {
  name: "fconv6"
  type: "Convolution"
  bottom: "bn6"
  top: "fconv6"
  param {
    lr_mult: 0.5
  }
  param {
    lr_mult: 0.05
  }
  convolution_param {
    num_output: 3
    pad: 0
    kernel_size: 1
    stride: 1
    weight_filler {
      type: "xavier"
    }
    bias_filler {
      type: "constant"
      value: 0
    }
  }
}
layer {
  name: "fbn6"
  type: "BatchNorm"
  bottom: "fconv6"
  top: "fbn6"
}
layer {
  name: "frelu6"
  type: "ReLU"
  bottom: "fbn6"
  top: "fbn6"
}
layer {
  name: "data_lattice5"
  type: "Python"
  bottom: "data"
  top: "data_lattice5"
  python_param {
    module: "custom_layers"
    layer: "PickAndScale"
    param_str: "0*2_1*2_2*2"
  }
}
layer {
  name: "feat6"
  type: "Eltwise"
  bottom: "data_lattice5"
  bottom: "fbn6"
  top: "feat6"
  eltwise_param {
    operation: SUM
  }
}
layer {
  name: "conv9"
  type: "Permutohedral"
  bottom: "bn6"
  bottom: "feat6"
  bottom: "feat6"
  top: "conv9"
  param {
    lr_mult: 1
    decay_mult: 1
  }
  param {
    lr_mult: 2
    decay_mult: 0
  }
  permutohedral_param {
    num_output: 256
    neighborhood_size: 1
    filter_filler {
      type: "gaussian"
      std: 0.001
    }
    bias_term: true
    bias_filler {
      type: "constant"
      value: 0
    }
    group: 1
    norm_type: AFTER
    offset_type: NONE
  }
}
layer {
  name: "bn9"
  type: "BatchNorm"
  bottom: "conv9"
  top: "bn9"
}
layer {
  name: "relu9"
  type: "ReLU"
  bottom: "bn9"
  top: "bn9"
}
layer {
  name: "concat6"
  type: "Concat"
  bottom: "bn6"
  bottom: "bn2"
  bottom: "bn3"
  bottom: "bn4"
  bottom: "bn5"
  bottom: "bn9"
  bottom: "bn1"
  top: "concat6"
}
layer {
  name: "conv7"
  type: "Convolution"
  bottom: "concat6"
  top: "conv7"
  param {
    lr_mult: 1
  }
  param {
    lr_mult: 0.1
  }
  convolution_param {
    num_output: 128
    pad: 0
    kernel_size: 1
    stride: 1
    weight_filler {
      type: "xavier"
    }
    bias_filler {
      type: "constant"
      value: 0
    }
  }
}
layer {
  name: "bn7"
  type: "BatchNorm"
  bottom: "conv7"
  top: "bn7"
}
layer {
  name: "relu7"
  type: "ReLU"
  bottom: "bn7"
  top: "bn7"
}
layer {
  name: "conv8"
  type: "Convolution"
  bottom: "bn7"
  top: "conv8"
  param {
    lr_mult: 1
  }
  param {
    lr_mult: 0.1
  }
  convolution_param {
    num_output: 13
    pad: 0
    kernel_size: 1
    stride: 1
    weight_filler {
      type: "xavier"
    }
    bias_filler {
      type: "constant"
      value: 0
    }
  }
}
layer {
  name: "loss"
  type: "SoftmaxWithLoss"
  bottom: "conv8"
  bottom: "label"
  top: "loss"
}
layer {
  name: "accuracy"
  type: "Accuracy"
  bottom: "conv8"
  bottom: "label"
  top: "accuracy"
}
I0728 20:21:14.134146 18612 layer_factory.hpp:77] Creating layer data
I0728 20:21:14.169406 18612 net.cpp:84] Creating Layer data
I0728 20:21:14.169476 18612 net.cpp:380] data -> data
I0728 20:21:14.169586 18612 net.cpp:380] data -> label
I0728 20:21:14.632550 18614 upgrade_proto.cpp:1084] Attempting to upgrade input file specified using deprecated 'solver_type' field (enum)': /mnt/lustre/wangjiayun/repos/splatnet/exp/lidar3d/area6/6_solver.prototxt
…
I0728 20:21:14.682968 18618 upgrade_proto.cpp:1084] Attempting to upgrade input file specified using deprecated 'solver_type' field (enum)': /mnt/lustre/wangjiayun/repos/splatnet/exp/lidar3d/area6/6_solver.prototxt
I0728 20:21:14.683044 18618 upgrade_proto.cpp:1091] Successfully upgraded file specified using deprecated 'solver_type' field (enum) to 'type' field (string).
W0728 20:21:14.683050 18618 upgrade_proto.cpp:1093] Note that future Caffe releases will only support 'type' field (string) for a solver's type.
I0728 20:27:41.474030 18612 net.cpp:122] Setting up data
I0728 20:27:41.474148 18612 net.cpp:129] Top shape: 1 3 1 70000 (210000)
I0728 20:27:41.474158 18612 net.cpp:129] Top shape: 1 1 1 70000 (70000)
I0728 20:27:41.474161 18612 net.cpp:137] Memory required for data: 1120000
I0728 20:27:41.474184 18612 layer_factory.hpp:77] Creating layer data_data_0_split
I0728 20:27:41.474268 18612 net.cpp:84] Creating Layer data_data_0_split
I0728 20:27:41.474284 18612 net.cpp:406] data_data_0_split <- data
I0728 20:27:41.474303 18612 net.cpp:380] data_data_0_split -> data_data_0_split_0
I0728 20:27:41.474320 18612 net.cpp:380] data_data_0_split -> data_data_0_split_1
I0728 20:27:41.474329 18612 net.cpp:380] data_data_0_split -> data_data_0_split_2
I0728 20:27:41.474335 18612 net.cpp:380] data_data_0_split -> data_data_0_split_3
I0728 20:27:41.474340 18612 net.cpp:380] data_data_0_split -> data_data_0_split_4
I0728 20:27:41.474346 18612 net.cpp:380] data_data_0_split -> data_data_0_split_5
I0728 20:27:41.474351 18612 net.cpp:380] data_data_0_split -> data_data_0_split_6
I0728 20:27:41.474437 18612 net.cpp:122] Setting up data_data_0_split
I0728 20:27:41.474448 18612 net.cpp:129] Top shape: 1 3 1 70000 (210000)
I0728 20:27:41.474452 18612 net.cpp:129] Top shape: 1 3 1 70000 (210000)
I0728 20:27:41.474458 18612 net.cpp:129] Top shape: 1 3 1 70000 (210000)
I0728 20:27:41.474462 18612 net.cpp:129] Top shape: 1 3 1 70000 (210000)
I0728 20:27:41.474465 18612 net.cpp:129] Top shape: 1 3 1 70000 (210000)
I0728 20:27:41.474469 18612 net.cpp:129] Top shape: 1 3 1 70000 (210000)
I0728 20:27:41.474472 18612 net.cpp:129] Top shape: 1 3 1 70000 (210000)
I0728 20:27:41.474476 18612 net.cpp:137] Memory required for data: 7000000
I0728 20:27:41.474479 18612 layer_factory.hpp:77] Creating layer label_data_1_split
I0728 20:27:41.474491 18612 net.cpp:84] Creating Layer label_data_1_split
I0728 20:27:41.474495 18612 net.cpp:406] label_data_1_split <- label
I0728 20:27:41.474500 18612 net.cpp:380] label_data_1_split -> label_data_1_split_0
I0728 20:27:41.474506 18612 net.cpp:380] label_data_1_split -> label_data_1_split_1
I0728 20:27:41.474534 18612 net.cpp:122] Setting up label_data_1_split
I0728 20:27:41.474542 18612 net.cpp:129] Top shape: 1 1 1 70000 (70000)
I0728 20:27:41.474545 18612 net.cpp:129] Top shape: 1 1 1 70000 (70000)
I0728 20:27:41.474548 18612 net.cpp:137] Memory required for data: 7560000
I0728 20:27:41.474551 18612 layer_factory.hpp:77] Creating layer data_feat
I0728 20:27:41.478556 18612 net.cpp:84] Creating Layer data_feat
I0728 20:27:41.478574 18612 net.cpp:406] data_feat <- data_data_0_split_0
I0728 20:27:41.478581 18612 net.cpp:380] data_feat -> data_feat
I0728 20:27:41.480319 18612 net.cpp:122] Setting up data_feat
I0728 20:27:41.480337 18612 net.cpp:129] Top shape: 1 3 1 70000 (210000)
I0728 20:27:41.480341 18612 net.cpp:137] Memory required for data: 8400000
I0728 20:27:41.480346 18612 layer_factory.hpp:77] Creating layer conv1
I0728 20:27:41.480391 18612 net.cpp:84] Creating Layer conv1
I0728 20:27:41.480399 18612 net.cpp:406] conv1 <- data_feat
I0728 20:27:41.480406 18612 net.cpp:380] conv1 -> conv1
I0728 20:27:43.510911 18612 net.cpp:122] Setting up conv1
I0728 20:27:43.510973 18612 net.cpp:129] Top shape: 1 32 1 70000 (2240000)
I0728 20:27:43.510982 18612 net.cpp:137] Memory required for data: 17360000
I0728 20:27:43.511063 18612 layer_factory.hpp:77] Creating layer bn1
I0728 20:27:43.526769 18612 net.cpp:84] Creating Layer bn1
I0728 20:27:43.526799 18612 net.cpp:406] bn1 <- conv1
I0728 20:27:43.526816 18612 net.cpp:380] bn1 -> bn1
I0728 20:27:43.555415 18612 net.cpp:122] Setting up bn1
I0728 20:27:43.555454 18612 net.cpp:129] Top shape: 1 32 1 70000 (2240000)
I0728 20:27:43.555462 18612 net.cpp:137] Memory required for data: 26320000
I0728 20:27:43.555503 18612 layer_factory.hpp:77] Creating layer relu1
I0728 20:27:43.555583 18612 net.cpp:84] Creating Layer relu1
I0728 20:27:43.555600 18612 net.cpp:406] relu1 <- bn1
I0728 20:27:43.555618 18612 net.cpp:367] relu1 -> bn1 (in-place)
I0728 20:27:43.556331 18612 net.cpp:122] Setting up relu1
I0728 20:27:43.556361 18612 net.cpp:129] Top shape: 1 32 1 70000 (2240000)
I0728 20:27:43.556370 18612 net.cpp:137] Memory required for data: 35280000
I0728 20:27:43.556378 18612 layer_factory.hpp:77] Creating layer bn1_relu1_0_split
I0728 20:27:43.556393 18612 net.cpp:84] Creating Layer bn1_relu1_0_split
I0728 20:27:43.556406 18612 net.cpp:406] bn1_relu1_0_split <- bn1
I0728 20:27:43.556433 18612 net.cpp:380] bn1_relu1_0_split -> bn1_relu1_0_split_0
I0728 20:27:43.556449 18612 net.cpp:380] bn1_relu1_0_split -> bn1_relu1_0_split_1
I0728 20:27:43.556463 18612 net.cpp:380] bn1_relu1_0_split -> bn1_relu1_0_split_2
I0728 20:27:43.556576 18612 net.cpp:122] Setting up bn1_relu1_0_split
I0728 20:27:43.556592 18612 net.cpp:129] Top shape: 1 32 1 70000 (2240000)
I0728 20:27:43.556602 18612 net.cpp:129] Top shape: 1 32 1 70000 (2240000)
I0728 20:27:43.556614 18612 net.cpp:129] Top shape: 1 32 1 70000 (2240000)
I0728 20:27:43.556622 18612 net.cpp:137] Memory required for data: 62160000
I0728 20:27:43.556627 18612 layer_factory.hpp:77] Creating layer fconv1
I0728 20:27:43.556669 18612 net.cpp:84] Creating Layer fconv1
I0728 20:27:43.556684 18612 net.cpp:406] fconv1 <- bn1_relu1_0_split_0
I0728 20:27:43.556697 18612 net.cpp:380] fconv1 -> fconv1
I0728 20:27:43.561669 18612 net.cpp:122] Setting up fconv1
I0728 20:27:43.561703 18612 net.cpp:129] Top shape: 1 3 1 70000 (210000)
I0728 20:27:43.561712 18612 net.cpp:137] Memory required for data: 63000000
I0728 20:27:43.561746 18612 layer_factory.hpp:77] Creating layer fbn1
I0728 20:27:43.561763 18612 net.cpp:84] Creating Layer fbn1
I0728 20:27:43.561771 18612 net.cpp:406] fbn1 <- fconv1
I0728 20:27:43.561784 18612 net.cpp:380] fbn1 -> fbn1
I0728 20:27:43.562345 18612 net.cpp:122] Setting up fbn1
I0728 20:27:43.562366 18612 net.cpp:129] Top shape: 1 3 1 70000 (210000)
I0728 20:27:43.562373 18612 net.cpp:137] Memory required for data: 63840000
I0728 20:27:43.562394 18612 layer_factory.hpp:77] Creating layer frelu1
I0728 20:27:43.562407 18612 net.cpp:84] Creating Layer frelu1
I0728 20:27:43.562415 18612 net.cpp:406] frelu1 <- fbn1
I0728 20:27:43.562425 18612 net.cpp:367] frelu1 -> fbn1 (in-place)
I0728 20:27:43.563028 18612 net.cpp:122] Setting up frelu1
I0728 20:27:43.563053 18612 net.cpp:129] Top shape: 1 3 1 70000 (210000)
I0728 20:27:43.563061 18612 net.cpp:137] Memory required for data: 64680000
I0728 20:27:43.563069 18612 layer_factory.hpp:77] Creating layer data_lattice0
I0728 20:27:43.563289 18612 net.cpp:84] Creating Layer data_lattice0
I0728 20:27:43.563308 18612 net.cpp:406] data_lattice0 <- data_data_0_split_1
I0728 20:27:43.563323 18612 net.cpp:380] data_lattice0 -> data_lattice0
I0728 20:27:43.566046 18612 net.cpp:122] Setting up data_lattice0
I0728 20:27:43.566078 18612 net.cpp:129] Top shape: 1 3 1 70000 (210000)
I0728 20:27:43.566087 18612 net.cpp:137] Memory required for data: 65520000
I0728 20:27:43.566094 18612 layer_factory.hpp:77] Creating layer feat1
I0728 20:27:43.566162 18612 net.cpp:84] Creating Layer feat1
I0728 20:27:43.566179 18612 net.cpp:406] feat1 <- data_lattice0
I0728 20:27:43.566190 18612 net.cpp:406] feat1 <- fbn1
I0728 20:27:43.566202 18612 net.cpp:380] feat1 -> feat1
I0728 20:27:43.566329 18612 net.cpp:122] Setting up feat1
I0728 20:27:43.566350 18612 net.cpp:129] Top shape: 1 3 1 70000 (210000)
I0728 20:27:43.566357 18612 net.cpp:137] Memory required for data: 66360000
I0728 20:27:43.566365 18612 layer_factory.hpp:77] Creating layer feat1_feat1_0_split
I0728 20:27:43.566390 18612 net.cpp:84] Creating Layer feat1_feat1_0_split
I0728 20:27:43.566401 18612 net.cpp:406] feat1_feat1_0_split <- feat1
I0728 20:27:43.566413 18612 net.cpp:380] feat1_feat1_0_split -> feat1_feat1_0_split_0
I0728 20:27:43.566428 18612 net.cpp:380] feat1_feat1_0_split -> feat1_feat1_0_split_1
I0728 20:27:43.566498 18612 net.cpp:122] Setting up feat1_feat1_0_split
I0728 20:27:43.566512 18612 net.cpp:129] Top shape: 1 3 1 70000 (210000)
I0728 20:27:43.566524 18612 net.cpp:129] Top shape: 1 3 1 70000 (210000)
I0728 20:27:43.566530 18612 net.cpp:137] Memory required for data: 68040000
I0728 20:27:43.566536 18612 layer_factory.hpp:77] Creating layer conv2
I0728 20:27:43.566582 18612 net.cpp:84] Creating Layer conv2
I0728 20:27:43.566596 18612 net.cpp:406] conv2 <- bn1_relu1_0_split_1
I0728 20:27:43.566619 18612 net.cpp:406] conv2 <- feat1_feat1_0_split_0
I0728 20:27:43.566630 18612 net.cpp:406] conv2 <- feat1_feat1_0_split_1
I0728 20:27:43.566642 18612 net.cpp:380] conv2 -> conv2
I0728 20:27:43.623067 18612 net.cpp:122] Setting up conv2
I0728 20:27:43.623121 18612 net.cpp:129] Top shape: 1 64 1 70000 (4480000)
I0728 20:27:43.623131 18612 net.cpp:137] Memory required for data: 85960000
I0728 20:27:43.623175 18612 layer_factory.hpp:77] Creating layer bn2
I0728 20:27:43.623189 18612 net.cpp:84] Creating Layer bn2
I0728 20:27:43.623198 18612 net.cpp:406] bn2 <- conv2
I0728 20:27:43.623208 18612 net.cpp:380] bn2 -> bn2
I0728 20:27:43.623646 18612 net.cpp:122] Setting up bn2
I0728 20:27:43.623661 18612 net.cpp:129] Top shape: 1 64 1 70000 (4480000)
I0728 20:27:43.623667 18612 net.cpp:137] Memory required for data: 103880000
I0728 20:27:43.623678 18612 layer_factory.hpp:77] Creating layer relu2
I0728 20:27:43.623708 18612 net.cpp:84] Creating Layer relu2
I0728 20:27:43.623714 18612 net.cpp:406] relu2 <- bn2
I0728 20:27:43.623723 18612 net.cpp:367] relu2 -> bn2 (in-place)
I0728 20:27:43.625411 18612 net.cpp:122] Setting up relu2
I0728 20:27:43.625439 18612 net.cpp:129] Top shape: 1 64 1 70000 (4480000)
I0728 20:27:43.625447 18612 net.cpp:137] Memory required for data: 121800000
I0728 20:27:43.625453 18612 layer_factory.hpp:77] Creating layer bn2_relu2_0_split
I0728 20:27:43.625465 18612 net.cpp:84] Creating Layer bn2_relu2_0_split
I0728 20:27:43.625473 18612 net.cpp:406] bn2_relu2_0_split <- bn2
I0728 20:27:43.625483 18612 net.cpp:380] bn2_relu2_0_split -> bn2_relu2_0_split_0
I0728 20:27:43.625497 18612 net.cpp:380] bn2_relu2_0_split -> bn2_relu2_0_split_1
I0728 20:27:43.625506 18612 net.cpp:380] bn2_relu2_0_split -> bn2_relu2_0_split_2
I0728 20:27:43.625593 18612 net.cpp:122] Setting up bn2_relu2_0_split
I0728 20:27:43.625607 18612 net.cpp:129] Top shape: 1 64 1 70000 (4480000)
I0728 20:27:43.625613 18612 net.cpp:129] Top shape: 1 64 1 70000 (4480000)
I0728 20:27:43.625619 18612 net.cpp:129] Top shape: 1 64 1 70000 (4480000)
I0728 20:27:43.625624 18612 net.cpp:137] Memory required for data: 175560000
I0728 20:27:43.625629 18612 layer_factory.hpp:77] Creating layer fconv2
I0728 20:27:43.625649 18612 net.cpp:84] Creating Layer fconv2
I0728 20:27:43.625659 18612 net.cpp:406] fconv2 <- bn2_relu2_0_split_0
I0728 20:27:43.625672 18612 net.cpp:380] fconv2 -> fconv2
I0728 20:27:43.628641 18612 net.cpp:122] Setting up fconv2
I0728 20:27:43.628667 18612 net.cpp:129] Top shape: 1 3 1 70000 (210000)
I0728 20:27:43.628674 18612 net.cpp:137] Memory required for data: 176400000
I0728 20:27:43.628706 18612 layer_factory.hpp:77] Creating layer fbn2
I0728 20:27:43.628720 18612 net.cpp:84] Creating Layer fbn2
I0728 20:27:43.628727 18612 net.cpp:406] fbn2 <- fconv2
I0728 20:27:43.628738 18612 net.cpp:380] fbn2 -> fbn2
I0728 20:27:43.629182 18612 net.cpp:122] Setting up fbn2
I0728 20:27:43.629199 18612 net.cpp:129] Top shape: 1 3 1 70000 (210000)
I0728 20:27:43.629205 18612 net.cpp:137] Memory required for data: 177240000
I0728 20:27:43.629217 18612 layer_factory.hpp:77] Creating layer frelu2
I0728 20:27:43.629237 18612 net.cpp:84] Creating Layer frelu2
I0728 20:27:43.629245 18612 net.cpp:406] frelu2 <- fbn2
I0728 20:27:43.629253 18612 net.cpp:367] frelu2 -> fbn2 (in-place)
I0728 20:27:43.629712 18612 net.cpp:122] Setting up frelu2
I0728 20:27:43.629731 18612 net.cpp:129] Top shape: 1 3 1 70000 (210000)
I0728 20:27:43.629737 18612 net.cpp:137] Memory required for data: 178080000
I0728 20:27:43.629743 18612 layer_factory.hpp:77] Creating layer data_lattice1
I0728 20:27:43.629827 18612 net.cpp:84] Creating Layer data_lattice1
I0728 20:27:43.629850 18612 net.cpp:406] data_lattice1 <- data_data_0_split_2
I0728 20:27:43.629864 18612 net.cpp:380] data_lattice1 -> data_lattice1
I0728 20:27:43.631989 18612 net.cpp:122] Setting up data_lattice1
I0728 20:27:43.632014 18612 net.cpp:129] Top shape: 1 3 1 70000 (210000)
I0728 20:27:43.632020 18612 net.cpp:137] Memory required for data: 178920000
I0728 20:27:43.632027 18612 layer_factory.hpp:77] Creating layer feat2
I0728 20:27:43.632052 18612 net.cpp:84] Creating Layer feat2
I0728 20:27:43.632061 18612 net.cpp:406] feat2 <- data_lattice1
I0728 20:27:43.632069 18612 net.cpp:406] feat2 <- fbn2
I0728 20:27:43.632081 18612 net.cpp:380] feat2 -> feat2
I0728 20:27:43.632128 18612 net.cpp:122] Setting up feat2
I0728 20:27:43.632143 18612 net.cpp:129] Top shape: 1 3 1 70000 (210000)
I0728 20:27:43.632148 18612 net.cpp:137] Memory required for data: 179760000
I0728 20:27:43.632161 18612 layer_factory.hpp:77] Creating layer feat2_feat2_0_split
I0728 20:27:43.632170 18612 net.cpp:84] Creating Layer feat2_feat2_0_split
I0728 20:27:43.632176 18612 net.cpp:406] feat2_feat2_0_split <- feat2
I0728 20:27:43.632194 18612 net.cpp:380] feat2_feat2_0_split -> feat2_feat2_0_split_0
I0728 20:27:43.632211 18612 net.cpp:380] feat2_feat2_0_split -> feat2_feat2_0_split_1
I0728 20:27:43.632272 18612 net.cpp:122] Setting up feat2_feat2_0_split
I0728 20:27:43.632284 18612 net.cpp:129] Top shape: 1 3 1 70000 (210000)
I0728 20:27:43.632292 18612 net.cpp:129] Top shape: 1 3 1 70000 (210000)
I0728 20:27:43.632297 18612 net.cpp:137] Memory required for data: 181440000
I0728 20:27:43.632302 18612 layer_factory.hpp:77] Creating layer conv3
I0728 20:27:43.632315 18612 net.cpp:84] Creating Layer conv3
I0728 20:27:43.632321 18612 net.cpp:406] conv3 <- bn2_relu2_0_split_1
I0728 20:27:43.632328 18612 net.cpp:406] conv3 <- feat2_feat2_0_split_0
I0728 20:27:43.632335 18612 net.cpp:406] conv3 <- feat2_feat2_0_split_1
I0728 20:27:43.632344 18612 net.cpp:380] conv3 -> conv3
I0728 20:27:43.757956 18612 net.cpp:122] Setting up conv3
I0728 20:27:43.757993 18612 net.cpp:129] Top shape: 1 128 1 70000 (8960000)
I0728 20:27:43.757998 18612 net.cpp:137] Memory required for data: 217280000
I0728 20:27:43.758008 18612 layer_factory.hpp:77] Creating layer bn3
I0728 20:27:43.758018 18612 net.cpp:84] Creating Layer bn3
I0728 20:27:43.758023 18612 net.cpp:406] bn3 <- conv3
I0728 20:27:43.758031 18612 net.cpp:380] bn3 -> bn3
I0728 20:27:43.758344 18612 net.cpp:122] Setting up bn3
I0728 20:27:43.758355 18612 net.cpp:129] Top shape: 1 128 1 70000 (8960000)
I0728 20:27:43.758359 18612 net.cpp:137] Memory required for data: 253120000
I0728 20:27:43.758368 18612 layer_factory.hpp:77] Creating layer relu3
I0728 20:27:43.758394 18612 net.cpp:84] Creating Layer relu3
I0728 20:27:43.758399 18612 net.cpp:406] relu3 <- bn3
I0728 20:27:43.758405 18612 net.cpp:367] relu3 -> bn3 (in-place)
I0728 20:27:43.759416 18612 net.cpp:122] Setting up relu3
I0728 20:27:43.759435 18612 net.cpp:129] Top shape: 1 128 1 70000 (8960000)
I0728 20:27:43.759440 18612 net.cpp:137] Memory required for data: 288960000
I0728 20:27:43.759455 18612 layer_factory.hpp:77] Creating layer bn3_relu3_0_split
I0728 20:27:43.759465 18612 net.cpp:84] Creating Layer bn3_relu3_0_split
I0728 20:27:43.759470 18612 net.cpp:406] bn3_relu3_0_split <- bn3
I0728 20:27:43.759479 18612 net.cpp:380] bn3_relu3_0_split -> bn3_relu3_0_split_0
I0728 20:27:43.759487 18612 net.cpp:380] bn3_relu3_0_split -> bn3_relu3_0_split_1
I0728 20:27:43.759495 18612 net.cpp:380] bn3_relu3_0_split -> bn3_relu3_0_split_2
I0728 20:27:43.759557 18612 net.cpp:122] Setting up bn3_relu3_0_split
I0728 20:27:43.759567 18612 net.cpp:129] Top shape: 1 128 1 70000 (8960000)
I0728 20:27:43.759572 18612 net.cpp:129] Top shape: 1 128 1 70000 (8960000)
I0728 20:27:43.759577 18612 net.cpp:129] Top shape: 1 128 1 70000 (8960000)
I0728 20:27:43.759580 18612 net.cpp:137] Memory required for data: 396480000
I0728 20:27:43.759584 18612 layer_factory.hpp:77] Creating layer fconv3
I0728 20:27:43.759596 18612 net.cpp:84] Creating Layer fconv3
I0728 20:27:43.759601 18612 net.cpp:406] fconv3 <- bn3_relu3_0_split_0
I0728 20:27:43.759610 18612 net.cpp:380] fconv3 -> fconv3
I0728 20:27:43.763334 18612 net.cpp:122] Setting up fconv3
I0728 20:27:43.763353 18612 net.cpp:129] Top shape: 1 3 1 70000 (210000)
I0728 20:27:43.763358 18612 net.cpp:137] Memory required for data: 397320000
I0728 20:27:43.763368 18612 layer_factory.hpp:77] Creating layer fbn3
I0728 20:27:43.763376 18612 net.cpp:84] Creating Layer fbn3
I0728 20:27:43.763381 18612 net.cpp:406] fbn3 <- fconv3
I0728 20:27:43.763391 18612 net.cpp:380] fbn3 -> fbn3
I0728 20:27:43.763710 18612 net.cpp:122] Setting up fbn3
I0728 20:27:43.763720 18612 net.cpp:129] Top shape: 1 3 1 70000 (210000)
I0728 20:27:43.763725 18612 net.cpp:137] Memory required for data: 398160000
I0728 20:27:43.763733 18612 layer_factory.hpp:77] Creating layer frelu3
I0728 20:27:43.763741 18612 net.cpp:84] Creating Layer frelu3
I0728 20:27:43.763744 18612 net.cpp:406] frelu3 <- fbn3
I0728 20:27:43.763751 18612 net.cpp:367] frelu3 -> fbn3 (in-place)
I0728 20:27:43.764103 18612 net.cpp:122] Setting up frelu3
I0728 20:27:43.764118 18612 net.cpp:129] Top shape: 1 3 1 70000 (210000)
I0728 20:27:43.764122 18612 net.cpp:137] Memory required for data: 399000000
I0728 20:27:43.764137 18612 layer_factory.hpp:77] Creating layer data_lattice2
I0728 20:27:43.764189 18612 net.cpp:84] Creating Layer data_lattice2
I0728 20:27:43.764197 18612 net.cpp:406] data_lattice2 <- data_data_0_split_3
I0728 20:27:43.764209 18612 net.cpp:380] data_lattice2 -> data_lattice2
I0728 20:27:43.765754 18612 net.cpp:122] Setting up data_lattice2
I0728 20:27:43.765774 18612 net.cpp:129] Top shape: 1 3 1 70000 (210000)
I0728 20:27:43.765779 18612 net.cpp:137] Memory required for data: 399840000
I0728 20:27:43.765784 18612 layer_factory.hpp:77] Creating layer feat3
I0728 20:27:43.765796 18612 net.cpp:84] Creating Layer feat3
I0728 20:27:43.765801 18612 net.cpp:406] feat3 <- data_lattice2
I0728 20:27:43.765808 18612 net.cpp:406] feat3 <- fbn3
I0728 20:27:43.765816 18612 net.cpp:380] feat3 -> feat3
I0728 20:27:43.765857 18612 net.cpp:122] Setting up feat3
I0728 20:27:43.765867 18612 net.cpp:129] Top shape: 1 3 1 70000 (210000)
I0728 20:27:43.765872 18612 net.cpp:137] Memory required for data: 400680000
I0728 20:27:43.765874 18612 layer_factory.hpp:77] Creating layer feat3_feat3_0_split
I0728 20:27:43.765882 18612 net.cpp:84] Creating Layer feat3_feat3_0_split
I0728 20:27:43.765887 18612 net.cpp:406] feat3_feat3_0_split <- feat3
I0728 20:27:43.765893 18612 net.cpp:380] feat3_feat3_0_split -> feat3_feat3_0_split_0
I0728 20:27:43.765902 18612 net.cpp:380] feat3_feat3_0_split -> feat3_feat3_0_split_1
I0728 20:27:43.765940 18612 net.cpp:122] Setting up feat3_feat3_0_split
I0728 20:27:43.765949 18612 net.cpp:129] Top shape: 1 3 1 70000 (210000)
I0728 20:27:43.765954 18612 net.cpp:129] Top shape: 1 3 1 70000 (210000)
I0728 20:27:43.765957 18612 net.cpp:137] Memory required for data: 402360000
I0728 20:27:43.765961 18612 layer_factory.hpp:77] Creating layer conv4
I0728 20:27:43.765970 18612 net.cpp:84] Creating Layer conv4
I0728 20:27:43.765974 18612 net.cpp:406] conv4 <- bn3_relu3_0_split_1
I0728 20:27:43.765980 18612 net.cpp:406] conv4 <- feat3_feat3_0_split_0
I0728 20:27:43.765985 18612 net.cpp:406] conv4 <- feat3_feat3_0_split_1
I0728 20:27:43.765991 18612 net.cpp:380] conv4 -> conv4
I0728 20:27:43.847162 18612 net.cpp:122] Setting up conv4
I0728 20:27:43.847206 18612 net.cpp:129] Top shape: 1 256 1 70000 (17920000)
I0728 20:27:43.847213 18612 net.cpp:137] Memory required for data: 474040000
I0728 20:27:43.847247 18612 layer_factory.hpp:77] Creating layer bn4
I0728 20:27:43.847263 18612 net.cpp:84] Creating Layer bn4
I0728 20:27:43.847270 18612 net.cpp:406] bn4 <- conv4
I0728 20:27:43.847280 18612 net.cpp:380] bn4 -> bn4
I0728 20:27:43.847602 18612 net.cpp:122] Setting up bn4
I0728 20:27:43.847613 18612 net.cpp:129] Top shape: 1 256 1 70000 (17920000)
I0728 20:27:43.847617 18612 net.cpp:137] Memory required for data: 545720000
I0728 20:27:43.847635 18612 layer_factory.hpp:77] Creating layer relu4
I0728 20:27:43.847643 18612 net.cpp:84] Creating Layer relu4
I0728 20:27:43.847648 18612 net.cpp:406] relu4 <- bn4
I0728 20:27:43.847654 18612 net.cpp:367] relu4 -> bn4 (in-place)
I0728 20:27:43.848817 18612 net.cpp:122] Setting up relu4
I0728 20:27:43.848836 18612 net.cpp:129] Top shape: 1 256 1 70000 (17920000)
I0728 20:27:43.848848 18612 net.cpp:137] Memory required for data: 617400000
I0728 20:27:43.848853 18612 layer_factory.hpp:77] Creating layer bn4_relu4_0_split
I0728 20:27:43.848863 18612 net.cpp:84] Creating Layer bn4_relu4_0_split
I0728 20:27:43.848870 18612 net.cpp:406] bn4_relu4_0_split <- bn4
I0728 20:27:43.848877 18612 net.cpp:380] bn4_relu4_0_split -> bn4_relu4_0_split_0
I0728 20:27:43.848886 18612 net.cpp:380] bn4_relu4_0_split -> bn4_relu4_0_split_1
I0728 20:27:43.848893 18612 net.cpp:380] bn4_relu4_0_split -> bn4_relu4_0_split_2
I0728 20:27:43.848958 18612 net.cpp:122] Setting up bn4_relu4_0_split
I0728 20:27:43.848968 18612 net.cpp:129] Top shape: 1 256 1 70000 (17920000)
I0728 20:27:43.848973 18612 net.cpp:129] Top shape: 1 256 1 70000 (17920000)
I0728 20:27:43.848978 18612 net.cpp:129] Top shape: 1 256 1 70000 (17920000)
I0728 20:27:43.848981 18612 net.cpp:137] Memory required for data: 832440000
I0728 20:27:43.848985 18612 layer_factory.hpp:77] Creating layer fconv4
I0728 20:27:43.849000 18612 net.cpp:84] Creating Layer fconv4
I0728 20:27:43.849005 18612 net.cpp:406] fconv4 <- bn4_relu4_0_split_0
I0728 20:27:43.849015 18612 net.cpp:380] fconv4 -> fconv4
I0728 20:27:43.851275 18612 net.cpp:122] Setting up fconv4
I0728 20:27:43.851294 18612 net.cpp:129] Top shape: 1 3 1 70000 (210000)
I0728 20:27:43.851300 18612 net.cpp:137] Memory required for data: 833280000
I0728 20:27:43.851318 18612 layer_factory.hpp:77] Creating layer fbn4
I0728 20:27:43.851333 18612 net.cpp:84] Creating Layer fbn4
I0728 20:27:43.851338 18612 net.cpp:406] fbn4 <- fconv4
I0728 20:27:43.851346 18612 net.cpp:380] fbn4 -> fbn4
I0728 20:27:43.851668 18612 net.cpp:122] Setting up fbn4
I0728 20:27:43.851680 18612 net.cpp:129] Top shape: 1 3 1 70000 (210000)
I0728 20:27:43.851685 18612 net.cpp:137] Memory required for data: 834120000
I0728 20:27:43.851692 18612 layer_factory.hpp:77] Creating layer frelu4
I0728 20:27:43.851698 18612 net.cpp:84] Creating Layer frelu4
I0728 20:27:43.851703 18612 net.cpp:406] frelu4 <- fbn4
I0728 20:27:43.851709 18612 net.cpp:367] frelu4 -> fbn4 (in-place)
I0728 20:27:43.852058 18612 net.cpp:122] Setting up frelu4
I0728 20:27:43.852072 18612 net.cpp:129] Top shape: 1 3 1 70000 (210000)
I0728 20:27:43.852077 18612 net.cpp:137] Memory required for data: 834960000
I0728 20:27:43.852082 18612 layer_factory.hpp:77] Creating layer data_lattice3
I0728 20:27:43.852154 18612 net.cpp:84] Creating Layer data_lattice3
I0728 20:27:43.852165 18612 net.cpp:406] data_lattice3 <- data_data_0_split_4
I0728 20:27:43.852174 18612 net.cpp:380] data_lattice3 -> data_lattice3
I0728 20:27:43.853878 18612 net.cpp:122] Setting up data_lattice3
I0728 20:27:43.853896 18612 net.cpp:129] Top shape: 1 3 1 70000 (210000)
I0728 20:27:43.853901 18612 net.cpp:137] Memory required for data: 835800000
I0728 20:27:43.853906 18612 layer_factory.hpp:77] Creating layer feat4
I0728 20:27:43.853927 18612 net.cpp:84] Creating Layer feat4
I0728 20:27:43.853932 18612 net.cpp:406] feat4 <- data_lattice3
I0728 20:27:43.853940 18612 net.cpp:406] feat4 <- fbn4
I0728 20:27:43.853948 18612 net.cpp:380] feat4 -> feat4
I0728 20:27:43.853984 18612 net.cpp:122] Setting up feat4
I0728 20:27:43.853991 18612 net.cpp:129] Top shape: 1 3 1 70000 (210000)
I0728 20:27:43.853994 18612 net.cpp:137] Memory required for data: 836640000
I0728 20:27:43.854004 18612 layer_factory.hpp:77] Creating layer feat4_feat4_0_split
I0728 20:27:43.854012 18612 net.cpp:84] Creating Layer feat4_feat4_0_split
I0728 20:27:43.854017 18612 net.cpp:406] feat4_feat4_0_split <- feat4
I0728 20:27:43.854023 18612 net.cpp:380] feat4_feat4_0_split -> feat4_feat4_0_split_0
I0728 20:27:43.854032 18612 net.cpp:380] feat4_feat4_0_split -> feat4_feat4_0_split_1
I0728 20:27:43.854073 18612 net.cpp:122] Setting up feat4_feat4_0_split
I0728 20:27:43.854081 18612 net.cpp:129] Top shape: 1 3 1 70000 (210000)
I0728 20:27:43.854086 18612 net.cpp:129] Top shape: 1 3 1 70000 (210000)
I0728 20:27:43.854090 18612 net.cpp:137] Memory required for data: 838320000
I0728 20:27:43.854094 18612 layer_factory.hpp:77] Creating layer conv5
I0728 20:27:43.854102 18612 net.cpp:84] Creating Layer conv5
I0728 20:27:43.854107 18612 net.cpp:406] conv5 <- bn4_relu4_0_split_1
I0728 20:27:43.854112 18612 net.cpp:406] conv5 <- feat4_feat4_0_split_0
I0728 20:27:43.854117 18612 net.cpp:406] conv5 <- feat4_feat4_0_split_1
I0728 20:27:43.854125 18612 net.cpp:380] conv5 -> conv5
I0728 20:27:44.014257 18612 net.cpp:122] Setting up conv5
I0728 20:27:44.014308 18612 net.cpp:129] Top shape: 1 256 1 70000 (17920000)
I0728 20:27:44.014314 18612 net.cpp:137] Memory required for data: 910000000
I0728 20:27:44.014328 18612 layer_factory.hpp:77] Creating layer bn5
I0728 20:27:44.014343 18612 net.cpp:84] Creating Layer bn5
I0728 20:27:44.014351 18612 net.cpp:406] bn5 <- conv5
I0728 20:27:44.014361 18612 net.cpp:380] bn5 -> bn5
I0728 20:27:44.014693 18612 net.cpp:122] Setting up bn5
I0728 20:27:44.014703 18612 net.cpp:129] Top shape: 1 256 1 70000 (17920000)
I0728 20:27:44.014708 18612 net.cpp:137] Memory required for data: 981680000
I0728 20:27:44.014716 18612 layer_factory.hpp:77] Creating layer relu5
I0728 20:27:44.014758 18612 net.cpp:84] Creating Layer relu5
I0728 20:27:44.014763 18612 net.cpp:406] relu5 <- bn5
I0728 20:27:44.014770 18612 net.cpp:367] relu5 -> bn5 (in-place)
I0728 20:27:44.015831 18612 net.cpp:122] Setting up relu5
I0728 20:27:44.015858 18612 net.cpp:129] Top shape: 1 256 1 70000 (17920000)
I0728 20:27:44.015863 18612 net.cpp:137] Memory required for data: 1053360000
I0728 20:27:44.015868 18612 layer_factory.hpp:77] Creating layer bn5_relu5_0_split
I0728 20:27:44.015877 18612 net.cpp:84] Creating Layer bn5_relu5_0_split
I0728 20:27:44.015882 18612 net.cpp:406] bn5_relu5_0_split <- bn5
I0728 20:27:44.015900 18612 net.cpp:380] bn5_relu5_0_split -> bn5_relu5_0_split_0
I0728 20:27:44.015910 18612 net.cpp:380] bn5_relu5_0_split -> bn5_relu5_0_split_1
I0728 20:27:44.015918 18612 net.cpp:380] bn5_relu5_0_split -> bn5_relu5_0_split_2
I0728 20:27:44.015985 18612 net.cpp:122] Setting up bn5_relu5_0_split
I0728 20:27:44.015995 18612 net.cpp:129] Top shape: 1 256 1 70000 (17920000)
I0728 20:27:44.016000 18612 net.cpp:129] Top shape: 1 256 1 70000 (17920000)
I0728 20:27:44.016005 18612 net.cpp:129] Top shape: 1 256 1 70000 (17920000)
I0728 20:27:44.016008 18612 net.cpp:137] Memory required for data: 1268400000
I0728 20:27:44.016011 18612 layer_factory.hpp:77] Creating layer fconv5
I0728 20:27:44.016027 18612 net.cpp:84] Creating Layer fconv5
I0728 20:27:44.016037 18612 net.cpp:406] fconv5 <- bn5_relu5_0_split_0
I0728 20:27:44.016048 18612 net.cpp:380] fconv5 -> fconv5
I0728 20:27:44.018265 18612 net.cpp:122] Setting up fconv5
I0728 20:27:44.018283 18612 net.cpp:129] Top shape: 1 3 1 70000 (210000)
I0728 20:27:44.018288 18612 net.cpp:137] Memory required for data: 1269240000
I0728 20:27:44.018297 18612 layer_factory.hpp:77] Creating layer fbn5
I0728 20:27:44.018306 18612 net.cpp:84] Creating Layer fbn5
I0728 20:27:44.018311 18612 net.cpp:406] fbn5 <- fconv5
I0728 20:27:44.018318 18612 net.cpp:380] fbn5 -> fbn5
I0728 20:27:44.018642 18612 net.cpp:122] Setting up fbn5
I0728 20:27:44.018653 18612 net.cpp:129] Top shape: 1 3 1 70000 (210000)
I0728 20:27:44.018657 18612 net.cpp:137] Memory required for data: 1270080000
I0728 20:27:44.018666 18612 layer_factory.hpp:77] Creating layer frelu5
I0728 20:27:44.018687 18612 net.cpp:84] Creating Layer frelu5
I0728 20:27:44.018692 18612 net.cpp:406] frelu5 <- fbn5
I0728 20:27:44.018700 18612 net.cpp:367] frelu5 -> fbn5 (in-place)
I0728 20:27:44.019829 18612 net.cpp:122] Setting up frelu5
I0728 20:27:44.019855 18612 net.cpp:129] Top shape: 1 3 1 70000 (210000)
I0728 20:27:44.019860 18612 net.cpp:137] Memory required for data: 1270920000
I0728 20:27:44.019865 18612 layer_factory.hpp:77] Creating layer data_lattice4
I0728 20:27:44.019938 18612 net.cpp:84] Creating Layer data_lattice4
I0728 20:27:44.019949 18612 net.cpp:406] data_lattice4 <- data_data_0_split_5
I0728 20:27:44.019958 18612 net.cpp:380] data_lattice4 -> data_lattice4
I0728 20:27:44.021692 18612 net.cpp:122] Setting up data_lattice4
I0728 20:27:44.021711 18612 net.cpp:129] Top shape: 1 3 1 70000 (210000)
I0728 20:27:44.021716 18612 net.cpp:137] Memory required for data: 1271760000
I0728 20:27:44.021721 18612 layer_factory.hpp:77] Creating layer feat5
I0728 20:27:44.021731 18612 net.cpp:84] Creating Layer feat5
I0728 20:27:44.021736 18612 net.cpp:406] feat5 <- data_lattice4
I0728 20:27:44.021744 18612 net.cpp:406] feat5 <- fbn5
I0728 20:27:44.021751 18612 net.cpp:380] feat5 -> feat5
I0728 20:27:44.021796 18612 net.cpp:122] Setting up feat5
I0728 20:27:44.021808 18612 net.cpp:129] Top shape: 1 3 1 70000 (210000)
I0728 20:27:44.021812 18612 net.cpp:137] Memory required for data: 1272600000
I0728 20:27:44.021816 18612 layer_factory.hpp:77] Creating layer feat5_feat5_0_split
I0728 20:27:44.021823 18612 net.cpp:84] Creating Layer feat5_feat5_0_split
I0728 20:27:44.021827 18612 net.cpp:406] feat5_feat5_0_split <- feat5
I0728 20:27:44.021834 18612 net.cpp:380] feat5_feat5_0_split -> feat5_feat5_0_split_0
I0728 20:27:44.021849 18612 net.cpp:380] feat5_feat5_0_split -> feat5_feat5_0_split_1
I0728 20:27:44.021893 18612 net.cpp:122] Setting up feat5_feat5_0_split
I0728 20:27:44.021903 18612 net.cpp:129] Top shape: 1 3 1 70000 (210000)
I0728 20:27:44.021908 18612 net.cpp:129] Top shape: 1 3 1 70000 (210000)
I0728 20:27:44.021912 18612 net.cpp:137] Memory required for data: 1274280000
I0728 20:27:44.021916 18612 layer_factory.hpp:77] Creating layer conv6
I0728 20:27:44.021939 18612 net.cpp:84] Creating Layer conv6
I0728 20:27:44.021945 18612 net.cpp:406] conv6 <- bn5_relu5_0_split_1
I0728 20:27:44.021951 18612 net.cpp:406] conv6 <- feat5_feat5_0_split_0
I0728 20:27:44.021957 18612 net.cpp:406] conv6 <- feat5_feat5_0_split_1
I0728 20:27:44.021965 18612 net.cpp:380] conv6 -> conv6
I0728 20:27:44.059808 18612 net.cpp:122] Setting up conv6
I0728 20:27:44.059847 18612 net.cpp:129] Top shape: 1 256 1 70000 (17920000)
I0728 20:27:44.059854 18612 net.cpp:137] Memory required for data: 1345960000
I0728 20:27:44.059864 18612 layer_factory.hpp:77] Creating layer bn6
I0728 20:27:44.059875 18612 net.cpp:84] Creating Layer bn6
I0728 20:27:44.059882 18612 net.cpp:406] bn6 <- conv6
I0728 20:27:44.059891 18612 net.cpp:380] bn6 -> bn6
I0728 20:27:44.060223 18612 net.cpp:122] Setting up bn6
I0728 20:27:44.060235 18612 net.cpp:129] Top shape: 1 256 1 70000 (17920000)
I0728 20:27:44.060238 18612 net.cpp:137] Memory required for data: 1417640000
I0728 20:27:44.060246 18612 layer_factory.hpp:77] Creating layer relu6
I0728 20:27:44.060256 18612 net.cpp:84] Creating Layer relu6
I0728 20:27:44.060259 18612 net.cpp:406] relu6 <- bn6
I0728 20:27:44.060266 18612 net.cpp:367] relu6 -> bn6 (in-place)
I0728 20:27:44.060679 18612 net.cpp:122] Setting up relu6
I0728 20:27:44.060693 18612 net.cpp:129] Top shape: 1 256 1 70000 (17920000)
I0728 20:27:44.060698 18612 net.cpp:137] Memory required for data: 1489320000
I0728 20:27:44.060701 18612 layer_factory.hpp:77] Creating layer bn6_relu6_0_split
I0728 20:27:44.060710 18612 net.cpp:84] Creating Layer bn6_relu6_0_split
I0728 20:27:44.060714 18612 net.cpp:406] bn6_relu6_0_split <- bn6
I0728 20:27:44.060721 18612 net.cpp:380] bn6_relu6_0_split -> bn6_relu6_0_split_0
I0728 20:27:44.060729 18612 net.cpp:380] bn6_relu6_0_split -> bn6_relu6_0_split_1
I0728 20:27:44.060736 18612 net.cpp:380] bn6_relu6_0_split -> bn6_relu6_0_split_2
I0728 20:27:44.060799 18612 net.cpp:122] Setting up bn6_relu6_0_split
I0728 20:27:44.060809 18612 net.cpp:129] Top shape: 1 256 1 70000 (17920000)
I0728 20:27:44.060814 18612 net.cpp:129] Top shape: 1 256 1 70000 (17920000)
I0728 20:27:44.060818 18612 net.cpp:129] Top shape: 1 256 1 70000 (17920000)
I0728 20:27:44.060822 18612 net.cpp:137] Memory required for data: 1704360000
I0728 20:27:44.060827 18612 layer_factory.hpp:77] Creating layer fconv6
I0728 20:27:44.060864 18612 net.cpp:84] Creating Layer fconv6
I0728 20:27:44.060871 18612 net.cpp:406] fconv6 <- bn6_relu6_0_split_0
I0728 20:27:44.060881 18612 net.cpp:380] fconv6 -> fconv6
I0728 20:27:44.063190 18612 net.cpp:122] Setting up fconv6
I0728 20:27:44.063210 18612 net.cpp:129] Top shape: 1 3 1 70000 (210000)
I0728 20:27:44.063215 18612 net.cpp:137] Memory required for data: 1705200000
I0728 20:27:44.063223 18612 layer_factory.hpp:77] Creating layer fbn6
I0728 20:27:44.063232 18612 net.cpp:84] Creating Layer fbn6
I0728 20:27:44.063237 18612 net.cpp:406] fbn6 <- fconv6
I0728 20:27:44.063246 18612 net.cpp:380] fbn6 -> fbn6
I0728 20:27:44.063573 18612 net.cpp:122] Setting up fbn6
I0728 20:27:44.063585 18612 net.cpp:129] Top shape: 1 3 1 70000 (210000)
I0728 20:27:44.063588 18612 net.cpp:137] Memory required for data: 1706040000
I0728 20:27:44.063597 18612 layer_factory.hpp:77] Creating layer frelu6
I0728 20:27:44.063603 18612 net.cpp:84] Creating Layer frelu6
I0728 20:27:44.063608 18612 net.cpp:406] frelu6 <- fbn6
I0728 20:27:44.063614 18612 net.cpp:367] frelu6 -> fbn6 (in-place)
I0728 20:27:44.064362 18612 net.cpp:122] Setting up frelu6
I0728 20:27:44.064379 18612 net.cpp:129] Top shape: 1 3 1 70000 (210000)
I0728 20:27:44.064384 18612 net.cpp:137] Memory required for data: 1706880000
I0728 20:27:44.064388 18612 layer_factory.hpp:77] Creating layer data_lattice5
I0728 20:27:44.064467 18612 net.cpp:84] Creating Layer data_lattice5
I0728 20:27:44.064479 18612 net.cpp:406] data_lattice5 <- data_data_0_split_6
I0728 20:27:44.064489 18612 net.cpp:380] data_lattice5 -> data_lattice5
I0728 20:27:44.066289 18612 net.cpp:122] Setting up data_lattice5
I0728 20:27:44.066308 18612 net.cpp:129] Top shape: 1 3 1 70000 (210000)
I0728 20:27:44.066313 18612 net.cpp:137] Memory required for data: 1707720000
I0728 20:27:44.066318 18612 layer_factory.hpp:77] Creating layer feat6
I0728 20:27:44.066328 18612 net.cpp:84] Creating Layer feat6
I0728 20:27:44.066334 18612 net.cpp:406] feat6 <- data_lattice5
I0728 20:27:44.066339 18612 net.cpp:406] feat6 <- fbn6
I0728 20:27:44.066347 18612 net.cpp:380] feat6 -> feat6
I0728 20:27:44.066383 18612 net.cpp:122] Setting up feat6
I0728 20:27:44.066390 18612 net.cpp:129] Top shape: 1 3 1 70000 (210000)
I0728 20:27:44.066395 18612 net.cpp:137] Memory required for data: 1708560000
I0728 20:27:44.066398 18612 layer_factory.hpp:77] Creating layer feat6_feat6_0_split
I0728 20:27:44.066406 18612 net.cpp:84] Creating Layer feat6_feat6_0_split
I0728 20:27:44.066411 18612 net.cpp:406] feat6_feat6_0_split <- feat6
I0728 20:27:44.066417 18612 net.cpp:380] feat6_feat6_0_split -> feat6_feat6_0_split_0
I0728 20:27:44.066426 18612 net.cpp:380] feat6_feat6_0_split -> feat6_feat6_0_split_1
I0728 20:27:44.066465 18612 net.cpp:122] Setting up feat6_feat6_0_split
I0728 20:27:44.066474 18612 net.cpp:129] Top shape: 1 3 1 70000 (210000)
I0728 20:27:44.066479 18612 net.cpp:129] Top shape: 1 3 1 70000 (210000)
I0728 20:27:44.066483 18612 net.cpp:137] Memory required for data: 1710240000
I0728 20:27:44.066488 18612 layer_factory.hpp:77] Creating layer conv9
I0728 20:27:44.066506 18612 net.cpp:84] Creating Layer conv9
I0728 20:27:44.066514 18612 net.cpp:406] conv9 <- bn6_relu6_0_split_1
I0728 20:27:44.066519 18612 net.cpp:406] conv9 <- feat6_feat6_0_split_0
I0728 20:27:44.066524 18612 net.cpp:406] conv9 <- feat6_feat6_0_split_1
I0728 20:27:44.066532 18612 net.cpp:380] conv9 -> conv9
I0728 20:27:44.104180 18612 net.cpp:122] Setting up conv9
I0728 20:27:44.104218 18612 net.cpp:129] Top shape: 1 256 1 70000 (17920000)
I0728 20:27:44.104223 18612 net.cpp:137] Memory required for data: 1781920000
I0728 20:27:44.104235 18612 layer_factory.hpp:77] Creating layer bn9
I0728 20:27:44.104246 18612 net.cpp:84] Creating Layer bn9
I0728 20:27:44.104254 18612 net.cpp:406] bn9 <- conv9
I0728 20:27:44.104264 18612 net.cpp:380] bn9 -> bn9
I0728 20:27:44.104598 18612 net.cpp:122] Setting up bn9
I0728 20:27:44.104609 18612 net.cpp:129] Top shape: 1 256 1 70000 (17920000)
I0728 20:27:44.104612 18612 net.cpp:137] Memory required for data: 1853600000
I0728 20:27:44.104637 18612 layer_factory.hpp:77] Creating layer relu9
I0728 20:27:44.104661 18612 net.cpp:84] Creating Layer relu9
I0728 20:27:44.104667 18612 net.cpp:406] relu9 <- bn9
I0728 20:27:44.104673 18612 net.cpp:367] relu9 -> bn9 (in-place)
I0728 20:27:44.105118 18612 net.cpp:122] Setting up relu9
I0728 20:27:44.105131 18612 net.cpp:129] Top shape: 1 256 1 70000 (17920000)
I0728 20:27:44.105136 18612 net.cpp:137] Memory required for data: 1925280000
I0728 20:27:44.105141 18612 layer_factory.hpp:77] Creating layer concat6
I0728 20:27:44.105240 18612 net.cpp:84] Creating Layer concat6
I0728 20:27:44.105252 18612 net.cpp:406] concat6 <- bn6_relu6_0_split_2
I0728 20:27:44.105258 18612 net.cpp:406] concat6 <- bn2_relu2_0_split_2
I0728 20:27:44.105264 18612 net.cpp:406] concat6 <- bn3_relu3_0_split_2
I0728 20:27:44.105269 18612 net.cpp:406] concat6 <- bn4_relu4_0_split_2
I0728 20:27:44.105273 18612 net.cpp:406] concat6 <- bn5_relu5_0_split_2
I0728 20:27:44.105278 18612 net.cpp:406] concat6 <- bn9
I0728 20:27:44.105283 18612 net.cpp:406] concat6 <- bn1_relu1_0_split_2
I0728 20:27:44.105289 18612 net.cpp:380] concat6 -> concat6
I0728 20:27:44.105351 18612 net.cpp:122] Setting up concat6
I0728 20:27:44.105365 18612 net.cpp:129] Top shape: 1 1248 1 70000 (87360000)
I0728 20:27:44.105368 18612 net.cpp:137] Memory required for data: 2274720000
I0728 20:27:44.105372 18612 layer_factory.hpp:77] Creating layer conv7
I0728 20:27:44.105386 18612 net.cpp:84] Creating Layer conv7
I0728 20:27:44.105391 18612 net.cpp:406] conv7 <- concat6
I0728 20:27:44.105401 18612 net.cpp:380] conv7 -> conv7
I0728 20:27:44.110483 18612 net.cpp:122] Setting up conv7
I0728 20:27:44.110503 18612 net.cpp:129] Top shape: 1 128 1 70000 (8960000)
I0728 20:27:44.110508 18612 net.cpp:137] Memory required for data: 2310560000
I0728 20:27:44.110518 18612 layer_factory.hpp:77] Creating layer bn7
I0728 20:27:44.110536 18612 net.cpp:84] Creating Layer bn7
I0728 20:27:44.110543 18612 net.cpp:406] bn7 <- conv7
I0728 20:27:44.110550 18612 net.cpp:380] bn7 -> bn7
I0728 20:27:44.110865 18612 net.cpp:122] Setting up bn7
I0728 20:27:44.110877 18612 net.cpp:129] Top shape: 1 128 1 70000 (8960000)
I0728 20:27:44.110882 18612 net.cpp:137] Memory required for data: 2346400000
I0728 20:27:44.110889 18612 layer_factory.hpp:77] Creating layer relu7
I0728 20:27:44.110896 18612 net.cpp:84] Creating Layer relu7
I0728 20:27:44.110901 18612 net.cpp:406] relu7 <- bn7
I0728 20:27:44.110908 18612 net.cpp:367] relu7 -> bn7 (in-place)
I0728 20:27:44.111645 18612 net.cpp:122] Setting up relu7
I0728 20:27:44.111663 18612 net.cpp:129] Top shape: 1 128 1 70000 (8960000)
I0728 20:27:44.111668 18612 net.cpp:137] Memory required for data: 2382240000
I0728 20:27:44.111672 18612 layer_factory.hpp:77] Creating layer conv8
I0728 20:27:44.111685 18612 net.cpp:84] Creating Layer conv8
I0728 20:27:44.111690 18612 net.cpp:406] conv8 <- bn7
I0728 20:27:44.111699 18612 net.cpp:380] conv8 -> conv8
I0728 20:27:44.115417 18612 net.cpp:122] Setting up conv8
I0728 20:27:44.115437 18612 net.cpp:129] Top shape: 1 13 1 70000 (910000)
I0728 20:27:44.115442 18612 net.cpp:137] Memory required for data: 2385880000
I0728 20:27:44.115451 18612 layer_factory.hpp:77] Creating layer conv8_conv8_0_split
I0728 20:27:44.115461 18612 net.cpp:84] Creating Layer conv8_conv8_0_split
I0728 20:27:44.115466 18612 net.cpp:406] conv8_conv8_0_split <- conv8
I0728 20:27:44.115474 18612 net.cpp:380] conv8_conv8_0_split -> conv8_conv8_0_split_0
I0728 20:27:44.115483 18612 net.cpp:380] conv8_conv8_0_split -> conv8_conv8_0_split_1
I0728 20:27:44.115541 18612 net.cpp:122] Setting up conv8_conv8_0_split
I0728 20:27:44.115551 18612 net.cpp:129] Top shape: 1 13 1 70000 (910000)
I0728 20:27:44.115556 18612 net.cpp:129] Top shape: 1 13 1 70000 (910000)
I0728 20:27:44.115561 18612 net.cpp:137] Memory required for data: 2393160000
I0728 20:27:44.115563 18612 layer_factory.hpp:77] Creating layer loss
I0728 20:27:44.115625 18612 net.cpp:84] Creating Layer loss
I0728 20:27:44.115636 18612 net.cpp:406] loss <- conv8_conv8_0_split_0
I0728 20:27:44.115644 18612 net.cpp:406] loss <- label_data_1_split_0
I0728 20:27:44.115651 18612 net.cpp:380] loss -> loss
…
