…
I0816 10:02:38.918757  4720 net.cpp:294] The NetState phase (0) differed from the phase (1) specified by a rule in layer data
I0816 10:02:38.921857  4720 net.cpp:51] Initializing net from parameters: 
state {
  phase: TRAIN
}
layer {
  name: "data"
  type: "Python"
  top: "data"
  top: "label"
  include {
    phase: TRAIN
  }
  python_param {
    module: "dataset_lidar"
    layer: "InputShapenet"
    param_str: "{\'sample_size\': 4096, \'test_area\': \'6\', \'batch_size\': 12, \'feat_dims\': \'x_y_z_r_g_b\', \'subset\': \'train\', \'root\': \'../../data/shapenet_ericyi_ply\', \'jitter_xyz\': 0.01, \'jitter_stretch\': 0.05, \'jitter_rotation\': 5.0}"
  }
}
layer {
  name: "data_feat"
  type: "Python"
  bottom: "data"
  top: "data_feat"
  python_param {
    module: "custom_layers"
    layer: "PickAndScale2"
    param_str: "0_1_2"
  }
}
layer {
  name: "conv1"
  type: "Convolution"
  bottom: "data"
  top: "conv1"
  param {
    lr_mult: 1
  }
  param {
    lr_mult: 0.1
  }
  convolution_param {
    num_output: 64
    pad: 0
    kernel_size: 1
    stride: 1
    weight_filler {
      type: "xavier"
    }
    bias_filler {
      type: "constant"
      value: 0
    }
  }
}
layer {
  name: "bn1"
  type: "BatchNorm"
  bottom: "conv1"
  top: "bn1"
}
layer {
  name: "relu1"
  type: "ReLU"
  bottom: "bn1"
  top: "bn1"
}
layer {
  name: "conv1a"
  type: "Convolution"
  bottom: "bn1"
  top: "conv1a"
  param {
    lr_mult: 1
  }
  param {
    lr_mult: 0.1
  }
  convolution_param {
    num_output: 64
    pad: 0
    kernel_size: 1
    stride: 1
    weight_filler {
      type: "xavier"
    }
    bias_filler {
      type: "constant"
      value: 0
    }
  }
}
layer {
  name: "bn1a"
  type: "BatchNorm"
  bottom: "conv1a"
  top: "bn1a"
}
layer {
  name: "relu1a"
  type: "ReLU"
  bottom: "bn1a"
  top: "bn1a"
}
layer {
  name: "fconv1"
  type: "Convolution"
  bottom: "bn1a"
  top: "fconv1"
  param {
    lr_mult: 1
  }
  param {
    lr_mult: 0.1
  }
  convolution_param {
    num_output: 3
    pad: 0
    kernel_size: 1
    stride: 1
    weight_filler {
      type: "xavier"
    }
    bias_filler {
      type: "constant"
      value: 0
    }
  }
}
layer {
  name: "fbn1"
  type: "BatchNorm"
  bottom: "fconv1"
  top: "fbn1"
}
layer {
  name: "frelu1"
  type: "ReLU"
  bottom: "fbn1"
  top: "fbn1"
}
layer {
  name: "feat1"
  type: "Eltwise"
  bottom: "data_feat"
  bottom: "fbn1"
  top: "feat1"
  eltwise_param {
    operation: SUM
  }
}
layer {
  name: "data_lattice0"
  type: "Python"
  bottom: "feat1"
  top: "data_lattice0"
  python_param {
    module: "custom_layers"
    layer: "PickAndScale2"
    param_str: "0*48_1*48_2*48"
  }
}
layer {
  name: "conv2"
  type: "Permutohedral"
  bottom: "bn1a"
  bottom: "data_lattice0"
  bottom: "data_lattice0"
  top: "conv2"
  param {
    lr_mult: 1
    decay_mult: 1
  }
  param {
    lr_mult: 2
    decay_mult: 0
  }
  permutohedral_param {
    num_output: 64
    neighborhood_size: 1
    filter_filler {
      type: "gaussian"
      std: 0.001
    }
    bias_term: true
    bias_filler {
      type: "constant"
      value: 0
    }
    group: 1
    norm_type: AFTER
    offset_type: NONE
  }
}
layer {
  name: "bn2"
  type: "BatchNorm"
  bottom: "conv2"
  top: "bn2"
}
layer {
  name: "relu2"
  type: "ReLU"
  bottom: "bn2"
  top: "bn2"
}
layer {
  name: "fconv2"
  type: "Convolution"
  bottom: "bn2"
  top: "fconv2"
  param {
    lr_mult: 1
  }
  param {
    lr_mult: 0.1
  }
  convolution_param {
    num_output: 3
    pad: 0
    kernel_size: 1
    stride: 1
    weight_filler {
      type: "xavier"
    }
    bias_filler {
      type: "constant"
      value: 0
    }
  }
}
layer {
  name: "fbn2"
  type: "BatchNorm"
  bottom: "fconv2"
  top: "fbn2"
}
layer {
  name: "frelu2"
  type: "ReLU"
  bottom: "fbn2"
  top: "fbn2"
}
layer {
  name: "feat2"
  type: "Eltwise"
  bottom: "data_feat"
  bottom: "fbn2"
  top: "feat2"
  eltwise_param {
    operation: SUM
  }
}
layer {
  name: "data_lattice1"
  type: "Python"
  bottom: "feat2"
  top: "data_lattice1"
  python_param {
    module: "custom_layers"
    layer: "PickAndScale2"
    param_str: "0*24_1*24_2*24"
  }
}
layer {
  name: "conv3"
  type: "Permutohedral"
  bottom: "bn2"
  bottom: "data_lattice1"
  bottom: "data_lattice1"
  top: "conv3"
  param {
    lr_mult: 1
    decay_mult: 1
  }
  param {
    lr_mult: 2
    decay_mult: 0
  }
  permutohedral_param {
    num_output: 128
    neighborhood_size: 1
    filter_filler {
      type: "gaussian"
      std: 0.001
    }
    bias_term: true
    bias_filler {
      type: "constant"
      value: 0
    }
    group: 1
    norm_type: AFTER
    offset_type: NONE
  }
}
layer {
  name: "bn3"
  type: "BatchNorm"
  bottom: "conv3"
  top: "bn3"
}
layer {
  name: "relu3"
  type: "ReLU"
  bottom: "bn3"
  top: "bn3"
}
layer {
  name: "fconv3"
  type: "Convolution"
  bottom: "bn3"
  top: "fconv3"
  param {
    lr_mult: 1
  }
  param {
    lr_mult: 0.1
  }
  convolution_param {
    num_output: 3
    pad: 0
    kernel_size: 1
    stride: 1
    weight_filler {
      type: "xavier"
    }
    bias_filler {
      type: "constant"
      value: 0
    }
  }
}
layer {
  name: "fbn3"
  type: "BatchNorm"
  bottom: "fconv3"
  top: "fbn3"
}
layer {
  name: "frelu3"
  type: "ReLU"
  bottom: "fbn3"
  top: "fbn3"
}
layer {
  name: "feat3"
  type: "Eltwise"
  bottom: "data_feat"
  bottom: "fbn3"
  top: "feat3"
  eltwise_param {
    operation: SUM
  }
}
layer {
  name: "data_lattice2"
  type: "Python"
  bottom: "feat3"
  top: "data_lattice2"
  python_param {
    module: "custom_layers"
    layer: "PickAndScale2"
    param_str: "0*12_1*12_2*12"
  }
}
layer {
  name: "conv4"
  type: "Permutohedral"
  bottom: "bn3"
  bottom: "data_lattice2"
  bottom: "data_lattice2"
  top: "conv4"
  param {
    lr_mult: 1
    decay_mult: 1
  }
  param {
    lr_mult: 2
    decay_mult: 0
  }
  permutohedral_param {
    num_output: 256
    neighborhood_size: 1
    filter_filler {
      type: "gaussian"
      std: 0.001
    }
    bias_term: true
    bias_filler {
      type: "constant"
      value: 0
    }
    group: 1
    norm_type: AFTER
    offset_type: NONE
  }
}
layer {
  name: "bn4"
  type: "BatchNorm"
  bottom: "conv4"
  top: "bn4"
}
layer {
  name: "relu4"
  type: "ReLU"
  bottom: "bn4"
  top: "bn4"
}
layer {
  name: "fconv4"
  type: "Convolution"
  bottom: "bn4"
  top: "fconv4"
  param {
    lr_mult: 1
  }
  param {
    lr_mult: 0.1
  }
  convolution_param {
    num_output: 3
    pad: 0
    kernel_size: 1
    stride: 1
    weight_filler {
      type: "xavier"
    }
    bias_filler {
      type: "constant"
      value: 0
    }
  }
}
layer {
  name: "fbn4"
  type: "BatchNorm"
  bottom: "fconv4"
  top: "fbn4"
}
layer {
  name: "frelu4"
  type: "ReLU"
  bottom: "fbn4"
  top: "fbn4"
}
layer {
  name: "feat4"
  type: "Eltwise"
  bottom: "data_feat"
  bottom: "fbn4"
  top: "feat4"
  eltwise_param {
    operation: SUM
  }
}
layer {
  name: "data_lattice3"
  type: "Python"
  bottom: "feat4"
  top: "data_lattice3"
  python_param {
    module: "custom_layers"
    layer: "PickAndScale2"
    param_str: "0*6_1*6_2*6"
  }
}
layer {
  name: "conv5"
  type: "Permutohedral"
  bottom: "bn4"
  bottom: "data_lattice3"
  bottom: "data_lattice3"
  top: "conv5"
  param {
    lr_mult: 1
    decay_mult: 1
  }
  param {
    lr_mult: 2
    decay_mult: 0
  }
  permutohedral_param {
    num_output: 256
    neighborhood_size: 1
    filter_filler {
      type: "gaussian"
      std: 0.001
    }
    bias_term: true
    bias_filler {
      type: "constant"
      value: 0
    }
    group: 1
    norm_type: AFTER
    offset_type: NONE
  }
}
layer {
  name: "bn5"
  type: "BatchNorm"
  bottom: "conv5"
  top: "bn5"
}
layer {
  name: "relu5"
  type: "ReLU"
  bottom: "bn5"
  top: "bn5"
}
layer {
  name: "fconv5"
  type: "Convolution"
  bottom: "bn5"
  top: "fconv5"
  param {
    lr_mult: 1
  }
  param {
    lr_mult: 0.1
  }
  convolution_param {
    num_output: 3
    pad: 0
    kernel_size: 1
    stride: 1
    weight_filler {
      type: "xavier"
    }
    bias_filler {
      type: "constant"
      value: 0
    }
  }
}
layer {
  name: "fbn5"
  type: "BatchNorm"
  bottom: "fconv5"
  top: "fbn5"
}
layer {
  name: "frelu5"
  type: "ReLU"
  bottom: "fbn5"
  top: "fbn5"
}
layer {
  name: "feat5"
  type: "Eltwise"
  bottom: "data_feat"
  bottom: "fbn5"
  top: "feat5"
  eltwise_param {
    operation: SUM
  }
}
layer {
  name: "data_lattice4"
  type: "Python"
  bottom: "feat5"
  top: "data_lattice4"
  python_param {
    module: "custom_layers"
    layer: "PickAndScale2"
    param_str: "0*3_1*3_2*3"
  }
}
layer {
  name: "conv6"
  type: "Permutohedral"
  bottom: "bn5"
  bottom: "data_lattice4"
  bottom: "data_lattice4"
  top: "conv6"
  param {
    lr_mult: 1
    decay_mult: 1
  }
  param {
    lr_mult: 2
    decay_mult: 0
  }
  permutohedral_param {
    num_output: 256
    neighborhood_size: 1
    filter_filler {
      type: "gaussian"
      std: 0.001
    }
    bias_term: true
    bias_filler {
      type: "constant"
      value: 0
    }
    group: 1
    norm_type: AFTER
    offset_type: NONE
  }
}
layer {
  name: "bn6"
  type: "BatchNorm"
  bottom: "conv6"
  top: "bn6"
}
layer {
  name: "relu6"
  type: "ReLU"
  bottom: "bn6"
  top: "bn6"
}
layer {
  name: "concat6"
  type: "Concat"
  bottom: "bn6"
  bottom: "bn2"
  bottom: "bn3"
  bottom: "bn4"
  bottom: "bn5"
  top: "concat6"
}
layer {
  name: "conv7"
  type: "Convolution"
  bottom: "concat6"
  top: "conv7"
  param {
    lr_mult: 1
  }
  param {
    lr_mult: 0.1
  }
  convolution_param {
    num_output: 128
    pad: 0
    kernel_size: 1
    stride: 1
    weight_filler {
      type: "xavier"
    }
    bias_filler {
      type: "constant"
      value: 0
    }
  }
}
layer {
  name: "bn7"
  type: "BatchNorm"
  bottom: "conv7"
  top: "bn7"
}
layer {
  name: "relu7"
  type: "ReLU"
  bottom: "bn7"
  top: "bn7"
}
layer {
  name: "conv8"
  type: "Convolution"
  bottom: "bn7"
  top: "conv8"
  param {
    lr_mult: 1
  }
  param {
    lr_mult: 0.1
  }
  convolution_param {
    num_output: 13
    pad: 0
    kernel_size: 1
    stride: 1
    weight_filler {
      type: "xavier"
    }
    bias_filler {
      type: "constant"
      value: 0
    }
  }
}
layer {
  name: "loss"
  type: "SoftmaxWithLoss"
  bottom: "conv8"
  bottom: "label"
  top: "loss"
}
layer {
  name: "accuracy"
  type: "Accuracy"
  bottom: "conv8"
  bottom: "label"
  top: "accuracy"
}
I0816 10:02:38.922920  4720 layer_factory.hpp:77] Creating layer data
I0816 10:02:38.961220  4720 net.cpp:84] Creating Layer data
I0816 10:02:38.964228  4720 net.cpp:380] data -> data
I0816 10:02:38.964475  4720 net.cpp:380] data -> label
I0816 10:02:39.619956  4722 upgrade_proto.cpp:1084] Attempting to upgrade input file specified using deprecated 'solver_type' field (enum)': /mnt/lustre/wangjiayun/repos/splatnet/exp/lidar3d/area6/6_solver.prototxt
…
I0816 10:02:39.664202  4724 upgrade_proto.cpp:1084] Attempting to upgrade input file specified using deprecated 'solver_type' field (enum)': /mnt/lustre/wangjiayun/repos/splatnet/exp/lidar3d/area6/6_solver.prototxt
I0816 10:02:39.664333  4724 upgrade_proto.cpp:1091] Successfully upgraded file specified using deprecated 'solver_type' field (enum) to 'type' field (string).
W0816 10:02:39.664340  4724 upgrade_proto.cpp:1093] Note that future Caffe releases will only support 'type' field (string) for a solver's type.
I0816 10:03:28.655825  4722 solver.cpp:190] Creating test net (#0) specified by test_net file: area6_netm6_sum.prototxt
I0816 10:03:31.073580  4720 net.cpp:122] Setting up data
I0816 10:03:31.073671  4720 net.cpp:129] Top shape: 12 6 1 4096 (294912)
I0816 10:03:31.073680  4720 net.cpp:129] Top shape: 12 1 1 4096 (49152)
I0816 10:03:31.073683  4720 net.cpp:137] Memory required for data: 1376256
I0816 10:03:31.073704  4720 layer_factory.hpp:77] Creating layer data_data_0_split
I0816 10:03:31.073745  4720 net.cpp:84] Creating Layer data_data_0_split
I0816 10:03:31.073757  4720 net.cpp:406] data_data_0_split <- data
I0816 10:03:31.073768  4720 net.cpp:380] data_data_0_split -> data_data_0_split_0
I0816 10:03:31.073783  4720 net.cpp:380] data_data_0_split -> data_data_0_split_1
I0816 10:03:31.073828  4720 net.cpp:122] Setting up data_data_0_split
I0816 10:03:31.073838  4720 net.cpp:129] Top shape: 12 6 1 4096 (294912)
I0816 10:03:31.073843  4720 net.cpp:129] Top shape: 12 6 1 4096 (294912)
I0816 10:03:31.073846  4720 net.cpp:137] Memory required for data: 3735552
I0816 10:03:31.073849  4720 layer_factory.hpp:77] Creating layer label_data_1_split
I0816 10:03:31.073856  4720 net.cpp:84] Creating Layer label_data_1_split
I0816 10:03:31.073859  4720 net.cpp:406] label_data_1_split <- label
I0816 10:03:31.073865  4720 net.cpp:380] label_data_1_split -> label_data_1_split_0
I0816 10:03:31.073871  4720 net.cpp:380] label_data_1_split -> label_data_1_split_1
I0816 10:03:31.073899  4720 net.cpp:122] Setting up label_data_1_split
I0816 10:03:31.073913  4720 net.cpp:129] Top shape: 12 1 1 4096 (49152)
I0816 10:03:31.073917  4720 net.cpp:129] Top shape: 12 1 1 4096 (49152)
I0816 10:03:31.073920  4720 net.cpp:137] Memory required for data: 4128768
I0816 10:03:31.073923  4720 layer_factory.hpp:77] Creating layer data_feat
I0816 10:03:31.082298  4720 net.cpp:84] Creating Layer data_feat
I0816 10:03:31.082311  4720 net.cpp:406] data_feat <- data_data_0_split_0
I0816 10:03:31.082330  4720 net.cpp:380] data_feat -> data_feat
I0816 10:03:31.083734  4720 net.cpp:122] Setting up data_feat
I0816 10:03:31.083761  4720 net.cpp:129] Top shape: 12 3 1 4096 (147456)
I0816 10:03:31.083765  4720 net.cpp:137] Memory required for data: 4718592
I0816 10:03:31.083770  4720 layer_factory.hpp:77] Creating layer data_feat_data_feat_0_split
I0816 10:03:31.083778  4720 net.cpp:84] Creating Layer data_feat_data_feat_0_split
I0816 10:03:31.083783  4720 net.cpp:406] data_feat_data_feat_0_split <- data_feat
I0816 10:03:31.083791  4720 net.cpp:380] data_feat_data_feat_0_split -> data_feat_data_feat_0_split_0
I0816 10:03:31.083797  4720 net.cpp:380] data_feat_data_feat_0_split -> data_feat_data_feat_0_split_1
I0816 10:03:31.083806  4720 net.cpp:380] data_feat_data_feat_0_split -> data_feat_data_feat_0_split_2
I0816 10:03:31.083811  4720 net.cpp:380] data_feat_data_feat_0_split -> data_feat_data_feat_0_split_3
I0816 10:03:31.083817  4720 net.cpp:380] data_feat_data_feat_0_split -> data_feat_data_feat_0_split_4
I0816 10:03:31.083876  4720 net.cpp:122] Setting up data_feat_data_feat_0_split
I0816 10:03:31.083884  4720 net.cpp:129] Top shape: 12 3 1 4096 (147456)
I0816 10:03:31.083889  4720 net.cpp:129] Top shape: 12 3 1 4096 (147456)
I0816 10:03:31.083892  4720 net.cpp:129] Top shape: 12 3 1 4096 (147456)
I0816 10:03:31.083896  4720 net.cpp:129] Top shape: 12 3 1 4096 (147456)
I0816 10:03:31.083900  4720 net.cpp:129] Top shape: 12 3 1 4096 (147456)
I0816 10:03:31.083902  4720 net.cpp:137] Memory required for data: 7667712
I0816 10:03:31.083914  4720 layer_factory.hpp:77] Creating layer conv1
I0816 10:03:31.083964  4720 net.cpp:84] Creating Layer conv1
I0816 10:03:31.083972  4720 net.cpp:406] conv1 <- data_data_0_split_1
I0816 10:03:31.083978  4720 net.cpp:380] conv1 -> conv1
I0816 10:03:31.571213  4724 solver.cpp:190] Creating test net (#0) specified by test_net file: area6_netm6_sum.prototxt
I0816 10:03:31.652382  4720 net.cpp:122] Setting up conv1
I0816 10:03:31.652429  4720 net.cpp:129] Top shape: 12 64 1 4096 (3145728)
I0816 10:03:31.652434  4720 net.cpp:137] Memory required for data: 20250624
I0816 10:03:31.652477  4720 layer_factory.hpp:77] Creating layer bn1
I0816 10:03:31.652511  4720 net.cpp:84] Creating Layer bn1
I0816 10:03:31.652518  4720 net.cpp:406] bn1 <- conv1
I0816 10:03:31.652526  4720 net.cpp:380] bn1 -> bn1
I0816 10:03:31.652786  4720 net.cpp:122] Setting up bn1
I0816 10:03:31.652798  4720 net.cpp:129] Top shape: 12 64 1 4096 (3145728)
I0816 10:03:31.652801  4720 net.cpp:137] Memory required for data: 32833536
I0816 10:03:31.652813  4720 layer_factory.hpp:77] Creating layer relu1
I0816 10:03:31.652839  4720 net.cpp:84] Creating Layer relu1
I0816 10:03:31.652845  4720 net.cpp:406] relu1 <- bn1
I0816 10:03:31.652851  4720 net.cpp:367] relu1 -> bn1 (in-place)
I0816 10:03:31.653200  4720 net.cpp:122] Setting up relu1
I0816 10:03:31.653213  4720 net.cpp:129] Top shape: 12 64 1 4096 (3145728)
I0816 10:03:31.653228  4720 net.cpp:137] Memory required for data: 45416448
I0816 10:03:31.653232  4720 layer_factory.hpp:77] Creating layer conv1a
I0816 10:03:31.653257  4720 net.cpp:84] Creating Layer conv1a
I0816 10:03:31.653264  4720 net.cpp:406] conv1a <- bn1
I0816 10:03:31.653270  4720 net.cpp:380] conv1a -> conv1a
I0816 10:03:31.655055  4720 net.cpp:122] Setting up conv1a
I0816 10:03:31.655081  4720 net.cpp:129] Top shape: 12 64 1 4096 (3145728)
I0816 10:03:31.655086  4720 net.cpp:137] Memory required for data: 57999360
I0816 10:03:31.655093  4720 layer_factory.hpp:77] Creating layer bn1a
I0816 10:03:31.655107  4720 net.cpp:84] Creating Layer bn1a
I0816 10:03:31.655112  4720 net.cpp:406] bn1a <- conv1a
I0816 10:03:31.655119  4720 net.cpp:380] bn1a -> bn1a
I0816 10:03:31.655314  4720 net.cpp:122] Setting up bn1a
I0816 10:03:31.655323  4720 net.cpp:129] Top shape: 12 64 1 4096 (3145728)
I0816 10:03:31.655326  4720 net.cpp:137] Memory required for data: 70582272
I0816 10:03:31.655336  4720 layer_factory.hpp:77] Creating layer relu1a
I0816 10:03:31.655344  4720 net.cpp:84] Creating Layer relu1a
I0816 10:03:31.655346  4720 net.cpp:406] relu1a <- bn1a
I0816 10:03:31.655351  4720 net.cpp:367] relu1a -> bn1a (in-place)
I0816 10:03:31.655613  4720 net.cpp:122] Setting up relu1a
I0816 10:03:31.655625  4720 net.cpp:129] Top shape: 12 64 1 4096 (3145728)
I0816 10:03:31.655628  4720 net.cpp:137] Memory required for data: 83165184
I0816 10:03:31.655647  4720 layer_factory.hpp:77] Creating layer bn1a_relu1a_0_split
I0816 10:03:31.655654  4720 net.cpp:84] Creating Layer bn1a_relu1a_0_split
I0816 10:03:31.655658  4720 net.cpp:406] bn1a_relu1a_0_split <- bn1a
I0816 10:03:31.655663  4720 net.cpp:380] bn1a_relu1a_0_split -> bn1a_relu1a_0_split_0
I0816 10:03:31.655673  4720 net.cpp:380] bn1a_relu1a_0_split -> bn1a_relu1a_0_split_1
I0816 10:03:31.655710  4720 net.cpp:122] Setting up bn1a_relu1a_0_split
I0816 10:03:31.655719  4720 net.cpp:129] Top shape: 12 64 1 4096 (3145728)
I0816 10:03:31.655722  4720 net.cpp:129] Top shape: 12 64 1 4096 (3145728)
I0816 10:03:31.655725  4720 net.cpp:137] Memory required for data: 108331008
I0816 10:03:31.655730  4720 layer_factory.hpp:77] Creating layer fconv1
I0816 10:03:31.655745  4720 net.cpp:84] Creating Layer fconv1
I0816 10:03:31.655750  4720 net.cpp:406] fconv1 <- bn1a_relu1a_0_split_0
I0816 10:03:31.655756  4720 net.cpp:380] fconv1 -> fconv1
I0816 10:03:31.657091  4720 net.cpp:122] Setting up fconv1
I0816 10:03:31.657106  4720 net.cpp:129] Top shape: 12 3 1 4096 (147456)
I0816 10:03:31.657121  4720 net.cpp:137] Memory required for data: 108920832
I0816 10:03:31.657129  4720 layer_factory.hpp:77] Creating layer fbn1
I0816 10:03:31.657141  4720 net.cpp:84] Creating Layer fbn1
I0816 10:03:31.657145  4720 net.cpp:406] fbn1 <- fconv1
I0816 10:03:31.657160  4720 net.cpp:380] fbn1 -> fbn1
I0816 10:03:31.657351  4720 net.cpp:122] Setting up fbn1
I0816 10:03:31.657359  4720 net.cpp:129] Top shape: 12 3 1 4096 (147456)
I0816 10:03:31.657363  4720 net.cpp:137] Memory required for data: 109510656
I0816 10:03:31.657371  4720 layer_factory.hpp:77] Creating layer frelu1
I0816 10:03:31.657375  4720 net.cpp:84] Creating Layer frelu1
I0816 10:03:31.657379  4720 net.cpp:406] frelu1 <- fbn1
I0816 10:03:31.657385  4720 net.cpp:367] frelu1 -> fbn1 (in-place)
I0816 10:03:31.657964  4720 net.cpp:122] Setting up frelu1
I0816 10:03:31.657979  4720 net.cpp:129] Top shape: 12 3 1 4096 (147456)
I0816 10:03:31.657994  4720 net.cpp:137] Memory required for data: 110100480
I0816 10:03:31.657997  4720 layer_factory.hpp:77] Creating layer feat1
I0816 10:03:31.658046  4720 net.cpp:84] Creating Layer feat1
I0816 10:03:31.658051  4720 net.cpp:406] feat1 <- data_feat_data_feat_0_split_0
I0816 10:03:31.658057  4720 net.cpp:406] feat1 <- fbn1
I0816 10:03:31.658063  4720 net.cpp:380] feat1 -> feat1
I0816 10:03:31.658123  4720 net.cpp:122] Setting up feat1
I0816 10:03:31.658139  4720 net.cpp:129] Top shape: 12 3 1 4096 (147456)
I0816 10:03:31.658143  4720 net.cpp:137] Memory required for data: 110690304
I0816 10:03:31.658154  4720 layer_factory.hpp:77] Creating layer data_lattice0
I0816 10:03:31.658222  4720 net.cpp:84] Creating Layer data_lattice0
I0816 10:03:31.658229  4720 net.cpp:406] data_lattice0 <- feat1
I0816 10:03:31.658236  4720 net.cpp:380] data_lattice0 -> data_lattice0
I0816 10:03:31.658448  4720 net.cpp:122] Setting up data_lattice0
I0816 10:03:31.658460  4720 net.cpp:129] Top shape: 12 3 1 4096 (147456)
I0816 10:03:31.658464  4720 net.cpp:137] Memory required for data: 111280128
I0816 10:03:31.658468  4720 layer_factory.hpp:77] Creating layer data_lattice0_data_lattice0_0_split
I0816 10:03:31.658473  4720 net.cpp:84] Creating Layer data_lattice0_data_lattice0_0_split
I0816 10:03:31.658478  4720 net.cpp:406] data_lattice0_data_lattice0_0_split <- data_lattice0
I0816 10:03:31.658483  4720 net.cpp:380] data_lattice0_data_lattice0_0_split -> data_lattice0_data_lattice0_0_split_0
I0816 10:03:31.658490  4720 net.cpp:380] data_lattice0_data_lattice0_0_split -> data_lattice0_data_lattice0_0_split_1
I0816 10:03:31.658525  4720 net.cpp:122] Setting up data_lattice0_data_lattice0_0_split
I0816 10:03:31.658532  4720 net.cpp:129] Top shape: 12 3 1 4096 (147456)
I0816 10:03:31.658536  4720 net.cpp:129] Top shape: 12 3 1 4096 (147456)
I0816 10:03:31.658538  4720 net.cpp:137] Memory required for data: 112459776
I0816 10:03:31.658541  4720 layer_factory.hpp:77] Creating layer conv2
I0816 10:03:31.658568  4720 net.cpp:84] Creating Layer conv2
I0816 10:03:31.658576  4720 net.cpp:406] conv2 <- bn1a_relu1a_0_split_1
I0816 10:03:31.658579  4720 net.cpp:406] conv2 <- data_lattice0_data_lattice0_0_split_0
I0816 10:03:31.658584  4720 net.cpp:406] conv2 <- data_lattice0_data_lattice0_0_split_1
I0816 10:03:31.658589  4720 net.cpp:380] conv2 -> conv2
I0816 10:03:31.661741  4720 net.cpp:122] Setting up conv2
I0816 10:03:31.661782  4720 net.cpp:129] Top shape: 12 64 1 4096 (3145728)
I0816 10:03:31.661787  4720 net.cpp:137] Memory required for data: 125042688
I0816 10:03:31.661803  4720 layer_factory.hpp:77] Creating layer bn2
I0816 10:03:31.661814  4720 net.cpp:84] Creating Layer bn2
I0816 10:03:31.661820  4720 net.cpp:406] bn2 <- conv2
I0816 10:03:31.661829  4720 net.cpp:380] bn2 -> bn2
I0816 10:03:31.662034  4720 net.cpp:122] Setting up bn2
I0816 10:03:31.662042  4720 net.cpp:129] Top shape: 12 64 1 4096 (3145728)
I0816 10:03:31.662045  4720 net.cpp:137] Memory required for data: 137625600
I0816 10:03:31.662066  4720 layer_factory.hpp:77] Creating layer relu2
I0816 10:03:31.662077  4720 net.cpp:84] Creating Layer relu2
I0816 10:03:31.662081  4720 net.cpp:406] relu2 <- bn2
I0816 10:03:31.662086  4720 net.cpp:367] relu2 -> bn2 (in-place)
I0816 10:03:31.662436  4720 net.cpp:122] Setting up relu2
I0816 10:03:31.662448  4720 net.cpp:129] Top shape: 12 64 1 4096 (3145728)
I0816 10:03:31.662463  4720 net.cpp:137] Memory required for data: 150208512
I0816 10:03:31.662467  4720 layer_factory.hpp:77] Creating layer bn2_relu2_0_split
I0816 10:03:31.662482  4720 net.cpp:84] Creating Layer bn2_relu2_0_split
I0816 10:03:31.662487  4720 net.cpp:406] bn2_relu2_0_split <- bn2
I0816 10:03:31.662492  4720 net.cpp:380] bn2_relu2_0_split -> bn2_relu2_0_split_0
I0816 10:03:31.662499  4720 net.cpp:380] bn2_relu2_0_split -> bn2_relu2_0_split_1
I0816 10:03:31.662505  4720 net.cpp:380] bn2_relu2_0_split -> bn2_relu2_0_split_2
I0816 10:03:31.662555  4720 net.cpp:122] Setting up bn2_relu2_0_split
I0816 10:03:31.662564  4720 net.cpp:129] Top shape: 12 64 1 4096 (3145728)
I0816 10:03:31.662566  4720 net.cpp:129] Top shape: 12 64 1 4096 (3145728)
I0816 10:03:31.662570  4720 net.cpp:129] Top shape: 12 64 1 4096 (3145728)
I0816 10:03:31.662573  4720 net.cpp:137] Memory required for data: 187957248
I0816 10:03:31.662576  4720 layer_factory.hpp:77] Creating layer fconv2
I0816 10:03:31.662590  4720 net.cpp:84] Creating Layer fconv2
I0816 10:03:31.662593  4720 net.cpp:406] fconv2 <- bn2_relu2_0_split_0
I0816 10:03:31.662600  4720 net.cpp:380] fconv2 -> fconv2
I0816 10:03:31.664396  4720 net.cpp:122] Setting up fconv2
I0816 10:03:31.664412  4720 net.cpp:129] Top shape: 12 3 1 4096 (147456)
I0816 10:03:31.664427  4720 net.cpp:137] Memory required for data: 188547072
I0816 10:03:31.664434  4720 layer_factory.hpp:77] Creating layer fbn2
I0816 10:03:31.664441  4720 net.cpp:84] Creating Layer fbn2
I0816 10:03:31.664445  4720 net.cpp:406] fbn2 <- fconv2
I0816 10:03:31.664453  4720 net.cpp:380] fbn2 -> fbn2
I0816 10:03:31.664644  4720 net.cpp:122] Setting up fbn2
I0816 10:03:31.664652  4720 net.cpp:129] Top shape: 12 3 1 4096 (147456)
I0816 10:03:31.664655  4720 net.cpp:137] Memory required for data: 189136896
I0816 10:03:31.664671  4720 layer_factory.hpp:77] Creating layer frelu2
I0816 10:03:31.664682  4720 net.cpp:84] Creating Layer frelu2
I0816 10:03:31.664687  4720 net.cpp:406] frelu2 <- fbn2
I0816 10:03:31.664692  4720 net.cpp:367] frelu2 -> fbn2 (in-place)
I0816 10:03:31.664958  4720 net.cpp:122] Setting up frelu2
I0816 10:03:31.664968  4720 net.cpp:129] Top shape: 12 3 1 4096 (147456)
I0816 10:03:31.664973  4720 net.cpp:137] Memory required for data: 189726720
I0816 10:03:31.664976  4720 layer_factory.hpp:77] Creating layer feat2
I0816 10:03:31.664984  4720 net.cpp:84] Creating Layer feat2
I0816 10:03:31.664988  4720 net.cpp:406] feat2 <- data_feat_data_feat_0_split_1
I0816 10:03:31.664994  4720 net.cpp:406] feat2 <- fbn2
I0816 10:03:31.664999  4720 net.cpp:380] feat2 -> feat2
I0816 10:03:31.665026  4720 net.cpp:122] Setting up feat2
I0816 10:03:31.665031  4720 net.cpp:129] Top shape: 12 3 1 4096 (147456)
I0816 10:03:31.665035  4720 net.cpp:137] Memory required for data: 190316544
I0816 10:03:31.665037  4720 layer_factory.hpp:77] Creating layer data_lattice1
I0816 10:03:31.665107  4720 net.cpp:84] Creating Layer data_lattice1
I0816 10:03:31.665117  4720 net.cpp:406] data_lattice1 <- feat2
I0816 10:03:31.665122  4720 net.cpp:380] data_lattice1 -> data_lattice1
I0816 10:03:31.666458  4720 net.cpp:122] Setting up data_lattice1
I0816 10:03:31.666474  4720 net.cpp:129] Top shape: 12 3 1 4096 (147456)
I0816 10:03:31.666491  4720 net.cpp:137] Memory required for data: 190906368
I0816 10:03:31.666494  4720 layer_factory.hpp:77] Creating layer data_lattice1_data_lattice1_0_split
I0816 10:03:31.666501  4720 net.cpp:84] Creating Layer data_lattice1_data_lattice1_0_split
I0816 10:03:31.666505  4720 net.cpp:406] data_lattice1_data_lattice1_0_split <- data_lattice1
I0816 10:03:31.666512  4720 net.cpp:380] data_lattice1_data_lattice1_0_split -> data_lattice1_data_lattice1_0_split_0
I0816 10:03:31.666519  4720 net.cpp:380] data_lattice1_data_lattice1_0_split -> data_lattice1_data_lattice1_0_split_1
I0816 10:03:31.666555  4720 net.cpp:122] Setting up data_lattice1_data_lattice1_0_split
I0816 10:03:31.666560  4720 net.cpp:129] Top shape: 12 3 1 4096 (147456)
I0816 10:03:31.666564  4720 net.cpp:129] Top shape: 12 3 1 4096 (147456)
I0816 10:03:31.666566  4720 net.cpp:137] Memory required for data: 192086016
I0816 10:03:31.666579  4720 layer_factory.hpp:77] Creating layer conv3
I0816 10:03:31.666587  4720 net.cpp:84] Creating Layer conv3
I0816 10:03:31.666591  4720 net.cpp:406] conv3 <- bn2_relu2_0_split_1
I0816 10:03:31.666596  4720 net.cpp:406] conv3 <- data_lattice1_data_lattice1_0_split_0
I0816 10:03:31.666600  4720 net.cpp:406] conv3 <- data_lattice1_data_lattice1_0_split_1
I0816 10:03:31.666607  4720 net.cpp:380] conv3 -> conv3
I0816 10:03:31.670248  4720 net.cpp:122] Setting up conv3
I0816 10:03:31.670280  4720 net.cpp:129] Top shape: 12 128 1 4096 (6291456)
I0816 10:03:31.670284  4720 net.cpp:137] Memory required for data: 217251840
I0816 10:03:31.670294  4720 layer_factory.hpp:77] Creating layer bn3
I0816 10:03:31.670301  4720 net.cpp:84] Creating Layer bn3
I0816 10:03:31.670305  4720 net.cpp:406] bn3 <- conv3
I0816 10:03:31.670312  4720 net.cpp:380] bn3 -> bn3
I0816 10:03:31.670503  4720 net.cpp:122] Setting up bn3
I0816 10:03:31.670511  4720 net.cpp:129] Top shape: 12 128 1 4096 (6291456)
I0816 10:03:31.670516  4720 net.cpp:137] Memory required for data: 242417664
I0816 10:03:31.670523  4720 layer_factory.hpp:77] Creating layer relu3
I0816 10:03:31.670531  4720 net.cpp:84] Creating Layer relu3
I0816 10:03:31.670533  4720 net.cpp:406] relu3 <- bn3
I0816 10:03:31.670538  4720 net.cpp:367] relu3 -> bn3 (in-place)
I0816 10:03:31.670907  4720 net.cpp:122] Setting up relu3
I0816 10:03:31.670919  4720 net.cpp:129] Top shape: 12 128 1 4096 (6291456)
I0816 10:03:31.670934  4720 net.cpp:137] Memory required for data: 267583488
I0816 10:03:31.670938  4720 layer_factory.hpp:77] Creating layer bn3_relu3_0_split
I0816 10:03:31.670944  4720 net.cpp:84] Creating Layer bn3_relu3_0_split
I0816 10:03:31.670948  4720 net.cpp:406] bn3_relu3_0_split <- bn3
I0816 10:03:31.670954  4720 net.cpp:380] bn3_relu3_0_split -> bn3_relu3_0_split_0
I0816 10:03:31.670961  4720 net.cpp:380] bn3_relu3_0_split -> bn3_relu3_0_split_1
I0816 10:03:31.670967  4720 net.cpp:380] bn3_relu3_0_split -> bn3_relu3_0_split_2
I0816 10:03:31.671016  4720 net.cpp:122] Setting up bn3_relu3_0_split
I0816 10:03:31.671023  4720 net.cpp:129] Top shape: 12 128 1 4096 (6291456)
I0816 10:03:31.671027  4720 net.cpp:129] Top shape: 12 128 1 4096 (6291456)
I0816 10:03:31.671031  4720 net.cpp:129] Top shape: 12 128 1 4096 (6291456)
I0816 10:03:31.671033  4720 net.cpp:137] Memory required for data: 343080960
I0816 10:03:31.671048  4720 layer_factory.hpp:77] Creating layer fconv3
I0816 10:03:31.671069  4720 net.cpp:84] Creating Layer fconv3
I0816 10:03:31.671075  4720 net.cpp:406] fconv3 <- bn3_relu3_0_split_0
I0816 10:03:31.671082  4720 net.cpp:380] fconv3 -> fconv3
I0816 10:03:31.673048  4720 net.cpp:122] Setting up fconv3
I0816 10:03:31.673066  4720 net.cpp:129] Top shape: 12 3 1 4096 (147456)
I0816 10:03:31.673081  4720 net.cpp:137] Memory required for data: 343670784
I0816 10:03:31.673089  4720 layer_factory.hpp:77] Creating layer fbn3
I0816 10:03:31.673096  4720 net.cpp:84] Creating Layer fbn3
I0816 10:03:31.673100  4720 net.cpp:406] fbn3 <- fconv3
I0816 10:03:31.673110  4720 net.cpp:380] fbn3 -> fbn3
I0816 10:03:31.673316  4720 net.cpp:122] Setting up fbn3
I0816 10:03:31.673326  4720 net.cpp:129] Top shape: 12 3 1 4096 (147456)
I0816 10:03:31.673329  4720 net.cpp:137] Memory required for data: 344260608
I0816 10:03:31.673344  4720 layer_factory.hpp:77] Creating layer frelu3
I0816 10:03:31.673351  4720 net.cpp:84] Creating Layer frelu3
I0816 10:03:31.673354  4720 net.cpp:406] frelu3 <- fbn3
I0816 10:03:31.673359  4720 net.cpp:367] frelu3 -> fbn3 (in-place)
I0816 10:03:31.673627  4720 net.cpp:122] Setting up frelu3
I0816 10:03:31.673640  4720 net.cpp:129] Top shape: 12 3 1 4096 (147456)
I0816 10:03:31.673642  4720 net.cpp:137] Memory required for data: 344850432
I0816 10:03:31.673646  4720 layer_factory.hpp:77] Creating layer feat3
I0816 10:03:31.673667  4720 net.cpp:84] Creating Layer feat3
I0816 10:03:31.673672  4720 net.cpp:406] feat3 <- data_feat_data_feat_0_split_2
I0816 10:03:31.673677  4720 net.cpp:406] feat3 <- fbn3
I0816 10:03:31.673682  4720 net.cpp:380] feat3 -> feat3
I0816 10:03:31.673712  4720 net.cpp:122] Setting up feat3
I0816 10:03:31.673718  4720 net.cpp:129] Top shape: 12 3 1 4096 (147456)
I0816 10:03:31.673722  4720 net.cpp:137] Memory required for data: 345440256
I0816 10:03:31.673725  4720 layer_factory.hpp:77] Creating layer data_lattice2
I0816 10:03:31.673787  4720 net.cpp:84] Creating Layer data_lattice2
I0816 10:03:31.673794  4720 net.cpp:406] data_lattice2 <- feat3
I0816 10:03:31.673801  4720 net.cpp:380] data_lattice2 -> data_lattice2
I0816 10:03:31.673979  4720 net.cpp:122] Setting up data_lattice2
I0816 10:03:31.673991  4720 net.cpp:129] Top shape: 12 3 1 4096 (147456)
I0816 10:03:31.673995  4720 net.cpp:137] Memory required for data: 346030080
I0816 10:03:31.673997  4720 layer_factory.hpp:77] Creating layer data_lattice2_data_lattice2_0_split
I0816 10:03:31.674003  4720 net.cpp:84] Creating Layer data_lattice2_data_lattice2_0_split
I0816 10:03:31.674007  4720 net.cpp:406] data_lattice2_data_lattice2_0_split <- data_lattice2
I0816 10:03:31.674013  4720 net.cpp:380] data_lattice2_data_lattice2_0_split -> data_lattice2_data_lattice2_0_split_0
I0816 10:03:31.674021  4720 net.cpp:380] data_lattice2_data_lattice2_0_split -> data_lattice2_data_lattice2_0_split_1
I0816 10:03:31.674053  4720 net.cpp:122] Setting up data_lattice2_data_lattice2_0_split
I0816 10:03:31.674060  4720 net.cpp:129] Top shape: 12 3 1 4096 (147456)
I0816 10:03:31.674064  4720 net.cpp:129] Top shape: 12 3 1 4096 (147456)
I0816 10:03:31.674067  4720 net.cpp:137] Memory required for data: 347209728
I0816 10:03:31.674069  4720 layer_factory.hpp:77] Creating layer conv4
I0816 10:03:31.674077  4720 net.cpp:84] Creating Layer conv4
I0816 10:03:31.674082  4720 net.cpp:406] conv4 <- bn3_relu3_0_split_1
I0816 10:03:31.674085  4720 net.cpp:406] conv4 <- data_lattice2_data_lattice2_0_split_0
I0816 10:03:31.674089  4720 net.cpp:406] conv4 <- data_lattice2_data_lattice2_0_split_1
I0816 10:03:31.674095  4720 net.cpp:380] conv4 -> conv4
I0816 10:03:31.689587  4720 net.cpp:122] Setting up conv4
I0816 10:03:31.689646  4720 net.cpp:129] Top shape: 12 256 1 4096 (12582912)
I0816 10:03:31.689651  4720 net.cpp:137] Memory required for data: 397541376
I0816 10:03:31.689664  4720 layer_factory.hpp:77] Creating layer bn4
I0816 10:03:31.689698  4720 net.cpp:84] Creating Layer bn4
I0816 10:03:31.689704  4720 net.cpp:406] bn4 <- conv4
I0816 10:03:31.689713  4720 net.cpp:380] bn4 -> bn4
I0816 10:03:31.689915  4720 net.cpp:122] Setting up bn4
I0816 10:03:31.689924  4720 net.cpp:129] Top shape: 12 256 1 4096 (12582912)
I0816 10:03:31.689929  4720 net.cpp:137] Memory required for data: 447873024
I0816 10:03:31.689935  4720 layer_factory.hpp:77] Creating layer relu4
I0816 10:03:31.689949  4720 net.cpp:84] Creating Layer relu4
I0816 10:03:31.689952  4720 net.cpp:406] relu4 <- bn4
I0816 10:03:31.689957  4720 net.cpp:367] relu4 -> bn4 (in-place)
I0816 10:03:31.690346  4720 net.cpp:122] Setting up relu4
I0816 10:03:31.690357  4720 net.cpp:129] Top shape: 12 256 1 4096 (12582912)
I0816 10:03:31.690372  4720 net.cpp:137] Memory required for data: 498204672
I0816 10:03:31.690376  4720 layer_factory.hpp:77] Creating layer bn4_relu4_0_split
I0816 10:03:31.690384  4720 net.cpp:84] Creating Layer bn4_relu4_0_split
I0816 10:03:31.690387  4720 net.cpp:406] bn4_relu4_0_split <- bn4
I0816 10:03:31.690394  4720 net.cpp:380] bn4_relu4_0_split -> bn4_relu4_0_split_0
I0816 10:03:31.690400  4720 net.cpp:380] bn4_relu4_0_split -> bn4_relu4_0_split_1
I0816 10:03:31.690407  4720 net.cpp:380] bn4_relu4_0_split -> bn4_relu4_0_split_2
I0816 10:03:31.690459  4720 net.cpp:122] Setting up bn4_relu4_0_split
I0816 10:03:31.690466  4720 net.cpp:129] Top shape: 12 256 1 4096 (12582912)
I0816 10:03:31.690470  4720 net.cpp:129] Top shape: 12 256 1 4096 (12582912)
I0816 10:03:31.690474  4720 net.cpp:129] Top shape: 12 256 1 4096 (12582912)
I0816 10:03:31.690476  4720 net.cpp:137] Memory required for data: 649199616
I0816 10:03:31.690479  4720 layer_factory.hpp:77] Creating layer fconv4
I0816 10:03:31.690491  4720 net.cpp:84] Creating Layer fconv4
I0816 10:03:31.690495  4720 net.cpp:406] fconv4 <- bn4_relu4_0_split_0
I0816 10:03:31.690502  4720 net.cpp:380] fconv4 -> fconv4
I0816 10:03:31.692487  4720 net.cpp:122] Setting up fconv4
I0816 10:03:31.692515  4720 net.cpp:129] Top shape: 12 3 1 4096 (147456)
I0816 10:03:31.692519  4720 net.cpp:137] Memory required for data: 649789440
I0816 10:03:31.692528  4720 layer_factory.hpp:77] Creating layer fbn4
I0816 10:03:31.692549  4720 net.cpp:84] Creating Layer fbn4
I0816 10:03:31.692554  4720 net.cpp:406] fbn4 <- fconv4
I0816 10:03:31.692565  4720 net.cpp:380] fbn4 -> fbn4
I0816 10:03:31.692765  4720 net.cpp:122] Setting up fbn4
I0816 10:03:31.692775  4720 net.cpp:129] Top shape: 12 3 1 4096 (147456)
I0816 10:03:31.692780  4720 net.cpp:137] Memory required for data: 650379264
I0816 10:03:31.692787  4720 layer_factory.hpp:77] Creating layer frelu4
I0816 10:03:31.692795  4720 net.cpp:84] Creating Layer frelu4
I0816 10:03:31.692797  4720 net.cpp:406] frelu4 <- fbn4
I0816 10:03:31.692802  4720 net.cpp:367] frelu4 -> fbn4 (in-place)
I0816 10:03:31.693070  4720 net.cpp:122] Setting up frelu4
I0816 10:03:31.693081  4720 net.cpp:129] Top shape: 12 3 1 4096 (147456)
I0816 10:03:31.693084  4720 net.cpp:137] Memory required for data: 650969088
I0816 10:03:31.693089  4720 layer_factory.hpp:77] Creating layer feat4
I0816 10:03:31.693096  4720 net.cpp:84] Creating Layer feat4
I0816 10:03:31.693101  4720 net.cpp:406] feat4 <- data_feat_data_feat_0_split_3
I0816 10:03:31.693107  4720 net.cpp:406] feat4 <- fbn4
I0816 10:03:31.693114  4720 net.cpp:380] feat4 -> feat4
I0816 10:03:31.693147  4720 net.cpp:122] Setting up feat4
I0816 10:03:31.693153  4720 net.cpp:129] Top shape: 12 3 1 4096 (147456)
I0816 10:03:31.693156  4720 net.cpp:137] Memory required for data: 651558912
I0816 10:03:31.693159  4720 layer_factory.hpp:77] Creating layer data_lattice3
I0816 10:03:31.693244  4720 net.cpp:84] Creating Layer data_lattice3
I0816 10:03:31.693253  4720 net.cpp:406] data_lattice3 <- feat4
I0816 10:03:31.693259  4720 net.cpp:380] data_lattice3 -> data_lattice3
I0816 10:03:31.694586  4720 net.cpp:122] Setting up data_lattice3
I0816 10:03:31.694602  4720 net.cpp:129] Top shape: 12 3 1 4096 (147456)
I0816 10:03:31.694617  4720 net.cpp:137] Memory required for data: 652148736
I0816 10:03:31.694630  4720 layer_factory.hpp:77] Creating layer data_lattice3_data_lattice3_0_split
I0816 10:03:31.694638  4720 net.cpp:84] Creating Layer data_lattice3_data_lattice3_0_split
I0816 10:03:31.694643  4720 net.cpp:406] data_lattice3_data_lattice3_0_split <- data_lattice3
I0816 10:03:31.694649  4720 net.cpp:380] data_lattice3_data_lattice3_0_split -> data_lattice3_data_lattice3_0_split_0
I0816 10:03:31.694656  4720 net.cpp:380] data_lattice3_data_lattice3_0_split -> data_lattice3_data_lattice3_0_split_1
I0816 10:03:31.694696  4720 net.cpp:122] Setting up data_lattice3_data_lattice3_0_split
I0816 10:03:31.694705  4720 net.cpp:129] Top shape: 12 3 1 4096 (147456)
I0816 10:03:31.694708  4720 net.cpp:129] Top shape: 12 3 1 4096 (147456)
I0816 10:03:31.694711  4720 net.cpp:137] Memory required for data: 653328384
I0816 10:03:31.694715  4720 layer_factory.hpp:77] Creating layer conv5
I0816 10:03:31.694723  4720 net.cpp:84] Creating Layer conv5
I0816 10:03:31.694727  4720 net.cpp:406] conv5 <- bn4_relu4_0_split_1
I0816 10:03:31.694732  4720 net.cpp:406] conv5 <- data_lattice3_data_lattice3_0_split_0
I0816 10:03:31.694736  4720 net.cpp:406] conv5 <- data_lattice3_data_lattice3_0_split_1
I0816 10:03:31.694741  4720 net.cpp:380] conv5 -> conv5
I0816 10:03:31.724992  4720 net.cpp:122] Setting up conv5
I0816 10:03:31.725051  4720 net.cpp:129] Top shape: 12 256 1 4096 (12582912)
I0816 10:03:31.725057  4720 net.cpp:137] Memory required for data: 703660032
I0816 10:03:31.725071  4720 layer_factory.hpp:77] Creating layer bn5
I0816 10:03:31.725087  4720 net.cpp:84] Creating Layer bn5
I0816 10:03:31.725095  4720 net.cpp:406] bn5 <- conv5
I0816 10:03:31.725106  4720 net.cpp:380] bn5 -> bn5
I0816 10:03:31.725317  4720 net.cpp:122] Setting up bn5
I0816 10:03:31.725327  4720 net.cpp:129] Top shape: 12 256 1 4096 (12582912)
I0816 10:03:31.725330  4720 net.cpp:137] Memory required for data: 753991680
I0816 10:03:31.725338  4720 layer_factory.hpp:77] Creating layer relu5
I0816 10:03:31.725366  4720 net.cpp:84] Creating Layer relu5
I0816 10:03:31.725373  4720 net.cpp:406] relu5 <- bn5
I0816 10:03:31.725378  4720 net.cpp:367] relu5 -> bn5 (in-place)
I0816 10:03:31.726259  4720 net.cpp:122] Setting up relu5
I0816 10:03:31.726274  4720 net.cpp:129] Top shape: 12 256 1 4096 (12582912)
I0816 10:03:31.726289  4720 net.cpp:137] Memory required for data: 804323328
I0816 10:03:31.726294  4720 layer_factory.hpp:77] Creating layer bn5_relu5_0_split
I0816 10:03:31.726301  4720 net.cpp:84] Creating Layer bn5_relu5_0_split
I0816 10:03:31.726305  4720 net.cpp:406] bn5_relu5_0_split <- bn5
I0816 10:03:31.726311  4720 net.cpp:380] bn5_relu5_0_split -> bn5_relu5_0_split_0
I0816 10:03:31.726318  4720 net.cpp:380] bn5_relu5_0_split -> bn5_relu5_0_split_1
I0816 10:03:31.726325  4720 net.cpp:380] bn5_relu5_0_split -> bn5_relu5_0_split_2
I0816 10:03:31.726375  4720 net.cpp:122] Setting up bn5_relu5_0_split
I0816 10:03:31.726383  4720 net.cpp:129] Top shape: 12 256 1 4096 (12582912)
I0816 10:03:31.726387  4720 net.cpp:129] Top shape: 12 256 1 4096 (12582912)
I0816 10:03:31.726390  4720 net.cpp:129] Top shape: 12 256 1 4096 (12582912)
I0816 10:03:31.726393  4720 net.cpp:137] Memory required for data: 955318272
I0816 10:03:31.726397  4720 layer_factory.hpp:77] Creating layer fconv5
I0816 10:03:31.726409  4720 net.cpp:84] Creating Layer fconv5
I0816 10:03:31.726413  4720 net.cpp:406] fconv5 <- bn5_relu5_0_split_0
I0816 10:03:31.726420  4720 net.cpp:380] fconv5 -> fconv5
I0816 10:03:31.727820  4720 net.cpp:122] Setting up fconv5
I0816 10:03:31.727836  4720 net.cpp:129] Top shape: 12 3 1 4096 (147456)
I0816 10:03:31.727851  4720 net.cpp:137] Memory required for data: 955908096
I0816 10:03:31.727859  4720 layer_factory.hpp:77] Creating layer fbn5
I0816 10:03:31.727866  4720 net.cpp:84] Creating Layer fbn5
I0816 10:03:31.727870  4720 net.cpp:406] fbn5 <- fconv5
I0816 10:03:31.727877  4720 net.cpp:380] fbn5 -> fbn5
I0816 10:03:31.728076  4720 net.cpp:122] Setting up fbn5
I0816 10:03:31.728085  4720 net.cpp:129] Top shape: 12 3 1 4096 (147456)
I0816 10:03:31.728088  4720 net.cpp:137] Memory required for data: 956497920
I0816 10:03:31.728094  4720 layer_factory.hpp:77] Creating layer frelu5
I0816 10:03:31.728101  4720 net.cpp:84] Creating Layer frelu5
I0816 10:03:31.728104  4720 net.cpp:406] frelu5 <- fbn5
I0816 10:03:31.728109  4720 net.cpp:367] frelu5 -> fbn5 (in-place)
I0816 10:03:31.728387  4720 net.cpp:122] Setting up frelu5
I0816 10:03:31.728399  4720 net.cpp:129] Top shape: 12 3 1 4096 (147456)
I0816 10:03:31.728404  4720 net.cpp:137] Memory required for data: 957087744
I0816 10:03:31.728407  4720 layer_factory.hpp:77] Creating layer feat5
I0816 10:03:31.728426  4720 net.cpp:84] Creating Layer feat5
I0816 10:03:31.728432  4720 net.cpp:406] feat5 <- data_feat_data_feat_0_split_4
I0816 10:03:31.728437  4720 net.cpp:406] feat5 <- fbn5
I0816 10:03:31.728443  4720 net.cpp:380] feat5 -> feat5
I0816 10:03:31.728482  4720 net.cpp:122] Setting up feat5
I0816 10:03:31.728492  4720 net.cpp:129] Top shape: 12 3 1 4096 (147456)
I0816 10:03:31.728494  4720 net.cpp:137] Memory required for data: 957677568
I0816 10:03:31.728497  4720 layer_factory.hpp:77] Creating layer data_lattice4
I0816 10:03:31.728577  4720 net.cpp:84] Creating Layer data_lattice4
I0816 10:03:31.728585  4720 net.cpp:406] data_lattice4 <- feat5
I0816 10:03:31.728590  4720 net.cpp:380] data_lattice4 -> data_lattice4
I0816 10:03:31.728780  4720 net.cpp:122] Setting up data_lattice4
I0816 10:03:31.728790  4720 net.cpp:129] Top shape: 12 3 1 4096 (147456)
I0816 10:03:31.728793  4720 net.cpp:137] Memory required for data: 958267392
I0816 10:03:31.728797  4720 layer_factory.hpp:77] Creating layer data_lattice4_data_lattice4_0_split
I0816 10:03:31.728803  4720 net.cpp:84] Creating Layer data_lattice4_data_lattice4_0_split
I0816 10:03:31.728807  4720 net.cpp:406] data_lattice4_data_lattice4_0_split <- data_lattice4
I0816 10:03:31.728813  4720 net.cpp:380] data_lattice4_data_lattice4_0_split -> data_lattice4_data_lattice4_0_split_0
I0816 10:03:31.728819  4720 net.cpp:380] data_lattice4_data_lattice4_0_split -> data_lattice4_data_lattice4_0_split_1
I0816 10:03:31.728855  4720 net.cpp:122] Setting up data_lattice4_data_lattice4_0_split
I0816 10:03:31.728863  4720 net.cpp:129] Top shape: 12 3 1 4096 (147456)
I0816 10:03:31.728865  4720 net.cpp:129] Top shape: 12 3 1 4096 (147456)
I0816 10:03:31.728868  4720 net.cpp:137] Memory required for data: 959447040
I0816 10:03:31.728871  4720 layer_factory.hpp:77] Creating layer conv6
I0816 10:03:31.728879  4720 net.cpp:84] Creating Layer conv6
I0816 10:03:31.728883  4720 net.cpp:406] conv6 <- bn5_relu5_0_split_1
I0816 10:03:31.728888  4720 net.cpp:406] conv6 <- data_lattice4_data_lattice4_0_split_0
I0816 10:03:31.728891  4720 net.cpp:406] conv6 <- data_lattice4_data_lattice4_0_split_1
I0816 10:03:31.728898  4720 net.cpp:380] conv6 -> conv6
I0816 10:03:31.759346  4720 net.cpp:122] Setting up conv6
I0816 10:03:31.759399  4720 net.cpp:129] Top shape: 12 256 1 4096 (12582912)
I0816 10:03:31.759404  4720 net.cpp:137] Memory required for data: 1009778688
I0816 10:03:31.759418  4720 layer_factory.hpp:77] Creating layer bn6
I0816 10:03:31.759431  4720 net.cpp:84] Creating Layer bn6
I0816 10:03:31.759438  4720 net.cpp:406] bn6 <- conv6
I0816 10:03:31.759449  4720 net.cpp:380] bn6 -> bn6
I0816 10:03:31.759654  4720 net.cpp:122] Setting up bn6
I0816 10:03:31.759662  4720 net.cpp:129] Top shape: 12 256 1 4096 (12582912)
I0816 10:03:31.759666  4720 net.cpp:137] Memory required for data: 1060110336
I0816 10:03:31.759672  4720 layer_factory.hpp:77] Creating layer relu6
I0816 10:03:31.759698  4720 net.cpp:84] Creating Layer relu6
I0816 10:03:31.759703  4720 net.cpp:406] relu6 <- bn6
I0816 10:03:31.759708  4720 net.cpp:367] relu6 -> bn6 (in-place)
I0816 10:03:31.760574  4720 net.cpp:122] Setting up relu6
I0816 10:03:31.760589  4720 net.cpp:129] Top shape: 12 256 1 4096 (12582912)
I0816 10:03:31.760604  4720 net.cpp:137] Memory required for data: 1110441984
I0816 10:03:31.760608  4720 layer_factory.hpp:77] Creating layer concat6
I0816 10:03:31.760665  4720 net.cpp:84] Creating Layer concat6
I0816 10:03:31.760674  4720 net.cpp:406] concat6 <- bn6
I0816 10:03:31.760680  4720 net.cpp:406] concat6 <- bn2_relu2_0_split_2
I0816 10:03:31.760685  4720 net.cpp:406] concat6 <- bn3_relu3_0_split_2
I0816 10:03:31.760689  4720 net.cpp:406] concat6 <- bn4_relu4_0_split_2
I0816 10:03:31.760692  4720 net.cpp:406] concat6 <- bn5_relu5_0_split_2
I0816 10:03:31.760696  4720 net.cpp:380] concat6 -> concat6
I0816 10:03:31.760745  4720 net.cpp:122] Setting up concat6
I0816 10:03:31.760754  4720 net.cpp:129] Top shape: 12 960 1 4096 (47185920)
I0816 10:03:31.760757  4720 net.cpp:137] Memory required for data: 1299185664
I0816 10:03:31.760761  4720 layer_factory.hpp:77] Creating layer conv7
I0816 10:03:31.760781  4720 net.cpp:84] Creating Layer conv7
I0816 10:03:31.760787  4720 net.cpp:406] conv7 <- concat6
I0816 10:03:31.760794  4720 net.cpp:380] conv7 -> conv7
I0816 10:03:31.763114  4720 net.cpp:122] Setting up conv7
I0816 10:03:31.763149  4720 net.cpp:129] Top shape: 12 128 1 4096 (6291456)
I0816 10:03:31.763154  4720 net.cpp:137] Memory required for data: 1324351488
I0816 10:03:31.763162  4720 layer_factory.hpp:77] Creating layer bn7
I0816 10:03:31.763170  4720 net.cpp:84] Creating Layer bn7
I0816 10:03:31.763175  4720 net.cpp:406] bn7 <- conv7
I0816 10:03:31.763182  4720 net.cpp:380] bn7 -> bn7
I0816 10:03:31.763376  4720 net.cpp:122] Setting up bn7
I0816 10:03:31.763384  4720 net.cpp:129] Top shape: 12 128 1 4096 (6291456)
I0816 10:03:31.763388  4720 net.cpp:137] Memory required for data: 1349517312
I0816 10:03:31.763411  4720 layer_factory.hpp:77] Creating layer relu7
I0816 10:03:31.763427  4720 net.cpp:84] Creating Layer relu7
I0816 10:03:31.763430  4720 net.cpp:406] relu7 <- bn7
I0816 10:03:31.763435  4720 net.cpp:367] relu7 -> bn7 (in-place)
I0816 10:03:31.763708  4720 net.cpp:122] Setting up relu7
I0816 10:03:31.763720  4720 net.cpp:129] Top shape: 12 128 1 4096 (6291456)
I0816 10:03:31.763723  4720 net.cpp:137] Memory required for data: 1374683136
I0816 10:03:31.763727  4720 layer_factory.hpp:77] Creating layer conv8
I0816 10:03:31.763746  4720 net.cpp:84] Creating Layer conv8
I0816 10:03:31.763751  4720 net.cpp:406] conv8 <- bn7
I0816 10:03:31.763757  4720 net.cpp:380] conv8 -> conv8
I0816 10:03:31.765491  4720 net.cpp:122] Setting up conv8
I0816 10:03:31.765507  4720 net.cpp:129] Top shape: 12 13 1 4096 (638976)
I0816 10:03:31.765523  4720 net.cpp:137] Memory required for data: 1377239040
I0816 10:03:31.765530  4720 layer_factory.hpp:77] Creating layer conv8_conv8_0_split
I0816 10:03:31.765538  4720 net.cpp:84] Creating Layer conv8_conv8_0_split
I0816 10:03:31.765542  4720 net.cpp:406] conv8_conv8_0_split <- conv8
I0816 10:03:31.765548  4720 net.cpp:380] conv8_conv8_0_split -> conv8_conv8_0_split_0
I0816 10:03:31.765555  4720 net.cpp:380] conv8_conv8_0_split -> conv8_conv8_0_split_1
I0816 10:03:31.765594  4720 net.cpp:122] Setting up conv8_conv8_0_split
I0816 10:03:31.765601  4720 net.cpp:129] Top shape: 12 13 1 4096 (638976)
I0816 10:03:31.765605  4720 net.cpp:129] Top shape: 12 13 1 4096 (638976)
I0816 10:03:31.765609  4720 net.cpp:137] Memory required for data: 1382350848
I0816 10:03:31.765611  4720 layer_factory.hpp:77] Creating layer loss
I0816 10:03:31.765653  4720 net.cpp:84] Creating Layer loss
I0816 10:03:31.765661  4720 net.cpp:406] loss <- conv8_conv8_0_split_0
I0816 10:03:31.765666  4720 net.cpp:406] loss <- label_data_1_split_0
I0816 10:03:31.765671  4720 net.cpp:380] loss -> loss
…
