…
I0731 14:58:17.966814  3582 net.cpp:294] The NetState phase (0) differed from the phase (1) specified by a rule in layer data
I0731 14:58:17.970119  3582 net.cpp:51] Initializing net from parameters: 
state {
  phase: TRAIN
}
layer {
  name: "data"
  type: "Python"
  top: "data"
  top: "label"
  include {
    phase: TRAIN
  }
  python_param {
    module: "dataset_lidar"
    layer: "InputShapenet"
    param_str: "{\'sample_size\': 70000, \'test_area\': \'6\', \'batch_size\': 1, \'feat_dims\': \'x_y_z\', \'subset\': \'train\', \'root\': \'../../data/shapenet_ericyi_ply\', \'jitter_xyz\': 0.01, \'jitter_stretch\': 0.05, \'jitter_rotation\': 5.0}"
  }
}
layer {
  name: "data_feat"
  type: "Python"
  bottom: "data"
  top: "data_feat"
  python_param {
    module: "custom_layers"
    layer: "PickAndScale"
    param_str: "0_1_2"
  }
}
layer {
  name: "conv1"
  type: "Convolution"
  bottom: "data_feat"
  top: "conv1"
  param {
    lr_mult: 1
  }
  param {
    lr_mult: 0.1
  }
  convolution_param {
    num_output: 32
    pad: 0
    kernel_size: 1
    stride: 1
    weight_filler {
      type: "xavier"
    }
    bias_filler {
      type: "constant"
      value: 0
    }
  }
}
layer {
  name: "bn1"
  type: "BatchNorm"
  bottom: "conv1"
  top: "bn1"
}
layer {
  name: "relu1"
  type: "ReLU"
  bottom: "bn1"
  top: "bn1"
}
layer {
  name: "data_lattice0"
  type: "Python"
  bottom: "data"
  top: "data_lattice0"
  python_param {
    module: "custom_layers"
    layer: "PickAndScale"
    param_str: "0*48_1*48_2*48"
  }
}
layer {
  name: "fconv1"
  type: "Convolution"
  bottom: "data_lattice0"
  top: "fconv1"
  param {
    lr_mult: 1
  }
  param {
    lr_mult: 0.1
  }
  convolution_param {
    num_output: 3
    pad: 0
    kernel_size: 1
    stride: 1
    weight_filler {
      type: "xavier"
    }
    bias_filler {
      type: "constant"
      value: 0
    }
  }
}
layer {
  name: "fbn1"
  type: "BatchNorm"
  bottom: "fconv1"
  top: "fbn1"
}
layer {
  name: "frelu1"
  type: "ReLU"
  bottom: "fbn1"
  top: "fbn1"
}
layer {
  name: "feat1"
  type: "Eltwise"
  bottom: "data_lattice0"
  bottom: "fbn1"
  top: "feat1"
  eltwise_param {
    operation: SUM
  }
}
layer {
  name: "conv2"
  type: "Permutohedral"
  bottom: "bn1"
  bottom: "feat1"
  bottom: "feat1"
  top: "conv2"
  param {
    lr_mult: 1
    decay_mult: 1
  }
  param {
    lr_mult: 2
    decay_mult: 0
  }
  permutohedral_param {
    num_output: 64
    neighborhood_size: 2
    filter_filler {
      type: "gaussian"
      std: 0.001
    }
    bias_term: true
    bias_filler {
      type: "constant"
      value: 0
    }
    group: 1
    norm_type: AFTER
    offset_type: NONE
  }
}
layer {
  name: "bn2"
  type: "BatchNorm"
  bottom: "conv2"
  top: "bn2"
}
layer {
  name: "relu2"
  type: "ReLU"
  bottom: "bn2"
  top: "bn2"
}
layer {
  name: "data_lattice1"
  type: "Python"
  bottom: "data"
  top: "data_lattice1"
  python_param {
    module: "custom_layers"
    layer: "PickAndScale"
    param_str: "0*24_1*24_2*24"
  }
}
layer {
  name: "fconv2"
  type: "Convolution"
  bottom: "data_lattice1"
  top: "fconv2"
  param {
    lr_mult: 1
  }
  param {
    lr_mult: 0.1
  }
  convolution_param {
    num_output: 3
    pad: 0
    kernel_size: 1
    stride: 1
    weight_filler {
      type: "xavier"
    }
    bias_filler {
      type: "constant"
      value: 0
    }
  }
}
layer {
  name: "fbn2"
  type: "BatchNorm"
  bottom: "fconv2"
  top: "fbn2"
}
layer {
  name: "frelu2"
  type: "ReLU"
  bottom: "fbn2"
  top: "fbn2"
}
layer {
  name: "feat2"
  type: "Eltwise"
  bottom: "data_lattice1"
  bottom: "fbn2"
  top: "feat2"
  eltwise_param {
    operation: SUM
  }
}
layer {
  name: "conv3"
  type: "Permutohedral"
  bottom: "bn2"
  bottom: "feat2"
  bottom: "feat2"
  top: "conv3"
  param {
    lr_mult: 1
    decay_mult: 1
  }
  param {
    lr_mult: 2
    decay_mult: 0
  }
  permutohedral_param {
    num_output: 128
    neighborhood_size: 2
    filter_filler {
      type: "gaussian"
      std: 0.001
    }
    bias_term: true
    bias_filler {
      type: "constant"
      value: 0
    }
    group: 1
    norm_type: AFTER
    offset_type: NONE
  }
}
layer {
  name: "bn3"
  type: "BatchNorm"
  bottom: "conv3"
  top: "bn3"
}
layer {
  name: "relu3"
  type: "ReLU"
  bottom: "bn3"
  top: "bn3"
}
layer {
  name: "data_lattice2"
  type: "Python"
  bottom: "data"
  top: "data_lattice2"
  python_param {
    module: "custom_layers"
    layer: "PickAndScale"
    param_str: "0*12_1*12_2*12"
  }
}
layer {
  name: "fconv3"
  type: "Convolution"
  bottom: "data_lattice2"
  top: "fconv3"
  param {
    lr_mult: 1
  }
  param {
    lr_mult: 0.1
  }
  convolution_param {
    num_output: 3
    pad: 0
    kernel_size: 1
    stride: 1
    weight_filler {
      type: "xavier"
    }
    bias_filler {
      type: "constant"
      value: 0
    }
  }
}
layer {
  name: "fbn3"
  type: "BatchNorm"
  bottom: "fconv3"
  top: "fbn3"
}
layer {
  name: "frelu3"
  type: "ReLU"
  bottom: "fbn3"
  top: "fbn3"
}
layer {
  name: "feat3"
  type: "Eltwise"
  bottom: "data_lattice2"
  bottom: "fbn3"
  top: "feat3"
  eltwise_param {
    operation: SUM
  }
}
layer {
  name: "conv4"
  type: "Permutohedral"
  bottom: "bn3"
  bottom: "feat3"
  bottom: "feat3"
  top: "conv4"
  param {
    lr_mult: 1
    decay_mult: 1
  }
  param {
    lr_mult: 2
    decay_mult: 0
  }
  permutohedral_param {
    num_output: 256
    neighborhood_size: 2
    filter_filler {
      type: "gaussian"
      std: 0.001
    }
    bias_term: true
    bias_filler {
      type: "constant"
      value: 0
    }
    group: 1
    norm_type: AFTER
    offset_type: NONE
  }
}
layer {
  name: "bn4"
  type: "BatchNorm"
  bottom: "conv4"
  top: "bn4"
}
layer {
  name: "relu4"
  type: "ReLU"
  bottom: "bn4"
  top: "bn4"
}
layer {
  name: "data_lattice3"
  type: "Python"
  bottom: "data"
  top: "data_lattice3"
  python_param {
    module: "custom_layers"
    layer: "PickAndScale"
    param_str: "0*6_1*6_2*6"
  }
}
layer {
  name: "fconv4"
  type: "Convolution"
  bottom: "data_lattice3"
  top: "fconv4"
  param {
    lr_mult: 1
  }
  param {
    lr_mult: 0.1
  }
  convolution_param {
    num_output: 3
    pad: 0
    kernel_size: 1
    stride: 1
    weight_filler {
      type: "xavier"
    }
    bias_filler {
      type: "constant"
      value: 0
    }
  }
}
layer {
  name: "fbn4"
  type: "BatchNorm"
  bottom: "fconv4"
  top: "fbn4"
}
layer {
  name: "frelu4"
  type: "ReLU"
  bottom: "fbn4"
  top: "fbn4"
}
layer {
  name: "feat4"
  type: "Eltwise"
  bottom: "data_lattice3"
  bottom: "fbn4"
  top: "feat4"
  eltwise_param {
    operation: SUM
  }
}
layer {
  name: "conv5"
  type: "Permutohedral"
  bottom: "bn4"
  bottom: "feat4"
  bottom: "feat4"
  top: "conv5"
  param {
    lr_mult: 1
    decay_mult: 1
  }
  param {
    lr_mult: 2
    decay_mult: 0
  }
  permutohedral_param {
    num_output: 256
    neighborhood_size: 2
    filter_filler {
      type: "gaussian"
      std: 0.001
    }
    bias_term: true
    bias_filler {
      type: "constant"
      value: 0
    }
    group: 1
    norm_type: AFTER
    offset_type: NONE
  }
}
layer {
  name: "bn5"
  type: "BatchNorm"
  bottom: "conv5"
  top: "bn5"
}
layer {
  name: "relu5"
  type: "ReLU"
  bottom: "bn5"
  top: "bn5"
}
layer {
  name: "data_lattice4"
  type: "Python"
  bottom: "data"
  top: "data_lattice4"
  python_param {
    module: "custom_layers"
    layer: "PickAndScale"
    param_str: "0*3_1*3_2*3"
  }
}
layer {
  name: "fconv5"
  type: "Convolution"
  bottom: "data_lattice4"
  top: "fconv5"
  param {
    lr_mult: 1
  }
  param {
    lr_mult: 0.1
  }
  convolution_param {
    num_output: 3
    pad: 0
    kernel_size: 1
    stride: 1
    weight_filler {
      type: "xavier"
    }
    bias_filler {
      type: "constant"
      value: 0
    }
  }
}
layer {
  name: "fbn5"
  type: "BatchNorm"
  bottom: "fconv5"
  top: "fbn5"
}
layer {
  name: "frelu5"
  type: "ReLU"
  bottom: "fbn5"
  top: "fbn5"
}
layer {
  name: "feat5"
  type: "Eltwise"
  bottom: "data_lattice4"
  bottom: "fbn5"
  top: "feat5"
  eltwise_param {
    operation: SUM
  }
}
layer {
  name: "conv6"
  type: "Permutohedral"
  bottom: "bn5"
  bottom: "feat5"
  bottom: "feat5"
  top: "conv6"
  param {
    lr_mult: 1
    decay_mult: 1
  }
  param {
    lr_mult: 2
    decay_mult: 0
  }
  permutohedral_param {
    num_output: 256
    neighborhood_size: 2
    filter_filler {
      type: "gaussian"
      std: 0.001
    }
    bias_term: true
    bias_filler {
      type: "constant"
      value: 0
    }
    group: 1
    norm_type: AFTER
    offset_type: NONE
  }
}
layer {
  name: "bn6"
  type: "BatchNorm"
  bottom: "conv6"
  top: "bn6"
}
layer {
  name: "relu6"
  type: "ReLU"
  bottom: "bn6"
  top: "bn6"
}
layer {
  name: "concat6"
  type: "Concat"
  bottom: "bn6"
  bottom: "bn2"
  bottom: "bn3"
  bottom: "bn4"
  bottom: "bn5"
  top: "concat6"
}
layer {
  name: "conv7"
  type: "Convolution"
  bottom: "concat6"
  top: "conv7"
  param {
    lr_mult: 1
  }
  param {
    lr_mult: 0.1
  }
  convolution_param {
    num_output: 128
    pad: 0
    kernel_size: 1
    stride: 1
    weight_filler {
      type: "xavier"
    }
    bias_filler {
      type: "constant"
      value: 0
    }
  }
}
layer {
  name: "bn7"
  type: "BatchNorm"
  bottom: "conv7"
  top: "bn7"
}
layer {
  name: "relu7"
  type: "ReLU"
  bottom: "bn7"
  top: "bn7"
}
layer {
  name: "conv8"
  type: "Convolution"
  bottom: "bn7"
  top: "conv8"
  param {
    lr_mult: 1
  }
  param {
    lr_mult: 0.1
  }
  convolution_param {
    num_output: 13
    pad: 0
    kernel_size: 1
    stride: 1
    weight_filler {
      type: "xavier"
    }
    bias_filler {
      type: "constant"
      value: 0
    }
  }
}
layer {
  name: "loss"
  type: "SoftmaxWithLoss"
  bottom: "conv8"
  bottom: "label"
  top: "loss"
}
layer {
  name: "accuracy"
  type: "Accuracy"
  bottom: "conv8"
  bottom: "label"
  top: "accuracy"
}
I0731 14:58:17.988317  3582 layer_factory.hpp:77] Creating layer data
I0731 14:58:18.016829  3582 net.cpp:84] Creating Layer data
I0731 14:58:18.017452  3582 net.cpp:380] data -> data
I0731 14:58:18.017633  3582 net.cpp:380] data -> label
I0731 14:58:18.609321  3586 upgrade_proto.cpp:1084] Attempting to upgrade input file specified using deprecated 'solver_type' field (enum)': /mnt/lustre/wangjiayun/repos/splatnet/exp/lidar3d/area6/6_solver.prototxt
…
I0731 14:58:18.637892  3588 upgrade_proto.cpp:1084] Attempting to upgrade input file specified using deprecated 'solver_type' field (enum)': /mnt/lustre/wangjiayun/repos/splatnet/exp/lidar3d/area6/6_solver.prototxt
I0731 14:58:18.637975  3588 upgrade_proto.cpp:1091] Successfully upgraded file specified using deprecated 'solver_type' field (enum) to 'type' field (string).
W0731 14:58:18.637982  3588 upgrade_proto.cpp:1093] Note that future Caffe releases will only support 'type' field (string) for a solver's type.
I0731 15:05:01.467104  3582 net.cpp:122] Setting up data
I0731 15:05:01.494809  3582 net.cpp:129] Top shape: 1 3 1 70000 (210000)
I0731 15:05:01.494850  3582 net.cpp:129] Top shape: 1 1 1 70000 (70000)
I0731 15:05:01.494860  3582 net.cpp:137] Memory required for data: 1120000
I0731 15:05:01.534793  3582 layer_factory.hpp:77] Creating layer data_data_0_split
I0731 15:05:01.576117  3582 net.cpp:84] Creating Layer data_data_0_split
I0731 15:05:01.591004  3582 net.cpp:406] data_data_0_split <- data
I0731 15:05:01.591995  3582 net.cpp:380] data_data_0_split -> data_data_0_split_0
I0731 15:05:01.602741  3582 net.cpp:380] data_data_0_split -> data_data_0_split_1
I0731 15:05:01.602787  3582 net.cpp:380] data_data_0_split -> data_data_0_split_2
I0731 15:05:01.602805  3582 net.cpp:380] data_data_0_split -> data_data_0_split_3
I0731 15:05:01.602820  3582 net.cpp:380] data_data_0_split -> data_data_0_split_4
I0731 15:05:01.602834  3582 net.cpp:380] data_data_0_split -> data_data_0_split_5
I0731 15:05:01.618664  3582 net.cpp:122] Setting up data_data_0_split
I0731 15:05:01.618705  3582 net.cpp:129] Top shape: 1 3 1 70000 (210000)
I0731 15:05:01.618717  3582 net.cpp:129] Top shape: 1 3 1 70000 (210000)
I0731 15:05:01.618726  3582 net.cpp:129] Top shape: 1 3 1 70000 (210000)
I0731 15:05:01.618736  3582 net.cpp:129] Top shape: 1 3 1 70000 (210000)
I0731 15:05:01.618744  3582 net.cpp:129] Top shape: 1 3 1 70000 (210000)
I0731 15:05:01.618752  3582 net.cpp:129] Top shape: 1 3 1 70000 (210000)
I0731 15:05:01.618759  3582 net.cpp:137] Memory required for data: 6160000
I0731 15:05:01.618769  3582 layer_factory.hpp:77] Creating layer label_data_1_split
I0731 15:05:01.618803  3582 net.cpp:84] Creating Layer label_data_1_split
I0731 15:05:01.618818  3582 net.cpp:406] label_data_1_split <- label
I0731 15:05:01.618831  3582 net.cpp:380] label_data_1_split -> label_data_1_split_0
I0731 15:05:01.618851  3582 net.cpp:380] label_data_1_split -> label_data_1_split_1
I0731 15:05:01.618929  3582 net.cpp:122] Setting up label_data_1_split
I0731 15:05:01.620040  3582 net.cpp:129] Top shape: 1 1 1 70000 (70000)
I0731 15:05:01.620064  3582 net.cpp:129] Top shape: 1 1 1 70000 (70000)
I0731 15:05:01.620070  3582 net.cpp:137] Memory required for data: 6720000
I0731 15:05:01.620079  3582 layer_factory.hpp:77] Creating layer data_feat
I0731 15:05:01.654649  3582 net.cpp:84] Creating Layer data_feat
I0731 15:05:01.654685  3582 net.cpp:406] data_feat <- data_data_0_split_0
I0731 15:05:01.654706  3582 net.cpp:380] data_feat -> data_feat
I0731 15:05:01.669759  3582 net.cpp:122] Setting up data_feat
I0731 15:05:01.669796  3582 net.cpp:129] Top shape: 1 3 1 70000 (210000)
I0731 15:05:01.669806  3582 net.cpp:137] Memory required for data: 7560000
I0731 15:05:01.669816  3582 layer_factory.hpp:77] Creating layer conv1
I0731 15:05:01.675066  3582 net.cpp:84] Creating Layer conv1
I0731 15:05:01.675102  3582 net.cpp:406] conv1 <- data_feat
I0731 15:05:01.675122  3582 net.cpp:380] conv1 -> conv1
I0731 15:05:05.469626  3582 net.cpp:122] Setting up conv1
I0731 15:05:05.469700  3582 net.cpp:129] Top shape: 1 32 1 70000 (2240000)
I0731 15:05:05.469712  3582 net.cpp:137] Memory required for data: 16520000
I0731 15:05:05.480105  3582 layer_factory.hpp:77] Creating layer bn1
I0731 15:05:05.481107  3582 net.cpp:84] Creating Layer bn1
I0731 15:05:05.481143  3582 net.cpp:406] bn1 <- conv1
I0731 15:05:05.481164  3582 net.cpp:380] bn1 -> bn1
I0731 15:05:05.504750  3582 net.cpp:122] Setting up bn1
I0731 15:05:05.504791  3582 net.cpp:129] Top shape: 1 32 1 70000 (2240000)
I0731 15:05:05.504815  3582 net.cpp:137] Memory required for data: 25480000
I0731 15:05:05.504863  3582 layer_factory.hpp:77] Creating layer relu1
I0731 15:05:05.506314  3582 net.cpp:84] Creating Layer relu1
I0731 15:05:05.506363  3582 net.cpp:406] relu1 <- bn1
I0731 15:05:05.506383  3582 net.cpp:367] relu1 -> bn1 (in-place)
I0731 15:05:05.530766  3582 net.cpp:122] Setting up relu1
I0731 15:05:05.530818  3582 net.cpp:129] Top shape: 1 32 1 70000 (2240000)
I0731 15:05:05.530828  3582 net.cpp:137] Memory required for data: 34440000
I0731 15:05:05.530838  3582 layer_factory.hpp:77] Creating layer data_lattice0
I0731 15:05:05.531219  3582 net.cpp:84] Creating Layer data_lattice0
I0731 15:05:05.531242  3582 net.cpp:406] data_lattice0 <- data_data_0_split_1
I0731 15:05:05.531272  3582 net.cpp:380] data_lattice0 -> data_lattice0
I0731 15:05:05.534806  3582 net.cpp:122] Setting up data_lattice0
I0731 15:05:05.534843  3582 net.cpp:129] Top shape: 1 3 1 70000 (210000)
I0731 15:05:05.534853  3582 net.cpp:137] Memory required for data: 35280000
I0731 15:05:05.534878  3582 layer_factory.hpp:77] Creating layer data_lattice0_data_lattice0_0_split
I0731 15:05:05.534903  3582 net.cpp:84] Creating Layer data_lattice0_data_lattice0_0_split
I0731 15:05:05.534912  3582 net.cpp:406] data_lattice0_data_lattice0_0_split <- data_lattice0
I0731 15:05:05.534927  3582 net.cpp:380] data_lattice0_data_lattice0_0_split -> data_lattice0_data_lattice0_0_split_0
I0731 15:05:05.534946  3582 net.cpp:380] data_lattice0_data_lattice0_0_split -> data_lattice0_data_lattice0_0_split_1
I0731 15:05:05.535040  3582 net.cpp:122] Setting up data_lattice0_data_lattice0_0_split
I0731 15:05:05.535060  3582 net.cpp:129] Top shape: 1 3 1 70000 (210000)
I0731 15:05:05.535069  3582 net.cpp:129] Top shape: 1 3 1 70000 (210000)
I0731 15:05:05.535075  3582 net.cpp:137] Memory required for data: 36960000
I0731 15:05:05.535084  3582 layer_factory.hpp:77] Creating layer fconv1
I0731 15:05:05.535121  3582 net.cpp:84] Creating Layer fconv1
I0731 15:05:05.535135  3582 net.cpp:406] fconv1 <- data_lattice0_data_lattice0_0_split_0
I0731 15:05:05.535149  3582 net.cpp:380] fconv1 -> fconv1
I0731 15:05:05.540019  3582 net.cpp:122] Setting up fconv1
I0731 15:05:05.540055  3582 net.cpp:129] Top shape: 1 3 1 70000 (210000)
I0731 15:05:05.540064  3582 net.cpp:137] Memory required for data: 37800000
I0731 15:05:05.540081  3582 layer_factory.hpp:77] Creating layer fbn1
I0731 15:05:05.540098  3582 net.cpp:84] Creating Layer fbn1
I0731 15:05:05.540108  3582 net.cpp:406] fbn1 <- fconv1
I0731 15:05:05.540122  3582 net.cpp:380] fbn1 -> fbn1
I0731 15:05:05.540652  3582 net.cpp:122] Setting up fbn1
I0731 15:05:05.540676  3582 net.cpp:129] Top shape: 1 3 1 70000 (210000)
I0731 15:05:05.540683  3582 net.cpp:137] Memory required for data: 38640000
I0731 15:05:05.540706  3582 layer_factory.hpp:77] Creating layer frelu1
I0731 15:05:05.540721  3582 net.cpp:84] Creating Layer frelu1
I0731 15:05:05.540731  3582 net.cpp:406] frelu1 <- fbn1
I0731 15:05:05.540743  3582 net.cpp:367] frelu1 -> fbn1 (in-place)
I0731 15:05:05.541326  3582 net.cpp:122] Setting up frelu1
I0731 15:05:05.541363  3582 net.cpp:129] Top shape: 1 3 1 70000 (210000)
I0731 15:05:05.541373  3582 net.cpp:137] Memory required for data: 39480000
I0731 15:05:05.541381  3582 layer_factory.hpp:77] Creating layer feat1
I0731 15:05:05.542493  3582 net.cpp:84] Creating Layer feat1
I0731 15:05:05.542527  3582 net.cpp:406] feat1 <- data_lattice0_data_lattice0_0_split_1
I0731 15:05:05.542542  3582 net.cpp:406] feat1 <- fbn1
I0731 15:05:05.542559  3582 net.cpp:380] feat1 -> feat1
I0731 15:05:05.543118  3582 net.cpp:122] Setting up feat1
I0731 15:05:05.543154  3582 net.cpp:129] Top shape: 1 3 1 70000 (210000)
I0731 15:05:05.543164  3582 net.cpp:137] Memory required for data: 40320000
I0731 15:05:05.543171  3582 layer_factory.hpp:77] Creating layer feat1_feat1_0_split
I0731 15:05:05.543203  3582 net.cpp:84] Creating Layer feat1_feat1_0_split
I0731 15:05:05.543213  3582 net.cpp:406] feat1_feat1_0_split <- feat1
I0731 15:05:05.543227  3582 net.cpp:380] feat1_feat1_0_split -> feat1_feat1_0_split_0
I0731 15:05:05.543246  3582 net.cpp:380] feat1_feat1_0_split -> feat1_feat1_0_split_1
I0731 15:05:05.543329  3582 net.cpp:122] Setting up feat1_feat1_0_split
I0731 15:05:05.543365  3582 net.cpp:129] Top shape: 1 3 1 70000 (210000)
I0731 15:05:05.543378  3582 net.cpp:129] Top shape: 1 3 1 70000 (210000)
I0731 15:05:05.543385  3582 net.cpp:137] Memory required for data: 42000000
I0731 15:05:05.543392  3582 layer_factory.hpp:77] Creating layer conv2
I0731 15:05:05.543710  3582 net.cpp:84] Creating Layer conv2
I0731 15:05:05.543731  3582 net.cpp:406] conv2 <- bn1
I0731 15:05:05.543758  3582 net.cpp:406] conv2 <- feat1_feat1_0_split_0
I0731 15:05:05.543769  3582 net.cpp:406] conv2 <- feat1_feat1_0_split_1
I0731 15:05:05.543786  3582 net.cpp:380] conv2 -> conv2
I0731 15:05:05.554373  3582 net.cpp:122] Setting up conv2
I0731 15:05:05.554404  3582 net.cpp:129] Top shape: 1 64 1 70000 (4480000)
I0731 15:05:05.554412  3582 net.cpp:137] Memory required for data: 59920000
I0731 15:05:05.554427  3582 layer_factory.hpp:77] Creating layer bn2
I0731 15:05:05.554441  3582 net.cpp:84] Creating Layer bn2
I0731 15:05:05.554450  3582 net.cpp:406] bn2 <- conv2
I0731 15:05:05.554462  3582 net.cpp:380] bn2 -> bn2
I0731 15:05:05.554968  3582 net.cpp:122] Setting up bn2
I0731 15:05:05.554991  3582 net.cpp:129] Top shape: 1 64 1 70000 (4480000)
I0731 15:05:05.554997  3582 net.cpp:137] Memory required for data: 77840000
I0731 15:05:05.555012  3582 layer_factory.hpp:77] Creating layer relu2
I0731 15:05:05.555043  3582 net.cpp:84] Creating Layer relu2
I0731 15:05:05.555053  3582 net.cpp:406] relu2 <- bn2
I0731 15:05:05.555064  3582 net.cpp:367] relu2 -> bn2 (in-place)
I0731 15:05:05.556246  3582 net.cpp:122] Setting up relu2
I0731 15:05:05.556279  3582 net.cpp:129] Top shape: 1 64 1 70000 (4480000)
I0731 15:05:05.556288  3582 net.cpp:137] Memory required for data: 95760000
I0731 15:05:05.556311  3582 layer_factory.hpp:77] Creating layer bn2_relu2_0_split
I0731 15:05:05.556326  3582 net.cpp:84] Creating Layer bn2_relu2_0_split
I0731 15:05:05.556334  3582 net.cpp:406] bn2_relu2_0_split <- bn2
I0731 15:05:05.556361  3582 net.cpp:380] bn2_relu2_0_split -> bn2_relu2_0_split_0
I0731 15:05:05.556378  3582 net.cpp:380] bn2_relu2_0_split -> bn2_relu2_0_split_1
I0731 15:05:05.556463  3582 net.cpp:122] Setting up bn2_relu2_0_split
I0731 15:05:05.556483  3582 net.cpp:129] Top shape: 1 64 1 70000 (4480000)
I0731 15:05:05.556491  3582 net.cpp:129] Top shape: 1 64 1 70000 (4480000)
I0731 15:05:05.556497  3582 net.cpp:137] Memory required for data: 131600000
I0731 15:05:05.556504  3582 layer_factory.hpp:77] Creating layer data_lattice1
I0731 15:05:05.556565  3582 net.cpp:84] Creating Layer data_lattice1
I0731 15:05:05.556583  3582 net.cpp:406] data_lattice1 <- data_data_0_split_2
I0731 15:05:05.556596  3582 net.cpp:380] data_lattice1 -> data_lattice1
I0731 15:05:05.559056  3582 net.cpp:122] Setting up data_lattice1
I0731 15:05:05.559089  3582 net.cpp:129] Top shape: 1 3 1 70000 (210000)
I0731 15:05:05.559098  3582 net.cpp:137] Memory required for data: 132440000
I0731 15:05:05.559108  3582 layer_factory.hpp:77] Creating layer data_lattice1_data_lattice1_0_split
I0731 15:05:05.559121  3582 net.cpp:84] Creating Layer data_lattice1_data_lattice1_0_split
I0731 15:05:05.559130  3582 net.cpp:406] data_lattice1_data_lattice1_0_split <- data_lattice1
I0731 15:05:05.559144  3582 net.cpp:380] data_lattice1_data_lattice1_0_split -> data_lattice1_data_lattice1_0_split_0
I0731 15:05:05.559159  3582 net.cpp:380] data_lattice1_data_lattice1_0_split -> data_lattice1_data_lattice1_0_split_1
I0731 15:05:05.559236  3582 net.cpp:122] Setting up data_lattice1_data_lattice1_0_split
I0731 15:05:05.559254  3582 net.cpp:129] Top shape: 1 3 1 70000 (210000)
I0731 15:05:05.559262  3582 net.cpp:129] Top shape: 1 3 1 70000 (210000)
I0731 15:05:05.559268  3582 net.cpp:137] Memory required for data: 134120000
I0731 15:05:05.559275  3582 layer_factory.hpp:77] Creating layer fconv2
I0731 15:05:05.559309  3582 net.cpp:84] Creating Layer fconv2
I0731 15:05:05.559322  3582 net.cpp:406] fconv2 <- data_lattice1_data_lattice1_0_split_0
I0731 15:05:05.559336  3582 net.cpp:380] fconv2 -> fconv2
I0731 15:05:05.562728  3582 net.cpp:122] Setting up fconv2
I0731 15:05:05.562760  3582 net.cpp:129] Top shape: 1 3 1 70000 (210000)
I0731 15:05:05.562768  3582 net.cpp:137] Memory required for data: 134960000
I0731 15:05:05.562804  3582 layer_factory.hpp:77] Creating layer fbn2
I0731 15:05:05.562821  3582 net.cpp:84] Creating Layer fbn2
I0731 15:05:05.562829  3582 net.cpp:406] fbn2 <- fconv2
I0731 15:05:05.562842  3582 net.cpp:380] fbn2 -> fbn2
I0731 15:05:05.563326  3582 net.cpp:122] Setting up fbn2
I0731 15:05:05.563359  3582 net.cpp:129] Top shape: 1 3 1 70000 (210000)
I0731 15:05:05.563367  3582 net.cpp:137] Memory required for data: 135800000
I0731 15:05:05.563383  3582 layer_factory.hpp:77] Creating layer frelu2
I0731 15:05:05.563406  3582 net.cpp:84] Creating Layer frelu2
I0731 15:05:05.563416  3582 net.cpp:406] frelu2 <- fbn2
I0731 15:05:05.563426  3582 net.cpp:367] frelu2 -> fbn2 (in-place)
I0731 15:05:05.563968  3582 net.cpp:122] Setting up frelu2
I0731 15:05:05.563993  3582 net.cpp:129] Top shape: 1 3 1 70000 (210000)
I0731 15:05:05.564002  3582 net.cpp:137] Memory required for data: 136640000
I0731 15:05:05.564008  3582 layer_factory.hpp:77] Creating layer feat2
I0731 15:05:05.564021  3582 net.cpp:84] Creating Layer feat2
I0731 15:05:05.564029  3582 net.cpp:406] feat2 <- data_lattice1_data_lattice1_0_split_1
I0731 15:05:05.564040  3582 net.cpp:406] feat2 <- fbn2
I0731 15:05:05.564052  3582 net.cpp:380] feat2 -> feat2
I0731 15:05:05.564107  3582 net.cpp:122] Setting up feat2
I0731 15:05:05.564124  3582 net.cpp:129] Top shape: 1 3 1 70000 (210000)
I0731 15:05:05.564131  3582 net.cpp:137] Memory required for data: 137480000
I0731 15:05:05.564137  3582 layer_factory.hpp:77] Creating layer feat2_feat2_0_split
I0731 15:05:05.564148  3582 net.cpp:84] Creating Layer feat2_feat2_0_split
I0731 15:05:05.564155  3582 net.cpp:406] feat2_feat2_0_split <- feat2
I0731 15:05:05.564167  3582 net.cpp:380] feat2_feat2_0_split -> feat2_feat2_0_split_0
I0731 15:05:05.564180  3582 net.cpp:380] feat2_feat2_0_split -> feat2_feat2_0_split_1
I0731 15:05:05.564251  3582 net.cpp:122] Setting up feat2_feat2_0_split
I0731 15:05:05.564267  3582 net.cpp:129] Top shape: 1 3 1 70000 (210000)
I0731 15:05:05.564276  3582 net.cpp:129] Top shape: 1 3 1 70000 (210000)
I0731 15:05:05.564281  3582 net.cpp:137] Memory required for data: 139160000
I0731 15:05:05.564301  3582 layer_factory.hpp:77] Creating layer conv3
I0731 15:05:05.564326  3582 net.cpp:84] Creating Layer conv3
I0731 15:05:05.564337  3582 net.cpp:406] conv3 <- bn2_relu2_0_split_0
I0731 15:05:05.564357  3582 net.cpp:406] conv3 <- feat2_feat2_0_split_0
I0731 15:05:05.564366  3582 net.cpp:406] conv3 <- feat2_feat2_0_split_1
I0731 15:05:05.564379  3582 net.cpp:380] conv3 -> conv3
I0731 15:05:05.595331  3582 net.cpp:122] Setting up conv3
I0731 15:05:05.595365  3582 net.cpp:129] Top shape: 1 128 1 70000 (8960000)
I0731 15:05:05.595371  3582 net.cpp:137] Memory required for data: 175000000
I0731 15:05:05.595382  3582 layer_factory.hpp:77] Creating layer bn3
I0731 15:05:05.595394  3582 net.cpp:84] Creating Layer bn3
I0731 15:05:05.595402  3582 net.cpp:406] bn3 <- conv3
I0731 15:05:05.595412  3582 net.cpp:380] bn3 -> bn3
I0731 15:05:05.595774  3582 net.cpp:122] Setting up bn3
I0731 15:05:05.595791  3582 net.cpp:129] Top shape: 1 128 1 70000 (8960000)
I0731 15:05:05.595798  3582 net.cpp:137] Memory required for data: 210840000
I0731 15:05:05.595809  3582 layer_factory.hpp:77] Creating layer relu3
I0731 15:05:05.595819  3582 net.cpp:84] Creating Layer relu3
I0731 15:05:05.595825  3582 net.cpp:406] relu3 <- bn3
I0731 15:05:05.595834  3582 net.cpp:367] relu3 -> bn3 (in-place)
I0731 15:05:05.596822  3582 net.cpp:122] Setting up relu3
I0731 15:05:05.596848  3582 net.cpp:129] Top shape: 1 128 1 70000 (8960000)
I0731 15:05:05.596854  3582 net.cpp:137] Memory required for data: 246680000
I0731 15:05:05.596860  3582 layer_factory.hpp:77] Creating layer bn3_relu3_0_split
I0731 15:05:05.596871  3582 net.cpp:84] Creating Layer bn3_relu3_0_split
I0731 15:05:05.596877  3582 net.cpp:406] bn3_relu3_0_split <- bn3
I0731 15:05:05.596889  3582 net.cpp:380] bn3_relu3_0_split -> bn3_relu3_0_split_0
I0731 15:05:05.596901  3582 net.cpp:380] bn3_relu3_0_split -> bn3_relu3_0_split_1
I0731 15:05:05.596967  3582 net.cpp:122] Setting up bn3_relu3_0_split
I0731 15:05:05.596982  3582 net.cpp:129] Top shape: 1 128 1 70000 (8960000)
I0731 15:05:05.596989  3582 net.cpp:129] Top shape: 1 128 1 70000 (8960000)
I0731 15:05:05.596993  3582 net.cpp:137] Memory required for data: 318360000
I0731 15:05:05.597012  3582 layer_factory.hpp:77] Creating layer data_lattice2
I0731 15:05:05.597066  3582 net.cpp:84] Creating Layer data_lattice2
I0731 15:05:05.597082  3582 net.cpp:406] data_lattice2 <- data_data_0_split_3
I0731 15:05:05.597095  3582 net.cpp:380] data_lattice2 -> data_lattice2
I0731 15:05:05.599130  3582 net.cpp:122] Setting up data_lattice2
I0731 15:05:05.599156  3582 net.cpp:129] Top shape: 1 3 1 70000 (210000)
I0731 15:05:05.599162  3582 net.cpp:137] Memory required for data: 319200000
I0731 15:05:05.599169  3582 layer_factory.hpp:77] Creating layer data_lattice2_data_lattice2_0_split
I0731 15:05:05.599180  3582 net.cpp:84] Creating Layer data_lattice2_data_lattice2_0_split
I0731 15:05:05.599187  3582 net.cpp:406] data_lattice2_data_lattice2_0_split <- data_lattice2
I0731 15:05:05.599198  3582 net.cpp:380] data_lattice2_data_lattice2_0_split -> data_lattice2_data_lattice2_0_split_0
I0731 15:05:05.599212  3582 net.cpp:380] data_lattice2_data_lattice2_0_split -> data_lattice2_data_lattice2_0_split_1
I0731 15:05:05.599275  3582 net.cpp:122] Setting up data_lattice2_data_lattice2_0_split
I0731 15:05:05.599289  3582 net.cpp:129] Top shape: 1 3 1 70000 (210000)
I0731 15:05:05.599297  3582 net.cpp:129] Top shape: 1 3 1 70000 (210000)
I0731 15:05:05.599300  3582 net.cpp:137] Memory required for data: 320880000
I0731 15:05:05.599306  3582 layer_factory.hpp:77] Creating layer fconv3
I0731 15:05:05.599323  3582 net.cpp:84] Creating Layer fconv3
I0731 15:05:05.599329  3582 net.cpp:406] fconv3 <- data_lattice2_data_lattice2_0_split_0
I0731 15:05:05.599341  3582 net.cpp:380] fconv3 -> fconv3
I0731 15:05:05.602434  3582 net.cpp:122] Setting up fconv3
I0731 15:05:05.602459  3582 net.cpp:129] Top shape: 1 3 1 70000 (210000)
I0731 15:05:05.602466  3582 net.cpp:137] Memory required for data: 321720000
I0731 15:05:05.602478  3582 layer_factory.hpp:77] Creating layer fbn3
I0731 15:05:05.602494  3582 net.cpp:84] Creating Layer fbn3
I0731 15:05:05.602501  3582 net.cpp:406] fbn3 <- fconv3
I0731 15:05:05.602511  3582 net.cpp:380] fbn3 -> fbn3
I0731 15:05:05.602887  3582 net.cpp:122] Setting up fbn3
I0731 15:05:05.602905  3582 net.cpp:129] Top shape: 1 3 1 70000 (210000)
I0731 15:05:05.602910  3582 net.cpp:137] Memory required for data: 322560000
I0731 15:05:05.602932  3582 layer_factory.hpp:77] Creating layer frelu3
I0731 15:05:05.602943  3582 net.cpp:84] Creating Layer frelu3
I0731 15:05:05.602951  3582 net.cpp:406] frelu3 <- fbn3
I0731 15:05:05.602959  3582 net.cpp:367] frelu3 -> fbn3 (in-place)
I0731 15:05:05.603404  3582 net.cpp:122] Setting up frelu3
I0731 15:05:05.603423  3582 net.cpp:129] Top shape: 1 3 1 70000 (210000)
I0731 15:05:05.603428  3582 net.cpp:137] Memory required for data: 323400000
I0731 15:05:05.603435  3582 layer_factory.hpp:77] Creating layer feat3
I0731 15:05:05.603456  3582 net.cpp:84] Creating Layer feat3
I0731 15:05:05.603462  3582 net.cpp:406] feat3 <- data_lattice2_data_lattice2_0_split_1
I0731 15:05:05.603471  3582 net.cpp:406] feat3 <- fbn3
I0731 15:05:05.603482  3582 net.cpp:380] feat3 -> feat3
I0731 15:05:05.603528  3582 net.cpp:122] Setting up feat3
I0731 15:05:05.603543  3582 net.cpp:129] Top shape: 1 3 1 70000 (210000)
I0731 15:05:05.603547  3582 net.cpp:137] Memory required for data: 324240000
I0731 15:05:05.603551  3582 layer_factory.hpp:77] Creating layer feat3_feat3_0_split
I0731 15:05:05.603561  3582 net.cpp:84] Creating Layer feat3_feat3_0_split
I0731 15:05:05.603567  3582 net.cpp:406] feat3_feat3_0_split <- feat3
I0731 15:05:05.603576  3582 net.cpp:380] feat3_feat3_0_split -> feat3_feat3_0_split_0
I0731 15:05:05.603587  3582 net.cpp:380] feat3_feat3_0_split -> feat3_feat3_0_split_1
I0731 15:05:05.603641  3582 net.cpp:122] Setting up feat3_feat3_0_split
I0731 15:05:05.603654  3582 net.cpp:129] Top shape: 1 3 1 70000 (210000)
I0731 15:05:05.603660  3582 net.cpp:129] Top shape: 1 3 1 70000 (210000)
I0731 15:05:05.603664  3582 net.cpp:137] Memory required for data: 325920000
I0731 15:05:05.603669  3582 layer_factory.hpp:77] Creating layer conv4
I0731 15:05:05.603680  3582 net.cpp:84] Creating Layer conv4
I0731 15:05:05.603687  3582 net.cpp:406] conv4 <- bn3_relu3_0_split_0
I0731 15:05:05.603693  3582 net.cpp:406] conv4 <- feat3_feat3_0_split_0
I0731 15:05:05.603700  3582 net.cpp:406] conv4 <- feat3_feat3_0_split_1
I0731 15:05:05.603709  3582 net.cpp:380] conv4 -> conv4
I0731 15:05:05.697336  3582 net.cpp:122] Setting up conv4
I0731 15:05:05.697363  3582 net.cpp:129] Top shape: 1 256 1 70000 (17920000)
I0731 15:05:05.697369  3582 net.cpp:137] Memory required for data: 397600000
I0731 15:05:05.697389  3582 layer_factory.hpp:77] Creating layer bn4
I0731 15:05:05.697399  3582 net.cpp:84] Creating Layer bn4
I0731 15:05:05.697405  3582 net.cpp:406] bn4 <- conv4
I0731 15:05:05.697413  3582 net.cpp:380] bn4 -> bn4
I0731 15:05:05.697705  3582 net.cpp:122] Setting up bn4
I0731 15:05:05.697718  3582 net.cpp:129] Top shape: 1 256 1 70000 (17920000)
I0731 15:05:05.697722  3582 net.cpp:137] Memory required for data: 469280000
I0731 15:05:05.697739  3582 layer_factory.hpp:77] Creating layer relu4
I0731 15:05:05.697754  3582 net.cpp:84] Creating Layer relu4
I0731 15:05:05.697760  3582 net.cpp:406] relu4 <- bn4
I0731 15:05:05.697767  3582 net.cpp:367] relu4 -> bn4 (in-place)
I0731 15:05:05.698530  3582 net.cpp:122] Setting up relu4
I0731 15:05:05.698549  3582 net.cpp:129] Top shape: 1 256 1 70000 (17920000)
I0731 15:05:05.698554  3582 net.cpp:137] Memory required for data: 540960000
I0731 15:05:05.698559  3582 layer_factory.hpp:77] Creating layer bn4_relu4_0_split
I0731 15:05:05.698567  3582 net.cpp:84] Creating Layer bn4_relu4_0_split
I0731 15:05:05.698572  3582 net.cpp:406] bn4_relu4_0_split <- bn4
I0731 15:05:05.698581  3582 net.cpp:380] bn4_relu4_0_split -> bn4_relu4_0_split_0
I0731 15:05:05.698591  3582 net.cpp:380] bn4_relu4_0_split -> bn4_relu4_0_split_1
I0731 15:05:05.698642  3582 net.cpp:122] Setting up bn4_relu4_0_split
I0731 15:05:05.698653  3582 net.cpp:129] Top shape: 1 256 1 70000 (17920000)
I0731 15:05:05.698658  3582 net.cpp:129] Top shape: 1 256 1 70000 (17920000)
I0731 15:05:05.698662  3582 net.cpp:137] Memory required for data: 684320000
I0731 15:05:05.698667  3582 layer_factory.hpp:77] Creating layer data_lattice3
I0731 15:05:05.698712  3582 net.cpp:84] Creating Layer data_lattice3
I0731 15:05:05.698724  3582 net.cpp:406] data_lattice3 <- data_data_0_split_4
I0731 15:05:05.698734  3582 net.cpp:380] data_lattice3 -> data_lattice3
I0731 15:05:05.700237  3582 net.cpp:122] Setting up data_lattice3
I0731 15:05:05.700258  3582 net.cpp:129] Top shape: 1 3 1 70000 (210000)
I0731 15:05:05.700263  3582 net.cpp:137] Memory required for data: 685160000
I0731 15:05:05.700268  3582 layer_factory.hpp:77] Creating layer data_lattice3_data_lattice3_0_split
I0731 15:05:05.700276  3582 net.cpp:84] Creating Layer data_lattice3_data_lattice3_0_split
I0731 15:05:05.700281  3582 net.cpp:406] data_lattice3_data_lattice3_0_split <- data_lattice3
I0731 15:05:05.700290  3582 net.cpp:380] data_lattice3_data_lattice3_0_split -> data_lattice3_data_lattice3_0_split_0
I0731 15:05:05.700300  3582 net.cpp:380] data_lattice3_data_lattice3_0_split -> data_lattice3_data_lattice3_0_split_1
I0731 15:05:05.700356  3582 net.cpp:122] Setting up data_lattice3_data_lattice3_0_split
I0731 15:05:05.700368  3582 net.cpp:129] Top shape: 1 3 1 70000 (210000)
I0731 15:05:05.700373  3582 net.cpp:129] Top shape: 1 3 1 70000 (210000)
I0731 15:05:05.700376  3582 net.cpp:137] Memory required for data: 686840000
I0731 15:05:05.700381  3582 layer_factory.hpp:77] Creating layer fconv4
I0731 15:05:05.700393  3582 net.cpp:84] Creating Layer fconv4
I0731 15:05:05.700398  3582 net.cpp:406] fconv4 <- data_lattice3_data_lattice3_0_split_0
I0731 15:05:05.700408  3582 net.cpp:380] fconv4 -> fconv4
I0731 15:05:05.702570  3582 net.cpp:122] Setting up fconv4
I0731 15:05:05.702590  3582 net.cpp:129] Top shape: 1 3 1 70000 (210000)
I0731 15:05:05.702595  3582 net.cpp:137] Memory required for data: 687680000
I0731 15:05:05.702605  3582 layer_factory.hpp:77] Creating layer fbn4
I0731 15:05:05.702623  3582 net.cpp:84] Creating Layer fbn4
I0731 15:05:05.702630  3582 net.cpp:406] fbn4 <- fconv4
I0731 15:05:05.702637  3582 net.cpp:380] fbn4 -> fbn4
I0731 15:05:05.702936  3582 net.cpp:122] Setting up fbn4
I0731 15:05:05.702950  3582 net.cpp:129] Top shape: 1 3 1 70000 (210000)
I0731 15:05:05.702955  3582 net.cpp:137] Memory required for data: 688520000
I0731 15:05:05.702962  3582 layer_factory.hpp:77] Creating layer frelu4
I0731 15:05:05.702977  3582 net.cpp:84] Creating Layer frelu4
I0731 15:05:05.702982  3582 net.cpp:406] frelu4 <- fbn4
I0731 15:05:05.702989  3582 net.cpp:367] frelu4 -> fbn4 (in-place)
I0731 15:05:05.703327  3582 net.cpp:122] Setting up frelu4
I0731 15:05:05.703348  3582 net.cpp:129] Top shape: 1 3 1 70000 (210000)
I0731 15:05:05.703353  3582 net.cpp:137] Memory required for data: 689360000
I0731 15:05:05.703358  3582 layer_factory.hpp:77] Creating layer feat4
I0731 15:05:05.703367  3582 net.cpp:84] Creating Layer feat4
I0731 15:05:05.703372  3582 net.cpp:406] feat4 <- data_lattice3_data_lattice3_0_split_1
I0731 15:05:05.703378  3582 net.cpp:406] feat4 <- fbn4
I0731 15:05:05.703387  3582 net.cpp:380] feat4 -> feat4
I0731 15:05:05.703429  3582 net.cpp:122] Setting up feat4
I0731 15:05:05.703438  3582 net.cpp:129] Top shape: 1 3 1 70000 (210000)
I0731 15:05:05.703441  3582 net.cpp:137] Memory required for data: 690200000
I0731 15:05:05.703444  3582 layer_factory.hpp:77] Creating layer feat4_feat4_0_split
I0731 15:05:05.703452  3582 net.cpp:84] Creating Layer feat4_feat4_0_split
I0731 15:05:05.703456  3582 net.cpp:406] feat4_feat4_0_split <- feat4
I0731 15:05:05.703464  3582 net.cpp:380] feat4_feat4_0_split -> feat4_feat4_0_split_0
I0731 15:05:05.703472  3582 net.cpp:380] feat4_feat4_0_split -> feat4_feat4_0_split_1
I0731 15:05:05.703516  3582 net.cpp:122] Setting up feat4_feat4_0_split
I0731 15:05:05.703527  3582 net.cpp:129] Top shape: 1 3 1 70000 (210000)
I0731 15:05:05.703532  3582 net.cpp:129] Top shape: 1 3 1 70000 (210000)
I0731 15:05:05.703536  3582 net.cpp:137] Memory required for data: 691880000
I0731 15:05:05.703539  3582 layer_factory.hpp:77] Creating layer conv5
I0731 15:05:05.703557  3582 net.cpp:84] Creating Layer conv5
I0731 15:05:05.703562  3582 net.cpp:406] conv5 <- bn4_relu4_0_split_0
I0731 15:05:05.703569  3582 net.cpp:406] conv5 <- feat4_feat4_0_split_0
I0731 15:05:05.703574  3582 net.cpp:406] conv5 <- feat4_feat4_0_split_1
I0731 15:05:05.703583  3582 net.cpp:380] conv5 -> conv5
I0731 15:05:05.866487  3582 net.cpp:122] Setting up conv5
I0731 15:05:05.866525  3582 net.cpp:129] Top shape: 1 256 1 70000 (17920000)
I0731 15:05:05.866531  3582 net.cpp:137] Memory required for data: 763560000
I0731 15:05:05.866544  3582 layer_factory.hpp:77] Creating layer bn5
I0731 15:05:05.866559  3582 net.cpp:84] Creating Layer bn5
I0731 15:05:05.866566  3582 net.cpp:406] bn5 <- conv5
I0731 15:05:05.866576  3582 net.cpp:380] bn5 -> bn5
I0731 15:05:05.866890  3582 net.cpp:122] Setting up bn5
I0731 15:05:05.866902  3582 net.cpp:129] Top shape: 1 256 1 70000 (17920000)
I0731 15:05:05.866907  3582 net.cpp:137] Memory required for data: 835240000
I0731 15:05:05.866916  3582 layer_factory.hpp:77] Creating layer relu5
I0731 15:05:05.866925  3582 net.cpp:84] Creating Layer relu5
I0731 15:05:05.866930  3582 net.cpp:406] relu5 <- bn5
I0731 15:05:05.866937  3582 net.cpp:367] relu5 -> bn5 (in-place)
I0731 15:05:05.867806  3582 net.cpp:122] Setting up relu5
I0731 15:05:05.867825  3582 net.cpp:129] Top shape: 1 256 1 70000 (17920000)
I0731 15:05:05.867830  3582 net.cpp:137] Memory required for data: 906920000
I0731 15:05:05.867835  3582 layer_factory.hpp:77] Creating layer bn5_relu5_0_split
I0731 15:05:05.867844  3582 net.cpp:84] Creating Layer bn5_relu5_0_split
I0731 15:05:05.867849  3582 net.cpp:406] bn5_relu5_0_split <- bn5
I0731 15:05:05.867857  3582 net.cpp:380] bn5_relu5_0_split -> bn5_relu5_0_split_0
I0731 15:05:05.867867  3582 net.cpp:380] bn5_relu5_0_split -> bn5_relu5_0_split_1
I0731 15:05:05.867920  3582 net.cpp:122] Setting up bn5_relu5_0_split
I0731 15:05:05.867933  3582 net.cpp:129] Top shape: 1 256 1 70000 (17920000)
I0731 15:05:05.867938  3582 net.cpp:129] Top shape: 1 256 1 70000 (17920000)
I0731 15:05:05.867940  3582 net.cpp:137] Memory required for data: 1050280000
I0731 15:05:05.867944  3582 layer_factory.hpp:77] Creating layer data_lattice4
I0731 15:05:05.868022  3582 net.cpp:84] Creating Layer data_lattice4
I0731 15:05:05.868034  3582 net.cpp:406] data_lattice4 <- data_data_0_split_5
I0731 15:05:05.868043  3582 net.cpp:380] data_lattice4 -> data_lattice4
I0731 15:05:05.869601  3582 net.cpp:122] Setting up data_lattice4
I0731 15:05:05.869621  3582 net.cpp:129] Top shape: 1 3 1 70000 (210000)
I0731 15:05:05.869626  3582 net.cpp:137] Memory required for data: 1051120000
I0731 15:05:05.869632  3582 layer_factory.hpp:77] Creating layer data_lattice4_data_lattice4_0_split
I0731 15:05:05.869640  3582 net.cpp:84] Creating Layer data_lattice4_data_lattice4_0_split
I0731 15:05:05.869647  3582 net.cpp:406] data_lattice4_data_lattice4_0_split <- data_lattice4
I0731 15:05:05.869654  3582 net.cpp:380] data_lattice4_data_lattice4_0_split -> data_lattice4_data_lattice4_0_split_0
I0731 15:05:05.869665  3582 net.cpp:380] data_lattice4_data_lattice4_0_split -> data_lattice4_data_lattice4_0_split_1
I0731 15:05:05.869712  3582 net.cpp:122] Setting up data_lattice4_data_lattice4_0_split
I0731 15:05:05.869724  3582 net.cpp:129] Top shape: 1 3 1 70000 (210000)
I0731 15:05:05.869729  3582 net.cpp:129] Top shape: 1 3 1 70000 (210000)
I0731 15:05:05.869732  3582 net.cpp:137] Memory required for data: 1052800000
I0731 15:05:05.869736  3582 layer_factory.hpp:77] Creating layer fconv5
I0731 15:05:05.869750  3582 net.cpp:84] Creating Layer fconv5
I0731 15:05:05.869755  3582 net.cpp:406] fconv5 <- data_lattice4_data_lattice4_0_split_0
I0731 15:05:05.869765  3582 net.cpp:380] fconv5 -> fconv5
I0731 15:05:05.871958  3582 net.cpp:122] Setting up fconv5
I0731 15:05:05.871976  3582 net.cpp:129] Top shape: 1 3 1 70000 (210000)
I0731 15:05:05.871982  3582 net.cpp:137] Memory required for data: 1053640000
I0731 15:05:05.872000  3582 layer_factory.hpp:77] Creating layer fbn5
I0731 15:05:05.872011  3582 net.cpp:84] Creating Layer fbn5
I0731 15:05:05.872016  3582 net.cpp:406] fbn5 <- fconv5
I0731 15:05:05.872025  3582 net.cpp:380] fbn5 -> fbn5
I0731 15:05:05.872323  3582 net.cpp:122] Setting up fbn5
I0731 15:05:05.872336  3582 net.cpp:129] Top shape: 1 3 1 70000 (210000)
I0731 15:05:05.872340  3582 net.cpp:137] Memory required for data: 1054480000
I0731 15:05:05.872357  3582 layer_factory.hpp:77] Creating layer frelu5
I0731 15:05:05.872373  3582 net.cpp:84] Creating Layer frelu5
I0731 15:05:05.872378  3582 net.cpp:406] frelu5 <- fbn5
I0731 15:05:05.872386  3582 net.cpp:367] frelu5 -> fbn5 (in-place)
I0731 15:05:05.873113  3582 net.cpp:122] Setting up frelu5
I0731 15:05:05.873132  3582 net.cpp:129] Top shape: 1 3 1 70000 (210000)
I0731 15:05:05.873136  3582 net.cpp:137] Memory required for data: 1055320000
I0731 15:05:05.873142  3582 layer_factory.hpp:77] Creating layer feat5
I0731 15:05:05.873152  3582 net.cpp:84] Creating Layer feat5
I0731 15:05:05.873157  3582 net.cpp:406] feat5 <- data_lattice4_data_lattice4_0_split_1
I0731 15:05:05.873164  3582 net.cpp:406] feat5 <- fbn5
I0731 15:05:05.873173  3582 net.cpp:380] feat5 -> feat5
I0731 15:05:05.873211  3582 net.cpp:122] Setting up feat5
I0731 15:05:05.873224  3582 net.cpp:129] Top shape: 1 3 1 70000 (210000)
I0731 15:05:05.873227  3582 net.cpp:137] Memory required for data: 1056160000
I0731 15:05:05.873231  3582 layer_factory.hpp:77] Creating layer feat5_feat5_0_split
I0731 15:05:05.873239  3582 net.cpp:84] Creating Layer feat5_feat5_0_split
I0731 15:05:05.873244  3582 net.cpp:406] feat5_feat5_0_split <- feat5
I0731 15:05:05.873251  3582 net.cpp:380] feat5_feat5_0_split -> feat5_feat5_0_split_0
I0731 15:05:05.873260  3582 net.cpp:380] feat5_feat5_0_split -> feat5_feat5_0_split_1
I0731 15:05:05.873304  3582 net.cpp:122] Setting up feat5_feat5_0_split
I0731 15:05:05.873314  3582 net.cpp:129] Top shape: 1 3 1 70000 (210000)
I0731 15:05:05.873319  3582 net.cpp:129] Top shape: 1 3 1 70000 (210000)
I0731 15:05:05.873322  3582 net.cpp:137] Memory required for data: 1057840000
I0731 15:05:05.873327  3582 layer_factory.hpp:77] Creating layer conv6
I0731 15:05:05.873337  3582 net.cpp:84] Creating Layer conv6
I0731 15:05:05.873342  3582 net.cpp:406] conv6 <- bn5_relu5_0_split_0
I0731 15:05:05.873354  3582 net.cpp:406] conv6 <- feat5_feat5_0_split_0
I0731 15:05:05.873359  3582 net.cpp:406] conv6 <- feat5_feat5_0_split_1
I0731 15:05:05.873368  3582 net.cpp:380] conv6 -> conv6
I0731 15:05:06.036444  3582 net.cpp:122] Setting up conv6
I0731 15:05:06.036479  3582 net.cpp:129] Top shape: 1 256 1 70000 (17920000)
I0731 15:05:06.036484  3582 net.cpp:137] Memory required for data: 1129520000
I0731 15:05:06.036496  3582 layer_factory.hpp:77] Creating layer bn6
I0731 15:05:06.036509  3582 net.cpp:84] Creating Layer bn6
I0731 15:05:06.036515  3582 net.cpp:406] bn6 <- conv6
I0731 15:05:06.036525  3582 net.cpp:380] bn6 -> bn6
I0731 15:05:06.036844  3582 net.cpp:122] Setting up bn6
I0731 15:05:06.036855  3582 net.cpp:129] Top shape: 1 256 1 70000 (17920000)
I0731 15:05:06.036860  3582 net.cpp:137] Memory required for data: 1201200000
I0731 15:05:06.036870  3582 layer_factory.hpp:77] Creating layer relu6
I0731 15:05:06.036892  3582 net.cpp:84] Creating Layer relu6
I0731 15:05:06.036898  3582 net.cpp:406] relu6 <- bn6
I0731 15:05:06.036906  3582 net.cpp:367] relu6 -> bn6 (in-place)
I0731 15:05:06.037304  3582 net.cpp:122] Setting up relu6
I0731 15:05:06.037319  3582 net.cpp:129] Top shape: 1 256 1 70000 (17920000)
I0731 15:05:06.037323  3582 net.cpp:137] Memory required for data: 1272880000
I0731 15:05:06.037336  3582 layer_factory.hpp:77] Creating layer concat6
I0731 15:05:06.037413  3582 net.cpp:84] Creating Layer concat6
I0731 15:05:06.037425  3582 net.cpp:406] concat6 <- bn6
I0731 15:05:06.037432  3582 net.cpp:406] concat6 <- bn2_relu2_0_split_1
I0731 15:05:06.037438  3582 net.cpp:406] concat6 <- bn3_relu3_0_split_1
I0731 15:05:06.037444  3582 net.cpp:406] concat6 <- bn4_relu4_0_split_1
I0731 15:05:06.037448  3582 net.cpp:406] concat6 <- bn5_relu5_0_split_1
I0731 15:05:06.037456  3582 net.cpp:380] concat6 -> concat6
I0731 15:05:06.037518  3582 net.cpp:122] Setting up concat6
I0731 15:05:06.037531  3582 net.cpp:129] Top shape: 1 960 1 70000 (67200000)
I0731 15:05:06.037535  3582 net.cpp:137] Memory required for data: 1541680000
I0731 15:05:06.037540  3582 layer_factory.hpp:77] Creating layer conv7
I0731 15:05:06.037561  3582 net.cpp:84] Creating Layer conv7
I0731 15:05:06.037567  3582 net.cpp:406] conv7 <- concat6
I0731 15:05:06.037576  3582 net.cpp:380] conv7 -> conv7
I0731 15:05:06.044804  3582 net.cpp:122] Setting up conv7
I0731 15:05:06.044824  3582 net.cpp:129] Top shape: 1 128 1 70000 (8960000)
I0731 15:05:06.044831  3582 net.cpp:137] Memory required for data: 1577520000
I0731 15:05:06.044840  3582 layer_factory.hpp:77] Creating layer bn7
I0731 15:05:06.044849  3582 net.cpp:84] Creating Layer bn7
I0731 15:05:06.044854  3582 net.cpp:406] bn7 <- conv7
I0731 15:05:06.044862  3582 net.cpp:380] bn7 -> bn7
I0731 15:05:06.045162  3582 net.cpp:122] Setting up bn7
I0731 15:05:06.045176  3582 net.cpp:129] Top shape: 1 128 1 70000 (8960000)
I0731 15:05:06.045181  3582 net.cpp:137] Memory required for data: 1613360000
I0731 15:05:06.045189  3582 layer_factory.hpp:77] Creating layer relu7
I0731 15:05:06.045207  3582 net.cpp:84] Creating Layer relu7
I0731 15:05:06.045213  3582 net.cpp:406] relu7 <- bn7
I0731 15:05:06.045220  3582 net.cpp:367] relu7 -> bn7 (in-place)
I0731 15:05:06.046360  3582 net.cpp:122] Setting up relu7
I0731 15:05:06.046377  3582 net.cpp:129] Top shape: 1 128 1 70000 (8960000)
I0731 15:05:06.046383  3582 net.cpp:137] Memory required for data: 1649200000
I0731 15:05:06.046389  3582 layer_factory.hpp:77] Creating layer conv8
I0731 15:05:06.046413  3582 net.cpp:84] Creating Layer conv8
I0731 15:05:06.046419  3582 net.cpp:406] conv8 <- bn7
I0731 15:05:06.046429  3582 net.cpp:380] conv8 -> conv8
I0731 15:05:06.050743  3582 net.cpp:122] Setting up conv8
I0731 15:05:06.050765  3582 net.cpp:129] Top shape: 1 13 1 70000 (910000)
I0731 15:05:06.050770  3582 net.cpp:137] Memory required for data: 1652840000
I0731 15:05:06.050779  3582 layer_factory.hpp:77] Creating layer conv8_conv8_0_split
I0731 15:05:06.050791  3582 net.cpp:84] Creating Layer conv8_conv8_0_split
I0731 15:05:06.050796  3582 net.cpp:406] conv8_conv8_0_split <- conv8
I0731 15:05:06.050803  3582 net.cpp:380] conv8_conv8_0_split -> conv8_conv8_0_split_0
I0731 15:05:06.050813  3582 net.cpp:380] conv8_conv8_0_split -> conv8_conv8_0_split_1
I0731 15:05:06.050870  3582 net.cpp:122] Setting up conv8_conv8_0_split
I0731 15:05:06.050882  3582 net.cpp:129] Top shape: 1 13 1 70000 (910000)
I0731 15:05:06.050887  3582 net.cpp:129] Top shape: 1 13 1 70000 (910000)
I0731 15:05:06.050891  3582 net.cpp:137] Memory required for data: 1660120000
I0731 15:05:06.050899  3582 layer_factory.hpp:77] Creating layer loss
I0731 15:05:06.050947  3582 net.cpp:84] Creating Layer loss
I0731 15:05:06.050959  3582 net.cpp:406] loss <- conv8_conv8_0_split_0
I0731 15:05:06.050966  3582 net.cpp:406] loss <- label_data_1_split_0
I0731 15:05:06.050973  3582 net.cpp:380] loss -> loss
…
