…
I0817 13:12:45.299180  9291 net.cpp:294] The NetState phase (0) differed from the phase (1) specified by a rule in layer data
I0817 13:12:45.299638  9291 net.cpp:51] Initializing net from parameters: 
state {
  phase: TRAIN
}
layer {
  name: "data"
  type: "Python"
  top: "data"
  top: "label"
  include {
    phase: TRAIN
  }
  python_param {
    module: "dataset_lidar"
    layer: "InputShapenet"
    param_str: "{\'sample_size\': 4096, \'test_area\': \'6\', \'batch_size\': 12, \'feat_dims\': \'x_y_z_r_g_b\', \'subset\': \'train\', \'root\': \'../../data/shapenet_ericyi_ply\', \'jitter_xyz\': 0.01, \'jitter_stretch\': 0.05, \'jitter_rotation\': 5.0}"
  }
}
layer {
  name: "data_feat"
  type: "Python"
  bottom: "data"
  top: "data_feat"
  python_param {
    module: "custom_layers"
    layer: "PickAndScale2"
    param_str: "0_1_2"
  }
}
layer {
  name: "conv1"
  type: "Convolution"
  bottom: "data"
  top: "conv1"
  param {
    lr_mult: 1
  }
  param {
    lr_mult: 0.1
  }
  convolution_param {
    num_output: 64
    pad: 0
    kernel_size: 1
    stride: 1
    weight_filler {
      type: "xavier"
    }
    bias_filler {
      type: "constant"
      value: 0
    }
  }
}
layer {
  name: "bn1"
  type: "BatchNorm"
  bottom: "conv1"
  top: "bn1"
}
layer {
  name: "relu1"
  type: "ReLU"
  bottom: "bn1"
  top: "bn1"
}
layer {
  name: "conv1a"
  type: "Convolution"
  bottom: "bn1"
  top: "conv1a"
  param {
    lr_mult: 1
  }
  param {
    lr_mult: 0.1
  }
  convolution_param {
    num_output: 64
    pad: 0
    kernel_size: 1
    stride: 1
    weight_filler {
      type: "xavier"
    }
    bias_filler {
      type: "constant"
      value: 0
    }
  }
}
layer {
  name: "bn1a"
  type: "BatchNorm"
  bottom: "conv1a"
  top: "bn1a"
}
layer {
  name: "relu1a"
  type: "ReLU"
  bottom: "bn1a"
  top: "bn1a"
}
layer {
  name: "fconv1"
  type: "Convolution"
  bottom: "bn1a"
  top: "fconv1"
  param {
    lr_mult: 1
  }
  param {
    lr_mult: 0.1
  }
  convolution_param {
    num_output: 3
    pad: 0
    kernel_size: 1
    stride: 1
    weight_filler {
      type: "xavier"
    }
    bias_filler {
      type: "constant"
      value: 0
    }
  }
}
layer {
  name: "fconv1_"
  type: "ReLU2"
  bottom: "fconv1"
  top: "fconv1_"
  relu2_param {
    threshold: 0.02
  }
}
layer {
  name: "fconv1__"
  type: "ReLU3"
  bottom: "fconv1_"
  top: "fconv1__"
  relu2_param {
    threshold: -0.02
  }
}
layer {
  name: "feat1"
  type: "Eltwise"
  bottom: "data_feat"
  bottom: "fconv1__"
  top: "feat1"
  eltwise_param {
    operation: SUM
  }
}
layer {
  name: "data_lattice0"
  type: "Python"
  bottom: "feat1"
  top: "data_lattice0"
  python_param {
    module: "custom_layers"
    layer: "PickAndScale2"
    param_str: "0*48_1*48_2*48"
  }
}
layer {
  name: "conv2"
  type: "Permutohedral"
  bottom: "bn1a"
  bottom: "data_lattice0"
  bottom: "data_lattice0"
  top: "conv2"
  param {
    lr_mult: 1
    decay_mult: 1
  }
  param {
    lr_mult: 2
    decay_mult: 0
  }
  permutohedral_param {
    num_output: 64
    neighborhood_size: 1
    filter_filler {
      type: "gaussian"
      std: 0.001
    }
    bias_term: true
    bias_filler {
      type: "constant"
      value: 0
    }
    group: 1
    norm_type: AFTER
    offset_type: NONE
  }
}
layer {
  name: "bn2"
  type: "BatchNorm"
  bottom: "conv2"
  top: "bn2"
}
layer {
  name: "relu2"
  type: "ReLU"
  bottom: "bn2"
  top: "bn2"
}
layer {
  name: "fconv2"
  type: "Convolution"
  bottom: "bn2"
  top: "fconv2"
  param {
    lr_mult: 1
  }
  param {
    lr_mult: 0.1
  }
  convolution_param {
    num_output: 3
    pad: 0
    kernel_size: 1
    stride: 1
    weight_filler {
      type: "xavier"
    }
    bias_filler {
      type: "constant"
      value: 0
    }
  }
}
layer {
  name: "fconv2_"
  type: "ReLU2"
  bottom: "fconv2"
  top: "fconv2_"
  relu2_param {
    threshold: 0.02
  }
}
layer {
  name: "fconv2__"
  type: "ReLU3"
  bottom: "fconv2_"
  top: "fconv2__"
  relu2_param {
    threshold: -0.02
  }
}
layer {
  name: "feat2"
  type: "Eltwise"
  bottom: "data_feat"
  bottom: "fconv2__"
  top: "feat2"
  eltwise_param {
    operation: SUM
  }
}
layer {
  name: "data_lattice1"
  type: "Python"
  bottom: "feat2"
  top: "data_lattice1"
  python_param {
    module: "custom_layers"
    layer: "PickAndScale2"
    param_str: "0*24_1*24_2*24"
  }
}
layer {
  name: "conv3"
  type: "Permutohedral"
  bottom: "bn2"
  bottom: "data_lattice1"
  bottom: "data_lattice1"
  top: "conv3"
  param {
    lr_mult: 1
    decay_mult: 1
  }
  param {
    lr_mult: 2
    decay_mult: 0
  }
  permutohedral_param {
    num_output: 128
    neighborhood_size: 1
    filter_filler {
      type: "gaussian"
      std: 0.001
    }
    bias_term: true
    bias_filler {
      type: "constant"
      value: 0
    }
    group: 1
    norm_type: AFTER
    offset_type: NONE
  }
}
layer {
  name: "bn3"
  type: "BatchNorm"
  bottom: "conv3"
  top: "bn3"
}
layer {
  name: "relu3"
  type: "ReLU"
  bottom: "bn3"
  top: "bn3"
}
layer {
  name: "fconv3"
  type: "Convolution"
  bottom: "bn3"
  top: "fconv3"
  param {
    lr_mult: 1
  }
  param {
    lr_mult: 0.1
  }
  convolution_param {
    num_output: 3
    pad: 0
    kernel_size: 1
    stride: 1
    weight_filler {
      type: "xavier"
    }
    bias_filler {
      type: "constant"
      value: 0
    }
  }
}
layer {
  name: "fconv3_"
  type: "ReLU2"
  bottom: "fconv3"
  top: "fconv3_"
  relu2_param {
    threshold: 0.02
  }
}
layer {
  name: "fconv3__"
  type: "ReLU3"
  bottom: "fconv3_"
  top: "fconv3__"
  relu2_param {
    threshold: -0.02
  }
}
layer {
  name: "feat3"
  type: "Eltwise"
  bottom: "data_feat"
  bottom: "fconv3__"
  top: "feat3"
  eltwise_param {
    operation: SUM
  }
}
layer {
  name: "data_lattice2"
  type: "Python"
  bottom: "feat3"
  top: "data_lattice2"
  python_param {
    module: "custom_layers"
    layer: "PickAndScale2"
    param_str: "0*12_1*12_2*12"
  }
}
layer {
  name: "conv4"
  type: "Permutohedral"
  bottom: "bn3"
  bottom: "data_lattice2"
  bottom: "data_lattice2"
  top: "conv4"
  param {
    lr_mult: 1
    decay_mult: 1
  }
  param {
    lr_mult: 2
    decay_mult: 0
  }
  permutohedral_param {
    num_output: 256
    neighborhood_size: 1
    filter_filler {
      type: "gaussian"
      std: 0.001
    }
    bias_term: true
    bias_filler {
      type: "constant"
      value: 0
    }
    group: 1
    norm_type: AFTER
    offset_type: NONE
  }
}
layer {
  name: "bn4"
  type: "BatchNorm"
  bottom: "conv4"
  top: "bn4"
}
layer {
  name: "relu4"
  type: "ReLU"
  bottom: "bn4"
  top: "bn4"
}
layer {
  name: "fconv4"
  type: "Convolution"
  bottom: "bn4"
  top: "fconv4"
  param {
    lr_mult: 1
  }
  param {
    lr_mult: 0.1
  }
  convolution_param {
    num_output: 3
    pad: 0
    kernel_size: 1
    stride: 1
    weight_filler {
      type: "xavier"
    }
    bias_filler {
      type: "constant"
      value: 0
    }
  }
}
layer {
  name: "fconv4_"
  type: "ReLU2"
  bottom: "fconv4"
  top: "fconv4_"
  relu2_param {
    threshold: 0.02
  }
}
layer {
  name: "fconv4__"
  type: "ReLU3"
  bottom: "fconv4_"
  top: "fconv4__"
  relu2_param {
    threshold: -0.02
  }
}
layer {
  name: "feat4"
  type: "Eltwise"
  bottom: "data_feat"
  bottom: "fconv4__"
  top: "feat4"
  eltwise_param {
    operation: SUM
  }
}
layer {
  name: "data_lattice3"
  type: "Python"
  bottom: "feat4"
  top: "data_lattice3"
  python_param {
    module: "custom_layers"
    layer: "PickAndScale2"
    param_str: "0*6_1*6_2*6"
  }
}
layer {
  name: "conv5"
  type: "Permutohedral"
  bottom: "bn4"
  bottom: "data_lattice3"
  bottom: "data_lattice3"
  top: "conv5"
  param {
    lr_mult: 1
    decay_mult: 1
  }
  param {
    lr_mult: 2
    decay_mult: 0
  }
  permutohedral_param {
    num_output: 256
    neighborhood_size: 1
    filter_filler {
      type: "gaussian"
      std: 0.001
    }
    bias_term: true
    bias_filler {
      type: "constant"
      value: 0
    }
    group: 1
    norm_type: AFTER
    offset_type: NONE
  }
}
layer {
  name: "bn5"
  type: "BatchNorm"
  bottom: "conv5"
  top: "bn5"
}
layer {
  name: "relu5"
  type: "ReLU"
  bottom: "bn5"
  top: "bn5"
}
layer {
  name: "fconv5"
  type: "Convolution"
  bottom: "bn5"
  top: "fconv5"
  param {
    lr_mult: 1
  }
  param {
    lr_mult: 0.1
  }
  convolution_param {
    num_output: 3
    pad: 0
    kernel_size: 1
    stride: 1
    weight_filler {
      type: "xavier"
    }
    bias_filler {
      type: "constant"
      value: 0
    }
  }
}
layer {
  name: "fconv5_"
  type: "ReLU2"
  bottom: "fconv5"
  top: "fconv5_"
  relu2_param {
    threshold: 0.02
  }
}
layer {
  name: "fconv5__"
  type: "ReLU3"
  bottom: "fconv5_"
  top: "fconv5__"
  relu2_param {
    threshold: -0.02
  }
}
layer {
  name: "feat5"
  type: "Eltwise"
  bottom: "data_feat"
  bottom: "fconv5__"
  top: "feat5"
  eltwise_param {
    operation: SUM
  }
}
layer {
  name: "data_lattice4"
  type: "Python"
  bottom: "feat5"
  top: "data_lattice4"
  python_param {
    module: "custom_layers"
    layer: "PickAndScale2"
    param_str: "0*3_1*3_2*3"
  }
}
layer {
  name: "conv6"
  type: "Permutohedral"
  bottom: "bn5"
  bottom: "data_lattice4"
  bottom: "data_lattice4"
  top: "conv6"
  param {
    lr_mult: 1
    decay_mult: 1
  }
  param {
    lr_mult: 2
    decay_mult: 0
  }
  permutohedral_param {
    num_output: 256
    neighborhood_size: 1
    filter_filler {
      type: "gaussian"
      std: 0.001
    }
    bias_term: true
    bias_filler {
      type: "constant"
      value: 0
    }
    group: 1
    norm_type: AFTER
    offset_type: NONE
  }
}
layer {
  name: "bn6"
  type: "BatchNorm"
  bottom: "conv6"
  top: "bn6"
}
layer {
  name: "relu6"
  type: "ReLU"
  bottom: "bn6"
  top: "bn6"
}
layer {
  name: "concat6"
  type: "Concat"
  bottom: "bn6"
  bottom: "bn2"
  bottom: "bn3"
  bottom: "bn4"
  bottom: "bn5"
  top: "concat6"
}
layer {
  name: "conv7"
  type: "Convolution"
  bottom: "concat6"
  top: "conv7"
  param {
    lr_mult: 1
  }
  param {
    lr_mult: 0.1
  }
  convolution_param {
    num_output: 128
    pad: 0
    kernel_size: 1
    stride: 1
    weight_filler {
      type: "xavier"
    }
    bias_filler {
      type: "constant"
      value: 0
    }
  }
}
layer {
  name: "bn7"
  type: "BatchNorm"
  bottom: "conv7"
  top: "bn7"
}
layer {
  name: "relu7"
  type: "ReLU"
  bottom: "bn7"
  top: "bn7"
}
layer {
  name: "conv8"
  type: "Convolution"
  bottom: "bn7"
  top: "conv8"
  param {
    lr_mult: 1
  }
  param {
    lr_mult: 0.1
  }
  convolution_param {
    num_output: 13
    pad: 0
    kernel_size: 1
    stride: 1
    weight_filler {
      type: "xavier"
    }
    bias_filler {
      type: "constant"
      value: 0
    }
  }
}
layer {
  name: "loss"
  type: "SoftmaxWithLoss"
  bottom: "conv8"
  bottom: "label"
  top: "loss"
}
layer {
  name: "accuracy"
  type: "Accuracy"
  bottom: "conv8"
  bottom: "label"
  top: "accuracy"
}
I0817 13:12:45.300074  9291 layer_factory.hpp:77] Creating layer data
I0817 13:12:45.319939  9291 net.cpp:84] Creating Layer data
I0817 13:12:45.319989  9291 net.cpp:380] data -> data
I0817 13:12:45.320061  9291 net.cpp:380] data -> label
I0817 13:12:46.198323  9297 upgrade_proto.cpp:1084] Attempting to upgrade input file specified using deprecated 'solver_type' field (enum)': /mnt/lustre/wangjiayun/repos/splatnet/exp/lidar3d/area6/6_solver.prototxt
…
I0817 13:12:46.355002  9293 upgrade_proto.cpp:1084] Attempting to upgrade input file specified using deprecated 'solver_type' field (enum)': /mnt/lustre/wangjiayun/repos/splatnet/exp/lidar3d/area6/6_solver.prototxt
I0817 13:12:46.355085  9293 upgrade_proto.cpp:1091] Successfully upgraded file specified using deprecated 'solver_type' field (enum) to 'type' field (string).
W0817 13:12:46.355093  9293 upgrade_proto.cpp:1093] Note that future Caffe releases will only support 'type' field (string) for a solver's type.
I0817 13:13:42.661710  9291 net.cpp:122] Setting up data
I0817 13:13:42.661773  9291 net.cpp:129] Top shape: 12 6 1 4096 (294912)
I0817 13:13:42.661782  9291 net.cpp:129] Top shape: 12 1 1 4096 (49152)
I0817 13:13:42.661787  9291 net.cpp:137] Memory required for data: 1376256
I0817 13:13:42.661794  9291 layer_factory.hpp:77] Creating layer data_data_0_split
I0817 13:13:42.661819  9291 net.cpp:84] Creating Layer data_data_0_split
I0817 13:13:42.661825  9291 net.cpp:406] data_data_0_split <- data
I0817 13:13:42.661833  9291 net.cpp:380] data_data_0_split -> data_data_0_split_0
I0817 13:13:42.661841  9291 net.cpp:380] data_data_0_split -> data_data_0_split_1
I0817 13:13:42.661890  9291 net.cpp:122] Setting up data_data_0_split
I0817 13:13:42.661900  9291 net.cpp:129] Top shape: 12 6 1 4096 (294912)
I0817 13:13:42.661906  9291 net.cpp:129] Top shape: 12 6 1 4096 (294912)
I0817 13:13:42.661908  9291 net.cpp:137] Memory required for data: 3735552
I0817 13:13:42.661913  9291 layer_factory.hpp:77] Creating layer label_data_1_split
I0817 13:13:42.661921  9291 net.cpp:84] Creating Layer label_data_1_split
I0817 13:13:42.661923  9291 net.cpp:406] label_data_1_split <- label
I0817 13:13:42.661929  9291 net.cpp:380] label_data_1_split -> label_data_1_split_0
I0817 13:13:42.661936  9291 net.cpp:380] label_data_1_split -> label_data_1_split_1
I0817 13:13:42.661963  9291 net.cpp:122] Setting up label_data_1_split
I0817 13:13:42.661970  9291 net.cpp:129] Top shape: 12 1 1 4096 (49152)
I0817 13:13:42.661975  9291 net.cpp:129] Top shape: 12 1 1 4096 (49152)
I0817 13:13:42.661978  9291 net.cpp:137] Memory required for data: 4128768
I0817 13:13:42.661981  9291 layer_factory.hpp:77] Creating layer data_feat
I0817 13:13:42.693467  9291 net.cpp:84] Creating Layer data_feat
I0817 13:13:42.693495  9291 net.cpp:406] data_feat <- data_data_0_split_0
I0817 13:13:42.693505  9291 net.cpp:380] data_feat -> data_feat
I0817 13:13:42.695387  9291 net.cpp:122] Setting up data_feat
I0817 13:13:42.695406  9291 net.cpp:129] Top shape: 12 3 1 4096 (147456)
I0817 13:13:42.695410  9291 net.cpp:137] Memory required for data: 4718592
I0817 13:13:42.695415  9291 layer_factory.hpp:77] Creating layer data_feat_data_feat_0_split
I0817 13:13:42.695425  9291 net.cpp:84] Creating Layer data_feat_data_feat_0_split
I0817 13:13:42.695430  9291 net.cpp:406] data_feat_data_feat_0_split <- data_feat
I0817 13:13:42.695436  9291 net.cpp:380] data_feat_data_feat_0_split -> data_feat_data_feat_0_split_0
I0817 13:13:42.695442  9291 net.cpp:380] data_feat_data_feat_0_split -> data_feat_data_feat_0_split_1
I0817 13:13:42.695449  9291 net.cpp:380] data_feat_data_feat_0_split -> data_feat_data_feat_0_split_2
I0817 13:13:42.695456  9291 net.cpp:380] data_feat_data_feat_0_split -> data_feat_data_feat_0_split_3
I0817 13:13:42.695461  9291 net.cpp:380] data_feat_data_feat_0_split -> data_feat_data_feat_0_split_4
I0817 13:13:42.695518  9291 net.cpp:122] Setting up data_feat_data_feat_0_split
I0817 13:13:42.695525  9291 net.cpp:129] Top shape: 12 3 1 4096 (147456)
I0817 13:13:42.695530  9291 net.cpp:129] Top shape: 12 3 1 4096 (147456)
I0817 13:13:42.695534  9291 net.cpp:129] Top shape: 12 3 1 4096 (147456)
I0817 13:13:42.695538  9291 net.cpp:129] Top shape: 12 3 1 4096 (147456)
I0817 13:13:42.695541  9291 net.cpp:129] Top shape: 12 3 1 4096 (147456)
I0817 13:13:42.695546  9291 net.cpp:137] Memory required for data: 7667712
I0817 13:13:42.695549  9291 layer_factory.hpp:77] Creating layer conv1
I0817 13:13:42.695854  9291 net.cpp:84] Creating Layer conv1
I0817 13:13:42.695864  9291 net.cpp:406] conv1 <- data_data_0_split_1
I0817 13:13:42.695873  9291 net.cpp:380] conv1 -> conv1
I0817 13:13:47.293129  9291 net.cpp:122] Setting up conv1
I0817 13:13:47.293190  9291 net.cpp:129] Top shape: 12 64 1 4096 (3145728)
I0817 13:13:47.293198  9291 net.cpp:137] Memory required for data: 20250624
I0817 13:13:47.297889  9291 layer_factory.hpp:77] Creating layer bn1
I0817 13:13:47.298570  9291 net.cpp:84] Creating Layer bn1
I0817 13:13:47.298596  9291 net.cpp:406] bn1 <- conv1
I0817 13:13:47.298614  9291 net.cpp:380] bn1 -> bn1
I0817 13:13:47.301120  9291 net.cpp:122] Setting up bn1
I0817 13:13:47.301153  9291 net.cpp:129] Top shape: 12 64 1 4096 (3145728)
I0817 13:13:47.301162  9291 net.cpp:137] Memory required for data: 32833536
I0817 13:13:47.301185  9291 layer_factory.hpp:77] Creating layer relu1
I0817 13:13:47.301875  9291 net.cpp:84] Creating Layer relu1
I0817 13:13:47.301895  9291 net.cpp:406] relu1 <- bn1
I0817 13:13:47.301908  9291 net.cpp:367] relu1 -> bn1 (in-place)
I0817 13:13:47.302896  9291 net.cpp:122] Setting up relu1
I0817 13:13:47.302925  9291 net.cpp:129] Top shape: 12 64 1 4096 (3145728)
I0817 13:13:47.302933  9291 net.cpp:137] Memory required for data: 45416448
I0817 13:13:47.302945  9291 layer_factory.hpp:77] Creating layer conv1a
I0817 13:13:47.302973  9291 net.cpp:84] Creating Layer conv1a
I0817 13:13:47.302984  9291 net.cpp:406] conv1a <- bn1
I0817 13:13:47.302999  9291 net.cpp:380] conv1a -> conv1a
I0817 13:13:47.306676  9291 net.cpp:122] Setting up conv1a
I0817 13:13:47.306707  9291 net.cpp:129] Top shape: 12 64 1 4096 (3145728)
I0817 13:13:47.306716  9291 net.cpp:137] Memory required for data: 57999360
I0817 13:13:47.306732  9291 layer_factory.hpp:77] Creating layer bn1a
I0817 13:13:47.306746  9291 net.cpp:84] Creating Layer bn1a
I0817 13:13:47.306754  9291 net.cpp:406] bn1a <- conv1a
I0817 13:13:47.306766  9291 net.cpp:380] bn1a -> bn1a
I0817 13:13:47.307157  9291 net.cpp:122] Setting up bn1a
I0817 13:13:47.307174  9291 net.cpp:129] Top shape: 12 64 1 4096 (3145728)
I0817 13:13:47.307181  9291 net.cpp:137] Memory required for data: 70582272
I0817 13:13:47.307211  9291 layer_factory.hpp:77] Creating layer relu1a
I0817 13:13:47.307225  9291 net.cpp:84] Creating Layer relu1a
I0817 13:13:47.307234  9291 net.cpp:406] relu1a <- bn1a
I0817 13:13:47.307243  9291 net.cpp:367] relu1a -> bn1a (in-place)
I0817 13:13:47.307793  9291 net.cpp:122] Setting up relu1a
I0817 13:13:47.307814  9291 net.cpp:129] Top shape: 12 64 1 4096 (3145728)
I0817 13:13:47.307822  9291 net.cpp:137] Memory required for data: 83165184
I0817 13:13:47.307831  9291 layer_factory.hpp:77] Creating layer bn1a_relu1a_0_split
I0817 13:13:47.307843  9291 net.cpp:84] Creating Layer bn1a_relu1a_0_split
I0817 13:13:47.307850  9291 net.cpp:406] bn1a_relu1a_0_split <- bn1a
I0817 13:13:47.307862  9291 net.cpp:380] bn1a_relu1a_0_split -> bn1a_relu1a_0_split_0
I0817 13:13:47.307878  9291 net.cpp:380] bn1a_relu1a_0_split -> bn1a_relu1a_0_split_1
I0817 13:13:47.307955  9291 net.cpp:122] Setting up bn1a_relu1a_0_split
I0817 13:13:47.307971  9291 net.cpp:129] Top shape: 12 64 1 4096 (3145728)
I0817 13:13:47.307981  9291 net.cpp:129] Top shape: 12 64 1 4096 (3145728)
I0817 13:13:47.307986  9291 net.cpp:137] Memory required for data: 108331008
I0817 13:13:47.307992  9291 layer_factory.hpp:77] Creating layer fconv1
I0817 13:13:47.308017  9291 net.cpp:84] Creating Layer fconv1
I0817 13:13:47.308027  9291 net.cpp:406] fconv1 <- bn1a_relu1a_0_split_0
I0817 13:13:47.308039  9291 net.cpp:380] fconv1 -> fconv1
I0817 13:13:47.310822  9291 net.cpp:122] Setting up fconv1
I0817 13:13:47.310850  9291 net.cpp:129] Top shape: 12 3 1 4096 (147456)
I0817 13:13:47.310859  9291 net.cpp:137] Memory required for data: 108920832
I0817 13:13:47.310873  9291 layer_factory.hpp:77] Creating layer fconv1_
I0817 13:13:47.311298  9291 net.cpp:84] Creating Layer fconv1_
I0817 13:13:47.311319  9291 net.cpp:406] fconv1_ <- fconv1
I0817 13:13:47.311336  9291 net.cpp:380] fconv1_ -> fconv1_
I0817 13:13:47.311398  9291 net.cpp:122] Setting up fconv1_
I0817 13:13:47.311414  9291 net.cpp:129] Top shape: 12 3 1 4096 (147456)
I0817 13:13:47.311419  9291 net.cpp:137] Memory required for data: 109510656
I0817 13:13:47.311427  9291 layer_factory.hpp:77] Creating layer fconv1__
I0817 13:13:47.311473  9291 net.cpp:84] Creating Layer fconv1__
I0817 13:13:47.311487  9291 net.cpp:406] fconv1__ <- fconv1_
I0817 13:13:47.311498  9291 net.cpp:380] fconv1__ -> fconv1__
I0817 13:13:47.311547  9291 net.cpp:122] Setting up fconv1__
I0817 13:13:47.311563  9291 net.cpp:129] Top shape: 12 3 1 4096 (147456)
I0817 13:13:47.311568  9291 net.cpp:137] Memory required for data: 110100480
I0817 13:13:47.311578  9291 layer_factory.hpp:77] Creating layer feat1
I0817 13:13:47.311619  9291 net.cpp:84] Creating Layer feat1
I0817 13:13:47.311633  9291 net.cpp:406] feat1 <- data_feat_data_feat_0_split_0
I0817 13:13:47.311643  9291 net.cpp:406] feat1 <- fconv1__
I0817 13:13:47.311655  9291 net.cpp:380] feat1 -> feat1
I0817 13:13:47.312337  9291 net.cpp:122] Setting up feat1
I0817 13:13:47.312361  9291 net.cpp:129] Top shape: 12 3 1 4096 (147456)
I0817 13:13:47.312367  9291 net.cpp:137] Memory required for data: 110690304
I0817 13:13:47.312376  9291 layer_factory.hpp:77] Creating layer data_lattice0
I0817 13:13:47.312491  9291 net.cpp:84] Creating Layer data_lattice0
I0817 13:13:47.312505  9291 net.cpp:406] data_lattice0 <- feat1
I0817 13:13:47.312518  9291 net.cpp:380] data_lattice0 -> data_lattice0
I0817 13:13:47.312872  9291 net.cpp:122] Setting up data_lattice0
I0817 13:13:47.312896  9291 net.cpp:129] Top shape: 12 3 1 4096 (147456)
I0817 13:13:47.312903  9291 net.cpp:137] Memory required for data: 111280128
I0817 13:13:47.312911  9291 layer_factory.hpp:77] Creating layer data_lattice0_data_lattice0_0_split
I0817 13:13:47.312922  9291 net.cpp:84] Creating Layer data_lattice0_data_lattice0_0_split
I0817 13:13:47.312929  9291 net.cpp:406] data_lattice0_data_lattice0_0_split <- data_lattice0
I0817 13:13:47.312945  9291 net.cpp:380] data_lattice0_data_lattice0_0_split -> data_lattice0_data_lattice0_0_split_0
I0817 13:13:47.312958  9291 net.cpp:380] data_lattice0_data_lattice0_0_split -> data_lattice0_data_lattice0_0_split_1
I0817 13:13:47.313026  9291 net.cpp:122] Setting up data_lattice0_data_lattice0_0_split
I0817 13:13:47.313040  9291 net.cpp:129] Top shape: 12 3 1 4096 (147456)
I0817 13:13:47.313048  9291 net.cpp:129] Top shape: 12 3 1 4096 (147456)
I0817 13:13:47.313055  9291 net.cpp:137] Memory required for data: 112459776
I0817 13:13:47.313060  9291 layer_factory.hpp:77] Creating layer conv2
I0817 13:13:47.313112  9291 net.cpp:84] Creating Layer conv2
I0817 13:13:47.313127  9291 net.cpp:406] conv2 <- bn1a_relu1a_0_split_1
I0817 13:13:47.313138  9291 net.cpp:406] conv2 <- data_lattice0_data_lattice0_0_split_0
I0817 13:13:47.313146  9291 net.cpp:406] conv2 <- data_lattice0_data_lattice0_0_split_1
I0817 13:13:47.313158  9291 net.cpp:380] conv2 -> conv2
I0817 13:13:47.320490  9291 net.cpp:122] Setting up conv2
I0817 13:13:47.320520  9291 net.cpp:129] Top shape: 12 64 1 4096 (3145728)
I0817 13:13:47.320529  9291 net.cpp:137] Memory required for data: 125042688
I0817 13:13:47.320544  9291 layer_factory.hpp:77] Creating layer bn2
I0817 13:13:47.320556  9291 net.cpp:84] Creating Layer bn2
I0817 13:13:47.320564  9291 net.cpp:406] bn2 <- conv2
I0817 13:13:47.320574  9291 net.cpp:380] bn2 -> bn2
I0817 13:13:47.320955  9291 net.cpp:122] Setting up bn2
I0817 13:13:47.320969  9291 net.cpp:129] Top shape: 12 64 1 4096 (3145728)
I0817 13:13:47.320976  9291 net.cpp:137] Memory required for data: 137625600
I0817 13:13:47.320996  9291 layer_factory.hpp:77] Creating layer relu2
I0817 13:13:47.321012  9291 net.cpp:84] Creating Layer relu2
I0817 13:13:47.321017  9291 net.cpp:406] relu2 <- bn2
I0817 13:13:47.321027  9291 net.cpp:367] relu2 -> bn2 (in-place)
I0817 13:13:47.322160  9291 net.cpp:122] Setting up relu2
I0817 13:13:47.322187  9291 net.cpp:129] Top shape: 12 64 1 4096 (3145728)
I0817 13:13:47.322196  9291 net.cpp:137] Memory required for data: 150208512
I0817 13:13:47.322216  9291 layer_factory.hpp:77] Creating layer bn2_relu2_0_split
I0817 13:13:47.322230  9291 net.cpp:84] Creating Layer bn2_relu2_0_split
I0817 13:13:47.322237  9291 net.cpp:406] bn2_relu2_0_split <- bn2
I0817 13:13:47.322249  9291 net.cpp:380] bn2_relu2_0_split -> bn2_relu2_0_split_0
I0817 13:13:47.322263  9291 net.cpp:380] bn2_relu2_0_split -> bn2_relu2_0_split_1
I0817 13:13:47.322281  9291 net.cpp:380] bn2_relu2_0_split -> bn2_relu2_0_split_2
I0817 13:13:47.322379  9291 net.cpp:122] Setting up bn2_relu2_0_split
I0817 13:13:47.322392  9291 net.cpp:129] Top shape: 12 64 1 4096 (3145728)
I0817 13:13:47.322401  9291 net.cpp:129] Top shape: 12 64 1 4096 (3145728)
I0817 13:13:47.322407  9291 net.cpp:129] Top shape: 12 64 1 4096 (3145728)
I0817 13:13:47.322412  9291 net.cpp:137] Memory required for data: 187957248
I0817 13:13:47.322419  9291 layer_factory.hpp:77] Creating layer fconv2
I0817 13:13:47.322437  9291 net.cpp:84] Creating Layer fconv2
I0817 13:13:47.322446  9291 net.cpp:406] fconv2 <- bn2_relu2_0_split_0
I0817 13:13:47.322458  9291 net.cpp:380] fconv2 -> fconv2
I0817 13:13:47.325013  9291 net.cpp:122] Setting up fconv2
I0817 13:13:47.325038  9291 net.cpp:129] Top shape: 12 3 1 4096 (147456)
I0817 13:13:47.325047  9291 net.cpp:137] Memory required for data: 188547072
I0817 13:13:47.325058  9291 layer_factory.hpp:77] Creating layer fconv2_
I0817 13:13:47.325070  9291 net.cpp:84] Creating Layer fconv2_
I0817 13:13:47.325078  9291 net.cpp:406] fconv2_ <- fconv2
I0817 13:13:47.325088  9291 net.cpp:380] fconv2_ -> fconv2_
I0817 13:13:47.325134  9291 net.cpp:122] Setting up fconv2_
I0817 13:13:47.325146  9291 net.cpp:129] Top shape: 12 3 1 4096 (147456)
I0817 13:13:47.325152  9291 net.cpp:137] Memory required for data: 189136896
I0817 13:13:47.325157  9291 layer_factory.hpp:77] Creating layer fconv2__
I0817 13:13:47.325173  9291 net.cpp:84] Creating Layer fconv2__
I0817 13:13:47.325179  9291 net.cpp:406] fconv2__ <- fconv2_
I0817 13:13:47.325189  9291 net.cpp:380] fconv2__ -> fconv2__
I0817 13:13:47.325244  9291 net.cpp:122] Setting up fconv2__
I0817 13:13:47.325259  9291 net.cpp:129] Top shape: 12 3 1 4096 (147456)
I0817 13:13:47.325265  9291 net.cpp:137] Memory required for data: 189726720
I0817 13:13:47.325271  9291 layer_factory.hpp:77] Creating layer feat2
I0817 13:13:47.325281  9291 net.cpp:84] Creating Layer feat2
I0817 13:13:47.325289  9291 net.cpp:406] feat2 <- data_feat_data_feat_0_split_1
I0817 13:13:47.325297  9291 net.cpp:406] feat2 <- fconv2__
I0817 13:13:47.325306  9291 net.cpp:380] feat2 -> feat2
I0817 13:13:47.325345  9291 net.cpp:122] Setting up feat2
I0817 13:13:47.325356  9291 net.cpp:129] Top shape: 12 3 1 4096 (147456)
I0817 13:13:47.325362  9291 net.cpp:137] Memory required for data: 190316544
I0817 13:13:47.325367  9291 layer_factory.hpp:77] Creating layer data_lattice1
I0817 13:13:47.325415  9291 net.cpp:84] Creating Layer data_lattice1
I0817 13:13:47.325433  9291 net.cpp:406] data_lattice1 <- feat2
I0817 13:13:47.325444  9291 net.cpp:380] data_lattice1 -> data_lattice1
I0817 13:13:47.327419  9291 net.cpp:122] Setting up data_lattice1
I0817 13:13:47.327450  9291 net.cpp:129] Top shape: 12 3 1 4096 (147456)
I0817 13:13:47.327457  9291 net.cpp:137] Memory required for data: 190906368
I0817 13:13:47.327464  9291 layer_factory.hpp:77] Creating layer data_lattice1_data_lattice1_0_split
I0817 13:13:47.327476  9291 net.cpp:84] Creating Layer data_lattice1_data_lattice1_0_split
I0817 13:13:47.327483  9291 net.cpp:406] data_lattice1_data_lattice1_0_split <- data_lattice1
I0817 13:13:47.327494  9291 net.cpp:380] data_lattice1_data_lattice1_0_split -> data_lattice1_data_lattice1_0_split_0
I0817 13:13:47.327507  9291 net.cpp:380] data_lattice1_data_lattice1_0_split -> data_lattice1_data_lattice1_0_split_1
I0817 13:13:47.327570  9291 net.cpp:122] Setting up data_lattice1_data_lattice1_0_split
I0817 13:13:47.327584  9291 net.cpp:129] Top shape: 12 3 1 4096 (147456)
I0817 13:13:47.327591  9291 net.cpp:129] Top shape: 12 3 1 4096 (147456)
I0817 13:13:47.327596  9291 net.cpp:137] Memory required for data: 192086016
I0817 13:13:47.327602  9291 layer_factory.hpp:77] Creating layer conv3
I0817 13:13:47.327620  9291 net.cpp:84] Creating Layer conv3
I0817 13:13:47.327626  9291 net.cpp:406] conv3 <- bn2_relu2_0_split_1
I0817 13:13:47.327634  9291 net.cpp:406] conv3 <- data_lattice1_data_lattice1_0_split_0
I0817 13:13:47.327641  9291 net.cpp:406] conv3 <- data_lattice1_data_lattice1_0_split_1
I0817 13:13:47.327651  9291 net.cpp:380] conv3 -> conv3
I0817 13:13:47.334744  9291 net.cpp:122] Setting up conv3
I0817 13:13:47.334761  9291 net.cpp:129] Top shape: 12 128 1 4096 (6291456)
I0817 13:13:47.334767  9291 net.cpp:137] Memory required for data: 217251840
I0817 13:13:47.334777  9291 layer_factory.hpp:77] Creating layer bn3
I0817 13:13:47.334787  9291 net.cpp:84] Creating Layer bn3
I0817 13:13:47.334794  9291 net.cpp:406] bn3 <- conv3
I0817 13:13:47.334802  9291 net.cpp:380] bn3 -> bn3
I0817 13:13:47.335111  9291 net.cpp:122] Setting up bn3
I0817 13:13:47.335124  9291 net.cpp:129] Top shape: 12 128 1 4096 (6291456)
I0817 13:13:47.335130  9291 net.cpp:137] Memory required for data: 242417664
I0817 13:13:47.335142  9291 layer_factory.hpp:77] Creating layer relu3
I0817 13:13:47.335153  9291 net.cpp:84] Creating Layer relu3
I0817 13:13:47.335160  9291 net.cpp:406] relu3 <- bn3
I0817 13:13:47.335167  9291 net.cpp:367] relu3 -> bn3 (in-place)
I0817 13:13:47.336169  9291 net.cpp:122] Setting up relu3
I0817 13:13:47.336192  9291 net.cpp:129] Top shape: 12 128 1 4096 (6291456)
I0817 13:13:47.336199  9291 net.cpp:137] Memory required for data: 267583488
I0817 13:13:47.336215  9291 layer_factory.hpp:77] Creating layer bn3_relu3_0_split
I0817 13:13:47.336226  9291 net.cpp:84] Creating Layer bn3_relu3_0_split
I0817 13:13:47.336232  9291 net.cpp:406] bn3_relu3_0_split <- bn3
I0817 13:13:47.336242  9291 net.cpp:380] bn3_relu3_0_split -> bn3_relu3_0_split_0
I0817 13:13:47.336254  9291 net.cpp:380] bn3_relu3_0_split -> bn3_relu3_0_split_1
I0817 13:13:47.336264  9291 net.cpp:380] bn3_relu3_0_split -> bn3_relu3_0_split_2
I0817 13:13:47.336349  9291 net.cpp:122] Setting up bn3_relu3_0_split
I0817 13:13:47.336362  9291 net.cpp:129] Top shape: 12 128 1 4096 (6291456)
I0817 13:13:47.336369  9291 net.cpp:129] Top shape: 12 128 1 4096 (6291456)
I0817 13:13:47.336375  9291 net.cpp:129] Top shape: 12 128 1 4096 (6291456)
I0817 13:13:47.336380  9291 net.cpp:137] Memory required for data: 343080960
I0817 13:13:47.336390  9291 layer_factory.hpp:77] Creating layer fconv3
I0817 13:13:47.336411  9291 net.cpp:84] Creating Layer fconv3
I0817 13:13:47.336421  9291 net.cpp:406] fconv3 <- bn3_relu3_0_split_0
I0817 13:13:47.336431  9291 net.cpp:380] fconv3 -> fconv3
I0817 13:13:47.339181  9291 net.cpp:122] Setting up fconv3
I0817 13:13:47.339221  9291 net.cpp:129] Top shape: 12 3 1 4096 (147456)
I0817 13:13:47.339229  9291 net.cpp:137] Memory required for data: 343670784
I0817 13:13:47.339241  9291 layer_factory.hpp:77] Creating layer fconv3_
I0817 13:13:47.339253  9291 net.cpp:84] Creating Layer fconv3_
I0817 13:13:47.339262  9291 net.cpp:406] fconv3_ <- fconv3
I0817 13:13:47.339272  9291 net.cpp:380] fconv3_ -> fconv3_
I0817 13:13:47.339318  9291 net.cpp:122] Setting up fconv3_
I0817 13:13:47.339330  9291 net.cpp:129] Top shape: 12 3 1 4096 (147456)
I0817 13:13:47.339335  9291 net.cpp:137] Memory required for data: 344260608
I0817 13:13:47.339341  9291 layer_factory.hpp:77] Creating layer fconv3__
I0817 13:13:47.339350  9291 net.cpp:84] Creating Layer fconv3__
I0817 13:13:47.339356  9291 net.cpp:406] fconv3__ <- fconv3_
I0817 13:13:47.339365  9291 net.cpp:380] fconv3__ -> fconv3__
I0817 13:13:47.339401  9291 net.cpp:122] Setting up fconv3__
I0817 13:13:47.339411  9291 net.cpp:129] Top shape: 12 3 1 4096 (147456)
I0817 13:13:47.339417  9291 net.cpp:137] Memory required for data: 344850432
I0817 13:13:47.339422  9291 layer_factory.hpp:77] Creating layer feat3
I0817 13:13:47.339435  9291 net.cpp:84] Creating Layer feat3
I0817 13:13:47.339444  9291 net.cpp:406] feat3 <- data_feat_data_feat_0_split_2
I0817 13:13:47.339452  9291 net.cpp:406] feat3 <- fconv3__
I0817 13:13:47.339462  9291 net.cpp:380] feat3 -> feat3
I0817 13:13:47.339498  9291 net.cpp:122] Setting up feat3
I0817 13:13:47.339509  9291 net.cpp:129] Top shape: 12 3 1 4096 (147456)
I0817 13:13:47.339514  9291 net.cpp:137] Memory required for data: 345440256
I0817 13:13:47.339520  9291 layer_factory.hpp:77] Creating layer data_lattice2
I0817 13:13:47.339565  9291 net.cpp:84] Creating Layer data_lattice2
I0817 13:13:47.339576  9291 net.cpp:406] data_lattice2 <- feat3
I0817 13:13:47.339586  9291 net.cpp:380] data_lattice2 -> data_lattice2
I0817 13:13:47.339763  9291 net.cpp:122] Setting up data_lattice2
I0817 13:13:47.339781  9291 net.cpp:129] Top shape: 12 3 1 4096 (147456)
I0817 13:13:47.339787  9291 net.cpp:137] Memory required for data: 346030080
I0817 13:13:47.339792  9291 layer_factory.hpp:77] Creating layer data_lattice2_data_lattice2_0_split
I0817 13:13:47.339802  9291 net.cpp:84] Creating Layer data_lattice2_data_lattice2_0_split
I0817 13:13:47.339809  9291 net.cpp:406] data_lattice2_data_lattice2_0_split <- data_lattice2
I0817 13:13:47.339819  9291 net.cpp:380] data_lattice2_data_lattice2_0_split -> data_lattice2_data_lattice2_0_split_0
I0817 13:13:47.339830  9291 net.cpp:380] data_lattice2_data_lattice2_0_split -> data_lattice2_data_lattice2_0_split_1
I0817 13:13:47.339885  9291 net.cpp:122] Setting up data_lattice2_data_lattice2_0_split
I0817 13:13:47.339896  9291 net.cpp:129] Top shape: 12 3 1 4096 (147456)
I0817 13:13:47.339903  9291 net.cpp:129] Top shape: 12 3 1 4096 (147456)
I0817 13:13:47.339908  9291 net.cpp:137] Memory required for data: 347209728
I0817 13:13:47.339915  9291 layer_factory.hpp:77] Creating layer conv4
I0817 13:13:47.339926  9291 net.cpp:84] Creating Layer conv4
I0817 13:13:47.339931  9291 net.cpp:406] conv4 <- bn3_relu3_0_split_1
I0817 13:13:47.339938  9291 net.cpp:406] conv4 <- data_lattice2_data_lattice2_0_split_0
I0817 13:13:47.339946  9291 net.cpp:406] conv4 <- data_lattice2_data_lattice2_0_split_1
I0817 13:13:47.339954  9291 net.cpp:380] conv4 -> conv4
I0817 13:13:47.365726  9291 net.cpp:122] Setting up conv4
I0817 13:13:47.365748  9291 net.cpp:129] Top shape: 12 256 1 4096 (12582912)
I0817 13:13:47.365756  9291 net.cpp:137] Memory required for data: 397541376
I0817 13:13:47.365766  9291 layer_factory.hpp:77] Creating layer bn4
I0817 13:13:47.365775  9291 net.cpp:84] Creating Layer bn4
I0817 13:13:47.365782  9291 net.cpp:406] bn4 <- conv4
I0817 13:13:47.365789  9291 net.cpp:380] bn4 -> bn4
I0817 13:13:47.366057  9291 net.cpp:122] Setting up bn4
I0817 13:13:47.366070  9291 net.cpp:129] Top shape: 12 256 1 4096 (12582912)
I0817 13:13:47.366075  9291 net.cpp:137] Memory required for data: 447873024
I0817 13:13:47.366087  9291 layer_factory.hpp:77] Creating layer relu4
I0817 13:13:47.366097  9291 net.cpp:84] Creating Layer relu4
I0817 13:13:47.366102  9291 net.cpp:406] relu4 <- bn4
I0817 13:13:47.366109  9291 net.cpp:367] relu4 -> bn4 (in-place)
I0817 13:13:47.366536  9291 net.cpp:122] Setting up relu4
I0817 13:13:47.366552  9291 net.cpp:129] Top shape: 12 256 1 4096 (12582912)
I0817 13:13:47.366562  9291 net.cpp:137] Memory required for data: 498204672
I0817 13:13:47.366567  9291 layer_factory.hpp:77] Creating layer bn4_relu4_0_split
I0817 13:13:47.366576  9291 net.cpp:84] Creating Layer bn4_relu4_0_split
I0817 13:13:47.366581  9291 net.cpp:406] bn4_relu4_0_split <- bn4
I0817 13:13:47.366591  9291 net.cpp:380] bn4_relu4_0_split -> bn4_relu4_0_split_0
I0817 13:13:47.366601  9291 net.cpp:380] bn4_relu4_0_split -> bn4_relu4_0_split_1
I0817 13:13:47.366609  9291 net.cpp:380] bn4_relu4_0_split -> bn4_relu4_0_split_2
I0817 13:13:47.366680  9291 net.cpp:122] Setting up bn4_relu4_0_split
I0817 13:13:47.366690  9291 net.cpp:129] Top shape: 12 256 1 4096 (12582912)
I0817 13:13:47.366696  9291 net.cpp:129] Top shape: 12 256 1 4096 (12582912)
I0817 13:13:47.366701  9291 net.cpp:129] Top shape: 12 256 1 4096 (12582912)
I0817 13:13:47.366706  9291 net.cpp:137] Memory required for data: 649199616
I0817 13:13:47.366710  9291 layer_factory.hpp:77] Creating layer fconv4
I0817 13:13:47.366724  9291 net.cpp:84] Creating Layer fconv4
I0817 13:13:47.366731  9291 net.cpp:406] fconv4 <- bn4_relu4_0_split_0
I0817 13:13:47.366740  9291 net.cpp:380] fconv4 -> fconv4
I0817 13:13:47.369779  9291 net.cpp:122] Setting up fconv4
I0817 13:13:47.369797  9291 net.cpp:129] Top shape: 12 3 1 4096 (147456)
I0817 13:13:47.369802  9291 net.cpp:137] Memory required for data: 649789440
I0817 13:13:47.369818  9291 layer_factory.hpp:77] Creating layer fconv4_
I0817 13:13:47.369832  9291 net.cpp:84] Creating Layer fconv4_
I0817 13:13:47.369837  9291 net.cpp:406] fconv4_ <- fconv4
I0817 13:13:47.369843  9291 net.cpp:380] fconv4_ -> fconv4_
I0817 13:13:47.369879  9291 net.cpp:122] Setting up fconv4_
I0817 13:13:47.369889  9291 net.cpp:129] Top shape: 12 3 1 4096 (147456)
I0817 13:13:47.369892  9291 net.cpp:137] Memory required for data: 650379264
I0817 13:13:47.369896  9291 layer_factory.hpp:77] Creating layer fconv4__
I0817 13:13:47.369904  9291 net.cpp:84] Creating Layer fconv4__
I0817 13:13:47.369909  9291 net.cpp:406] fconv4__ <- fconv4_
I0817 13:13:47.369915  9291 net.cpp:380] fconv4__ -> fconv4__
I0817 13:13:47.369941  9291 net.cpp:122] Setting up fconv4__
I0817 13:13:47.369951  9291 net.cpp:129] Top shape: 12 3 1 4096 (147456)
I0817 13:13:47.369954  9291 net.cpp:137] Memory required for data: 650969088
I0817 13:13:47.369957  9291 layer_factory.hpp:77] Creating layer feat4
I0817 13:13:47.369966  9291 net.cpp:84] Creating Layer feat4
I0817 13:13:47.369971  9291 net.cpp:406] feat4 <- data_feat_data_feat_0_split_3
I0817 13:13:47.369976  9291 net.cpp:406] feat4 <- fconv4__
I0817 13:13:47.369982  9291 net.cpp:380] feat4 -> feat4
I0817 13:13:47.370012  9291 net.cpp:122] Setting up feat4
I0817 13:13:47.370019  9291 net.cpp:129] Top shape: 12 3 1 4096 (147456)
I0817 13:13:47.370023  9291 net.cpp:137] Memory required for data: 651558912
I0817 13:13:47.370028  9291 layer_factory.hpp:77] Creating layer data_lattice3
I0817 13:13:47.370070  9291 net.cpp:84] Creating Layer data_lattice3
I0817 13:13:47.370079  9291 net.cpp:406] data_lattice3 <- feat4
I0817 13:13:47.370086  9291 net.cpp:380] data_lattice3 -> data_lattice3
I0817 13:13:47.371696  9291 net.cpp:122] Setting up data_lattice3
I0817 13:13:47.371716  9291 net.cpp:129] Top shape: 12 3 1 4096 (147456)
I0817 13:13:47.371719  9291 net.cpp:137] Memory required for data: 652148736
I0817 13:13:47.371724  9291 layer_factory.hpp:77] Creating layer data_lattice3_data_lattice3_0_split
I0817 13:13:47.371736  9291 net.cpp:84] Creating Layer data_lattice3_data_lattice3_0_split
I0817 13:13:47.371740  9291 net.cpp:406] data_lattice3_data_lattice3_0_split <- data_lattice3
I0817 13:13:47.371748  9291 net.cpp:380] data_lattice3_data_lattice3_0_split -> data_lattice3_data_lattice3_0_split_0
I0817 13:13:47.371758  9291 net.cpp:380] data_lattice3_data_lattice3_0_split -> data_lattice3_data_lattice3_0_split_1
I0817 13:13:47.371803  9291 net.cpp:122] Setting up data_lattice3_data_lattice3_0_split
I0817 13:13:47.371814  9291 net.cpp:129] Top shape: 12 3 1 4096 (147456)
I0817 13:13:47.371819  9291 net.cpp:129] Top shape: 12 3 1 4096 (147456)
I0817 13:13:47.371821  9291 net.cpp:137] Memory required for data: 653328384
I0817 13:13:47.371825  9291 layer_factory.hpp:77] Creating layer conv5
I0817 13:13:47.371834  9291 net.cpp:84] Creating Layer conv5
I0817 13:13:47.371839  9291 net.cpp:406] conv5 <- bn4_relu4_0_split_1
I0817 13:13:47.371845  9291 net.cpp:406] conv5 <- data_lattice3_data_lattice3_0_split_0
I0817 13:13:47.371850  9291 net.cpp:406] conv5 <- data_lattice3_data_lattice3_0_split_1
I0817 13:13:47.371856  9291 net.cpp:380] conv5 -> conv5
I0817 13:13:47.410080  9291 net.cpp:122] Setting up conv5
I0817 13:13:47.410115  9291 net.cpp:129] Top shape: 12 256 1 4096 (12582912)
I0817 13:13:47.410120  9291 net.cpp:137] Memory required for data: 703660032
I0817 13:13:47.410128  9291 layer_factory.hpp:77] Creating layer bn5
I0817 13:13:47.410136  9291 net.cpp:84] Creating Layer bn5
I0817 13:13:47.410142  9291 net.cpp:406] bn5 <- conv5
I0817 13:13:47.410151  9291 net.cpp:380] bn5 -> bn5
I0817 13:13:47.410401  9291 net.cpp:122] Setting up bn5
I0817 13:13:47.410411  9291 net.cpp:129] Top shape: 12 256 1 4096 (12582912)
I0817 13:13:47.410415  9291 net.cpp:137] Memory required for data: 753991680
I0817 13:13:47.410424  9291 layer_factory.hpp:77] Creating layer relu5
I0817 13:13:47.410435  9291 net.cpp:84] Creating Layer relu5
I0817 13:13:47.410440  9291 net.cpp:406] relu5 <- bn5
I0817 13:13:47.410446  9291 net.cpp:367] relu5 -> bn5 (in-place)
I0817 13:13:47.410851  9291 net.cpp:122] Setting up relu5
I0817 13:13:47.410864  9291 net.cpp:129] Top shape: 12 256 1 4096 (12582912)
I0817 13:13:47.410868  9291 net.cpp:137] Memory required for data: 804323328
I0817 13:13:47.410872  9291 layer_factory.hpp:77] Creating layer bn5_relu5_0_split
I0817 13:13:47.410879  9291 net.cpp:84] Creating Layer bn5_relu5_0_split
I0817 13:13:47.410883  9291 net.cpp:406] bn5_relu5_0_split <- bn5
I0817 13:13:47.410890  9291 net.cpp:380] bn5_relu5_0_split -> bn5_relu5_0_split_0
I0817 13:13:47.410898  9291 net.cpp:380] bn5_relu5_0_split -> bn5_relu5_0_split_1
I0817 13:13:47.410917  9291 net.cpp:380] bn5_relu5_0_split -> bn5_relu5_0_split_2
I0817 13:13:47.410977  9291 net.cpp:122] Setting up bn5_relu5_0_split
I0817 13:13:47.410985  9291 net.cpp:129] Top shape: 12 256 1 4096 (12582912)
I0817 13:13:47.410991  9291 net.cpp:129] Top shape: 12 256 1 4096 (12582912)
I0817 13:13:47.410996  9291 net.cpp:129] Top shape: 12 256 1 4096 (12582912)
I0817 13:13:47.411000  9291 net.cpp:137] Memory required for data: 955318272
I0817 13:13:47.411002  9291 layer_factory.hpp:77] Creating layer fconv5
I0817 13:13:47.411016  9291 net.cpp:84] Creating Layer fconv5
I0817 13:13:47.411021  9291 net.cpp:406] fconv5 <- bn5_relu5_0_split_0
I0817 13:13:47.411028  9291 net.cpp:380] fconv5 -> fconv5
I0817 13:13:47.412767  9291 net.cpp:122] Setting up fconv5
I0817 13:13:47.412784  9291 net.cpp:129] Top shape: 12 3 1 4096 (147456)
I0817 13:13:47.412788  9291 net.cpp:137] Memory required for data: 955908096
I0817 13:13:47.412797  9291 layer_factory.hpp:77] Creating layer fconv5_
I0817 13:13:47.412806  9291 net.cpp:84] Creating Layer fconv5_
I0817 13:13:47.412811  9291 net.cpp:406] fconv5_ <- fconv5
I0817 13:13:47.412818  9291 net.cpp:380] fconv5_ -> fconv5_
I0817 13:13:47.412848  9291 net.cpp:122] Setting up fconv5_
I0817 13:13:47.412860  9291 net.cpp:129] Top shape: 12 3 1 4096 (147456)
I0817 13:13:47.412864  9291 net.cpp:137] Memory required for data: 956497920
I0817 13:13:47.412868  9291 layer_factory.hpp:77] Creating layer fconv5__
I0817 13:13:47.412880  9291 net.cpp:84] Creating Layer fconv5__
I0817 13:13:47.412885  9291 net.cpp:406] fconv5__ <- fconv5_
I0817 13:13:47.412891  9291 net.cpp:380] fconv5__ -> fconv5__
I0817 13:13:47.412916  9291 net.cpp:122] Setting up fconv5__
I0817 13:13:47.412925  9291 net.cpp:129] Top shape: 12 3 1 4096 (147456)
I0817 13:13:47.412928  9291 net.cpp:137] Memory required for data: 957087744
I0817 13:13:47.412931  9291 layer_factory.hpp:77] Creating layer feat5
I0817 13:13:47.412941  9291 net.cpp:84] Creating Layer feat5
I0817 13:13:47.412946  9291 net.cpp:406] feat5 <- data_feat_data_feat_0_split_4
I0817 13:13:47.412951  9291 net.cpp:406] feat5 <- fconv5__
I0817 13:13:47.412957  9291 net.cpp:380] feat5 -> feat5
I0817 13:13:47.412984  9291 net.cpp:122] Setting up feat5
I0817 13:13:47.412993  9291 net.cpp:129] Top shape: 12 3 1 4096 (147456)
I0817 13:13:47.412997  9291 net.cpp:137] Memory required for data: 957677568
I0817 13:13:47.412999  9291 layer_factory.hpp:77] Creating layer data_lattice4
I0817 13:13:47.413051  9291 net.cpp:84] Creating Layer data_lattice4
I0817 13:13:47.413059  9291 net.cpp:406] data_lattice4 <- feat5
I0817 13:13:47.413066  9291 net.cpp:380] data_lattice4 -> data_lattice4
I0817 13:13:47.413250  9291 net.cpp:122] Setting up data_lattice4
I0817 13:13:47.413264  9291 net.cpp:129] Top shape: 12 3 1 4096 (147456)
I0817 13:13:47.413267  9291 net.cpp:137] Memory required for data: 958267392
I0817 13:13:47.413271  9291 layer_factory.hpp:77] Creating layer data_lattice4_data_lattice4_0_split
I0817 13:13:47.413280  9291 net.cpp:84] Creating Layer data_lattice4_data_lattice4_0_split
I0817 13:13:47.413283  9291 net.cpp:406] data_lattice4_data_lattice4_0_split <- data_lattice4
I0817 13:13:47.413297  9291 net.cpp:380] data_lattice4_data_lattice4_0_split -> data_lattice4_data_lattice4_0_split_0
I0817 13:13:47.413305  9291 net.cpp:380] data_lattice4_data_lattice4_0_split -> data_lattice4_data_lattice4_0_split_1
I0817 13:13:47.413345  9291 net.cpp:122] Setting up data_lattice4_data_lattice4_0_split
I0817 13:13:47.413353  9291 net.cpp:129] Top shape: 12 3 1 4096 (147456)
I0817 13:13:47.413358  9291 net.cpp:129] Top shape: 12 3 1 4096 (147456)
I0817 13:13:47.413362  9291 net.cpp:137] Memory required for data: 959447040
I0817 13:13:47.413364  9291 layer_factory.hpp:77] Creating layer conv6
I0817 13:13:47.413377  9291 net.cpp:84] Creating Layer conv6
I0817 13:13:47.413380  9291 net.cpp:406] conv6 <- bn5_relu5_0_split_1
I0817 13:13:47.413385  9291 net.cpp:406] conv6 <- data_lattice4_data_lattice4_0_split_0
I0817 13:13:47.413390  9291 net.cpp:406] conv6 <- data_lattice4_data_lattice4_0_split_1
I0817 13:13:47.413396  9291 net.cpp:380] conv6 -> conv6
I0817 13:13:47.450414  9291 net.cpp:122] Setting up conv6
I0817 13:13:47.450438  9291 net.cpp:129] Top shape: 12 256 1 4096 (12582912)
I0817 13:13:47.450445  9291 net.cpp:137] Memory required for data: 1009778688
I0817 13:13:47.450453  9291 layer_factory.hpp:77] Creating layer bn6
I0817 13:13:47.450461  9291 net.cpp:84] Creating Layer bn6
I0817 13:13:47.450466  9291 net.cpp:406] bn6 <- conv6
I0817 13:13:47.450474  9291 net.cpp:380] bn6 -> bn6
I0817 13:13:47.450711  9291 net.cpp:122] Setting up bn6
I0817 13:13:47.450721  9291 net.cpp:129] Top shape: 12 256 1 4096 (12582912)
I0817 13:13:47.450726  9291 net.cpp:137] Memory required for data: 1060110336
I0817 13:13:47.450733  9291 layer_factory.hpp:77] Creating layer relu6
I0817 13:13:47.450742  9291 net.cpp:84] Creating Layer relu6
I0817 13:13:47.450745  9291 net.cpp:406] relu6 <- bn6
I0817 13:13:47.450752  9291 net.cpp:367] relu6 -> bn6 (in-place)
I0817 13:13:47.454766  9291 net.cpp:122] Setting up relu6
I0817 13:13:47.454782  9291 net.cpp:129] Top shape: 12 256 1 4096 (12582912)
I0817 13:13:47.454787  9291 net.cpp:137] Memory required for data: 1110441984
I0817 13:13:47.454795  9291 layer_factory.hpp:77] Creating layer concat6
I0817 13:13:47.454875  9291 net.cpp:84] Creating Layer concat6
I0817 13:13:47.454885  9291 net.cpp:406] concat6 <- bn6
I0817 13:13:47.454892  9291 net.cpp:406] concat6 <- bn2_relu2_0_split_2
I0817 13:13:47.454897  9291 net.cpp:406] concat6 <- bn3_relu3_0_split_2
I0817 13:13:47.454901  9291 net.cpp:406] concat6 <- bn4_relu4_0_split_2
I0817 13:13:47.454905  9291 net.cpp:406] concat6 <- bn5_relu5_0_split_2
I0817 13:13:47.454911  9291 net.cpp:380] concat6 -> concat6
I0817 13:13:47.454972  9291 net.cpp:122] Setting up concat6
I0817 13:13:47.454983  9291 net.cpp:129] Top shape: 12 960 1 4096 (47185920)
I0817 13:13:47.454988  9291 net.cpp:137] Memory required for data: 1299185664
I0817 13:13:47.454991  9291 layer_factory.hpp:77] Creating layer conv7
I0817 13:13:47.455003  9291 net.cpp:84] Creating Layer conv7
I0817 13:13:47.455008  9291 net.cpp:406] conv7 <- concat6
I0817 13:13:47.455015  9291 net.cpp:380] conv7 -> conv7
I0817 13:13:47.460686  9291 net.cpp:122] Setting up conv7
I0817 13:13:47.460722  9291 net.cpp:129] Top shape: 12 128 1 4096 (6291456)
I0817 13:13:47.460732  9291 net.cpp:137] Memory required for data: 1324351488
I0817 13:13:47.460748  9291 layer_factory.hpp:77] Creating layer bn7
I0817 13:13:47.460763  9291 net.cpp:84] Creating Layer bn7
I0817 13:13:47.460773  9291 net.cpp:406] bn7 <- conv7
I0817 13:13:47.460786  9291 net.cpp:380] bn7 -> bn7
I0817 13:13:47.461269  9291 net.cpp:122] Setting up bn7
I0817 13:13:47.461288  9291 net.cpp:129] Top shape: 12 128 1 4096 (6291456)
I0817 13:13:47.461295  9291 net.cpp:137] Memory required for data: 1349517312
I0817 13:13:47.461310  9291 layer_factory.hpp:77] Creating layer relu7
I0817 13:13:47.461341  9291 net.cpp:84] Creating Layer relu7
I0817 13:13:47.461351  9291 net.cpp:406] relu7 <- bn7
I0817 13:13:47.461361  9291 net.cpp:367] relu7 -> bn7 (in-place)
I0817 13:13:47.461931  9291 net.cpp:122] Setting up relu7
I0817 13:13:47.461953  9291 net.cpp:129] Top shape: 12 128 1 4096 (6291456)
I0817 13:13:47.461961  9291 net.cpp:137] Memory required for data: 1374683136
I0817 13:13:47.461969  9291 layer_factory.hpp:77] Creating layer conv8
I0817 13:13:47.461997  9291 net.cpp:84] Creating Layer conv8
I0817 13:13:47.462007  9291 net.cpp:406] conv8 <- bn7
I0817 13:13:47.462019  9291 net.cpp:380] conv8 -> conv8
I0817 13:13:47.466753  9291 net.cpp:122] Setting up conv8
I0817 13:13:47.466785  9291 net.cpp:129] Top shape: 12 13 1 4096 (638976)
I0817 13:13:47.466794  9291 net.cpp:137] Memory required for data: 1377239040
I0817 13:13:47.466809  9291 layer_factory.hpp:77] Creating layer conv8_conv8_0_split
I0817 13:13:47.466822  9291 net.cpp:84] Creating Layer conv8_conv8_0_split
I0817 13:13:47.466830  9291 net.cpp:406] conv8_conv8_0_split <- conv8
I0817 13:13:47.466843  9291 net.cpp:380] conv8_conv8_0_split -> conv8_conv8_0_split_0
I0817 13:13:47.466862  9291 net.cpp:380] conv8_conv8_0_split -> conv8_conv8_0_split_1
I0817 13:13:47.466943  9291 net.cpp:122] Setting up conv8_conv8_0_split
I0817 13:13:47.466959  9291 net.cpp:129] Top shape: 12 13 1 4096 (638976)
I0817 13:13:47.466967  9291 net.cpp:129] Top shape: 12 13 1 4096 (638976)
I0817 13:13:47.466974  9291 net.cpp:137] Memory required for data: 1382350848
I0817 13:13:47.466980  9291 layer_factory.hpp:77] Creating layer loss
I0817 13:13:47.467053  9291 net.cpp:84] Creating Layer loss
I0817 13:13:47.467068  9291 net.cpp:406] loss <- conv8_conv8_0_split_0
I0817 13:13:47.467080  9291 net.cpp:406] loss <- label_data_1_split_0
I0817 13:13:47.467092  9291 net.cpp:380] loss -> loss
…
