…
I0816 10:07:41.489665  9966 net.cpp:294] The NetState phase (0) differed from the phase (1) specified by a rule in layer data
I0816 10:07:41.490409  9966 net.cpp:51] Initializing net from parameters: 
state {
  phase: TRAIN
}
layer {
  name: "data"
  type: "Python"
  top: "data"
  top: "label"
  include {
    phase: TRAIN
  }
  python_param {
    module: "dataset_lidar"
    layer: "InputShapenet"
    param_str: "{\'sample_size\': 4096, \'test_area\': \'6\', \'batch_size\': 12, \'feat_dims\': \'x_y_z_r_g_b\', \'subset\': \'train\', \'root\': \'../../data/shapenet_ericyi_ply\', \'jitter_xyz\': 0.01, \'jitter_stretch\': 0.05, \'jitter_rotation\': 5.0}"
  }
}
layer {
  name: "data_feat"
  type: "Python"
  bottom: "data"
  top: "data_feat"
  python_param {
    module: "custom_layers"
    layer: "PickAndScale2"
    param_str: "0_1_2"
  }
}
layer {
  name: "conv1"
  type: "Convolution"
  bottom: "data"
  top: "conv1"
  param {
    lr_mult: 1
  }
  param {
    lr_mult: 0.1
  }
  convolution_param {
    num_output: 64
    pad: 0
    kernel_size: 1
    stride: 1
    weight_filler {
      type: "xavier"
    }
    bias_filler {
      type: "constant"
      value: 0
    }
  }
}
layer {
  name: "bn1"
  type: "BatchNorm"
  bottom: "conv1"
  top: "bn1"
}
layer {
  name: "relu1"
  type: "ReLU"
  bottom: "bn1"
  top: "bn1"
}
layer {
  name: "conv1a"
  type: "Convolution"
  bottom: "bn1"
  top: "conv1a"
  param {
    lr_mult: 1
  }
  param {
    lr_mult: 0.1
  }
  convolution_param {
    num_output: 64
    pad: 0
    kernel_size: 1
    stride: 1
    weight_filler {
      type: "xavier"
    }
    bias_filler {
      type: "constant"
      value: 0
    }
  }
}
layer {
  name: "bn1a"
  type: "BatchNorm"
  bottom: "conv1a"
  top: "bn1a"
}
layer {
  name: "relu1a"
  type: "ReLU"
  bottom: "bn1a"
  top: "bn1a"
}
layer {
  name: "fconv1"
  type: "Convolution"
  bottom: "bn1a"
  top: "fconv1"
  param {
    lr_mult: 1
  }
  param {
    lr_mult: 0.1
  }
  convolution_param {
    num_output: 3
    pad: 0
    kernel_size: 1
    stride: 1
    weight_filler {
      type: "xavier"
    }
    bias_filler {
      type: "constant"
      value: 0
    }
  }
}
layer {
  name: "fbn1"
  type: "BatchNorm"
  bottom: "fconv1"
  top: "fbn1"
}
layer {
  name: "frelu1"
  type: "ReLU"
  bottom: "fbn1"
  top: "fbn1"
}
layer {
  name: "feat1"
  type: "Eltwise"
  bottom: "data_feat"
  bottom: "fbn1"
  top: "feat1"
  eltwise_param {
    operation: SUM
  }
}
layer {
  name: "data_lattice0"
  type: "Python"
  bottom: "feat1"
  top: "data_lattice0"
  python_param {
    module: "custom_layers"
    layer: "PickAndScale2"
    param_str: "0*48_1*48_2*48"
  }
}
layer {
  name: "conv2"
  type: "Permutohedral"
  bottom: "bn1a"
  bottom: "data_lattice0"
  bottom: "data_lattice0"
  top: "conv2"
  param {
    lr_mult: 1
    decay_mult: 1
  }
  param {
    lr_mult: 2
    decay_mult: 0
  }
  permutohedral_param {
    num_output: 64
    neighborhood_size: 1
    filter_filler {
      type: "gaussian"
      std: 0.001
    }
    bias_term: true
    bias_filler {
      type: "constant"
      value: 0
    }
    group: 1
    norm_type: AFTER
    offset_type: NONE
  }
}
layer {
  name: "bn2"
  type: "BatchNorm"
  bottom: "conv2"
  top: "bn2"
}
layer {
  name: "relu2"
  type: "ReLU"
  bottom: "bn2"
  top: "bn2"
}
layer {
  name: "fconv2"
  type: "Convolution"
  bottom: "bn2"
  top: "fconv2"
  param {
    lr_mult: 1
  }
  param {
    lr_mult: 0.1
  }
  convolution_param {
    num_output: 3
    pad: 0
    kernel_size: 1
    stride: 1
    weight_filler {
      type: "xavier"
    }
    bias_filler {
      type: "constant"
      value: 0
    }
  }
}
layer {
  name: "fbn2"
  type: "BatchNorm"
  bottom: "fconv2"
  top: "fbn2"
}
layer {
  name: "frelu2"
  type: "ReLU"
  bottom: "fbn2"
  top: "fbn2"
}
layer {
  name: "feat2"
  type: "Eltwise"
  bottom: "data_feat"
  bottom: "fbn2"
  top: "feat2"
  eltwise_param {
    operation: SUM
  }
}
layer {
  name: "data_lattice1"
  type: "Python"
  bottom: "feat2"
  top: "data_lattice1"
  python_param {
    module: "custom_layers"
    layer: "PickAndScale2"
    param_str: "0*24_1*24_2*24"
  }
}
layer {
  name: "conv3"
  type: "Permutohedral"
  bottom: "bn2"
  bottom: "data_lattice1"
  bottom: "data_lattice1"
  top: "conv3"
  param {
    lr_mult: 1
    decay_mult: 1
  }
  param {
    lr_mult: 2
    decay_mult: 0
  }
  permutohedral_param {
    num_output: 128
    neighborhood_size: 1
    filter_filler {
      type: "gaussian"
      std: 0.001
    }
    bias_term: true
    bias_filler {
      type: "constant"
      value: 0
    }
    group: 1
    norm_type: AFTER
    offset_type: NONE
  }
}
layer {
  name: "bn3"
  type: "BatchNorm"
  bottom: "conv3"
  top: "bn3"
}
layer {
  name: "relu3"
  type: "ReLU"
  bottom: "bn3"
  top: "bn3"
}
layer {
  name: "fconv3"
  type: "Convolution"
  bottom: "bn3"
  top: "fconv3"
  param {
    lr_mult: 1
  }
  param {
    lr_mult: 0.1
  }
  convolution_param {
    num_output: 3
    pad: 0
    kernel_size: 1
    stride: 1
    weight_filler {
      type: "xavier"
    }
    bias_filler {
      type: "constant"
      value: 0
    }
  }
}
layer {
  name: "fbn3"
  type: "BatchNorm"
  bottom: "fconv3"
  top: "fbn3"
}
layer {
  name: "frelu3"
  type: "ReLU"
  bottom: "fbn3"
  top: "fbn3"
}
layer {
  name: "feat3"
  type: "Eltwise"
  bottom: "data_feat"
  bottom: "fbn3"
  top: "feat3"
  eltwise_param {
    operation: SUM
  }
}
layer {
  name: "data_lattice2"
  type: "Python"
  bottom: "feat3"
  top: "data_lattice2"
  python_param {
    module: "custom_layers"
    layer: "PickAndScale2"
    param_str: "0*12_1*12_2*12"
  }
}
layer {
  name: "conv4"
  type: "Permutohedral"
  bottom: "bn3"
  bottom: "data_lattice2"
  bottom: "data_lattice2"
  top: "conv4"
  param {
    lr_mult: 1
    decay_mult: 1
  }
  param {
    lr_mult: 2
    decay_mult: 0
  }
  permutohedral_param {
    num_output: 256
    neighborhood_size: 1
    filter_filler {
      type: "gaussian"
      std: 0.001
    }
    bias_term: true
    bias_filler {
      type: "constant"
      value: 0
    }
    group: 1
    norm_type: AFTER
    offset_type: NONE
  }
}
layer {
  name: "bn4"
  type: "BatchNorm"
  bottom: "conv4"
  top: "bn4"
}
layer {
  name: "relu4"
  type: "ReLU"
  bottom: "bn4"
  top: "bn4"
}
layer {
  name: "fconv4"
  type: "Convolution"
  bottom: "bn4"
  top: "fconv4"
  param {
    lr_mult: 1
  }
  param {
    lr_mult: 0.1
  }
  convolution_param {
    num_output: 3
    pad: 0
    kernel_size: 1
    stride: 1
    weight_filler {
      type: "xavier"
    }
    bias_filler {
      type: "constant"
      value: 0
    }
  }
}
layer {
  name: "fbn4"
  type: "BatchNorm"
  bottom: "fconv4"
  top: "fbn4"
}
layer {
  name: "frelu4"
  type: "ReLU"
  bottom: "fbn4"
  top: "fbn4"
}
layer {
  name: "feat4"
  type: "Eltwise"
  bottom: "data_feat"
  bottom: "fbn4"
  top: "feat4"
  eltwise_param {
    operation: SUM
  }
}
layer {
  name: "data_lattice3"
  type: "Python"
  bottom: "feat4"
  top: "data_lattice3"
  python_param {
    module: "custom_layers"
    layer: "PickAndScale2"
    param_str: "0*6_1*6_2*6"
  }
}
layer {
  name: "conv5"
  type: "Permutohedral"
  bottom: "bn4"
  bottom: "data_lattice3"
  bottom: "data_lattice3"
  top: "conv5"
  param {
    lr_mult: 1
    decay_mult: 1
  }
  param {
    lr_mult: 2
    decay_mult: 0
  }
  permutohedral_param {
    num_output: 256
    neighborhood_size: 1
    filter_filler {
      type: "gaussian"
      std: 0.001
    }
    bias_term: true
    bias_filler {
      type: "constant"
      value: 0
    }
    group: 1
    norm_type: AFTER
    offset_type: NONE
  }
}
layer {
  name: "bn5"
  type: "BatchNorm"
  bottom: "conv5"
  top: "bn5"
}
layer {
  name: "relu5"
  type: "ReLU"
  bottom: "bn5"
  top: "bn5"
}
layer {
  name: "fconv5"
  type: "Convolution"
  bottom: "bn5"
  top: "fconv5"
  param {
    lr_mult: 1
  }
  param {
    lr_mult: 0.1
  }
  convolution_param {
    num_output: 3
    pad: 0
    kernel_size: 1
    stride: 1
    weight_filler {
      type: "xavier"
    }
    bias_filler {
      type: "constant"
      value: 0
    }
  }
}
layer {
  name: "fbn5"
  type: "BatchNorm"
  bottom: "fconv5"
  top: "fbn5"
}
layer {
  name: "frelu5"
  type: "ReLU"
  bottom: "fbn5"
  top: "fbn5"
}
layer {
  name: "feat5"
  type: "Eltwise"
  bottom: "data_feat"
  bottom: "fbn5"
  top: "feat5"
  eltwise_param {
    operation: SUM
  }
}
layer {
  name: "data_lattice4"
  type: "Python"
  bottom: "feat5"
  top: "data_lattice4"
  python_param {
    module: "custom_layers"
    layer: "PickAndScale2"
    param_str: "0*3_1*3_2*3"
  }
}
layer {
  name: "conv6"
  type: "Permutohedral"
  bottom: "bn5"
  bottom: "data_lattice4"
  bottom: "data_lattice4"
  top: "conv6"
  param {
    lr_mult: 1
    decay_mult: 1
  }
  param {
    lr_mult: 2
    decay_mult: 0
  }
  permutohedral_param {
    num_output: 256
    neighborhood_size: 1
    filter_filler {
      type: "gaussian"
      std: 0.001
    }
    bias_term: true
    bias_filler {
      type: "constant"
      value: 0
    }
    group: 1
    norm_type: AFTER
    offset_type: NONE
  }
}
layer {
  name: "bn6"
  type: "BatchNorm"
  bottom: "conv6"
  top: "bn6"
}
layer {
  name: "relu6"
  type: "ReLU"
  bottom: "bn6"
  top: "bn6"
}
layer {
  name: "concat6"
  type: "Concat"
  bottom: "bn6"
  bottom: "bn2"
  bottom: "bn3"
  bottom: "bn4"
  bottom: "bn5"
  top: "concat6"
}
layer {
  name: "conv7"
  type: "Convolution"
  bottom: "concat6"
  top: "conv7"
  param {
    lr_mult: 1
  }
  param {
    lr_mult: 0.1
  }
  convolution_param {
    num_output: 128
    pad: 0
    kernel_size: 1
    stride: 1
    weight_filler {
      type: "xavier"
    }
    bias_filler {
      type: "constant"
      value: 0
    }
  }
}
layer {
  name: "bn7"
  type: "BatchNorm"
  bottom: "conv7"
  top: "bn7"
}
layer {
  name: "relu7"
  type: "ReLU"
  bottom: "bn7"
  top: "bn7"
}
layer {
  name: "conv8"
  type: "Convolution"
  bottom: "bn7"
  top: "conv8"
  param {
    lr_mult: 1
  }
  param {
    lr_mult: 0.1
  }
  convolution_param {
    num_output: 13
    pad: 0
    kernel_size: 1
    stride: 1
    weight_filler {
      type: "xavier"
    }
    bias_filler {
      type: "constant"
      value: 0
    }
  }
}
layer {
  name: "loss"
  type: "SoftmaxWithLoss"
  bottom: "conv8"
  bottom: "label"
  top: "loss"
}
layer {
  name: "accuracy"
  type: "Accuracy"
  bottom: "conv8"
  bottom: "label"
  top: "accuracy"
}
I0816 10:07:41.494256  9966 layer_factory.hpp:77] Creating layer data
I0816 10:07:41.521229  9966 net.cpp:84] Creating Layer data
I0816 10:07:41.521296  9966 net.cpp:380] data -> data
I0816 10:07:41.521440  9966 net.cpp:380] data -> label
I0816 10:07:41.641952  9970 upgrade_proto.cpp:1084] Attempting to upgrade input file specified using deprecated 'solver_type' field (enum)': /mnt/lustre/wangjiayun/repos/splatnet/exp/lidar3d/area6/6_solver.prototxt
…
I0816 10:07:41.704849  9968 upgrade_proto.cpp:1084] Attempting to upgrade input file specified using deprecated 'solver_type' field (enum)': /mnt/lustre/wangjiayun/repos/splatnet/exp/lidar3d/area6/6_solver.prototxt
I0816 10:07:41.704929  9968 upgrade_proto.cpp:1091] Successfully upgraded file specified using deprecated 'solver_type' field (enum) to 'type' field (string).
W0816 10:07:41.704936  9968 upgrade_proto.cpp:1093] Note that future Caffe releases will only support 'type' field (string) for a solver's type.
I0816 10:09:12.803303  9966 net.cpp:122] Setting up data
I0816 10:09:12.803359  9966 net.cpp:129] Top shape: 12 6 1 4096 (294912)
I0816 10:09:12.803367  9966 net.cpp:129] Top shape: 12 1 1 4096 (49152)
I0816 10:09:12.803370  9966 net.cpp:137] Memory required for data: 1376256
I0816 10:09:12.803380  9966 layer_factory.hpp:77] Creating layer data_data_0_split
I0816 10:09:12.803416  9966 net.cpp:84] Creating Layer data_data_0_split
I0816 10:09:12.803428  9966 net.cpp:406] data_data_0_split <- data
I0816 10:09:12.803439  9966 net.cpp:380] data_data_0_split -> data_data_0_split_0
I0816 10:09:12.803452  9966 net.cpp:380] data_data_0_split -> data_data_0_split_1
I0816 10:09:12.803508  9966 net.cpp:122] Setting up data_data_0_split
I0816 10:09:12.803519  9966 net.cpp:129] Top shape: 12 6 1 4096 (294912)
I0816 10:09:12.803524  9966 net.cpp:129] Top shape: 12 6 1 4096 (294912)
I0816 10:09:12.803525  9966 net.cpp:137] Memory required for data: 3735552
I0816 10:09:12.803529  9966 layer_factory.hpp:77] Creating layer label_data_1_split
I0816 10:09:12.803539  9966 net.cpp:84] Creating Layer label_data_1_split
I0816 10:09:12.803542  9966 net.cpp:406] label_data_1_split <- label
I0816 10:09:12.803547  9966 net.cpp:380] label_data_1_split -> label_data_1_split_0
I0816 10:09:12.803555  9966 net.cpp:380] label_data_1_split -> label_data_1_split_1
I0816 10:09:12.803582  9966 net.cpp:122] Setting up label_data_1_split
I0816 10:09:12.803591  9966 net.cpp:129] Top shape: 12 1 1 4096 (49152)
I0816 10:09:12.803593  9966 net.cpp:129] Top shape: 12 1 1 4096 (49152)
I0816 10:09:12.803596  9966 net.cpp:137] Memory required for data: 4128768
I0816 10:09:12.803599  9966 layer_factory.hpp:77] Creating layer data_feat
I0816 10:09:12.811913  9966 net.cpp:84] Creating Layer data_feat
I0816 10:09:12.811928  9966 net.cpp:406] data_feat <- data_data_0_split_0
I0816 10:09:12.811947  9966 net.cpp:380] data_feat -> data_feat
I0816 10:09:12.813562  9966 net.cpp:122] Setting up data_feat
I0816 10:09:12.813591  9966 net.cpp:129] Top shape: 12 3 1 4096 (147456)
I0816 10:09:12.813594  9966 net.cpp:137] Memory required for data: 4718592
I0816 10:09:12.813598  9966 layer_factory.hpp:77] Creating layer data_feat_data_feat_0_split
I0816 10:09:12.813607  9966 net.cpp:84] Creating Layer data_feat_data_feat_0_split
I0816 10:09:12.813611  9966 net.cpp:406] data_feat_data_feat_0_split <- data_feat
I0816 10:09:12.813619  9966 net.cpp:380] data_feat_data_feat_0_split -> data_feat_data_feat_0_split_0
I0816 10:09:12.813627  9966 net.cpp:380] data_feat_data_feat_0_split -> data_feat_data_feat_0_split_1
I0816 10:09:12.813633  9966 net.cpp:380] data_feat_data_feat_0_split -> data_feat_data_feat_0_split_2
I0816 10:09:12.813639  9966 net.cpp:380] data_feat_data_feat_0_split -> data_feat_data_feat_0_split_3
I0816 10:09:12.813644  9966 net.cpp:380] data_feat_data_feat_0_split -> data_feat_data_feat_0_split_4
I0816 10:09:12.813704  9966 net.cpp:122] Setting up data_feat_data_feat_0_split
I0816 10:09:12.813711  9966 net.cpp:129] Top shape: 12 3 1 4096 (147456)
I0816 10:09:12.813715  9966 net.cpp:129] Top shape: 12 3 1 4096 (147456)
I0816 10:09:12.813719  9966 net.cpp:129] Top shape: 12 3 1 4096 (147456)
I0816 10:09:12.813722  9966 net.cpp:129] Top shape: 12 3 1 4096 (147456)
I0816 10:09:12.813726  9966 net.cpp:129] Top shape: 12 3 1 4096 (147456)
I0816 10:09:12.813730  9966 net.cpp:137] Memory required for data: 7667712
I0816 10:09:12.813735  9966 layer_factory.hpp:77] Creating layer conv1
I0816 10:09:12.813772  9966 net.cpp:84] Creating Layer conv1
I0816 10:09:12.813781  9966 net.cpp:406] conv1 <- data_data_0_split_1
I0816 10:09:12.813788  9966 net.cpp:380] conv1 -> conv1
I0816 10:09:15.781013  9966 net.cpp:122] Setting up conv1
I0816 10:09:15.781100  9966 net.cpp:129] Top shape: 12 64 1 4096 (3145728)
I0816 10:09:15.781112  9966 net.cpp:137] Memory required for data: 20250624
I0816 10:09:15.791046  9966 layer_factory.hpp:77] Creating layer bn1
I0816 10:09:15.791687  9966 net.cpp:84] Creating Layer bn1
I0816 10:09:15.791723  9966 net.cpp:406] bn1 <- conv1
I0816 10:09:15.791746  9966 net.cpp:380] bn1 -> bn1
I0816 10:09:15.796056  9966 net.cpp:122] Setting up bn1
I0816 10:09:15.796113  9966 net.cpp:129] Top shape: 12 64 1 4096 (3145728)
I0816 10:09:15.796124  9966 net.cpp:137] Memory required for data: 32833536
I0816 10:09:15.796154  9966 layer_factory.hpp:77] Creating layer relu1
I0816 10:09:15.796885  9966 net.cpp:84] Creating Layer relu1
I0816 10:09:15.796919  9966 net.cpp:406] relu1 <- bn1
I0816 10:09:15.796937  9966 net.cpp:367] relu1 -> bn1 (in-place)
I0816 10:09:15.798333  9966 net.cpp:122] Setting up relu1
I0816 10:09:15.798372  9966 net.cpp:129] Top shape: 12 64 1 4096 (3145728)
I0816 10:09:15.798383  9966 net.cpp:137] Memory required for data: 45416448
I0816 10:09:15.798398  9966 layer_factory.hpp:77] Creating layer conv1a
I0816 10:09:15.798449  9966 net.cpp:84] Creating Layer conv1a
I0816 10:09:15.798476  9966 net.cpp:406] conv1a <- bn1
I0816 10:09:15.798498  9966 net.cpp:380] conv1a -> conv1a
I0816 10:09:15.802520  9966 net.cpp:122] Setting up conv1a
I0816 10:09:15.802557  9966 net.cpp:129] Top shape: 12 64 1 4096 (3145728)
I0816 10:09:15.802567  9966 net.cpp:137] Memory required for data: 57999360
I0816 10:09:15.802583  9966 layer_factory.hpp:77] Creating layer bn1a
I0816 10:09:15.802605  9966 net.cpp:84] Creating Layer bn1a
I0816 10:09:15.802615  9966 net.cpp:406] bn1a <- conv1a
I0816 10:09:15.802630  9966 net.cpp:380] bn1a -> bn1a
I0816 10:09:15.803046  9966 net.cpp:122] Setting up bn1a
I0816 10:09:15.803068  9966 net.cpp:129] Top shape: 12 64 1 4096 (3145728)
I0816 10:09:15.803076  9966 net.cpp:137] Memory required for data: 70582272
I0816 10:09:15.803099  9966 layer_factory.hpp:77] Creating layer relu1a
I0816 10:09:15.803118  9966 net.cpp:84] Creating Layer relu1a
I0816 10:09:15.803128  9966 net.cpp:406] relu1a <- bn1a
I0816 10:09:15.803141  9966 net.cpp:367] relu1a -> bn1a (in-place)
I0816 10:09:15.803753  9966 net.cpp:122] Setting up relu1a
I0816 10:09:15.803782  9966 net.cpp:129] Top shape: 12 64 1 4096 (3145728)
I0816 10:09:15.803791  9966 net.cpp:137] Memory required for data: 83165184
I0816 10:09:15.803800  9966 layer_factory.hpp:77] Creating layer bn1a_relu1a_0_split
I0816 10:09:15.803823  9966 net.cpp:84] Creating Layer bn1a_relu1a_0_split
I0816 10:09:15.803833  9966 net.cpp:406] bn1a_relu1a_0_split <- bn1a
I0816 10:09:15.803849  9966 net.cpp:380] bn1a_relu1a_0_split -> bn1a_relu1a_0_split_0
I0816 10:09:15.803875  9966 net.cpp:380] bn1a_relu1a_0_split -> bn1a_relu1a_0_split_1
I0816 10:09:15.803970  9966 net.cpp:122] Setting up bn1a_relu1a_0_split
I0816 10:09:15.803992  9966 net.cpp:129] Top shape: 12 64 1 4096 (3145728)
I0816 10:09:15.804002  9966 net.cpp:129] Top shape: 12 64 1 4096 (3145728)
I0816 10:09:15.804008  9966 net.cpp:137] Memory required for data: 108331008
I0816 10:09:15.804015  9966 layer_factory.hpp:77] Creating layer fconv1
I0816 10:09:15.804039  9966 net.cpp:84] Creating Layer fconv1
I0816 10:09:15.804051  9966 net.cpp:406] fconv1 <- bn1a_relu1a_0_split_0
I0816 10:09:15.804069  9966 net.cpp:380] fconv1 -> fconv1
I0816 10:09:15.807090  9966 net.cpp:122] Setting up fconv1
I0816 10:09:15.807126  9966 net.cpp:129] Top shape: 12 3 1 4096 (147456)
I0816 10:09:15.807134  9966 net.cpp:137] Memory required for data: 108920832
I0816 10:09:15.807152  9966 layer_factory.hpp:77] Creating layer fbn1
I0816 10:09:15.807168  9966 net.cpp:84] Creating Layer fbn1
I0816 10:09:15.807178  9966 net.cpp:406] fbn1 <- fconv1
I0816 10:09:15.807194  9966 net.cpp:380] fbn1 -> fbn1
I0816 10:09:15.807636  9966 net.cpp:122] Setting up fbn1
I0816 10:09:15.807659  9966 net.cpp:129] Top shape: 12 3 1 4096 (147456)
I0816 10:09:15.807667  9966 net.cpp:137] Memory required for data: 109510656
I0816 10:09:15.807690  9966 layer_factory.hpp:77] Creating layer frelu1
I0816 10:09:15.807708  9966 net.cpp:84] Creating Layer frelu1
I0816 10:09:15.807718  9966 net.cpp:406] frelu1 <- fbn1
I0816 10:09:15.807730  9966 net.cpp:367] frelu1 -> fbn1 (in-place)
I0816 10:09:15.809018  9966 net.cpp:122] Setting up frelu1
I0816 10:09:15.809052  9966 net.cpp:129] Top shape: 12 3 1 4096 (147456)
I0816 10:09:15.809062  9966 net.cpp:137] Memory required for data: 110100480
I0816 10:09:15.809072  9966 layer_factory.hpp:77] Creating layer feat1
I0816 10:09:15.809147  9966 net.cpp:84] Creating Layer feat1
I0816 10:09:15.809170  9966 net.cpp:406] feat1 <- data_feat_data_feat_0_split_0
I0816 10:09:15.809183  9966 net.cpp:406] feat1 <- fbn1
I0816 10:09:15.809198  9966 net.cpp:380] feat1 -> feat1
I0816 10:09:15.809654  9966 net.cpp:122] Setting up feat1
I0816 10:09:15.809684  9966 net.cpp:129] Top shape: 12 3 1 4096 (147456)
I0816 10:09:15.809692  9966 net.cpp:137] Memory required for data: 110690304
I0816 10:09:15.809701  9966 layer_factory.hpp:77] Creating layer data_lattice0
I0816 10:09:15.809937  9966 net.cpp:84] Creating Layer data_lattice0
I0816 10:09:15.809958  9966 net.cpp:406] data_lattice0 <- feat1
I0816 10:09:15.809975  9966 net.cpp:380] data_lattice0 -> data_lattice0
I0816 10:09:15.810493  9966 net.cpp:122] Setting up data_lattice0
I0816 10:09:15.810523  9966 net.cpp:129] Top shape: 12 3 1 4096 (147456)
I0816 10:09:15.810530  9966 net.cpp:137] Memory required for data: 111280128
I0816 10:09:15.810539  9966 layer_factory.hpp:77] Creating layer data_lattice0_data_lattice0_0_split
I0816 10:09:15.810555  9966 net.cpp:84] Creating Layer data_lattice0_data_lattice0_0_split
I0816 10:09:15.810564  9966 net.cpp:406] data_lattice0_data_lattice0_0_split <- data_lattice0
I0816 10:09:15.810578  9966 net.cpp:380] data_lattice0_data_lattice0_0_split -> data_lattice0_data_lattice0_0_split_0
I0816 10:09:15.810595  9966 net.cpp:380] data_lattice0_data_lattice0_0_split -> data_lattice0_data_lattice0_0_split_1
I0816 10:09:15.810678  9966 net.cpp:122] Setting up data_lattice0_data_lattice0_0_split
I0816 10:09:15.810695  9966 net.cpp:129] Top shape: 12 3 1 4096 (147456)
I0816 10:09:15.810704  9966 net.cpp:129] Top shape: 12 3 1 4096 (147456)
I0816 10:09:15.810711  9966 net.cpp:137] Memory required for data: 112459776
I0816 10:09:15.810721  9966 layer_factory.hpp:77] Creating layer conv2
I0816 10:09:15.810793  9966 net.cpp:84] Creating Layer conv2
I0816 10:09:15.810814  9966 net.cpp:406] conv2 <- bn1a_relu1a_0_split_1
I0816 10:09:15.810827  9966 net.cpp:406] conv2 <- data_lattice0_data_lattice0_0_split_0
I0816 10:09:15.810837  9966 net.cpp:406] conv2 <- data_lattice0_data_lattice0_0_split_1
I0816 10:09:15.810853  9966 net.cpp:380] conv2 -> conv2
I0816 10:09:15.818486  9966 net.cpp:122] Setting up conv2
I0816 10:09:15.818521  9966 net.cpp:129] Top shape: 12 64 1 4096 (3145728)
I0816 10:09:15.818531  9966 net.cpp:137] Memory required for data: 125042688
I0816 10:09:15.818557  9966 layer_factory.hpp:77] Creating layer bn2
I0816 10:09:15.818578  9966 net.cpp:84] Creating Layer bn2
I0816 10:09:15.818586  9966 net.cpp:406] bn2 <- conv2
I0816 10:09:15.818601  9966 net.cpp:380] bn2 -> bn2
I0816 10:09:15.819031  9966 net.cpp:122] Setting up bn2
I0816 10:09:15.819051  9966 net.cpp:129] Top shape: 12 64 1 4096 (3145728)
I0816 10:09:15.819059  9966 net.cpp:137] Memory required for data: 137625600
I0816 10:09:15.819077  9966 layer_factory.hpp:77] Creating layer relu2
I0816 10:09:15.819092  9966 net.cpp:84] Creating Layer relu2
I0816 10:09:15.819103  9966 net.cpp:406] relu2 <- bn2
I0816 10:09:15.819114  9966 net.cpp:367] relu2 -> bn2 (in-place)
I0816 10:09:15.819742  9966 net.cpp:122] Setting up relu2
I0816 10:09:15.819770  9966 net.cpp:129] Top shape: 12 64 1 4096 (3145728)
I0816 10:09:15.819778  9966 net.cpp:137] Memory required for data: 150208512
I0816 10:09:15.819787  9966 layer_factory.hpp:77] Creating layer bn2_relu2_0_split
I0816 10:09:15.819805  9966 net.cpp:84] Creating Layer bn2_relu2_0_split
I0816 10:09:15.819815  9966 net.cpp:406] bn2_relu2_0_split <- bn2
I0816 10:09:15.819829  9966 net.cpp:380] bn2_relu2_0_split -> bn2_relu2_0_split_0
I0816 10:09:15.819845  9966 net.cpp:380] bn2_relu2_0_split -> bn2_relu2_0_split_1
I0816 10:09:15.819859  9966 net.cpp:380] bn2_relu2_0_split -> bn2_relu2_0_split_2
I0816 10:09:15.819975  9966 net.cpp:122] Setting up bn2_relu2_0_split
I0816 10:09:15.819993  9966 net.cpp:129] Top shape: 12 64 1 4096 (3145728)
I0816 10:09:15.820003  9966 net.cpp:129] Top shape: 12 64 1 4096 (3145728)
I0816 10:09:15.820009  9966 net.cpp:129] Top shape: 12 64 1 4096 (3145728)
I0816 10:09:15.820016  9966 net.cpp:137] Memory required for data: 187957248
I0816 10:09:15.820027  9966 layer_factory.hpp:77] Creating layer fconv2
I0816 10:09:15.820055  9966 net.cpp:84] Creating Layer fconv2
I0816 10:09:15.820067  9966 net.cpp:406] fconv2 <- bn2_relu2_0_split_0
I0816 10:09:15.820086  9966 net.cpp:380] fconv2 -> fconv2
I0816 10:09:15.823922  9966 net.cpp:122] Setting up fconv2
I0816 10:09:15.823956  9966 net.cpp:129] Top shape: 12 3 1 4096 (147456)
I0816 10:09:15.823963  9966 net.cpp:137] Memory required for data: 188547072
I0816 10:09:15.823977  9966 layer_factory.hpp:77] Creating layer fbn2
I0816 10:09:15.823998  9966 net.cpp:84] Creating Layer fbn2
I0816 10:09:15.824008  9966 net.cpp:406] fbn2 <- fconv2
I0816 10:09:15.824023  9966 net.cpp:380] fbn2 -> fbn2
I0816 10:09:15.824415  9966 net.cpp:122] Setting up fbn2
I0816 10:09:15.824435  9966 net.cpp:129] Top shape: 12 3 1 4096 (147456)
I0816 10:09:15.824442  9966 net.cpp:137] Memory required for data: 189136896
I0816 10:09:15.824458  9966 layer_factory.hpp:77] Creating layer frelu2
I0816 10:09:15.824483  9966 net.cpp:84] Creating Layer frelu2
I0816 10:09:15.824493  9966 net.cpp:406] frelu2 <- fbn2
I0816 10:09:15.824507  9966 net.cpp:367] frelu2 -> fbn2 (in-place)
I0816 10:09:15.825069  9966 net.cpp:122] Setting up frelu2
I0816 10:09:15.825093  9966 net.cpp:129] Top shape: 12 3 1 4096 (147456)
I0816 10:09:15.825101  9966 net.cpp:137] Memory required for data: 189726720
I0816 10:09:15.825109  9966 layer_factory.hpp:77] Creating layer feat2
I0816 10:09:15.825134  9966 net.cpp:84] Creating Layer feat2
I0816 10:09:15.825142  9966 net.cpp:406] feat2 <- data_feat_data_feat_0_split_1
I0816 10:09:15.825155  9966 net.cpp:406] feat2 <- fbn2
I0816 10:09:15.825168  9966 net.cpp:380] feat2 -> feat2
I0816 10:09:15.825232  9966 net.cpp:122] Setting up feat2
I0816 10:09:15.825249  9966 net.cpp:129] Top shape: 12 3 1 4096 (147456)
I0816 10:09:15.825255  9966 net.cpp:137] Memory required for data: 190316544
I0816 10:09:15.825263  9966 layer_factory.hpp:77] Creating layer data_lattice1
I0816 10:09:15.825323  9966 net.cpp:84] Creating Layer data_lattice1
I0816 10:09:15.825340  9966 net.cpp:406] data_lattice1 <- feat2
I0816 10:09:15.825356  9966 net.cpp:380] data_lattice1 -> data_lattice1
I0816 10:09:15.827934  9966 net.cpp:122] Setting up data_lattice1
I0816 10:09:15.827968  9966 net.cpp:129] Top shape: 12 3 1 4096 (147456)
I0816 10:09:15.827976  9966 net.cpp:137] Memory required for data: 190906368
I0816 10:09:15.827986  9966 layer_factory.hpp:77] Creating layer data_lattice1_data_lattice1_0_split
I0816 10:09:15.828001  9966 net.cpp:84] Creating Layer data_lattice1_data_lattice1_0_split
I0816 10:09:15.828011  9966 net.cpp:406] data_lattice1_data_lattice1_0_split <- data_lattice1
I0816 10:09:15.828027  9966 net.cpp:380] data_lattice1_data_lattice1_0_split -> data_lattice1_data_lattice1_0_split_0
I0816 10:09:15.828042  9966 net.cpp:380] data_lattice1_data_lattice1_0_split -> data_lattice1_data_lattice1_0_split_1
I0816 10:09:15.828125  9966 net.cpp:122] Setting up data_lattice1_data_lattice1_0_split
I0816 10:09:15.828143  9966 net.cpp:129] Top shape: 12 3 1 4096 (147456)
I0816 10:09:15.828151  9966 net.cpp:129] Top shape: 12 3 1 4096 (147456)
I0816 10:09:15.828157  9966 net.cpp:137] Memory required for data: 192086016
I0816 10:09:15.828164  9966 layer_factory.hpp:77] Creating layer conv3
I0816 10:09:15.828181  9966 net.cpp:84] Creating Layer conv3
I0816 10:09:15.828189  9966 net.cpp:406] conv3 <- bn2_relu2_0_split_1
I0816 10:09:15.828202  9966 net.cpp:406] conv3 <- data_lattice1_data_lattice1_0_split_0
I0816 10:09:15.828212  9966 net.cpp:406] conv3 <- data_lattice1_data_lattice1_0_split_1
I0816 10:09:15.828223  9966 net.cpp:380] conv3 -> conv3
I0816 10:09:15.835357  9966 net.cpp:122] Setting up conv3
I0816 10:09:15.835381  9966 net.cpp:129] Top shape: 12 128 1 4096 (6291456)
I0816 10:09:15.835387  9966 net.cpp:137] Memory required for data: 217251840
I0816 10:09:15.835400  9966 layer_factory.hpp:77] Creating layer bn3
I0816 10:09:15.835412  9966 net.cpp:84] Creating Layer bn3
I0816 10:09:15.835420  9966 net.cpp:406] bn3 <- conv3
I0816 10:09:15.835433  9966 net.cpp:380] bn3 -> bn3
I0816 10:09:15.835803  9966 net.cpp:122] Setting up bn3
I0816 10:09:15.835822  9966 net.cpp:129] Top shape: 12 128 1 4096 (6291456)
I0816 10:09:15.835829  9966 net.cpp:137] Memory required for data: 242417664
I0816 10:09:15.835846  9966 layer_factory.hpp:77] Creating layer relu3
I0816 10:09:15.835863  9966 net.cpp:84] Creating Layer relu3
I0816 10:09:15.835871  9966 net.cpp:406] relu3 <- bn3
I0816 10:09:15.835882  9966 net.cpp:367] relu3 -> bn3 (in-place)
I0816 10:09:15.836448  9966 net.cpp:122] Setting up relu3
I0816 10:09:15.836480  9966 net.cpp:129] Top shape: 12 128 1 4096 (6291456)
I0816 10:09:15.836488  9966 net.cpp:137] Memory required for data: 267583488
I0816 10:09:15.836496  9966 layer_factory.hpp:77] Creating layer bn3_relu3_0_split
I0816 10:09:15.836509  9966 net.cpp:84] Creating Layer bn3_relu3_0_split
I0816 10:09:15.836518  9966 net.cpp:406] bn3_relu3_0_split <- bn3
I0816 10:09:15.836531  9966 net.cpp:380] bn3_relu3_0_split -> bn3_relu3_0_split_0
I0816 10:09:15.836545  9966 net.cpp:380] bn3_relu3_0_split -> bn3_relu3_0_split_1
I0816 10:09:15.836558  9966 net.cpp:380] bn3_relu3_0_split -> bn3_relu3_0_split_2
I0816 10:09:15.836664  9966 net.cpp:122] Setting up bn3_relu3_0_split
I0816 10:09:15.836681  9966 net.cpp:129] Top shape: 12 128 1 4096 (6291456)
I0816 10:09:15.836688  9966 net.cpp:129] Top shape: 12 128 1 4096 (6291456)
I0816 10:09:15.836695  9966 net.cpp:129] Top shape: 12 128 1 4096 (6291456)
I0816 10:09:15.836700  9966 net.cpp:137] Memory required for data: 343080960
I0816 10:09:15.836707  9966 layer_factory.hpp:77] Creating layer fconv3
I0816 10:09:15.836735  9966 net.cpp:84] Creating Layer fconv3
I0816 10:09:15.836745  9966 net.cpp:406] fconv3 <- bn3_relu3_0_split_0
I0816 10:09:15.836762  9966 net.cpp:380] fconv3 -> fconv3
I0816 10:09:15.840117  9966 net.cpp:122] Setting up fconv3
I0816 10:09:15.840148  9966 net.cpp:129] Top shape: 12 3 1 4096 (147456)
I0816 10:09:15.840157  9966 net.cpp:137] Memory required for data: 343670784
I0816 10:09:15.840173  9966 layer_factory.hpp:77] Creating layer fbn3
I0816 10:09:15.840191  9966 net.cpp:84] Creating Layer fbn3
I0816 10:09:15.840199  9966 net.cpp:406] fbn3 <- fconv3
I0816 10:09:15.840212  9966 net.cpp:380] fbn3 -> fbn3
I0816 10:09:15.840617  9966 net.cpp:122] Setting up fbn3
I0816 10:09:15.840637  9966 net.cpp:129] Top shape: 12 3 1 4096 (147456)
I0816 10:09:15.840643  9966 net.cpp:137] Memory required for data: 344260608
I0816 10:09:15.840670  9966 layer_factory.hpp:77] Creating layer frelu3
I0816 10:09:15.840687  9966 net.cpp:84] Creating Layer frelu3
I0816 10:09:15.840694  9966 net.cpp:406] frelu3 <- fbn3
I0816 10:09:15.840705  9966 net.cpp:367] frelu3 -> fbn3 (in-place)
I0816 10:09:15.841243  9966 net.cpp:122] Setting up frelu3
I0816 10:09:15.841266  9966 net.cpp:129] Top shape: 12 3 1 4096 (147456)
I0816 10:09:15.841274  9966 net.cpp:137] Memory required for data: 344850432
I0816 10:09:15.841281  9966 layer_factory.hpp:77] Creating layer feat3
I0816 10:09:15.841296  9966 net.cpp:84] Creating Layer feat3
I0816 10:09:15.841303  9966 net.cpp:406] feat3 <- data_feat_data_feat_0_split_2
I0816 10:09:15.841313  9966 net.cpp:406] feat3 <- fbn3
I0816 10:09:15.841325  9966 net.cpp:380] feat3 -> feat3
I0816 10:09:15.841383  9966 net.cpp:122] Setting up feat3
I0816 10:09:15.841399  9966 net.cpp:129] Top shape: 12 3 1 4096 (147456)
I0816 10:09:15.841405  9966 net.cpp:137] Memory required for data: 345440256
I0816 10:09:15.841411  9966 layer_factory.hpp:77] Creating layer data_lattice2
I0816 10:09:15.841478  9966 net.cpp:84] Creating Layer data_lattice2
I0816 10:09:15.841497  9966 net.cpp:406] data_lattice2 <- feat3
I0816 10:09:15.841511  9966 net.cpp:380] data_lattice2 -> data_lattice2
I0816 10:09:15.841732  9966 net.cpp:122] Setting up data_lattice2
I0816 10:09:15.841758  9966 net.cpp:129] Top shape: 12 3 1 4096 (147456)
I0816 10:09:15.841764  9966 net.cpp:137] Memory required for data: 346030080
I0816 10:09:15.841771  9966 layer_factory.hpp:77] Creating layer data_lattice2_data_lattice2_0_split
I0816 10:09:15.841787  9966 net.cpp:84] Creating Layer data_lattice2_data_lattice2_0_split
I0816 10:09:15.841796  9966 net.cpp:406] data_lattice2_data_lattice2_0_split <- data_lattice2
I0816 10:09:15.841809  9966 net.cpp:380] data_lattice2_data_lattice2_0_split -> data_lattice2_data_lattice2_0_split_0
I0816 10:09:15.841822  9966 net.cpp:380] data_lattice2_data_lattice2_0_split -> data_lattice2_data_lattice2_0_split_1
I0816 10:09:15.841897  9966 net.cpp:122] Setting up data_lattice2_data_lattice2_0_split
I0816 10:09:15.841912  9966 net.cpp:129] Top shape: 12 3 1 4096 (147456)
I0816 10:09:15.841920  9966 net.cpp:129] Top shape: 12 3 1 4096 (147456)
I0816 10:09:15.841925  9966 net.cpp:137] Memory required for data: 347209728
I0816 10:09:15.841931  9966 layer_factory.hpp:77] Creating layer conv4
I0816 10:09:15.841948  9966 net.cpp:84] Creating Layer conv4
I0816 10:09:15.841954  9966 net.cpp:406] conv4 <- bn3_relu3_0_split_1
I0816 10:09:15.841966  9966 net.cpp:406] conv4 <- data_lattice2_data_lattice2_0_split_0
I0816 10:09:15.841974  9966 net.cpp:406] conv4 <- data_lattice2_data_lattice2_0_split_1
I0816 10:09:15.841987  9966 net.cpp:380] conv4 -> conv4
I0816 10:09:15.868090  9966 net.cpp:122] Setting up conv4
I0816 10:09:15.868115  9966 net.cpp:129] Top shape: 12 256 1 4096 (12582912)
I0816 10:09:15.868122  9966 net.cpp:137] Memory required for data: 397541376
I0816 10:09:15.868134  9966 layer_factory.hpp:77] Creating layer bn4
I0816 10:09:15.868145  9966 net.cpp:84] Creating Layer bn4
I0816 10:09:15.868151  9966 net.cpp:406] bn4 <- conv4
I0816 10:09:15.868163  9966 net.cpp:380] bn4 -> bn4
I0816 10:09:15.868479  9966 net.cpp:122] Setting up bn4
I0816 10:09:15.868495  9966 net.cpp:129] Top shape: 12 256 1 4096 (12582912)
I0816 10:09:15.868500  9966 net.cpp:137] Memory required for data: 447873024
I0816 10:09:15.868515  9966 layer_factory.hpp:77] Creating layer relu4
I0816 10:09:15.868526  9966 net.cpp:84] Creating Layer relu4
I0816 10:09:15.868532  9966 net.cpp:406] relu4 <- bn4
I0816 10:09:15.868541  9966 net.cpp:367] relu4 -> bn4 (in-place)
I0816 10:09:15.869015  9966 net.cpp:122] Setting up relu4
I0816 10:09:15.869035  9966 net.cpp:129] Top shape: 12 256 1 4096 (12582912)
I0816 10:09:15.869041  9966 net.cpp:137] Memory required for data: 498204672
I0816 10:09:15.869050  9966 layer_factory.hpp:77] Creating layer bn4_relu4_0_split
I0816 10:09:15.869065  9966 net.cpp:84] Creating Layer bn4_relu4_0_split
I0816 10:09:15.869071  9966 net.cpp:406] bn4_relu4_0_split <- bn4
I0816 10:09:15.869081  9966 net.cpp:380] bn4_relu4_0_split -> bn4_relu4_0_split_0
I0816 10:09:15.869094  9966 net.cpp:380] bn4_relu4_0_split -> bn4_relu4_0_split_1
I0816 10:09:15.869107  9966 net.cpp:380] bn4_relu4_0_split -> bn4_relu4_0_split_2
I0816 10:09:15.869197  9966 net.cpp:122] Setting up bn4_relu4_0_split
I0816 10:09:15.869211  9966 net.cpp:129] Top shape: 12 256 1 4096 (12582912)
I0816 10:09:15.869217  9966 net.cpp:129] Top shape: 12 256 1 4096 (12582912)
I0816 10:09:15.869223  9966 net.cpp:129] Top shape: 12 256 1 4096 (12582912)
I0816 10:09:15.869227  9966 net.cpp:137] Memory required for data: 649199616
I0816 10:09:15.869233  9966 layer_factory.hpp:77] Creating layer fconv4
I0816 10:09:15.869253  9966 net.cpp:84] Creating Layer fconv4
I0816 10:09:15.869261  9966 net.cpp:406] fconv4 <- bn4_relu4_0_split_0
I0816 10:09:15.869273  9966 net.cpp:380] fconv4 -> fconv4
I0816 10:09:15.872438  9966 net.cpp:122] Setting up fconv4
I0816 10:09:15.872463  9966 net.cpp:129] Top shape: 12 3 1 4096 (147456)
I0816 10:09:15.872479  9966 net.cpp:137] Memory required for data: 649789440
I0816 10:09:15.872491  9966 layer_factory.hpp:77] Creating layer fbn4
I0816 10:09:15.872506  9966 net.cpp:84] Creating Layer fbn4
I0816 10:09:15.872514  9966 net.cpp:406] fbn4 <- fconv4
I0816 10:09:15.872525  9966 net.cpp:380] fbn4 -> fbn4
I0816 10:09:15.872854  9966 net.cpp:122] Setting up fbn4
I0816 10:09:15.872870  9966 net.cpp:129] Top shape: 12 3 1 4096 (147456)
I0816 10:09:15.872875  9966 net.cpp:137] Memory required for data: 650379264
I0816 10:09:15.872889  9966 layer_factory.hpp:77] Creating layer frelu4
I0816 10:09:15.872900  9966 net.cpp:84] Creating Layer frelu4
I0816 10:09:15.872907  9966 net.cpp:406] frelu4 <- fbn4
I0816 10:09:15.872917  9966 net.cpp:367] frelu4 -> fbn4 (in-place)
I0816 10:09:15.873383  9966 net.cpp:122] Setting up frelu4
I0816 10:09:15.873401  9966 net.cpp:129] Top shape: 12 3 1 4096 (147456)
I0816 10:09:15.873407  9966 net.cpp:137] Memory required for data: 650969088
I0816 10:09:15.873414  9966 layer_factory.hpp:77] Creating layer feat4
I0816 10:09:15.873431  9966 net.cpp:84] Creating Layer feat4
I0816 10:09:15.873438  9966 net.cpp:406] feat4 <- data_feat_data_feat_0_split_3
I0816 10:09:15.873447  9966 net.cpp:406] feat4 <- fbn4
I0816 10:09:15.873459  9966 net.cpp:380] feat4 -> feat4
I0816 10:09:15.873519  9966 net.cpp:122] Setting up feat4
I0816 10:09:15.873534  9966 net.cpp:129] Top shape: 12 3 1 4096 (147456)
I0816 10:09:15.873539  9966 net.cpp:137] Memory required for data: 651558912
I0816 10:09:15.873545  9966 layer_factory.hpp:77] Creating layer data_lattice3
I0816 10:09:15.873594  9966 net.cpp:84] Creating Layer data_lattice3
I0816 10:09:15.873606  9966 net.cpp:406] data_lattice3 <- feat4
I0816 10:09:15.873620  9966 net.cpp:380] data_lattice3 -> data_lattice3
I0816 10:09:15.875921  9966 net.cpp:122] Setting up data_lattice3
I0816 10:09:15.875944  9966 net.cpp:129] Top shape: 12 3 1 4096 (147456)
I0816 10:09:15.875950  9966 net.cpp:137] Memory required for data: 652148736
I0816 10:09:15.875957  9966 layer_factory.hpp:77] Creating layer data_lattice3_data_lattice3_0_split
I0816 10:09:15.875968  9966 net.cpp:84] Creating Layer data_lattice3_data_lattice3_0_split
I0816 10:09:15.875975  9966 net.cpp:406] data_lattice3_data_lattice3_0_split <- data_lattice3
I0816 10:09:15.875989  9966 net.cpp:380] data_lattice3_data_lattice3_0_split -> data_lattice3_data_lattice3_0_split_0
I0816 10:09:15.876003  9966 net.cpp:380] data_lattice3_data_lattice3_0_split -> data_lattice3_data_lattice3_0_split_1
I0816 10:09:15.876068  9966 net.cpp:122] Setting up data_lattice3_data_lattice3_0_split
I0816 10:09:15.876082  9966 net.cpp:129] Top shape: 12 3 1 4096 (147456)
I0816 10:09:15.876088  9966 net.cpp:129] Top shape: 12 3 1 4096 (147456)
I0816 10:09:15.876092  9966 net.cpp:137] Memory required for data: 653328384
I0816 10:09:15.876098  9966 layer_factory.hpp:77] Creating layer conv5
I0816 10:09:15.876112  9966 net.cpp:84] Creating Layer conv5
I0816 10:09:15.876119  9966 net.cpp:406] conv5 <- bn4_relu4_0_split_1
I0816 10:09:15.876127  9966 net.cpp:406] conv5 <- data_lattice3_data_lattice3_0_split_0
I0816 10:09:15.876133  9966 net.cpp:406] conv5 <- data_lattice3_data_lattice3_0_split_1
I0816 10:09:15.876145  9966 net.cpp:380] conv5 -> conv5
I0816 10:09:15.917387  9966 net.cpp:122] Setting up conv5
I0816 10:09:15.917407  9966 net.cpp:129] Top shape: 12 256 1 4096 (12582912)
I0816 10:09:15.917412  9966 net.cpp:137] Memory required for data: 703660032
I0816 10:09:15.917421  9966 layer_factory.hpp:77] Creating layer bn5
I0816 10:09:15.917434  9966 net.cpp:84] Creating Layer bn5
I0816 10:09:15.917440  9966 net.cpp:406] bn5 <- conv5
I0816 10:09:15.917449  9966 net.cpp:380] bn5 -> bn5
I0816 10:09:15.917706  9966 net.cpp:122] Setting up bn5
I0816 10:09:15.917719  9966 net.cpp:129] Top shape: 12 256 1 4096 (12582912)
I0816 10:09:15.917724  9966 net.cpp:137] Memory required for data: 753991680
I0816 10:09:15.917733  9966 layer_factory.hpp:77] Creating layer relu5
I0816 10:09:15.917744  9966 net.cpp:84] Creating Layer relu5
I0816 10:09:15.917750  9966 net.cpp:406] relu5 <- bn5
I0816 10:09:15.917757  9966 net.cpp:367] relu5 -> bn5 (in-place)
I0816 10:09:15.918740  9966 net.cpp:122] Setting up relu5
I0816 10:09:15.918759  9966 net.cpp:129] Top shape: 12 256 1 4096 (12582912)
I0816 10:09:15.918764  9966 net.cpp:137] Memory required for data: 804323328
I0816 10:09:15.918769  9966 layer_factory.hpp:77] Creating layer bn5_relu5_0_split
I0816 10:09:15.918779  9966 net.cpp:84] Creating Layer bn5_relu5_0_split
I0816 10:09:15.918786  9966 net.cpp:406] bn5_relu5_0_split <- bn5
I0816 10:09:15.918795  9966 net.cpp:380] bn5_relu5_0_split -> bn5_relu5_0_split_0
I0816 10:09:15.918807  9966 net.cpp:380] bn5_relu5_0_split -> bn5_relu5_0_split_1
I0816 10:09:15.918815  9966 net.cpp:380] bn5_relu5_0_split -> bn5_relu5_0_split_2
I0816 10:09:15.918891  9966 net.cpp:122] Setting up bn5_relu5_0_split
I0816 10:09:15.918903  9966 net.cpp:129] Top shape: 12 256 1 4096 (12582912)
I0816 10:09:15.918910  9966 net.cpp:129] Top shape: 12 256 1 4096 (12582912)
I0816 10:09:15.918913  9966 net.cpp:129] Top shape: 12 256 1 4096 (12582912)
I0816 10:09:15.918916  9966 net.cpp:137] Memory required for data: 955318272
I0816 10:09:15.918921  9966 layer_factory.hpp:77] Creating layer fconv5
I0816 10:09:15.918937  9966 net.cpp:84] Creating Layer fconv5
I0816 10:09:15.918946  9966 net.cpp:406] fconv5 <- bn5_relu5_0_split_0
I0816 10:09:15.918958  9966 net.cpp:380] fconv5 -> fconv5
I0816 10:09:15.920843  9966 net.cpp:122] Setting up fconv5
I0816 10:09:15.920863  9966 net.cpp:129] Top shape: 12 3 1 4096 (147456)
I0816 10:09:15.920868  9966 net.cpp:137] Memory required for data: 955908096
I0816 10:09:15.920877  9966 layer_factory.hpp:77] Creating layer fbn5
I0816 10:09:15.920891  9966 net.cpp:84] Creating Layer fbn5
I0816 10:09:15.920897  9966 net.cpp:406] fbn5 <- fconv5
I0816 10:09:15.920909  9966 net.cpp:380] fbn5 -> fbn5
I0816 10:09:15.921181  9966 net.cpp:122] Setting up fbn5
I0816 10:09:15.921193  9966 net.cpp:129] Top shape: 12 3 1 4096 (147456)
I0816 10:09:15.921198  9966 net.cpp:137] Memory required for data: 956497920
I0816 10:09:15.921207  9966 layer_factory.hpp:77] Creating layer frelu5
I0816 10:09:15.921216  9966 net.cpp:84] Creating Layer frelu5
I0816 10:09:15.921221  9966 net.cpp:406] frelu5 <- fbn5
I0816 10:09:15.921229  9966 net.cpp:367] frelu5 -> fbn5 (in-place)
I0816 10:09:15.921602  9966 net.cpp:122] Setting up frelu5
I0816 10:09:15.921618  9966 net.cpp:129] Top shape: 12 3 1 4096 (147456)
I0816 10:09:15.921623  9966 net.cpp:137] Memory required for data: 957087744
I0816 10:09:15.921628  9966 layer_factory.hpp:77] Creating layer feat5
I0816 10:09:15.921639  9966 net.cpp:84] Creating Layer feat5
I0816 10:09:15.921645  9966 net.cpp:406] feat5 <- data_feat_data_feat_0_split_4
I0816 10:09:15.921653  9966 net.cpp:406] feat5 <- fbn5
I0816 10:09:15.921660  9966 net.cpp:380] feat5 -> feat5
I0816 10:09:15.921710  9966 net.cpp:122] Setting up feat5
I0816 10:09:15.921722  9966 net.cpp:129] Top shape: 12 3 1 4096 (147456)
I0816 10:09:15.921726  9966 net.cpp:137] Memory required for data: 957677568
I0816 10:09:15.921730  9966 layer_factory.hpp:77] Creating layer data_lattice4
I0816 10:09:15.921768  9966 net.cpp:84] Creating Layer data_lattice4
I0816 10:09:15.921779  9966 net.cpp:406] data_lattice4 <- feat5
I0816 10:09:15.921788  9966 net.cpp:380] data_lattice4 -> data_lattice4
I0816 10:09:15.921941  9966 net.cpp:122] Setting up data_lattice4
I0816 10:09:15.921957  9966 net.cpp:129] Top shape: 12 3 1 4096 (147456)
I0816 10:09:15.921962  9966 net.cpp:137] Memory required for data: 958267392
I0816 10:09:15.921967  9966 layer_factory.hpp:77] Creating layer data_lattice4_data_lattice4_0_split
I0816 10:09:15.921977  9966 net.cpp:84] Creating Layer data_lattice4_data_lattice4_0_split
I0816 10:09:15.921983  9966 net.cpp:406] data_lattice4_data_lattice4_0_split <- data_lattice4
I0816 10:09:15.921991  9966 net.cpp:380] data_lattice4_data_lattice4_0_split -> data_lattice4_data_lattice4_0_split_0
I0816 10:09:15.922001  9966 net.cpp:380] data_lattice4_data_lattice4_0_split -> data_lattice4_data_lattice4_0_split_1
I0816 10:09:15.922053  9966 net.cpp:122] Setting up data_lattice4_data_lattice4_0_split
I0816 10:09:15.922063  9966 net.cpp:129] Top shape: 12 3 1 4096 (147456)
I0816 10:09:15.922068  9966 net.cpp:129] Top shape: 12 3 1 4096 (147456)
I0816 10:09:15.922072  9966 net.cpp:137] Memory required for data: 959447040
I0816 10:09:15.922076  9966 layer_factory.hpp:77] Creating layer conv6
I0816 10:09:15.922089  9966 net.cpp:84] Creating Layer conv6
I0816 10:09:15.922094  9966 net.cpp:406] conv6 <- bn5_relu5_0_split_1
I0816 10:09:15.922101  9966 net.cpp:406] conv6 <- data_lattice4_data_lattice4_0_split_0
I0816 10:09:15.922106  9966 net.cpp:406] conv6 <- data_lattice4_data_lattice4_0_split_1
I0816 10:09:15.922116  9966 net.cpp:380] conv6 -> conv6
I0816 10:09:15.959810  9966 net.cpp:122] Setting up conv6
I0816 10:09:15.959831  9966 net.cpp:129] Top shape: 12 256 1 4096 (12582912)
I0816 10:09:15.959836  9966 net.cpp:137] Memory required for data: 1009778688
I0816 10:09:15.959847  9966 layer_factory.hpp:77] Creating layer bn6
I0816 10:09:15.959858  9966 net.cpp:84] Creating Layer bn6
I0816 10:09:15.959864  9966 net.cpp:406] bn6 <- conv6
I0816 10:09:15.959872  9966 net.cpp:380] bn6 -> bn6
I0816 10:09:15.960126  9966 net.cpp:122] Setting up bn6
I0816 10:09:15.960139  9966 net.cpp:129] Top shape: 12 256 1 4096 (12582912)
I0816 10:09:15.960142  9966 net.cpp:137] Memory required for data: 1060110336
I0816 10:09:15.960152  9966 layer_factory.hpp:77] Creating layer relu6
I0816 10:09:15.960163  9966 net.cpp:84] Creating Layer relu6
I0816 10:09:15.960168  9966 net.cpp:406] relu6 <- bn6
I0816 10:09:15.960176  9966 net.cpp:367] relu6 -> bn6 (in-place)
I0816 10:09:15.960974  9966 net.cpp:122] Setting up relu6
I0816 10:09:15.960994  9966 net.cpp:129] Top shape: 12 256 1 4096 (12582912)
I0816 10:09:15.960999  9966 net.cpp:137] Memory required for data: 1110441984
I0816 10:09:15.961004  9966 layer_factory.hpp:77] Creating layer concat6
I0816 10:09:15.961062  9966 net.cpp:84] Creating Layer concat6
I0816 10:09:15.961076  9966 net.cpp:406] concat6 <- bn6
I0816 10:09:15.961082  9966 net.cpp:406] concat6 <- bn2_relu2_0_split_2
I0816 10:09:15.961088  9966 net.cpp:406] concat6 <- bn3_relu3_0_split_2
I0816 10:09:15.961093  9966 net.cpp:406] concat6 <- bn4_relu4_0_split_2
I0816 10:09:15.961098  9966 net.cpp:406] concat6 <- bn5_relu5_0_split_2
I0816 10:09:15.961108  9966 net.cpp:380] concat6 -> concat6
I0816 10:09:15.961181  9966 net.cpp:122] Setting up concat6
I0816 10:09:15.961195  9966 net.cpp:129] Top shape: 12 960 1 4096 (47185920)
I0816 10:09:15.961199  9966 net.cpp:137] Memory required for data: 1299185664
I0816 10:09:15.961205  9966 layer_factory.hpp:77] Creating layer conv7
I0816 10:09:15.961220  9966 net.cpp:84] Creating Layer conv7
I0816 10:09:15.961226  9966 net.cpp:406] conv7 <- concat6
I0816 10:09:15.961237  9966 net.cpp:380] conv7 -> conv7
I0816 10:09:15.964753  9966 net.cpp:122] Setting up conv7
I0816 10:09:15.964792  9966 net.cpp:129] Top shape: 12 128 1 4096 (6291456)
I0816 10:09:15.964802  9966 net.cpp:137] Memory required for data: 1324351488
I0816 10:09:15.964819  9966 layer_factory.hpp:77] Creating layer bn7
I0816 10:09:15.964838  9966 net.cpp:84] Creating Layer bn7
I0816 10:09:15.964848  9966 net.cpp:406] bn7 <- conv7
I0816 10:09:15.964866  9966 net.cpp:380] bn7 -> bn7
I0816 10:09:15.965183  9966 net.cpp:122] Setting up bn7
I0816 10:09:15.965195  9966 net.cpp:129] Top shape: 12 128 1 4096 (6291456)
I0816 10:09:15.965199  9966 net.cpp:137] Memory required for data: 1349517312
I0816 10:09:15.965224  9966 layer_factory.hpp:77] Creating layer relu7
I0816 10:09:15.965247  9966 net.cpp:84] Creating Layer relu7
I0816 10:09:15.965253  9966 net.cpp:406] relu7 <- bn7
I0816 10:09:15.965261  9966 net.cpp:367] relu7 -> bn7 (in-place)
I0816 10:09:15.965649  9966 net.cpp:122] Setting up relu7
I0816 10:09:15.965667  9966 net.cpp:129] Top shape: 12 128 1 4096 (6291456)
I0816 10:09:15.965672  9966 net.cpp:137] Memory required for data: 1374683136
I0816 10:09:15.965677  9966 layer_factory.hpp:77] Creating layer conv8
I0816 10:09:15.965695  9966 net.cpp:84] Creating Layer conv8
I0816 10:09:15.965701  9966 net.cpp:406] conv8 <- bn7
I0816 10:09:15.965711  9966 net.cpp:380] conv8 -> conv8
I0816 10:09:15.968106  9966 net.cpp:122] Setting up conv8
I0816 10:09:15.968127  9966 net.cpp:129] Top shape: 12 13 1 4096 (638976)
I0816 10:09:15.968132  9966 net.cpp:137] Memory required for data: 1377239040
I0816 10:09:15.968142  9966 layer_factory.hpp:77] Creating layer conv8_conv8_0_split
I0816 10:09:15.968150  9966 net.cpp:84] Creating Layer conv8_conv8_0_split
I0816 10:09:15.968156  9966 net.cpp:406] conv8_conv8_0_split <- conv8
I0816 10:09:15.968166  9966 net.cpp:380] conv8_conv8_0_split -> conv8_conv8_0_split_0
I0816 10:09:15.968178  9966 net.cpp:380] conv8_conv8_0_split -> conv8_conv8_0_split_1
I0816 10:09:15.968232  9966 net.cpp:122] Setting up conv8_conv8_0_split
I0816 10:09:15.968245  9966 net.cpp:129] Top shape: 12 13 1 4096 (638976)
I0816 10:09:15.968250  9966 net.cpp:129] Top shape: 12 13 1 4096 (638976)
I0816 10:09:15.968253  9966 net.cpp:137] Memory required for data: 1382350848
I0816 10:09:15.968257  9966 layer_factory.hpp:77] Creating layer loss
I0816 10:09:15.968312  9966 net.cpp:84] Creating Layer loss
I0816 10:09:15.968324  9966 net.cpp:406] loss <- conv8_conv8_0_split_0
I0816 10:09:15.968331  9966 net.cpp:406] loss <- label_data_1_split_0
I0816 10:09:15.968340  9966 net.cpp:380] loss -> loss
…
