…
I0803 23:06:40.146006  7350 net.cpp:294] The NetState phase (0) differed from the phase (1) specified by a rule in layer data
I0803 23:06:40.146908  7350 net.cpp:51] Initializing net from parameters: 
state {
  phase: TRAIN
}
layer {
  name: "data"
  type: "Python"
  top: "data"
  top: "label"
  include {
    phase: TRAIN
  }
  python_param {
    module: "dataset_lidar"
    layer: "InputShapenet"
    param_str: "{\'sample_size\': 8192, \'test_area\': \'6\', \'batch_size\': 12, \'feat_dims\': \'x_y_z\', \'subset\': \'train\', \'root\': \'../../data/shapenet_ericyi_ply\', \'jitter_xyz\': 0.02, \'jitter_stretch\': 0.1, \'jitter_rotation\': 10.0}"
  }
}
layer {
  name: "data_feat"
  type: "Python"
  bottom: "data"
  top: "data_feat"
  python_param {
    module: "custom_layers"
    layer: "PickAndScale"
    param_str: "0_1_2"
  }
}
layer {
  name: "conv1"
  type: "Convolution"
  bottom: "data_feat"
  top: "conv1"
  param {
    lr_mult: 1
  }
  param {
    lr_mult: 0.1
  }
  convolution_param {
    num_output: 32
    pad: 0
    kernel_size: 1
    stride: 1
    weight_filler {
      type: "xavier"
    }
    bias_filler {
      type: "constant"
      value: 0
    }
  }
}
layer {
  name: "bn1"
  type: "BatchNorm"
  bottom: "conv1"
  top: "bn1"
}
layer {
  name: "relu1"
  type: "ReLU"
  bottom: "bn1"
  top: "bn1"
}
layer {
  name: "fconv1_"
  type: "Convolution"
  bottom: "bn1"
  top: "fconv1_"
  param {
    lr_mult: 1
  }
  param {
    lr_mult: 0.1
  }
  convolution_param {
    num_output: 3
    pad: 0
    kernel_size: 1
    stride: 1
    weight_filler {
      type: "xavier"
    }
    bias_filler {
      type: "constant"
      value: 0
    }
  }
}
layer {
  name: "fbn1"
  type: "BatchNorm"
  bottom: "fconv1_"
  top: "fbn1"
}
layer {
  name: "frelu1"
  type: "ReLU"
  bottom: "fbn1"
  top: "fbn1"
}
layer {
  name: "feat1"
  type: "Eltwise"
  bottom: "data"
  bottom: "fbn1"
  top: "feat1"
  eltwise_param {
    operation: SUM
  }
}
layer {
  name: "data_lattice0"
  type: "Python"
  bottom: "feat1"
  top: "data_lattice0"
  python_param {
    module: "custom_layers"
    layer: "PickAndScale"
    param_str: "0*48_1*48_2*48"
  }
}
layer {
  name: "conv2"
  type: "Permutohedral"
  bottom: "bn1"
  bottom: "data_lattice0"
  bottom: "data_lattice0"
  top: "conv2"
  param {
    lr_mult: 1
    decay_mult: 1
  }
  param {
    lr_mult: 2
    decay_mult: 0
  }
  permutohedral_param {
    num_output: 64
    neighborhood_size: 2
    filter_filler {
      type: "gaussian"
      std: 0.001
    }
    bias_term: true
    bias_filler {
      type: "constant"
      value: 0
    }
    group: 1
    norm_type: AFTER
    offset_type: NONE
  }
}
layer {
  name: "bn2"
  type: "BatchNorm"
  bottom: "conv2"
  top: "bn2"
}
layer {
  name: "relu2"
  type: "ReLU"
  bottom: "bn2"
  top: "bn2"
}
layer {
  name: "fconv2"
  type: "Convolution"
  bottom: "feat1"
  top: "fconv2"
  param {
    lr_mult: 1
  }
  param {
    lr_mult: 0.1
  }
  convolution_param {
    num_output: 3
    pad: 0
    kernel_size: 1
    stride: 1
    weight_filler {
      type: "xavier"
    }
    bias_filler {
      type: "constant"
      value: 0
    }
  }
}
layer {
  name: "fbn2"
  type: "BatchNorm"
  bottom: "fconv2"
  top: "fbn2"
}
layer {
  name: "frelu2"
  type: "ReLU"
  bottom: "fbn2"
  top: "fbn2"
}
layer {
  name: "feat2"
  type: "Eltwise"
  bottom: "data"
  bottom: "fbn2"
  top: "feat2"
  eltwise_param {
    operation: SUM
  }
}
layer {
  name: "data_lattice1"
  type: "Python"
  bottom: "feat2"
  top: "data_lattice1"
  python_param {
    module: "custom_layers"
    layer: "PickAndScale"
    param_str: "0*24_1*24_2*24"
  }
}
layer {
  name: "conv3"
  type: "Permutohedral"
  bottom: "bn2"
  bottom: "data_lattice1"
  bottom: "data_lattice1"
  top: "conv3"
  param {
    lr_mult: 1
    decay_mult: 1
  }
  param {
    lr_mult: 2
    decay_mult: 0
  }
  permutohedral_param {
    num_output: 128
    neighborhood_size: 2
    filter_filler {
      type: "gaussian"
      std: 0.001
    }
    bias_term: true
    bias_filler {
      type: "constant"
      value: 0
    }
    group: 1
    norm_type: AFTER
    offset_type: NONE
  }
}
layer {
  name: "bn3"
  type: "BatchNorm"
  bottom: "conv3"
  top: "bn3"
}
layer {
  name: "relu3"
  type: "ReLU"
  bottom: "bn3"
  top: "bn3"
}
layer {
  name: "fconv3"
  type: "Convolution"
  bottom: "feat2"
  top: "fconv3"
  param {
    lr_mult: 1
  }
  param {
    lr_mult: 0.1
  }
  convolution_param {
    num_output: 3
    pad: 0
    kernel_size: 1
    stride: 1
    weight_filler {
      type: "xavier"
    }
    bias_filler {
      type: "constant"
      value: 0
    }
  }
}
layer {
  name: "fbn3"
  type: "BatchNorm"
  bottom: "fconv3"
  top: "fbn3"
}
layer {
  name: "frelu3"
  type: "ReLU"
  bottom: "fbn3"
  top: "fbn3"
}
layer {
  name: "feat3"
  type: "Eltwise"
  bottom: "data"
  bottom: "fbn3"
  top: "feat3"
  eltwise_param {
    operation: SUM
  }
}
layer {
  name: "data_lattice2"
  type: "Python"
  bottom: "feat3"
  top: "data_lattice2"
  python_param {
    module: "custom_layers"
    layer: "PickAndScale"
    param_str: "0*12_1*12_2*12"
  }
}
layer {
  name: "conv4"
  type: "Permutohedral"
  bottom: "bn3"
  bottom: "data_lattice2"
  bottom: "data_lattice2"
  top: "conv4"
  param {
    lr_mult: 1
    decay_mult: 1
  }
  param {
    lr_mult: 2
    decay_mult: 0
  }
  permutohedral_param {
    num_output: 256
    neighborhood_size: 2
    filter_filler {
      type: "gaussian"
      std: 0.001
    }
    bias_term: true
    bias_filler {
      type: "constant"
      value: 0
    }
    group: 1
    norm_type: AFTER
    offset_type: NONE
  }
}
layer {
  name: "bn4"
  type: "BatchNorm"
  bottom: "conv4"
  top: "bn4"
}
layer {
  name: "relu4"
  type: "ReLU"
  bottom: "bn4"
  top: "bn4"
}
layer {
  name: "fconv4"
  type: "Convolution"
  bottom: "feat3"
  top: "fconv4"
  param {
    lr_mult: 1
  }
  param {
    lr_mult: 0.1
  }
  convolution_param {
    num_output: 3
    pad: 0
    kernel_size: 1
    stride: 1
    weight_filler {
      type: "xavier"
    }
    bias_filler {
      type: "constant"
      value: 0
    }
  }
}
layer {
  name: "fbn4"
  type: "BatchNorm"
  bottom: "fconv4"
  top: "fbn4"
}
layer {
  name: "frelu4"
  type: "ReLU"
  bottom: "fbn4"
  top: "fbn4"
}
layer {
  name: "feat4"
  type: "Eltwise"
  bottom: "data"
  bottom: "fbn4"
  top: "feat4"
  eltwise_param {
    operation: SUM
  }
}
layer {
  name: "data_lattice3"
  type: "Python"
  bottom: "feat4"
  top: "data_lattice3"
  python_param {
    module: "custom_layers"
    layer: "PickAndScale"
    param_str: "0*6_1*6_2*6"
  }
}
layer {
  name: "conv5"
  type: "Permutohedral"
  bottom: "bn4"
  bottom: "data_lattice3"
  bottom: "data_lattice3"
  top: "conv5"
  param {
    lr_mult: 1
    decay_mult: 1
  }
  param {
    lr_mult: 2
    decay_mult: 0
  }
  permutohedral_param {
    num_output: 256
    neighborhood_size: 2
    filter_filler {
      type: "gaussian"
      std: 0.001
    }
    bias_term: true
    bias_filler {
      type: "constant"
      value: 0
    }
    group: 1
    norm_type: AFTER
    offset_type: NONE
  }
}
layer {
  name: "bn5"
  type: "BatchNorm"
  bottom: "conv5"
  top: "bn5"
}
layer {
  name: "relu5"
  type: "ReLU"
  bottom: "bn5"
  top: "bn5"
}
layer {
  name: "fconv5"
  type: "Convolution"
  bottom: "feat4"
  top: "fconv5"
  param {
    lr_mult: 1
  }
  param {
    lr_mult: 0.1
  }
  convolution_param {
    num_output: 3
    pad: 0
    kernel_size: 1
    stride: 1
    weight_filler {
      type: "xavier"
    }
    bias_filler {
      type: "constant"
      value: 0
    }
  }
}
layer {
  name: "fbn5"
  type: "BatchNorm"
  bottom: "fconv5"
  top: "fbn5"
}
layer {
  name: "frelu5"
  type: "ReLU"
  bottom: "fbn5"
  top: "fbn5"
}
layer {
  name: "feat5"
  type: "Eltwise"
  bottom: "data"
  bottom: "fbn5"
  top: "feat5"
  eltwise_param {
    operation: SUM
  }
}
layer {
  name: "data_lattice4"
  type: "Python"
  bottom: "feat5"
  top: "data_lattice4"
  python_param {
    module: "custom_layers"
    layer: "PickAndScale"
    param_str: "0*3_1*3_2*3"
  }
}
layer {
  name: "conv6"
  type: "Permutohedral"
  bottom: "bn5"
  bottom: "data_lattice4"
  bottom: "data_lattice4"
  top: "conv6"
  param {
    lr_mult: 1
    decay_mult: 1
  }
  param {
    lr_mult: 2
    decay_mult: 0
  }
  permutohedral_param {
    num_output: 256
    neighborhood_size: 2
    filter_filler {
      type: "gaussian"
      std: 0.001
    }
    bias_term: true
    bias_filler {
      type: "constant"
      value: 0
    }
    group: 1
    norm_type: AFTER
    offset_type: NONE
  }
}
layer {
  name: "bn6"
  type: "BatchNorm"
  bottom: "conv6"
  top: "bn6"
}
layer {
  name: "relu6"
  type: "ReLU"
  bottom: "bn6"
  top: "bn6"
}
layer {
  name: "concat6"
  type: "Concat"
  bottom: "bn6"
  bottom: "bn2"
  bottom: "bn3"
  bottom: "bn4"
  bottom: "bn5"
  top: "concat6"
}
layer {
  name: "conv7"
  type: "Convolution"
  bottom: "concat6"
  top: "conv7"
  param {
    lr_mult: 1
  }
  param {
    lr_mult: 0.1
  }
  convolution_param {
    num_output: 128
    pad: 0
    kernel_size: 1
    stride: 1
    weight_filler {
      type: "xavier"
    }
    bias_filler {
      type: "constant"
      value: 0
    }
  }
}
layer {
  name: "bn7"
  type: "BatchNorm"
  bottom: "conv7"
  top: "bn7"
}
layer {
  name: "relu7"
  type: "ReLU"
  bottom: "bn7"
  top: "bn7"
}
layer {
  name: "conv8"
  type: "Convolution"
  bottom: "bn7"
  top: "conv8"
  param {
    lr_mult: 1
  }
  param {
    lr_mult: 0.1
  }
  convolution_param {
    num_output: 13
    pad: 0
    kernel_size: 1
    stride: 1
    weight_filler {
      type: "xavier"
    }
    bias_filler {
      type: "constant"
      value: 0
    }
  }
}
layer {
  name: "loss"
  type: "SoftmaxWithLoss"
  bottom: "conv8"
  bottom: "label"
  top: "loss"
}
layer {
  name: "accuracy"
  type: "Accuracy"
  bottom: "conv8"
  bottom: "label"
  top: "accuracy"
}
I0803 23:06:40.164937  7350 layer_factory.hpp:77] Creating layer data
I0803 23:06:40.190337  7350 net.cpp:84] Creating Layer data
I0803 23:06:40.190414  7350 net.cpp:380] data -> data
I0803 23:06:40.190572  7350 net.cpp:380] data -> label
I0803 23:06:40.577630  7352 upgrade_proto.cpp:1084] Attempting to upgrade input file specified using deprecated 'solver_type' field (enum)': /mnt/lustre/wangjiayun/repos/splatnet/exp/lidar3d/area6/6_solver.prototxt
…
I0803 23:06:40.598111  7356 upgrade_proto.cpp:1084] Attempting to upgrade input file specified using deprecated 'solver_type' field (enum)': /mnt/lustre/wangjiayun/repos/splatnet/exp/lidar3d/area6/6_solver.prototxt
I0803 23:06:40.598194  7356 upgrade_proto.cpp:1091] Successfully upgraded file specified using deprecated 'solver_type' field (enum) to 'type' field (string).
W0803 23:06:40.598201  7356 upgrade_proto.cpp:1093] Note that future Caffe releases will only support 'type' field (string) for a solver's type.
I0803 23:12:36.729395  7350 net.cpp:122] Setting up data
I0803 23:12:36.729993  7350 net.cpp:129] Top shape: 12 3 1 8192 (294912)
I0803 23:12:36.730031  7350 net.cpp:129] Top shape: 12 1 1 8192 (98304)
I0803 23:12:36.730041  7350 net.cpp:137] Memory required for data: 1572864
I0803 23:12:36.730165  7350 layer_factory.hpp:77] Creating layer data_data_0_split
I0803 23:12:36.730267  7350 net.cpp:84] Creating Layer data_data_0_split
I0803 23:12:36.730284  7350 net.cpp:406] data_data_0_split <- data
I0803 23:12:36.730320  7350 net.cpp:380] data_data_0_split -> data_data_0_split_0
I0803 23:12:36.730362  7350 net.cpp:380] data_data_0_split -> data_data_0_split_1
I0803 23:12:36.730371  7350 net.cpp:380] data_data_0_split -> data_data_0_split_2
I0803 23:12:36.730378  7350 net.cpp:380] data_data_0_split -> data_data_0_split_3
I0803 23:12:36.730382  7350 net.cpp:380] data_data_0_split -> data_data_0_split_4
I0803 23:12:36.730391  7350 net.cpp:380] data_data_0_split -> data_data_0_split_5
I0803 23:12:36.730486  7350 net.cpp:122] Setting up data_data_0_split
I0803 23:12:36.730496  7350 net.cpp:129] Top shape: 12 3 1 8192 (294912)
I0803 23:12:36.730501  7350 net.cpp:129] Top shape: 12 3 1 8192 (294912)
I0803 23:12:36.730505  7350 net.cpp:129] Top shape: 12 3 1 8192 (294912)
I0803 23:12:36.730509  7350 net.cpp:129] Top shape: 12 3 1 8192 (294912)
I0803 23:12:36.730511  7350 net.cpp:129] Top shape: 12 3 1 8192 (294912)
I0803 23:12:36.730515  7350 net.cpp:129] Top shape: 12 3 1 8192 (294912)
I0803 23:12:36.730517  7350 net.cpp:137] Memory required for data: 8650752
I0803 23:12:36.730520  7350 layer_factory.hpp:77] Creating layer label_data_1_split
I0803 23:12:36.730536  7350 net.cpp:84] Creating Layer label_data_1_split
I0803 23:12:36.730541  7350 net.cpp:406] label_data_1_split <- label
I0803 23:12:36.730547  7350 net.cpp:380] label_data_1_split -> label_data_1_split_0
I0803 23:12:36.730556  7350 net.cpp:380] label_data_1_split -> label_data_1_split_1
I0803 23:12:36.730583  7350 net.cpp:122] Setting up label_data_1_split
I0803 23:12:36.730590  7350 net.cpp:129] Top shape: 12 1 1 8192 (98304)
I0803 23:12:36.730593  7350 net.cpp:129] Top shape: 12 1 1 8192 (98304)
I0803 23:12:36.730597  7350 net.cpp:137] Memory required for data: 9437184
I0803 23:12:36.730598  7350 layer_factory.hpp:77] Creating layer data_feat
I0803 23:12:36.734792  7350 net.cpp:84] Creating Layer data_feat
I0803 23:12:36.734805  7350 net.cpp:406] data_feat <- data_data_0_split_0
I0803 23:12:36.734812  7350 net.cpp:380] data_feat -> data_feat
I0803 23:12:36.736027  7350 net.cpp:122] Setting up data_feat
I0803 23:12:36.736042  7350 net.cpp:129] Top shape: 12 3 1 8192 (294912)
I0803 23:12:36.736047  7350 net.cpp:137] Memory required for data: 10616832
I0803 23:12:36.736050  7350 layer_factory.hpp:77] Creating layer conv1
I0803 23:12:36.736101  7350 net.cpp:84] Creating Layer conv1
I0803 23:12:36.736109  7350 net.cpp:406] conv1 <- data_feat
I0803 23:12:36.736116  7350 net.cpp:380] conv1 -> conv1
I0803 23:12:41.070695  7350 net.cpp:122] Setting up conv1
I0803 23:12:41.070773  7350 net.cpp:129] Top shape: 12 32 1 8192 (3145728)
I0803 23:12:41.070786  7350 net.cpp:137] Memory required for data: 23199744
I0803 23:12:41.075896  7350 layer_factory.hpp:77] Creating layer bn1
I0803 23:12:41.077144  7350 net.cpp:84] Creating Layer bn1
I0803 23:12:41.077221  7350 net.cpp:406] bn1 <- conv1
I0803 23:12:41.077255  7350 net.cpp:380] bn1 -> bn1
I0803 23:12:41.101016  7350 net.cpp:122] Setting up bn1
I0803 23:12:41.101063  7350 net.cpp:129] Top shape: 12 32 1 8192 (3145728)
I0803 23:12:41.101074  7350 net.cpp:137] Memory required for data: 35782656
I0803 23:12:41.101104  7350 layer_factory.hpp:77] Creating layer relu1
I0803 23:12:41.102651  7350 net.cpp:84] Creating Layer relu1
I0803 23:12:41.102694  7350 net.cpp:406] relu1 <- bn1
I0803 23:12:41.102711  7350 net.cpp:367] relu1 -> bn1 (in-place)
I0803 23:12:41.115757  7350 net.cpp:122] Setting up relu1
I0803 23:12:41.115794  7350 net.cpp:129] Top shape: 12 32 1 8192 (3145728)
I0803 23:12:41.115805  7350 net.cpp:137] Memory required for data: 48365568
I0803 23:12:41.115815  7350 layer_factory.hpp:77] Creating layer bn1_relu1_0_split
I0803 23:12:41.115833  7350 net.cpp:84] Creating Layer bn1_relu1_0_split
I0803 23:12:41.115842  7350 net.cpp:406] bn1_relu1_0_split <- bn1
I0803 23:12:41.115859  7350 net.cpp:380] bn1_relu1_0_split -> bn1_relu1_0_split_0
I0803 23:12:41.115877  7350 net.cpp:380] bn1_relu1_0_split -> bn1_relu1_0_split_1
I0803 23:12:41.115985  7350 net.cpp:122] Setting up bn1_relu1_0_split
I0803 23:12:41.116006  7350 net.cpp:129] Top shape: 12 32 1 8192 (3145728)
I0803 23:12:41.116016  7350 net.cpp:129] Top shape: 12 32 1 8192 (3145728)
I0803 23:12:41.116024  7350 net.cpp:137] Memory required for data: 73531392
I0803 23:12:41.116032  7350 layer_factory.hpp:77] Creating layer fconv1_
I0803 23:12:41.116068  7350 net.cpp:84] Creating Layer fconv1_
I0803 23:12:41.116082  7350 net.cpp:406] fconv1_ <- bn1_relu1_0_split_0
I0803 23:12:41.116109  7350 net.cpp:380] fconv1_ -> fconv1_
I0803 23:12:41.121037  7350 net.cpp:122] Setting up fconv1_
I0803 23:12:41.121075  7350 net.cpp:129] Top shape: 12 3 1 8192 (294912)
I0803 23:12:41.121085  7350 net.cpp:137] Memory required for data: 74711040
I0803 23:12:41.121104  7350 layer_factory.hpp:77] Creating layer fbn1
I0803 23:12:41.121121  7350 net.cpp:84] Creating Layer fbn1
I0803 23:12:41.121131  7350 net.cpp:406] fbn1 <- fconv1_
I0803 23:12:41.121145  7350 net.cpp:380] fbn1 -> fbn1
I0803 23:12:41.121593  7350 net.cpp:122] Setting up fbn1
I0803 23:12:41.121619  7350 net.cpp:129] Top shape: 12 3 1 8192 (294912)
I0803 23:12:41.121628  7350 net.cpp:137] Memory required for data: 75890688
I0803 23:12:41.121654  7350 layer_factory.hpp:77] Creating layer frelu1
I0803 23:12:41.121696  7350 net.cpp:84] Creating Layer frelu1
I0803 23:12:41.121727  7350 net.cpp:406] frelu1 <- fbn1
I0803 23:12:41.121742  7350 net.cpp:367] frelu1 -> fbn1 (in-place)
I0803 23:12:41.122349  7350 net.cpp:122] Setting up frelu1
I0803 23:12:41.122378  7350 net.cpp:129] Top shape: 12 3 1 8192 (294912)
I0803 23:12:41.122387  7350 net.cpp:137] Memory required for data: 77070336
I0803 23:12:41.122396  7350 layer_factory.hpp:77] Creating layer feat1
I0803 23:12:41.123502  7350 net.cpp:84] Creating Layer feat1
I0803 23:12:41.123530  7350 net.cpp:406] feat1 <- data_data_0_split_1
I0803 23:12:41.123546  7350 net.cpp:406] feat1 <- fbn1
I0803 23:12:41.123561  7350 net.cpp:380] feat1 -> feat1
I0803 23:12:41.124295  7350 net.cpp:122] Setting up feat1
I0803 23:12:41.124326  7350 net.cpp:129] Top shape: 12 3 1 8192 (294912)
I0803 23:12:41.124336  7350 net.cpp:137] Memory required for data: 78249984
I0803 23:12:41.124343  7350 layer_factory.hpp:77] Creating layer feat1_feat1_0_split
I0803 23:12:41.124363  7350 net.cpp:84] Creating Layer feat1_feat1_0_split
I0803 23:12:41.124373  7350 net.cpp:406] feat1_feat1_0_split <- feat1
I0803 23:12:41.124387  7350 net.cpp:380] feat1_feat1_0_split -> feat1_feat1_0_split_0
I0803 23:12:41.124404  7350 net.cpp:380] feat1_feat1_0_split -> feat1_feat1_0_split_1
I0803 23:12:41.124486  7350 net.cpp:122] Setting up feat1_feat1_0_split
I0803 23:12:41.124505  7350 net.cpp:129] Top shape: 12 3 1 8192 (294912)
I0803 23:12:41.124514  7350 net.cpp:129] Top shape: 12 3 1 8192 (294912)
I0803 23:12:41.124521  7350 net.cpp:137] Memory required for data: 80609280
I0803 23:12:41.124528  7350 layer_factory.hpp:77] Creating layer data_lattice0
I0803 23:12:41.124752  7350 net.cpp:84] Creating Layer data_lattice0
I0803 23:12:41.124775  7350 net.cpp:406] data_lattice0 <- feat1_feat1_0_split_0
I0803 23:12:41.124792  7350 net.cpp:380] data_lattice0 -> data_lattice0
I0803 23:12:41.128367  7350 net.cpp:122] Setting up data_lattice0
I0803 23:12:41.128406  7350 net.cpp:129] Top shape: 12 3 1 8192 (294912)
I0803 23:12:41.128415  7350 net.cpp:137] Memory required for data: 81788928
I0803 23:12:41.128425  7350 layer_factory.hpp:77] Creating layer data_lattice0_data_lattice0_0_split
I0803 23:12:41.128444  7350 net.cpp:84] Creating Layer data_lattice0_data_lattice0_0_split
I0803 23:12:41.128454  7350 net.cpp:406] data_lattice0_data_lattice0_0_split <- data_lattice0
I0803 23:12:41.128469  7350 net.cpp:380] data_lattice0_data_lattice0_0_split -> data_lattice0_data_lattice0_0_split_0
I0803 23:12:41.128492  7350 net.cpp:380] data_lattice0_data_lattice0_0_split -> data_lattice0_data_lattice0_0_split_1
I0803 23:12:41.128582  7350 net.cpp:122] Setting up data_lattice0_data_lattice0_0_split
I0803 23:12:41.128602  7350 net.cpp:129] Top shape: 12 3 1 8192 (294912)
I0803 23:12:41.128610  7350 net.cpp:129] Top shape: 12 3 1 8192 (294912)
I0803 23:12:41.128618  7350 net.cpp:137] Memory required for data: 84148224
I0803 23:12:41.128624  7350 layer_factory.hpp:77] Creating layer conv2
I0803 23:12:41.129248  7350 net.cpp:84] Creating Layer conv2
I0803 23:12:41.129287  7350 net.cpp:406] conv2 <- bn1_relu1_0_split_1
I0803 23:12:41.129303  7350 net.cpp:406] conv2 <- data_lattice0_data_lattice0_0_split_0
I0803 23:12:41.129314  7350 net.cpp:406] conv2 <- data_lattice0_data_lattice0_0_split_1
I0803 23:12:41.129333  7350 net.cpp:380] conv2 -> conv2
I0803 23:12:41.139775  7350 net.cpp:122] Setting up conv2
I0803 23:12:41.139816  7350 net.cpp:129] Top shape: 12 64 1 8192 (6291456)
I0803 23:12:41.139827  7350 net.cpp:137] Memory required for data: 109314048
I0803 23:12:41.139842  7350 layer_factory.hpp:77] Creating layer bn2
I0803 23:12:41.139864  7350 net.cpp:84] Creating Layer bn2
I0803 23:12:41.139874  7350 net.cpp:406] bn2 <- conv2
I0803 23:12:41.139889  7350 net.cpp:380] bn2 -> bn2
I0803 23:12:41.140333  7350 net.cpp:122] Setting up bn2
I0803 23:12:41.140355  7350 net.cpp:129] Top shape: 12 64 1 8192 (6291456)
I0803 23:12:41.140364  7350 net.cpp:137] Memory required for data: 134479872
I0803 23:12:41.140381  7350 layer_factory.hpp:77] Creating layer relu2
I0803 23:12:41.140396  7350 net.cpp:84] Creating Layer relu2
I0803 23:12:41.140404  7350 net.cpp:406] relu2 <- bn2
I0803 23:12:41.140422  7350 net.cpp:367] relu2 -> bn2 (in-place)
I0803 23:12:41.142267  7350 net.cpp:122] Setting up relu2
I0803 23:12:41.142304  7350 net.cpp:129] Top shape: 12 64 1 8192 (6291456)
I0803 23:12:41.142315  7350 net.cpp:137] Memory required for data: 159645696
I0803 23:12:41.142325  7350 layer_factory.hpp:77] Creating layer bn2_relu2_0_split
I0803 23:12:41.142341  7350 net.cpp:84] Creating Layer bn2_relu2_0_split
I0803 23:12:41.142350  7350 net.cpp:406] bn2_relu2_0_split <- bn2
I0803 23:12:41.142365  7350 net.cpp:380] bn2_relu2_0_split -> bn2_relu2_0_split_0
I0803 23:12:41.142382  7350 net.cpp:380] bn2_relu2_0_split -> bn2_relu2_0_split_1
I0803 23:12:41.142477  7350 net.cpp:122] Setting up bn2_relu2_0_split
I0803 23:12:41.142496  7350 net.cpp:129] Top shape: 12 64 1 8192 (6291456)
I0803 23:12:41.142506  7350 net.cpp:129] Top shape: 12 64 1 8192 (6291456)
I0803 23:12:41.142513  7350 net.cpp:137] Memory required for data: 209977344
I0803 23:12:41.142525  7350 layer_factory.hpp:77] Creating layer fconv2
I0803 23:12:41.142549  7350 net.cpp:84] Creating Layer fconv2
I0803 23:12:41.142562  7350 net.cpp:406] fconv2 <- feat1_feat1_0_split_1
I0803 23:12:41.142580  7350 net.cpp:380] fconv2 -> fconv2
I0803 23:12:41.145965  7350 net.cpp:122] Setting up fconv2
I0803 23:12:41.146001  7350 net.cpp:129] Top shape: 12 3 1 8192 (294912)
I0803 23:12:41.146011  7350 net.cpp:137] Memory required for data: 211156992
I0803 23:12:41.146036  7350 layer_factory.hpp:77] Creating layer fbn2
I0803 23:12:41.146064  7350 net.cpp:84] Creating Layer fbn2
I0803 23:12:41.146078  7350 net.cpp:406] fbn2 <- fconv2
I0803 23:12:41.146095  7350 net.cpp:380] fbn2 -> fbn2
I0803 23:12:41.146518  7350 net.cpp:122] Setting up fbn2
I0803 23:12:41.146540  7350 net.cpp:129] Top shape: 12 3 1 8192 (294912)
I0803 23:12:41.146548  7350 net.cpp:137] Memory required for data: 212336640
I0803 23:12:41.146564  7350 layer_factory.hpp:77] Creating layer frelu2
I0803 23:12:41.146577  7350 net.cpp:84] Creating Layer frelu2
I0803 23:12:41.146586  7350 net.cpp:406] frelu2 <- fbn2
I0803 23:12:41.146598  7350 net.cpp:367] frelu2 -> fbn2 (in-place)
I0803 23:12:41.147177  7350 net.cpp:122] Setting up frelu2
I0803 23:12:41.147205  7350 net.cpp:129] Top shape: 12 3 1 8192 (294912)
I0803 23:12:41.147214  7350 net.cpp:137] Memory required for data: 213516288
I0803 23:12:41.147223  7350 layer_factory.hpp:77] Creating layer feat2
I0803 23:12:41.147241  7350 net.cpp:84] Creating Layer feat2
I0803 23:12:41.147251  7350 net.cpp:406] feat2 <- data_data_0_split_2
I0803 23:12:41.147262  7350 net.cpp:406] feat2 <- fbn2
I0803 23:12:41.147274  7350 net.cpp:380] feat2 -> feat2
I0803 23:12:41.147336  7350 net.cpp:122] Setting up feat2
I0803 23:12:41.147353  7350 net.cpp:129] Top shape: 12 3 1 8192 (294912)
I0803 23:12:41.147361  7350 net.cpp:137] Memory required for data: 214695936
I0803 23:12:41.147368  7350 layer_factory.hpp:77] Creating layer feat2_feat2_0_split
I0803 23:12:41.147382  7350 net.cpp:84] Creating Layer feat2_feat2_0_split
I0803 23:12:41.147388  7350 net.cpp:406] feat2_feat2_0_split <- feat2
I0803 23:12:41.147400  7350 net.cpp:380] feat2_feat2_0_split -> feat2_feat2_0_split_0
I0803 23:12:41.147414  7350 net.cpp:380] feat2_feat2_0_split -> feat2_feat2_0_split_1
I0803 23:12:41.147486  7350 net.cpp:122] Setting up feat2_feat2_0_split
I0803 23:12:41.147502  7350 net.cpp:129] Top shape: 12 3 1 8192 (294912)
I0803 23:12:41.147511  7350 net.cpp:129] Top shape: 12 3 1 8192 (294912)
I0803 23:12:41.147517  7350 net.cpp:137] Memory required for data: 217055232
I0803 23:12:41.147524  7350 layer_factory.hpp:77] Creating layer data_lattice1
I0803 23:12:41.147586  7350 net.cpp:84] Creating Layer data_lattice1
I0803 23:12:41.147605  7350 net.cpp:406] data_lattice1 <- feat2_feat2_0_split_0
I0803 23:12:41.147620  7350 net.cpp:380] data_lattice1 -> data_lattice1
I0803 23:12:41.150421  7350 net.cpp:122] Setting up data_lattice1
I0803 23:12:41.150457  7350 net.cpp:129] Top shape: 12 3 1 8192 (294912)
I0803 23:12:41.150467  7350 net.cpp:137] Memory required for data: 218234880
I0803 23:12:41.150476  7350 layer_factory.hpp:77] Creating layer data_lattice1_data_lattice1_0_split
I0803 23:12:41.150491  7350 net.cpp:84] Creating Layer data_lattice1_data_lattice1_0_split
I0803 23:12:41.150501  7350 net.cpp:406] data_lattice1_data_lattice1_0_split <- data_lattice1
I0803 23:12:41.150514  7350 net.cpp:380] data_lattice1_data_lattice1_0_split -> data_lattice1_data_lattice1_0_split_0
I0803 23:12:41.150532  7350 net.cpp:380] data_lattice1_data_lattice1_0_split -> data_lattice1_data_lattice1_0_split_1
I0803 23:12:41.150614  7350 net.cpp:122] Setting up data_lattice1_data_lattice1_0_split
I0803 23:12:41.150632  7350 net.cpp:129] Top shape: 12 3 1 8192 (294912)
I0803 23:12:41.150641  7350 net.cpp:129] Top shape: 12 3 1 8192 (294912)
I0803 23:12:41.150648  7350 net.cpp:137] Memory required for data: 220594176
I0803 23:12:41.150655  7350 layer_factory.hpp:77] Creating layer conv3
I0803 23:12:41.150689  7350 net.cpp:84] Creating Layer conv3
I0803 23:12:41.150701  7350 net.cpp:406] conv3 <- bn2_relu2_0_split_0
I0803 23:12:41.150712  7350 net.cpp:406] conv3 <- data_lattice1_data_lattice1_0_split_0
I0803 23:12:41.150722  7350 net.cpp:406] conv3 <- data_lattice1_data_lattice1_0_split_1
I0803 23:12:41.150735  7350 net.cpp:380] conv3 -> conv3
I0803 23:12:41.184020  7350 net.cpp:122] Setting up conv3
I0803 23:12:41.184048  7350 net.cpp:129] Top shape: 12 128 1 8192 (12582912)
I0803 23:12:41.184056  7350 net.cpp:137] Memory required for data: 270925824
I0803 23:12:41.184070  7350 layer_factory.hpp:77] Creating layer bn3
I0803 23:12:41.184083  7350 net.cpp:84] Creating Layer bn3
I0803 23:12:41.184092  7350 net.cpp:406] bn3 <- conv3
I0803 23:12:41.184108  7350 net.cpp:380] bn3 -> bn3
I0803 23:12:41.184451  7350 net.cpp:122] Setting up bn3
I0803 23:12:41.184470  7350 net.cpp:129] Top shape: 12 128 1 8192 (12582912)
I0803 23:12:41.184478  7350 net.cpp:137] Memory required for data: 321257472
I0803 23:12:41.184490  7350 layer_factory.hpp:77] Creating layer relu3
I0803 23:12:41.184505  7350 net.cpp:84] Creating Layer relu3
I0803 23:12:41.184512  7350 net.cpp:406] relu3 <- bn3
I0803 23:12:41.184523  7350 net.cpp:367] relu3 -> bn3 (in-place)
I0803 23:12:41.185623  7350 net.cpp:122] Setting up relu3
I0803 23:12:41.185652  7350 net.cpp:129] Top shape: 12 128 1 8192 (12582912)
I0803 23:12:41.185659  7350 net.cpp:137] Memory required for data: 371589120
I0803 23:12:41.185667  7350 layer_factory.hpp:77] Creating layer bn3_relu3_0_split
I0803 23:12:41.185691  7350 net.cpp:84] Creating Layer bn3_relu3_0_split
I0803 23:12:41.185700  7350 net.cpp:406] bn3_relu3_0_split <- bn3
I0803 23:12:41.185712  7350 net.cpp:380] bn3_relu3_0_split -> bn3_relu3_0_split_0
I0803 23:12:41.185727  7350 net.cpp:380] bn3_relu3_0_split -> bn3_relu3_0_split_1
I0803 23:12:41.185804  7350 net.cpp:122] Setting up bn3_relu3_0_split
I0803 23:12:41.185820  7350 net.cpp:129] Top shape: 12 128 1 8192 (12582912)
I0803 23:12:41.185829  7350 net.cpp:129] Top shape: 12 128 1 8192 (12582912)
I0803 23:12:41.185835  7350 net.cpp:137] Memory required for data: 472252416
I0803 23:12:41.185845  7350 layer_factory.hpp:77] Creating layer fconv3
I0803 23:12:41.185865  7350 net.cpp:84] Creating Layer fconv3
I0803 23:12:41.185876  7350 net.cpp:406] fconv3 <- feat2_feat2_0_split_1
I0803 23:12:41.185890  7350 net.cpp:380] fconv3 -> fconv3
I0803 23:12:41.188313  7350 net.cpp:122] Setting up fconv3
I0803 23:12:41.188341  7350 net.cpp:129] Top shape: 12 3 1 8192 (294912)
I0803 23:12:41.188350  7350 net.cpp:137] Memory required for data: 473432064
I0803 23:12:41.188364  7350 layer_factory.hpp:77] Creating layer fbn3
I0803 23:12:41.188376  7350 net.cpp:84] Creating Layer fbn3
I0803 23:12:41.188385  7350 net.cpp:406] fbn3 <- fconv3
I0803 23:12:41.188395  7350 net.cpp:380] fbn3 -> fbn3
I0803 23:12:41.188746  7350 net.cpp:122] Setting up fbn3
I0803 23:12:41.188765  7350 net.cpp:129] Top shape: 12 3 1 8192 (294912)
I0803 23:12:41.188771  7350 net.cpp:137] Memory required for data: 474611712
I0803 23:12:41.188784  7350 layer_factory.hpp:77] Creating layer frelu3
I0803 23:12:41.188807  7350 net.cpp:84] Creating Layer frelu3
I0803 23:12:41.188817  7350 net.cpp:406] frelu3 <- fbn3
I0803 23:12:41.188828  7350 net.cpp:367] frelu3 -> fbn3 (in-place)
I0803 23:12:41.189294  7350 net.cpp:122] Setting up frelu3
I0803 23:12:41.189316  7350 net.cpp:129] Top shape: 12 3 1 8192 (294912)
I0803 23:12:41.189322  7350 net.cpp:137] Memory required for data: 475791360
I0803 23:12:41.189329  7350 layer_factory.hpp:77] Creating layer feat3
I0803 23:12:41.189347  7350 net.cpp:84] Creating Layer feat3
I0803 23:12:41.189355  7350 net.cpp:406] feat3 <- data_data_0_split_3
I0803 23:12:41.189364  7350 net.cpp:406] feat3 <- fbn3
I0803 23:12:41.189375  7350 net.cpp:380] feat3 -> feat3
I0803 23:12:41.189424  7350 net.cpp:122] Setting up feat3
I0803 23:12:41.189438  7350 net.cpp:129] Top shape: 12 3 1 8192 (294912)
I0803 23:12:41.189445  7350 net.cpp:137] Memory required for data: 476971008
I0803 23:12:41.189450  7350 layer_factory.hpp:77] Creating layer feat3_feat3_0_split
I0803 23:12:41.189463  7350 net.cpp:84] Creating Layer feat3_feat3_0_split
I0803 23:12:41.189471  7350 net.cpp:406] feat3_feat3_0_split <- feat3
I0803 23:12:41.189481  7350 net.cpp:380] feat3_feat3_0_split -> feat3_feat3_0_split_0
I0803 23:12:41.189492  7350 net.cpp:380] feat3_feat3_0_split -> feat3_feat3_0_split_1
I0803 23:12:41.189553  7350 net.cpp:122] Setting up feat3_feat3_0_split
I0803 23:12:41.189565  7350 net.cpp:129] Top shape: 12 3 1 8192 (294912)
I0803 23:12:41.189573  7350 net.cpp:129] Top shape: 12 3 1 8192 (294912)
I0803 23:12:41.189577  7350 net.cpp:137] Memory required for data: 479330304
I0803 23:12:41.189584  7350 layer_factory.hpp:77] Creating layer data_lattice2
I0803 23:12:41.189644  7350 net.cpp:84] Creating Layer data_lattice2
I0803 23:12:41.189658  7350 net.cpp:406] data_lattice2 <- feat3_feat3_0_split_0
I0803 23:12:41.189679  7350 net.cpp:380] data_lattice2 -> data_lattice2
I0803 23:12:41.191979  7350 net.cpp:122] Setting up data_lattice2
I0803 23:12:41.192008  7350 net.cpp:129] Top shape: 12 3 1 8192 (294912)
I0803 23:12:41.192015  7350 net.cpp:137] Memory required for data: 480509952
I0803 23:12:41.192023  7350 layer_factory.hpp:77] Creating layer data_lattice2_data_lattice2_0_split
I0803 23:12:41.192035  7350 net.cpp:84] Creating Layer data_lattice2_data_lattice2_0_split
I0803 23:12:41.192044  7350 net.cpp:406] data_lattice2_data_lattice2_0_split <- data_lattice2
I0803 23:12:41.192055  7350 net.cpp:380] data_lattice2_data_lattice2_0_split -> data_lattice2_data_lattice2_0_split_0
I0803 23:12:41.192070  7350 net.cpp:380] data_lattice2_data_lattice2_0_split -> data_lattice2_data_lattice2_0_split_1
I0803 23:12:41.192136  7350 net.cpp:122] Setting up data_lattice2_data_lattice2_0_split
I0803 23:12:41.192149  7350 net.cpp:129] Top shape: 12 3 1 8192 (294912)
I0803 23:12:41.192157  7350 net.cpp:129] Top shape: 12 3 1 8192 (294912)
I0803 23:12:41.192162  7350 net.cpp:137] Memory required for data: 482869248
I0803 23:12:41.192168  7350 layer_factory.hpp:77] Creating layer conv4
I0803 23:12:41.192185  7350 net.cpp:84] Creating Layer conv4
I0803 23:12:41.192193  7350 net.cpp:406] conv4 <- bn3_relu3_0_split_0
I0803 23:12:41.192203  7350 net.cpp:406] conv4 <- data_lattice2_data_lattice2_0_split_0
I0803 23:12:41.192209  7350 net.cpp:406] conv4 <- data_lattice2_data_lattice2_0_split_1
I0803 23:12:41.192220  7350 net.cpp:380] conv4 -> conv4
I0803 23:12:41.282438  7350 net.cpp:122] Setting up conv4
I0803 23:12:41.282474  7350 net.cpp:129] Top shape: 12 256 1 8192 (25165824)
I0803 23:12:41.282480  7350 net.cpp:137] Memory required for data: 583532544
I0803 23:12:41.282493  7350 layer_factory.hpp:77] Creating layer bn4
I0803 23:12:41.282505  7350 net.cpp:84] Creating Layer bn4
I0803 23:12:41.282512  7350 net.cpp:406] bn4 <- conv4
I0803 23:12:41.282522  7350 net.cpp:380] bn4 -> bn4
I0803 23:12:41.282781  7350 net.cpp:122] Setting up bn4
I0803 23:12:41.282794  7350 net.cpp:129] Top shape: 12 256 1 8192 (25165824)
I0803 23:12:41.282800  7350 net.cpp:137] Memory required for data: 684195840
I0803 23:12:41.282821  7350 layer_factory.hpp:77] Creating layer relu4
I0803 23:12:41.282830  7350 net.cpp:84] Creating Layer relu4
I0803 23:12:41.282835  7350 net.cpp:406] relu4 <- bn4
I0803 23:12:41.282841  7350 net.cpp:367] relu4 -> bn4 (in-place)
I0803 23:12:41.283782  7350 net.cpp:122] Setting up relu4
I0803 23:12:41.283800  7350 net.cpp:129] Top shape: 12 256 1 8192 (25165824)
I0803 23:12:41.283805  7350 net.cpp:137] Memory required for data: 784859136
I0803 23:12:41.283810  7350 layer_factory.hpp:77] Creating layer bn4_relu4_0_split
I0803 23:12:41.283820  7350 net.cpp:84] Creating Layer bn4_relu4_0_split
I0803 23:12:41.283825  7350 net.cpp:406] bn4_relu4_0_split <- bn4
I0803 23:12:41.283834  7350 net.cpp:380] bn4_relu4_0_split -> bn4_relu4_0_split_0
I0803 23:12:41.283843  7350 net.cpp:380] bn4_relu4_0_split -> bn4_relu4_0_split_1
I0803 23:12:41.283897  7350 net.cpp:122] Setting up bn4_relu4_0_split
I0803 23:12:41.283908  7350 net.cpp:129] Top shape: 12 256 1 8192 (25165824)
I0803 23:12:41.283913  7350 net.cpp:129] Top shape: 12 256 1 8192 (25165824)
I0803 23:12:41.283917  7350 net.cpp:137] Memory required for data: 986185728
I0803 23:12:41.283921  7350 layer_factory.hpp:77] Creating layer fconv4
I0803 23:12:41.283938  7350 net.cpp:84] Creating Layer fconv4
I0803 23:12:41.283947  7350 net.cpp:406] fconv4 <- feat3_feat3_0_split_1
I0803 23:12:41.283959  7350 net.cpp:380] fconv4 -> fconv4
I0803 23:12:41.285964  7350 net.cpp:122] Setting up fconv4
I0803 23:12:41.285984  7350 net.cpp:129] Top shape: 12 3 1 8192 (294912)
I0803 23:12:41.285990  7350 net.cpp:137] Memory required for data: 987365376
I0803 23:12:41.286000  7350 layer_factory.hpp:77] Creating layer fbn4
I0803 23:12:41.286013  7350 net.cpp:84] Creating Layer fbn4
I0803 23:12:41.286018  7350 net.cpp:406] fbn4 <- fconv4
I0803 23:12:41.286028  7350 net.cpp:380] fbn4 -> fbn4
I0803 23:12:41.286278  7350 net.cpp:122] Setting up fbn4
I0803 23:12:41.286290  7350 net.cpp:129] Top shape: 12 3 1 8192 (294912)
I0803 23:12:41.286294  7350 net.cpp:137] Memory required for data: 988545024
I0803 23:12:41.286304  7350 layer_factory.hpp:77] Creating layer frelu4
I0803 23:12:41.286314  7350 net.cpp:84] Creating Layer frelu4
I0803 23:12:41.286319  7350 net.cpp:406] frelu4 <- fbn4
I0803 23:12:41.286325  7350 net.cpp:367] frelu4 -> fbn4 (in-place)
I0803 23:12:41.286666  7350 net.cpp:122] Setting up frelu4
I0803 23:12:41.286689  7350 net.cpp:129] Top shape: 12 3 1 8192 (294912)
I0803 23:12:41.286693  7350 net.cpp:137] Memory required for data: 989724672
I0803 23:12:41.286697  7350 layer_factory.hpp:77] Creating layer feat4
I0803 23:12:41.286710  7350 net.cpp:84] Creating Layer feat4
I0803 23:12:41.286716  7350 net.cpp:406] feat4 <- data_data_0_split_4
I0803 23:12:41.286722  7350 net.cpp:406] feat4 <- fbn4
I0803 23:12:41.286731  7350 net.cpp:380] feat4 -> feat4
I0803 23:12:41.286769  7350 net.cpp:122] Setting up feat4
I0803 23:12:41.286780  7350 net.cpp:129] Top shape: 12 3 1 8192 (294912)
I0803 23:12:41.286784  7350 net.cpp:137] Memory required for data: 990904320
I0803 23:12:41.286788  7350 layer_factory.hpp:77] Creating layer feat4_feat4_0_split
I0803 23:12:41.286798  7350 net.cpp:84] Creating Layer feat4_feat4_0_split
I0803 23:12:41.286803  7350 net.cpp:406] feat4_feat4_0_split <- feat4
I0803 23:12:41.286810  7350 net.cpp:380] feat4_feat4_0_split -> feat4_feat4_0_split_0
I0803 23:12:41.286819  7350 net.cpp:380] feat4_feat4_0_split -> feat4_feat4_0_split_1
I0803 23:12:41.286865  7350 net.cpp:122] Setting up feat4_feat4_0_split
I0803 23:12:41.286875  7350 net.cpp:129] Top shape: 12 3 1 8192 (294912)
I0803 23:12:41.286880  7350 net.cpp:129] Top shape: 12 3 1 8192 (294912)
I0803 23:12:41.286883  7350 net.cpp:137] Memory required for data: 993263616
I0803 23:12:41.286888  7350 layer_factory.hpp:77] Creating layer data_lattice3
I0803 23:12:41.286960  7350 net.cpp:84] Creating Layer data_lattice3
I0803 23:12:41.286970  7350 net.cpp:406] data_lattice3 <- feat4_feat4_0_split_0
I0803 23:12:41.286980  7350 net.cpp:380] data_lattice3 -> data_lattice3
I0803 23:12:41.288616  7350 net.cpp:122] Setting up data_lattice3
I0803 23:12:41.288637  7350 net.cpp:129] Top shape: 12 3 1 8192 (294912)
I0803 23:12:41.288643  7350 net.cpp:137] Memory required for data: 994443264
I0803 23:12:41.288648  7350 layer_factory.hpp:77] Creating layer data_lattice3_data_lattice3_0_split
I0803 23:12:41.288658  7350 net.cpp:84] Creating Layer data_lattice3_data_lattice3_0_split
I0803 23:12:41.288663  7350 net.cpp:406] data_lattice3_data_lattice3_0_split <- data_lattice3
I0803 23:12:41.288681  7350 net.cpp:380] data_lattice3_data_lattice3_0_split -> data_lattice3_data_lattice3_0_split_0
I0803 23:12:41.288692  7350 net.cpp:380] data_lattice3_data_lattice3_0_split -> data_lattice3_data_lattice3_0_split_1
I0803 23:12:41.288743  7350 net.cpp:122] Setting up data_lattice3_data_lattice3_0_split
I0803 23:12:41.288755  7350 net.cpp:129] Top shape: 12 3 1 8192 (294912)
I0803 23:12:41.288760  7350 net.cpp:129] Top shape: 12 3 1 8192 (294912)
I0803 23:12:41.288764  7350 net.cpp:137] Memory required for data: 996802560
I0803 23:12:41.288769  7350 layer_factory.hpp:77] Creating layer conv5
I0803 23:12:41.288780  7350 net.cpp:84] Creating Layer conv5
I0803 23:12:41.288785  7350 net.cpp:406] conv5 <- bn4_relu4_0_split_0
I0803 23:12:41.288791  7350 net.cpp:406] conv5 <- data_lattice3_data_lattice3_0_split_0
I0803 23:12:41.288796  7350 net.cpp:406] conv5 <- data_lattice3_data_lattice3_0_split_1
I0803 23:12:41.288805  7350 net.cpp:380] conv5 -> conv5
I0803 23:12:41.449226  7350 net.cpp:122] Setting up conv5
I0803 23:12:41.449265  7350 net.cpp:129] Top shape: 12 256 1 8192 (25165824)
I0803 23:12:41.449271  7350 net.cpp:137] Memory required for data: 1097465856
I0803 23:12:41.449282  7350 layer_factory.hpp:77] Creating layer bn5
I0803 23:12:41.449295  7350 net.cpp:84] Creating Layer bn5
I0803 23:12:41.449301  7350 net.cpp:406] bn5 <- conv5
I0803 23:12:41.449311  7350 net.cpp:380] bn5 -> bn5
I0803 23:12:41.449570  7350 net.cpp:122] Setting up bn5
I0803 23:12:41.449584  7350 net.cpp:129] Top shape: 12 256 1 8192 (25165824)
I0803 23:12:41.449587  7350 net.cpp:137] Memory required for data: 1198129152
I0803 23:12:41.449599  7350 layer_factory.hpp:77] Creating layer relu5
I0803 23:12:41.449611  7350 net.cpp:84] Creating Layer relu5
I0803 23:12:41.449617  7350 net.cpp:406] relu5 <- bn5
I0803 23:12:41.449625  7350 net.cpp:367] relu5 -> bn5 (in-place)
I0803 23:12:41.450570  7350 net.cpp:122] Setting up relu5
I0803 23:12:41.450589  7350 net.cpp:129] Top shape: 12 256 1 8192 (25165824)
I0803 23:12:41.450595  7350 net.cpp:137] Memory required for data: 1298792448
I0803 23:12:41.450600  7350 layer_factory.hpp:77] Creating layer bn5_relu5_0_split
I0803 23:12:41.450610  7350 net.cpp:84] Creating Layer bn5_relu5_0_split
I0803 23:12:41.450615  7350 net.cpp:406] bn5_relu5_0_split <- bn5
I0803 23:12:41.450624  7350 net.cpp:380] bn5_relu5_0_split -> bn5_relu5_0_split_0
I0803 23:12:41.450634  7350 net.cpp:380] bn5_relu5_0_split -> bn5_relu5_0_split_1
I0803 23:12:41.450698  7350 net.cpp:122] Setting up bn5_relu5_0_split
I0803 23:12:41.450711  7350 net.cpp:129] Top shape: 12 256 1 8192 (25165824)
I0803 23:12:41.450717  7350 net.cpp:129] Top shape: 12 256 1 8192 (25165824)
I0803 23:12:41.450721  7350 net.cpp:137] Memory required for data: 1500119040
I0803 23:12:41.450724  7350 layer_factory.hpp:77] Creating layer fconv5
I0803 23:12:41.450739  7350 net.cpp:84] Creating Layer fconv5
I0803 23:12:41.450747  7350 net.cpp:406] fconv5 <- feat4_feat4_0_split_1
I0803 23:12:41.450757  7350 net.cpp:380] fconv5 -> fconv5
I0803 23:12:41.452554  7350 net.cpp:122] Setting up fconv5
I0803 23:12:41.452574  7350 net.cpp:129] Top shape: 12 3 1 8192 (294912)
I0803 23:12:41.452580  7350 net.cpp:137] Memory required for data: 1501298688
I0803 23:12:41.452589  7350 layer_factory.hpp:77] Creating layer fbn5
I0803 23:12:41.452600  7350 net.cpp:84] Creating Layer fbn5
I0803 23:12:41.452605  7350 net.cpp:406] fbn5 <- fconv5
I0803 23:12:41.452615  7350 net.cpp:380] fbn5 -> fbn5
I0803 23:12:41.452896  7350 net.cpp:122] Setting up fbn5
I0803 23:12:41.452911  7350 net.cpp:129] Top shape: 12 3 1 8192 (294912)
I0803 23:12:41.452916  7350 net.cpp:137] Memory required for data: 1502478336
I0803 23:12:41.452925  7350 layer_factory.hpp:77] Creating layer frelu5
I0803 23:12:41.452937  7350 net.cpp:84] Creating Layer frelu5
I0803 23:12:41.452942  7350 net.cpp:406] frelu5 <- fbn5
I0803 23:12:41.452950  7350 net.cpp:367] frelu5 -> fbn5 (in-place)
I0803 23:12:41.453696  7350 net.cpp:122] Setting up frelu5
I0803 23:12:41.453713  7350 net.cpp:129] Top shape: 12 3 1 8192 (294912)
I0803 23:12:41.453718  7350 net.cpp:137] Memory required for data: 1503657984
I0803 23:12:41.453723  7350 layer_factory.hpp:77] Creating layer feat5
I0803 23:12:41.453734  7350 net.cpp:84] Creating Layer feat5
I0803 23:12:41.453740  7350 net.cpp:406] feat5 <- data_data_0_split_5
I0803 23:12:41.453747  7350 net.cpp:406] feat5 <- fbn5
I0803 23:12:41.453757  7350 net.cpp:380] feat5 -> feat5
I0803 23:12:41.453795  7350 net.cpp:122] Setting up feat5
I0803 23:12:41.453809  7350 net.cpp:129] Top shape: 12 3 1 8192 (294912)
I0803 23:12:41.453814  7350 net.cpp:137] Memory required for data: 1504837632
I0803 23:12:41.453817  7350 layer_factory.hpp:77] Creating layer data_lattice4
I0803 23:12:41.453882  7350 net.cpp:84] Creating Layer data_lattice4
I0803 23:12:41.453893  7350 net.cpp:406] data_lattice4 <- feat5
I0803 23:12:41.453903  7350 net.cpp:380] data_lattice4 -> data_lattice4
I0803 23:12:41.455534  7350 net.cpp:122] Setting up data_lattice4
I0803 23:12:41.455555  7350 net.cpp:129] Top shape: 12 3 1 8192 (294912)
I0803 23:12:41.455561  7350 net.cpp:137] Memory required for data: 1506017280
I0803 23:12:41.455566  7350 layer_factory.hpp:77] Creating layer data_lattice4_data_lattice4_0_split
I0803 23:12:41.455576  7350 net.cpp:84] Creating Layer data_lattice4_data_lattice4_0_split
I0803 23:12:41.455582  7350 net.cpp:406] data_lattice4_data_lattice4_0_split <- data_lattice4
I0803 23:12:41.455591  7350 net.cpp:380] data_lattice4_data_lattice4_0_split -> data_lattice4_data_lattice4_0_split_0
I0803 23:12:41.455602  7350 net.cpp:380] data_lattice4_data_lattice4_0_split -> data_lattice4_data_lattice4_0_split_1
I0803 23:12:41.455652  7350 net.cpp:122] Setting up data_lattice4_data_lattice4_0_split
I0803 23:12:41.455663  7350 net.cpp:129] Top shape: 12 3 1 8192 (294912)
I0803 23:12:41.455670  7350 net.cpp:129] Top shape: 12 3 1 8192 (294912)
I0803 23:12:41.455682  7350 net.cpp:137] Memory required for data: 1508376576
I0803 23:12:41.455687  7350 layer_factory.hpp:77] Creating layer conv6
I0803 23:12:41.455701  7350 net.cpp:84] Creating Layer conv6
I0803 23:12:41.455706  7350 net.cpp:406] conv6 <- bn5_relu5_0_split_0
I0803 23:12:41.455713  7350 net.cpp:406] conv6 <- data_lattice4_data_lattice4_0_split_0
I0803 23:12:41.455718  7350 net.cpp:406] conv6 <- data_lattice4_data_lattice4_0_split_1
I0803 23:12:41.455729  7350 net.cpp:380] conv6 -> conv6
I0803 23:12:41.616847  7350 net.cpp:122] Setting up conv6
I0803 23:12:41.616899  7350 net.cpp:129] Top shape: 12 256 1 8192 (25165824)
I0803 23:12:41.616905  7350 net.cpp:137] Memory required for data: 1609039872
I0803 23:12:41.616916  7350 layer_factory.hpp:77] Creating layer bn6
I0803 23:12:41.616926  7350 net.cpp:84] Creating Layer bn6
I0803 23:12:41.616935  7350 net.cpp:406] bn6 <- conv6
I0803 23:12:41.616945  7350 net.cpp:380] bn6 -> bn6
I0803 23:12:41.617211  7350 net.cpp:122] Setting up bn6
I0803 23:12:41.617224  7350 net.cpp:129] Top shape: 12 256 1 8192 (25165824)
I0803 23:12:41.617229  7350 net.cpp:137] Memory required for data: 1709703168
I0803 23:12:41.617238  7350 layer_factory.hpp:77] Creating layer relu6
I0803 23:12:41.617247  7350 net.cpp:84] Creating Layer relu6
I0803 23:12:41.617252  7350 net.cpp:406] relu6 <- bn6
I0803 23:12:41.617259  7350 net.cpp:367] relu6 -> bn6 (in-place)
I0803 23:12:41.617722  7350 net.cpp:122] Setting up relu6
I0803 23:12:41.617738  7350 net.cpp:129] Top shape: 12 256 1 8192 (25165824)
I0803 23:12:41.617743  7350 net.cpp:137] Memory required for data: 1810366464
I0803 23:12:41.617748  7350 layer_factory.hpp:77] Creating layer concat6
I0803 23:12:41.617794  7350 net.cpp:84] Creating Layer concat6
I0803 23:12:41.617805  7350 net.cpp:406] concat6 <- bn6
I0803 23:12:41.617815  7350 net.cpp:406] concat6 <- bn2_relu2_0_split_1
I0803 23:12:41.617820  7350 net.cpp:406] concat6 <- bn3_relu3_0_split_1
I0803 23:12:41.617825  7350 net.cpp:406] concat6 <- bn4_relu4_0_split_1
I0803 23:12:41.617830  7350 net.cpp:406] concat6 <- bn5_relu5_0_split_1
I0803 23:12:41.617838  7350 net.cpp:380] concat6 -> concat6
I0803 23:12:41.617902  7350 net.cpp:122] Setting up concat6
I0803 23:12:41.617914  7350 net.cpp:129] Top shape: 12 960 1 8192 (94371840)
I0803 23:12:41.617919  7350 net.cpp:137] Memory required for data: 2187853824
I0803 23:12:41.617923  7350 layer_factory.hpp:77] Creating layer conv7
I0803 23:12:41.617938  7350 net.cpp:84] Creating Layer conv7
I0803 23:12:41.617944  7350 net.cpp:406] conv7 <- concat6
I0803 23:12:41.617954  7350 net.cpp:380] conv7 -> conv7
I0803 23:12:41.620949  7350 net.cpp:122] Setting up conv7
I0803 23:12:41.620968  7350 net.cpp:129] Top shape: 12 128 1 8192 (12582912)
I0803 23:12:41.620975  7350 net.cpp:137] Memory required for data: 2238185472
I0803 23:12:41.620983  7350 layer_factory.hpp:77] Creating layer bn7
I0803 23:12:41.620995  7350 net.cpp:84] Creating Layer bn7
I0803 23:12:41.621001  7350 net.cpp:406] bn7 <- conv7
I0803 23:12:41.621009  7350 net.cpp:380] bn7 -> bn7
I0803 23:12:41.621255  7350 net.cpp:122] Setting up bn7
I0803 23:12:41.621268  7350 net.cpp:129] Top shape: 12 128 1 8192 (12582912)
I0803 23:12:41.621273  7350 net.cpp:137] Memory required for data: 2288517120
I0803 23:12:41.621282  7350 layer_factory.hpp:77] Creating layer relu7
I0803 23:12:41.621305  7350 net.cpp:84] Creating Layer relu7
I0803 23:12:41.621312  7350 net.cpp:406] relu7 <- bn7
I0803 23:12:41.621320  7350 net.cpp:367] relu7 -> bn7 (in-place)
I0803 23:12:41.622082  7350 net.cpp:122] Setting up relu7
I0803 23:12:41.622102  7350 net.cpp:129] Top shape: 12 128 1 8192 (12582912)
I0803 23:12:41.622108  7350 net.cpp:137] Memory required for data: 2338848768
I0803 23:12:41.622115  7350 layer_factory.hpp:77] Creating layer conv8
I0803 23:12:41.622129  7350 net.cpp:84] Creating Layer conv8
I0803 23:12:41.622136  7350 net.cpp:406] conv8 <- bn7
I0803 23:12:41.622148  7350 net.cpp:380] conv8 -> conv8
I0803 23:12:41.625418  7350 net.cpp:122] Setting up conv8
I0803 23:12:41.625440  7350 net.cpp:129] Top shape: 12 13 1 8192 (1277952)
I0803 23:12:41.625447  7350 net.cpp:137] Memory required for data: 2343960576
I0803 23:12:41.625457  7350 layer_factory.hpp:77] Creating layer conv8_conv8_0_split
I0803 23:12:41.625466  7350 net.cpp:84] Creating Layer conv8_conv8_0_split
I0803 23:12:41.625473  7350 net.cpp:406] conv8_conv8_0_split <- conv8
I0803 23:12:41.625481  7350 net.cpp:380] conv8_conv8_0_split -> conv8_conv8_0_split_0
I0803 23:12:41.625490  7350 net.cpp:380] conv8_conv8_0_split -> conv8_conv8_0_split_1
I0803 23:12:41.625545  7350 net.cpp:122] Setting up conv8_conv8_0_split
I0803 23:12:41.625555  7350 net.cpp:129] Top shape: 12 13 1 8192 (1277952)
I0803 23:12:41.625560  7350 net.cpp:129] Top shape: 12 13 1 8192 (1277952)
I0803 23:12:41.625564  7350 net.cpp:137] Memory required for data: 2354184192
I0803 23:12:41.625568  7350 layer_factory.hpp:77] Creating layer loss
I0803 23:12:41.625613  7350 net.cpp:84] Creating Layer loss
I0803 23:12:41.625623  7350 net.cpp:406] loss <- conv8_conv8_0_split_0
I0803 23:12:41.625630  7350 net.cpp:406] loss <- label_data_1_split_0
I0803 23:12:41.625639  7350 net.cpp:380] loss -> loss
…
