…
I0731 16:30:25.107972 18888 net.cpp:294] The NetState phase (0) differed from the phase (1) specified by a rule in layer data
I0731 16:30:25.108355 18888 net.cpp:51] Initializing net from parameters: 
state {
  phase: TRAIN
}
layer {
  name: "data"
  type: "Python"
  top: "data"
  top: "label"
  include {
    phase: TRAIN
  }
  python_param {
    module: "dataset_lidar"
    layer: "InputShapenet"
    param_str: "{\'sample_size\': 90000, \'test_area\': \'6\', \'batch_size\': 1, \'feat_dims\': \'x_y_z\', \'subset\': \'train\', \'root\': \'../../data/shapenet_ericyi_ply\', \'jitter_xyz\': 0.01, \'jitter_stretch\': 0.05, \'jitter_rotation\': 5.0}"
  }
}
layer {
  name: "data_feat"
  type: "Python"
  bottom: "data"
  top: "data_feat"
  python_param {
    module: "custom_layers"
    layer: "PickAndScale"
    param_str: "0_1_2"
  }
}
layer {
  name: "conv1"
  type: "Convolution"
  bottom: "data_feat"
  top: "conv1"
  param {
    lr_mult: 1
  }
  param {
    lr_mult: 0.1
  }
  convolution_param {
    num_output: 32
    pad: 0
    kernel_size: 1
    stride: 1
    weight_filler {
      type: "xavier"
    }
    bias_filler {
      type: "constant"
      value: 0
    }
  }
}
layer {
  name: "bn1"
  type: "BatchNorm"
  bottom: "conv1"
  top: "bn1"
}
layer {
  name: "relu1"
  type: "ReLU"
  bottom: "bn1"
  top: "bn1"
}
layer {
  name: "data_lattice9"
  type: "Python"
  bottom: "data"
  top: "data_lattice9"
  python_param {
    module: "custom_layers"
    layer: "PickAndScale"
    param_str: "0*128_1*128_2*128"
  }
}
layer {
  name: "conv9"
  type: "Permutohedral"
  bottom: "bn1"
  bottom: "data_lattice9"
  bottom: "data_lattice9"
  top: "conv9"
  param {
    lr_mult: 1
    decay_mult: 1
  }
  param {
    lr_mult: 2
    decay_mult: 0
  }
  permutohedral_param {
    num_output: 64
    neighborhood_size: 1
    filter_filler {
      type: "gaussian"
      std: 0.001
    }
    bias_term: true
    bias_filler {
      type: "constant"
      value: 0
    }
    group: 1
    norm_type: AFTER
    offset_type: NONE
  }
}
layer {
  name: "bn9"
  type: "BatchNorm"
  bottom: "conv9"
  top: "bn9"
}
layer {
  name: "relu9"
  type: "ReLU"
  bottom: "bn9"
  top: "bn9"
}
layer {
  name: "data_lattice0"
  type: "Python"
  bottom: "data"
  top: "data_lattice0"
  python_param {
    module: "custom_layers"
    layer: "PickAndScale"
    param_str: "0*64_1*64_2*64"
  }
}
layer {
  name: "conv2"
  type: "Permutohedral"
  bottom: "bn9"
  bottom: "data_lattice0"
  bottom: "data_lattice0"
  top: "conv2"
  param {
    lr_mult: 1
    decay_mult: 1
  }
  param {
    lr_mult: 2
    decay_mult: 0
  }
  permutohedral_param {
    num_output: 64
    neighborhood_size: 1
    filter_filler {
      type: "gaussian"
      std: 0.001
    }
    bias_term: true
    bias_filler {
      type: "constant"
      value: 0
    }
    group: 1
    norm_type: AFTER
    offset_type: NONE
  }
}
layer {
  name: "bn2"
  type: "BatchNorm"
  bottom: "conv2"
  top: "bn2"
}
layer {
  name: "relu2"
  type: "ReLU"
  bottom: "bn2"
  top: "bn2"
}
layer {
  name: "data_lattice1"
  type: "Python"
  bottom: "data"
  top: "data_lattice1"
  python_param {
    module: "custom_layers"
    layer: "PickAndScale"
    param_str: "0*32_1*32_2*32"
  }
}
layer {
  name: "conv3"
  type: "Permutohedral"
  bottom: "bn2"
  bottom: "data_lattice1"
  bottom: "data_lattice1"
  top: "conv3"
  param {
    lr_mult: 1
    decay_mult: 1
  }
  param {
    lr_mult: 2
    decay_mult: 0
  }
  permutohedral_param {
    num_output: 128
    neighborhood_size: 1
    filter_filler {
      type: "gaussian"
      std: 0.001
    }
    bias_term: true
    bias_filler {
      type: "constant"
      value: 0
    }
    group: 1
    norm_type: AFTER
    offset_type: NONE
  }
}
layer {
  name: "bn3"
  type: "BatchNorm"
  bottom: "conv3"
  top: "bn3"
}
layer {
  name: "relu3"
  type: "ReLU"
  bottom: "bn3"
  top: "bn3"
}
layer {
  name: "data_lattice2"
  type: "Python"
  bottom: "data"
  top: "data_lattice2"
  python_param {
    module: "custom_layers"
    layer: "PickAndScale"
    param_str: "0*16_1*16_2*16"
  }
}
layer {
  name: "conv4"
  type: "Permutohedral"
  bottom: "bn3"
  bottom: "data_lattice2"
  bottom: "data_lattice2"
  top: "conv4"
  param {
    lr_mult: 1
    decay_mult: 1
  }
  param {
    lr_mult: 2
    decay_mult: 0
  }
  permutohedral_param {
    num_output: 256
    neighborhood_size: 1
    filter_filler {
      type: "gaussian"
      std: 0.001
    }
    bias_term: true
    bias_filler {
      type: "constant"
      value: 0
    }
    group: 1
    norm_type: AFTER
    offset_type: NONE
  }
}
layer {
  name: "bn4"
  type: "BatchNorm"
  bottom: "conv4"
  top: "bn4"
}
layer {
  name: "relu4"
  type: "ReLU"
  bottom: "bn4"
  top: "bn4"
}
layer {
  name: "data_lattice3"
  type: "Python"
  bottom: "data"
  top: "data_lattice3"
  python_param {
    module: "custom_layers"
    layer: "PickAndScale"
    param_str: "0*8_1*8_2*8"
  }
}
layer {
  name: "conv5"
  type: "Permutohedral"
  bottom: "bn4"
  bottom: "data_lattice3"
  bottom: "data_lattice3"
  top: "conv5"
  param {
    lr_mult: 1
    decay_mult: 1
  }
  param {
    lr_mult: 2
    decay_mult: 0
  }
  permutohedral_param {
    num_output: 256
    neighborhood_size: 1
    filter_filler {
      type: "gaussian"
      std: 0.001
    }
    bias_term: true
    bias_filler {
      type: "constant"
      value: 0
    }
    group: 1
    norm_type: AFTER
    offset_type: NONE
  }
}
layer {
  name: "bn5"
  type: "BatchNorm"
  bottom: "conv5"
  top: "bn5"
}
layer {
  name: "relu5"
  type: "ReLU"
  bottom: "bn5"
  top: "bn5"
}
layer {
  name: "data_lattice4"
  type: "Python"
  bottom: "data"
  top: "data_lattice4"
  python_param {
    module: "custom_layers"
    layer: "PickAndScale"
    param_str: "0*4_1*4_2*4"
  }
}
layer {
  name: "conv6"
  type: "Permutohedral"
  bottom: "bn5"
  bottom: "data_lattice4"
  bottom: "data_lattice4"
  top: "conv6"
  param {
    lr_mult: 1
    decay_mult: 1
  }
  param {
    lr_mult: 2
    decay_mult: 0
  }
  permutohedral_param {
    num_output: 256
    neighborhood_size: 1
    filter_filler {
      type: "gaussian"
      std: 0.001
    }
    bias_term: true
    bias_filler {
      type: "constant"
      value: 0
    }
    group: 1
    norm_type: AFTER
    offset_type: NONE
  }
}
layer {
  name: "bn6"
  type: "BatchNorm"
  bottom: "conv6"
  top: "bn6"
}
layer {
  name: "relu6"
  type: "ReLU"
  bottom: "bn6"
  top: "bn6"
}
layer {
  name: "data_lattice5"
  type: "Python"
  bottom: "data"
  top: "data_lattice5"
  python_param {
    module: "custom_layers"
    layer: "PickAndScale"
    param_str: "0*2_1*2_2*2"
  }
}
layer {
  name: "conv9_"
  type: "Permutohedral"
  bottom: "bn6"
  bottom: "data_lattice5"
  bottom: "data_lattice5"
  top: "conv9_"
  param {
    lr_mult: 1
    decay_mult: 1
  }
  param {
    lr_mult: 2
    decay_mult: 0
  }
  permutohedral_param {
    num_output: 256
    neighborhood_size: 1
    filter_filler {
      type: "gaussian"
      std: 0.001
    }
    bias_term: true
    bias_filler {
      type: "constant"
      value: 0
    }
    group: 1
    norm_type: AFTER
    offset_type: NONE
  }
}
layer {
  name: "bn9_"
  type: "BatchNorm"
  bottom: "conv9_"
  top: "bn9_"
}
layer {
  name: "relu9_"
  type: "ReLU"
  bottom: "bn9_"
  top: "bn9_"
}
layer {
  name: "concat6"
  type: "Concat"
  bottom: "bn9"
  bottom: "bn6"
  bottom: "bn2"
  bottom: "bn3"
  bottom: "bn4"
  bottom: "bn5"
  bottom: "bn9_"
  top: "concat6"
}
layer {
  name: "conv7"
  type: "Convolution"
  bottom: "concat6"
  top: "conv7"
  param {
    lr_mult: 1
  }
  param {
    lr_mult: 0.1
  }
  convolution_param {
    num_output: 128
    pad: 0
    kernel_size: 1
    stride: 1
    weight_filler {
      type: "xavier"
    }
    bias_filler {
      type: "constant"
      value: 0
    }
  }
}
layer {
  name: "bn7"
  type: "BatchNorm"
  bottom: "conv7"
  top: "bn7"
}
layer {
  name: "relu7"
  type: "ReLU"
  bottom: "bn7"
  top: "bn7"
}
layer {
  name: "conv8"
  type: "Convolution"
  bottom: "bn7"
  top: "conv8"
  param {
    lr_mult: 1
  }
  param {
    lr_mult: 0.1
  }
  convolution_param {
    num_output: 13
    pad: 0
    kernel_size: 1
    stride: 1
    weight_filler {
      type: "xavier"
    }
    bias_filler {
      type: "constant"
      value: 0
    }
  }
}
layer {
  name: "loss"
  type: "SoftmaxWithLoss"
  bottom: "conv8"
  bottom: "label"
  top: "loss"
}
layer {
  name: "accuracy"
  type: "Accuracy"
  bottom: "conv8"
  bottom: "label"
  top: "accuracy"
}
I0731 16:30:25.135406 18888 layer_factory.hpp:77] Creating layer data
I0731 16:30:25.153990 18888 net.cpp:84] Creating Layer data
I0731 16:30:25.154037 18888 net.cpp:380] data -> data
I0731 16:30:25.154139 18888 net.cpp:380] data -> label
I0731 16:30:25.719925 18894 upgrade_proto.cpp:1084] Attempting to upgrade input file specified using deprecated 'solver_type' field (enum)': /mnt/lustre/wangjiayun/repos/splatnet/exp/lidar3d/area6/6_solver.prototxt
…
I0731 16:30:25.789193 18892 upgrade_proto.cpp:1084] Attempting to upgrade input file specified using deprecated 'solver_type' field (enum)': /mnt/lustre/wangjiayun/repos/splatnet/exp/lidar3d/area6/6_solver.prototxt
I0731 16:30:25.789294 18892 upgrade_proto.cpp:1091] Successfully upgraded file specified using deprecated 'solver_type' field (enum) to 'type' field (string).
W0731 16:30:25.789301 18892 upgrade_proto.cpp:1093] Note that future Caffe releases will only support 'type' field (string) for a solver's type.
I0731 16:36:53.400652 18890 solver.cpp:190] Creating test net (#0) specified by test_net file: area6_net_d3.prototxt
I0731 16:37:34.098124 18888 net.cpp:122] Setting up data
I0731 16:37:34.098217 18888 net.cpp:129] Top shape: 1 3 1 90000 (270000)
I0731 16:37:34.098233 18888 net.cpp:129] Top shape: 1 1 1 90000 (90000)
I0731 16:37:34.098237 18888 net.cpp:137] Memory required for data: 1440000
I0731 16:37:34.098256 18888 layer_factory.hpp:77] Creating layer data_data_0_split
I0731 16:37:34.098335 18888 net.cpp:84] Creating Layer data_data_0_split
I0731 16:37:34.098353 18888 net.cpp:406] data_data_0_split <- data
I0731 16:37:34.098367 18888 net.cpp:380] data_data_0_split -> data_data_0_split_0
I0731 16:37:34.098387 18888 net.cpp:380] data_data_0_split -> data_data_0_split_1
I0731 16:37:34.098397 18888 net.cpp:380] data_data_0_split -> data_data_0_split_2
I0731 16:37:34.098403 18888 net.cpp:380] data_data_0_split -> data_data_0_split_3
I0731 16:37:34.098409 18888 net.cpp:380] data_data_0_split -> data_data_0_split_4
I0731 16:37:34.098415 18888 net.cpp:380] data_data_0_split -> data_data_0_split_5
I0731 16:37:34.098420 18888 net.cpp:380] data_data_0_split -> data_data_0_split_6
I0731 16:37:34.098428 18888 net.cpp:380] data_data_0_split -> data_data_0_split_7
I0731 16:37:34.098548 18888 net.cpp:122] Setting up data_data_0_split
I0731 16:37:34.098558 18888 net.cpp:129] Top shape: 1 3 1 90000 (270000)
I0731 16:37:34.098563 18888 net.cpp:129] Top shape: 1 3 1 90000 (270000)
I0731 16:37:34.098567 18888 net.cpp:129] Top shape: 1 3 1 90000 (270000)
I0731 16:37:34.098572 18888 net.cpp:129] Top shape: 1 3 1 90000 (270000)
I0731 16:37:34.098577 18888 net.cpp:129] Top shape: 1 3 1 90000 (270000)
I0731 16:37:34.098580 18888 net.cpp:129] Top shape: 1 3 1 90000 (270000)
I0731 16:37:34.098584 18888 net.cpp:129] Top shape: 1 3 1 90000 (270000)
I0731 16:37:34.098588 18888 net.cpp:129] Top shape: 1 3 1 90000 (270000)
I0731 16:37:34.098592 18888 net.cpp:137] Memory required for data: 10080000
I0731 16:37:34.098597 18888 layer_factory.hpp:77] Creating layer label_data_1_split
I0731 16:37:34.098615 18888 net.cpp:84] Creating Layer label_data_1_split
I0731 16:37:34.098620 18888 net.cpp:406] label_data_1_split <- label
I0731 16:37:34.098626 18888 net.cpp:380] label_data_1_split -> label_data_1_split_0
I0731 16:37:34.098634 18888 net.cpp:380] label_data_1_split -> label_data_1_split_1
I0731 16:37:34.098670 18888 net.cpp:122] Setting up label_data_1_split
I0731 16:37:34.098676 18888 net.cpp:129] Top shape: 1 1 1 90000 (90000)
I0731 16:37:34.098681 18888 net.cpp:129] Top shape: 1 1 1 90000 (90000)
I0731 16:37:34.098685 18888 net.cpp:137] Memory required for data: 10800000
I0731 16:37:34.098695 18888 layer_factory.hpp:77] Creating layer data_feat
I0731 16:37:34.103588 18888 net.cpp:84] Creating Layer data_feat
I0731 16:37:34.103605 18888 net.cpp:406] data_feat <- data_data_0_split_0
I0731 16:37:34.103613 18888 net.cpp:380] data_feat -> data_feat
I0731 16:37:34.105669 18888 net.cpp:122] Setting up data_feat
I0731 16:37:34.105706 18888 net.cpp:129] Top shape: 1 3 1 90000 (270000)
I0731 16:37:34.105711 18888 net.cpp:137] Memory required for data: 11880000
I0731 16:37:34.105717 18888 layer_factory.hpp:77] Creating layer conv1
I0731 16:37:34.105799 18888 net.cpp:84] Creating Layer conv1
I0731 16:37:34.105810 18888 net.cpp:406] conv1 <- data_feat
I0731 16:37:34.105821 18888 net.cpp:380] conv1 -> conv1
I0731 16:37:35.122597 18888 net.cpp:122] Setting up conv1
I0731 16:37:35.122633 18888 net.cpp:129] Top shape: 1 32 1 90000 (2880000)
I0731 16:37:35.122639 18888 net.cpp:137] Memory required for data: 23400000
I0731 16:37:35.122691 18888 layer_factory.hpp:77] Creating layer bn1
I0731 16:37:35.122727 18888 net.cpp:84] Creating Layer bn1
I0731 16:37:35.122759 18888 net.cpp:406] bn1 <- conv1
I0731 16:37:35.122786 18888 net.cpp:380] bn1 -> bn1
I0731 16:37:35.123174 18888 net.cpp:122] Setting up bn1
I0731 16:37:35.123186 18888 net.cpp:129] Top shape: 1 32 1 90000 (2880000)
I0731 16:37:35.123190 18888 net.cpp:137] Memory required for data: 34920000
I0731 16:37:35.123214 18888 layer_factory.hpp:77] Creating layer relu1
I0731 16:37:35.123283 18888 net.cpp:84] Creating Layer relu1
I0731 16:37:35.123291 18888 net.cpp:406] relu1 <- bn1
I0731 16:37:35.123297 18888 net.cpp:367] relu1 -> bn1 (in-place)
I0731 16:37:35.123705 18888 net.cpp:122] Setting up relu1
I0731 16:37:35.123718 18888 net.cpp:129] Top shape: 1 32 1 90000 (2880000)
I0731 16:37:35.123723 18888 net.cpp:137] Memory required for data: 46440000
I0731 16:37:35.123741 18888 layer_factory.hpp:77] Creating layer data_lattice9
I0731 16:37:35.123841 18888 net.cpp:84] Creating Layer data_lattice9
I0731 16:37:35.123849 18888 net.cpp:406] data_lattice9 <- data_data_0_split_1
I0731 16:37:35.123858 18888 net.cpp:380] data_lattice9 -> data_lattice9
I0731 16:37:35.125690 18888 net.cpp:122] Setting up data_lattice9
I0731 16:37:35.125715 18888 net.cpp:129] Top shape: 1 3 1 90000 (270000)
I0731 16:37:35.125720 18888 net.cpp:137] Memory required for data: 47520000
I0731 16:37:35.125730 18888 layer_factory.hpp:77] Creating layer data_lattice9_data_lattice9_0_split
I0731 16:37:35.125768 18888 net.cpp:84] Creating Layer data_lattice9_data_lattice9_0_split
I0731 16:37:35.125775 18888 net.cpp:406] data_lattice9_data_lattice9_0_split <- data_lattice9
I0731 16:37:35.125795 18888 net.cpp:380] data_lattice9_data_lattice9_0_split -> data_lattice9_data_lattice9_0_split_0
I0731 16:37:35.125808 18888 net.cpp:380] data_lattice9_data_lattice9_0_split -> data_lattice9_data_lattice9_0_split_1
I0731 16:37:35.125869 18888 net.cpp:122] Setting up data_lattice9_data_lattice9_0_split
I0731 16:37:35.125879 18888 net.cpp:129] Top shape: 1 3 1 90000 (270000)
I0731 16:37:35.125883 18888 net.cpp:129] Top shape: 1 3 1 90000 (270000)
I0731 16:37:35.125886 18888 net.cpp:137] Memory required for data: 49680000
I0731 16:37:35.125903 18888 layer_factory.hpp:77] Creating layer conv9
I0731 16:37:35.125949 18888 net.cpp:84] Creating Layer conv9
I0731 16:37:35.125957 18888 net.cpp:406] conv9 <- bn1
I0731 16:37:35.125972 18888 net.cpp:406] conv9 <- data_lattice9_data_lattice9_0_split_0
I0731 16:37:35.125978 18888 net.cpp:406] conv9 <- data_lattice9_data_lattice9_0_split_1
I0731 16:37:35.125985 18888 net.cpp:380] conv9 -> conv9
I0731 16:37:35.140494 18888 net.cpp:122] Setting up conv9
I0731 16:37:35.140552 18888 net.cpp:129] Top shape: 1 64 1 90000 (5760000)
I0731 16:37:35.140558 18888 net.cpp:137] Memory required for data: 72720000
I0731 16:37:35.140573 18888 layer_factory.hpp:77] Creating layer bn9
I0731 16:37:35.140588 18888 net.cpp:84] Creating Layer bn9
I0731 16:37:35.140596 18888 net.cpp:406] bn9 <- conv9
I0731 16:37:35.140605 18888 net.cpp:380] bn9 -> bn9
I0731 16:37:35.140955 18888 net.cpp:122] Setting up bn9
I0731 16:37:35.140965 18888 net.cpp:129] Top shape: 1 64 1 90000 (5760000)
I0731 16:37:35.140985 18888 net.cpp:137] Memory required for data: 95760000
I0731 16:37:35.141000 18888 layer_factory.hpp:77] Creating layer relu9
I0731 16:37:35.141016 18888 net.cpp:84] Creating Layer relu9
I0731 16:37:35.141021 18888 net.cpp:406] relu9 <- bn9
I0731 16:37:35.141027 18888 net.cpp:367] relu9 -> bn9 (in-place)
I0731 16:37:35.142370 18888 net.cpp:122] Setting up relu9
I0731 16:37:35.142386 18888 net.cpp:129] Top shape: 1 64 1 90000 (5760000)
I0731 16:37:35.142406 18888 net.cpp:137] Memory required for data: 118800000
I0731 16:37:35.142410 18888 layer_factory.hpp:77] Creating layer bn9_relu9_0_split
I0731 16:37:35.142419 18888 net.cpp:84] Creating Layer bn9_relu9_0_split
I0731 16:37:35.142424 18888 net.cpp:406] bn9_relu9_0_split <- bn9
I0731 16:37:35.142431 18888 net.cpp:380] bn9_relu9_0_split -> bn9_relu9_0_split_0
I0731 16:37:35.142441 18888 net.cpp:380] bn9_relu9_0_split -> bn9_relu9_0_split_1
I0731 16:37:35.142509 18888 net.cpp:122] Setting up bn9_relu9_0_split
I0731 16:37:35.142518 18888 net.cpp:129] Top shape: 1 64 1 90000 (5760000)
I0731 16:37:35.142522 18888 net.cpp:129] Top shape: 1 64 1 90000 (5760000)
I0731 16:37:35.142525 18888 net.cpp:137] Memory required for data: 164880000
I0731 16:37:35.142529 18888 layer_factory.hpp:77] Creating layer data_lattice0
I0731 16:37:35.142603 18888 net.cpp:84] Creating Layer data_lattice0
I0731 16:37:35.142611 18888 net.cpp:406] data_lattice0 <- data_data_0_split_2
I0731 16:37:35.142619 18888 net.cpp:380] data_lattice0 -> data_lattice0
I0731 16:37:35.145032 18888 net.cpp:122] Setting up data_lattice0
I0731 16:37:35.145081 18888 net.cpp:129] Top shape: 1 3 1 90000 (270000)
I0731 16:37:35.145102 18888 net.cpp:137] Memory required for data: 165960000
I0731 16:37:35.145107 18888 layer_factory.hpp:77] Creating layer data_lattice0_data_lattice0_0_split
I0731 16:37:35.145115 18888 net.cpp:84] Creating Layer data_lattice0_data_lattice0_0_split
I0731 16:37:35.145120 18888 net.cpp:406] data_lattice0_data_lattice0_0_split <- data_lattice0
I0731 16:37:35.145128 18888 net.cpp:380] data_lattice0_data_lattice0_0_split -> data_lattice0_data_lattice0_0_split_0
I0731 16:37:35.145138 18888 net.cpp:380] data_lattice0_data_lattice0_0_split -> data_lattice0_data_lattice0_0_split_1
I0731 16:37:35.145187 18888 net.cpp:122] Setting up data_lattice0_data_lattice0_0_split
I0731 16:37:35.145201 18888 net.cpp:129] Top shape: 1 3 1 90000 (270000)
I0731 16:37:35.145206 18888 net.cpp:129] Top shape: 1 3 1 90000 (270000)
I0731 16:37:35.145210 18888 net.cpp:137] Memory required for data: 168120000
I0731 16:37:35.145216 18888 layer_factory.hpp:77] Creating layer conv2
I0731 16:37:35.145228 18888 net.cpp:84] Creating Layer conv2
I0731 16:37:35.145233 18888 net.cpp:406] conv2 <- bn9_relu9_0_split_0
I0731 16:37:35.145238 18888 net.cpp:406] conv2 <- data_lattice0_data_lattice0_0_split_0
I0731 16:37:35.145243 18888 net.cpp:406] conv2 <- data_lattice0_data_lattice0_0_split_1
I0731 16:37:35.145251 18888 net.cpp:380] conv2 -> conv2
I0731 16:37:35.147580 18888 net.cpp:122] Setting up conv2
I0731 16:37:35.147591 18888 net.cpp:129] Top shape: 1 64 1 90000 (5760000)
I0731 16:37:35.147611 18888 net.cpp:137] Memory required for data: 191160000
I0731 16:37:35.147619 18888 layer_factory.hpp:77] Creating layer bn2
I0731 16:37:35.147631 18888 net.cpp:84] Creating Layer bn2
I0731 16:37:35.147635 18888 net.cpp:406] bn2 <- conv2
I0731 16:37:35.147642 18888 net.cpp:380] bn2 -> bn2
I0731 16:37:35.147951 18888 net.cpp:122] Setting up bn2
I0731 16:37:35.147959 18888 net.cpp:129] Top shape: 1 64 1 90000 (5760000)
I0731 16:37:35.147977 18888 net.cpp:137] Memory required for data: 214200000
I0731 16:37:35.147985 18888 layer_factory.hpp:77] Creating layer relu2
I0731 16:37:35.148008 18888 net.cpp:84] Creating Layer relu2
I0731 16:37:35.148012 18888 net.cpp:406] relu2 <- bn2
I0731 16:37:35.148032 18888 net.cpp:367] relu2 -> bn2 (in-place)
I0731 16:37:35.148363 18888 net.cpp:122] Setting up relu2
I0731 16:37:35.148387 18888 net.cpp:129] Top shape: 1 64 1 90000 (5760000)
I0731 16:37:35.148406 18888 net.cpp:137] Memory required for data: 237240000
I0731 16:37:35.148411 18888 layer_factory.hpp:77] Creating layer bn2_relu2_0_split
I0731 16:37:35.148417 18888 net.cpp:84] Creating Layer bn2_relu2_0_split
I0731 16:37:35.148422 18888 net.cpp:406] bn2_relu2_0_split <- bn2
I0731 16:37:35.148428 18888 net.cpp:380] bn2_relu2_0_split -> bn2_relu2_0_split_0
I0731 16:37:35.148435 18888 net.cpp:380] bn2_relu2_0_split -> bn2_relu2_0_split_1
I0731 16:37:35.148510 18888 net.cpp:122] Setting up bn2_relu2_0_split
I0731 16:37:35.148517 18888 net.cpp:129] Top shape: 1 64 1 90000 (5760000)
I0731 16:37:35.148522 18888 net.cpp:129] Top shape: 1 64 1 90000 (5760000)
I0731 16:37:35.148525 18888 net.cpp:137] Memory required for data: 283320000
I0731 16:37:35.148531 18888 layer_factory.hpp:77] Creating layer data_lattice1
I0731 16:37:35.148598 18888 net.cpp:84] Creating Layer data_lattice1
I0731 16:37:35.148607 18888 net.cpp:406] data_lattice1 <- data_data_0_split_3
I0731 16:37:35.148614 18888 net.cpp:380] data_lattice1 -> data_lattice1
I0731 16:37:35.151252 18888 net.cpp:122] Setting up data_lattice1
I0731 16:37:35.151289 18888 net.cpp:129] Top shape: 1 3 1 90000 (270000)
I0731 16:37:35.151298 18888 net.cpp:137] Memory required for data: 284400000
I0731 16:37:35.151304 18888 layer_factory.hpp:77] Creating layer data_lattice1_data_lattice1_0_split
I0731 16:37:35.151315 18888 net.cpp:84] Creating Layer data_lattice1_data_lattice1_0_split
I0731 16:37:35.151322 18888 net.cpp:406] data_lattice1_data_lattice1_0_split <- data_lattice1
I0731 16:37:35.151335 18888 net.cpp:380] data_lattice1_data_lattice1_0_split -> data_lattice1_data_lattice1_0_split_0
I0731 16:37:35.151347 18888 net.cpp:380] data_lattice1_data_lattice1_0_split -> data_lattice1_data_lattice1_0_split_1
I0731 16:37:35.151409 18888 net.cpp:122] Setting up data_lattice1_data_lattice1_0_split
I0731 16:37:35.151420 18888 net.cpp:129] Top shape: 1 3 1 90000 (270000)
I0731 16:37:35.151428 18888 net.cpp:129] Top shape: 1 3 1 90000 (270000)
I0731 16:37:35.151433 18888 net.cpp:137] Memory required for data: 286560000
I0731 16:37:35.151438 18888 layer_factory.hpp:77] Creating layer conv3
I0731 16:37:35.151450 18888 net.cpp:84] Creating Layer conv3
I0731 16:37:35.151458 18888 net.cpp:406] conv3 <- bn2_relu2_0_split_0
I0731 16:37:35.151465 18888 net.cpp:406] conv3 <- data_lattice1_data_lattice1_0_split_0
I0731 16:37:35.151473 18888 net.cpp:406] conv3 <- data_lattice1_data_lattice1_0_split_1
I0731 16:37:35.151484 18888 net.cpp:380] conv3 -> conv3
I0731 16:37:35.157465 18888 net.cpp:122] Setting up conv3
I0731 16:37:35.157500 18888 net.cpp:129] Top shape: 1 128 1 90000 (11520000)
I0731 16:37:35.157506 18888 net.cpp:137] Memory required for data: 332640000
I0731 16:37:35.157526 18888 layer_factory.hpp:77] Creating layer bn3
I0731 16:37:35.157538 18888 net.cpp:84] Creating Layer bn3
I0731 16:37:35.157546 18888 net.cpp:406] bn3 <- conv3
I0731 16:37:35.157555 18888 net.cpp:380] bn3 -> bn3
I0731 16:37:35.159940 18888 net.cpp:122] Setting up bn3
I0731 16:37:35.159963 18888 net.cpp:129] Top shape: 1 128 1 90000 (11520000)
I0731 16:37:35.159981 18888 net.cpp:137] Memory required for data: 378720000
I0731 16:37:35.160001 18888 layer_factory.hpp:77] Creating layer relu3
I0731 16:37:35.160013 18888 net.cpp:84] Creating Layer relu3
I0731 16:37:35.160020 18888 net.cpp:406] relu3 <- bn3
I0731 16:37:35.160030 18888 net.cpp:367] relu3 -> bn3 (in-place)
I0731 16:37:35.161975 18888 net.cpp:122] Setting up relu3
I0731 16:37:35.162010 18888 net.cpp:129] Top shape: 1 128 1 90000 (11520000)
I0731 16:37:35.162019 18888 net.cpp:137] Memory required for data: 424800000
I0731 16:37:35.162025 18888 layer_factory.hpp:77] Creating layer bn3_relu3_0_split
I0731 16:37:35.162037 18888 net.cpp:84] Creating Layer bn3_relu3_0_split
I0731 16:37:35.162044 18888 net.cpp:406] bn3_relu3_0_split <- bn3
I0731 16:37:35.162055 18888 net.cpp:380] bn3_relu3_0_split -> bn3_relu3_0_split_0
I0731 16:37:35.162078 18888 net.cpp:380] bn3_relu3_0_split -> bn3_relu3_0_split_1
I0731 16:37:35.162139 18888 net.cpp:122] Setting up bn3_relu3_0_split
I0731 16:37:35.162150 18888 net.cpp:129] Top shape: 1 128 1 90000 (11520000)
I0731 16:37:35.162158 18888 net.cpp:129] Top shape: 1 128 1 90000 (11520000)
I0731 16:37:35.162163 18888 net.cpp:137] Memory required for data: 516960000
I0731 16:37:35.162168 18888 layer_factory.hpp:77] Creating layer data_lattice2
I0731 16:37:35.162223 18888 net.cpp:84] Creating Layer data_lattice2
I0731 16:37:35.162233 18888 net.cpp:406] data_lattice2 <- data_data_0_split_4
I0731 16:37:35.162248 18888 net.cpp:380] data_lattice2 -> data_lattice2
I0731 16:37:35.162477 18888 net.cpp:122] Setting up data_lattice2
I0731 16:37:35.162492 18888 net.cpp:129] Top shape: 1 3 1 90000 (270000)
I0731 16:37:35.162498 18888 net.cpp:137] Memory required for data: 518040000
I0731 16:37:35.162504 18888 layer_factory.hpp:77] Creating layer data_lattice2_data_lattice2_0_split
I0731 16:37:35.162514 18888 net.cpp:84] Creating Layer data_lattice2_data_lattice2_0_split
I0731 16:37:35.162520 18888 net.cpp:406] data_lattice2_data_lattice2_0_split <- data_lattice2
I0731 16:37:35.162530 18888 net.cpp:380] data_lattice2_data_lattice2_0_split -> data_lattice2_data_lattice2_0_split_0
I0731 16:37:35.162541 18888 net.cpp:380] data_lattice2_data_lattice2_0_split -> data_lattice2_data_lattice2_0_split_1
I0731 16:37:35.162597 18888 net.cpp:122] Setting up data_lattice2_data_lattice2_0_split
I0731 16:37:35.162607 18888 net.cpp:129] Top shape: 1 3 1 90000 (270000)
I0731 16:37:35.162614 18888 net.cpp:129] Top shape: 1 3 1 90000 (270000)
I0731 16:37:35.162619 18888 net.cpp:137] Memory required for data: 520200000
I0731 16:37:35.162627 18888 layer_factory.hpp:77] Creating layer conv4
I0731 16:37:35.162639 18888 net.cpp:84] Creating Layer conv4
I0731 16:37:35.162645 18888 net.cpp:406] conv4 <- bn3_relu3_0_split_0
I0731 16:37:35.162653 18888 net.cpp:406] conv4 <- data_lattice2_data_lattice2_0_split_0
I0731 16:37:35.162660 18888 net.cpp:406] conv4 <- data_lattice2_data_lattice2_0_split_1
I0731 16:37:35.162670 18888 net.cpp:380] conv4 -> conv4
I0731 16:37:35.186199 18888 net.cpp:122] Setting up conv4
I0731 16:37:35.186259 18888 net.cpp:129] Top shape: 1 256 1 90000 (23040000)
I0731 16:37:35.186265 18888 net.cpp:137] Memory required for data: 612360000
I0731 16:37:35.186281 18888 layer_factory.hpp:77] Creating layer bn4
I0731 16:37:35.186297 18888 net.cpp:84] Creating Layer bn4
I0731 16:37:35.186305 18888 net.cpp:406] bn4 <- conv4
I0731 16:37:35.186317 18888 net.cpp:380] bn4 -> bn4
I0731 16:37:35.188611 18888 net.cpp:122] Setting up bn4
I0731 16:37:35.188632 18888 net.cpp:129] Top shape: 1 256 1 90000 (23040000)
I0731 16:37:35.188649 18888 net.cpp:137] Memory required for data: 704520000
I0731 16:37:35.188663 18888 layer_factory.hpp:77] Creating layer relu4
I0731 16:37:35.188678 18888 net.cpp:84] Creating Layer relu4
I0731 16:37:35.188685 18888 net.cpp:406] relu4 <- bn4
I0731 16:37:35.188694 18888 net.cpp:367] relu4 -> bn4 (in-place)
I0731 16:37:35.189210 18888 net.cpp:122] Setting up relu4
I0731 16:37:35.189224 18888 net.cpp:129] Top shape: 1 256 1 90000 (23040000)
I0731 16:37:35.189230 18888 net.cpp:137] Memory required for data: 796680000
I0731 16:37:35.189244 18888 layer_factory.hpp:77] Creating layer bn4_relu4_0_split
I0731 16:37:35.189254 18888 net.cpp:84] Creating Layer bn4_relu4_0_split
I0731 16:37:35.189258 18888 net.cpp:406] bn4_relu4_0_split <- bn4
I0731 16:37:35.189280 18888 net.cpp:380] bn4_relu4_0_split -> bn4_relu4_0_split_0
I0731 16:37:35.189291 18888 net.cpp:380] bn4_relu4_0_split -> bn4_relu4_0_split_1
I0731 16:37:35.189344 18888 net.cpp:122] Setting up bn4_relu4_0_split
I0731 16:37:35.189354 18888 net.cpp:129] Top shape: 1 256 1 90000 (23040000)
I0731 16:37:35.189360 18888 net.cpp:129] Top shape: 1 256 1 90000 (23040000)
I0731 16:37:35.189364 18888 net.cpp:137] Memory required for data: 981000000
I0731 16:37:35.189371 18888 layer_factory.hpp:77] Creating layer data_lattice3
I0731 16:37:35.189450 18888 net.cpp:84] Creating Layer data_lattice3
I0731 16:37:35.189465 18888 net.cpp:406] data_lattice3 <- data_data_0_split_5
I0731 16:37:35.189477 18888 net.cpp:380] data_lattice3 -> data_lattice3
I0731 16:37:35.189712 18888 net.cpp:122] Setting up data_lattice3
I0731 16:37:35.189726 18888 net.cpp:129] Top shape: 1 3 1 90000 (270000)
I0731 16:37:35.189731 18888 net.cpp:137] Memory required for data: 982080000
I0731 16:37:35.189744 18888 layer_factory.hpp:77] Creating layer data_lattice3_data_lattice3_0_split
I0731 16:37:35.189760 18888 net.cpp:84] Creating Layer data_lattice3_data_lattice3_0_split
I0731 16:37:35.189766 18888 net.cpp:406] data_lattice3_data_lattice3_0_split <- data_lattice3
I0731 16:37:35.189775 18888 net.cpp:380] data_lattice3_data_lattice3_0_split -> data_lattice3_data_lattice3_0_split_0
I0731 16:37:35.189786 18888 net.cpp:380] data_lattice3_data_lattice3_0_split -> data_lattice3_data_lattice3_0_split_1
I0731 16:37:35.189834 18888 net.cpp:122] Setting up data_lattice3_data_lattice3_0_split
I0731 16:37:35.189851 18888 net.cpp:129] Top shape: 1 3 1 90000 (270000)
I0731 16:37:35.189857 18888 net.cpp:129] Top shape: 1 3 1 90000 (270000)
I0731 16:37:35.189862 18888 net.cpp:137] Memory required for data: 984240000
I0731 16:37:35.189865 18888 layer_factory.hpp:77] Creating layer conv5
I0731 16:37:35.189880 18888 net.cpp:84] Creating Layer conv5
I0731 16:37:35.189887 18888 net.cpp:406] conv5 <- bn4_relu4_0_split_0
I0731 16:37:35.189893 18888 net.cpp:406] conv5 <- data_lattice3_data_lattice3_0_split_0
I0731 16:37:35.189899 18888 net.cpp:406] conv5 <- data_lattice3_data_lattice3_0_split_1
I0731 16:37:35.189908 18888 net.cpp:380] conv5 -> conv5
I0731 16:37:35.225299 18888 net.cpp:122] Setting up conv5
I0731 16:37:35.225359 18888 net.cpp:129] Top shape: 1 256 1 90000 (23040000)
I0731 16:37:35.225365 18888 net.cpp:137] Memory required for data: 1076400000
I0731 16:37:35.225380 18888 layer_factory.hpp:77] Creating layer bn5
I0731 16:37:35.225399 18888 net.cpp:84] Creating Layer bn5
I0731 16:37:35.225405 18888 net.cpp:406] bn5 <- conv5
I0731 16:37:35.225416 18888 net.cpp:380] bn5 -> bn5
I0731 16:37:35.227869 18888 net.cpp:122] Setting up bn5
I0731 16:37:35.227887 18888 net.cpp:129] Top shape: 1 256 1 90000 (23040000)
I0731 16:37:35.227891 18888 net.cpp:137] Memory required for data: 1168560000
I0731 16:37:35.227917 18888 layer_factory.hpp:77] Creating layer relu5
I0731 16:37:35.227929 18888 net.cpp:84] Creating Layer relu5
I0731 16:37:35.227934 18888 net.cpp:406] relu5 <- bn5
I0731 16:37:35.227941 18888 net.cpp:367] relu5 -> bn5 (in-place)
I0731 16:37:35.228356 18888 net.cpp:122] Setting up relu5
I0731 16:37:35.228369 18888 net.cpp:129] Top shape: 1 256 1 90000 (23040000)
I0731 16:37:35.228374 18888 net.cpp:137] Memory required for data: 1260720000
I0731 16:37:35.228379 18888 layer_factory.hpp:77] Creating layer bn5_relu5_0_split
I0731 16:37:35.228391 18888 net.cpp:84] Creating Layer bn5_relu5_0_split
I0731 16:37:35.228395 18888 net.cpp:406] bn5_relu5_0_split <- bn5
I0731 16:37:35.228413 18888 net.cpp:380] bn5_relu5_0_split -> bn5_relu5_0_split_0
I0731 16:37:35.228423 18888 net.cpp:380] bn5_relu5_0_split -> bn5_relu5_0_split_1
I0731 16:37:35.228471 18888 net.cpp:122] Setting up bn5_relu5_0_split
I0731 16:37:35.228480 18888 net.cpp:129] Top shape: 1 256 1 90000 (23040000)
I0731 16:37:35.228485 18888 net.cpp:129] Top shape: 1 256 1 90000 (23040000)
I0731 16:37:35.228488 18888 net.cpp:137] Memory required for data: 1445040000
I0731 16:37:35.228494 18888 layer_factory.hpp:77] Creating layer data_lattice4
I0731 16:37:35.228615 18888 net.cpp:84] Creating Layer data_lattice4
I0731 16:37:35.228626 18888 net.cpp:406] data_lattice4 <- data_data_0_split_6
I0731 16:37:35.228636 18888 net.cpp:380] data_lattice4 -> data_lattice4
I0731 16:37:35.228898 18888 net.cpp:122] Setting up data_lattice4
I0731 16:37:35.228912 18888 net.cpp:129] Top shape: 1 3 1 90000 (270000)
I0731 16:37:35.228917 18888 net.cpp:137] Memory required for data: 1446120000
I0731 16:37:35.228921 18888 layer_factory.hpp:77] Creating layer data_lattice4_data_lattice4_0_split
I0731 16:37:35.228930 18888 net.cpp:84] Creating Layer data_lattice4_data_lattice4_0_split
I0731 16:37:35.228936 18888 net.cpp:406] data_lattice4_data_lattice4_0_split <- data_lattice4
I0731 16:37:35.228945 18888 net.cpp:380] data_lattice4_data_lattice4_0_split -> data_lattice4_data_lattice4_0_split_0
I0731 16:37:35.228955 18888 net.cpp:380] data_lattice4_data_lattice4_0_split -> data_lattice4_data_lattice4_0_split_1
I0731 16:37:35.228998 18888 net.cpp:122] Setting up data_lattice4_data_lattice4_0_split
I0731 16:37:35.229007 18888 net.cpp:129] Top shape: 1 3 1 90000 (270000)
I0731 16:37:35.229014 18888 net.cpp:129] Top shape: 1 3 1 90000 (270000)
I0731 16:37:35.229018 18888 net.cpp:137] Memory required for data: 1448280000
I0731 16:37:35.229022 18888 layer_factory.hpp:77] Creating layer conv6
I0731 16:37:35.229035 18888 net.cpp:84] Creating Layer conv6
I0731 16:37:35.229041 18888 net.cpp:406] conv6 <- bn5_relu5_0_split_0
I0731 16:37:35.229048 18888 net.cpp:406] conv6 <- data_lattice4_data_lattice4_0_split_0
I0731 16:37:35.229054 18888 net.cpp:406] conv6 <- data_lattice4_data_lattice4_0_split_1
I0731 16:37:35.229063 18888 net.cpp:380] conv6 -> conv6
I0731 16:37:35.262267 18888 net.cpp:122] Setting up conv6
I0731 16:37:35.262305 18888 net.cpp:129] Top shape: 1 256 1 90000 (23040000)
I0731 16:37:35.262315 18888 net.cpp:137] Memory required for data: 1540440000
I0731 16:37:35.262342 18888 layer_factory.hpp:77] Creating layer bn6
I0731 16:37:35.262356 18888 net.cpp:84] Creating Layer bn6
I0731 16:37:35.262363 18888 net.cpp:406] bn6 <- conv6
I0731 16:37:35.262372 18888 net.cpp:380] bn6 -> bn6
I0731 16:37:35.272866 18888 net.cpp:122] Setting up bn6
I0731 16:37:35.272886 18888 net.cpp:129] Top shape: 1 256 1 90000 (23040000)
I0731 16:37:35.272907 18888 net.cpp:137] Memory required for data: 1632600000
I0731 16:37:35.272928 18888 layer_factory.hpp:77] Creating layer relu6
I0731 16:37:35.272955 18888 net.cpp:84] Creating Layer relu6
I0731 16:37:35.272963 18888 net.cpp:406] relu6 <- bn6
I0731 16:37:35.272969 18888 net.cpp:367] relu6 -> bn6 (in-place)
I0731 16:37:35.274992 18888 net.cpp:122] Setting up relu6
I0731 16:37:35.275012 18888 net.cpp:129] Top shape: 1 256 1 90000 (23040000)
I0731 16:37:35.275033 18888 net.cpp:137] Memory required for data: 1724760000
I0731 16:37:35.275038 18888 layer_factory.hpp:77] Creating layer bn6_relu6_0_split
I0731 16:37:35.275048 18888 net.cpp:84] Creating Layer bn6_relu6_0_split
I0731 16:37:35.275053 18888 net.cpp:406] bn6_relu6_0_split <- bn6
I0731 16:37:35.275061 18888 net.cpp:380] bn6_relu6_0_split -> bn6_relu6_0_split_0
I0731 16:37:35.275071 18888 net.cpp:380] bn6_relu6_0_split -> bn6_relu6_0_split_1
I0731 16:37:35.275157 18888 net.cpp:122] Setting up bn6_relu6_0_split
I0731 16:37:35.275167 18888 net.cpp:129] Top shape: 1 256 1 90000 (23040000)
I0731 16:37:35.275172 18888 net.cpp:129] Top shape: 1 256 1 90000 (23040000)
I0731 16:37:35.275177 18888 net.cpp:137] Memory required for data: 1909080000
I0731 16:37:35.275180 18888 layer_factory.hpp:77] Creating layer data_lattice5
I0731 16:37:35.275231 18888 net.cpp:84] Creating Layer data_lattice5
I0731 16:37:35.275240 18888 net.cpp:406] data_lattice5 <- data_data_0_split_7
I0731 16:37:35.275250 18888 net.cpp:380] data_lattice5 -> data_lattice5
I0731 16:37:35.275462 18888 net.cpp:122] Setting up data_lattice5
I0731 16:37:35.275476 18888 net.cpp:129] Top shape: 1 3 1 90000 (270000)
I0731 16:37:35.275481 18888 net.cpp:137] Memory required for data: 1910160000
I0731 16:37:35.275486 18888 layer_factory.hpp:77] Creating layer data_lattice5_data_lattice5_0_split
I0731 16:37:35.275494 18888 net.cpp:84] Creating Layer data_lattice5_data_lattice5_0_split
I0731 16:37:35.275499 18888 net.cpp:406] data_lattice5_data_lattice5_0_split <- data_lattice5
I0731 16:37:35.275507 18888 net.cpp:380] data_lattice5_data_lattice5_0_split -> data_lattice5_data_lattice5_0_split_0
I0731 16:37:35.275517 18888 net.cpp:380] data_lattice5_data_lattice5_0_split -> data_lattice5_data_lattice5_0_split_1
I0731 16:37:35.275563 18888 net.cpp:122] Setting up data_lattice5_data_lattice5_0_split
I0731 16:37:35.275571 18888 net.cpp:129] Top shape: 1 3 1 90000 (270000)
I0731 16:37:35.275576 18888 net.cpp:129] Top shape: 1 3 1 90000 (270000)
I0731 16:37:35.275579 18888 net.cpp:137] Memory required for data: 1912320000
I0731 16:37:35.275583 18888 layer_factory.hpp:77] Creating layer conv9_
I0731 16:37:35.275594 18888 net.cpp:84] Creating Layer conv9_
I0731 16:37:35.275599 18888 net.cpp:406] conv9_ <- bn6_relu6_0_split_0
I0731 16:37:35.275605 18888 net.cpp:406] conv9_ <- data_lattice5_data_lattice5_0_split_0
I0731 16:37:35.275610 18888 net.cpp:406] conv9_ <- data_lattice5_data_lattice5_0_split_1
I0731 16:37:35.275619 18888 net.cpp:380] conv9_ -> conv9_
I0731 16:37:35.308945 18888 net.cpp:122] Setting up conv9_
I0731 16:37:35.308982 18888 net.cpp:129] Top shape: 1 256 1 90000 (23040000)
I0731 16:37:35.308990 18888 net.cpp:137] Memory required for data: 2004480000
I0731 16:37:35.309000 18888 layer_factory.hpp:77] Creating layer bn9_
I0731 16:37:35.309011 18888 net.cpp:84] Creating Layer bn9_
I0731 16:37:35.309020 18888 net.cpp:406] bn9_ <- conv9_
I0731 16:37:35.309028 18888 net.cpp:380] bn9_ -> bn9_
I0731 16:37:35.311004 18888 net.cpp:122] Setting up bn9_
I0731 16:37:35.311024 18888 net.cpp:129] Top shape: 1 256 1 90000 (23040000)
I0731 16:37:35.311044 18888 net.cpp:137] Memory required for data: 2096640000
I0731 16:37:35.311055 18888 layer_factory.hpp:77] Creating layer relu9_
I0731 16:37:35.311080 18888 net.cpp:84] Creating Layer relu9_
I0731 16:37:35.311089 18888 net.cpp:406] relu9_ <- bn9_
I0731 16:37:35.311096 18888 net.cpp:367] relu9_ -> bn9_ (in-place)
I0731 16:37:35.311487 18888 net.cpp:122] Setting up relu9_
I0731 16:37:35.311501 18888 net.cpp:129] Top shape: 1 256 1 90000 (23040000)
I0731 16:37:35.311506 18888 net.cpp:137] Memory required for data: 2188800000
I0731 16:37:35.311511 18888 layer_factory.hpp:77] Creating layer concat6
I0731 16:37:35.311565 18888 net.cpp:84] Creating Layer concat6
I0731 16:37:35.311576 18888 net.cpp:406] concat6 <- bn9_relu9_0_split_1
I0731 16:37:35.311583 18888 net.cpp:406] concat6 <- bn6_relu6_0_split_1
I0731 16:37:35.311589 18888 net.cpp:406] concat6 <- bn2_relu2_0_split_1
I0731 16:37:35.311594 18888 net.cpp:406] concat6 <- bn3_relu3_0_split_1
I0731 16:37:35.311599 18888 net.cpp:406] concat6 <- bn4_relu4_0_split_1
I0731 16:37:35.311604 18888 net.cpp:406] concat6 <- bn5_relu5_0_split_1
I0731 16:37:35.311609 18888 net.cpp:406] concat6 <- bn9_
I0731 16:37:35.311616 18888 net.cpp:380] concat6 -> concat6
I0731 16:37:35.311681 18888 net.cpp:122] Setting up concat6
I0731 16:37:35.311693 18888 net.cpp:129] Top shape: 1 1280 1 90000 (115200000)
I0731 16:37:35.311697 18888 net.cpp:137] Memory required for data: 2649600000
I0731 16:37:35.311702 18888 layer_factory.hpp:77] Creating layer conv7
I0731 16:37:35.311724 18888 net.cpp:84] Creating Layer conv7
I0731 16:37:35.311731 18888 net.cpp:406] conv7 <- concat6
I0731 16:37:35.311746 18888 net.cpp:380] conv7 -> conv7
I0731 16:37:35.319725 18888 net.cpp:122] Setting up conv7
I0731 16:37:35.319780 18888 net.cpp:129] Top shape: 1 128 1 90000 (11520000)
I0731 16:37:35.319787 18888 net.cpp:137] Memory required for data: 2695680000
I0731 16:37:35.319800 18888 layer_factory.hpp:77] Creating layer bn7
I0731 16:37:35.319816 18888 net.cpp:84] Creating Layer bn7
I0731 16:37:35.319823 18888 net.cpp:406] bn7 <- conv7
I0731 16:37:35.319834 18888 net.cpp:380] bn7 -> bn7
I0731 16:37:35.320204 18888 net.cpp:122] Setting up bn7
I0731 16:37:35.320214 18888 net.cpp:129] Top shape: 1 128 1 90000 (11520000)
I0731 16:37:35.320230 18888 net.cpp:137] Memory required for data: 2741760000
I0731 16:37:35.320238 18888 layer_factory.hpp:77] Creating layer relu7
I0731 16:37:35.320247 18888 net.cpp:84] Creating Layer relu7
I0731 16:37:35.320251 18888 net.cpp:406] relu7 <- bn7
I0731 16:37:35.320257 18888 net.cpp:367] relu7 -> bn7 (in-place)
I0731 16:37:35.320577 18888 net.cpp:122] Setting up relu7
I0731 16:37:35.320590 18888 net.cpp:129] Top shape: 1 128 1 90000 (11520000)
I0731 16:37:35.320603 18888 net.cpp:137] Memory required for data: 2787840000
I0731 16:37:35.320608 18888 layer_factory.hpp:77] Creating layer conv8
I0731 16:37:35.320628 18888 net.cpp:84] Creating Layer conv8
I0731 16:37:35.320633 18888 net.cpp:406] conv8 <- bn7
I0731 16:37:35.320642 18888 net.cpp:380] conv8 -> conv8
I0731 16:37:35.326179 18888 net.cpp:122] Setting up conv8
I0731 16:37:35.326212 18888 net.cpp:129] Top shape: 1 13 1 90000 (1170000)
I0731 16:37:35.326218 18888 net.cpp:137] Memory required for data: 2792520000
I0731 16:37:35.326232 18888 layer_factory.hpp:77] Creating layer conv8_conv8_0_split
I0731 16:37:35.326244 18888 net.cpp:84] Creating Layer conv8_conv8_0_split
I0731 16:37:35.326251 18888 net.cpp:406] conv8_conv8_0_split <- conv8
I0731 16:37:35.326261 18888 net.cpp:380] conv8_conv8_0_split -> conv8_conv8_0_split_0
I0731 16:37:35.326270 18888 net.cpp:380] conv8_conv8_0_split -> conv8_conv8_0_split_1
I0731 16:37:35.326359 18888 net.cpp:122] Setting up conv8_conv8_0_split
I0731 16:37:35.326367 18888 net.cpp:129] Top shape: 1 13 1 90000 (1170000)
I0731 16:37:35.326372 18888 net.cpp:129] Top shape: 1 13 1 90000 (1170000)
I0731 16:37:35.326376 18888 net.cpp:137] Memory required for data: 2801880000
I0731 16:37:35.326380 18888 layer_factory.hpp:77] Creating layer loss
I0731 16:37:35.326438 18888 net.cpp:84] Creating Layer loss
I0731 16:37:35.326448 18888 net.cpp:406] loss <- conv8_conv8_0_split_0
I0731 16:37:35.326455 18888 net.cpp:406] loss <- label_data_1_split_0
I0731 16:37:35.326462 18888 net.cpp:380] loss -> loss
…
