…
I0731 16:38:09.938401 24506 net.cpp:294] The NetState phase (0) differed from the phase (1) specified by a rule in layer data
I0731 16:38:09.941931 24506 net.cpp:51] Initializing net from parameters: 
state {
  phase: TRAIN
}
layer {
  name: "data"
  type: "Python"
  top: "data"
  top: "label"
  include {
    phase: TRAIN
  }
  python_param {
    module: "dataset_lidar"
    layer: "InputShapenet"
    param_str: "{\'sample_size\': 90000, \'test_area\': \'6\', \'batch_size\': 1, \'feat_dims\': \'x_y_z\', \'subset\': \'train\', \'root\': \'../../data/shapenet_ericyi_ply\', \'jitter_xyz\': 0.01, \'jitter_stretch\': 0.05, \'jitter_rotation\': 5.0}"
  }
}
layer {
  name: "data_feat"
  type: "Python"
  bottom: "data"
  top: "data_feat"
  python_param {
    module: "custom_layers"
    layer: "PickAndScale"
    param_str: "0_1_2"
  }
}
layer {
  name: "conv1"
  type: "Convolution"
  bottom: "data_feat"
  top: "conv1"
  param {
    lr_mult: 1
  }
  param {
    lr_mult: 0.1
  }
  convolution_param {
    num_output: 32
    pad: 0
    kernel_size: 1
    stride: 1
    weight_filler {
      type: "xavier"
    }
    bias_filler {
      type: "constant"
      value: 0
    }
  }
}
layer {
  name: "bn1"
  type: "BatchNorm"
  bottom: "conv1"
  top: "bn1"
}
layer {
  name: "relu1"
  type: "ReLU"
  bottom: "bn1"
  top: "bn1"
}
layer {
  name: "data_lattice9"
  type: "Python"
  bottom: "data"
  top: "data_lattice9"
  python_param {
    module: "custom_layers"
    layer: "PickAndScale"
    param_str: "0*128_1*128_2*128"
  }
}
layer {
  name: "conv9"
  type: "Permutohedral"
  bottom: "bn1"
  bottom: "data_lattice9"
  bottom: "data_lattice9"
  top: "conv9"
  param {
    lr_mult: 1
    decay_mult: 1
  }
  param {
    lr_mult: 2
    decay_mult: 0
  }
  permutohedral_param {
    num_output: 64
    neighborhood_size: 1
    filter_filler {
      type: "gaussian"
      std: 0.001
    }
    bias_term: true
    bias_filler {
      type: "constant"
      value: 0
    }
    group: 1
    norm_type: AFTER
    offset_type: NONE
  }
}
layer {
  name: "bn9"
  type: "BatchNorm"
  bottom: "conv9"
  top: "bn9"
}
layer {
  name: "relu9"
  type: "ReLU"
  bottom: "bn9"
  top: "bn9"
}
layer {
  name: "data_lattice0"
  type: "Python"
  bottom: "data"
  top: "data_lattice0"
  python_param {
    module: "custom_layers"
    layer: "PickAndScale"
    param_str: "0*64_1*64_2*64"
  }
}
layer {
  name: "conv2"
  type: "Permutohedral"
  bottom: "bn9"
  bottom: "data_lattice0"
  bottom: "data_lattice0"
  top: "conv2"
  param {
    lr_mult: 1
    decay_mult: 1
  }
  param {
    lr_mult: 2
    decay_mult: 0
  }
  permutohedral_param {
    num_output: 64
    neighborhood_size: 1
    filter_filler {
      type: "gaussian"
      std: 0.001
    }
    bias_term: true
    bias_filler {
      type: "constant"
      value: 0
    }
    group: 1
    norm_type: AFTER
    offset_type: NONE
  }
}
layer {
  name: "bn2"
  type: "BatchNorm"
  bottom: "conv2"
  top: "bn2"
}
layer {
  name: "relu2"
  type: "ReLU"
  bottom: "bn2"
  top: "bn2"
}
layer {
  name: "data_lattice1"
  type: "Python"
  bottom: "data"
  top: "data_lattice1"
  python_param {
    module: "custom_layers"
    layer: "PickAndScale"
    param_str: "0*32_1*32_2*32"
  }
}
layer {
  name: "conv3"
  type: "Permutohedral"
  bottom: "bn2"
  bottom: "data_lattice1"
  bottom: "data_lattice1"
  top: "conv3"
  param {
    lr_mult: 1
    decay_mult: 1
  }
  param {
    lr_mult: 2
    decay_mult: 0
  }
  permutohedral_param {
    num_output: 128
    neighborhood_size: 1
    filter_filler {
      type: "gaussian"
      std: 0.001
    }
    bias_term: true
    bias_filler {
      type: "constant"
      value: 0
    }
    group: 1
    norm_type: AFTER
    offset_type: NONE
  }
}
layer {
  name: "bn3"
  type: "BatchNorm"
  bottom: "conv3"
  top: "bn3"
}
layer {
  name: "relu3"
  type: "ReLU"
  bottom: "bn3"
  top: "bn3"
}
layer {
  name: "data_lattice2"
  type: "Python"
  bottom: "data"
  top: "data_lattice2"
  python_param {
    module: "custom_layers"
    layer: "PickAndScale"
    param_str: "0*16_1*16_2*16"
  }
}
layer {
  name: "conv4"
  type: "Permutohedral"
  bottom: "bn3"
  bottom: "data_lattice2"
  bottom: "data_lattice2"
  top: "conv4"
  param {
    lr_mult: 1
    decay_mult: 1
  }
  param {
    lr_mult: 2
    decay_mult: 0
  }
  permutohedral_param {
    num_output: 256
    neighborhood_size: 1
    filter_filler {
      type: "gaussian"
      std: 0.001
    }
    bias_term: true
    bias_filler {
      type: "constant"
      value: 0
    }
    group: 1
    norm_type: AFTER
    offset_type: NONE
  }
}
layer {
  name: "bn4"
  type: "BatchNorm"
  bottom: "conv4"
  top: "bn4"
}
layer {
  name: "relu4"
  type: "ReLU"
  bottom: "bn4"
  top: "bn4"
}
layer {
  name: "data_lattice3"
  type: "Python"
  bottom: "data"
  top: "data_lattice3"
  python_param {
    module: "custom_layers"
    layer: "PickAndScale"
    param_str: "0*8_1*8_2*8"
  }
}
layer {
  name: "conv5"
  type: "Permutohedral"
  bottom: "bn4"
  bottom: "data_lattice3"
  bottom: "data_lattice3"
  top: "conv5"
  param {
    lr_mult: 1
    decay_mult: 1
  }
  param {
    lr_mult: 2
    decay_mult: 0
  }
  permutohedral_param {
    num_output: 256
    neighborhood_size: 1
    filter_filler {
      type: "gaussian"
      std: 0.001
    }
    bias_term: true
    bias_filler {
      type: "constant"
      value: 0
    }
    group: 1
    norm_type: AFTER
    offset_type: NONE
  }
}
layer {
  name: "bn5"
  type: "BatchNorm"
  bottom: "conv5"
  top: "bn5"
}
layer {
  name: "relu5"
  type: "ReLU"
  bottom: "bn5"
  top: "bn5"
}
layer {
  name: "data_lattice4"
  type: "Python"
  bottom: "data"
  top: "data_lattice4"
  python_param {
    module: "custom_layers"
    layer: "PickAndScale"
    param_str: "0*4_1*4_2*4"
  }
}
layer {
  name: "conv6"
  type: "Permutohedral"
  bottom: "bn5"
  bottom: "data_lattice4"
  bottom: "data_lattice4"
  top: "conv6"
  param {
    lr_mult: 1
    decay_mult: 1
  }
  param {
    lr_mult: 2
    decay_mult: 0
  }
  permutohedral_param {
    num_output: 256
    neighborhood_size: 1
    filter_filler {
      type: "gaussian"
      std: 0.001
    }
    bias_term: true
    bias_filler {
      type: "constant"
      value: 0
    }
    group: 1
    norm_type: AFTER
    offset_type: NONE
  }
}
layer {
  name: "bn6"
  type: "BatchNorm"
  bottom: "conv6"
  top: "bn6"
}
layer {
  name: "relu6"
  type: "ReLU"
  bottom: "bn6"
  top: "bn6"
}
layer {
  name: "data_lattice5"
  type: "Python"
  bottom: "data"
  top: "data_lattice5"
  python_param {
    module: "custom_layers"
    layer: "PickAndScale"
    param_str: "0*2_1*2_2*2"
  }
}
layer {
  name: "conv9_"
  type: "Permutohedral"
  bottom: "bn6"
  bottom: "data_lattice5"
  bottom: "data_lattice5"
  top: "conv9_"
  param {
    lr_mult: 1
    decay_mult: 1
  }
  param {
    lr_mult: 2
    decay_mult: 0
  }
  permutohedral_param {
    num_output: 256
    neighborhood_size: 1
    filter_filler {
      type: "gaussian"
      std: 0.001
    }
    bias_term: true
    bias_filler {
      type: "constant"
      value: 0
    }
    group: 1
    norm_type: AFTER
    offset_type: NONE
  }
}
layer {
  name: "bn9_"
  type: "BatchNorm"
  bottom: "conv9_"
  top: "bn9_"
}
layer {
  name: "relu9_"
  type: "ReLU"
  bottom: "bn9_"
  top: "bn9_"
}
layer {
  name: "concat6"
  type: "Concat"
  bottom: "bn9"
  bottom: "bn6"
  bottom: "bn2"
  bottom: "bn3"
  bottom: "bn4"
  bottom: "bn5"
  bottom: "bn9_"
  top: "concat6"
}
layer {
  name: "conv7"
  type: "Convolution"
  bottom: "concat6"
  top: "conv7"
  param {
    lr_mult: 1
  }
  param {
    lr_mult: 0.1
  }
  convolution_param {
    num_output: 128
    pad: 0
    kernel_size: 1
    stride: 1
    weight_filler {
      type: "xavier"
    }
    bias_filler {
      type: "constant"
      value: 0
    }
  }
}
layer {
  name: "bn7"
  type: "BatchNorm"
  bottom: "conv7"
  top: "bn7"
}
layer {
  name: "relu7"
  type: "ReLU"
  bottom: "bn7"
  top: "bn7"
}
layer {
  name: "conv8"
  type: "Convolution"
  bottom: "bn7"
  top: "conv8"
  param {
    lr_mult: 1
  }
  param {
    lr_mult: 0.1
  }
  convolution_param {
    num_output: 13
    pad: 0
    kernel_size: 1
    stride: 1
    weight_filler {
      type: "xavier"
    }
    bias_filler {
      type: "constant"
      value: 0
    }
  }
}
layer {
  name: "loss"
  type: "SoftmaxWithLoss"
  bottom: "conv8"
  bottom: "label"
  top: "loss"
}
layer {
  name: "accuracy"
  type: "Accuracy"
  bottom: "conv8"
  bottom: "label"
  top: "accuracy"
}
I0731 16:38:09.953164 24506 layer_factory.hpp:77] Creating layer data
I0731 16:38:09.988128 24506 net.cpp:84] Creating Layer data
I0731 16:38:09.988204 24506 net.cpp:380] data -> data
I0731 16:38:09.988353 24506 net.cpp:380] data -> label
I0731 16:38:10.425676 24508 upgrade_proto.cpp:1084] Attempting to upgrade input file specified using deprecated 'solver_type' field (enum)': /mnt/lustre/wangjiayun/repos/splatnet/exp/lidar3d/area6/6_solver.prototxt
…
I0731 16:38:10.453696 24507 upgrade_proto.cpp:1084] Attempting to upgrade input file specified using deprecated 'solver_type' field (enum)': /mnt/lustre/wangjiayun/repos/splatnet/exp/lidar3d/area6/6_solver.prototxt
I0731 16:38:10.453773 24507 upgrade_proto.cpp:1091] Successfully upgraded file specified using deprecated 'solver_type' field (enum) to 'type' field (string).
W0731 16:38:10.453780 24507 upgrade_proto.cpp:1093] Note that future Caffe releases will only support 'type' field (string) for a solver's type.
I0731 16:45:23.368021 24506 net.cpp:122] Setting up data
I0731 16:45:23.368752 24506 net.cpp:129] Top shape: 1 3 1 90000 (270000)
I0731 16:45:23.368788 24506 net.cpp:129] Top shape: 1 1 1 90000 (90000)
I0731 16:45:23.368793 24506 net.cpp:137] Memory required for data: 1440000
I0731 16:45:23.368852 24506 layer_factory.hpp:77] Creating layer data_data_0_split
I0731 16:45:23.368971 24506 net.cpp:84] Creating Layer data_data_0_split
I0731 16:45:23.368993 24506 net.cpp:406] data_data_0_split <- data
I0731 16:45:23.369026 24506 net.cpp:380] data_data_0_split -> data_data_0_split_0
I0731 16:45:23.369071 24506 net.cpp:380] data_data_0_split -> data_data_0_split_1
I0731 16:45:23.369082 24506 net.cpp:380] data_data_0_split -> data_data_0_split_2
I0731 16:45:23.369088 24506 net.cpp:380] data_data_0_split -> data_data_0_split_3
I0731 16:45:23.369094 24506 net.cpp:380] data_data_0_split -> data_data_0_split_4
I0731 16:45:23.369101 24506 net.cpp:380] data_data_0_split -> data_data_0_split_5
I0731 16:45:23.369105 24506 net.cpp:380] data_data_0_split -> data_data_0_split_6
I0731 16:45:23.369112 24506 net.cpp:380] data_data_0_split -> data_data_0_split_7
I0731 16:45:23.369223 24506 net.cpp:122] Setting up data_data_0_split
I0731 16:45:23.369235 24506 net.cpp:129] Top shape: 1 3 1 90000 (270000)
I0731 16:45:23.369240 24506 net.cpp:129] Top shape: 1 3 1 90000 (270000)
I0731 16:45:23.369243 24506 net.cpp:129] Top shape: 1 3 1 90000 (270000)
I0731 16:45:23.369247 24506 net.cpp:129] Top shape: 1 3 1 90000 (270000)
I0731 16:45:23.369251 24506 net.cpp:129] Top shape: 1 3 1 90000 (270000)
I0731 16:45:23.369256 24506 net.cpp:129] Top shape: 1 3 1 90000 (270000)
I0731 16:45:23.369259 24506 net.cpp:129] Top shape: 1 3 1 90000 (270000)
I0731 16:45:23.369263 24506 net.cpp:129] Top shape: 1 3 1 90000 (270000)
I0731 16:45:23.369266 24506 net.cpp:137] Memory required for data: 10080000
I0731 16:45:23.369271 24506 layer_factory.hpp:77] Creating layer label_data_1_split
I0731 16:45:23.369279 24506 net.cpp:84] Creating Layer label_data_1_split
I0731 16:45:23.369283 24506 net.cpp:406] label_data_1_split <- label
I0731 16:45:23.369289 24506 net.cpp:380] label_data_1_split -> label_data_1_split_0
I0731 16:45:23.369295 24506 net.cpp:380] label_data_1_split -> label_data_1_split_1
I0731 16:45:23.369325 24506 net.cpp:122] Setting up label_data_1_split
I0731 16:45:23.369333 24506 net.cpp:129] Top shape: 1 1 1 90000 (90000)
I0731 16:45:23.369338 24506 net.cpp:129] Top shape: 1 1 1 90000 (90000)
I0731 16:45:23.369340 24506 net.cpp:137] Memory required for data: 10800000
I0731 16:45:23.369344 24506 layer_factory.hpp:77] Creating layer data_feat
I0731 16:45:23.375964 24506 net.cpp:84] Creating Layer data_feat
I0731 16:45:23.375998 24506 net.cpp:406] data_feat <- data_data_0_split_0
I0731 16:45:23.376010 24506 net.cpp:380] data_feat -> data_feat
I0731 16:45:23.377769 24506 net.cpp:122] Setting up data_feat
I0731 16:45:23.377794 24506 net.cpp:129] Top shape: 1 3 1 90000 (270000)
I0731 16:45:23.377799 24506 net.cpp:137] Memory required for data: 11880000
I0731 16:45:23.377805 24506 layer_factory.hpp:77] Creating layer conv1
I0731 16:45:23.377888 24506 net.cpp:84] Creating Layer conv1
I0731 16:45:23.377898 24506 net.cpp:406] conv1 <- data_feat
I0731 16:45:23.377907 24506 net.cpp:380] conv1 -> conv1
I0731 16:45:26.513386 24506 net.cpp:122] Setting up conv1
I0731 16:45:26.513494 24506 net.cpp:129] Top shape: 1 32 1 90000 (2880000)
I0731 16:45:26.513505 24506 net.cpp:137] Memory required for data: 23400000
I0731 16:45:26.522462 24506 layer_factory.hpp:77] Creating layer bn1
I0731 16:45:26.523598 24506 net.cpp:84] Creating Layer bn1
I0731 16:45:26.523648 24506 net.cpp:406] bn1 <- conv1
I0731 16:45:26.523669 24506 net.cpp:380] bn1 -> bn1
I0731 16:45:26.543413 24506 net.cpp:122] Setting up bn1
I0731 16:45:26.543458 24506 net.cpp:129] Top shape: 1 32 1 90000 (2880000)
I0731 16:45:26.543469 24506 net.cpp:137] Memory required for data: 34920000
I0731 16:45:26.543499 24506 layer_factory.hpp:77] Creating layer relu1
I0731 16:45:26.545101 24506 net.cpp:84] Creating Layer relu1
I0731 16:45:26.545137 24506 net.cpp:406] relu1 <- bn1
I0731 16:45:26.545156 24506 net.cpp:367] relu1 -> bn1 (in-place)
I0731 16:45:26.552145 24506 net.cpp:122] Setting up relu1
I0731 16:45:26.552184 24506 net.cpp:129] Top shape: 1 32 1 90000 (2880000)
I0731 16:45:26.552194 24506 net.cpp:137] Memory required for data: 46440000
I0731 16:45:26.552209 24506 layer_factory.hpp:77] Creating layer data_lattice9
I0731 16:45:26.552456 24506 net.cpp:84] Creating Layer data_lattice9
I0731 16:45:26.552479 24506 net.cpp:406] data_lattice9 <- data_data_0_split_1
I0731 16:45:26.552498 24506 net.cpp:380] data_lattice9 -> data_lattice9
I0731 16:45:26.556447 24506 net.cpp:122] Setting up data_lattice9
I0731 16:45:26.556486 24506 net.cpp:129] Top shape: 1 3 1 90000 (270000)
I0731 16:45:26.556496 24506 net.cpp:137] Memory required for data: 47520000
I0731 16:45:26.556507 24506 layer_factory.hpp:77] Creating layer data_lattice9_data_lattice9_0_split
I0731 16:45:26.556531 24506 net.cpp:84] Creating Layer data_lattice9_data_lattice9_0_split
I0731 16:45:26.556557 24506 net.cpp:406] data_lattice9_data_lattice9_0_split <- data_lattice9
I0731 16:45:26.556579 24506 net.cpp:380] data_lattice9_data_lattice9_0_split -> data_lattice9_data_lattice9_0_split_0
I0731 16:45:26.556602 24506 net.cpp:380] data_lattice9_data_lattice9_0_split -> data_lattice9_data_lattice9_0_split_1
I0731 16:45:26.556684 24506 net.cpp:122] Setting up data_lattice9_data_lattice9_0_split
I0731 16:45:26.556704 24506 net.cpp:129] Top shape: 1 3 1 90000 (270000)
I0731 16:45:26.556715 24506 net.cpp:129] Top shape: 1 3 1 90000 (270000)
I0731 16:45:26.556721 24506 net.cpp:137] Memory required for data: 49680000
I0731 16:45:26.556730 24506 layer_factory.hpp:77] Creating layer conv9
I0731 16:45:26.557397 24506 net.cpp:84] Creating Layer conv9
I0731 16:45:26.557431 24506 net.cpp:406] conv9 <- bn1
I0731 16:45:26.557448 24506 net.cpp:406] conv9 <- data_lattice9_data_lattice9_0_split_0
I0731 16:45:26.557459 24506 net.cpp:406] conv9 <- data_lattice9_data_lattice9_0_split_1
I0731 16:45:26.557476 24506 net.cpp:380] conv9 -> conv9
I0731 16:45:26.564743 24506 net.cpp:122] Setting up conv9
I0731 16:45:26.564785 24506 net.cpp:129] Top shape: 1 64 1 90000 (5760000)
I0731 16:45:26.564797 24506 net.cpp:137] Memory required for data: 72720000
I0731 16:45:26.564816 24506 layer_factory.hpp:77] Creating layer bn9
I0731 16:45:26.564834 24506 net.cpp:84] Creating Layer bn9
I0731 16:45:26.564844 24506 net.cpp:406] bn9 <- conv9
I0731 16:45:26.564859 24506 net.cpp:380] bn9 -> bn9
I0731 16:45:26.565424 24506 net.cpp:122] Setting up bn9
I0731 16:45:26.565444 24506 net.cpp:129] Top shape: 1 64 1 90000 (5760000)
I0731 16:45:26.565454 24506 net.cpp:137] Memory required for data: 95760000
I0731 16:45:26.565476 24506 layer_factory.hpp:77] Creating layer relu9
I0731 16:45:26.565491 24506 net.cpp:84] Creating Layer relu9
I0731 16:45:26.565500 24506 net.cpp:406] relu9 <- bn9
I0731 16:45:26.565512 24506 net.cpp:367] relu9 -> bn9 (in-place)
I0731 16:45:26.567253 24506 net.cpp:122] Setting up relu9
I0731 16:45:26.567287 24506 net.cpp:129] Top shape: 1 64 1 90000 (5760000)
I0731 16:45:26.567297 24506 net.cpp:137] Memory required for data: 118800000
I0731 16:45:26.567307 24506 layer_factory.hpp:77] Creating layer bn9_relu9_0_split
I0731 16:45:26.567322 24506 net.cpp:84] Creating Layer bn9_relu9_0_split
I0731 16:45:26.567332 24506 net.cpp:406] bn9_relu9_0_split <- bn9
I0731 16:45:26.567345 24506 net.cpp:380] bn9_relu9_0_split -> bn9_relu9_0_split_0
I0731 16:45:26.567363 24506 net.cpp:380] bn9_relu9_0_split -> bn9_relu9_0_split_1
I0731 16:45:26.567447 24506 net.cpp:122] Setting up bn9_relu9_0_split
I0731 16:45:26.567466 24506 net.cpp:129] Top shape: 1 64 1 90000 (5760000)
I0731 16:45:26.567476 24506 net.cpp:129] Top shape: 1 64 1 90000 (5760000)
I0731 16:45:26.567482 24506 net.cpp:137] Memory required for data: 164880000
I0731 16:45:26.567497 24506 layer_factory.hpp:77] Creating layer data_lattice0
I0731 16:45:26.567592 24506 net.cpp:84] Creating Layer data_lattice0
I0731 16:45:26.567615 24506 net.cpp:406] data_lattice0 <- data_data_0_split_2
I0731 16:45:26.567629 24506 net.cpp:380] data_lattice0 -> data_lattice0
I0731 16:45:26.570804 24506 net.cpp:122] Setting up data_lattice0
I0731 16:45:26.570840 24506 net.cpp:129] Top shape: 1 3 1 90000 (270000)
I0731 16:45:26.570850 24506 net.cpp:137] Memory required for data: 165960000
I0731 16:45:26.570860 24506 layer_factory.hpp:77] Creating layer data_lattice0_data_lattice0_0_split
I0731 16:45:26.570875 24506 net.cpp:84] Creating Layer data_lattice0_data_lattice0_0_split
I0731 16:45:26.570885 24506 net.cpp:406] data_lattice0_data_lattice0_0_split <- data_lattice0
I0731 16:45:26.570900 24506 net.cpp:380] data_lattice0_data_lattice0_0_split -> data_lattice0_data_lattice0_0_split_0
I0731 16:45:26.570917 24506 net.cpp:380] data_lattice0_data_lattice0_0_split -> data_lattice0_data_lattice0_0_split_1
I0731 16:45:26.570994 24506 net.cpp:122] Setting up data_lattice0_data_lattice0_0_split
I0731 16:45:26.571012 24506 net.cpp:129] Top shape: 1 3 1 90000 (270000)
I0731 16:45:26.571022 24506 net.cpp:129] Top shape: 1 3 1 90000 (270000)
I0731 16:45:26.571028 24506 net.cpp:137] Memory required for data: 168120000
I0731 16:45:26.571036 24506 layer_factory.hpp:77] Creating layer conv2
I0731 16:45:26.571053 24506 net.cpp:84] Creating Layer conv2
I0731 16:45:26.571064 24506 net.cpp:406] conv2 <- bn9_relu9_0_split_0
I0731 16:45:26.571081 24506 net.cpp:406] conv2 <- data_lattice0_data_lattice0_0_split_0
I0731 16:45:26.571092 24506 net.cpp:406] conv2 <- data_lattice0_data_lattice0_0_split_1
I0731 16:45:26.571105 24506 net.cpp:380] conv2 -> conv2
I0731 16:45:26.575495 24506 net.cpp:122] Setting up conv2
I0731 16:45:26.575518 24506 net.cpp:129] Top shape: 1 64 1 90000 (5760000)
I0731 16:45:26.575527 24506 net.cpp:137] Memory required for data: 191160000
I0731 16:45:26.575553 24506 layer_factory.hpp:77] Creating layer bn2
I0731 16:45:26.575572 24506 net.cpp:84] Creating Layer bn2
I0731 16:45:26.575582 24506 net.cpp:406] bn2 <- conv2
I0731 16:45:26.575594 24506 net.cpp:380] bn2 -> bn2
I0731 16:45:26.576120 24506 net.cpp:122] Setting up bn2
I0731 16:45:26.576140 24506 net.cpp:129] Top shape: 1 64 1 90000 (5760000)
I0731 16:45:26.576148 24506 net.cpp:137] Memory required for data: 214200000
I0731 16:45:26.576164 24506 layer_factory.hpp:77] Creating layer relu2
I0731 16:45:26.576181 24506 net.cpp:84] Creating Layer relu2
I0731 16:45:26.576191 24506 net.cpp:406] relu2 <- bn2
I0731 16:45:26.576203 24506 net.cpp:367] relu2 -> bn2 (in-place)
I0731 16:45:26.576819 24506 net.cpp:122] Setting up relu2
I0731 16:45:26.576846 24506 net.cpp:129] Top shape: 1 64 1 90000 (5760000)
I0731 16:45:26.576854 24506 net.cpp:137] Memory required for data: 237240000
I0731 16:45:26.576866 24506 layer_factory.hpp:77] Creating layer bn2_relu2_0_split
I0731 16:45:26.576881 24506 net.cpp:84] Creating Layer bn2_relu2_0_split
I0731 16:45:26.576890 24506 net.cpp:406] bn2_relu2_0_split <- bn2
I0731 16:45:26.576903 24506 net.cpp:380] bn2_relu2_0_split -> bn2_relu2_0_split_0
I0731 16:45:26.576920 24506 net.cpp:380] bn2_relu2_0_split -> bn2_relu2_0_split_1
I0731 16:45:26.576999 24506 net.cpp:122] Setting up bn2_relu2_0_split
I0731 16:45:26.577018 24506 net.cpp:129] Top shape: 1 64 1 90000 (5760000)
I0731 16:45:26.577026 24506 net.cpp:129] Top shape: 1 64 1 90000 (5760000)
I0731 16:45:26.577033 24506 net.cpp:137] Memory required for data: 283320000
I0731 16:45:26.577041 24506 layer_factory.hpp:77] Creating layer data_lattice1
I0731 16:45:26.577098 24506 net.cpp:84] Creating Layer data_lattice1
I0731 16:45:26.577114 24506 net.cpp:406] data_lattice1 <- data_data_0_split_3
I0731 16:45:26.577129 24506 net.cpp:380] data_lattice1 -> data_lattice1
I0731 16:45:26.579946 24506 net.cpp:122] Setting up data_lattice1
I0731 16:45:26.579979 24506 net.cpp:129] Top shape: 1 3 1 90000 (270000)
I0731 16:45:26.579988 24506 net.cpp:137] Memory required for data: 284400000
I0731 16:45:26.579998 24506 layer_factory.hpp:77] Creating layer data_lattice1_data_lattice1_0_split
I0731 16:45:26.580013 24506 net.cpp:84] Creating Layer data_lattice1_data_lattice1_0_split
I0731 16:45:26.580021 24506 net.cpp:406] data_lattice1_data_lattice1_0_split <- data_lattice1
I0731 16:45:26.580035 24506 net.cpp:380] data_lattice1_data_lattice1_0_split -> data_lattice1_data_lattice1_0_split_0
I0731 16:45:26.580051 24506 net.cpp:380] data_lattice1_data_lattice1_0_split -> data_lattice1_data_lattice1_0_split_1
I0731 16:45:26.580127 24506 net.cpp:122] Setting up data_lattice1_data_lattice1_0_split
I0731 16:45:26.580143 24506 net.cpp:129] Top shape: 1 3 1 90000 (270000)
I0731 16:45:26.580152 24506 net.cpp:129] Top shape: 1 3 1 90000 (270000)
I0731 16:45:26.580159 24506 net.cpp:137] Memory required for data: 286560000
I0731 16:45:26.580166 24506 layer_factory.hpp:77] Creating layer conv3
I0731 16:45:26.580191 24506 net.cpp:84] Creating Layer conv3
I0731 16:45:26.580200 24506 net.cpp:406] conv3 <- bn2_relu2_0_split_0
I0731 16:45:26.580212 24506 net.cpp:406] conv3 <- data_lattice1_data_lattice1_0_split_0
I0731 16:45:26.580221 24506 net.cpp:406] conv3 <- data_lattice1_data_lattice1_0_split_1
I0731 16:45:26.580235 24506 net.cpp:380] conv3 -> conv3
I0731 16:45:26.588065 24506 net.cpp:122] Setting up conv3
I0731 16:45:26.588089 24506 net.cpp:129] Top shape: 1 128 1 90000 (11520000)
I0731 16:45:26.588098 24506 net.cpp:137] Memory required for data: 332640000
I0731 16:45:26.588117 24506 layer_factory.hpp:77] Creating layer bn3
I0731 16:45:26.588130 24506 net.cpp:84] Creating Layer bn3
I0731 16:45:26.588140 24506 net.cpp:406] bn3 <- conv3
I0731 16:45:26.588151 24506 net.cpp:380] bn3 -> bn3
I0731 16:45:26.590968 24506 net.cpp:122] Setting up bn3
I0731 16:45:26.590998 24506 net.cpp:129] Top shape: 1 128 1 90000 (11520000)
I0731 16:45:26.591007 24506 net.cpp:137] Memory required for data: 378720000
I0731 16:45:26.591025 24506 layer_factory.hpp:77] Creating layer relu3
I0731 16:45:26.591045 24506 net.cpp:84] Creating Layer relu3
I0731 16:45:26.591055 24506 net.cpp:406] relu3 <- bn3
I0731 16:45:26.591066 24506 net.cpp:367] relu3 -> bn3 (in-place)
I0731 16:45:26.592532 24506 net.cpp:122] Setting up relu3
I0731 16:45:26.592573 24506 net.cpp:129] Top shape: 1 128 1 90000 (11520000)
I0731 16:45:26.592583 24506 net.cpp:137] Memory required for data: 424800000
I0731 16:45:26.592592 24506 layer_factory.hpp:77] Creating layer bn3_relu3_0_split
I0731 16:45:26.592613 24506 net.cpp:84] Creating Layer bn3_relu3_0_split
I0731 16:45:26.592622 24506 net.cpp:406] bn3_relu3_0_split <- bn3
I0731 16:45:26.592635 24506 net.cpp:380] bn3_relu3_0_split -> bn3_relu3_0_split_0
I0731 16:45:26.592650 24506 net.cpp:380] bn3_relu3_0_split -> bn3_relu3_0_split_1
I0731 16:45:26.592731 24506 net.cpp:122] Setting up bn3_relu3_0_split
I0731 16:45:26.592748 24506 net.cpp:129] Top shape: 1 128 1 90000 (11520000)
I0731 16:45:26.592757 24506 net.cpp:129] Top shape: 1 128 1 90000 (11520000)
I0731 16:45:26.592763 24506 net.cpp:137] Memory required for data: 516960000
I0731 16:45:26.592770 24506 layer_factory.hpp:77] Creating layer data_lattice2
I0731 16:45:26.592834 24506 net.cpp:84] Creating Layer data_lattice2
I0731 16:45:26.592850 24506 net.cpp:406] data_lattice2 <- data_data_0_split_4
I0731 16:45:26.592864 24506 net.cpp:380] data_lattice2 -> data_lattice2
I0731 16:45:26.593160 24506 net.cpp:122] Setting up data_lattice2
I0731 16:45:26.593186 24506 net.cpp:129] Top shape: 1 3 1 90000 (270000)
I0731 16:45:26.593194 24506 net.cpp:137] Memory required for data: 518040000
I0731 16:45:26.593204 24506 layer_factory.hpp:77] Creating layer data_lattice2_data_lattice2_0_split
I0731 16:45:26.593216 24506 net.cpp:84] Creating Layer data_lattice2_data_lattice2_0_split
I0731 16:45:26.593225 24506 net.cpp:406] data_lattice2_data_lattice2_0_split <- data_lattice2
I0731 16:45:26.593237 24506 net.cpp:380] data_lattice2_data_lattice2_0_split -> data_lattice2_data_lattice2_0_split_0
I0731 16:45:26.593251 24506 net.cpp:380] data_lattice2_data_lattice2_0_split -> data_lattice2_data_lattice2_0_split_1
I0731 16:45:26.593325 24506 net.cpp:122] Setting up data_lattice2_data_lattice2_0_split
I0731 16:45:26.593340 24506 net.cpp:129] Top shape: 1 3 1 90000 (270000)
I0731 16:45:26.593349 24506 net.cpp:129] Top shape: 1 3 1 90000 (270000)
I0731 16:45:26.593356 24506 net.cpp:137] Memory required for data: 520200000
I0731 16:45:26.593364 24506 layer_factory.hpp:77] Creating layer conv4
I0731 16:45:26.593381 24506 net.cpp:84] Creating Layer conv4
I0731 16:45:26.593390 24506 net.cpp:406] conv4 <- bn3_relu3_0_split_0
I0731 16:45:26.593402 24506 net.cpp:406] conv4 <- data_lattice2_data_lattice2_0_split_0
I0731 16:45:26.593412 24506 net.cpp:406] conv4 <- data_lattice2_data_lattice2_0_split_1
I0731 16:45:26.593425 24506 net.cpp:380] conv4 -> conv4
I0731 16:45:26.623165 24506 net.cpp:122] Setting up conv4
I0731 16:45:26.623193 24506 net.cpp:129] Top shape: 1 256 1 90000 (23040000)
I0731 16:45:26.623201 24506 net.cpp:137] Memory required for data: 612360000
I0731 16:45:26.623214 24506 layer_factory.hpp:77] Creating layer bn4
I0731 16:45:26.623225 24506 net.cpp:84] Creating Layer bn4
I0731 16:45:26.623234 24506 net.cpp:406] bn4 <- conv4
I0731 16:45:26.623244 24506 net.cpp:380] bn4 -> bn4
I0731 16:45:26.625397 24506 net.cpp:122] Setting up bn4
I0731 16:45:26.625424 24506 net.cpp:129] Top shape: 1 256 1 90000 (23040000)
I0731 16:45:26.625432 24506 net.cpp:137] Memory required for data: 704520000
I0731 16:45:26.625447 24506 layer_factory.hpp:77] Creating layer relu4
I0731 16:45:26.625464 24506 net.cpp:84] Creating Layer relu4
I0731 16:45:26.625471 24506 net.cpp:406] relu4 <- bn4
I0731 16:45:26.625481 24506 net.cpp:367] relu4 -> bn4 (in-place)
I0731 16:45:26.625996 24506 net.cpp:122] Setting up relu4
I0731 16:45:26.626019 24506 net.cpp:129] Top shape: 1 256 1 90000 (23040000)
I0731 16:45:26.626024 24506 net.cpp:137] Memory required for data: 796680000
I0731 16:45:26.626032 24506 layer_factory.hpp:77] Creating layer bn4_relu4_0_split
I0731 16:45:26.626044 24506 net.cpp:84] Creating Layer bn4_relu4_0_split
I0731 16:45:26.626050 24506 net.cpp:406] bn4_relu4_0_split <- bn4
I0731 16:45:26.626060 24506 net.cpp:380] bn4_relu4_0_split -> bn4_relu4_0_split_0
I0731 16:45:26.626073 24506 net.cpp:380] bn4_relu4_0_split -> bn4_relu4_0_split_1
I0731 16:45:26.626138 24506 net.cpp:122] Setting up bn4_relu4_0_split
I0731 16:45:26.626152 24506 net.cpp:129] Top shape: 1 256 1 90000 (23040000)
I0731 16:45:26.626159 24506 net.cpp:129] Top shape: 1 256 1 90000 (23040000)
I0731 16:45:26.626166 24506 net.cpp:137] Memory required for data: 981000000
I0731 16:45:26.626171 24506 layer_factory.hpp:77] Creating layer data_lattice3
I0731 16:45:26.626235 24506 net.cpp:84] Creating Layer data_lattice3
I0731 16:45:26.626247 24506 net.cpp:406] data_lattice3 <- data_data_0_split_5
I0731 16:45:26.626260 24506 net.cpp:380] data_lattice3 -> data_lattice3
I0731 16:45:26.626514 24506 net.cpp:122] Setting up data_lattice3
I0731 16:45:26.626535 24506 net.cpp:129] Top shape: 1 3 1 90000 (270000)
I0731 16:45:26.626551 24506 net.cpp:137] Memory required for data: 982080000
I0731 16:45:26.626559 24506 layer_factory.hpp:77] Creating layer data_lattice3_data_lattice3_0_split
I0731 16:45:26.626575 24506 net.cpp:84] Creating Layer data_lattice3_data_lattice3_0_split
I0731 16:45:26.626582 24506 net.cpp:406] data_lattice3_data_lattice3_0_split <- data_lattice3
I0731 16:45:26.626593 24506 net.cpp:380] data_lattice3_data_lattice3_0_split -> data_lattice3_data_lattice3_0_split_0
I0731 16:45:26.626605 24506 net.cpp:380] data_lattice3_data_lattice3_0_split -> data_lattice3_data_lattice3_0_split_1
I0731 16:45:26.626665 24506 net.cpp:122] Setting up data_lattice3_data_lattice3_0_split
I0731 16:45:26.626678 24506 net.cpp:129] Top shape: 1 3 1 90000 (270000)
I0731 16:45:26.626686 24506 net.cpp:129] Top shape: 1 3 1 90000 (270000)
I0731 16:45:26.626691 24506 net.cpp:137] Memory required for data: 984240000
I0731 16:45:26.626698 24506 layer_factory.hpp:77] Creating layer conv5
I0731 16:45:26.626713 24506 net.cpp:84] Creating Layer conv5
I0731 16:45:26.626720 24506 net.cpp:406] conv5 <- bn4_relu4_0_split_0
I0731 16:45:26.626729 24506 net.cpp:406] conv5 <- data_lattice3_data_lattice3_0_split_0
I0731 16:45:26.626737 24506 net.cpp:406] conv5 <- data_lattice3_data_lattice3_0_split_1
I0731 16:45:26.626747 24506 net.cpp:380] conv5 -> conv5
I0731 16:45:26.672577 24506 net.cpp:122] Setting up conv5
I0731 16:45:26.672606 24506 net.cpp:129] Top shape: 1 256 1 90000 (23040000)
I0731 16:45:26.672612 24506 net.cpp:137] Memory required for data: 1076400000
I0731 16:45:26.672622 24506 layer_factory.hpp:77] Creating layer bn5
I0731 16:45:26.672632 24506 net.cpp:84] Creating Layer bn5
I0731 16:45:26.672639 24506 net.cpp:406] bn5 <- conv5
I0731 16:45:26.672648 24506 net.cpp:380] bn5 -> bn5
I0731 16:45:26.674396 24506 net.cpp:122] Setting up bn5
I0731 16:45:26.674417 24506 net.cpp:129] Top shape: 1 256 1 90000 (23040000)
I0731 16:45:26.674422 24506 net.cpp:137] Memory required for data: 1168560000
I0731 16:45:26.674434 24506 layer_factory.hpp:77] Creating layer relu5
I0731 16:45:26.674448 24506 net.cpp:84] Creating Layer relu5
I0731 16:45:26.674454 24506 net.cpp:406] relu5 <- bn5
I0731 16:45:26.674463 24506 net.cpp:367] relu5 -> bn5 (in-place)
I0731 16:45:26.674876 24506 net.cpp:122] Setting up relu5
I0731 16:45:26.674892 24506 net.cpp:129] Top shape: 1 256 1 90000 (23040000)
I0731 16:45:26.674897 24506 net.cpp:137] Memory required for data: 1260720000
I0731 16:45:26.674902 24506 layer_factory.hpp:77] Creating layer bn5_relu5_0_split
I0731 16:45:26.674911 24506 net.cpp:84] Creating Layer bn5_relu5_0_split
I0731 16:45:26.674916 24506 net.cpp:406] bn5_relu5_0_split <- bn5
I0731 16:45:26.674924 24506 net.cpp:380] bn5_relu5_0_split -> bn5_relu5_0_split_0
I0731 16:45:26.674934 24506 net.cpp:380] bn5_relu5_0_split -> bn5_relu5_0_split_1
I0731 16:45:26.674984 24506 net.cpp:122] Setting up bn5_relu5_0_split
I0731 16:45:26.674995 24506 net.cpp:129] Top shape: 1 256 1 90000 (23040000)
I0731 16:45:26.675000 24506 net.cpp:129] Top shape: 1 256 1 90000 (23040000)
I0731 16:45:26.675005 24506 net.cpp:137] Memory required for data: 1445040000
I0731 16:45:26.675009 24506 layer_factory.hpp:77] Creating layer data_lattice4
I0731 16:45:26.675056 24506 net.cpp:84] Creating Layer data_lattice4
I0731 16:45:26.675066 24506 net.cpp:406] data_lattice4 <- data_data_0_split_6
I0731 16:45:26.675076 24506 net.cpp:380] data_lattice4 -> data_lattice4
I0731 16:45:26.675268 24506 net.cpp:122] Setting up data_lattice4
I0731 16:45:26.675284 24506 net.cpp:129] Top shape: 1 3 1 90000 (270000)
I0731 16:45:26.675289 24506 net.cpp:137] Memory required for data: 1446120000
I0731 16:45:26.675295 24506 layer_factory.hpp:77] Creating layer data_lattice4_data_lattice4_0_split
I0731 16:45:26.675304 24506 net.cpp:84] Creating Layer data_lattice4_data_lattice4_0_split
I0731 16:45:26.675309 24506 net.cpp:406] data_lattice4_data_lattice4_0_split <- data_lattice4
I0731 16:45:26.675318 24506 net.cpp:380] data_lattice4_data_lattice4_0_split -> data_lattice4_data_lattice4_0_split_0
I0731 16:45:26.675326 24506 net.cpp:380] data_lattice4_data_lattice4_0_split -> data_lattice4_data_lattice4_0_split_1
I0731 16:45:26.675371 24506 net.cpp:122] Setting up data_lattice4_data_lattice4_0_split
I0731 16:45:26.675380 24506 net.cpp:129] Top shape: 1 3 1 90000 (270000)
I0731 16:45:26.675386 24506 net.cpp:129] Top shape: 1 3 1 90000 (270000)
I0731 16:45:26.675390 24506 net.cpp:137] Memory required for data: 1448280000
I0731 16:45:26.675395 24506 layer_factory.hpp:77] Creating layer conv6
I0731 16:45:26.675405 24506 net.cpp:84] Creating Layer conv6
I0731 16:45:26.675410 24506 net.cpp:406] conv6 <- bn5_relu5_0_split_0
I0731 16:45:26.675416 24506 net.cpp:406] conv6 <- data_lattice4_data_lattice4_0_split_0
I0731 16:45:26.675422 24506 net.cpp:406] conv6 <- data_lattice4_data_lattice4_0_split_1
I0731 16:45:26.675431 24506 net.cpp:380] conv6 -> conv6
I0731 16:45:26.713510 24506 net.cpp:122] Setting up conv6
I0731 16:45:26.713543 24506 net.cpp:129] Top shape: 1 256 1 90000 (23040000)
I0731 16:45:26.713549 24506 net.cpp:137] Memory required for data: 1540440000
I0731 16:45:26.713559 24506 layer_factory.hpp:77] Creating layer bn6
I0731 16:45:26.713569 24506 net.cpp:84] Creating Layer bn6
I0731 16:45:26.713575 24506 net.cpp:406] bn6 <- conv6
I0731 16:45:26.713585 24506 net.cpp:380] bn6 -> bn6
I0731 16:45:26.715211 24506 net.cpp:122] Setting up bn6
I0731 16:45:26.715229 24506 net.cpp:129] Top shape: 1 256 1 90000 (23040000)
I0731 16:45:26.715235 24506 net.cpp:137] Memory required for data: 1632600000
I0731 16:45:26.715253 24506 layer_factory.hpp:77] Creating layer relu6
I0731 16:45:26.715265 24506 net.cpp:84] Creating Layer relu6
I0731 16:45:26.715271 24506 net.cpp:406] relu6 <- bn6
I0731 16:45:26.715278 24506 net.cpp:367] relu6 -> bn6 (in-place)
I0731 16:45:26.716063 24506 net.cpp:122] Setting up relu6
I0731 16:45:26.716081 24506 net.cpp:129] Top shape: 1 256 1 90000 (23040000)
I0731 16:45:26.716086 24506 net.cpp:137] Memory required for data: 1724760000
I0731 16:45:26.716092 24506 layer_factory.hpp:77] Creating layer bn6_relu6_0_split
I0731 16:45:26.716100 24506 net.cpp:84] Creating Layer bn6_relu6_0_split
I0731 16:45:26.716105 24506 net.cpp:406] bn6_relu6_0_split <- bn6
I0731 16:45:26.716114 24506 net.cpp:380] bn6_relu6_0_split -> bn6_relu6_0_split_0
I0731 16:45:26.716123 24506 net.cpp:380] bn6_relu6_0_split -> bn6_relu6_0_split_1
I0731 16:45:26.716172 24506 net.cpp:122] Setting up bn6_relu6_0_split
I0731 16:45:26.716187 24506 net.cpp:129] Top shape: 1 256 1 90000 (23040000)
I0731 16:45:26.716192 24506 net.cpp:129] Top shape: 1 256 1 90000 (23040000)
I0731 16:45:26.716197 24506 net.cpp:137] Memory required for data: 1909080000
I0731 16:45:26.716200 24506 layer_factory.hpp:77] Creating layer data_lattice5
I0731 16:45:26.716243 24506 net.cpp:84] Creating Layer data_lattice5
I0731 16:45:26.716253 24506 net.cpp:406] data_lattice5 <- data_data_0_split_7
I0731 16:45:26.716264 24506 net.cpp:380] data_lattice5 -> data_lattice5
I0731 16:45:26.716445 24506 net.cpp:122] Setting up data_lattice5
I0731 16:45:26.716459 24506 net.cpp:129] Top shape: 1 3 1 90000 (270000)
I0731 16:45:26.716464 24506 net.cpp:137] Memory required for data: 1910160000
I0731 16:45:26.716470 24506 layer_factory.hpp:77] Creating layer data_lattice5_data_lattice5_0_split
I0731 16:45:26.716477 24506 net.cpp:84] Creating Layer data_lattice5_data_lattice5_0_split
I0731 16:45:26.716483 24506 net.cpp:406] data_lattice5_data_lattice5_0_split <- data_lattice5
I0731 16:45:26.716491 24506 net.cpp:380] data_lattice5_data_lattice5_0_split -> data_lattice5_data_lattice5_0_split_0
I0731 16:45:26.716500 24506 net.cpp:380] data_lattice5_data_lattice5_0_split -> data_lattice5_data_lattice5_0_split_1
I0731 16:45:26.716549 24506 net.cpp:122] Setting up data_lattice5_data_lattice5_0_split
I0731 16:45:26.716560 24506 net.cpp:129] Top shape: 1 3 1 90000 (270000)
I0731 16:45:26.716567 24506 net.cpp:129] Top shape: 1 3 1 90000 (270000)
I0731 16:45:26.716570 24506 net.cpp:137] Memory required for data: 1912320000
I0731 16:45:26.716575 24506 layer_factory.hpp:77] Creating layer conv9_
I0731 16:45:26.716588 24506 net.cpp:84] Creating Layer conv9_
I0731 16:45:26.716593 24506 net.cpp:406] conv9_ <- bn6_relu6_0_split_0
I0731 16:45:26.716599 24506 net.cpp:406] conv9_ <- data_lattice5_data_lattice5_0_split_0
I0731 16:45:26.716604 24506 net.cpp:406] conv9_ <- data_lattice5_data_lattice5_0_split_1
I0731 16:45:26.716612 24506 net.cpp:380] conv9_ -> conv9_
I0731 16:45:26.753890 24506 net.cpp:122] Setting up conv9_
I0731 16:45:26.753919 24506 net.cpp:129] Top shape: 1 256 1 90000 (23040000)
I0731 16:45:26.753926 24506 net.cpp:137] Memory required for data: 2004480000
I0731 16:45:26.753938 24506 layer_factory.hpp:77] Creating layer bn9_
I0731 16:45:26.753948 24506 net.cpp:84] Creating Layer bn9_
I0731 16:45:26.753954 24506 net.cpp:406] bn9_ <- conv9_
I0731 16:45:26.753963 24506 net.cpp:380] bn9_ -> bn9_
I0731 16:45:26.755684 24506 net.cpp:122] Setting up bn9_
I0731 16:45:26.755702 24506 net.cpp:129] Top shape: 1 256 1 90000 (23040000)
I0731 16:45:26.755707 24506 net.cpp:137] Memory required for data: 2096640000
I0731 16:45:26.755719 24506 layer_factory.hpp:77] Creating layer relu9_
I0731 16:45:26.755728 24506 net.cpp:84] Creating Layer relu9_
I0731 16:45:26.755733 24506 net.cpp:406] relu9_ <- bn9_
I0731 16:45:26.755741 24506 net.cpp:367] relu9_ -> bn9_ (in-place)
I0731 16:45:26.756112 24506 net.cpp:122] Setting up relu9_
I0731 16:45:26.756125 24506 net.cpp:129] Top shape: 1 256 1 90000 (23040000)
I0731 16:45:26.756130 24506 net.cpp:137] Memory required for data: 2188800000
I0731 16:45:26.756135 24506 layer_factory.hpp:77] Creating layer concat6
I0731 16:45:26.756177 24506 net.cpp:84] Creating Layer concat6
I0731 16:45:26.756186 24506 net.cpp:406] concat6 <- bn9_relu9_0_split_1
I0731 16:45:26.756193 24506 net.cpp:406] concat6 <- bn6_relu6_0_split_1
I0731 16:45:26.756199 24506 net.cpp:406] concat6 <- bn2_relu2_0_split_1
I0731 16:45:26.756204 24506 net.cpp:406] concat6 <- bn3_relu3_0_split_1
I0731 16:45:26.756209 24506 net.cpp:406] concat6 <- bn4_relu4_0_split_1
I0731 16:45:26.756214 24506 net.cpp:406] concat6 <- bn5_relu5_0_split_1
I0731 16:45:26.756218 24506 net.cpp:406] concat6 <- bn9_
I0731 16:45:26.756225 24506 net.cpp:380] concat6 -> concat6
I0731 16:45:26.756285 24506 net.cpp:122] Setting up concat6
I0731 16:45:26.756299 24506 net.cpp:129] Top shape: 1 1280 1 90000 (115200000)
I0731 16:45:26.756304 24506 net.cpp:137] Memory required for data: 2649600000
I0731 16:45:26.756307 24506 layer_factory.hpp:77] Creating layer conv7
I0731 16:45:26.756321 24506 net.cpp:84] Creating Layer conv7
I0731 16:45:26.756326 24506 net.cpp:406] conv7 <- concat6
I0731 16:45:26.756335 24506 net.cpp:380] conv7 -> conv7
I0731 16:45:26.760445 24506 net.cpp:122] Setting up conv7
I0731 16:45:26.760464 24506 net.cpp:129] Top shape: 1 128 1 90000 (11520000)
I0731 16:45:26.760469 24506 net.cpp:137] Memory required for data: 2695680000
I0731 16:45:26.760479 24506 layer_factory.hpp:77] Creating layer bn7
I0731 16:45:26.760488 24506 net.cpp:84] Creating Layer bn7
I0731 16:45:26.760494 24506 net.cpp:406] bn7 <- conv7
I0731 16:45:26.760502 24506 net.cpp:380] bn7 -> bn7
I0731 16:45:26.760825 24506 net.cpp:122] Setting up bn7
I0731 16:45:26.760838 24506 net.cpp:129] Top shape: 1 128 1 90000 (11520000)
I0731 16:45:26.760843 24506 net.cpp:137] Memory required for data: 2741760000
I0731 16:45:26.760852 24506 layer_factory.hpp:77] Creating layer relu7
I0731 16:45:26.760864 24506 net.cpp:84] Creating Layer relu7
I0731 16:45:26.760869 24506 net.cpp:406] relu7 <- bn7
I0731 16:45:26.760876 24506 net.cpp:367] relu7 -> bn7 (in-place)
I0731 16:45:26.761201 24506 net.cpp:122] Setting up relu7
I0731 16:45:26.761214 24506 net.cpp:129] Top shape: 1 128 1 90000 (11520000)
I0731 16:45:26.761219 24506 net.cpp:137] Memory required for data: 2787840000
I0731 16:45:26.761224 24506 layer_factory.hpp:77] Creating layer conv8
I0731 16:45:26.761237 24506 net.cpp:84] Creating Layer conv8
I0731 16:45:26.761242 24506 net.cpp:406] conv8 <- bn7
I0731 16:45:26.761250 24506 net.cpp:380] conv8 -> conv8
I0731 16:45:26.765123 24506 net.cpp:122] Setting up conv8
I0731 16:45:26.765141 24506 net.cpp:129] Top shape: 1 13 1 90000 (1170000)
I0731 16:45:26.765147 24506 net.cpp:137] Memory required for data: 2792520000
I0731 16:45:26.765157 24506 layer_factory.hpp:77] Creating layer conv8_conv8_0_split
I0731 16:45:26.765166 24506 net.cpp:84] Creating Layer conv8_conv8_0_split
I0731 16:45:26.765172 24506 net.cpp:406] conv8_conv8_0_split <- conv8
I0731 16:45:26.765179 24506 net.cpp:380] conv8_conv8_0_split -> conv8_conv8_0_split_0
I0731 16:45:26.765188 24506 net.cpp:380] conv8_conv8_0_split -> conv8_conv8_0_split_1
I0731 16:45:26.765242 24506 net.cpp:122] Setting up conv8_conv8_0_split
I0731 16:45:26.765252 24506 net.cpp:129] Top shape: 1 13 1 90000 (1170000)
I0731 16:45:26.765259 24506 net.cpp:129] Top shape: 1 13 1 90000 (1170000)
I0731 16:45:26.765261 24506 net.cpp:137] Memory required for data: 2801880000
I0731 16:45:26.765266 24506 layer_factory.hpp:77] Creating layer loss
I0731 16:45:26.765305 24506 net.cpp:84] Creating Layer loss
I0731 16:45:26.765314 24506 net.cpp:406] loss <- conv8_conv8_0_split_0
I0731 16:45:26.765321 24506 net.cpp:406] loss <- label_data_1_split_0
I0731 16:45:26.765328 24506 net.cpp:380] loss -> loss
…
