…
I0801 20:07:19.925575 23822 net.cpp:294] The NetState phase (0) differed from the phase (1) specified by a rule in layer data
I0801 20:07:19.926126 23822 net.cpp:51] Initializing net from parameters: 
state {
  phase: TRAIN
}
layer {
  name: "data"
  type: "Python"
  top: "data"
  top: "label"
  include {
    phase: TRAIN
  }
  python_param {
    module: "dataset_lidar"
    layer: "InputShapenet"
    param_str: "{\'sample_size\': 8192, \'test_area\': \'6\', \'batch_size\': 12, \'feat_dims\': \'x_y_z\', \'subset\': \'train\', \'root\': \'../../data/shapenet_ericyi_ply\', \'jitter_xyz\': 0.01, \'jitter_stretch\': 0.05, \'jitter_rotation\': 5.0}"
  }
}
layer {
  name: "data_feat"
  type: "Python"
  bottom: "data"
  top: "data_feat"
  python_param {
    module: "custom_layers"
    layer: "PickAndScale"
    param_str: "0_1_2"
  }
}
layer {
  name: "conv1"
  type: "Convolution"
  bottom: "data_feat"
  top: "conv1"
  param {
    lr_mult: 1
  }
  param {
    lr_mult: 0.1
  }
  convolution_param {
    num_output: 32
    pad: 0
    kernel_size: 1
    stride: 1
    weight_filler {
      type: "xavier"
    }
    bias_filler {
      type: "constant"
      value: 0
    }
  }
}
layer {
  name: "bn1"
  type: "BatchNorm"
  bottom: "conv1"
  top: "bn1"
}
layer {
  name: "relu1"
  type: "ReLU"
  bottom: "bn1"
  top: "bn1"
}
layer {
  name: "data_lattice0"
  type: "Python"
  bottom: "data"
  top: "data_lattice0"
  python_param {
    module: "custom_layers"
    layer: "PickAndScale"
    param_str: "0*48_1*48_2*48"
  }
}
layer {
  name: "fconv1"
  type: "Convolution"
  bottom: "data_lattice0"
  top: "fconv1"
  param {
    lr_mult: 1
  }
  param {
    lr_mult: 0.1
  }
  convolution_param {
    num_output: 3
    pad: 0
    kernel_size: 1
    stride: 1
    weight_filler {
      type: "xavier"
    }
    bias_filler {
      type: "constant"
      value: 0
    }
  }
}
layer {
  name: "fbn1"
  type: "BatchNorm"
  bottom: "fconv1"
  top: "fbn1"
}
layer {
  name: "frelu1"
  type: "ReLU"
  bottom: "fbn1"
  top: "fbn1"
}
layer {
  name: "feat1"
  type: "Eltwise"
  bottom: "data_lattice0"
  bottom: "fbn1"
  top: "feat1"
  eltwise_param {
    operation: SUM
  }
}
layer {
  name: "conv2"
  type: "Permutohedral"
  bottom: "bn1"
  bottom: "feat1"
  bottom: "feat1"
  top: "conv2"
  param {
    lr_mult: 1
    decay_mult: 1
  }
  param {
    lr_mult: 2
    decay_mult: 0
  }
  permutohedral_param {
    num_output: 64
    neighborhood_size: 2
    filter_filler {
      type: "gaussian"
      std: 0.001
    }
    bias_term: true
    bias_filler {
      type: "constant"
      value: 0
    }
    group: 1
    norm_type: AFTER
    offset_type: NONE
  }
}
layer {
  name: "bn2"
  type: "BatchNorm"
  bottom: "conv2"
  top: "bn2"
}
layer {
  name: "relu2"
  type: "ReLU"
  bottom: "bn2"
  top: "bn2"
}
layer {
  name: "data_lattice1"
  type: "Python"
  bottom: "data"
  top: "data_lattice1"
  python_param {
    module: "custom_layers"
    layer: "PickAndScale"
    param_str: "0*24_1*24_2*24"
  }
}
layer {
  name: "fconv2"
  type: "Convolution"
  bottom: "fbn1"
  top: "fconv2"
  param {
    lr_mult: 1
  }
  param {
    lr_mult: 0.1
  }
  convolution_param {
    num_output: 3
    pad: 0
    kernel_size: 1
    stride: 1
    weight_filler {
      type: "xavier"
    }
    bias_filler {
      type: "constant"
      value: 0
    }
  }
}
layer {
  name: "fbn2"
  type: "BatchNorm"
  bottom: "fconv2"
  top: "fbn2"
}
layer {
  name: "frelu2"
  type: "ReLU"
  bottom: "fbn2"
  top: "fbn2"
}
layer {
  name: "feat2"
  type: "Eltwise"
  bottom: "data_lattice1"
  bottom: "fbn2"
  top: "feat2"
  eltwise_param {
    operation: SUM
  }
}
layer {
  name: "conv3"
  type: "Permutohedral"
  bottom: "bn2"
  bottom: "feat2"
  bottom: "feat2"
  top: "conv3"
  param {
    lr_mult: 1
    decay_mult: 1
  }
  param {
    lr_mult: 2
    decay_mult: 0
  }
  permutohedral_param {
    num_output: 128
    neighborhood_size: 2
    filter_filler {
      type: "gaussian"
      std: 0.001
    }
    bias_term: true
    bias_filler {
      type: "constant"
      value: 0
    }
    group: 1
    norm_type: AFTER
    offset_type: NONE
  }
}
layer {
  name: "bn3"
  type: "BatchNorm"
  bottom: "conv3"
  top: "bn3"
}
layer {
  name: "relu3"
  type: "ReLU"
  bottom: "bn3"
  top: "bn3"
}
layer {
  name: "data_lattice2"
  type: "Python"
  bottom: "data"
  top: "data_lattice2"
  python_param {
    module: "custom_layers"
    layer: "PickAndScale"
    param_str: "0*12_1*12_2*12"
  }
}
layer {
  name: "fconv3"
  type: "Convolution"
  bottom: "fbn2"
  top: "fconv3"
  param {
    lr_mult: 1
  }
  param {
    lr_mult: 0.1
  }
  convolution_param {
    num_output: 3
    pad: 0
    kernel_size: 1
    stride: 1
    weight_filler {
      type: "xavier"
    }
    bias_filler {
      type: "constant"
      value: 0
    }
  }
}
layer {
  name: "fbn3"
  type: "BatchNorm"
  bottom: "fconv3"
  top: "fbn3"
}
layer {
  name: "frelu3"
  type: "ReLU"
  bottom: "fbn3"
  top: "fbn3"
}
layer {
  name: "feat3"
  type: "Eltwise"
  bottom: "data_lattice2"
  bottom: "fbn3"
  top: "feat3"
  eltwise_param {
    operation: SUM
  }
}
layer {
  name: "conv4"
  type: "Permutohedral"
  bottom: "bn3"
  bottom: "feat3"
  bottom: "feat3"
  top: "conv4"
  param {
    lr_mult: 1
    decay_mult: 1
  }
  param {
    lr_mult: 2
    decay_mult: 0
  }
  permutohedral_param {
    num_output: 256
    neighborhood_size: 2
    filter_filler {
      type: "gaussian"
      std: 0.001
    }
    bias_term: true
    bias_filler {
      type: "constant"
      value: 0
    }
    group: 1
    norm_type: AFTER
    offset_type: NONE
  }
}
layer {
  name: "bn4"
  type: "BatchNorm"
  bottom: "conv4"
  top: "bn4"
}
layer {
  name: "relu4"
  type: "ReLU"
  bottom: "bn4"
  top: "bn4"
}
layer {
  name: "data_lattice3"
  type: "Python"
  bottom: "data"
  top: "data_lattice3"
  python_param {
    module: "custom_layers"
    layer: "PickAndScale"
    param_str: "0*6_1*6_2*6"
  }
}
layer {
  name: "fconv4"
  type: "Convolution"
  bottom: "fbn3"
  top: "fconv4"
  param {
    lr_mult: 1
  }
  param {
    lr_mult: 0.1
  }
  convolution_param {
    num_output: 3
    pad: 0
    kernel_size: 1
    stride: 1
    weight_filler {
      type: "xavier"
    }
    bias_filler {
      type: "constant"
      value: 0
    }
  }
}
layer {
  name: "fbn4"
  type: "BatchNorm"
  bottom: "fconv4"
  top: "fbn4"
}
layer {
  name: "frelu4"
  type: "ReLU"
  bottom: "fbn4"
  top: "fbn4"
}
layer {
  name: "feat4"
  type: "Eltwise"
  bottom: "data_lattice3"
  bottom: "fbn4"
  top: "feat4"
  eltwise_param {
    operation: SUM
  }
}
layer {
  name: "conv5"
  type: "Permutohedral"
  bottom: "bn4"
  bottom: "feat4"
  bottom: "feat4"
  top: "conv5"
  param {
    lr_mult: 1
    decay_mult: 1
  }
  param {
    lr_mult: 2
    decay_mult: 0
  }
  permutohedral_param {
    num_output: 256
    neighborhood_size: 2
    filter_filler {
      type: "gaussian"
      std: 0.001
    }
    bias_term: true
    bias_filler {
      type: "constant"
      value: 0
    }
    group: 1
    norm_type: AFTER
    offset_type: NONE
  }
}
layer {
  name: "bn5"
  type: "BatchNorm"
  bottom: "conv5"
  top: "bn5"
}
layer {
  name: "relu5"
  type: "ReLU"
  bottom: "bn5"
  top: "bn5"
}
layer {
  name: "data_lattice4"
  type: "Python"
  bottom: "data"
  top: "data_lattice4"
  python_param {
    module: "custom_layers"
    layer: "PickAndScale"
    param_str: "0*3_1*3_2*3"
  }
}
layer {
  name: "fconv5"
  type: "Convolution"
  bottom: "fbn4"
  top: "fconv5"
  param {
    lr_mult: 1
  }
  param {
    lr_mult: 0.1
  }
  convolution_param {
    num_output: 3
    pad: 0
    kernel_size: 1
    stride: 1
    weight_filler {
      type: "xavier"
    }
    bias_filler {
      type: "constant"
      value: 0
    }
  }
}
layer {
  name: "fbn5"
  type: "BatchNorm"
  bottom: "fconv5"
  top: "fbn5"
}
layer {
  name: "frelu5"
  type: "ReLU"
  bottom: "fbn5"
  top: "fbn5"
}
layer {
  name: "feat5"
  type: "Eltwise"
  bottom: "data_lattice4"
  bottom: "fbn5"
  top: "feat5"
  eltwise_param {
    operation: SUM
  }
}
layer {
  name: "conv6"
  type: "Permutohedral"
  bottom: "bn5"
  bottom: "feat5"
  bottom: "feat5"
  top: "conv6"
  param {
    lr_mult: 1
    decay_mult: 1
  }
  param {
    lr_mult: 2
    decay_mult: 0
  }
  permutohedral_param {
    num_output: 256
    neighborhood_size: 2
    filter_filler {
      type: "gaussian"
      std: 0.001
    }
    bias_term: true
    bias_filler {
      type: "constant"
      value: 0
    }
    group: 1
    norm_type: AFTER
    offset_type: NONE
  }
}
layer {
  name: "bn6"
  type: "BatchNorm"
  bottom: "conv6"
  top: "bn6"
}
layer {
  name: "relu6"
  type: "ReLU"
  bottom: "bn6"
  top: "bn6"
}
layer {
  name: "concat6_"
  type: "Concat"
  bottom: "bn1"
  bottom: "bn6"
  bottom: "bn2"
  bottom: "bn3"
  bottom: "bn4"
  bottom: "bn5"
  top: "concat6_"
}
layer {
  name: "conv7_"
  type: "Convolution"
  bottom: "concat6_"
  top: "conv7_"
  param {
    lr_mult: 1
  }
  param {
    lr_mult: 0.1
  }
  convolution_param {
    num_output: 128
    pad: 0
    kernel_size: 1
    stride: 1
    weight_filler {
      type: "xavier"
    }
    bias_filler {
      type: "constant"
      value: 0
    }
  }
}
layer {
  name: "bn7"
  type: "BatchNorm"
  bottom: "conv7_"
  top: "bn7"
}
layer {
  name: "relu7"
  type: "ReLU"
  bottom: "bn7"
  top: "bn7"
}
layer {
  name: "conv8"
  type: "Convolution"
  bottom: "bn7"
  top: "conv8"
  param {
    lr_mult: 1
  }
  param {
    lr_mult: 0.1
  }
  convolution_param {
    num_output: 13
    pad: 0
    kernel_size: 1
    stride: 1
    weight_filler {
      type: "xavier"
    }
    bias_filler {
      type: "constant"
      value: 0
    }
  }
}
layer {
  name: "loss"
  type: "SoftmaxWithLoss"
  bottom: "conv8"
  bottom: "label"
  top: "loss"
}
layer {
  name: "accuracy"
  type: "Accuracy"
  bottom: "conv8"
  bottom: "label"
  top: "accuracy"
}
I0801 20:07:19.926702 23822 layer_factory.hpp:77] Creating layer data
I0801 20:07:19.958673 23822 net.cpp:84] Creating Layer data
I0801 20:07:19.958722 23822 net.cpp:380] data -> data
I0801 20:07:19.958797 23822 net.cpp:380] data -> label
I0801 20:07:20.284615 23824 upgrade_proto.cpp:1084] Attempting to upgrade input file specified using deprecated 'solver_type' field (enum)': /mnt/lustre/wangjiayun/repos/splatnet/exp/lidar3d/area6/6_solver.prototxt
…
I0801 20:07:20.443891 23825 upgrade_proto.cpp:1084] Attempting to upgrade input file specified using deprecated 'solver_type' field (enum)': /mnt/lustre/wangjiayun/repos/splatnet/exp/lidar3d/area6/6_solver.prototxt
I0801 20:07:20.443975 23825 upgrade_proto.cpp:1091] Successfully upgraded file specified using deprecated 'solver_type' field (enum) to 'type' field (string).
W0801 20:07:20.443981 23825 upgrade_proto.cpp:1093] Note that future Caffe releases will only support 'type' field (string) for a solver's type.
I0801 20:15:52.104429 23822 net.cpp:122] Setting up data
I0801 20:15:52.105147 23822 net.cpp:129] Top shape: 12 3 1 8192 (294912)
I0801 20:15:52.105166 23822 net.cpp:129] Top shape: 12 1 1 8192 (98304)
I0801 20:15:52.105171 23822 net.cpp:137] Memory required for data: 1572864
I0801 20:15:52.105288 23822 layer_factory.hpp:77] Creating layer data_data_0_split
I0801 20:15:52.105497 23822 net.cpp:84] Creating Layer data_data_0_split
I0801 20:15:52.105525 23822 net.cpp:406] data_data_0_split <- data
I0801 20:15:52.105576 23822 net.cpp:380] data_data_0_split -> data_data_0_split_0
I0801 20:15:52.105633 23822 net.cpp:380] data_data_0_split -> data_data_0_split_1
I0801 20:15:52.105643 23822 net.cpp:380] data_data_0_split -> data_data_0_split_2
I0801 20:15:52.105651 23822 net.cpp:380] data_data_0_split -> data_data_0_split_3
I0801 20:15:52.105657 23822 net.cpp:380] data_data_0_split -> data_data_0_split_4
I0801 20:15:52.105665 23822 net.cpp:380] data_data_0_split -> data_data_0_split_5
I0801 20:15:52.105785 23822 net.cpp:122] Setting up data_data_0_split
I0801 20:15:52.105796 23822 net.cpp:129] Top shape: 12 3 1 8192 (294912)
I0801 20:15:52.105801 23822 net.cpp:129] Top shape: 12 3 1 8192 (294912)
I0801 20:15:52.105806 23822 net.cpp:129] Top shape: 12 3 1 8192 (294912)
I0801 20:15:52.105810 23822 net.cpp:129] Top shape: 12 3 1 8192 (294912)
I0801 20:15:52.105814 23822 net.cpp:129] Top shape: 12 3 1 8192 (294912)
I0801 20:15:52.105818 23822 net.cpp:129] Top shape: 12 3 1 8192 (294912)
I0801 20:15:52.105823 23822 net.cpp:137] Memory required for data: 8650752
I0801 20:15:52.105836 23822 layer_factory.hpp:77] Creating layer label_data_1_split
I0801 20:15:52.105844 23822 net.cpp:84] Creating Layer label_data_1_split
I0801 20:15:52.105849 23822 net.cpp:406] label_data_1_split <- label
I0801 20:15:52.105854 23822 net.cpp:380] label_data_1_split -> label_data_1_split_0
I0801 20:15:52.105861 23822 net.cpp:380] label_data_1_split -> label_data_1_split_1
I0801 20:15:52.105891 23822 net.cpp:122] Setting up label_data_1_split
I0801 20:15:52.105897 23822 net.cpp:129] Top shape: 12 1 1 8192 (98304)
I0801 20:15:52.105902 23822 net.cpp:129] Top shape: 12 1 1 8192 (98304)
I0801 20:15:52.105906 23822 net.cpp:137] Memory required for data: 9437184
I0801 20:15:52.105909 23822 layer_factory.hpp:77] Creating layer data_feat
I0801 20:15:52.115363 23822 net.cpp:84] Creating Layer data_feat
I0801 20:15:52.115406 23822 net.cpp:406] data_feat <- data_data_0_split_0
I0801 20:15:52.115427 23822 net.cpp:380] data_feat -> data_feat
I0801 20:15:52.118082 23822 net.cpp:122] Setting up data_feat
I0801 20:15:52.118114 23822 net.cpp:129] Top shape: 12 3 1 8192 (294912)
I0801 20:15:52.118122 23822 net.cpp:137] Memory required for data: 10616832
I0801 20:15:52.118132 23822 layer_factory.hpp:77] Creating layer conv1
I0801 20:15:52.118255 23822 net.cpp:84] Creating Layer conv1
I0801 20:15:52.118271 23822 net.cpp:406] conv1 <- data_feat
I0801 20:15:52.118286 23822 net.cpp:380] conv1 -> conv1
I0801 20:15:52.778897 23822 net.cpp:122] Setting up conv1
I0801 20:15:52.778933 23822 net.cpp:129] Top shape: 12 32 1 8192 (3145728)
I0801 20:15:52.778936 23822 net.cpp:137] Memory required for data: 23199744
I0801 20:15:52.778982 23822 layer_factory.hpp:77] Creating layer bn1
I0801 20:15:52.779009 23822 net.cpp:84] Creating Layer bn1
I0801 20:15:52.779016 23822 net.cpp:406] bn1 <- conv1
I0801 20:15:52.779023 23822 net.cpp:380] bn1 -> bn1
I0801 20:15:52.779271 23822 net.cpp:122] Setting up bn1
I0801 20:15:52.779283 23822 net.cpp:129] Top shape: 12 32 1 8192 (3145728)
I0801 20:15:52.779286 23822 net.cpp:137] Memory required for data: 35782656
I0801 20:15:52.779305 23822 layer_factory.hpp:77] Creating layer relu1
I0801 20:15:52.779340 23822 net.cpp:84] Creating Layer relu1
I0801 20:15:52.779346 23822 net.cpp:406] relu1 <- bn1
I0801 20:15:52.779352 23822 net.cpp:367] relu1 -> bn1 (in-place)
I0801 20:15:52.779696 23822 net.cpp:122] Setting up relu1
I0801 20:15:52.779711 23822 net.cpp:129] Top shape: 12 32 1 8192 (3145728)
I0801 20:15:52.779714 23822 net.cpp:137] Memory required for data: 48365568
I0801 20:15:52.779718 23822 layer_factory.hpp:77] Creating layer bn1_relu1_0_split
I0801 20:15:52.779726 23822 net.cpp:84] Creating Layer bn1_relu1_0_split
I0801 20:15:52.779729 23822 net.cpp:406] bn1_relu1_0_split <- bn1
I0801 20:15:52.779736 23822 net.cpp:380] bn1_relu1_0_split -> bn1_relu1_0_split_0
I0801 20:15:52.779742 23822 net.cpp:380] bn1_relu1_0_split -> bn1_relu1_0_split_1
I0801 20:15:52.779791 23822 net.cpp:122] Setting up bn1_relu1_0_split
I0801 20:15:52.779799 23822 net.cpp:129] Top shape: 12 32 1 8192 (3145728)
I0801 20:15:52.779804 23822 net.cpp:129] Top shape: 12 32 1 8192 (3145728)
I0801 20:15:52.779808 23822 net.cpp:137] Memory required for data: 73531392
I0801 20:15:52.779829 23822 layer_factory.hpp:77] Creating layer data_lattice0
I0801 20:15:52.779920 23822 net.cpp:84] Creating Layer data_lattice0
I0801 20:15:52.779939 23822 net.cpp:406] data_lattice0 <- data_data_0_split_1
I0801 20:15:52.779947 23822 net.cpp:380] data_lattice0 -> data_lattice0
I0801 20:15:52.781265 23822 net.cpp:122] Setting up data_lattice0
I0801 20:15:52.781280 23822 net.cpp:129] Top shape: 12 3 1 8192 (294912)
I0801 20:15:52.781283 23822 net.cpp:137] Memory required for data: 74711040
I0801 20:15:52.781287 23822 layer_factory.hpp:77] Creating layer data_lattice0_data_lattice0_0_split
I0801 20:15:52.781293 23822 net.cpp:84] Creating Layer data_lattice0_data_lattice0_0_split
I0801 20:15:52.781296 23822 net.cpp:406] data_lattice0_data_lattice0_0_split <- data_lattice0
I0801 20:15:52.781302 23822 net.cpp:380] data_lattice0_data_lattice0_0_split -> data_lattice0_data_lattice0_0_split_0
I0801 20:15:52.781311 23822 net.cpp:380] data_lattice0_data_lattice0_0_split -> data_lattice0_data_lattice0_0_split_1
I0801 20:15:52.781342 23822 net.cpp:122] Setting up data_lattice0_data_lattice0_0_split
I0801 20:15:52.781348 23822 net.cpp:129] Top shape: 12 3 1 8192 (294912)
I0801 20:15:52.781352 23822 net.cpp:129] Top shape: 12 3 1 8192 (294912)
I0801 20:15:52.781354 23822 net.cpp:137] Memory required for data: 77070336
I0801 20:15:52.781358 23822 layer_factory.hpp:77] Creating layer fconv1
I0801 20:15:52.781389 23822 net.cpp:84] Creating Layer fconv1
I0801 20:15:52.781396 23822 net.cpp:406] fconv1 <- data_lattice0_data_lattice0_0_split_0
I0801 20:15:52.781402 23822 net.cpp:380] fconv1 -> fconv1
I0801 20:15:52.783077 23822 net.cpp:122] Setting up fconv1
I0801 20:15:52.783092 23822 net.cpp:129] Top shape: 12 3 1 8192 (294912)
I0801 20:15:52.783097 23822 net.cpp:137] Memory required for data: 78249984
I0801 20:15:52.783102 23822 layer_factory.hpp:77] Creating layer fbn1
I0801 20:15:52.783109 23822 net.cpp:84] Creating Layer fbn1
I0801 20:15:52.783113 23822 net.cpp:406] fbn1 <- fconv1
I0801 20:15:52.783119 23822 net.cpp:380] fbn1 -> fbn1
I0801 20:15:52.783304 23822 net.cpp:122] Setting up fbn1
I0801 20:15:52.783313 23822 net.cpp:129] Top shape: 12 3 1 8192 (294912)
I0801 20:15:52.783316 23822 net.cpp:137] Memory required for data: 79429632
I0801 20:15:52.783325 23822 layer_factory.hpp:77] Creating layer frelu1
I0801 20:15:52.783332 23822 net.cpp:84] Creating Layer frelu1
I0801 20:15:52.783336 23822 net.cpp:406] frelu1 <- fbn1
I0801 20:15:52.783340 23822 net.cpp:367] frelu1 -> fbn1 (in-place)
I0801 20:15:52.783614 23822 net.cpp:122] Setting up frelu1
I0801 20:15:52.783627 23822 net.cpp:129] Top shape: 12 3 1 8192 (294912)
I0801 20:15:52.783629 23822 net.cpp:137] Memory required for data: 80609280
I0801 20:15:52.783633 23822 layer_factory.hpp:77] Creating layer fbn1_frelu1_0_split
I0801 20:15:52.783639 23822 net.cpp:84] Creating Layer fbn1_frelu1_0_split
I0801 20:15:52.783643 23822 net.cpp:406] fbn1_frelu1_0_split <- fbn1
I0801 20:15:52.783649 23822 net.cpp:380] fbn1_frelu1_0_split -> fbn1_frelu1_0_split_0
I0801 20:15:52.783656 23822 net.cpp:380] fbn1_frelu1_0_split -> fbn1_frelu1_0_split_1
I0801 20:15:52.783692 23822 net.cpp:122] Setting up fbn1_frelu1_0_split
I0801 20:15:52.783699 23822 net.cpp:129] Top shape: 12 3 1 8192 (294912)
I0801 20:15:52.783702 23822 net.cpp:129] Top shape: 12 3 1 8192 (294912)
I0801 20:15:52.783705 23822 net.cpp:137] Memory required for data: 82968576
I0801 20:15:52.783717 23822 layer_factory.hpp:77] Creating layer feat1
I0801 20:15:52.783767 23822 net.cpp:84] Creating Layer feat1
I0801 20:15:52.783776 23822 net.cpp:406] feat1 <- data_lattice0_data_lattice0_0_split_1
I0801 20:15:52.783782 23822 net.cpp:406] feat1 <- fbn1_frelu1_0_split_0
I0801 20:15:52.783787 23822 net.cpp:380] feat1 -> feat1
I0801 20:15:52.783841 23822 net.cpp:122] Setting up feat1
I0801 20:15:52.783850 23822 net.cpp:129] Top shape: 12 3 1 8192 (294912)
I0801 20:15:52.783854 23822 net.cpp:137] Memory required for data: 84148224
I0801 20:15:52.783859 23822 layer_factory.hpp:77] Creating layer feat1_feat1_0_split
I0801 20:15:52.783874 23822 net.cpp:84] Creating Layer feat1_feat1_0_split
I0801 20:15:52.783877 23822 net.cpp:406] feat1_feat1_0_split <- feat1
I0801 20:15:52.783884 23822 net.cpp:380] feat1_feat1_0_split -> feat1_feat1_0_split_0
I0801 20:15:52.783890 23822 net.cpp:380] feat1_feat1_0_split -> feat1_feat1_0_split_1
I0801 20:15:52.783918 23822 net.cpp:122] Setting up feat1_feat1_0_split
I0801 20:15:52.783924 23822 net.cpp:129] Top shape: 12 3 1 8192 (294912)
I0801 20:15:52.783928 23822 net.cpp:129] Top shape: 12 3 1 8192 (294912)
I0801 20:15:52.783932 23822 net.cpp:137] Memory required for data: 86507520
I0801 20:15:52.783936 23822 layer_factory.hpp:77] Creating layer conv2
I0801 20:15:52.783963 23822 net.cpp:84] Creating Layer conv2
I0801 20:15:52.783970 23822 net.cpp:406] conv2 <- bn1_relu1_0_split_0
I0801 20:15:52.783975 23822 net.cpp:406] conv2 <- feat1_feat1_0_split_0
I0801 20:15:52.783979 23822 net.cpp:406] conv2 <- feat1_feat1_0_split_1
I0801 20:15:52.783985 23822 net.cpp:380] conv2 -> conv2
I0801 20:15:52.788130 23822 net.cpp:122] Setting up conv2
I0801 20:15:52.788151 23822 net.cpp:129] Top shape: 12 64 1 8192 (6291456)
I0801 20:15:52.788156 23822 net.cpp:137] Memory required for data: 111673344
I0801 20:15:52.788166 23822 layer_factory.hpp:77] Creating layer bn2
I0801 20:15:52.788174 23822 net.cpp:84] Creating Layer bn2
I0801 20:15:52.788180 23822 net.cpp:406] bn2 <- conv2
I0801 20:15:52.788187 23822 net.cpp:380] bn2 -> bn2
I0801 20:15:52.788429 23822 net.cpp:122] Setting up bn2
I0801 20:15:52.788439 23822 net.cpp:129] Top shape: 12 64 1 8192 (6291456)
I0801 20:15:52.788444 23822 net.cpp:137] Memory required for data: 136839168
I0801 20:15:52.788462 23822 layer_factory.hpp:77] Creating layer relu2
I0801 20:15:52.788471 23822 net.cpp:84] Creating Layer relu2
I0801 20:15:52.788475 23822 net.cpp:406] relu2 <- bn2
I0801 20:15:52.788481 23822 net.cpp:367] relu2 -> bn2 (in-place)
I0801 20:15:52.789407 23822 net.cpp:122] Setting up relu2
I0801 20:15:52.789422 23822 net.cpp:129] Top shape: 12 64 1 8192 (6291456)
I0801 20:15:52.789427 23822 net.cpp:137] Memory required for data: 162004992
I0801 20:15:52.789430 23822 layer_factory.hpp:77] Creating layer bn2_relu2_0_split
I0801 20:15:52.789438 23822 net.cpp:84] Creating Layer bn2_relu2_0_split
I0801 20:15:52.789441 23822 net.cpp:406] bn2_relu2_0_split <- bn2
I0801 20:15:52.789448 23822 net.cpp:380] bn2_relu2_0_split -> bn2_relu2_0_split_0
I0801 20:15:52.789456 23822 net.cpp:380] bn2_relu2_0_split -> bn2_relu2_0_split_1
I0801 20:15:52.789496 23822 net.cpp:122] Setting up bn2_relu2_0_split
I0801 20:15:52.789503 23822 net.cpp:129] Top shape: 12 64 1 8192 (6291456)
I0801 20:15:52.789507 23822 net.cpp:129] Top shape: 12 64 1 8192 (6291456)
I0801 20:15:52.789510 23822 net.cpp:137] Memory required for data: 212336640
I0801 20:15:52.789513 23822 layer_factory.hpp:77] Creating layer data_lattice1
I0801 20:15:52.789602 23822 net.cpp:84] Creating Layer data_lattice1
I0801 20:15:52.789611 23822 net.cpp:406] data_lattice1 <- data_data_0_split_2
I0801 20:15:52.789630 23822 net.cpp:380] data_lattice1 -> data_lattice1
I0801 20:15:52.791059 23822 net.cpp:122] Setting up data_lattice1
I0801 20:15:52.791072 23822 net.cpp:129] Top shape: 12 3 1 8192 (294912)
I0801 20:15:52.791076 23822 net.cpp:137] Memory required for data: 213516288
I0801 20:15:52.791080 23822 layer_factory.hpp:77] Creating layer fconv2
I0801 20:15:52.791095 23822 net.cpp:84] Creating Layer fconv2
I0801 20:15:52.791098 23822 net.cpp:406] fconv2 <- fbn1_frelu1_0_split_1
I0801 20:15:52.791106 23822 net.cpp:380] fconv2 -> fconv2
I0801 20:15:52.792615 23822 net.cpp:122] Setting up fconv2
I0801 20:15:52.792631 23822 net.cpp:129] Top shape: 12 3 1 8192 (294912)
I0801 20:15:52.792635 23822 net.cpp:137] Memory required for data: 214695936
I0801 20:15:52.792655 23822 layer_factory.hpp:77] Creating layer fbn2
I0801 20:15:52.792665 23822 net.cpp:84] Creating Layer fbn2
I0801 20:15:52.792668 23822 net.cpp:406] fbn2 <- fconv2
I0801 20:15:52.792675 23822 net.cpp:380] fbn2 -> fbn2
I0801 20:15:52.792886 23822 net.cpp:122] Setting up fbn2
I0801 20:15:52.792894 23822 net.cpp:129] Top shape: 12 3 1 8192 (294912)
I0801 20:15:52.792897 23822 net.cpp:137] Memory required for data: 215875584
I0801 20:15:52.792906 23822 layer_factory.hpp:77] Creating layer frelu2
I0801 20:15:52.792918 23822 net.cpp:84] Creating Layer frelu2
I0801 20:15:52.792923 23822 net.cpp:406] frelu2 <- fbn2
I0801 20:15:52.792930 23822 net.cpp:367] frelu2 -> fbn2 (in-place)
I0801 20:15:52.793200 23822 net.cpp:122] Setting up frelu2
I0801 20:15:52.793210 23822 net.cpp:129] Top shape: 12 3 1 8192 (294912)
I0801 20:15:52.793215 23822 net.cpp:137] Memory required for data: 217055232
I0801 20:15:52.793218 23822 layer_factory.hpp:77] Creating layer fbn2_frelu2_0_split
I0801 20:15:52.793226 23822 net.cpp:84] Creating Layer fbn2_frelu2_0_split
I0801 20:15:52.793229 23822 net.cpp:406] fbn2_frelu2_0_split <- fbn2
I0801 20:15:52.793236 23822 net.cpp:380] fbn2_frelu2_0_split -> fbn2_frelu2_0_split_0
I0801 20:15:52.793247 23822 net.cpp:380] fbn2_frelu2_0_split -> fbn2_frelu2_0_split_1
I0801 20:15:52.793298 23822 net.cpp:122] Setting up fbn2_frelu2_0_split
I0801 20:15:52.793306 23822 net.cpp:129] Top shape: 12 3 1 8192 (294912)
I0801 20:15:52.793323 23822 net.cpp:129] Top shape: 12 3 1 8192 (294912)
I0801 20:15:52.793325 23822 net.cpp:137] Memory required for data: 219414528
I0801 20:15:52.793329 23822 layer_factory.hpp:77] Creating layer feat2
I0801 20:15:52.793356 23822 net.cpp:84] Creating Layer feat2
I0801 20:15:52.793360 23822 net.cpp:406] feat2 <- data_lattice1
I0801 20:15:52.793367 23822 net.cpp:406] feat2 <- fbn2_frelu2_0_split_0
I0801 20:15:52.793373 23822 net.cpp:380] feat2 -> feat2
I0801 20:15:52.793397 23822 net.cpp:122] Setting up feat2
I0801 20:15:52.793403 23822 net.cpp:129] Top shape: 12 3 1 8192 (294912)
I0801 20:15:52.793406 23822 net.cpp:137] Memory required for data: 220594176
I0801 20:15:52.793411 23822 layer_factory.hpp:77] Creating layer feat2_feat2_0_split
I0801 20:15:52.793416 23822 net.cpp:84] Creating Layer feat2_feat2_0_split
I0801 20:15:52.793419 23822 net.cpp:406] feat2_feat2_0_split <- feat2
I0801 20:15:52.793424 23822 net.cpp:380] feat2_feat2_0_split -> feat2_feat2_0_split_0
I0801 20:15:52.793442 23822 net.cpp:380] feat2_feat2_0_split -> feat2_feat2_0_split_1
I0801 20:15:52.793473 23822 net.cpp:122] Setting up feat2_feat2_0_split
I0801 20:15:52.793480 23822 net.cpp:129] Top shape: 12 3 1 8192 (294912)
I0801 20:15:52.793484 23822 net.cpp:129] Top shape: 12 3 1 8192 (294912)
I0801 20:15:52.793488 23822 net.cpp:137] Memory required for data: 222953472
I0801 20:15:52.793490 23822 layer_factory.hpp:77] Creating layer conv3
I0801 20:15:52.793499 23822 net.cpp:84] Creating Layer conv3
I0801 20:15:52.793503 23822 net.cpp:406] conv3 <- bn2_relu2_0_split_0
I0801 20:15:52.793509 23822 net.cpp:406] conv3 <- feat2_feat2_0_split_0
I0801 20:15:52.793512 23822 net.cpp:406] conv3 <- feat2_feat2_0_split_1
I0801 20:15:52.793519 23822 net.cpp:380] conv3 -> conv3
I0801 20:15:52.809494 23822 net.cpp:122] Setting up conv3
I0801 20:15:52.809520 23822 net.cpp:129] Top shape: 12 128 1 8192 (12582912)
I0801 20:15:52.809523 23822 net.cpp:137] Memory required for data: 273285120
I0801 20:15:52.809533 23822 layer_factory.hpp:77] Creating layer bn3
I0801 20:15:52.809547 23822 net.cpp:84] Creating Layer bn3
I0801 20:15:52.809553 23822 net.cpp:406] bn3 <- conv3
I0801 20:15:52.809561 23822 net.cpp:380] bn3 -> bn3
I0801 20:15:52.809767 23822 net.cpp:122] Setting up bn3
I0801 20:15:52.809777 23822 net.cpp:129] Top shape: 12 128 1 8192 (12582912)
I0801 20:15:52.809780 23822 net.cpp:137] Memory required for data: 323616768
I0801 20:15:52.809789 23822 layer_factory.hpp:77] Creating layer relu3
I0801 20:15:52.809815 23822 net.cpp:84] Creating Layer relu3
I0801 20:15:52.809820 23822 net.cpp:406] relu3 <- bn3
I0801 20:15:52.809825 23822 net.cpp:367] relu3 -> bn3 (in-place)
I0801 20:15:52.810623 23822 net.cpp:122] Setting up relu3
I0801 20:15:52.810637 23822 net.cpp:129] Top shape: 12 128 1 8192 (12582912)
I0801 20:15:52.810640 23822 net.cpp:137] Memory required for data: 373948416
I0801 20:15:52.810644 23822 layer_factory.hpp:77] Creating layer bn3_relu3_0_split
I0801 20:15:52.810652 23822 net.cpp:84] Creating Layer bn3_relu3_0_split
I0801 20:15:52.810655 23822 net.cpp:406] bn3_relu3_0_split <- bn3
I0801 20:15:52.810662 23822 net.cpp:380] bn3_relu3_0_split -> bn3_relu3_0_split_0
I0801 20:15:52.810668 23822 net.cpp:380] bn3_relu3_0_split -> bn3_relu3_0_split_1
I0801 20:15:52.810704 23822 net.cpp:122] Setting up bn3_relu3_0_split
I0801 20:15:52.810715 23822 net.cpp:129] Top shape: 12 128 1 8192 (12582912)
I0801 20:15:52.810719 23822 net.cpp:129] Top shape: 12 128 1 8192 (12582912)
I0801 20:15:52.810721 23822 net.cpp:137] Memory required for data: 474611712
I0801 20:15:52.810724 23822 layer_factory.hpp:77] Creating layer data_lattice2
I0801 20:15:52.810793 23822 net.cpp:84] Creating Layer data_lattice2
I0801 20:15:52.810801 23822 net.cpp:406] data_lattice2 <- data_data_0_split_3
I0801 20:15:52.810808 23822 net.cpp:380] data_lattice2 -> data_lattice2
I0801 20:15:52.812216 23822 net.cpp:122] Setting up data_lattice2
I0801 20:15:52.812229 23822 net.cpp:129] Top shape: 12 3 1 8192 (294912)
I0801 20:15:52.812233 23822 net.cpp:137] Memory required for data: 475791360
I0801 20:15:52.812237 23822 layer_factory.hpp:77] Creating layer fconv3
I0801 20:15:52.812266 23822 net.cpp:84] Creating Layer fconv3
I0801 20:15:52.812273 23822 net.cpp:406] fconv3 <- fbn2_frelu2_0_split_1
I0801 20:15:52.812279 23822 net.cpp:380] fconv3 -> fconv3
I0801 20:15:52.813776 23822 net.cpp:122] Setting up fconv3
I0801 20:15:52.813791 23822 net.cpp:129] Top shape: 12 3 1 8192 (294912)
I0801 20:15:52.813793 23822 net.cpp:137] Memory required for data: 476971008
I0801 20:15:52.813807 23822 layer_factory.hpp:77] Creating layer fbn3
I0801 20:15:52.813815 23822 net.cpp:84] Creating Layer fbn3
I0801 20:15:52.813819 23822 net.cpp:406] fbn3 <- fconv3
I0801 20:15:52.813825 23822 net.cpp:380] fbn3 -> fbn3
I0801 20:15:52.814035 23822 net.cpp:122] Setting up fbn3
I0801 20:15:52.814044 23822 net.cpp:129] Top shape: 12 3 1 8192 (294912)
I0801 20:15:52.814049 23822 net.cpp:137] Memory required for data: 478150656
I0801 20:15:52.814055 23822 layer_factory.hpp:77] Creating layer frelu3
I0801 20:15:52.814061 23822 net.cpp:84] Creating Layer frelu3
I0801 20:15:52.814065 23822 net.cpp:406] frelu3 <- fbn3
I0801 20:15:52.814070 23822 net.cpp:367] frelu3 -> fbn3 (in-place)
I0801 20:15:52.814342 23822 net.cpp:122] Setting up frelu3
I0801 20:15:52.814352 23822 net.cpp:129] Top shape: 12 3 1 8192 (294912)
I0801 20:15:52.814355 23822 net.cpp:137] Memory required for data: 479330304
I0801 20:15:52.814358 23822 layer_factory.hpp:77] Creating layer fbn3_frelu3_0_split
I0801 20:15:52.814365 23822 net.cpp:84] Creating Layer fbn3_frelu3_0_split
I0801 20:15:52.814369 23822 net.cpp:406] fbn3_frelu3_0_split <- fbn3
I0801 20:15:52.814375 23822 net.cpp:380] fbn3_frelu3_0_split -> fbn3_frelu3_0_split_0
I0801 20:15:52.814381 23822 net.cpp:380] fbn3_frelu3_0_split -> fbn3_frelu3_0_split_1
I0801 20:15:52.814420 23822 net.cpp:122] Setting up fbn3_frelu3_0_split
I0801 20:15:52.814425 23822 net.cpp:129] Top shape: 12 3 1 8192 (294912)
I0801 20:15:52.814429 23822 net.cpp:129] Top shape: 12 3 1 8192 (294912)
I0801 20:15:52.814432 23822 net.cpp:137] Memory required for data: 481689600
I0801 20:15:52.814437 23822 layer_factory.hpp:77] Creating layer feat3
I0801 20:15:52.814452 23822 net.cpp:84] Creating Layer feat3
I0801 20:15:52.814456 23822 net.cpp:406] feat3 <- data_lattice2
I0801 20:15:52.814461 23822 net.cpp:406] feat3 <- fbn3_frelu3_0_split_0
I0801 20:15:52.814481 23822 net.cpp:380] feat3 -> feat3
I0801 20:15:52.814504 23822 net.cpp:122] Setting up feat3
I0801 20:15:52.814512 23822 net.cpp:129] Top shape: 12 3 1 8192 (294912)
I0801 20:15:52.814515 23822 net.cpp:137] Memory required for data: 482869248
I0801 20:15:52.814523 23822 layer_factory.hpp:77] Creating layer feat3_feat3_0_split
I0801 20:15:52.814529 23822 net.cpp:84] Creating Layer feat3_feat3_0_split
I0801 20:15:52.814533 23822 net.cpp:406] feat3_feat3_0_split <- feat3
I0801 20:15:52.814543 23822 net.cpp:380] feat3_feat3_0_split -> feat3_feat3_0_split_0
I0801 20:15:52.814550 23822 net.cpp:380] feat3_feat3_0_split -> feat3_feat3_0_split_1
I0801 20:15:52.814594 23822 net.cpp:122] Setting up feat3_feat3_0_split
I0801 20:15:52.814601 23822 net.cpp:129] Top shape: 12 3 1 8192 (294912)
I0801 20:15:52.814605 23822 net.cpp:129] Top shape: 12 3 1 8192 (294912)
I0801 20:15:52.814608 23822 net.cpp:137] Memory required for data: 485228544
I0801 20:15:52.814611 23822 layer_factory.hpp:77] Creating layer conv4
I0801 20:15:52.814620 23822 net.cpp:84] Creating Layer conv4
I0801 20:15:52.814623 23822 net.cpp:406] conv4 <- bn3_relu3_0_split_0
I0801 20:15:52.814628 23822 net.cpp:406] conv4 <- feat3_feat3_0_split_0
I0801 20:15:52.814633 23822 net.cpp:406] conv4 <- feat3_feat3_0_split_1
I0801 20:15:52.814640 23822 net.cpp:380] conv4 -> conv4
I0801 20:15:52.879577 23822 net.cpp:122] Setting up conv4
I0801 20:15:52.879618 23822 net.cpp:129] Top shape: 12 256 1 8192 (25165824)
I0801 20:15:52.879622 23822 net.cpp:137] Memory required for data: 585891840
I0801 20:15:52.879634 23822 layer_factory.hpp:77] Creating layer bn4
I0801 20:15:52.879647 23822 net.cpp:84] Creating Layer bn4
I0801 20:15:52.879653 23822 net.cpp:406] bn4 <- conv4
I0801 20:15:52.879662 23822 net.cpp:380] bn4 -> bn4
I0801 20:15:52.879886 23822 net.cpp:122] Setting up bn4
I0801 20:15:52.879896 23822 net.cpp:129] Top shape: 12 256 1 8192 (25165824)
I0801 20:15:52.879900 23822 net.cpp:137] Memory required for data: 686555136
I0801 20:15:52.879918 23822 layer_factory.hpp:77] Creating layer relu4
I0801 20:15:52.879947 23822 net.cpp:84] Creating Layer relu4
I0801 20:15:52.879953 23822 net.cpp:406] relu4 <- bn4
I0801 20:15:52.879959 23822 net.cpp:367] relu4 -> bn4 (in-place)
I0801 20:15:52.880874 23822 net.cpp:122] Setting up relu4
I0801 20:15:52.880892 23822 net.cpp:129] Top shape: 12 256 1 8192 (25165824)
I0801 20:15:52.880895 23822 net.cpp:137] Memory required for data: 787218432
I0801 20:15:52.880908 23822 layer_factory.hpp:77] Creating layer bn4_relu4_0_split
I0801 20:15:52.880916 23822 net.cpp:84] Creating Layer bn4_relu4_0_split
I0801 20:15:52.880920 23822 net.cpp:406] bn4_relu4_0_split <- bn4
I0801 20:15:52.880928 23822 net.cpp:380] bn4_relu4_0_split -> bn4_relu4_0_split_0
I0801 20:15:52.880934 23822 net.cpp:380] bn4_relu4_0_split -> bn4_relu4_0_split_1
I0801 20:15:52.880973 23822 net.cpp:122] Setting up bn4_relu4_0_split
I0801 20:15:52.880978 23822 net.cpp:129] Top shape: 12 256 1 8192 (25165824)
I0801 20:15:52.880982 23822 net.cpp:129] Top shape: 12 256 1 8192 (25165824)
I0801 20:15:52.880985 23822 net.cpp:137] Memory required for data: 988545024
I0801 20:15:52.880988 23822 layer_factory.hpp:77] Creating layer data_lattice3
I0801 20:15:52.881052 23822 net.cpp:84] Creating Layer data_lattice3
I0801 20:15:52.881060 23822 net.cpp:406] data_lattice3 <- data_data_0_split_4
I0801 20:15:52.881078 23822 net.cpp:380] data_lattice3 -> data_lattice3
I0801 20:15:52.882473 23822 net.cpp:122] Setting up data_lattice3
I0801 20:15:52.882488 23822 net.cpp:129] Top shape: 12 3 1 8192 (294912)
I0801 20:15:52.882493 23822 net.cpp:137] Memory required for data: 989724672
I0801 20:15:52.882495 23822 layer_factory.hpp:77] Creating layer fconv4
I0801 20:15:52.882509 23822 net.cpp:84] Creating Layer fconv4
I0801 20:15:52.882514 23822 net.cpp:406] fconv4 <- fbn3_frelu3_0_split_1
I0801 20:15:52.882521 23822 net.cpp:380] fconv4 -> fconv4
I0801 20:15:52.884027 23822 net.cpp:122] Setting up fconv4
I0801 20:15:52.884040 23822 net.cpp:129] Top shape: 12 3 1 8192 (294912)
I0801 20:15:52.884043 23822 net.cpp:137] Memory required for data: 990904320
I0801 20:15:52.884052 23822 layer_factory.hpp:77] Creating layer fbn4
I0801 20:15:52.884058 23822 net.cpp:84] Creating Layer fbn4
I0801 20:15:52.884063 23822 net.cpp:406] fbn4 <- fconv4
I0801 20:15:52.884068 23822 net.cpp:380] fbn4 -> fbn4
I0801 20:15:52.884282 23822 net.cpp:122] Setting up fbn4
I0801 20:15:52.884291 23822 net.cpp:129] Top shape: 12 3 1 8192 (294912)
I0801 20:15:52.884294 23822 net.cpp:137] Memory required for data: 992083968
I0801 20:15:52.884311 23822 layer_factory.hpp:77] Creating layer frelu4
I0801 20:15:52.884322 23822 net.cpp:84] Creating Layer frelu4
I0801 20:15:52.884328 23822 net.cpp:406] frelu4 <- fbn4
I0801 20:15:52.884335 23822 net.cpp:367] frelu4 -> fbn4 (in-place)
I0801 20:15:52.884632 23822 net.cpp:122] Setting up frelu4
I0801 20:15:52.884644 23822 net.cpp:129] Top shape: 12 3 1 8192 (294912)
I0801 20:15:52.884647 23822 net.cpp:137] Memory required for data: 993263616
I0801 20:15:52.884650 23822 layer_factory.hpp:77] Creating layer fbn4_frelu4_0_split
I0801 20:15:52.884657 23822 net.cpp:84] Creating Layer fbn4_frelu4_0_split
I0801 20:15:52.884661 23822 net.cpp:406] fbn4_frelu4_0_split <- fbn4
I0801 20:15:52.884667 23822 net.cpp:380] fbn4_frelu4_0_split -> fbn4_frelu4_0_split_0
I0801 20:15:52.884675 23822 net.cpp:380] fbn4_frelu4_0_split -> fbn4_frelu4_0_split_1
I0801 20:15:52.884712 23822 net.cpp:122] Setting up fbn4_frelu4_0_split
I0801 20:15:52.884718 23822 net.cpp:129] Top shape: 12 3 1 8192 (294912)
I0801 20:15:52.884722 23822 net.cpp:129] Top shape: 12 3 1 8192 (294912)
I0801 20:15:52.884726 23822 net.cpp:137] Memory required for data: 995622912
I0801 20:15:52.884728 23822 layer_factory.hpp:77] Creating layer feat4
I0801 20:15:52.884737 23822 net.cpp:84] Creating Layer feat4
I0801 20:15:52.884742 23822 net.cpp:406] feat4 <- data_lattice3
I0801 20:15:52.884747 23822 net.cpp:406] feat4 <- fbn4_frelu4_0_split_0
I0801 20:15:52.884753 23822 net.cpp:380] feat4 -> feat4
I0801 20:15:52.884776 23822 net.cpp:122] Setting up feat4
I0801 20:15:52.884783 23822 net.cpp:129] Top shape: 12 3 1 8192 (294912)
I0801 20:15:52.884799 23822 net.cpp:137] Memory required for data: 996802560
I0801 20:15:52.884801 23822 layer_factory.hpp:77] Creating layer feat4_feat4_0_split
I0801 20:15:52.884806 23822 net.cpp:84] Creating Layer feat4_feat4_0_split
I0801 20:15:52.884809 23822 net.cpp:406] feat4_feat4_0_split <- feat4
I0801 20:15:52.884815 23822 net.cpp:380] feat4_feat4_0_split -> feat4_feat4_0_split_0
I0801 20:15:52.884821 23822 net.cpp:380] feat4_feat4_0_split -> feat4_feat4_0_split_1
I0801 20:15:52.884851 23822 net.cpp:122] Setting up feat4_feat4_0_split
I0801 20:15:52.884858 23822 net.cpp:129] Top shape: 12 3 1 8192 (294912)
I0801 20:15:52.884873 23822 net.cpp:129] Top shape: 12 3 1 8192 (294912)
I0801 20:15:52.884876 23822 net.cpp:137] Memory required for data: 999161856
I0801 20:15:52.884879 23822 layer_factory.hpp:77] Creating layer conv5
I0801 20:15:52.884896 23822 net.cpp:84] Creating Layer conv5
I0801 20:15:52.884899 23822 net.cpp:406] conv5 <- bn4_relu4_0_split_0
I0801 20:15:52.884904 23822 net.cpp:406] conv5 <- feat4_feat4_0_split_0
I0801 20:15:52.884909 23822 net.cpp:406] conv5 <- feat4_feat4_0_split_1
I0801 20:15:52.884915 23822 net.cpp:380] conv5 -> conv5
I0801 20:15:52.905771 23824 solver.cpp:190] Creating test net (#0) specified by test_net file: area6_netm_sum3D.prototxt
I0801 20:15:52.905763 23823 solver.cpp:190] Creating test net (#0) specified by test_net file: area6_netm_sum3D.prototxt
I0801 20:15:53.012298 23822 net.cpp:122] Setting up conv5
I0801 20:15:53.012343 23822 net.cpp:129] Top shape: 12 256 1 8192 (25165824)
I0801 20:15:53.012348 23822 net.cpp:137] Memory required for data: 1099825152
I0801 20:15:53.012362 23822 layer_factory.hpp:77] Creating layer bn5
I0801 20:15:53.012377 23822 net.cpp:84] Creating Layer bn5
I0801 20:15:53.012383 23822 net.cpp:406] bn5 <- conv5
I0801 20:15:53.012394 23822 net.cpp:380] bn5 -> bn5
I0801 20:15:53.012614 23822 net.cpp:122] Setting up bn5
I0801 20:15:53.012622 23822 net.cpp:129] Top shape: 12 256 1 8192 (25165824)
I0801 20:15:53.012626 23822 net.cpp:137] Memory required for data: 1200488448
I0801 20:15:53.012634 23822 layer_factory.hpp:77] Creating layer relu5
I0801 20:15:53.012642 23822 net.cpp:84] Creating Layer relu5
I0801 20:15:53.012646 23822 net.cpp:406] relu5 <- bn5
I0801 20:15:53.012651 23822 net.cpp:367] relu5 -> bn5 (in-place)
I0801 20:15:53.013620 23822 net.cpp:122] Setting up relu5
I0801 20:15:53.013634 23822 net.cpp:129] Top shape: 12 256 1 8192 (25165824)
I0801 20:15:53.013638 23822 net.cpp:137] Memory required for data: 1301151744
I0801 20:15:53.013641 23822 layer_factory.hpp:77] Creating layer bn5_relu5_0_split
I0801 20:15:53.013649 23822 net.cpp:84] Creating Layer bn5_relu5_0_split
I0801 20:15:53.013653 23822 net.cpp:406] bn5_relu5_0_split <- bn5
I0801 20:15:53.013659 23822 net.cpp:380] bn5_relu5_0_split -> bn5_relu5_0_split_0
I0801 20:15:53.013667 23822 net.cpp:380] bn5_relu5_0_split -> bn5_relu5_0_split_1
I0801 20:15:53.013730 23822 net.cpp:122] Setting up bn5_relu5_0_split
I0801 20:15:53.013737 23822 net.cpp:129] Top shape: 12 256 1 8192 (25165824)
I0801 20:15:53.013743 23822 net.cpp:129] Top shape: 12 256 1 8192 (25165824)
I0801 20:15:53.013746 23822 net.cpp:137] Memory required for data: 1502478336
I0801 20:15:53.013749 23822 layer_factory.hpp:77] Creating layer data_lattice4
I0801 20:15:53.013820 23822 net.cpp:84] Creating Layer data_lattice4
I0801 20:15:53.013829 23822 net.cpp:406] data_lattice4 <- data_data_0_split_5
I0801 20:15:53.013837 23822 net.cpp:380] data_lattice4 -> data_lattice4
I0801 20:15:53.015292 23822 net.cpp:122] Setting up data_lattice4
I0801 20:15:53.015306 23822 net.cpp:129] Top shape: 12 3 1 8192 (294912)
I0801 20:15:53.015311 23822 net.cpp:137] Memory required for data: 1503657984
I0801 20:15:53.015322 23822 layer_factory.hpp:77] Creating layer fconv5
I0801 20:15:53.015338 23822 net.cpp:84] Creating Layer fconv5
I0801 20:15:53.015342 23822 net.cpp:406] fconv5 <- fbn4_frelu4_0_split_1
I0801 20:15:53.015349 23822 net.cpp:380] fconv5 -> fconv5
I0801 20:15:53.016836 23822 net.cpp:122] Setting up fconv5
I0801 20:15:53.016850 23822 net.cpp:129] Top shape: 12 3 1 8192 (294912)
I0801 20:15:53.016855 23822 net.cpp:137] Memory required for data: 1504837632
I0801 20:15:53.016860 23822 layer_factory.hpp:77] Creating layer fbn5
I0801 20:15:53.016867 23822 net.cpp:84] Creating Layer fbn5
I0801 20:15:53.016871 23822 net.cpp:406] fbn5 <- fconv5
I0801 20:15:53.016877 23822 net.cpp:380] fbn5 -> fbn5
I0801 20:15:53.017076 23822 net.cpp:122] Setting up fbn5
I0801 20:15:53.017086 23822 net.cpp:129] Top shape: 12 3 1 8192 (294912)
I0801 20:15:53.017088 23822 net.cpp:137] Memory required for data: 1506017280
I0801 20:15:53.017096 23822 layer_factory.hpp:77] Creating layer frelu5
I0801 20:15:53.017102 23822 net.cpp:84] Creating Layer frelu5
I0801 20:15:53.017107 23822 net.cpp:406] frelu5 <- fbn5
I0801 20:15:53.017112 23822 net.cpp:367] frelu5 -> fbn5 (in-place)
I0801 20:15:53.017737 23822 net.cpp:122] Setting up frelu5
I0801 20:15:53.017751 23822 net.cpp:129] Top shape: 12 3 1 8192 (294912)
I0801 20:15:53.017755 23822 net.cpp:137] Memory required for data: 1507196928
I0801 20:15:53.017760 23822 layer_factory.hpp:77] Creating layer feat5
I0801 20:15:53.017776 23822 net.cpp:84] Creating Layer feat5
I0801 20:15:53.017781 23822 net.cpp:406] feat5 <- data_lattice4
I0801 20:15:53.017786 23822 net.cpp:406] feat5 <- fbn5
I0801 20:15:53.017792 23822 net.cpp:380] feat5 -> feat5
I0801 20:15:53.017822 23822 net.cpp:122] Setting up feat5
I0801 20:15:53.017828 23822 net.cpp:129] Top shape: 12 3 1 8192 (294912)
I0801 20:15:53.017832 23822 net.cpp:137] Memory required for data: 1508376576
I0801 20:15:53.017834 23822 layer_factory.hpp:77] Creating layer feat5_feat5_0_split
I0801 20:15:53.017841 23822 net.cpp:84] Creating Layer feat5_feat5_0_split
I0801 20:15:53.017855 23822 net.cpp:406] feat5_feat5_0_split <- feat5
I0801 20:15:53.017873 23822 net.cpp:380] feat5_feat5_0_split -> feat5_feat5_0_split_0
I0801 20:15:53.017884 23822 net.cpp:380] feat5_feat5_0_split -> feat5_feat5_0_split_1
I0801 20:15:53.017920 23822 net.cpp:122] Setting up feat5_feat5_0_split
I0801 20:15:53.017927 23822 net.cpp:129] Top shape: 12 3 1 8192 (294912)
I0801 20:15:53.017931 23822 net.cpp:129] Top shape: 12 3 1 8192 (294912)
I0801 20:15:53.017935 23822 net.cpp:137] Memory required for data: 1510735872
I0801 20:15:53.017938 23822 layer_factory.hpp:77] Creating layer conv6
I0801 20:15:53.017947 23822 net.cpp:84] Creating Layer conv6
I0801 20:15:53.017951 23822 net.cpp:406] conv6 <- bn5_relu5_0_split_0
I0801 20:15:53.017956 23822 net.cpp:406] conv6 <- feat5_feat5_0_split_0
I0801 20:15:53.017961 23822 net.cpp:406] conv6 <- feat5_feat5_0_split_1
I0801 20:15:53.017966 23822 net.cpp:380] conv6 -> conv6
I0801 20:15:53.143038 23822 net.cpp:122] Setting up conv6
I0801 20:15:53.143086 23822 net.cpp:129] Top shape: 12 256 1 8192 (25165824)
I0801 20:15:53.143090 23822 net.cpp:137] Memory required for data: 1611399168
I0801 20:15:53.143106 23822 layer_factory.hpp:77] Creating layer bn6
I0801 20:15:53.143123 23822 net.cpp:84] Creating Layer bn6
I0801 20:15:53.143131 23822 net.cpp:406] bn6 <- conv6
I0801 20:15:53.143142 23822 net.cpp:380] bn6 -> bn6
I0801 20:15:53.143358 23822 net.cpp:122] Setting up bn6
I0801 20:15:53.143368 23822 net.cpp:129] Top shape: 12 256 1 8192 (25165824)
I0801 20:15:53.143371 23822 net.cpp:137] Memory required for data: 1712062464
I0801 20:15:53.143391 23822 layer_factory.hpp:77] Creating layer relu6
I0801 20:15:53.143417 23822 net.cpp:84] Creating Layer relu6
I0801 20:15:53.143424 23822 net.cpp:406] relu6 <- bn6
I0801 20:15:53.143429 23822 net.cpp:367] relu6 -> bn6 (in-place)
I0801 20:15:53.143862 23822 net.cpp:122] Setting up relu6
I0801 20:15:53.143875 23822 net.cpp:129] Top shape: 12 256 1 8192 (25165824)
I0801 20:15:53.143878 23822 net.cpp:137] Memory required for data: 1812725760
I0801 20:15:53.143890 23822 layer_factory.hpp:77] Creating layer concat6_
I0801 20:15:53.143954 23822 net.cpp:84] Creating Layer concat6_
I0801 20:15:53.143965 23822 net.cpp:406] concat6_ <- bn1_relu1_0_split_1
I0801 20:15:53.143982 23822 net.cpp:406] concat6_ <- bn6
I0801 20:15:53.143986 23822 net.cpp:406] concat6_ <- bn2_relu2_0_split_1
I0801 20:15:53.143990 23822 net.cpp:406] concat6_ <- bn3_relu3_0_split_1
I0801 20:15:53.143995 23822 net.cpp:406] concat6_ <- bn4_relu4_0_split_1
I0801 20:15:53.143998 23822 net.cpp:406] concat6_ <- bn5_relu5_0_split_1
I0801 20:15:53.144004 23822 net.cpp:380] concat6_ -> concat6_
I0801 20:15:53.144055 23822 net.cpp:122] Setting up concat6_
I0801 20:15:53.144065 23822 net.cpp:129] Top shape: 12 992 1 8192 (97517568)
I0801 20:15:53.144068 23822 net.cpp:137] Memory required for data: 2202796032
I0801 20:15:53.144073 23822 layer_factory.hpp:77] Creating layer conv7_
I0801 20:15:53.144088 23822 net.cpp:84] Creating Layer conv7_
I0801 20:15:53.144093 23822 net.cpp:406] conv7_ <- concat6_
I0801 20:15:53.144099 23822 net.cpp:380] conv7_ -> conv7_
I0801 20:15:53.146811 23822 net.cpp:122] Setting up conv7_
I0801 20:15:53.146837 23822 net.cpp:129] Top shape: 12 128 1 8192 (12582912)
I0801 20:15:53.146842 23822 net.cpp:137] Memory required for data: 2253127680
I0801 20:15:53.146849 23822 layer_factory.hpp:77] Creating layer bn7
I0801 20:15:53.146873 23822 net.cpp:84] Creating Layer bn7
I0801 20:15:53.146878 23822 net.cpp:406] bn7 <- conv7_
I0801 20:15:53.146884 23822 net.cpp:380] bn7 -> bn7
I0801 20:15:53.147073 23822 net.cpp:122] Setting up bn7
I0801 20:15:53.147083 23822 net.cpp:129] Top shape: 12 128 1 8192 (12582912)
I0801 20:15:53.147085 23822 net.cpp:137] Memory required for data: 2303459328
I0801 20:15:53.147094 23822 layer_factory.hpp:77] Creating layer relu7
I0801 20:15:53.147099 23822 net.cpp:84] Creating Layer relu7
I0801 20:15:53.147104 23822 net.cpp:406] relu7 <- bn7
I0801 20:15:53.147119 23822 net.cpp:367] relu7 -> bn7 (in-place)
I0801 20:15:53.147754 23822 net.cpp:122] Setting up relu7
I0801 20:15:53.147768 23822 net.cpp:129] Top shape: 12 128 1 8192 (12582912)
I0801 20:15:53.147783 23822 net.cpp:137] Memory required for data: 2353790976
I0801 20:15:53.147788 23822 layer_factory.hpp:77] Creating layer conv8
I0801 20:15:53.147799 23822 net.cpp:84] Creating Layer conv8
I0801 20:15:53.147804 23822 net.cpp:406] conv8 <- bn7
I0801 20:15:53.147810 23822 net.cpp:380] conv8 -> conv8
I0801 20:15:53.150493 23822 net.cpp:122] Setting up conv8
I0801 20:15:53.150518 23822 net.cpp:129] Top shape: 12 13 1 8192 (1277952)
I0801 20:15:53.150522 23822 net.cpp:137] Memory required for data: 2358902784
I0801 20:15:53.150529 23822 layer_factory.hpp:77] Creating layer conv8_conv8_0_split
I0801 20:15:53.150537 23822 net.cpp:84] Creating Layer conv8_conv8_0_split
I0801 20:15:53.150547 23822 net.cpp:406] conv8_conv8_0_split <- conv8
I0801 20:15:53.150553 23822 net.cpp:380] conv8_conv8_0_split -> conv8_conv8_0_split_0
I0801 20:15:53.150562 23822 net.cpp:380] conv8_conv8_0_split -> conv8_conv8_0_split_1
I0801 20:15:53.150604 23822 net.cpp:122] Setting up conv8_conv8_0_split
I0801 20:15:53.150610 23822 net.cpp:129] Top shape: 12 13 1 8192 (1277952)
I0801 20:15:53.150614 23822 net.cpp:129] Top shape: 12 13 1 8192 (1277952)
I0801 20:15:53.150616 23822 net.cpp:137] Memory required for data: 2369126400
I0801 20:15:53.150620 23822 layer_factory.hpp:77] Creating layer loss
I0801 20:15:53.150661 23822 net.cpp:84] Creating Layer loss
I0801 20:15:53.150671 23822 net.cpp:406] loss <- conv8_conv8_0_split_0
I0801 20:15:53.150676 23822 net.cpp:406] loss <- label_data_1_split_0
I0801 20:15:53.150682 23822 net.cpp:380] loss -> loss
…
