…
I0729 18:30:24.566326 16969 net.cpp:294] The NetState phase (0) differed from the phase (1) specified by a rule in layer data
I0729 18:30:24.566891 16969 net.cpp:51] Initializing net from parameters: 
state {
  phase: TRAIN
}
layer {
  name: "data"
  type: "Python"
  top: "data"
  top: "label"
  include {
    phase: TRAIN
  }
  python_param {
    module: "dataset_lidar"
    layer: "InputShapenet"
    param_str: "{\'sample_size\': 70000, \'test_area\': \'6\', \'batch_size\': 1, \'feat_dims\': \'x_y_z\', \'subset\': \'train\', \'root\': \'../../data/shapenet_ericyi_ply\', \'jitter_xyz\': 0.01, \'jitter_stretch\': 0.05, \'jitter_rotation\': 5.0}"
  }
}
layer {
  name: "data_feat"
  type: "Python"
  bottom: "data"
  top: "data_feat"
  python_param {
    module: "custom_layers"
    layer: "PickAndScale"
    param_str: "0_1_2"
  }
}
layer {
  name: "conv1"
  type: "Convolution"
  bottom: "data_feat"
  top: "conv1"
  param {
    lr_mult: 0
  }
  param {
    lr_mult: 0
  }
  convolution_param {
    num_output: 32
    pad: 0
    kernel_size: 1
    stride: 1
    weight_filler {
      type: "xavier"
    }
    bias_filler {
      type: "constant"
      value: 0
    }
  }
}
layer {
  name: "bn1"
  type: "BatchNorm"
  bottom: "conv1"
  top: "bn1"
}
layer {
  name: "relu1"
  type: "ReLU"
  bottom: "bn1"
  top: "bn1"
}
layer {
  name: "fconv1"
  type: "Convolution"
  bottom: "bn1"
  top: "fconv1"
  param {
    lr_mult: 0.5
  }
  param {
    lr_mult: 0.05
  }
  convolution_param {
    num_output: 3
    pad: 0
    kernel_size: 1
    stride: 1
    weight_filler {
      type: "xavier"
    }
    bias_filler {
      type: "constant"
      value: 0
    }
  }
}
layer {
  name: "fbn1"
  type: "BatchNorm"
  bottom: "fconv1"
  top: "fbn1"
}
layer {
  name: "frelu1"
  type: "ReLU"
  bottom: "fbn1"
  top: "fbn1"
}
layer {
  name: "data_lattice0"
  type: "Python"
  bottom: "data"
  top: "data_lattice0"
  python_param {
    module: "custom_layers"
    layer: "PickAndScale"
    param_str: "0*64_1*64_2*64"
  }
}
layer {
  name: "feat1"
  type: "Eltwise"
  bottom: "data_lattice0"
  bottom: "fbn1"
  top: "feat1"
  eltwise_param {
    operation: SUM
  }
}
layer {
  name: "conv2"
  type: "Permutohedral"
  bottom: "bn1"
  bottom: "feat1"
  bottom: "feat1"
  top: "conv2"
  param {
    lr_mult: 0
    decay_mult: 0
  }
  param {
    lr_mult: 0
    decay_mult: 0
  }
  permutohedral_param {
    num_output: 64
    neighborhood_size: 4
    filter_filler {
      type: "gaussian"
      std: 0.001
    }
    bias_term: true
    bias_filler {
      type: "constant"
      value: 0
    }
    group: 1
    norm_type: AFTER
    offset_type: NONE
  }
}
layer {
  name: "bn2"
  type: "BatchNorm"
  bottom: "conv2"
  top: "bn2"
}
layer {
  name: "relu2"
  type: "ReLU"
  bottom: "bn2"
  top: "bn2"
}
layer {
  name: "fconv2"
  type: "Convolution"
  bottom: "bn2"
  top: "fconv2"
  param {
    lr_mult: 0.5
  }
  param {
    lr_mult: 0.05
  }
  convolution_param {
    num_output: 3
    pad: 0
    kernel_size: 1
    stride: 1
    weight_filler {
      type: "xavier"
    }
    bias_filler {
      type: "constant"
      value: 0
    }
  }
}
layer {
  name: "fbn2"
  type: "BatchNorm"
  bottom: "fconv2"
  top: "fbn2"
}
layer {
  name: "frelu2"
  type: "ReLU"
  bottom: "fbn2"
  top: "fbn2"
}
layer {
  name: "data_lattice1"
  type: "Python"
  bottom: "data"
  top: "data_lattice1"
  python_param {
    module: "custom_layers"
    layer: "PickAndScale"
    param_str: "0*32_1*32_2*32"
  }
}
layer {
  name: "feat2"
  type: "Eltwise"
  bottom: "data_lattice1"
  bottom: "fbn2"
  top: "feat2"
  eltwise_param {
    operation: SUM
  }
}
layer {
  name: "conv3"
  type: "Permutohedral"
  bottom: "bn2"
  bottom: "feat2"
  bottom: "feat2"
  top: "conv3"
  param {
    lr_mult: 0
    decay_mult: 0
  }
  param {
    lr_mult: 0
    decay_mult: 0
  }
  permutohedral_param {
    num_output: 128
    neighborhood_size: 4
    filter_filler {
      type: "gaussian"
      std: 0.001
    }
    bias_term: true
    bias_filler {
      type: "constant"
      value: 0
    }
    group: 1
    norm_type: AFTER
    offset_type: NONE
  }
}
layer {
  name: "bn3"
  type: "BatchNorm"
  bottom: "conv3"
  top: "bn3"
}
layer {
  name: "relu3"
  type: "ReLU"
  bottom: "bn3"
  top: "bn3"
}
layer {
  name: "fconv3"
  type: "Convolution"
  bottom: "bn3"
  top: "fconv3"
  param {
    lr_mult: 0.5
  }
  param {
    lr_mult: 0.05
  }
  convolution_param {
    num_output: 3
    pad: 0
    kernel_size: 1
    stride: 1
    weight_filler {
      type: "xavier"
    }
    bias_filler {
      type: "constant"
      value: 0
    }
  }
}
layer {
  name: "fbn3"
  type: "BatchNorm"
  bottom: "fconv3"
  top: "fbn3"
}
layer {
  name: "frelu3"
  type: "ReLU"
  bottom: "fbn3"
  top: "fbn3"
}
layer {
  name: "data_lattice2"
  type: "Python"
  bottom: "data"
  top: "data_lattice2"
  python_param {
    module: "custom_layers"
    layer: "PickAndScale"
    param_str: "0*16_1*16_2*16"
  }
}
layer {
  name: "feat3"
  type: "Eltwise"
  bottom: "data_lattice2"
  bottom: "fbn3"
  top: "feat3"
  eltwise_param {
    operation: SUM
  }
}
layer {
  name: "conv4"
  type: "Permutohedral"
  bottom: "bn3"
  bottom: "feat3"
  bottom: "feat3"
  top: "conv4"
  param {
    lr_mult: 0
    decay_mult: 0
  }
  param {
    lr_mult: 0
    decay_mult: 0
  }
  permutohedral_param {
    num_output: 256
    neighborhood_size: 2
    filter_filler {
      type: "gaussian"
      std: 0.001
    }
    bias_term: true
    bias_filler {
      type: "constant"
      value: 0
    }
    group: 1
    norm_type: AFTER
    offset_type: NONE
  }
}
layer {
  name: "bn4"
  type: "BatchNorm"
  bottom: "conv4"
  top: "bn4"
}
layer {
  name: "relu4"
  type: "ReLU"
  bottom: "bn4"
  top: "bn4"
}
layer {
  name: "fconv4"
  type: "Convolution"
  bottom: "bn4"
  top: "fconv4"
  param {
    lr_mult: 0.5
  }
  param {
    lr_mult: 0.05
  }
  convolution_param {
    num_output: 3
    pad: 0
    kernel_size: 1
    stride: 1
    weight_filler {
      type: "xavier"
    }
    bias_filler {
      type: "constant"
      value: 0
    }
  }
}
layer {
  name: "fbn4"
  type: "BatchNorm"
  bottom: "fconv4"
  top: "fbn4"
}
layer {
  name: "frelu4"
  type: "ReLU"
  bottom: "fbn4"
  top: "fbn4"
}
layer {
  name: "data_lattice3"
  type: "Python"
  bottom: "data"
  top: "data_lattice3"
  python_param {
    module: "custom_layers"
    layer: "PickAndScale"
    param_str: "0*8_1*8_2*8"
  }
}
layer {
  name: "feat4"
  type: "Eltwise"
  bottom: "data_lattice3"
  bottom: "fbn4"
  top: "feat4"
  eltwise_param {
    operation: SUM
  }
}
layer {
  name: "conv5"
  type: "Permutohedral"
  bottom: "bn4"
  bottom: "feat4"
  bottom: "feat4"
  top: "conv5"
  param {
    lr_mult: 0
    decay_mult: 0
  }
  param {
    lr_mult: 0
    decay_mult: 0
  }
  permutohedral_param {
    num_output: 256
    neighborhood_size: 2
    filter_filler {
      type: "gaussian"
      std: 0.001
    }
    bias_term: true
    bias_filler {
      type: "constant"
      value: 0
    }
    group: 1
    norm_type: AFTER
    offset_type: NONE
  }
}
layer {
  name: "bn5"
  type: "BatchNorm"
  bottom: "conv5"
  top: "bn5"
}
layer {
  name: "relu5"
  type: "ReLU"
  bottom: "bn5"
  top: "bn5"
}
layer {
  name: "fconv5"
  type: "Convolution"
  bottom: "bn5"
  top: "fconv5"
  param {
    lr_mult: 0.5
  }
  param {
    lr_mult: 0.05
  }
  convolution_param {
    num_output: 3
    pad: 0
    kernel_size: 1
    stride: 1
    weight_filler {
      type: "xavier"
    }
    bias_filler {
      type: "constant"
      value: 0
    }
  }
}
layer {
  name: "fbn5"
  type: "BatchNorm"
  bottom: "fconv5"
  top: "fbn5"
}
layer {
  name: "frelu5"
  type: "ReLU"
  bottom: "fbn5"
  top: "fbn5"
}
layer {
  name: "data_lattice4"
  type: "Python"
  bottom: "data"
  top: "data_lattice4"
  python_param {
    module: "custom_layers"
    layer: "PickAndScale"
    param_str: "0*4_1*4_2*4"
  }
}
layer {
  name: "feat5"
  type: "Eltwise"
  bottom: "data_lattice4"
  bottom: "fbn5"
  top: "feat5"
  eltwise_param {
    operation: SUM
  }
}
layer {
  name: "conv6"
  type: "Permutohedral"
  bottom: "bn5"
  bottom: "feat5"
  bottom: "feat5"
  top: "conv6"
  param {
    lr_mult: 0
    decay_mult: 0
  }
  param {
    lr_mult: 0
    decay_mult: 0
  }
  permutohedral_param {
    num_output: 256
    neighborhood_size: 1
    filter_filler {
      type: "gaussian"
      std: 0.001
    }
    bias_term: true
    bias_filler {
      type: "constant"
      value: 0
    }
    group: 1
    norm_type: AFTER
    offset_type: NONE
  }
}
layer {
  name: "bn6"
  type: "BatchNorm"
  bottom: "conv6"
  top: "bn6"
}
layer {
  name: "relu6"
  type: "ReLU"
  bottom: "bn6"
  top: "bn6"
}
layer {
  name: "concat6"
  type: "Concat"
  bottom: "bn6"
  bottom: "bn2"
  bottom: "bn3"
  bottom: "bn4"
  bottom: "bn5"
  top: "concat6"
}
layer {
  name: "conv7"
  type: "Convolution"
  bottom: "concat6"
  top: "conv7"
  param {
    lr_mult: 0
  }
  param {
    lr_mult: 0
  }
  convolution_param {
    num_output: 128
    pad: 0
    kernel_size: 1
    stride: 1
    weight_filler {
      type: "xavier"
    }
    bias_filler {
      type: "constant"
      value: 0
    }
  }
}
layer {
  name: "bn7"
  type: "BatchNorm"
  bottom: "conv7"
  top: "bn7"
}
layer {
  name: "relu7"
  type: "ReLU"
  bottom: "bn7"
  top: "bn7"
}
layer {
  name: "conv8"
  type: "Convolution"
  bottom: "bn7"
  top: "conv8"
  param {
    lr_mult: 0
  }
  param {
    lr_mult: 0
  }
  convolution_param {
    num_output: 13
    pad: 0
    kernel_size: 1
    stride: 1
    weight_filler {
      type: "xavier"
    }
    bias_filler {
      type: "constant"
      value: 0
    }
  }
}
layer {
  name: "loss"
  type: "SoftmaxWithLoss"
  bottom: "conv8"
  bottom: "label"
  top: "loss"
}
layer {
  name: "accuracy"
  type: "Accuracy"
  bottom: "conv8"
  bottom: "label"
  top: "accuracy"
}
I0729 18:30:24.594369 16969 layer_factory.hpp:77] Creating layer data
I0729 18:30:24.609757 16969 net.cpp:84] Creating Layer data
I0729 18:30:24.609807 16969 net.cpp:380] data -> data
I0729 18:30:24.609927 16969 net.cpp:380] data -> label
I0729 18:30:24.624598 16975 upgrade_proto.cpp:1084] Attempting to upgrade input file specified using deprecated 'solver_type' field (enum)': /mnt/lustre/wangjiayun/repos/splatnet/exp/lidar3d/area6/6_solver.prototxt
…
I0729 18:30:24.666628 16973 upgrade_proto.cpp:1084] Attempting to upgrade input file specified using deprecated 'solver_type' field (enum)': /mnt/lustre/wangjiayun/repos/splatnet/exp/lidar3d/area6/6_solver.prototxt
I0729 18:30:24.666700 16973 upgrade_proto.cpp:1091] Successfully upgraded file specified using deprecated 'solver_type' field (enum) to 'type' field (string).
W0729 18:30:24.666707 16973 upgrade_proto.cpp:1093] Note that future Caffe releases will only support 'type' field (string) for a solver's type.
I0729 18:38:32.298925 16969 net.cpp:122] Setting up data
I0729 18:38:32.298986 16969 net.cpp:129] Top shape: 1 3 1 70000 (210000)
I0729 18:38:32.298995 16969 net.cpp:129] Top shape: 1 1 1 70000 (70000)
I0729 18:38:32.298998 16969 net.cpp:137] Memory required for data: 1120000
I0729 18:38:32.299007 16969 layer_factory.hpp:77] Creating layer data_data_0_split
I0729 18:38:32.299055 16969 net.cpp:84] Creating Layer data_data_0_split
I0729 18:38:32.299067 16969 net.cpp:406] data_data_0_split <- data
I0729 18:38:32.299075 16969 net.cpp:380] data_data_0_split -> data_data_0_split_0
I0729 18:38:32.299084 16969 net.cpp:380] data_data_0_split -> data_data_0_split_1
I0729 18:38:32.299090 16969 net.cpp:380] data_data_0_split -> data_data_0_split_2
I0729 18:38:32.299096 16969 net.cpp:380] data_data_0_split -> data_data_0_split_3
I0729 18:38:32.299101 16969 net.cpp:380] data_data_0_split -> data_data_0_split_4
I0729 18:38:32.299106 16969 net.cpp:380] data_data_0_split -> data_data_0_split_5
I0729 18:38:32.299181 16969 net.cpp:122] Setting up data_data_0_split
I0729 18:38:32.299192 16969 net.cpp:129] Top shape: 1 3 1 70000 (210000)
I0729 18:38:32.299196 16969 net.cpp:129] Top shape: 1 3 1 70000 (210000)
I0729 18:38:32.299201 16969 net.cpp:129] Top shape: 1 3 1 70000 (210000)
I0729 18:38:32.299203 16969 net.cpp:129] Top shape: 1 3 1 70000 (210000)
I0729 18:38:32.299207 16969 net.cpp:129] Top shape: 1 3 1 70000 (210000)
I0729 18:38:32.299211 16969 net.cpp:129] Top shape: 1 3 1 70000 (210000)
I0729 18:38:32.299213 16969 net.cpp:137] Memory required for data: 6160000
I0729 18:38:32.299216 16969 layer_factory.hpp:77] Creating layer label_data_1_split
I0729 18:38:32.299222 16969 net.cpp:84] Creating Layer label_data_1_split
I0729 18:38:32.299226 16969 net.cpp:406] label_data_1_split <- label
I0729 18:38:32.299230 16969 net.cpp:380] label_data_1_split -> label_data_1_split_0
I0729 18:38:32.299237 16969 net.cpp:380] label_data_1_split -> label_data_1_split_1
I0729 18:38:32.299262 16969 net.cpp:122] Setting up label_data_1_split
I0729 18:38:32.299269 16969 net.cpp:129] Top shape: 1 1 1 70000 (70000)
I0729 18:38:32.299273 16969 net.cpp:129] Top shape: 1 1 1 70000 (70000)
I0729 18:38:32.299275 16969 net.cpp:137] Memory required for data: 6720000
I0729 18:38:32.299280 16969 layer_factory.hpp:77] Creating layer data_feat
I0729 18:38:32.304850 16969 net.cpp:84] Creating Layer data_feat
I0729 18:38:32.304877 16969 net.cpp:406] data_feat <- data_data_0_split_0
I0729 18:38:32.304885 16969 net.cpp:380] data_feat -> data_feat
I0729 18:38:32.306409 16969 net.cpp:122] Setting up data_feat
I0729 18:38:32.306430 16969 net.cpp:129] Top shape: 1 3 1 70000 (210000)
I0729 18:38:32.306434 16969 net.cpp:137] Memory required for data: 7560000
I0729 18:38:32.306439 16969 layer_factory.hpp:77] Creating layer conv1
I0729 18:38:32.306473 16969 net.cpp:84] Creating Layer conv1
I0729 18:38:32.306480 16969 net.cpp:406] conv1 <- data_feat
I0729 18:38:32.306488 16969 net.cpp:380] conv1 -> conv1
I0729 18:38:35.115840 16969 net.cpp:122] Setting up conv1
I0729 18:38:35.115900 16969 net.cpp:129] Top shape: 1 32 1 70000 (2240000)
I0729 18:38:35.115909 16969 net.cpp:137] Memory required for data: 16520000
I0729 18:38:35.115995 16969 layer_factory.hpp:77] Creating layer bn1
I0729 18:38:35.127992 16969 net.cpp:84] Creating Layer bn1
I0729 18:38:35.128023 16969 net.cpp:406] bn1 <- conv1
I0729 18:38:35.128039 16969 net.cpp:380] bn1 -> bn1
I0729 18:38:35.153915 16969 net.cpp:122] Setting up bn1
I0729 18:38:35.153949 16969 net.cpp:129] Top shape: 1 32 1 70000 (2240000)
I0729 18:38:35.153957 16969 net.cpp:137] Memory required for data: 25480000
I0729 18:38:35.153981 16969 layer_factory.hpp:77] Creating layer relu1
I0729 18:38:35.154050 16969 net.cpp:84] Creating Layer relu1
I0729 18:38:35.154067 16969 net.cpp:406] relu1 <- bn1
I0729 18:38:35.154078 16969 net.cpp:367] relu1 -> bn1 (in-place)
I0729 18:38:35.155139 16969 net.cpp:122] Setting up relu1
I0729 18:38:35.155174 16969 net.cpp:129] Top shape: 1 32 1 70000 (2240000)
I0729 18:38:35.155181 16969 net.cpp:137] Memory required for data: 34440000
I0729 18:38:35.155189 16969 layer_factory.hpp:77] Creating layer bn1_relu1_0_split
I0729 18:38:35.155208 16969 net.cpp:84] Creating Layer bn1_relu1_0_split
I0729 18:38:35.155215 16969 net.cpp:406] bn1_relu1_0_split <- bn1
I0729 18:38:35.155226 16969 net.cpp:380] bn1_relu1_0_split -> bn1_relu1_0_split_0
I0729 18:38:35.155241 16969 net.cpp:380] bn1_relu1_0_split -> bn1_relu1_0_split_1
I0729 18:38:35.155314 16969 net.cpp:122] Setting up bn1_relu1_0_split
I0729 18:38:35.155330 16969 net.cpp:129] Top shape: 1 32 1 70000 (2240000)
I0729 18:38:35.155338 16969 net.cpp:129] Top shape: 1 32 1 70000 (2240000)
I0729 18:38:35.155342 16969 net.cpp:137] Memory required for data: 52360000
I0729 18:38:35.155351 16969 layer_factory.hpp:77] Creating layer fconv1
I0729 18:38:35.155375 16969 net.cpp:84] Creating Layer fconv1
I0729 18:38:35.155385 16969 net.cpp:406] fconv1 <- bn1_relu1_0_split_0
I0729 18:38:35.155396 16969 net.cpp:380] fconv1 -> fconv1
I0729 18:38:35.159189 16969 net.cpp:122] Setting up fconv1
I0729 18:38:35.159220 16969 net.cpp:129] Top shape: 1 3 1 70000 (210000)
I0729 18:38:35.159229 16969 net.cpp:137] Memory required for data: 53200000
I0729 18:38:35.159242 16969 layer_factory.hpp:77] Creating layer fbn1
I0729 18:38:35.159255 16969 net.cpp:84] Creating Layer fbn1
I0729 18:38:35.159263 16969 net.cpp:406] fbn1 <- fconv1
I0729 18:38:35.159274 16969 net.cpp:380] fbn1 -> fbn1
I0729 18:38:35.159775 16969 net.cpp:122] Setting up fbn1
I0729 18:38:35.159795 16969 net.cpp:129] Top shape: 1 3 1 70000 (210000)
I0729 18:38:35.159802 16969 net.cpp:137] Memory required for data: 54040000
I0729 18:38:35.159821 16969 layer_factory.hpp:77] Creating layer frelu1
I0729 18:38:35.159838 16969 net.cpp:84] Creating Layer frelu1
I0729 18:38:35.159845 16969 net.cpp:406] frelu1 <- fbn1
I0729 18:38:35.159854 16969 net.cpp:367] frelu1 -> fbn1 (in-place)
I0729 18:38:35.160362 16969 net.cpp:122] Setting up frelu1
I0729 18:38:35.160382 16969 net.cpp:129] Top shape: 1 3 1 70000 (210000)
I0729 18:38:35.160389 16969 net.cpp:137] Memory required for data: 54880000
I0729 18:38:35.160395 16969 layer_factory.hpp:77] Creating layer data_lattice0
I0729 18:38:35.160496 16969 net.cpp:84] Creating Layer data_lattice0
I0729 18:38:35.160512 16969 net.cpp:406] data_lattice0 <- data_data_0_split_1
I0729 18:38:35.160527 16969 net.cpp:380] data_lattice0 -> data_lattice0
I0729 18:38:35.162879 16969 net.cpp:122] Setting up data_lattice0
I0729 18:38:35.162910 16969 net.cpp:129] Top shape: 1 3 1 70000 (210000)
I0729 18:38:35.162919 16969 net.cpp:137] Memory required for data: 55720000
I0729 18:38:35.162926 16969 layer_factory.hpp:77] Creating layer feat1
I0729 18:38:35.162989 16969 net.cpp:84] Creating Layer feat1
I0729 18:38:35.163007 16969 net.cpp:406] feat1 <- data_lattice0
I0729 18:38:35.163017 16969 net.cpp:406] feat1 <- fbn1
I0729 18:38:35.163028 16969 net.cpp:380] feat1 -> feat1
I0729 18:38:35.163143 16969 net.cpp:122] Setting up feat1
I0729 18:38:35.163164 16969 net.cpp:129] Top shape: 1 3 1 70000 (210000)
I0729 18:38:35.163170 16969 net.cpp:137] Memory required for data: 56560000
I0729 18:38:35.163177 16969 layer_factory.hpp:77] Creating layer feat1_feat1_0_split
I0729 18:38:35.163188 16969 net.cpp:84] Creating Layer feat1_feat1_0_split
I0729 18:38:35.163195 16969 net.cpp:406] feat1_feat1_0_split <- feat1
I0729 18:38:35.163205 16969 net.cpp:380] feat1_feat1_0_split -> feat1_feat1_0_split_0
I0729 18:38:35.163218 16969 net.cpp:380] feat1_feat1_0_split -> feat1_feat1_0_split_1
I0729 18:38:35.163280 16969 net.cpp:122] Setting up feat1_feat1_0_split
I0729 18:38:35.163292 16969 net.cpp:129] Top shape: 1 3 1 70000 (210000)
I0729 18:38:35.163300 16969 net.cpp:129] Top shape: 1 3 1 70000 (210000)
I0729 18:38:35.163305 16969 net.cpp:137] Memory required for data: 58240000
I0729 18:38:35.163312 16969 layer_factory.hpp:77] Creating layer conv2
I0729 18:38:35.163353 16969 net.cpp:84] Creating Layer conv2
I0729 18:38:35.163367 16969 net.cpp:406] conv2 <- bn1_relu1_0_split_1
I0729 18:38:35.163377 16969 net.cpp:406] conv2 <- feat1_feat1_0_split_0
I0729 18:38:35.163383 16969 net.cpp:406] conv2 <- feat1_feat1_0_split_1
I0729 18:38:35.163393 16969 net.cpp:380] conv2 -> conv2
I0729 18:38:35.223565 16969 net.cpp:122] Setting up conv2
I0729 18:38:35.223613 16969 net.cpp:129] Top shape: 1 64 1 70000 (4480000)
I0729 18:38:35.223620 16969 net.cpp:137] Memory required for data: 76160000
I0729 18:38:35.223634 16969 layer_factory.hpp:77] Creating layer bn2
I0729 18:38:35.223645 16969 net.cpp:84] Creating Layer bn2
I0729 18:38:35.223654 16969 net.cpp:406] bn2 <- conv2
I0729 18:38:35.223664 16969 net.cpp:380] bn2 -> bn2
I0729 18:38:35.224095 16969 net.cpp:122] Setting up bn2
I0729 18:38:35.224112 16969 net.cpp:129] Top shape: 1 64 1 70000 (4480000)
I0729 18:38:35.224117 16969 net.cpp:137] Memory required for data: 94080000
I0729 18:38:35.224128 16969 layer_factory.hpp:77] Creating layer relu2
I0729 18:38:35.224143 16969 net.cpp:84] Creating Layer relu2
I0729 18:38:35.224149 16969 net.cpp:406] relu2 <- bn2
I0729 18:38:35.224158 16969 net.cpp:367] relu2 -> bn2 (in-place)
I0729 18:38:35.225270 16969 net.cpp:122] Setting up relu2
I0729 18:38:35.225294 16969 net.cpp:129] Top shape: 1 64 1 70000 (4480000)
I0729 18:38:35.225301 16969 net.cpp:137] Memory required for data: 112000000
I0729 18:38:35.225307 16969 layer_factory.hpp:77] Creating layer bn2_relu2_0_split
I0729 18:38:35.225318 16969 net.cpp:84] Creating Layer bn2_relu2_0_split
I0729 18:38:35.225323 16969 net.cpp:406] bn2_relu2_0_split <- bn2
I0729 18:38:35.225333 16969 net.cpp:380] bn2_relu2_0_split -> bn2_relu2_0_split_0
I0729 18:38:35.225344 16969 net.cpp:380] bn2_relu2_0_split -> bn2_relu2_0_split_1
I0729 18:38:35.225353 16969 net.cpp:380] bn2_relu2_0_split -> bn2_relu2_0_split_2
I0729 18:38:35.225428 16969 net.cpp:122] Setting up bn2_relu2_0_split
I0729 18:38:35.225440 16969 net.cpp:129] Top shape: 1 64 1 70000 (4480000)
I0729 18:38:35.225445 16969 net.cpp:129] Top shape: 1 64 1 70000 (4480000)
I0729 18:38:35.225451 16969 net.cpp:129] Top shape: 1 64 1 70000 (4480000)
I0729 18:38:35.225455 16969 net.cpp:137] Memory required for data: 165760000
I0729 18:38:35.225466 16969 layer_factory.hpp:77] Creating layer fconv2
I0729 18:38:35.225484 16969 net.cpp:84] Creating Layer fconv2
I0729 18:38:35.225492 16969 net.cpp:406] fconv2 <- bn2_relu2_0_split_0
I0729 18:38:35.225504 16969 net.cpp:380] fconv2 -> fconv2
I0729 18:38:35.228750 16969 net.cpp:122] Setting up fconv2
I0729 18:38:35.228776 16969 net.cpp:129] Top shape: 1 3 1 70000 (210000)
I0729 18:38:35.228782 16969 net.cpp:137] Memory required for data: 166600000
I0729 18:38:35.228801 16969 layer_factory.hpp:77] Creating layer fbn2
I0729 18:38:35.228813 16969 net.cpp:84] Creating Layer fbn2
I0729 18:38:35.228819 16969 net.cpp:406] fbn2 <- fconv2
I0729 18:38:35.228829 16969 net.cpp:380] fbn2 -> fbn2
I0729 18:38:35.229228 16969 net.cpp:122] Setting up fbn2
I0729 18:38:35.229243 16969 net.cpp:129] Top shape: 1 3 1 70000 (210000)
I0729 18:38:35.229248 16969 net.cpp:137] Memory required for data: 167440000
I0729 18:38:35.229259 16969 layer_factory.hpp:77] Creating layer frelu2
I0729 18:38:35.229267 16969 net.cpp:84] Creating Layer frelu2
I0729 18:38:35.229272 16969 net.cpp:406] frelu2 <- fbn2
I0729 18:38:35.229280 16969 net.cpp:367] frelu2 -> fbn2 (in-place)
I0729 18:38:35.229719 16969 net.cpp:122] Setting up frelu2
I0729 18:38:35.229738 16969 net.cpp:129] Top shape: 1 3 1 70000 (210000)
I0729 18:38:35.229744 16969 net.cpp:137] Memory required for data: 168280000
I0729 18:38:35.229749 16969 layer_factory.hpp:77] Creating layer data_lattice1
I0729 18:38:35.229845 16969 net.cpp:84] Creating Layer data_lattice1
I0729 18:38:35.229857 16969 net.cpp:406] data_lattice1 <- data_data_0_split_2
I0729 18:38:35.229869 16969 net.cpp:380] data_lattice1 -> data_lattice1
I0729 18:38:35.231856 16969 net.cpp:122] Setting up data_lattice1
I0729 18:38:35.231881 16969 net.cpp:129] Top shape: 1 3 1 70000 (210000)
I0729 18:38:35.231889 16969 net.cpp:137] Memory required for data: 169120000
I0729 18:38:35.231897 16969 layer_factory.hpp:77] Creating layer feat2
I0729 18:38:35.231910 16969 net.cpp:84] Creating Layer feat2
I0729 18:38:35.231916 16969 net.cpp:406] feat2 <- data_lattice1
I0729 18:38:35.231925 16969 net.cpp:406] feat2 <- fbn2
I0729 18:38:35.231933 16969 net.cpp:380] feat2 -> feat2
I0729 18:38:35.231977 16969 net.cpp:122] Setting up feat2
I0729 18:38:35.231989 16969 net.cpp:129] Top shape: 1 3 1 70000 (210000)
I0729 18:38:35.231993 16969 net.cpp:137] Memory required for data: 169960000
I0729 18:38:35.231998 16969 layer_factory.hpp:77] Creating layer feat2_feat2_0_split
I0729 18:38:35.232007 16969 net.cpp:84] Creating Layer feat2_feat2_0_split
I0729 18:38:35.232012 16969 net.cpp:406] feat2_feat2_0_split <- feat2
I0729 18:38:35.232020 16969 net.cpp:380] feat2_feat2_0_split -> feat2_feat2_0_split_0
I0729 18:38:35.232029 16969 net.cpp:380] feat2_feat2_0_split -> feat2_feat2_0_split_1
I0729 18:38:35.232077 16969 net.cpp:122] Setting up feat2_feat2_0_split
I0729 18:38:35.232089 16969 net.cpp:129] Top shape: 1 3 1 70000 (210000)
I0729 18:38:35.232094 16969 net.cpp:129] Top shape: 1 3 1 70000 (210000)
I0729 18:38:35.232098 16969 net.cpp:137] Memory required for data: 171640000
I0729 18:38:35.232102 16969 layer_factory.hpp:77] Creating layer conv3
I0729 18:38:35.232116 16969 net.cpp:84] Creating Layer conv3
I0729 18:38:35.232121 16969 net.cpp:406] conv3 <- bn2_relu2_0_split_1
I0729 18:38:35.232128 16969 net.cpp:406] conv3 <- feat2_feat2_0_split_0
I0729 18:38:35.232134 16969 net.cpp:406] conv3 <- feat2_feat2_0_split_1
I0729 18:38:35.232143 16969 net.cpp:380] conv3 -> conv3
I0729 18:38:35.350829 16969 net.cpp:122] Setting up conv3
I0729 18:38:35.350884 16969 net.cpp:129] Top shape: 1 128 1 70000 (8960000)
I0729 18:38:35.350890 16969 net.cpp:137] Memory required for data: 207480000
I0729 18:38:35.350904 16969 layer_factory.hpp:77] Creating layer bn3
I0729 18:38:35.350919 16969 net.cpp:84] Creating Layer bn3
I0729 18:38:35.350925 16969 net.cpp:406] bn3 <- conv3
I0729 18:38:35.350935 16969 net.cpp:380] bn3 -> bn3
I0729 18:38:35.351250 16969 net.cpp:122] Setting up bn3
I0729 18:38:35.351261 16969 net.cpp:129] Top shape: 1 128 1 70000 (8960000)
I0729 18:38:35.351265 16969 net.cpp:137] Memory required for data: 243320000
I0729 18:38:35.351284 16969 layer_factory.hpp:77] Creating layer relu3
I0729 18:38:35.351292 16969 net.cpp:84] Creating Layer relu3
I0729 18:38:35.351297 16969 net.cpp:406] relu3 <- bn3
I0729 18:38:35.351303 16969 net.cpp:367] relu3 -> bn3 (in-place)
I0729 18:38:35.352360 16969 net.cpp:122] Setting up relu3
I0729 18:38:35.352380 16969 net.cpp:129] Top shape: 1 128 1 70000 (8960000)
I0729 18:38:35.352385 16969 net.cpp:137] Memory required for data: 279160000
I0729 18:38:35.352388 16969 layer_factory.hpp:77] Creating layer bn3_relu3_0_split
I0729 18:38:35.352398 16969 net.cpp:84] Creating Layer bn3_relu3_0_split
I0729 18:38:35.352402 16969 net.cpp:406] bn3_relu3_0_split <- bn3
I0729 18:38:35.352411 16969 net.cpp:380] bn3_relu3_0_split -> bn3_relu3_0_split_0
I0729 18:38:35.352419 16969 net.cpp:380] bn3_relu3_0_split -> bn3_relu3_0_split_1
I0729 18:38:35.352427 16969 net.cpp:380] bn3_relu3_0_split -> bn3_relu3_0_split_2
I0729 18:38:35.352486 16969 net.cpp:122] Setting up bn3_relu3_0_split
I0729 18:38:35.352495 16969 net.cpp:129] Top shape: 1 128 1 70000 (8960000)
I0729 18:38:35.352500 16969 net.cpp:129] Top shape: 1 128 1 70000 (8960000)
I0729 18:38:35.352504 16969 net.cpp:129] Top shape: 1 128 1 70000 (8960000)
I0729 18:38:35.352507 16969 net.cpp:137] Memory required for data: 386680000
I0729 18:38:35.352512 16969 layer_factory.hpp:77] Creating layer fconv3
I0729 18:38:35.352527 16969 net.cpp:84] Creating Layer fconv3
I0729 18:38:35.352531 16969 net.cpp:406] fconv3 <- bn3_relu3_0_split_0
I0729 18:38:35.352540 16969 net.cpp:380] fconv3 -> fconv3
I0729 18:38:35.373425 16969 net.cpp:122] Setting up fconv3
I0729 18:38:35.373451 16969 net.cpp:129] Top shape: 1 3 1 70000 (210000)
I0729 18:38:35.373457 16969 net.cpp:137] Memory required for data: 387520000
I0729 18:38:35.373467 16969 layer_factory.hpp:77] Creating layer fbn3
I0729 18:38:35.373481 16969 net.cpp:84] Creating Layer fbn3
I0729 18:38:35.373487 16969 net.cpp:406] fbn3 <- fconv3
I0729 18:38:35.373497 16969 net.cpp:380] fbn3 -> fbn3
I0729 18:38:35.373836 16969 net.cpp:122] Setting up fbn3
I0729 18:38:35.373847 16969 net.cpp:129] Top shape: 1 3 1 70000 (210000)
I0729 18:38:35.373852 16969 net.cpp:137] Memory required for data: 388360000
I0729 18:38:35.373860 16969 layer_factory.hpp:77] Creating layer frelu3
I0729 18:38:35.373867 16969 net.cpp:84] Creating Layer frelu3
I0729 18:38:35.373872 16969 net.cpp:406] frelu3 <- fbn3
I0729 18:38:35.373878 16969 net.cpp:367] frelu3 -> fbn3 (in-place)
I0729 18:38:35.374228 16969 net.cpp:122] Setting up frelu3
I0729 18:38:35.374243 16969 net.cpp:129] Top shape: 1 3 1 70000 (210000)
I0729 18:38:35.374248 16969 net.cpp:137] Memory required for data: 389200000
I0729 18:38:35.374251 16969 layer_factory.hpp:77] Creating layer data_lattice2
I0729 18:38:35.374338 16969 net.cpp:84] Creating Layer data_lattice2
I0729 18:38:35.374347 16969 net.cpp:406] data_lattice2 <- data_data_0_split_3
I0729 18:38:35.374356 16969 net.cpp:380] data_lattice2 -> data_lattice2
I0729 18:38:35.375972 16969 net.cpp:122] Setting up data_lattice2
I0729 18:38:35.375993 16969 net.cpp:129] Top shape: 1 3 1 70000 (210000)
I0729 18:38:35.375998 16969 net.cpp:137] Memory required for data: 390040000
I0729 18:38:35.376003 16969 layer_factory.hpp:77] Creating layer feat3
I0729 18:38:35.376022 16969 net.cpp:84] Creating Layer feat3
I0729 18:38:35.376027 16969 net.cpp:406] feat3 <- data_lattice2
I0729 18:38:35.376034 16969 net.cpp:406] feat3 <- fbn3
I0729 18:38:35.376041 16969 net.cpp:380] feat3 -> feat3
I0729 18:38:35.376077 16969 net.cpp:122] Setting up feat3
I0729 18:38:35.376091 16969 net.cpp:129] Top shape: 1 3 1 70000 (210000)
I0729 18:38:35.376093 16969 net.cpp:137] Memory required for data: 390880000
I0729 18:38:35.376097 16969 layer_factory.hpp:77] Creating layer feat3_feat3_0_split
I0729 18:38:35.376106 16969 net.cpp:84] Creating Layer feat3_feat3_0_split
I0729 18:38:35.376111 16969 net.cpp:406] feat3_feat3_0_split <- feat3
I0729 18:38:35.376117 16969 net.cpp:380] feat3_feat3_0_split -> feat3_feat3_0_split_0
I0729 18:38:35.376124 16969 net.cpp:380] feat3_feat3_0_split -> feat3_feat3_0_split_1
I0729 18:38:35.376164 16969 net.cpp:122] Setting up feat3_feat3_0_split
I0729 18:38:35.376173 16969 net.cpp:129] Top shape: 1 3 1 70000 (210000)
I0729 18:38:35.376176 16969 net.cpp:129] Top shape: 1 3 1 70000 (210000)
I0729 18:38:35.376180 16969 net.cpp:137] Memory required for data: 392560000
I0729 18:38:35.376183 16969 layer_factory.hpp:77] Creating layer conv4
I0729 18:38:35.376194 16969 net.cpp:84] Creating Layer conv4
I0729 18:38:35.376199 16969 net.cpp:406] conv4 <- bn3_relu3_0_split_1
I0729 18:38:35.376204 16969 net.cpp:406] conv4 <- feat3_feat3_0_split_0
I0729 18:38:35.376209 16969 net.cpp:406] conv4 <- feat3_feat3_0_split_1
I0729 18:38:35.376216 16969 net.cpp:380] conv4 -> conv4
I0729 18:38:35.456812 16969 net.cpp:122] Setting up conv4
I0729 18:38:35.456863 16969 net.cpp:129] Top shape: 1 256 1 70000 (17920000)
I0729 18:38:35.456869 16969 net.cpp:137] Memory required for data: 464240000
I0729 18:38:35.456882 16969 layer_factory.hpp:77] Creating layer bn4
I0729 18:38:35.456897 16969 net.cpp:84] Creating Layer bn4
I0729 18:38:35.456903 16969 net.cpp:406] bn4 <- conv4
I0729 18:38:35.456914 16969 net.cpp:380] bn4 -> bn4
I0729 18:38:35.457242 16969 net.cpp:122] Setting up bn4
I0729 18:38:35.457252 16969 net.cpp:129] Top shape: 1 256 1 70000 (17920000)
I0729 18:38:35.457257 16969 net.cpp:137] Memory required for data: 535920000
I0729 18:38:35.457275 16969 layer_factory.hpp:77] Creating layer relu4
I0729 18:38:35.457293 16969 net.cpp:84] Creating Layer relu4
I0729 18:38:35.457298 16969 net.cpp:406] relu4 <- bn4
I0729 18:38:35.457304 16969 net.cpp:367] relu4 -> bn4 (in-place)
I0729 18:38:35.458308 16969 net.cpp:122] Setting up relu4
I0729 18:38:35.458328 16969 net.cpp:129] Top shape: 1 256 1 70000 (17920000)
I0729 18:38:35.458331 16969 net.cpp:137] Memory required for data: 607600000
I0729 18:38:35.458336 16969 layer_factory.hpp:77] Creating layer bn4_relu4_0_split
I0729 18:38:35.458349 16969 net.cpp:84] Creating Layer bn4_relu4_0_split
I0729 18:38:35.458354 16969 net.cpp:406] bn4_relu4_0_split <- bn4
I0729 18:38:35.458361 16969 net.cpp:380] bn4_relu4_0_split -> bn4_relu4_0_split_0
I0729 18:38:35.458370 16969 net.cpp:380] bn4_relu4_0_split -> bn4_relu4_0_split_1
I0729 18:38:35.458377 16969 net.cpp:380] bn4_relu4_0_split -> bn4_relu4_0_split_2
I0729 18:38:35.458439 16969 net.cpp:122] Setting up bn4_relu4_0_split
I0729 18:38:35.458448 16969 net.cpp:129] Top shape: 1 256 1 70000 (17920000)
I0729 18:38:35.458453 16969 net.cpp:129] Top shape: 1 256 1 70000 (17920000)
I0729 18:38:35.458457 16969 net.cpp:129] Top shape: 1 256 1 70000 (17920000)
I0729 18:38:35.458461 16969 net.cpp:137] Memory required for data: 822640000
I0729 18:38:35.458464 16969 layer_factory.hpp:77] Creating layer fconv4
I0729 18:38:35.458480 16969 net.cpp:84] Creating Layer fconv4
I0729 18:38:35.458484 16969 net.cpp:406] fconv4 <- bn4_relu4_0_split_0
I0729 18:38:35.458493 16969 net.cpp:380] fconv4 -> fconv4
I0729 18:38:35.462028 16969 net.cpp:122] Setting up fconv4
I0729 18:38:35.462046 16969 net.cpp:129] Top shape: 1 3 1 70000 (210000)
I0729 18:38:35.462052 16969 net.cpp:137] Memory required for data: 823480000
I0729 18:38:35.462061 16969 layer_factory.hpp:77] Creating layer fbn4
I0729 18:38:35.462069 16969 net.cpp:84] Creating Layer fbn4
I0729 18:38:35.462074 16969 net.cpp:406] fbn4 <- fconv4
I0729 18:38:35.462082 16969 net.cpp:380] fbn4 -> fbn4
I0729 18:38:35.462404 16969 net.cpp:122] Setting up fbn4
I0729 18:38:35.462415 16969 net.cpp:129] Top shape: 1 3 1 70000 (210000)
I0729 18:38:35.462419 16969 net.cpp:137] Memory required for data: 824320000
I0729 18:38:35.462427 16969 layer_factory.hpp:77] Creating layer frelu4
I0729 18:38:35.462435 16969 net.cpp:84] Creating Layer frelu4
I0729 18:38:35.462440 16969 net.cpp:406] frelu4 <- fbn4
I0729 18:38:35.462445 16969 net.cpp:367] frelu4 -> fbn4 (in-place)
I0729 18:38:35.462785 16969 net.cpp:122] Setting up frelu4
I0729 18:38:35.462800 16969 net.cpp:129] Top shape: 1 3 1 70000 (210000)
I0729 18:38:35.462803 16969 net.cpp:137] Memory required for data: 825160000
I0729 18:38:35.462807 16969 layer_factory.hpp:77] Creating layer data_lattice3
I0729 18:38:35.462894 16969 net.cpp:84] Creating Layer data_lattice3
I0729 18:38:35.462904 16969 net.cpp:406] data_lattice3 <- data_data_0_split_4
I0729 18:38:35.462913 16969 net.cpp:380] data_lattice3 -> data_lattice3
I0729 18:38:35.464560 16969 net.cpp:122] Setting up data_lattice3
I0729 18:38:35.464578 16969 net.cpp:129] Top shape: 1 3 1 70000 (210000)
I0729 18:38:35.464583 16969 net.cpp:137] Memory required for data: 826000000
I0729 18:38:35.464588 16969 layer_factory.hpp:77] Creating layer feat4
I0729 18:38:35.464599 16969 net.cpp:84] Creating Layer feat4
I0729 18:38:35.464604 16969 net.cpp:406] feat4 <- data_lattice3
I0729 18:38:35.464610 16969 net.cpp:406] feat4 <- fbn4
I0729 18:38:35.464617 16969 net.cpp:380] feat4 -> feat4
I0729 18:38:35.464653 16969 net.cpp:122] Setting up feat4
I0729 18:38:35.464659 16969 net.cpp:129] Top shape: 1 3 1 70000 (210000)
I0729 18:38:35.464663 16969 net.cpp:137] Memory required for data: 826840000
I0729 18:38:35.464666 16969 layer_factory.hpp:77] Creating layer feat4_feat4_0_split
I0729 18:38:35.464679 16969 net.cpp:84] Creating Layer feat4_feat4_0_split
I0729 18:38:35.464684 16969 net.cpp:406] feat4_feat4_0_split <- feat4
I0729 18:38:35.464691 16969 net.cpp:380] feat4_feat4_0_split -> feat4_feat4_0_split_0
I0729 18:38:35.464699 16969 net.cpp:380] feat4_feat4_0_split -> feat4_feat4_0_split_1
I0729 18:38:35.464738 16969 net.cpp:122] Setting up feat4_feat4_0_split
I0729 18:38:35.464747 16969 net.cpp:129] Top shape: 1 3 1 70000 (210000)
I0729 18:38:35.464751 16969 net.cpp:129] Top shape: 1 3 1 70000 (210000)
I0729 18:38:35.464756 16969 net.cpp:137] Memory required for data: 828520000
I0729 18:38:35.464758 16969 layer_factory.hpp:77] Creating layer conv5
I0729 18:38:35.464771 16969 net.cpp:84] Creating Layer conv5
I0729 18:38:35.464776 16969 net.cpp:406] conv5 <- bn4_relu4_0_split_1
I0729 18:38:35.464781 16969 net.cpp:406] conv5 <- feat4_feat4_0_split_0
I0729 18:38:35.464785 16969 net.cpp:406] conv5 <- feat4_feat4_0_split_1
I0729 18:38:35.464792 16969 net.cpp:380] conv5 -> conv5
I0729 18:38:35.625383 16969 net.cpp:122] Setting up conv5
I0729 18:38:35.625433 16969 net.cpp:129] Top shape: 1 256 1 70000 (17920000)
I0729 18:38:35.625438 16969 net.cpp:137] Memory required for data: 900200000
I0729 18:38:35.625453 16969 layer_factory.hpp:77] Creating layer bn5
I0729 18:38:35.625481 16969 net.cpp:84] Creating Layer bn5
I0729 18:38:35.625488 16969 net.cpp:406] bn5 <- conv5
I0729 18:38:35.625499 16969 net.cpp:380] bn5 -> bn5
I0729 18:38:35.625835 16969 net.cpp:122] Setting up bn5
I0729 18:38:35.625847 16969 net.cpp:129] Top shape: 1 256 1 70000 (17920000)
I0729 18:38:35.625851 16969 net.cpp:137] Memory required for data: 971880000
I0729 18:38:35.625860 16969 layer_factory.hpp:77] Creating layer relu5
I0729 18:38:35.625869 16969 net.cpp:84] Creating Layer relu5
I0729 18:38:35.625874 16969 net.cpp:406] relu5 <- bn5
I0729 18:38:35.625880 16969 net.cpp:367] relu5 -> bn5 (in-place)
I0729 18:38:35.626940 16969 net.cpp:122] Setting up relu5
I0729 18:38:35.626957 16969 net.cpp:129] Top shape: 1 256 1 70000 (17920000)
I0729 18:38:35.626962 16969 net.cpp:137] Memory required for data: 1043560000
I0729 18:38:35.626967 16969 layer_factory.hpp:77] Creating layer bn5_relu5_0_split
I0729 18:38:35.626976 16969 net.cpp:84] Creating Layer bn5_relu5_0_split
I0729 18:38:35.626981 16969 net.cpp:406] bn5_relu5_0_split <- bn5
I0729 18:38:35.626988 16969 net.cpp:380] bn5_relu5_0_split -> bn5_relu5_0_split_0
I0729 18:38:35.626997 16969 net.cpp:380] bn5_relu5_0_split -> bn5_relu5_0_split_1
I0729 18:38:35.627004 16969 net.cpp:380] bn5_relu5_0_split -> bn5_relu5_0_split_2
I0729 18:38:35.627065 16969 net.cpp:122] Setting up bn5_relu5_0_split
I0729 18:38:35.627074 16969 net.cpp:129] Top shape: 1 256 1 70000 (17920000)
I0729 18:38:35.627079 16969 net.cpp:129] Top shape: 1 256 1 70000 (17920000)
I0729 18:38:35.627084 16969 net.cpp:129] Top shape: 1 256 1 70000 (17920000)
I0729 18:38:35.627087 16969 net.cpp:137] Memory required for data: 1258600000
I0729 18:38:35.627091 16969 layer_factory.hpp:77] Creating layer fconv5
I0729 18:38:35.627111 16969 net.cpp:84] Creating Layer fconv5
I0729 18:38:35.627116 16969 net.cpp:406] fconv5 <- bn5_relu5_0_split_0
I0729 18:38:35.627125 16969 net.cpp:380] fconv5 -> fconv5
I0729 18:38:35.629295 16969 net.cpp:122] Setting up fconv5
I0729 18:38:35.629314 16969 net.cpp:129] Top shape: 1 3 1 70000 (210000)
I0729 18:38:35.629319 16969 net.cpp:137] Memory required for data: 1259440000
I0729 18:38:35.629328 16969 layer_factory.hpp:77] Creating layer fbn5
I0729 18:38:35.629336 16969 net.cpp:84] Creating Layer fbn5
I0729 18:38:35.629341 16969 net.cpp:406] fbn5 <- fconv5
I0729 18:38:35.629349 16969 net.cpp:380] fbn5 -> fbn5
I0729 18:38:35.629681 16969 net.cpp:122] Setting up fbn5
I0729 18:38:35.629693 16969 net.cpp:129] Top shape: 1 3 1 70000 (210000)
I0729 18:38:35.629696 16969 net.cpp:137] Memory required for data: 1260280000
I0729 18:38:35.629705 16969 layer_factory.hpp:77] Creating layer frelu5
I0729 18:38:35.629712 16969 net.cpp:84] Creating Layer frelu5
I0729 18:38:35.629717 16969 net.cpp:406] frelu5 <- fbn5
I0729 18:38:35.629724 16969 net.cpp:367] frelu5 -> fbn5 (in-place)
I0729 18:38:35.630431 16969 net.cpp:122] Setting up frelu5
I0729 18:38:35.630450 16969 net.cpp:129] Top shape: 1 3 1 70000 (210000)
I0729 18:38:35.630455 16969 net.cpp:137] Memory required for data: 1261120000
I0729 18:38:35.630460 16969 layer_factory.hpp:77] Creating layer data_lattice4
I0729 18:38:35.630544 16969 net.cpp:84] Creating Layer data_lattice4
I0729 18:38:35.630553 16969 net.cpp:406] data_lattice4 <- data_data_0_split_5
I0729 18:38:35.630563 16969 net.cpp:380] data_lattice4 -> data_lattice4
I0729 18:38:35.632203 16969 net.cpp:122] Setting up data_lattice4
I0729 18:38:35.632223 16969 net.cpp:129] Top shape: 1 3 1 70000 (210000)
I0729 18:38:35.632228 16969 net.cpp:137] Memory required for data: 1261960000
I0729 18:38:35.632232 16969 layer_factory.hpp:77] Creating layer feat5
I0729 18:38:35.632246 16969 net.cpp:84] Creating Layer feat5
I0729 18:38:35.632251 16969 net.cpp:406] feat5 <- data_lattice4
I0729 18:38:35.632256 16969 net.cpp:406] feat5 <- fbn5
I0729 18:38:35.632263 16969 net.cpp:380] feat5 -> feat5
I0729 18:38:35.632298 16969 net.cpp:122] Setting up feat5
I0729 18:38:35.632304 16969 net.cpp:129] Top shape: 1 3 1 70000 (210000)
I0729 18:38:35.632308 16969 net.cpp:137] Memory required for data: 1262800000
I0729 18:38:35.632313 16969 layer_factory.hpp:77] Creating layer feat5_feat5_0_split
I0729 18:38:35.632319 16969 net.cpp:84] Creating Layer feat5_feat5_0_split
I0729 18:38:35.632323 16969 net.cpp:406] feat5_feat5_0_split <- feat5
I0729 18:38:35.632329 16969 net.cpp:380] feat5_feat5_0_split -> feat5_feat5_0_split_0
I0729 18:38:35.632336 16969 net.cpp:380] feat5_feat5_0_split -> feat5_feat5_0_split_1
I0729 18:38:35.632387 16969 net.cpp:122] Setting up feat5_feat5_0_split
I0729 18:38:35.632396 16969 net.cpp:129] Top shape: 1 3 1 70000 (210000)
I0729 18:38:35.632402 16969 net.cpp:129] Top shape: 1 3 1 70000 (210000)
I0729 18:38:35.632405 16969 net.cpp:137] Memory required for data: 1264480000
I0729 18:38:35.632410 16969 layer_factory.hpp:77] Creating layer conv6
I0729 18:38:35.632421 16969 net.cpp:84] Creating Layer conv6
I0729 18:38:35.632424 16969 net.cpp:406] conv6 <- bn5_relu5_0_split_1
I0729 18:38:35.632431 16969 net.cpp:406] conv6 <- feat5_feat5_0_split_0
I0729 18:38:35.632434 16969 net.cpp:406] conv6 <- feat5_feat5_0_split_1
I0729 18:38:35.632441 16969 net.cpp:380] conv6 -> conv6
I0729 18:38:35.669912 16969 net.cpp:122] Setting up conv6
I0729 18:38:35.669950 16969 net.cpp:129] Top shape: 1 256 1 70000 (17920000)
I0729 18:38:35.669955 16969 net.cpp:137] Memory required for data: 1336160000
I0729 18:38:35.669970 16969 layer_factory.hpp:77] Creating layer bn6
I0729 18:38:35.669981 16969 net.cpp:84] Creating Layer bn6
I0729 18:38:35.669988 16969 net.cpp:406] bn6 <- conv6
I0729 18:38:35.669997 16969 net.cpp:380] bn6 -> bn6
I0729 18:38:35.670321 16969 net.cpp:122] Setting up bn6
I0729 18:38:35.670332 16969 net.cpp:129] Top shape: 1 256 1 70000 (17920000)
I0729 18:38:35.670336 16969 net.cpp:137] Memory required for data: 1407840000
I0729 18:38:35.670344 16969 layer_factory.hpp:77] Creating layer relu6
I0729 18:38:35.670353 16969 net.cpp:84] Creating Layer relu6
I0729 18:38:35.670358 16969 net.cpp:406] relu6 <- bn6
I0729 18:38:35.670363 16969 net.cpp:367] relu6 -> bn6 (in-place)
I0729 18:38:35.670786 16969 net.cpp:122] Setting up relu6
I0729 18:38:35.670800 16969 net.cpp:129] Top shape: 1 256 1 70000 (17920000)
I0729 18:38:35.670804 16969 net.cpp:137] Memory required for data: 1479520000
I0729 18:38:35.670809 16969 layer_factory.hpp:77] Creating layer concat6
I0729 18:38:35.670894 16969 net.cpp:84] Creating Layer concat6
I0729 18:38:35.670904 16969 net.cpp:406] concat6 <- bn6
I0729 18:38:35.670910 16969 net.cpp:406] concat6 <- bn2_relu2_0_split_2
I0729 18:38:35.670915 16969 net.cpp:406] concat6 <- bn3_relu3_0_split_2
I0729 18:38:35.670920 16969 net.cpp:406] concat6 <- bn4_relu4_0_split_2
I0729 18:38:35.670924 16969 net.cpp:406] concat6 <- bn5_relu5_0_split_2
I0729 18:38:35.670930 16969 net.cpp:380] concat6 -> concat6
I0729 18:38:35.670991 16969 net.cpp:122] Setting up concat6
I0729 18:38:35.671005 16969 net.cpp:129] Top shape: 1 960 1 70000 (67200000)
I0729 18:38:35.671008 16969 net.cpp:137] Memory required for data: 1748320000
I0729 18:38:35.671011 16969 layer_factory.hpp:77] Creating layer conv7
I0729 18:38:35.671027 16969 net.cpp:84] Creating Layer conv7
I0729 18:38:35.671032 16969 net.cpp:406] conv7 <- concat6
I0729 18:38:35.671041 16969 net.cpp:380] conv7 -> conv7
I0729 18:38:35.677431 16969 net.cpp:122] Setting up conv7
I0729 18:38:35.677450 16969 net.cpp:129] Top shape: 1 128 1 70000 (8960000)
I0729 18:38:35.677456 16969 net.cpp:137] Memory required for data: 1784160000
I0729 18:38:35.677465 16969 layer_factory.hpp:77] Creating layer bn7
I0729 18:38:35.677477 16969 net.cpp:84] Creating Layer bn7
I0729 18:38:35.677482 16969 net.cpp:406] bn7 <- conv7
I0729 18:38:35.677490 16969 net.cpp:380] bn7 -> bn7
I0729 18:38:35.677796 16969 net.cpp:122] Setting up bn7
I0729 18:38:35.677808 16969 net.cpp:129] Top shape: 1 128 1 70000 (8960000)
I0729 18:38:35.677811 16969 net.cpp:137] Memory required for data: 1820000000
I0729 18:38:35.677820 16969 layer_factory.hpp:77] Creating layer relu7
I0729 18:38:35.677827 16969 net.cpp:84] Creating Layer relu7
I0729 18:38:35.677832 16969 net.cpp:406] relu7 <- bn7
I0729 18:38:35.677839 16969 net.cpp:367] relu7 -> bn7 (in-place)
I0729 18:38:35.678683 16969 net.cpp:122] Setting up relu7
I0729 18:38:35.678699 16969 net.cpp:129] Top shape: 1 128 1 70000 (8960000)
I0729 18:38:35.678704 16969 net.cpp:137] Memory required for data: 1855840000
I0729 18:38:35.678709 16969 layer_factory.hpp:77] Creating layer conv8
I0729 18:38:35.678722 16969 net.cpp:84] Creating Layer conv8
I0729 18:38:35.678727 16969 net.cpp:406] conv8 <- bn7
I0729 18:38:35.678736 16969 net.cpp:380] conv8 -> conv8
I0729 18:38:35.682817 16969 net.cpp:122] Setting up conv8
I0729 18:38:35.682837 16969 net.cpp:129] Top shape: 1 13 1 70000 (910000)
I0729 18:38:35.682842 16969 net.cpp:137] Memory required for data: 1859480000
I0729 18:38:35.682852 16969 layer_factory.hpp:77] Creating layer conv8_conv8_0_split
I0729 18:38:35.682860 16969 net.cpp:84] Creating Layer conv8_conv8_0_split
I0729 18:38:35.682865 16969 net.cpp:406] conv8_conv8_0_split <- conv8
I0729 18:38:35.682873 16969 net.cpp:380] conv8_conv8_0_split -> conv8_conv8_0_split_0
I0729 18:38:35.682881 16969 net.cpp:380] conv8_conv8_0_split -> conv8_conv8_0_split_1
I0729 18:38:35.682934 16969 net.cpp:122] Setting up conv8_conv8_0_split
I0729 18:38:35.682943 16969 net.cpp:129] Top shape: 1 13 1 70000 (910000)
I0729 18:38:35.682950 16969 net.cpp:129] Top shape: 1 13 1 70000 (910000)
I0729 18:38:35.682952 16969 net.cpp:137] Memory required for data: 1866760000
I0729 18:38:35.682956 16969 layer_factory.hpp:77] Creating layer loss
I0729 18:38:35.683007 16969 net.cpp:84] Creating Layer loss
I0729 18:38:35.683017 16969 net.cpp:406] loss <- conv8_conv8_0_split_0
I0729 18:38:35.683023 16969 net.cpp:406] loss <- label_data_1_split_0
I0729 18:38:35.683032 16969 net.cpp:380] loss -> loss
…
