…
I0812 15:03:57.919026 18832 net.cpp:294] The NetState phase (0) differed from the phase (1) specified by a rule in layer data
I0812 15:03:57.919381 18832 net.cpp:51] Initializing net from parameters: 
state {
  phase: TRAIN
}
layer {
  name: "data"
  type: "Python"
  top: "data"
  top: "label"
  include {
    phase: TRAIN
  }
  python_param {
    module: "dataset_lidar"
    layer: "InputShapenet"
    param_str: "{\'sample_size\': 4096, \'test_area\': \'6\', \'batch_size\': 12, \'feat_dims\': \'x_y_z_r_g_b\', \'subset\': \'train\', \'root\': \'../../data/shapenet_ericyi_ply\', \'jitter_xyz\': 0.01, \'jitter_stretch\': 0.05, \'jitter_rotation\': 5.0}"
  }
}
layer {
  name: "data_feat"
  type: "Python"
  bottom: "data"
  top: "data_feat"
  python_param {
    module: "custom_layers"
    layer: "PickAndScale"
    param_str: "0_1_2"
  }
}
layer {
  name: "conv1"
  type: "Convolution"
  bottom: "data"
  top: "conv1"
  param {
    lr_mult: 1
  }
  param {
    lr_mult: 0.1
  }
  convolution_param {
    num_output: 64
    pad: 0
    kernel_size: 1
    stride: 1
    weight_filler {
      type: "xavier"
    }
    bias_filler {
      type: "constant"
      value: 0
    }
  }
}
layer {
  name: "bn1"
  type: "BatchNorm"
  bottom: "conv1"
  top: "bn1"
}
layer {
  name: "relu1"
  type: "ReLU"
  bottom: "bn1"
  top: "bn1"
}
layer {
  name: "conv1a"
  type: "Convolution"
  bottom: "bn1"
  top: "conv1a"
  param {
    lr_mult: 1
  }
  param {
    lr_mult: 0.1
  }
  convolution_param {
    num_output: 64
    pad: 0
    kernel_size: 1
    stride: 1
    weight_filler {
      type: "xavier"
    }
    bias_filler {
      type: "constant"
      value: 0
    }
  }
}
layer {
  name: "bn1a"
  type: "BatchNorm"
  bottom: "conv1a"
  top: "bn1a"
}
layer {
  name: "relu1a"
  type: "ReLU"
  bottom: "bn1a"
  top: "bn1a"
}
layer {
  name: "fconv1"
  type: "Convolution"
  bottom: "bn1a"
  top: "fconv1"
  param {
    lr_mult: 0.1
  }
  param {
    lr_mult: 0.01
  }
  convolution_param {
    num_output: 3
    pad: 0
    kernel_size: 1
    stride: 1
    weight_filler {
      type: "xavier"
    }
    bias_filler {
      type: "constant"
      value: 0
    }
  }
}
layer {
  name: "fbn1"
  type: "BatchNorm"
  bottom: "fconv1"
  top: "fbn1"
}
layer {
  name: "frelu1"
  type: "ReLU"
  bottom: "fbn1"
  top: "fbn1"
}
layer {
  name: "feat1"
  type: "Eltwise"
  bottom: "data_feat"
  bottom: "fbn1"
  top: "feat1"
  eltwise_param {
    operation: SUM
  }
}
layer {
  name: "data_lattice0"
  type: "Python"
  bottom: "feat1"
  top: "data_lattice0"
  python_param {
    module: "custom_layers"
    layer: "PickAndScale"
    param_str: "0*48_1*48_2*48"
  }
}
layer {
  name: "conv2"
  type: "Permutohedral"
  bottom: "bn1a"
  bottom: "data_lattice0"
  bottom: "data_lattice0"
  top: "conv2"
  param {
    lr_mult: 1
    decay_mult: 1
  }
  param {
    lr_mult: 2
    decay_mult: 0
  }
  permutohedral_param {
    num_output: 64
    neighborhood_size: 1
    filter_filler {
      type: "gaussian"
      std: 0.001
    }
    bias_term: true
    bias_filler {
      type: "constant"
      value: 0
    }
    group: 1
    norm_type: AFTER
    offset_type: NONE
  }
}
layer {
  name: "bn2"
  type: "BatchNorm"
  bottom: "conv2"
  top: "bn2"
}
layer {
  name: "relu2"
  type: "ReLU"
  bottom: "bn2"
  top: "bn2"
}
layer {
  name: "fconv2"
  type: "Convolution"
  bottom: "bn2"
  top: "fconv2"
  param {
    lr_mult: 0.1
  }
  param {
    lr_mult: 0.01
  }
  convolution_param {
    num_output: 3
    pad: 0
    kernel_size: 1
    stride: 1
    weight_filler {
      type: "xavier"
    }
    bias_filler {
      type: "constant"
      value: 0
    }
  }
}
layer {
  name: "fbn2"
  type: "BatchNorm"
  bottom: "fconv2"
  top: "fbn2"
}
layer {
  name: "frelu2"
  type: "ReLU"
  bottom: "fbn2"
  top: "fbn2"
}
layer {
  name: "feat2"
  type: "Eltwise"
  bottom: "data_feat"
  bottom: "fbn2"
  top: "feat2"
  eltwise_param {
    operation: SUM
  }
}
layer {
  name: "data_lattice1"
  type: "Python"
  bottom: "feat2"
  top: "data_lattice1"
  python_param {
    module: "custom_layers"
    layer: "PickAndScale"
    param_str: "0*24_1*24_2*24"
  }
}
layer {
  name: "conv3"
  type: "Permutohedral"
  bottom: "bn2"
  bottom: "data_lattice1"
  bottom: "data_lattice1"
  top: "conv3"
  param {
    lr_mult: 1
    decay_mult: 1
  }
  param {
    lr_mult: 2
    decay_mult: 0
  }
  permutohedral_param {
    num_output: 128
    neighborhood_size: 1
    filter_filler {
      type: "gaussian"
      std: 0.001
    }
    bias_term: true
    bias_filler {
      type: "constant"
      value: 0
    }
    group: 1
    norm_type: AFTER
    offset_type: NONE
  }
}
layer {
  name: "bn3"
  type: "BatchNorm"
  bottom: "conv3"
  top: "bn3"
}
layer {
  name: "relu3"
  type: "ReLU"
  bottom: "bn3"
  top: "bn3"
}
layer {
  name: "fconv3"
  type: "Convolution"
  bottom: "bn3"
  top: "fconv3"
  param {
    lr_mult: 0.1
  }
  param {
    lr_mult: 0.01
  }
  convolution_param {
    num_output: 3
    pad: 0
    kernel_size: 1
    stride: 1
    weight_filler {
      type: "xavier"
    }
    bias_filler {
      type: "constant"
      value: 0
    }
  }
}
layer {
  name: "fbn3"
  type: "BatchNorm"
  bottom: "fconv3"
  top: "fbn3"
}
layer {
  name: "frelu3"
  type: "ReLU"
  bottom: "fbn3"
  top: "fbn3"
}
layer {
  name: "feat3"
  type: "Eltwise"
  bottom: "data_feat"
  bottom: "fbn3"
  top: "feat3"
  eltwise_param {
    operation: SUM
  }
}
layer {
  name: "data_lattice2"
  type: "Python"
  bottom: "feat3"
  top: "data_lattice2"
  python_param {
    module: "custom_layers"
    layer: "PickAndScale"
    param_str: "0*12_1*12_2*12"
  }
}
layer {
  name: "conv4"
  type: "Permutohedral"
  bottom: "bn3"
  bottom: "data_lattice2"
  bottom: "data_lattice2"
  top: "conv4"
  param {
    lr_mult: 1
    decay_mult: 1
  }
  param {
    lr_mult: 2
    decay_mult: 0
  }
  permutohedral_param {
    num_output: 256
    neighborhood_size: 1
    filter_filler {
      type: "gaussian"
      std: 0.001
    }
    bias_term: true
    bias_filler {
      type: "constant"
      value: 0
    }
    group: 1
    norm_type: AFTER
    offset_type: NONE
  }
}
layer {
  name: "bn4"
  type: "BatchNorm"
  bottom: "conv4"
  top: "bn4"
}
layer {
  name: "relu4"
  type: "ReLU"
  bottom: "bn4"
  top: "bn4"
}
layer {
  name: "fconv4"
  type: "Convolution"
  bottom: "bn4"
  top: "fconv4"
  param {
    lr_mult: 0.1
  }
  param {
    lr_mult: 0.01
  }
  convolution_param {
    num_output: 3
    pad: 0
    kernel_size: 1
    stride: 1
    weight_filler {
      type: "xavier"
    }
    bias_filler {
      type: "constant"
      value: 0
    }
  }
}
layer {
  name: "fbn4"
  type: "BatchNorm"
  bottom: "fconv4"
  top: "fbn4"
}
layer {
  name: "frelu4"
  type: "ReLU"
  bottom: "fbn4"
  top: "fbn4"
}
layer {
  name: "feat4"
  type: "Eltwise"
  bottom: "data_feat"
  bottom: "fbn4"
  top: "feat4"
  eltwise_param {
    operation: SUM
  }
}
layer {
  name: "data_lattice3"
  type: "Python"
  bottom: "feat4"
  top: "data_lattice3"
  python_param {
    module: "custom_layers"
    layer: "PickAndScale"
    param_str: "0*6_1*6_2*6"
  }
}
layer {
  name: "conv5"
  type: "Permutohedral"
  bottom: "bn4"
  bottom: "data_lattice3"
  bottom: "data_lattice3"
  top: "conv5"
  param {
    lr_mult: 1
    decay_mult: 1
  }
  param {
    lr_mult: 2
    decay_mult: 0
  }
  permutohedral_param {
    num_output: 256
    neighborhood_size: 1
    filter_filler {
      type: "gaussian"
      std: 0.001
    }
    bias_term: true
    bias_filler {
      type: "constant"
      value: 0
    }
    group: 1
    norm_type: AFTER
    offset_type: NONE
  }
}
layer {
  name: "bn5"
  type: "BatchNorm"
  bottom: "conv5"
  top: "bn5"
}
layer {
  name: "relu5"
  type: "ReLU"
  bottom: "bn5"
  top: "bn5"
}
layer {
  name: "fconv5"
  type: "Convolution"
  bottom: "bn5"
  top: "fconv5"
  param {
    lr_mult: 0.1
  }
  param {
    lr_mult: 0.01
  }
  convolution_param {
    num_output: 3
    pad: 0
    kernel_size: 1
    stride: 1
    weight_filler {
      type: "xavier"
    }
    bias_filler {
      type: "constant"
      value: 0
    }
  }
}
layer {
  name: "fbn5"
  type: "BatchNorm"
  bottom: "fconv5"
  top: "fbn5"
}
layer {
  name: "frelu5"
  type: "ReLU"
  bottom: "fbn5"
  top: "fbn5"
}
layer {
  name: "feat5"
  type: "Eltwise"
  bottom: "data_feat"
  bottom: "fbn5"
  top: "feat5"
  eltwise_param {
    operation: SUM
  }
}
layer {
  name: "data_lattice4"
  type: "Python"
  bottom: "feat5"
  top: "data_lattice4"
  python_param {
    module: "custom_layers"
    layer: "PickAndScale"
    param_str: "0*3_1*3_2*3"
  }
}
layer {
  name: "conv6"
  type: "Permutohedral"
  bottom: "bn5"
  bottom: "data_lattice4"
  bottom: "data_lattice4"
  top: "conv6"
  param {
    lr_mult: 1
    decay_mult: 1
  }
  param {
    lr_mult: 2
    decay_mult: 0
  }
  permutohedral_param {
    num_output: 256
    neighborhood_size: 1
    filter_filler {
      type: "gaussian"
      std: 0.001
    }
    bias_term: true
    bias_filler {
      type: "constant"
      value: 0
    }
    group: 1
    norm_type: AFTER
    offset_type: NONE
  }
}
layer {
  name: "bn6"
  type: "BatchNorm"
  bottom: "conv6"
  top: "bn6"
}
layer {
  name: "relu6"
  type: "ReLU"
  bottom: "bn6"
  top: "bn6"
}
layer {
  name: "concat6"
  type: "Concat"
  bottom: "bn6"
  bottom: "bn2"
  bottom: "bn3"
  bottom: "bn4"
  bottom: "bn5"
  top: "concat6"
}
layer {
  name: "conv7"
  type: "Convolution"
  bottom: "concat6"
  top: "conv7"
  param {
    lr_mult: 1
  }
  param {
    lr_mult: 0.1
  }
  convolution_param {
    num_output: 128
    pad: 0
    kernel_size: 1
    stride: 1
    weight_filler {
      type: "xavier"
    }
    bias_filler {
      type: "constant"
      value: 0
    }
  }
}
layer {
  name: "bn7"
  type: "BatchNorm"
  bottom: "conv7"
  top: "bn7"
}
layer {
  name: "relu7"
  type: "ReLU"
  bottom: "bn7"
  top: "bn7"
}
layer {
  name: "conv8"
  type: "Convolution"
  bottom: "bn7"
  top: "conv8"
  param {
    lr_mult: 1
  }
  param {
    lr_mult: 0.1
  }
  convolution_param {
    num_output: 13
    pad: 0
    kernel_size: 1
    stride: 1
    weight_filler {
      type: "xavier"
    }
    bias_filler {
      type: "constant"
      value: 0
    }
  }
}
layer {
  name: "loss"
  type: "SoftmaxWithLoss"
  bottom: "conv8"
  bottom: "label"
  top: "loss"
}
layer {
  name: "accuracy"
  type: "Accuracy"
  bottom: "conv8"
  bottom: "label"
  top: "accuracy"
}
I0812 15:03:57.934185 18832 layer_factory.hpp:77] Creating layer data
I0812 15:03:57.942963 18836 upgrade_proto.cpp:1084] Attempting to upgrade input file specified using deprecated 'solver_type' field (enum)': /mnt/lustre/wangjiayun/repos/splatnet/exp/lidar3d/area6/6_solver.prototxt
I0812 15:03:57.943022 18836 upgrade_proto.cpp:1091] Successfully upgraded file specified using deprecated 'solver_type' field (enum) to 'type' field (string).
…
W0812 15:03:58.787685 18838 upgrade_proto.cpp:1093] Note that future Caffe releases will only support 'type' field (string) for a solver's type.
I0812 15:05:10.501936 18838 solver.cpp:190] Creating test net (#0) specified by test_net file: area6_netm6_sumlr.prototxt
I0812 15:06:13.061764 18838 upgrade_proto.cpp:79] Attempting to upgrade batch norm layers using deprecated params: area6/6_netm6_lr1e-4_iter_50.caffemodel
I0812 15:06:13.061832 18838 upgrade_proto.cpp:82] Successfully upgraded batch norm layers using deprecated params.
I0812 15:06:14.992565 18832 net.cpp:122] Setting up data
I0812 15:06:14.992647 18832 net.cpp:129] Top shape: 12 6 1 4096 (294912)
I0812 15:06:14.992655 18832 net.cpp:129] Top shape: 12 1 1 4096 (49152)
I0812 15:06:14.992658 18832 net.cpp:137] Memory required for data: 1376256
I0812 15:06:14.992692 18832 layer_factory.hpp:77] Creating layer data_data_0_split
I0812 15:06:14.992755 18832 net.cpp:84] Creating Layer data_data_0_split
I0812 15:06:14.992770 18832 net.cpp:406] data_data_0_split <- data
I0812 15:06:14.992805 18832 net.cpp:380] data_data_0_split -> data_data_0_split_0
I0812 15:06:14.992830 18832 net.cpp:380] data_data_0_split -> data_data_0_split_1
I0812 15:06:14.992883 18832 net.cpp:122] Setting up data_data_0_split
I0812 15:06:14.992893 18832 net.cpp:129] Top shape: 12 6 1 4096 (294912)
I0812 15:06:14.992897 18832 net.cpp:129] Top shape: 12 6 1 4096 (294912)
I0812 15:06:14.992900 18832 net.cpp:137] Memory required for data: 3735552
I0812 15:06:14.992903 18832 layer_factory.hpp:77] Creating layer label_data_1_split
I0812 15:06:14.992913 18832 net.cpp:84] Creating Layer label_data_1_split
I0812 15:06:14.992918 18832 net.cpp:406] label_data_1_split <- label
I0812 15:06:14.992923 18832 net.cpp:380] label_data_1_split -> label_data_1_split_0
I0812 15:06:14.992930 18832 net.cpp:380] label_data_1_split -> label_data_1_split_1
I0812 15:06:14.992960 18832 net.cpp:122] Setting up label_data_1_split
I0812 15:06:14.992966 18832 net.cpp:129] Top shape: 12 1 1 4096 (49152)
I0812 15:06:14.992970 18832 net.cpp:129] Top shape: 12 1 1 4096 (49152)
I0812 15:06:14.992974 18832 net.cpp:137] Memory required for data: 4128768
I0812 15:06:14.992976 18832 layer_factory.hpp:77] Creating layer data_feat
I0812 15:06:15.016271 18832 net.cpp:84] Creating Layer data_feat
I0812 15:06:15.016290 18832 net.cpp:406] data_feat <- data_data_0_split_0
I0812 15:06:15.016311 18832 net.cpp:380] data_feat -> data_feat
I0812 15:06:15.017765 18832 net.cpp:122] Setting up data_feat
I0812 15:06:15.017796 18832 net.cpp:129] Top shape: 12 3 1 4096 (147456)
I0812 15:06:15.017801 18832 net.cpp:137] Memory required for data: 4718592
I0812 15:06:15.017815 18832 layer_factory.hpp:77] Creating layer data_feat_data_feat_0_split
I0812 15:06:15.017825 18832 net.cpp:84] Creating Layer data_feat_data_feat_0_split
I0812 15:06:15.017829 18832 net.cpp:406] data_feat_data_feat_0_split <- data_feat
I0812 15:06:15.017837 18832 net.cpp:380] data_feat_data_feat_0_split -> data_feat_data_feat_0_split_0
I0812 15:06:15.017844 18832 net.cpp:380] data_feat_data_feat_0_split -> data_feat_data_feat_0_split_1
I0812 15:06:15.017854 18832 net.cpp:380] data_feat_data_feat_0_split -> data_feat_data_feat_0_split_2
I0812 15:06:15.017863 18832 net.cpp:380] data_feat_data_feat_0_split -> data_feat_data_feat_0_split_3
I0812 15:06:15.017879 18832 net.cpp:380] data_feat_data_feat_0_split -> data_feat_data_feat_0_split_4
I0812 15:06:15.017940 18832 net.cpp:122] Setting up data_feat_data_feat_0_split
I0812 15:06:15.017947 18832 net.cpp:129] Top shape: 12 3 1 4096 (147456)
I0812 15:06:15.017951 18832 net.cpp:129] Top shape: 12 3 1 4096 (147456)
I0812 15:06:15.017956 18832 net.cpp:129] Top shape: 12 3 1 4096 (147456)
I0812 15:06:15.017959 18832 net.cpp:129] Top shape: 12 3 1 4096 (147456)
I0812 15:06:15.017962 18832 net.cpp:129] Top shape: 12 3 1 4096 (147456)
I0812 15:06:15.017966 18832 net.cpp:137] Memory required for data: 7667712
I0812 15:06:15.017978 18832 layer_factory.hpp:77] Creating layer conv1
I0812 15:06:15.018018 18832 net.cpp:84] Creating Layer conv1
I0812 15:06:15.018025 18832 net.cpp:406] conv1 <- data_data_0_split_1
I0812 15:06:15.018031 18832 net.cpp:380] conv1 -> conv1
I0812 15:06:15.859704 18832 net.cpp:122] Setting up conv1
I0812 15:06:15.859764 18832 net.cpp:129] Top shape: 12 64 1 4096 (3145728)
I0812 15:06:15.859769 18832 net.cpp:137] Memory required for data: 20250624
I0812 15:06:15.859824 18832 layer_factory.hpp:77] Creating layer bn1
I0812 15:06:15.859863 18832 net.cpp:84] Creating Layer bn1
I0812 15:06:15.859884 18832 net.cpp:406] bn1 <- conv1
I0812 15:06:15.859894 18832 net.cpp:380] bn1 -> bn1
I0812 15:06:15.860159 18832 net.cpp:122] Setting up bn1
I0812 15:06:15.860182 18832 net.cpp:129] Top shape: 12 64 1 4096 (3145728)
I0812 15:06:15.860196 18832 net.cpp:137] Memory required for data: 32833536
I0812 15:06:15.860208 18832 layer_factory.hpp:77] Creating layer relu1
I0812 15:06:15.860249 18832 net.cpp:84] Creating Layer relu1
I0812 15:06:15.860256 18832 net.cpp:406] relu1 <- bn1
I0812 15:06:15.860262 18832 net.cpp:367] relu1 -> bn1 (in-place)
I0812 15:06:15.860605 18832 net.cpp:122] Setting up relu1
I0812 15:06:15.860618 18832 net.cpp:129] Top shape: 12 64 1 4096 (3145728)
I0812 15:06:15.860635 18832 net.cpp:137] Memory required for data: 45416448
I0812 15:06:15.860646 18832 layer_factory.hpp:77] Creating layer conv1a
I0812 15:06:15.860666 18832 net.cpp:84] Creating Layer conv1a
I0812 15:06:15.860682 18832 net.cpp:406] conv1a <- bn1
I0812 15:06:15.860688 18832 net.cpp:380] conv1a -> conv1a
I0812 15:06:15.862582 18832 net.cpp:122] Setting up conv1a
I0812 15:06:15.862598 18832 net.cpp:129] Top shape: 12 64 1 4096 (3145728)
I0812 15:06:15.862614 18832 net.cpp:137] Memory required for data: 57999360
I0812 15:06:15.862622 18832 layer_factory.hpp:77] Creating layer bn1a
I0812 15:06:15.862629 18832 net.cpp:84] Creating Layer bn1a
I0812 15:06:15.862633 18832 net.cpp:406] bn1a <- conv1a
I0812 15:06:15.862640 18832 net.cpp:380] bn1a -> bn1a
I0812 15:06:15.862869 18832 net.cpp:122] Setting up bn1a
I0812 15:06:15.862879 18832 net.cpp:129] Top shape: 12 64 1 4096 (3145728)
I0812 15:06:15.862884 18832 net.cpp:137] Memory required for data: 70582272
I0812 15:06:15.862895 18832 layer_factory.hpp:77] Creating layer relu1a
I0812 15:06:15.862911 18832 net.cpp:84] Creating Layer relu1a
I0812 15:06:15.862918 18832 net.cpp:406] relu1a <- bn1a
I0812 15:06:15.862926 18832 net.cpp:367] relu1a -> bn1a (in-place)
I0812 15:06:15.863234 18832 net.cpp:122] Setting up relu1a
I0812 15:06:15.863245 18832 net.cpp:129] Top shape: 12 64 1 4096 (3145728)
I0812 15:06:15.863260 18832 net.cpp:137] Memory required for data: 83165184
I0812 15:06:15.863263 18832 layer_factory.hpp:77] Creating layer bn1a_relu1a_0_split
I0812 15:06:15.863271 18832 net.cpp:84] Creating Layer bn1a_relu1a_0_split
I0812 15:06:15.863274 18832 net.cpp:406] bn1a_relu1a_0_split <- bn1a
I0812 15:06:15.863281 18832 net.cpp:380] bn1a_relu1a_0_split -> bn1a_relu1a_0_split_0
I0812 15:06:15.863291 18832 net.cpp:380] bn1a_relu1a_0_split -> bn1a_relu1a_0_split_1
I0812 15:06:15.863332 18832 net.cpp:122] Setting up bn1a_relu1a_0_split
I0812 15:06:15.863342 18832 net.cpp:129] Top shape: 12 64 1 4096 (3145728)
I0812 15:06:15.863345 18832 net.cpp:129] Top shape: 12 64 1 4096 (3145728)
I0812 15:06:15.863348 18832 net.cpp:137] Memory required for data: 108331008
I0812 15:06:15.863351 18832 layer_factory.hpp:77] Creating layer fconv1
I0812 15:06:15.863371 18832 net.cpp:84] Creating Layer fconv1
I0812 15:06:15.863376 18832 net.cpp:406] fconv1 <- bn1a_relu1a_0_split_0
I0812 15:06:15.863384 18832 net.cpp:380] fconv1 -> fconv1
I0812 15:06:15.864917 18832 net.cpp:122] Setting up fconv1
I0812 15:06:15.864933 18832 net.cpp:129] Top shape: 12 3 1 4096 (147456)
I0812 15:06:15.864948 18832 net.cpp:137] Memory required for data: 108920832
I0812 15:06:15.864954 18832 layer_factory.hpp:77] Creating layer fbn1
I0812 15:06:15.864962 18832 net.cpp:84] Creating Layer fbn1
I0812 15:06:15.864966 18832 net.cpp:406] fbn1 <- fconv1
I0812 15:06:15.864972 18832 net.cpp:380] fbn1 -> fbn1
I0812 15:06:15.865195 18832 net.cpp:122] Setting up fbn1
I0812 15:06:15.865205 18832 net.cpp:129] Top shape: 12 3 1 4096 (147456)
I0812 15:06:15.865207 18832 net.cpp:137] Memory required for data: 109510656
I0812 15:06:15.865221 18832 layer_factory.hpp:77] Creating layer frelu1
I0812 15:06:15.865236 18832 net.cpp:84] Creating Layer frelu1
I0812 15:06:15.865240 18832 net.cpp:406] frelu1 <- fbn1
I0812 15:06:15.865245 18832 net.cpp:367] frelu1 -> fbn1 (in-place)
I0812 15:06:15.865900 18832 net.cpp:122] Setting up frelu1
I0812 15:06:15.865914 18832 net.cpp:129] Top shape: 12 3 1 4096 (147456)
I0812 15:06:15.865929 18832 net.cpp:137] Memory required for data: 110100480
I0812 15:06:15.865932 18832 layer_factory.hpp:77] Creating layer feat1
I0812 15:06:15.865963 18832 net.cpp:84] Creating Layer feat1
I0812 15:06:15.865970 18832 net.cpp:406] feat1 <- data_feat_data_feat_0_split_0
I0812 15:06:15.865977 18832 net.cpp:406] feat1 <- fbn1
I0812 15:06:15.865993 18832 net.cpp:380] feat1 -> feat1
I0812 15:06:15.866057 18832 net.cpp:122] Setting up feat1
I0812 15:06:15.866067 18832 net.cpp:129] Top shape: 12 3 1 4096 (147456)
I0812 15:06:15.866070 18832 net.cpp:137] Memory required for data: 110690304
I0812 15:06:15.866073 18832 layer_factory.hpp:77] Creating layer data_lattice0
I0812 15:06:15.866129 18832 net.cpp:84] Creating Layer data_lattice0
I0812 15:06:15.866137 18832 net.cpp:406] data_lattice0 <- feat1
I0812 15:06:15.866144 18832 net.cpp:380] data_lattice0 -> data_lattice0
I0812 15:06:15.866324 18832 net.cpp:122] Setting up data_lattice0
I0812 15:06:15.866336 18832 net.cpp:129] Top shape: 12 3 1 4096 (147456)
I0812 15:06:15.866339 18832 net.cpp:137] Memory required for data: 111280128
I0812 15:06:15.866343 18832 layer_factory.hpp:77] Creating layer data_lattice0_data_lattice0_0_split
I0812 15:06:15.866350 18832 net.cpp:84] Creating Layer data_lattice0_data_lattice0_0_split
I0812 15:06:15.866354 18832 net.cpp:406] data_lattice0_data_lattice0_0_split <- data_lattice0
I0812 15:06:15.866367 18832 net.cpp:380] data_lattice0_data_lattice0_0_split -> data_lattice0_data_lattice0_0_split_0
I0812 15:06:15.866376 18832 net.cpp:380] data_lattice0_data_lattice0_0_split -> data_lattice0_data_lattice0_0_split_1
I0812 15:06:15.866415 18832 net.cpp:122] Setting up data_lattice0_data_lattice0_0_split
I0812 15:06:15.866422 18832 net.cpp:129] Top shape: 12 3 1 4096 (147456)
I0812 15:06:15.866426 18832 net.cpp:129] Top shape: 12 3 1 4096 (147456)
I0812 15:06:15.866430 18832 net.cpp:137] Memory required for data: 112459776
I0812 15:06:15.866437 18832 layer_factory.hpp:77] Creating layer conv2
I0812 15:06:15.866468 18832 net.cpp:84] Creating Layer conv2
I0812 15:06:15.866487 18832 net.cpp:406] conv2 <- bn1a_relu1a_0_split_1
I0812 15:06:15.866492 18832 net.cpp:406] conv2 <- data_lattice0_data_lattice0_0_split_0
I0812 15:06:15.866497 18832 net.cpp:406] conv2 <- data_lattice0_data_lattice0_0_split_1
I0812 15:06:15.866503 18832 net.cpp:380] conv2 -> conv2
I0812 15:06:15.869858 18832 net.cpp:122] Setting up conv2
I0812 15:06:15.869874 18832 net.cpp:129] Top shape: 12 64 1 4096 (3145728)
I0812 15:06:15.869877 18832 net.cpp:137] Memory required for data: 125042688
I0812 15:06:15.869889 18832 layer_factory.hpp:77] Creating layer bn2
I0812 15:06:15.869896 18832 net.cpp:84] Creating Layer bn2
I0812 15:06:15.869900 18832 net.cpp:406] bn2 <- conv2
I0812 15:06:15.869906 18832 net.cpp:380] bn2 -> bn2
I0812 15:06:15.870121 18832 net.cpp:122] Setting up bn2
I0812 15:06:15.870131 18832 net.cpp:129] Top shape: 12 64 1 4096 (3145728)
I0812 15:06:15.870133 18832 net.cpp:137] Memory required for data: 137625600
I0812 15:06:15.870141 18832 layer_factory.hpp:77] Creating layer relu2
I0812 15:06:15.870146 18832 net.cpp:84] Creating Layer relu2
I0812 15:06:15.870149 18832 net.cpp:406] relu2 <- bn2
I0812 15:06:15.870156 18832 net.cpp:367] relu2 -> bn2 (in-place)
I0812 15:06:15.870481 18832 net.cpp:122] Setting up relu2
I0812 15:06:15.870492 18832 net.cpp:129] Top shape: 12 64 1 4096 (3145728)
I0812 15:06:15.870507 18832 net.cpp:137] Memory required for data: 150208512
I0812 15:06:15.870512 18832 layer_factory.hpp:77] Creating layer bn2_relu2_0_split
I0812 15:06:15.870517 18832 net.cpp:84] Creating Layer bn2_relu2_0_split
I0812 15:06:15.870522 18832 net.cpp:406] bn2_relu2_0_split <- bn2
I0812 15:06:15.870527 18832 net.cpp:380] bn2_relu2_0_split -> bn2_relu2_0_split_0
I0812 15:06:15.870534 18832 net.cpp:380] bn2_relu2_0_split -> bn2_relu2_0_split_1
I0812 15:06:15.870540 18832 net.cpp:380] bn2_relu2_0_split -> bn2_relu2_0_split_2
I0812 15:06:15.870595 18832 net.cpp:122] Setting up bn2_relu2_0_split
I0812 15:06:15.870604 18832 net.cpp:129] Top shape: 12 64 1 4096 (3145728)
I0812 15:06:15.870607 18832 net.cpp:129] Top shape: 12 64 1 4096 (3145728)
I0812 15:06:15.870611 18832 net.cpp:129] Top shape: 12 64 1 4096 (3145728)
I0812 15:06:15.870615 18832 net.cpp:137] Memory required for data: 187957248
I0812 15:06:15.870625 18832 layer_factory.hpp:77] Creating layer fconv2
I0812 15:06:15.870645 18832 net.cpp:84] Creating Layer fconv2
I0812 15:06:15.870651 18832 net.cpp:406] fconv2 <- bn2_relu2_0_split_0
I0812 15:06:15.870657 18832 net.cpp:380] fconv2 -> fconv2
I0812 15:06:15.872511 18832 net.cpp:122] Setting up fconv2
I0812 15:06:15.872539 18832 net.cpp:129] Top shape: 12 3 1 4096 (147456)
I0812 15:06:15.872553 18832 net.cpp:137] Memory required for data: 188547072
I0812 15:06:15.872560 18832 layer_factory.hpp:77] Creating layer fbn2
I0812 15:06:15.872568 18832 net.cpp:84] Creating Layer fbn2
I0812 15:06:15.872572 18832 net.cpp:406] fbn2 <- fconv2
I0812 15:06:15.872578 18832 net.cpp:380] fbn2 -> fbn2
I0812 15:06:15.872810 18832 net.cpp:122] Setting up fbn2
I0812 15:06:15.872819 18832 net.cpp:129] Top shape: 12 3 1 4096 (147456)
I0812 15:06:15.872823 18832 net.cpp:137] Memory required for data: 189136896
I0812 15:06:15.872830 18832 layer_factory.hpp:77] Creating layer frelu2
I0812 15:06:15.872836 18832 net.cpp:84] Creating Layer frelu2
I0812 15:06:15.872840 18832 net.cpp:406] frelu2 <- fbn2
I0812 15:06:15.872845 18832 net.cpp:367] frelu2 -> fbn2 (in-place)
I0812 15:06:15.873162 18832 net.cpp:122] Setting up frelu2
I0812 15:06:15.873172 18832 net.cpp:129] Top shape: 12 3 1 4096 (147456)
I0812 15:06:15.873175 18832 net.cpp:137] Memory required for data: 189726720
I0812 15:06:15.873190 18832 layer_factory.hpp:77] Creating layer feat2
I0812 15:06:15.873198 18832 net.cpp:84] Creating Layer feat2
I0812 15:06:15.873201 18832 net.cpp:406] feat2 <- data_feat_data_feat_0_split_1
I0812 15:06:15.873215 18832 net.cpp:406] feat2 <- fbn2
I0812 15:06:15.873224 18832 net.cpp:380] feat2 -> feat2
I0812 15:06:15.873258 18832 net.cpp:122] Setting up feat2
I0812 15:06:15.873266 18832 net.cpp:129] Top shape: 12 3 1 4096 (147456)
I0812 15:06:15.873270 18832 net.cpp:137] Memory required for data: 190316544
I0812 15:06:15.873278 18832 layer_factory.hpp:77] Creating layer data_lattice1
I0812 15:06:15.873311 18832 net.cpp:84] Creating Layer data_lattice1
I0812 15:06:15.873319 18832 net.cpp:406] data_lattice1 <- feat2
I0812 15:06:15.873327 18832 net.cpp:380] data_lattice1 -> data_lattice1
I0812 15:06:15.874642 18832 net.cpp:122] Setting up data_lattice1
I0812 15:06:15.874657 18832 net.cpp:129] Top shape: 12 3 1 4096 (147456)
I0812 15:06:15.874672 18832 net.cpp:137] Memory required for data: 190906368
I0812 15:06:15.874676 18832 layer_factory.hpp:77] Creating layer data_lattice1_data_lattice1_0_split
I0812 15:06:15.874683 18832 net.cpp:84] Creating Layer data_lattice1_data_lattice1_0_split
I0812 15:06:15.874687 18832 net.cpp:406] data_lattice1_data_lattice1_0_split <- data_lattice1
I0812 15:06:15.874693 18832 net.cpp:380] data_lattice1_data_lattice1_0_split -> data_lattice1_data_lattice1_0_split_0
I0812 15:06:15.874701 18832 net.cpp:380] data_lattice1_data_lattice1_0_split -> data_lattice1_data_lattice1_0_split_1
I0812 15:06:15.874756 18832 net.cpp:122] Setting up data_lattice1_data_lattice1_0_split
I0812 15:06:15.874764 18832 net.cpp:129] Top shape: 12 3 1 4096 (147456)
I0812 15:06:15.874768 18832 net.cpp:129] Top shape: 12 3 1 4096 (147456)
I0812 15:06:15.874771 18832 net.cpp:137] Memory required for data: 192086016
I0812 15:06:15.874775 18832 layer_factory.hpp:77] Creating layer conv3
I0812 15:06:15.874789 18832 net.cpp:84] Creating Layer conv3
I0812 15:06:15.874794 18832 net.cpp:406] conv3 <- bn2_relu2_0_split_1
I0812 15:06:15.874799 18832 net.cpp:406] conv3 <- data_lattice1_data_lattice1_0_split_0
I0812 15:06:15.874804 18832 net.cpp:406] conv3 <- data_lattice1_data_lattice1_0_split_1
I0812 15:06:15.874809 18832 net.cpp:380] conv3 -> conv3
I0812 15:06:15.878620 18832 net.cpp:122] Setting up conv3
I0812 15:06:15.878629 18832 net.cpp:129] Top shape: 12 128 1 4096 (6291456)
I0812 15:06:15.878644 18832 net.cpp:137] Memory required for data: 217251840
I0812 15:06:15.878650 18832 layer_factory.hpp:77] Creating layer bn3
I0812 15:06:15.878656 18832 net.cpp:84] Creating Layer bn3
I0812 15:06:15.878660 18832 net.cpp:406] bn3 <- conv3
I0812 15:06:15.878665 18832 net.cpp:380] bn3 -> bn3
I0812 15:06:15.878886 18832 net.cpp:122] Setting up bn3
I0812 15:06:15.878895 18832 net.cpp:129] Top shape: 12 128 1 4096 (6291456)
I0812 15:06:15.878898 18832 net.cpp:137] Memory required for data: 242417664
I0812 15:06:15.878914 18832 layer_factory.hpp:77] Creating layer relu3
I0812 15:06:15.878927 18832 net.cpp:84] Creating Layer relu3
I0812 15:06:15.878933 18832 net.cpp:406] relu3 <- bn3
I0812 15:06:15.878939 18832 net.cpp:367] relu3 -> bn3 (in-place)
I0812 15:06:15.879268 18832 net.cpp:122] Setting up relu3
I0812 15:06:15.879281 18832 net.cpp:129] Top shape: 12 128 1 4096 (6291456)
I0812 15:06:15.879294 18832 net.cpp:137] Memory required for data: 267583488
I0812 15:06:15.879298 18832 layer_factory.hpp:77] Creating layer bn3_relu3_0_split
I0812 15:06:15.879304 18832 net.cpp:84] Creating Layer bn3_relu3_0_split
I0812 15:06:15.879308 18832 net.cpp:406] bn3_relu3_0_split <- bn3
I0812 15:06:15.879314 18832 net.cpp:380] bn3_relu3_0_split -> bn3_relu3_0_split_0
I0812 15:06:15.879321 18832 net.cpp:380] bn3_relu3_0_split -> bn3_relu3_0_split_1
I0812 15:06:15.879328 18832 net.cpp:380] bn3_relu3_0_split -> bn3_relu3_0_split_2
I0812 15:06:15.879408 18832 net.cpp:122] Setting up bn3_relu3_0_split
I0812 15:06:15.879415 18832 net.cpp:129] Top shape: 12 128 1 4096 (6291456)
I0812 15:06:15.879420 18832 net.cpp:129] Top shape: 12 128 1 4096 (6291456)
I0812 15:06:15.879423 18832 net.cpp:129] Top shape: 12 128 1 4096 (6291456)
I0812 15:06:15.879426 18832 net.cpp:137] Memory required for data: 343080960
I0812 15:06:15.879429 18832 layer_factory.hpp:77] Creating layer fconv3
I0812 15:06:15.879442 18832 net.cpp:84] Creating Layer fconv3
I0812 15:06:15.879447 18832 net.cpp:406] fconv3 <- bn3_relu3_0_split_0
I0812 15:06:15.879456 18832 net.cpp:380] fconv3 -> fconv3
I0812 15:06:15.881378 18832 net.cpp:122] Setting up fconv3
I0812 15:06:15.881394 18832 net.cpp:129] Top shape: 12 3 1 4096 (147456)
I0812 15:06:15.881409 18832 net.cpp:137] Memory required for data: 343670784
I0812 15:06:15.881417 18832 layer_factory.hpp:77] Creating layer fbn3
I0812 15:06:15.881423 18832 net.cpp:84] Creating Layer fbn3
I0812 15:06:15.881428 18832 net.cpp:406] fbn3 <- fconv3
I0812 15:06:15.881435 18832 net.cpp:380] fbn3 -> fbn3
I0812 15:06:15.881666 18832 net.cpp:122] Setting up fbn3
I0812 15:06:15.881675 18832 net.cpp:129] Top shape: 12 3 1 4096 (147456)
I0812 15:06:15.881678 18832 net.cpp:137] Memory required for data: 344260608
I0812 15:06:15.881700 18832 layer_factory.hpp:77] Creating layer frelu3
I0812 15:06:15.881713 18832 net.cpp:84] Creating Layer frelu3
I0812 15:06:15.881718 18832 net.cpp:406] frelu3 <- fbn3
I0812 15:06:15.881723 18832 net.cpp:367] frelu3 -> fbn3 (in-place)
I0812 15:06:15.882048 18832 net.cpp:122] Setting up frelu3
I0812 15:06:15.882059 18832 net.cpp:129] Top shape: 12 3 1 4096 (147456)
I0812 15:06:15.882074 18832 net.cpp:137] Memory required for data: 344850432
I0812 15:06:15.882078 18832 layer_factory.hpp:77] Creating layer feat3
I0812 15:06:15.882084 18832 net.cpp:84] Creating Layer feat3
I0812 15:06:15.882088 18832 net.cpp:406] feat3 <- data_feat_data_feat_0_split_2
I0812 15:06:15.882093 18832 net.cpp:406] feat3 <- fbn3
I0812 15:06:15.882100 18832 net.cpp:380] feat3 -> feat3
I0812 15:06:15.882130 18832 net.cpp:122] Setting up feat3
I0812 15:06:15.882138 18832 net.cpp:129] Top shape: 12 3 1 4096 (147456)
I0812 15:06:15.882140 18832 net.cpp:137] Memory required for data: 345440256
I0812 15:06:15.882143 18832 layer_factory.hpp:77] Creating layer data_lattice2
I0812 15:06:15.882174 18832 net.cpp:84] Creating Layer data_lattice2
I0812 15:06:15.882180 18832 net.cpp:406] data_lattice2 <- feat3
I0812 15:06:15.882187 18832 net.cpp:380] data_lattice2 -> data_lattice2
I0812 15:06:15.882316 18832 net.cpp:122] Setting up data_lattice2
I0812 15:06:15.882328 18832 net.cpp:129] Top shape: 12 3 1 4096 (147456)
I0812 15:06:15.882331 18832 net.cpp:137] Memory required for data: 346030080
I0812 15:06:15.882334 18832 layer_factory.hpp:77] Creating layer data_lattice2_data_lattice2_0_split
I0812 15:06:15.882340 18832 net.cpp:84] Creating Layer data_lattice2_data_lattice2_0_split
I0812 15:06:15.882344 18832 net.cpp:406] data_lattice2_data_lattice2_0_split <- data_lattice2
I0812 15:06:15.882350 18832 net.cpp:380] data_lattice2_data_lattice2_0_split -> data_lattice2_data_lattice2_0_split_0
I0812 15:06:15.882359 18832 net.cpp:380] data_lattice2_data_lattice2_0_split -> data_lattice2_data_lattice2_0_split_1
I0812 15:06:15.882397 18832 net.cpp:122] Setting up data_lattice2_data_lattice2_0_split
I0812 15:06:15.882405 18832 net.cpp:129] Top shape: 12 3 1 4096 (147456)
I0812 15:06:15.882408 18832 net.cpp:129] Top shape: 12 3 1 4096 (147456)
I0812 15:06:15.882411 18832 net.cpp:137] Memory required for data: 347209728
I0812 15:06:15.882421 18832 layer_factory.hpp:77] Creating layer conv4
I0812 15:06:15.882434 18832 net.cpp:84] Creating Layer conv4
I0812 15:06:15.882441 18832 net.cpp:406] conv4 <- bn3_relu3_0_split_1
I0812 15:06:15.882447 18832 net.cpp:406] conv4 <- data_lattice2_data_lattice2_0_split_0
I0812 15:06:15.882450 18832 net.cpp:406] conv4 <- data_lattice2_data_lattice2_0_split_1
I0812 15:06:15.882457 18832 net.cpp:380] conv4 -> conv4
I0812 15:06:15.898452 18832 net.cpp:122] Setting up conv4
I0812 15:06:15.898507 18832 net.cpp:129] Top shape: 12 256 1 4096 (12582912)
I0812 15:06:15.898511 18832 net.cpp:137] Memory required for data: 397541376
I0812 15:06:15.898524 18832 layer_factory.hpp:77] Creating layer bn4
I0812 15:06:15.898537 18832 net.cpp:84] Creating Layer bn4
I0812 15:06:15.898543 18832 net.cpp:406] bn4 <- conv4
I0812 15:06:15.898553 18832 net.cpp:380] bn4 -> bn4
I0812 15:06:15.898794 18832 net.cpp:122] Setting up bn4
I0812 15:06:15.898803 18832 net.cpp:129] Top shape: 12 256 1 4096 (12582912)
I0812 15:06:15.898808 18832 net.cpp:137] Memory required for data: 447873024
I0812 15:06:15.898815 18832 layer_factory.hpp:77] Creating layer relu4
I0812 15:06:15.898824 18832 net.cpp:84] Creating Layer relu4
I0812 15:06:15.898828 18832 net.cpp:406] relu4 <- bn4
I0812 15:06:15.898833 18832 net.cpp:367] relu4 -> bn4 (in-place)
I0812 15:06:15.899237 18832 net.cpp:122] Setting up relu4
I0812 15:06:15.899248 18832 net.cpp:129] Top shape: 12 256 1 4096 (12582912)
I0812 15:06:15.899252 18832 net.cpp:137] Memory required for data: 498204672
I0812 15:06:15.899267 18832 layer_factory.hpp:77] Creating layer bn4_relu4_0_split
I0812 15:06:15.899293 18832 net.cpp:84] Creating Layer bn4_relu4_0_split
I0812 15:06:15.899298 18832 net.cpp:406] bn4_relu4_0_split <- bn4
I0812 15:06:15.899304 18832 net.cpp:380] bn4_relu4_0_split -> bn4_relu4_0_split_0
I0812 15:06:15.899312 18832 net.cpp:380] bn4_relu4_0_split -> bn4_relu4_0_split_1
I0812 15:06:15.899318 18832 net.cpp:380] bn4_relu4_0_split -> bn4_relu4_0_split_2
I0812 15:06:15.899405 18832 net.cpp:122] Setting up bn4_relu4_0_split
I0812 15:06:15.899413 18832 net.cpp:129] Top shape: 12 256 1 4096 (12582912)
I0812 15:06:15.899417 18832 net.cpp:129] Top shape: 12 256 1 4096 (12582912)
I0812 15:06:15.899420 18832 net.cpp:129] Top shape: 12 256 1 4096 (12582912)
I0812 15:06:15.899423 18832 net.cpp:137] Memory required for data: 649199616
I0812 15:06:15.899427 18832 layer_factory.hpp:77] Creating layer fconv4
I0812 15:06:15.899447 18832 net.cpp:84] Creating Layer fconv4
I0812 15:06:15.899453 18832 net.cpp:406] fconv4 <- bn4_relu4_0_split_0
I0812 15:06:15.899462 18832 net.cpp:380] fconv4 -> fconv4
I0812 15:06:15.901604 18832 net.cpp:122] Setting up fconv4
I0812 15:06:15.901620 18832 net.cpp:129] Top shape: 12 3 1 4096 (147456)
I0812 15:06:15.901635 18832 net.cpp:137] Memory required for data: 649789440
I0812 15:06:15.901643 18832 layer_factory.hpp:77] Creating layer fbn4
I0812 15:06:15.901650 18832 net.cpp:84] Creating Layer fbn4
I0812 15:06:15.901654 18832 net.cpp:406] fbn4 <- fconv4
I0812 15:06:15.901660 18832 net.cpp:380] fbn4 -> fbn4
I0812 15:06:15.901901 18832 net.cpp:122] Setting up fbn4
I0812 15:06:15.901909 18832 net.cpp:129] Top shape: 12 3 1 4096 (147456)
I0812 15:06:15.901913 18832 net.cpp:137] Memory required for data: 650379264
I0812 15:06:15.901921 18832 layer_factory.hpp:77] Creating layer frelu4
I0812 15:06:15.901927 18832 net.cpp:84] Creating Layer frelu4
I0812 15:06:15.901932 18832 net.cpp:406] frelu4 <- fbn4
I0812 15:06:15.901937 18832 net.cpp:367] frelu4 -> fbn4 (in-place)
I0812 15:06:15.902257 18832 net.cpp:122] Setting up frelu4
I0812 15:06:15.902268 18832 net.cpp:129] Top shape: 12 3 1 4096 (147456)
I0812 15:06:15.902271 18832 net.cpp:137] Memory required for data: 650969088
I0812 15:06:15.902287 18832 layer_factory.hpp:77] Creating layer feat4
I0812 15:06:15.902305 18832 net.cpp:84] Creating Layer feat4
I0812 15:06:15.902312 18832 net.cpp:406] feat4 <- data_feat_data_feat_0_split_3
I0812 15:06:15.902318 18832 net.cpp:406] feat4 <- fbn4
I0812 15:06:15.902325 18832 net.cpp:380] feat4 -> feat4
I0812 15:06:15.902359 18832 net.cpp:122] Setting up feat4
I0812 15:06:15.902367 18832 net.cpp:129] Top shape: 12 3 1 4096 (147456)
I0812 15:06:15.902370 18832 net.cpp:137] Memory required for data: 651558912
I0812 15:06:15.902379 18832 layer_factory.hpp:77] Creating layer data_lattice3
I0812 15:06:15.902431 18832 net.cpp:84] Creating Layer data_lattice3
I0812 15:06:15.902439 18832 net.cpp:406] data_lattice3 <- feat4
I0812 15:06:15.902446 18832 net.cpp:380] data_lattice3 -> data_lattice3
I0812 15:06:15.903805 18832 net.cpp:122] Setting up data_lattice3
I0812 15:06:15.903820 18832 net.cpp:129] Top shape: 12 3 1 4096 (147456)
I0812 15:06:15.903834 18832 net.cpp:137] Memory required for data: 652148736
I0812 15:06:15.903838 18832 layer_factory.hpp:77] Creating layer data_lattice3_data_lattice3_0_split
I0812 15:06:15.903846 18832 net.cpp:84] Creating Layer data_lattice3_data_lattice3_0_split
I0812 15:06:15.903849 18832 net.cpp:406] data_lattice3_data_lattice3_0_split <- data_lattice3
I0812 15:06:15.903864 18832 net.cpp:380] data_lattice3_data_lattice3_0_split -> data_lattice3_data_lattice3_0_split_0
I0812 15:06:15.903875 18832 net.cpp:380] data_lattice3_data_lattice3_0_split -> data_lattice3_data_lattice3_0_split_1
I0812 15:06:15.903925 18832 net.cpp:122] Setting up data_lattice3_data_lattice3_0_split
I0812 15:06:15.903934 18832 net.cpp:129] Top shape: 12 3 1 4096 (147456)
I0812 15:06:15.903937 18832 net.cpp:129] Top shape: 12 3 1 4096 (147456)
I0812 15:06:15.903940 18832 net.cpp:137] Memory required for data: 653328384
I0812 15:06:15.903944 18832 layer_factory.hpp:77] Creating layer conv5
I0812 15:06:15.903951 18832 net.cpp:84] Creating Layer conv5
I0812 15:06:15.903957 18832 net.cpp:406] conv5 <- bn4_relu4_0_split_1
I0812 15:06:15.903962 18832 net.cpp:406] conv5 <- data_lattice3_data_lattice3_0_split_0
I0812 15:06:15.903967 18832 net.cpp:406] conv5 <- data_lattice3_data_lattice3_0_split_1
I0812 15:06:15.903973 18832 net.cpp:380] conv5 -> conv5
I0812 15:06:15.935668 18832 net.cpp:122] Setting up conv5
I0812 15:06:15.935714 18832 net.cpp:129] Top shape: 12 256 1 4096 (12582912)
I0812 15:06:15.935719 18832 net.cpp:137] Memory required for data: 703660032
I0812 15:06:15.935731 18832 layer_factory.hpp:77] Creating layer bn5
I0812 15:06:15.935745 18832 net.cpp:84] Creating Layer bn5
I0812 15:06:15.935751 18832 net.cpp:406] bn5 <- conv5
I0812 15:06:15.935760 18832 net.cpp:380] bn5 -> bn5
I0812 15:06:15.936002 18832 net.cpp:122] Setting up bn5
I0812 15:06:15.936012 18832 net.cpp:129] Top shape: 12 256 1 4096 (12582912)
I0812 15:06:15.936014 18832 net.cpp:137] Memory required for data: 753991680
I0812 15:06:15.936038 18832 layer_factory.hpp:77] Creating layer relu5
I0812 15:06:15.936053 18832 net.cpp:84] Creating Layer relu5
I0812 15:06:15.936059 18832 net.cpp:406] relu5 <- bn5
I0812 15:06:15.936064 18832 net.cpp:367] relu5 -> bn5 (in-place)
I0812 15:06:15.937045 18832 net.cpp:122] Setting up relu5
I0812 15:06:15.937060 18832 net.cpp:129] Top shape: 12 256 1 4096 (12582912)
I0812 15:06:15.937075 18832 net.cpp:137] Memory required for data: 804323328
I0812 15:06:15.937079 18832 layer_factory.hpp:77] Creating layer bn5_relu5_0_split
I0812 15:06:15.937086 18832 net.cpp:84] Creating Layer bn5_relu5_0_split
I0812 15:06:15.937090 18832 net.cpp:406] bn5_relu5_0_split <- bn5
I0812 15:06:15.937098 18832 net.cpp:380] bn5_relu5_0_split -> bn5_relu5_0_split_0
I0812 15:06:15.937105 18832 net.cpp:380] bn5_relu5_0_split -> bn5_relu5_0_split_1
I0812 15:06:15.937111 18832 net.cpp:380] bn5_relu5_0_split -> bn5_relu5_0_split_2
I0812 15:06:15.937168 18832 net.cpp:122] Setting up bn5_relu5_0_split
I0812 15:06:15.937176 18832 net.cpp:129] Top shape: 12 256 1 4096 (12582912)
I0812 15:06:15.937180 18832 net.cpp:129] Top shape: 12 256 1 4096 (12582912)
I0812 15:06:15.937185 18832 net.cpp:129] Top shape: 12 256 1 4096 (12582912)
I0812 15:06:15.937186 18832 net.cpp:137] Memory required for data: 955318272
I0812 15:06:15.937189 18832 layer_factory.hpp:77] Creating layer fconv5
I0812 15:06:15.937203 18832 net.cpp:84] Creating Layer fconv5
I0812 15:06:15.937208 18832 net.cpp:406] fconv5 <- bn5_relu5_0_split_0
I0812 15:06:15.937217 18832 net.cpp:380] fconv5 -> fconv5
I0812 15:06:15.938793 18832 net.cpp:122] Setting up fconv5
I0812 15:06:15.938809 18832 net.cpp:129] Top shape: 12 3 1 4096 (147456)
I0812 15:06:15.938824 18832 net.cpp:137] Memory required for data: 955908096
I0812 15:06:15.938843 18832 layer_factory.hpp:77] Creating layer fbn5
I0812 15:06:15.938849 18832 net.cpp:84] Creating Layer fbn5
I0812 15:06:15.938853 18832 net.cpp:406] fbn5 <- fconv5
I0812 15:06:15.938863 18832 net.cpp:380] fbn5 -> fbn5
I0812 15:06:15.939090 18832 net.cpp:122] Setting up fbn5
I0812 15:06:15.939100 18832 net.cpp:129] Top shape: 12 3 1 4096 (147456)
I0812 15:06:15.939103 18832 net.cpp:137] Memory required for data: 956497920
I0812 15:06:15.939110 18832 layer_factory.hpp:77] Creating layer frelu5
I0812 15:06:15.939137 18832 net.cpp:84] Creating Layer frelu5
I0812 15:06:15.939144 18832 net.cpp:406] frelu5 <- fbn5
I0812 15:06:15.939149 18832 net.cpp:367] frelu5 -> fbn5 (in-place)
I0812 15:06:15.939458 18832 net.cpp:122] Setting up frelu5
I0812 15:06:15.939469 18832 net.cpp:129] Top shape: 12 3 1 4096 (147456)
I0812 15:06:15.939472 18832 net.cpp:137] Memory required for data: 957087744
I0812 15:06:15.939487 18832 layer_factory.hpp:77] Creating layer feat5
I0812 15:06:15.939496 18832 net.cpp:84] Creating Layer feat5
I0812 15:06:15.939501 18832 net.cpp:406] feat5 <- data_feat_data_feat_0_split_4
I0812 15:06:15.939508 18832 net.cpp:406] feat5 <- fbn5
I0812 15:06:15.939514 18832 net.cpp:380] feat5 -> feat5
I0812 15:06:15.939553 18832 net.cpp:122] Setting up feat5
I0812 15:06:15.939561 18832 net.cpp:129] Top shape: 12 3 1 4096 (147456)
I0812 15:06:15.939565 18832 net.cpp:137] Memory required for data: 957677568
I0812 15:06:15.939568 18832 layer_factory.hpp:77] Creating layer data_lattice4
I0812 15:06:15.939627 18832 net.cpp:84] Creating Layer data_lattice4
I0812 15:06:15.939635 18832 net.cpp:406] data_lattice4 <- feat5
I0812 15:06:15.939641 18832 net.cpp:380] data_lattice4 -> data_lattice4
I0812 15:06:15.939831 18832 net.cpp:122] Setting up data_lattice4
I0812 15:06:15.939843 18832 net.cpp:129] Top shape: 12 3 1 4096 (147456)
I0812 15:06:15.939846 18832 net.cpp:137] Memory required for data: 958267392
I0812 15:06:15.939851 18832 layer_factory.hpp:77] Creating layer data_lattice4_data_lattice4_0_split
I0812 15:06:15.939857 18832 net.cpp:84] Creating Layer data_lattice4_data_lattice4_0_split
I0812 15:06:15.939862 18832 net.cpp:406] data_lattice4_data_lattice4_0_split <- data_lattice4
I0812 15:06:15.939868 18832 net.cpp:380] data_lattice4_data_lattice4_0_split -> data_lattice4_data_lattice4_0_split_0
I0812 15:06:15.939875 18832 net.cpp:380] data_lattice4_data_lattice4_0_split -> data_lattice4_data_lattice4_0_split_1
I0812 15:06:15.939924 18832 net.cpp:122] Setting up data_lattice4_data_lattice4_0_split
I0812 15:06:15.939930 18832 net.cpp:129] Top shape: 12 3 1 4096 (147456)
I0812 15:06:15.939934 18832 net.cpp:129] Top shape: 12 3 1 4096 (147456)
I0812 15:06:15.939937 18832 net.cpp:137] Memory required for data: 959447040
I0812 15:06:15.939940 18832 layer_factory.hpp:77] Creating layer conv6
I0812 15:06:15.939949 18832 net.cpp:84] Creating Layer conv6
I0812 15:06:15.939951 18832 net.cpp:406] conv6 <- bn5_relu5_0_split_1
I0812 15:06:15.939956 18832 net.cpp:406] conv6 <- data_lattice4_data_lattice4_0_split_0
I0812 15:06:15.939960 18832 net.cpp:406] conv6 <- data_lattice4_data_lattice4_0_split_1
I0812 15:06:15.939966 18832 net.cpp:380] conv6 -> conv6
I0812 15:06:15.970701 18832 net.cpp:122] Setting up conv6
I0812 15:06:15.970755 18832 net.cpp:129] Top shape: 12 256 1 4096 (12582912)
I0812 15:06:15.970759 18832 net.cpp:137] Memory required for data: 1009778688
I0812 15:06:15.970772 18832 layer_factory.hpp:77] Creating layer bn6
I0812 15:06:15.970789 18832 net.cpp:84] Creating Layer bn6
I0812 15:06:15.970798 18832 net.cpp:406] bn6 <- conv6
I0812 15:06:15.970808 18832 net.cpp:380] bn6 -> bn6
I0812 15:06:15.971045 18832 net.cpp:122] Setting up bn6
I0812 15:06:15.971053 18832 net.cpp:129] Top shape: 12 256 1 4096 (12582912)
I0812 15:06:15.971056 18832 net.cpp:137] Memory required for data: 1060110336
I0812 15:06:15.971077 18832 layer_factory.hpp:77] Creating layer relu6
I0812 15:06:15.971087 18832 net.cpp:84] Creating Layer relu6
I0812 15:06:15.971091 18832 net.cpp:406] relu6 <- bn6
I0812 15:06:15.971097 18832 net.cpp:367] relu6 -> bn6 (in-place)
I0812 15:06:15.972035 18832 net.cpp:122] Setting up relu6
I0812 15:06:15.972049 18832 net.cpp:129] Top shape: 12 256 1 4096 (12582912)
I0812 15:06:15.972064 18832 net.cpp:137] Memory required for data: 1110441984
I0812 15:06:15.972069 18832 layer_factory.hpp:77] Creating layer concat6
I0812 15:06:15.972146 18832 net.cpp:84] Creating Layer concat6
I0812 15:06:15.972154 18832 net.cpp:406] concat6 <- bn6
I0812 15:06:15.972160 18832 net.cpp:406] concat6 <- bn2_relu2_0_split_2
I0812 15:06:15.972164 18832 net.cpp:406] concat6 <- bn3_relu3_0_split_2
I0812 15:06:15.972168 18832 net.cpp:406] concat6 <- bn4_relu4_0_split_2
I0812 15:06:15.972172 18832 net.cpp:406] concat6 <- bn5_relu5_0_split_2
I0812 15:06:15.972177 18832 net.cpp:380] concat6 -> concat6
I0812 15:06:15.972231 18832 net.cpp:122] Setting up concat6
I0812 15:06:15.972241 18832 net.cpp:129] Top shape: 12 960 1 4096 (47185920)
I0812 15:06:15.972245 18832 net.cpp:137] Memory required for data: 1299185664
I0812 15:06:15.972249 18832 layer_factory.hpp:77] Creating layer conv7
I0812 15:06:15.972262 18832 net.cpp:84] Creating Layer conv7
I0812 15:06:15.972267 18832 net.cpp:406] conv7 <- concat6
I0812 15:06:15.972275 18832 net.cpp:380] conv7 -> conv7
I0812 15:06:15.974717 18832 net.cpp:122] Setting up conv7
I0812 15:06:15.974732 18832 net.cpp:129] Top shape: 12 128 1 4096 (6291456)
I0812 15:06:15.974747 18832 net.cpp:137] Memory required for data: 1324351488
I0812 15:06:15.974753 18832 layer_factory.hpp:77] Creating layer bn7
I0812 15:06:15.974761 18832 net.cpp:84] Creating Layer bn7
I0812 15:06:15.974764 18832 net.cpp:406] bn7 <- conv7
I0812 15:06:15.974771 18832 net.cpp:380] bn7 -> bn7
I0812 15:06:15.974995 18832 net.cpp:122] Setting up bn7
I0812 15:06:15.975005 18832 net.cpp:129] Top shape: 12 128 1 4096 (6291456)
I0812 15:06:15.975008 18832 net.cpp:137] Memory required for data: 1349517312
I0812 15:06:15.975028 18832 layer_factory.hpp:77] Creating layer relu7
I0812 15:06:15.975054 18832 net.cpp:84] Creating Layer relu7
I0812 15:06:15.975060 18832 net.cpp:406] relu7 <- bn7
I0812 15:06:15.975065 18832 net.cpp:367] relu7 -> bn7 (in-place)
I0812 15:06:15.975379 18832 net.cpp:122] Setting up relu7
I0812 15:06:15.975390 18832 net.cpp:129] Top shape: 12 128 1 4096 (6291456)
I0812 15:06:15.975405 18832 net.cpp:137] Memory required for data: 1374683136
I0812 15:06:15.975409 18832 layer_factory.hpp:77] Creating layer conv8
I0812 15:06:15.975421 18832 net.cpp:84] Creating Layer conv8
I0812 15:06:15.975425 18832 net.cpp:406] conv8 <- bn7
I0812 15:06:15.975432 18832 net.cpp:380] conv8 -> conv8
I0812 15:06:15.977282 18832 net.cpp:122] Setting up conv8
I0812 15:06:15.977296 18832 net.cpp:129] Top shape: 12 13 1 4096 (638976)
I0812 15:06:15.977310 18832 net.cpp:137] Memory required for data: 1377239040
I0812 15:06:15.977318 18832 layer_factory.hpp:77] Creating layer conv8_conv8_0_split
I0812 15:06:15.977325 18832 net.cpp:84] Creating Layer conv8_conv8_0_split
I0812 15:06:15.977329 18832 net.cpp:406] conv8_conv8_0_split <- conv8
I0812 15:06:15.977334 18832 net.cpp:380] conv8_conv8_0_split -> conv8_conv8_0_split_0
I0812 15:06:15.977341 18832 net.cpp:380] conv8_conv8_0_split -> conv8_conv8_0_split_1
I0812 15:06:15.977394 18832 net.cpp:122] Setting up conv8_conv8_0_split
I0812 15:06:15.977401 18832 net.cpp:129] Top shape: 12 13 1 4096 (638976)
I0812 15:06:15.977406 18832 net.cpp:129] Top shape: 12 13 1 4096 (638976)
I0812 15:06:15.977408 18832 net.cpp:137] Memory required for data: 1382350848
I0812 15:06:15.977411 18832 layer_factory.hpp:77] Creating layer loss
I0812 15:06:15.977444 18832 net.cpp:84] Creating Layer loss
I0812 15:06:15.977452 18832 net.cpp:406] loss <- conv8_conv8_0_split_0
I0812 15:06:15.977458 18832 net.cpp:406] loss <- label_data_1_split_0
I0812 15:06:15.977463 18832 net.cpp:380] loss -> loss
…
