…
I0817 13:17:11.144403 25176 net.cpp:294] The NetState phase (0) differed from the phase (1) specified by a rule in layer data
I0817 13:17:11.144901 25176 net.cpp:51] Initializing net from parameters: 
state {
  phase: TRAIN
}
layer {
  name: "data"
  type: "Python"
  top: "data"
  top: "label"
  include {
    phase: TRAIN
  }
  python_param {
    module: "dataset_lidar"
    layer: "InputShapenet"
    param_str: "{\'sample_size\': 4096, \'test_area\': \'6\', \'batch_size\': 12, \'feat_dims\': \'x_y_z_r_g_b\', \'subset\': \'train\', \'root\': \'../../data/shapenet_ericyi_ply\', \'jitter_xyz\': 0.01, \'jitter_stretch\': 0.05, \'jitter_rotation\': 5.0}"
  }
}
layer {
  name: "data_feat"
  type: "Python"
  bottom: "data"
  top: "data_feat"
  python_param {
    module: "custom_layers"
    layer: "PickAndScale2"
    param_str: "0_1_2"
  }
}
layer {
  name: "conv1"
  type: "Convolution"
  bottom: "data"
  top: "conv1"
  param {
    lr_mult: 1
  }
  param {
    lr_mult: 0.1
  }
  convolution_param {
    num_output: 64
    pad: 0
    kernel_size: 1
    stride: 1
    weight_filler {
      type: "xavier"
    }
    bias_filler {
      type: "constant"
      value: 0
    }
  }
}
layer {
  name: "bn1"
  type: "BatchNorm"
  bottom: "conv1"
  top: "bn1"
}
layer {
  name: "relu1"
  type: "ReLU"
  bottom: "bn1"
  top: "bn1"
}
layer {
  name: "conv1a"
  type: "Convolution"
  bottom: "bn1"
  top: "conv1a"
  param {
    lr_mult: 1
  }
  param {
    lr_mult: 0.1
  }
  convolution_param {
    num_output: 64
    pad: 0
    kernel_size: 1
    stride: 1
    weight_filler {
      type: "xavier"
    }
    bias_filler {
      type: "constant"
      value: 0
    }
  }
}
layer {
  name: "bn1a"
  type: "BatchNorm"
  bottom: "conv1a"
  top: "bn1a"
}
layer {
  name: "relu1a"
  type: "ReLU"
  bottom: "bn1a"
  top: "bn1a"
}
layer {
  name: "fconv1"
  type: "Convolution"
  bottom: "bn1a"
  top: "fconv1"
  param {
    lr_mult: 1
  }
  param {
    lr_mult: 0.1
  }
  convolution_param {
    num_output: 3
    pad: 0
    kernel_size: 1
    stride: 1
    weight_filler {
      type: "xavier"
    }
    bias_filler {
      type: "constant"
      value: 0
    }
  }
}
layer {
  name: "fconv1_"
  type: "ReLU2"
  bottom: "fconv1"
  top: "fconv1_"
  relu2_param {
    threshold: 0.02
  }
}
layer {
  name: "fconv1__"
  type: "ReLU3"
  bottom: "fconv1_"
  top: "fconv1__"
  relu2_param {
    threshold: -0.02
  }
}
layer {
  name: "feat1"
  type: "Eltwise"
  bottom: "data_feat"
  bottom: "fconv1__"
  top: "feat1"
  eltwise_param {
    operation: SUM
  }
}
layer {
  name: "data_lattice0"
  type: "Python"
  bottom: "feat1"
  top: "data_lattice0"
  python_param {
    module: "custom_layers"
    layer: "PickAndScale2"
    param_str: "0*48_1*48_2*48"
  }
}
layer {
  name: "conv2"
  type: "Permutohedral"
  bottom: "bn1a"
  bottom: "data_lattice0"
  bottom: "data_lattice0"
  top: "conv2"
  param {
    lr_mult: 1
    decay_mult: 1
  }
  param {
    lr_mult: 2
    decay_mult: 0
  }
  permutohedral_param {
    num_output: 64
    neighborhood_size: 1
    filter_filler {
      type: "gaussian"
      std: 0.001
    }
    bias_term: true
    bias_filler {
      type: "constant"
      value: 0
    }
    group: 1
    norm_type: AFTER
    offset_type: NONE
  }
}
layer {
  name: "bn2"
  type: "BatchNorm"
  bottom: "conv2"
  top: "bn2"
}
layer {
  name: "relu2"
  type: "ReLU"
  bottom: "bn2"
  top: "bn2"
}
layer {
  name: "fconv2"
  type: "Convolution"
  bottom: "bn2"
  top: "fconv2"
  param {
    lr_mult: 1
  }
  param {
    lr_mult: 0.1
  }
  convolution_param {
    num_output: 3
    pad: 0
    kernel_size: 1
    stride: 1
    weight_filler {
      type: "xavier"
    }
    bias_filler {
      type: "constant"
      value: 0
    }
  }
}
layer {
  name: "fconv2_"
  type: "ReLU2"
  bottom: "fconv2"
  top: "fconv2_"
  relu2_param {
    threshold: 0.02
  }
}
layer {
  name: "fconv2__"
  type: "ReLU3"
  bottom: "fconv2_"
  top: "fconv2__"
  relu2_param {
    threshold: -0.02
  }
}
layer {
  name: "feat2"
  type: "Eltwise"
  bottom: "data_feat"
  bottom: "fconv2__"
  top: "feat2"
  eltwise_param {
    operation: SUM
  }
}
layer {
  name: "data_lattice1"
  type: "Python"
  bottom: "feat2"
  top: "data_lattice1"
  python_param {
    module: "custom_layers"
    layer: "PickAndScale2"
    param_str: "0*24_1*24_2*24"
  }
}
layer {
  name: "conv3"
  type: "Permutohedral"
  bottom: "bn2"
  bottom: "data_lattice1"
  bottom: "data_lattice1"
  top: "conv3"
  param {
    lr_mult: 1
    decay_mult: 1
  }
  param {
    lr_mult: 2
    decay_mult: 0
  }
  permutohedral_param {
    num_output: 128
    neighborhood_size: 1
    filter_filler {
      type: "gaussian"
      std: 0.001
    }
    bias_term: true
    bias_filler {
      type: "constant"
      value: 0
    }
    group: 1
    norm_type: AFTER
    offset_type: NONE
  }
}
layer {
  name: "bn3"
  type: "BatchNorm"
  bottom: "conv3"
  top: "bn3"
}
layer {
  name: "relu3"
  type: "ReLU"
  bottom: "bn3"
  top: "bn3"
}
layer {
  name: "fconv3"
  type: "Convolution"
  bottom: "bn3"
  top: "fconv3"
  param {
    lr_mult: 1
  }
  param {
    lr_mult: 0.1
  }
  convolution_param {
    num_output: 3
    pad: 0
    kernel_size: 1
    stride: 1
    weight_filler {
      type: "xavier"
    }
    bias_filler {
      type: "constant"
      value: 0
    }
  }
}
layer {
  name: "fconv3_"
  type: "ReLU2"
  bottom: "fconv3"
  top: "fconv3_"
  relu2_param {
    threshold: 0.02
  }
}
layer {
  name: "fconv3__"
  type: "ReLU3"
  bottom: "fconv3_"
  top: "fconv3__"
  relu2_param {
    threshold: -0.02
  }
}
layer {
  name: "feat3"
  type: "Eltwise"
  bottom: "data_feat"
  bottom: "fconv3__"
  top: "feat3"
  eltwise_param {
    operation: SUM
  }
}
layer {
  name: "data_lattice2"
  type: "Python"
  bottom: "feat3"
  top: "data_lattice2"
  python_param {
    module: "custom_layers"
    layer: "PickAndScale2"
    param_str: "0*12_1*12_2*12"
  }
}
layer {
  name: "conv4"
  type: "Permutohedral"
  bottom: "bn3"
  bottom: "data_lattice2"
  bottom: "data_lattice2"
  top: "conv4"
  param {
    lr_mult: 1
    decay_mult: 1
  }
  param {
    lr_mult: 2
    decay_mult: 0
  }
  permutohedral_param {
    num_output: 256
    neighborhood_size: 1
    filter_filler {
      type: "gaussian"
      std: 0.001
    }
    bias_term: true
    bias_filler {
      type: "constant"
      value: 0
    }
    group: 1
    norm_type: AFTER
    offset_type: NONE
  }
}
layer {
  name: "bn4"
  type: "BatchNorm"
  bottom: "conv4"
  top: "bn4"
}
layer {
  name: "relu4"
  type: "ReLU"
  bottom: "bn4"
  top: "bn4"
}
layer {
  name: "fconv4"
  type: "Convolution"
  bottom: "bn4"
  top: "fconv4"
  param {
    lr_mult: 1
  }
  param {
    lr_mult: 0.1
  }
  convolution_param {
    num_output: 3
    pad: 0
    kernel_size: 1
    stride: 1
    weight_filler {
      type: "xavier"
    }
    bias_filler {
      type: "constant"
      value: 0
    }
  }
}
layer {
  name: "fconv4_"
  type: "ReLU2"
  bottom: "fconv4"
  top: "fconv4_"
  relu2_param {
    threshold: 0.02
  }
}
layer {
  name: "fconv4__"
  type: "ReLU3"
  bottom: "fconv4_"
  top: "fconv4__"
  relu2_param {
    threshold: -0.02
  }
}
layer {
  name: "feat4"
  type: "Eltwise"
  bottom: "data_feat"
  bottom: "fconv4__"
  top: "feat4"
  eltwise_param {
    operation: SUM
  }
}
layer {
  name: "data_lattice3"
  type: "Python"
  bottom: "feat4"
  top: "data_lattice3"
  python_param {
    module: "custom_layers"
    layer: "PickAndScale2"
    param_str: "0*6_1*6_2*6"
  }
}
layer {
  name: "conv5"
  type: "Permutohedral"
  bottom: "bn4"
  bottom: "data_lattice3"
  bottom: "data_lattice3"
  top: "conv5"
  param {
    lr_mult: 1
    decay_mult: 1
  }
  param {
    lr_mult: 2
    decay_mult: 0
  }
  permutohedral_param {
    num_output: 256
    neighborhood_size: 1
    filter_filler {
      type: "gaussian"
      std: 0.001
    }
    bias_term: true
    bias_filler {
      type: "constant"
      value: 0
    }
    group: 1
    norm_type: AFTER
    offset_type: NONE
  }
}
layer {
  name: "bn5"
  type: "BatchNorm"
  bottom: "conv5"
  top: "bn5"
}
layer {
  name: "relu5"
  type: "ReLU"
  bottom: "bn5"
  top: "bn5"
}
layer {
  name: "fconv5"
  type: "Convolution"
  bottom: "bn5"
  top: "fconv5"
  param {
    lr_mult: 1
  }
  param {
    lr_mult: 0.1
  }
  convolution_param {
    num_output: 3
    pad: 0
    kernel_size: 1
    stride: 1
    weight_filler {
      type: "xavier"
    }
    bias_filler {
      type: "constant"
      value: 0
    }
  }
}
layer {
  name: "fconv5_"
  type: "ReLU2"
  bottom: "fconv5"
  top: "fconv5_"
  relu2_param {
    threshold: 0.02
  }
}
layer {
  name: "fconv5__"
  type: "ReLU3"
  bottom: "fconv5_"
  top: "fconv5__"
  relu2_param {
    threshold: -0.02
  }
}
layer {
  name: "feat5"
  type: "Eltwise"
  bottom: "data_feat"
  bottom: "fconv5__"
  top: "feat5"
  eltwise_param {
    operation: SUM
  }
}
layer {
  name: "data_lattice4"
  type: "Python"
  bottom: "feat5"
  top: "data_lattice4"
  python_param {
    module: "custom_layers"
    layer: "PickAndScale2"
    param_str: "0*3_1*3_2*3"
  }
}
layer {
  name: "conv6"
  type: "Permutohedral"
  bottom: "bn5"
  bottom: "data_lattice4"
  bottom: "data_lattice4"
  top: "conv6"
  param {
    lr_mult: 1
    decay_mult: 1
  }
  param {
    lr_mult: 2
    decay_mult: 0
  }
  permutohedral_param {
    num_output: 256
    neighborhood_size: 1
    filter_filler {
      type: "gaussian"
      std: 0.001
    }
    bias_term: true
    bias_filler {
      type: "constant"
      value: 0
    }
    group: 1
    norm_type: AFTER
    offset_type: NONE
  }
}
layer {
  name: "bn6"
  type: "BatchNorm"
  bottom: "conv6"
  top: "bn6"
}
layer {
  name: "relu6"
  type: "ReLU"
  bottom: "bn6"
  top: "bn6"
}
layer {
  name: "concat6"
  type: "Concat"
  bottom: "bn6"
  bottom: "bn2"
  bottom: "bn3"
  bottom: "bn4"
  bottom: "bn5"
  top: "concat6"
}
layer {
  name: "conv7"
  type: "Convolution"
  bottom: "concat6"
  top: "conv7"
  param {
    lr_mult: 1
  }
  param {
    lr_mult: 0.1
  }
  convolution_param {
    num_output: 128
    pad: 0
    kernel_size: 1
    stride: 1
    weight_filler {
      type: "xavier"
    }
    bias_filler {
      type: "constant"
      value: 0
    }
  }
}
layer {
  name: "bn7"
  type: "BatchNorm"
  bottom: "conv7"
  top: "bn7"
}
layer {
  name: "relu7"
  type: "ReLU"
  bottom: "bn7"
  top: "bn7"
}
layer {
  name: "conv8"
  type: "Convolution"
  bottom: "bn7"
  top: "conv8"
  param {
    lr_mult: 1
  }
  param {
    lr_mult: 0.1
  }
  convolution_param {
    num_output: 13
    pad: 0
    kernel_size: 1
    stride: 1
    weight_filler {
      type: "xavier"
    }
    bias_filler {
      type: "constant"
      value: 0
    }
  }
}
layer {
  name: "loss"
  type: "SoftmaxWithLoss"
  bottom: "conv8"
  bottom: "label"
  top: "loss"
}
layer {
  name: "accuracy"
  type: "Accuracy"
  bottom: "conv8"
  bottom: "label"
  top: "accuracy"
}
I0817 13:17:11.150259 25176 layer_factory.hpp:77] Creating layer data
I0817 13:17:11.177196 25176 net.cpp:84] Creating Layer data
I0817 13:17:11.177603 25176 net.cpp:380] data -> data
I0817 13:17:11.178175 25176 net.cpp:380] data -> label
I0817 13:17:11.630666 25182 upgrade_proto.cpp:1084] Attempting to upgrade input file specified using deprecated 'solver_type' field (enum)': /mnt/lustre/wangjiayun/repos/splatnet/exp/lidar3d/area6/6_solver.prototxt
…
I0817 13:17:11.661597 25178 upgrade_proto.cpp:1084] Attempting to upgrade input file specified using deprecated 'solver_type' field (enum)': /mnt/lustre/wangjiayun/repos/splatnet/exp/lidar3d/area6/6_solver.prototxt
I0817 13:17:11.661685 25178 upgrade_proto.cpp:1091] Successfully upgraded file specified using deprecated 'solver_type' field (enum) to 'type' field (string).
W0817 13:17:11.661693 25178 upgrade_proto.cpp:1093] Note that future Caffe releases will only support 'type' field (string) for a solver's type.
I0817 13:18:25.486188 25176 net.cpp:122] Setting up data
I0817 13:18:25.486287 25176 net.cpp:129] Top shape: 12 6 1 4096 (294912)
I0817 13:18:25.486321 25176 net.cpp:129] Top shape: 12 1 1 4096 (49152)
I0817 13:18:25.486336 25176 net.cpp:137] Memory required for data: 1376256
I0817 13:18:25.486366 25176 layer_factory.hpp:77] Creating layer data_data_0_split
I0817 13:18:25.486413 25176 net.cpp:84] Creating Layer data_data_0_split
I0817 13:18:25.486423 25176 net.cpp:406] data_data_0_split <- data
I0817 13:18:25.486438 25176 net.cpp:380] data_data_0_split -> data_data_0_split_0
I0817 13:18:25.486455 25176 net.cpp:380] data_data_0_split -> data_data_0_split_1
I0817 13:18:25.486505 25176 net.cpp:122] Setting up data_data_0_split
I0817 13:18:25.486515 25176 net.cpp:129] Top shape: 12 6 1 4096 (294912)
I0817 13:18:25.486518 25176 net.cpp:129] Top shape: 12 6 1 4096 (294912)
I0817 13:18:25.486522 25176 net.cpp:137] Memory required for data: 3735552
I0817 13:18:25.486531 25176 layer_factory.hpp:77] Creating layer label_data_1_split
I0817 13:18:25.486541 25176 net.cpp:84] Creating Layer label_data_1_split
I0817 13:18:25.486544 25176 net.cpp:406] label_data_1_split <- label
I0817 13:18:25.486549 25176 net.cpp:380] label_data_1_split -> label_data_1_split_0
I0817 13:18:25.486567 25176 net.cpp:380] label_data_1_split -> label_data_1_split_1
I0817 13:18:25.486598 25176 net.cpp:122] Setting up label_data_1_split
I0817 13:18:25.486615 25176 net.cpp:129] Top shape: 12 1 1 4096 (49152)
I0817 13:18:25.486620 25176 net.cpp:129] Top shape: 12 1 1 4096 (49152)
I0817 13:18:25.486624 25176 net.cpp:137] Memory required for data: 4128768
I0817 13:18:25.486626 25176 layer_factory.hpp:77] Creating layer data_feat
I0817 13:18:25.495101 25176 net.cpp:84] Creating Layer data_feat
I0817 13:18:25.495115 25176 net.cpp:406] data_feat <- data_data_0_split_0
I0817 13:18:25.495122 25176 net.cpp:380] data_feat -> data_feat
I0817 13:18:25.496598 25176 net.cpp:122] Setting up data_feat
I0817 13:18:25.496613 25176 net.cpp:129] Top shape: 12 3 1 4096 (147456)
I0817 13:18:25.496615 25176 net.cpp:137] Memory required for data: 4718592
I0817 13:18:25.496619 25176 layer_factory.hpp:77] Creating layer data_feat_data_feat_0_split
I0817 13:18:25.496626 25176 net.cpp:84] Creating Layer data_feat_data_feat_0_split
I0817 13:18:25.496629 25176 net.cpp:406] data_feat_data_feat_0_split <- data_feat
I0817 13:18:25.496635 25176 net.cpp:380] data_feat_data_feat_0_split -> data_feat_data_feat_0_split_0
I0817 13:18:25.496641 25176 net.cpp:380] data_feat_data_feat_0_split -> data_feat_data_feat_0_split_1
I0817 13:18:25.496649 25176 net.cpp:380] data_feat_data_feat_0_split -> data_feat_data_feat_0_split_2
I0817 13:18:25.496654 25176 net.cpp:380] data_feat_data_feat_0_split -> data_feat_data_feat_0_split_3
I0817 13:18:25.496659 25176 net.cpp:380] data_feat_data_feat_0_split -> data_feat_data_feat_0_split_4
I0817 13:18:25.496728 25176 net.cpp:122] Setting up data_feat_data_feat_0_split
I0817 13:18:25.496737 25176 net.cpp:129] Top shape: 12 3 1 4096 (147456)
I0817 13:18:25.496742 25176 net.cpp:129] Top shape: 12 3 1 4096 (147456)
I0817 13:18:25.496745 25176 net.cpp:129] Top shape: 12 3 1 4096 (147456)
I0817 13:18:25.496748 25176 net.cpp:129] Top shape: 12 3 1 4096 (147456)
I0817 13:18:25.496752 25176 net.cpp:129] Top shape: 12 3 1 4096 (147456)
I0817 13:18:25.496754 25176 net.cpp:137] Memory required for data: 7667712
I0817 13:18:25.496758 25176 layer_factory.hpp:77] Creating layer conv1
I0817 13:18:25.496803 25176 net.cpp:84] Creating Layer conv1
I0817 13:18:25.496811 25176 net.cpp:406] conv1 <- data_data_0_split_1
I0817 13:18:25.496819 25176 net.cpp:380] conv1 -> conv1
I0817 13:18:28.154717 25176 net.cpp:122] Setting up conv1
I0817 13:18:28.154769 25176 net.cpp:129] Top shape: 12 64 1 4096 (3145728)
I0817 13:18:28.154778 25176 net.cpp:137] Memory required for data: 20250624
I0817 13:18:28.154840 25176 layer_factory.hpp:77] Creating layer bn1
I0817 13:18:28.155553 25176 net.cpp:84] Creating Layer bn1
I0817 13:18:28.155578 25176 net.cpp:406] bn1 <- conv1
I0817 13:18:28.155592 25176 net.cpp:380] bn1 -> bn1
I0817 13:18:28.159420 25176 net.cpp:122] Setting up bn1
I0817 13:18:28.159446 25176 net.cpp:129] Top shape: 12 64 1 4096 (3145728)
I0817 13:18:28.159453 25176 net.cpp:137] Memory required for data: 32833536
I0817 13:18:28.159476 25176 layer_factory.hpp:77] Creating layer relu1
I0817 13:18:28.159893 25176 net.cpp:84] Creating Layer relu1
I0817 13:18:28.159912 25176 net.cpp:406] relu1 <- bn1
I0817 13:18:28.159924 25176 net.cpp:367] relu1 -> bn1 (in-place)
I0817 13:18:28.160723 25176 net.cpp:122] Setting up relu1
I0817 13:18:28.160750 25176 net.cpp:129] Top shape: 12 64 1 4096 (3145728)
I0817 13:18:28.160758 25176 net.cpp:137] Memory required for data: 45416448
I0817 13:18:28.160765 25176 layer_factory.hpp:77] Creating layer conv1a
I0817 13:18:28.160816 25176 net.cpp:84] Creating Layer conv1a
I0817 13:18:28.160828 25176 net.cpp:406] conv1a <- bn1
I0817 13:18:28.160843 25176 net.cpp:380] conv1a -> conv1a
I0817 13:18:28.164204 25176 net.cpp:122] Setting up conv1a
I0817 13:18:28.164234 25176 net.cpp:129] Top shape: 12 64 1 4096 (3145728)
I0817 13:18:28.164243 25176 net.cpp:137] Memory required for data: 57999360
I0817 13:18:28.164270 25176 layer_factory.hpp:77] Creating layer bn1a
I0817 13:18:28.164284 25176 net.cpp:84] Creating Layer bn1a
I0817 13:18:28.164291 25176 net.cpp:406] bn1a <- conv1a
I0817 13:18:28.164301 25176 net.cpp:380] bn1a -> bn1a
I0817 13:18:28.164643 25176 net.cpp:122] Setting up bn1a
I0817 13:18:28.164659 25176 net.cpp:129] Top shape: 12 64 1 4096 (3145728)
I0817 13:18:28.164664 25176 net.cpp:137] Memory required for data: 70582272
I0817 13:18:28.164692 25176 layer_factory.hpp:77] Creating layer relu1a
I0817 13:18:28.164705 25176 net.cpp:84] Creating Layer relu1a
I0817 13:18:28.164713 25176 net.cpp:406] relu1a <- bn1a
I0817 13:18:28.164721 25176 net.cpp:367] relu1a -> bn1a (in-place)
I0817 13:18:28.165212 25176 net.cpp:122] Setting up relu1a
I0817 13:18:28.165235 25176 net.cpp:129] Top shape: 12 64 1 4096 (3145728)
I0817 13:18:28.165241 25176 net.cpp:137] Memory required for data: 83165184
I0817 13:18:28.165246 25176 layer_factory.hpp:77] Creating layer bn1a_relu1a_0_split
I0817 13:18:28.165261 25176 net.cpp:84] Creating Layer bn1a_relu1a_0_split
I0817 13:18:28.165267 25176 net.cpp:406] bn1a_relu1a_0_split <- bn1a
I0817 13:18:28.165277 25176 net.cpp:380] bn1a_relu1a_0_split -> bn1a_relu1a_0_split_0
I0817 13:18:28.165297 25176 net.cpp:380] bn1a_relu1a_0_split -> bn1a_relu1a_0_split_1
I0817 13:18:28.165374 25176 net.cpp:122] Setting up bn1a_relu1a_0_split
I0817 13:18:28.165390 25176 net.cpp:129] Top shape: 12 64 1 4096 (3145728)
I0817 13:18:28.165396 25176 net.cpp:129] Top shape: 12 64 1 4096 (3145728)
I0817 13:18:28.165401 25176 net.cpp:137] Memory required for data: 108331008
I0817 13:18:28.165407 25176 layer_factory.hpp:77] Creating layer fconv1
I0817 13:18:28.165438 25176 net.cpp:84] Creating Layer fconv1
I0817 13:18:28.165448 25176 net.cpp:406] fconv1 <- bn1a_relu1a_0_split_0
I0817 13:18:28.165460 25176 net.cpp:380] fconv1 -> fconv1
I0817 13:18:28.167964 25176 net.cpp:122] Setting up fconv1
I0817 13:18:28.167994 25176 net.cpp:129] Top shape: 12 3 1 4096 (147456)
I0817 13:18:28.168000 25176 net.cpp:137] Memory required for data: 108920832
I0817 13:18:28.168014 25176 layer_factory.hpp:77] Creating layer fconv1_
I0817 13:18:28.168077 25176 net.cpp:84] Creating Layer fconv1_
I0817 13:18:28.168092 25176 net.cpp:406] fconv1_ <- fconv1
I0817 13:18:28.168120 25176 net.cpp:380] fconv1_ -> fconv1_
I0817 13:18:28.168182 25176 net.cpp:122] Setting up fconv1_
I0817 13:18:28.168196 25176 net.cpp:129] Top shape: 12 3 1 4096 (147456)
I0817 13:18:28.168202 25176 net.cpp:137] Memory required for data: 109510656
I0817 13:18:28.168208 25176 layer_factory.hpp:77] Creating layer fconv1__
I0817 13:18:28.168248 25176 net.cpp:84] Creating Layer fconv1__
I0817 13:18:28.168262 25176 net.cpp:406] fconv1__ <- fconv1_
I0817 13:18:28.168273 25176 net.cpp:380] fconv1__ -> fconv1__
I0817 13:18:28.168326 25176 net.cpp:122] Setting up fconv1__
I0817 13:18:28.168339 25176 net.cpp:129] Top shape: 12 3 1 4096 (147456)
I0817 13:18:28.168344 25176 net.cpp:137] Memory required for data: 110100480
I0817 13:18:28.168361 25176 layer_factory.hpp:77] Creating layer feat1
I0817 13:18:28.168402 25176 net.cpp:84] Creating Layer feat1
I0817 13:18:28.168416 25176 net.cpp:406] feat1 <- data_feat_data_feat_0_split_0
I0817 13:18:28.168426 25176 net.cpp:406] feat1 <- fconv1__
I0817 13:18:28.168437 25176 net.cpp:380] feat1 -> feat1
I0817 13:18:28.168540 25176 net.cpp:122] Setting up feat1
I0817 13:18:28.168557 25176 net.cpp:129] Top shape: 12 3 1 4096 (147456)
I0817 13:18:28.168562 25176 net.cpp:137] Memory required for data: 110690304
I0817 13:18:28.168568 25176 layer_factory.hpp:77] Creating layer data_lattice0
I0817 13:18:28.168684 25176 net.cpp:84] Creating Layer data_lattice0
I0817 13:18:28.168700 25176 net.cpp:406] data_lattice0 <- feat1
I0817 13:18:28.168714 25176 net.cpp:380] data_lattice0 -> data_lattice0
I0817 13:18:28.169025 25176 net.cpp:122] Setting up data_lattice0
I0817 13:18:28.169047 25176 net.cpp:129] Top shape: 12 3 1 4096 (147456)
I0817 13:18:28.169052 25176 net.cpp:137] Memory required for data: 111280128
I0817 13:18:28.169059 25176 layer_factory.hpp:77] Creating layer data_lattice0_data_lattice0_0_split
I0817 13:18:28.169070 25176 net.cpp:84] Creating Layer data_lattice0_data_lattice0_0_split
I0817 13:18:28.169077 25176 net.cpp:406] data_lattice0_data_lattice0_0_split <- data_lattice0
I0817 13:18:28.169088 25176 net.cpp:380] data_lattice0_data_lattice0_0_split -> data_lattice0_data_lattice0_0_split_0
I0817 13:18:28.169100 25176 net.cpp:380] data_lattice0_data_lattice0_0_split -> data_lattice0_data_lattice0_0_split_1
I0817 13:18:28.169163 25176 net.cpp:122] Setting up data_lattice0_data_lattice0_0_split
I0817 13:18:28.169175 25176 net.cpp:129] Top shape: 12 3 1 4096 (147456)
I0817 13:18:28.169183 25176 net.cpp:129] Top shape: 12 3 1 4096 (147456)
I0817 13:18:28.169188 25176 net.cpp:137] Memory required for data: 112459776
I0817 13:18:28.169193 25176 layer_factory.hpp:77] Creating layer conv2
I0817 13:18:28.169243 25176 net.cpp:84] Creating Layer conv2
I0817 13:18:28.169257 25176 net.cpp:406] conv2 <- bn1a_relu1a_0_split_1
I0817 13:18:28.169266 25176 net.cpp:406] conv2 <- data_lattice0_data_lattice0_0_split_0
I0817 13:18:28.169275 25176 net.cpp:406] conv2 <- data_lattice0_data_lattice0_0_split_1
I0817 13:18:28.169283 25176 net.cpp:380] conv2 -> conv2
I0817 13:18:28.176064 25176 net.cpp:122] Setting up conv2
I0817 13:18:28.176092 25176 net.cpp:129] Top shape: 12 64 1 4096 (3145728)
I0817 13:18:28.176100 25176 net.cpp:137] Memory required for data: 125042688
I0817 13:18:28.176111 25176 layer_factory.hpp:77] Creating layer bn2
I0817 13:18:28.176122 25176 net.cpp:84] Creating Layer bn2
I0817 13:18:28.176129 25176 net.cpp:406] bn2 <- conv2
I0817 13:18:28.176139 25176 net.cpp:380] bn2 -> bn2
I0817 13:18:28.176467 25176 net.cpp:122] Setting up bn2
I0817 13:18:28.176482 25176 net.cpp:129] Top shape: 12 64 1 4096 (3145728)
I0817 13:18:28.176488 25176 net.cpp:137] Memory required for data: 137625600
I0817 13:18:28.176506 25176 layer_factory.hpp:77] Creating layer relu2
I0817 13:18:28.176530 25176 net.cpp:84] Creating Layer relu2
I0817 13:18:28.176539 25176 net.cpp:406] relu2 <- bn2
I0817 13:18:28.176549 25176 net.cpp:367] relu2 -> bn2 (in-place)
I0817 13:18:28.177565 25176 net.cpp:122] Setting up relu2
I0817 13:18:28.177592 25176 net.cpp:129] Top shape: 12 64 1 4096 (3145728)
I0817 13:18:28.177598 25176 net.cpp:137] Memory required for data: 150208512
I0817 13:18:28.177618 25176 layer_factory.hpp:77] Creating layer bn2_relu2_0_split
I0817 13:18:28.177630 25176 net.cpp:84] Creating Layer bn2_relu2_0_split
I0817 13:18:28.177637 25176 net.cpp:406] bn2_relu2_0_split <- bn2
I0817 13:18:28.177649 25176 net.cpp:380] bn2_relu2_0_split -> bn2_relu2_0_split_0
I0817 13:18:28.177661 25176 net.cpp:380] bn2_relu2_0_split -> bn2_relu2_0_split_1
I0817 13:18:28.177671 25176 net.cpp:380] bn2_relu2_0_split -> bn2_relu2_0_split_2
I0817 13:18:28.177778 25176 net.cpp:122] Setting up bn2_relu2_0_split
I0817 13:18:28.177790 25176 net.cpp:129] Top shape: 12 64 1 4096 (3145728)
I0817 13:18:28.177798 25176 net.cpp:129] Top shape: 12 64 1 4096 (3145728)
I0817 13:18:28.177803 25176 net.cpp:129] Top shape: 12 64 1 4096 (3145728)
I0817 13:18:28.177809 25176 net.cpp:137] Memory required for data: 187957248
I0817 13:18:28.177814 25176 layer_factory.hpp:77] Creating layer fconv2
I0817 13:18:28.177829 25176 net.cpp:84] Creating Layer fconv2
I0817 13:18:28.177836 25176 net.cpp:406] fconv2 <- bn2_relu2_0_split_0
I0817 13:18:28.177847 25176 net.cpp:380] fconv2 -> fconv2
I0817 13:18:28.180204 25176 net.cpp:122] Setting up fconv2
I0817 13:18:28.180232 25176 net.cpp:129] Top shape: 12 3 1 4096 (147456)
I0817 13:18:28.180238 25176 net.cpp:137] Memory required for data: 188547072
I0817 13:18:28.180249 25176 layer_factory.hpp:77] Creating layer fconv2_
I0817 13:18:28.180261 25176 net.cpp:84] Creating Layer fconv2_
I0817 13:18:28.180269 25176 net.cpp:406] fconv2_ <- fconv2
I0817 13:18:28.180279 25176 net.cpp:380] fconv2_ -> fconv2_
I0817 13:18:28.180328 25176 net.cpp:122] Setting up fconv2_
I0817 13:18:28.180348 25176 net.cpp:129] Top shape: 12 3 1 4096 (147456)
I0817 13:18:28.180353 25176 net.cpp:137] Memory required for data: 189136896
I0817 13:18:28.180358 25176 layer_factory.hpp:77] Creating layer fconv2__
I0817 13:18:28.180382 25176 net.cpp:84] Creating Layer fconv2__
I0817 13:18:28.180390 25176 net.cpp:406] fconv2__ <- fconv2_
I0817 13:18:28.180400 25176 net.cpp:380] fconv2__ -> fconv2__
I0817 13:18:28.180449 25176 net.cpp:122] Setting up fconv2__
I0817 13:18:28.180462 25176 net.cpp:129] Top shape: 12 3 1 4096 (147456)
I0817 13:18:28.180467 25176 net.cpp:137] Memory required for data: 189726720
I0817 13:18:28.180481 25176 layer_factory.hpp:77] Creating layer feat2
I0817 13:18:28.180491 25176 net.cpp:84] Creating Layer feat2
I0817 13:18:28.180497 25176 net.cpp:406] feat2 <- data_feat_data_feat_0_split_1
I0817 13:18:28.180505 25176 net.cpp:406] feat2 <- fconv2__
I0817 13:18:28.180514 25176 net.cpp:380] feat2 -> feat2
I0817 13:18:28.180557 25176 net.cpp:122] Setting up feat2
I0817 13:18:28.180568 25176 net.cpp:129] Top shape: 12 3 1 4096 (147456)
I0817 13:18:28.180573 25176 net.cpp:137] Memory required for data: 190316544
I0817 13:18:28.180578 25176 layer_factory.hpp:77] Creating layer data_lattice1
I0817 13:18:28.180624 25176 net.cpp:84] Creating Layer data_lattice1
I0817 13:18:28.180635 25176 net.cpp:406] data_lattice1 <- feat2
I0817 13:18:28.180645 25176 net.cpp:380] data_lattice1 -> data_lattice1
I0817 13:18:28.182734 25176 net.cpp:122] Setting up data_lattice1
I0817 13:18:28.182760 25176 net.cpp:129] Top shape: 12 3 1 4096 (147456)
I0817 13:18:28.182767 25176 net.cpp:137] Memory required for data: 190906368
I0817 13:18:28.182775 25176 layer_factory.hpp:77] Creating layer data_lattice1_data_lattice1_0_split
I0817 13:18:28.182785 25176 net.cpp:84] Creating Layer data_lattice1_data_lattice1_0_split
I0817 13:18:28.182792 25176 net.cpp:406] data_lattice1_data_lattice1_0_split <- data_lattice1
I0817 13:18:28.182803 25176 net.cpp:380] data_lattice1_data_lattice1_0_split -> data_lattice1_data_lattice1_0_split_0
I0817 13:18:28.182816 25176 net.cpp:380] data_lattice1_data_lattice1_0_split -> data_lattice1_data_lattice1_0_split_1
I0817 13:18:28.182880 25176 net.cpp:122] Setting up data_lattice1_data_lattice1_0_split
I0817 13:18:28.182893 25176 net.cpp:129] Top shape: 12 3 1 4096 (147456)
I0817 13:18:28.182900 25176 net.cpp:129] Top shape: 12 3 1 4096 (147456)
I0817 13:18:28.182905 25176 net.cpp:137] Memory required for data: 192086016
I0817 13:18:28.182910 25176 layer_factory.hpp:77] Creating layer conv3
I0817 13:18:28.182936 25176 net.cpp:84] Creating Layer conv3
I0817 13:18:28.182945 25176 net.cpp:406] conv3 <- bn2_relu2_0_split_1
I0817 13:18:28.182953 25176 net.cpp:406] conv3 <- data_lattice1_data_lattice1_0_split_0
I0817 13:18:28.182961 25176 net.cpp:406] conv3 <- data_lattice1_data_lattice1_0_split_1
I0817 13:18:28.182971 25176 net.cpp:380] conv3 -> conv3
I0817 13:18:28.189064 25176 net.cpp:122] Setting up conv3
I0817 13:18:28.189082 25176 net.cpp:129] Top shape: 12 128 1 4096 (6291456)
I0817 13:18:28.189088 25176 net.cpp:137] Memory required for data: 217251840
I0817 13:18:28.189107 25176 layer_factory.hpp:77] Creating layer bn3
I0817 13:18:28.189118 25176 net.cpp:84] Creating Layer bn3
I0817 13:18:28.189126 25176 net.cpp:406] bn3 <- conv3
I0817 13:18:28.189134 25176 net.cpp:380] bn3 -> bn3
I0817 13:18:28.189426 25176 net.cpp:122] Setting up bn3
I0817 13:18:28.189440 25176 net.cpp:129] Top shape: 12 128 1 4096 (6291456)
I0817 13:18:28.189446 25176 net.cpp:137] Memory required for data: 242417664
I0817 13:18:28.189457 25176 layer_factory.hpp:77] Creating layer relu3
I0817 13:18:28.189466 25176 net.cpp:84] Creating Layer relu3
I0817 13:18:28.189472 25176 net.cpp:406] relu3 <- bn3
I0817 13:18:28.189481 25176 net.cpp:367] relu3 -> bn3 (in-place)
I0817 13:18:28.190439 25176 net.cpp:122] Setting up relu3
I0817 13:18:28.190464 25176 net.cpp:129] Top shape: 12 128 1 4096 (6291456)
I0817 13:18:28.190470 25176 net.cpp:137] Memory required for data: 267583488
I0817 13:18:28.190476 25176 layer_factory.hpp:77] Creating layer bn3_relu3_0_split
I0817 13:18:28.190486 25176 net.cpp:84] Creating Layer bn3_relu3_0_split
I0817 13:18:28.190493 25176 net.cpp:406] bn3_relu3_0_split <- bn3
I0817 13:18:28.190503 25176 net.cpp:380] bn3_relu3_0_split -> bn3_relu3_0_split_0
I0817 13:18:28.190515 25176 net.cpp:380] bn3_relu3_0_split -> bn3_relu3_0_split_1
I0817 13:18:28.190524 25176 net.cpp:380] bn3_relu3_0_split -> bn3_relu3_0_split_2
I0817 13:18:28.190611 25176 net.cpp:122] Setting up bn3_relu3_0_split
I0817 13:18:28.190623 25176 net.cpp:129] Top shape: 12 128 1 4096 (6291456)
I0817 13:18:28.190630 25176 net.cpp:129] Top shape: 12 128 1 4096 (6291456)
I0817 13:18:28.190635 25176 net.cpp:129] Top shape: 12 128 1 4096 (6291456)
I0817 13:18:28.190640 25176 net.cpp:137] Memory required for data: 343080960
I0817 13:18:28.190644 25176 layer_factory.hpp:77] Creating layer fconv3
I0817 13:18:28.190726 25176 net.cpp:84] Creating Layer fconv3
I0817 13:18:28.190739 25176 net.cpp:406] fconv3 <- bn3_relu3_0_split_0
I0817 13:18:28.190750 25176 net.cpp:380] fconv3 -> fconv3
I0817 13:18:28.193038 25176 net.cpp:122] Setting up fconv3
I0817 13:18:28.193063 25176 net.cpp:129] Top shape: 12 3 1 4096 (147456)
I0817 13:18:28.193070 25176 net.cpp:137] Memory required for data: 343670784
I0817 13:18:28.193081 25176 layer_factory.hpp:77] Creating layer fconv3_
I0817 13:18:28.193094 25176 net.cpp:84] Creating Layer fconv3_
I0817 13:18:28.193102 25176 net.cpp:406] fconv3_ <- fconv3
I0817 13:18:28.193112 25176 net.cpp:380] fconv3_ -> fconv3_
I0817 13:18:28.193159 25176 net.cpp:122] Setting up fconv3_
I0817 13:18:28.193171 25176 net.cpp:129] Top shape: 12 3 1 4096 (147456)
I0817 13:18:28.193176 25176 net.cpp:137] Memory required for data: 344260608
I0817 13:18:28.193182 25176 layer_factory.hpp:77] Creating layer fconv3__
I0817 13:18:28.193190 25176 net.cpp:84] Creating Layer fconv3__
I0817 13:18:28.193197 25176 net.cpp:406] fconv3__ <- fconv3_
I0817 13:18:28.193205 25176 net.cpp:380] fconv3__ -> fconv3__
I0817 13:18:28.193243 25176 net.cpp:122] Setting up fconv3__
I0817 13:18:28.193253 25176 net.cpp:129] Top shape: 12 3 1 4096 (147456)
I0817 13:18:28.193260 25176 net.cpp:137] Memory required for data: 344850432
I0817 13:18:28.193265 25176 layer_factory.hpp:77] Creating layer feat3
I0817 13:18:28.193287 25176 net.cpp:84] Creating Layer feat3
I0817 13:18:28.193296 25176 net.cpp:406] feat3 <- data_feat_data_feat_0_split_2
I0817 13:18:28.193305 25176 net.cpp:406] feat3 <- fconv3__
I0817 13:18:28.193312 25176 net.cpp:380] feat3 -> feat3
I0817 13:18:28.193352 25176 net.cpp:122] Setting up feat3
I0817 13:18:28.193363 25176 net.cpp:129] Top shape: 12 3 1 4096 (147456)
I0817 13:18:28.193368 25176 net.cpp:137] Memory required for data: 345440256
I0817 13:18:28.193380 25176 layer_factory.hpp:77] Creating layer data_lattice2
I0817 13:18:28.193424 25176 net.cpp:84] Creating Layer data_lattice2
I0817 13:18:28.193435 25176 net.cpp:406] data_lattice2 <- feat3
I0817 13:18:28.193446 25176 net.cpp:380] data_lattice2 -> data_lattice2
I0817 13:18:28.193626 25176 net.cpp:122] Setting up data_lattice2
I0817 13:18:28.193645 25176 net.cpp:129] Top shape: 12 3 1 4096 (147456)
I0817 13:18:28.193650 25176 net.cpp:137] Memory required for data: 346030080
I0817 13:18:28.193655 25176 layer_factory.hpp:77] Creating layer data_lattice2_data_lattice2_0_split
I0817 13:18:28.193665 25176 net.cpp:84] Creating Layer data_lattice2_data_lattice2_0_split
I0817 13:18:28.193671 25176 net.cpp:406] data_lattice2_data_lattice2_0_split <- data_lattice2
I0817 13:18:28.193698 25176 net.cpp:380] data_lattice2_data_lattice2_0_split -> data_lattice2_data_lattice2_0_split_0
I0817 13:18:28.193711 25176 net.cpp:380] data_lattice2_data_lattice2_0_split -> data_lattice2_data_lattice2_0_split_1
I0817 13:18:28.193768 25176 net.cpp:122] Setting up data_lattice2_data_lattice2_0_split
I0817 13:18:28.193779 25176 net.cpp:129] Top shape: 12 3 1 4096 (147456)
I0817 13:18:28.193786 25176 net.cpp:129] Top shape: 12 3 1 4096 (147456)
I0817 13:18:28.193791 25176 net.cpp:137] Memory required for data: 347209728
I0817 13:18:28.193795 25176 layer_factory.hpp:77] Creating layer conv4
I0817 13:18:28.193806 25176 net.cpp:84] Creating Layer conv4
I0817 13:18:28.193812 25176 net.cpp:406] conv4 <- bn3_relu3_0_split_1
I0817 13:18:28.193820 25176 net.cpp:406] conv4 <- data_lattice2_data_lattice2_0_split_0
I0817 13:18:28.193826 25176 net.cpp:406] conv4 <- data_lattice2_data_lattice2_0_split_1
I0817 13:18:28.193835 25176 net.cpp:380] conv4 -> conv4
I0817 13:18:28.217098 25176 net.cpp:122] Setting up conv4
I0817 13:18:28.217120 25176 net.cpp:129] Top shape: 12 256 1 4096 (12582912)
I0817 13:18:28.217126 25176 net.cpp:137] Memory required for data: 397541376
I0817 13:18:28.217135 25176 layer_factory.hpp:77] Creating layer bn4
I0817 13:18:28.217144 25176 net.cpp:84] Creating Layer bn4
I0817 13:18:28.217149 25176 net.cpp:406] bn4 <- conv4
I0817 13:18:28.217157 25176 net.cpp:380] bn4 -> bn4
I0817 13:18:28.217413 25176 net.cpp:122] Setting up bn4
I0817 13:18:28.217427 25176 net.cpp:129] Top shape: 12 256 1 4096 (12582912)
I0817 13:18:28.217432 25176 net.cpp:137] Memory required for data: 447873024
I0817 13:18:28.217453 25176 layer_factory.hpp:77] Creating layer relu4
I0817 13:18:28.217470 25176 net.cpp:84] Creating Layer relu4
I0817 13:18:28.217476 25176 net.cpp:406] relu4 <- bn4
I0817 13:18:28.217483 25176 net.cpp:367] relu4 -> bn4 (in-place)
I0817 13:18:28.217909 25176 net.cpp:122] Setting up relu4
I0817 13:18:28.217926 25176 net.cpp:129] Top shape: 12 256 1 4096 (12582912)
I0817 13:18:28.217931 25176 net.cpp:137] Memory required for data: 498204672
I0817 13:18:28.217936 25176 layer_factory.hpp:77] Creating layer bn4_relu4_0_split
I0817 13:18:28.217945 25176 net.cpp:84] Creating Layer bn4_relu4_0_split
I0817 13:18:28.217950 25176 net.cpp:406] bn4_relu4_0_split <- bn4
I0817 13:18:28.217968 25176 net.cpp:380] bn4_relu4_0_split -> bn4_relu4_0_split_0
I0817 13:18:28.217978 25176 net.cpp:380] bn4_relu4_0_split -> bn4_relu4_0_split_1
I0817 13:18:28.217986 25176 net.cpp:380] bn4_relu4_0_split -> bn4_relu4_0_split_2
I0817 13:18:28.218058 25176 net.cpp:122] Setting up bn4_relu4_0_split
I0817 13:18:28.218070 25176 net.cpp:129] Top shape: 12 256 1 4096 (12582912)
I0817 13:18:28.218075 25176 net.cpp:129] Top shape: 12 256 1 4096 (12582912)
I0817 13:18:28.218080 25176 net.cpp:129] Top shape: 12 256 1 4096 (12582912)
I0817 13:18:28.218084 25176 net.cpp:137] Memory required for data: 649199616
I0817 13:18:28.218088 25176 layer_factory.hpp:77] Creating layer fconv4
I0817 13:18:28.218101 25176 net.cpp:84] Creating Layer fconv4
I0817 13:18:28.218106 25176 net.cpp:406] fconv4 <- bn4_relu4_0_split_0
I0817 13:18:28.218116 25176 net.cpp:380] fconv4 -> fconv4
I0817 13:18:28.221078 25176 net.cpp:122] Setting up fconv4
I0817 13:18:28.221101 25176 net.cpp:129] Top shape: 12 3 1 4096 (147456)
I0817 13:18:28.221107 25176 net.cpp:137] Memory required for data: 649789440
I0817 13:18:28.221124 25176 layer_factory.hpp:77] Creating layer fconv4_
I0817 13:18:28.221151 25176 net.cpp:84] Creating Layer fconv4_
I0817 13:18:28.221158 25176 net.cpp:406] fconv4_ <- fconv4
I0817 13:18:28.221168 25176 net.cpp:380] fconv4_ -> fconv4_
I0817 13:18:28.221215 25176 net.cpp:122] Setting up fconv4_
I0817 13:18:28.221227 25176 net.cpp:129] Top shape: 12 3 1 4096 (147456)
I0817 13:18:28.221231 25176 net.cpp:137] Memory required for data: 650379264
I0817 13:18:28.221243 25176 layer_factory.hpp:77] Creating layer fconv4__
I0817 13:18:28.221251 25176 net.cpp:84] Creating Layer fconv4__
I0817 13:18:28.221256 25176 net.cpp:406] fconv4__ <- fconv4_
I0817 13:18:28.221264 25176 net.cpp:380] fconv4__ -> fconv4__
I0817 13:18:28.221302 25176 net.cpp:122] Setting up fconv4__
I0817 13:18:28.221312 25176 net.cpp:129] Top shape: 12 3 1 4096 (147456)
I0817 13:18:28.221315 25176 net.cpp:137] Memory required for data: 650969088
I0817 13:18:28.221320 25176 layer_factory.hpp:77] Creating layer feat4
I0817 13:18:28.221328 25176 net.cpp:84] Creating Layer feat4
I0817 13:18:28.221333 25176 net.cpp:406] feat4 <- data_feat_data_feat_0_split_3
I0817 13:18:28.221339 25176 net.cpp:406] feat4 <- fconv4__
I0817 13:18:28.221348 25176 net.cpp:380] feat4 -> feat4
I0817 13:18:28.221381 25176 net.cpp:122] Setting up feat4
I0817 13:18:28.221390 25176 net.cpp:129] Top shape: 12 3 1 4096 (147456)
I0817 13:18:28.221395 25176 net.cpp:137] Memory required for data: 651558912
I0817 13:18:28.221398 25176 layer_factory.hpp:77] Creating layer data_lattice3
I0817 13:18:28.221443 25176 net.cpp:84] Creating Layer data_lattice3
I0817 13:18:28.221454 25176 net.cpp:406] data_lattice3 <- feat4
I0817 13:18:28.221463 25176 net.cpp:380] data_lattice3 -> data_lattice3
I0817 13:18:28.223196 25176 net.cpp:122] Setting up data_lattice3
I0817 13:18:28.223218 25176 net.cpp:129] Top shape: 12 3 1 4096 (147456)
I0817 13:18:28.223224 25176 net.cpp:137] Memory required for data: 652148736
I0817 13:18:28.223229 25176 layer_factory.hpp:77] Creating layer data_lattice3_data_lattice3_0_split
I0817 13:18:28.223239 25176 net.cpp:84] Creating Layer data_lattice3_data_lattice3_0_split
I0817 13:18:28.223245 25176 net.cpp:406] data_lattice3_data_lattice3_0_split <- data_lattice3
I0817 13:18:28.223254 25176 net.cpp:380] data_lattice3_data_lattice3_0_split -> data_lattice3_data_lattice3_0_split_0
I0817 13:18:28.223265 25176 net.cpp:380] data_lattice3_data_lattice3_0_split -> data_lattice3_data_lattice3_0_split_1
I0817 13:18:28.223320 25176 net.cpp:122] Setting up data_lattice3_data_lattice3_0_split
I0817 13:18:28.223331 25176 net.cpp:129] Top shape: 12 3 1 4096 (147456)
I0817 13:18:28.223337 25176 net.cpp:129] Top shape: 12 3 1 4096 (147456)
I0817 13:18:28.223341 25176 net.cpp:137] Memory required for data: 653328384
I0817 13:18:28.223356 25176 layer_factory.hpp:77] Creating layer conv5
I0817 13:18:28.223368 25176 net.cpp:84] Creating Layer conv5
I0817 13:18:28.223376 25176 net.cpp:406] conv5 <- bn4_relu4_0_split_1
I0817 13:18:28.223383 25176 net.cpp:406] conv5 <- data_lattice3_data_lattice3_0_split_0
I0817 13:18:28.223388 25176 net.cpp:406] conv5 <- data_lattice3_data_lattice3_0_split_1
I0817 13:18:28.223397 25176 net.cpp:380] conv5 -> conv5
I0817 13:18:28.262187 25176 net.cpp:122] Setting up conv5
I0817 13:18:28.262207 25176 net.cpp:129] Top shape: 12 256 1 4096 (12582912)
I0817 13:18:28.262212 25176 net.cpp:137] Memory required for data: 703660032
I0817 13:18:28.262220 25176 layer_factory.hpp:77] Creating layer bn5
I0817 13:18:28.262228 25176 net.cpp:84] Creating Layer bn5
I0817 13:18:28.262233 25176 net.cpp:406] bn5 <- conv5
I0817 13:18:28.262240 25176 net.cpp:380] bn5 -> bn5
I0817 13:18:28.262470 25176 net.cpp:122] Setting up bn5
I0817 13:18:28.262480 25176 net.cpp:129] Top shape: 12 256 1 4096 (12582912)
I0817 13:18:28.262485 25176 net.cpp:137] Memory required for data: 753991680
I0817 13:18:28.262493 25176 layer_factory.hpp:77] Creating layer relu5
I0817 13:18:28.262511 25176 net.cpp:84] Creating Layer relu5
I0817 13:18:28.262516 25176 net.cpp:406] relu5 <- bn5
I0817 13:18:28.262523 25176 net.cpp:367] relu5 -> bn5 (in-place)
I0817 13:18:28.262892 25176 net.cpp:122] Setting up relu5
I0817 13:18:28.262907 25176 net.cpp:129] Top shape: 12 256 1 4096 (12582912)
I0817 13:18:28.262910 25176 net.cpp:137] Memory required for data: 804323328
I0817 13:18:28.262915 25176 layer_factory.hpp:77] Creating layer bn5_relu5_0_split
I0817 13:18:28.262923 25176 net.cpp:84] Creating Layer bn5_relu5_0_split
I0817 13:18:28.262928 25176 net.cpp:406] bn5_relu5_0_split <- bn5
I0817 13:18:28.262934 25176 net.cpp:380] bn5_relu5_0_split -> bn5_relu5_0_split_0
I0817 13:18:28.262943 25176 net.cpp:380] bn5_relu5_0_split -> bn5_relu5_0_split_1
I0817 13:18:28.262959 25176 net.cpp:380] bn5_relu5_0_split -> bn5_relu5_0_split_2
I0817 13:18:28.263022 25176 net.cpp:122] Setting up bn5_relu5_0_split
I0817 13:18:28.263031 25176 net.cpp:129] Top shape: 12 256 1 4096 (12582912)
I0817 13:18:28.263037 25176 net.cpp:129] Top shape: 12 256 1 4096 (12582912)
I0817 13:18:28.263042 25176 net.cpp:129] Top shape: 12 256 1 4096 (12582912)
I0817 13:18:28.263046 25176 net.cpp:137] Memory required for data: 955318272
I0817 13:18:28.263051 25176 layer_factory.hpp:77] Creating layer fconv5
I0817 13:18:28.263062 25176 net.cpp:84] Creating Layer fconv5
I0817 13:18:28.263067 25176 net.cpp:406] fconv5 <- bn5_relu5_0_split_0
I0817 13:18:28.263075 25176 net.cpp:380] fconv5 -> fconv5
I0817 13:18:28.264811 25176 net.cpp:122] Setting up fconv5
I0817 13:18:28.264828 25176 net.cpp:129] Top shape: 12 3 1 4096 (147456)
I0817 13:18:28.264833 25176 net.cpp:137] Memory required for data: 955908096
I0817 13:18:28.264842 25176 layer_factory.hpp:77] Creating layer fconv5_
I0817 13:18:28.264849 25176 net.cpp:84] Creating Layer fconv5_
I0817 13:18:28.264855 25176 net.cpp:406] fconv5_ <- fconv5
I0817 13:18:28.264863 25176 net.cpp:380] fconv5_ -> fconv5_
I0817 13:18:28.264897 25176 net.cpp:122] Setting up fconv5_
I0817 13:18:28.264907 25176 net.cpp:129] Top shape: 12 3 1 4096 (147456)
I0817 13:18:28.264911 25176 net.cpp:137] Memory required for data: 956497920
I0817 13:18:28.264914 25176 layer_factory.hpp:77] Creating layer fconv5__
I0817 13:18:28.264921 25176 net.cpp:84] Creating Layer fconv5__
I0817 13:18:28.264926 25176 net.cpp:406] fconv5__ <- fconv5_
I0817 13:18:28.264935 25176 net.cpp:380] fconv5__ -> fconv5__
I0817 13:18:28.264963 25176 net.cpp:122] Setting up fconv5__
I0817 13:18:28.264972 25176 net.cpp:129] Top shape: 12 3 1 4096 (147456)
I0817 13:18:28.264976 25176 net.cpp:137] Memory required for data: 957087744
I0817 13:18:28.264979 25176 layer_factory.hpp:77] Creating layer feat5
I0817 13:18:28.264997 25176 net.cpp:84] Creating Layer feat5
I0817 13:18:28.265003 25176 net.cpp:406] feat5 <- data_feat_data_feat_0_split_4
I0817 13:18:28.265009 25176 net.cpp:406] feat5 <- fconv5__
I0817 13:18:28.265017 25176 net.cpp:380] feat5 -> feat5
I0817 13:18:28.265046 25176 net.cpp:122] Setting up feat5
I0817 13:18:28.265054 25176 net.cpp:129] Top shape: 12 3 1 4096 (147456)
I0817 13:18:28.265058 25176 net.cpp:137] Memory required for data: 957677568
I0817 13:18:28.265063 25176 layer_factory.hpp:77] Creating layer data_lattice4
I0817 13:18:28.265094 25176 net.cpp:84] Creating Layer data_lattice4
I0817 13:18:28.265102 25176 net.cpp:406] data_lattice4 <- feat5
I0817 13:18:28.265110 25176 net.cpp:380] data_lattice4 -> data_lattice4
I0817 13:18:28.265242 25176 net.cpp:122] Setting up data_lattice4
I0817 13:18:28.265255 25176 net.cpp:129] Top shape: 12 3 1 4096 (147456)
I0817 13:18:28.265259 25176 net.cpp:137] Memory required for data: 958267392
I0817 13:18:28.265264 25176 layer_factory.hpp:77] Creating layer data_lattice4_data_lattice4_0_split
I0817 13:18:28.265271 25176 net.cpp:84] Creating Layer data_lattice4_data_lattice4_0_split
I0817 13:18:28.265276 25176 net.cpp:406] data_lattice4_data_lattice4_0_split <- data_lattice4
I0817 13:18:28.265285 25176 net.cpp:380] data_lattice4_data_lattice4_0_split -> data_lattice4_data_lattice4_0_split_0
I0817 13:18:28.265295 25176 net.cpp:380] data_lattice4_data_lattice4_0_split -> data_lattice4_data_lattice4_0_split_1
I0817 13:18:28.265337 25176 net.cpp:122] Setting up data_lattice4_data_lattice4_0_split
I0817 13:18:28.265345 25176 net.cpp:129] Top shape: 12 3 1 4096 (147456)
I0817 13:18:28.265350 25176 net.cpp:129] Top shape: 12 3 1 4096 (147456)
I0817 13:18:28.265354 25176 net.cpp:137] Memory required for data: 959447040
I0817 13:18:28.265358 25176 layer_factory.hpp:77] Creating layer conv6
I0817 13:18:28.265374 25176 net.cpp:84] Creating Layer conv6
I0817 13:18:28.265379 25176 net.cpp:406] conv6 <- bn5_relu5_0_split_1
I0817 13:18:28.265385 25176 net.cpp:406] conv6 <- data_lattice4_data_lattice4_0_split_0
I0817 13:18:28.265390 25176 net.cpp:406] conv6 <- data_lattice4_data_lattice4_0_split_1
I0817 13:18:28.265398 25176 net.cpp:380] conv6 -> conv6
I0817 13:18:28.302753 25176 net.cpp:122] Setting up conv6
I0817 13:18:28.302772 25176 net.cpp:129] Top shape: 12 256 1 4096 (12582912)
I0817 13:18:28.302778 25176 net.cpp:137] Memory required for data: 1009778688
I0817 13:18:28.302785 25176 layer_factory.hpp:77] Creating layer bn6
I0817 13:18:28.302793 25176 net.cpp:84] Creating Layer bn6
I0817 13:18:28.302798 25176 net.cpp:406] bn6 <- conv6
I0817 13:18:28.302805 25176 net.cpp:380] bn6 -> bn6
I0817 13:18:28.303033 25176 net.cpp:122] Setting up bn6
I0817 13:18:28.303043 25176 net.cpp:129] Top shape: 12 256 1 4096 (12582912)
I0817 13:18:28.303047 25176 net.cpp:137] Memory required for data: 1060110336
I0817 13:18:28.303056 25176 layer_factory.hpp:77] Creating layer relu6
I0817 13:18:28.303063 25176 net.cpp:84] Creating Layer relu6
I0817 13:18:28.303067 25176 net.cpp:406] relu6 <- bn6
I0817 13:18:28.303074 25176 net.cpp:367] relu6 -> bn6 (in-place)
I0817 13:18:28.303823 25176 net.cpp:122] Setting up relu6
I0817 13:18:28.303841 25176 net.cpp:129] Top shape: 12 256 1 4096 (12582912)
I0817 13:18:28.303845 25176 net.cpp:137] Memory required for data: 1110441984
I0817 13:18:28.303859 25176 layer_factory.hpp:77] Creating layer concat6
I0817 13:18:28.303910 25176 net.cpp:84] Creating Layer concat6
I0817 13:18:28.303920 25176 net.cpp:406] concat6 <- bn6
I0817 13:18:28.303926 25176 net.cpp:406] concat6 <- bn2_relu2_0_split_2
I0817 13:18:28.303932 25176 net.cpp:406] concat6 <- bn3_relu3_0_split_2
I0817 13:18:28.303937 25176 net.cpp:406] concat6 <- bn4_relu4_0_split_2
I0817 13:18:28.303941 25176 net.cpp:406] concat6 <- bn5_relu5_0_split_2
I0817 13:18:28.303947 25176 net.cpp:380] concat6 -> concat6
I0817 13:18:28.304010 25176 net.cpp:122] Setting up concat6
I0817 13:18:28.304024 25176 net.cpp:129] Top shape: 12 960 1 4096 (47185920)
I0817 13:18:28.304028 25176 net.cpp:137] Memory required for data: 1299185664
I0817 13:18:28.304033 25176 layer_factory.hpp:77] Creating layer conv7
I0817 13:18:28.304045 25176 net.cpp:84] Creating Layer conv7
I0817 13:18:28.304050 25176 net.cpp:406] conv7 <- concat6
I0817 13:18:28.304059 25176 net.cpp:380] conv7 -> conv7
I0817 13:18:28.307366 25176 net.cpp:122] Setting up conv7
I0817 13:18:28.307384 25176 net.cpp:129] Top shape: 12 128 1 4096 (6291456)
I0817 13:18:28.307389 25176 net.cpp:137] Memory required for data: 1324351488
I0817 13:18:28.307397 25176 layer_factory.hpp:77] Creating layer bn7
I0817 13:18:28.307406 25176 net.cpp:84] Creating Layer bn7
I0817 13:18:28.307411 25176 net.cpp:406] bn7 <- conv7
I0817 13:18:28.307420 25176 net.cpp:380] bn7 -> bn7
I0817 13:18:28.307648 25176 net.cpp:122] Setting up bn7
I0817 13:18:28.307659 25176 net.cpp:129] Top shape: 12 128 1 4096 (6291456)
I0817 13:18:28.307663 25176 net.cpp:137] Memory required for data: 1349517312
I0817 13:18:28.307680 25176 layer_factory.hpp:77] Creating layer relu7
I0817 13:18:28.307706 25176 net.cpp:84] Creating Layer relu7
I0817 13:18:28.307711 25176 net.cpp:406] relu7 <- bn7
I0817 13:18:28.307718 25176 net.cpp:367] relu7 -> bn7 (in-place)
I0817 13:18:28.308061 25176 net.cpp:122] Setting up relu7
I0817 13:18:28.308075 25176 net.cpp:129] Top shape: 12 128 1 4096 (6291456)
I0817 13:18:28.308079 25176 net.cpp:137] Memory required for data: 1374683136
I0817 13:18:28.308084 25176 layer_factory.hpp:77] Creating layer conv8
I0817 13:18:28.308097 25176 net.cpp:84] Creating Layer conv8
I0817 13:18:28.308102 25176 net.cpp:406] conv8 <- bn7
I0817 13:18:28.308110 25176 net.cpp:380] conv8 -> conv8
I0817 13:18:28.310195 25176 net.cpp:122] Setting up conv8
I0817 13:18:28.310214 25176 net.cpp:129] Top shape: 12 13 1 4096 (638976)
I0817 13:18:28.310220 25176 net.cpp:137] Memory required for data: 1377239040
I0817 13:18:28.310227 25176 layer_factory.hpp:77] Creating layer conv8_conv8_0_split
I0817 13:18:28.310235 25176 net.cpp:84] Creating Layer conv8_conv8_0_split
I0817 13:18:28.310240 25176 net.cpp:406] conv8_conv8_0_split <- conv8
I0817 13:18:28.310247 25176 net.cpp:380] conv8_conv8_0_split -> conv8_conv8_0_split_0
I0817 13:18:28.310256 25176 net.cpp:380] conv8_conv8_0_split -> conv8_conv8_0_split_1
I0817 13:18:28.310305 25176 net.cpp:122] Setting up conv8_conv8_0_split
I0817 13:18:28.310315 25176 net.cpp:129] Top shape: 12 13 1 4096 (638976)
I0817 13:18:28.310320 25176 net.cpp:129] Top shape: 12 13 1 4096 (638976)
I0817 13:18:28.310324 25176 net.cpp:137] Memory required for data: 1382350848
I0817 13:18:28.310328 25176 layer_factory.hpp:77] Creating layer loss
I0817 13:18:28.310372 25176 net.cpp:84] Creating Layer loss
I0817 13:18:28.310381 25176 net.cpp:406] loss <- conv8_conv8_0_split_0
I0817 13:18:28.310389 25176 net.cpp:406] loss <- label_data_1_split_0
I0817 13:18:28.310395 25176 net.cpp:380] loss -> loss
…
