…
I0806 10:40:31.428934  9806 net.cpp:294] The NetState phase (0) differed from the phase (1) specified by a rule in layer data
I0806 10:40:31.429677  9806 net.cpp:51] Initializing net from parameters: 
state {
  phase: TRAIN
}
layer {
  name: "data"
  type: "Python"
  top: "data"
  top: "label"
  include {
    phase: TRAIN
  }
  python_param {
    module: "dataset_lidar"
    layer: "InputShapenet"
    param_str: "{\'sample_size\': 8192, \'test_area\': \'6\', \'batch_size\': 12, \'feat_dims\': \'x_y_z\', \'subset\': \'train\', \'root\': \'../../data/shapenet_ericyi_ply\', \'jitter_xyz\': 0.02, \'jitter_stretch\': 0.1, \'jitter_rotation\': 10.0}"
  }
}
layer {
  name: "data_feat"
  type: "Python"
  bottom: "data"
  top: "data_feat"
  python_param {
    module: "custom_layers"
    layer: "PickAndScale"
    param_str: "0_1_2"
  }
}
layer {
  name: "conv1"
  type: "Convolution"
  bottom: "data_feat"
  top: "conv1"
  param {
    lr_mult: 1
  }
  param {
    lr_mult: 0.1
  }
  convolution_param {
    num_output: 32
    pad: 0
    kernel_size: 1
    stride: 1
    weight_filler {
      type: "xavier"
    }
    bias_filler {
      type: "constant"
      value: 0
    }
  }
}
layer {
  name: "bn1"
  type: "BatchNorm"
  bottom: "conv1"
  top: "bn1"
}
layer {
  name: "relu1"
  type: "ReLU"
  bottom: "bn1"
  top: "bn1"
}
layer {
  name: "conv1a"
  type: "Convolution"
  bottom: "bn1"
  top: "conv1a"
  param {
    lr_mult: 1
  }
  param {
    lr_mult: 0.1
  }
  convolution_param {
    num_output: 32
    pad: 0
    kernel_size: 1
    stride: 1
    weight_filler {
      type: "xavier"
    }
    bias_filler {
      type: "constant"
      value: 0
    }
  }
}
layer {
  name: "bn1a"
  type: "BatchNorm"
  bottom: "conv1a"
  top: "bn1a"
}
layer {
  name: "relu1a"
  type: "ReLU"
  bottom: "bn1a"
  top: "bn1a"
}
layer {
  name: "conv1b"
  type: "Convolution"
  bottom: "bn1a"
  top: "conv1b"
  param {
    lr_mult: 1
  }
  param {
    lr_mult: 0.1
  }
  convolution_param {
    num_output: 32
    pad: 0
    kernel_size: 1
    stride: 1
    weight_filler {
      type: "xavier"
    }
    bias_filler {
      type: "constant"
      value: 0
    }
  }
}
layer {
  name: "bn1b"
  type: "BatchNorm"
  bottom: "conv1b"
  top: "bn1b"
}
layer {
  name: "relu1b"
  type: "ReLU"
  bottom: "bn1b"
  top: "bn1b"
}
layer {
  name: "fconv1"
  type: "Convolution"
  bottom: "bn1b"
  top: "fconv1"
  param {
    lr_mult: 1
  }
  param {
    lr_mult: 0.1
  }
  convolution_param {
    num_output: 3
    pad: 0
    kernel_size: 1
    stride: 1
    weight_filler {
      type: "xavier"
    }
    bias_filler {
      type: "constant"
      value: 0
    }
  }
}
layer {
  name: "fbn1"
  type: "BatchNorm"
  bottom: "fconv1"
  top: "fbn1"
}
layer {
  name: "frelu1"
  type: "ReLU"
  bottom: "fbn1"
  top: "fbn1"
}
layer {
  name: "feat1"
  type: "Eltwise"
  bottom: "data"
  bottom: "fbn1"
  top: "feat1"
  eltwise_param {
    operation: SUM
  }
}
layer {
  name: "data_lattice0"
  type: "Python"
  bottom: "feat1"
  top: "data_lattice0"
  python_param {
    module: "custom_layers"
    layer: "PickAndScale"
    param_str: "0*48_1*48_2*48"
  }
}
layer {
  name: "conv2"
  type: "Permutohedral"
  bottom: "bn1b"
  bottom: "data_lattice0"
  bottom: "data_lattice0"
  top: "conv2"
  param {
    lr_mult: 1
    decay_mult: 1
  }
  param {
    lr_mult: 2
    decay_mult: 0
  }
  permutohedral_param {
    num_output: 64
    neighborhood_size: 2
    filter_filler {
      type: "gaussian"
      std: 0.001
    }
    bias_term: true
    bias_filler {
      type: "constant"
      value: 0
    }
    group: 1
    norm_type: AFTER
    offset_type: NONE
  }
}
layer {
  name: "bn2"
  type: "BatchNorm"
  bottom: "conv2"
  top: "bn2"
}
layer {
  name: "relu2"
  type: "ReLU"
  bottom: "bn2"
  top: "bn2"
}
layer {
  name: "fconv2"
  type: "Convolution"
  bottom: "bn2"
  top: "fconv2"
  param {
    lr_mult: 1
  }
  param {
    lr_mult: 0.1
  }
  convolution_param {
    num_output: 3
    pad: 0
    kernel_size: 1
    stride: 1
    weight_filler {
      type: "xavier"
    }
    bias_filler {
      type: "constant"
      value: 0
    }
  }
}
layer {
  name: "fbn2"
  type: "BatchNorm"
  bottom: "fconv2"
  top: "fbn2"
}
layer {
  name: "frelu2"
  type: "ReLU"
  bottom: "fbn2"
  top: "fbn2"
}
layer {
  name: "feat2"
  type: "Eltwise"
  bottom: "data"
  bottom: "fbn2"
  top: "feat2"
  eltwise_param {
    operation: SUM
  }
}
layer {
  name: "data_lattice1"
  type: "Python"
  bottom: "feat2"
  top: "data_lattice1"
  python_param {
    module: "custom_layers"
    layer: "PickAndScale"
    param_str: "0*24_1*24_2*24"
  }
}
layer {
  name: "conv3"
  type: "Permutohedral"
  bottom: "bn2"
  bottom: "data_lattice1"
  bottom: "data_lattice1"
  top: "conv3"
  param {
    lr_mult: 1
    decay_mult: 1
  }
  param {
    lr_mult: 2
    decay_mult: 0
  }
  permutohedral_param {
    num_output: 128
    neighborhood_size: 2
    filter_filler {
      type: "gaussian"
      std: 0.001
    }
    bias_term: true
    bias_filler {
      type: "constant"
      value: 0
    }
    group: 1
    norm_type: AFTER
    offset_type: NONE
  }
}
layer {
  name: "bn3"
  type: "BatchNorm"
  bottom: "conv3"
  top: "bn3"
}
layer {
  name: "relu3"
  type: "ReLU"
  bottom: "bn3"
  top: "bn3"
}
layer {
  name: "fconv3"
  type: "Convolution"
  bottom: "bn3"
  top: "fconv3"
  param {
    lr_mult: 1
  }
  param {
    lr_mult: 0.1
  }
  convolution_param {
    num_output: 3
    pad: 0
    kernel_size: 1
    stride: 1
    weight_filler {
      type: "xavier"
    }
    bias_filler {
      type: "constant"
      value: 0
    }
  }
}
layer {
  name: "fbn3"
  type: "BatchNorm"
  bottom: "fconv3"
  top: "fbn3"
}
layer {
  name: "frelu3"
  type: "ReLU"
  bottom: "fbn3"
  top: "fbn3"
}
layer {
  name: "feat3"
  type: "Eltwise"
  bottom: "data"
  bottom: "fbn3"
  top: "feat3"
  eltwise_param {
    operation: SUM
  }
}
layer {
  name: "data_lattice2"
  type: "Python"
  bottom: "feat3"
  top: "data_lattice2"
  python_param {
    module: "custom_layers"
    layer: "PickAndScale"
    param_str: "0*12_1*12_2*12"
  }
}
layer {
  name: "conv4"
  type: "Permutohedral"
  bottom: "bn3"
  bottom: "data_lattice2"
  bottom: "data_lattice2"
  top: "conv4"
  param {
    lr_mult: 1
    decay_mult: 1
  }
  param {
    lr_mult: 2
    decay_mult: 0
  }
  permutohedral_param {
    num_output: 256
    neighborhood_size: 2
    filter_filler {
      type: "gaussian"
      std: 0.001
    }
    bias_term: true
    bias_filler {
      type: "constant"
      value: 0
    }
    group: 1
    norm_type: AFTER
    offset_type: NONE
  }
}
layer {
  name: "bn4"
  type: "BatchNorm"
  bottom: "conv4"
  top: "bn4"
}
layer {
  name: "relu4"
  type: "ReLU"
  bottom: "bn4"
  top: "bn4"
}
layer {
  name: "fconv4"
  type: "Convolution"
  bottom: "bn4"
  top: "fconv4"
  param {
    lr_mult: 1
  }
  param {
    lr_mult: 0.1
  }
  convolution_param {
    num_output: 3
    pad: 0
    kernel_size: 1
    stride: 1
    weight_filler {
      type: "xavier"
    }
    bias_filler {
      type: "constant"
      value: 0
    }
  }
}
layer {
  name: "fbn4"
  type: "BatchNorm"
  bottom: "fconv4"
  top: "fbn4"
}
layer {
  name: "frelu4"
  type: "ReLU"
  bottom: "fbn4"
  top: "fbn4"
}
layer {
  name: "feat4"
  type: "Eltwise"
  bottom: "data"
  bottom: "fbn4"
  top: "feat4"
  eltwise_param {
    operation: SUM
  }
}
layer {
  name: "data_lattice3"
  type: "Python"
  bottom: "feat4"
  top: "data_lattice3"
  python_param {
    module: "custom_layers"
    layer: "PickAndScale"
    param_str: "0*6_1*6_2*6"
  }
}
layer {
  name: "conv5"
  type: "Permutohedral"
  bottom: "bn4"
  bottom: "data_lattice3"
  bottom: "data_lattice3"
  top: "conv5"
  param {
    lr_mult: 1
    decay_mult: 1
  }
  param {
    lr_mult: 2
    decay_mult: 0
  }
  permutohedral_param {
    num_output: 256
    neighborhood_size: 2
    filter_filler {
      type: "gaussian"
      std: 0.001
    }
    bias_term: true
    bias_filler {
      type: "constant"
      value: 0
    }
    group: 1
    norm_type: AFTER
    offset_type: NONE
  }
}
layer {
  name: "bn5"
  type: "BatchNorm"
  bottom: "conv5"
  top: "bn5"
}
layer {
  name: "relu5"
  type: "ReLU"
  bottom: "bn5"
  top: "bn5"
}
layer {
  name: "fconv5"
  type: "Convolution"
  bottom: "bn5"
  top: "fconv5"
  param {
    lr_mult: 1
  }
  param {
    lr_mult: 0.1
  }
  convolution_param {
    num_output: 3
    pad: 0
    kernel_size: 1
    stride: 1
    weight_filler {
      type: "xavier"
    }
    bias_filler {
      type: "constant"
      value: 0
    }
  }
}
layer {
  name: "fbn5"
  type: "BatchNorm"
  bottom: "fconv5"
  top: "fbn5"
}
layer {
  name: "frelu5"
  type: "ReLU"
  bottom: "fbn5"
  top: "fbn5"
}
layer {
  name: "feat5"
  type: "Eltwise"
  bottom: "data"
  bottom: "fbn5"
  top: "feat5"
  eltwise_param {
    operation: SUM
  }
}
layer {
  name: "data_lattice4"
  type: "Python"
  bottom: "feat5"
  top: "data_lattice4"
  python_param {
    module: "custom_layers"
    layer: "PickAndScale"
    param_str: "0*3_1*3_2*3"
  }
}
layer {
  name: "conv6"
  type: "Permutohedral"
  bottom: "bn5"
  bottom: "data_lattice4"
  bottom: "data_lattice4"
  top: "conv6"
  param {
    lr_mult: 1
    decay_mult: 1
  }
  param {
    lr_mult: 2
    decay_mult: 0
  }
  permutohedral_param {
    num_output: 256
    neighborhood_size: 2
    filter_filler {
      type: "gaussian"
      std: 0.001
    }
    bias_term: true
    bias_filler {
      type: "constant"
      value: 0
    }
    group: 1
    norm_type: AFTER
    offset_type: NONE
  }
}
layer {
  name: "bn6"
  type: "BatchNorm"
  bottom: "conv6"
  top: "bn6"
}
layer {
  name: "relu6"
  type: "ReLU"
  bottom: "bn6"
  top: "bn6"
}
layer {
  name: "concat6"
  type: "Concat"
  bottom: "bn6"
  bottom: "bn2"
  bottom: "bn3"
  bottom: "bn4"
  bottom: "bn5"
  top: "concat6"
}
layer {
  name: "conv7"
  type: "Convolution"
  bottom: "concat6"
  top: "conv7"
  param {
    lr_mult: 1
  }
  param {
    lr_mult: 0.1
  }
  convolution_param {
    num_output: 128
    pad: 0
    kernel_size: 1
    stride: 1
    weight_filler {
      type: "xavier"
    }
    bias_filler {
      type: "constant"
      value: 0
    }
  }
}
layer {
  name: "bn7"
  type: "BatchNorm"
  bottom: "conv7"
  top: "bn7"
}
layer {
  name: "relu7"
  type: "ReLU"
  bottom: "bn7"
  top: "bn7"
}
layer {
  name: "conv8"
  type: "Convolution"
  bottom: "bn7"
  top: "conv8"
  param {
    lr_mult: 1
  }
  param {
    lr_mult: 0.1
  }
  convolution_param {
    num_output: 13
    pad: 0
    kernel_size: 1
    stride: 1
    weight_filler {
      type: "xavier"
    }
    bias_filler {
      type: "constant"
      value: 0
    }
  }
}
layer {
  name: "loss"
  type: "SoftmaxWithLoss"
  bottom: "conv8"
  bottom: "label"
  top: "loss"
}
layer {
  name: "accuracy"
  type: "Accuracy"
  bottom: "conv8"
  bottom: "label"
  top: "accuracy"
}
I0806 10:40:31.447190  9806 layer_factory.hpp:77] Creating layer data
I0806 10:40:31.474628  9806 net.cpp:84] Creating Layer data
I0806 10:40:31.474707  9806 net.cpp:380] data -> data
I0806 10:40:31.474880  9806 net.cpp:380] data -> label
I0806 10:40:31.786165  9808 upgrade_proto.cpp:1084] Attempting to upgrade input file specified using deprecated 'solver_type' field (enum)': /mnt/lustre/wangjiayun/repos/splatnet/exp/lidar3d/area6/6_solver.prototxt
…
I0806 10:40:32.149991  9810 upgrade_proto.cpp:1084] Attempting to upgrade input file specified using deprecated 'solver_type' field (enum)': /mnt/lustre/wangjiayun/repos/splatnet/exp/lidar3d/area6/6_solver.prototxt
I0806 10:40:32.150066  9810 upgrade_proto.cpp:1091] Successfully upgraded file specified using deprecated 'solver_type' field (enum) to 'type' field (string).
W0806 10:40:32.150074  9810 upgrade_proto.cpp:1093] Note that future Caffe releases will only support 'type' field (string) for a solver's type.
I0806 10:51:34.175690  9806 net.cpp:122] Setting up data
I0806 10:51:34.176257  9806 net.cpp:129] Top shape: 12 3 1 8192 (294912)
I0806 10:51:34.176271  9806 net.cpp:129] Top shape: 12 1 1 8192 (98304)
I0806 10:51:34.176275  9806 net.cpp:137] Memory required for data: 1572864
I0806 10:51:34.176338  9806 layer_factory.hpp:77] Creating layer data_data_0_split
I0806 10:51:34.176456  9806 net.cpp:84] Creating Layer data_data_0_split
I0806 10:51:34.176481  9806 net.cpp:406] data_data_0_split <- data
I0806 10:51:34.176532  9806 net.cpp:380] data_data_0_split -> data_data_0_split_0
I0806 10:51:34.176575  9806 net.cpp:380] data_data_0_split -> data_data_0_split_1
I0806 10:51:34.176599  9806 net.cpp:380] data_data_0_split -> data_data_0_split_2
I0806 10:51:34.176606  9806 net.cpp:380] data_data_0_split -> data_data_0_split_3
I0806 10:51:34.176612  9806 net.cpp:380] data_data_0_split -> data_data_0_split_4
I0806 10:51:34.176618  9806 net.cpp:380] data_data_0_split -> data_data_0_split_5
I0806 10:51:34.176723  9806 net.cpp:122] Setting up data_data_0_split
I0806 10:51:34.176734  9806 net.cpp:129] Top shape: 12 3 1 8192 (294912)
I0806 10:51:34.176739  9806 net.cpp:129] Top shape: 12 3 1 8192 (294912)
I0806 10:51:34.176744  9806 net.cpp:129] Top shape: 12 3 1 8192 (294912)
I0806 10:51:34.176748  9806 net.cpp:129] Top shape: 12 3 1 8192 (294912)
I0806 10:51:34.176753  9806 net.cpp:129] Top shape: 12 3 1 8192 (294912)
I0806 10:51:34.176756  9806 net.cpp:129] Top shape: 12 3 1 8192 (294912)
I0806 10:51:34.176760  9806 net.cpp:137] Memory required for data: 8650752
I0806 10:51:34.176764  9806 layer_factory.hpp:77] Creating layer label_data_1_split
I0806 10:51:34.176772  9806 net.cpp:84] Creating Layer label_data_1_split
I0806 10:51:34.176776  9806 net.cpp:406] label_data_1_split <- label
I0806 10:51:34.176784  9806 net.cpp:380] label_data_1_split -> label_data_1_split_0
I0806 10:51:34.176791  9806 net.cpp:380] label_data_1_split -> label_data_1_split_1
I0806 10:51:34.176821  9806 net.cpp:122] Setting up label_data_1_split
I0806 10:51:34.176827  9806 net.cpp:129] Top shape: 12 1 1 8192 (98304)
I0806 10:51:34.176832  9806 net.cpp:129] Top shape: 12 1 1 8192 (98304)
I0806 10:51:34.176836  9806 net.cpp:137] Memory required for data: 9437184
I0806 10:51:34.176838  9806 layer_factory.hpp:77] Creating layer data_feat
I0806 10:51:34.180676  9806 net.cpp:84] Creating Layer data_feat
I0806 10:51:34.180691  9806 net.cpp:406] data_feat <- data_data_0_split_0
I0806 10:51:34.180711  9806 net.cpp:380] data_feat -> data_feat
I0806 10:51:34.182065  9806 net.cpp:122] Setting up data_feat
I0806 10:51:34.182091  9806 net.cpp:129] Top shape: 12 3 1 8192 (294912)
I0806 10:51:34.182096  9806 net.cpp:137] Memory required for data: 10616832
I0806 10:51:34.182101  9806 layer_factory.hpp:77] Creating layer conv1
I0806 10:51:34.182157  9806 net.cpp:84] Creating Layer conv1
I0806 10:51:34.182165  9806 net.cpp:406] conv1 <- data_feat
I0806 10:51:34.182175  9806 net.cpp:380] conv1 -> conv1
I0806 10:51:39.353431  9806 net.cpp:122] Setting up conv1
I0806 10:51:39.353518  9806 net.cpp:129] Top shape: 12 32 1 8192 (3145728)
I0806 10:51:39.353529  9806 net.cpp:137] Memory required for data: 23199744
I0806 10:51:39.363788  9806 layer_factory.hpp:77] Creating layer bn1
I0806 10:51:39.365015  9806 net.cpp:84] Creating Layer bn1
I0806 10:51:39.365059  9806 net.cpp:406] bn1 <- conv1
I0806 10:51:39.365080  9806 net.cpp:380] bn1 -> bn1
I0806 10:51:39.371412  9806 net.cpp:122] Setting up bn1
I0806 10:51:39.371461  9806 net.cpp:129] Top shape: 12 32 1 8192 (3145728)
I0806 10:51:39.371484  9806 net.cpp:137] Memory required for data: 35782656
I0806 10:51:39.371516  9806 layer_factory.hpp:77] Creating layer relu1
I0806 10:51:39.372462  9806 net.cpp:84] Creating Layer relu1
I0806 10:51:39.372498  9806 net.cpp:406] relu1 <- bn1
I0806 10:51:39.372514  9806 net.cpp:367] relu1 -> bn1 (in-place)
I0806 10:51:39.385308  9806 net.cpp:122] Setting up relu1
I0806 10:51:39.385342  9806 net.cpp:129] Top shape: 12 32 1 8192 (3145728)
I0806 10:51:39.385352  9806 net.cpp:137] Memory required for data: 48365568
I0806 10:51:39.385360  9806 layer_factory.hpp:77] Creating layer conv1a
I0806 10:51:39.385385  9806 net.cpp:84] Creating Layer conv1a
I0806 10:51:39.385393  9806 net.cpp:406] conv1a <- bn1
I0806 10:51:39.385412  9806 net.cpp:380] conv1a -> conv1a
I0806 10:51:39.393481  9806 net.cpp:122] Setting up conv1a
I0806 10:51:39.393520  9806 net.cpp:129] Top shape: 12 32 1 8192 (3145728)
I0806 10:51:39.393530  9806 net.cpp:137] Memory required for data: 60948480
I0806 10:51:39.393548  9806 layer_factory.hpp:77] Creating layer bn1a
I0806 10:51:39.393573  9806 net.cpp:84] Creating Layer bn1a
I0806 10:51:39.393581  9806 net.cpp:406] bn1a <- conv1a
I0806 10:51:39.393595  9806 net.cpp:380] bn1a -> bn1a
I0806 10:51:39.394017  9806 net.cpp:122] Setting up bn1a
I0806 10:51:39.394037  9806 net.cpp:129] Top shape: 12 32 1 8192 (3145728)
I0806 10:51:39.394044  9806 net.cpp:137] Memory required for data: 73531392
I0806 10:51:39.394067  9806 layer_factory.hpp:77] Creating layer relu1a
I0806 10:51:39.394080  9806 net.cpp:84] Creating Layer relu1a
I0806 10:51:39.394088  9806 net.cpp:406] relu1a <- bn1a
I0806 10:51:39.394098  9806 net.cpp:367] relu1a -> bn1a (in-place)
I0806 10:51:39.394690  9806 net.cpp:122] Setting up relu1a
I0806 10:51:39.394716  9806 net.cpp:129] Top shape: 12 32 1 8192 (3145728)
I0806 10:51:39.394726  9806 net.cpp:137] Memory required for data: 86114304
I0806 10:51:39.394733  9806 layer_factory.hpp:77] Creating layer conv1b
I0806 10:51:39.394755  9806 net.cpp:84] Creating Layer conv1b
I0806 10:51:39.394764  9806 net.cpp:406] conv1b <- bn1a
I0806 10:51:39.394780  9806 net.cpp:380] conv1b -> conv1b
I0806 10:51:39.397725  9806 net.cpp:122] Setting up conv1b
I0806 10:51:39.397759  9806 net.cpp:129] Top shape: 12 32 1 8192 (3145728)
I0806 10:51:39.397769  9806 net.cpp:137] Memory required for data: 98697216
I0806 10:51:39.397784  9806 layer_factory.hpp:77] Creating layer bn1b
I0806 10:51:39.397806  9806 net.cpp:84] Creating Layer bn1b
I0806 10:51:39.397815  9806 net.cpp:406] bn1b <- conv1b
I0806 10:51:39.397830  9806 net.cpp:380] bn1b -> bn1b
I0806 10:51:39.398255  9806 net.cpp:122] Setting up bn1b
I0806 10:51:39.398275  9806 net.cpp:129] Top shape: 12 32 1 8192 (3145728)
I0806 10:51:39.398283  9806 net.cpp:137] Memory required for data: 111280128
I0806 10:51:39.398300  9806 layer_factory.hpp:77] Creating layer relu1b
I0806 10:51:39.398313  9806 net.cpp:84] Creating Layer relu1b
I0806 10:51:39.398321  9806 net.cpp:406] relu1b <- bn1b
I0806 10:51:39.398332  9806 net.cpp:367] relu1b -> bn1b (in-place)
I0806 10:51:39.399920  9806 net.cpp:122] Setting up relu1b
I0806 10:51:39.399952  9806 net.cpp:129] Top shape: 12 32 1 8192 (3145728)
I0806 10:51:39.399961  9806 net.cpp:137] Memory required for data: 123863040
I0806 10:51:39.399971  9806 layer_factory.hpp:77] Creating layer bn1b_relu1b_0_split
I0806 10:51:39.399986  9806 net.cpp:84] Creating Layer bn1b_relu1b_0_split
I0806 10:51:39.399994  9806 net.cpp:406] bn1b_relu1b_0_split <- bn1b
I0806 10:51:39.400008  9806 net.cpp:380] bn1b_relu1b_0_split -> bn1b_relu1b_0_split_0
I0806 10:51:39.400024  9806 net.cpp:380] bn1b_relu1b_0_split -> bn1b_relu1b_0_split_1
I0806 10:51:39.400110  9806 net.cpp:122] Setting up bn1b_relu1b_0_split
I0806 10:51:39.400127  9806 net.cpp:129] Top shape: 12 32 1 8192 (3145728)
I0806 10:51:39.400136  9806 net.cpp:129] Top shape: 12 32 1 8192 (3145728)
I0806 10:51:39.400142  9806 net.cpp:137] Memory required for data: 149028864
I0806 10:51:39.400151  9806 layer_factory.hpp:77] Creating layer fconv1
I0806 10:51:39.400177  9806 net.cpp:84] Creating Layer fconv1
I0806 10:51:39.400188  9806 net.cpp:406] fconv1 <- bn1b_relu1b_0_split_0
I0806 10:51:39.400204  9806 net.cpp:380] fconv1 -> fconv1
I0806 10:51:39.403149  9806 net.cpp:122] Setting up fconv1
I0806 10:51:39.403183  9806 net.cpp:129] Top shape: 12 3 1 8192 (294912)
I0806 10:51:39.403193  9806 net.cpp:137] Memory required for data: 150208512
I0806 10:51:39.403216  9806 layer_factory.hpp:77] Creating layer fbn1
I0806 10:51:39.403236  9806 net.cpp:84] Creating Layer fbn1
I0806 10:51:39.403246  9806 net.cpp:406] fbn1 <- fconv1
I0806 10:51:39.403261  9806 net.cpp:380] fbn1 -> fbn1
I0806 10:51:39.403698  9806 net.cpp:122] Setting up fbn1
I0806 10:51:39.403719  9806 net.cpp:129] Top shape: 12 3 1 8192 (294912)
I0806 10:51:39.403726  9806 net.cpp:137] Memory required for data: 151388160
I0806 10:51:39.403743  9806 layer_factory.hpp:77] Creating layer frelu1
I0806 10:51:39.403759  9806 net.cpp:84] Creating Layer frelu1
I0806 10:51:39.403767  9806 net.cpp:406] frelu1 <- fbn1
I0806 10:51:39.403779  9806 net.cpp:367] frelu1 -> fbn1 (in-place)
I0806 10:51:39.405011  9806 net.cpp:122] Setting up frelu1
I0806 10:51:39.405045  9806 net.cpp:129] Top shape: 12 3 1 8192 (294912)
I0806 10:51:39.405053  9806 net.cpp:137] Memory required for data: 152567808
I0806 10:51:39.405067  9806 layer_factory.hpp:77] Creating layer feat1
I0806 10:51:39.406129  9806 net.cpp:84] Creating Layer feat1
I0806 10:51:39.406157  9806 net.cpp:406] feat1 <- data_data_0_split_1
I0806 10:51:39.406172  9806 net.cpp:406] feat1 <- fbn1
I0806 10:51:39.406185  9806 net.cpp:380] feat1 -> feat1
I0806 10:51:39.406766  9806 net.cpp:122] Setting up feat1
I0806 10:51:39.406795  9806 net.cpp:129] Top shape: 12 3 1 8192 (294912)
I0806 10:51:39.406802  9806 net.cpp:137] Memory required for data: 153747456
I0806 10:51:39.406811  9806 layer_factory.hpp:77] Creating layer data_lattice0
I0806 10:51:39.406965  9806 net.cpp:84] Creating Layer data_lattice0
I0806 10:51:39.406983  9806 net.cpp:406] data_lattice0 <- feat1
I0806 10:51:39.406998  9806 net.cpp:380] data_lattice0 -> data_lattice0
I0806 10:51:39.409623  9806 net.cpp:122] Setting up data_lattice0
I0806 10:51:39.409656  9806 net.cpp:129] Top shape: 12 3 1 8192 (294912)
I0806 10:51:39.409664  9806 net.cpp:137] Memory required for data: 154927104
I0806 10:51:39.409673  9806 layer_factory.hpp:77] Creating layer data_lattice0_data_lattice0_0_split
I0806 10:51:39.409687  9806 net.cpp:84] Creating Layer data_lattice0_data_lattice0_0_split
I0806 10:51:39.409695  9806 net.cpp:406] data_lattice0_data_lattice0_0_split <- data_lattice0
I0806 10:51:39.409709  9806 net.cpp:380] data_lattice0_data_lattice0_0_split -> data_lattice0_data_lattice0_0_split_0
I0806 10:51:39.409724  9806 net.cpp:380] data_lattice0_data_lattice0_0_split -> data_lattice0_data_lattice0_0_split_1
I0806 10:51:39.409799  9806 net.cpp:122] Setting up data_lattice0_data_lattice0_0_split
I0806 10:51:39.409816  9806 net.cpp:129] Top shape: 12 3 1 8192 (294912)
I0806 10:51:39.409823  9806 net.cpp:129] Top shape: 12 3 1 8192 (294912)
I0806 10:51:39.409829  9806 net.cpp:137] Memory required for data: 157286400
I0806 10:51:39.409837  9806 layer_factory.hpp:77] Creating layer conv2
I0806 10:51:39.410382  9806 net.cpp:84] Creating Layer conv2
I0806 10:51:39.410408  9806 net.cpp:406] conv2 <- bn1b_relu1b_0_split_1
I0806 10:51:39.410420  9806 net.cpp:406] conv2 <- data_lattice0_data_lattice0_0_split_0
I0806 10:51:39.410429  9806 net.cpp:406] conv2 <- data_lattice0_data_lattice0_0_split_1
I0806 10:51:39.410442  9806 net.cpp:380] conv2 -> conv2
I0806 10:51:39.419765  9806 net.cpp:122] Setting up conv2
I0806 10:51:39.419793  9806 net.cpp:129] Top shape: 12 64 1 8192 (6291456)
I0806 10:51:39.419801  9806 net.cpp:137] Memory required for data: 182452224
I0806 10:51:39.419817  9806 layer_factory.hpp:77] Creating layer bn2
I0806 10:51:39.419831  9806 net.cpp:84] Creating Layer bn2
I0806 10:51:39.419838  9806 net.cpp:406] bn2 <- conv2
I0806 10:51:39.419850  9806 net.cpp:380] bn2 -> bn2
I0806 10:51:39.420222  9806 net.cpp:122] Setting up bn2
I0806 10:51:39.420238  9806 net.cpp:129] Top shape: 12 64 1 8192 (6291456)
I0806 10:51:39.420244  9806 net.cpp:137] Memory required for data: 207618048
I0806 10:51:39.420258  9806 layer_factory.hpp:77] Creating layer relu2
I0806 10:51:39.420274  9806 net.cpp:84] Creating Layer relu2
I0806 10:51:39.420280  9806 net.cpp:406] relu2 <- bn2
I0806 10:51:39.420290  9806 net.cpp:367] relu2 -> bn2 (in-place)
I0806 10:51:39.420852  9806 net.cpp:122] Setting up relu2
I0806 10:51:39.420876  9806 net.cpp:129] Top shape: 12 64 1 8192 (6291456)
I0806 10:51:39.420883  9806 net.cpp:137] Memory required for data: 232783872
I0806 10:51:39.420891  9806 layer_factory.hpp:77] Creating layer bn2_relu2_0_split
I0806 10:51:39.420902  9806 net.cpp:84] Creating Layer bn2_relu2_0_split
I0806 10:51:39.420909  9806 net.cpp:406] bn2_relu2_0_split <- bn2
I0806 10:51:39.420923  9806 net.cpp:380] bn2_relu2_0_split -> bn2_relu2_0_split_0
I0806 10:51:39.420936  9806 net.cpp:380] bn2_relu2_0_split -> bn2_relu2_0_split_1
I0806 10:51:39.420948  9806 net.cpp:380] bn2_relu2_0_split -> bn2_relu2_0_split_2
I0806 10:51:39.421042  9806 net.cpp:122] Setting up bn2_relu2_0_split
I0806 10:51:39.421057  9806 net.cpp:129] Top shape: 12 64 1 8192 (6291456)
I0806 10:51:39.421066  9806 net.cpp:129] Top shape: 12 64 1 8192 (6291456)
I0806 10:51:39.421072  9806 net.cpp:129] Top shape: 12 64 1 8192 (6291456)
I0806 10:51:39.421077  9806 net.cpp:137] Memory required for data: 308281344
I0806 10:51:39.421083  9806 layer_factory.hpp:77] Creating layer fconv2
I0806 10:51:39.421102  9806 net.cpp:84] Creating Layer fconv2
I0806 10:51:39.421113  9806 net.cpp:406] fconv2 <- bn2_relu2_0_split_0
I0806 10:51:39.421128  9806 net.cpp:380] fconv2 -> fconv2
I0806 10:51:39.423925  9806 net.cpp:122] Setting up fconv2
I0806 10:51:39.423955  9806 net.cpp:129] Top shape: 12 3 1 8192 (294912)
I0806 10:51:39.423964  9806 net.cpp:137] Memory required for data: 309460992
I0806 10:51:39.423980  9806 layer_factory.hpp:77] Creating layer fbn2
I0806 10:51:39.423995  9806 net.cpp:84] Creating Layer fbn2
I0806 10:51:39.424003  9806 net.cpp:406] fbn2 <- fconv2
I0806 10:51:39.424016  9806 net.cpp:380] fbn2 -> fbn2
I0806 10:51:39.424391  9806 net.cpp:122] Setting up fbn2
I0806 10:51:39.424407  9806 net.cpp:129] Top shape: 12 3 1 8192 (294912)
I0806 10:51:39.424413  9806 net.cpp:137] Memory required for data: 310640640
I0806 10:51:39.424427  9806 layer_factory.hpp:77] Creating layer frelu2
I0806 10:51:39.424440  9806 net.cpp:84] Creating Layer frelu2
I0806 10:51:39.424448  9806 net.cpp:406] frelu2 <- fbn2
I0806 10:51:39.424458  9806 net.cpp:367] frelu2 -> fbn2 (in-place)
I0806 10:51:39.425549  9806 net.cpp:122] Setting up frelu2
I0806 10:51:39.425576  9806 net.cpp:129] Top shape: 12 3 1 8192 (294912)
I0806 10:51:39.425583  9806 net.cpp:137] Memory required for data: 311820288
I0806 10:51:39.425591  9806 layer_factory.hpp:77] Creating layer feat2
I0806 10:51:39.425606  9806 net.cpp:84] Creating Layer feat2
I0806 10:51:39.425613  9806 net.cpp:406] feat2 <- data_data_0_split_2
I0806 10:51:39.425624  9806 net.cpp:406] feat2 <- fbn2
I0806 10:51:39.425634  9806 net.cpp:380] feat2 -> feat2
I0806 10:51:39.425694  9806 net.cpp:122] Setting up feat2
I0806 10:51:39.425711  9806 net.cpp:129] Top shape: 12 3 1 8192 (294912)
I0806 10:51:39.425717  9806 net.cpp:137] Memory required for data: 312999936
I0806 10:51:39.425724  9806 layer_factory.hpp:77] Creating layer data_lattice1
I0806 10:51:39.425788  9806 net.cpp:84] Creating Layer data_lattice1
I0806 10:51:39.425804  9806 net.cpp:406] data_lattice1 <- feat2
I0806 10:51:39.425817  9806 net.cpp:380] data_lattice1 -> data_lattice1
I0806 10:51:39.428484  9806 net.cpp:122] Setting up data_lattice1
I0806 10:51:39.428511  9806 net.cpp:129] Top shape: 12 3 1 8192 (294912)
I0806 10:51:39.428519  9806 net.cpp:137] Memory required for data: 314179584
I0806 10:51:39.428527  9806 layer_factory.hpp:77] Creating layer data_lattice1_data_lattice1_0_split
I0806 10:51:39.428539  9806 net.cpp:84] Creating Layer data_lattice1_data_lattice1_0_split
I0806 10:51:39.428547  9806 net.cpp:406] data_lattice1_data_lattice1_0_split <- data_lattice1
I0806 10:51:39.428558  9806 net.cpp:380] data_lattice1_data_lattice1_0_split -> data_lattice1_data_lattice1_0_split_0
I0806 10:51:39.428572  9806 net.cpp:380] data_lattice1_data_lattice1_0_split -> data_lattice1_data_lattice1_0_split_1
I0806 10:51:39.428640  9806 net.cpp:122] Setting up data_lattice1_data_lattice1_0_split
I0806 10:51:39.428654  9806 net.cpp:129] Top shape: 12 3 1 8192 (294912)
I0806 10:51:39.428663  9806 net.cpp:129] Top shape: 12 3 1 8192 (294912)
I0806 10:51:39.428668  9806 net.cpp:137] Memory required for data: 316538880
I0806 10:51:39.428673  9806 layer_factory.hpp:77] Creating layer conv3
I0806 10:51:39.428689  9806 net.cpp:84] Creating Layer conv3
I0806 10:51:39.428700  9806 net.cpp:406] conv3 <- bn2_relu2_0_split_1
I0806 10:51:39.428709  9806 net.cpp:406] conv3 <- data_lattice1_data_lattice1_0_split_0
I0806 10:51:39.428716  9806 net.cpp:406] conv3 <- data_lattice1_data_lattice1_0_split_1
I0806 10:51:39.428726  9806 net.cpp:380] conv3 -> conv3
I0806 10:51:39.457705  9806 net.cpp:122] Setting up conv3
I0806 10:51:39.457732  9806 net.cpp:129] Top shape: 12 128 1 8192 (12582912)
I0806 10:51:39.457738  9806 net.cpp:137] Memory required for data: 366870528
I0806 10:51:39.457749  9806 layer_factory.hpp:77] Creating layer bn3
I0806 10:51:39.457762  9806 net.cpp:84] Creating Layer bn3
I0806 10:51:39.457768  9806 net.cpp:406] bn3 <- conv3
I0806 10:51:39.457778  9806 net.cpp:380] bn3 -> bn3
I0806 10:51:39.458076  9806 net.cpp:122] Setting up bn3
I0806 10:51:39.458088  9806 net.cpp:129] Top shape: 12 128 1 8192 (12582912)
I0806 10:51:39.458094  9806 net.cpp:137] Memory required for data: 417202176
I0806 10:51:39.458115  9806 layer_factory.hpp:77] Creating layer relu3
I0806 10:51:39.458132  9806 net.cpp:84] Creating Layer relu3
I0806 10:51:39.458137  9806 net.cpp:406] relu3 <- bn3
I0806 10:51:39.458144  9806 net.cpp:367] relu3 -> bn3 (in-place)
I0806 10:51:39.458628  9806 net.cpp:122] Setting up relu3
I0806 10:51:39.458647  9806 net.cpp:129] Top shape: 12 128 1 8192 (12582912)
I0806 10:51:39.458652  9806 net.cpp:137] Memory required for data: 467533824
I0806 10:51:39.458662  9806 layer_factory.hpp:77] Creating layer bn3_relu3_0_split
I0806 10:51:39.458673  9806 net.cpp:84] Creating Layer bn3_relu3_0_split
I0806 10:51:39.458678  9806 net.cpp:406] bn3_relu3_0_split <- bn3
I0806 10:51:39.458688  9806 net.cpp:380] bn3_relu3_0_split -> bn3_relu3_0_split_0
I0806 10:51:39.458698  9806 net.cpp:380] bn3_relu3_0_split -> bn3_relu3_0_split_1
I0806 10:51:39.458709  9806 net.cpp:380] bn3_relu3_0_split -> bn3_relu3_0_split_2
I0806 10:51:39.458783  9806 net.cpp:122] Setting up bn3_relu3_0_split
I0806 10:51:39.458796  9806 net.cpp:129] Top shape: 12 128 1 8192 (12582912)
I0806 10:51:39.458801  9806 net.cpp:129] Top shape: 12 128 1 8192 (12582912)
I0806 10:51:39.458807  9806 net.cpp:129] Top shape: 12 128 1 8192 (12582912)
I0806 10:51:39.458811  9806 net.cpp:137] Memory required for data: 618528768
I0806 10:51:39.458817  9806 layer_factory.hpp:77] Creating layer fconv3
I0806 10:51:39.458832  9806 net.cpp:84] Creating Layer fconv3
I0806 10:51:39.458838  9806 net.cpp:406] fconv3 <- bn3_relu3_0_split_0
I0806 10:51:39.458849  9806 net.cpp:380] fconv3 -> fconv3
I0806 10:51:39.461017  9806 net.cpp:122] Setting up fconv3
I0806 10:51:39.461042  9806 net.cpp:129] Top shape: 12 3 1 8192 (294912)
I0806 10:51:39.461048  9806 net.cpp:137] Memory required for data: 619708416
I0806 10:51:39.461060  9806 layer_factory.hpp:77] Creating layer fbn3
I0806 10:51:39.461072  9806 net.cpp:84] Creating Layer fbn3
I0806 10:51:39.461079  9806 net.cpp:406] fbn3 <- fconv3
I0806 10:51:39.461089  9806 net.cpp:380] fbn3 -> fbn3
I0806 10:51:39.461392  9806 net.cpp:122] Setting up fbn3
I0806 10:51:39.461406  9806 net.cpp:129] Top shape: 12 3 1 8192 (294912)
I0806 10:51:39.461411  9806 net.cpp:137] Memory required for data: 620888064
I0806 10:51:39.461422  9806 layer_factory.hpp:77] Creating layer frelu3
I0806 10:51:39.461433  9806 net.cpp:84] Creating Layer frelu3
I0806 10:51:39.461439  9806 net.cpp:406] frelu3 <- fbn3
I0806 10:51:39.461447  9806 net.cpp:367] frelu3 -> fbn3 (in-place)
I0806 10:51:39.462405  9806 net.cpp:122] Setting up frelu3
I0806 10:51:39.462429  9806 net.cpp:129] Top shape: 12 3 1 8192 (294912)
I0806 10:51:39.462435  9806 net.cpp:137] Memory required for data: 622067712
I0806 10:51:39.462441  9806 layer_factory.hpp:77] Creating layer feat3
I0806 10:51:39.462452  9806 net.cpp:84] Creating Layer feat3
I0806 10:51:39.462458  9806 net.cpp:406] feat3 <- data_data_0_split_3
I0806 10:51:39.462476  9806 net.cpp:406] feat3 <- fbn3
I0806 10:51:39.462484  9806 net.cpp:380] feat3 -> feat3
I0806 10:51:39.462530  9806 net.cpp:122] Setting up feat3
I0806 10:51:39.462543  9806 net.cpp:129] Top shape: 12 3 1 8192 (294912)
I0806 10:51:39.462548  9806 net.cpp:137] Memory required for data: 623247360
I0806 10:51:39.462553  9806 layer_factory.hpp:77] Creating layer data_lattice2
I0806 10:51:39.462607  9806 net.cpp:84] Creating Layer data_lattice2
I0806 10:51:39.462620  9806 net.cpp:406] data_lattice2 <- feat3
I0806 10:51:39.462630  9806 net.cpp:380] data_lattice2 -> data_lattice2
I0806 10:51:39.465030  9806 net.cpp:122] Setting up data_lattice2
I0806 10:51:39.465054  9806 net.cpp:129] Top shape: 12 3 1 8192 (294912)
I0806 10:51:39.465060  9806 net.cpp:137] Memory required for data: 624427008
I0806 10:51:39.465066  9806 layer_factory.hpp:77] Creating layer data_lattice2_data_lattice2_0_split
I0806 10:51:39.465076  9806 net.cpp:84] Creating Layer data_lattice2_data_lattice2_0_split
I0806 10:51:39.465082  9806 net.cpp:406] data_lattice2_data_lattice2_0_split <- data_lattice2
I0806 10:51:39.465093  9806 net.cpp:380] data_lattice2_data_lattice2_0_split -> data_lattice2_data_lattice2_0_split_0
I0806 10:51:39.465104  9806 net.cpp:380] data_lattice2_data_lattice2_0_split -> data_lattice2_data_lattice2_0_split_1
I0806 10:51:39.465162  9806 net.cpp:122] Setting up data_lattice2_data_lattice2_0_split
I0806 10:51:39.465173  9806 net.cpp:129] Top shape: 12 3 1 8192 (294912)
I0806 10:51:39.465178  9806 net.cpp:129] Top shape: 12 3 1 8192 (294912)
I0806 10:51:39.465183  9806 net.cpp:137] Memory required for data: 626786304
I0806 10:51:39.465188  9806 layer_factory.hpp:77] Creating layer conv4
I0806 10:51:39.465201  9806 net.cpp:84] Creating Layer conv4
I0806 10:51:39.465207  9806 net.cpp:406] conv4 <- bn3_relu3_0_split_1
I0806 10:51:39.465215  9806 net.cpp:406] conv4 <- data_lattice2_data_lattice2_0_split_0
I0806 10:51:39.465221  9806 net.cpp:406] conv4 <- data_lattice2_data_lattice2_0_split_1
I0806 10:51:39.465230  9806 net.cpp:380] conv4 -> conv4
I0806 10:51:39.550757  9806 net.cpp:122] Setting up conv4
I0806 10:51:39.550794  9806 net.cpp:129] Top shape: 12 256 1 8192 (25165824)
I0806 10:51:39.550799  9806 net.cpp:137] Memory required for data: 727449600
I0806 10:51:39.550809  9806 layer_factory.hpp:77] Creating layer bn4
I0806 10:51:39.550819  9806 net.cpp:84] Creating Layer bn4
I0806 10:51:39.550827  9806 net.cpp:406] bn4 <- conv4
I0806 10:51:39.550835  9806 net.cpp:380] bn4 -> bn4
I0806 10:51:39.551076  9806 net.cpp:122] Setting up bn4
I0806 10:51:39.551087  9806 net.cpp:129] Top shape: 12 256 1 8192 (25165824)
I0806 10:51:39.551091  9806 net.cpp:137] Memory required for data: 828112896
I0806 10:51:39.551100  9806 layer_factory.hpp:77] Creating layer relu4
I0806 10:51:39.551115  9806 net.cpp:84] Creating Layer relu4
I0806 10:51:39.551120  9806 net.cpp:406] relu4 <- bn4
I0806 10:51:39.551127  9806 net.cpp:367] relu4 -> bn4 (in-place)
I0806 10:51:39.551544  9806 net.cpp:122] Setting up relu4
I0806 10:51:39.551558  9806 net.cpp:129] Top shape: 12 256 1 8192 (25165824)
I0806 10:51:39.551563  9806 net.cpp:137] Memory required for data: 928776192
I0806 10:51:39.551568  9806 layer_factory.hpp:77] Creating layer bn4_relu4_0_split
I0806 10:51:39.551576  9806 net.cpp:84] Creating Layer bn4_relu4_0_split
I0806 10:51:39.551580  9806 net.cpp:406] bn4_relu4_0_split <- bn4
I0806 10:51:39.551587  9806 net.cpp:380] bn4_relu4_0_split -> bn4_relu4_0_split_0
I0806 10:51:39.551595  9806 net.cpp:380] bn4_relu4_0_split -> bn4_relu4_0_split_1
I0806 10:51:39.551604  9806 net.cpp:380] bn4_relu4_0_split -> bn4_relu4_0_split_2
I0806 10:51:39.551662  9806 net.cpp:122] Setting up bn4_relu4_0_split
I0806 10:51:39.551672  9806 net.cpp:129] Top shape: 12 256 1 8192 (25165824)
I0806 10:51:39.551677  9806 net.cpp:129] Top shape: 12 256 1 8192 (25165824)
I0806 10:51:39.551682  9806 net.cpp:129] Top shape: 12 256 1 8192 (25165824)
I0806 10:51:39.551686  9806 net.cpp:137] Memory required for data: 1230766080
I0806 10:51:39.551692  9806 layer_factory.hpp:77] Creating layer fconv4
I0806 10:51:39.551703  9806 net.cpp:84] Creating Layer fconv4
I0806 10:51:39.551707  9806 net.cpp:406] fconv4 <- bn4_relu4_0_split_0
I0806 10:51:39.551717  9806 net.cpp:380] fconv4 -> fconv4
I0806 10:51:39.553568  9806 net.cpp:122] Setting up fconv4
I0806 10:51:39.553588  9806 net.cpp:129] Top shape: 12 3 1 8192 (294912)
I0806 10:51:39.553593  9806 net.cpp:137] Memory required for data: 1231945728
I0806 10:51:39.553602  9806 layer_factory.hpp:77] Creating layer fbn4
I0806 10:51:39.553611  9806 net.cpp:84] Creating Layer fbn4
I0806 10:51:39.553617  9806 net.cpp:406] fbn4 <- fconv4
I0806 10:51:39.553628  9806 net.cpp:380] fbn4 -> fbn4
I0806 10:51:39.553869  9806 net.cpp:122] Setting up fbn4
I0806 10:51:39.553879  9806 net.cpp:129] Top shape: 12 3 1 8192 (294912)
I0806 10:51:39.553884  9806 net.cpp:137] Memory required for data: 1233125376
I0806 10:51:39.553892  9806 layer_factory.hpp:77] Creating layer frelu4
I0806 10:51:39.553901  9806 net.cpp:84] Creating Layer frelu4
I0806 10:51:39.553906  9806 net.cpp:406] frelu4 <- fbn4
I0806 10:51:39.553912  9806 net.cpp:367] frelu4 -> fbn4 (in-place)
I0806 10:51:39.554772  9806 net.cpp:122] Setting up frelu4
I0806 10:51:39.554790  9806 net.cpp:129] Top shape: 12 3 1 8192 (294912)
I0806 10:51:39.554795  9806 net.cpp:137] Memory required for data: 1234305024
I0806 10:51:39.554800  9806 layer_factory.hpp:77] Creating layer feat4
I0806 10:51:39.554811  9806 net.cpp:84] Creating Layer feat4
I0806 10:51:39.554816  9806 net.cpp:406] feat4 <- data_data_0_split_4
I0806 10:51:39.554822  9806 net.cpp:406] feat4 <- fbn4
I0806 10:51:39.554831  9806 net.cpp:380] feat4 -> feat4
I0806 10:51:39.554865  9806 net.cpp:122] Setting up feat4
I0806 10:51:39.554872  9806 net.cpp:129] Top shape: 12 3 1 8192 (294912)
I0806 10:51:39.554877  9806 net.cpp:137] Memory required for data: 1235484672
I0806 10:51:39.554880  9806 layer_factory.hpp:77] Creating layer data_lattice3
I0806 10:51:39.554932  9806 net.cpp:84] Creating Layer data_lattice3
I0806 10:51:39.554944  9806 net.cpp:406] data_lattice3 <- feat4
I0806 10:51:39.554951  9806 net.cpp:380] data_lattice3 -> data_lattice3
I0806 10:51:39.556730  9806 net.cpp:122] Setting up data_lattice3
I0806 10:51:39.556749  9806 net.cpp:129] Top shape: 12 3 1 8192 (294912)
I0806 10:51:39.556754  9806 net.cpp:137] Memory required for data: 1236664320
I0806 10:51:39.556759  9806 layer_factory.hpp:77] Creating layer data_lattice3_data_lattice3_0_split
I0806 10:51:39.556767  9806 net.cpp:84] Creating Layer data_lattice3_data_lattice3_0_split
I0806 10:51:39.556772  9806 net.cpp:406] data_lattice3_data_lattice3_0_split <- data_lattice3
I0806 10:51:39.556782  9806 net.cpp:380] data_lattice3_data_lattice3_0_split -> data_lattice3_data_lattice3_0_split_0
I0806 10:51:39.556790  9806 net.cpp:380] data_lattice3_data_lattice3_0_split -> data_lattice3_data_lattice3_0_split_1
I0806 10:51:39.556836  9806 net.cpp:122] Setting up data_lattice3_data_lattice3_0_split
I0806 10:51:39.556845  9806 net.cpp:129] Top shape: 12 3 1 8192 (294912)
I0806 10:51:39.556850  9806 net.cpp:129] Top shape: 12 3 1 8192 (294912)
I0806 10:51:39.556854  9806 net.cpp:137] Memory required for data: 1239023616
I0806 10:51:39.556859  9806 layer_factory.hpp:77] Creating layer conv5
I0806 10:51:39.556870  9806 net.cpp:84] Creating Layer conv5
I0806 10:51:39.556875  9806 net.cpp:406] conv5 <- bn4_relu4_0_split_1
I0806 10:51:39.556881  9806 net.cpp:406] conv5 <- data_lattice3_data_lattice3_0_split_0
I0806 10:51:39.556886  9806 net.cpp:406] conv5 <- data_lattice3_data_lattice3_0_split_1
I0806 10:51:39.556893  9806 net.cpp:380] conv5 -> conv5
I0806 10:51:39.717000  9806 net.cpp:122] Setting up conv5
I0806 10:51:39.717048  9806 net.cpp:129] Top shape: 12 256 1 8192 (25165824)
I0806 10:51:39.717054  9806 net.cpp:137] Memory required for data: 1339686912
I0806 10:51:39.717068  9806 layer_factory.hpp:77] Creating layer bn5
I0806 10:51:39.717083  9806 net.cpp:84] Creating Layer bn5
I0806 10:51:39.717092  9806 net.cpp:406] bn5 <- conv5
I0806 10:51:39.717103  9806 net.cpp:380] bn5 -> bn5
I0806 10:51:39.717358  9806 net.cpp:122] Setting up bn5
I0806 10:51:39.717370  9806 net.cpp:129] Top shape: 12 256 1 8192 (25165824)
I0806 10:51:39.717373  9806 net.cpp:137] Memory required for data: 1440350208
I0806 10:51:39.717382  9806 layer_factory.hpp:77] Creating layer relu5
I0806 10:51:39.717402  9806 net.cpp:84] Creating Layer relu5
I0806 10:51:39.717407  9806 net.cpp:406] relu5 <- bn5
I0806 10:51:39.717414  9806 net.cpp:367] relu5 -> bn5 (in-place)
I0806 10:51:39.717877  9806 net.cpp:122] Setting up relu5
I0806 10:51:39.717892  9806 net.cpp:129] Top shape: 12 256 1 8192 (25165824)
I0806 10:51:39.717897  9806 net.cpp:137] Memory required for data: 1541013504
I0806 10:51:39.717902  9806 layer_factory.hpp:77] Creating layer bn5_relu5_0_split
I0806 10:51:39.717911  9806 net.cpp:84] Creating Layer bn5_relu5_0_split
I0806 10:51:39.717916  9806 net.cpp:406] bn5_relu5_0_split <- bn5
I0806 10:51:39.717926  9806 net.cpp:380] bn5_relu5_0_split -> bn5_relu5_0_split_0
I0806 10:51:39.717934  9806 net.cpp:380] bn5_relu5_0_split -> bn5_relu5_0_split_1
I0806 10:51:39.717941  9806 net.cpp:380] bn5_relu5_0_split -> bn5_relu5_0_split_2
I0806 10:51:39.718005  9806 net.cpp:122] Setting up bn5_relu5_0_split
I0806 10:51:39.718014  9806 net.cpp:129] Top shape: 12 256 1 8192 (25165824)
I0806 10:51:39.718020  9806 net.cpp:129] Top shape: 12 256 1 8192 (25165824)
I0806 10:51:39.718025  9806 net.cpp:129] Top shape: 12 256 1 8192 (25165824)
I0806 10:51:39.718029  9806 net.cpp:137] Memory required for data: 1843003392
I0806 10:51:39.718032  9806 layer_factory.hpp:77] Creating layer fconv5
I0806 10:51:39.718049  9806 net.cpp:84] Creating Layer fconv5
I0806 10:51:39.718053  9806 net.cpp:406] fconv5 <- bn5_relu5_0_split_0
I0806 10:51:39.718062  9806 net.cpp:380] fconv5 -> fconv5
I0806 10:51:39.720415  9806 net.cpp:122] Setting up fconv5
I0806 10:51:39.720434  9806 net.cpp:129] Top shape: 12 3 1 8192 (294912)
I0806 10:51:39.720439  9806 net.cpp:137] Memory required for data: 1844183040
I0806 10:51:39.720448  9806 layer_factory.hpp:77] Creating layer fbn5
I0806 10:51:39.720458  9806 net.cpp:84] Creating Layer fbn5
I0806 10:51:39.720463  9806 net.cpp:406] fbn5 <- fconv5
I0806 10:51:39.720477  9806 net.cpp:380] fbn5 -> fbn5
I0806 10:51:39.720737  9806 net.cpp:122] Setting up fbn5
I0806 10:51:39.720748  9806 net.cpp:129] Top shape: 12 3 1 8192 (294912)
I0806 10:51:39.720753  9806 net.cpp:137] Memory required for data: 1845362688
I0806 10:51:39.720762  9806 layer_factory.hpp:77] Creating layer frelu5
I0806 10:51:39.720769  9806 net.cpp:84] Creating Layer frelu5
I0806 10:51:39.720773  9806 net.cpp:406] frelu5 <- fbn5
I0806 10:51:39.720779  9806 net.cpp:367] frelu5 -> fbn5 (in-place)
I0806 10:51:39.721105  9806 net.cpp:122] Setting up frelu5
I0806 10:51:39.721119  9806 net.cpp:129] Top shape: 12 3 1 8192 (294912)
I0806 10:51:39.721123  9806 net.cpp:137] Memory required for data: 1846542336
I0806 10:51:39.721127  9806 layer_factory.hpp:77] Creating layer feat5
I0806 10:51:39.721138  9806 net.cpp:84] Creating Layer feat5
I0806 10:51:39.721143  9806 net.cpp:406] feat5 <- data_data_0_split_5
I0806 10:51:39.721148  9806 net.cpp:406] feat5 <- fbn5
I0806 10:51:39.721155  9806 net.cpp:380] feat5 -> feat5
I0806 10:51:39.721189  9806 net.cpp:122] Setting up feat5
I0806 10:51:39.721196  9806 net.cpp:129] Top shape: 12 3 1 8192 (294912)
I0806 10:51:39.721200  9806 net.cpp:137] Memory required for data: 1847721984
I0806 10:51:39.721204  9806 layer_factory.hpp:77] Creating layer data_lattice4
I0806 10:51:39.721288  9806 net.cpp:84] Creating Layer data_lattice4
I0806 10:51:39.721298  9806 net.cpp:406] data_lattice4 <- feat5
I0806 10:51:39.721307  9806 net.cpp:380] data_lattice4 -> data_lattice4
I0806 10:51:39.722978  9806 net.cpp:122] Setting up data_lattice4
I0806 10:51:39.722996  9806 net.cpp:129] Top shape: 12 3 1 8192 (294912)
I0806 10:51:39.723001  9806 net.cpp:137] Memory required for data: 1848901632
I0806 10:51:39.723006  9806 layer_factory.hpp:77] Creating layer data_lattice4_data_lattice4_0_split
I0806 10:51:39.723016  9806 net.cpp:84] Creating Layer data_lattice4_data_lattice4_0_split
I0806 10:51:39.723019  9806 net.cpp:406] data_lattice4_data_lattice4_0_split <- data_lattice4
I0806 10:51:39.723027  9806 net.cpp:380] data_lattice4_data_lattice4_0_split -> data_lattice4_data_lattice4_0_split_0
I0806 10:51:39.723037  9806 net.cpp:380] data_lattice4_data_lattice4_0_split -> data_lattice4_data_lattice4_0_split_1
I0806 10:51:39.723083  9806 net.cpp:122] Setting up data_lattice4_data_lattice4_0_split
I0806 10:51:39.723093  9806 net.cpp:129] Top shape: 12 3 1 8192 (294912)
I0806 10:51:39.723098  9806 net.cpp:129] Top shape: 12 3 1 8192 (294912)
I0806 10:51:39.723103  9806 net.cpp:137] Memory required for data: 1851260928
I0806 10:51:39.723105  9806 layer_factory.hpp:77] Creating layer conv6
I0806 10:51:39.723115  9806 net.cpp:84] Creating Layer conv6
I0806 10:51:39.723120  9806 net.cpp:406] conv6 <- bn5_relu5_0_split_1
I0806 10:51:39.723126  9806 net.cpp:406] conv6 <- data_lattice4_data_lattice4_0_split_0
I0806 10:51:39.723131  9806 net.cpp:406] conv6 <- data_lattice4_data_lattice4_0_split_1
I0806 10:51:39.723139  9806 net.cpp:380] conv6 -> conv6
I0806 10:51:39.884722  9806 net.cpp:122] Setting up conv6
I0806 10:51:39.884768  9806 net.cpp:129] Top shape: 12 256 1 8192 (25165824)
I0806 10:51:39.884774  9806 net.cpp:137] Memory required for data: 1951924224
I0806 10:51:39.884788  9806 layer_factory.hpp:77] Creating layer bn6
I0806 10:51:39.884804  9806 net.cpp:84] Creating Layer bn6
I0806 10:51:39.884810  9806 net.cpp:406] bn6 <- conv6
I0806 10:51:39.884822  9806 net.cpp:380] bn6 -> bn6
I0806 10:51:39.885079  9806 net.cpp:122] Setting up bn6
I0806 10:51:39.885090  9806 net.cpp:129] Top shape: 12 256 1 8192 (25165824)
I0806 10:51:39.885094  9806 net.cpp:137] Memory required for data: 2052587520
I0806 10:51:39.885120  9806 layer_factory.hpp:77] Creating layer relu6
I0806 10:51:39.885143  9806 net.cpp:84] Creating Layer relu6
I0806 10:51:39.885150  9806 net.cpp:406] relu6 <- bn6
I0806 10:51:39.885157  9806 net.cpp:367] relu6 -> bn6 (in-place)
I0806 10:51:39.885627  9806 net.cpp:122] Setting up relu6
I0806 10:51:39.885641  9806 net.cpp:129] Top shape: 12 256 1 8192 (25165824)
I0806 10:51:39.885645  9806 net.cpp:137] Memory required for data: 2153250816
I0806 10:51:39.885650  9806 layer_factory.hpp:77] Creating layer concat6
I0806 10:51:39.885728  9806 net.cpp:84] Creating Layer concat6
I0806 10:51:39.885740  9806 net.cpp:406] concat6 <- bn6
I0806 10:51:39.885746  9806 net.cpp:406] concat6 <- bn2_relu2_0_split_2
I0806 10:51:39.885751  9806 net.cpp:406] concat6 <- bn3_relu3_0_split_2
I0806 10:51:39.885756  9806 net.cpp:406] concat6 <- bn4_relu4_0_split_2
I0806 10:51:39.885761  9806 net.cpp:406] concat6 <- bn5_relu5_0_split_2
I0806 10:51:39.885766  9806 net.cpp:380] concat6 -> concat6
I0806 10:51:39.885831  9806 net.cpp:122] Setting up concat6
I0806 10:51:39.885844  9806 net.cpp:129] Top shape: 12 960 1 8192 (94371840)
I0806 10:51:39.885848  9806 net.cpp:137] Memory required for data: 2530738176
I0806 10:51:39.885852  9806 layer_factory.hpp:77] Creating layer conv7
I0806 10:51:39.885879  9806 net.cpp:84] Creating Layer conv7
I0806 10:51:39.885886  9806 net.cpp:406] conv7 <- concat6
I0806 10:51:39.885895  9806 net.cpp:380] conv7 -> conv7
I0806 10:51:39.890126  9806 net.cpp:122] Setting up conv7
I0806 10:51:39.890148  9806 net.cpp:129] Top shape: 12 128 1 8192 (12582912)
I0806 10:51:39.890153  9806 net.cpp:137] Memory required for data: 2581069824
I0806 10:51:39.890162  9806 layer_factory.hpp:77] Creating layer bn7
I0806 10:51:39.890175  9806 net.cpp:84] Creating Layer bn7
I0806 10:51:39.890180  9806 net.cpp:406] bn7 <- conv7
I0806 10:51:39.890188  9806 net.cpp:380] bn7 -> bn7
I0806 10:51:39.890436  9806 net.cpp:122] Setting up bn7
I0806 10:51:39.890447  9806 net.cpp:129] Top shape: 12 128 1 8192 (12582912)
I0806 10:51:39.890452  9806 net.cpp:137] Memory required for data: 2631401472
I0806 10:51:39.890461  9806 layer_factory.hpp:77] Creating layer relu7
I0806 10:51:39.890476  9806 net.cpp:84] Creating Layer relu7
I0806 10:51:39.890481  9806 net.cpp:406] relu7 <- bn7
I0806 10:51:39.890487  9806 net.cpp:367] relu7 -> bn7 (in-place)
I0806 10:51:39.890826  9806 net.cpp:122] Setting up relu7
I0806 10:51:39.890841  9806 net.cpp:129] Top shape: 12 128 1 8192 (12582912)
I0806 10:51:39.890846  9806 net.cpp:137] Memory required for data: 2681733120
I0806 10:51:39.890849  9806 layer_factory.hpp:77] Creating layer conv8
I0806 10:51:39.890863  9806 net.cpp:84] Creating Layer conv8
I0806 10:51:39.890868  9806 net.cpp:406] conv8 <- bn7
I0806 10:51:39.890877  9806 net.cpp:380] conv8 -> conv8
I0806 10:51:39.894292  9806 net.cpp:122] Setting up conv8
I0806 10:51:39.894311  9806 net.cpp:129] Top shape: 12 13 1 8192 (1277952)
I0806 10:51:39.894316  9806 net.cpp:137] Memory required for data: 2686844928
I0806 10:51:39.894325  9806 layer_factory.hpp:77] Creating layer conv8_conv8_0_split
I0806 10:51:39.894335  9806 net.cpp:84] Creating Layer conv8_conv8_0_split
I0806 10:51:39.894340  9806 net.cpp:406] conv8_conv8_0_split <- conv8
I0806 10:51:39.894347  9806 net.cpp:380] conv8_conv8_0_split -> conv8_conv8_0_split_0
I0806 10:51:39.894357  9806 net.cpp:380] conv8_conv8_0_split -> conv8_conv8_0_split_1
I0806 10:51:39.894405  9806 net.cpp:122] Setting up conv8_conv8_0_split
I0806 10:51:39.894415  9806 net.cpp:129] Top shape: 12 13 1 8192 (1277952)
I0806 10:51:39.894420  9806 net.cpp:129] Top shape: 12 13 1 8192 (1277952)
I0806 10:51:39.894424  9806 net.cpp:137] Memory required for data: 2697068544
I0806 10:51:39.894428  9806 layer_factory.hpp:77] Creating layer loss
I0806 10:51:39.894486  9806 net.cpp:84] Creating Layer loss
I0806 10:51:39.894498  9806 net.cpp:406] loss <- conv8_conv8_0_split_0
I0806 10:51:39.894505  9806 net.cpp:406] loss <- label_data_1_split_0
I0806 10:51:39.894513  9806 net.cpp:380] loss -> loss
…
