…
I0801 16:38:34.313237 24486 net.cpp:294] The NetState phase (0) differed from the phase (1) specified by a rule in layer data
I0801 16:38:34.313661 24486 net.cpp:51] Initializing net from parameters: 
state {
  phase: TRAIN
}
layer {
  name: "data"
  type: "Python"
  top: "data"
  top: "label"
  include {
    phase: TRAIN
  }
  python_param {
    module: "dataset_lidar"
    layer: "InputShapenet"
    param_str: "{\'sample_size\': 8192, \'test_area\': \'6\', \'batch_size\': 12, \'feat_dims\': \'x_y_z\', \'subset\': \'train\', \'root\': \'../../data/shapenet_ericyi_ply\', \'jitter_xyz\': 0.01, \'jitter_stretch\': 0.05, \'jitter_rotation\': 5.0}"
  }
}
layer {
  name: "data_feat"
  type: "Python"
  bottom: "data"
  top: "data_feat"
  python_param {
    module: "custom_layers"
    layer: "PickAndScale"
    param_str: "0_1_2"
  }
}
layer {
  name: "conv1"
  type: "Convolution"
  bottom: "data_feat"
  top: "conv1"
  param {
    lr_mult: 1
  }
  param {
    lr_mult: 0.1
  }
  convolution_param {
    num_output: 32
    pad: 0
    kernel_size: 1
    stride: 1
    weight_filler {
      type: "xavier"
    }
    bias_filler {
      type: "constant"
      value: 0
    }
  }
}
layer {
  name: "bn1"
  type: "BatchNorm"
  bottom: "conv1"
  top: "bn1"
}
layer {
  name: "relu1"
  type: "ReLU"
  bottom: "bn1"
  top: "bn1"
}
layer {
  name: "data_lattice0"
  type: "Python"
  bottom: "data"
  top: "data_lattice0"
  python_param {
    module: "custom_layers"
    layer: "PickAndScale"
    param_str: "0*48_1*48_2*48"
  }
}
layer {
  name: "fconv1"
  type: "Convolution"
  bottom: "data_lattice0"
  top: "fconv1"
  param {
    lr_mult: 1
  }
  param {
    lr_mult: 0.1
  }
  convolution_param {
    num_output: 3
    pad: 0
    kernel_size: 1
    stride: 1
    weight_filler {
      type: "xavier"
    }
    bias_filler {
      type: "constant"
      value: 0
    }
  }
}
layer {
  name: "fbn1"
  type: "BatchNorm"
  bottom: "fconv1"
  top: "fbn1"
}
layer {
  name: "frelu1"
  type: "ReLU"
  bottom: "fbn1"
  top: "fbn1"
}
layer {
  name: "feat1"
  type: "Eltwise"
  bottom: "data_lattice0"
  bottom: "fbn1"
  top: "feat1"
  eltwise_param {
    operation: SUM
  }
}
layer {
  name: "conv2"
  type: "Permutohedral"
  bottom: "bn1"
  bottom: "feat1"
  bottom: "feat1"
  top: "conv2"
  param {
    lr_mult: 1
    decay_mult: 1
  }
  param {
    lr_mult: 2
    decay_mult: 0
  }
  permutohedral_param {
    num_output: 64
    neighborhood_size: 2
    filter_filler {
      type: "gaussian"
      std: 0.001
    }
    bias_term: true
    bias_filler {
      type: "constant"
      value: 0
    }
    group: 1
    norm_type: AFTER
    offset_type: NONE
  }
}
layer {
  name: "bn2"
  type: "BatchNorm"
  bottom: "conv2"
  top: "bn2"
}
layer {
  name: "relu2"
  type: "ReLU"
  bottom: "bn2"
  top: "bn2"
}
layer {
  name: "data_lattice1"
  type: "Python"
  bottom: "data"
  top: "data_lattice1"
  python_param {
    module: "custom_layers"
    layer: "PickAndScale"
    param_str: "0*24_1*24_2*24"
  }
}
layer {
  name: "fconv2"
  type: "Convolution"
  bottom: "fbn1"
  top: "fconv2"
  param {
    lr_mult: 1
  }
  param {
    lr_mult: 0.1
  }
  convolution_param {
    num_output: 3
    pad: 0
    kernel_size: 1
    stride: 1
    weight_filler {
      type: "xavier"
    }
    bias_filler {
      type: "constant"
      value: 0
    }
  }
}
layer {
  name: "fbn2"
  type: "BatchNorm"
  bottom: "fconv2"
  top: "fbn2"
}
layer {
  name: "frelu2"
  type: "ReLU"
  bottom: "fbn2"
  top: "fbn2"
}
layer {
  name: "feat2"
  type: "Eltwise"
  bottom: "data_lattice1"
  bottom: "fbn2"
  top: "feat2"
  eltwise_param {
    operation: SUM
  }
}
layer {
  name: "conv3"
  type: "Permutohedral"
  bottom: "bn2"
  bottom: "feat2"
  bottom: "feat2"
  top: "conv3"
  param {
    lr_mult: 1
    decay_mult: 1
  }
  param {
    lr_mult: 2
    decay_mult: 0
  }
  permutohedral_param {
    num_output: 128
    neighborhood_size: 2
    filter_filler {
      type: "gaussian"
      std: 0.001
    }
    bias_term: true
    bias_filler {
      type: "constant"
      value: 0
    }
    group: 1
    norm_type: AFTER
    offset_type: NONE
  }
}
layer {
  name: "bn3"
  type: "BatchNorm"
  bottom: "conv3"
  top: "bn3"
}
layer {
  name: "relu3"
  type: "ReLU"
  bottom: "bn3"
  top: "bn3"
}
layer {
  name: "data_lattice2"
  type: "Python"
  bottom: "data"
  top: "data_lattice2"
  python_param {
    module: "custom_layers"
    layer: "PickAndScale"
    param_str: "0*12_1*12_2*12"
  }
}
layer {
  name: "fconv3"
  type: "Convolution"
  bottom: "fbn2"
  top: "fconv3"
  param {
    lr_mult: 1
  }
  param {
    lr_mult: 0.1
  }
  convolution_param {
    num_output: 3
    pad: 0
    kernel_size: 1
    stride: 1
    weight_filler {
      type: "xavier"
    }
    bias_filler {
      type: "constant"
      value: 0
    }
  }
}
layer {
  name: "fbn3"
  type: "BatchNorm"
  bottom: "fconv3"
  top: "fbn3"
}
layer {
  name: "frelu3"
  type: "ReLU"
  bottom: "fbn3"
  top: "fbn3"
}
layer {
  name: "feat3"
  type: "Eltwise"
  bottom: "data_lattice2"
  bottom: "fbn3"
  top: "feat3"
  eltwise_param {
    operation: SUM
  }
}
layer {
  name: "conv4"
  type: "Permutohedral"
  bottom: "bn3"
  bottom: "feat3"
  bottom: "feat3"
  top: "conv4"
  param {
    lr_mult: 1
    decay_mult: 1
  }
  param {
    lr_mult: 2
    decay_mult: 0
  }
  permutohedral_param {
    num_output: 256
    neighborhood_size: 2
    filter_filler {
      type: "gaussian"
      std: 0.001
    }
    bias_term: true
    bias_filler {
      type: "constant"
      value: 0
    }
    group: 1
    norm_type: AFTER
    offset_type: NONE
  }
}
layer {
  name: "bn4"
  type: "BatchNorm"
  bottom: "conv4"
  top: "bn4"
}
layer {
  name: "relu4"
  type: "ReLU"
  bottom: "bn4"
  top: "bn4"
}
layer {
  name: "data_lattice3"
  type: "Python"
  bottom: "data"
  top: "data_lattice3"
  python_param {
    module: "custom_layers"
    layer: "PickAndScale"
    param_str: "0*6_1*6_2*6"
  }
}
layer {
  name: "fconv4"
  type: "Convolution"
  bottom: "fbn3"
  top: "fconv4"
  param {
    lr_mult: 1
  }
  param {
    lr_mult: 0.1
  }
  convolution_param {
    num_output: 3
    pad: 0
    kernel_size: 1
    stride: 1
    weight_filler {
      type: "xavier"
    }
    bias_filler {
      type: "constant"
      value: 0
    }
  }
}
layer {
  name: "fbn4"
  type: "BatchNorm"
  bottom: "fconv4"
  top: "fbn4"
}
layer {
  name: "frelu4"
  type: "ReLU"
  bottom: "fbn4"
  top: "fbn4"
}
layer {
  name: "feat4"
  type: "Eltwise"
  bottom: "data_lattice3"
  bottom: "fbn4"
  top: "feat4"
  eltwise_param {
    operation: SUM
  }
}
layer {
  name: "conv5"
  type: "Permutohedral"
  bottom: "bn4"
  bottom: "feat4"
  bottom: "feat4"
  top: "conv5"
  param {
    lr_mult: 1
    decay_mult: 1
  }
  param {
    lr_mult: 2
    decay_mult: 0
  }
  permutohedral_param {
    num_output: 256
    neighborhood_size: 2
    filter_filler {
      type: "gaussian"
      std: 0.001
    }
    bias_term: true
    bias_filler {
      type: "constant"
      value: 0
    }
    group: 1
    norm_type: AFTER
    offset_type: NONE
  }
}
layer {
  name: "bn5"
  type: "BatchNorm"
  bottom: "conv5"
  top: "bn5"
}
layer {
  name: "relu5"
  type: "ReLU"
  bottom: "bn5"
  top: "bn5"
}
layer {
  name: "data_lattice4"
  type: "Python"
  bottom: "data"
  top: "data_lattice4"
  python_param {
    module: "custom_layers"
    layer: "PickAndScale"
    param_str: "0*3_1*3_2*3"
  }
}
layer {
  name: "fconv5"
  type: "Convolution"
  bottom: "fbn4"
  top: "fconv5"
  param {
    lr_mult: 1
  }
  param {
    lr_mult: 0.1
  }
  convolution_param {
    num_output: 3
    pad: 0
    kernel_size: 1
    stride: 1
    weight_filler {
      type: "xavier"
    }
    bias_filler {
      type: "constant"
      value: 0
    }
  }
}
layer {
  name: "fbn5"
  type: "BatchNorm"
  bottom: "fconv5"
  top: "fbn5"
}
layer {
  name: "frelu5"
  type: "ReLU"
  bottom: "fbn5"
  top: "fbn5"
}
layer {
  name: "feat5"
  type: "Eltwise"
  bottom: "data_lattice4"
  bottom: "fbn5"
  top: "feat5"
  eltwise_param {
    operation: SUM
  }
}
layer {
  name: "conv6"
  type: "Permutohedral"
  bottom: "bn5"
  bottom: "feat5"
  bottom: "feat5"
  top: "conv6"
  param {
    lr_mult: 1
    decay_mult: 1
  }
  param {
    lr_mult: 2
    decay_mult: 0
  }
  permutohedral_param {
    num_output: 256
    neighborhood_size: 2
    filter_filler {
      type: "gaussian"
      std: 0.001
    }
    bias_term: true
    bias_filler {
      type: "constant"
      value: 0
    }
    group: 1
    norm_type: AFTER
    offset_type: NONE
  }
}
layer {
  name: "bn6"
  type: "BatchNorm"
  bottom: "conv6"
  top: "bn6"
}
layer {
  name: "relu6"
  type: "ReLU"
  bottom: "bn6"
  top: "bn6"
}
layer {
  name: "concat6"
  type: "Concat"
  bottom: "bn6"
  bottom: "bn2"
  bottom: "bn3"
  bottom: "bn4"
  bottom: "bn5"
  top: "concat6"
}
layer {
  name: "conv7"
  type: "Convolution"
  bottom: "concat6"
  top: "conv7"
  param {
    lr_mult: 1
  }
  param {
    lr_mult: 0.1
  }
  convolution_param {
    num_output: 128
    pad: 0
    kernel_size: 1
    stride: 1
    weight_filler {
      type: "xavier"
    }
    bias_filler {
      type: "constant"
      value: 0
    }
  }
}
layer {
  name: "bn7"
  type: "BatchNorm"
  bottom: "conv7"
  top: "bn7"
}
layer {
  name: "relu7"
  type: "ReLU"
  bottom: "bn7"
  top: "bn7"
}
layer {
  name: "conv8"
  type: "Convolution"
  bottom: "bn7"
  top: "conv8"
  param {
    lr_mult: 1
  }
  param {
    lr_mult: 0.1
  }
  convolution_param {
    num_output: 13
    pad: 0
    kernel_size: 1
    stride: 1
    weight_filler {
      type: "xavier"
    }
    bias_filler {
      type: "constant"
      value: 0
    }
  }
}
layer {
  name: "loss"
  type: "SoftmaxWithLoss"
  bottom: "conv8"
  bottom: "label"
  top: "loss"
}
layer {
  name: "accuracy"
  type: "Accuracy"
  bottom: "conv8"
  bottom: "label"
  top: "accuracy"
}
I0801 16:38:34.314108 24486 layer_factory.hpp:77] Creating layer data
I0801 16:38:34.324515 24486 net.cpp:84] Creating Layer data
I0801 16:38:34.324565 24486 net.cpp:380] data -> data
I0801 16:38:34.324640 24486 net.cpp:380] data -> label
I0801 16:38:35.069679 24488 upgrade_proto.cpp:1084] Attempting to upgrade input file specified using deprecated 'solver_type' field (enum)': /mnt/lustre/wangjiayun/repos/splatnet/exp/lidar3d/area6/6_solver.prototxt
…
I0801 16:38:35.119635 24492 upgrade_proto.cpp:1091] Successfully upgraded file specified using deprecated 'solver_type' field (enum) to 'type' field (string).
W0801 16:38:35.119650 24492 upgrade_proto.cpp:1093] Note that future Caffe releases will only support 'type' field (string) for a solver's type.
I0801 16:46:05.690560 24488 solver.cpp:190] Creating test net (#0) specified by test_net file: area6_netm_sum3C.prototxt
I0801 16:46:05.690593 24490 solver.cpp:190] Creating test net (#0) specified by test_net file: area6_netm_sum3C.prototxt
I0801 16:46:06.601588 24486 net.cpp:122] Setting up data
I0801 16:46:06.601680 24486 net.cpp:129] Top shape: 12 3 1 8192 (294912)
I0801 16:46:06.601689 24486 net.cpp:129] Top shape: 12 1 1 8192 (98304)
I0801 16:46:06.601692 24486 net.cpp:137] Memory required for data: 1572864
I0801 16:46:06.601740 24486 layer_factory.hpp:77] Creating layer data_data_0_split
I0801 16:46:06.601835 24486 net.cpp:84] Creating Layer data_data_0_split
I0801 16:46:06.601864 24486 net.cpp:406] data_data_0_split <- data
I0801 16:46:06.601892 24486 net.cpp:380] data_data_0_split -> data_data_0_split_0
I0801 16:46:06.601933 24486 net.cpp:380] data_data_0_split -> data_data_0_split_1
I0801 16:46:06.601943 24486 net.cpp:380] data_data_0_split -> data_data_0_split_2
I0801 16:46:06.601949 24486 net.cpp:380] data_data_0_split -> data_data_0_split_3
I0801 16:46:06.601955 24486 net.cpp:380] data_data_0_split -> data_data_0_split_4
I0801 16:46:06.601960 24486 net.cpp:380] data_data_0_split -> data_data_0_split_5
I0801 16:46:06.602090 24486 net.cpp:122] Setting up data_data_0_split
I0801 16:46:06.602102 24486 net.cpp:129] Top shape: 12 3 1 8192 (294912)
I0801 16:46:06.602107 24486 net.cpp:129] Top shape: 12 3 1 8192 (294912)
I0801 16:46:06.602111 24486 net.cpp:129] Top shape: 12 3 1 8192 (294912)
I0801 16:46:06.602114 24486 net.cpp:129] Top shape: 12 3 1 8192 (294912)
I0801 16:46:06.602118 24486 net.cpp:129] Top shape: 12 3 1 8192 (294912)
I0801 16:46:06.602121 24486 net.cpp:129] Top shape: 12 3 1 8192 (294912)
I0801 16:46:06.602126 24486 net.cpp:137] Memory required for data: 8650752
I0801 16:46:06.602131 24486 layer_factory.hpp:77] Creating layer label_data_1_split
I0801 16:46:06.602138 24486 net.cpp:84] Creating Layer label_data_1_split
I0801 16:46:06.602143 24486 net.cpp:406] label_data_1_split <- label
I0801 16:46:06.602149 24486 net.cpp:380] label_data_1_split -> label_data_1_split_0
I0801 16:46:06.602155 24486 net.cpp:380] label_data_1_split -> label_data_1_split_1
I0801 16:46:06.602200 24486 net.cpp:122] Setting up label_data_1_split
I0801 16:46:06.602207 24486 net.cpp:129] Top shape: 12 1 1 8192 (98304)
I0801 16:46:06.602212 24486 net.cpp:129] Top shape: 12 1 1 8192 (98304)
I0801 16:46:06.602216 24486 net.cpp:137] Memory required for data: 9437184
I0801 16:46:06.602218 24486 layer_factory.hpp:77] Creating layer data_feat
I0801 16:46:06.606572 24486 net.cpp:84] Creating Layer data_feat
I0801 16:46:06.606591 24486 net.cpp:406] data_feat <- data_data_0_split_0
I0801 16:46:06.606600 24486 net.cpp:380] data_feat -> data_feat
I0801 16:46:06.608021 24486 net.cpp:122] Setting up data_feat
I0801 16:46:06.608036 24486 net.cpp:129] Top shape: 12 3 1 8192 (294912)
I0801 16:46:06.608039 24486 net.cpp:137] Memory required for data: 10616832
I0801 16:46:06.608044 24486 layer_factory.hpp:77] Creating layer conv1
I0801 16:46:06.608101 24486 net.cpp:84] Creating Layer conv1
I0801 16:46:06.608108 24486 net.cpp:406] conv1 <- data_feat
I0801 16:46:06.608115 24486 net.cpp:380] conv1 -> conv1
I0801 16:46:07.161954 24492 solver.cpp:190] Creating test net (#0) specified by test_net file: area6_netm_sum3C.prototxt
I0801 16:46:07.172014 24486 net.cpp:122] Setting up conv1
I0801 16:46:07.172058 24486 net.cpp:129] Top shape: 12 32 1 8192 (3145728)
I0801 16:46:07.172062 24486 net.cpp:137] Memory required for data: 23199744
I0801 16:46:07.172116 24486 layer_factory.hpp:77] Creating layer bn1
I0801 16:46:07.172152 24486 net.cpp:84] Creating Layer bn1
I0801 16:46:07.172163 24486 net.cpp:406] bn1 <- conv1
I0801 16:46:07.172170 24486 net.cpp:380] bn1 -> bn1
I0801 16:46:07.172408 24486 net.cpp:122] Setting up bn1
I0801 16:46:07.172420 24486 net.cpp:129] Top shape: 12 32 1 8192 (3145728)
I0801 16:46:07.172423 24486 net.cpp:137] Memory required for data: 35782656
I0801 16:46:07.172435 24486 layer_factory.hpp:77] Creating layer relu1
I0801 16:46:07.172461 24486 net.cpp:84] Creating Layer relu1
I0801 16:46:07.172468 24486 net.cpp:406] relu1 <- bn1
I0801 16:46:07.172474 24486 net.cpp:367] relu1 -> bn1 (in-place)
I0801 16:46:07.172794 24486 net.cpp:122] Setting up relu1
I0801 16:46:07.172807 24486 net.cpp:129] Top shape: 12 32 1 8192 (3145728)
I0801 16:46:07.172811 24486 net.cpp:137] Memory required for data: 48365568
I0801 16:46:07.172819 24486 layer_factory.hpp:77] Creating layer data_lattice0
I0801 16:46:07.173000 24486 net.cpp:84] Creating Layer data_lattice0
I0801 16:46:07.173009 24486 net.cpp:406] data_lattice0 <- data_data_0_split_1
I0801 16:46:07.173019 24486 net.cpp:380] data_lattice0 -> data_lattice0
I0801 16:46:07.174410 24486 net.cpp:122] Setting up data_lattice0
I0801 16:46:07.174427 24486 net.cpp:129] Top shape: 12 3 1 8192 (294912)
I0801 16:46:07.174430 24486 net.cpp:137] Memory required for data: 49545216
I0801 16:46:07.174434 24486 layer_factory.hpp:77] Creating layer data_lattice0_data_lattice0_0_split
I0801 16:46:07.174448 24486 net.cpp:84] Creating Layer data_lattice0_data_lattice0_0_split
I0801 16:46:07.174451 24486 net.cpp:406] data_lattice0_data_lattice0_0_split <- data_lattice0
I0801 16:46:07.174458 24486 net.cpp:380] data_lattice0_data_lattice0_0_split -> data_lattice0_data_lattice0_0_split_0
I0801 16:46:07.174468 24486 net.cpp:380] data_lattice0_data_lattice0_0_split -> data_lattice0_data_lattice0_0_split_1
I0801 16:46:07.174505 24486 net.cpp:122] Setting up data_lattice0_data_lattice0_0_split
I0801 16:46:07.174512 24486 net.cpp:129] Top shape: 12 3 1 8192 (294912)
I0801 16:46:07.174516 24486 net.cpp:129] Top shape: 12 3 1 8192 (294912)
I0801 16:46:07.174520 24486 net.cpp:137] Memory required for data: 51904512
I0801 16:46:07.174522 24486 layer_factory.hpp:77] Creating layer fconv1
I0801 16:46:07.174535 24486 net.cpp:84] Creating Layer fconv1
I0801 16:46:07.174540 24486 net.cpp:406] fconv1 <- data_lattice0_data_lattice0_0_split_0
I0801 16:46:07.174547 24486 net.cpp:380] fconv1 -> fconv1
I0801 16:46:07.176447 24486 net.cpp:122] Setting up fconv1
I0801 16:46:07.176465 24486 net.cpp:129] Top shape: 12 3 1 8192 (294912)
I0801 16:46:07.176470 24486 net.cpp:137] Memory required for data: 53084160
I0801 16:46:07.176481 24486 layer_factory.hpp:77] Creating layer fbn1
I0801 16:46:07.176488 24486 net.cpp:84] Creating Layer fbn1
I0801 16:46:07.176492 24486 net.cpp:406] fbn1 <- fconv1
I0801 16:46:07.176499 24486 net.cpp:380] fbn1 -> fbn1
I0801 16:46:07.176704 24486 net.cpp:122] Setting up fbn1
I0801 16:46:07.176713 24486 net.cpp:129] Top shape: 12 3 1 8192 (294912)
I0801 16:46:07.176717 24486 net.cpp:137] Memory required for data: 54263808
I0801 16:46:07.176728 24486 layer_factory.hpp:77] Creating layer frelu1
I0801 16:46:07.176736 24486 net.cpp:84] Creating Layer frelu1
I0801 16:46:07.176740 24486 net.cpp:406] frelu1 <- fbn1
I0801 16:46:07.176745 24486 net.cpp:367] frelu1 -> fbn1 (in-place)
I0801 16:46:07.177000 24486 net.cpp:122] Setting up frelu1
I0801 16:46:07.177011 24486 net.cpp:129] Top shape: 12 3 1 8192 (294912)
I0801 16:46:07.177014 24486 net.cpp:137] Memory required for data: 55443456
I0801 16:46:07.177019 24486 layer_factory.hpp:77] Creating layer fbn1_frelu1_0_split
I0801 16:46:07.177026 24486 net.cpp:84] Creating Layer fbn1_frelu1_0_split
I0801 16:46:07.177031 24486 net.cpp:406] fbn1_frelu1_0_split <- fbn1
I0801 16:46:07.177037 24486 net.cpp:380] fbn1_frelu1_0_split -> fbn1_frelu1_0_split_0
I0801 16:46:07.177042 24486 net.cpp:380] fbn1_frelu1_0_split -> fbn1_frelu1_0_split_1
I0801 16:46:07.177078 24486 net.cpp:122] Setting up fbn1_frelu1_0_split
I0801 16:46:07.177085 24486 net.cpp:129] Top shape: 12 3 1 8192 (294912)
I0801 16:46:07.177089 24486 net.cpp:129] Top shape: 12 3 1 8192 (294912)
I0801 16:46:07.177093 24486 net.cpp:137] Memory required for data: 57802752
I0801 16:46:07.177096 24486 layer_factory.hpp:77] Creating layer feat1
I0801 16:46:07.177141 24486 net.cpp:84] Creating Layer feat1
I0801 16:46:07.177150 24486 net.cpp:406] feat1 <- data_lattice0_data_lattice0_0_split_1
I0801 16:46:07.177155 24486 net.cpp:406] feat1 <- fbn1_frelu1_0_split_0
I0801 16:46:07.177161 24486 net.cpp:380] feat1 -> feat1
I0801 16:46:07.177211 24486 net.cpp:122] Setting up feat1
I0801 16:46:07.177222 24486 net.cpp:129] Top shape: 12 3 1 8192 (294912)
I0801 16:46:07.177224 24486 net.cpp:137] Memory required for data: 58982400
I0801 16:46:07.177227 24486 layer_factory.hpp:77] Creating layer feat1_feat1_0_split
I0801 16:46:07.177235 24486 net.cpp:84] Creating Layer feat1_feat1_0_split
I0801 16:46:07.177238 24486 net.cpp:406] feat1_feat1_0_split <- feat1
I0801 16:46:07.177244 24486 net.cpp:380] feat1_feat1_0_split -> feat1_feat1_0_split_0
I0801 16:46:07.177250 24486 net.cpp:380] feat1_feat1_0_split -> feat1_feat1_0_split_1
I0801 16:46:07.177281 24486 net.cpp:122] Setting up feat1_feat1_0_split
I0801 16:46:07.177287 24486 net.cpp:129] Top shape: 12 3 1 8192 (294912)
I0801 16:46:07.177292 24486 net.cpp:129] Top shape: 12 3 1 8192 (294912)
I0801 16:46:07.177294 24486 net.cpp:137] Memory required for data: 61341696
I0801 16:46:07.177297 24486 layer_factory.hpp:77] Creating layer conv2
I0801 16:46:07.177322 24486 net.cpp:84] Creating Layer conv2
I0801 16:46:07.177330 24486 net.cpp:406] conv2 <- bn1
I0801 16:46:07.177336 24486 net.cpp:406] conv2 <- feat1_feat1_0_split_0
I0801 16:46:07.177340 24486 net.cpp:406] conv2 <- feat1_feat1_0_split_1
I0801 16:46:07.177346 24486 net.cpp:380] conv2 -> conv2
I0801 16:46:07.181561 24486 net.cpp:122] Setting up conv2
I0801 16:46:07.181574 24486 net.cpp:129] Top shape: 12 64 1 8192 (6291456)
I0801 16:46:07.181578 24486 net.cpp:137] Memory required for data: 86507520
I0801 16:46:07.181586 24486 layer_factory.hpp:77] Creating layer bn2
I0801 16:46:07.181596 24486 net.cpp:84] Creating Layer bn2
I0801 16:46:07.181601 24486 net.cpp:406] bn2 <- conv2
I0801 16:46:07.181605 24486 net.cpp:380] bn2 -> bn2
I0801 16:46:07.181854 24486 net.cpp:122] Setting up bn2
I0801 16:46:07.181864 24486 net.cpp:129] Top shape: 12 64 1 8192 (6291456)
I0801 16:46:07.181869 24486 net.cpp:137] Memory required for data: 111673344
I0801 16:46:07.181876 24486 layer_factory.hpp:77] Creating layer relu2
I0801 16:46:07.181885 24486 net.cpp:84] Creating Layer relu2
I0801 16:46:07.181890 24486 net.cpp:406] relu2 <- bn2
I0801 16:46:07.181895 24486 net.cpp:367] relu2 -> bn2 (in-place)
I0801 16:46:07.182672 24486 net.cpp:122] Setting up relu2
I0801 16:46:07.182698 24486 net.cpp:129] Top shape: 12 64 1 8192 (6291456)
I0801 16:46:07.182701 24486 net.cpp:137] Memory required for data: 136839168
I0801 16:46:07.182705 24486 layer_factory.hpp:77] Creating layer bn2_relu2_0_split
I0801 16:46:07.182713 24486 net.cpp:84] Creating Layer bn2_relu2_0_split
I0801 16:46:07.182715 24486 net.cpp:406] bn2_relu2_0_split <- bn2
I0801 16:46:07.182721 24486 net.cpp:380] bn2_relu2_0_split -> bn2_relu2_0_split_0
I0801 16:46:07.182729 24486 net.cpp:380] bn2_relu2_0_split -> bn2_relu2_0_split_1
I0801 16:46:07.182768 24486 net.cpp:122] Setting up bn2_relu2_0_split
I0801 16:46:07.182773 24486 net.cpp:129] Top shape: 12 64 1 8192 (6291456)
I0801 16:46:07.182777 24486 net.cpp:129] Top shape: 12 64 1 8192 (6291456)
I0801 16:46:07.182780 24486 net.cpp:137] Memory required for data: 187170816
I0801 16:46:07.182785 24486 layer_factory.hpp:77] Creating layer data_lattice1
I0801 16:46:07.182853 24486 net.cpp:84] Creating Layer data_lattice1
I0801 16:46:07.182862 24486 net.cpp:406] data_lattice1 <- data_data_0_split_2
I0801 16:46:07.182868 24486 net.cpp:380] data_lattice1 -> data_lattice1
I0801 16:46:07.184218 24486 net.cpp:122] Setting up data_lattice1
I0801 16:46:07.184232 24486 net.cpp:129] Top shape: 12 3 1 8192 (294912)
I0801 16:46:07.184237 24486 net.cpp:137] Memory required for data: 188350464
I0801 16:46:07.184245 24486 layer_factory.hpp:77] Creating layer fconv2
I0801 16:46:07.184258 24486 net.cpp:84] Creating Layer fconv2
I0801 16:46:07.184262 24486 net.cpp:406] fconv2 <- fbn1_frelu1_0_split_1
I0801 16:46:07.184274 24486 net.cpp:380] fconv2 -> fconv2
I0801 16:46:07.185791 24486 net.cpp:122] Setting up fconv2
I0801 16:46:07.185806 24486 net.cpp:129] Top shape: 12 3 1 8192 (294912)
I0801 16:46:07.185811 24486 net.cpp:137] Memory required for data: 189530112
I0801 16:46:07.185847 24486 layer_factory.hpp:77] Creating layer fbn2
I0801 16:46:07.185863 24486 net.cpp:84] Creating Layer fbn2
I0801 16:46:07.185866 24486 net.cpp:406] fbn2 <- fconv2
I0801 16:46:07.185873 24486 net.cpp:380] fbn2 -> fbn2
I0801 16:46:07.186058 24486 net.cpp:122] Setting up fbn2
I0801 16:46:07.186066 24486 net.cpp:129] Top shape: 12 3 1 8192 (294912)
I0801 16:46:07.186070 24486 net.cpp:137] Memory required for data: 190709760
I0801 16:46:07.186079 24486 layer_factory.hpp:77] Creating layer frelu2
I0801 16:46:07.186086 24486 net.cpp:84] Creating Layer frelu2
I0801 16:46:07.186090 24486 net.cpp:406] frelu2 <- fbn2
I0801 16:46:07.186095 24486 net.cpp:367] frelu2 -> fbn2 (in-place)
I0801 16:46:07.186359 24486 net.cpp:122] Setting up frelu2
I0801 16:46:07.186370 24486 net.cpp:129] Top shape: 12 3 1 8192 (294912)
I0801 16:46:07.186374 24486 net.cpp:137] Memory required for data: 191889408
I0801 16:46:07.186378 24486 layer_factory.hpp:77] Creating layer fbn2_frelu2_0_split
I0801 16:46:07.186386 24486 net.cpp:84] Creating Layer fbn2_frelu2_0_split
I0801 16:46:07.186391 24486 net.cpp:406] fbn2_frelu2_0_split <- fbn2
I0801 16:46:07.186396 24486 net.cpp:380] fbn2_frelu2_0_split -> fbn2_frelu2_0_split_0
I0801 16:46:07.186403 24486 net.cpp:380] fbn2_frelu2_0_split -> fbn2_frelu2_0_split_1
I0801 16:46:07.186444 24486 net.cpp:122] Setting up fbn2_frelu2_0_split
I0801 16:46:07.186451 24486 net.cpp:129] Top shape: 12 3 1 8192 (294912)
I0801 16:46:07.186455 24486 net.cpp:129] Top shape: 12 3 1 8192 (294912)
I0801 16:46:07.186460 24486 net.cpp:137] Memory required for data: 194248704
I0801 16:46:07.186462 24486 layer_factory.hpp:77] Creating layer feat2
I0801 16:46:07.186470 24486 net.cpp:84] Creating Layer feat2
I0801 16:46:07.186476 24486 net.cpp:406] feat2 <- data_lattice1
I0801 16:46:07.186481 24486 net.cpp:406] feat2 <- fbn2_frelu2_0_split_0
I0801 16:46:07.186486 24486 net.cpp:380] feat2 -> feat2
I0801 16:46:07.186512 24486 net.cpp:122] Setting up feat2
I0801 16:46:07.186522 24486 net.cpp:129] Top shape: 12 3 1 8192 (294912)
I0801 16:46:07.186524 24486 net.cpp:137] Memory required for data: 195428352
I0801 16:46:07.186527 24486 layer_factory.hpp:77] Creating layer feat2_feat2_0_split
I0801 16:46:07.186534 24486 net.cpp:84] Creating Layer feat2_feat2_0_split
I0801 16:46:07.186537 24486 net.cpp:406] feat2_feat2_0_split <- feat2
I0801 16:46:07.186542 24486 net.cpp:380] feat2_feat2_0_split -> feat2_feat2_0_split_0
I0801 16:46:07.186548 24486 net.cpp:380] feat2_feat2_0_split -> feat2_feat2_0_split_1
I0801 16:46:07.186583 24486 net.cpp:122] Setting up feat2_feat2_0_split
I0801 16:46:07.186590 24486 net.cpp:129] Top shape: 12 3 1 8192 (294912)
I0801 16:46:07.186594 24486 net.cpp:129] Top shape: 12 3 1 8192 (294912)
I0801 16:46:07.186597 24486 net.cpp:137] Memory required for data: 197787648
I0801 16:46:07.186600 24486 layer_factory.hpp:77] Creating layer conv3
I0801 16:46:07.186609 24486 net.cpp:84] Creating Layer conv3
I0801 16:46:07.186612 24486 net.cpp:406] conv3 <- bn2_relu2_0_split_0
I0801 16:46:07.186616 24486 net.cpp:406] conv3 <- feat2_feat2_0_split_0
I0801 16:46:07.186626 24486 net.cpp:406] conv3 <- feat2_feat2_0_split_1
I0801 16:46:07.186633 24486 net.cpp:380] conv3 -> conv3
I0801 16:46:07.204434 24486 net.cpp:122] Setting up conv3
I0801 16:46:07.204473 24486 net.cpp:129] Top shape: 12 128 1 8192 (12582912)
I0801 16:46:07.204478 24486 net.cpp:137] Memory required for data: 248119296
I0801 16:46:07.204488 24486 layer_factory.hpp:77] Creating layer bn3
I0801 16:46:07.204501 24486 net.cpp:84] Creating Layer bn3
I0801 16:46:07.204507 24486 net.cpp:406] bn3 <- conv3
I0801 16:46:07.204519 24486 net.cpp:380] bn3 -> bn3
I0801 16:46:07.204735 24486 net.cpp:122] Setting up bn3
I0801 16:46:07.204744 24486 net.cpp:129] Top shape: 12 128 1 8192 (12582912)
I0801 16:46:07.204748 24486 net.cpp:137] Memory required for data: 298450944
I0801 16:46:07.204756 24486 layer_factory.hpp:77] Creating layer relu3
I0801 16:46:07.204767 24486 net.cpp:84] Creating Layer relu3
I0801 16:46:07.204771 24486 net.cpp:406] relu3 <- bn3
I0801 16:46:07.204777 24486 net.cpp:367] relu3 -> bn3 (in-place)
I0801 16:46:07.205652 24486 net.cpp:122] Setting up relu3
I0801 16:46:07.205667 24486 net.cpp:129] Top shape: 12 128 1 8192 (12582912)
I0801 16:46:07.205670 24486 net.cpp:137] Memory required for data: 348782592
I0801 16:46:07.205674 24486 layer_factory.hpp:77] Creating layer bn3_relu3_0_split
I0801 16:46:07.205683 24486 net.cpp:84] Creating Layer bn3_relu3_0_split
I0801 16:46:07.205688 24486 net.cpp:406] bn3_relu3_0_split <- bn3
I0801 16:46:07.205693 24486 net.cpp:380] bn3_relu3_0_split -> bn3_relu3_0_split_0
I0801 16:46:07.205701 24486 net.cpp:380] bn3_relu3_0_split -> bn3_relu3_0_split_1
I0801 16:46:07.205756 24486 net.cpp:122] Setting up bn3_relu3_0_split
I0801 16:46:07.205765 24486 net.cpp:129] Top shape: 12 128 1 8192 (12582912)
I0801 16:46:07.205770 24486 net.cpp:129] Top shape: 12 128 1 8192 (12582912)
I0801 16:46:07.205772 24486 net.cpp:137] Memory required for data: 449445888
I0801 16:46:07.205776 24486 layer_factory.hpp:77] Creating layer data_lattice2
I0801 16:46:07.205838 24486 net.cpp:84] Creating Layer data_lattice2
I0801 16:46:07.205845 24486 net.cpp:406] data_lattice2 <- data_data_0_split_3
I0801 16:46:07.205853 24486 net.cpp:380] data_lattice2 -> data_lattice2
I0801 16:46:07.207396 24486 net.cpp:122] Setting up data_lattice2
I0801 16:46:07.207417 24486 net.cpp:129] Top shape: 12 3 1 8192 (294912)
I0801 16:46:07.207420 24486 net.cpp:137] Memory required for data: 450625536
I0801 16:46:07.207425 24486 layer_factory.hpp:77] Creating layer fconv3
I0801 16:46:07.207439 24486 net.cpp:84] Creating Layer fconv3
I0801 16:46:07.207444 24486 net.cpp:406] fconv3 <- fbn2_frelu2_0_split_1
I0801 16:46:07.207451 24486 net.cpp:380] fconv3 -> fconv3
I0801 16:46:07.208998 24486 net.cpp:122] Setting up fconv3
I0801 16:46:07.209012 24486 net.cpp:129] Top shape: 12 3 1 8192 (294912)
I0801 16:46:07.209017 24486 net.cpp:137] Memory required for data: 451805184
I0801 16:46:07.209023 24486 layer_factory.hpp:77] Creating layer fbn3
I0801 16:46:07.209036 24486 net.cpp:84] Creating Layer fbn3
I0801 16:46:07.209040 24486 net.cpp:406] fbn3 <- fconv3
I0801 16:46:07.209048 24486 net.cpp:380] fbn3 -> fbn3
I0801 16:46:07.209236 24486 net.cpp:122] Setting up fbn3
I0801 16:46:07.209244 24486 net.cpp:129] Top shape: 12 3 1 8192 (294912)
I0801 16:46:07.209249 24486 net.cpp:137] Memory required for data: 452984832
I0801 16:46:07.209257 24486 layer_factory.hpp:77] Creating layer frelu3
I0801 16:46:07.209266 24486 net.cpp:84] Creating Layer frelu3
I0801 16:46:07.209270 24486 net.cpp:406] frelu3 <- fbn3
I0801 16:46:07.209275 24486 net.cpp:367] frelu3 -> fbn3 (in-place)
I0801 16:46:07.209530 24486 net.cpp:122] Setting up frelu3
I0801 16:46:07.209542 24486 net.cpp:129] Top shape: 12 3 1 8192 (294912)
I0801 16:46:07.209544 24486 net.cpp:137] Memory required for data: 454164480
I0801 16:46:07.209548 24486 layer_factory.hpp:77] Creating layer fbn3_frelu3_0_split
I0801 16:46:07.209555 24486 net.cpp:84] Creating Layer fbn3_frelu3_0_split
I0801 16:46:07.209559 24486 net.cpp:406] fbn3_frelu3_0_split <- fbn3
I0801 16:46:07.209564 24486 net.cpp:380] fbn3_frelu3_0_split -> fbn3_frelu3_0_split_0
I0801 16:46:07.209571 24486 net.cpp:380] fbn3_frelu3_0_split -> fbn3_frelu3_0_split_1
I0801 16:46:07.209609 24486 net.cpp:122] Setting up fbn3_frelu3_0_split
I0801 16:46:07.209615 24486 net.cpp:129] Top shape: 12 3 1 8192 (294912)
I0801 16:46:07.209625 24486 net.cpp:129] Top shape: 12 3 1 8192 (294912)
I0801 16:46:07.209640 24486 net.cpp:137] Memory required for data: 456523776
I0801 16:46:07.209645 24486 layer_factory.hpp:77] Creating layer feat3
I0801 16:46:07.209652 24486 net.cpp:84] Creating Layer feat3
I0801 16:46:07.209656 24486 net.cpp:406] feat3 <- data_lattice2
I0801 16:46:07.209661 24486 net.cpp:406] feat3 <- fbn3_frelu3_0_split_0
I0801 16:46:07.209667 24486 net.cpp:380] feat3 -> feat3
I0801 16:46:07.209691 24486 net.cpp:122] Setting up feat3
I0801 16:46:07.209698 24486 net.cpp:129] Top shape: 12 3 1 8192 (294912)
I0801 16:46:07.209702 24486 net.cpp:137] Memory required for data: 457703424
I0801 16:46:07.209704 24486 layer_factory.hpp:77] Creating layer feat3_feat3_0_split
I0801 16:46:07.209710 24486 net.cpp:84] Creating Layer feat3_feat3_0_split
I0801 16:46:07.209713 24486 net.cpp:406] feat3_feat3_0_split <- feat3
I0801 16:46:07.209719 24486 net.cpp:380] feat3_feat3_0_split -> feat3_feat3_0_split_0
I0801 16:46:07.209725 24486 net.cpp:380] feat3_feat3_0_split -> feat3_feat3_0_split_1
I0801 16:46:07.209754 24486 net.cpp:122] Setting up feat3_feat3_0_split
I0801 16:46:07.209761 24486 net.cpp:129] Top shape: 12 3 1 8192 (294912)
I0801 16:46:07.209765 24486 net.cpp:129] Top shape: 12 3 1 8192 (294912)
I0801 16:46:07.209769 24486 net.cpp:137] Memory required for data: 460062720
I0801 16:46:07.209771 24486 layer_factory.hpp:77] Creating layer conv4
I0801 16:46:07.209779 24486 net.cpp:84] Creating Layer conv4
I0801 16:46:07.209784 24486 net.cpp:406] conv4 <- bn3_relu3_0_split_0
I0801 16:46:07.209789 24486 net.cpp:406] conv4 <- feat3_feat3_0_split_0
I0801 16:46:07.209792 24486 net.cpp:406] conv4 <- feat3_feat3_0_split_1
I0801 16:46:07.209800 24486 net.cpp:380] conv4 -> conv4
I0801 16:46:07.278296 24486 net.cpp:122] Setting up conv4
I0801 16:46:07.278337 24486 net.cpp:129] Top shape: 12 256 1 8192 (25165824)
I0801 16:46:07.278340 24486 net.cpp:137] Memory required for data: 560726016
I0801 16:46:07.278353 24486 layer_factory.hpp:77] Creating layer bn4
I0801 16:46:07.278364 24486 net.cpp:84] Creating Layer bn4
I0801 16:46:07.278370 24486 net.cpp:406] bn4 <- conv4
I0801 16:46:07.278380 24486 net.cpp:380] bn4 -> bn4
I0801 16:46:07.278573 24486 net.cpp:122] Setting up bn4
I0801 16:46:07.278583 24486 net.cpp:129] Top shape: 12 256 1 8192 (25165824)
I0801 16:46:07.278585 24486 net.cpp:137] Memory required for data: 661389312
I0801 16:46:07.278609 24486 layer_factory.hpp:77] Creating layer relu4
I0801 16:46:07.278622 24486 net.cpp:84] Creating Layer relu4
I0801 16:46:07.278633 24486 net.cpp:406] relu4 <- bn4
I0801 16:46:07.278638 24486 net.cpp:367] relu4 -> bn4 (in-place)
I0801 16:46:07.279507 24486 net.cpp:122] Setting up relu4
I0801 16:46:07.279521 24486 net.cpp:129] Top shape: 12 256 1 8192 (25165824)
I0801 16:46:07.279525 24486 net.cpp:137] Memory required for data: 762052608
I0801 16:46:07.279530 24486 layer_factory.hpp:77] Creating layer bn4_relu4_0_split
I0801 16:46:07.279537 24486 net.cpp:84] Creating Layer bn4_relu4_0_split
I0801 16:46:07.279541 24486 net.cpp:406] bn4_relu4_0_split <- bn4
I0801 16:46:07.279548 24486 net.cpp:380] bn4_relu4_0_split -> bn4_relu4_0_split_0
I0801 16:46:07.279556 24486 net.cpp:380] bn4_relu4_0_split -> bn4_relu4_0_split_1
I0801 16:46:07.279593 24486 net.cpp:122] Setting up bn4_relu4_0_split
I0801 16:46:07.279599 24486 net.cpp:129] Top shape: 12 256 1 8192 (25165824)
I0801 16:46:07.279603 24486 net.cpp:129] Top shape: 12 256 1 8192 (25165824)
I0801 16:46:07.279606 24486 net.cpp:137] Memory required for data: 963379200
I0801 16:46:07.279609 24486 layer_factory.hpp:77] Creating layer data_lattice3
I0801 16:46:07.279678 24486 net.cpp:84] Creating Layer data_lattice3
I0801 16:46:07.279687 24486 net.cpp:406] data_lattice3 <- data_data_0_split_4
I0801 16:46:07.279695 24486 net.cpp:380] data_lattice3 -> data_lattice3
I0801 16:46:07.280999 24486 net.cpp:122] Setting up data_lattice3
I0801 16:46:07.281014 24486 net.cpp:129] Top shape: 12 3 1 8192 (294912)
I0801 16:46:07.281018 24486 net.cpp:137] Memory required for data: 964558848
I0801 16:46:07.281023 24486 layer_factory.hpp:77] Creating layer fconv4
I0801 16:46:07.281038 24486 net.cpp:84] Creating Layer fconv4
I0801 16:46:07.281042 24486 net.cpp:406] fconv4 <- fbn3_frelu3_0_split_1
I0801 16:46:07.281050 24486 net.cpp:380] fconv4 -> fconv4
I0801 16:46:07.282526 24486 net.cpp:122] Setting up fconv4
I0801 16:46:07.282541 24486 net.cpp:129] Top shape: 12 3 1 8192 (294912)
I0801 16:46:07.282544 24486 net.cpp:137] Memory required for data: 965738496
I0801 16:46:07.282554 24486 layer_factory.hpp:77] Creating layer fbn4
I0801 16:46:07.282562 24486 net.cpp:84] Creating Layer fbn4
I0801 16:46:07.282567 24486 net.cpp:406] fbn4 <- fconv4
I0801 16:46:07.282573 24486 net.cpp:380] fbn4 -> fbn4
I0801 16:46:07.282778 24486 net.cpp:122] Setting up fbn4
I0801 16:46:07.282788 24486 net.cpp:129] Top shape: 12 3 1 8192 (294912)
I0801 16:46:07.282793 24486 net.cpp:137] Memory required for data: 966918144
I0801 16:46:07.282800 24486 layer_factory.hpp:77] Creating layer frelu4
I0801 16:46:07.282809 24486 net.cpp:84] Creating Layer frelu4
I0801 16:46:07.282812 24486 net.cpp:406] frelu4 <- fbn4
I0801 16:46:07.282817 24486 net.cpp:367] frelu4 -> fbn4 (in-place)
I0801 16:46:07.283079 24486 net.cpp:122] Setting up frelu4
I0801 16:46:07.283090 24486 net.cpp:129] Top shape: 12 3 1 8192 (294912)
I0801 16:46:07.283094 24486 net.cpp:137] Memory required for data: 968097792
I0801 16:46:07.283097 24486 layer_factory.hpp:77] Creating layer fbn4_frelu4_0_split
I0801 16:46:07.283104 24486 net.cpp:84] Creating Layer fbn4_frelu4_0_split
I0801 16:46:07.283108 24486 net.cpp:406] fbn4_frelu4_0_split <- fbn4
I0801 16:46:07.283114 24486 net.cpp:380] fbn4_frelu4_0_split -> fbn4_frelu4_0_split_0
I0801 16:46:07.283120 24486 net.cpp:380] fbn4_frelu4_0_split -> fbn4_frelu4_0_split_1
I0801 16:46:07.283159 24486 net.cpp:122] Setting up fbn4_frelu4_0_split
I0801 16:46:07.283166 24486 net.cpp:129] Top shape: 12 3 1 8192 (294912)
I0801 16:46:07.283170 24486 net.cpp:129] Top shape: 12 3 1 8192 (294912)
I0801 16:46:07.283174 24486 net.cpp:137] Memory required for data: 970457088
I0801 16:46:07.283176 24486 layer_factory.hpp:77] Creating layer feat4
I0801 16:46:07.283186 24486 net.cpp:84] Creating Layer feat4
I0801 16:46:07.283190 24486 net.cpp:406] feat4 <- data_lattice3
I0801 16:46:07.283195 24486 net.cpp:406] feat4 <- fbn4_frelu4_0_split_0
I0801 16:46:07.283201 24486 net.cpp:380] feat4 -> feat4
I0801 16:46:07.283223 24486 net.cpp:122] Setting up feat4
I0801 16:46:07.283229 24486 net.cpp:129] Top shape: 12 3 1 8192 (294912)
I0801 16:46:07.283232 24486 net.cpp:137] Memory required for data: 971636736
I0801 16:46:07.283236 24486 layer_factory.hpp:77] Creating layer feat4_feat4_0_split
I0801 16:46:07.283248 24486 net.cpp:84] Creating Layer feat4_feat4_0_split
I0801 16:46:07.283252 24486 net.cpp:406] feat4_feat4_0_split <- feat4
I0801 16:46:07.283257 24486 net.cpp:380] feat4_feat4_0_split -> feat4_feat4_0_split_0
I0801 16:46:07.283263 24486 net.cpp:380] feat4_feat4_0_split -> feat4_feat4_0_split_1
I0801 16:46:07.283293 24486 net.cpp:122] Setting up feat4_feat4_0_split
I0801 16:46:07.283301 24486 net.cpp:129] Top shape: 12 3 1 8192 (294912)
I0801 16:46:07.283305 24486 net.cpp:129] Top shape: 12 3 1 8192 (294912)
I0801 16:46:07.283308 24486 net.cpp:137] Memory required for data: 973996032
I0801 16:46:07.283311 24486 layer_factory.hpp:77] Creating layer conv5
I0801 16:46:07.283320 24486 net.cpp:84] Creating Layer conv5
I0801 16:46:07.283324 24486 net.cpp:406] conv5 <- bn4_relu4_0_split_0
I0801 16:46:07.283331 24486 net.cpp:406] conv5 <- feat4_feat4_0_split_0
I0801 16:46:07.283335 24486 net.cpp:406] conv5 <- feat4_feat4_0_split_1
I0801 16:46:07.283341 24486 net.cpp:380] conv5 -> conv5
I0801 16:46:07.414407 24486 net.cpp:122] Setting up conv5
I0801 16:46:07.414443 24486 net.cpp:129] Top shape: 12 256 1 8192 (25165824)
I0801 16:46:07.414448 24486 net.cpp:137] Memory required for data: 1074659328
I0801 16:46:07.414471 24486 layer_factory.hpp:77] Creating layer bn5
I0801 16:46:07.414482 24486 net.cpp:84] Creating Layer bn5
I0801 16:46:07.414489 24486 net.cpp:406] bn5 <- conv5
I0801 16:46:07.414497 24486 net.cpp:380] bn5 -> bn5
I0801 16:46:07.414697 24486 net.cpp:122] Setting up bn5
I0801 16:46:07.414706 24486 net.cpp:129] Top shape: 12 256 1 8192 (25165824)
I0801 16:46:07.414710 24486 net.cpp:137] Memory required for data: 1175322624
I0801 16:46:07.414718 24486 layer_factory.hpp:77] Creating layer relu5
I0801 16:46:07.414729 24486 net.cpp:84] Creating Layer relu5
I0801 16:46:07.414733 24486 net.cpp:406] relu5 <- bn5
I0801 16:46:07.414738 24486 net.cpp:367] relu5 -> bn5 (in-place)
I0801 16:46:07.415626 24486 net.cpp:122] Setting up relu5
I0801 16:46:07.415639 24486 net.cpp:129] Top shape: 12 256 1 8192 (25165824)
I0801 16:46:07.415643 24486 net.cpp:137] Memory required for data: 1275985920
I0801 16:46:07.415647 24486 layer_factory.hpp:77] Creating layer bn5_relu5_0_split
I0801 16:46:07.415655 24486 net.cpp:84] Creating Layer bn5_relu5_0_split
I0801 16:46:07.415659 24486 net.cpp:406] bn5_relu5_0_split <- bn5
I0801 16:46:07.415665 24486 net.cpp:380] bn5_relu5_0_split -> bn5_relu5_0_split_0
I0801 16:46:07.415673 24486 net.cpp:380] bn5_relu5_0_split -> bn5_relu5_0_split_1
I0801 16:46:07.415714 24486 net.cpp:122] Setting up bn5_relu5_0_split
I0801 16:46:07.415720 24486 net.cpp:129] Top shape: 12 256 1 8192 (25165824)
I0801 16:46:07.415725 24486 net.cpp:129] Top shape: 12 256 1 8192 (25165824)
I0801 16:46:07.415729 24486 net.cpp:137] Memory required for data: 1477312512
I0801 16:46:07.415731 24486 layer_factory.hpp:77] Creating layer data_lattice4
I0801 16:46:07.415805 24486 net.cpp:84] Creating Layer data_lattice4
I0801 16:46:07.415813 24486 net.cpp:406] data_lattice4 <- data_data_0_split_5
I0801 16:46:07.415822 24486 net.cpp:380] data_lattice4 -> data_lattice4
I0801 16:46:07.417145 24486 net.cpp:122] Setting up data_lattice4
I0801 16:46:07.417160 24486 net.cpp:129] Top shape: 12 3 1 8192 (294912)
I0801 16:46:07.417163 24486 net.cpp:137] Memory required for data: 1478492160
I0801 16:46:07.417167 24486 layer_factory.hpp:77] Creating layer fconv5
I0801 16:46:07.417191 24486 net.cpp:84] Creating Layer fconv5
I0801 16:46:07.417196 24486 net.cpp:406] fconv5 <- fbn4_frelu4_0_split_1
I0801 16:46:07.417204 24486 net.cpp:380] fconv5 -> fconv5
I0801 16:46:07.418705 24486 net.cpp:122] Setting up fconv5
I0801 16:46:07.418721 24486 net.cpp:129] Top shape: 12 3 1 8192 (294912)
I0801 16:46:07.418726 24486 net.cpp:137] Memory required for data: 1479671808
I0801 16:46:07.418733 24486 layer_factory.hpp:77] Creating layer fbn5
I0801 16:46:07.418742 24486 net.cpp:84] Creating Layer fbn5
I0801 16:46:07.418746 24486 net.cpp:406] fbn5 <- fconv5
I0801 16:46:07.418753 24486 net.cpp:380] fbn5 -> fbn5
I0801 16:46:07.418942 24486 net.cpp:122] Setting up fbn5
I0801 16:46:07.418951 24486 net.cpp:129] Top shape: 12 3 1 8192 (294912)
I0801 16:46:07.418954 24486 net.cpp:137] Memory required for data: 1480851456
I0801 16:46:07.418962 24486 layer_factory.hpp:77] Creating layer frelu5
I0801 16:46:07.418967 24486 net.cpp:84] Creating Layer frelu5
I0801 16:46:07.418972 24486 net.cpp:406] frelu5 <- fbn5
I0801 16:46:07.418977 24486 net.cpp:367] frelu5 -> fbn5 (in-place)
I0801 16:46:07.419559 24486 net.cpp:122] Setting up frelu5
I0801 16:46:07.419572 24486 net.cpp:129] Top shape: 12 3 1 8192 (294912)
I0801 16:46:07.419576 24486 net.cpp:137] Memory required for data: 1482031104
I0801 16:46:07.419580 24486 layer_factory.hpp:77] Creating layer feat5
I0801 16:46:07.419589 24486 net.cpp:84] Creating Layer feat5
I0801 16:46:07.419592 24486 net.cpp:406] feat5 <- data_lattice4
I0801 16:46:07.419598 24486 net.cpp:406] feat5 <- fbn5
I0801 16:46:07.419605 24486 net.cpp:380] feat5 -> feat5
I0801 16:46:07.419639 24486 net.cpp:122] Setting up feat5
I0801 16:46:07.419646 24486 net.cpp:129] Top shape: 12 3 1 8192 (294912)
I0801 16:46:07.419649 24486 net.cpp:137] Memory required for data: 1483210752
I0801 16:46:07.419652 24486 layer_factory.hpp:77] Creating layer feat5_feat5_0_split
I0801 16:46:07.419658 24486 net.cpp:84] Creating Layer feat5_feat5_0_split
I0801 16:46:07.419662 24486 net.cpp:406] feat5_feat5_0_split <- feat5
I0801 16:46:07.419667 24486 net.cpp:380] feat5_feat5_0_split -> feat5_feat5_0_split_0
I0801 16:46:07.419675 24486 net.cpp:380] feat5_feat5_0_split -> feat5_feat5_0_split_1
I0801 16:46:07.419709 24486 net.cpp:122] Setting up feat5_feat5_0_split
I0801 16:46:07.419716 24486 net.cpp:129] Top shape: 12 3 1 8192 (294912)
I0801 16:46:07.419720 24486 net.cpp:129] Top shape: 12 3 1 8192 (294912)
I0801 16:46:07.419725 24486 net.cpp:137] Memory required for data: 1485570048
I0801 16:46:07.419728 24486 layer_factory.hpp:77] Creating layer conv6
I0801 16:46:07.419739 24486 net.cpp:84] Creating Layer conv6
I0801 16:46:07.419742 24486 net.cpp:406] conv6 <- bn5_relu5_0_split_0
I0801 16:46:07.419747 24486 net.cpp:406] conv6 <- feat5_feat5_0_split_0
I0801 16:46:07.419751 24486 net.cpp:406] conv6 <- feat5_feat5_0_split_1
I0801 16:46:07.419757 24486 net.cpp:380] conv6 -> conv6
I0801 16:46:07.553593 24486 net.cpp:122] Setting up conv6
I0801 16:46:07.553642 24486 net.cpp:129] Top shape: 12 256 1 8192 (25165824)
I0801 16:46:07.553647 24486 net.cpp:137] Memory required for data: 1586233344
I0801 16:46:07.553660 24486 layer_factory.hpp:77] Creating layer bn6
I0801 16:46:07.553673 24486 net.cpp:84] Creating Layer bn6
I0801 16:46:07.553679 24486 net.cpp:406] bn6 <- conv6
I0801 16:46:07.553689 24486 net.cpp:380] bn6 -> bn6
I0801 16:46:07.553905 24486 net.cpp:122] Setting up bn6
I0801 16:46:07.553913 24486 net.cpp:129] Top shape: 12 256 1 8192 (25165824)
I0801 16:46:07.553916 24486 net.cpp:137] Memory required for data: 1686896640
I0801 16:46:07.553928 24486 layer_factory.hpp:77] Creating layer relu6
I0801 16:46:07.553936 24486 net.cpp:84] Creating Layer relu6
I0801 16:46:07.553939 24486 net.cpp:406] relu6 <- bn6
I0801 16:46:07.553944 24486 net.cpp:367] relu6 -> bn6 (in-place)
I0801 16:46:07.554291 24486 net.cpp:122] Setting up relu6
I0801 16:46:07.554301 24486 net.cpp:129] Top shape: 12 256 1 8192 (25165824)
I0801 16:46:07.554306 24486 net.cpp:137] Memory required for data: 1787559936
I0801 16:46:07.554308 24486 layer_factory.hpp:77] Creating layer concat6
I0801 16:46:07.554359 24486 net.cpp:84] Creating Layer concat6
I0801 16:46:07.554365 24486 net.cpp:406] concat6 <- bn6
I0801 16:46:07.554371 24486 net.cpp:406] concat6 <- bn2_relu2_0_split_1
I0801 16:46:07.554375 24486 net.cpp:406] concat6 <- bn3_relu3_0_split_1
I0801 16:46:07.554378 24486 net.cpp:406] concat6 <- bn4_relu4_0_split_1
I0801 16:46:07.554383 24486 net.cpp:406] concat6 <- bn5_relu5_0_split_1
I0801 16:46:07.554388 24486 net.cpp:380] concat6 -> concat6
I0801 16:46:07.554435 24486 net.cpp:122] Setting up concat6
I0801 16:46:07.554443 24486 net.cpp:129] Top shape: 12 960 1 8192 (94371840)
I0801 16:46:07.554447 24486 net.cpp:137] Memory required for data: 2165047296
I0801 16:46:07.554451 24486 layer_factory.hpp:77] Creating layer conv7
I0801 16:46:07.554462 24486 net.cpp:84] Creating Layer conv7
I0801 16:46:07.554466 24486 net.cpp:406] conv7 <- concat6
I0801 16:46:07.554474 24486 net.cpp:380] conv7 -> conv7
I0801 16:46:07.556979 24486 net.cpp:122] Setting up conv7
I0801 16:46:07.556994 24486 net.cpp:129] Top shape: 12 128 1 8192 (12582912)
I0801 16:46:07.556998 24486 net.cpp:137] Memory required for data: 2215378944
I0801 16:46:07.557005 24486 layer_factory.hpp:77] Creating layer bn7
I0801 16:46:07.557013 24486 net.cpp:84] Creating Layer bn7
I0801 16:46:07.557016 24486 net.cpp:406] bn7 <- conv7
I0801 16:46:07.557023 24486 net.cpp:380] bn7 -> bn7
I0801 16:46:07.557204 24486 net.cpp:122] Setting up bn7
I0801 16:46:07.557212 24486 net.cpp:129] Top shape: 12 128 1 8192 (12582912)
I0801 16:46:07.557215 24486 net.cpp:137] Memory required for data: 2265710592
I0801 16:46:07.557229 24486 layer_factory.hpp:77] Creating layer relu7
I0801 16:46:07.557255 24486 net.cpp:84] Creating Layer relu7
I0801 16:46:07.557261 24486 net.cpp:406] relu7 <- bn7
I0801 16:46:07.557267 24486 net.cpp:367] relu7 -> bn7 (in-place)
I0801 16:46:07.557857 24486 net.cpp:122] Setting up relu7
I0801 16:46:07.557870 24486 net.cpp:129] Top shape: 12 128 1 8192 (12582912)
I0801 16:46:07.557874 24486 net.cpp:137] Memory required for data: 2316042240
I0801 16:46:07.557879 24486 layer_factory.hpp:77] Creating layer conv8
I0801 16:46:07.557893 24486 net.cpp:84] Creating Layer conv8
I0801 16:46:07.557896 24486 net.cpp:406] conv8 <- bn7
I0801 16:46:07.557904 24486 net.cpp:380] conv8 -> conv8
I0801 16:46:07.560676 24486 net.cpp:122] Setting up conv8
I0801 16:46:07.560701 24486 net.cpp:129] Top shape: 12 13 1 8192 (1277952)
I0801 16:46:07.560706 24486 net.cpp:137] Memory required for data: 2321154048
I0801 16:46:07.560714 24486 layer_factory.hpp:77] Creating layer conv8_conv8_0_split
I0801 16:46:07.560724 24486 net.cpp:84] Creating Layer conv8_conv8_0_split
I0801 16:46:07.560729 24486 net.cpp:406] conv8_conv8_0_split <- conv8
I0801 16:46:07.560736 24486 net.cpp:380] conv8_conv8_0_split -> conv8_conv8_0_split_0
I0801 16:46:07.560750 24486 net.cpp:380] conv8_conv8_0_split -> conv8_conv8_0_split_1
I0801 16:46:07.560786 24486 net.cpp:122] Setting up conv8_conv8_0_split
I0801 16:46:07.560792 24486 net.cpp:129] Top shape: 12 13 1 8192 (1277952)
I0801 16:46:07.560796 24486 net.cpp:129] Top shape: 12 13 1 8192 (1277952)
I0801 16:46:07.560798 24486 net.cpp:137] Memory required for data: 2331377664
I0801 16:46:07.560802 24486 layer_factory.hpp:77] Creating layer loss
I0801 16:46:07.560860 24486 net.cpp:84] Creating Layer loss
I0801 16:46:07.560869 24486 net.cpp:406] loss <- conv8_conv8_0_split_0
I0801 16:46:07.560886 24486 net.cpp:406] loss <- label_data_1_split_0
I0801 16:46:07.560894 24486 net.cpp:380] loss -> loss
…
