…
I0806 10:18:20.416810  1591 net.cpp:294] The NetState phase (0) differed from the phase (1) specified by a rule in layer data
I0806 10:18:20.423218  1591 net.cpp:51] Initializing net from parameters: 
state {
  phase: TRAIN
}
layer {
  name: "data"
  type: "Python"
  top: "data"
  top: "label"
  include {
    phase: TRAIN
  }
  python_param {
    module: "dataset_lidar"
    layer: "InputShapenet"
    param_str: "{\'sample_size\': 8192, \'test_area\': \'6\', \'batch_size\': 12, \'feat_dims\': \'x_y_z\', \'subset\': \'train\', \'root\': \'../../data/shapenet_ericyi_ply\', \'jitter_xyz\': 0.02, \'jitter_stretch\': 0.1, \'jitter_rotation\': 10.0}"
  }
}
layer {
  name: "data_feat"
  type: "Python"
  bottom: "data"
  top: "data_feat"
  python_param {
    module: "custom_layers"
    layer: "PickAndScale"
    param_str: "0_1_2"
  }
}
layer {
  name: "conv1"
  type: "Convolution"
  bottom: "data_feat"
  top: "conv1"
  param {
    lr_mult: 1
  }
  param {
    lr_mult: 0.1
  }
  convolution_param {
    num_output: 32
    pad: 0
    kernel_size: 1
    stride: 1
    weight_filler {
      type: "xavier"
    }
    bias_filler {
      type: "constant"
      value: 0
    }
  }
}
layer {
  name: "bn1"
  type: "BatchNorm"
  bottom: "conv1"
  top: "bn1"
}
layer {
  name: "relu1"
  type: "ReLU"
  bottom: "bn1"
  top: "bn1"
}
layer {
  name: "fconv1"
  type: "Convolution"
  bottom: "bn1"
  top: "fconv1"
  param {
    lr_mult: 1
  }
  param {
    lr_mult: 0.1
  }
  convolution_param {
    num_output: 3
    pad: 0
    kernel_size: 1
    stride: 1
    weight_filler {
      type: "xavier"
    }
    bias_filler {
      type: "constant"
      value: 0
    }
  }
}
layer {
  name: "fbn1"
  type: "BatchNorm"
  bottom: "fconv1"
  top: "fbn1"
}
layer {
  name: "frelu1"
  type: "ReLU"
  bottom: "fbn1"
  top: "fbn1"
}
layer {
  name: "feat1"
  type: "Eltwise"
  bottom: "data"
  bottom: "fbn1"
  top: "feat1"
  eltwise_param {
    operation: SUM
  }
}
layer {
  name: "data_lattice0"
  type: "Python"
  bottom: "feat1"
  top: "data_lattice0"
  python_param {
    module: "custom_layers"
    layer: "PickAndScale"
    param_str: "0*64_1*64_2*64"
  }
}
layer {
  name: "conv2"
  type: "Permutohedral"
  bottom: "bn1"
  bottom: "data_lattice0"
  bottom: "data_lattice0"
  top: "conv2"
  param {
    lr_mult: 1
    decay_mult: 1
  }
  param {
    lr_mult: 2
    decay_mult: 0
  }
  permutohedral_param {
    num_output: 64
    neighborhood_size: 2
    filter_filler {
      type: "gaussian"
      std: 0.001
    }
    bias_term: true
    bias_filler {
      type: "constant"
      value: 0
    }
    group: 1
    norm_type: AFTER
    offset_type: NONE
  }
}
layer {
  name: "bn2"
  type: "BatchNorm"
  bottom: "conv2"
  top: "bn2"
}
layer {
  name: "relu2"
  type: "ReLU"
  bottom: "bn2"
  top: "bn2"
}
layer {
  name: "fconv2"
  type: "Convolution"
  bottom: "bn2"
  top: "fconv2"
  param {
    lr_mult: 1
  }
  param {
    lr_mult: 0.1
  }
  convolution_param {
    num_output: 3
    pad: 0
    kernel_size: 1
    stride: 1
    weight_filler {
      type: "xavier"
    }
    bias_filler {
      type: "constant"
      value: 0
    }
  }
}
layer {
  name: "fbn2"
  type: "BatchNorm"
  bottom: "fconv2"
  top: "fbn2"
}
layer {
  name: "frelu2"
  type: "ReLU"
  bottom: "fbn2"
  top: "fbn2"
}
layer {
  name: "feat2"
  type: "Eltwise"
  bottom: "data"
  bottom: "fbn2"
  top: "feat2"
  eltwise_param {
    operation: SUM
  }
}
layer {
  name: "data_lattice1"
  type: "Python"
  bottom: "feat2"
  top: "data_lattice1"
  python_param {
    module: "custom_layers"
    layer: "PickAndScale"
    param_str: "0*32_1*32_2*32"
  }
}
layer {
  name: "conv3"
  type: "Permutohedral"
  bottom: "bn2"
  bottom: "data_lattice1"
  bottom: "data_lattice1"
  top: "conv3"
  param {
    lr_mult: 1
    decay_mult: 1
  }
  param {
    lr_mult: 2
    decay_mult: 0
  }
  permutohedral_param {
    num_output: 128
    neighborhood_size: 2
    filter_filler {
      type: "gaussian"
      std: 0.001
    }
    bias_term: true
    bias_filler {
      type: "constant"
      value: 0
    }
    group: 1
    norm_type: AFTER
    offset_type: NONE
  }
}
layer {
  name: "bn3"
  type: "BatchNorm"
  bottom: "conv3"
  top: "bn3"
}
layer {
  name: "relu3"
  type: "ReLU"
  bottom: "bn3"
  top: "bn3"
}
layer {
  name: "fconv3"
  type: "Convolution"
  bottom: "bn3"
  top: "fconv3"
  param {
    lr_mult: 1
  }
  param {
    lr_mult: 0.1
  }
  convolution_param {
    num_output: 3
    pad: 0
    kernel_size: 1
    stride: 1
    weight_filler {
      type: "xavier"
    }
    bias_filler {
      type: "constant"
      value: 0
    }
  }
}
layer {
  name: "fbn3"
  type: "BatchNorm"
  bottom: "fconv3"
  top: "fbn3"
}
layer {
  name: "frelu3"
  type: "ReLU"
  bottom: "fbn3"
  top: "fbn3"
}
layer {
  name: "feat3"
  type: "Eltwise"
  bottom: "data"
  bottom: "fbn3"
  top: "feat3"
  eltwise_param {
    operation: SUM
  }
}
layer {
  name: "data_lattice2"
  type: "Python"
  bottom: "feat3"
  top: "data_lattice2"
  python_param {
    module: "custom_layers"
    layer: "PickAndScale"
    param_str: "0*16_1*16_2*16"
  }
}
layer {
  name: "conv4"
  type: "Permutohedral"
  bottom: "bn3"
  bottom: "data_lattice2"
  bottom: "data_lattice2"
  top: "conv4"
  param {
    lr_mult: 1
    decay_mult: 1
  }
  param {
    lr_mult: 2
    decay_mult: 0
  }
  permutohedral_param {
    num_output: 256
    neighborhood_size: 2
    filter_filler {
      type: "gaussian"
      std: 0.001
    }
    bias_term: true
    bias_filler {
      type: "constant"
      value: 0
    }
    group: 1
    norm_type: AFTER
    offset_type: NONE
  }
}
layer {
  name: "bn4"
  type: "BatchNorm"
  bottom: "conv4"
  top: "bn4"
}
layer {
  name: "relu4"
  type: "ReLU"
  bottom: "bn4"
  top: "bn4"
}
layer {
  name: "fconv4"
  type: "Convolution"
  bottom: "bn4"
  top: "fconv4"
  param {
    lr_mult: 1
  }
  param {
    lr_mult: 0.1
  }
  convolution_param {
    num_output: 3
    pad: 0
    kernel_size: 1
    stride: 1
    weight_filler {
      type: "xavier"
    }
    bias_filler {
      type: "constant"
      value: 0
    }
  }
}
layer {
  name: "fbn4"
  type: "BatchNorm"
  bottom: "fconv4"
  top: "fbn4"
}
layer {
  name: "frelu4"
  type: "ReLU"
  bottom: "fbn4"
  top: "fbn4"
}
layer {
  name: "feat4"
  type: "Eltwise"
  bottom: "data"
  bottom: "fbn4"
  top: "feat4"
  eltwise_param {
    operation: SUM
  }
}
layer {
  name: "data_lattice3"
  type: "Python"
  bottom: "feat4"
  top: "data_lattice3"
  python_param {
    module: "custom_layers"
    layer: "PickAndScale"
    param_str: "0*8_1*8_2*8"
  }
}
layer {
  name: "conv5"
  type: "Permutohedral"
  bottom: "bn4"
  bottom: "data_lattice3"
  bottom: "data_lattice3"
  top: "conv5"
  param {
    lr_mult: 1
    decay_mult: 1
  }
  param {
    lr_mult: 2
    decay_mult: 0
  }
  permutohedral_param {
    num_output: 256
    neighborhood_size: 2
    filter_filler {
      type: "gaussian"
      std: 0.001
    }
    bias_term: true
    bias_filler {
      type: "constant"
      value: 0
    }
    group: 1
    norm_type: AFTER
    offset_type: NONE
  }
}
layer {
  name: "bn5"
  type: "BatchNorm"
  bottom: "conv5"
  top: "bn5"
}
layer {
  name: "relu5"
  type: "ReLU"
  bottom: "bn5"
  top: "bn5"
}
layer {
  name: "fconv5"
  type: "Convolution"
  bottom: "bn5"
  top: "fconv5"
  param {
    lr_mult: 1
  }
  param {
    lr_mult: 0.1
  }
  convolution_param {
    num_output: 3
    pad: 0
    kernel_size: 1
    stride: 1
    weight_filler {
      type: "xavier"
    }
    bias_filler {
      type: "constant"
      value: 0
    }
  }
}
layer {
  name: "fbn5"
  type: "BatchNorm"
  bottom: "fconv5"
  top: "fbn5"
}
layer {
  name: "frelu5"
  type: "ReLU"
  bottom: "fbn5"
  top: "fbn5"
}
layer {
  name: "feat5"
  type: "Eltwise"
  bottom: "data"
  bottom: "fbn5"
  top: "feat5"
  eltwise_param {
    operation: SUM
  }
}
layer {
  name: "data_lattice4"
  type: "Python"
  bottom: "feat5"
  top: "data_lattice4"
  python_param {
    module: "custom_layers"
    layer: "PickAndScale"
    param_str: "0*4_1*4_2*4"
  }
}
layer {
  name: "conv6"
  type: "Permutohedral"
  bottom: "bn5"
  bottom: "data_lattice4"
  bottom: "data_lattice4"
  top: "conv6"
  param {
    lr_mult: 1
    decay_mult: 1
  }
  param {
    lr_mult: 2
    decay_mult: 0
  }
  permutohedral_param {
    num_output: 256
    neighborhood_size: 2
    filter_filler {
      type: "gaussian"
      std: 0.001
    }
    bias_term: true
    bias_filler {
      type: "constant"
      value: 0
    }
    group: 1
    norm_type: AFTER
    offset_type: NONE
  }
}
layer {
  name: "bn6"
  type: "BatchNorm"
  bottom: "conv6"
  top: "bn6"
}
layer {
  name: "relu6"
  type: "ReLU"
  bottom: "bn6"
  top: "bn6"
}
layer {
  name: "concat6"
  type: "Concat"
  bottom: "bn6"
  bottom: "bn2"
  bottom: "bn3"
  bottom: "bn4"
  bottom: "bn5"
  top: "concat6"
}
layer {
  name: "conv7"
  type: "Convolution"
  bottom: "concat6"
  top: "conv7"
  param {
    lr_mult: 1
  }
  param {
    lr_mult: 0.1
  }
  convolution_param {
    num_output: 128
    pad: 0
    kernel_size: 1
    stride: 1
    weight_filler {
      type: "xavier"
    }
    bias_filler {
      type: "constant"
      value: 0
    }
  }
}
layer {
  name: "bn7"
  type: "BatchNorm"
  bottom: "conv7"
  top: "bn7"
}
layer {
  name: "relu7"
  type: "ReLU"
  bottom: "bn7"
  top: "bn7"
}
layer {
  name: "conv8"
  type: "Convolution"
  bottom: "bn7"
  top: "conv8"
  param {
    lr_mult: 1
  }
  param {
    lr_mult: 0.1
  }
  convolution_param {
    num_output: 13
    pad: 0
    kernel_size: 1
    stride: 1
    weight_filler {
      type: "xavier"
    }
    bias_filler {
      type: "constant"
      value: 0
    }
  }
}
layer {
  name: "loss"
  type: "SoftmaxWithLoss"
  bottom: "conv8"
  bottom: "label"
  top: "loss"
}
layer {
  name: "accuracy"
  type: "Accuracy"
  bottom: "conv8"
  bottom: "label"
  top: "accuracy"
}
I0806 10:18:20.435788  1591 layer_factory.hpp:77] Creating layer data
I0806 10:18:20.491585  1591 net.cpp:84] Creating Layer data
I0806 10:18:20.491662  1591 net.cpp:380] data -> data
I0806 10:18:20.491811  1591 net.cpp:380] data -> label
I0806 10:18:20.823360  1593 upgrade_proto.cpp:1084] Attempting to upgrade input file specified using deprecated 'solver_type' field (enum)': /mnt/lustre/wangjiayun/repos/splatnet/exp/lidar3d/area6/6_solver.prototxt
…
I0806 10:18:20.865597  1595 upgrade_proto.cpp:1084] Attempting to upgrade input file specified using deprecated 'solver_type' field (enum)': /mnt/lustre/wangjiayun/repos/splatnet/exp/lidar3d/area6/6_solver.prototxt
I0806 10:18:20.865675  1595 upgrade_proto.cpp:1091] Successfully upgraded file specified using deprecated 'solver_type' field (enum) to 'type' field (string).
W0806 10:18:20.865684  1595 upgrade_proto.cpp:1093] Note that future Caffe releases will only support 'type' field (string) for a solver's type.
I0806 10:26:39.848863  1591 net.cpp:122] Setting up data
I0806 10:26:39.849591  1591 net.cpp:129] Top shape: 12 3 1 8192 (294912)
I0806 10:26:39.849608  1591 net.cpp:129] Top shape: 12 1 1 8192 (98304)
I0806 10:26:39.849612  1591 net.cpp:137] Memory required for data: 1572864
I0806 10:26:39.849686  1591 layer_factory.hpp:77] Creating layer data_data_0_split
I0806 10:26:39.849844  1591 net.cpp:84] Creating Layer data_data_0_split
I0806 10:26:39.849866  1591 net.cpp:406] data_data_0_split <- data
I0806 10:26:39.849901  1591 net.cpp:380] data_data_0_split -> data_data_0_split_0
I0806 10:26:39.849946  1591 net.cpp:380] data_data_0_split -> data_data_0_split_1
I0806 10:26:39.849956  1591 net.cpp:380] data_data_0_split -> data_data_0_split_2
I0806 10:26:39.849967  1591 net.cpp:380] data_data_0_split -> data_data_0_split_3
I0806 10:26:39.849975  1591 net.cpp:380] data_data_0_split -> data_data_0_split_4
I0806 10:26:39.849982  1591 net.cpp:380] data_data_0_split -> data_data_0_split_5
I0806 10:26:39.850081  1591 net.cpp:122] Setting up data_data_0_split
I0806 10:26:39.850093  1591 net.cpp:129] Top shape: 12 3 1 8192 (294912)
I0806 10:26:39.850098  1591 net.cpp:129] Top shape: 12 3 1 8192 (294912)
I0806 10:26:39.850102  1591 net.cpp:129] Top shape: 12 3 1 8192 (294912)
I0806 10:26:39.850106  1591 net.cpp:129] Top shape: 12 3 1 8192 (294912)
I0806 10:26:39.850111  1591 net.cpp:129] Top shape: 12 3 1 8192 (294912)
I0806 10:26:39.850113  1591 net.cpp:129] Top shape: 12 3 1 8192 (294912)
I0806 10:26:39.850136  1591 net.cpp:137] Memory required for data: 8650752
I0806 10:26:39.850141  1591 layer_factory.hpp:77] Creating layer label_data_1_split
I0806 10:26:39.850149  1591 net.cpp:84] Creating Layer label_data_1_split
I0806 10:26:39.850165  1591 net.cpp:406] label_data_1_split <- label
I0806 10:26:39.850172  1591 net.cpp:380] label_data_1_split -> label_data_1_split_0
I0806 10:26:39.850183  1591 net.cpp:380] label_data_1_split -> label_data_1_split_1
I0806 10:26:39.850214  1591 net.cpp:122] Setting up label_data_1_split
I0806 10:26:39.850222  1591 net.cpp:129] Top shape: 12 1 1 8192 (98304)
I0806 10:26:39.850226  1591 net.cpp:129] Top shape: 12 1 1 8192 (98304)
I0806 10:26:39.850231  1591 net.cpp:137] Memory required for data: 9437184
I0806 10:26:39.850239  1591 layer_factory.hpp:77] Creating layer data_feat
I0806 10:26:39.855593  1591 net.cpp:84] Creating Layer data_feat
I0806 10:26:39.855618  1591 net.cpp:406] data_feat <- data_data_0_split_0
I0806 10:26:39.855628  1591 net.cpp:380] data_feat -> data_feat
I0806 10:26:39.857339  1591 net.cpp:122] Setting up data_feat
I0806 10:26:39.857358  1591 net.cpp:129] Top shape: 12 3 1 8192 (294912)
I0806 10:26:39.857362  1591 net.cpp:137] Memory required for data: 10616832
I0806 10:26:39.857368  1591 layer_factory.hpp:77] Creating layer conv1
I0806 10:26:39.857439  1591 net.cpp:84] Creating Layer conv1
I0806 10:26:39.857448  1591 net.cpp:406] conv1 <- data_feat
I0806 10:26:39.857457  1591 net.cpp:380] conv1 -> conv1
I0806 10:26:42.819394  1591 net.cpp:122] Setting up conv1
I0806 10:26:42.819455  1591 net.cpp:129] Top shape: 12 32 1 8192 (3145728)
I0806 10:26:42.819466  1591 net.cpp:137] Memory required for data: 23199744
I0806 10:26:42.831385  1591 layer_factory.hpp:77] Creating layer bn1
I0806 10:26:42.832267  1591 net.cpp:84] Creating Layer bn1
I0806 10:26:42.832294  1591 net.cpp:406] bn1 <- conv1
I0806 10:26:42.832312  1591 net.cpp:380] bn1 -> bn1
I0806 10:26:42.846104  1591 net.cpp:122] Setting up bn1
I0806 10:26:42.846156  1591 net.cpp:129] Top shape: 12 32 1 8192 (3145728)
I0806 10:26:42.846179  1591 net.cpp:137] Memory required for data: 35782656
I0806 10:26:42.846206  1591 layer_factory.hpp:77] Creating layer relu1
I0806 10:26:42.847371  1591 net.cpp:84] Creating Layer relu1
I0806 10:26:42.847404  1591 net.cpp:406] relu1 <- bn1
I0806 10:26:42.847420  1591 net.cpp:367] relu1 -> bn1 (in-place)
I0806 10:26:42.859441  1591 net.cpp:122] Setting up relu1
I0806 10:26:42.859477  1591 net.cpp:129] Top shape: 12 32 1 8192 (3145728)
I0806 10:26:42.859488  1591 net.cpp:137] Memory required for data: 48365568
I0806 10:26:42.859501  1591 layer_factory.hpp:77] Creating layer bn1_relu1_0_split
I0806 10:26:42.859517  1591 net.cpp:84] Creating Layer bn1_relu1_0_split
I0806 10:26:42.859526  1591 net.cpp:406] bn1_relu1_0_split <- bn1
I0806 10:26:42.859540  1591 net.cpp:380] bn1_relu1_0_split -> bn1_relu1_0_split_0
I0806 10:26:42.859556  1591 net.cpp:380] bn1_relu1_0_split -> bn1_relu1_0_split_1
I0806 10:26:42.859643  1591 net.cpp:122] Setting up bn1_relu1_0_split
I0806 10:26:42.859661  1591 net.cpp:129] Top shape: 12 32 1 8192 (3145728)
I0806 10:26:42.859670  1591 net.cpp:129] Top shape: 12 32 1 8192 (3145728)
I0806 10:26:42.859678  1591 net.cpp:137] Memory required for data: 73531392
I0806 10:26:42.859684  1591 layer_factory.hpp:77] Creating layer fconv1
I0806 10:26:42.859709  1591 net.cpp:84] Creating Layer fconv1
I0806 10:26:42.859722  1591 net.cpp:406] fconv1 <- bn1_relu1_0_split_0
I0806 10:26:42.859737  1591 net.cpp:380] fconv1 -> fconv1
I0806 10:26:42.863458  1591 net.cpp:122] Setting up fconv1
I0806 10:26:42.863494  1591 net.cpp:129] Top shape: 12 3 1 8192 (294912)
I0806 10:26:42.863503  1591 net.cpp:137] Memory required for data: 74711040
I0806 10:26:42.863519  1591 layer_factory.hpp:77] Creating layer fbn1
I0806 10:26:42.863540  1591 net.cpp:84] Creating Layer fbn1
I0806 10:26:42.863550  1591 net.cpp:406] fbn1 <- fconv1
I0806 10:26:42.863564  1591 net.cpp:380] fbn1 -> fbn1
I0806 10:26:42.863970  1591 net.cpp:122] Setting up fbn1
I0806 10:26:42.863991  1591 net.cpp:129] Top shape: 12 3 1 8192 (294912)
I0806 10:26:42.863998  1591 net.cpp:137] Memory required for data: 75890688
I0806 10:26:42.864020  1591 layer_factory.hpp:77] Creating layer frelu1
I0806 10:26:42.864037  1591 net.cpp:84] Creating Layer frelu1
I0806 10:26:42.864045  1591 net.cpp:406] frelu1 <- fbn1
I0806 10:26:42.864056  1591 net.cpp:367] frelu1 -> fbn1 (in-place)
I0806 10:26:42.864645  1591 net.cpp:122] Setting up frelu1
I0806 10:26:42.864672  1591 net.cpp:129] Top shape: 12 3 1 8192 (294912)
I0806 10:26:42.864681  1591 net.cpp:137] Memory required for data: 77070336
I0806 10:26:42.864688  1591 layer_factory.hpp:77] Creating layer feat1
I0806 10:26:42.864770  1591 net.cpp:84] Creating Layer feat1
I0806 10:26:42.864789  1591 net.cpp:406] feat1 <- data_data_0_split_1
I0806 10:26:42.864804  1591 net.cpp:406] feat1 <- fbn1
I0806 10:26:42.864817  1591 net.cpp:380] feat1 -> feat1
I0806 10:26:42.865065  1591 net.cpp:122] Setting up feat1
I0806 10:26:42.865092  1591 net.cpp:129] Top shape: 12 3 1 8192 (294912)
I0806 10:26:42.865099  1591 net.cpp:137] Memory required for data: 78249984
I0806 10:26:42.865108  1591 layer_factory.hpp:77] Creating layer data_lattice0
I0806 10:26:42.865224  1591 net.cpp:84] Creating Layer data_lattice0
I0806 10:26:42.865243  1591 net.cpp:406] data_lattice0 <- feat1
I0806 10:26:42.865258  1591 net.cpp:380] data_lattice0 -> data_lattice0
I0806 10:26:42.867810  1591 net.cpp:122] Setting up data_lattice0
I0806 10:26:42.867846  1591 net.cpp:129] Top shape: 12 3 1 8192 (294912)
I0806 10:26:42.867854  1591 net.cpp:137] Memory required for data: 79429632
I0806 10:26:42.867868  1591 layer_factory.hpp:77] Creating layer data_lattice0_data_lattice0_0_split
I0806 10:26:42.867885  1591 net.cpp:84] Creating Layer data_lattice0_data_lattice0_0_split
I0806 10:26:42.867894  1591 net.cpp:406] data_lattice0_data_lattice0_0_split <- data_lattice0
I0806 10:26:42.867908  1591 net.cpp:380] data_lattice0_data_lattice0_0_split -> data_lattice0_data_lattice0_0_split_0
I0806 10:26:42.867925  1591 net.cpp:380] data_lattice0_data_lattice0_0_split -> data_lattice0_data_lattice0_0_split_1
I0806 10:26:42.868003  1591 net.cpp:122] Setting up data_lattice0_data_lattice0_0_split
I0806 10:26:42.868019  1591 net.cpp:129] Top shape: 12 3 1 8192 (294912)
I0806 10:26:42.868029  1591 net.cpp:129] Top shape: 12 3 1 8192 (294912)
I0806 10:26:42.868036  1591 net.cpp:137] Memory required for data: 81788928
I0806 10:26:42.868042  1591 layer_factory.hpp:77] Creating layer conv2
I0806 10:26:42.868139  1591 net.cpp:84] Creating Layer conv2
I0806 10:26:42.868161  1591 net.cpp:406] conv2 <- bn1_relu1_0_split_1
I0806 10:26:42.868175  1591 net.cpp:406] conv2 <- data_lattice0_data_lattice0_0_split_0
I0806 10:26:42.868185  1591 net.cpp:406] conv2 <- data_lattice0_data_lattice0_0_split_1
I0806 10:26:42.868197  1591 net.cpp:380] conv2 -> conv2
I0806 10:26:42.877400  1591 net.cpp:122] Setting up conv2
I0806 10:26:42.877436  1591 net.cpp:129] Top shape: 12 64 1 8192 (6291456)
I0806 10:26:42.877445  1591 net.cpp:137] Memory required for data: 106954752
I0806 10:26:42.877460  1591 layer_factory.hpp:77] Creating layer bn2
I0806 10:26:42.877475  1591 net.cpp:84] Creating Layer bn2
I0806 10:26:42.877482  1591 net.cpp:406] bn2 <- conv2
I0806 10:26:42.877496  1591 net.cpp:380] bn2 -> bn2
I0806 10:26:42.877890  1591 net.cpp:122] Setting up bn2
I0806 10:26:42.877908  1591 net.cpp:129] Top shape: 12 64 1 8192 (6291456)
I0806 10:26:42.877915  1591 net.cpp:137] Memory required for data: 132120576
I0806 10:26:42.877930  1591 layer_factory.hpp:77] Creating layer relu2
I0806 10:26:42.877950  1591 net.cpp:84] Creating Layer relu2
I0806 10:26:42.877959  1591 net.cpp:406] relu2 <- bn2
I0806 10:26:42.877969  1591 net.cpp:367] relu2 -> bn2 (in-place)
I0806 10:26:42.879206  1591 net.cpp:122] Setting up relu2
I0806 10:26:42.879238  1591 net.cpp:129] Top shape: 12 64 1 8192 (6291456)
I0806 10:26:42.879246  1591 net.cpp:137] Memory required for data: 157286400
I0806 10:26:42.879259  1591 layer_factory.hpp:77] Creating layer bn2_relu2_0_split
I0806 10:26:42.879274  1591 net.cpp:84] Creating Layer bn2_relu2_0_split
I0806 10:26:42.879282  1591 net.cpp:406] bn2_relu2_0_split <- bn2
I0806 10:26:42.879297  1591 net.cpp:380] bn2_relu2_0_split -> bn2_relu2_0_split_0
I0806 10:26:42.879310  1591 net.cpp:380] bn2_relu2_0_split -> bn2_relu2_0_split_1
I0806 10:26:42.879323  1591 net.cpp:380] bn2_relu2_0_split -> bn2_relu2_0_split_2
I0806 10:26:42.879423  1591 net.cpp:122] Setting up bn2_relu2_0_split
I0806 10:26:42.879441  1591 net.cpp:129] Top shape: 12 64 1 8192 (6291456)
I0806 10:26:42.879448  1591 net.cpp:129] Top shape: 12 64 1 8192 (6291456)
I0806 10:26:42.879456  1591 net.cpp:129] Top shape: 12 64 1 8192 (6291456)
I0806 10:26:42.879462  1591 net.cpp:137] Memory required for data: 232783872
I0806 10:26:42.879468  1591 layer_factory.hpp:77] Creating layer fconv2
I0806 10:26:42.879488  1591 net.cpp:84] Creating Layer fconv2
I0806 10:26:42.879501  1591 net.cpp:406] fconv2 <- bn2_relu2_0_split_0
I0806 10:26:42.879515  1591 net.cpp:380] fconv2 -> fconv2
I0806 10:26:42.882195  1591 net.cpp:122] Setting up fconv2
I0806 10:26:42.882225  1591 net.cpp:129] Top shape: 12 3 1 8192 (294912)
I0806 10:26:42.882233  1591 net.cpp:137] Memory required for data: 233963520
I0806 10:26:42.882258  1591 layer_factory.hpp:77] Creating layer fbn2
I0806 10:26:42.882273  1591 net.cpp:84] Creating Layer fbn2
I0806 10:26:42.882282  1591 net.cpp:406] fbn2 <- fconv2
I0806 10:26:42.882293  1591 net.cpp:380] fbn2 -> fbn2
I0806 10:26:42.882658  1591 net.cpp:122] Setting up fbn2
I0806 10:26:42.882675  1591 net.cpp:129] Top shape: 12 3 1 8192 (294912)
I0806 10:26:42.882681  1591 net.cpp:137] Memory required for data: 235143168
I0806 10:26:42.882695  1591 layer_factory.hpp:77] Creating layer frelu2
I0806 10:26:42.882711  1591 net.cpp:84] Creating Layer frelu2
I0806 10:26:42.882719  1591 net.cpp:406] frelu2 <- fbn2
I0806 10:26:42.882728  1591 net.cpp:367] frelu2 -> fbn2 (in-place)
I0806 10:26:42.883250  1591 net.cpp:122] Setting up frelu2
I0806 10:26:42.883273  1591 net.cpp:129] Top shape: 12 3 1 8192 (294912)
I0806 10:26:42.883280  1591 net.cpp:137] Memory required for data: 236322816
I0806 10:26:42.883291  1591 layer_factory.hpp:77] Creating layer feat2
I0806 10:26:42.883304  1591 net.cpp:84] Creating Layer feat2
I0806 10:26:42.883313  1591 net.cpp:406] feat2 <- data_data_0_split_2
I0806 10:26:42.883322  1591 net.cpp:406] feat2 <- fbn2
I0806 10:26:42.883333  1591 net.cpp:380] feat2 -> feat2
I0806 10:26:42.883388  1591 net.cpp:122] Setting up feat2
I0806 10:26:42.883402  1591 net.cpp:129] Top shape: 12 3 1 8192 (294912)
I0806 10:26:42.883409  1591 net.cpp:137] Memory required for data: 237502464
I0806 10:26:42.883414  1591 layer_factory.hpp:77] Creating layer data_lattice1
I0806 10:26:42.883471  1591 net.cpp:84] Creating Layer data_lattice1
I0806 10:26:42.883486  1591 net.cpp:406] data_lattice1 <- feat2
I0806 10:26:42.883498  1591 net.cpp:380] data_lattice1 -> data_lattice1
I0806 10:26:42.885738  1591 net.cpp:122] Setting up data_lattice1
I0806 10:26:42.885768  1591 net.cpp:129] Top shape: 12 3 1 8192 (294912)
I0806 10:26:42.885776  1591 net.cpp:137] Memory required for data: 238682112
I0806 10:26:42.885784  1591 layer_factory.hpp:77] Creating layer data_lattice1_data_lattice1_0_split
I0806 10:26:42.885797  1591 net.cpp:84] Creating Layer data_lattice1_data_lattice1_0_split
I0806 10:26:42.885807  1591 net.cpp:406] data_lattice1_data_lattice1_0_split <- data_lattice1
I0806 10:26:42.885819  1591 net.cpp:380] data_lattice1_data_lattice1_0_split -> data_lattice1_data_lattice1_0_split_0
I0806 10:26:42.885834  1591 net.cpp:380] data_lattice1_data_lattice1_0_split -> data_lattice1_data_lattice1_0_split_1
I0806 10:26:42.885905  1591 net.cpp:122] Setting up data_lattice1_data_lattice1_0_split
I0806 10:26:42.885921  1591 net.cpp:129] Top shape: 12 3 1 8192 (294912)
I0806 10:26:42.885927  1591 net.cpp:129] Top shape: 12 3 1 8192 (294912)
I0806 10:26:42.885933  1591 net.cpp:137] Memory required for data: 241041408
I0806 10:26:42.885939  1591 layer_factory.hpp:77] Creating layer conv3
I0806 10:26:42.885956  1591 net.cpp:84] Creating Layer conv3
I0806 10:26:42.885962  1591 net.cpp:406] conv3 <- bn2_relu2_0_split_1
I0806 10:26:42.885972  1591 net.cpp:406] conv3 <- data_lattice1_data_lattice1_0_split_0
I0806 10:26:42.885980  1591 net.cpp:406] conv3 <- data_lattice1_data_lattice1_0_split_1
I0806 10:26:42.885991  1591 net.cpp:380] conv3 -> conv3
I0806 10:26:42.917152  1591 net.cpp:122] Setting up conv3
I0806 10:26:42.917183  1591 net.cpp:129] Top shape: 12 128 1 8192 (12582912)
I0806 10:26:42.917191  1591 net.cpp:137] Memory required for data: 291373056
I0806 10:26:42.917207  1591 layer_factory.hpp:77] Creating layer bn3
I0806 10:26:42.917220  1591 net.cpp:84] Creating Layer bn3
I0806 10:26:42.917227  1591 net.cpp:406] bn3 <- conv3
I0806 10:26:42.917237  1591 net.cpp:380] bn3 -> bn3
I0806 10:26:42.917557  1591 net.cpp:122] Setting up bn3
I0806 10:26:42.917570  1591 net.cpp:129] Top shape: 12 128 1 8192 (12582912)
I0806 10:26:42.917575  1591 net.cpp:137] Memory required for data: 341704704
I0806 10:26:42.917587  1591 layer_factory.hpp:77] Creating layer relu3
I0806 10:26:42.917600  1591 net.cpp:84] Creating Layer relu3
I0806 10:26:42.917608  1591 net.cpp:406] relu3 <- bn3
I0806 10:26:42.917616  1591 net.cpp:367] relu3 -> bn3 (in-place)
I0806 10:26:42.918664  1591 net.cpp:122] Setting up relu3
I0806 10:26:42.918690  1591 net.cpp:129] Top shape: 12 128 1 8192 (12582912)
I0806 10:26:42.918696  1591 net.cpp:137] Memory required for data: 392036352
I0806 10:26:42.918704  1591 layer_factory.hpp:77] Creating layer bn3_relu3_0_split
I0806 10:26:42.918715  1591 net.cpp:84] Creating Layer bn3_relu3_0_split
I0806 10:26:42.918721  1591 net.cpp:406] bn3_relu3_0_split <- bn3
I0806 10:26:42.918732  1591 net.cpp:380] bn3_relu3_0_split -> bn3_relu3_0_split_0
I0806 10:26:42.918750  1591 net.cpp:380] bn3_relu3_0_split -> bn3_relu3_0_split_1
I0806 10:26:42.918759  1591 net.cpp:380] bn3_relu3_0_split -> bn3_relu3_0_split_2
I0806 10:26:42.918844  1591 net.cpp:122] Setting up bn3_relu3_0_split
I0806 10:26:42.918857  1591 net.cpp:129] Top shape: 12 128 1 8192 (12582912)
I0806 10:26:42.918864  1591 net.cpp:129] Top shape: 12 128 1 8192 (12582912)
I0806 10:26:42.918870  1591 net.cpp:129] Top shape: 12 128 1 8192 (12582912)
I0806 10:26:42.918875  1591 net.cpp:137] Memory required for data: 543031296
I0806 10:26:42.918880  1591 layer_factory.hpp:77] Creating layer fconv3
I0806 10:26:42.918898  1591 net.cpp:84] Creating Layer fconv3
I0806 10:26:42.918905  1591 net.cpp:406] fconv3 <- bn3_relu3_0_split_0
I0806 10:26:42.918916  1591 net.cpp:380] fconv3 -> fconv3
I0806 10:26:42.922894  1591 net.cpp:122] Setting up fconv3
I0806 10:26:42.922920  1591 net.cpp:129] Top shape: 12 3 1 8192 (294912)
I0806 10:26:42.922927  1591 net.cpp:137] Memory required for data: 544210944
I0806 10:26:42.922942  1591 layer_factory.hpp:77] Creating layer fbn3
I0806 10:26:42.922955  1591 net.cpp:84] Creating Layer fbn3
I0806 10:26:42.922962  1591 net.cpp:406] fbn3 <- fconv3
I0806 10:26:42.922972  1591 net.cpp:380] fbn3 -> fbn3
I0806 10:26:42.923302  1591 net.cpp:122] Setting up fbn3
I0806 10:26:42.923317  1591 net.cpp:129] Top shape: 12 3 1 8192 (294912)
I0806 10:26:42.923322  1591 net.cpp:137] Memory required for data: 545390592
I0806 10:26:42.923336  1591 layer_factory.hpp:77] Creating layer frelu3
I0806 10:26:42.923344  1591 net.cpp:84] Creating Layer frelu3
I0806 10:26:42.923351  1591 net.cpp:406] frelu3 <- fbn3
I0806 10:26:42.923359  1591 net.cpp:367] frelu3 -> fbn3 (in-place)
I0806 10:26:42.923795  1591 net.cpp:122] Setting up frelu3
I0806 10:26:42.923815  1591 net.cpp:129] Top shape: 12 3 1 8192 (294912)
I0806 10:26:42.923820  1591 net.cpp:137] Memory required for data: 546570240
I0806 10:26:42.923826  1591 layer_factory.hpp:77] Creating layer feat3
I0806 10:26:42.923837  1591 net.cpp:84] Creating Layer feat3
I0806 10:26:42.923843  1591 net.cpp:406] feat3 <- data_data_0_split_3
I0806 10:26:42.923853  1591 net.cpp:406] feat3 <- fbn3
I0806 10:26:42.923861  1591 net.cpp:380] feat3 -> feat3
I0806 10:26:42.923905  1591 net.cpp:122] Setting up feat3
I0806 10:26:42.923918  1591 net.cpp:129] Top shape: 12 3 1 8192 (294912)
I0806 10:26:42.923923  1591 net.cpp:137] Memory required for data: 547749888
I0806 10:26:42.923928  1591 layer_factory.hpp:77] Creating layer data_lattice2
I0806 10:26:42.923995  1591 net.cpp:84] Creating Layer data_lattice2
I0806 10:26:42.924007  1591 net.cpp:406] data_lattice2 <- feat3
I0806 10:26:42.924017  1591 net.cpp:380] data_lattice2 -> data_lattice2
I0806 10:26:42.925928  1591 net.cpp:122] Setting up data_lattice2
I0806 10:26:42.925953  1591 net.cpp:129] Top shape: 12 3 1 8192 (294912)
I0806 10:26:42.925961  1591 net.cpp:137] Memory required for data: 548929536
I0806 10:26:42.925968  1591 layer_factory.hpp:77] Creating layer data_lattice2_data_lattice2_0_split
I0806 10:26:42.925979  1591 net.cpp:84] Creating Layer data_lattice2_data_lattice2_0_split
I0806 10:26:42.925988  1591 net.cpp:406] data_lattice2_data_lattice2_0_split <- data_lattice2
I0806 10:26:42.925999  1591 net.cpp:380] data_lattice2_data_lattice2_0_split -> data_lattice2_data_lattice2_0_split_0
I0806 10:26:42.926010  1591 net.cpp:380] data_lattice2_data_lattice2_0_split -> data_lattice2_data_lattice2_0_split_1
I0806 10:26:42.926071  1591 net.cpp:122] Setting up data_lattice2_data_lattice2_0_split
I0806 10:26:42.926084  1591 net.cpp:129] Top shape: 12 3 1 8192 (294912)
I0806 10:26:42.926090  1591 net.cpp:129] Top shape: 12 3 1 8192 (294912)
I0806 10:26:42.926095  1591 net.cpp:137] Memory required for data: 551288832
I0806 10:26:42.926100  1591 layer_factory.hpp:77] Creating layer conv4
I0806 10:26:42.926112  1591 net.cpp:84] Creating Layer conv4
I0806 10:26:42.926127  1591 net.cpp:406] conv4 <- bn3_relu3_0_split_1
I0806 10:26:42.926136  1591 net.cpp:406] conv4 <- data_lattice2_data_lattice2_0_split_0
I0806 10:26:42.926143  1591 net.cpp:406] conv4 <- data_lattice2_data_lattice2_0_split_1
I0806 10:26:42.926152  1591 net.cpp:380] conv4 -> conv4
I0806 10:26:43.013329  1591 net.cpp:122] Setting up conv4
I0806 10:26:43.013371  1591 net.cpp:129] Top shape: 12 256 1 8192 (25165824)
I0806 10:26:43.013376  1591 net.cpp:137] Memory required for data: 651952128
I0806 10:26:43.013387  1591 layer_factory.hpp:77] Creating layer bn4
I0806 10:26:43.013399  1591 net.cpp:84] Creating Layer bn4
I0806 10:26:43.013406  1591 net.cpp:406] bn4 <- conv4
I0806 10:26:43.013417  1591 net.cpp:380] bn4 -> bn4
I0806 10:26:43.013654  1591 net.cpp:122] Setting up bn4
I0806 10:26:43.013665  1591 net.cpp:129] Top shape: 12 256 1 8192 (25165824)
I0806 10:26:43.013669  1591 net.cpp:137] Memory required for data: 752615424
I0806 10:26:43.013687  1591 layer_factory.hpp:77] Creating layer relu4
I0806 10:26:43.013703  1591 net.cpp:84] Creating Layer relu4
I0806 10:26:43.013708  1591 net.cpp:406] relu4 <- bn4
I0806 10:26:43.013715  1591 net.cpp:367] relu4 -> bn4 (in-place)
I0806 10:26:43.014631  1591 net.cpp:122] Setting up relu4
I0806 10:26:43.014648  1591 net.cpp:129] Top shape: 12 256 1 8192 (25165824)
I0806 10:26:43.014653  1591 net.cpp:137] Memory required for data: 853278720
I0806 10:26:43.014662  1591 layer_factory.hpp:77] Creating layer bn4_relu4_0_split
I0806 10:26:43.014670  1591 net.cpp:84] Creating Layer bn4_relu4_0_split
I0806 10:26:43.014675  1591 net.cpp:406] bn4_relu4_0_split <- bn4
I0806 10:26:43.014683  1591 net.cpp:380] bn4_relu4_0_split -> bn4_relu4_0_split_0
I0806 10:26:43.014693  1591 net.cpp:380] bn4_relu4_0_split -> bn4_relu4_0_split_1
I0806 10:26:43.014700  1591 net.cpp:380] bn4_relu4_0_split -> bn4_relu4_0_split_2
I0806 10:26:43.014763  1591 net.cpp:122] Setting up bn4_relu4_0_split
I0806 10:26:43.014773  1591 net.cpp:129] Top shape: 12 256 1 8192 (25165824)
I0806 10:26:43.014777  1591 net.cpp:129] Top shape: 12 256 1 8192 (25165824)
I0806 10:26:43.014782  1591 net.cpp:129] Top shape: 12 256 1 8192 (25165824)
I0806 10:26:43.014786  1591 net.cpp:137] Memory required for data: 1155268608
I0806 10:26:43.014789  1591 layer_factory.hpp:77] Creating layer fconv4
I0806 10:26:43.014803  1591 net.cpp:84] Creating Layer fconv4
I0806 10:26:43.014808  1591 net.cpp:406] fconv4 <- bn4_relu4_0_split_0
I0806 10:26:43.014817  1591 net.cpp:380] fconv4 -> fconv4
I0806 10:26:43.016620  1591 net.cpp:122] Setting up fconv4
I0806 10:26:43.016639  1591 net.cpp:129] Top shape: 12 3 1 8192 (294912)
I0806 10:26:43.016645  1591 net.cpp:137] Memory required for data: 1156448256
I0806 10:26:43.016654  1591 layer_factory.hpp:77] Creating layer fbn4
I0806 10:26:43.016662  1591 net.cpp:84] Creating Layer fbn4
I0806 10:26:43.016667  1591 net.cpp:406] fbn4 <- fconv4
I0806 10:26:43.016677  1591 net.cpp:380] fbn4 -> fbn4
I0806 10:26:43.016918  1591 net.cpp:122] Setting up fbn4
I0806 10:26:43.016929  1591 net.cpp:129] Top shape: 12 3 1 8192 (294912)
I0806 10:26:43.016934  1591 net.cpp:137] Memory required for data: 1157627904
I0806 10:26:43.016942  1591 layer_factory.hpp:77] Creating layer frelu4
I0806 10:26:43.016952  1591 net.cpp:84] Creating Layer frelu4
I0806 10:26:43.016957  1591 net.cpp:406] frelu4 <- fbn4
I0806 10:26:43.016961  1591 net.cpp:367] frelu4 -> fbn4 (in-place)
I0806 10:26:43.017299  1591 net.cpp:122] Setting up frelu4
I0806 10:26:43.017313  1591 net.cpp:129] Top shape: 12 3 1 8192 (294912)
I0806 10:26:43.017318  1591 net.cpp:137] Memory required for data: 1158807552
I0806 10:26:43.017323  1591 layer_factory.hpp:77] Creating layer feat4
I0806 10:26:43.017333  1591 net.cpp:84] Creating Layer feat4
I0806 10:26:43.017338  1591 net.cpp:406] feat4 <- data_data_0_split_4
I0806 10:26:43.017344  1591 net.cpp:406] feat4 <- fbn4
I0806 10:26:43.017352  1591 net.cpp:380] feat4 -> feat4
I0806 10:26:43.017390  1591 net.cpp:122] Setting up feat4
I0806 10:26:43.017397  1591 net.cpp:129] Top shape: 12 3 1 8192 (294912)
I0806 10:26:43.017401  1591 net.cpp:137] Memory required for data: 1159987200
I0806 10:26:43.017405  1591 layer_factory.hpp:77] Creating layer data_lattice3
I0806 10:26:43.017467  1591 net.cpp:84] Creating Layer data_lattice3
I0806 10:26:43.017477  1591 net.cpp:406] data_lattice3 <- feat4
I0806 10:26:43.017485  1591 net.cpp:380] data_lattice3 -> data_lattice3
I0806 10:26:43.019001  1591 net.cpp:122] Setting up data_lattice3
I0806 10:26:43.019019  1591 net.cpp:129] Top shape: 12 3 1 8192 (294912)
I0806 10:26:43.019024  1591 net.cpp:137] Memory required for data: 1161166848
I0806 10:26:43.019029  1591 layer_factory.hpp:77] Creating layer data_lattice3_data_lattice3_0_split
I0806 10:26:43.019038  1591 net.cpp:84] Creating Layer data_lattice3_data_lattice3_0_split
I0806 10:26:43.019043  1591 net.cpp:406] data_lattice3_data_lattice3_0_split <- data_lattice3
I0806 10:26:43.019052  1591 net.cpp:380] data_lattice3_data_lattice3_0_split -> data_lattice3_data_lattice3_0_split_0
I0806 10:26:43.019062  1591 net.cpp:380] data_lattice3_data_lattice3_0_split -> data_lattice3_data_lattice3_0_split_1
I0806 10:26:43.019106  1591 net.cpp:122] Setting up data_lattice3_data_lattice3_0_split
I0806 10:26:43.019122  1591 net.cpp:129] Top shape: 12 3 1 8192 (294912)
I0806 10:26:43.019127  1591 net.cpp:129] Top shape: 12 3 1 8192 (294912)
I0806 10:26:43.019131  1591 net.cpp:137] Memory required for data: 1163526144
I0806 10:26:43.019135  1591 layer_factory.hpp:77] Creating layer conv5
I0806 10:26:43.019150  1591 net.cpp:84] Creating Layer conv5
I0806 10:26:43.019155  1591 net.cpp:406] conv5 <- bn4_relu4_0_split_1
I0806 10:26:43.019160  1591 net.cpp:406] conv5 <- data_lattice3_data_lattice3_0_split_0
I0806 10:26:43.019165  1591 net.cpp:406] conv5 <- data_lattice3_data_lattice3_0_split_1
I0806 10:26:43.019172  1591 net.cpp:380] conv5 -> conv5
I0806 10:26:43.178406  1591 net.cpp:122] Setting up conv5
I0806 10:26:43.178452  1591 net.cpp:129] Top shape: 12 256 1 8192 (25165824)
I0806 10:26:43.178458  1591 net.cpp:137] Memory required for data: 1264189440
I0806 10:26:43.178472  1591 layer_factory.hpp:77] Creating layer bn5
I0806 10:26:43.178486  1591 net.cpp:84] Creating Layer bn5
I0806 10:26:43.178495  1591 net.cpp:406] bn5 <- conv5
I0806 10:26:43.178505  1591 net.cpp:380] bn5 -> bn5
I0806 10:26:43.178752  1591 net.cpp:122] Setting up bn5
I0806 10:26:43.178763  1591 net.cpp:129] Top shape: 12 256 1 8192 (25165824)
I0806 10:26:43.178768  1591 net.cpp:137] Memory required for data: 1364852736
I0806 10:26:43.178776  1591 layer_factory.hpp:77] Creating layer relu5
I0806 10:26:43.178786  1591 net.cpp:84] Creating Layer relu5
I0806 10:26:43.178789  1591 net.cpp:406] relu5 <- bn5
I0806 10:26:43.178795  1591 net.cpp:367] relu5 -> bn5 (in-place)
I0806 10:26:43.179797  1591 net.cpp:122] Setting up relu5
I0806 10:26:43.179816  1591 net.cpp:129] Top shape: 12 256 1 8192 (25165824)
I0806 10:26:43.179821  1591 net.cpp:137] Memory required for data: 1465516032
I0806 10:26:43.179826  1591 layer_factory.hpp:77] Creating layer bn5_relu5_0_split
I0806 10:26:43.179834  1591 net.cpp:84] Creating Layer bn5_relu5_0_split
I0806 10:26:43.179839  1591 net.cpp:406] bn5_relu5_0_split <- bn5
I0806 10:26:43.179847  1591 net.cpp:380] bn5_relu5_0_split -> bn5_relu5_0_split_0
I0806 10:26:43.179857  1591 net.cpp:380] bn5_relu5_0_split -> bn5_relu5_0_split_1
I0806 10:26:43.179864  1591 net.cpp:380] bn5_relu5_0_split -> bn5_relu5_0_split_2
I0806 10:26:43.179926  1591 net.cpp:122] Setting up bn5_relu5_0_split
I0806 10:26:43.179935  1591 net.cpp:129] Top shape: 12 256 1 8192 (25165824)
I0806 10:26:43.179941  1591 net.cpp:129] Top shape: 12 256 1 8192 (25165824)
I0806 10:26:43.179945  1591 net.cpp:129] Top shape: 12 256 1 8192 (25165824)
I0806 10:26:43.179949  1591 net.cpp:137] Memory required for data: 1767505920
I0806 10:26:43.179953  1591 layer_factory.hpp:77] Creating layer fconv5
I0806 10:26:43.179971  1591 net.cpp:84] Creating Layer fconv5
I0806 10:26:43.179976  1591 net.cpp:406] fconv5 <- bn5_relu5_0_split_0
I0806 10:26:43.179986  1591 net.cpp:380] fconv5 -> fconv5
I0806 10:26:43.181732  1591 net.cpp:122] Setting up fconv5
I0806 10:26:43.181751  1591 net.cpp:129] Top shape: 12 3 1 8192 (294912)
I0806 10:26:43.181756  1591 net.cpp:137] Memory required for data: 1768685568
I0806 10:26:43.181766  1591 layer_factory.hpp:77] Creating layer fbn5
I0806 10:26:43.181774  1591 net.cpp:84] Creating Layer fbn5
I0806 10:26:43.181779  1591 net.cpp:406] fbn5 <- fconv5
I0806 10:26:43.181787  1591 net.cpp:380] fbn5 -> fbn5
I0806 10:26:43.182029  1591 net.cpp:122] Setting up fbn5
I0806 10:26:43.182040  1591 net.cpp:129] Top shape: 12 3 1 8192 (294912)
I0806 10:26:43.182045  1591 net.cpp:137] Memory required for data: 1769865216
I0806 10:26:43.182054  1591 layer_factory.hpp:77] Creating layer frelu5
I0806 10:26:43.182061  1591 net.cpp:84] Creating Layer frelu5
I0806 10:26:43.182065  1591 net.cpp:406] frelu5 <- fbn5
I0806 10:26:43.182071  1591 net.cpp:367] frelu5 -> fbn5 (in-place)
I0806 10:26:43.182785  1591 net.cpp:122] Setting up frelu5
I0806 10:26:43.182803  1591 net.cpp:129] Top shape: 12 3 1 8192 (294912)
I0806 10:26:43.182808  1591 net.cpp:137] Memory required for data: 1771044864
I0806 10:26:43.182812  1591 layer_factory.hpp:77] Creating layer feat5
I0806 10:26:43.182823  1591 net.cpp:84] Creating Layer feat5
I0806 10:26:43.182828  1591 net.cpp:406] feat5 <- data_data_0_split_5
I0806 10:26:43.182835  1591 net.cpp:406] feat5 <- fbn5
I0806 10:26:43.182842  1591 net.cpp:380] feat5 -> feat5
I0806 10:26:43.182878  1591 net.cpp:122] Setting up feat5
I0806 10:26:43.182885  1591 net.cpp:129] Top shape: 12 3 1 8192 (294912)
I0806 10:26:43.182889  1591 net.cpp:137] Memory required for data: 1772224512
I0806 10:26:43.182893  1591 layer_factory.hpp:77] Creating layer data_lattice4
I0806 10:26:43.182963  1591 net.cpp:84] Creating Layer data_lattice4
I0806 10:26:43.182973  1591 net.cpp:406] data_lattice4 <- feat5
I0806 10:26:43.182981  1591 net.cpp:380] data_lattice4 -> data_lattice4
I0806 10:26:43.184522  1591 net.cpp:122] Setting up data_lattice4
I0806 10:26:43.184541  1591 net.cpp:129] Top shape: 12 3 1 8192 (294912)
I0806 10:26:43.184547  1591 net.cpp:137] Memory required for data: 1773404160
I0806 10:26:43.184552  1591 layer_factory.hpp:77] Creating layer data_lattice4_data_lattice4_0_split
I0806 10:26:43.184561  1591 net.cpp:84] Creating Layer data_lattice4_data_lattice4_0_split
I0806 10:26:43.184566  1591 net.cpp:406] data_lattice4_data_lattice4_0_split <- data_lattice4
I0806 10:26:43.184573  1591 net.cpp:380] data_lattice4_data_lattice4_0_split -> data_lattice4_data_lattice4_0_split_0
I0806 10:26:43.184582  1591 net.cpp:380] data_lattice4_data_lattice4_0_split -> data_lattice4_data_lattice4_0_split_1
I0806 10:26:43.184639  1591 net.cpp:122] Setting up data_lattice4_data_lattice4_0_split
I0806 10:26:43.184648  1591 net.cpp:129] Top shape: 12 3 1 8192 (294912)
I0806 10:26:43.184654  1591 net.cpp:129] Top shape: 12 3 1 8192 (294912)
I0806 10:26:43.184659  1591 net.cpp:137] Memory required for data: 1775763456
I0806 10:26:43.184662  1591 layer_factory.hpp:77] Creating layer conv6
I0806 10:26:43.184671  1591 net.cpp:84] Creating Layer conv6
I0806 10:26:43.184676  1591 net.cpp:406] conv6 <- bn5_relu5_0_split_1
I0806 10:26:43.184682  1591 net.cpp:406] conv6 <- data_lattice4_data_lattice4_0_split_0
I0806 10:26:43.184687  1591 net.cpp:406] conv6 <- data_lattice4_data_lattice4_0_split_1
I0806 10:26:43.184695  1591 net.cpp:380] conv6 -> conv6
I0806 10:26:43.344348  1591 net.cpp:122] Setting up conv6
I0806 10:26:43.344395  1591 net.cpp:129] Top shape: 12 256 1 8192 (25165824)
I0806 10:26:43.344401  1591 net.cpp:137] Memory required for data: 1876426752
I0806 10:26:43.344414  1591 layer_factory.hpp:77] Creating layer bn6
I0806 10:26:43.344429  1591 net.cpp:84] Creating Layer bn6
I0806 10:26:43.344436  1591 net.cpp:406] bn6 <- conv6
I0806 10:26:43.344447  1591 net.cpp:380] bn6 -> bn6
I0806 10:26:43.344696  1591 net.cpp:122] Setting up bn6
I0806 10:26:43.344707  1591 net.cpp:129] Top shape: 12 256 1 8192 (25165824)
I0806 10:26:43.344712  1591 net.cpp:137] Memory required for data: 1977090048
I0806 10:26:43.344720  1591 layer_factory.hpp:77] Creating layer relu6
I0806 10:26:43.344733  1591 net.cpp:84] Creating Layer relu6
I0806 10:26:43.344738  1591 net.cpp:406] relu6 <- bn6
I0806 10:26:43.344744  1591 net.cpp:367] relu6 -> bn6 (in-place)
I0806 10:26:43.345188  1591 net.cpp:122] Setting up relu6
I0806 10:26:43.345203  1591 net.cpp:129] Top shape: 12 256 1 8192 (25165824)
I0806 10:26:43.345207  1591 net.cpp:137] Memory required for data: 2077753344
I0806 10:26:43.345212  1591 layer_factory.hpp:77] Creating layer concat6
I0806 10:26:43.345278  1591 net.cpp:84] Creating Layer concat6
I0806 10:26:43.345289  1591 net.cpp:406] concat6 <- bn6
I0806 10:26:43.345297  1591 net.cpp:406] concat6 <- bn2_relu2_0_split_2
I0806 10:26:43.345304  1591 net.cpp:406] concat6 <- bn3_relu3_0_split_2
I0806 10:26:43.345307  1591 net.cpp:406] concat6 <- bn4_relu4_0_split_2
I0806 10:26:43.345312  1591 net.cpp:406] concat6 <- bn5_relu5_0_split_2
I0806 10:26:43.345319  1591 net.cpp:380] concat6 -> concat6
I0806 10:26:43.345378  1591 net.cpp:122] Setting up concat6
I0806 10:26:43.345391  1591 net.cpp:129] Top shape: 12 960 1 8192 (94371840)
I0806 10:26:43.345396  1591 net.cpp:137] Memory required for data: 2455240704
I0806 10:26:43.345401  1591 layer_factory.hpp:77] Creating layer conv7
I0806 10:26:43.345415  1591 net.cpp:84] Creating Layer conv7
I0806 10:26:43.345420  1591 net.cpp:406] conv7 <- concat6
I0806 10:26:43.345429  1591 net.cpp:380] conv7 -> conv7
I0806 10:26:43.348444  1591 net.cpp:122] Setting up conv7
I0806 10:26:43.348464  1591 net.cpp:129] Top shape: 12 128 1 8192 (12582912)
I0806 10:26:43.348469  1591 net.cpp:137] Memory required for data: 2505572352
I0806 10:26:43.348479  1591 layer_factory.hpp:77] Creating layer bn7
I0806 10:26:43.348495  1591 net.cpp:84] Creating Layer bn7
I0806 10:26:43.348500  1591 net.cpp:406] bn7 <- conv7
I0806 10:26:43.348507  1591 net.cpp:380] bn7 -> bn7
I0806 10:26:43.348742  1591 net.cpp:122] Setting up bn7
I0806 10:26:43.348753  1591 net.cpp:129] Top shape: 12 128 1 8192 (12582912)
I0806 10:26:43.348758  1591 net.cpp:137] Memory required for data: 2555904000
I0806 10:26:43.348767  1591 layer_factory.hpp:77] Creating layer relu7
I0806 10:26:43.348775  1591 net.cpp:84] Creating Layer relu7
I0806 10:26:43.348779  1591 net.cpp:406] relu7 <- bn7
I0806 10:26:43.348788  1591 net.cpp:367] relu7 -> bn7 (in-place)
I0806 10:26:43.349531  1591 net.cpp:122] Setting up relu7
I0806 10:26:43.349550  1591 net.cpp:129] Top shape: 12 128 1 8192 (12582912)
I0806 10:26:43.349555  1591 net.cpp:137] Memory required for data: 2606235648
I0806 10:26:43.349560  1591 layer_factory.hpp:77] Creating layer conv8
I0806 10:26:43.349575  1591 net.cpp:84] Creating Layer conv8
I0806 10:26:43.349581  1591 net.cpp:406] conv8 <- bn7
I0806 10:26:43.349589  1591 net.cpp:380] conv8 -> conv8
I0806 10:26:43.352674  1591 net.cpp:122] Setting up conv8
I0806 10:26:43.352694  1591 net.cpp:129] Top shape: 12 13 1 8192 (1277952)
I0806 10:26:43.352699  1591 net.cpp:137] Memory required for data: 2611347456
I0806 10:26:43.352707  1591 layer_factory.hpp:77] Creating layer conv8_conv8_0_split
I0806 10:26:43.352715  1591 net.cpp:84] Creating Layer conv8_conv8_0_split
I0806 10:26:43.352721  1591 net.cpp:406] conv8_conv8_0_split <- conv8
I0806 10:26:43.352728  1591 net.cpp:380] conv8_conv8_0_split -> conv8_conv8_0_split_0
I0806 10:26:43.352737  1591 net.cpp:380] conv8_conv8_0_split -> conv8_conv8_0_split_1
I0806 10:26:43.352785  1591 net.cpp:122] Setting up conv8_conv8_0_split
I0806 10:26:43.352795  1591 net.cpp:129] Top shape: 12 13 1 8192 (1277952)
I0806 10:26:43.352800  1591 net.cpp:129] Top shape: 12 13 1 8192 (1277952)
I0806 10:26:43.352804  1591 net.cpp:137] Memory required for data: 2621571072
I0806 10:26:43.352807  1591 layer_factory.hpp:77] Creating layer loss
I0806 10:26:43.352852  1591 net.cpp:84] Creating Layer loss
I0806 10:26:43.352862  1591 net.cpp:406] loss <- conv8_conv8_0_split_0
I0806 10:26:43.352870  1591 net.cpp:406] loss <- label_data_1_split_0
I0806 10:26:43.352877  1591 net.cpp:380] loss -> loss
…
