…
I0728 18:41:52.700958 13196 net.cpp:294] The NetState phase (0) differed from the phase (1) specified by a rule in layer data
I0728 18:41:52.703742 13196 net.cpp:51] Initializing net from parameters: 
state {
  phase: TRAIN
}
layer {
  name: "data"
  type: "Python"
  top: "data"
  top: "label"
  include {
    phase: TRAIN
  }
  python_param {
    module: "dataset_lidar"
    layer: "InputShapenet"
    param_str: "{\'sample_size\': 70000, \'test_area\': \'6\', \'batch_size\': 1, \'feat_dims\': \'x_y_z\', \'subset\': \'train\', \'root\': \'../../data/shapenet_ericyi_ply\', \'jitter_xyz\': 0.01, \'jitter_stretch\': 0.05, \'jitter_rotation\': 5.0}"
  }
}
layer {
  name: "data_feat"
  type: "Python"
  bottom: "data"
  top: "data_feat"
  python_param {
    module: "custom_layers"
    layer: "PickAndScale"
    param_str: "0_1_2"
  }
}
layer {
  name: "conv1"
  type: "Convolution"
  bottom: "data_feat"
  top: "conv1"
  param {
    lr_mult: 1
  }
  param {
    lr_mult: 0.1
  }
  convolution_param {
    num_output: 32
    pad: 0
    kernel_size: 1
    stride: 1
    weight_filler {
      type: "xavier"
    }
    bias_filler {
      type: "constant"
      value: 0
    }
  }
}
layer {
  name: "bn1"
  type: "BatchNorm"
  bottom: "conv1"
  top: "bn1"
}
layer {
  name: "relu1"
  type: "ReLU"
  bottom: "bn1"
  top: "bn1"
}
layer {
  name: "fconv1"
  type: "Convolution"
  bottom: "bn1"
  top: "fconv1"
  param {
    lr_mult: 0.5
  }
  param {
    lr_mult: 0.05
  }
  convolution_param {
    num_output: 3
    pad: 0
    kernel_size: 1
    stride: 1
    weight_filler {
      type: "xavier"
    }
    bias_filler {
      type: "constant"
      value: 0
    }
  }
}
layer {
  name: "fbn1"
  type: "BatchNorm"
  bottom: "fconv1"
  top: "fbn1"
}
layer {
  name: "frelu1"
  type: "ReLU"
  bottom: "fbn1"
  top: "fbn1"
}
layer {
  name: "data_lattice0"
  type: "Python"
  bottom: "data"
  top: "data_lattice0"
  python_param {
    module: "custom_layers"
    layer: "PickAndScale"
    param_str: "0*48_1*48_2*48"
  }
}
layer {
  name: "feat1"
  type: "Eltwise"
  bottom: "data_lattice0"
  bottom: "fbn1"
  top: "feat1"
  eltwise_param {
    operation: SUM
  }
}
layer {
  name: "conv2"
  type: "Permutohedral"
  bottom: "bn1"
  bottom: "feat1"
  bottom: "feat1"
  top: "conv2"
  param {
    lr_mult: 1
    decay_mult: 1
  }
  param {
    lr_mult: 2
    decay_mult: 0
  }
  permutohedral_param {
    num_output: 64
    neighborhood_size: 4
    filter_filler {
      type: "gaussian"
      std: 0.001
    }
    bias_term: true
    bias_filler {
      type: "constant"
      value: 0
    }
    group: 1
    norm_type: AFTER
    offset_type: NONE
  }
}
layer {
  name: "bn2"
  type: "BatchNorm"
  bottom: "conv2"
  top: "bn2"
}
layer {
  name: "relu2"
  type: "ReLU"
  bottom: "bn2"
  top: "bn2"
}
layer {
  name: "fconv2"
  type: "Convolution"
  bottom: "bn2"
  top: "fconv2"
  param {
    lr_mult: 0.5
  }
  param {
    lr_mult: 0.05
  }
  convolution_param {
    num_output: 3
    pad: 0
    kernel_size: 1
    stride: 1
    weight_filler {
      type: "xavier"
    }
    bias_filler {
      type: "constant"
      value: 0
    }
  }
}
layer {
  name: "fbn2"
  type: "BatchNorm"
  bottom: "fconv2"
  top: "fbn2"
}
layer {
  name: "frelu2"
  type: "ReLU"
  bottom: "fbn2"
  top: "fbn2"
}
layer {
  name: "data_lattice1"
  type: "Python"
  bottom: "data"
  top: "data_lattice1"
  python_param {
    module: "custom_layers"
    layer: "PickAndScale"
    param_str: "0*24_1*24_2*24"
  }
}
layer {
  name: "feat2"
  type: "Eltwise"
  bottom: "data_lattice1"
  bottom: "fbn2"
  top: "feat2"
  eltwise_param {
    operation: SUM
  }
}
layer {
  name: "conv3"
  type: "Permutohedral"
  bottom: "bn2"
  bottom: "feat2"
  bottom: "feat2"
  top: "conv3"
  param {
    lr_mult: 1
    decay_mult: 1
  }
  param {
    lr_mult: 2
    decay_mult: 0
  }
  permutohedral_param {
    num_output: 128
    neighborhood_size: 4
    filter_filler {
      type: "gaussian"
      std: 0.001
    }
    bias_term: true
    bias_filler {
      type: "constant"
      value: 0
    }
    group: 1
    norm_type: AFTER
    offset_type: NONE
  }
}
layer {
  name: "bn3"
  type: "BatchNorm"
  bottom: "conv3"
  top: "bn3"
}
layer {
  name: "relu3"
  type: "ReLU"
  bottom: "bn3"
  top: "bn3"
}
layer {
  name: "fconv3"
  type: "Convolution"
  bottom: "bn3"
  top: "fconv3"
  param {
    lr_mult: 0.5
  }
  param {
    lr_mult: 0.05
  }
  convolution_param {
    num_output: 3
    pad: 0
    kernel_size: 1
    stride: 1
    weight_filler {
      type: "xavier"
    }
    bias_filler {
      type: "constant"
      value: 0
    }
  }
}
layer {
  name: "fbn3"
  type: "BatchNorm"
  bottom: "fconv3"
  top: "fbn3"
}
layer {
  name: "frelu3"
  type: "ReLU"
  bottom: "fbn3"
  top: "fbn3"
}
layer {
  name: "data_lattice2"
  type: "Python"
  bottom: "data"
  top: "data_lattice2"
  python_param {
    module: "custom_layers"
    layer: "PickAndScale"
    param_str: "0*12_1*12_2*12"
  }
}
layer {
  name: "feat3"
  type: "Eltwise"
  bottom: "data_lattice2"
  bottom: "fbn3"
  top: "feat3"
  eltwise_param {
    operation: SUM
  }
}
layer {
  name: "conv4"
  type: "Permutohedral"
  bottom: "bn3"
  bottom: "feat3"
  bottom: "feat3"
  top: "conv4"
  param {
    lr_mult: 1
    decay_mult: 1
  }
  param {
    lr_mult: 2
    decay_mult: 0
  }
  permutohedral_param {
    num_output: 256
    neighborhood_size: 2
    filter_filler {
      type: "gaussian"
      std: 0.001
    }
    bias_term: true
    bias_filler {
      type: "constant"
      value: 0
    }
    group: 1
    norm_type: AFTER
    offset_type: NONE
  }
}
layer {
  name: "bn4"
  type: "BatchNorm"
  bottom: "conv4"
  top: "bn4"
}
layer {
  name: "relu4"
  type: "ReLU"
  bottom: "bn4"
  top: "bn4"
}
layer {
  name: "fconv4"
  type: "Convolution"
  bottom: "bn4"
  top: "fconv4"
  param {
    lr_mult: 0.5
  }
  param {
    lr_mult: 0.05
  }
  convolution_param {
    num_output: 3
    pad: 0
    kernel_size: 1
    stride: 1
    weight_filler {
      type: "xavier"
    }
    bias_filler {
      type: "constant"
      value: 0
    }
  }
}
layer {
  name: "fbn4"
  type: "BatchNorm"
  bottom: "fconv4"
  top: "fbn4"
}
layer {
  name: "frelu4"
  type: "ReLU"
  bottom: "fbn4"
  top: "fbn4"
}
layer {
  name: "data_lattice3"
  type: "Python"
  bottom: "data"
  top: "data_lattice3"
  python_param {
    module: "custom_layers"
    layer: "PickAndScale"
    param_str: "0*6_1*6_2*6"
  }
}
layer {
  name: "feat4"
  type: "Eltwise"
  bottom: "data_lattice3"
  bottom: "fbn4"
  top: "feat4"
  eltwise_param {
    operation: SUM
  }
}
layer {
  name: "conv5"
  type: "Permutohedral"
  bottom: "bn4"
  bottom: "feat4"
  bottom: "feat4"
  top: "conv5"
  param {
    lr_mult: 1
    decay_mult: 1
  }
  param {
    lr_mult: 2
    decay_mult: 0
  }
  permutohedral_param {
    num_output: 256
    neighborhood_size: 2
    filter_filler {
      type: "gaussian"
      std: 0.001
    }
    bias_term: true
    bias_filler {
      type: "constant"
      value: 0
    }
    group: 1
    norm_type: AFTER
    offset_type: NONE
  }
}
layer {
  name: "bn5"
  type: "BatchNorm"
  bottom: "conv5"
  top: "bn5"
}
layer {
  name: "relu5"
  type: "ReLU"
  bottom: "bn5"
  top: "bn5"
}
layer {
  name: "fconv5"
  type: "Convolution"
  bottom: "bn5"
  top: "fconv5"
  param {
    lr_mult: 0.5
  }
  param {
    lr_mult: 0.05
  }
  convolution_param {
    num_output: 3
    pad: 0
    kernel_size: 1
    stride: 1
    weight_filler {
      type: "xavier"
    }
    bias_filler {
      type: "constant"
      value: 0
    }
  }
}
layer {
  name: "fbn5"
  type: "BatchNorm"
  bottom: "fconv5"
  top: "fbn5"
}
layer {
  name: "frelu5"
  type: "ReLU"
  bottom: "fbn5"
  top: "fbn5"
}
layer {
  name: "data_lattice4"
  type: "Python"
  bottom: "data"
  top: "data_lattice4"
  python_param {
    module: "custom_layers"
    layer: "PickAndScale"
    param_str: "0*3_1*3_2*3"
  }
}
layer {
  name: "feat5"
  type: "Eltwise"
  bottom: "data_lattice4"
  bottom: "fbn5"
  top: "feat5"
  eltwise_param {
    operation: SUM
  }
}
layer {
  name: "conv6"
  type: "Permutohedral"
  bottom: "bn5"
  bottom: "feat5"
  bottom: "feat5"
  top: "conv6"
  param {
    lr_mult: 1
    decay_mult: 1
  }
  param {
    lr_mult: 2
    decay_mult: 0
  }
  permutohedral_param {
    num_output: 256
    neighborhood_size: 1
    filter_filler {
      type: "gaussian"
      std: 0.001
    }
    bias_term: true
    bias_filler {
      type: "constant"
      value: 0
    }
    group: 1
    norm_type: AFTER
    offset_type: NONE
  }
}
layer {
  name: "bn6"
  type: "BatchNorm"
  bottom: "conv6"
  top: "bn6"
}
layer {
  name: "relu6"
  type: "ReLU"
  bottom: "bn6"
  top: "bn6"
}
layer {
  name: "concat6"
  type: "Concat"
  bottom: "bn6"
  bottom: "bn2"
  bottom: "bn3"
  bottom: "bn4"
  bottom: "bn5"
  top: "concat6"
}
layer {
  name: "conv7"
  type: "Convolution"
  bottom: "concat6"
  top: "conv7"
  param {
    lr_mult: 1
  }
  param {
    lr_mult: 0.1
  }
  convolution_param {
    num_output: 128
    pad: 0
    kernel_size: 1
    stride: 1
    weight_filler {
      type: "xavier"
    }
    bias_filler {
      type: "constant"
      value: 0
    }
  }
}
layer {
  name: "bn7"
  type: "BatchNorm"
  bottom: "conv7"
  top: "bn7"
}
layer {
  name: "relu7"
  type: "ReLU"
  bottom: "bn7"
  top: "bn7"
}
layer {
  name: "conv8"
  type: "Convolution"
  bottom: "bn7"
  top: "conv8"
  param {
    lr_mult: 1
  }
  param {
    lr_mult: 0.1
  }
  convolution_param {
    num_output: 13
    pad: 0
    kernel_size: 1
    stride: 1
    weight_filler {
      type: "xavier"
    }
    bias_filler {
      type: "constant"
      value: 0
    }
  }
}
layer {
  name: "loss"
  type: "SoftmaxWithLoss"
  bottom: "conv8"
  bottom: "label"
  top: "loss"
}
layer {
  name: "accuracy"
  type: "Accuracy"
  bottom: "conv8"
  bottom: "label"
  top: "accuracy"
}
I0728 18:41:52.735854 13196 layer_factory.hpp:77] Creating layer data
I0728 18:41:52.757823 13196 net.cpp:84] Creating Layer data
I0728 18:41:52.757899 13196 net.cpp:380] data -> data
I0728 18:41:52.758076 13196 net.cpp:380] data -> label
I0728 18:41:53.196877 13200 upgrade_proto.cpp:1084] Attempting to upgrade input file specified using deprecated 'solver_type' field (enum)': /mnt/lustre/wangjiayun/repos/splatnet/exp/lidar3d/area6/6_solver.prototxt
…
I0728 18:41:53.239856 13198 upgrade_proto.cpp:1084] Attempting to upgrade input file specified using deprecated 'solver_type' field (enum)': /mnt/lustre/wangjiayun/repos/splatnet/exp/lidar3d/area6/6_solver.prototxt
I0728 18:41:53.239938 13198 upgrade_proto.cpp:1091] Successfully upgraded file specified using deprecated 'solver_type' field (enum) to 'type' field (string).
W0728 18:41:53.239943 13198 upgrade_proto.cpp:1093] Note that future Caffe releases will only support 'type' field (string) for a solver's type.
I0728 18:48:34.623020 13196 net.cpp:122] Setting up data
I0728 18:48:34.623123 13196 net.cpp:129] Top shape: 1 3 1 70000 (210000)
I0728 18:48:34.623144 13196 net.cpp:129] Top shape: 1 1 1 70000 (70000)
I0728 18:48:34.623148 13196 net.cpp:137] Memory required for data: 1120000
I0728 18:48:34.623170 13196 layer_factory.hpp:77] Creating layer data_data_0_split
I0728 18:48:34.623232 13196 net.cpp:84] Creating Layer data_data_0_split
I0728 18:48:34.623252 13196 net.cpp:406] data_data_0_split <- data
I0728 18:48:34.623275 13196 net.cpp:380] data_data_0_split -> data_data_0_split_0
I0728 18:48:34.623296 13196 net.cpp:380] data_data_0_split -> data_data_0_split_1
I0728 18:48:34.623306 13196 net.cpp:380] data_data_0_split -> data_data_0_split_2
I0728 18:48:34.623313 13196 net.cpp:380] data_data_0_split -> data_data_0_split_3
I0728 18:48:34.623319 13196 net.cpp:380] data_data_0_split -> data_data_0_split_4
I0728 18:48:34.623325 13196 net.cpp:380] data_data_0_split -> data_data_0_split_5
I0728 18:48:34.623421 13196 net.cpp:122] Setting up data_data_0_split
I0728 18:48:34.623443 13196 net.cpp:129] Top shape: 1 3 1 70000 (210000)
I0728 18:48:34.623457 13196 net.cpp:129] Top shape: 1 3 1 70000 (210000)
I0728 18:48:34.623461 13196 net.cpp:129] Top shape: 1 3 1 70000 (210000)
I0728 18:48:34.623466 13196 net.cpp:129] Top shape: 1 3 1 70000 (210000)
I0728 18:48:34.623469 13196 net.cpp:129] Top shape: 1 3 1 70000 (210000)
I0728 18:48:34.623472 13196 net.cpp:129] Top shape: 1 3 1 70000 (210000)
I0728 18:48:34.623476 13196 net.cpp:137] Memory required for data: 6160000
I0728 18:48:34.623478 13196 layer_factory.hpp:77] Creating layer label_data_1_split
I0728 18:48:34.623484 13196 net.cpp:84] Creating Layer label_data_1_split
I0728 18:48:34.623487 13196 net.cpp:406] label_data_1_split <- label
I0728 18:48:34.623493 13196 net.cpp:380] label_data_1_split -> label_data_1_split_0
I0728 18:48:34.623500 13196 net.cpp:380] label_data_1_split -> label_data_1_split_1
I0728 18:48:34.623543 13196 net.cpp:122] Setting up label_data_1_split
I0728 18:48:34.623550 13196 net.cpp:129] Top shape: 1 1 1 70000 (70000)
I0728 18:48:34.623553 13196 net.cpp:129] Top shape: 1 1 1 70000 (70000)
I0728 18:48:34.623556 13196 net.cpp:137] Memory required for data: 6720000
I0728 18:48:34.623559 13196 layer_factory.hpp:77] Creating layer data_feat
I0728 18:48:34.627780 13196 net.cpp:84] Creating Layer data_feat
I0728 18:48:34.627794 13196 net.cpp:406] data_feat <- data_data_0_split_0
I0728 18:48:34.627813 13196 net.cpp:380] data_feat -> data_feat
I0728 18:48:34.629331 13196 net.cpp:122] Setting up data_feat
I0728 18:48:34.629359 13196 net.cpp:129] Top shape: 1 3 1 70000 (210000)
I0728 18:48:34.629362 13196 net.cpp:137] Memory required for data: 7560000
I0728 18:48:34.629366 13196 layer_factory.hpp:77] Creating layer conv1
I0728 18:48:34.629410 13196 net.cpp:84] Creating Layer conv1
I0728 18:48:34.629417 13196 net.cpp:406] conv1 <- data_feat
I0728 18:48:34.629423 13196 net.cpp:380] conv1 -> conv1
I0728 18:48:36.264276 13196 net.cpp:122] Setting up conv1
I0728 18:48:36.264396 13196 net.cpp:129] Top shape: 1 32 1 70000 (2240000)
I0728 18:48:36.264408 13196 net.cpp:137] Memory required for data: 16520000
I0728 18:48:36.264930 13196 layer_factory.hpp:77] Creating layer bn1
I0728 18:48:36.275427 13196 net.cpp:84] Creating Layer bn1
I0728 18:48:36.275467 13196 net.cpp:406] bn1 <- conv1
I0728 18:48:36.275490 13196 net.cpp:380] bn1 -> bn1
I0728 18:48:36.312183 13196 net.cpp:122] Setting up bn1
I0728 18:48:36.312222 13196 net.cpp:129] Top shape: 1 32 1 70000 (2240000)
I0728 18:48:36.312232 13196 net.cpp:137] Memory required for data: 25480000
I0728 18:48:36.312258 13196 layer_factory.hpp:77] Creating layer relu1
I0728 18:48:36.312870 13196 net.cpp:84] Creating Layer relu1
I0728 18:48:36.312904 13196 net.cpp:406] relu1 <- bn1
I0728 18:48:36.312922 13196 net.cpp:367] relu1 -> bn1 (in-place)
I0728 18:48:36.314098 13196 net.cpp:122] Setting up relu1
I0728 18:48:36.314137 13196 net.cpp:129] Top shape: 1 32 1 70000 (2240000)
I0728 18:48:36.314147 13196 net.cpp:137] Memory required for data: 34440000
I0728 18:48:36.314157 13196 layer_factory.hpp:77] Creating layer bn1_relu1_0_split
I0728 18:48:36.314173 13196 net.cpp:84] Creating Layer bn1_relu1_0_split
I0728 18:48:36.314182 13196 net.cpp:406] bn1_relu1_0_split <- bn1
I0728 18:48:36.314198 13196 net.cpp:380] bn1_relu1_0_split -> bn1_relu1_0_split_0
I0728 18:48:36.314214 13196 net.cpp:380] bn1_relu1_0_split -> bn1_relu1_0_split_1
I0728 18:48:36.314306 13196 net.cpp:122] Setting up bn1_relu1_0_split
I0728 18:48:36.314326 13196 net.cpp:129] Top shape: 1 32 1 70000 (2240000)
I0728 18:48:36.314334 13196 net.cpp:129] Top shape: 1 32 1 70000 (2240000)
I0728 18:48:36.314342 13196 net.cpp:137] Memory required for data: 52360000
I0728 18:48:36.314348 13196 layer_factory.hpp:77] Creating layer fconv1
I0728 18:48:36.314393 13196 net.cpp:84] Creating Layer fconv1
I0728 18:48:36.314405 13196 net.cpp:406] fconv1 <- bn1_relu1_0_split_0
I0728 18:48:36.314421 13196 net.cpp:380] fconv1 -> fconv1
I0728 18:48:36.319788 13196 net.cpp:122] Setting up fconv1
I0728 18:48:36.319826 13196 net.cpp:129] Top shape: 1 3 1 70000 (210000)
I0728 18:48:36.319838 13196 net.cpp:137] Memory required for data: 53200000
I0728 18:48:36.319854 13196 layer_factory.hpp:77] Creating layer fbn1
I0728 18:48:36.319870 13196 net.cpp:84] Creating Layer fbn1
I0728 18:48:36.319880 13196 net.cpp:406] fbn1 <- fconv1
I0728 18:48:36.319893 13196 net.cpp:380] fbn1 -> fbn1
I0728 18:48:36.320466 13196 net.cpp:122] Setting up fbn1
I0728 18:48:36.320489 13196 net.cpp:129] Top shape: 1 3 1 70000 (210000)
I0728 18:48:36.320497 13196 net.cpp:137] Memory required for data: 54040000
I0728 18:48:36.320533 13196 layer_factory.hpp:77] Creating layer frelu1
I0728 18:48:36.320547 13196 net.cpp:84] Creating Layer frelu1
I0728 18:48:36.320556 13196 net.cpp:406] frelu1 <- fbn1
I0728 18:48:36.320569 13196 net.cpp:367] frelu1 -> fbn1 (in-place)
I0728 18:48:36.321204 13196 net.cpp:122] Setting up frelu1
I0728 18:48:36.321231 13196 net.cpp:129] Top shape: 1 3 1 70000 (210000)
I0728 18:48:36.321240 13196 net.cpp:137] Memory required for data: 54880000
I0728 18:48:36.321264 13196 layer_factory.hpp:77] Creating layer data_lattice0
I0728 18:48:36.321483 13196 net.cpp:84] Creating Layer data_lattice0
I0728 18:48:36.321503 13196 net.cpp:406] data_lattice0 <- data_data_0_split_1
I0728 18:48:36.321542 13196 net.cpp:380] data_lattice0 -> data_lattice0
I0728 18:48:36.324337 13196 net.cpp:122] Setting up data_lattice0
I0728 18:48:36.324370 13196 net.cpp:129] Top shape: 1 3 1 70000 (210000)
I0728 18:48:36.324379 13196 net.cpp:137] Memory required for data: 55720000
I0728 18:48:36.324388 13196 layer_factory.hpp:77] Creating layer feat1
I0728 18:48:36.324458 13196 net.cpp:84] Creating Layer feat1
I0728 18:48:36.324478 13196 net.cpp:406] feat1 <- data_lattice0
I0728 18:48:36.324489 13196 net.cpp:406] feat1 <- fbn1
I0728 18:48:36.324501 13196 net.cpp:380] feat1 -> feat1
I0728 18:48:36.324652 13196 net.cpp:122] Setting up feat1
I0728 18:48:36.324676 13196 net.cpp:129] Top shape: 1 3 1 70000 (210000)
I0728 18:48:36.324683 13196 net.cpp:137] Memory required for data: 56560000
I0728 18:48:36.324690 13196 layer_factory.hpp:77] Creating layer feat1_feat1_0_split
I0728 18:48:36.324703 13196 net.cpp:84] Creating Layer feat1_feat1_0_split
I0728 18:48:36.324712 13196 net.cpp:406] feat1_feat1_0_split <- feat1
I0728 18:48:36.324740 13196 net.cpp:380] feat1_feat1_0_split -> feat1_feat1_0_split_0
I0728 18:48:36.324759 13196 net.cpp:380] feat1_feat1_0_split -> feat1_feat1_0_split_1
I0728 18:48:36.324833 13196 net.cpp:122] Setting up feat1_feat1_0_split
I0728 18:48:36.324849 13196 net.cpp:129] Top shape: 1 3 1 70000 (210000)
I0728 18:48:36.324858 13196 net.cpp:129] Top shape: 1 3 1 70000 (210000)
I0728 18:48:36.324864 13196 net.cpp:137] Memory required for data: 58240000
I0728 18:48:36.324870 13196 layer_factory.hpp:77] Creating layer conv2
I0728 18:48:36.324923 13196 net.cpp:84] Creating Layer conv2
I0728 18:48:36.324939 13196 net.cpp:406] conv2 <- bn1_relu1_0_split_1
I0728 18:48:36.324949 13196 net.cpp:406] conv2 <- feat1_feat1_0_split_0
I0728 18:48:36.324959 13196 net.cpp:406] conv2 <- feat1_feat1_0_split_1
I0728 18:48:36.324970 13196 net.cpp:380] conv2 -> conv2
I0728 18:48:36.381868 13196 net.cpp:122] Setting up conv2
I0728 18:48:36.381903 13196 net.cpp:129] Top shape: 1 64 1 70000 (4480000)
I0728 18:48:36.381911 13196 net.cpp:137] Memory required for data: 76160000
I0728 18:48:36.381922 13196 layer_factory.hpp:77] Creating layer bn2
I0728 18:48:36.381934 13196 net.cpp:84] Creating Layer bn2
I0728 18:48:36.381942 13196 net.cpp:406] bn2 <- conv2
I0728 18:48:36.381952 13196 net.cpp:380] bn2 -> bn2
I0728 18:48:36.382376 13196 net.cpp:122] Setting up bn2
I0728 18:48:36.382392 13196 net.cpp:129] Top shape: 1 64 1 70000 (4480000)
I0728 18:48:36.382397 13196 net.cpp:137] Memory required for data: 94080000
I0728 18:48:36.382421 13196 layer_factory.hpp:77] Creating layer relu2
I0728 18:48:36.382447 13196 net.cpp:84] Creating Layer relu2
I0728 18:48:36.382453 13196 net.cpp:406] relu2 <- bn2
I0728 18:48:36.382462 13196 net.cpp:367] relu2 -> bn2 (in-place)
I0728 18:48:36.384019 13196 net.cpp:122] Setting up relu2
I0728 18:48:36.384045 13196 net.cpp:129] Top shape: 1 64 1 70000 (4480000)
I0728 18:48:36.384052 13196 net.cpp:137] Memory required for data: 112000000
I0728 18:48:36.384058 13196 layer_factory.hpp:77] Creating layer bn2_relu2_0_split
I0728 18:48:36.384069 13196 net.cpp:84] Creating Layer bn2_relu2_0_split
I0728 18:48:36.384075 13196 net.cpp:406] bn2_relu2_0_split <- bn2
I0728 18:48:36.384085 13196 net.cpp:380] bn2_relu2_0_split -> bn2_relu2_0_split_0
I0728 18:48:36.384097 13196 net.cpp:380] bn2_relu2_0_split -> bn2_relu2_0_split_1
I0728 18:48:36.384107 13196 net.cpp:380] bn2_relu2_0_split -> bn2_relu2_0_split_2
I0728 18:48:36.384191 13196 net.cpp:122] Setting up bn2_relu2_0_split
I0728 18:48:36.384204 13196 net.cpp:129] Top shape: 1 64 1 70000 (4480000)
I0728 18:48:36.384212 13196 net.cpp:129] Top shape: 1 64 1 70000 (4480000)
I0728 18:48:36.384217 13196 net.cpp:129] Top shape: 1 64 1 70000 (4480000)
I0728 18:48:36.384222 13196 net.cpp:137] Memory required for data: 165760000
I0728 18:48:36.384228 13196 layer_factory.hpp:77] Creating layer fconv2
I0728 18:48:36.384244 13196 net.cpp:84] Creating Layer fconv2
I0728 18:48:36.384251 13196 net.cpp:406] fconv2 <- bn2_relu2_0_split_0
I0728 18:48:36.384263 13196 net.cpp:380] fconv2 -> fconv2
I0728 18:48:36.387707 13196 net.cpp:122] Setting up fconv2
I0728 18:48:36.387735 13196 net.cpp:129] Top shape: 1 3 1 70000 (210000)
I0728 18:48:36.387742 13196 net.cpp:137] Memory required for data: 166600000
I0728 18:48:36.387763 13196 layer_factory.hpp:77] Creating layer fbn2
I0728 18:48:36.387774 13196 net.cpp:84] Creating Layer fbn2
I0728 18:48:36.387781 13196 net.cpp:406] fbn2 <- fconv2
I0728 18:48:36.387791 13196 net.cpp:380] fbn2 -> fbn2
I0728 18:48:36.388218 13196 net.cpp:122] Setting up fbn2
I0728 18:48:36.388234 13196 net.cpp:129] Top shape: 1 3 1 70000 (210000)
I0728 18:48:36.388240 13196 net.cpp:137] Memory required for data: 167440000
I0728 18:48:36.388265 13196 layer_factory.hpp:77] Creating layer frelu2
I0728 18:48:36.388283 13196 net.cpp:84] Creating Layer frelu2
I0728 18:48:36.388290 13196 net.cpp:406] frelu2 <- fbn2
I0728 18:48:36.388298 13196 net.cpp:367] frelu2 -> fbn2 (in-place)
I0728 18:48:36.388784 13196 net.cpp:122] Setting up frelu2
I0728 18:48:36.388806 13196 net.cpp:129] Top shape: 1 3 1 70000 (210000)
I0728 18:48:36.388813 13196 net.cpp:137] Memory required for data: 168280000
I0728 18:48:36.388818 13196 layer_factory.hpp:77] Creating layer data_lattice1
I0728 18:48:36.388886 13196 net.cpp:84] Creating Layer data_lattice1
I0728 18:48:36.388900 13196 net.cpp:406] data_lattice1 <- data_data_0_split_2
I0728 18:48:36.388914 13196 net.cpp:380] data_lattice1 -> data_lattice1
I0728 18:48:36.390956 13196 net.cpp:122] Setting up data_lattice1
I0728 18:48:36.390983 13196 net.cpp:129] Top shape: 1 3 1 70000 (210000)
I0728 18:48:36.390990 13196 net.cpp:137] Memory required for data: 169120000
I0728 18:48:36.390997 13196 layer_factory.hpp:77] Creating layer feat2
I0728 18:48:36.391022 13196 net.cpp:84] Creating Layer feat2
I0728 18:48:36.391031 13196 net.cpp:406] feat2 <- data_lattice1
I0728 18:48:36.391039 13196 net.cpp:406] feat2 <- fbn2
I0728 18:48:36.391048 13196 net.cpp:380] feat2 -> feat2
I0728 18:48:36.391096 13196 net.cpp:122] Setting up feat2
I0728 18:48:36.391109 13196 net.cpp:129] Top shape: 1 3 1 70000 (210000)
I0728 18:48:36.391114 13196 net.cpp:137] Memory required for data: 169960000
I0728 18:48:36.391119 13196 layer_factory.hpp:77] Creating layer feat2_feat2_0_split
I0728 18:48:36.391129 13196 net.cpp:84] Creating Layer feat2_feat2_0_split
I0728 18:48:36.391136 13196 net.cpp:406] feat2_feat2_0_split <- feat2
I0728 18:48:36.391146 13196 net.cpp:380] feat2_feat2_0_split -> feat2_feat2_0_split_0
I0728 18:48:36.391156 13196 net.cpp:380] feat2_feat2_0_split -> feat2_feat2_0_split_1
I0728 18:48:36.391211 13196 net.cpp:122] Setting up feat2_feat2_0_split
I0728 18:48:36.391222 13196 net.cpp:129] Top shape: 1 3 1 70000 (210000)
I0728 18:48:36.391229 13196 net.cpp:129] Top shape: 1 3 1 70000 (210000)
I0728 18:48:36.391234 13196 net.cpp:137] Memory required for data: 171640000
I0728 18:48:36.391248 13196 layer_factory.hpp:77] Creating layer conv3
I0728 18:48:36.391261 13196 net.cpp:84] Creating Layer conv3
I0728 18:48:36.391268 13196 net.cpp:406] conv3 <- bn2_relu2_0_split_1
I0728 18:48:36.391276 13196 net.cpp:406] conv3 <- feat2_feat2_0_split_0
I0728 18:48:36.391283 13196 net.cpp:406] conv3 <- feat2_feat2_0_split_1
I0728 18:48:36.391293 13196 net.cpp:380] conv3 -> conv3
I0728 18:48:36.514181 13196 net.cpp:122] Setting up conv3
I0728 18:48:36.514226 13196 net.cpp:129] Top shape: 1 128 1 70000 (8960000)
I0728 18:48:36.514232 13196 net.cpp:137] Memory required for data: 207480000
I0728 18:48:36.514245 13196 layer_factory.hpp:77] Creating layer bn3
I0728 18:48:36.514259 13196 net.cpp:84] Creating Layer bn3
I0728 18:48:36.514266 13196 net.cpp:406] bn3 <- conv3
I0728 18:48:36.514276 13196 net.cpp:380] bn3 -> bn3
I0728 18:48:36.514597 13196 net.cpp:122] Setting up bn3
I0728 18:48:36.514609 13196 net.cpp:129] Top shape: 1 128 1 70000 (8960000)
I0728 18:48:36.514613 13196 net.cpp:137] Memory required for data: 243320000
I0728 18:48:36.514622 13196 layer_factory.hpp:77] Creating layer relu3
I0728 18:48:36.514631 13196 net.cpp:84] Creating Layer relu3
I0728 18:48:36.514636 13196 net.cpp:406] relu3 <- bn3
I0728 18:48:36.514642 13196 net.cpp:367] relu3 -> bn3 (in-place)
I0728 18:48:36.515610 13196 net.cpp:122] Setting up relu3
I0728 18:48:36.515628 13196 net.cpp:129] Top shape: 1 128 1 70000 (8960000)
I0728 18:48:36.515633 13196 net.cpp:137] Memory required for data: 279160000
I0728 18:48:36.515637 13196 layer_factory.hpp:77] Creating layer bn3_relu3_0_split
I0728 18:48:36.515661 13196 net.cpp:84] Creating Layer bn3_relu3_0_split
I0728 18:48:36.515667 13196 net.cpp:406] bn3_relu3_0_split <- bn3
I0728 18:48:36.515676 13196 net.cpp:380] bn3_relu3_0_split -> bn3_relu3_0_split_0
I0728 18:48:36.515684 13196 net.cpp:380] bn3_relu3_0_split -> bn3_relu3_0_split_1
I0728 18:48:36.515691 13196 net.cpp:380] bn3_relu3_0_split -> bn3_relu3_0_split_2
I0728 18:48:36.515753 13196 net.cpp:122] Setting up bn3_relu3_0_split
I0728 18:48:36.515761 13196 net.cpp:129] Top shape: 1 128 1 70000 (8960000)
I0728 18:48:36.515767 13196 net.cpp:129] Top shape: 1 128 1 70000 (8960000)
I0728 18:48:36.515771 13196 net.cpp:129] Top shape: 1 128 1 70000 (8960000)
I0728 18:48:36.515774 13196 net.cpp:137] Memory required for data: 386680000
I0728 18:48:36.515779 13196 layer_factory.hpp:77] Creating layer fconv3
I0728 18:48:36.515799 13196 net.cpp:84] Creating Layer fconv3
I0728 18:48:36.515807 13196 net.cpp:406] fconv3 <- bn3_relu3_0_split_0
I0728 18:48:36.515816 13196 net.cpp:380] fconv3 -> fconv3
I0728 18:48:36.529949 13196 net.cpp:122] Setting up fconv3
I0728 18:48:36.529968 13196 net.cpp:129] Top shape: 1 3 1 70000 (210000)
I0728 18:48:36.529973 13196 net.cpp:137] Memory required for data: 387520000
I0728 18:48:36.529983 13196 layer_factory.hpp:77] Creating layer fbn3
I0728 18:48:36.529991 13196 net.cpp:84] Creating Layer fbn3
I0728 18:48:36.529996 13196 net.cpp:406] fbn3 <- fconv3
I0728 18:48:36.530004 13196 net.cpp:380] fbn3 -> fbn3
I0728 18:48:36.530323 13196 net.cpp:122] Setting up fbn3
I0728 18:48:36.530334 13196 net.cpp:129] Top shape: 1 3 1 70000 (210000)
I0728 18:48:36.530339 13196 net.cpp:137] Memory required for data: 388360000
I0728 18:48:36.530346 13196 layer_factory.hpp:77] Creating layer frelu3
I0728 18:48:36.530354 13196 net.cpp:84] Creating Layer frelu3
I0728 18:48:36.530359 13196 net.cpp:406] frelu3 <- fbn3
I0728 18:48:36.530364 13196 net.cpp:367] frelu3 -> fbn3 (in-place)
I0728 18:48:36.530716 13196 net.cpp:122] Setting up frelu3
I0728 18:48:36.530730 13196 net.cpp:129] Top shape: 1 3 1 70000 (210000)
I0728 18:48:36.530735 13196 net.cpp:137] Memory required for data: 389200000
I0728 18:48:36.530740 13196 layer_factory.hpp:77] Creating layer data_lattice2
I0728 18:48:36.530827 13196 net.cpp:84] Creating Layer data_lattice2
I0728 18:48:36.530836 13196 net.cpp:406] data_lattice2 <- data_data_0_split_3
I0728 18:48:36.530845 13196 net.cpp:380] data_lattice2 -> data_lattice2
I0728 18:48:36.532392 13196 net.cpp:122] Setting up data_lattice2
I0728 18:48:36.532413 13196 net.cpp:129] Top shape: 1 3 1 70000 (210000)
I0728 18:48:36.532418 13196 net.cpp:137] Memory required for data: 390040000
I0728 18:48:36.532423 13196 layer_factory.hpp:77] Creating layer feat3
I0728 18:48:36.532438 13196 net.cpp:84] Creating Layer feat3
I0728 18:48:36.532444 13196 net.cpp:406] feat3 <- data_lattice2
I0728 18:48:36.532450 13196 net.cpp:406] feat3 <- fbn3
I0728 18:48:36.532459 13196 net.cpp:380] feat3 -> feat3
I0728 18:48:36.532493 13196 net.cpp:122] Setting up feat3
I0728 18:48:36.532500 13196 net.cpp:129] Top shape: 1 3 1 70000 (210000)
I0728 18:48:36.532505 13196 net.cpp:137] Memory required for data: 390880000
I0728 18:48:36.532515 13196 layer_factory.hpp:77] Creating layer feat3_feat3_0_split
I0728 18:48:36.532522 13196 net.cpp:84] Creating Layer feat3_feat3_0_split
I0728 18:48:36.532526 13196 net.cpp:406] feat3_feat3_0_split <- feat3
I0728 18:48:36.532532 13196 net.cpp:380] feat3_feat3_0_split -> feat3_feat3_0_split_0
I0728 18:48:36.532541 13196 net.cpp:380] feat3_feat3_0_split -> feat3_feat3_0_split_1
I0728 18:48:36.532582 13196 net.cpp:122] Setting up feat3_feat3_0_split
I0728 18:48:36.532590 13196 net.cpp:129] Top shape: 1 3 1 70000 (210000)
I0728 18:48:36.532595 13196 net.cpp:129] Top shape: 1 3 1 70000 (210000)
I0728 18:48:36.532598 13196 net.cpp:137] Memory required for data: 392560000
I0728 18:48:36.532603 13196 layer_factory.hpp:77] Creating layer conv4
I0728 18:48:36.532611 13196 net.cpp:84] Creating Layer conv4
I0728 18:48:36.532616 13196 net.cpp:406] conv4 <- bn3_relu3_0_split_1
I0728 18:48:36.532621 13196 net.cpp:406] conv4 <- feat3_feat3_0_split_0
I0728 18:48:36.532626 13196 net.cpp:406] conv4 <- feat3_feat3_0_split_1
I0728 18:48:36.532632 13196 net.cpp:380] conv4 -> conv4
I0728 18:48:36.612817 13196 net.cpp:122] Setting up conv4
I0728 18:48:36.612860 13196 net.cpp:129] Top shape: 1 256 1 70000 (17920000)
I0728 18:48:36.612865 13196 net.cpp:137] Memory required for data: 464240000
I0728 18:48:36.612879 13196 layer_factory.hpp:77] Creating layer bn4
I0728 18:48:36.612911 13196 net.cpp:84] Creating Layer bn4
I0728 18:48:36.612918 13196 net.cpp:406] bn4 <- conv4
I0728 18:48:36.612928 13196 net.cpp:380] bn4 -> bn4
I0728 18:48:36.613250 13196 net.cpp:122] Setting up bn4
I0728 18:48:36.613260 13196 net.cpp:129] Top shape: 1 256 1 70000 (17920000)
I0728 18:48:36.613265 13196 net.cpp:137] Memory required for data: 535920000
I0728 18:48:36.613283 13196 layer_factory.hpp:77] Creating layer relu4
I0728 18:48:36.613299 13196 net.cpp:84] Creating Layer relu4
I0728 18:48:36.613304 13196 net.cpp:406] relu4 <- bn4
I0728 18:48:36.613310 13196 net.cpp:367] relu4 -> bn4 (in-place)
I0728 18:48:36.614226 13196 net.cpp:122] Setting up relu4
I0728 18:48:36.614244 13196 net.cpp:129] Top shape: 1 256 1 70000 (17920000)
I0728 18:48:36.614249 13196 net.cpp:137] Memory required for data: 607600000
I0728 18:48:36.614253 13196 layer_factory.hpp:77] Creating layer bn4_relu4_0_split
I0728 18:48:36.614262 13196 net.cpp:84] Creating Layer bn4_relu4_0_split
I0728 18:48:36.614267 13196 net.cpp:406] bn4_relu4_0_split <- bn4
I0728 18:48:36.614275 13196 net.cpp:380] bn4_relu4_0_split -> bn4_relu4_0_split_0
I0728 18:48:36.614284 13196 net.cpp:380] bn4_relu4_0_split -> bn4_relu4_0_split_1
I0728 18:48:36.614291 13196 net.cpp:380] bn4_relu4_0_split -> bn4_relu4_0_split_2
I0728 18:48:36.614354 13196 net.cpp:122] Setting up bn4_relu4_0_split
I0728 18:48:36.614363 13196 net.cpp:129] Top shape: 1 256 1 70000 (17920000)
I0728 18:48:36.614367 13196 net.cpp:129] Top shape: 1 256 1 70000 (17920000)
I0728 18:48:36.614372 13196 net.cpp:129] Top shape: 1 256 1 70000 (17920000)
I0728 18:48:36.614375 13196 net.cpp:137] Memory required for data: 822640000
I0728 18:48:36.614379 13196 layer_factory.hpp:77] Creating layer fconv4
I0728 18:48:36.614392 13196 net.cpp:84] Creating Layer fconv4
I0728 18:48:36.614398 13196 net.cpp:406] fconv4 <- bn4_relu4_0_split_0
I0728 18:48:36.614405 13196 net.cpp:380] fconv4 -> fconv4
I0728 18:48:36.617503 13196 net.cpp:122] Setting up fconv4
I0728 18:48:36.617529 13196 net.cpp:129] Top shape: 1 3 1 70000 (210000)
I0728 18:48:36.617535 13196 net.cpp:137] Memory required for data: 823480000
I0728 18:48:36.617544 13196 layer_factory.hpp:77] Creating layer fbn4
I0728 18:48:36.617568 13196 net.cpp:84] Creating Layer fbn4
I0728 18:48:36.617573 13196 net.cpp:406] fbn4 <- fconv4
I0728 18:48:36.617581 13196 net.cpp:380] fbn4 -> fbn4
I0728 18:48:36.617902 13196 net.cpp:122] Setting up fbn4
I0728 18:48:36.617913 13196 net.cpp:129] Top shape: 1 3 1 70000 (210000)
I0728 18:48:36.617918 13196 net.cpp:137] Memory required for data: 824320000
I0728 18:48:36.617926 13196 layer_factory.hpp:77] Creating layer frelu4
I0728 18:48:36.617934 13196 net.cpp:84] Creating Layer frelu4
I0728 18:48:36.617938 13196 net.cpp:406] frelu4 <- fbn4
I0728 18:48:36.617944 13196 net.cpp:367] frelu4 -> fbn4 (in-place)
I0728 18:48:36.618283 13196 net.cpp:122] Setting up frelu4
I0728 18:48:36.618296 13196 net.cpp:129] Top shape: 1 3 1 70000 (210000)
I0728 18:48:36.618301 13196 net.cpp:137] Memory required for data: 825160000
I0728 18:48:36.618305 13196 layer_factory.hpp:77] Creating layer data_lattice3
I0728 18:48:36.618371 13196 net.cpp:84] Creating Layer data_lattice3
I0728 18:48:36.618381 13196 net.cpp:406] data_lattice3 <- data_data_0_split_4
I0728 18:48:36.618389 13196 net.cpp:380] data_lattice3 -> data_lattice3
I0728 18:48:36.620038 13196 net.cpp:122] Setting up data_lattice3
I0728 18:48:36.620055 13196 net.cpp:129] Top shape: 1 3 1 70000 (210000)
I0728 18:48:36.620060 13196 net.cpp:137] Memory required for data: 826000000
I0728 18:48:36.620065 13196 layer_factory.hpp:77] Creating layer feat4
I0728 18:48:36.620084 13196 net.cpp:84] Creating Layer feat4
I0728 18:48:36.620090 13196 net.cpp:406] feat4 <- data_lattice3
I0728 18:48:36.620095 13196 net.cpp:406] feat4 <- fbn4
I0728 18:48:36.620102 13196 net.cpp:380] feat4 -> feat4
I0728 18:48:36.620137 13196 net.cpp:122] Setting up feat4
I0728 18:48:36.620151 13196 net.cpp:129] Top shape: 1 3 1 70000 (210000)
I0728 18:48:36.620156 13196 net.cpp:137] Memory required for data: 826840000
I0728 18:48:36.620165 13196 layer_factory.hpp:77] Creating layer feat4_feat4_0_split
I0728 18:48:36.620172 13196 net.cpp:84] Creating Layer feat4_feat4_0_split
I0728 18:48:36.620177 13196 net.cpp:406] feat4_feat4_0_split <- feat4
I0728 18:48:36.620188 13196 net.cpp:380] feat4_feat4_0_split -> feat4_feat4_0_split_0
I0728 18:48:36.620196 13196 net.cpp:380] feat4_feat4_0_split -> feat4_feat4_0_split_1
I0728 18:48:36.620237 13196 net.cpp:122] Setting up feat4_feat4_0_split
I0728 18:48:36.620246 13196 net.cpp:129] Top shape: 1 3 1 70000 (210000)
I0728 18:48:36.620251 13196 net.cpp:129] Top shape: 1 3 1 70000 (210000)
I0728 18:48:36.620254 13196 net.cpp:137] Memory required for data: 828520000
I0728 18:48:36.620257 13196 layer_factory.hpp:77] Creating layer conv5
I0728 18:48:36.620267 13196 net.cpp:84] Creating Layer conv5
I0728 18:48:36.620272 13196 net.cpp:406] conv5 <- bn4_relu4_0_split_1
I0728 18:48:36.620277 13196 net.cpp:406] conv5 <- feat4_feat4_0_split_0
I0728 18:48:36.620283 13196 net.cpp:406] conv5 <- feat4_feat4_0_split_1
I0728 18:48:36.620290 13196 net.cpp:380] conv5 -> conv5
I0728 18:48:36.779878 13196 net.cpp:122] Setting up conv5
I0728 18:48:36.779922 13196 net.cpp:129] Top shape: 1 256 1 70000 (17920000)
I0728 18:48:36.779927 13196 net.cpp:137] Memory required for data: 900200000
I0728 18:48:36.779939 13196 layer_factory.hpp:77] Creating layer bn5
I0728 18:48:36.779953 13196 net.cpp:84] Creating Layer bn5
I0728 18:48:36.779960 13196 net.cpp:406] bn5 <- conv5
I0728 18:48:36.779970 13196 net.cpp:380] bn5 -> bn5
I0728 18:48:36.780292 13196 net.cpp:122] Setting up bn5
I0728 18:48:36.780303 13196 net.cpp:129] Top shape: 1 256 1 70000 (17920000)
I0728 18:48:36.780308 13196 net.cpp:137] Memory required for data: 971880000
I0728 18:48:36.780315 13196 layer_factory.hpp:77] Creating layer relu5
I0728 18:48:36.780346 13196 net.cpp:84] Creating Layer relu5
I0728 18:48:36.780351 13196 net.cpp:406] relu5 <- bn5
I0728 18:48:36.780357 13196 net.cpp:367] relu5 -> bn5 (in-place)
I0728 18:48:36.781352 13196 net.cpp:122] Setting up relu5
I0728 18:48:36.781370 13196 net.cpp:129] Top shape: 1 256 1 70000 (17920000)
I0728 18:48:36.781375 13196 net.cpp:137] Memory required for data: 1043560000
I0728 18:48:36.781390 13196 layer_factory.hpp:77] Creating layer bn5_relu5_0_split
I0728 18:48:36.781399 13196 net.cpp:84] Creating Layer bn5_relu5_0_split
I0728 18:48:36.781405 13196 net.cpp:406] bn5_relu5_0_split <- bn5
I0728 18:48:36.781414 13196 net.cpp:380] bn5_relu5_0_split -> bn5_relu5_0_split_0
I0728 18:48:36.781421 13196 net.cpp:380] bn5_relu5_0_split -> bn5_relu5_0_split_1
I0728 18:48:36.781428 13196 net.cpp:380] bn5_relu5_0_split -> bn5_relu5_0_split_2
I0728 18:48:36.781491 13196 net.cpp:122] Setting up bn5_relu5_0_split
I0728 18:48:36.781502 13196 net.cpp:129] Top shape: 1 256 1 70000 (17920000)
I0728 18:48:36.781514 13196 net.cpp:129] Top shape: 1 256 1 70000 (17920000)
I0728 18:48:36.781519 13196 net.cpp:129] Top shape: 1 256 1 70000 (17920000)
I0728 18:48:36.781522 13196 net.cpp:137] Memory required for data: 1258600000
I0728 18:48:36.781527 13196 layer_factory.hpp:77] Creating layer fconv5
I0728 18:48:36.781540 13196 net.cpp:84] Creating Layer fconv5
I0728 18:48:36.781544 13196 net.cpp:406] fconv5 <- bn5_relu5_0_split_0
I0728 18:48:36.781553 13196 net.cpp:380] fconv5 -> fconv5
I0728 18:48:36.783702 13196 net.cpp:122] Setting up fconv5
I0728 18:48:36.783721 13196 net.cpp:129] Top shape: 1 3 1 70000 (210000)
I0728 18:48:36.783725 13196 net.cpp:137] Memory required for data: 1259440000
I0728 18:48:36.783735 13196 layer_factory.hpp:77] Creating layer fbn5
I0728 18:48:36.783743 13196 net.cpp:84] Creating Layer fbn5
I0728 18:48:36.783747 13196 net.cpp:406] fbn5 <- fconv5
I0728 18:48:36.783754 13196 net.cpp:380] fbn5 -> fbn5
I0728 18:48:36.784073 13196 net.cpp:122] Setting up fbn5
I0728 18:48:36.784085 13196 net.cpp:129] Top shape: 1 3 1 70000 (210000)
I0728 18:48:36.784088 13196 net.cpp:137] Memory required for data: 1260280000
I0728 18:48:36.784096 13196 layer_factory.hpp:77] Creating layer frelu5
I0728 18:48:36.784113 13196 net.cpp:84] Creating Layer frelu5
I0728 18:48:36.784119 13196 net.cpp:406] frelu5 <- fbn5
I0728 18:48:36.784126 13196 net.cpp:367] frelu5 -> fbn5 (in-place)
I0728 18:48:36.784854 13196 net.cpp:122] Setting up frelu5
I0728 18:48:36.784871 13196 net.cpp:129] Top shape: 1 3 1 70000 (210000)
I0728 18:48:36.784876 13196 net.cpp:137] Memory required for data: 1261120000
I0728 18:48:36.784881 13196 layer_factory.hpp:77] Creating layer data_lattice4
I0728 18:48:36.784948 13196 net.cpp:84] Creating Layer data_lattice4
I0728 18:48:36.784960 13196 net.cpp:406] data_lattice4 <- data_data_0_split_5
I0728 18:48:36.784967 13196 net.cpp:380] data_lattice4 -> data_lattice4
I0728 18:48:36.786502 13196 net.cpp:122] Setting up data_lattice4
I0728 18:48:36.786530 13196 net.cpp:129] Top shape: 1 3 1 70000 (210000)
I0728 18:48:36.786535 13196 net.cpp:137] Memory required for data: 1261960000
I0728 18:48:36.786540 13196 layer_factory.hpp:77] Creating layer feat5
I0728 18:48:36.786550 13196 net.cpp:84] Creating Layer feat5
I0728 18:48:36.786554 13196 net.cpp:406] feat5 <- data_lattice4
I0728 18:48:36.786561 13196 net.cpp:406] feat5 <- fbn5
I0728 18:48:36.786567 13196 net.cpp:380] feat5 -> feat5
I0728 18:48:36.786603 13196 net.cpp:122] Setting up feat5
I0728 18:48:36.786610 13196 net.cpp:129] Top shape: 1 3 1 70000 (210000)
I0728 18:48:36.786614 13196 net.cpp:137] Memory required for data: 1262800000
I0728 18:48:36.786618 13196 layer_factory.hpp:77] Creating layer feat5_feat5_0_split
I0728 18:48:36.786624 13196 net.cpp:84] Creating Layer feat5_feat5_0_split
I0728 18:48:36.786628 13196 net.cpp:406] feat5_feat5_0_split <- feat5
I0728 18:48:36.786635 13196 net.cpp:380] feat5_feat5_0_split -> feat5_feat5_0_split_0
I0728 18:48:36.786643 13196 net.cpp:380] feat5_feat5_0_split -> feat5_feat5_0_split_1
I0728 18:48:36.786695 13196 net.cpp:122] Setting up feat5_feat5_0_split
I0728 18:48:36.786703 13196 net.cpp:129] Top shape: 1 3 1 70000 (210000)
I0728 18:48:36.786708 13196 net.cpp:129] Top shape: 1 3 1 70000 (210000)
I0728 18:48:36.786712 13196 net.cpp:137] Memory required for data: 1264480000
I0728 18:48:36.786716 13196 layer_factory.hpp:77] Creating layer conv6
I0728 18:48:36.786736 13196 net.cpp:84] Creating Layer conv6
I0728 18:48:36.786741 13196 net.cpp:406] conv6 <- bn5_relu5_0_split_1
I0728 18:48:36.786746 13196 net.cpp:406] conv6 <- feat5_feat5_0_split_0
I0728 18:48:36.786751 13196 net.cpp:406] conv6 <- feat5_feat5_0_split_1
I0728 18:48:36.786757 13196 net.cpp:380] conv6 -> conv6
I0728 18:48:36.824136 13196 net.cpp:122] Setting up conv6
I0728 18:48:36.824160 13196 net.cpp:129] Top shape: 1 256 1 70000 (17920000)
I0728 18:48:36.824165 13196 net.cpp:137] Memory required for data: 1336160000
I0728 18:48:36.824173 13196 layer_factory.hpp:77] Creating layer bn6
I0728 18:48:36.824182 13196 net.cpp:84] Creating Layer bn6
I0728 18:48:36.824188 13196 net.cpp:406] bn6 <- conv6
I0728 18:48:36.824195 13196 net.cpp:380] bn6 -> bn6
I0728 18:48:36.824517 13196 net.cpp:122] Setting up bn6
I0728 18:48:36.824527 13196 net.cpp:129] Top shape: 1 256 1 70000 (17920000)
I0728 18:48:36.824532 13196 net.cpp:137] Memory required for data: 1407840000
I0728 18:48:36.824539 13196 layer_factory.hpp:77] Creating layer relu6
I0728 18:48:36.824548 13196 net.cpp:84] Creating Layer relu6
I0728 18:48:36.824553 13196 net.cpp:406] relu6 <- bn6
I0728 18:48:36.824558 13196 net.cpp:367] relu6 -> bn6 (in-place)
I0728 18:48:36.824931 13196 net.cpp:122] Setting up relu6
I0728 18:48:36.824945 13196 net.cpp:129] Top shape: 1 256 1 70000 (17920000)
I0728 18:48:36.824949 13196 net.cpp:137] Memory required for data: 1479520000
I0728 18:48:36.824954 13196 layer_factory.hpp:77] Creating layer concat6
I0728 18:48:36.825044 13196 net.cpp:84] Creating Layer concat6
I0728 18:48:36.825055 13196 net.cpp:406] concat6 <- bn6
I0728 18:48:36.825062 13196 net.cpp:406] concat6 <- bn2_relu2_0_split_2
I0728 18:48:36.825067 13196 net.cpp:406] concat6 <- bn3_relu3_0_split_2
I0728 18:48:36.825071 13196 net.cpp:406] concat6 <- bn4_relu4_0_split_2
I0728 18:48:36.825075 13196 net.cpp:406] concat6 <- bn5_relu5_0_split_2
I0728 18:48:36.825081 13196 net.cpp:380] concat6 -> concat6
I0728 18:48:36.825147 13196 net.cpp:122] Setting up concat6
I0728 18:48:36.825160 13196 net.cpp:129] Top shape: 1 960 1 70000 (67200000)
I0728 18:48:36.825165 13196 net.cpp:137] Memory required for data: 1748320000
I0728 18:48:36.825167 13196 layer_factory.hpp:77] Creating layer conv7
I0728 18:48:36.825181 13196 net.cpp:84] Creating Layer conv7
I0728 18:48:36.825184 13196 net.cpp:406] conv7 <- concat6
I0728 18:48:36.825192 13196 net.cpp:380] conv7 -> conv7
I0728 18:48:36.831149 13196 net.cpp:122] Setting up conv7
I0728 18:48:36.831168 13196 net.cpp:129] Top shape: 1 128 1 70000 (8960000)
I0728 18:48:36.831173 13196 net.cpp:137] Memory required for data: 1784160000
I0728 18:48:36.831182 13196 layer_factory.hpp:77] Creating layer bn7
I0728 18:48:36.831190 13196 net.cpp:84] Creating Layer bn7
I0728 18:48:36.831195 13196 net.cpp:406] bn7 <- conv7
I0728 18:48:36.831202 13196 net.cpp:380] bn7 -> bn7
I0728 18:48:36.831498 13196 net.cpp:122] Setting up bn7
I0728 18:48:36.831517 13196 net.cpp:129] Top shape: 1 128 1 70000 (8960000)
I0728 18:48:36.831522 13196 net.cpp:137] Memory required for data: 1820000000
I0728 18:48:36.831531 13196 layer_factory.hpp:77] Creating layer relu7
I0728 18:48:36.831537 13196 net.cpp:84] Creating Layer relu7
I0728 18:48:36.831542 13196 net.cpp:406] relu7 <- bn7
I0728 18:48:36.831548 13196 net.cpp:367] relu7 -> bn7 (in-place)
I0728 18:48:36.832283 13196 net.cpp:122] Setting up relu7
I0728 18:48:36.832301 13196 net.cpp:129] Top shape: 1 128 1 70000 (8960000)
I0728 18:48:36.832305 13196 net.cpp:137] Memory required for data: 1855840000
I0728 18:48:36.832310 13196 layer_factory.hpp:77] Creating layer conv8
I0728 18:48:36.832334 13196 net.cpp:84] Creating Layer conv8
I0728 18:48:36.832340 13196 net.cpp:406] conv8 <- bn7
I0728 18:48:36.832348 13196 net.cpp:380] conv8 -> conv8
I0728 18:48:36.836282 13196 net.cpp:122] Setting up conv8
I0728 18:48:36.836298 13196 net.cpp:129] Top shape: 1 13 1 70000 (910000)
I0728 18:48:36.836303 13196 net.cpp:137] Memory required for data: 1859480000
I0728 18:48:36.836313 13196 layer_factory.hpp:77] Creating layer conv8_conv8_0_split
I0728 18:48:36.836321 13196 net.cpp:84] Creating Layer conv8_conv8_0_split
I0728 18:48:36.836326 13196 net.cpp:406] conv8_conv8_0_split <- conv8
I0728 18:48:36.836333 13196 net.cpp:380] conv8_conv8_0_split -> conv8_conv8_0_split_0
I0728 18:48:36.836341 13196 net.cpp:380] conv8_conv8_0_split -> conv8_conv8_0_split_1
I0728 18:48:36.836395 13196 net.cpp:122] Setting up conv8_conv8_0_split
I0728 18:48:36.836405 13196 net.cpp:129] Top shape: 1 13 1 70000 (910000)
I0728 18:48:36.836410 13196 net.cpp:129] Top shape: 1 13 1 70000 (910000)
I0728 18:48:36.836413 13196 net.cpp:137] Memory required for data: 1866760000
I0728 18:48:36.836416 13196 layer_factory.hpp:77] Creating layer loss
I0728 18:48:36.836465 13196 net.cpp:84] Creating Layer loss
I0728 18:48:36.836475 13196 net.cpp:406] loss <- conv8_conv8_0_split_0
I0728 18:48:36.836483 13196 net.cpp:406] loss <- label_data_1_split_0
I0728 18:48:36.836489 13196 net.cpp:380] loss -> loss
…
