…
I0804 00:49:17.000226 20691 net.cpp:294] The NetState phase (0) differed from the phase (1) specified by a rule in layer data
I0804 00:49:17.000747 20691 net.cpp:51] Initializing net from parameters: 
state {
  phase: TRAIN
}
layer {
  name: "data"
  type: "Python"
  top: "data"
  top: "label"
  include {
    phase: TRAIN
  }
  python_param {
    module: "dataset_lidar"
    layer: "InputShapenet"
    param_str: "{\'sample_size\': 8192, \'test_area\': \'6\', \'batch_size\': 12, \'feat_dims\': \'x_y_z\', \'subset\': \'train\', \'root\': \'../../data/shapenet_ericyi_ply\', \'jitter_xyz\': 0.02, \'jitter_stretch\': 0.1, \'jitter_rotation\': 10.0}"
  }
}
layer {
  name: "data_feat"
  type: "Python"
  bottom: "data"
  top: "data_feat"
  python_param {
    module: "custom_layers"
    layer: "PickAndScale"
    param_str: "0_1_2"
  }
}
layer {
  name: "conv1"
  type: "Convolution"
  bottom: "data_feat"
  top: "conv1"
  param {
    lr_mult: 1
  }
  param {
    lr_mult: 0.1
  }
  convolution_param {
    num_output: 32
    pad: 0
    kernel_size: 1
    stride: 1
    weight_filler {
      type: "xavier"
    }
    bias_filler {
      type: "constant"
      value: 0
    }
  }
}
layer {
  name: "bn1"
  type: "BatchNorm"
  bottom: "conv1"
  top: "bn1"
}
layer {
  name: "relu1"
  type: "ReLU"
  bottom: "bn1"
  top: "bn1"
}
layer {
  name: "fconv1"
  type: "Convolution"
  bottom: "bn1"
  top: "fconv1"
  param {
    lr_mult: 1
  }
  param {
    lr_mult: 0.1
  }
  convolution_param {
    num_output: 3
    pad: 0
    kernel_size: 1
    stride: 1
    weight_filler {
      type: "xavier"
    }
    bias_filler {
      type: "constant"
      value: 0
    }
  }
}
layer {
  name: "fbn1"
  type: "BatchNorm"
  bottom: "fconv1"
  top: "fbn1"
}
layer {
  name: "frelu1"
  type: "ReLU"
  bottom: "fbn1"
  top: "fbn1"
}
layer {
  name: "feat1"
  type: "Eltwise"
  bottom: "data"
  bottom: "fbn1"
  top: "feat1"
  eltwise_param {
    operation: SUM
  }
}
layer {
  name: "data_lattice0"
  type: "Python"
  bottom: "feat1"
  top: "data_lattice0"
  python_param {
    module: "custom_layers"
    layer: "PickAndScale"
    param_str: "0*48_1*48_2*48"
  }
}
layer {
  name: "conv2"
  type: "Permutohedral"
  bottom: "bn1"
  bottom: "data_lattice0"
  bottom: "data_lattice0"
  top: "conv2"
  param {
    lr_mult: 1
    decay_mult: 1
  }
  param {
    lr_mult: 2
    decay_mult: 0
  }
  permutohedral_param {
    num_output: 64
    neighborhood_size: 2
    filter_filler {
      type: "gaussian"
      std: 0.001
    }
    bias_term: true
    bias_filler {
      type: "constant"
      value: 0
    }
    group: 1
    norm_type: AFTER
    offset_type: NONE
  }
}
layer {
  name: "bn2"
  type: "BatchNorm"
  bottom: "conv2"
  top: "bn2"
}
layer {
  name: "relu2"
  type: "ReLU"
  bottom: "bn2"
  top: "bn2"
}
layer {
  name: "fconv2"
  type: "Convolution"
  bottom: "bn2"
  top: "fconv2"
  param {
    lr_mult: 1
  }
  param {
    lr_mult: 0.1
  }
  convolution_param {
    num_output: 3
    pad: 0
    kernel_size: 1
    stride: 1
    weight_filler {
      type: "xavier"
    }
    bias_filler {
      type: "constant"
      value: 0
    }
  }
}
layer {
  name: "fbn2"
  type: "BatchNorm"
  bottom: "fconv2"
  top: "fbn2"
}
layer {
  name: "frelu2"
  type: "ReLU"
  bottom: "fbn2"
  top: "fbn2"
}
layer {
  name: "feat2"
  type: "Eltwise"
  bottom: "data"
  bottom: "fbn2"
  top: "feat2"
  eltwise_param {
    operation: SUM
  }
}
layer {
  name: "data_lattice1"
  type: "Python"
  bottom: "feat2"
  top: "data_lattice1"
  python_param {
    module: "custom_layers"
    layer: "PickAndScale"
    param_str: "0*24_1*24_2*24"
  }
}
layer {
  name: "conv3"
  type: "Permutohedral"
  bottom: "bn2"
  bottom: "data_lattice1"
  bottom: "data_lattice1"
  top: "conv3"
  param {
    lr_mult: 1
    decay_mult: 1
  }
  param {
    lr_mult: 2
    decay_mult: 0
  }
  permutohedral_param {
    num_output: 128
    neighborhood_size: 2
    filter_filler {
      type: "gaussian"
      std: 0.001
    }
    bias_term: true
    bias_filler {
      type: "constant"
      value: 0
    }
    group: 1
    norm_type: AFTER
    offset_type: NONE
  }
}
layer {
  name: "bn3"
  type: "BatchNorm"
  bottom: "conv3"
  top: "bn3"
}
layer {
  name: "relu3"
  type: "ReLU"
  bottom: "bn3"
  top: "bn3"
}
layer {
  name: "fconv3"
  type: "Convolution"
  bottom: "bn3"
  top: "fconv3"
  param {
    lr_mult: 1
  }
  param {
    lr_mult: 0.1
  }
  convolution_param {
    num_output: 3
    pad: 0
    kernel_size: 1
    stride: 1
    weight_filler {
      type: "xavier"
    }
    bias_filler {
      type: "constant"
      value: 0
    }
  }
}
layer {
  name: "fbn3"
  type: "BatchNorm"
  bottom: "fconv3"
  top: "fbn3"
}
layer {
  name: "frelu3"
  type: "ReLU"
  bottom: "fbn3"
  top: "fbn3"
}
layer {
  name: "feat3"
  type: "Eltwise"
  bottom: "data"
  bottom: "fbn3"
  top: "feat3"
  eltwise_param {
    operation: SUM
  }
}
layer {
  name: "data_lattice2"
  type: "Python"
  bottom: "feat3"
  top: "data_lattice2"
  python_param {
    module: "custom_layers"
    layer: "PickAndScale"
    param_str: "0*12_1*12_2*12"
  }
}
layer {
  name: "conv4"
  type: "Permutohedral"
  bottom: "bn3"
  bottom: "data_lattice2"
  bottom: "data_lattice2"
  top: "conv4"
  param {
    lr_mult: 1
    decay_mult: 1
  }
  param {
    lr_mult: 2
    decay_mult: 0
  }
  permutohedral_param {
    num_output: 256
    neighborhood_size: 2
    filter_filler {
      type: "gaussian"
      std: 0.001
    }
    bias_term: true
    bias_filler {
      type: "constant"
      value: 0
    }
    group: 1
    norm_type: AFTER
    offset_type: NONE
  }
}
layer {
  name: "bn4"
  type: "BatchNorm"
  bottom: "conv4"
  top: "bn4"
}
layer {
  name: "relu4"
  type: "ReLU"
  bottom: "bn4"
  top: "bn4"
}
layer {
  name: "fconv4"
  type: "Convolution"
  bottom: "bn4"
  top: "fconv4"
  param {
    lr_mult: 1
  }
  param {
    lr_mult: 0.1
  }
  convolution_param {
    num_output: 3
    pad: 0
    kernel_size: 1
    stride: 1
    weight_filler {
      type: "xavier"
    }
    bias_filler {
      type: "constant"
      value: 0
    }
  }
}
layer {
  name: "fbn4"
  type: "BatchNorm"
  bottom: "fconv4"
  top: "fbn4"
}
layer {
  name: "frelu4"
  type: "ReLU"
  bottom: "fbn4"
  top: "fbn4"
}
layer {
  name: "feat4"
  type: "Eltwise"
  bottom: "data"
  bottom: "fbn4"
  top: "feat4"
  eltwise_param {
    operation: SUM
  }
}
layer {
  name: "data_lattice3"
  type: "Python"
  bottom: "feat4"
  top: "data_lattice3"
  python_param {
    module: "custom_layers"
    layer: "PickAndScale"
    param_str: "0*6_1*6_2*6"
  }
}
layer {
  name: "conv5"
  type: "Permutohedral"
  bottom: "bn4"
  bottom: "data_lattice3"
  bottom: "data_lattice3"
  top: "conv5"
  param {
    lr_mult: 1
    decay_mult: 1
  }
  param {
    lr_mult: 2
    decay_mult: 0
  }
  permutohedral_param {
    num_output: 256
    neighborhood_size: 2
    filter_filler {
      type: "gaussian"
      std: 0.001
    }
    bias_term: true
    bias_filler {
      type: "constant"
      value: 0
    }
    group: 1
    norm_type: AFTER
    offset_type: NONE
  }
}
layer {
  name: "bn5"
  type: "BatchNorm"
  bottom: "conv5"
  top: "bn5"
}
layer {
  name: "relu5"
  type: "ReLU"
  bottom: "bn5"
  top: "bn5"
}
layer {
  name: "fconv5"
  type: "Convolution"
  bottom: "bn5"
  top: "fconv5"
  param {
    lr_mult: 1
  }
  param {
    lr_mult: 0.1
  }
  convolution_param {
    num_output: 3
    pad: 0
    kernel_size: 1
    stride: 1
    weight_filler {
      type: "xavier"
    }
    bias_filler {
      type: "constant"
      value: 0
    }
  }
}
layer {
  name: "fbn5"
  type: "BatchNorm"
  bottom: "fconv5"
  top: "fbn5"
}
layer {
  name: "frelu5"
  type: "ReLU"
  bottom: "fbn5"
  top: "fbn5"
}
layer {
  name: "feat5"
  type: "Eltwise"
  bottom: "data"
  bottom: "fbn5"
  top: "feat5"
  eltwise_param {
    operation: SUM
  }
}
layer {
  name: "data_lattice4"
  type: "Python"
  bottom: "feat5"
  top: "data_lattice4"
  python_param {
    module: "custom_layers"
    layer: "PickAndScale"
    param_str: "0*3_1*3_2*3"
  }
}
layer {
  name: "conv6"
  type: "Permutohedral"
  bottom: "bn5"
  bottom: "data_lattice4"
  bottom: "data_lattice4"
  top: "conv6"
  param {
    lr_mult: 1
    decay_mult: 1
  }
  param {
    lr_mult: 2
    decay_mult: 0
  }
  permutohedral_param {
    num_output: 256
    neighborhood_size: 2
    filter_filler {
      type: "gaussian"
      std: 0.001
    }
    bias_term: true
    bias_filler {
      type: "constant"
      value: 0
    }
    group: 1
    norm_type: AFTER
    offset_type: NONE
  }
}
layer {
  name: "bn6"
  type: "BatchNorm"
  bottom: "conv6"
  top: "bn6"
}
layer {
  name: "relu6"
  type: "ReLU"
  bottom: "bn6"
  top: "bn6"
}
layer {
  name: "concat6"
  type: "Concat"
  bottom: "bn6"
  bottom: "bn2"
  bottom: "bn3"
  bottom: "bn4"
  bottom: "bn5"
  top: "concat6"
}
layer {
  name: "conv7"
  type: "Convolution"
  bottom: "concat6"
  top: "conv7"
  param {
    lr_mult: 1
  }
  param {
    lr_mult: 0.1
  }
  convolution_param {
    num_output: 128
    pad: 0
    kernel_size: 1
    stride: 1
    weight_filler {
      type: "xavier"
    }
    bias_filler {
      type: "constant"
      value: 0
    }
  }
}
layer {
  name: "bn7"
  type: "BatchNorm"
  bottom: "conv7"
  top: "bn7"
}
layer {
  name: "relu7"
  type: "ReLU"
  bottom: "bn7"
  top: "bn7"
}
layer {
  name: "conv8"
  type: "Convolution"
  bottom: "bn7"
  top: "conv8"
  param {
    lr_mult: 1
  }
  param {
    lr_mult: 0.1
  }
  convolution_param {
    num_output: 13
    pad: 0
    kernel_size: 1
    stride: 1
    weight_filler {
      type: "xavier"
    }
    bias_filler {
      type: "constant"
      value: 0
    }
  }
}
layer {
  name: "loss"
  type: "SoftmaxWithLoss"
  bottom: "conv8"
  bottom: "label"
  top: "loss"
}
layer {
  name: "accuracy"
  type: "Accuracy"
  bottom: "conv8"
  bottom: "label"
  top: "accuracy"
}
I0804 00:49:17.030926 20691 layer_factory.hpp:77] Creating layer data
I0804 00:49:17.061323 20691 net.cpp:84] Creating Layer data
I0804 00:49:17.061380 20691 net.cpp:380] data -> data
I0804 00:49:17.061496 20691 net.cpp:380] data -> label
I0804 00:49:17.634475 20697 upgrade_proto.cpp:1084] Attempting to upgrade input file specified using deprecated 'solver_type' field (enum)': /mnt/lustre/wangjiayun/repos/splatnet/exp/lidar3d/area6/6_solver.prototxt
…
I0804 00:49:17.644706 20693 upgrade_proto.cpp:1084] Attempting to upgrade input file specified using deprecated 'solver_type' field (enum)': /mnt/lustre/wangjiayun/repos/splatnet/exp/lidar3d/area6/6_solver.prototxt
I0804 00:49:17.644767 20693 upgrade_proto.cpp:1091] Successfully upgraded file specified using deprecated 'solver_type' field (enum) to 'type' field (string).
W0804 00:49:17.644773 20693 upgrade_proto.cpp:1093] Note that future Caffe releases will only support 'type' field (string) for a solver's type.
I0804 00:56:49.408315 20691 net.cpp:122] Setting up data
I0804 00:56:49.408877 20691 net.cpp:129] Top shape: 12 3 1 8192 (294912)
I0804 00:56:49.408897 20691 net.cpp:129] Top shape: 12 1 1 8192 (98304)
I0804 00:56:49.408901 20691 net.cpp:137] Memory required for data: 1572864
I0804 00:56:49.408958 20691 layer_factory.hpp:77] Creating layer data_data_0_split
I0804 00:56:49.409067 20691 net.cpp:84] Creating Layer data_data_0_split
I0804 00:56:49.409087 20691 net.cpp:406] data_data_0_split <- data
I0804 00:56:49.409132 20691 net.cpp:380] data_data_0_split -> data_data_0_split_0
I0804 00:56:49.409176 20691 net.cpp:380] data_data_0_split -> data_data_0_split_1
I0804 00:56:49.409186 20691 net.cpp:380] data_data_0_split -> data_data_0_split_2
I0804 00:56:49.409193 20691 net.cpp:380] data_data_0_split -> data_data_0_split_3
I0804 00:56:49.409198 20691 net.cpp:380] data_data_0_split -> data_data_0_split_4
I0804 00:56:49.409204 20691 net.cpp:380] data_data_0_split -> data_data_0_split_5
I0804 00:56:49.409310 20691 net.cpp:122] Setting up data_data_0_split
I0804 00:56:49.409322 20691 net.cpp:129] Top shape: 12 3 1 8192 (294912)
I0804 00:56:49.409327 20691 net.cpp:129] Top shape: 12 3 1 8192 (294912)
I0804 00:56:49.409330 20691 net.cpp:129] Top shape: 12 3 1 8192 (294912)
I0804 00:56:49.409333 20691 net.cpp:129] Top shape: 12 3 1 8192 (294912)
I0804 00:56:49.409337 20691 net.cpp:129] Top shape: 12 3 1 8192 (294912)
I0804 00:56:49.409341 20691 net.cpp:129] Top shape: 12 3 1 8192 (294912)
I0804 00:56:49.409344 20691 net.cpp:137] Memory required for data: 8650752
I0804 00:56:49.409348 20691 layer_factory.hpp:77] Creating layer label_data_1_split
I0804 00:56:49.409355 20691 net.cpp:84] Creating Layer label_data_1_split
I0804 00:56:49.409358 20691 net.cpp:406] label_data_1_split <- label
I0804 00:56:49.409363 20691 net.cpp:380] label_data_1_split -> label_data_1_split_0
I0804 00:56:49.409370 20691 net.cpp:380] label_data_1_split -> label_data_1_split_1
I0804 00:56:49.409399 20691 net.cpp:122] Setting up label_data_1_split
I0804 00:56:49.409405 20691 net.cpp:129] Top shape: 12 1 1 8192 (98304)
I0804 00:56:49.409409 20691 net.cpp:129] Top shape: 12 1 1 8192 (98304)
I0804 00:56:49.409415 20691 net.cpp:137] Memory required for data: 9437184
I0804 00:56:49.409417 20691 layer_factory.hpp:77] Creating layer data_feat
I0804 00:56:49.413484 20691 net.cpp:84] Creating Layer data_feat
I0804 00:56:49.413506 20691 net.cpp:406] data_feat <- data_data_0_split_0
I0804 00:56:49.413514 20691 net.cpp:380] data_feat -> data_feat
I0804 00:56:49.415243 20691 net.cpp:122] Setting up data_feat
I0804 00:56:49.415263 20691 net.cpp:129] Top shape: 12 3 1 8192 (294912)
I0804 00:56:49.415267 20691 net.cpp:137] Memory required for data: 10616832
I0804 00:56:49.415274 20691 layer_factory.hpp:77] Creating layer conv1
I0804 00:56:49.415339 20691 net.cpp:84] Creating Layer conv1
I0804 00:56:49.415349 20691 net.cpp:406] conv1 <- data_feat
I0804 00:56:49.415357 20691 net.cpp:380] conv1 -> conv1
I0804 00:56:53.140679 20691 net.cpp:122] Setting up conv1
I0804 00:56:53.140739 20691 net.cpp:129] Top shape: 12 32 1 8192 (3145728)
I0804 00:56:53.140748 20691 net.cpp:137] Memory required for data: 23199744
I0804 00:56:53.147583 20691 layer_factory.hpp:77] Creating layer bn1
I0804 00:56:53.148757 20691 net.cpp:84] Creating Layer bn1
I0804 00:56:53.148793 20691 net.cpp:406] bn1 <- conv1
I0804 00:56:53.148811 20691 net.cpp:380] bn1 -> bn1
I0804 00:56:53.172138 20691 net.cpp:122] Setting up bn1
I0804 00:56:53.172180 20691 net.cpp:129] Top shape: 12 32 1 8192 (3145728)
I0804 00:56:53.172190 20691 net.cpp:137] Memory required for data: 35782656
I0804 00:56:53.172221 20691 layer_factory.hpp:77] Creating layer relu1
I0804 00:56:53.173280 20691 net.cpp:84] Creating Layer relu1
I0804 00:56:53.173313 20691 net.cpp:406] relu1 <- bn1
I0804 00:56:53.173329 20691 net.cpp:367] relu1 -> bn1 (in-place)
I0804 00:56:53.187057 20691 net.cpp:122] Setting up relu1
I0804 00:56:53.187093 20691 net.cpp:129] Top shape: 12 32 1 8192 (3145728)
I0804 00:56:53.187103 20691 net.cpp:137] Memory required for data: 48365568
I0804 00:56:53.187113 20691 layer_factory.hpp:77] Creating layer bn1_relu1_0_split
I0804 00:56:53.187127 20691 net.cpp:84] Creating Layer bn1_relu1_0_split
I0804 00:56:53.187135 20691 net.cpp:406] bn1_relu1_0_split <- bn1
I0804 00:56:53.187149 20691 net.cpp:380] bn1_relu1_0_split -> bn1_relu1_0_split_0
I0804 00:56:53.187165 20691 net.cpp:380] bn1_relu1_0_split -> bn1_relu1_0_split_1
I0804 00:56:53.187249 20691 net.cpp:122] Setting up bn1_relu1_0_split
I0804 00:56:53.187266 20691 net.cpp:129] Top shape: 12 32 1 8192 (3145728)
I0804 00:56:53.187275 20691 net.cpp:129] Top shape: 12 32 1 8192 (3145728)
I0804 00:56:53.187281 20691 net.cpp:137] Memory required for data: 73531392
I0804 00:56:53.187290 20691 layer_factory.hpp:77] Creating layer fconv1
I0804 00:56:53.187319 20691 net.cpp:84] Creating Layer fconv1
I0804 00:56:53.187330 20691 net.cpp:406] fconv1 <- bn1_relu1_0_split_0
I0804 00:56:53.187343 20691 net.cpp:380] fconv1 -> fconv1
I0804 00:56:53.191712 20691 net.cpp:122] Setting up fconv1
I0804 00:56:53.191747 20691 net.cpp:129] Top shape: 12 3 1 8192 (294912)
I0804 00:56:53.191757 20691 net.cpp:137] Memory required for data: 74711040
I0804 00:56:53.191772 20691 layer_factory.hpp:77] Creating layer fbn1
I0804 00:56:53.191790 20691 net.cpp:84] Creating Layer fbn1
I0804 00:56:53.191800 20691 net.cpp:406] fbn1 <- fconv1
I0804 00:56:53.191812 20691 net.cpp:380] fbn1 -> fbn1
I0804 00:56:53.192215 20691 net.cpp:122] Setting up fbn1
I0804 00:56:53.192235 20691 net.cpp:129] Top shape: 12 3 1 8192 (294912)
I0804 00:56:53.192242 20691 net.cpp:137] Memory required for data: 75890688
I0804 00:56:53.192263 20691 layer_factory.hpp:77] Creating layer frelu1
I0804 00:56:53.192276 20691 net.cpp:84] Creating Layer frelu1
I0804 00:56:53.192283 20691 net.cpp:406] frelu1 <- fbn1
I0804 00:56:53.192294 20691 net.cpp:367] frelu1 -> fbn1 (in-place)
I0804 00:56:53.192883 20691 net.cpp:122] Setting up frelu1
I0804 00:56:53.192909 20691 net.cpp:129] Top shape: 12 3 1 8192 (294912)
I0804 00:56:53.192915 20691 net.cpp:137] Memory required for data: 77070336
I0804 00:56:53.192924 20691 layer_factory.hpp:77] Creating layer feat1
I0804 00:56:53.194140 20691 net.cpp:84] Creating Layer feat1
I0804 00:56:53.194176 20691 net.cpp:406] feat1 <- data_data_0_split_1
I0804 00:56:53.194200 20691 net.cpp:406] feat1 <- fbn1
I0804 00:56:53.194216 20691 net.cpp:380] feat1 -> feat1
I0804 00:56:53.194691 20691 net.cpp:122] Setting up feat1
I0804 00:56:53.194721 20691 net.cpp:129] Top shape: 12 3 1 8192 (294912)
I0804 00:56:53.194730 20691 net.cpp:137] Memory required for data: 78249984
I0804 00:56:53.194738 20691 layer_factory.hpp:77] Creating layer data_lattice0
I0804 00:56:53.194856 20691 net.cpp:84] Creating Layer data_lattice0
I0804 00:56:53.194877 20691 net.cpp:406] data_lattice0 <- feat1
I0804 00:56:53.194893 20691 net.cpp:380] data_lattice0 -> data_lattice0
I0804 00:56:53.198755 20691 net.cpp:122] Setting up data_lattice0
I0804 00:56:53.198792 20691 net.cpp:129] Top shape: 12 3 1 8192 (294912)
I0804 00:56:53.198802 20691 net.cpp:137] Memory required for data: 79429632
I0804 00:56:53.198814 20691 layer_factory.hpp:77] Creating layer data_lattice0_data_lattice0_0_split
I0804 00:56:53.198832 20691 net.cpp:84] Creating Layer data_lattice0_data_lattice0_0_split
I0804 00:56:53.198842 20691 net.cpp:406] data_lattice0_data_lattice0_0_split <- data_lattice0
I0804 00:56:53.198855 20691 net.cpp:380] data_lattice0_data_lattice0_0_split -> data_lattice0_data_lattice0_0_split_0
I0804 00:56:53.198873 20691 net.cpp:380] data_lattice0_data_lattice0_0_split -> data_lattice0_data_lattice0_0_split_1
I0804 00:56:53.198954 20691 net.cpp:122] Setting up data_lattice0_data_lattice0_0_split
I0804 00:56:53.198971 20691 net.cpp:129] Top shape: 12 3 1 8192 (294912)
I0804 00:56:53.198981 20691 net.cpp:129] Top shape: 12 3 1 8192 (294912)
I0804 00:56:53.198987 20691 net.cpp:137] Memory required for data: 81788928
I0804 00:56:53.198995 20691 layer_factory.hpp:77] Creating layer conv2
I0804 00:56:53.199656 20691 net.cpp:84] Creating Layer conv2
I0804 00:56:53.199693 20691 net.cpp:406] conv2 <- bn1_relu1_0_split_1
I0804 00:56:53.199709 20691 net.cpp:406] conv2 <- data_lattice0_data_lattice0_0_split_0
I0804 00:56:53.199720 20691 net.cpp:406] conv2 <- data_lattice0_data_lattice0_0_split_1
I0804 00:56:53.199735 20691 net.cpp:380] conv2 -> conv2
I0804 00:56:53.210826 20691 net.cpp:122] Setting up conv2
I0804 00:56:53.210862 20691 net.cpp:129] Top shape: 12 64 1 8192 (6291456)
I0804 00:56:53.210871 20691 net.cpp:137] Memory required for data: 106954752
I0804 00:56:53.210886 20691 layer_factory.hpp:77] Creating layer bn2
I0804 00:56:53.210901 20691 net.cpp:84] Creating Layer bn2
I0804 00:56:53.210911 20691 net.cpp:406] bn2 <- conv2
I0804 00:56:53.210923 20691 net.cpp:380] bn2 -> bn2
I0804 00:56:53.211338 20691 net.cpp:122] Setting up bn2
I0804 00:56:53.211356 20691 net.cpp:129] Top shape: 12 64 1 8192 (6291456)
I0804 00:56:53.211364 20691 net.cpp:137] Memory required for data: 132120576
I0804 00:56:53.211378 20691 layer_factory.hpp:77] Creating layer relu2
I0804 00:56:53.211400 20691 net.cpp:84] Creating Layer relu2
I0804 00:56:53.211408 20691 net.cpp:406] relu2 <- bn2
I0804 00:56:53.211419 20691 net.cpp:367] relu2 -> bn2 (in-place)
I0804 00:56:53.212844 20691 net.cpp:122] Setting up relu2
I0804 00:56:53.212877 20691 net.cpp:129] Top shape: 12 64 1 8192 (6291456)
I0804 00:56:53.212885 20691 net.cpp:137] Memory required for data: 157286400
I0804 00:56:53.212899 20691 layer_factory.hpp:77] Creating layer bn2_relu2_0_split
I0804 00:56:53.212913 20691 net.cpp:84] Creating Layer bn2_relu2_0_split
I0804 00:56:53.212924 20691 net.cpp:406] bn2_relu2_0_split <- bn2
I0804 00:56:53.212936 20691 net.cpp:380] bn2_relu2_0_split -> bn2_relu2_0_split_0
I0804 00:56:53.212952 20691 net.cpp:380] bn2_relu2_0_split -> bn2_relu2_0_split_1
I0804 00:56:53.212965 20691 net.cpp:380] bn2_relu2_0_split -> bn2_relu2_0_split_2
I0804 00:56:53.213078 20691 net.cpp:122] Setting up bn2_relu2_0_split
I0804 00:56:53.213093 20691 net.cpp:129] Top shape: 12 64 1 8192 (6291456)
I0804 00:56:53.213102 20691 net.cpp:129] Top shape: 12 64 1 8192 (6291456)
I0804 00:56:53.213110 20691 net.cpp:129] Top shape: 12 64 1 8192 (6291456)
I0804 00:56:53.213117 20691 net.cpp:137] Memory required for data: 232783872
I0804 00:56:53.213124 20691 layer_factory.hpp:77] Creating layer fconv2
I0804 00:56:53.213142 20691 net.cpp:84] Creating Layer fconv2
I0804 00:56:53.213151 20691 net.cpp:406] fconv2 <- bn2_relu2_0_split_0
I0804 00:56:53.213167 20691 net.cpp:380] fconv2 -> fconv2
I0804 00:56:53.217167 20691 net.cpp:122] Setting up fconv2
I0804 00:56:53.217202 20691 net.cpp:129] Top shape: 12 3 1 8192 (294912)
I0804 00:56:53.217211 20691 net.cpp:137] Memory required for data: 233963520
I0804 00:56:53.217236 20691 layer_factory.hpp:77] Creating layer fbn2
I0804 00:56:53.217252 20691 net.cpp:84] Creating Layer fbn2
I0804 00:56:53.217262 20691 net.cpp:406] fbn2 <- fconv2
I0804 00:56:53.217275 20691 net.cpp:380] fbn2 -> fbn2
I0804 00:56:53.217716 20691 net.cpp:122] Setting up fbn2
I0804 00:56:53.217737 20691 net.cpp:129] Top shape: 12 3 1 8192 (294912)
I0804 00:56:53.217746 20691 net.cpp:137] Memory required for data: 235143168
I0804 00:56:53.217761 20691 layer_factory.hpp:77] Creating layer frelu2
I0804 00:56:53.217780 20691 net.cpp:84] Creating Layer frelu2
I0804 00:56:53.217789 20691 net.cpp:406] frelu2 <- fbn2
I0804 00:56:53.217800 20691 net.cpp:367] frelu2 -> fbn2 (in-place)
I0804 00:56:53.218389 20691 net.cpp:122] Setting up frelu2
I0804 00:56:53.218412 20691 net.cpp:129] Top shape: 12 3 1 8192 (294912)
I0804 00:56:53.218420 20691 net.cpp:137] Memory required for data: 236322816
I0804 00:56:53.218432 20691 layer_factory.hpp:77] Creating layer feat2
I0804 00:56:53.218447 20691 net.cpp:84] Creating Layer feat2
I0804 00:56:53.218456 20691 net.cpp:406] feat2 <- data_data_0_split_2
I0804 00:56:53.218477 20691 net.cpp:406] feat2 <- fbn2
I0804 00:56:53.218488 20691 net.cpp:380] feat2 -> feat2
I0804 00:56:53.218549 20691 net.cpp:122] Setting up feat2
I0804 00:56:53.218564 20691 net.cpp:129] Top shape: 12 3 1 8192 (294912)
I0804 00:56:53.218572 20691 net.cpp:137] Memory required for data: 237502464
I0804 00:56:53.218580 20691 layer_factory.hpp:77] Creating layer data_lattice1
I0804 00:56:53.218638 20691 net.cpp:84] Creating Layer data_lattice1
I0804 00:56:53.218654 20691 net.cpp:406] data_lattice1 <- feat2
I0804 00:56:53.218669 20691 net.cpp:380] data_lattice1 -> data_lattice1
I0804 00:56:53.221860 20691 net.cpp:122] Setting up data_lattice1
I0804 00:56:53.221896 20691 net.cpp:129] Top shape: 12 3 1 8192 (294912)
I0804 00:56:53.221905 20691 net.cpp:137] Memory required for data: 238682112
I0804 00:56:53.221915 20691 layer_factory.hpp:77] Creating layer data_lattice1_data_lattice1_0_split
I0804 00:56:53.221930 20691 net.cpp:84] Creating Layer data_lattice1_data_lattice1_0_split
I0804 00:56:53.221940 20691 net.cpp:406] data_lattice1_data_lattice1_0_split <- data_lattice1
I0804 00:56:53.221953 20691 net.cpp:380] data_lattice1_data_lattice1_0_split -> data_lattice1_data_lattice1_0_split_0
I0804 00:56:53.221971 20691 net.cpp:380] data_lattice1_data_lattice1_0_split -> data_lattice1_data_lattice1_0_split_1
I0804 00:56:53.222054 20691 net.cpp:122] Setting up data_lattice1_data_lattice1_0_split
I0804 00:56:53.222070 20691 net.cpp:129] Top shape: 12 3 1 8192 (294912)
I0804 00:56:53.222080 20691 net.cpp:129] Top shape: 12 3 1 8192 (294912)
I0804 00:56:53.222087 20691 net.cpp:137] Memory required for data: 241041408
I0804 00:56:53.222095 20691 layer_factory.hpp:77] Creating layer conv3
I0804 00:56:53.222116 20691 net.cpp:84] Creating Layer conv3
I0804 00:56:53.222127 20691 net.cpp:406] conv3 <- bn2_relu2_0_split_1
I0804 00:56:53.222138 20691 net.cpp:406] conv3 <- data_lattice1_data_lattice1_0_split_0
I0804 00:56:53.222149 20691 net.cpp:406] conv3 <- data_lattice1_data_lattice1_0_split_1
I0804 00:56:53.222162 20691 net.cpp:380] conv3 -> conv3
I0804 00:56:53.257298 20691 net.cpp:122] Setting up conv3
I0804 00:56:53.257328 20691 net.cpp:129] Top shape: 12 128 1 8192 (12582912)
I0804 00:56:53.257336 20691 net.cpp:137] Memory required for data: 291373056
I0804 00:56:53.257350 20691 layer_factory.hpp:77] Creating layer bn3
I0804 00:56:53.257364 20691 net.cpp:84] Creating Layer bn3
I0804 00:56:53.257371 20691 net.cpp:406] bn3 <- conv3
I0804 00:56:53.257382 20691 net.cpp:380] bn3 -> bn3
I0804 00:56:53.257763 20691 net.cpp:122] Setting up bn3
I0804 00:56:53.257779 20691 net.cpp:129] Top shape: 12 128 1 8192 (12582912)
I0804 00:56:53.257786 20691 net.cpp:137] Memory required for data: 341704704
I0804 00:56:53.257798 20691 layer_factory.hpp:77] Creating layer relu3
I0804 00:56:53.257809 20691 net.cpp:84] Creating Layer relu3
I0804 00:56:53.257817 20691 net.cpp:406] relu3 <- bn3
I0804 00:56:53.257827 20691 net.cpp:367] relu3 -> bn3 (in-place)
I0804 00:56:53.258956 20691 net.cpp:122] Setting up relu3
I0804 00:56:53.258985 20691 net.cpp:129] Top shape: 12 128 1 8192 (12582912)
I0804 00:56:53.258991 20691 net.cpp:137] Memory required for data: 392036352
I0804 00:56:53.258999 20691 layer_factory.hpp:77] Creating layer bn3_relu3_0_split
I0804 00:56:53.259011 20691 net.cpp:84] Creating Layer bn3_relu3_0_split
I0804 00:56:53.259019 20691 net.cpp:406] bn3_relu3_0_split <- bn3
I0804 00:56:53.259032 20691 net.cpp:380] bn3_relu3_0_split -> bn3_relu3_0_split_0
I0804 00:56:53.259044 20691 net.cpp:380] bn3_relu3_0_split -> bn3_relu3_0_split_1
I0804 00:56:53.259055 20691 net.cpp:380] bn3_relu3_0_split -> bn3_relu3_0_split_2
I0804 00:56:53.259151 20691 net.cpp:122] Setting up bn3_relu3_0_split
I0804 00:56:53.259166 20691 net.cpp:129] Top shape: 12 128 1 8192 (12582912)
I0804 00:56:53.259176 20691 net.cpp:129] Top shape: 12 128 1 8192 (12582912)
I0804 00:56:53.259182 20691 net.cpp:129] Top shape: 12 128 1 8192 (12582912)
I0804 00:56:53.259188 20691 net.cpp:137] Memory required for data: 543031296
I0804 00:56:53.259194 20691 layer_factory.hpp:77] Creating layer fconv3
I0804 00:56:53.259218 20691 net.cpp:84] Creating Layer fconv3
I0804 00:56:53.259228 20691 net.cpp:406] fconv3 <- bn3_relu3_0_split_0
I0804 00:56:53.259241 20691 net.cpp:380] fconv3 -> fconv3
I0804 00:56:53.264412 20691 net.cpp:122] Setting up fconv3
I0804 00:56:53.264441 20691 net.cpp:129] Top shape: 12 3 1 8192 (294912)
I0804 00:56:53.264449 20691 net.cpp:137] Memory required for data: 544210944
I0804 00:56:53.264462 20691 layer_factory.hpp:77] Creating layer fbn3
I0804 00:56:53.264488 20691 net.cpp:84] Creating Layer fbn3
I0804 00:56:53.264497 20691 net.cpp:406] fbn3 <- fconv3
I0804 00:56:53.264508 20691 net.cpp:380] fbn3 -> fbn3
I0804 00:56:53.264861 20691 net.cpp:122] Setting up fbn3
I0804 00:56:53.264876 20691 net.cpp:129] Top shape: 12 3 1 8192 (294912)
I0804 00:56:53.264883 20691 net.cpp:137] Memory required for data: 545390592
I0804 00:56:53.264895 20691 layer_factory.hpp:77] Creating layer frelu3
I0804 00:56:53.264905 20691 net.cpp:84] Creating Layer frelu3
I0804 00:56:53.264912 20691 net.cpp:406] frelu3 <- fbn3
I0804 00:56:53.264920 20691 net.cpp:367] frelu3 -> fbn3 (in-place)
I0804 00:56:53.265413 20691 net.cpp:122] Setting up frelu3
I0804 00:56:53.265432 20691 net.cpp:129] Top shape: 12 3 1 8192 (294912)
I0804 00:56:53.265439 20691 net.cpp:137] Memory required for data: 546570240
I0804 00:56:53.265445 20691 layer_factory.hpp:77] Creating layer feat3
I0804 00:56:53.265458 20691 net.cpp:84] Creating Layer feat3
I0804 00:56:53.265475 20691 net.cpp:406] feat3 <- data_data_0_split_3
I0804 00:56:53.265486 20691 net.cpp:406] feat3 <- fbn3
I0804 00:56:53.265496 20691 net.cpp:380] feat3 -> feat3
I0804 00:56:53.265544 20691 net.cpp:122] Setting up feat3
I0804 00:56:53.265558 20691 net.cpp:129] Top shape: 12 3 1 8192 (294912)
I0804 00:56:53.265563 20691 net.cpp:137] Memory required for data: 547749888
I0804 00:56:53.265568 20691 layer_factory.hpp:77] Creating layer data_lattice2
I0804 00:56:53.265633 20691 net.cpp:84] Creating Layer data_lattice2
I0804 00:56:53.265646 20691 net.cpp:406] data_lattice2 <- feat3
I0804 00:56:53.265657 20691 net.cpp:380] data_lattice2 -> data_lattice2
I0804 00:56:53.268069 20691 net.cpp:122] Setting up data_lattice2
I0804 00:56:53.268096 20691 net.cpp:129] Top shape: 12 3 1 8192 (294912)
I0804 00:56:53.268103 20691 net.cpp:137] Memory required for data: 548929536
I0804 00:56:53.268110 20691 layer_factory.hpp:77] Creating layer data_lattice2_data_lattice2_0_split
I0804 00:56:53.268122 20691 net.cpp:84] Creating Layer data_lattice2_data_lattice2_0_split
I0804 00:56:53.268129 20691 net.cpp:406] data_lattice2_data_lattice2_0_split <- data_lattice2
I0804 00:56:53.268142 20691 net.cpp:380] data_lattice2_data_lattice2_0_split -> data_lattice2_data_lattice2_0_split_0
I0804 00:56:53.268155 20691 net.cpp:380] data_lattice2_data_lattice2_0_split -> data_lattice2_data_lattice2_0_split_1
I0804 00:56:53.268221 20691 net.cpp:122] Setting up data_lattice2_data_lattice2_0_split
I0804 00:56:53.268234 20691 net.cpp:129] Top shape: 12 3 1 8192 (294912)
I0804 00:56:53.268241 20691 net.cpp:129] Top shape: 12 3 1 8192 (294912)
I0804 00:56:53.268246 20691 net.cpp:137] Memory required for data: 551288832
I0804 00:56:53.268252 20691 layer_factory.hpp:77] Creating layer conv4
I0804 00:56:53.268265 20691 net.cpp:84] Creating Layer conv4
I0804 00:56:53.268273 20691 net.cpp:406] conv4 <- bn3_relu3_0_split_1
I0804 00:56:53.268283 20691 net.cpp:406] conv4 <- data_lattice2_data_lattice2_0_split_0
I0804 00:56:53.268290 20691 net.cpp:406] conv4 <- data_lattice2_data_lattice2_0_split_1
I0804 00:56:53.268301 20691 net.cpp:380] conv4 -> conv4
I0804 00:56:53.361177 20691 net.cpp:122] Setting up conv4
I0804 00:56:53.361207 20691 net.cpp:129] Top shape: 12 256 1 8192 (25165824)
I0804 00:56:53.361212 20691 net.cpp:137] Memory required for data: 651952128
I0804 00:56:53.361222 20691 layer_factory.hpp:77] Creating layer bn4
I0804 00:56:53.361232 20691 net.cpp:84] Creating Layer bn4
I0804 00:56:53.361238 20691 net.cpp:406] bn4 <- conv4
I0804 00:56:53.361245 20691 net.cpp:380] bn4 -> bn4
I0804 00:56:53.361495 20691 net.cpp:122] Setting up bn4
I0804 00:56:53.361506 20691 net.cpp:129] Top shape: 12 256 1 8192 (25165824)
I0804 00:56:53.361510 20691 net.cpp:137] Memory required for data: 752615424
I0804 00:56:53.361532 20691 layer_factory.hpp:77] Creating layer relu4
I0804 00:56:53.361541 20691 net.cpp:84] Creating Layer relu4
I0804 00:56:53.361546 20691 net.cpp:406] relu4 <- bn4
I0804 00:56:53.361552 20691 net.cpp:367] relu4 -> bn4 (in-place)
I0804 00:56:53.362411 20691 net.cpp:122] Setting up relu4
I0804 00:56:53.362429 20691 net.cpp:129] Top shape: 12 256 1 8192 (25165824)
I0804 00:56:53.362433 20691 net.cpp:137] Memory required for data: 853278720
I0804 00:56:53.362438 20691 layer_factory.hpp:77] Creating layer bn4_relu4_0_split
I0804 00:56:53.362447 20691 net.cpp:84] Creating Layer bn4_relu4_0_split
I0804 00:56:53.362452 20691 net.cpp:406] bn4_relu4_0_split <- bn4
I0804 00:56:53.362459 20691 net.cpp:380] bn4_relu4_0_split -> bn4_relu4_0_split_0
I0804 00:56:53.362476 20691 net.cpp:380] bn4_relu4_0_split -> bn4_relu4_0_split_1
I0804 00:56:53.362491 20691 net.cpp:380] bn4_relu4_0_split -> bn4_relu4_0_split_2
I0804 00:56:53.362552 20691 net.cpp:122] Setting up bn4_relu4_0_split
I0804 00:56:53.362561 20691 net.cpp:129] Top shape: 12 256 1 8192 (25165824)
I0804 00:56:53.362567 20691 net.cpp:129] Top shape: 12 256 1 8192 (25165824)
I0804 00:56:53.362571 20691 net.cpp:129] Top shape: 12 256 1 8192 (25165824)
I0804 00:56:53.362576 20691 net.cpp:137] Memory required for data: 1155268608
I0804 00:56:53.362579 20691 layer_factory.hpp:77] Creating layer fconv4
I0804 00:56:53.362591 20691 net.cpp:84] Creating Layer fconv4
I0804 00:56:53.362596 20691 net.cpp:406] fconv4 <- bn4_relu4_0_split_0
I0804 00:56:53.362604 20691 net.cpp:380] fconv4 -> fconv4
I0804 00:56:53.364612 20691 net.cpp:122] Setting up fconv4
I0804 00:56:53.364631 20691 net.cpp:129] Top shape: 12 3 1 8192 (294912)
I0804 00:56:53.364636 20691 net.cpp:137] Memory required for data: 1156448256
I0804 00:56:53.364645 20691 layer_factory.hpp:77] Creating layer fbn4
I0804 00:56:53.364653 20691 net.cpp:84] Creating Layer fbn4
I0804 00:56:53.364658 20691 net.cpp:406] fbn4 <- fconv4
I0804 00:56:53.364668 20691 net.cpp:380] fbn4 -> fbn4
I0804 00:56:53.364912 20691 net.cpp:122] Setting up fbn4
I0804 00:56:53.364923 20691 net.cpp:129] Top shape: 12 3 1 8192 (294912)
I0804 00:56:53.364928 20691 net.cpp:137] Memory required for data: 1157627904
I0804 00:56:53.364938 20691 layer_factory.hpp:77] Creating layer frelu4
I0804 00:56:53.364944 20691 net.cpp:84] Creating Layer frelu4
I0804 00:56:53.364949 20691 net.cpp:406] frelu4 <- fbn4
I0804 00:56:53.364955 20691 net.cpp:367] frelu4 -> fbn4 (in-place)
I0804 00:56:53.365285 20691 net.cpp:122] Setting up frelu4
I0804 00:56:53.365299 20691 net.cpp:129] Top shape: 12 3 1 8192 (294912)
I0804 00:56:53.365303 20691 net.cpp:137] Memory required for data: 1158807552
I0804 00:56:53.365308 20691 layer_factory.hpp:77] Creating layer feat4
I0804 00:56:53.365319 20691 net.cpp:84] Creating Layer feat4
I0804 00:56:53.365324 20691 net.cpp:406] feat4 <- data_data_0_split_4
I0804 00:56:53.365330 20691 net.cpp:406] feat4 <- fbn4
I0804 00:56:53.365339 20691 net.cpp:380] feat4 -> feat4
I0804 00:56:53.365371 20691 net.cpp:122] Setting up feat4
I0804 00:56:53.365380 20691 net.cpp:129] Top shape: 12 3 1 8192 (294912)
I0804 00:56:53.365384 20691 net.cpp:137] Memory required for data: 1159987200
I0804 00:56:53.365387 20691 layer_factory.hpp:77] Creating layer data_lattice3
I0804 00:56:53.365492 20691 net.cpp:84] Creating Layer data_lattice3
I0804 00:56:53.365504 20691 net.cpp:406] data_lattice3 <- feat4
I0804 00:56:53.365514 20691 net.cpp:380] data_lattice3 -> data_lattice3
I0804 00:56:53.367120 20691 net.cpp:122] Setting up data_lattice3
I0804 00:56:53.367138 20691 net.cpp:129] Top shape: 12 3 1 8192 (294912)
I0804 00:56:53.367142 20691 net.cpp:137] Memory required for data: 1161166848
I0804 00:56:53.367147 20691 layer_factory.hpp:77] Creating layer data_lattice3_data_lattice3_0_split
I0804 00:56:53.367156 20691 net.cpp:84] Creating Layer data_lattice3_data_lattice3_0_split
I0804 00:56:53.367161 20691 net.cpp:406] data_lattice3_data_lattice3_0_split <- data_lattice3
I0804 00:56:53.367169 20691 net.cpp:380] data_lattice3_data_lattice3_0_split -> data_lattice3_data_lattice3_0_split_0
I0804 00:56:53.367179 20691 net.cpp:380] data_lattice3_data_lattice3_0_split -> data_lattice3_data_lattice3_0_split_1
I0804 00:56:53.367223 20691 net.cpp:122] Setting up data_lattice3_data_lattice3_0_split
I0804 00:56:53.367231 20691 net.cpp:129] Top shape: 12 3 1 8192 (294912)
I0804 00:56:53.367236 20691 net.cpp:129] Top shape: 12 3 1 8192 (294912)
I0804 00:56:53.367240 20691 net.cpp:137] Memory required for data: 1163526144
I0804 00:56:53.367246 20691 layer_factory.hpp:77] Creating layer conv5
I0804 00:56:53.367259 20691 net.cpp:84] Creating Layer conv5
I0804 00:56:53.367264 20691 net.cpp:406] conv5 <- bn4_relu4_0_split_1
I0804 00:56:53.367269 20691 net.cpp:406] conv5 <- data_lattice3_data_lattice3_0_split_0
I0804 00:56:53.367274 20691 net.cpp:406] conv5 <- data_lattice3_data_lattice3_0_split_1
I0804 00:56:53.367281 20691 net.cpp:380] conv5 -> conv5
I0804 00:56:53.528715 20691 net.cpp:122] Setting up conv5
I0804 00:56:53.528751 20691 net.cpp:129] Top shape: 12 256 1 8192 (25165824)
I0804 00:56:53.528758 20691 net.cpp:137] Memory required for data: 1264189440
I0804 00:56:53.528770 20691 layer_factory.hpp:77] Creating layer bn5
I0804 00:56:53.528785 20691 net.cpp:84] Creating Layer bn5
I0804 00:56:53.528805 20691 net.cpp:406] bn5 <- conv5
I0804 00:56:53.528815 20691 net.cpp:380] bn5 -> bn5
I0804 00:56:53.529076 20691 net.cpp:122] Setting up bn5
I0804 00:56:53.529088 20691 net.cpp:129] Top shape: 12 256 1 8192 (25165824)
I0804 00:56:53.529091 20691 net.cpp:137] Memory required for data: 1364852736
I0804 00:56:53.529099 20691 layer_factory.hpp:77] Creating layer relu5
I0804 00:56:53.529109 20691 net.cpp:84] Creating Layer relu5
I0804 00:56:53.529114 20691 net.cpp:406] relu5 <- bn5
I0804 00:56:53.529119 20691 net.cpp:367] relu5 -> bn5 (in-place)
I0804 00:56:53.530259 20691 net.cpp:122] Setting up relu5
I0804 00:56:53.530277 20691 net.cpp:129] Top shape: 12 256 1 8192 (25165824)
I0804 00:56:53.530282 20691 net.cpp:137] Memory required for data: 1465516032
I0804 00:56:53.530287 20691 layer_factory.hpp:77] Creating layer bn5_relu5_0_split
I0804 00:56:53.530295 20691 net.cpp:84] Creating Layer bn5_relu5_0_split
I0804 00:56:53.530300 20691 net.cpp:406] bn5_relu5_0_split <- bn5
I0804 00:56:53.530310 20691 net.cpp:380] bn5_relu5_0_split -> bn5_relu5_0_split_0
I0804 00:56:53.530321 20691 net.cpp:380] bn5_relu5_0_split -> bn5_relu5_0_split_1
I0804 00:56:53.530328 20691 net.cpp:380] bn5_relu5_0_split -> bn5_relu5_0_split_2
I0804 00:56:53.530390 20691 net.cpp:122] Setting up bn5_relu5_0_split
I0804 00:56:53.530400 20691 net.cpp:129] Top shape: 12 256 1 8192 (25165824)
I0804 00:56:53.530405 20691 net.cpp:129] Top shape: 12 256 1 8192 (25165824)
I0804 00:56:53.530409 20691 net.cpp:129] Top shape: 12 256 1 8192 (25165824)
I0804 00:56:53.530412 20691 net.cpp:137] Memory required for data: 1767505920
I0804 00:56:53.530417 20691 layer_factory.hpp:77] Creating layer fconv5
I0804 00:56:53.530431 20691 net.cpp:84] Creating Layer fconv5
I0804 00:56:53.530436 20691 net.cpp:406] fconv5 <- bn5_relu5_0_split_0
I0804 00:56:53.530448 20691 net.cpp:380] fconv5 -> fconv5
I0804 00:56:53.532435 20691 net.cpp:122] Setting up fconv5
I0804 00:56:53.532454 20691 net.cpp:129] Top shape: 12 3 1 8192 (294912)
I0804 00:56:53.532459 20691 net.cpp:137] Memory required for data: 1768685568
I0804 00:56:53.532474 20691 layer_factory.hpp:77] Creating layer fbn5
I0804 00:56:53.532485 20691 net.cpp:84] Creating Layer fbn5
I0804 00:56:53.532490 20691 net.cpp:406] fbn5 <- fconv5
I0804 00:56:53.532497 20691 net.cpp:380] fbn5 -> fbn5
I0804 00:56:53.532742 20691 net.cpp:122] Setting up fbn5
I0804 00:56:53.532752 20691 net.cpp:129] Top shape: 12 3 1 8192 (294912)
I0804 00:56:53.532757 20691 net.cpp:137] Memory required for data: 1769865216
I0804 00:56:53.532765 20691 layer_factory.hpp:77] Creating layer frelu5
I0804 00:56:53.532773 20691 net.cpp:84] Creating Layer frelu5
I0804 00:56:53.532778 20691 net.cpp:406] frelu5 <- fbn5
I0804 00:56:53.532783 20691 net.cpp:367] frelu5 -> fbn5 (in-place)
I0804 00:56:53.533498 20691 net.cpp:122] Setting up frelu5
I0804 00:56:53.533515 20691 net.cpp:129] Top shape: 12 3 1 8192 (294912)
I0804 00:56:53.533519 20691 net.cpp:137] Memory required for data: 1771044864
I0804 00:56:53.533524 20691 layer_factory.hpp:77] Creating layer feat5
I0804 00:56:53.533537 20691 net.cpp:84] Creating Layer feat5
I0804 00:56:53.533543 20691 net.cpp:406] feat5 <- data_data_0_split_5
I0804 00:56:53.533550 20691 net.cpp:406] feat5 <- fbn5
I0804 00:56:53.533558 20691 net.cpp:380] feat5 -> feat5
I0804 00:56:53.533594 20691 net.cpp:122] Setting up feat5
I0804 00:56:53.533601 20691 net.cpp:129] Top shape: 12 3 1 8192 (294912)
I0804 00:56:53.533605 20691 net.cpp:137] Memory required for data: 1772224512
I0804 00:56:53.533609 20691 layer_factory.hpp:77] Creating layer data_lattice4
I0804 00:56:53.533711 20691 net.cpp:84] Creating Layer data_lattice4
I0804 00:56:53.533722 20691 net.cpp:406] data_lattice4 <- feat5
I0804 00:56:53.533731 20691 net.cpp:380] data_lattice4 -> data_lattice4
I0804 00:56:53.535498 20691 net.cpp:122] Setting up data_lattice4
I0804 00:56:53.535518 20691 net.cpp:129] Top shape: 12 3 1 8192 (294912)
I0804 00:56:53.535523 20691 net.cpp:137] Memory required for data: 1773404160
I0804 00:56:53.535527 20691 layer_factory.hpp:77] Creating layer data_lattice4_data_lattice4_0_split
I0804 00:56:53.535538 20691 net.cpp:84] Creating Layer data_lattice4_data_lattice4_0_split
I0804 00:56:53.535543 20691 net.cpp:406] data_lattice4_data_lattice4_0_split <- data_lattice4
I0804 00:56:53.535552 20691 net.cpp:380] data_lattice4_data_lattice4_0_split -> data_lattice4_data_lattice4_0_split_0
I0804 00:56:53.535562 20691 net.cpp:380] data_lattice4_data_lattice4_0_split -> data_lattice4_data_lattice4_0_split_1
I0804 00:56:53.535621 20691 net.cpp:122] Setting up data_lattice4_data_lattice4_0_split
I0804 00:56:53.535631 20691 net.cpp:129] Top shape: 12 3 1 8192 (294912)
I0804 00:56:53.535637 20691 net.cpp:129] Top shape: 12 3 1 8192 (294912)
I0804 00:56:53.535641 20691 net.cpp:137] Memory required for data: 1775763456
I0804 00:56:53.535646 20691 layer_factory.hpp:77] Creating layer conv6
I0804 00:56:53.535656 20691 net.cpp:84] Creating Layer conv6
I0804 00:56:53.535662 20691 net.cpp:406] conv6 <- bn5_relu5_0_split_1
I0804 00:56:53.535668 20691 net.cpp:406] conv6 <- data_lattice4_data_lattice4_0_split_0
I0804 00:56:53.535673 20691 net.cpp:406] conv6 <- data_lattice4_data_lattice4_0_split_1
I0804 00:56:53.535681 20691 net.cpp:380] conv6 -> conv6
I0804 00:56:53.695339 20691 net.cpp:122] Setting up conv6
I0804 00:56:53.695371 20691 net.cpp:129] Top shape: 12 256 1 8192 (25165824)
I0804 00:56:53.695376 20691 net.cpp:137] Memory required for data: 1876426752
I0804 00:56:53.695385 20691 layer_factory.hpp:77] Creating layer bn6
I0804 00:56:53.695394 20691 net.cpp:84] Creating Layer bn6
I0804 00:56:53.695402 20691 net.cpp:406] bn6 <- conv6
I0804 00:56:53.695410 20691 net.cpp:380] bn6 -> bn6
I0804 00:56:53.695665 20691 net.cpp:122] Setting up bn6
I0804 00:56:53.695677 20691 net.cpp:129] Top shape: 12 256 1 8192 (25165824)
I0804 00:56:53.695682 20691 net.cpp:137] Memory required for data: 1977090048
I0804 00:56:53.695693 20691 layer_factory.hpp:77] Creating layer relu6
I0804 00:56:53.695704 20691 net.cpp:84] Creating Layer relu6
I0804 00:56:53.695709 20691 net.cpp:406] relu6 <- bn6
I0804 00:56:53.695717 20691 net.cpp:367] relu6 -> bn6 (in-place)
I0804 00:56:53.696131 20691 net.cpp:122] Setting up relu6
I0804 00:56:53.696146 20691 net.cpp:129] Top shape: 12 256 1 8192 (25165824)
I0804 00:56:53.696149 20691 net.cpp:137] Memory required for data: 2077753344
I0804 00:56:53.696153 20691 layer_factory.hpp:77] Creating layer concat6
I0804 00:56:53.696197 20691 net.cpp:84] Creating Layer concat6
I0804 00:56:53.696205 20691 net.cpp:406] concat6 <- bn6
I0804 00:56:53.696213 20691 net.cpp:406] concat6 <- bn2_relu2_0_split_2
I0804 00:56:53.696216 20691 net.cpp:406] concat6 <- bn3_relu3_0_split_2
I0804 00:56:53.696221 20691 net.cpp:406] concat6 <- bn4_relu4_0_split_2
I0804 00:56:53.696225 20691 net.cpp:406] concat6 <- bn5_relu5_0_split_2
I0804 00:56:53.696233 20691 net.cpp:380] concat6 -> concat6
I0804 00:56:53.696291 20691 net.cpp:122] Setting up concat6
I0804 00:56:53.696303 20691 net.cpp:129] Top shape: 12 960 1 8192 (94371840)
I0804 00:56:53.696307 20691 net.cpp:137] Memory required for data: 2455240704
I0804 00:56:53.696311 20691 layer_factory.hpp:77] Creating layer conv7
I0804 00:56:53.696326 20691 net.cpp:84] Creating Layer conv7
I0804 00:56:53.696329 20691 net.cpp:406] conv7 <- concat6
I0804 00:56:53.696339 20691 net.cpp:380] conv7 -> conv7
I0804 00:56:53.699242 20691 net.cpp:122] Setting up conv7
I0804 00:56:53.699261 20691 net.cpp:129] Top shape: 12 128 1 8192 (12582912)
I0804 00:56:53.699266 20691 net.cpp:137] Memory required for data: 2505572352
I0804 00:56:53.699275 20691 layer_factory.hpp:77] Creating layer bn7
I0804 00:56:53.699283 20691 net.cpp:84] Creating Layer bn7
I0804 00:56:53.699288 20691 net.cpp:406] bn7 <- conv7
I0804 00:56:53.699296 20691 net.cpp:380] bn7 -> bn7
I0804 00:56:53.699540 20691 net.cpp:122] Setting up bn7
I0804 00:56:53.699553 20691 net.cpp:129] Top shape: 12 128 1 8192 (12582912)
I0804 00:56:53.699558 20691 net.cpp:137] Memory required for data: 2555904000
I0804 00:56:53.699566 20691 layer_factory.hpp:77] Creating layer relu7
I0804 00:56:53.699575 20691 net.cpp:84] Creating Layer relu7
I0804 00:56:53.699580 20691 net.cpp:406] relu7 <- bn7
I0804 00:56:53.699586 20691 net.cpp:367] relu7 -> bn7 (in-place)
I0804 00:56:53.700315 20691 net.cpp:122] Setting up relu7
I0804 00:56:53.700332 20691 net.cpp:129] Top shape: 12 128 1 8192 (12582912)
I0804 00:56:53.700337 20691 net.cpp:137] Memory required for data: 2606235648
I0804 00:56:53.700342 20691 layer_factory.hpp:77] Creating layer conv8
I0804 00:56:53.700354 20691 net.cpp:84] Creating Layer conv8
I0804 00:56:53.700359 20691 net.cpp:406] conv8 <- bn7
I0804 00:56:53.700369 20691 net.cpp:380] conv8 -> conv8
I0804 00:56:53.703642 20691 net.cpp:122] Setting up conv8
I0804 00:56:53.703660 20691 net.cpp:129] Top shape: 12 13 1 8192 (1277952)
I0804 00:56:53.703665 20691 net.cpp:137] Memory required for data: 2611347456
I0804 00:56:53.703673 20691 layer_factory.hpp:77] Creating layer conv8_conv8_0_split
I0804 00:56:53.703683 20691 net.cpp:84] Creating Layer conv8_conv8_0_split
I0804 00:56:53.703688 20691 net.cpp:406] conv8_conv8_0_split <- conv8
I0804 00:56:53.703696 20691 net.cpp:380] conv8_conv8_0_split -> conv8_conv8_0_split_0
I0804 00:56:53.703706 20691 net.cpp:380] conv8_conv8_0_split -> conv8_conv8_0_split_1
I0804 00:56:53.703752 20691 net.cpp:122] Setting up conv8_conv8_0_split
I0804 00:56:53.703763 20691 net.cpp:129] Top shape: 12 13 1 8192 (1277952)
I0804 00:56:53.703768 20691 net.cpp:129] Top shape: 12 13 1 8192 (1277952)
I0804 00:56:53.703771 20691 net.cpp:137] Memory required for data: 2621571072
I0804 00:56:53.703774 20691 layer_factory.hpp:77] Creating layer loss
I0804 00:56:53.703819 20691 net.cpp:84] Creating Layer loss
I0804 00:56:53.703828 20691 net.cpp:406] loss <- conv8_conv8_0_split_0
I0804 00:56:53.703836 20691 net.cpp:406] loss <- label_data_1_split_0
I0804 00:56:53.703843 20691 net.cpp:380] loss -> loss
…
