…
I0731 15:56:50.177565  3618 net.cpp:294] The NetState phase (0) differed from the phase (1) specified by a rule in layer data
I0731 15:56:50.178189  3618 net.cpp:51] Initializing net from parameters: 
state {
  phase: TRAIN
}
layer {
  name: "data"
  type: "Python"
  top: "data"
  top: "label"
  include {
    phase: TRAIN
  }
  python_param {
    module: "dataset_lidar"
    layer: "InputShapenet"
    param_str: "{\'sample_size\': 90000, \'test_area\': \'6\', \'batch_size\': 1, \'feat_dims\': \'x_y_z\', \'subset\': \'train\', \'root\': \'../../data/shapenet_ericyi_ply\', \'jitter_xyz\': 0.01, \'jitter_stretch\': 0.05, \'jitter_rotation\': 5.0}"
  }
}
layer {
  name: "data_feat"
  type: "Python"
  bottom: "data"
  top: "data_feat"
  python_param {
    module: "custom_layers"
    layer: "PickAndScale"
    param_str: "0_1_2"
  }
}
layer {
  name: "conv1"
  type: "Convolution"
  bottom: "data_feat"
  top: "conv1"
  param {
    lr_mult: 1
  }
  param {
    lr_mult: 0.1
  }
  convolution_param {
    num_output: 32
    pad: 0
    kernel_size: 1
    stride: 1
    weight_filler {
      type: "xavier"
    }
    bias_filler {
      type: "constant"
      value: 0
    }
  }
}
layer {
  name: "bn1"
  type: "BatchNorm"
  bottom: "conv1"
  top: "bn1"
}
layer {
  name: "relu1"
  type: "ReLU"
  bottom: "bn1"
  top: "bn1"
}
layer {
  name: "data_lattice9"
  type: "Python"
  bottom: "data"
  top: "data_lattice9"
  python_param {
    module: "custom_layers"
    layer: "PickAndScale"
    param_str: "0*128_1*128_2*128"
  }
}
layer {
  name: "conv9"
  type: "Permutohedral"
  bottom: "bn1"
  bottom: "data_lattice9"
  bottom: "data_lattice9"
  top: "conv9"
  param {
    lr_mult: 1
    decay_mult: 1
  }
  param {
    lr_mult: 2
    decay_mult: 0
  }
  permutohedral_param {
    num_output: 64
    neighborhood_size: 1
    filter_filler {
      type: "gaussian"
      std: 0.001
    }
    bias_term: true
    bias_filler {
      type: "constant"
      value: 0
    }
    group: 1
    norm_type: AFTER
    offset_type: NONE
  }
}
layer {
  name: "bn9"
  type: "BatchNorm"
  bottom: "conv9"
  top: "bn9"
}
layer {
  name: "relu9"
  type: "ReLU"
  bottom: "bn9"
  top: "bn9"
}
layer {
  name: "data_lattice0"
  type: "Python"
  bottom: "data"
  top: "data_lattice0"
  python_param {
    module: "custom_layers"
    layer: "PickAndScale"
    param_str: "0*64_1*64_2*64"
  }
}
layer {
  name: "conv2"
  type: "Permutohedral"
  bottom: "bn9"
  bottom: "data_lattice0"
  bottom: "data_lattice0"
  top: "conv2"
  param {
    lr_mult: 1
    decay_mult: 1
  }
  param {
    lr_mult: 2
    decay_mult: 0
  }
  permutohedral_param {
    num_output: 64
    neighborhood_size: 1
    filter_filler {
      type: "gaussian"
      std: 0.001
    }
    bias_term: true
    bias_filler {
      type: "constant"
      value: 0
    }
    group: 1
    norm_type: AFTER
    offset_type: NONE
  }
}
layer {
  name: "bn2"
  type: "BatchNorm"
  bottom: "conv2"
  top: "bn2"
}
layer {
  name: "relu2"
  type: "ReLU"
  bottom: "bn2"
  top: "bn2"
}
layer {
  name: "data_lattice1"
  type: "Python"
  bottom: "data"
  top: "data_lattice1"
  python_param {
    module: "custom_layers"
    layer: "PickAndScale"
    param_str: "0*32_1*32_2*32"
  }
}
layer {
  name: "conv3"
  type: "Permutohedral"
  bottom: "bn2"
  bottom: "data_lattice1"
  bottom: "data_lattice1"
  top: "conv3"
  param {
    lr_mult: 1
    decay_mult: 1
  }
  param {
    lr_mult: 2
    decay_mult: 0
  }
  permutohedral_param {
    num_output: 128
    neighborhood_size: 1
    filter_filler {
      type: "gaussian"
      std: 0.001
    }
    bias_term: true
    bias_filler {
      type: "constant"
      value: 0
    }
    group: 1
    norm_type: AFTER
    offset_type: NONE
  }
}
layer {
  name: "bn3"
  type: "BatchNorm"
  bottom: "conv3"
  top: "bn3"
}
layer {
  name: "relu3"
  type: "ReLU"
  bottom: "bn3"
  top: "bn3"
}
layer {
  name: "data_lattice2"
  type: "Python"
  bottom: "data"
  top: "data_lattice2"
  python_param {
    module: "custom_layers"
    layer: "PickAndScale"
    param_str: "0*16_1*16_2*16"
  }
}
layer {
  name: "conv4"
  type: "Permutohedral"
  bottom: "bn3"
  bottom: "data_lattice2"
  bottom: "data_lattice2"
  top: "conv4"
  param {
    lr_mult: 1
    decay_mult: 1
  }
  param {
    lr_mult: 2
    decay_mult: 0
  }
  permutohedral_param {
    num_output: 256
    neighborhood_size: 1
    filter_filler {
      type: "gaussian"
      std: 0.001
    }
    bias_term: true
    bias_filler {
      type: "constant"
      value: 0
    }
    group: 1
    norm_type: AFTER
    offset_type: NONE
  }
}
layer {
  name: "bn4"
  type: "BatchNorm"
  bottom: "conv4"
  top: "bn4"
}
layer {
  name: "relu4"
  type: "ReLU"
  bottom: "bn4"
  top: "bn4"
}
layer {
  name: "data_lattice3"
  type: "Python"
  bottom: "data"
  top: "data_lattice3"
  python_param {
    module: "custom_layers"
    layer: "PickAndScale"
    param_str: "0*8_1*8_2*8"
  }
}
layer {
  name: "conv5"
  type: "Permutohedral"
  bottom: "bn4"
  bottom: "data_lattice3"
  bottom: "data_lattice3"
  top: "conv5"
  param {
    lr_mult: 1
    decay_mult: 1
  }
  param {
    lr_mult: 2
    decay_mult: 0
  }
  permutohedral_param {
    num_output: 256
    neighborhood_size: 1
    filter_filler {
      type: "gaussian"
      std: 0.001
    }
    bias_term: true
    bias_filler {
      type: "constant"
      value: 0
    }
    group: 1
    norm_type: AFTER
    offset_type: NONE
  }
}
layer {
  name: "bn5"
  type: "BatchNorm"
  bottom: "conv5"
  top: "bn5"
}
layer {
  name: "relu5"
  type: "ReLU"
  bottom: "bn5"
  top: "bn5"
}
layer {
  name: "data_lattice4"
  type: "Python"
  bottom: "data"
  top: "data_lattice4"
  python_param {
    module: "custom_layers"
    layer: "PickAndScale"
    param_str: "0*4_1*4_2*4"
  }
}
layer {
  name: "conv6"
  type: "Permutohedral"
  bottom: "bn5"
  bottom: "data_lattice4"
  bottom: "data_lattice4"
  top: "conv6"
  param {
    lr_mult: 1
    decay_mult: 1
  }
  param {
    lr_mult: 2
    decay_mult: 0
  }
  permutohedral_param {
    num_output: 256
    neighborhood_size: 1
    filter_filler {
      type: "gaussian"
      std: 0.001
    }
    bias_term: true
    bias_filler {
      type: "constant"
      value: 0
    }
    group: 1
    norm_type: AFTER
    offset_type: NONE
  }
}
layer {
  name: "bn6"
  type: "BatchNorm"
  bottom: "conv6"
  top: "bn6"
}
layer {
  name: "relu6"
  type: "ReLU"
  bottom: "bn6"
  top: "bn6"
}
layer {
  name: "data_lattice5"
  type: "Python"
  bottom: "data"
  top: "data_lattice5"
  python_param {
    module: "custom_layers"
    layer: "PickAndScale"
    param_str: "0*2_1*2_2*2"
  }
}
layer {
  name: "conv9_"
  type: "Permutohedral"
  bottom: "bn6"
  bottom: "data_lattice5"
  bottom: "data_lattice5"
  top: "conv9_"
  param {
    lr_mult: 1
    decay_mult: 1
  }
  param {
    lr_mult: 2
    decay_mult: 0
  }
  permutohedral_param {
    num_output: 256
    neighborhood_size: 1
    filter_filler {
      type: "gaussian"
      std: 0.001
    }
    bias_term: true
    bias_filler {
      type: "constant"
      value: 0
    }
    group: 1
    norm_type: AFTER
    offset_type: NONE
  }
}
layer {
  name: "bn9_"
  type: "BatchNorm"
  bottom: "conv9_"
  top: "bn9_"
}
layer {
  name: "relu9_"
  type: "ReLU"
  bottom: "bn9_"
  top: "bn9_"
}
layer {
  name: "concat6"
  type: "Concat"
  bottom: "bn9"
  bottom: "bn6"
  bottom: "bn2"
  bottom: "bn3"
  bottom: "bn4"
  bottom: "bn5"
  bottom: "bn9_"
  top: "concat6"
}
layer {
  name: "conv7"
  type: "Convolution"
  bottom: "concat6"
  top: "conv7"
  param {
    lr_mult: 1
  }
  param {
    lr_mult: 0.1
  }
  convolution_param {
    num_output: 128
    pad: 0
    kernel_size: 1
    stride: 1
    weight_filler {
      type: "xavier"
    }
    bias_filler {
      type: "constant"
      value: 0
    }
  }
}
layer {
  name: "bn7"
  type: "BatchNorm"
  bottom: "conv7"
  top: "bn7"
}
layer {
  name: "relu7"
  type: "ReLU"
  bottom: "bn7"
  top: "bn7"
}
layer {
  name: "conv8"
  type: "Convolution"
  bottom: "bn7"
  top: "conv8"
  param {
    lr_mult: 1
  }
  param {
    lr_mult: 0.1
  }
  convolution_param {
    num_output: 13
    pad: 0
    kernel_size: 1
    stride: 1
    weight_filler {
      type: "xavier"
    }
    bias_filler {
      type: "constant"
      value: 0
    }
  }
}
layer {
  name: "loss"
  type: "SoftmaxWithLoss"
  bottom: "conv8"
  bottom: "label"
  top: "loss"
}
layer {
  name: "accuracy"
  type: "Accuracy"
  bottom: "conv8"
  bottom: "label"
  top: "accuracy"
}
I0731 15:56:50.196456  3618 layer_factory.hpp:77] Creating layer data
I0731 15:56:50.231176  3618 net.cpp:84] Creating Layer data
I0731 15:56:50.231246  3618 net.cpp:380] data -> data
I0731 15:56:50.231391  3618 net.cpp:380] data -> label
I0731 15:56:50.721863  3622 upgrade_proto.cpp:1084] Attempting to upgrade input file specified using deprecated 'solver_type' field (enum)': /mnt/lustre/wangjiayun/repos/splatnet/exp/lidar3d/area6/6_solver.prototxt
…
I0731 15:56:50.767288  3624 upgrade_proto.cpp:1084] Attempting to upgrade input file specified using deprecated 'solver_type' field (enum)': /mnt/lustre/wangjiayun/repos/splatnet/exp/lidar3d/area6/6_solver.prototxt
I0731 15:56:50.767386  3624 upgrade_proto.cpp:1091] Successfully upgraded file specified using deprecated 'solver_type' field (enum) to 'type' field (string).
W0731 15:56:50.767393  3624 upgrade_proto.cpp:1093] Note that future Caffe releases will only support 'type' field (string) for a solver's type.
I0731 16:03:47.851747  3618 net.cpp:122] Setting up data
I0731 16:03:47.875432  3618 net.cpp:129] Top shape: 1 3 1 90000 (270000)
I0731 16:03:47.875495  3618 net.cpp:129] Top shape: 1 1 1 90000 (90000)
I0731 16:03:47.875505  3618 net.cpp:137] Memory required for data: 1440000
I0731 16:03:47.902428  3618 layer_factory.hpp:77] Creating layer data_data_0_split
I0731 16:03:47.954978  3618 net.cpp:84] Creating Layer data_data_0_split
I0731 16:03:47.972059  3618 net.cpp:406] data_data_0_split <- data
I0731 16:03:47.988996  3618 net.cpp:380] data_data_0_split -> data_data_0_split_0
I0731 16:03:48.000388  3618 net.cpp:380] data_data_0_split -> data_data_0_split_1
I0731 16:03:48.000442  3618 net.cpp:380] data_data_0_split -> data_data_0_split_2
I0731 16:03:48.000460  3618 net.cpp:380] data_data_0_split -> data_data_0_split_3
I0731 16:03:48.000494  3618 net.cpp:380] data_data_0_split -> data_data_0_split_4
I0731 16:03:48.000507  3618 net.cpp:380] data_data_0_split -> data_data_0_split_5
I0731 16:03:48.000520  3618 net.cpp:380] data_data_0_split -> data_data_0_split_6
I0731 16:03:48.000536  3618 net.cpp:380] data_data_0_split -> data_data_0_split_7
I0731 16:03:48.024677  3618 net.cpp:122] Setting up data_data_0_split
I0731 16:03:48.024741  3618 net.cpp:129] Top shape: 1 3 1 90000 (270000)
I0731 16:03:48.024755  3618 net.cpp:129] Top shape: 1 3 1 90000 (270000)
I0731 16:03:48.024776  3618 net.cpp:129] Top shape: 1 3 1 90000 (270000)
I0731 16:03:48.024785  3618 net.cpp:129] Top shape: 1 3 1 90000 (270000)
I0731 16:03:48.024792  3618 net.cpp:129] Top shape: 1 3 1 90000 (270000)
I0731 16:03:48.024799  3618 net.cpp:129] Top shape: 1 3 1 90000 (270000)
I0731 16:03:48.024808  3618 net.cpp:129] Top shape: 1 3 1 90000 (270000)
I0731 16:03:48.024816  3618 net.cpp:129] Top shape: 1 3 1 90000 (270000)
I0731 16:03:48.024822  3618 net.cpp:137] Memory required for data: 10080000
I0731 16:03:48.024832  3618 layer_factory.hpp:77] Creating layer label_data_1_split
I0731 16:03:48.024863  3618 net.cpp:84] Creating Layer label_data_1_split
I0731 16:03:48.024876  3618 net.cpp:406] label_data_1_split <- label
I0731 16:03:48.024890  3618 net.cpp:380] label_data_1_split -> label_data_1_split_0
I0731 16:03:48.024907  3618 net.cpp:380] label_data_1_split -> label_data_1_split_1
I0731 16:03:48.024963  3618 net.cpp:122] Setting up label_data_1_split
I0731 16:03:48.024977  3618 net.cpp:129] Top shape: 1 1 1 90000 (90000)
I0731 16:03:48.024986  3618 net.cpp:129] Top shape: 1 1 1 90000 (90000)
I0731 16:03:48.024992  3618 net.cpp:137] Memory required for data: 10800000
I0731 16:03:48.024998  3618 layer_factory.hpp:77] Creating layer data_feat
I0731 16:03:48.093951  3618 net.cpp:84] Creating Layer data_feat
I0731 16:03:48.094008  3618 net.cpp:406] data_feat <- data_data_0_split_0
I0731 16:03:48.094029  3618 net.cpp:380] data_feat -> data_feat
I0731 16:03:48.109293  3618 net.cpp:122] Setting up data_feat
I0731 16:03:48.109342  3618 net.cpp:129] Top shape: 1 3 1 90000 (270000)
I0731 16:03:48.109351  3618 net.cpp:137] Memory required for data: 11880000
I0731 16:03:48.109362  3618 layer_factory.hpp:77] Creating layer conv1
I0731 16:03:48.120808  3618 net.cpp:84] Creating Layer conv1
I0731 16:03:48.120852  3618 net.cpp:406] conv1 <- data_feat
I0731 16:03:48.120869  3618 net.cpp:380] conv1 -> conv1
I0731 16:03:52.472115  3618 net.cpp:122] Setting up conv1
I0731 16:03:52.472172  3618 net.cpp:129] Top shape: 1 32 1 90000 (2880000)
I0731 16:03:52.472182  3618 net.cpp:137] Memory required for data: 23400000
I0731 16:03:52.475530  3618 layer_factory.hpp:77] Creating layer bn1
I0731 16:03:52.476625  3618 net.cpp:84] Creating Layer bn1
I0731 16:03:52.476665  3618 net.cpp:406] bn1 <- conv1
I0731 16:03:52.476685  3618 net.cpp:380] bn1 -> bn1
I0731 16:03:52.496973  3618 net.cpp:122] Setting up bn1
I0731 16:03:52.497036  3618 net.cpp:129] Top shape: 1 32 1 90000 (2880000)
I0731 16:03:52.497046  3618 net.cpp:137] Memory required for data: 34920000
I0731 16:03:52.497076  3618 layer_factory.hpp:77] Creating layer relu1
I0731 16:03:52.498143  3618 net.cpp:84] Creating Layer relu1
I0731 16:03:52.498181  3618 net.cpp:406] relu1 <- bn1
I0731 16:03:52.498200  3618 net.cpp:367] relu1 -> bn1 (in-place)
I0731 16:03:52.509877  3618 net.cpp:122] Setting up relu1
I0731 16:03:52.509932  3618 net.cpp:129] Top shape: 1 32 1 90000 (2880000)
I0731 16:03:52.509943  3618 net.cpp:137] Memory required for data: 46440000
I0731 16:03:52.509953  3618 layer_factory.hpp:77] Creating layer data_lattice9
I0731 16:03:52.510042  3618 net.cpp:84] Creating Layer data_lattice9
I0731 16:03:52.510058  3618 net.cpp:406] data_lattice9 <- data_data_0_split_1
I0731 16:03:52.510076  3618 net.cpp:380] data_lattice9 -> data_lattice9
I0731 16:03:52.512516  3618 net.cpp:122] Setting up data_lattice9
I0731 16:03:52.512552  3618 net.cpp:129] Top shape: 1 3 1 90000 (270000)
I0731 16:03:52.512560  3618 net.cpp:137] Memory required for data: 47520000
I0731 16:03:52.512571  3618 layer_factory.hpp:77] Creating layer data_lattice9_data_lattice9_0_split
I0731 16:03:52.512588  3618 net.cpp:84] Creating Layer data_lattice9_data_lattice9_0_split
I0731 16:03:52.512595  3618 net.cpp:406] data_lattice9_data_lattice9_0_split <- data_lattice9
I0731 16:03:52.512609  3618 net.cpp:380] data_lattice9_data_lattice9_0_split -> data_lattice9_data_lattice9_0_split_0
I0731 16:03:52.512627  3618 net.cpp:380] data_lattice9_data_lattice9_0_split -> data_lattice9_data_lattice9_0_split_1
I0731 16:03:52.512701  3618 net.cpp:122] Setting up data_lattice9_data_lattice9_0_split
I0731 16:03:52.512722  3618 net.cpp:129] Top shape: 1 3 1 90000 (270000)
I0731 16:03:52.512735  3618 net.cpp:129] Top shape: 1 3 1 90000 (270000)
I0731 16:03:52.512742  3618 net.cpp:137] Memory required for data: 49680000
I0731 16:03:52.512748  3618 layer_factory.hpp:77] Creating layer conv9
I0731 16:03:52.513360  3618 net.cpp:84] Creating Layer conv9
I0731 16:03:52.513381  3618 net.cpp:406] conv9 <- bn1
I0731 16:03:52.513392  3618 net.cpp:406] conv9 <- data_lattice9_data_lattice9_0_split_0
I0731 16:03:52.513401  3618 net.cpp:406] conv9 <- data_lattice9_data_lattice9_0_split_1
I0731 16:03:52.513414  3618 net.cpp:380] conv9 -> conv9
I0731 16:03:52.519446  3618 net.cpp:122] Setting up conv9
I0731 16:03:52.519500  3618 net.cpp:129] Top shape: 1 64 1 90000 (5760000)
I0731 16:03:52.519515  3618 net.cpp:137] Memory required for data: 72720000
I0731 16:03:52.519531  3618 layer_factory.hpp:77] Creating layer bn9
I0731 16:03:52.519547  3618 net.cpp:84] Creating Layer bn9
I0731 16:03:52.519556  3618 net.cpp:406] bn9 <- conv9
I0731 16:03:52.519578  3618 net.cpp:380] bn9 -> bn9
I0731 16:03:52.520095  3618 net.cpp:122] Setting up bn9
I0731 16:03:52.520112  3618 net.cpp:129] Top shape: 1 64 1 90000 (5760000)
I0731 16:03:52.520117  3618 net.cpp:137] Memory required for data: 95760000
I0731 16:03:52.520138  3618 layer_factory.hpp:77] Creating layer relu9
I0731 16:03:52.520151  3618 net.cpp:84] Creating Layer relu9
I0731 16:03:52.520159  3618 net.cpp:406] relu9 <- bn9
I0731 16:03:52.520167  3618 net.cpp:367] relu9 -> bn9 (in-place)
I0731 16:03:52.521365  3618 net.cpp:122] Setting up relu9
I0731 16:03:52.521392  3618 net.cpp:129] Top shape: 1 64 1 90000 (5760000)
I0731 16:03:52.521400  3618 net.cpp:137] Memory required for data: 118800000
I0731 16:03:52.521409  3618 layer_factory.hpp:77] Creating layer bn9_relu9_0_split
I0731 16:03:52.521420  3618 net.cpp:84] Creating Layer bn9_relu9_0_split
I0731 16:03:52.521428  3618 net.cpp:406] bn9_relu9_0_split <- bn9
I0731 16:03:52.521440  3618 net.cpp:380] bn9_relu9_0_split -> bn9_relu9_0_split_0
I0731 16:03:52.521453  3618 net.cpp:380] bn9_relu9_0_split -> bn9_relu9_0_split_1
I0731 16:03:52.521534  3618 net.cpp:122] Setting up bn9_relu9_0_split
I0731 16:03:52.521550  3618 net.cpp:129] Top shape: 1 64 1 90000 (5760000)
I0731 16:03:52.521559  3618 net.cpp:129] Top shape: 1 64 1 90000 (5760000)
I0731 16:03:52.521565  3618 net.cpp:137] Memory required for data: 164880000
I0731 16:03:52.521571  3618 layer_factory.hpp:77] Creating layer data_lattice0
I0731 16:03:52.521652  3618 net.cpp:84] Creating Layer data_lattice0
I0731 16:03:52.521667  3618 net.cpp:406] data_lattice0 <- data_data_0_split_2
I0731 16:03:52.521679  3618 net.cpp:380] data_lattice0 -> data_lattice0
I0731 16:03:52.523883  3618 net.cpp:122] Setting up data_lattice0
I0731 16:03:52.523926  3618 net.cpp:129] Top shape: 1 3 1 90000 (270000)
I0731 16:03:52.523934  3618 net.cpp:137] Memory required for data: 165960000
I0731 16:03:52.523946  3618 layer_factory.hpp:77] Creating layer data_lattice0_data_lattice0_0_split
I0731 16:03:52.523959  3618 net.cpp:84] Creating Layer data_lattice0_data_lattice0_0_split
I0731 16:03:52.523967  3618 net.cpp:406] data_lattice0_data_lattice0_0_split <- data_lattice0
I0731 16:03:52.523980  3618 net.cpp:380] data_lattice0_data_lattice0_0_split -> data_lattice0_data_lattice0_0_split_0
I0731 16:03:52.523995  3618 net.cpp:380] data_lattice0_data_lattice0_0_split -> data_lattice0_data_lattice0_0_split_1
I0731 16:03:52.524060  3618 net.cpp:122] Setting up data_lattice0_data_lattice0_0_split
I0731 16:03:52.524080  3618 net.cpp:129] Top shape: 1 3 1 90000 (270000)
I0731 16:03:52.524087  3618 net.cpp:129] Top shape: 1 3 1 90000 (270000)
I0731 16:03:52.524093  3618 net.cpp:137] Memory required for data: 168120000
I0731 16:03:52.524099  3618 layer_factory.hpp:77] Creating layer conv2
I0731 16:03:52.524114  3618 net.cpp:84] Creating Layer conv2
I0731 16:03:52.524121  3618 net.cpp:406] conv2 <- bn9_relu9_0_split_0
I0731 16:03:52.524130  3618 net.cpp:406] conv2 <- data_lattice0_data_lattice0_0_split_0
I0731 16:03:52.524139  3618 net.cpp:406] conv2 <- data_lattice0_data_lattice0_0_split_1
I0731 16:03:52.524152  3618 net.cpp:380] conv2 -> conv2
I0731 16:03:52.528219  3618 net.cpp:122] Setting up conv2
I0731 16:03:52.528239  3618 net.cpp:129] Top shape: 1 64 1 90000 (5760000)
I0731 16:03:52.528249  3618 net.cpp:137] Memory required for data: 191160000
I0731 16:03:52.528262  3618 layer_factory.hpp:77] Creating layer bn2
I0731 16:03:52.528278  3618 net.cpp:84] Creating Layer bn2
I0731 16:03:52.528285  3618 net.cpp:406] bn2 <- conv2
I0731 16:03:52.528296  3618 net.cpp:380] bn2 -> bn2
I0731 16:03:52.528807  3618 net.cpp:122] Setting up bn2
I0731 16:03:52.528825  3618 net.cpp:129] Top shape: 1 64 1 90000 (5760000)
I0731 16:03:52.528831  3618 net.cpp:137] Memory required for data: 214200000
I0731 16:03:52.528844  3618 layer_factory.hpp:77] Creating layer relu2
I0731 16:03:52.528857  3618 net.cpp:84] Creating Layer relu2
I0731 16:03:52.528864  3618 net.cpp:406] relu2 <- bn2
I0731 16:03:52.528874  3618 net.cpp:367] relu2 -> bn2 (in-place)
I0731 16:03:52.529475  3618 net.cpp:122] Setting up relu2
I0731 16:03:52.529503  3618 net.cpp:129] Top shape: 1 64 1 90000 (5760000)
I0731 16:03:52.529511  3618 net.cpp:137] Memory required for data: 237240000
I0731 16:03:52.529520  3618 layer_factory.hpp:77] Creating layer bn2_relu2_0_split
I0731 16:03:52.529532  3618 net.cpp:84] Creating Layer bn2_relu2_0_split
I0731 16:03:52.529539  3618 net.cpp:406] bn2_relu2_0_split <- bn2
I0731 16:03:52.529551  3618 net.cpp:380] bn2_relu2_0_split -> bn2_relu2_0_split_0
I0731 16:03:52.529562  3618 net.cpp:380] bn2_relu2_0_split -> bn2_relu2_0_split_1
I0731 16:03:52.529630  3618 net.cpp:122] Setting up bn2_relu2_0_split
I0731 16:03:52.529654  3618 net.cpp:129] Top shape: 1 64 1 90000 (5760000)
I0731 16:03:52.529662  3618 net.cpp:129] Top shape: 1 64 1 90000 (5760000)
I0731 16:03:52.529669  3618 net.cpp:137] Memory required for data: 283320000
I0731 16:03:52.529673  3618 layer_factory.hpp:77] Creating layer data_lattice1
I0731 16:03:52.529729  3618 net.cpp:84] Creating Layer data_lattice1
I0731 16:03:52.529742  3618 net.cpp:406] data_lattice1 <- data_data_0_split_3
I0731 16:03:52.529753  3618 net.cpp:380] data_lattice1 -> data_lattice1
I0731 16:03:52.531879  3618 net.cpp:122] Setting up data_lattice1
I0731 16:03:52.531913  3618 net.cpp:129] Top shape: 1 3 1 90000 (270000)
I0731 16:03:52.531920  3618 net.cpp:137] Memory required for data: 284400000
I0731 16:03:52.531927  3618 layer_factory.hpp:77] Creating layer data_lattice1_data_lattice1_0_split
I0731 16:03:52.531939  3618 net.cpp:84] Creating Layer data_lattice1_data_lattice1_0_split
I0731 16:03:52.531946  3618 net.cpp:406] data_lattice1_data_lattice1_0_split <- data_lattice1
I0731 16:03:52.531957  3618 net.cpp:380] data_lattice1_data_lattice1_0_split -> data_lattice1_data_lattice1_0_split_0
I0731 16:03:52.531970  3618 net.cpp:380] data_lattice1_data_lattice1_0_split -> data_lattice1_data_lattice1_0_split_1
I0731 16:03:52.532032  3618 net.cpp:122] Setting up data_lattice1_data_lattice1_0_split
I0731 16:03:52.532045  3618 net.cpp:129] Top shape: 1 3 1 90000 (270000)
I0731 16:03:52.532052  3618 net.cpp:129] Top shape: 1 3 1 90000 (270000)
I0731 16:03:52.532058  3618 net.cpp:137] Memory required for data: 286560000
I0731 16:03:52.532063  3618 layer_factory.hpp:77] Creating layer conv3
I0731 16:03:52.532076  3618 net.cpp:84] Creating Layer conv3
I0731 16:03:52.532083  3618 net.cpp:406] conv3 <- bn2_relu2_0_split_0
I0731 16:03:52.532091  3618 net.cpp:406] conv3 <- data_lattice1_data_lattice1_0_split_0
I0731 16:03:52.532099  3618 net.cpp:406] conv3 <- data_lattice1_data_lattice1_0_split_1
I0731 16:03:52.532109  3618 net.cpp:380] conv3 -> conv3
I0731 16:03:52.539461  3618 net.cpp:122] Setting up conv3
I0731 16:03:52.539515  3618 net.cpp:129] Top shape: 1 128 1 90000 (11520000)
I0731 16:03:52.539521  3618 net.cpp:137] Memory required for data: 332640000
I0731 16:03:52.539552  3618 layer_factory.hpp:77] Creating layer bn3
I0731 16:03:52.539568  3618 net.cpp:84] Creating Layer bn3
I0731 16:03:52.539577  3618 net.cpp:406] bn3 <- conv3
I0731 16:03:52.539588  3618 net.cpp:380] bn3 -> bn3
I0731 16:03:52.541960  3618 net.cpp:122] Setting up bn3
I0731 16:03:52.541998  3618 net.cpp:129] Top shape: 1 128 1 90000 (11520000)
I0731 16:03:52.542006  3618 net.cpp:137] Memory required for data: 378720000
I0731 16:03:52.542021  3618 layer_factory.hpp:77] Creating layer relu3
I0731 16:03:52.542039  3618 net.cpp:84] Creating Layer relu3
I0731 16:03:52.542047  3618 net.cpp:406] relu3 <- bn3
I0731 16:03:52.542057  3618 net.cpp:367] relu3 -> bn3 (in-place)
I0731 16:03:52.543207  3618 net.cpp:122] Setting up relu3
I0731 16:03:52.543231  3618 net.cpp:129] Top shape: 1 128 1 90000 (11520000)
I0731 16:03:52.543238  3618 net.cpp:137] Memory required for data: 424800000
I0731 16:03:52.543246  3618 layer_factory.hpp:77] Creating layer bn3_relu3_0_split
I0731 16:03:52.543257  3618 net.cpp:84] Creating Layer bn3_relu3_0_split
I0731 16:03:52.543263  3618 net.cpp:406] bn3_relu3_0_split <- bn3
I0731 16:03:52.543277  3618 net.cpp:380] bn3_relu3_0_split -> bn3_relu3_0_split_0
I0731 16:03:52.543289  3618 net.cpp:380] bn3_relu3_0_split -> bn3_relu3_0_split_1
I0731 16:03:52.543359  3618 net.cpp:122] Setting up bn3_relu3_0_split
I0731 16:03:52.543371  3618 net.cpp:129] Top shape: 1 128 1 90000 (11520000)
I0731 16:03:52.543378  3618 net.cpp:129] Top shape: 1 128 1 90000 (11520000)
I0731 16:03:52.543383  3618 net.cpp:137] Memory required for data: 516960000
I0731 16:03:52.543388  3618 layer_factory.hpp:77] Creating layer data_lattice2
I0731 16:03:52.543478  3618 net.cpp:84] Creating Layer data_lattice2
I0731 16:03:52.543493  3618 net.cpp:406] data_lattice2 <- data_data_0_split_4
I0731 16:03:52.543504  3618 net.cpp:380] data_lattice2 -> data_lattice2
I0731 16:03:52.543849  3618 net.cpp:122] Setting up data_lattice2
I0731 16:03:52.543869  3618 net.cpp:129] Top shape: 1 3 1 90000 (270000)
I0731 16:03:52.543884  3618 net.cpp:137] Memory required for data: 518040000
I0731 16:03:52.543905  3618 layer_factory.hpp:77] Creating layer data_lattice2_data_lattice2_0_split
I0731 16:03:52.543915  3618 net.cpp:84] Creating Layer data_lattice2_data_lattice2_0_split
I0731 16:03:52.543922  3618 net.cpp:406] data_lattice2_data_lattice2_0_split <- data_lattice2
I0731 16:03:52.543934  3618 net.cpp:380] data_lattice2_data_lattice2_0_split -> data_lattice2_data_lattice2_0_split_0
I0731 16:03:52.543946  3618 net.cpp:380] data_lattice2_data_lattice2_0_split -> data_lattice2_data_lattice2_0_split_1
I0731 16:03:52.544010  3618 net.cpp:122] Setting up data_lattice2_data_lattice2_0_split
I0731 16:03:52.544023  3618 net.cpp:129] Top shape: 1 3 1 90000 (270000)
I0731 16:03:52.544029  3618 net.cpp:129] Top shape: 1 3 1 90000 (270000)
I0731 16:03:52.544034  3618 net.cpp:137] Memory required for data: 520200000
I0731 16:03:52.544039  3618 layer_factory.hpp:77] Creating layer conv4
I0731 16:03:52.544054  3618 net.cpp:84] Creating Layer conv4
I0731 16:03:52.544060  3618 net.cpp:406] conv4 <- bn3_relu3_0_split_0
I0731 16:03:52.544068  3618 net.cpp:406] conv4 <- data_lattice2_data_lattice2_0_split_0
I0731 16:03:52.544075  3618 net.cpp:406] conv4 <- data_lattice2_data_lattice2_0_split_1
I0731 16:03:52.544085  3618 net.cpp:380] conv4 -> conv4
I0731 16:03:52.570464  3618 net.cpp:122] Setting up conv4
I0731 16:03:52.570518  3618 net.cpp:129] Top shape: 1 256 1 90000 (23040000)
I0731 16:03:52.570525  3618 net.cpp:137] Memory required for data: 612360000
I0731 16:03:52.570538  3618 layer_factory.hpp:77] Creating layer bn4
I0731 16:03:52.570554  3618 net.cpp:84] Creating Layer bn4
I0731 16:03:52.570560  3618 net.cpp:406] bn4 <- conv4
I0731 16:03:52.570571  3618 net.cpp:380] bn4 -> bn4
I0731 16:03:52.572691  3618 net.cpp:122] Setting up bn4
I0731 16:03:52.572713  3618 net.cpp:129] Top shape: 1 256 1 90000 (23040000)
I0731 16:03:52.572719  3618 net.cpp:137] Memory required for data: 704520000
I0731 16:03:52.572731  3618 layer_factory.hpp:77] Creating layer relu4
I0731 16:03:52.572742  3618 net.cpp:84] Creating Layer relu4
I0731 16:03:52.572748  3618 net.cpp:406] relu4 <- bn4
I0731 16:03:52.572757  3618 net.cpp:367] relu4 -> bn4 (in-place)
I0731 16:03:52.573223  3618 net.cpp:122] Setting up relu4
I0731 16:03:52.573238  3618 net.cpp:129] Top shape: 1 256 1 90000 (23040000)
I0731 16:03:52.573243  3618 net.cpp:137] Memory required for data: 796680000
I0731 16:03:52.573253  3618 layer_factory.hpp:77] Creating layer bn4_relu4_0_split
I0731 16:03:52.573263  3618 net.cpp:84] Creating Layer bn4_relu4_0_split
I0731 16:03:52.573268  3618 net.cpp:406] bn4_relu4_0_split <- bn4
I0731 16:03:52.573277  3618 net.cpp:380] bn4_relu4_0_split -> bn4_relu4_0_split_0
I0731 16:03:52.573287  3618 net.cpp:380] bn4_relu4_0_split -> bn4_relu4_0_split_1
I0731 16:03:52.573343  3618 net.cpp:122] Setting up bn4_relu4_0_split
I0731 16:03:52.573354  3618 net.cpp:129] Top shape: 1 256 1 90000 (23040000)
I0731 16:03:52.573359  3618 net.cpp:129] Top shape: 1 256 1 90000 (23040000)
I0731 16:03:52.573364  3618 net.cpp:137] Memory required for data: 981000000
I0731 16:03:52.573369  3618 layer_factory.hpp:77] Creating layer data_lattice3
I0731 16:03:52.573433  3618 net.cpp:84] Creating Layer data_lattice3
I0731 16:03:52.573444  3618 net.cpp:406] data_lattice3 <- data_data_0_split_5
I0731 16:03:52.573454  3618 net.cpp:380] data_lattice3 -> data_lattice3
I0731 16:03:52.573709  3618 net.cpp:122] Setting up data_lattice3
I0731 16:03:52.573725  3618 net.cpp:129] Top shape: 1 3 1 90000 (270000)
I0731 16:03:52.573731  3618 net.cpp:137] Memory required for data: 982080000
I0731 16:03:52.573737  3618 layer_factory.hpp:77] Creating layer data_lattice3_data_lattice3_0_split
I0731 16:03:52.573751  3618 net.cpp:84] Creating Layer data_lattice3_data_lattice3_0_split
I0731 16:03:52.573756  3618 net.cpp:406] data_lattice3_data_lattice3_0_split <- data_lattice3
I0731 16:03:52.573765  3618 net.cpp:380] data_lattice3_data_lattice3_0_split -> data_lattice3_data_lattice3_0_split_0
I0731 16:03:52.573776  3618 net.cpp:380] data_lattice3_data_lattice3_0_split -> data_lattice3_data_lattice3_0_split_1
I0731 16:03:52.573824  3618 net.cpp:122] Setting up data_lattice3_data_lattice3_0_split
I0731 16:03:52.573833  3618 net.cpp:129] Top shape: 1 3 1 90000 (270000)
I0731 16:03:52.573846  3618 net.cpp:129] Top shape: 1 3 1 90000 (270000)
I0731 16:03:52.573850  3618 net.cpp:137] Memory required for data: 984240000
I0731 16:03:52.573855  3618 layer_factory.hpp:77] Creating layer conv5
I0731 16:03:52.573866  3618 net.cpp:84] Creating Layer conv5
I0731 16:03:52.573871  3618 net.cpp:406] conv5 <- bn4_relu4_0_split_0
I0731 16:03:52.573879  3618 net.cpp:406] conv5 <- data_lattice3_data_lattice3_0_split_0
I0731 16:03:52.573884  3618 net.cpp:406] conv5 <- data_lattice3_data_lattice3_0_split_1
I0731 16:03:52.573894  3618 net.cpp:380] conv5 -> conv5
I0731 16:03:52.616188  3618 net.cpp:122] Setting up conv5
I0731 16:03:52.616235  3618 net.cpp:129] Top shape: 1 256 1 90000 (23040000)
I0731 16:03:52.616241  3618 net.cpp:137] Memory required for data: 1076400000
I0731 16:03:52.616259  3618 layer_factory.hpp:77] Creating layer bn5
I0731 16:03:52.616272  3618 net.cpp:84] Creating Layer bn5
I0731 16:03:52.616279  3618 net.cpp:406] bn5 <- conv5
I0731 16:03:52.616288  3618 net.cpp:380] bn5 -> bn5
I0731 16:03:52.618103  3618 net.cpp:122] Setting up bn5
I0731 16:03:52.618119  3618 net.cpp:129] Top shape: 1 256 1 90000 (23040000)
I0731 16:03:52.618130  3618 net.cpp:137] Memory required for data: 1168560000
I0731 16:03:52.618140  3618 layer_factory.hpp:77] Creating layer relu5
I0731 16:03:52.618149  3618 net.cpp:84] Creating Layer relu5
I0731 16:03:52.618155  3618 net.cpp:406] relu5 <- bn5
I0731 16:03:52.618161  3618 net.cpp:367] relu5 -> bn5 (in-place)
I0731 16:03:52.618569  3618 net.cpp:122] Setting up relu5
I0731 16:03:52.618583  3618 net.cpp:129] Top shape: 1 256 1 90000 (23040000)
I0731 16:03:52.618587  3618 net.cpp:137] Memory required for data: 1260720000
I0731 16:03:52.618595  3618 layer_factory.hpp:77] Creating layer bn5_relu5_0_split
I0731 16:03:52.618603  3618 net.cpp:84] Creating Layer bn5_relu5_0_split
I0731 16:03:52.618607  3618 net.cpp:406] bn5_relu5_0_split <- bn5
I0731 16:03:52.618614  3618 net.cpp:380] bn5_relu5_0_split -> bn5_relu5_0_split_0
I0731 16:03:52.618624  3618 net.cpp:380] bn5_relu5_0_split -> bn5_relu5_0_split_1
I0731 16:03:52.618674  3618 net.cpp:122] Setting up bn5_relu5_0_split
I0731 16:03:52.618683  3618 net.cpp:129] Top shape: 1 256 1 90000 (23040000)
I0731 16:03:52.618687  3618 net.cpp:129] Top shape: 1 256 1 90000 (23040000)
I0731 16:03:52.618691  3618 net.cpp:137] Memory required for data: 1445040000
I0731 16:03:52.618695  3618 layer_factory.hpp:77] Creating layer data_lattice4
I0731 16:03:52.618748  3618 net.cpp:84] Creating Layer data_lattice4
I0731 16:03:52.618757  3618 net.cpp:406] data_lattice4 <- data_data_0_split_6
I0731 16:03:52.618767  3618 net.cpp:380] data_lattice4 -> data_lattice4
I0731 16:03:52.618949  3618 net.cpp:122] Setting up data_lattice4
I0731 16:03:52.618969  3618 net.cpp:129] Top shape: 1 3 1 90000 (270000)
I0731 16:03:52.618973  3618 net.cpp:137] Memory required for data: 1446120000
I0731 16:03:52.618978  3618 layer_factory.hpp:77] Creating layer data_lattice4_data_lattice4_0_split
I0731 16:03:52.618984  3618 net.cpp:84] Creating Layer data_lattice4_data_lattice4_0_split
I0731 16:03:52.618989  3618 net.cpp:406] data_lattice4_data_lattice4_0_split <- data_lattice4
I0731 16:03:52.618997  3618 net.cpp:380] data_lattice4_data_lattice4_0_split -> data_lattice4_data_lattice4_0_split_0
I0731 16:03:52.619005  3618 net.cpp:380] data_lattice4_data_lattice4_0_split -> data_lattice4_data_lattice4_0_split_1
I0731 16:03:52.619046  3618 net.cpp:122] Setting up data_lattice4_data_lattice4_0_split
I0731 16:03:52.619055  3618 net.cpp:129] Top shape: 1 3 1 90000 (270000)
I0731 16:03:52.619060  3618 net.cpp:129] Top shape: 1 3 1 90000 (270000)
I0731 16:03:52.619062  3618 net.cpp:137] Memory required for data: 1448280000
I0731 16:03:52.619067  3618 layer_factory.hpp:77] Creating layer conv6
I0731 16:03:52.619077  3618 net.cpp:84] Creating Layer conv6
I0731 16:03:52.619082  3618 net.cpp:406] conv6 <- bn5_relu5_0_split_0
I0731 16:03:52.619087  3618 net.cpp:406] conv6 <- data_lattice4_data_lattice4_0_split_0
I0731 16:03:52.619092  3618 net.cpp:406] conv6 <- data_lattice4_data_lattice4_0_split_1
I0731 16:03:52.619099  3618 net.cpp:380] conv6 -> conv6
I0731 16:03:52.656513  3618 net.cpp:122] Setting up conv6
I0731 16:03:52.656563  3618 net.cpp:129] Top shape: 1 256 1 90000 (23040000)
I0731 16:03:52.656569  3618 net.cpp:137] Memory required for data: 1540440000
I0731 16:03:52.656580  3618 layer_factory.hpp:77] Creating layer bn6
I0731 16:03:52.656592  3618 net.cpp:84] Creating Layer bn6
I0731 16:03:52.656599  3618 net.cpp:406] bn6 <- conv6
I0731 16:03:52.656608  3618 net.cpp:380] bn6 -> bn6
I0731 16:03:52.658419  3618 net.cpp:122] Setting up bn6
I0731 16:03:52.658437  3618 net.cpp:129] Top shape: 1 256 1 90000 (23040000)
I0731 16:03:52.658449  3618 net.cpp:137] Memory required for data: 1632600000
I0731 16:03:52.658473  3618 layer_factory.hpp:77] Creating layer relu6
I0731 16:03:52.658488  3618 net.cpp:84] Creating Layer relu6
I0731 16:03:52.658493  3618 net.cpp:406] relu6 <- bn6
I0731 16:03:52.658499  3618 net.cpp:367] relu6 -> bn6 (in-place)
I0731 16:03:52.659291  3618 net.cpp:122] Setting up relu6
I0731 16:03:52.659308  3618 net.cpp:129] Top shape: 1 256 1 90000 (23040000)
I0731 16:03:52.659313  3618 net.cpp:137] Memory required for data: 1724760000
I0731 16:03:52.659320  3618 layer_factory.hpp:77] Creating layer bn6_relu6_0_split
I0731 16:03:52.659329  3618 net.cpp:84] Creating Layer bn6_relu6_0_split
I0731 16:03:52.659333  3618 net.cpp:406] bn6_relu6_0_split <- bn6
I0731 16:03:52.659341  3618 net.cpp:380] bn6_relu6_0_split -> bn6_relu6_0_split_0
I0731 16:03:52.659349  3618 net.cpp:380] bn6_relu6_0_split -> bn6_relu6_0_split_1
I0731 16:03:52.659397  3618 net.cpp:122] Setting up bn6_relu6_0_split
I0731 16:03:52.659411  3618 net.cpp:129] Top shape: 1 256 1 90000 (23040000)
I0731 16:03:52.659416  3618 net.cpp:129] Top shape: 1 256 1 90000 (23040000)
I0731 16:03:52.659420  3618 net.cpp:137] Memory required for data: 1909080000
I0731 16:03:52.659422  3618 layer_factory.hpp:77] Creating layer data_lattice5
I0731 16:03:52.659492  3618 net.cpp:84] Creating Layer data_lattice5
I0731 16:03:52.659502  3618 net.cpp:406] data_lattice5 <- data_data_0_split_7
I0731 16:03:52.659510  3618 net.cpp:380] data_lattice5 -> data_lattice5
I0731 16:03:52.659705  3618 net.cpp:122] Setting up data_lattice5
I0731 16:03:52.659718  3618 net.cpp:129] Top shape: 1 3 1 90000 (270000)
I0731 16:03:52.659723  3618 net.cpp:137] Memory required for data: 1910160000
I0731 16:03:52.659727  3618 layer_factory.hpp:77] Creating layer data_lattice5_data_lattice5_0_split
I0731 16:03:52.659734  3618 net.cpp:84] Creating Layer data_lattice5_data_lattice5_0_split
I0731 16:03:52.659739  3618 net.cpp:406] data_lattice5_data_lattice5_0_split <- data_lattice5
I0731 16:03:52.659746  3618 net.cpp:380] data_lattice5_data_lattice5_0_split -> data_lattice5_data_lattice5_0_split_0
I0731 16:03:52.659754  3618 net.cpp:380] data_lattice5_data_lattice5_0_split -> data_lattice5_data_lattice5_0_split_1
I0731 16:03:52.659795  3618 net.cpp:122] Setting up data_lattice5_data_lattice5_0_split
I0731 16:03:52.659807  3618 net.cpp:129] Top shape: 1 3 1 90000 (270000)
I0731 16:03:52.659812  3618 net.cpp:129] Top shape: 1 3 1 90000 (270000)
I0731 16:03:52.659816  3618 net.cpp:137] Memory required for data: 1912320000
I0731 16:03:52.659819  3618 layer_factory.hpp:77] Creating layer conv9_
I0731 16:03:52.659829  3618 net.cpp:84] Creating Layer conv9_
I0731 16:03:52.659834  3618 net.cpp:406] conv9_ <- bn6_relu6_0_split_0
I0731 16:03:52.659839  3618 net.cpp:406] conv9_ <- data_lattice5_data_lattice5_0_split_0
I0731 16:03:52.659845  3618 net.cpp:406] conv9_ <- data_lattice5_data_lattice5_0_split_1
I0731 16:03:52.659852  3618 net.cpp:380] conv9_ -> conv9_
I0731 16:03:52.697223  3618 net.cpp:122] Setting up conv9_
I0731 16:03:52.697274  3618 net.cpp:129] Top shape: 1 256 1 90000 (23040000)
I0731 16:03:52.697279  3618 net.cpp:137] Memory required for data: 2004480000
I0731 16:03:52.697291  3618 layer_factory.hpp:77] Creating layer bn9_
I0731 16:03:52.697305  3618 net.cpp:84] Creating Layer bn9_
I0731 16:03:52.697312  3618 net.cpp:406] bn9_ <- conv9_
I0731 16:03:52.697321  3618 net.cpp:380] bn9_ -> bn9_
I0731 16:03:52.699108  3618 net.cpp:122] Setting up bn9_
I0731 16:03:52.699126  3618 net.cpp:129] Top shape: 1 256 1 90000 (23040000)
I0731 16:03:52.699137  3618 net.cpp:137] Memory required for data: 2096640000
I0731 16:03:52.699147  3618 layer_factory.hpp:77] Creating layer relu9_
I0731 16:03:52.699160  3618 net.cpp:84] Creating Layer relu9_
I0731 16:03:52.699167  3618 net.cpp:406] relu9_ <- bn9_
I0731 16:03:52.699173  3618 net.cpp:367] relu9_ -> bn9_ (in-place)
I0731 16:03:52.699584  3618 net.cpp:122] Setting up relu9_
I0731 16:03:52.699599  3618 net.cpp:129] Top shape: 1 256 1 90000 (23040000)
I0731 16:03:52.699609  3618 net.cpp:137] Memory required for data: 2188800000
I0731 16:03:52.699612  3618 layer_factory.hpp:77] Creating layer concat6
I0731 16:03:52.699692  3618 net.cpp:84] Creating Layer concat6
I0731 16:03:52.699702  3618 net.cpp:406] concat6 <- bn9_relu9_0_split_1
I0731 16:03:52.699709  3618 net.cpp:406] concat6 <- bn6_relu6_0_split_1
I0731 16:03:52.699715  3618 net.cpp:406] concat6 <- bn2_relu2_0_split_1
I0731 16:03:52.699719  3618 net.cpp:406] concat6 <- bn3_relu3_0_split_1
I0731 16:03:52.699723  3618 net.cpp:406] concat6 <- bn4_relu4_0_split_1
I0731 16:03:52.699728  3618 net.cpp:406] concat6 <- bn5_relu5_0_split_1
I0731 16:03:52.699731  3618 net.cpp:406] concat6 <- bn9_
I0731 16:03:52.699738  3618 net.cpp:380] concat6 -> concat6
I0731 16:03:52.699798  3618 net.cpp:122] Setting up concat6
I0731 16:03:52.699810  3618 net.cpp:129] Top shape: 1 1280 1 90000 (115200000)
I0731 16:03:52.699815  3618 net.cpp:137] Memory required for data: 2649600000
I0731 16:03:52.699818  3618 layer_factory.hpp:77] Creating layer conv7
I0731 16:03:52.699833  3618 net.cpp:84] Creating Layer conv7
I0731 16:03:52.699837  3618 net.cpp:406] conv7 <- concat6
I0731 16:03:52.699846  3618 net.cpp:380] conv7 -> conv7
I0731 16:03:52.705773  3618 net.cpp:122] Setting up conv7
I0731 16:03:52.705809  3618 net.cpp:129] Top shape: 1 128 1 90000 (11520000)
I0731 16:03:52.705814  3618 net.cpp:137] Memory required for data: 2695680000
I0731 16:03:52.705826  3618 layer_factory.hpp:77] Creating layer bn7
I0731 16:03:52.705837  3618 net.cpp:84] Creating Layer bn7
I0731 16:03:52.705843  3618 net.cpp:406] bn7 <- conv7
I0731 16:03:52.705852  3618 net.cpp:380] bn7 -> bn7
I0731 16:03:52.706187  3618 net.cpp:122] Setting up bn7
I0731 16:03:52.706204  3618 net.cpp:129] Top shape: 1 128 1 90000 (11520000)
I0731 16:03:52.706208  3618 net.cpp:137] Memory required for data: 2741760000
I0731 16:03:52.706223  3618 layer_factory.hpp:77] Creating layer relu7
I0731 16:03:52.706230  3618 net.cpp:84] Creating Layer relu7
I0731 16:03:52.706234  3618 net.cpp:406] relu7 <- bn7
I0731 16:03:52.706240  3618 net.cpp:367] relu7 -> bn7 (in-place)
I0731 16:03:52.706581  3618 net.cpp:122] Setting up relu7
I0731 16:03:52.706594  3618 net.cpp:129] Top shape: 1 128 1 90000 (11520000)
I0731 16:03:52.706599  3618 net.cpp:137] Memory required for data: 2787840000
I0731 16:03:52.706606  3618 layer_factory.hpp:77] Creating layer conv8
I0731 16:03:52.706622  3618 net.cpp:84] Creating Layer conv8
I0731 16:03:52.706627  3618 net.cpp:406] conv8 <- bn7
I0731 16:03:52.706635  3618 net.cpp:380] conv8 -> conv8
I0731 16:03:52.710796  3618 net.cpp:122] Setting up conv8
I0731 16:03:52.710814  3618 net.cpp:129] Top shape: 1 13 1 90000 (1170000)
I0731 16:03:52.710824  3618 net.cpp:137] Memory required for data: 2792520000
I0731 16:03:52.710831  3618 layer_factory.hpp:77] Creating layer conv8_conv8_0_split
I0731 16:03:52.710841  3618 net.cpp:84] Creating Layer conv8_conv8_0_split
I0731 16:03:52.710845  3618 net.cpp:406] conv8_conv8_0_split <- conv8
I0731 16:03:52.710852  3618 net.cpp:380] conv8_conv8_0_split -> conv8_conv8_0_split_0
I0731 16:03:52.710861  3618 net.cpp:380] conv8_conv8_0_split -> conv8_conv8_0_split_1
I0731 16:03:52.710917  3618 net.cpp:122] Setting up conv8_conv8_0_split
I0731 16:03:52.710927  3618 net.cpp:129] Top shape: 1 13 1 90000 (1170000)
I0731 16:03:52.710932  3618 net.cpp:129] Top shape: 1 13 1 90000 (1170000)
I0731 16:03:52.710934  3618 net.cpp:137] Memory required for data: 2801880000
I0731 16:03:52.710938  3618 layer_factory.hpp:77] Creating layer loss
I0731 16:03:52.710984  3618 net.cpp:84] Creating Layer loss
I0731 16:03:52.710994  3618 net.cpp:406] loss <- conv8_conv8_0_split_0
I0731 16:03:52.711000  3618 net.cpp:406] loss <- label_data_1_split_0
I0731 16:03:52.711006  3618 net.cpp:380] loss -> loss
…
