…
I0809 10:25:44.913403 23425 net.cpp:294] The NetState phase (0) differed from the phase (1) specified by a rule in layer data
I0809 10:25:44.913882 23425 net.cpp:51] Initializing net from parameters: 
state {
  phase: TRAIN
}
layer {
  name: "data"
  type: "Python"
  top: "data"
  top: "label"
  include {
    phase: TRAIN
  }
  python_param {
    module: "dataset_lidar"
    layer: "InputShapenet"
    param_str: "{\'sample_size\': 8192, \'test_area\': \'6\', \'batch_size\': 12, \'feat_dims\': \'x_y_z\', \'subset\': \'train\', \'root\': \'../../data/shapenet_ericyi_ply\', \'jitter_xyz\': 0.02, \'jitter_stretch\': 0.1, \'jitter_rotation\': 10.0}"
  }
}
layer {
  name: "data_feat"
  type: "Python"
  bottom: "data"
  top: "data_feat"
  python_param {
    module: "custom_layers"
    layer: "PickAndScale"
    param_str: "0_1_2"
  }
}
layer {
  name: "conv1"
  type: "Convolution"
  bottom: "data_feat"
  top: "conv1"
  param {
    lr_mult: 1
  }
  param {
    lr_mult: 0.1
  }
  convolution_param {
    num_output: 32
    pad: 0
    kernel_size: 1
    stride: 1
    weight_filler {
      type: "xavier"
    }
    bias_filler {
      type: "constant"
      value: 0
    }
  }
}
layer {
  name: "bn1"
  type: "BatchNorm"
  bottom: "conv1"
  top: "bn1"
}
layer {
  name: "relu1"
  type: "ReLU"
  bottom: "bn1"
  top: "bn1"
}
layer {
  name: "fconv1A"
  type: "Convolution"
  bottom: "bn1"
  top: "fconv1A"
  param {
    lr_mult: 1
  }
  param {
    lr_mult: 0.1
  }
  convolution_param {
    num_output: 3
    pad: 0
    kernel_size: 1
    stride: 1
    weight_filler {
      type: "xavier"
    }
    bias_filler {
      type: "constant"
      value: 0
    }
  }
}
layer {
  name: "fbn1A"
  type: "BatchNorm"
  bottom: "fconv1A"
  top: "fbn1A"
}
layer {
  name: "frelu1A"
  type: "ReLU"
  bottom: "fbn1A"
  top: "fbn1A"
}
layer {
  name: "feat1A"
  type: "Eltwise"
  bottom: "data"
  bottom: "fbn1A"
  top: "feat1A"
  eltwise_param {
    operation: SUM
  }
}
layer {
  name: "data_lattice0A"
  type: "Python"
  bottom: "feat1A"
  top: "data_lattice0A"
  python_param {
    module: "custom_layers"
    layer: "PickAndScale"
    param_str: "0*96_1*96_2*96"
  }
}
layer {
  name: "conv2A"
  type: "Permutohedral"
  bottom: "bn1"
  bottom: "data_lattice0A"
  bottom: "data_lattice0A"
  top: "conv2A"
  param {
    lr_mult: 1
    decay_mult: 1
  }
  param {
    lr_mult: 2
    decay_mult: 0
  }
  permutohedral_param {
    num_output: 64
    neighborhood_size: 2
    filter_filler {
      type: "gaussian"
      std: 0.001
    }
    bias_term: true
    bias_filler {
      type: "constant"
      value: 0
    }
    group: 1
    norm_type: AFTER
    offset_type: NONE
  }
}
layer {
  name: "bn2A"
  type: "BatchNorm"
  bottom: "conv2A"
  top: "bn2A"
}
layer {
  name: "relu2A"
  type: "ReLU"
  bottom: "bn2A"
  top: "bn2A"
}
layer {
  name: "fconv1"
  type: "Convolution"
  bottom: "bn2A"
  top: "fconv1"
  param {
    lr_mult: 1
  }
  param {
    lr_mult: 0.1
  }
  convolution_param {
    num_output: 3
    pad: 0
    kernel_size: 1
    stride: 1
    weight_filler {
      type: "xavier"
    }
    bias_filler {
      type: "constant"
      value: 0
    }
  }
}
layer {
  name: "fbn1"
  type: "BatchNorm"
  bottom: "fconv1"
  top: "fbn1"
}
layer {
  name: "frelu1"
  type: "ReLU"
  bottom: "fbn1"
  top: "fbn1"
}
layer {
  name: "feat1"
  type: "Eltwise"
  bottom: "data"
  bottom: "fbn1"
  top: "feat1"
  eltwise_param {
    operation: SUM
  }
}
layer {
  name: "data_lattice0"
  type: "Python"
  bottom: "feat1"
  top: "data_lattice0"
  python_param {
    module: "custom_layers"
    layer: "PickAndScale"
    param_str: "0*48_1*48_2*48"
  }
}
layer {
  name: "conv2"
  type: "Permutohedral"
  bottom: "bn2A"
  bottom: "data_lattice0"
  bottom: "data_lattice0"
  top: "conv2"
  param {
    lr_mult: 1
    decay_mult: 1
  }
  param {
    lr_mult: 2
    decay_mult: 0
  }
  permutohedral_param {
    num_output: 64
    neighborhood_size: 2
    filter_filler {
      type: "gaussian"
      std: 0.001
    }
    bias_term: true
    bias_filler {
      type: "constant"
      value: 0
    }
    group: 1
    norm_type: AFTER
    offset_type: NONE
  }
}
layer {
  name: "bn2"
  type: "BatchNorm"
  bottom: "conv2"
  top: "bn2"
}
layer {
  name: "relu2"
  type: "ReLU"
  bottom: "bn2"
  top: "bn2"
}
layer {
  name: "fconv2"
  type: "Convolution"
  bottom: "bn2"
  top: "fconv2"
  param {
    lr_mult: 1
  }
  param {
    lr_mult: 0.1
  }
  convolution_param {
    num_output: 3
    pad: 0
    kernel_size: 1
    stride: 1
    weight_filler {
      type: "xavier"
    }
    bias_filler {
      type: "constant"
      value: 0
    }
  }
}
layer {
  name: "fbn2"
  type: "BatchNorm"
  bottom: "fconv2"
  top: "fbn2"
}
layer {
  name: "frelu2"
  type: "ReLU"
  bottom: "fbn2"
  top: "fbn2"
}
layer {
  name: "feat2"
  type: "Eltwise"
  bottom: "data"
  bottom: "fbn2"
  top: "feat2"
  eltwise_param {
    operation: SUM
  }
}
layer {
  name: "data_lattice1"
  type: "Python"
  bottom: "feat2"
  top: "data_lattice1"
  python_param {
    module: "custom_layers"
    layer: "PickAndScale"
    param_str: "0*24_1*24_2*24"
  }
}
layer {
  name: "conv3"
  type: "Permutohedral"
  bottom: "bn2"
  bottom: "data_lattice1"
  bottom: "data_lattice1"
  top: "conv3"
  param {
    lr_mult: 1
    decay_mult: 1
  }
  param {
    lr_mult: 2
    decay_mult: 0
  }
  permutohedral_param {
    num_output: 128
    neighborhood_size: 2
    filter_filler {
      type: "gaussian"
      std: 0.001
    }
    bias_term: true
    bias_filler {
      type: "constant"
      value: 0
    }
    group: 1
    norm_type: AFTER
    offset_type: NONE
  }
}
layer {
  name: "bn3"
  type: "BatchNorm"
  bottom: "conv3"
  top: "bn3"
}
layer {
  name: "relu3"
  type: "ReLU"
  bottom: "bn3"
  top: "bn3"
}
layer {
  name: "fconv3"
  type: "Convolution"
  bottom: "bn3"
  top: "fconv3"
  param {
    lr_mult: 1
  }
  param {
    lr_mult: 0.1
  }
  convolution_param {
    num_output: 3
    pad: 0
    kernel_size: 1
    stride: 1
    weight_filler {
      type: "xavier"
    }
    bias_filler {
      type: "constant"
      value: 0
    }
  }
}
layer {
  name: "fbn3"
  type: "BatchNorm"
  bottom: "fconv3"
  top: "fbn3"
}
layer {
  name: "frelu3"
  type: "ReLU"
  bottom: "fbn3"
  top: "fbn3"
}
layer {
  name: "feat3"
  type: "Eltwise"
  bottom: "data"
  bottom: "fbn3"
  top: "feat3"
  eltwise_param {
    operation: SUM
  }
}
layer {
  name: "data_lattice2"
  type: "Python"
  bottom: "feat3"
  top: "data_lattice2"
  python_param {
    module: "custom_layers"
    layer: "PickAndScale"
    param_str: "0*12_1*12_2*12"
  }
}
layer {
  name: "conv4"
  type: "Permutohedral"
  bottom: "bn3"
  bottom: "data_lattice2"
  bottom: "data_lattice2"
  top: "conv4"
  param {
    lr_mult: 1
    decay_mult: 1
  }
  param {
    lr_mult: 2
    decay_mult: 0
  }
  permutohedral_param {
    num_output: 256
    neighborhood_size: 2
    filter_filler {
      type: "gaussian"
      std: 0.001
    }
    bias_term: true
    bias_filler {
      type: "constant"
      value: 0
    }
    group: 1
    norm_type: AFTER
    offset_type: NONE
  }
}
layer {
  name: "bn4"
  type: "BatchNorm"
  bottom: "conv4"
  top: "bn4"
}
layer {
  name: "relu4"
  type: "ReLU"
  bottom: "bn4"
  top: "bn4"
}
layer {
  name: "fconv4"
  type: "Convolution"
  bottom: "bn4"
  top: "fconv4"
  param {
    lr_mult: 1
  }
  param {
    lr_mult: 0.1
  }
  convolution_param {
    num_output: 3
    pad: 0
    kernel_size: 1
    stride: 1
    weight_filler {
      type: "xavier"
    }
    bias_filler {
      type: "constant"
      value: 0
    }
  }
}
layer {
  name: "fbn4"
  type: "BatchNorm"
  bottom: "fconv4"
  top: "fbn4"
}
layer {
  name: "frelu4"
  type: "ReLU"
  bottom: "fbn4"
  top: "fbn4"
}
layer {
  name: "feat4"
  type: "Eltwise"
  bottom: "data"
  bottom: "fbn4"
  top: "feat4"
  eltwise_param {
    operation: SUM
  }
}
layer {
  name: "data_lattice3"
  type: "Python"
  bottom: "feat4"
  top: "data_lattice3"
  python_param {
    module: "custom_layers"
    layer: "PickAndScale"
    param_str: "0*6_1*6_2*6"
  }
}
layer {
  name: "conv5"
  type: "Permutohedral"
  bottom: "bn4"
  bottom: "data_lattice3"
  bottom: "data_lattice3"
  top: "conv5"
  param {
    lr_mult: 1
    decay_mult: 1
  }
  param {
    lr_mult: 2
    decay_mult: 0
  }
  permutohedral_param {
    num_output: 256
    neighborhood_size: 2
    filter_filler {
      type: "gaussian"
      std: 0.001
    }
    bias_term: true
    bias_filler {
      type: "constant"
      value: 0
    }
    group: 1
    norm_type: AFTER
    offset_type: NONE
  }
}
layer {
  name: "bn5"
  type: "BatchNorm"
  bottom: "conv5"
  top: "bn5"
}
layer {
  name: "relu5"
  type: "ReLU"
  bottom: "bn5"
  top: "bn5"
}
layer {
  name: "fconv5"
  type: "Convolution"
  bottom: "bn5"
  top: "fconv5"
  param {
    lr_mult: 1
  }
  param {
    lr_mult: 0.1
  }
  convolution_param {
    num_output: 3
    pad: 0
    kernel_size: 1
    stride: 1
    weight_filler {
      type: "xavier"
    }
    bias_filler {
      type: "constant"
      value: 0
    }
  }
}
layer {
  name: "fbn5"
  type: "BatchNorm"
  bottom: "fconv5"
  top: "fbn5"
}
layer {
  name: "frelu5"
  type: "ReLU"
  bottom: "fbn5"
  top: "fbn5"
}
layer {
  name: "feat5"
  type: "Eltwise"
  bottom: "data"
  bottom: "fbn5"
  top: "feat5"
  eltwise_param {
    operation: SUM
  }
}
layer {
  name: "data_lattice4"
  type: "Python"
  bottom: "feat5"
  top: "data_lattice4"
  python_param {
    module: "custom_layers"
    layer: "PickAndScale"
    param_str: "0*3_1*3_2*3"
  }
}
layer {
  name: "conv6"
  type: "Permutohedral"
  bottom: "bn5"
  bottom: "data_lattice4"
  bottom: "data_lattice4"
  top: "conv6"
  param {
    lr_mult: 1
    decay_mult: 1
  }
  param {
    lr_mult: 2
    decay_mult: 0
  }
  permutohedral_param {
    num_output: 256
    neighborhood_size: 2
    filter_filler {
      type: "gaussian"
      std: 0.001
    }
    bias_term: true
    bias_filler {
      type: "constant"
      value: 0
    }
    group: 1
    norm_type: AFTER
    offset_type: NONE
  }
}
layer {
  name: "bn6"
  type: "BatchNorm"
  bottom: "conv6"
  top: "bn6"
}
layer {
  name: "relu6"
  type: "ReLU"
  bottom: "bn6"
  top: "bn6"
}
layer {
  name: "concat6"
  type: "Concat"
  bottom: "bn6"
  bottom: "bn2"
  bottom: "bn2A"
  bottom: "bn3"
  bottom: "bn4"
  bottom: "bn5"
  top: "concat6"
}
layer {
  name: "conv7"
  type: "Convolution"
  bottom: "concat6"
  top: "conv7"
  param {
    lr_mult: 1
  }
  param {
    lr_mult: 0.1
  }
  convolution_param {
    num_output: 128
    pad: 0
    kernel_size: 1
    stride: 1
    weight_filler {
      type: "xavier"
    }
    bias_filler {
      type: "constant"
      value: 0
    }
  }
}
layer {
  name: "bn7"
  type: "BatchNorm"
  bottom: "conv7"
  top: "bn7"
}
layer {
  name: "relu7"
  type: "ReLU"
  bottom: "bn7"
  top: "bn7"
}
layer {
  name: "conv8"
  type: "Convolution"
  bottom: "bn7"
  top: "conv8"
  param {
    lr_mult: 1
  }
  param {
    lr_mult: 0.1
  }
  convolution_param {
    num_output: 13
    pad: 0
    kernel_size: 1
    stride: 1
    weight_filler {
      type: "xavier"
    }
    bias_filler {
      type: "constant"
      value: 0
    }
  }
}
layer {
  name: "loss"
  type: "SoftmaxWithLoss"
  bottom: "conv8"
  bottom: "label"
  top: "loss"
}
layer {
  name: "accuracy"
  type: "Accuracy"
  bottom: "conv8"
  bottom: "label"
  top: "accuracy"
}
I0809 10:25:44.935892 23425 layer_factory.hpp:77] Creating layer data
I0809 10:25:44.970201 23425 net.cpp:84] Creating Layer data
I0809 10:25:44.970685 23425 net.cpp:380] data -> data
I0809 10:25:44.971246 23425 net.cpp:380] data -> label
I0809 10:25:45.179057 23427 upgrade_proto.cpp:1084] Attempting to upgrade input file specified using deprecated 'solver_type' field (enum)': /mnt/lustre/wangjiayun/repos/splatnet/exp/lidar3d/area6/6_solver.prototxt
I0809 10:25:45.179143 23427 upgrade_proto.cpp:1091] Successfully upgraded file specified using deprecated 'solver_type' field (enum) to 'type' field (string).
W0809 10:25:45.179150 23427 upgrade_proto.cpp:1093] Note that future Caffe releases will only support 'type' field (string) for a solver's type.
I0809 10:25:45.278234 23429 upgrade_proto.cpp:1084] Attempting to upgrade input file specified using deprecated 'solver_type' field (enum)': /mnt/lustre/wangjiayun/repos/splatnet/exp/lidar3d/area6/6_solver.prototxt
I0809 10:25:45.278357 23429 upgrade_proto.cpp:1091] Successfully upgraded file specified using deprecated 'solver_type' field (enum) to 'type' field (string).
W0809 10:25:45.278365 23429 upgrade_proto.cpp:1093] Note that future Caffe releases will only support 'type' field (string) for a solver's type.
I0809 10:36:39.650952 23425 net.cpp:122] Setting up data
I0809 10:36:39.686115 23425 net.cpp:129] Top shape: 12 3 1 8192 (294912)
I0809 10:36:39.686309 23425 net.cpp:129] Top shape: 12 1 1 8192 (98304)
I0809 10:36:39.686319 23425 net.cpp:137] Memory required for data: 1572864
I0809 10:36:39.709054 23425 layer_factory.hpp:77] Creating layer data_data_0_split
I0809 10:36:39.744781 23425 net.cpp:84] Creating Layer data_data_0_split
I0809 10:36:39.762583 23425 net.cpp:406] data_data_0_split <- data
I0809 10:36:39.763463 23425 net.cpp:380] data_data_0_split -> data_data_0_split_0
I0809 10:36:39.772429 23425 net.cpp:380] data_data_0_split -> data_data_0_split_1
I0809 10:36:39.772462 23425 net.cpp:380] data_data_0_split -> data_data_0_split_2
I0809 10:36:39.772481 23425 net.cpp:380] data_data_0_split -> data_data_0_split_3
I0809 10:36:39.772509 23425 net.cpp:380] data_data_0_split -> data_data_0_split_4
I0809 10:36:39.772527 23425 net.cpp:380] data_data_0_split -> data_data_0_split_5
I0809 10:36:39.772544 23425 net.cpp:380] data_data_0_split -> data_data_0_split_6
I0809 10:36:39.784946 23425 net.cpp:122] Setting up data_data_0_split
I0809 10:36:39.784976 23425 net.cpp:129] Top shape: 12 3 1 8192 (294912)
I0809 10:36:39.784988 23425 net.cpp:129] Top shape: 12 3 1 8192 (294912)
I0809 10:36:39.785001 23425 net.cpp:129] Top shape: 12 3 1 8192 (294912)
I0809 10:36:39.785010 23425 net.cpp:129] Top shape: 12 3 1 8192 (294912)
I0809 10:36:39.785032 23425 net.cpp:129] Top shape: 12 3 1 8192 (294912)
I0809 10:36:39.785042 23425 net.cpp:129] Top shape: 12 3 1 8192 (294912)
I0809 10:36:39.785053 23425 net.cpp:129] Top shape: 12 3 1 8192 (294912)
I0809 10:36:39.785064 23425 net.cpp:137] Memory required for data: 9830400
I0809 10:36:39.785074 23425 layer_factory.hpp:77] Creating layer label_data_1_split
I0809 10:36:39.785094 23425 net.cpp:84] Creating Layer label_data_1_split
I0809 10:36:39.785106 23425 net.cpp:406] label_data_1_split <- label
I0809 10:36:39.785135 23425 net.cpp:380] label_data_1_split -> label_data_1_split_0
I0809 10:36:39.785158 23425 net.cpp:380] label_data_1_split -> label_data_1_split_1
I0809 10:36:39.785250 23425 net.cpp:122] Setting up label_data_1_split
I0809 10:36:39.785270 23425 net.cpp:129] Top shape: 12 1 1 8192 (98304)
I0809 10:36:39.785281 23425 net.cpp:129] Top shape: 12 1 1 8192 (98304)
I0809 10:36:39.785290 23425 net.cpp:137] Memory required for data: 10616832
I0809 10:36:39.785303 23425 layer_factory.hpp:77] Creating layer data_feat
I0809 10:36:39.829365 23425 net.cpp:84] Creating Layer data_feat
I0809 10:36:39.829393 23425 net.cpp:406] data_feat <- data_data_0_split_0
I0809 10:36:39.829412 23425 net.cpp:380] data_feat -> data_feat
I0809 10:36:39.840662 23425 net.cpp:122] Setting up data_feat
I0809 10:36:39.840696 23425 net.cpp:129] Top shape: 12 3 1 8192 (294912)
I0809 10:36:39.840708 23425 net.cpp:137] Memory required for data: 11796480
I0809 10:36:39.840718 23425 layer_factory.hpp:77] Creating layer conv1
I0809 10:36:39.852241 23425 net.cpp:84] Creating Layer conv1
I0809 10:36:39.852267 23425 net.cpp:406] conv1 <- data_feat
I0809 10:36:39.852285 23425 net.cpp:380] conv1 -> conv1
I0809 10:36:46.392464 23425 net.cpp:122] Setting up conv1
I0809 10:36:46.392519 23425 net.cpp:129] Top shape: 12 32 1 8192 (3145728)
I0809 10:36:46.392530 23425 net.cpp:137] Memory required for data: 24379392
I0809 10:36:46.403167 23425 layer_factory.hpp:77] Creating layer bn1
I0809 10:36:46.404361 23425 net.cpp:84] Creating Layer bn1
I0809 10:36:46.404398 23425 net.cpp:406] bn1 <- conv1
I0809 10:36:46.404418 23425 net.cpp:380] bn1 -> bn1
I0809 10:36:46.433415 23425 net.cpp:122] Setting up bn1
I0809 10:36:46.433456 23425 net.cpp:129] Top shape: 12 32 1 8192 (3145728)
I0809 10:36:46.433467 23425 net.cpp:137] Memory required for data: 36962304
I0809 10:36:46.433521 23425 layer_factory.hpp:77] Creating layer relu1
I0809 10:36:46.434664 23425 net.cpp:84] Creating Layer relu1
I0809 10:36:46.434705 23425 net.cpp:406] relu1 <- bn1
I0809 10:36:46.434731 23425 net.cpp:367] relu1 -> bn1 (in-place)
I0809 10:36:46.449062 23425 net.cpp:122] Setting up relu1
I0809 10:36:46.449102 23425 net.cpp:129] Top shape: 12 32 1 8192 (3145728)
I0809 10:36:46.449138 23425 net.cpp:137] Memory required for data: 49545216
I0809 10:36:46.449178 23425 layer_factory.hpp:77] Creating layer bn1_relu1_0_split
I0809 10:36:46.449208 23425 net.cpp:84] Creating Layer bn1_relu1_0_split
I0809 10:36:46.449229 23425 net.cpp:406] bn1_relu1_0_split <- bn1
I0809 10:36:46.449255 23425 net.cpp:380] bn1_relu1_0_split -> bn1_relu1_0_split_0
I0809 10:36:46.449286 23425 net.cpp:380] bn1_relu1_0_split -> bn1_relu1_0_split_1
I0809 10:36:46.449409 23425 net.cpp:122] Setting up bn1_relu1_0_split
I0809 10:36:46.449437 23425 net.cpp:129] Top shape: 12 32 1 8192 (3145728)
I0809 10:36:46.449456 23425 net.cpp:129] Top shape: 12 32 1 8192 (3145728)
I0809 10:36:46.449481 23425 net.cpp:137] Memory required for data: 74711040
I0809 10:36:46.449496 23425 layer_factory.hpp:77] Creating layer fconv1A
I0809 10:36:46.449539 23425 net.cpp:84] Creating Layer fconv1A
I0809 10:36:46.449556 23425 net.cpp:406] fconv1A <- bn1_relu1_0_split_0
I0809 10:36:46.449584 23425 net.cpp:380] fconv1A -> fconv1A
I0809 10:36:46.453832 23425 net.cpp:122] Setting up fconv1A
I0809 10:36:46.453874 23425 net.cpp:129] Top shape: 12 3 1 8192 (294912)
I0809 10:36:46.453891 23425 net.cpp:137] Memory required for data: 75890688
I0809 10:36:46.453917 23425 layer_factory.hpp:77] Creating layer fbn1A
I0809 10:36:46.453943 23425 net.cpp:84] Creating Layer fbn1A
I0809 10:36:46.453958 23425 net.cpp:406] fbn1A <- fconv1A
I0809 10:36:46.453981 23425 net.cpp:380] fbn1A -> fbn1A
I0809 10:36:46.454427 23425 net.cpp:122] Setting up fbn1A
I0809 10:36:46.454457 23425 net.cpp:129] Top shape: 12 3 1 8192 (294912)
I0809 10:36:46.454473 23425 net.cpp:137] Memory required for data: 77070336
I0809 10:36:46.454510 23425 layer_factory.hpp:77] Creating layer frelu1A
I0809 10:36:46.454555 23425 net.cpp:84] Creating Layer frelu1A
I0809 10:36:46.454574 23425 net.cpp:406] frelu1A <- fbn1A
I0809 10:36:46.454594 23425 net.cpp:367] frelu1A -> fbn1A (in-place)
I0809 10:36:46.455221 23425 net.cpp:122] Setting up frelu1A
I0809 10:36:46.455253 23425 net.cpp:129] Top shape: 12 3 1 8192 (294912)
I0809 10:36:46.455268 23425 net.cpp:137] Memory required for data: 78249984
I0809 10:36:46.455283 23425 layer_factory.hpp:77] Creating layer feat1A
I0809 10:36:46.455418 23425 net.cpp:84] Creating Layer feat1A
I0809 10:36:46.455442 23425 net.cpp:406] feat1A <- data_data_0_split_1
I0809 10:36:46.455463 23425 net.cpp:406] feat1A <- fbn1A
I0809 10:36:46.455487 23425 net.cpp:380] feat1A -> feat1A
I0809 10:36:46.456053 23425 net.cpp:122] Setting up feat1A
I0809 10:36:46.456094 23425 net.cpp:129] Top shape: 12 3 1 8192 (294912)
I0809 10:36:46.456109 23425 net.cpp:137] Memory required for data: 79429632
I0809 10:36:46.456146 23425 layer_factory.hpp:77] Creating layer data_lattice0A
I0809 10:36:46.456264 23425 net.cpp:84] Creating Layer data_lattice0A
I0809 10:36:46.456290 23425 net.cpp:406] data_lattice0A <- feat1A
I0809 10:36:46.456315 23425 net.cpp:380] data_lattice0A -> data_lattice0A
I0809 10:36:46.459609 23425 net.cpp:122] Setting up data_lattice0A
I0809 10:36:46.459650 23425 net.cpp:129] Top shape: 12 3 1 8192 (294912)
I0809 10:36:46.459666 23425 net.cpp:137] Memory required for data: 80609280
I0809 10:36:46.459682 23425 layer_factory.hpp:77] Creating layer data_lattice0A_data_lattice0A_0_split
I0809 10:36:46.459704 23425 net.cpp:84] Creating Layer data_lattice0A_data_lattice0A_0_split
I0809 10:36:46.459722 23425 net.cpp:406] data_lattice0A_data_lattice0A_0_split <- data_lattice0A
I0809 10:36:46.459744 23425 net.cpp:380] data_lattice0A_data_lattice0A_0_split -> data_lattice0A_data_lattice0A_0_split_0
I0809 10:36:46.459774 23425 net.cpp:380] data_lattice0A_data_lattice0A_0_split -> data_lattice0A_data_lattice0A_0_split_1
I0809 10:36:46.459885 23425 net.cpp:122] Setting up data_lattice0A_data_lattice0A_0_split
I0809 10:36:46.459911 23425 net.cpp:129] Top shape: 12 3 1 8192 (294912)
I0809 10:36:46.459929 23425 net.cpp:129] Top shape: 12 3 1 8192 (294912)
I0809 10:36:46.459942 23425 net.cpp:137] Memory required for data: 82968576
I0809 10:36:46.459976 23425 layer_factory.hpp:77] Creating layer conv2A
I0809 10:36:46.460652 23425 net.cpp:84] Creating Layer conv2A
I0809 10:36:46.460690 23425 net.cpp:406] conv2A <- bn1_relu1_0_split_1
I0809 10:36:46.460712 23425 net.cpp:406] conv2A <- data_lattice0A_data_lattice0A_0_split_0
I0809 10:36:46.460731 23425 net.cpp:406] conv2A <- data_lattice0A_data_lattice0A_0_split_1
I0809 10:36:46.460757 23425 net.cpp:380] conv2A -> conv2A
I0809 10:36:46.471005 23425 net.cpp:122] Setting up conv2A
I0809 10:36:46.471045 23425 net.cpp:129] Top shape: 12 64 1 8192 (6291456)
I0809 10:36:46.471055 23425 net.cpp:137] Memory required for data: 108134400
I0809 10:36:46.471071 23425 layer_factory.hpp:77] Creating layer bn2A
I0809 10:36:46.471088 23425 net.cpp:84] Creating Layer bn2A
I0809 10:36:46.471099 23425 net.cpp:406] bn2A <- conv2A
I0809 10:36:46.471113 23425 net.cpp:380] bn2A -> bn2A
I0809 10:36:46.471596 23425 net.cpp:122] Setting up bn2A
I0809 10:36:46.471621 23425 net.cpp:129] Top shape: 12 64 1 8192 (6291456)
I0809 10:36:46.471630 23425 net.cpp:137] Memory required for data: 133300224
I0809 10:36:46.471649 23425 layer_factory.hpp:77] Creating layer relu2A
I0809 10:36:46.471668 23425 net.cpp:84] Creating Layer relu2A
I0809 10:36:46.471678 23425 net.cpp:406] relu2A <- bn2A
I0809 10:36:46.471690 23425 net.cpp:367] relu2A -> bn2A (in-place)
I0809 10:36:46.473114 23425 net.cpp:122] Setting up relu2A
I0809 10:36:46.473160 23425 net.cpp:129] Top shape: 12 64 1 8192 (6291456)
I0809 10:36:46.473170 23425 net.cpp:137] Memory required for data: 158466048
I0809 10:36:46.473178 23425 layer_factory.hpp:77] Creating layer bn2A_relu2A_0_split
I0809 10:36:46.473193 23425 net.cpp:84] Creating Layer bn2A_relu2A_0_split
I0809 10:36:46.473202 23425 net.cpp:406] bn2A_relu2A_0_split <- bn2A
I0809 10:36:46.473215 23425 net.cpp:380] bn2A_relu2A_0_split -> bn2A_relu2A_0_split_0
I0809 10:36:46.473232 23425 net.cpp:380] bn2A_relu2A_0_split -> bn2A_relu2A_0_split_1
I0809 10:36:46.473246 23425 net.cpp:380] bn2A_relu2A_0_split -> bn2A_relu2A_0_split_2
I0809 10:36:46.473376 23425 net.cpp:122] Setting up bn2A_relu2A_0_split
I0809 10:36:46.473398 23425 net.cpp:129] Top shape: 12 64 1 8192 (6291456)
I0809 10:36:46.473415 23425 net.cpp:129] Top shape: 12 64 1 8192 (6291456)
I0809 10:36:46.473428 23425 net.cpp:129] Top shape: 12 64 1 8192 (6291456)
I0809 10:36:46.473439 23425 net.cpp:137] Memory required for data: 233963520
I0809 10:36:46.473464 23425 layer_factory.hpp:77] Creating layer fconv1
I0809 10:36:46.473498 23425 net.cpp:84] Creating Layer fconv1
I0809 10:36:46.473512 23425 net.cpp:406] fconv1 <- bn2A_relu2A_0_split_0
I0809 10:36:46.473528 23425 net.cpp:380] fconv1 -> fconv1
I0809 10:36:46.476608 23425 net.cpp:122] Setting up fconv1
I0809 10:36:46.476640 23425 net.cpp:129] Top shape: 12 3 1 8192 (294912)
I0809 10:36:46.476649 23425 net.cpp:137] Memory required for data: 235143168
I0809 10:36:46.476673 23425 layer_factory.hpp:77] Creating layer fbn1
I0809 10:36:46.476688 23425 net.cpp:84] Creating Layer fbn1
I0809 10:36:46.476698 23425 net.cpp:406] fbn1 <- fconv1
I0809 10:36:46.476738 23425 net.cpp:380] fbn1 -> fbn1
I0809 10:36:46.477205 23425 net.cpp:122] Setting up fbn1
I0809 10:36:46.477229 23425 net.cpp:129] Top shape: 12 3 1 8192 (294912)
I0809 10:36:46.477238 23425 net.cpp:137] Memory required for data: 236322816
I0809 10:36:46.477257 23425 layer_factory.hpp:77] Creating layer frelu1
I0809 10:36:46.477270 23425 net.cpp:84] Creating Layer frelu1
I0809 10:36:46.477279 23425 net.cpp:406] frelu1 <- fbn1
I0809 10:36:46.477291 23425 net.cpp:367] frelu1 -> fbn1 (in-place)
I0809 10:36:46.477929 23425 net.cpp:122] Setting up frelu1
I0809 10:36:46.477957 23425 net.cpp:129] Top shape: 12 3 1 8192 (294912)
I0809 10:36:46.477965 23425 net.cpp:137] Memory required for data: 237502464
I0809 10:36:46.477975 23425 layer_factory.hpp:77] Creating layer feat1
I0809 10:36:46.477989 23425 net.cpp:84] Creating Layer feat1
I0809 10:36:46.477999 23425 net.cpp:406] feat1 <- data_data_0_split_2
I0809 10:36:46.478011 23425 net.cpp:406] feat1 <- fbn1
I0809 10:36:46.478024 23425 net.cpp:380] feat1 -> feat1
I0809 10:36:46.478093 23425 net.cpp:122] Setting up feat1
I0809 10:36:46.478114 23425 net.cpp:129] Top shape: 12 3 1 8192 (294912)
I0809 10:36:46.478134 23425 net.cpp:137] Memory required for data: 238682112
I0809 10:36:46.478155 23425 layer_factory.hpp:77] Creating layer data_lattice0
I0809 10:36:46.478250 23425 net.cpp:84] Creating Layer data_lattice0
I0809 10:36:46.478271 23425 net.cpp:406] data_lattice0 <- feat1
I0809 10:36:46.478286 23425 net.cpp:380] data_lattice0 -> data_lattice0
I0809 10:36:46.480917 23425 net.cpp:122] Setting up data_lattice0
I0809 10:36:46.480950 23425 net.cpp:129] Top shape: 12 3 1 8192 (294912)
I0809 10:36:46.480960 23425 net.cpp:137] Memory required for data: 239861760
I0809 10:36:46.480969 23425 layer_factory.hpp:77] Creating layer data_lattice0_data_lattice0_0_split
I0809 10:36:46.480984 23425 net.cpp:84] Creating Layer data_lattice0_data_lattice0_0_split
I0809 10:36:46.480993 23425 net.cpp:406] data_lattice0_data_lattice0_0_split <- data_lattice0
I0809 10:36:46.481009 23425 net.cpp:380] data_lattice0_data_lattice0_0_split -> data_lattice0_data_lattice0_0_split_0
I0809 10:36:46.481025 23425 net.cpp:380] data_lattice0_data_lattice0_0_split -> data_lattice0_data_lattice0_0_split_1
I0809 10:36:46.481132 23425 net.cpp:122] Setting up data_lattice0_data_lattice0_0_split
I0809 10:36:46.481153 23425 net.cpp:129] Top shape: 12 3 1 8192 (294912)
I0809 10:36:46.481163 23425 net.cpp:129] Top shape: 12 3 1 8192 (294912)
I0809 10:36:46.481171 23425 net.cpp:137] Memory required for data: 242221056
I0809 10:36:46.481179 23425 layer_factory.hpp:77] Creating layer conv2
I0809 10:36:46.481199 23425 net.cpp:84] Creating Layer conv2
I0809 10:36:46.481217 23425 net.cpp:406] conv2 <- bn2A_relu2A_0_split_1
I0809 10:36:46.481232 23425 net.cpp:406] conv2 <- data_lattice0_data_lattice0_0_split_0
I0809 10:36:46.481251 23425 net.cpp:406] conv2 <- data_lattice0_data_lattice0_0_split_1
I0809 10:36:46.481267 23425 net.cpp:380] conv2 -> conv2
I0809 10:36:46.499303 23425 net.cpp:122] Setting up conv2
I0809 10:36:46.499334 23425 net.cpp:129] Top shape: 12 64 1 8192 (6291456)
I0809 10:36:46.499343 23425 net.cpp:137] Memory required for data: 267386880
I0809 10:36:46.499357 23425 layer_factory.hpp:77] Creating layer bn2
I0809 10:36:46.499372 23425 net.cpp:84] Creating Layer bn2
I0809 10:36:46.499382 23425 net.cpp:406] bn2 <- conv2
I0809 10:36:46.499394 23425 net.cpp:380] bn2 -> bn2
I0809 10:36:46.499807 23425 net.cpp:122] Setting up bn2
I0809 10:36:46.499830 23425 net.cpp:129] Top shape: 12 64 1 8192 (6291456)
I0809 10:36:46.499836 23425 net.cpp:137] Memory required for data: 292552704
I0809 10:36:46.499867 23425 layer_factory.hpp:77] Creating layer relu2
I0809 10:36:46.499888 23425 net.cpp:84] Creating Layer relu2
I0809 10:36:46.499897 23425 net.cpp:406] relu2 <- bn2
I0809 10:36:46.499914 23425 net.cpp:367] relu2 -> bn2 (in-place)
I0809 10:36:46.501333 23425 net.cpp:122] Setting up relu2
I0809 10:36:46.501361 23425 net.cpp:129] Top shape: 12 64 1 8192 (6291456)
I0809 10:36:46.501370 23425 net.cpp:137] Memory required for data: 317718528
I0809 10:36:46.501379 23425 layer_factory.hpp:77] Creating layer bn2_relu2_0_split
I0809 10:36:46.501392 23425 net.cpp:84] Creating Layer bn2_relu2_0_split
I0809 10:36:46.501400 23425 net.cpp:406] bn2_relu2_0_split <- bn2
I0809 10:36:46.501413 23425 net.cpp:380] bn2_relu2_0_split -> bn2_relu2_0_split_0
I0809 10:36:46.501430 23425 net.cpp:380] bn2_relu2_0_split -> bn2_relu2_0_split_1
I0809 10:36:46.501442 23425 net.cpp:380] bn2_relu2_0_split -> bn2_relu2_0_split_2
I0809 10:36:46.501559 23425 net.cpp:122] Setting up bn2_relu2_0_split
I0809 10:36:46.501585 23425 net.cpp:129] Top shape: 12 64 1 8192 (6291456)
I0809 10:36:46.501605 23425 net.cpp:129] Top shape: 12 64 1 8192 (6291456)
I0809 10:36:46.501615 23425 net.cpp:129] Top shape: 12 64 1 8192 (6291456)
I0809 10:36:46.501621 23425 net.cpp:137] Memory required for data: 393216000
I0809 10:36:46.501629 23425 layer_factory.hpp:77] Creating layer fconv2
I0809 10:36:46.501648 23425 net.cpp:84] Creating Layer fconv2
I0809 10:36:46.501658 23425 net.cpp:406] fconv2 <- bn2_relu2_0_split_0
I0809 10:36:46.501673 23425 net.cpp:380] fconv2 -> fconv2
I0809 10:36:46.504464 23425 net.cpp:122] Setting up fconv2
I0809 10:36:46.504493 23425 net.cpp:129] Top shape: 12 3 1 8192 (294912)
I0809 10:36:46.504501 23425 net.cpp:137] Memory required for data: 394395648
I0809 10:36:46.504515 23425 layer_factory.hpp:77] Creating layer fbn2
I0809 10:36:46.504529 23425 net.cpp:84] Creating Layer fbn2
I0809 10:36:46.504537 23425 net.cpp:406] fbn2 <- fconv2
I0809 10:36:46.504549 23425 net.cpp:380] fbn2 -> fbn2
I0809 10:36:46.504946 23425 net.cpp:122] Setting up fbn2
I0809 10:36:46.504967 23425 net.cpp:129] Top shape: 12 3 1 8192 (294912)
I0809 10:36:46.504976 23425 net.cpp:137] Memory required for data: 395575296
I0809 10:36:46.505004 23425 layer_factory.hpp:77] Creating layer frelu2
I0809 10:36:46.505023 23425 net.cpp:84] Creating Layer frelu2
I0809 10:36:46.505033 23425 net.cpp:406] frelu2 <- fbn2
I0809 10:36:46.505043 23425 net.cpp:367] frelu2 -> fbn2 (in-place)
I0809 10:36:46.505573 23425 net.cpp:122] Setting up frelu2
I0809 10:36:46.505596 23425 net.cpp:129] Top shape: 12 3 1 8192 (294912)
I0809 10:36:46.505604 23425 net.cpp:137] Memory required for data: 396754944
I0809 10:36:46.505612 23425 layer_factory.hpp:77] Creating layer feat2
I0809 10:36:46.505625 23425 net.cpp:84] Creating Layer feat2
I0809 10:36:46.505633 23425 net.cpp:406] feat2 <- data_data_0_split_3
I0809 10:36:46.505643 23425 net.cpp:406] feat2 <- fbn2
I0809 10:36:46.505654 23425 net.cpp:380] feat2 -> feat2
I0809 10:36:46.505712 23425 net.cpp:122] Setting up feat2
I0809 10:36:46.505729 23425 net.cpp:129] Top shape: 12 3 1 8192 (294912)
I0809 10:36:46.505735 23425 net.cpp:137] Memory required for data: 397934592
I0809 10:36:46.505743 23425 layer_factory.hpp:77] Creating layer data_lattice1
I0809 10:36:46.505796 23425 net.cpp:84] Creating Layer data_lattice1
I0809 10:36:46.505810 23425 net.cpp:406] data_lattice1 <- feat2
I0809 10:36:46.505825 23425 net.cpp:380] data_lattice1 -> data_lattice1
I0809 10:36:46.508177 23425 net.cpp:122] Setting up data_lattice1
I0809 10:36:46.508205 23425 net.cpp:129] Top shape: 12 3 1 8192 (294912)
I0809 10:36:46.508213 23425 net.cpp:137] Memory required for data: 399114240
I0809 10:36:46.508221 23425 layer_factory.hpp:77] Creating layer data_lattice1_data_lattice1_0_split
I0809 10:36:46.508234 23425 net.cpp:84] Creating Layer data_lattice1_data_lattice1_0_split
I0809 10:36:46.508242 23425 net.cpp:406] data_lattice1_data_lattice1_0_split <- data_lattice1
I0809 10:36:46.508255 23425 net.cpp:380] data_lattice1_data_lattice1_0_split -> data_lattice1_data_lattice1_0_split_0
I0809 10:36:46.508270 23425 net.cpp:380] data_lattice1_data_lattice1_0_split -> data_lattice1_data_lattice1_0_split_1
I0809 10:36:46.508349 23425 net.cpp:122] Setting up data_lattice1_data_lattice1_0_split
I0809 10:36:46.508365 23425 net.cpp:129] Top shape: 12 3 1 8192 (294912)
I0809 10:36:46.508374 23425 net.cpp:129] Top shape: 12 3 1 8192 (294912)
I0809 10:36:46.508383 23425 net.cpp:137] Memory required for data: 401473536
I0809 10:36:46.508404 23425 layer_factory.hpp:77] Creating layer conv3
I0809 10:36:46.508436 23425 net.cpp:84] Creating Layer conv3
I0809 10:36:46.508453 23425 net.cpp:406] conv3 <- bn2_relu2_0_split_1
I0809 10:36:46.508469 23425 net.cpp:406] conv3 <- data_lattice1_data_lattice1_0_split_0
I0809 10:36:46.508483 23425 net.cpp:406] conv3 <- data_lattice1_data_lattice1_0_split_1
I0809 10:36:46.508496 23425 net.cpp:380] conv3 -> conv3
I0809 10:36:46.536588 23425 net.cpp:122] Setting up conv3
I0809 10:36:46.536612 23425 net.cpp:129] Top shape: 12 128 1 8192 (12582912)
I0809 10:36:46.536619 23425 net.cpp:137] Memory required for data: 451805184
I0809 10:36:46.536630 23425 layer_factory.hpp:77] Creating layer bn3
I0809 10:36:46.536643 23425 net.cpp:84] Creating Layer bn3
I0809 10:36:46.536649 23425 net.cpp:406] bn3 <- conv3
I0809 10:36:46.536666 23425 net.cpp:380] bn3 -> bn3
I0809 10:36:46.537000 23425 net.cpp:122] Setting up bn3
I0809 10:36:46.537017 23425 net.cpp:129] Top shape: 12 128 1 8192 (12582912)
I0809 10:36:46.537024 23425 net.cpp:137] Memory required for data: 502136832
I0809 10:36:46.537045 23425 layer_factory.hpp:77] Creating layer relu3
I0809 10:36:46.537062 23425 net.cpp:84] Creating Layer relu3
I0809 10:36:46.537070 23425 net.cpp:406] relu3 <- bn3
I0809 10:36:46.537077 23425 net.cpp:367] relu3 -> bn3 (in-place)
I0809 10:36:46.538035 23425 net.cpp:122] Setting up relu3
I0809 10:36:46.538059 23425 net.cpp:129] Top shape: 12 128 1 8192 (12582912)
I0809 10:36:46.538066 23425 net.cpp:137] Memory required for data: 552468480
I0809 10:36:46.538074 23425 layer_factory.hpp:77] Creating layer bn3_relu3_0_split
I0809 10:36:46.538097 23425 net.cpp:84] Creating Layer bn3_relu3_0_split
I0809 10:36:46.538105 23425 net.cpp:406] bn3_relu3_0_split <- bn3
I0809 10:36:46.538125 23425 net.cpp:380] bn3_relu3_0_split -> bn3_relu3_0_split_0
I0809 10:36:46.538139 23425 net.cpp:380] bn3_relu3_0_split -> bn3_relu3_0_split_1
I0809 10:36:46.538151 23425 net.cpp:380] bn3_relu3_0_split -> bn3_relu3_0_split_2
I0809 10:36:46.538241 23425 net.cpp:122] Setting up bn3_relu3_0_split
I0809 10:36:46.538256 23425 net.cpp:129] Top shape: 12 128 1 8192 (12582912)
I0809 10:36:46.538264 23425 net.cpp:129] Top shape: 12 128 1 8192 (12582912)
I0809 10:36:46.538269 23425 net.cpp:129] Top shape: 12 128 1 8192 (12582912)
I0809 10:36:46.538275 23425 net.cpp:137] Memory required for data: 703463424
I0809 10:36:46.538281 23425 layer_factory.hpp:77] Creating layer fconv3
I0809 10:36:46.538311 23425 net.cpp:84] Creating Layer fconv3
I0809 10:36:46.538326 23425 net.cpp:406] fconv3 <- bn3_relu3_0_split_0
I0809 10:36:46.538342 23425 net.cpp:380] fconv3 -> fconv3
I0809 10:36:46.542132 23425 net.cpp:122] Setting up fconv3
I0809 10:36:46.542156 23425 net.cpp:129] Top shape: 12 3 1 8192 (294912)
I0809 10:36:46.542163 23425 net.cpp:137] Memory required for data: 704643072
I0809 10:36:46.542176 23425 layer_factory.hpp:77] Creating layer fbn3
I0809 10:36:46.542186 23425 net.cpp:84] Creating Layer fbn3
I0809 10:36:46.542194 23425 net.cpp:406] fbn3 <- fconv3
I0809 10:36:46.542206 23425 net.cpp:380] fbn3 -> fbn3
I0809 10:36:46.542559 23425 net.cpp:122] Setting up fbn3
I0809 10:36:46.542577 23425 net.cpp:129] Top shape: 12 3 1 8192 (294912)
I0809 10:36:46.542582 23425 net.cpp:137] Memory required for data: 705822720
I0809 10:36:46.542595 23425 layer_factory.hpp:77] Creating layer frelu3
I0809 10:36:46.542604 23425 net.cpp:84] Creating Layer frelu3
I0809 10:36:46.542611 23425 net.cpp:406] frelu3 <- fbn3
I0809 10:36:46.542620 23425 net.cpp:367] frelu3 -> fbn3 (in-place)
I0809 10:36:46.543041 23425 net.cpp:122] Setting up frelu3
I0809 10:36:46.543061 23425 net.cpp:129] Top shape: 12 3 1 8192 (294912)
I0809 10:36:46.543066 23425 net.cpp:137] Memory required for data: 707002368
I0809 10:36:46.543072 23425 layer_factory.hpp:77] Creating layer feat3
I0809 10:36:46.543099 23425 net.cpp:84] Creating Layer feat3
I0809 10:36:46.543107 23425 net.cpp:406] feat3 <- data_data_0_split_4
I0809 10:36:46.543123 23425 net.cpp:406] feat3 <- fbn3
I0809 10:36:46.543133 23425 net.cpp:380] feat3 -> feat3
I0809 10:36:46.543184 23425 net.cpp:122] Setting up feat3
I0809 10:36:46.543197 23425 net.cpp:129] Top shape: 12 3 1 8192 (294912)
I0809 10:36:46.543203 23425 net.cpp:137] Memory required for data: 708182016
I0809 10:36:46.543210 23425 layer_factory.hpp:77] Creating layer data_lattice2
I0809 10:36:46.543252 23425 net.cpp:84] Creating Layer data_lattice2
I0809 10:36:46.543265 23425 net.cpp:406] data_lattice2 <- feat3
I0809 10:36:46.543275 23425 net.cpp:380] data_lattice2 -> data_lattice2
I0809 10:36:46.545065 23425 net.cpp:122] Setting up data_lattice2
I0809 10:36:46.545089 23425 net.cpp:129] Top shape: 12 3 1 8192 (294912)
I0809 10:36:46.545096 23425 net.cpp:137] Memory required for data: 709361664
I0809 10:36:46.545104 23425 layer_factory.hpp:77] Creating layer data_lattice2_data_lattice2_0_split
I0809 10:36:46.545114 23425 net.cpp:84] Creating Layer data_lattice2_data_lattice2_0_split
I0809 10:36:46.545131 23425 net.cpp:406] data_lattice2_data_lattice2_0_split <- data_lattice2
I0809 10:36:46.545142 23425 net.cpp:380] data_lattice2_data_lattice2_0_split -> data_lattice2_data_lattice2_0_split_0
I0809 10:36:46.545155 23425 net.cpp:380] data_lattice2_data_lattice2_0_split -> data_lattice2_data_lattice2_0_split_1
I0809 10:36:46.545220 23425 net.cpp:122] Setting up data_lattice2_data_lattice2_0_split
I0809 10:36:46.545233 23425 net.cpp:129] Top shape: 12 3 1 8192 (294912)
I0809 10:36:46.545240 23425 net.cpp:129] Top shape: 12 3 1 8192 (294912)
I0809 10:36:46.545245 23425 net.cpp:137] Memory required for data: 711720960
I0809 10:36:46.545251 23425 layer_factory.hpp:77] Creating layer conv4
I0809 10:36:46.545262 23425 net.cpp:84] Creating Layer conv4
I0809 10:36:46.545269 23425 net.cpp:406] conv4 <- bn3_relu3_0_split_1
I0809 10:36:46.545276 23425 net.cpp:406] conv4 <- data_lattice2_data_lattice2_0_split_0
I0809 10:36:46.545284 23425 net.cpp:406] conv4 <- data_lattice2_data_lattice2_0_split_1
I0809 10:36:46.545295 23425 net.cpp:380] conv4 -> conv4
I0809 10:36:46.629403 23425 net.cpp:122] Setting up conv4
I0809 10:36:46.629434 23425 net.cpp:129] Top shape: 12 256 1 8192 (25165824)
I0809 10:36:46.629441 23425 net.cpp:137] Memory required for data: 812384256
I0809 10:36:46.629451 23425 layer_factory.hpp:77] Creating layer bn4
I0809 10:36:46.629477 23425 net.cpp:84] Creating Layer bn4
I0809 10:36:46.629484 23425 net.cpp:406] bn4 <- conv4
I0809 10:36:46.629493 23425 net.cpp:380] bn4 -> bn4
I0809 10:36:46.629765 23425 net.cpp:122] Setting up bn4
I0809 10:36:46.629778 23425 net.cpp:129] Top shape: 12 256 1 8192 (25165824)
I0809 10:36:46.629783 23425 net.cpp:137] Memory required for data: 913047552
I0809 10:36:46.629793 23425 layer_factory.hpp:77] Creating layer relu4
I0809 10:36:46.629811 23425 net.cpp:84] Creating Layer relu4
I0809 10:36:46.629817 23425 net.cpp:406] relu4 <- bn4
I0809 10:36:46.629823 23425 net.cpp:367] relu4 -> bn4 (in-place)
I0809 10:36:46.630674 23425 net.cpp:122] Setting up relu4
I0809 10:36:46.630692 23425 net.cpp:129] Top shape: 12 256 1 8192 (25165824)
I0809 10:36:46.630698 23425 net.cpp:137] Memory required for data: 1013710848
I0809 10:36:46.630704 23425 layer_factory.hpp:77] Creating layer bn4_relu4_0_split
I0809 10:36:46.630713 23425 net.cpp:84] Creating Layer bn4_relu4_0_split
I0809 10:36:46.630718 23425 net.cpp:406] bn4_relu4_0_split <- bn4
I0809 10:36:46.630728 23425 net.cpp:380] bn4_relu4_0_split -> bn4_relu4_0_split_0
I0809 10:36:46.630738 23425 net.cpp:380] bn4_relu4_0_split -> bn4_relu4_0_split_1
I0809 10:36:46.630745 23425 net.cpp:380] bn4_relu4_0_split -> bn4_relu4_0_split_2
I0809 10:36:46.630817 23425 net.cpp:122] Setting up bn4_relu4_0_split
I0809 10:36:46.630828 23425 net.cpp:129] Top shape: 12 256 1 8192 (25165824)
I0809 10:36:46.630834 23425 net.cpp:129] Top shape: 12 256 1 8192 (25165824)
I0809 10:36:46.630839 23425 net.cpp:129] Top shape: 12 256 1 8192 (25165824)
I0809 10:36:46.630843 23425 net.cpp:137] Memory required for data: 1315700736
I0809 10:36:46.630849 23425 layer_factory.hpp:77] Creating layer fconv4
I0809 10:36:46.630862 23425 net.cpp:84] Creating Layer fconv4
I0809 10:36:46.630868 23425 net.cpp:406] fconv4 <- bn4_relu4_0_split_0
I0809 10:36:46.630878 23425 net.cpp:380] fconv4 -> fconv4
I0809 10:36:46.632895 23425 net.cpp:122] Setting up fconv4
I0809 10:36:46.632915 23425 net.cpp:129] Top shape: 12 3 1 8192 (294912)
I0809 10:36:46.632920 23425 net.cpp:137] Memory required for data: 1316880384
I0809 10:36:46.632930 23425 layer_factory.hpp:77] Creating layer fbn4
I0809 10:36:46.632948 23425 net.cpp:84] Creating Layer fbn4
I0809 10:36:46.632956 23425 net.cpp:406] fbn4 <- fconv4
I0809 10:36:46.632969 23425 net.cpp:380] fbn4 -> fbn4
I0809 10:36:46.633253 23425 net.cpp:122] Setting up fbn4
I0809 10:36:46.633267 23425 net.cpp:129] Top shape: 12 3 1 8192 (294912)
I0809 10:36:46.633272 23425 net.cpp:137] Memory required for data: 1318060032
I0809 10:36:46.633283 23425 layer_factory.hpp:77] Creating layer frelu4
I0809 10:36:46.633298 23425 net.cpp:84] Creating Layer frelu4
I0809 10:36:46.633304 23425 net.cpp:406] frelu4 <- fbn4
I0809 10:36:46.633311 23425 net.cpp:367] frelu4 -> fbn4 (in-place)
I0809 10:36:46.634063 23425 net.cpp:122] Setting up frelu4
I0809 10:36:46.634081 23425 net.cpp:129] Top shape: 12 3 1 8192 (294912)
I0809 10:36:46.634088 23425 net.cpp:137] Memory required for data: 1319239680
I0809 10:36:46.634093 23425 layer_factory.hpp:77] Creating layer feat4
I0809 10:36:46.634101 23425 net.cpp:84] Creating Layer feat4
I0809 10:36:46.634107 23425 net.cpp:406] feat4 <- data_data_0_split_5
I0809 10:36:46.634122 23425 net.cpp:406] feat4 <- fbn4
I0809 10:36:46.634135 23425 net.cpp:380] feat4 -> feat4
I0809 10:36:46.634174 23425 net.cpp:122] Setting up feat4
I0809 10:36:46.634193 23425 net.cpp:129] Top shape: 12 3 1 8192 (294912)
I0809 10:36:46.634198 23425 net.cpp:137] Memory required for data: 1320419328
I0809 10:36:46.634203 23425 layer_factory.hpp:77] Creating layer data_lattice3
I0809 10:36:46.634263 23425 net.cpp:84] Creating Layer data_lattice3
I0809 10:36:46.634274 23425 net.cpp:406] data_lattice3 <- feat4
I0809 10:36:46.634284 23425 net.cpp:380] data_lattice3 -> data_lattice3
I0809 10:36:46.635835 23425 net.cpp:122] Setting up data_lattice3
I0809 10:36:46.635855 23425 net.cpp:129] Top shape: 12 3 1 8192 (294912)
I0809 10:36:46.635860 23425 net.cpp:137] Memory required for data: 1321598976
I0809 10:36:46.635874 23425 layer_factory.hpp:77] Creating layer data_lattice3_data_lattice3_0_split
I0809 10:36:46.635884 23425 net.cpp:84] Creating Layer data_lattice3_data_lattice3_0_split
I0809 10:36:46.635890 23425 net.cpp:406] data_lattice3_data_lattice3_0_split <- data_lattice3
I0809 10:36:46.635897 23425 net.cpp:380] data_lattice3_data_lattice3_0_split -> data_lattice3_data_lattice3_0_split_0
I0809 10:36:46.635917 23425 net.cpp:380] data_lattice3_data_lattice3_0_split -> data_lattice3_data_lattice3_0_split_1
I0809 10:36:46.635973 23425 net.cpp:122] Setting up data_lattice3_data_lattice3_0_split
I0809 10:36:46.635985 23425 net.cpp:129] Top shape: 12 3 1 8192 (294912)
I0809 10:36:46.635991 23425 net.cpp:129] Top shape: 12 3 1 8192 (294912)
I0809 10:36:46.635995 23425 net.cpp:137] Memory required for data: 1323958272
I0809 10:36:46.636000 23425 layer_factory.hpp:77] Creating layer conv5
I0809 10:36:46.636013 23425 net.cpp:84] Creating Layer conv5
I0809 10:36:46.636018 23425 net.cpp:406] conv5 <- bn4_relu4_0_split_1
I0809 10:36:46.636024 23425 net.cpp:406] conv5 <- data_lattice3_data_lattice3_0_split_0
I0809 10:36:46.636031 23425 net.cpp:406] conv5 <- data_lattice3_data_lattice3_0_split_1
I0809 10:36:46.636039 23425 net.cpp:380] conv5 -> conv5
I0809 10:36:46.796180 23425 net.cpp:122] Setting up conv5
I0809 10:36:46.796223 23425 net.cpp:129] Top shape: 12 256 1 8192 (25165824)
I0809 10:36:46.796229 23425 net.cpp:137] Memory required for data: 1424621568
I0809 10:36:46.796242 23425 layer_factory.hpp:77] Creating layer bn5
I0809 10:36:46.796257 23425 net.cpp:84] Creating Layer bn5
I0809 10:36:46.796265 23425 net.cpp:406] bn5 <- conv5
I0809 10:36:46.796277 23425 net.cpp:380] bn5 -> bn5
I0809 10:36:46.796556 23425 net.cpp:122] Setting up bn5
I0809 10:36:46.796571 23425 net.cpp:129] Top shape: 12 256 1 8192 (25165824)
I0809 10:36:46.796576 23425 net.cpp:137] Memory required for data: 1525284864
I0809 10:36:46.796586 23425 layer_factory.hpp:77] Creating layer relu5
I0809 10:36:46.796600 23425 net.cpp:84] Creating Layer relu5
I0809 10:36:46.796607 23425 net.cpp:406] relu5 <- bn5
I0809 10:36:46.796613 23425 net.cpp:367] relu5 -> bn5 (in-place)
I0809 10:36:46.797050 23425 net.cpp:122] Setting up relu5
I0809 10:36:46.797065 23425 net.cpp:129] Top shape: 12 256 1 8192 (25165824)
I0809 10:36:46.797070 23425 net.cpp:137] Memory required for data: 1625948160
I0809 10:36:46.797075 23425 layer_factory.hpp:77] Creating layer bn5_relu5_0_split
I0809 10:36:46.797085 23425 net.cpp:84] Creating Layer bn5_relu5_0_split
I0809 10:36:46.797089 23425 net.cpp:406] bn5_relu5_0_split <- bn5
I0809 10:36:46.797103 23425 net.cpp:380] bn5_relu5_0_split -> bn5_relu5_0_split_0
I0809 10:36:46.797113 23425 net.cpp:380] bn5_relu5_0_split -> bn5_relu5_0_split_1
I0809 10:36:46.797129 23425 net.cpp:380] bn5_relu5_0_split -> bn5_relu5_0_split_2
I0809 10:36:46.797200 23425 net.cpp:122] Setting up bn5_relu5_0_split
I0809 10:36:46.797211 23425 net.cpp:129] Top shape: 12 256 1 8192 (25165824)
I0809 10:36:46.797216 23425 net.cpp:129] Top shape: 12 256 1 8192 (25165824)
I0809 10:36:46.797222 23425 net.cpp:129] Top shape: 12 256 1 8192 (25165824)
I0809 10:36:46.797226 23425 net.cpp:137] Memory required for data: 1927938048
I0809 10:36:46.797230 23425 layer_factory.hpp:77] Creating layer fconv5
I0809 10:36:46.797266 23425 net.cpp:84] Creating Layer fconv5
I0809 10:36:46.797274 23425 net.cpp:406] fconv5 <- bn5_relu5_0_split_0
I0809 10:36:46.797286 23425 net.cpp:380] fconv5 -> fconv5
I0809 10:36:46.799264 23425 net.cpp:122] Setting up fconv5
I0809 10:36:46.799283 23425 net.cpp:129] Top shape: 12 3 1 8192 (294912)
I0809 10:36:46.799289 23425 net.cpp:137] Memory required for data: 1929117696
I0809 10:36:46.799299 23425 layer_factory.hpp:77] Creating layer fbn5
I0809 10:36:46.799307 23425 net.cpp:84] Creating Layer fbn5
I0809 10:36:46.799314 23425 net.cpp:406] fbn5 <- fconv5
I0809 10:36:46.799322 23425 net.cpp:380] fbn5 -> fbn5
I0809 10:36:46.799583 23425 net.cpp:122] Setting up fbn5
I0809 10:36:46.799597 23425 net.cpp:129] Top shape: 12 3 1 8192 (294912)
I0809 10:36:46.799600 23425 net.cpp:137] Memory required for data: 1930297344
I0809 10:36:46.799612 23425 layer_factory.hpp:77] Creating layer frelu5
I0809 10:36:46.799619 23425 net.cpp:84] Creating Layer frelu5
I0809 10:36:46.799625 23425 net.cpp:406] frelu5 <- fbn5
I0809 10:36:46.799631 23425 net.cpp:367] frelu5 -> fbn5 (in-place)
I0809 10:36:46.800388 23425 net.cpp:122] Setting up frelu5
I0809 10:36:46.800406 23425 net.cpp:129] Top shape: 12 3 1 8192 (294912)
I0809 10:36:46.800412 23425 net.cpp:137] Memory required for data: 1931476992
I0809 10:36:46.800417 23425 layer_factory.hpp:77] Creating layer feat5
I0809 10:36:46.800441 23425 net.cpp:84] Creating Layer feat5
I0809 10:36:46.800449 23425 net.cpp:406] feat5 <- data_data_0_split_6
I0809 10:36:46.800457 23425 net.cpp:406] feat5 <- fbn5
I0809 10:36:46.800465 23425 net.cpp:380] feat5 -> feat5
I0809 10:36:46.800511 23425 net.cpp:122] Setting up feat5
I0809 10:36:46.800523 23425 net.cpp:129] Top shape: 12 3 1 8192 (294912)
I0809 10:36:46.800528 23425 net.cpp:137] Memory required for data: 1932656640
I0809 10:36:46.800531 23425 layer_factory.hpp:77] Creating layer data_lattice4
I0809 10:36:46.800607 23425 net.cpp:84] Creating Layer data_lattice4
I0809 10:36:46.800619 23425 net.cpp:406] data_lattice4 <- feat5
I0809 10:36:46.800629 23425 net.cpp:380] data_lattice4 -> data_lattice4
I0809 10:36:46.802390 23425 net.cpp:122] Setting up data_lattice4
I0809 10:36:46.802409 23425 net.cpp:129] Top shape: 12 3 1 8192 (294912)
I0809 10:36:46.802415 23425 net.cpp:137] Memory required for data: 1933836288
I0809 10:36:46.802422 23425 layer_factory.hpp:77] Creating layer data_lattice4_data_lattice4_0_split
I0809 10:36:46.802429 23425 net.cpp:84] Creating Layer data_lattice4_data_lattice4_0_split
I0809 10:36:46.802435 23425 net.cpp:406] data_lattice4_data_lattice4_0_split <- data_lattice4
I0809 10:36:46.802444 23425 net.cpp:380] data_lattice4_data_lattice4_0_split -> data_lattice4_data_lattice4_0_split_0
I0809 10:36:46.802454 23425 net.cpp:380] data_lattice4_data_lattice4_0_split -> data_lattice4_data_lattice4_0_split_1
I0809 10:36:46.802510 23425 net.cpp:122] Setting up data_lattice4_data_lattice4_0_split
I0809 10:36:46.802520 23425 net.cpp:129] Top shape: 12 3 1 8192 (294912)
I0809 10:36:46.802525 23425 net.cpp:129] Top shape: 12 3 1 8192 (294912)
I0809 10:36:46.802529 23425 net.cpp:137] Memory required for data: 1936195584
I0809 10:36:46.802534 23425 layer_factory.hpp:77] Creating layer conv6
I0809 10:36:46.802554 23425 net.cpp:84] Creating Layer conv6
I0809 10:36:46.802561 23425 net.cpp:406] conv6 <- bn5_relu5_0_split_1
I0809 10:36:46.802568 23425 net.cpp:406] conv6 <- data_lattice4_data_lattice4_0_split_0
I0809 10:36:46.802574 23425 net.cpp:406] conv6 <- data_lattice4_data_lattice4_0_split_1
I0809 10:36:46.802582 23425 net.cpp:380] conv6 -> conv6
I0809 10:36:46.962574 23425 net.cpp:122] Setting up conv6
I0809 10:36:46.962616 23425 net.cpp:129] Top shape: 12 256 1 8192 (25165824)
I0809 10:36:46.962622 23425 net.cpp:137] Memory required for data: 2036858880
I0809 10:36:46.962636 23425 layer_factory.hpp:77] Creating layer bn6
I0809 10:36:46.962649 23425 net.cpp:84] Creating Layer bn6
I0809 10:36:46.962657 23425 net.cpp:406] bn6 <- conv6
I0809 10:36:46.962667 23425 net.cpp:380] bn6 -> bn6
I0809 10:36:46.962945 23425 net.cpp:122] Setting up bn6
I0809 10:36:46.962960 23425 net.cpp:129] Top shape: 12 256 1 8192 (25165824)
I0809 10:36:46.962963 23425 net.cpp:137] Memory required for data: 2137522176
I0809 10:36:46.963006 23425 layer_factory.hpp:77] Creating layer relu6
I0809 10:36:46.963021 23425 net.cpp:84] Creating Layer relu6
I0809 10:36:46.963029 23425 net.cpp:406] relu6 <- bn6
I0809 10:36:46.963040 23425 net.cpp:367] relu6 -> bn6 (in-place)
I0809 10:36:46.963501 23425 net.cpp:122] Setting up relu6
I0809 10:36:46.963518 23425 net.cpp:129] Top shape: 12 256 1 8192 (25165824)
I0809 10:36:46.963523 23425 net.cpp:137] Memory required for data: 2238185472
I0809 10:36:46.963528 23425 layer_factory.hpp:77] Creating layer concat6
I0809 10:36:46.963590 23425 net.cpp:84] Creating Layer concat6
I0809 10:36:46.963601 23425 net.cpp:406] concat6 <- bn6
I0809 10:36:46.963613 23425 net.cpp:406] concat6 <- bn2_relu2_0_split_2
I0809 10:36:46.963619 23425 net.cpp:406] concat6 <- bn2A_relu2A_0_split_2
I0809 10:36:46.963624 23425 net.cpp:406] concat6 <- bn3_relu3_0_split_2
I0809 10:36:46.963629 23425 net.cpp:406] concat6 <- bn4_relu4_0_split_2
I0809 10:36:46.963635 23425 net.cpp:406] concat6 <- bn5_relu5_0_split_2
I0809 10:36:46.963641 23425 net.cpp:380] concat6 -> concat6
I0809 10:36:46.963703 23425 net.cpp:122] Setting up concat6
I0809 10:36:46.963716 23425 net.cpp:129] Top shape: 12 1024 1 8192 (100663296)
I0809 10:36:46.963721 23425 net.cpp:137] Memory required for data: 2640838656
I0809 10:36:46.963726 23425 layer_factory.hpp:77] Creating layer conv7
I0809 10:36:46.963747 23425 net.cpp:84] Creating Layer conv7
I0809 10:36:46.963754 23425 net.cpp:406] conv7 <- concat6
I0809 10:36:46.963763 23425 net.cpp:380] conv7 -> conv7
I0809 10:36:46.966845 23425 net.cpp:122] Setting up conv7
I0809 10:36:46.966863 23425 net.cpp:129] Top shape: 12 128 1 8192 (12582912)
I0809 10:36:46.966869 23425 net.cpp:137] Memory required for data: 2691170304
I0809 10:36:46.966878 23425 layer_factory.hpp:77] Creating layer bn7
I0809 10:36:46.966887 23425 net.cpp:84] Creating Layer bn7
I0809 10:36:46.966892 23425 net.cpp:406] bn7 <- conv7
I0809 10:36:46.966902 23425 net.cpp:380] bn7 -> bn7
I0809 10:36:46.967176 23425 net.cpp:122] Setting up bn7
I0809 10:36:46.967191 23425 net.cpp:129] Top shape: 12 128 1 8192 (12582912)
I0809 10:36:46.967196 23425 net.cpp:137] Memory required for data: 2741501952
I0809 10:36:46.967206 23425 layer_factory.hpp:77] Creating layer relu7
I0809 10:36:46.967214 23425 net.cpp:84] Creating Layer relu7
I0809 10:36:46.967219 23425 net.cpp:406] relu7 <- bn7
I0809 10:36:46.967226 23425 net.cpp:367] relu7 -> bn7 (in-place)
I0809 10:36:46.967978 23425 net.cpp:122] Setting up relu7
I0809 10:36:46.967995 23425 net.cpp:129] Top shape: 12 128 1 8192 (12582912)
I0809 10:36:46.968001 23425 net.cpp:137] Memory required for data: 2791833600
I0809 10:36:46.968006 23425 layer_factory.hpp:77] Creating layer conv8
I0809 10:36:46.968029 23425 net.cpp:84] Creating Layer conv8
I0809 10:36:46.968036 23425 net.cpp:406] conv8 <- bn7
I0809 10:36:46.968045 23425 net.cpp:380] conv8 -> conv8
I0809 10:36:46.971225 23425 net.cpp:122] Setting up conv8
I0809 10:36:46.971243 23425 net.cpp:129] Top shape: 12 13 1 8192 (1277952)
I0809 10:36:46.971249 23425 net.cpp:137] Memory required for data: 2796945408
I0809 10:36:46.971258 23425 layer_factory.hpp:77] Creating layer conv8_conv8_0_split
I0809 10:36:46.971268 23425 net.cpp:84] Creating Layer conv8_conv8_0_split
I0809 10:36:46.971273 23425 net.cpp:406] conv8_conv8_0_split <- conv8
I0809 10:36:46.971282 23425 net.cpp:380] conv8_conv8_0_split -> conv8_conv8_0_split_0
I0809 10:36:46.971298 23425 net.cpp:380] conv8_conv8_0_split -> conv8_conv8_0_split_1
I0809 10:36:46.971359 23425 net.cpp:122] Setting up conv8_conv8_0_split
I0809 10:36:46.971371 23425 net.cpp:129] Top shape: 12 13 1 8192 (1277952)
I0809 10:36:46.971377 23425 net.cpp:129] Top shape: 12 13 1 8192 (1277952)
I0809 10:36:46.971381 23425 net.cpp:137] Memory required for data: 2807169024
I0809 10:36:46.971385 23425 layer_factory.hpp:77] Creating layer loss
I0809 10:36:46.971428 23425 net.cpp:84] Creating Layer loss
I0809 10:36:46.971438 23425 net.cpp:406] loss <- conv8_conv8_0_split_0
I0809 10:36:46.971446 23425 net.cpp:406] loss <- label_data_1_split_0
I0809 10:36:46.971453 23425 net.cpp:380] loss -> loss
…
I0809 10:36:47.029618 23425 net.cpp:294] The NetState phase (1) differed from the phase (0) specified by a rule in layer data
I0809 10:36:47.030432 23425 net.cpp:51] Initializing net from parameters: 
state {
  phase: TEST
}
layer {
  name: "data"
  type: "Python"
  top: "data"
  top: "label"
  include {
    phase: TEST
  }
  python_param {
    module: "dataset_lidar"
    layer: "InputShapenet"
    param_str: "{\'sample_size\': 8192, \'test_area\': \'6\', \'batch_size\': 9, \'feat_dims\': \'x_y_z\', \'subset\': \'val\', \'root\': \'../../data/shapenet_ericyi_ply\', \'jitter_xyz\': 0.0, \'jitter_stretch\': 0.0, \'jitter_rotation\': 0.0}"
  }
}
layer {
  name: "data_feat"
  type: "Python"
  bottom: "data"
  top: "data_feat"
  python_param {
    module: "custom_layers"
    layer: "PickAndScale"
    param_str: "0_1_2"
  }
}
layer {
  name: "conv1"
  type: "Convolution"
  bottom: "data_feat"
  top: "conv1"
  param {
    lr_mult: 1
  }
  param {
    lr_mult: 0.1
  }
  convolution_param {
    num_output: 32
    pad: 0
    kernel_size: 1
    stride: 1
    weight_filler {
      type: "xavier"
    }
    bias_filler {
      type: "constant"
      value: 0
    }
  }
}
layer {
  name: "bn1"
  type: "BatchNorm"
  bottom: "conv1"
  top: "bn1"
}
layer {
  name: "relu1"
  type: "ReLU"
  bottom: "bn1"
  top: "bn1"
}
layer {
  name: "fconv1A"
  type: "Convolution"
  bottom: "bn1"
  top: "fconv1A"
  param {
    lr_mult: 1
  }
  param {
    lr_mult: 0.1
  }
  convolution_param {
    num_output: 3
    pad: 0
    kernel_size: 1
    stride: 1
    weight_filler {
      type: "xavier"
    }
    bias_filler {
      type: "constant"
      value: 0
    }
  }
}
layer {
  name: "fbn1A"
  type: "BatchNorm"
  bottom: "fconv1A"
  top: "fbn1A"
}
layer {
  name: "frelu1A"
  type: "ReLU"
  bottom: "fbn1A"
  top: "fbn1A"
}
layer {
  name: "feat1A"
  type: "Eltwise"
  bottom: "data"
  bottom: "fbn1A"
  top: "feat1A"
  eltwise_param {
    operation: SUM
  }
}
layer {
  name: "data_lattice0A"
  type: "Python"
  bottom: "feat1A"
  top: "data_lattice0A"
  python_param {
    module: "custom_layers"
    layer: "PickAndScale"
    param_str: "0*96_1*96_2*96"
  }
}
layer {
  name: "conv2A"
  type: "Permutohedral"
  bottom: "bn1"
  bottom: "data_lattice0A"
  bottom: "data_lattice0A"
  top: "conv2A"
  param {
    lr_mult: 1
    decay_mult: 1
  }
  param {
    lr_mult: 2
    decay_mult: 0
  }
  permutohedral_param {
    num_output: 64
    neighborhood_size: 2
    filter_filler {
      type: "gaussian"
      std: 0.001
    }
    bias_term: true
    bias_filler {
      type: "constant"
      value: 0
    }
    group: 1
    norm_type: AFTER
    offset_type: NONE
  }
}
layer {
  name: "bn2A"
  type: "BatchNorm"
  bottom: "conv2A"
  top: "bn2A"
}
layer {
  name: "relu2A"
  type: "ReLU"
  bottom: "bn2A"
  top: "bn2A"
}
layer {
  name: "fconv1"
  type: "Convolution"
  bottom: "bn2A"
  top: "fconv1"
  param {
    lr_mult: 1
  }
  param {
    lr_mult: 0.1
  }
  convolution_param {
    num_output: 3
    pad: 0
    kernel_size: 1
    stride: 1
    weight_filler {
      type: "xavier"
    }
    bias_filler {
      type: "constant"
      value: 0
    }
  }
}
layer {
  name: "fbn1"
  type: "BatchNorm"
  bottom: "fconv1"
  top: "fbn1"
}
layer {
  name: "frelu1"
  type: "ReLU"
  bottom: "fbn1"
  top: "fbn1"
}
layer {
  name: "feat1"
  type: "Eltwise"
  bottom: "data"
  bottom: "fbn1"
  top: "feat1"
  eltwise_param {
    operation: SUM
  }
}
layer {
  name: "data_lattice0"
  type: "Python"
  bottom: "feat1"
  top: "data_lattice0"
  python_param {
    module: "custom_layers"
    layer: "PickAndScale"
    param_str: "0*48_1*48_2*48"
  }
}
layer {
  name: "conv2"
  type: "Permutohedral"
  bottom: "bn2A"
  bottom: "data_lattice0"
  bottom: "data_lattice0"
  top: "conv2"
  param {
    lr_mult: 1
    decay_mult: 1
  }
  param {
    lr_mult: 2
    decay_mult: 0
  }
  permutohedral_param {
    num_output: 64
    neighborhood_size: 2
    filter_filler {
      type: "gaussian"
      std: 0.001
    }
    bias_term: true
    bias_filler {
      type: "constant"
      value: 0
    }
    group: 1
    norm_type: AFTER
    offset_type: NONE
  }
}
layer {
  name: "bn2"
  type: "BatchNorm"
  bottom: "conv2"
  top: "bn2"
}
layer {
  name: "relu2"
  type: "ReLU"
  bottom: "bn2"
  top: "bn2"
}
layer {
  name: "fconv2"
  type: "Convolution"
  bottom: "bn2"
  top: "fconv2"
  param {
    lr_mult: 1
  }
  param {
    lr_mult: 0.1
  }
  convolution_param {
    num_output: 3
    pad: 0
    kernel_size: 1
    stride: 1
    weight_filler {
      type: "xavier"
    }
    bias_filler {
      type: "constant"
      value: 0
    }
  }
}
layer {
  name: "fbn2"
  type: "BatchNorm"
  bottom: "fconv2"
  top: "fbn2"
}
layer {
  name: "frelu2"
  type: "ReLU"
  bottom: "fbn2"
  top: "fbn2"
}
layer {
  name: "feat2"
  type: "Eltwise"
  bottom: "data"
  bottom: "fbn2"
  top: "feat2"
  eltwise_param {
    operation: SUM
  }
}
layer {
  name: "data_lattice1"
  type: "Python"
  bottom: "feat2"
  top: "data_lattice1"
  python_param {
    module: "custom_layers"
    layer: "PickAndScale"
    param_str: "0*24_1*24_2*24"
  }
}
layer {
  name: "conv3"
  type: "Permutohedral"
  bottom: "bn2"
  bottom: "data_lattice1"
  bottom: "data_lattice1"
  top: "conv3"
  param {
    lr_mult: 1
    decay_mult: 1
  }
  param {
    lr_mult: 2
    decay_mult: 0
  }
  permutohedral_param {
    num_output: 128
    neighborhood_size: 2
    filter_filler {
      type: "gaussian"
      std: 0.001
    }
    bias_term: true
    bias_filler {
      type: "constant"
      value: 0
    }
    group: 1
    norm_type: AFTER
    offset_type: NONE
  }
}
layer {
  name: "bn3"
  type: "BatchNorm"
  bottom: "conv3"
  top: "bn3"
}
layer {
  name: "relu3"
  type: "ReLU"
  bottom: "bn3"
  top: "bn3"
}
layer {
  name: "fconv3"
  type: "Convolution"
  bottom: "bn3"
  top: "fconv3"
  param {
    lr_mult: 1
  }
  param {
    lr_mult: 0.1
  }
  convolution_param {
    num_output: 3
    pad: 0
    kernel_size: 1
    stride: 1
    weight_filler {
      type: "xavier"
    }
    bias_filler {
      type: "constant"
      value: 0
    }
  }
}
layer {
  name: "fbn3"
  type: "BatchNorm"
  bottom: "fconv3"
  top: "fbn3"
}
layer {
  name: "frelu3"
  type: "ReLU"
  bottom: "fbn3"
  top: "fbn3"
}
layer {
  name: "feat3"
  type: "Eltwise"
  bottom: "data"
  bottom: "fbn3"
  top: "feat3"
  eltwise_param {
    operation: SUM
  }
}
layer {
  name: "data_lattice2"
  type: "Python"
  bottom: "feat3"
  top: "data_lattice2"
  python_param {
    module: "custom_layers"
    layer: "PickAndScale"
    param_str: "0*12_1*12_2*12"
  }
}
layer {
  name: "conv4"
  type: "Permutohedral"
  bottom: "bn3"
  bottom: "data_lattice2"
  bottom: "data_lattice2"
  top: "conv4"
  param {
    lr_mult: 1
    decay_mult: 1
  }
  param {
    lr_mult: 2
    decay_mult: 0
  }
  permutohedral_param {
    num_output: 256
    neighborhood_size: 2
    filter_filler {
      type: "gaussian"
      std: 0.001
    }
    bias_term: true
    bias_filler {
      type: "constant"
      value: 0
    }
    group: 1
    norm_type: AFTER
    offset_type: NONE
  }
}
layer {
  name: "bn4"
  type: "BatchNorm"
  bottom: "conv4"
  top: "bn4"
}
layer {
  name: "relu4"
  type: "ReLU"
  bottom: "bn4"
  top: "bn4"
}
layer {
  name: "fconv4"
  type: "Convolution"
  bottom: "bn4"
  top: "fconv4"
  param {
    lr_mult: 1
  }
  param {
    lr_mult: 0.1
  }
  convolution_param {
    num_output: 3
    pad: 0
    kernel_size: 1
    stride: 1
    weight_filler {
      type: "xavier"
    }
    bias_filler {
      type: "constant"
      value: 0
    }
  }
}
layer {
  name: "fbn4"
  type: "BatchNorm"
  bottom: "fconv4"
  top: "fbn4"
}
layer {
  name: "frelu4"
  type: "ReLU"
  bottom: "fbn4"
  top: "fbn4"
}
layer {
  name: "feat4"
  type: "Eltwise"
  bottom: "data"
  bottom: "fbn4"
  top: "feat4"
  eltwise_param {
    operation: SUM
  }
}
layer {
  name: "data_lattice3"
  type: "Python"
  bottom: "feat4"
  top: "data_lattice3"
  python_param {
    module: "custom_layers"
    layer: "PickAndScale"
    param_str: "0*6_1*6_2*6"
  }
}
layer {
  name: "conv5"
  type: "Permutohedral"
  bottom: "bn4"
  bottom: "data_lattice3"
  bottom: "data_lattice3"
  top: "conv5"
  param {
    lr_mult: 1
    decay_mult: 1
  }
  param {
    lr_mult: 2
    decay_mult: 0
  }
  permutohedral_param {
    num_output: 256
    neighborhood_size: 2
    filter_filler {
      type: "gaussian"
      std: 0.001
    }
    bias_term: true
    bias_filler {
      type: "constant"
      value: 0
    }
    group: 1
    norm_type: AFTER
    offset_type: NONE
  }
}
layer {
  name: "bn5"
  type: "BatchNorm"
  bottom: "conv5"
  top: "bn5"
}
layer {
  name: "relu5"
  type: "ReLU"
  bottom: "bn5"
  top: "bn5"
}
layer {
  name: "fconv5"
  type: "Convolution"
  bottom: "bn5"
  top: "fconv5"
  param {
    lr_mult: 1
  }
  param {
    lr_mult: 0.1
  }
  convolution_param {
    num_output: 3
    pad: 0
    kernel_size: 1
    stride: 1
    weight_filler {
      type: "xavier"
    }
    bias_filler {
      type: "constant"
      value: 0
    }
  }
}
layer {
  name: "fbn5"
  type: "BatchNorm"
  bottom: "fconv5"
  top: "fbn5"
}
layer {
  name: "frelu5"
  type: "ReLU"
  bottom: "fbn5"
  top: "fbn5"
}
layer {
  name: "feat5"
  type: "Eltwise"
  bottom: "data"
  bottom: "fbn5"
  top: "feat5"
  eltwise_param {
    operation: SUM
  }
}
layer {
  name: "data_lattice4"
  type: "Python"
  bottom: "feat5"
  top: "data_lattice4"
  python_param {
    module: "custom_layers"
    layer: "PickAndScale"
    param_str: "0*3_1*3_2*3"
  }
}
layer {
  name: "conv6"
  type: "Permutohedral"
  bottom: "bn5"
  bottom: "data_lattice4"
  bottom: "data_lattice4"
  top: "conv6"
  param {
    lr_mult: 1
    decay_mult: 1
  }
  param {
    lr_mult: 2
    decay_mult: 0
  }
  permutohedral_param {
    num_output: 256
    neighborhood_size: 2
    filter_filler {
      type: "gaussian"
      std: 0.001
    }
    bias_term: true
    bias_filler {
      type: "constant"
      value: 0
    }
    group: 1
    norm_type: AFTER
    offset_type: NONE
  }
}
layer {
  name: "bn6"
  type: "BatchNorm"
  bottom: "conv6"
  top: "bn6"
}
layer {
  name: "relu6"
  type: "ReLU"
  bottom: "bn6"
  top: "bn6"
}
layer {
  name: "concat6"
  type: "Concat"
  bottom: "bn6"
  bottom: "bn2"
  bottom: "bn2A"
  bottom: "bn3"
  bottom: "bn4"
  bottom: "bn5"
  top: "concat6"
}
layer {
  name: "conv7"
  type: "Convolution"
  bottom: "concat6"
  top: "conv7"
  param {
    lr_mult: 1
  }
  param {
    lr_mult: 0.1
  }
  convolution_param {
    num_output: 128
    pad: 0
    kernel_size: 1
    stride: 1
    weight_filler {
      type: "xavier"
    }
    bias_filler {
      type: "constant"
      value: 0
    }
  }
}
layer {
  name: "bn7"
  type: "BatchNorm"
  bottom: "conv7"
  top: "bn7"
}
layer {
  name: "relu7"
  type: "ReLU"
  bottom: "bn7"
  top: "bn7"
}
layer {
  name: "conv8"
  type: "Convolution"
  bottom: "bn7"
  top: "conv8"
  param {
    lr_mult: 1
  }
  param {
    lr_mult: 0.1
  }
  convolution_param {
    num_output: 13
    pad: 0
    kernel_size: 1
    stride: 1
    weight_filler {
      type: "xavier"
    }
    bias_filler {
      type: "constant"
      value: 0
    }
  }
}
layer {
  name: "loss"
  type: "SoftmaxWithLoss"
  bottom: "conv8"
  bottom: "label"
  top: "loss"
}
layer {
  name: "accuracy"
  type: "Accuracy"
  bottom: "conv8"
  bottom: "label"
  top: "accuracy"
}
I0809 10:36:47.032646 23425 layer_factory.hpp:77] Creating layer data
I0809 10:36:47.032754 23425 net.cpp:84] Creating Layer data
I0809 10:36:47.032778 23425 net.cpp:380] data -> data
I0809 10:36:47.032799 23425 net.cpp:380] data -> label
I0809 10:37:44.385634 23425 net.cpp:122] Setting up data
I0809 10:37:44.385705 23425 net.cpp:129] Top shape: 9 3 1 8192 (221184)
I0809 10:37:44.385712 23425 net.cpp:129] Top shape: 9 1 1 8192 (73728)
I0809 10:37:44.385715 23425 net.cpp:137] Memory required for data: 1179648
I0809 10:37:44.385732 23425 layer_factory.hpp:77] Creating layer data_data_0_split
I0809 10:37:44.385754 23425 net.cpp:84] Creating Layer data_data_0_split
I0809 10:37:44.385759 23425 net.cpp:406] data_data_0_split <- data
I0809 10:37:44.385768 23425 net.cpp:380] data_data_0_split -> data_data_0_split_0
I0809 10:37:44.385781 23425 net.cpp:380] data_data_0_split -> data_data_0_split_1
I0809 10:37:44.385787 23425 net.cpp:380] data_data_0_split -> data_data_0_split_2
I0809 10:37:44.385794 23425 net.cpp:380] data_data_0_split -> data_data_0_split_3
I0809 10:37:44.385799 23425 net.cpp:380] data_data_0_split -> data_data_0_split_4
I0809 10:37:44.385805 23425 net.cpp:380] data_data_0_split -> data_data_0_split_5
I0809 10:37:44.385810 23425 net.cpp:380] data_data_0_split -> data_data_0_split_6
I0809 10:37:44.385907 23425 net.cpp:122] Setting up data_data_0_split
I0809 10:37:44.385917 23425 net.cpp:129] Top shape: 9 3 1 8192 (221184)
I0809 10:37:44.385921 23425 net.cpp:129] Top shape: 9 3 1 8192 (221184)
I0809 10:37:44.385926 23425 net.cpp:129] Top shape: 9 3 1 8192 (221184)
I0809 10:37:44.385929 23425 net.cpp:129] Top shape: 9 3 1 8192 (221184)
I0809 10:37:44.385933 23425 net.cpp:129] Top shape: 9 3 1 8192 (221184)
I0809 10:37:44.385937 23425 net.cpp:129] Top shape: 9 3 1 8192 (221184)
I0809 10:37:44.385941 23425 net.cpp:129] Top shape: 9 3 1 8192 (221184)
I0809 10:37:44.385946 23425 net.cpp:137] Memory required for data: 7372800
I0809 10:37:44.385948 23425 layer_factory.hpp:77] Creating layer label_data_1_split
I0809 10:37:44.385954 23425 net.cpp:84] Creating Layer label_data_1_split
I0809 10:37:44.385958 23425 net.cpp:406] label_data_1_split <- label
I0809 10:37:44.385975 23425 net.cpp:380] label_data_1_split -> label_data_1_split_0
I0809 10:37:44.385982 23425 net.cpp:380] label_data_1_split -> label_data_1_split_1
I0809 10:37:44.386020 23425 net.cpp:122] Setting up label_data_1_split
I0809 10:37:44.386029 23425 net.cpp:129] Top shape: 9 1 1 8192 (73728)
I0809 10:37:44.386034 23425 net.cpp:129] Top shape: 9 1 1 8192 (73728)
I0809 10:37:44.386037 23425 net.cpp:137] Memory required for data: 7962624
I0809 10:37:44.386041 23425 layer_factory.hpp:77] Creating layer data_feat
I0809 10:37:44.386090 23425 net.cpp:84] Creating Layer data_feat
I0809 10:37:44.386097 23425 net.cpp:406] data_feat <- data_data_0_split_0
I0809 10:37:44.386104 23425 net.cpp:380] data_feat -> data_feat
I0809 10:37:44.386312 23425 net.cpp:122] Setting up data_feat
I0809 10:37:44.386325 23425 net.cpp:129] Top shape: 9 3 1 8192 (221184)
I0809 10:37:44.386329 23425 net.cpp:137] Memory required for data: 8847360
I0809 10:37:44.386333 23425 layer_factory.hpp:77] Creating layer conv1
I0809 10:37:44.386349 23425 net.cpp:84] Creating Layer conv1
I0809 10:37:44.386354 23425 net.cpp:406] conv1 <- data_feat
I0809 10:37:44.386363 23425 net.cpp:380] conv1 -> conv1
I0809 10:37:44.398196 23425 net.cpp:122] Setting up conv1
I0809 10:37:44.398223 23425 net.cpp:129] Top shape: 9 32 1 8192 (2359296)
I0809 10:37:44.398227 23425 net.cpp:137] Memory required for data: 18284544
I0809 10:37:44.398241 23425 layer_factory.hpp:77] Creating layer bn1
I0809 10:37:44.398250 23425 net.cpp:84] Creating Layer bn1
I0809 10:37:44.398254 23425 net.cpp:406] bn1 <- conv1
I0809 10:37:44.398260 23425 net.cpp:380] bn1 -> bn1
I0809 10:37:44.398502 23425 net.cpp:122] Setting up bn1
I0809 10:37:44.398514 23425 net.cpp:129] Top shape: 9 32 1 8192 (2359296)
I0809 10:37:44.398517 23425 net.cpp:137] Memory required for data: 27721728
I0809 10:37:44.398530 23425 layer_factory.hpp:77] Creating layer relu1
I0809 10:37:44.398540 23425 net.cpp:84] Creating Layer relu1
I0809 10:37:44.398545 23425 net.cpp:406] relu1 <- bn1
I0809 10:37:44.398550 23425 net.cpp:367] relu1 -> bn1 (in-place)
I0809 10:37:44.398836 23425 net.cpp:122] Setting up relu1
I0809 10:37:44.398857 23425 net.cpp:129] Top shape: 9 32 1 8192 (2359296)
I0809 10:37:44.398872 23425 net.cpp:137] Memory required for data: 37158912
I0809 10:37:44.398876 23425 layer_factory.hpp:77] Creating layer bn1_relu1_0_split
I0809 10:37:44.398883 23425 net.cpp:84] Creating Layer bn1_relu1_0_split
I0809 10:37:44.398886 23425 net.cpp:406] bn1_relu1_0_split <- bn1
I0809 10:37:44.398892 23425 net.cpp:380] bn1_relu1_0_split -> bn1_relu1_0_split_0
I0809 10:37:44.398901 23425 net.cpp:380] bn1_relu1_0_split -> bn1_relu1_0_split_1
I0809 10:37:44.398942 23425 net.cpp:122] Setting up bn1_relu1_0_split
I0809 10:37:44.398954 23425 net.cpp:129] Top shape: 9 32 1 8192 (2359296)
I0809 10:37:44.398962 23425 net.cpp:129] Top shape: 9 32 1 8192 (2359296)
I0809 10:37:44.398965 23425 net.cpp:137] Memory required for data: 56033280
I0809 10:37:44.398969 23425 layer_factory.hpp:77] Creating layer fconv1A
I0809 10:37:44.398986 23425 net.cpp:84] Creating Layer fconv1A
I0809 10:37:44.398990 23425 net.cpp:406] fconv1A <- bn1_relu1_0_split_0
I0809 10:37:44.398998 23425 net.cpp:380] fconv1A -> fconv1A
I0809 10:37:44.400516 23425 net.cpp:122] Setting up fconv1A
I0809 10:37:44.400542 23425 net.cpp:129] Top shape: 9 3 1 8192 (221184)
I0809 10:37:44.400545 23425 net.cpp:137] Memory required for data: 56918016
I0809 10:37:44.400553 23425 layer_factory.hpp:77] Creating layer fbn1A
I0809 10:37:44.400564 23425 net.cpp:84] Creating Layer fbn1A
I0809 10:37:44.400569 23425 net.cpp:406] fbn1A <- fconv1A
I0809 10:37:44.400575 23425 net.cpp:380] fbn1A -> fbn1A
I0809 10:37:44.400792 23425 net.cpp:122] Setting up fbn1A
I0809 10:37:44.400802 23425 net.cpp:129] Top shape: 9 3 1 8192 (221184)
I0809 10:37:44.400807 23425 net.cpp:137] Memory required for data: 57802752
I0809 10:37:44.400817 23425 layer_factory.hpp:77] Creating layer frelu1A
I0809 10:37:44.400825 23425 net.cpp:84] Creating Layer frelu1A
I0809 10:37:44.400830 23425 net.cpp:406] frelu1A <- fbn1A
I0809 10:37:44.400836 23425 net.cpp:367] frelu1A -> fbn1A (in-place)
I0809 10:37:44.401463 23425 net.cpp:122] Setting up frelu1A
I0809 10:37:44.401476 23425 net.cpp:129] Top shape: 9 3 1 8192 (221184)
I0809 10:37:44.401492 23425 net.cpp:137] Memory required for data: 58687488
I0809 10:37:44.401497 23425 layer_factory.hpp:77] Creating layer feat1A
I0809 10:37:44.401505 23425 net.cpp:84] Creating Layer feat1A
I0809 10:37:44.401510 23425 net.cpp:406] feat1A <- data_data_0_split_1
I0809 10:37:44.401515 23425 net.cpp:406] feat1A <- fbn1A
I0809 10:37:44.401521 23425 net.cpp:380] feat1A -> feat1A
I0809 10:37:44.401551 23425 net.cpp:122] Setting up feat1A
I0809 10:37:44.401558 23425 net.cpp:129] Top shape: 9 3 1 8192 (221184)
I0809 10:37:44.401561 23425 net.cpp:137] Memory required for data: 59572224
I0809 10:37:44.401566 23425 layer_factory.hpp:77] Creating layer data_lattice0A
I0809 10:37:44.401597 23425 net.cpp:84] Creating Layer data_lattice0A
I0809 10:37:44.401607 23425 net.cpp:406] data_lattice0A <- feat1A
I0809 10:37:44.401613 23425 net.cpp:380] data_lattice0A -> data_lattice0A
I0809 10:37:44.401804 23425 net.cpp:122] Setting up data_lattice0A
I0809 10:37:44.401818 23425 net.cpp:129] Top shape: 9 3 1 8192 (221184)
I0809 10:37:44.401821 23425 net.cpp:137] Memory required for data: 60456960
I0809 10:37:44.401825 23425 layer_factory.hpp:77] Creating layer data_lattice0A_data_lattice0A_0_split
I0809 10:37:44.401831 23425 net.cpp:84] Creating Layer data_lattice0A_data_lattice0A_0_split
I0809 10:37:44.401835 23425 net.cpp:406] data_lattice0A_data_lattice0A_0_split <- data_lattice0A
I0809 10:37:44.401841 23425 net.cpp:380] data_lattice0A_data_lattice0A_0_split -> data_lattice0A_data_lattice0A_0_split_0
I0809 10:37:44.401849 23425 net.cpp:380] data_lattice0A_data_lattice0A_0_split -> data_lattice0A_data_lattice0A_0_split_1
I0809 10:37:44.401892 23425 net.cpp:122] Setting up data_lattice0A_data_lattice0A_0_split
I0809 10:37:44.401901 23425 net.cpp:129] Top shape: 9 3 1 8192 (221184)
I0809 10:37:44.401906 23425 net.cpp:129] Top shape: 9 3 1 8192 (221184)
I0809 10:37:44.401909 23425 net.cpp:137] Memory required for data: 62226432
I0809 10:37:44.401912 23425 layer_factory.hpp:77] Creating layer conv2A
I0809 10:37:44.401922 23425 net.cpp:84] Creating Layer conv2A
I0809 10:37:44.401926 23425 net.cpp:406] conv2A <- bn1_relu1_0_split_1
I0809 10:37:44.401932 23425 net.cpp:406] conv2A <- data_lattice0A_data_lattice0A_0_split_0
I0809 10:37:44.401937 23425 net.cpp:406] conv2A <- data_lattice0A_data_lattice0A_0_split_1
I0809 10:37:44.401943 23425 net.cpp:380] conv2A -> conv2A
I0809 10:37:44.405781 23425 net.cpp:122] Setting up conv2A
I0809 10:37:44.405791 23425 net.cpp:129] Top shape: 9 64 1 8192 (4718592)
I0809 10:37:44.405795 23425 net.cpp:137] Memory required for data: 81100800
I0809 10:37:44.405802 23425 layer_factory.hpp:77] Creating layer bn2A
I0809 10:37:44.405808 23425 net.cpp:84] Creating Layer bn2A
I0809 10:37:44.405812 23425 net.cpp:406] bn2A <- conv2A
I0809 10:37:44.405817 23425 net.cpp:380] bn2A -> bn2A
I0809 10:37:44.406036 23425 net.cpp:122] Setting up bn2A
I0809 10:37:44.406046 23425 net.cpp:129] Top shape: 9 64 1 8192 (4718592)
I0809 10:37:44.406049 23425 net.cpp:137] Memory required for data: 99975168
I0809 10:37:44.406059 23425 layer_factory.hpp:77] Creating layer relu2A
I0809 10:37:44.406065 23425 net.cpp:84] Creating Layer relu2A
I0809 10:37:44.406069 23425 net.cpp:406] relu2A <- bn2A
I0809 10:37:44.406075 23425 net.cpp:367] relu2A -> bn2A (in-place)
I0809 10:37:44.406390 23425 net.cpp:122] Setting up relu2A
I0809 10:37:44.406412 23425 net.cpp:129] Top shape: 9 64 1 8192 (4718592)
I0809 10:37:44.406416 23425 net.cpp:137] Memory required for data: 118849536
I0809 10:37:44.406420 23425 layer_factory.hpp:77] Creating layer bn2A_relu2A_0_split
I0809 10:37:44.406426 23425 net.cpp:84] Creating Layer bn2A_relu2A_0_split
I0809 10:37:44.406430 23425 net.cpp:406] bn2A_relu2A_0_split <- bn2A
I0809 10:37:44.406437 23425 net.cpp:380] bn2A_relu2A_0_split -> bn2A_relu2A_0_split_0
I0809 10:37:44.406445 23425 net.cpp:380] bn2A_relu2A_0_split -> bn2A_relu2A_0_split_1
I0809 10:37:44.406450 23425 net.cpp:380] bn2A_relu2A_0_split -> bn2A_relu2A_0_split_2
I0809 10:37:44.406504 23425 net.cpp:122] Setting up bn2A_relu2A_0_split
I0809 10:37:44.406522 23425 net.cpp:129] Top shape: 9 64 1 8192 (4718592)
I0809 10:37:44.406527 23425 net.cpp:129] Top shape: 9 64 1 8192 (4718592)
I0809 10:37:44.406530 23425 net.cpp:129] Top shape: 9 64 1 8192 (4718592)
I0809 10:37:44.406534 23425 net.cpp:137] Memory required for data: 175472640
I0809 10:37:44.406538 23425 layer_factory.hpp:77] Creating layer fconv1
I0809 10:37:44.406548 23425 net.cpp:84] Creating Layer fconv1
I0809 10:37:44.406551 23425 net.cpp:406] fconv1 <- bn2A_relu2A_0_split_0
I0809 10:37:44.406558 23425 net.cpp:380] fconv1 -> fconv1
I0809 10:37:44.408331 23425 net.cpp:122] Setting up fconv1
I0809 10:37:44.408345 23425 net.cpp:129] Top shape: 9 3 1 8192 (221184)
I0809 10:37:44.408349 23425 net.cpp:137] Memory required for data: 176357376
I0809 10:37:44.408360 23425 layer_factory.hpp:77] Creating layer fbn1
I0809 10:37:44.408370 23425 net.cpp:84] Creating Layer fbn1
I0809 10:37:44.408373 23425 net.cpp:406] fbn1 <- fconv1
I0809 10:37:44.408380 23425 net.cpp:380] fbn1 -> fbn1
I0809 10:37:44.408607 23425 net.cpp:122] Setting up fbn1
I0809 10:37:44.408617 23425 net.cpp:129] Top shape: 9 3 1 8192 (221184)
I0809 10:37:44.408622 23425 net.cpp:137] Memory required for data: 177242112
I0809 10:37:44.408628 23425 layer_factory.hpp:77] Creating layer frelu1
I0809 10:37:44.408637 23425 net.cpp:84] Creating Layer frelu1
I0809 10:37:44.408640 23425 net.cpp:406] frelu1 <- fbn1
I0809 10:37:44.408648 23425 net.cpp:367] frelu1 -> fbn1 (in-place)
I0809 10:37:44.408941 23425 net.cpp:122] Setting up frelu1
I0809 10:37:44.408962 23425 net.cpp:129] Top shape: 9 3 1 8192 (221184)
I0809 10:37:44.408977 23425 net.cpp:137] Memory required for data: 178126848
I0809 10:37:44.408980 23425 layer_factory.hpp:77] Creating layer feat1
I0809 10:37:44.408989 23425 net.cpp:84] Creating Layer feat1
I0809 10:37:44.408993 23425 net.cpp:406] feat1 <- data_data_0_split_2
I0809 10:37:44.408999 23425 net.cpp:406] feat1 <- fbn1
I0809 10:37:44.409004 23425 net.cpp:380] feat1 -> feat1
I0809 10:37:44.409032 23425 net.cpp:122] Setting up feat1
I0809 10:37:44.409039 23425 net.cpp:129] Top shape: 9 3 1 8192 (221184)
I0809 10:37:44.409042 23425 net.cpp:137] Memory required for data: 179011584
I0809 10:37:44.409046 23425 layer_factory.hpp:77] Creating layer data_lattice0
I0809 10:37:44.409075 23425 net.cpp:84] Creating Layer data_lattice0
I0809 10:37:44.409083 23425 net.cpp:406] data_lattice0 <- feat1
I0809 10:37:44.409091 23425 net.cpp:380] data_lattice0 -> data_lattice0
I0809 10:37:44.409315 23425 net.cpp:122] Setting up data_lattice0
I0809 10:37:44.409330 23425 net.cpp:129] Top shape: 9 3 1 8192 (221184)
I0809 10:37:44.409335 23425 net.cpp:137] Memory required for data: 179896320
I0809 10:37:44.409343 23425 layer_factory.hpp:77] Creating layer data_lattice0_data_lattice0_0_split
I0809 10:37:44.409350 23425 net.cpp:84] Creating Layer data_lattice0_data_lattice0_0_split
I0809 10:37:44.409355 23425 net.cpp:406] data_lattice0_data_lattice0_0_split <- data_lattice0
I0809 10:37:44.409361 23425 net.cpp:380] data_lattice0_data_lattice0_0_split -> data_lattice0_data_lattice0_0_split_0
I0809 10:37:44.409368 23425 net.cpp:380] data_lattice0_data_lattice0_0_split -> data_lattice0_data_lattice0_0_split_1
I0809 10:37:44.409415 23425 net.cpp:122] Setting up data_lattice0_data_lattice0_0_split
I0809 10:37:44.409423 23425 net.cpp:129] Top shape: 9 3 1 8192 (221184)
I0809 10:37:44.409430 23425 net.cpp:129] Top shape: 9 3 1 8192 (221184)
I0809 10:37:44.409435 23425 net.cpp:137] Memory required for data: 181665792
I0809 10:37:44.409438 23425 layer_factory.hpp:77] Creating layer conv2
I0809 10:37:44.409446 23425 net.cpp:84] Creating Layer conv2
I0809 10:37:44.409451 23425 net.cpp:406] conv2 <- bn2A_relu2A_0_split_1
I0809 10:37:44.409468 23425 net.cpp:406] conv2 <- data_lattice0_data_lattice0_0_split_0
I0809 10:37:44.409473 23425 net.cpp:406] conv2 <- data_lattice0_data_lattice0_0_split_1
I0809 10:37:44.409479 23425 net.cpp:380] conv2 -> conv2
I0809 10:37:44.417918 23425 net.cpp:122] Setting up conv2
I0809 10:37:44.417932 23425 net.cpp:129] Top shape: 9 64 1 8192 (4718592)
I0809 10:37:44.417937 23425 net.cpp:137] Memory required for data: 200540160
I0809 10:37:44.417943 23425 layer_factory.hpp:77] Creating layer bn2
I0809 10:37:44.417951 23425 net.cpp:84] Creating Layer bn2
I0809 10:37:44.417955 23425 net.cpp:406] bn2 <- conv2
I0809 10:37:44.417964 23425 net.cpp:380] bn2 -> bn2
I0809 10:37:44.418206 23425 net.cpp:122] Setting up bn2
I0809 10:37:44.418217 23425 net.cpp:129] Top shape: 9 64 1 8192 (4718592)
I0809 10:37:44.418222 23425 net.cpp:137] Memory required for data: 219414528
I0809 10:37:44.418229 23425 layer_factory.hpp:77] Creating layer relu2
I0809 10:37:44.418236 23425 net.cpp:84] Creating Layer relu2
I0809 10:37:44.418241 23425 net.cpp:406] relu2 <- bn2
I0809 10:37:44.418246 23425 net.cpp:367] relu2 -> bn2 (in-place)
I0809 10:37:44.418582 23425 net.cpp:122] Setting up relu2
I0809 10:37:44.418593 23425 net.cpp:129] Top shape: 9 64 1 8192 (4718592)
I0809 10:37:44.418608 23425 net.cpp:137] Memory required for data: 238288896
I0809 10:37:44.418613 23425 layer_factory.hpp:77] Creating layer bn2_relu2_0_split
I0809 10:37:44.418620 23425 net.cpp:84] Creating Layer bn2_relu2_0_split
I0809 10:37:44.418624 23425 net.cpp:406] bn2_relu2_0_split <- bn2
I0809 10:37:44.418630 23425 net.cpp:380] bn2_relu2_0_split -> bn2_relu2_0_split_0
I0809 10:37:44.418637 23425 net.cpp:380] bn2_relu2_0_split -> bn2_relu2_0_split_1
I0809 10:37:44.418644 23425 net.cpp:380] bn2_relu2_0_split -> bn2_relu2_0_split_2
I0809 10:37:44.418705 23425 net.cpp:122] Setting up bn2_relu2_0_split
I0809 10:37:44.418715 23425 net.cpp:129] Top shape: 9 64 1 8192 (4718592)
I0809 10:37:44.418728 23425 net.cpp:129] Top shape: 9 64 1 8192 (4718592)
I0809 10:37:44.418732 23425 net.cpp:129] Top shape: 9 64 1 8192 (4718592)
I0809 10:37:44.418736 23425 net.cpp:137] Memory required for data: 294912000
I0809 10:37:44.418740 23425 layer_factory.hpp:77] Creating layer fconv2
I0809 10:37:44.418751 23425 net.cpp:84] Creating Layer fconv2
I0809 10:37:44.418756 23425 net.cpp:406] fconv2 <- bn2_relu2_0_split_0
I0809 10:37:44.418766 23425 net.cpp:380] fconv2 -> fconv2
I0809 10:37:44.420578 23425 net.cpp:122] Setting up fconv2
I0809 10:37:44.420593 23425 net.cpp:129] Top shape: 9 3 1 8192 (221184)
I0809 10:37:44.420598 23425 net.cpp:137] Memory required for data: 295796736
I0809 10:37:44.420603 23425 layer_factory.hpp:77] Creating layer fbn2
I0809 10:37:44.420610 23425 net.cpp:84] Creating Layer fbn2
I0809 10:37:44.420614 23425 net.cpp:406] fbn2 <- fconv2
I0809 10:37:44.420620 23425 net.cpp:380] fbn2 -> fbn2
I0809 10:37:44.420838 23425 net.cpp:122] Setting up fbn2
I0809 10:37:44.420848 23425 net.cpp:129] Top shape: 9 3 1 8192 (221184)
I0809 10:37:44.420852 23425 net.cpp:137] Memory required for data: 296681472
I0809 10:37:44.420861 23425 layer_factory.hpp:77] Creating layer frelu2
I0809 10:37:44.420866 23425 net.cpp:84] Creating Layer frelu2
I0809 10:37:44.420871 23425 net.cpp:406] frelu2 <- fbn2
I0809 10:37:44.420876 23425 net.cpp:367] frelu2 -> fbn2 (in-place)
I0809 10:37:44.421192 23425 net.cpp:122] Setting up frelu2
I0809 10:37:44.421214 23425 net.cpp:129] Top shape: 9 3 1 8192 (221184)
I0809 10:37:44.421218 23425 net.cpp:137] Memory required for data: 297566208
I0809 10:37:44.421224 23425 layer_factory.hpp:77] Creating layer feat2
I0809 10:37:44.421232 23425 net.cpp:84] Creating Layer feat2
I0809 10:37:44.421236 23425 net.cpp:406] feat2 <- data_data_0_split_3
I0809 10:37:44.421242 23425 net.cpp:406] feat2 <- fbn2
I0809 10:37:44.421249 23425 net.cpp:380] feat2 -> feat2
I0809 10:37:44.421278 23425 net.cpp:122] Setting up feat2
I0809 10:37:44.421298 23425 net.cpp:129] Top shape: 9 3 1 8192 (221184)
I0809 10:37:44.421301 23425 net.cpp:137] Memory required for data: 298450944
I0809 10:37:44.421305 23425 layer_factory.hpp:77] Creating layer data_lattice1
I0809 10:37:44.421334 23425 net.cpp:84] Creating Layer data_lattice1
I0809 10:37:44.421341 23425 net.cpp:406] data_lattice1 <- feat2
I0809 10:37:44.421349 23425 net.cpp:380] data_lattice1 -> data_lattice1
I0809 10:37:44.421461 23425 net.cpp:122] Setting up data_lattice1
I0809 10:37:44.421473 23425 net.cpp:129] Top shape: 9 3 1 8192 (221184)
I0809 10:37:44.421476 23425 net.cpp:137] Memory required for data: 299335680
I0809 10:37:44.421480 23425 layer_factory.hpp:77] Creating layer data_lattice1_data_lattice1_0_split
I0809 10:37:44.421489 23425 net.cpp:84] Creating Layer data_lattice1_data_lattice1_0_split
I0809 10:37:44.421494 23425 net.cpp:406] data_lattice1_data_lattice1_0_split <- data_lattice1
I0809 10:37:44.421499 23425 net.cpp:380] data_lattice1_data_lattice1_0_split -> data_lattice1_data_lattice1_0_split_0
I0809 10:37:44.421505 23425 net.cpp:380] data_lattice1_data_lattice1_0_split -> data_lattice1_data_lattice1_0_split_1
I0809 10:37:44.421541 23425 net.cpp:122] Setting up data_lattice1_data_lattice1_0_split
I0809 10:37:44.421550 23425 net.cpp:129] Top shape: 9 3 1 8192 (221184)
I0809 10:37:44.421555 23425 net.cpp:129] Top shape: 9 3 1 8192 (221184)
I0809 10:37:44.421560 23425 net.cpp:137] Memory required for data: 301105152
I0809 10:37:44.421562 23425 layer_factory.hpp:77] Creating layer conv3
I0809 10:37:44.421571 23425 net.cpp:84] Creating Layer conv3
I0809 10:37:44.421576 23425 net.cpp:406] conv3 <- bn2_relu2_0_split_1
I0809 10:37:44.421581 23425 net.cpp:406] conv3 <- data_lattice1_data_lattice1_0_split_0
I0809 10:37:44.421586 23425 net.cpp:406] conv3 <- data_lattice1_data_lattice1_0_split_1
I0809 10:37:44.421592 23425 net.cpp:380] conv3 -> conv3
I0809 10:37:44.437204 23425 net.cpp:122] Setting up conv3
I0809 10:37:44.437218 23425 net.cpp:129] Top shape: 9 128 1 8192 (9437184)
I0809 10:37:44.437222 23425 net.cpp:137] Memory required for data: 338853888
I0809 10:37:44.437229 23425 layer_factory.hpp:77] Creating layer bn3
I0809 10:37:44.437237 23425 net.cpp:84] Creating Layer bn3
I0809 10:37:44.437240 23425 net.cpp:406] bn3 <- conv3
I0809 10:37:44.437247 23425 net.cpp:380] bn3 -> bn3
I0809 10:37:44.437448 23425 net.cpp:122] Setting up bn3
I0809 10:37:44.437456 23425 net.cpp:129] Top shape: 9 128 1 8192 (9437184)
I0809 10:37:44.437461 23425 net.cpp:137] Memory required for data: 376602624
I0809 10:37:44.437472 23425 layer_factory.hpp:77] Creating layer relu3
I0809 10:37:44.437479 23425 net.cpp:84] Creating Layer relu3
I0809 10:37:44.437482 23425 net.cpp:406] relu3 <- bn3
I0809 10:37:44.437500 23425 net.cpp:367] relu3 -> bn3 (in-place)
I0809 10:37:44.437814 23425 net.cpp:122] Setting up relu3
I0809 10:37:44.437825 23425 net.cpp:129] Top shape: 9 128 1 8192 (9437184)
I0809 10:37:44.437840 23425 net.cpp:137] Memory required for data: 414351360
I0809 10:37:44.437844 23425 layer_factory.hpp:77] Creating layer bn3_relu3_0_split
I0809 10:37:44.437855 23425 net.cpp:84] Creating Layer bn3_relu3_0_split
I0809 10:37:44.437858 23425 net.cpp:406] bn3_relu3_0_split <- bn3
I0809 10:37:44.437865 23425 net.cpp:380] bn3_relu3_0_split -> bn3_relu3_0_split_0
I0809 10:37:44.437871 23425 net.cpp:380] bn3_relu3_0_split -> bn3_relu3_0_split_1
I0809 10:37:44.437877 23425 net.cpp:380] bn3_relu3_0_split -> bn3_relu3_0_split_2
I0809 10:37:44.437937 23425 net.cpp:122] Setting up bn3_relu3_0_split
I0809 10:37:44.437945 23425 net.cpp:129] Top shape: 9 128 1 8192 (9437184)
I0809 10:37:44.437950 23425 net.cpp:129] Top shape: 9 128 1 8192 (9437184)
I0809 10:37:44.437954 23425 net.cpp:129] Top shape: 9 128 1 8192 (9437184)
I0809 10:37:44.437958 23425 net.cpp:137] Memory required for data: 527597568
I0809 10:37:44.437961 23425 layer_factory.hpp:77] Creating layer fconv3
I0809 10:37:44.437973 23425 net.cpp:84] Creating Layer fconv3
I0809 10:37:44.437978 23425 net.cpp:406] fconv3 <- bn3_relu3_0_split_0
I0809 10:37:44.437984 23425 net.cpp:380] fconv3 -> fconv3
I0809 10:37:44.458859 23425 net.cpp:122] Setting up fconv3
I0809 10:37:44.458885 23425 net.cpp:129] Top shape: 9 3 1 8192 (221184)
I0809 10:37:44.458890 23425 net.cpp:137] Memory required for data: 528482304
I0809 10:37:44.458899 23425 layer_factory.hpp:77] Creating layer fbn3
I0809 10:37:44.458905 23425 net.cpp:84] Creating Layer fbn3
I0809 10:37:44.458910 23425 net.cpp:406] fbn3 <- fconv3
I0809 10:37:44.458917 23425 net.cpp:380] fbn3 -> fbn3
I0809 10:37:44.459154 23425 net.cpp:122] Setting up fbn3
I0809 10:37:44.459177 23425 net.cpp:129] Top shape: 9 3 1 8192 (221184)
I0809 10:37:44.459180 23425 net.cpp:137] Memory required for data: 529367040
I0809 10:37:44.459188 23425 layer_factory.hpp:77] Creating layer frelu3
I0809 10:37:44.459195 23425 net.cpp:84] Creating Layer frelu3
I0809 10:37:44.459199 23425 net.cpp:406] frelu3 <- fbn3
I0809 10:37:44.459204 23425 net.cpp:367] frelu3 -> fbn3 (in-place)
I0809 10:37:44.459506 23425 net.cpp:122] Setting up frelu3
I0809 10:37:44.459517 23425 net.cpp:129] Top shape: 9 3 1 8192 (221184)
I0809 10:37:44.459532 23425 net.cpp:137] Memory required for data: 530251776
I0809 10:37:44.459537 23425 layer_factory.hpp:77] Creating layer feat3
I0809 10:37:44.459543 23425 net.cpp:84] Creating Layer feat3
I0809 10:37:44.459547 23425 net.cpp:406] feat3 <- data_data_0_split_4
I0809 10:37:44.459553 23425 net.cpp:406] feat3 <- fbn3
I0809 10:37:44.459561 23425 net.cpp:380] feat3 -> feat3
I0809 10:37:44.459591 23425 net.cpp:122] Setting up feat3
I0809 10:37:44.459599 23425 net.cpp:129] Top shape: 9 3 1 8192 (221184)
I0809 10:37:44.459601 23425 net.cpp:137] Memory required for data: 531136512
I0809 10:37:44.459605 23425 layer_factory.hpp:77] Creating layer data_lattice2
I0809 10:37:44.459632 23425 net.cpp:84] Creating Layer data_lattice2
I0809 10:37:44.459641 23425 net.cpp:406] data_lattice2 <- feat3
I0809 10:37:44.459648 23425 net.cpp:380] data_lattice2 -> data_lattice2
I0809 10:37:44.459831 23425 net.cpp:122] Setting up data_lattice2
I0809 10:37:44.459843 23425 net.cpp:129] Top shape: 9 3 1 8192 (221184)
I0809 10:37:44.459847 23425 net.cpp:137] Memory required for data: 532021248
I0809 10:37:44.459854 23425 layer_factory.hpp:77] Creating layer data_lattice2_data_lattice2_0_split
I0809 10:37:44.459861 23425 net.cpp:84] Creating Layer data_lattice2_data_lattice2_0_split
I0809 10:37:44.459866 23425 net.cpp:406] data_lattice2_data_lattice2_0_split <- data_lattice2
I0809 10:37:44.459872 23425 net.cpp:380] data_lattice2_data_lattice2_0_split -> data_lattice2_data_lattice2_0_split_0
I0809 10:37:44.459878 23425 net.cpp:380] data_lattice2_data_lattice2_0_split -> data_lattice2_data_lattice2_0_split_1
I0809 10:37:44.459919 23425 net.cpp:122] Setting up data_lattice2_data_lattice2_0_split
I0809 10:37:44.459928 23425 net.cpp:129] Top shape: 9 3 1 8192 (221184)
I0809 10:37:44.459931 23425 net.cpp:129] Top shape: 9 3 1 8192 (221184)
I0809 10:37:44.459935 23425 net.cpp:137] Memory required for data: 533790720
I0809 10:37:44.459939 23425 layer_factory.hpp:77] Creating layer conv4
I0809 10:37:44.459946 23425 net.cpp:84] Creating Layer conv4
I0809 10:37:44.459950 23425 net.cpp:406] conv4 <- bn3_relu3_0_split_1
I0809 10:37:44.459956 23425 net.cpp:406] conv4 <- data_lattice2_data_lattice2_0_split_0
I0809 10:37:44.459960 23425 net.cpp:406] conv4 <- data_lattice2_data_lattice2_0_split_1
I0809 10:37:44.459966 23425 net.cpp:380] conv4 -> conv4
I0809 10:37:44.520391 23425 net.cpp:122] Setting up conv4
I0809 10:37:44.520407 23425 net.cpp:129] Top shape: 9 256 1 8192 (18874368)
I0809 10:37:44.520411 23425 net.cpp:137] Memory required for data: 609288192
I0809 10:37:44.520418 23425 layer_factory.hpp:77] Creating layer bn4
I0809 10:37:44.520424 23425 net.cpp:84] Creating Layer bn4
I0809 10:37:44.520428 23425 net.cpp:406] bn4 <- conv4
I0809 10:37:44.520434 23425 net.cpp:380] bn4 -> bn4
I0809 10:37:44.520650 23425 net.cpp:122] Setting up bn4
I0809 10:37:44.520660 23425 net.cpp:129] Top shape: 9 256 1 8192 (18874368)
I0809 10:37:44.520664 23425 net.cpp:137] Memory required for data: 684785664
I0809 10:37:44.520673 23425 layer_factory.hpp:77] Creating layer relu4
I0809 10:37:44.520680 23425 net.cpp:84] Creating Layer relu4
I0809 10:37:44.520685 23425 net.cpp:406] relu4 <- bn4
I0809 10:37:44.520701 23425 net.cpp:367] relu4 -> bn4 (in-place)
I0809 10:37:44.521421 23425 net.cpp:122] Setting up relu4
I0809 10:37:44.521435 23425 net.cpp:129] Top shape: 9 256 1 8192 (18874368)
I0809 10:37:44.521440 23425 net.cpp:137] Memory required for data: 760283136
I0809 10:37:44.521445 23425 layer_factory.hpp:77] Creating layer bn4_relu4_0_split
I0809 10:37:44.521450 23425 net.cpp:84] Creating Layer bn4_relu4_0_split
I0809 10:37:44.521455 23425 net.cpp:406] bn4_relu4_0_split <- bn4
I0809 10:37:44.521461 23425 net.cpp:380] bn4_relu4_0_split -> bn4_relu4_0_split_0
I0809 10:37:44.521468 23425 net.cpp:380] bn4_relu4_0_split -> bn4_relu4_0_split_1
I0809 10:37:44.521476 23425 net.cpp:380] bn4_relu4_0_split -> bn4_relu4_0_split_2
I0809 10:37:44.521538 23425 net.cpp:122] Setting up bn4_relu4_0_split
I0809 10:37:44.521546 23425 net.cpp:129] Top shape: 9 256 1 8192 (18874368)
I0809 10:37:44.521550 23425 net.cpp:129] Top shape: 9 256 1 8192 (18874368)
I0809 10:37:44.521554 23425 net.cpp:129] Top shape: 9 256 1 8192 (18874368)
I0809 10:37:44.521558 23425 net.cpp:137] Memory required for data: 986775552
I0809 10:37:44.521562 23425 layer_factory.hpp:77] Creating layer fconv4
I0809 10:37:44.521574 23425 net.cpp:84] Creating Layer fconv4
I0809 10:37:44.521577 23425 net.cpp:406] fconv4 <- bn4_relu4_0_split_0
I0809 10:37:44.521586 23425 net.cpp:380] fconv4 -> fconv4
I0809 10:37:44.523044 23425 net.cpp:122] Setting up fconv4
I0809 10:37:44.523058 23425 net.cpp:129] Top shape: 9 3 1 8192 (221184)
I0809 10:37:44.523062 23425 net.cpp:137] Memory required for data: 987660288
I0809 10:37:44.523069 23425 layer_factory.hpp:77] Creating layer fbn4
I0809 10:37:44.523077 23425 net.cpp:84] Creating Layer fbn4
I0809 10:37:44.523080 23425 net.cpp:406] fbn4 <- fconv4
I0809 10:37:44.523088 23425 net.cpp:380] fbn4 -> fbn4
I0809 10:37:44.523314 23425 net.cpp:122] Setting up fbn4
I0809 10:37:44.523324 23425 net.cpp:129] Top shape: 9 3 1 8192 (221184)
I0809 10:37:44.523329 23425 net.cpp:137] Memory required for data: 988545024
I0809 10:37:44.523336 23425 layer_factory.hpp:77] Creating layer frelu4
I0809 10:37:44.523344 23425 net.cpp:84] Creating Layer frelu4
I0809 10:37:44.523349 23425 net.cpp:406] frelu4 <- fbn4
I0809 10:37:44.523365 23425 net.cpp:367] frelu4 -> fbn4 (in-place)
I0809 10:37:44.523680 23425 net.cpp:122] Setting up frelu4
I0809 10:37:44.523691 23425 net.cpp:129] Top shape: 9 3 1 8192 (221184)
I0809 10:37:44.523706 23425 net.cpp:137] Memory required for data: 989429760
I0809 10:37:44.523710 23425 layer_factory.hpp:77] Creating layer feat4
I0809 10:37:44.523718 23425 net.cpp:84] Creating Layer feat4
I0809 10:37:44.523723 23425 net.cpp:406] feat4 <- data_data_0_split_5
I0809 10:37:44.523728 23425 net.cpp:406] feat4 <- fbn4
I0809 10:37:44.523736 23425 net.cpp:380] feat4 -> feat4
I0809 10:37:44.523766 23425 net.cpp:122] Setting up feat4
I0809 10:37:44.523778 23425 net.cpp:129] Top shape: 9 3 1 8192 (221184)
I0809 10:37:44.523782 23425 net.cpp:137] Memory required for data: 990314496
I0809 10:37:44.523785 23425 layer_factory.hpp:77] Creating layer data_lattice3
I0809 10:37:44.523826 23425 net.cpp:84] Creating Layer data_lattice3
I0809 10:37:44.523834 23425 net.cpp:406] data_lattice3 <- feat4
I0809 10:37:44.523841 23425 net.cpp:380] data_lattice3 -> data_lattice3
I0809 10:37:44.524027 23425 net.cpp:122] Setting up data_lattice3
I0809 10:37:44.524039 23425 net.cpp:129] Top shape: 9 3 1 8192 (221184)
I0809 10:37:44.524044 23425 net.cpp:137] Memory required for data: 991199232
I0809 10:37:44.524046 23425 layer_factory.hpp:77] Creating layer data_lattice3_data_lattice3_0_split
I0809 10:37:44.524052 23425 net.cpp:84] Creating Layer data_lattice3_data_lattice3_0_split
I0809 10:37:44.524056 23425 net.cpp:406] data_lattice3_data_lattice3_0_split <- data_lattice3
I0809 10:37:44.524065 23425 net.cpp:380] data_lattice3_data_lattice3_0_split -> data_lattice3_data_lattice3_0_split_0
I0809 10:37:44.524076 23425 net.cpp:380] data_lattice3_data_lattice3_0_split -> data_lattice3_data_lattice3_0_split_1
I0809 10:37:44.524125 23425 net.cpp:122] Setting up data_lattice3_data_lattice3_0_split
I0809 10:37:44.524135 23425 net.cpp:129] Top shape: 9 3 1 8192 (221184)
I0809 10:37:44.524139 23425 net.cpp:129] Top shape: 9 3 1 8192 (221184)
I0809 10:37:44.524143 23425 net.cpp:137] Memory required for data: 992968704
I0809 10:37:44.524147 23425 layer_factory.hpp:77] Creating layer conv5
I0809 10:37:44.524158 23425 net.cpp:84] Creating Layer conv5
I0809 10:37:44.524161 23425 net.cpp:406] conv5 <- bn4_relu4_0_split_1
I0809 10:37:44.524166 23425 net.cpp:406] conv5 <- data_lattice3_data_lattice3_0_split_0
I0809 10:37:44.524171 23425 net.cpp:406] conv5 <- data_lattice3_data_lattice3_0_split_1
I0809 10:37:44.524178 23425 net.cpp:380] conv5 -> conv5
I0809 10:37:44.644742 23425 net.cpp:122] Setting up conv5
I0809 10:37:44.644771 23425 net.cpp:129] Top shape: 9 256 1 8192 (18874368)
I0809 10:37:44.644775 23425 net.cpp:137] Memory required for data: 1068466176
I0809 10:37:44.644784 23425 layer_factory.hpp:77] Creating layer bn5
I0809 10:37:44.644796 23425 net.cpp:84] Creating Layer bn5
I0809 10:37:44.644803 23425 net.cpp:406] bn5 <- conv5
I0809 10:37:44.644809 23425 net.cpp:380] bn5 -> bn5
I0809 10:37:44.645040 23425 net.cpp:122] Setting up bn5
I0809 10:37:44.645051 23425 net.cpp:129] Top shape: 9 256 1 8192 (18874368)
I0809 10:37:44.645056 23425 net.cpp:137] Memory required for data: 1143963648
I0809 10:37:44.645062 23425 layer_factory.hpp:77] Creating layer relu5
I0809 10:37:44.645071 23425 net.cpp:84] Creating Layer relu5
I0809 10:37:44.645076 23425 net.cpp:406] relu5 <- bn5
I0809 10:37:44.645081 23425 net.cpp:367] relu5 -> bn5 (in-place)
I0809 10:37:44.645903 23425 net.cpp:122] Setting up relu5
I0809 10:37:44.645928 23425 net.cpp:129] Top shape: 9 256 1 8192 (18874368)
I0809 10:37:44.645932 23425 net.cpp:137] Memory required for data: 1219461120
I0809 10:37:44.645937 23425 layer_factory.hpp:77] Creating layer bn5_relu5_0_split
I0809 10:37:44.645946 23425 net.cpp:84] Creating Layer bn5_relu5_0_split
I0809 10:37:44.645949 23425 net.cpp:406] bn5_relu5_0_split <- bn5
I0809 10:37:44.645957 23425 net.cpp:380] bn5_relu5_0_split -> bn5_relu5_0_split_0
I0809 10:37:44.645965 23425 net.cpp:380] bn5_relu5_0_split -> bn5_relu5_0_split_1
I0809 10:37:44.645972 23425 net.cpp:380] bn5_relu5_0_split -> bn5_relu5_0_split_2
I0809 10:37:44.646036 23425 net.cpp:122] Setting up bn5_relu5_0_split
I0809 10:37:44.646045 23425 net.cpp:129] Top shape: 9 256 1 8192 (18874368)
I0809 10:37:44.646050 23425 net.cpp:129] Top shape: 9 256 1 8192 (18874368)
I0809 10:37:44.646054 23425 net.cpp:129] Top shape: 9 256 1 8192 (18874368)
I0809 10:37:44.646059 23425 net.cpp:137] Memory required for data: 1445953536
I0809 10:37:44.646062 23425 layer_factory.hpp:77] Creating layer fconv5
I0809 10:37:44.646075 23425 net.cpp:84] Creating Layer fconv5
I0809 10:37:44.646080 23425 net.cpp:406] fconv5 <- bn5_relu5_0_split_0
I0809 10:37:44.646090 23425 net.cpp:380] fconv5 -> fconv5
I0809 10:37:44.647595 23425 net.cpp:122] Setting up fconv5
I0809 10:37:44.647610 23425 net.cpp:129] Top shape: 9 3 1 8192 (221184)
I0809 10:37:44.647614 23425 net.cpp:137] Memory required for data: 1446838272
I0809 10:37:44.647621 23425 layer_factory.hpp:77] Creating layer fbn5
I0809 10:37:44.647629 23425 net.cpp:84] Creating Layer fbn5
I0809 10:37:44.647632 23425 net.cpp:406] fbn5 <- fconv5
I0809 10:37:44.647639 23425 net.cpp:380] fbn5 -> fbn5
I0809 10:37:44.647866 23425 net.cpp:122] Setting up fbn5
I0809 10:37:44.647878 23425 net.cpp:129] Top shape: 9 3 1 8192 (221184)
I0809 10:37:44.647882 23425 net.cpp:137] Memory required for data: 1447723008
I0809 10:37:44.647889 23425 layer_factory.hpp:77] Creating layer frelu5
I0809 10:37:44.647908 23425 net.cpp:84] Creating Layer frelu5
I0809 10:37:44.647913 23425 net.cpp:406] frelu5 <- fbn5
I0809 10:37:44.647918 23425 net.cpp:367] frelu5 -> fbn5 (in-place)
I0809 10:37:44.648267 23425 net.cpp:122] Setting up frelu5
I0809 10:37:44.648290 23425 net.cpp:129] Top shape: 9 3 1 8192 (221184)
I0809 10:37:44.648294 23425 net.cpp:137] Memory required for data: 1448607744
I0809 10:37:44.648299 23425 layer_factory.hpp:77] Creating layer feat5
I0809 10:37:44.648309 23425 net.cpp:84] Creating Layer feat5
I0809 10:37:44.648314 23425 net.cpp:406] feat5 <- data_data_0_split_6
I0809 10:37:44.648320 23425 net.cpp:406] feat5 <- fbn5
I0809 10:37:44.648327 23425 net.cpp:380] feat5 -> feat5
I0809 10:37:44.648360 23425 net.cpp:122] Setting up feat5
I0809 10:37:44.648366 23425 net.cpp:129] Top shape: 9 3 1 8192 (221184)
I0809 10:37:44.648370 23425 net.cpp:137] Memory required for data: 1449492480
I0809 10:37:44.648373 23425 layer_factory.hpp:77] Creating layer data_lattice4
I0809 10:37:44.648427 23425 net.cpp:84] Creating Layer data_lattice4
I0809 10:37:44.648437 23425 net.cpp:406] data_lattice4 <- feat5
I0809 10:37:44.648455 23425 net.cpp:380] data_lattice4 -> data_lattice4
I0809 10:37:44.649814 23425 net.cpp:122] Setting up data_lattice4
I0809 10:37:44.649842 23425 net.cpp:129] Top shape: 9 3 1 8192 (221184)
I0809 10:37:44.649845 23425 net.cpp:137] Memory required for data: 1450377216
I0809 10:37:44.649850 23425 layer_factory.hpp:77] Creating layer data_lattice4_data_lattice4_0_split
I0809 10:37:44.649857 23425 net.cpp:84] Creating Layer data_lattice4_data_lattice4_0_split
I0809 10:37:44.649863 23425 net.cpp:406] data_lattice4_data_lattice4_0_split <- data_lattice4
I0809 10:37:44.649870 23425 net.cpp:380] data_lattice4_data_lattice4_0_split -> data_lattice4_data_lattice4_0_split_0
I0809 10:37:44.649879 23425 net.cpp:380] data_lattice4_data_lattice4_0_split -> data_lattice4_data_lattice4_0_split_1
I0809 10:37:44.649929 23425 net.cpp:122] Setting up data_lattice4_data_lattice4_0_split
I0809 10:37:44.649940 23425 net.cpp:129] Top shape: 9 3 1 8192 (221184)
I0809 10:37:44.649945 23425 net.cpp:129] Top shape: 9 3 1 8192 (221184)
I0809 10:37:44.649948 23425 net.cpp:137] Memory required for data: 1452146688
I0809 10:37:44.649952 23425 layer_factory.hpp:77] Creating layer conv6
I0809 10:37:44.649972 23425 net.cpp:84] Creating Layer conv6
I0809 10:37:44.649976 23425 net.cpp:406] conv6 <- bn5_relu5_0_split_1
I0809 10:37:44.649982 23425 net.cpp:406] conv6 <- data_lattice4_data_lattice4_0_split_0
I0809 10:37:44.649987 23425 net.cpp:406] conv6 <- data_lattice4_data_lattice4_0_split_1
I0809 10:37:44.649993 23425 net.cpp:380] conv6 -> conv6
I0809 10:37:44.770378 23425 net.cpp:122] Setting up conv6
I0809 10:37:44.770407 23425 net.cpp:129] Top shape: 9 256 1 8192 (18874368)
I0809 10:37:44.770411 23425 net.cpp:137] Memory required for data: 1527644160
I0809 10:37:44.770422 23425 layer_factory.hpp:77] Creating layer bn6
I0809 10:37:44.770432 23425 net.cpp:84] Creating Layer bn6
I0809 10:37:44.770437 23425 net.cpp:406] bn6 <- conv6
I0809 10:37:44.770445 23425 net.cpp:380] bn6 -> bn6
I0809 10:37:44.770663 23425 net.cpp:122] Setting up bn6
I0809 10:37:44.770673 23425 net.cpp:129] Top shape: 9 256 1 8192 (18874368)
I0809 10:37:44.770678 23425 net.cpp:137] Memory required for data: 1603141632
I0809 10:37:44.770710 23425 layer_factory.hpp:77] Creating layer relu6
I0809 10:37:44.770720 23425 net.cpp:84] Creating Layer relu6
I0809 10:37:44.770725 23425 net.cpp:406] relu6 <- bn6
I0809 10:37:44.770730 23425 net.cpp:367] relu6 -> bn6 (in-place)
I0809 10:37:44.771548 23425 net.cpp:122] Setting up relu6
I0809 10:37:44.771561 23425 net.cpp:129] Top shape: 9 256 1 8192 (18874368)
I0809 10:37:44.771566 23425 net.cpp:137] Memory required for data: 1678639104
I0809 10:37:44.771572 23425 layer_factory.hpp:77] Creating layer concat6
I0809 10:37:44.771581 23425 net.cpp:84] Creating Layer concat6
I0809 10:37:44.771585 23425 net.cpp:406] concat6 <- bn6
I0809 10:37:44.771591 23425 net.cpp:406] concat6 <- bn2_relu2_0_split_2
I0809 10:37:44.771597 23425 net.cpp:406] concat6 <- bn2A_relu2A_0_split_2
I0809 10:37:44.771601 23425 net.cpp:406] concat6 <- bn3_relu3_0_split_2
I0809 10:37:44.771605 23425 net.cpp:406] concat6 <- bn4_relu4_0_split_2
I0809 10:37:44.771610 23425 net.cpp:406] concat6 <- bn5_relu5_0_split_2
I0809 10:37:44.771613 23425 net.cpp:380] concat6 -> concat6
I0809 10:37:44.771647 23425 net.cpp:122] Setting up concat6
I0809 10:37:44.771656 23425 net.cpp:129] Top shape: 9 1024 1 8192 (75497472)
I0809 10:37:44.771661 23425 net.cpp:137] Memory required for data: 1980628992
I0809 10:37:44.771665 23425 layer_factory.hpp:77] Creating layer conv7
I0809 10:37:44.771678 23425 net.cpp:84] Creating Layer conv7
I0809 10:37:44.771682 23425 net.cpp:406] conv7 <- concat6
I0809 10:37:44.771694 23425 net.cpp:380] conv7 -> conv7
I0809 10:37:44.774057 23425 net.cpp:122] Setting up conv7
I0809 10:37:44.774071 23425 net.cpp:129] Top shape: 9 128 1 8192 (9437184)
I0809 10:37:44.774075 23425 net.cpp:137] Memory required for data: 2018377728
I0809 10:37:44.774082 23425 layer_factory.hpp:77] Creating layer bn7
I0809 10:37:44.774091 23425 net.cpp:84] Creating Layer bn7
I0809 10:37:44.774096 23425 net.cpp:406] bn7 <- conv7
I0809 10:37:44.774106 23425 net.cpp:380] bn7 -> bn7
I0809 10:37:44.774348 23425 net.cpp:122] Setting up bn7
I0809 10:37:44.774359 23425 net.cpp:129] Top shape: 9 128 1 8192 (9437184)
I0809 10:37:44.774363 23425 net.cpp:137] Memory required for data: 2056126464
I0809 10:37:44.774371 23425 layer_factory.hpp:77] Creating layer relu7
I0809 10:37:44.774389 23425 net.cpp:84] Creating Layer relu7
I0809 10:37:44.774394 23425 net.cpp:406] relu7 <- bn7
I0809 10:37:44.774399 23425 net.cpp:367] relu7 -> bn7 (in-place)
I0809 10:37:44.774711 23425 net.cpp:122] Setting up relu7
I0809 10:37:44.774722 23425 net.cpp:129] Top shape: 9 128 1 8192 (9437184)
I0809 10:37:44.774726 23425 net.cpp:137] Memory required for data: 2093875200
I0809 10:37:44.774730 23425 layer_factory.hpp:77] Creating layer conv8
I0809 10:37:44.774740 23425 net.cpp:84] Creating Layer conv8
I0809 10:37:44.774744 23425 net.cpp:406] conv8 <- bn7
I0809 10:37:44.774751 23425 net.cpp:380] conv8 -> conv8
I0809 10:37:44.776528 23425 net.cpp:122] Setting up conv8
I0809 10:37:44.776542 23425 net.cpp:129] Top shape: 9 13 1 8192 (958464)
I0809 10:37:44.776546 23425 net.cpp:137] Memory required for data: 2097709056
I0809 10:37:44.776553 23425 layer_factory.hpp:77] Creating layer conv8_conv8_0_split
I0809 10:37:44.776561 23425 net.cpp:84] Creating Layer conv8_conv8_0_split
I0809 10:37:44.776566 23425 net.cpp:406] conv8_conv8_0_split <- conv8
I0809 10:37:44.776571 23425 net.cpp:380] conv8_conv8_0_split -> conv8_conv8_0_split_0
I0809 10:37:44.776578 23425 net.cpp:380] conv8_conv8_0_split -> conv8_conv8_0_split_1
I0809 10:37:44.776620 23425 net.cpp:122] Setting up conv8_conv8_0_split
I0809 10:37:44.776628 23425 net.cpp:129] Top shape: 9 13 1 8192 (958464)
I0809 10:37:44.776631 23425 net.cpp:129] Top shape: 9 13 1 8192 (958464)
I0809 10:37:44.776635 23425 net.cpp:137] Memory required for data: 2105376768
I0809 10:37:44.776640 23425 layer_factory.hpp:77] Creating layer loss
I0809 10:37:44.776648 23425 net.cpp:84] Creating Layer loss
I0809 10:37:44.776652 23425 net.cpp:406] loss <- conv8_conv8_0_split_0
I0809 10:37:44.776657 23425 net.cpp:406] loss <- label_data_1_split_0
I0809 10:37:44.776664 23425 net.cpp:380] loss -> loss
…
