…
I0806 16:36:45.166043 28992 net.cpp:294] The NetState phase (0) differed from the phase (1) specified by a rule in layer data
I0806 16:36:45.166292 28992 net.cpp:51] Initializing net from parameters: 
state {
  phase: TRAIN
}
layer {
  name: "data"
  type: "Python"
  top: "data"
  top: "label"
  include {
    phase: TRAIN
  }
  python_param {
    module: "dataset_lidar"
    layer: "InputShapenet"
    param_str: "{\'sample_size\': 8192, \'test_area\': \'6\', \'batch_size\': 12, \'feat_dims\': \'x_y_z\', \'subset\': \'train\', \'root\': \'../../data/shapenet_ericyi_ply\', \'jitter_xyz\': 0.02, \'jitter_stretch\': 0.1, \'jitter_rotation\': 10.0}"
  }
}
layer {
  name: "data_feat"
  type: "Python"
  bottom: "data"
  top: "data_feat"
  python_param {
    module: "custom_layers"
    layer: "PickAndScale"
    param_str: "0_1_2"
  }
}
layer {
  name: "conv1"
  type: "Convolution"
  bottom: "data_feat"
  top: "conv1"
  param {
    lr_mult: 1
  }
  param {
    lr_mult: 0.1
  }
  convolution_param {
    num_output: 32
    pad: 0
    kernel_size: 1
    stride: 1
    weight_filler {
      type: "xavier"
    }
    bias_filler {
      type: "constant"
      value: 0
    }
  }
}
layer {
  name: "bn1"
  type: "BatchNorm"
  bottom: "conv1"
  top: "bn1"
}
layer {
  name: "relu1"
  type: "ReLU"
  bottom: "bn1"
  top: "bn1"
}
layer {
  name: "data_lattice0"
  type: "Python"
  bottom: "data"
  top: "data_lattice0"
  python_param {
    module: "custom_layers"
    layer: "PickAndScale"
    param_str: "0*48_1*48_2*48"
  }
}
layer {
  name: "conv2"
  type: "Permutohedral"
  bottom: "bn1"
  bottom: "data_lattice0"
  bottom: "data_lattice0"
  top: "conv2"
  param {
    lr_mult: 1
    decay_mult: 1
  }
  param {
    lr_mult: 2
    decay_mult: 0
  }
  permutohedral_param {
    num_output: 64
    neighborhood_size: 1
    filter_filler {
      type: "gaussian"
      std: 0.001
    }
    bias_term: true
    bias_filler {
      type: "constant"
      value: 0
    }
    group: 1
    norm_type: AFTER
    offset_type: NONE
  }
}
layer {
  name: "bn2"
  type: "BatchNorm"
  bottom: "conv2"
  top: "bn2"
}
layer {
  name: "relu2"
  type: "ReLU"
  bottom: "bn2"
  top: "bn2"
}
layer {
  name: "data_lattice1"
  type: "Python"
  bottom: "data"
  top: "data_lattice1"
  python_param {
    module: "custom_layers"
    layer: "PickAndScale"
    param_str: "0*24_1*24_2*24"
  }
}
layer {
  name: "conv3"
  type: "Permutohedral"
  bottom: "bn2"
  bottom: "data_lattice1"
  bottom: "data_lattice1"
  top: "conv3"
  param {
    lr_mult: 1
    decay_mult: 1
  }
  param {
    lr_mult: 2
    decay_mult: 0
  }
  permutohedral_param {
    num_output: 128
    neighborhood_size: 1
    filter_filler {
      type: "gaussian"
      std: 0.001
    }
    bias_term: true
    bias_filler {
      type: "constant"
      value: 0
    }
    group: 1
    norm_type: AFTER
    offset_type: NONE
  }
}
layer {
  name: "bn3"
  type: "BatchNorm"
  bottom: "conv3"
  top: "bn3"
}
layer {
  name: "relu3"
  type: "ReLU"
  bottom: "bn3"
  top: "bn3"
}
layer {
  name: "data_lattice2"
  type: "Python"
  bottom: "data"
  top: "data_lattice2"
  python_param {
    module: "custom_layers"
    layer: "PickAndScale"
    param_str: "0*12_1*12_2*12"
  }
}
layer {
  name: "conv4"
  type: "Permutohedral"
  bottom: "bn3"
  bottom: "data_lattice2"
  bottom: "data_lattice2"
  top: "conv4"
  param {
    lr_mult: 1
    decay_mult: 1
  }
  param {
    lr_mult: 2
    decay_mult: 0
  }
  permutohedral_param {
    num_output: 256
    neighborhood_size: 1
    filter_filler {
      type: "gaussian"
      std: 0.001
    }
    bias_term: true
    bias_filler {
      type: "constant"
      value: 0
    }
    group: 1
    norm_type: AFTER
    offset_type: NONE
  }
}
layer {
  name: "bn4"
  type: "BatchNorm"
  bottom: "conv4"
  top: "bn4"
}
layer {
  name: "relu4"
  type: "ReLU"
  bottom: "bn4"
  top: "bn4"
}
layer {
  name: "data_lattice3"
  type: "Python"
  bottom: "data"
  top: "data_lattice3"
  python_param {
    module: "custom_layers"
    layer: "PickAndScale"
    param_str: "0*6_1*6_2*6"
  }
}
layer {
  name: "conv5"
  type: "Permutohedral"
  bottom: "bn4"
  bottom: "data_lattice3"
  bottom: "data_lattice3"
  top: "conv5"
  param {
    lr_mult: 1
    decay_mult: 1
  }
  param {
    lr_mult: 2
    decay_mult: 0
  }
  permutohedral_param {
    num_output: 256
    neighborhood_size: 1
    filter_filler {
      type: "gaussian"
      std: 0.001
    }
    bias_term: true
    bias_filler {
      type: "constant"
      value: 0
    }
    group: 1
    norm_type: AFTER
    offset_type: NONE
  }
}
layer {
  name: "bn5"
  type: "BatchNorm"
  bottom: "conv5"
  top: "bn5"
}
layer {
  name: "relu5"
  type: "ReLU"
  bottom: "bn5"
  top: "bn5"
}
layer {
  name: "data_lattice4"
  type: "Python"
  bottom: "data"
  top: "data_lattice4"
  python_param {
    module: "custom_layers"
    layer: "PickAndScale"
    param_str: "0*3_1*3_2*3"
  }
}
layer {
  name: "conv6"
  type: "Permutohedral"
  bottom: "bn5"
  bottom: "data_lattice4"
  bottom: "data_lattice4"
  top: "conv6"
  param {
    lr_mult: 1
    decay_mult: 1
  }
  param {
    lr_mult: 2
    decay_mult: 0
  }
  permutohedral_param {
    num_output: 256
    neighborhood_size: 1
    filter_filler {
      type: "gaussian"
      std: 0.001
    }
    bias_term: true
    bias_filler {
      type: "constant"
      value: 0
    }
    group: 1
    norm_type: AFTER
    offset_type: NONE
  }
}
layer {
  name: "bn6"
  type: "BatchNorm"
  bottom: "conv6"
  top: "bn6"
}
layer {
  name: "relu6"
  type: "ReLU"
  bottom: "bn6"
  top: "bn6"
}
layer {
  name: "concat6"
  type: "Concat"
  bottom: "bn6"
  bottom: "bn2"
  bottom: "bn3"
  bottom: "bn4"
  bottom: "bn5"
  top: "concat6"
}
layer {
  name: "conv7"
  type: "Convolution"
  bottom: "concat6"
  top: "conv7"
  param {
    lr_mult: 1
  }
  param {
    lr_mult: 0.1
  }
  convolution_param {
    num_output: 128
    pad: 0
    kernel_size: 1
    stride: 1
    weight_filler {
      type: "xavier"
    }
    bias_filler {
      type: "constant"
      value: 0
    }
  }
}
layer {
  name: "bn7"
  type: "BatchNorm"
  bottom: "conv7"
  top: "bn7"
}
layer {
  name: "relu7"
  type: "ReLU"
  bottom: "bn7"
  top: "bn7"
}
layer {
  name: "conv8"
  type: "Convolution"
  bottom: "bn7"
  top: "conv8"
  param {
    lr_mult: 1
  }
  param {
    lr_mult: 0.1
  }
  convolution_param {
    num_output: 13
    pad: 0
    kernel_size: 1
    stride: 1
    weight_filler {
      type: "xavier"
    }
    bias_filler {
      type: "constant"
      value: 0
    }
  }
}
layer {
  name: "loss"
  type: "SoftmaxWithLoss"
  bottom: "conv8"
  bottom: "label"
  top: "loss"
}
layer {
  name: "accuracy"
  type: "Accuracy"
  bottom: "conv8"
  bottom: "label"
  top: "accuracy"
}
I0806 16:36:45.174046 28996 upgrade_proto.cpp:1084] Attempting to upgrade input file specified using deprecated 'solver_type' field (enum)': /mnt/lustre/wangjiayun/repos/splatnet/exp/lidar3d/area6/6_solver.prototxt
I0806 16:36:45.174139 28996 upgrade_proto.cpp:1091] Successfully upgraded file specified using deprecated 'solver_type' field (enum) to 'type' field (string).
W0806 16:36:45.174144 28996 upgrade_proto.cpp:1093] Note that future Caffe releases will only support 'type' field (string) for a solver's type.
I0806 16:36:45.182144 28992 layer_factory.hpp:77] Creating layer data
I0806 16:36:45.207582 28992 net.cpp:84] Creating Layer data
I0806 16:36:45.207852 28992 net.cpp:380] data -> data
I0806 16:36:45.208592 28992 net.cpp:380] data -> label
I0806 16:44:19.723825 28992 net.cpp:122] Setting up data
I0806 16:44:19.724382 28992 net.cpp:129] Top shape: 12 3 1 8192 (294912)
I0806 16:44:19.724401 28992 net.cpp:129] Top shape: 12 1 1 8192 (98304)
I0806 16:44:19.724417 28992 net.cpp:137] Memory required for data: 1572864
I0806 16:44:19.724475 28992 layer_factory.hpp:77] Creating layer data_data_0_split
I0806 16:44:19.724583 28992 net.cpp:84] Creating Layer data_data_0_split
I0806 16:44:19.724603 28992 net.cpp:406] data_data_0_split <- data
I0806 16:44:19.724635 28992 net.cpp:380] data_data_0_split -> data_data_0_split_0
I0806 16:44:19.724678 28992 net.cpp:380] data_data_0_split -> data_data_0_split_1
I0806 16:44:19.724689 28992 net.cpp:380] data_data_0_split -> data_data_0_split_2
I0806 16:44:19.724695 28992 net.cpp:380] data_data_0_split -> data_data_0_split_3
I0806 16:44:19.724701 28992 net.cpp:380] data_data_0_split -> data_data_0_split_4
I0806 16:44:19.724707 28992 net.cpp:380] data_data_0_split -> data_data_0_split_5
I0806 16:44:19.724817 28992 net.cpp:122] Setting up data_data_0_split
I0806 16:44:19.724828 28992 net.cpp:129] Top shape: 12 3 1 8192 (294912)
I0806 16:44:19.724833 28992 net.cpp:129] Top shape: 12 3 1 8192 (294912)
I0806 16:44:19.724836 28992 net.cpp:129] Top shape: 12 3 1 8192 (294912)
I0806 16:44:19.724840 28992 net.cpp:129] Top shape: 12 3 1 8192 (294912)
I0806 16:44:19.724844 28992 net.cpp:129] Top shape: 12 3 1 8192 (294912)
I0806 16:44:19.724848 28992 net.cpp:129] Top shape: 12 3 1 8192 (294912)
I0806 16:44:19.724851 28992 net.cpp:137] Memory required for data: 8650752
I0806 16:44:19.724855 28992 layer_factory.hpp:77] Creating layer label_data_1_split
I0806 16:44:19.724864 28992 net.cpp:84] Creating Layer label_data_1_split
I0806 16:44:19.724867 28992 net.cpp:406] label_data_1_split <- label
I0806 16:44:19.724874 28992 net.cpp:380] label_data_1_split -> label_data_1_split_0
I0806 16:44:19.724880 28992 net.cpp:380] label_data_1_split -> label_data_1_split_1
I0806 16:44:19.724913 28992 net.cpp:122] Setting up label_data_1_split
I0806 16:44:19.724921 28992 net.cpp:129] Top shape: 12 1 1 8192 (98304)
I0806 16:44:19.724925 28992 net.cpp:129] Top shape: 12 1 1 8192 (98304)
I0806 16:44:19.724928 28992 net.cpp:137] Memory required for data: 9437184
I0806 16:44:19.724932 28992 layer_factory.hpp:77] Creating layer data_feat
I0806 16:44:19.729717 28992 net.cpp:84] Creating Layer data_feat
I0806 16:44:19.729758 28992 net.cpp:406] data_feat <- data_data_0_split_0
I0806 16:44:19.729768 28992 net.cpp:380] data_feat -> data_feat
I0806 16:44:19.731324 28992 net.cpp:122] Setting up data_feat
I0806 16:44:19.731354 28992 net.cpp:129] Top shape: 12 3 1 8192 (294912)
I0806 16:44:19.731359 28992 net.cpp:137] Memory required for data: 10616832
I0806 16:44:19.731362 28992 layer_factory.hpp:77] Creating layer conv1
I0806 16:44:19.731426 28992 net.cpp:84] Creating Layer conv1
I0806 16:44:19.731436 28992 net.cpp:406] conv1 <- data_feat
I0806 16:44:19.731443 28992 net.cpp:380] conv1 -> conv1
I0806 16:44:24.829284 28992 net.cpp:122] Setting up conv1
I0806 16:44:24.829326 28992 net.cpp:129] Top shape: 12 32 1 8192 (3145728)
I0806 16:44:24.829330 28992 net.cpp:137] Memory required for data: 23199744
I0806 16:44:24.829547 28992 layer_factory.hpp:77] Creating layer bn1
I0806 16:44:24.830427 28992 net.cpp:84] Creating Layer bn1
I0806 16:44:24.830459 28992 net.cpp:406] bn1 <- conv1
I0806 16:44:24.830477 28992 net.cpp:380] bn1 -> bn1
I0806 16:44:24.850586 28992 net.cpp:122] Setting up bn1
I0806 16:44:24.850615 28992 net.cpp:129] Top shape: 12 32 1 8192 (3145728)
I0806 16:44:24.850618 28992 net.cpp:137] Memory required for data: 35782656
I0806 16:44:24.850630 28992 layer_factory.hpp:77] Creating layer relu1
I0806 16:44:24.851539 28992 net.cpp:84] Creating Layer relu1
I0806 16:44:24.851570 28992 net.cpp:406] relu1 <- bn1
I0806 16:44:24.851585 28992 net.cpp:367] relu1 -> bn1 (in-place)
I0806 16:44:24.863381 28992 net.cpp:122] Setting up relu1
I0806 16:44:24.863396 28992 net.cpp:129] Top shape: 12 32 1 8192 (3145728)
I0806 16:44:24.863400 28992 net.cpp:137] Memory required for data: 48365568
I0806 16:44:24.863404 28992 layer_factory.hpp:77] Creating layer data_lattice0
I0806 16:44:24.863459 28992 net.cpp:84] Creating Layer data_lattice0
I0806 16:44:24.863467 28992 net.cpp:406] data_lattice0 <- data_data_0_split_1
I0806 16:44:24.863474 28992 net.cpp:380] data_lattice0 -> data_lattice0
I0806 16:44:24.865372 28992 net.cpp:122] Setting up data_lattice0
I0806 16:44:24.865387 28992 net.cpp:129] Top shape: 12 3 1 8192 (294912)
I0806 16:44:24.865391 28992 net.cpp:137] Memory required for data: 49545216
I0806 16:44:24.865396 28992 layer_factory.hpp:77] Creating layer data_lattice0_data_lattice0_0_split
I0806 16:44:24.865406 28992 net.cpp:84] Creating Layer data_lattice0_data_lattice0_0_split
I0806 16:44:24.865411 28992 net.cpp:406] data_lattice0_data_lattice0_0_split <- data_lattice0
I0806 16:44:24.865417 28992 net.cpp:380] data_lattice0_data_lattice0_0_split -> data_lattice0_data_lattice0_0_split_0
I0806 16:44:24.865423 28992 net.cpp:380] data_lattice0_data_lattice0_0_split -> data_lattice0_data_lattice0_0_split_1
I0806 16:44:24.865459 28992 net.cpp:122] Setting up data_lattice0_data_lattice0_0_split
I0806 16:44:24.865466 28992 net.cpp:129] Top shape: 12 3 1 8192 (294912)
I0806 16:44:24.865470 28992 net.cpp:129] Top shape: 12 3 1 8192 (294912)
I0806 16:44:24.865473 28992 net.cpp:137] Memory required for data: 51904512
I0806 16:44:24.865475 28992 layer_factory.hpp:77] Creating layer conv2
I0806 16:44:24.865977 28992 net.cpp:84] Creating Layer conv2
I0806 16:44:24.865990 28992 net.cpp:406] conv2 <- bn1
I0806 16:44:24.865996 28992 net.cpp:406] conv2 <- data_lattice0_data_lattice0_0_split_0
I0806 16:44:24.866001 28992 net.cpp:406] conv2 <- data_lattice0_data_lattice0_0_split_1
I0806 16:44:24.866008 28992 net.cpp:380] conv2 -> conv2
I0806 16:44:24.869559 28992 net.cpp:122] Setting up conv2
I0806 16:44:24.869575 28992 net.cpp:129] Top shape: 12 64 1 8192 (6291456)
I0806 16:44:24.869590 28992 net.cpp:137] Memory required for data: 77070336
I0806 16:44:24.869597 28992 layer_factory.hpp:77] Creating layer bn2
I0806 16:44:24.869604 28992 net.cpp:84] Creating Layer bn2
I0806 16:44:24.869608 28992 net.cpp:406] bn2 <- conv2
I0806 16:44:24.869614 28992 net.cpp:380] bn2 -> bn2
I0806 16:44:24.869814 28992 net.cpp:122] Setting up bn2
I0806 16:44:24.869823 28992 net.cpp:129] Top shape: 12 64 1 8192 (6291456)
I0806 16:44:24.869827 28992 net.cpp:137] Memory required for data: 102236160
I0806 16:44:24.869837 28992 layer_factory.hpp:77] Creating layer relu2
I0806 16:44:24.869846 28992 net.cpp:84] Creating Layer relu2
I0806 16:44:24.869850 28992 net.cpp:406] relu2 <- bn2
I0806 16:44:24.869855 28992 net.cpp:367] relu2 -> bn2 (in-place)
I0806 16:44:24.870477 28992 net.cpp:122] Setting up relu2
I0806 16:44:24.870491 28992 net.cpp:129] Top shape: 12 64 1 8192 (6291456)
I0806 16:44:24.870507 28992 net.cpp:137] Memory required for data: 127401984
I0806 16:44:24.870510 28992 layer_factory.hpp:77] Creating layer bn2_relu2_0_split
I0806 16:44:24.870527 28992 net.cpp:84] Creating Layer bn2_relu2_0_split
I0806 16:44:24.870532 28992 net.cpp:406] bn2_relu2_0_split <- bn2
I0806 16:44:24.870537 28992 net.cpp:380] bn2_relu2_0_split -> bn2_relu2_0_split_0
I0806 16:44:24.870544 28992 net.cpp:380] bn2_relu2_0_split -> bn2_relu2_0_split_1
I0806 16:44:24.870582 28992 net.cpp:122] Setting up bn2_relu2_0_split
I0806 16:44:24.870589 28992 net.cpp:129] Top shape: 12 64 1 8192 (6291456)
I0806 16:44:24.870594 28992 net.cpp:129] Top shape: 12 64 1 8192 (6291456)
I0806 16:44:24.870596 28992 net.cpp:137] Memory required for data: 177733632
I0806 16:44:24.870601 28992 layer_factory.hpp:77] Creating layer data_lattice1
I0806 16:44:24.870632 28992 net.cpp:84] Creating Layer data_lattice1
I0806 16:44:24.870640 28992 net.cpp:406] data_lattice1 <- data_data_0_split_2
I0806 16:44:24.870646 28992 net.cpp:380] data_lattice1 -> data_lattice1
I0806 16:44:24.871892 28992 net.cpp:122] Setting up data_lattice1
I0806 16:44:24.871906 28992 net.cpp:129] Top shape: 12 3 1 8192 (294912)
I0806 16:44:24.871922 28992 net.cpp:137] Memory required for data: 178913280
I0806 16:44:24.871925 28992 layer_factory.hpp:77] Creating layer data_lattice1_data_lattice1_0_split
I0806 16:44:24.871932 28992 net.cpp:84] Creating Layer data_lattice1_data_lattice1_0_split
I0806 16:44:24.871935 28992 net.cpp:406] data_lattice1_data_lattice1_0_split <- data_lattice1
I0806 16:44:24.871942 28992 net.cpp:380] data_lattice1_data_lattice1_0_split -> data_lattice1_data_lattice1_0_split_0
I0806 16:44:24.871955 28992 net.cpp:380] data_lattice1_data_lattice1_0_split -> data_lattice1_data_lattice1_0_split_1
I0806 16:44:24.871991 28992 net.cpp:122] Setting up data_lattice1_data_lattice1_0_split
I0806 16:44:24.871999 28992 net.cpp:129] Top shape: 12 3 1 8192 (294912)
I0806 16:44:24.872002 28992 net.cpp:129] Top shape: 12 3 1 8192 (294912)
I0806 16:44:24.872005 28992 net.cpp:137] Memory required for data: 181272576
I0806 16:44:24.872009 28992 layer_factory.hpp:77] Creating layer conv3
I0806 16:44:24.872016 28992 net.cpp:84] Creating Layer conv3
I0806 16:44:24.872020 28992 net.cpp:406] conv3 <- bn2_relu2_0_split_0
I0806 16:44:24.872025 28992 net.cpp:406] conv3 <- data_lattice1_data_lattice1_0_split_0
I0806 16:44:24.872030 28992 net.cpp:406] conv3 <- data_lattice1_data_lattice1_0_split_1
I0806 16:44:24.872033 28992 net.cpp:380] conv3 -> conv3
I0806 16:44:24.875452 28992 net.cpp:122] Setting up conv3
I0806 16:44:24.875461 28992 net.cpp:129] Top shape: 12 128 1 8192 (12582912)
I0806 16:44:24.875475 28992 net.cpp:137] Memory required for data: 231604224
I0806 16:44:24.875481 28992 layer_factory.hpp:77] Creating layer bn3
I0806 16:44:24.875493 28992 net.cpp:84] Creating Layer bn3
I0806 16:44:24.875496 28992 net.cpp:406] bn3 <- conv3
I0806 16:44:24.875501 28992 net.cpp:380] bn3 -> bn3
I0806 16:44:24.875668 28992 net.cpp:122] Setting up bn3
I0806 16:44:24.875675 28992 net.cpp:129] Top shape: 12 128 1 8192 (12582912)
I0806 16:44:24.875679 28992 net.cpp:137] Memory required for data: 281935872
I0806 16:44:24.875686 28992 layer_factory.hpp:77] Creating layer relu3
I0806 16:44:24.875692 28992 net.cpp:84] Creating Layer relu3
I0806 16:44:24.875695 28992 net.cpp:406] relu3 <- bn3
I0806 16:44:24.875699 28992 net.cpp:367] relu3 -> bn3 (in-place)
I0806 16:44:24.875979 28992 net.cpp:122] Setting up relu3
I0806 16:44:24.875989 28992 net.cpp:129] Top shape: 12 128 1 8192 (12582912)
I0806 16:44:24.876003 28992 net.cpp:137] Memory required for data: 332267520
I0806 16:44:24.876008 28992 layer_factory.hpp:77] Creating layer bn3_relu3_0_split
I0806 16:44:24.876024 28992 net.cpp:84] Creating Layer bn3_relu3_0_split
I0806 16:44:24.876027 28992 net.cpp:406] bn3_relu3_0_split <- bn3
I0806 16:44:24.876034 28992 net.cpp:380] bn3_relu3_0_split -> bn3_relu3_0_split_0
I0806 16:44:24.876039 28992 net.cpp:380] bn3_relu3_0_split -> bn3_relu3_0_split_1
I0806 16:44:24.876076 28992 net.cpp:122] Setting up bn3_relu3_0_split
I0806 16:44:24.876085 28992 net.cpp:129] Top shape: 12 128 1 8192 (12582912)
I0806 16:44:24.876088 28992 net.cpp:129] Top shape: 12 128 1 8192 (12582912)
I0806 16:44:24.876091 28992 net.cpp:137] Memory required for data: 432930816
I0806 16:44:24.876093 28992 layer_factory.hpp:77] Creating layer data_lattice2
I0806 16:44:24.876118 28992 net.cpp:84] Creating Layer data_lattice2
I0806 16:44:24.876127 28992 net.cpp:406] data_lattice2 <- data_data_0_split_3
I0806 16:44:24.876132 28992 net.cpp:380] data_lattice2 -> data_lattice2
I0806 16:44:24.877369 28992 net.cpp:122] Setting up data_lattice2
I0806 16:44:24.877382 28992 net.cpp:129] Top shape: 12 3 1 8192 (294912)
I0806 16:44:24.877398 28992 net.cpp:137] Memory required for data: 434110464
I0806 16:44:24.877401 28992 layer_factory.hpp:77] Creating layer data_lattice2_data_lattice2_0_split
I0806 16:44:24.877406 28992 net.cpp:84] Creating Layer data_lattice2_data_lattice2_0_split
I0806 16:44:24.877410 28992 net.cpp:406] data_lattice2_data_lattice2_0_split <- data_lattice2
I0806 16:44:24.877416 28992 net.cpp:380] data_lattice2_data_lattice2_0_split -> data_lattice2_data_lattice2_0_split_0
I0806 16:44:24.877424 28992 net.cpp:380] data_lattice2_data_lattice2_0_split -> data_lattice2_data_lattice2_0_split_1
I0806 16:44:24.877459 28992 net.cpp:122] Setting up data_lattice2_data_lattice2_0_split
I0806 16:44:24.877465 28992 net.cpp:129] Top shape: 12 3 1 8192 (294912)
I0806 16:44:24.877470 28992 net.cpp:129] Top shape: 12 3 1 8192 (294912)
I0806 16:44:24.877472 28992 net.cpp:137] Memory required for data: 436469760
I0806 16:44:24.877476 28992 layer_factory.hpp:77] Creating layer conv4
I0806 16:44:24.877485 28992 net.cpp:84] Creating Layer conv4
I0806 16:44:24.877488 28992 net.cpp:406] conv4 <- bn3_relu3_0_split_0
I0806 16:44:24.877492 28992 net.cpp:406] conv4 <- data_lattice2_data_lattice2_0_split_0
I0806 16:44:24.877496 28992 net.cpp:406] conv4 <- data_lattice2_data_lattice2_0_split_1
I0806 16:44:24.877501 28992 net.cpp:380] conv4 -> conv4
I0806 16:44:24.892099 28992 net.cpp:122] Setting up conv4
I0806 16:44:24.892124 28992 net.cpp:129] Top shape: 12 256 1 8192 (25165824)
I0806 16:44:24.892127 28992 net.cpp:137] Memory required for data: 537133056
I0806 16:44:24.892138 28992 layer_factory.hpp:77] Creating layer bn4
I0806 16:44:24.892145 28992 net.cpp:84] Creating Layer bn4
I0806 16:44:24.892149 28992 net.cpp:406] bn4 <- conv4
I0806 16:44:24.892154 28992 net.cpp:380] bn4 -> bn4
I0806 16:44:24.892328 28992 net.cpp:122] Setting up bn4
I0806 16:44:24.892336 28992 net.cpp:129] Top shape: 12 256 1 8192 (25165824)
I0806 16:44:24.892340 28992 net.cpp:137] Memory required for data: 637796352
I0806 16:44:24.892347 28992 layer_factory.hpp:77] Creating layer relu4
I0806 16:44:24.892354 28992 net.cpp:84] Creating Layer relu4
I0806 16:44:24.892356 28992 net.cpp:406] relu4 <- bn4
I0806 16:44:24.892361 28992 net.cpp:367] relu4 -> bn4 (in-place)
I0806 16:44:24.892977 28992 net.cpp:122] Setting up relu4
I0806 16:44:24.892990 28992 net.cpp:129] Top shape: 12 256 1 8192 (25165824)
I0806 16:44:24.893005 28992 net.cpp:137] Memory required for data: 738459648
I0806 16:44:24.893009 28992 layer_factory.hpp:77] Creating layer bn4_relu4_0_split
I0806 16:44:24.893015 28992 net.cpp:84] Creating Layer bn4_relu4_0_split
I0806 16:44:24.893019 28992 net.cpp:406] bn4_relu4_0_split <- bn4
I0806 16:44:24.893024 28992 net.cpp:380] bn4_relu4_0_split -> bn4_relu4_0_split_0
I0806 16:44:24.893034 28992 net.cpp:380] bn4_relu4_0_split -> bn4_relu4_0_split_1
I0806 16:44:24.893072 28992 net.cpp:122] Setting up bn4_relu4_0_split
I0806 16:44:24.893081 28992 net.cpp:129] Top shape: 12 256 1 8192 (25165824)
I0806 16:44:24.893085 28992 net.cpp:129] Top shape: 12 256 1 8192 (25165824)
I0806 16:44:24.893087 28992 net.cpp:137] Memory required for data: 939786240
I0806 16:44:24.893092 28992 layer_factory.hpp:77] Creating layer data_lattice3
I0806 16:44:24.893118 28992 net.cpp:84] Creating Layer data_lattice3
I0806 16:44:24.893126 28992 net.cpp:406] data_lattice3 <- data_data_0_split_4
I0806 16:44:24.893131 28992 net.cpp:380] data_lattice3 -> data_lattice3
I0806 16:44:24.894307 28992 net.cpp:122] Setting up data_lattice3
I0806 16:44:24.894321 28992 net.cpp:129] Top shape: 12 3 1 8192 (294912)
I0806 16:44:24.894336 28992 net.cpp:137] Memory required for data: 940965888
I0806 16:44:24.894340 28992 layer_factory.hpp:77] Creating layer data_lattice3_data_lattice3_0_split
I0806 16:44:24.894346 28992 net.cpp:84] Creating Layer data_lattice3_data_lattice3_0_split
I0806 16:44:24.894349 28992 net.cpp:406] data_lattice3_data_lattice3_0_split <- data_lattice3
I0806 16:44:24.894356 28992 net.cpp:380] data_lattice3_data_lattice3_0_split -> data_lattice3_data_lattice3_0_split_0
I0806 16:44:24.894362 28992 net.cpp:380] data_lattice3_data_lattice3_0_split -> data_lattice3_data_lattice3_0_split_1
I0806 16:44:24.894397 28992 net.cpp:122] Setting up data_lattice3_data_lattice3_0_split
I0806 16:44:24.894403 28992 net.cpp:129] Top shape: 12 3 1 8192 (294912)
I0806 16:44:24.894407 28992 net.cpp:129] Top shape: 12 3 1 8192 (294912)
I0806 16:44:24.894410 28992 net.cpp:137] Memory required for data: 943325184
I0806 16:44:24.894413 28992 layer_factory.hpp:77] Creating layer conv5
I0806 16:44:24.894420 28992 net.cpp:84] Creating Layer conv5
I0806 16:44:24.894423 28992 net.cpp:406] conv5 <- bn4_relu4_0_split_0
I0806 16:44:24.894428 28992 net.cpp:406] conv5 <- data_lattice3_data_lattice3_0_split_0
I0806 16:44:24.894431 28992 net.cpp:406] conv5 <- data_lattice3_data_lattice3_0_split_1
I0806 16:44:24.894436 28992 net.cpp:380] conv5 -> conv5
I0806 16:44:24.922809 28992 net.cpp:122] Setting up conv5
I0806 16:44:24.922823 28992 net.cpp:129] Top shape: 12 256 1 8192 (25165824)
I0806 16:44:24.922837 28992 net.cpp:137] Memory required for data: 1043988480
I0806 16:44:24.922844 28992 layer_factory.hpp:77] Creating layer bn5
I0806 16:44:24.922850 28992 net.cpp:84] Creating Layer bn5
I0806 16:44:24.922854 28992 net.cpp:406] bn5 <- conv5
I0806 16:44:24.922860 28992 net.cpp:380] bn5 -> bn5
I0806 16:44:24.923046 28992 net.cpp:122] Setting up bn5
I0806 16:44:24.923055 28992 net.cpp:129] Top shape: 12 256 1 8192 (25165824)
I0806 16:44:24.923058 28992 net.cpp:137] Memory required for data: 1144651776
I0806 16:44:24.923064 28992 layer_factory.hpp:77] Creating layer relu5
I0806 16:44:24.923074 28992 net.cpp:84] Creating Layer relu5
I0806 16:44:24.923077 28992 net.cpp:406] relu5 <- bn5
I0806 16:44:24.923082 28992 net.cpp:367] relu5 -> bn5 (in-place)
I0806 16:44:24.923370 28992 net.cpp:122] Setting up relu5
I0806 16:44:24.923380 28992 net.cpp:129] Top shape: 12 256 1 8192 (25165824)
I0806 16:44:24.923394 28992 net.cpp:137] Memory required for data: 1245315072
I0806 16:44:24.923398 28992 layer_factory.hpp:77] Creating layer bn5_relu5_0_split
I0806 16:44:24.923403 28992 net.cpp:84] Creating Layer bn5_relu5_0_split
I0806 16:44:24.923406 28992 net.cpp:406] bn5_relu5_0_split <- bn5
I0806 16:44:24.923413 28992 net.cpp:380] bn5_relu5_0_split -> bn5_relu5_0_split_0
I0806 16:44:24.923418 28992 net.cpp:380] bn5_relu5_0_split -> bn5_relu5_0_split_1
I0806 16:44:24.923455 28992 net.cpp:122] Setting up bn5_relu5_0_split
I0806 16:44:24.923462 28992 net.cpp:129] Top shape: 12 256 1 8192 (25165824)
I0806 16:44:24.923465 28992 net.cpp:129] Top shape: 12 256 1 8192 (25165824)
I0806 16:44:24.923468 28992 net.cpp:137] Memory required for data: 1446641664
I0806 16:44:24.923471 28992 layer_factory.hpp:77] Creating layer data_lattice4
I0806 16:44:24.923497 28992 net.cpp:84] Creating Layer data_lattice4
I0806 16:44:24.923504 28992 net.cpp:406] data_lattice4 <- data_data_0_split_5
I0806 16:44:24.923511 28992 net.cpp:380] data_lattice4 -> data_lattice4
I0806 16:44:24.924717 28992 net.cpp:122] Setting up data_lattice4
I0806 16:44:24.924731 28992 net.cpp:129] Top shape: 12 3 1 8192 (294912)
I0806 16:44:24.924746 28992 net.cpp:137] Memory required for data: 1447821312
I0806 16:44:24.924749 28992 layer_factory.hpp:77] Creating layer data_lattice4_data_lattice4_0_split
I0806 16:44:24.924760 28992 net.cpp:84] Creating Layer data_lattice4_data_lattice4_0_split
I0806 16:44:24.924764 28992 net.cpp:406] data_lattice4_data_lattice4_0_split <- data_lattice4
I0806 16:44:24.924770 28992 net.cpp:380] data_lattice4_data_lattice4_0_split -> data_lattice4_data_lattice4_0_split_0
I0806 16:44:24.924777 28992 net.cpp:380] data_lattice4_data_lattice4_0_split -> data_lattice4_data_lattice4_0_split_1
I0806 16:44:24.924811 28992 net.cpp:122] Setting up data_lattice4_data_lattice4_0_split
I0806 16:44:24.924818 28992 net.cpp:129] Top shape: 12 3 1 8192 (294912)
I0806 16:44:24.924823 28992 net.cpp:129] Top shape: 12 3 1 8192 (294912)
I0806 16:44:24.924824 28992 net.cpp:137] Memory required for data: 1450180608
I0806 16:44:24.924829 28992 layer_factory.hpp:77] Creating layer conv6
I0806 16:44:24.924835 28992 net.cpp:84] Creating Layer conv6
I0806 16:44:24.924839 28992 net.cpp:406] conv6 <- bn5_relu5_0_split_0
I0806 16:44:24.924844 28992 net.cpp:406] conv6 <- data_lattice4_data_lattice4_0_split_0
I0806 16:44:24.924847 28992 net.cpp:406] conv6 <- data_lattice4_data_lattice4_0_split_1
I0806 16:44:24.924852 28992 net.cpp:380] conv6 -> conv6
I0806 16:44:24.953068 28992 net.cpp:122] Setting up conv6
I0806 16:44:24.953083 28992 net.cpp:129] Top shape: 12 256 1 8192 (25165824)
I0806 16:44:24.953097 28992 net.cpp:137] Memory required for data: 1550843904
I0806 16:44:24.953104 28992 layer_factory.hpp:77] Creating layer bn6
I0806 16:44:24.953111 28992 net.cpp:84] Creating Layer bn6
I0806 16:44:24.953115 28992 net.cpp:406] bn6 <- conv6
I0806 16:44:24.953120 28992 net.cpp:380] bn6 -> bn6
I0806 16:44:24.953299 28992 net.cpp:122] Setting up bn6
I0806 16:44:24.953308 28992 net.cpp:129] Top shape: 12 256 1 8192 (25165824)
I0806 16:44:24.953311 28992 net.cpp:137] Memory required for data: 1651507200
I0806 16:44:24.953317 28992 layer_factory.hpp:77] Creating layer relu6
I0806 16:44:24.953325 28992 net.cpp:84] Creating Layer relu6
I0806 16:44:24.953330 28992 net.cpp:406] relu6 <- bn6
I0806 16:44:24.953333 28992 net.cpp:367] relu6 -> bn6 (in-place)
I0806 16:44:24.953624 28992 net.cpp:122] Setting up relu6
I0806 16:44:24.953634 28992 net.cpp:129] Top shape: 12 256 1 8192 (25165824)
I0806 16:44:24.953649 28992 net.cpp:137] Memory required for data: 1752170496
I0806 16:44:24.953652 28992 layer_factory.hpp:77] Creating layer concat6
I0806 16:44:24.953713 28992 net.cpp:84] Creating Layer concat6
I0806 16:44:24.953721 28992 net.cpp:406] concat6 <- bn6
I0806 16:44:24.953725 28992 net.cpp:406] concat6 <- bn2_relu2_0_split_1
I0806 16:44:24.953729 28992 net.cpp:406] concat6 <- bn3_relu3_0_split_1
I0806 16:44:24.953733 28992 net.cpp:406] concat6 <- bn4_relu4_0_split_1
I0806 16:44:24.953737 28992 net.cpp:406] concat6 <- bn5_relu5_0_split_1
I0806 16:44:24.953742 28992 net.cpp:380] concat6 -> concat6
I0806 16:44:24.953789 28992 net.cpp:122] Setting up concat6
I0806 16:44:24.953799 28992 net.cpp:129] Top shape: 12 960 1 8192 (94371840)
I0806 16:44:24.953801 28992 net.cpp:137] Memory required for data: 2129657856
I0806 16:44:24.953804 28992 layer_factory.hpp:77] Creating layer conv7
I0806 16:44:24.953819 28992 net.cpp:84] Creating Layer conv7
I0806 16:44:24.953824 28992 net.cpp:406] conv7 <- concat6
I0806 16:44:24.953830 28992 net.cpp:380] conv7 -> conv7
I0806 16:44:24.957221 28992 net.cpp:122] Setting up conv7
I0806 16:44:24.957237 28992 net.cpp:129] Top shape: 12 128 1 8192 (12582912)
I0806 16:44:24.957253 28992 net.cpp:137] Memory required for data: 2179989504
I0806 16:44:24.957271 28992 layer_factory.hpp:77] Creating layer bn7
I0806 16:44:24.957278 28992 net.cpp:84] Creating Layer bn7
I0806 16:44:24.957283 28992 net.cpp:406] bn7 <- conv7
I0806 16:44:24.957288 28992 net.cpp:380] bn7 -> bn7
I0806 16:44:24.957499 28992 net.cpp:122] Setting up bn7
I0806 16:44:24.957507 28992 net.cpp:129] Top shape: 12 128 1 8192 (12582912)
I0806 16:44:24.957510 28992 net.cpp:137] Memory required for data: 2230321152
I0806 16:44:24.957523 28992 layer_factory.hpp:77] Creating layer relu7
I0806 16:44:24.957530 28992 net.cpp:84] Creating Layer relu7
I0806 16:44:24.957535 28992 net.cpp:406] relu7 <- bn7
I0806 16:44:24.957538 28992 net.cpp:367] relu7 -> bn7 (in-place)
I0806 16:44:24.957799 28992 net.cpp:122] Setting up relu7
I0806 16:44:24.957819 28992 net.cpp:129] Top shape: 12 128 1 8192 (12582912)
I0806 16:44:24.957823 28992 net.cpp:137] Memory required for data: 2280652800
I0806 16:44:24.957837 28992 layer_factory.hpp:77] Creating layer conv8
I0806 16:44:24.957849 28992 net.cpp:84] Creating Layer conv8
I0806 16:44:24.957854 28992 net.cpp:406] conv8 <- bn7
I0806 16:44:24.957859 28992 net.cpp:380] conv8 -> conv8
I0806 16:44:24.960433 28992 net.cpp:122] Setting up conv8
I0806 16:44:24.960446 28992 net.cpp:129] Top shape: 12 13 1 8192 (1277952)
I0806 16:44:24.960461 28992 net.cpp:137] Memory required for data: 2285764608
I0806 16:44:24.960467 28992 layer_factory.hpp:77] Creating layer conv8_conv8_0_split
I0806 16:44:24.960474 28992 net.cpp:84] Creating Layer conv8_conv8_0_split
I0806 16:44:24.960479 28992 net.cpp:406] conv8_conv8_0_split <- conv8
I0806 16:44:24.960484 28992 net.cpp:380] conv8_conv8_0_split -> conv8_conv8_0_split_0
I0806 16:44:24.960491 28992 net.cpp:380] conv8_conv8_0_split -> conv8_conv8_0_split_1
I0806 16:44:24.960528 28992 net.cpp:122] Setting up conv8_conv8_0_split
I0806 16:44:24.960536 28992 net.cpp:129] Top shape: 12 13 1 8192 (1277952)
I0806 16:44:24.960539 28992 net.cpp:129] Top shape: 12 13 1 8192 (1277952)
I0806 16:44:24.960542 28992 net.cpp:137] Memory required for data: 2295988224
I0806 16:44:24.960546 28992 layer_factory.hpp:77] Creating layer loss
I0806 16:44:24.960582 28992 net.cpp:84] Creating Layer loss
I0806 16:44:24.960588 28992 net.cpp:406] loss <- conv8_conv8_0_split_0
I0806 16:44:24.960593 28992 net.cpp:406] loss <- label_data_1_split_0
I0806 16:44:24.960598 28992 net.cpp:380] loss -> loss
…
