…
I0817 07:53:03.874022 32031 net.cpp:294] The NetState phase (0) differed from the phase (1) specified by a rule in layer data
I0817 07:53:03.874545 32031 net.cpp:51] Initializing net from parameters: 
state {
  phase: TRAIN
}
layer {
  name: "data"
  type: "Python"
  top: "data"
  top: "label"
  include {
    phase: TRAIN
  }
  python_param {
    module: "dataset_lidar"
    layer: "InputShapenet"
    param_str: "{\'sample_size\': 4096, \'test_area\': \'6\', \'batch_size\': 12, \'feat_dims\': \'x_y_z_r_g_b\', \'subset\': \'train\', \'root\': \'../../data/shapenet_ericyi_ply\', \'jitter_xyz\': 0.01, \'jitter_stretch\': 0.05, \'jitter_rotation\': 5.0}"
  }
}
layer {
  name: "data_feat"
  type: "Python"
  bottom: "data"
  top: "data_feat"
  python_param {
    module: "custom_layers"
    layer: "PickAndScale"
    param_str: "0_1_2"
  }
}
layer {
  name: "conv1"
  type: "Convolution"
  bottom: "data"
  top: "conv1"
  param {
    lr_mult: 1
  }
  param {
    lr_mult: 0.1
  }
  convolution_param {
    num_output: 64
    pad: 0
    kernel_size: 1
    stride: 1
    weight_filler {
      type: "xavier"
    }
    bias_filler {
      type: "constant"
      value: 0
    }
  }
}
layer {
  name: "bn1"
  type: "BatchNorm"
  bottom: "conv1"
  top: "bn1"
}
layer {
  name: "relu1"
  type: "ReLU"
  bottom: "bn1"
  top: "bn1"
}
layer {
  name: "conv1a"
  type: "Convolution"
  bottom: "bn1"
  top: "conv1a"
  param {
    lr_mult: 1
  }
  param {
    lr_mult: 0.1
  }
  convolution_param {
    num_output: 64
    pad: 0
    kernel_size: 1
    stride: 1
    weight_filler {
      type: "xavier"
    }
    bias_filler {
      type: "constant"
      value: 0
    }
  }
}
layer {
  name: "bn1a"
  type: "BatchNorm"
  bottom: "conv1a"
  top: "bn1a"
}
layer {
  name: "relu1a"
  type: "ReLU"
  bottom: "bn1a"
  top: "bn1a"
}
layer {
  name: "fconv1"
  type: "Convolution"
  bottom: "bn1a"
  top: "fconv1"
  param {
    lr_mult: 1
  }
  param {
    lr_mult: 0.1
  }
  convolution_param {
    num_output: 3
    pad: 0
    kernel_size: 1
    stride: 1
    weight_filler {
      type: "xavier"
    }
    bias_filler {
      type: "constant"
      value: 0
    }
  }
}
layer {
  name: "fbn1"
  type: "BatchNorm"
  bottom: "fconv1"
  top: "fbn1"
}
layer {
  name: "frelu1"
  type: "ReLU"
  bottom: "fbn1"
  top: "fbn1"
}
layer {
  name: "fbn1_"
  type: "ReLU2"
  bottom: "fbn1"
  top: "fbn1_"
  relu2_param {
    threshold: 0.2
  }
}
layer {
  name: "feat1"
  type: "Eltwise"
  bottom: "data_feat"
  bottom: "fbn1_"
  top: "feat1"
  eltwise_param {
    operation: SUM
  }
}
layer {
  name: "data_lattice0"
  type: "Python"
  bottom: "feat1"
  top: "data_lattice0"
  python_param {
    module: "custom_layers"
    layer: "PickAndScale"
    param_str: "0*48_1*48_2*48"
  }
}
layer {
  name: "conv2"
  type: "Permutohedral"
  bottom: "bn1a"
  bottom: "data_lattice0"
  bottom: "data_lattice0"
  top: "conv2"
  param {
    lr_mult: 1
    decay_mult: 1
  }
  param {
    lr_mult: 2
    decay_mult: 0
  }
  permutohedral_param {
    num_output: 64
    neighborhood_size: 1
    filter_filler {
      type: "gaussian"
      std: 0.001
    }
    bias_term: true
    bias_filler {
      type: "constant"
      value: 0
    }
    group: 1
    norm_type: AFTER
    offset_type: NONE
  }
}
layer {
  name: "bn2"
  type: "BatchNorm"
  bottom: "conv2"
  top: "bn2"
}
layer {
  name: "relu2"
  type: "ReLU"
  bottom: "bn2"
  top: "bn2"
}
layer {
  name: "fconv2"
  type: "Convolution"
  bottom: "bn2"
  top: "fconv2"
  param {
    lr_mult: 1
  }
  param {
    lr_mult: 0.1
  }
  convolution_param {
    num_output: 3
    pad: 0
    kernel_size: 1
    stride: 1
    weight_filler {
      type: "xavier"
    }
    bias_filler {
      type: "constant"
      value: 0
    }
  }
}
layer {
  name: "fbn2"
  type: "BatchNorm"
  bottom: "fconv2"
  top: "fbn2"
}
layer {
  name: "frelu2"
  type: "ReLU"
  bottom: "fbn2"
  top: "fbn2"
}
layer {
  name: "fbn2_"
  type: "ReLU2"
  bottom: "fbn2"
  top: "fbn2_"
  relu2_param {
    threshold: 0.2
  }
}
layer {
  name: "feat2"
  type: "Eltwise"
  bottom: "data_feat"
  bottom: "fbn2_"
  top: "feat2"
  eltwise_param {
    operation: SUM
  }
}
layer {
  name: "data_lattice1"
  type: "Python"
  bottom: "feat2"
  top: "data_lattice1"
  python_param {
    module: "custom_layers"
    layer: "PickAndScale"
    param_str: "0*24_1*24_2*24"
  }
}
layer {
  name: "conv3"
  type: "Permutohedral"
  bottom: "bn2"
  bottom: "data_lattice1"
  bottom: "data_lattice1"
  top: "conv3"
  param {
    lr_mult: 1
    decay_mult: 1
  }
  param {
    lr_mult: 2
    decay_mult: 0
  }
  permutohedral_param {
    num_output: 128
    neighborhood_size: 1
    filter_filler {
      type: "gaussian"
      std: 0.001
    }
    bias_term: true
    bias_filler {
      type: "constant"
      value: 0
    }
    group: 1
    norm_type: AFTER
    offset_type: NONE
  }
}
layer {
  name: "bn3"
  type: "BatchNorm"
  bottom: "conv3"
  top: "bn3"
}
layer {
  name: "relu3"
  type: "ReLU"
  bottom: "bn3"
  top: "bn3"
}
layer {
  name: "fconv3"
  type: "Convolution"
  bottom: "bn3"
  top: "fconv3"
  param {
    lr_mult: 1
  }
  param {
    lr_mult: 0.1
  }
  convolution_param {
    num_output: 3
    pad: 0
    kernel_size: 1
    stride: 1
    weight_filler {
      type: "xavier"
    }
    bias_filler {
      type: "constant"
      value: 0
    }
  }
}
layer {
  name: "fbn3"
  type: "BatchNorm"
  bottom: "fconv3"
  top: "fbn3"
}
layer {
  name: "frelu3"
  type: "ReLU"
  bottom: "fbn3"
  top: "fbn3"
}
layer {
  name: "fbn3_"
  type: "ReLU2"
  bottom: "fbn3"
  top: "fbn3_"
  relu2_param {
    threshold: 0.2
  }
}
layer {
  name: "feat3"
  type: "Eltwise"
  bottom: "data_feat"
  bottom: "fbn3_"
  top: "feat3"
  eltwise_param {
    operation: SUM
  }
}
layer {
  name: "data_lattice2"
  type: "Python"
  bottom: "feat3"
  top: "data_lattice2"
  python_param {
    module: "custom_layers"
    layer: "PickAndScale"
    param_str: "0*12_1*12_2*12"
  }
}
layer {
  name: "conv4"
  type: "Permutohedral"
  bottom: "bn3"
  bottom: "data_lattice2"
  bottom: "data_lattice2"
  top: "conv4"
  param {
    lr_mult: 1
    decay_mult: 1
  }
  param {
    lr_mult: 2
    decay_mult: 0
  }
  permutohedral_param {
    num_output: 256
    neighborhood_size: 1
    filter_filler {
      type: "gaussian"
      std: 0.001
    }
    bias_term: true
    bias_filler {
      type: "constant"
      value: 0
    }
    group: 1
    norm_type: AFTER
    offset_type: NONE
  }
}
layer {
  name: "bn4"
  type: "BatchNorm"
  bottom: "conv4"
  top: "bn4"
}
layer {
  name: "relu4"
  type: "ReLU"
  bottom: "bn4"
  top: "bn4"
}
layer {
  name: "fconv4"
  type: "Convolution"
  bottom: "bn4"
  top: "fconv4"
  param {
    lr_mult: 1
  }
  param {
    lr_mult: 0.1
  }
  convolution_param {
    num_output: 3
    pad: 0
    kernel_size: 1
    stride: 1
    weight_filler {
      type: "xavier"
    }
    bias_filler {
      type: "constant"
      value: 0
    }
  }
}
layer {
  name: "fbn4"
  type: "BatchNorm"
  bottom: "fconv4"
  top: "fbn4"
}
layer {
  name: "frelu4"
  type: "ReLU"
  bottom: "fbn4"
  top: "fbn4"
}
layer {
  name: "fbn4_"
  type: "ReLU2"
  bottom: "fbn4"
  top: "fbn4_"
  relu2_param {
    threshold: 0.2
  }
}
layer {
  name: "feat4"
  type: "Eltwise"
  bottom: "data_feat"
  bottom: "fbn4_"
  top: "feat4"
  eltwise_param {
    operation: SUM
  }
}
layer {
  name: "data_lattice3"
  type: "Python"
  bottom: "feat4"
  top: "data_lattice3"
  python_param {
    module: "custom_layers"
    layer: "PickAndScale"
    param_str: "0*6_1*6_2*6"
  }
}
layer {
  name: "conv5"
  type: "Permutohedral"
  bottom: "bn4"
  bottom: "data_lattice3"
  bottom: "data_lattice3"
  top: "conv5"
  param {
    lr_mult: 1
    decay_mult: 1
  }
  param {
    lr_mult: 2
    decay_mult: 0
  }
  permutohedral_param {
    num_output: 256
    neighborhood_size: 1
    filter_filler {
      type: "gaussian"
      std: 0.001
    }
    bias_term: true
    bias_filler {
      type: "constant"
      value: 0
    }
    group: 1
    norm_type: AFTER
    offset_type: NONE
  }
}
layer {
  name: "bn5"
  type: "BatchNorm"
  bottom: "conv5"
  top: "bn5"
}
layer {
  name: "relu5"
  type: "ReLU"
  bottom: "bn5"
  top: "bn5"
}
layer {
  name: "fconv5"
  type: "Convolution"
  bottom: "bn5"
  top: "fconv5"
  param {
    lr_mult: 1
  }
  param {
    lr_mult: 0.1
  }
  convolution_param {
    num_output: 3
    pad: 0
    kernel_size: 1
    stride: 1
    weight_filler {
      type: "xavier"
    }
    bias_filler {
      type: "constant"
      value: 0
    }
  }
}
layer {
  name: "fbn5"
  type: "BatchNorm"
  bottom: "fconv5"
  top: "fbn5"
}
layer {
  name: "frelu5"
  type: "ReLU"
  bottom: "fbn5"
  top: "fbn5"
}
layer {
  name: "fbn5_"
  type: "ReLU2"
  bottom: "fbn5"
  top: "fbn5_"
  relu2_param {
    threshold: 0.2
  }
}
layer {
  name: "feat5"
  type: "Eltwise"
  bottom: "data_feat"
  bottom: "fbn5_"
  top: "feat5"
  eltwise_param {
    operation: SUM
  }
}
layer {
  name: "data_lattice4"
  type: "Python"
  bottom: "feat5"
  top: "data_lattice4"
  python_param {
    module: "custom_layers"
    layer: "PickAndScale"
    param_str: "0*3_1*3_2*3"
  }
}
layer {
  name: "conv6"
  type: "Permutohedral"
  bottom: "bn5"
  bottom: "data_lattice4"
  bottom: "data_lattice4"
  top: "conv6"
  param {
    lr_mult: 1
    decay_mult: 1
  }
  param {
    lr_mult: 2
    decay_mult: 0
  }
  permutohedral_param {
    num_output: 256
    neighborhood_size: 1
    filter_filler {
      type: "gaussian"
      std: 0.001
    }
    bias_term: true
    bias_filler {
      type: "constant"
      value: 0
    }
    group: 1
    norm_type: AFTER
    offset_type: NONE
  }
}
layer {
  name: "bn6"
  type: "BatchNorm"
  bottom: "conv6"
  top: "bn6"
}
layer {
  name: "relu6"
  type: "ReLU"
  bottom: "bn6"
  top: "bn6"
}
layer {
  name: "concat6"
  type: "Concat"
  bottom: "bn6"
  bottom: "bn2"
  bottom: "bn3"
  bottom: "bn4"
  bottom: "bn5"
  top: "concat6"
}
layer {
  name: "conv7"
  type: "Convolution"
  bottom: "concat6"
  top: "conv7"
  param {
    lr_mult: 1
  }
  param {
    lr_mult: 0.1
  }
  convolution_param {
    num_output: 128
    pad: 0
    kernel_size: 1
    stride: 1
    weight_filler {
      type: "xavier"
    }
    bias_filler {
      type: "constant"
      value: 0
    }
  }
}
layer {
  name: "bn7"
  type: "BatchNorm"
  bottom: "conv7"
  top: "bn7"
}
layer {
  name: "relu7"
  type: "ReLU"
  bottom: "bn7"
  top: "bn7"
}
layer {
  name: "conv8"
  type: "Convolution"
  bottom: "bn7"
  top: "conv8"
  param {
    lr_mult: 1
  }
  param {
    lr_mult: 0.1
  }
  convolution_param {
    num_output: 13
    pad: 0
    kernel_size: 1
    stride: 1
    weight_filler {
      type: "xavier"
    }
    bias_filler {
      type: "constant"
      value: 0
    }
  }
}
layer {
  name: "loss"
  type: "SoftmaxWithLoss"
  bottom: "conv8"
  bottom: "label"
  top: "loss"
}
layer {
  name: "accuracy"
  type: "Accuracy"
  bottom: "conv8"
  bottom: "label"
  top: "accuracy"
}
I0817 07:53:03.881206 32031 layer_factory.hpp:77] Creating layer data
I0817 07:53:03.916288 32031 net.cpp:84] Creating Layer data
I0817 07:53:03.919170 32031 net.cpp:380] data -> data
I0817 07:53:03.924587 32031 net.cpp:380] data -> label
I0817 07:53:04.498090 32037 upgrade_proto.cpp:1084] Attempting to upgrade input file specified using deprecated 'solver_type' field (enum)': /mnt/lustre/wangjiayun/repos/splatnet/exp/lidar3d/area6/6_solver.prototxt
…
I0817 07:53:04.523689 32033 upgrade_proto.cpp:1091] Successfully upgraded file specified using deprecated 'solver_type' field (enum) to 'type' field (string).
W0817 07:53:04.523694 32033 upgrade_proto.cpp:1093] Note that future Caffe releases will only support 'type' field (string) for a solver's type.
I0817 07:54:24.451907 32037 solver.cpp:190] Creating test net (#0) specified by test_net file: area6_netm6_sumTH0.2.prototxt
I0817 07:54:28.327018 32033 solver.cpp:190] Creating test net (#0) specified by test_net file: area6_netm6_sumTH0.2.prototxt
I0817 07:54:28.442653 32031 net.cpp:122] Setting up data
I0817 07:54:28.442721 32031 net.cpp:129] Top shape: 12 6 1 4096 (294912)
I0817 07:54:28.442730 32031 net.cpp:129] Top shape: 12 1 1 4096 (49152)
I0817 07:54:28.442734 32031 net.cpp:137] Memory required for data: 1376256
I0817 07:54:28.442742 32031 layer_factory.hpp:77] Creating layer data_data_0_split
I0817 07:54:28.442772 32031 net.cpp:84] Creating Layer data_data_0_split
I0817 07:54:28.442778 32031 net.cpp:406] data_data_0_split <- data
I0817 07:54:28.442790 32031 net.cpp:380] data_data_0_split -> data_data_0_split_0
I0817 07:54:28.442801 32031 net.cpp:380] data_data_0_split -> data_data_0_split_1
I0817 07:54:28.442873 32031 net.cpp:122] Setting up data_data_0_split
I0817 07:54:28.442886 32031 net.cpp:129] Top shape: 12 6 1 4096 (294912)
I0817 07:54:28.442890 32031 net.cpp:129] Top shape: 12 6 1 4096 (294912)
I0817 07:54:28.442893 32031 net.cpp:137] Memory required for data: 3735552
I0817 07:54:28.442898 32031 layer_factory.hpp:77] Creating layer label_data_1_split
I0817 07:54:28.442909 32031 net.cpp:84] Creating Layer label_data_1_split
I0817 07:54:28.442917 32031 net.cpp:406] label_data_1_split <- label
I0817 07:54:28.442924 32031 net.cpp:380] label_data_1_split -> label_data_1_split_0
I0817 07:54:28.442930 32031 net.cpp:380] label_data_1_split -> label_data_1_split_1
I0817 07:54:28.442960 32031 net.cpp:122] Setting up label_data_1_split
I0817 07:54:28.442967 32031 net.cpp:129] Top shape: 12 1 1 4096 (49152)
I0817 07:54:28.442971 32031 net.cpp:129] Top shape: 12 1 1 4096 (49152)
I0817 07:54:28.442975 32031 net.cpp:137] Memory required for data: 4128768
I0817 07:54:28.442978 32031 layer_factory.hpp:77] Creating layer data_feat
I0817 07:54:28.452991 32031 net.cpp:84] Creating Layer data_feat
I0817 07:54:28.453030 32031 net.cpp:406] data_feat <- data_data_0_split_0
I0817 07:54:28.453047 32031 net.cpp:380] data_feat -> data_feat
I0817 07:54:28.455523 32031 net.cpp:122] Setting up data_feat
I0817 07:54:28.455555 32031 net.cpp:129] Top shape: 12 3 1 4096 (147456)
I0817 07:54:28.455564 32031 net.cpp:137] Memory required for data: 4718592
I0817 07:54:28.455572 32031 layer_factory.hpp:77] Creating layer data_feat_data_feat_0_split
I0817 07:54:28.455592 32031 net.cpp:84] Creating Layer data_feat_data_feat_0_split
I0817 07:54:28.455601 32031 net.cpp:406] data_feat_data_feat_0_split <- data_feat
I0817 07:54:28.455615 32031 net.cpp:380] data_feat_data_feat_0_split -> data_feat_data_feat_0_split_0
I0817 07:54:28.455629 32031 net.cpp:380] data_feat_data_feat_0_split -> data_feat_data_feat_0_split_1
I0817 07:54:28.455644 32031 net.cpp:380] data_feat_data_feat_0_split -> data_feat_data_feat_0_split_2
I0817 07:54:28.455668 32031 net.cpp:380] data_feat_data_feat_0_split -> data_feat_data_feat_0_split_3
I0817 07:54:28.455679 32031 net.cpp:380] data_feat_data_feat_0_split -> data_feat_data_feat_0_split_4
I0817 07:54:28.455796 32031 net.cpp:122] Setting up data_feat_data_feat_0_split
I0817 07:54:28.455808 32031 net.cpp:129] Top shape: 12 3 1 4096 (147456)
I0817 07:54:28.455817 32031 net.cpp:129] Top shape: 12 3 1 4096 (147456)
I0817 07:54:28.455826 32031 net.cpp:129] Top shape: 12 3 1 4096 (147456)
I0817 07:54:28.455832 32031 net.cpp:129] Top shape: 12 3 1 4096 (147456)
I0817 07:54:28.455838 32031 net.cpp:129] Top shape: 12 3 1 4096 (147456)
I0817 07:54:28.455854 32031 net.cpp:137] Memory required for data: 7667712
I0817 07:54:28.455863 32031 layer_factory.hpp:77] Creating layer conv1
I0817 07:54:28.455929 32031 net.cpp:84] Creating Layer conv1
I0817 07:54:28.455943 32031 net.cpp:406] conv1 <- data_data_0_split_1
I0817 07:54:28.455957 32031 net.cpp:380] conv1 -> conv1
I0817 07:54:29.268698 32031 net.cpp:122] Setting up conv1
I0817 07:54:29.268733 32031 net.cpp:129] Top shape: 12 64 1 4096 (3145728)
I0817 07:54:29.268738 32031 net.cpp:137] Memory required for data: 20250624
I0817 07:54:29.268779 32031 layer_factory.hpp:77] Creating layer bn1
I0817 07:54:29.268806 32031 net.cpp:84] Creating Layer bn1
I0817 07:54:29.268813 32031 net.cpp:406] bn1 <- conv1
I0817 07:54:29.268821 32031 net.cpp:380] bn1 -> bn1
I0817 07:54:29.269093 32031 net.cpp:122] Setting up bn1
I0817 07:54:29.269112 32031 net.cpp:129] Top shape: 12 64 1 4096 (3145728)
I0817 07:54:29.269116 32031 net.cpp:137] Memory required for data: 32833536
I0817 07:54:29.269131 32031 layer_factory.hpp:77] Creating layer relu1
I0817 07:54:29.269176 32031 net.cpp:84] Creating Layer relu1
I0817 07:54:29.269183 32031 net.cpp:406] relu1 <- bn1
I0817 07:54:29.269191 32031 net.cpp:367] relu1 -> bn1 (in-place)
I0817 07:54:29.269553 32031 net.cpp:122] Setting up relu1
I0817 07:54:29.269569 32031 net.cpp:129] Top shape: 12 64 1 4096 (3145728)
I0817 07:54:29.269573 32031 net.cpp:137] Memory required for data: 45416448
I0817 07:54:29.269578 32031 layer_factory.hpp:77] Creating layer conv1a
I0817 07:54:29.269596 32031 net.cpp:84] Creating Layer conv1a
I0817 07:54:29.269601 32031 net.cpp:406] conv1a <- bn1
I0817 07:54:29.269608 32031 net.cpp:380] conv1a -> conv1a
I0817 07:54:29.271617 32031 net.cpp:122] Setting up conv1a
I0817 07:54:29.271634 32031 net.cpp:129] Top shape: 12 64 1 4096 (3145728)
I0817 07:54:29.271639 32031 net.cpp:137] Memory required for data: 57999360
I0817 07:54:29.271648 32031 layer_factory.hpp:77] Creating layer bn1a
I0817 07:54:29.271656 32031 net.cpp:84] Creating Layer bn1a
I0817 07:54:29.271661 32031 net.cpp:406] bn1a <- conv1a
I0817 07:54:29.271667 32031 net.cpp:380] bn1a -> bn1a
I0817 07:54:29.271891 32031 net.cpp:122] Setting up bn1a
I0817 07:54:29.271901 32031 net.cpp:129] Top shape: 12 64 1 4096 (3145728)
I0817 07:54:29.271905 32031 net.cpp:137] Memory required for data: 70582272
I0817 07:54:29.271916 32031 layer_factory.hpp:77] Creating layer relu1a
I0817 07:54:29.271931 32031 net.cpp:84] Creating Layer relu1a
I0817 07:54:29.271939 32031 net.cpp:406] relu1a <- bn1a
I0817 07:54:29.271944 32031 net.cpp:367] relu1a -> bn1a (in-place)
I0817 07:54:29.272240 32031 net.cpp:122] Setting up relu1a
I0817 07:54:29.272253 32031 net.cpp:129] Top shape: 12 64 1 4096 (3145728)
I0817 07:54:29.272258 32031 net.cpp:137] Memory required for data: 83165184
I0817 07:54:29.272269 32031 layer_factory.hpp:77] Creating layer bn1a_relu1a_0_split
I0817 07:54:29.272279 32031 net.cpp:84] Creating Layer bn1a_relu1a_0_split
I0817 07:54:29.272282 32031 net.cpp:406] bn1a_relu1a_0_split <- bn1a
I0817 07:54:29.272289 32031 net.cpp:380] bn1a_relu1a_0_split -> bn1a_relu1a_0_split_0
I0817 07:54:29.272300 32031 net.cpp:380] bn1a_relu1a_0_split -> bn1a_relu1a_0_split_1
I0817 07:54:29.272342 32031 net.cpp:122] Setting up bn1a_relu1a_0_split
I0817 07:54:29.272351 32031 net.cpp:129] Top shape: 12 64 1 4096 (3145728)
I0817 07:54:29.272356 32031 net.cpp:129] Top shape: 12 64 1 4096 (3145728)
I0817 07:54:29.272359 32031 net.cpp:137] Memory required for data: 108331008
I0817 07:54:29.272363 32031 layer_factory.hpp:77] Creating layer fconv1
I0817 07:54:29.272373 32031 net.cpp:84] Creating Layer fconv1
I0817 07:54:29.272378 32031 net.cpp:406] fconv1 <- bn1a_relu1a_0_split_0
I0817 07:54:29.272385 32031 net.cpp:380] fconv1 -> fconv1
I0817 07:54:29.273921 32031 net.cpp:122] Setting up fconv1
I0817 07:54:29.273937 32031 net.cpp:129] Top shape: 12 3 1 4096 (147456)
I0817 07:54:29.273942 32031 net.cpp:137] Memory required for data: 108920832
I0817 07:54:29.273950 32031 layer_factory.hpp:77] Creating layer fbn1
I0817 07:54:29.273957 32031 net.cpp:84] Creating Layer fbn1
I0817 07:54:29.273962 32031 net.cpp:406] fbn1 <- fconv1
I0817 07:54:29.273977 32031 net.cpp:380] fbn1 -> fbn1
I0817 07:54:29.274202 32031 net.cpp:122] Setting up fbn1
I0817 07:54:29.274211 32031 net.cpp:129] Top shape: 12 3 1 4096 (147456)
I0817 07:54:29.274215 32031 net.cpp:137] Memory required for data: 109510656
I0817 07:54:29.274224 32031 layer_factory.hpp:77] Creating layer frelu1
I0817 07:54:29.274237 32031 net.cpp:84] Creating Layer frelu1
I0817 07:54:29.274242 32031 net.cpp:406] frelu1 <- fbn1
I0817 07:54:29.274248 32031 net.cpp:367] frelu1 -> fbn1 (in-place)
I0817 07:54:29.274937 32031 net.cpp:122] Setting up frelu1
I0817 07:54:29.274953 32031 net.cpp:129] Top shape: 12 3 1 4096 (147456)
I0817 07:54:29.274958 32031 net.cpp:137] Memory required for data: 110100480
I0817 07:54:29.274962 32031 layer_factory.hpp:77] Creating layer fbn1_
I0817 07:54:29.275002 32031 net.cpp:84] Creating Layer fbn1_
I0817 07:54:29.275008 32031 net.cpp:406] fbn1_ <- fbn1
I0817 07:54:29.275015 32031 net.cpp:380] fbn1_ -> fbn1_
I0817 07:54:29.275051 32031 net.cpp:122] Setting up fbn1_
I0817 07:54:29.275059 32031 net.cpp:129] Top shape: 12 3 1 4096 (147456)
I0817 07:54:29.275063 32031 net.cpp:137] Memory required for data: 110690304
I0817 07:54:29.275068 32031 layer_factory.hpp:77] Creating layer feat1
I0817 07:54:29.275091 32031 net.cpp:84] Creating Layer feat1
I0817 07:54:29.275099 32031 net.cpp:406] feat1 <- data_feat_data_feat_0_split_0
I0817 07:54:29.275105 32031 net.cpp:406] feat1 <- fbn1_
I0817 07:54:29.275112 32031 net.cpp:380] feat1 -> feat1
I0817 07:54:29.275171 32031 net.cpp:122] Setting up feat1
I0817 07:54:29.275182 32031 net.cpp:129] Top shape: 12 3 1 4096 (147456)
I0817 07:54:29.275184 32031 net.cpp:137] Memory required for data: 111280128
I0817 07:54:29.275188 32031 layer_factory.hpp:77] Creating layer data_lattice0
I0817 07:54:29.275261 32031 net.cpp:84] Creating Layer data_lattice0
I0817 07:54:29.275270 32031 net.cpp:406] data_lattice0 <- feat1
I0817 07:54:29.275285 32031 net.cpp:380] data_lattice0 -> data_lattice0
I0817 07:54:29.275485 32031 net.cpp:122] Setting up data_lattice0
I0817 07:54:29.275497 32031 net.cpp:129] Top shape: 12 3 1 4096 (147456)
I0817 07:54:29.275501 32031 net.cpp:137] Memory required for data: 111869952
I0817 07:54:29.275511 32031 layer_factory.hpp:77] Creating layer data_lattice0_data_lattice0_0_split
I0817 07:54:29.275521 32031 net.cpp:84] Creating Layer data_lattice0_data_lattice0_0_split
I0817 07:54:29.275526 32031 net.cpp:406] data_lattice0_data_lattice0_0_split <- data_lattice0
I0817 07:54:29.275532 32031 net.cpp:380] data_lattice0_data_lattice0_0_split -> data_lattice0_data_lattice0_0_split_0
I0817 07:54:29.275540 32031 net.cpp:380] data_lattice0_data_lattice0_0_split -> data_lattice0_data_lattice0_0_split_1
I0817 07:54:29.275581 32031 net.cpp:122] Setting up data_lattice0_data_lattice0_0_split
I0817 07:54:29.275589 32031 net.cpp:129] Top shape: 12 3 1 4096 (147456)
I0817 07:54:29.275594 32031 net.cpp:129] Top shape: 12 3 1 4096 (147456)
I0817 07:54:29.275598 32031 net.cpp:137] Memory required for data: 113049600
I0817 07:54:29.275602 32031 layer_factory.hpp:77] Creating layer conv2
I0817 07:54:29.275635 32031 net.cpp:84] Creating Layer conv2
I0817 07:54:29.275645 32031 net.cpp:406] conv2 <- bn1a_relu1a_0_split_1
I0817 07:54:29.275650 32031 net.cpp:406] conv2 <- data_lattice0_data_lattice0_0_split_0
I0817 07:54:29.275655 32031 net.cpp:406] conv2 <- data_lattice0_data_lattice0_0_split_1
I0817 07:54:29.275662 32031 net.cpp:380] conv2 -> conv2
I0817 07:54:29.279438 32031 net.cpp:122] Setting up conv2
I0817 07:54:29.279459 32031 net.cpp:129] Top shape: 12 64 1 4096 (3145728)
I0817 07:54:29.279464 32031 net.cpp:137] Memory required for data: 125632512
I0817 07:54:29.279477 32031 layer_factory.hpp:77] Creating layer bn2
I0817 07:54:29.279486 32031 net.cpp:84] Creating Layer bn2
I0817 07:54:29.279491 32031 net.cpp:406] bn2 <- conv2
I0817 07:54:29.279498 32031 net.cpp:380] bn2 -> bn2
I0817 07:54:29.279726 32031 net.cpp:122] Setting up bn2
I0817 07:54:29.279736 32031 net.cpp:129] Top shape: 12 64 1 4096 (3145728)
I0817 07:54:29.279739 32031 net.cpp:137] Memory required for data: 138215424
I0817 07:54:29.279748 32031 layer_factory.hpp:77] Creating layer relu2
I0817 07:54:29.279763 32031 net.cpp:84] Creating Layer relu2
I0817 07:54:29.279769 32031 net.cpp:406] relu2 <- bn2
I0817 07:54:29.279775 32031 net.cpp:367] relu2 -> bn2 (in-place)
I0817 07:54:29.280114 32031 net.cpp:122] Setting up relu2
I0817 07:54:29.280128 32031 net.cpp:129] Top shape: 12 64 1 4096 (3145728)
I0817 07:54:29.280131 32031 net.cpp:137] Memory required for data: 150798336
I0817 07:54:29.280136 32031 layer_factory.hpp:77] Creating layer bn2_relu2_0_split
I0817 07:54:29.280143 32031 net.cpp:84] Creating Layer bn2_relu2_0_split
I0817 07:54:29.280148 32031 net.cpp:406] bn2_relu2_0_split <- bn2
I0817 07:54:29.280154 32031 net.cpp:380] bn2_relu2_0_split -> bn2_relu2_0_split_0
I0817 07:54:29.280163 32031 net.cpp:380] bn2_relu2_0_split -> bn2_relu2_0_split_1
I0817 07:54:29.280169 32031 net.cpp:380] bn2_relu2_0_split -> bn2_relu2_0_split_2
I0817 07:54:29.280228 32031 net.cpp:122] Setting up bn2_relu2_0_split
I0817 07:54:29.280237 32031 net.cpp:129] Top shape: 12 64 1 4096 (3145728)
I0817 07:54:29.280242 32031 net.cpp:129] Top shape: 12 64 1 4096 (3145728)
I0817 07:54:29.280246 32031 net.cpp:129] Top shape: 12 64 1 4096 (3145728)
I0817 07:54:29.280249 32031 net.cpp:137] Memory required for data: 188547072
I0817 07:54:29.280252 32031 layer_factory.hpp:77] Creating layer fconv2
I0817 07:54:29.280264 32031 net.cpp:84] Creating Layer fconv2
I0817 07:54:29.280269 32031 net.cpp:406] fconv2 <- bn2_relu2_0_split_0
I0817 07:54:29.280279 32031 net.cpp:380] fconv2 -> fconv2
I0817 07:54:29.282466 32031 net.cpp:122] Setting up fconv2
I0817 07:54:29.282485 32031 net.cpp:129] Top shape: 12 3 1 4096 (147456)
I0817 07:54:29.282490 32031 net.cpp:137] Memory required for data: 189136896
I0817 07:54:29.282507 32031 layer_factory.hpp:77] Creating layer fbn2
I0817 07:54:29.282517 32031 net.cpp:84] Creating Layer fbn2
I0817 07:54:29.282523 32031 net.cpp:406] fbn2 <- fconv2
I0817 07:54:29.282532 32031 net.cpp:380] fbn2 -> fbn2
I0817 07:54:29.282757 32031 net.cpp:122] Setting up fbn2
I0817 07:54:29.282768 32031 net.cpp:129] Top shape: 12 3 1 4096 (147456)
I0817 07:54:29.282771 32031 net.cpp:137] Memory required for data: 189726720
I0817 07:54:29.282779 32031 layer_factory.hpp:77] Creating layer frelu2
I0817 07:54:29.282793 32031 net.cpp:84] Creating Layer frelu2
I0817 07:54:29.282799 32031 net.cpp:406] frelu2 <- fbn2
I0817 07:54:29.282804 32031 net.cpp:367] frelu2 -> fbn2 (in-place)
I0817 07:54:29.283134 32031 net.cpp:122] Setting up frelu2
I0817 07:54:29.283147 32031 net.cpp:129] Top shape: 12 3 1 4096 (147456)
I0817 07:54:29.283151 32031 net.cpp:137] Memory required for data: 190316544
I0817 07:54:29.283155 32031 layer_factory.hpp:77] Creating layer fbn2_
I0817 07:54:29.283164 32031 net.cpp:84] Creating Layer fbn2_
I0817 07:54:29.283167 32031 net.cpp:406] fbn2_ <- fbn2
I0817 07:54:29.283174 32031 net.cpp:380] fbn2_ -> fbn2_
I0817 07:54:29.283207 32031 net.cpp:122] Setting up fbn2_
I0817 07:54:29.283215 32031 net.cpp:129] Top shape: 12 3 1 4096 (147456)
I0817 07:54:29.283218 32031 net.cpp:137] Memory required for data: 190906368
I0817 07:54:29.283222 32031 layer_factory.hpp:77] Creating layer feat2
I0817 07:54:29.283229 32031 net.cpp:84] Creating Layer feat2
I0817 07:54:29.283234 32031 net.cpp:406] feat2 <- data_feat_data_feat_0_split_1
I0817 07:54:29.283239 32031 net.cpp:406] feat2 <- fbn2_
I0817 07:54:29.283246 32031 net.cpp:380] feat2 -> feat2
I0817 07:54:29.283272 32031 net.cpp:122] Setting up feat2
I0817 07:54:29.283278 32031 net.cpp:129] Top shape: 12 3 1 4096 (147456)
I0817 07:54:29.283282 32031 net.cpp:137] Memory required for data: 191496192
I0817 07:54:29.283294 32031 layer_factory.hpp:77] Creating layer data_lattice1
I0817 07:54:29.283326 32031 net.cpp:84] Creating Layer data_lattice1
I0817 07:54:29.283334 32031 net.cpp:406] data_lattice1 <- feat2
I0817 07:54:29.283342 32031 net.cpp:380] data_lattice1 -> data_lattice1
I0817 07:54:29.284775 32031 net.cpp:122] Setting up data_lattice1
I0817 07:54:29.284795 32031 net.cpp:129] Top shape: 12 3 1 4096 (147456)
I0817 07:54:29.284801 32031 net.cpp:137] Memory required for data: 192086016
I0817 07:54:29.284806 32031 layer_factory.hpp:77] Creating layer data_lattice1_data_lattice1_0_split
I0817 07:54:29.284813 32031 net.cpp:84] Creating Layer data_lattice1_data_lattice1_0_split
I0817 07:54:29.284819 32031 net.cpp:406] data_lattice1_data_lattice1_0_split <- data_lattice1
I0817 07:54:29.284827 32031 net.cpp:380] data_lattice1_data_lattice1_0_split -> data_lattice1_data_lattice1_0_split_0
I0817 07:54:29.284837 32031 net.cpp:380] data_lattice1_data_lattice1_0_split -> data_lattice1_data_lattice1_0_split_1
I0817 07:54:29.284898 32031 net.cpp:122] Setting up data_lattice1_data_lattice1_0_split
I0817 07:54:29.284906 32031 net.cpp:129] Top shape: 12 3 1 4096 (147456)
I0817 07:54:29.284911 32031 net.cpp:129] Top shape: 12 3 1 4096 (147456)
I0817 07:54:29.284915 32031 net.cpp:137] Memory required for data: 193265664
I0817 07:54:29.284919 32031 layer_factory.hpp:77] Creating layer conv3
I0817 07:54:29.284936 32031 net.cpp:84] Creating Layer conv3
I0817 07:54:29.284942 32031 net.cpp:406] conv3 <- bn2_relu2_0_split_1
I0817 07:54:29.284948 32031 net.cpp:406] conv3 <- data_lattice1_data_lattice1_0_split_0
I0817 07:54:29.284955 32031 net.cpp:406] conv3 <- data_lattice1_data_lattice1_0_split_1
I0817 07:54:29.284962 32031 net.cpp:380] conv3 -> conv3
I0817 07:54:29.289546 32031 net.cpp:122] Setting up conv3
I0817 07:54:29.289561 32031 net.cpp:129] Top shape: 12 128 1 4096 (6291456)
I0817 07:54:29.289566 32031 net.cpp:137] Memory required for data: 218431488
I0817 07:54:29.289573 32031 layer_factory.hpp:77] Creating layer bn3
I0817 07:54:29.289582 32031 net.cpp:84] Creating Layer bn3
I0817 07:54:29.289587 32031 net.cpp:406] bn3 <- conv3
I0817 07:54:29.289594 32031 net.cpp:380] bn3 -> bn3
I0817 07:54:29.289813 32031 net.cpp:122] Setting up bn3
I0817 07:54:29.289824 32031 net.cpp:129] Top shape: 12 128 1 4096 (6291456)
I0817 07:54:29.289827 32031 net.cpp:137] Memory required for data: 243597312
I0817 07:54:29.289851 32031 layer_factory.hpp:77] Creating layer relu3
I0817 07:54:29.289865 32031 net.cpp:84] Creating Layer relu3
I0817 07:54:29.289870 32031 net.cpp:406] relu3 <- bn3
I0817 07:54:29.289876 32031 net.cpp:367] relu3 -> bn3 (in-place)
I0817 07:54:29.290235 32031 net.cpp:122] Setting up relu3
I0817 07:54:29.290248 32031 net.cpp:129] Top shape: 12 128 1 4096 (6291456)
I0817 07:54:29.290253 32031 net.cpp:137] Memory required for data: 268763136
I0817 07:54:29.290257 32031 layer_factory.hpp:77] Creating layer bn3_relu3_0_split
I0817 07:54:29.290264 32031 net.cpp:84] Creating Layer bn3_relu3_0_split
I0817 07:54:29.290268 32031 net.cpp:406] bn3_relu3_0_split <- bn3
I0817 07:54:29.290277 32031 net.cpp:380] bn3_relu3_0_split -> bn3_relu3_0_split_0
I0817 07:54:29.290285 32031 net.cpp:380] bn3_relu3_0_split -> bn3_relu3_0_split_1
I0817 07:54:29.290292 32031 net.cpp:380] bn3_relu3_0_split -> bn3_relu3_0_split_2
I0817 07:54:29.290351 32031 net.cpp:122] Setting up bn3_relu3_0_split
I0817 07:54:29.290360 32031 net.cpp:129] Top shape: 12 128 1 4096 (6291456)
I0817 07:54:29.290364 32031 net.cpp:129] Top shape: 12 128 1 4096 (6291456)
I0817 07:54:29.290369 32031 net.cpp:129] Top shape: 12 128 1 4096 (6291456)
I0817 07:54:29.290371 32031 net.cpp:137] Memory required for data: 344260608
I0817 07:54:29.290375 32031 layer_factory.hpp:77] Creating layer fconv3
I0817 07:54:29.290395 32031 net.cpp:84] Creating Layer fconv3
I0817 07:54:29.290402 32031 net.cpp:406] fconv3 <- bn3_relu3_0_split_0
I0817 07:54:29.290416 32031 net.cpp:380] fconv3 -> fconv3
I0817 07:54:29.292497 32031 net.cpp:122] Setting up fconv3
I0817 07:54:29.292515 32031 net.cpp:129] Top shape: 12 3 1 4096 (147456)
I0817 07:54:29.292520 32031 net.cpp:137] Memory required for data: 344850432
I0817 07:54:29.292527 32031 layer_factory.hpp:77] Creating layer fbn3
I0817 07:54:29.292536 32031 net.cpp:84] Creating Layer fbn3
I0817 07:54:29.292541 32031 net.cpp:406] fbn3 <- fconv3
I0817 07:54:29.292548 32031 net.cpp:380] fbn3 -> fbn3
I0817 07:54:29.292780 32031 net.cpp:122] Setting up fbn3
I0817 07:54:29.292790 32031 net.cpp:129] Top shape: 12 3 1 4096 (147456)
I0817 07:54:29.292794 32031 net.cpp:137] Memory required for data: 345440256
I0817 07:54:29.292817 32031 layer_factory.hpp:77] Creating layer frelu3
I0817 07:54:29.292827 32031 net.cpp:84] Creating Layer frelu3
I0817 07:54:29.292832 32031 net.cpp:406] frelu3 <- fbn3
I0817 07:54:29.292838 32031 net.cpp:367] frelu3 -> fbn3 (in-place)
I0817 07:54:29.293184 32031 net.cpp:122] Setting up frelu3
I0817 07:54:29.293197 32031 net.cpp:129] Top shape: 12 3 1 4096 (147456)
I0817 07:54:29.293201 32031 net.cpp:137] Memory required for data: 346030080
I0817 07:54:29.293205 32031 layer_factory.hpp:77] Creating layer fbn3_
I0817 07:54:29.293223 32031 net.cpp:84] Creating Layer fbn3_
I0817 07:54:29.293228 32031 net.cpp:406] fbn3_ <- fbn3
I0817 07:54:29.293237 32031 net.cpp:380] fbn3_ -> fbn3_
I0817 07:54:29.293269 32031 net.cpp:122] Setting up fbn3_
I0817 07:54:29.293279 32031 net.cpp:129] Top shape: 12 3 1 4096 (147456)
I0817 07:54:29.293282 32031 net.cpp:137] Memory required for data: 346619904
I0817 07:54:29.293287 32031 layer_factory.hpp:77] Creating layer feat3
I0817 07:54:29.293294 32031 net.cpp:84] Creating Layer feat3
I0817 07:54:29.293298 32031 net.cpp:406] feat3 <- data_feat_data_feat_0_split_2
I0817 07:54:29.293304 32031 net.cpp:406] feat3 <- fbn3_
I0817 07:54:29.293311 32031 net.cpp:380] feat3 -> feat3
I0817 07:54:29.293341 32031 net.cpp:122] Setting up feat3
I0817 07:54:29.293349 32031 net.cpp:129] Top shape: 12 3 1 4096 (147456)
I0817 07:54:29.293352 32031 net.cpp:137] Memory required for data: 347209728
I0817 07:54:29.293355 32031 layer_factory.hpp:77] Creating layer data_lattice2
I0817 07:54:29.293387 32031 net.cpp:84] Creating Layer data_lattice2
I0817 07:54:29.293395 32031 net.cpp:406] data_lattice2 <- feat3
I0817 07:54:29.293403 32031 net.cpp:380] data_lattice2 -> data_lattice2
I0817 07:54:29.293535 32031 net.cpp:122] Setting up data_lattice2
I0817 07:54:29.293546 32031 net.cpp:129] Top shape: 12 3 1 4096 (147456)
I0817 07:54:29.293551 32031 net.cpp:137] Memory required for data: 347799552
I0817 07:54:29.293562 32031 layer_factory.hpp:77] Creating layer data_lattice2_data_lattice2_0_split
I0817 07:54:29.293570 32031 net.cpp:84] Creating Layer data_lattice2_data_lattice2_0_split
I0817 07:54:29.293576 32031 net.cpp:406] data_lattice2_data_lattice2_0_split <- data_lattice2
I0817 07:54:29.293583 32031 net.cpp:380] data_lattice2_data_lattice2_0_split -> data_lattice2_data_lattice2_0_split_0
I0817 07:54:29.293591 32031 net.cpp:380] data_lattice2_data_lattice2_0_split -> data_lattice2_data_lattice2_0_split_1
I0817 07:54:29.293633 32031 net.cpp:122] Setting up data_lattice2_data_lattice2_0_split
I0817 07:54:29.293642 32031 net.cpp:129] Top shape: 12 3 1 4096 (147456)
I0817 07:54:29.293646 32031 net.cpp:129] Top shape: 12 3 1 4096 (147456)
I0817 07:54:29.293649 32031 net.cpp:137] Memory required for data: 348979200
I0817 07:54:29.293654 32031 layer_factory.hpp:77] Creating layer conv4
I0817 07:54:29.293670 32031 net.cpp:84] Creating Layer conv4
I0817 07:54:29.293678 32031 net.cpp:406] conv4 <- bn3_relu3_0_split_1
I0817 07:54:29.293684 32031 net.cpp:406] conv4 <- data_lattice2_data_lattice2_0_split_0
I0817 07:54:29.293689 32031 net.cpp:406] conv4 <- data_lattice2_data_lattice2_0_split_1
I0817 07:54:29.293699 32031 net.cpp:380] conv4 -> conv4
I0817 07:54:29.313177 32031 net.cpp:122] Setting up conv4
I0817 07:54:29.313217 32031 net.cpp:129] Top shape: 12 256 1 4096 (12582912)
I0817 07:54:29.313222 32031 net.cpp:137] Memory required for data: 399310848
I0817 07:54:29.313235 32031 layer_factory.hpp:77] Creating layer bn4
I0817 07:54:29.313249 32031 net.cpp:84] Creating Layer bn4
I0817 07:54:29.313257 32031 net.cpp:406] bn4 <- conv4
I0817 07:54:29.313266 32031 net.cpp:380] bn4 -> bn4
I0817 07:54:29.313505 32031 net.cpp:122] Setting up bn4
I0817 07:54:29.313515 32031 net.cpp:129] Top shape: 12 256 1 4096 (12582912)
I0817 07:54:29.313519 32031 net.cpp:137] Memory required for data: 449642496
I0817 07:54:29.313527 32031 layer_factory.hpp:77] Creating layer relu4
I0817 07:54:29.313536 32031 net.cpp:84] Creating Layer relu4
I0817 07:54:29.313540 32031 net.cpp:406] relu4 <- bn4
I0817 07:54:29.313546 32031 net.cpp:367] relu4 -> bn4 (in-place)
I0817 07:54:29.313984 32031 net.cpp:122] Setting up relu4
I0817 07:54:29.313998 32031 net.cpp:129] Top shape: 12 256 1 4096 (12582912)
I0817 07:54:29.314002 32031 net.cpp:137] Memory required for data: 499974144
I0817 07:54:29.314029 32031 layer_factory.hpp:77] Creating layer bn4_relu4_0_split
I0817 07:54:29.314038 32031 net.cpp:84] Creating Layer bn4_relu4_0_split
I0817 07:54:29.314043 32031 net.cpp:406] bn4_relu4_0_split <- bn4
I0817 07:54:29.314050 32031 net.cpp:380] bn4_relu4_0_split -> bn4_relu4_0_split_0
I0817 07:54:29.314059 32031 net.cpp:380] bn4_relu4_0_split -> bn4_relu4_0_split_1
I0817 07:54:29.314066 32031 net.cpp:380] bn4_relu4_0_split -> bn4_relu4_0_split_2
I0817 07:54:29.314127 32031 net.cpp:122] Setting up bn4_relu4_0_split
I0817 07:54:29.314136 32031 net.cpp:129] Top shape: 12 256 1 4096 (12582912)
I0817 07:54:29.314141 32031 net.cpp:129] Top shape: 12 256 1 4096 (12582912)
I0817 07:54:29.314144 32031 net.cpp:129] Top shape: 12 256 1 4096 (12582912)
I0817 07:54:29.314147 32031 net.cpp:137] Memory required for data: 650969088
I0817 07:54:29.314152 32031 layer_factory.hpp:77] Creating layer fconv4
I0817 07:54:29.314170 32031 net.cpp:84] Creating Layer fconv4
I0817 07:54:29.314177 32031 net.cpp:406] fconv4 <- bn4_relu4_0_split_0
I0817 07:54:29.314186 32031 net.cpp:380] fconv4 -> fconv4
I0817 07:54:29.316535 32031 net.cpp:122] Setting up fconv4
I0817 07:54:29.316553 32031 net.cpp:129] Top shape: 12 3 1 4096 (147456)
I0817 07:54:29.316558 32031 net.cpp:137] Memory required for data: 651558912
I0817 07:54:29.316566 32031 layer_factory.hpp:77] Creating layer fbn4
I0817 07:54:29.316574 32031 net.cpp:84] Creating Layer fbn4
I0817 07:54:29.316579 32031 net.cpp:406] fbn4 <- fconv4
I0817 07:54:29.316588 32031 net.cpp:380] fbn4 -> fbn4
I0817 07:54:29.316819 32031 net.cpp:122] Setting up fbn4
I0817 07:54:29.316829 32031 net.cpp:129] Top shape: 12 3 1 4096 (147456)
I0817 07:54:29.316833 32031 net.cpp:137] Memory required for data: 652148736
I0817 07:54:29.316848 32031 layer_factory.hpp:77] Creating layer frelu4
I0817 07:54:29.316856 32031 net.cpp:84] Creating Layer frelu4
I0817 07:54:29.316860 32031 net.cpp:406] frelu4 <- fbn4
I0817 07:54:29.316866 32031 net.cpp:367] frelu4 -> fbn4 (in-place)
I0817 07:54:29.317190 32031 net.cpp:122] Setting up frelu4
I0817 07:54:29.317203 32031 net.cpp:129] Top shape: 12 3 1 4096 (147456)
I0817 07:54:29.317209 32031 net.cpp:137] Memory required for data: 652738560
I0817 07:54:29.317220 32031 layer_factory.hpp:77] Creating layer fbn4_
I0817 07:54:29.317229 32031 net.cpp:84] Creating Layer fbn4_
I0817 07:54:29.317239 32031 net.cpp:406] fbn4_ <- fbn4
I0817 07:54:29.317245 32031 net.cpp:380] fbn4_ -> fbn4_
I0817 07:54:29.317277 32031 net.cpp:122] Setting up fbn4_
I0817 07:54:29.317288 32031 net.cpp:129] Top shape: 12 3 1 4096 (147456)
I0817 07:54:29.317292 32031 net.cpp:137] Memory required for data: 653328384
I0817 07:54:29.317296 32031 layer_factory.hpp:77] Creating layer feat4
I0817 07:54:29.317312 32031 net.cpp:84] Creating Layer feat4
I0817 07:54:29.317318 32031 net.cpp:406] feat4 <- data_feat_data_feat_0_split_3
I0817 07:54:29.317324 32031 net.cpp:406] feat4 <- fbn4_
I0817 07:54:29.317332 32031 net.cpp:380] feat4 -> feat4
I0817 07:54:29.317360 32031 net.cpp:122] Setting up feat4
I0817 07:54:29.317368 32031 net.cpp:129] Top shape: 12 3 1 4096 (147456)
I0817 07:54:29.317371 32031 net.cpp:137] Memory required for data: 653918208
I0817 07:54:29.317375 32031 layer_factory.hpp:77] Creating layer data_lattice3
I0817 07:54:29.317437 32031 net.cpp:84] Creating Layer data_lattice3
I0817 07:54:29.317445 32031 net.cpp:406] data_lattice3 <- feat4
I0817 07:54:29.317453 32031 net.cpp:380] data_lattice3 -> data_lattice3
I0817 07:54:29.318903 32031 net.cpp:122] Setting up data_lattice3
I0817 07:54:29.318920 32031 net.cpp:129] Top shape: 12 3 1 4096 (147456)
I0817 07:54:29.318925 32031 net.cpp:137] Memory required for data: 654508032
I0817 07:54:29.318929 32031 layer_factory.hpp:77] Creating layer data_lattice3_data_lattice3_0_split
I0817 07:54:29.318938 32031 net.cpp:84] Creating Layer data_lattice3_data_lattice3_0_split
I0817 07:54:29.318943 32031 net.cpp:406] data_lattice3_data_lattice3_0_split <- data_lattice3
I0817 07:54:29.318962 32031 net.cpp:380] data_lattice3_data_lattice3_0_split -> data_lattice3_data_lattice3_0_split_0
I0817 07:54:29.318972 32031 net.cpp:380] data_lattice3_data_lattice3_0_split -> data_lattice3_data_lattice3_0_split_1
I0817 07:54:29.319017 32031 net.cpp:122] Setting up data_lattice3_data_lattice3_0_split
I0817 07:54:29.319026 32031 net.cpp:129] Top shape: 12 3 1 4096 (147456)
I0817 07:54:29.319031 32031 net.cpp:129] Top shape: 12 3 1 4096 (147456)
I0817 07:54:29.319034 32031 net.cpp:137] Memory required for data: 655687680
I0817 07:54:29.319044 32031 layer_factory.hpp:77] Creating layer conv5
I0817 07:54:29.319053 32031 net.cpp:84] Creating Layer conv5
I0817 07:54:29.319058 32031 net.cpp:406] conv5 <- bn4_relu4_0_split_1
I0817 07:54:29.319066 32031 net.cpp:406] conv5 <- data_lattice3_data_lattice3_0_split_0
I0817 07:54:29.319070 32031 net.cpp:406] conv5 <- data_lattice3_data_lattice3_0_split_1
I0817 07:54:29.319078 32031 net.cpp:380] conv5 -> conv5
I0817 07:54:29.328078 32035 solver.cpp:190] Creating test net (#0) specified by test_net file: area6_netm6_sumTH0.2.prototxt
I0817 07:54:29.356381 32031 net.cpp:122] Setting up conv5
I0817 07:54:29.356428 32031 net.cpp:129] Top shape: 12 256 1 4096 (12582912)
I0817 07:54:29.356434 32031 net.cpp:137] Memory required for data: 706019328
I0817 07:54:29.356447 32031 layer_factory.hpp:77] Creating layer bn5
I0817 07:54:29.356472 32031 net.cpp:84] Creating Layer bn5
I0817 07:54:29.356478 32031 net.cpp:406] bn5 <- conv5
I0817 07:54:29.356488 32031 net.cpp:380] bn5 -> bn5
I0817 07:54:29.356755 32031 net.cpp:122] Setting up bn5
I0817 07:54:29.356766 32031 net.cpp:129] Top shape: 12 256 1 4096 (12582912)
I0817 07:54:29.356770 32031 net.cpp:137] Memory required for data: 756350976
I0817 07:54:29.356778 32031 layer_factory.hpp:77] Creating layer relu5
I0817 07:54:29.356815 32031 net.cpp:84] Creating Layer relu5
I0817 07:54:29.356823 32031 net.cpp:406] relu5 <- bn5
I0817 07:54:29.356829 32031 net.cpp:367] relu5 -> bn5 (in-place)
I0817 07:54:29.357909 32031 net.cpp:122] Setting up relu5
I0817 07:54:29.357939 32031 net.cpp:129] Top shape: 12 256 1 4096 (12582912)
I0817 07:54:29.357944 32031 net.cpp:137] Memory required for data: 806682624
I0817 07:54:29.357949 32031 layer_factory.hpp:77] Creating layer bn5_relu5_0_split
I0817 07:54:29.357966 32031 net.cpp:84] Creating Layer bn5_relu5_0_split
I0817 07:54:29.357971 32031 net.cpp:406] bn5_relu5_0_split <- bn5
I0817 07:54:29.357980 32031 net.cpp:380] bn5_relu5_0_split -> bn5_relu5_0_split_0
I0817 07:54:29.357988 32031 net.cpp:380] bn5_relu5_0_split -> bn5_relu5_0_split_1
I0817 07:54:29.358008 32031 net.cpp:380] bn5_relu5_0_split -> bn5_relu5_0_split_2
I0817 07:54:29.358084 32031 net.cpp:122] Setting up bn5_relu5_0_split
I0817 07:54:29.358093 32031 net.cpp:129] Top shape: 12 256 1 4096 (12582912)
I0817 07:54:29.358099 32031 net.cpp:129] Top shape: 12 256 1 4096 (12582912)
I0817 07:54:29.358104 32031 net.cpp:129] Top shape: 12 256 1 4096 (12582912)
I0817 07:54:29.358109 32031 net.cpp:137] Memory required for data: 957677568
I0817 07:54:29.358112 32031 layer_factory.hpp:77] Creating layer fconv5
I0817 07:54:29.358127 32031 net.cpp:84] Creating Layer fconv5
I0817 07:54:29.358132 32031 net.cpp:406] fconv5 <- bn5_relu5_0_split_0
I0817 07:54:29.358141 32031 net.cpp:380] fconv5 -> fconv5
I0817 07:54:29.359972 32031 net.cpp:122] Setting up fconv5
I0817 07:54:29.359992 32031 net.cpp:129] Top shape: 12 3 1 4096 (147456)
I0817 07:54:29.359997 32031 net.cpp:137] Memory required for data: 958267392
I0817 07:54:29.360004 32031 layer_factory.hpp:77] Creating layer fbn5
I0817 07:54:29.360023 32031 net.cpp:84] Creating Layer fbn5
I0817 07:54:29.360028 32031 net.cpp:406] fbn5 <- fconv5
I0817 07:54:29.360036 32031 net.cpp:380] fbn5 -> fbn5
I0817 07:54:29.360282 32031 net.cpp:122] Setting up fbn5
I0817 07:54:29.360293 32031 net.cpp:129] Top shape: 12 3 1 4096 (147456)
I0817 07:54:29.360299 32031 net.cpp:137] Memory required for data: 958857216
I0817 07:54:29.360308 32031 layer_factory.hpp:77] Creating layer frelu5
I0817 07:54:29.360316 32031 net.cpp:84] Creating Layer frelu5
I0817 07:54:29.360322 32031 net.cpp:406] frelu5 <- fbn5
I0817 07:54:29.360328 32031 net.cpp:367] frelu5 -> fbn5 (in-place)
I0817 07:54:29.360666 32031 net.cpp:122] Setting up frelu5
I0817 07:54:29.360682 32031 net.cpp:129] Top shape: 12 3 1 4096 (147456)
I0817 07:54:29.360692 32031 net.cpp:137] Memory required for data: 959447040
I0817 07:54:29.360697 32031 layer_factory.hpp:77] Creating layer fbn5_
I0817 07:54:29.360705 32031 net.cpp:84] Creating Layer fbn5_
I0817 07:54:29.360710 32031 net.cpp:406] fbn5_ <- fbn5
I0817 07:54:29.360718 32031 net.cpp:380] fbn5_ -> fbn5_
I0817 07:54:29.360754 32031 net.cpp:122] Setting up fbn5_
I0817 07:54:29.360760 32031 net.cpp:129] Top shape: 12 3 1 4096 (147456)
I0817 07:54:29.360764 32031 net.cpp:137] Memory required for data: 960036864
I0817 07:54:29.360767 32031 layer_factory.hpp:77] Creating layer feat5
I0817 07:54:29.360785 32031 net.cpp:84] Creating Layer feat5
I0817 07:54:29.360790 32031 net.cpp:406] feat5 <- data_feat_data_feat_0_split_4
I0817 07:54:29.360800 32031 net.cpp:406] feat5 <- fbn5_
I0817 07:54:29.360807 32031 net.cpp:380] feat5 -> feat5
I0817 07:54:29.360851 32031 net.cpp:122] Setting up feat5
I0817 07:54:29.360868 32031 net.cpp:129] Top shape: 12 3 1 4096 (147456)
I0817 07:54:29.360872 32031 net.cpp:137] Memory required for data: 960626688
I0817 07:54:29.360875 32031 layer_factory.hpp:77] Creating layer data_lattice4
I0817 07:54:29.360926 32031 net.cpp:84] Creating Layer data_lattice4
I0817 07:54:29.360935 32031 net.cpp:406] data_lattice4 <- feat5
I0817 07:54:29.360944 32031 net.cpp:380] data_lattice4 -> data_lattice4
I0817 07:54:29.361153 32031 net.cpp:122] Setting up data_lattice4
I0817 07:54:29.361168 32031 net.cpp:129] Top shape: 12 3 1 4096 (147456)
I0817 07:54:29.361172 32031 net.cpp:137] Memory required for data: 961216512
I0817 07:54:29.361176 32031 layer_factory.hpp:77] Creating layer data_lattice4_data_lattice4_0_split
I0817 07:54:29.361184 32031 net.cpp:84] Creating Layer data_lattice4_data_lattice4_0_split
I0817 07:54:29.361189 32031 net.cpp:406] data_lattice4_data_lattice4_0_split <- data_lattice4
I0817 07:54:29.361196 32031 net.cpp:380] data_lattice4_data_lattice4_0_split -> data_lattice4_data_lattice4_0_split_0
I0817 07:54:29.361204 32031 net.cpp:380] data_lattice4_data_lattice4_0_split -> data_lattice4_data_lattice4_0_split_1
I0817 07:54:29.361253 32031 net.cpp:122] Setting up data_lattice4_data_lattice4_0_split
I0817 07:54:29.361261 32031 net.cpp:129] Top shape: 12 3 1 4096 (147456)
I0817 07:54:29.361268 32031 net.cpp:129] Top shape: 12 3 1 4096 (147456)
I0817 07:54:29.361270 32031 net.cpp:137] Memory required for data: 962396160
I0817 07:54:29.361274 32031 layer_factory.hpp:77] Creating layer conv6
I0817 07:54:29.361287 32031 net.cpp:84] Creating Layer conv6
I0817 07:54:29.361292 32031 net.cpp:406] conv6 <- bn5_relu5_0_split_1
I0817 07:54:29.361299 32031 net.cpp:406] conv6 <- data_lattice4_data_lattice4_0_split_0
I0817 07:54:29.361304 32031 net.cpp:406] conv6 <- data_lattice4_data_lattice4_0_split_1
I0817 07:54:29.361312 32031 net.cpp:380] conv6 -> conv6
I0817 07:54:29.399245 32031 net.cpp:122] Setting up conv6
I0817 07:54:29.399297 32031 net.cpp:129] Top shape: 12 256 1 4096 (12582912)
I0817 07:54:29.399303 32031 net.cpp:137] Memory required for data: 1012727808
I0817 07:54:29.399315 32031 layer_factory.hpp:77] Creating layer bn6
I0817 07:54:29.399344 32031 net.cpp:84] Creating Layer bn6
I0817 07:54:29.399351 32031 net.cpp:406] bn6 <- conv6
I0817 07:54:29.399363 32031 net.cpp:380] bn6 -> bn6
I0817 07:54:29.399611 32031 net.cpp:122] Setting up bn6
I0817 07:54:29.399621 32031 net.cpp:129] Top shape: 12 256 1 4096 (12582912)
I0817 07:54:29.399626 32031 net.cpp:137] Memory required for data: 1063059456
I0817 07:54:29.399634 32031 layer_factory.hpp:77] Creating layer relu6
I0817 07:54:29.399667 32031 net.cpp:84] Creating Layer relu6
I0817 07:54:29.399673 32031 net.cpp:406] relu6 <- bn6
I0817 07:54:29.399682 32031 net.cpp:367] relu6 -> bn6 (in-place)
I0817 07:54:29.400830 32031 net.cpp:122] Setting up relu6
I0817 07:54:29.400862 32031 net.cpp:129] Top shape: 12 256 1 4096 (12582912)
I0817 07:54:29.400867 32031 net.cpp:137] Memory required for data: 1113391104
I0817 07:54:29.400872 32031 layer_factory.hpp:77] Creating layer concat6
I0817 07:54:29.400960 32031 net.cpp:84] Creating Layer concat6
I0817 07:54:29.400969 32031 net.cpp:406] concat6 <- bn6
I0817 07:54:29.400976 32031 net.cpp:406] concat6 <- bn2_relu2_0_split_2
I0817 07:54:29.400982 32031 net.cpp:406] concat6 <- bn3_relu3_0_split_2
I0817 07:54:29.400987 32031 net.cpp:406] concat6 <- bn4_relu4_0_split_2
I0817 07:54:29.400991 32031 net.cpp:406] concat6 <- bn5_relu5_0_split_2
I0817 07:54:29.400998 32031 net.cpp:380] concat6 -> concat6
I0817 07:54:29.401057 32031 net.cpp:122] Setting up concat6
I0817 07:54:29.401068 32031 net.cpp:129] Top shape: 12 960 1 4096 (47185920)
I0817 07:54:29.401072 32031 net.cpp:137] Memory required for data: 1302134784
I0817 07:54:29.401087 32031 layer_factory.hpp:77] Creating layer conv7
I0817 07:54:29.401115 32031 net.cpp:84] Creating Layer conv7
I0817 07:54:29.401121 32031 net.cpp:406] conv7 <- concat6
I0817 07:54:29.401131 32031 net.cpp:380] conv7 -> conv7
I0817 07:54:29.404014 32031 net.cpp:122] Setting up conv7
I0817 07:54:29.404044 32031 net.cpp:129] Top shape: 12 128 1 4096 (6291456)
I0817 07:54:29.404049 32031 net.cpp:137] Memory required for data: 1327300608
I0817 07:54:29.404059 32031 layer_factory.hpp:77] Creating layer bn7
I0817 07:54:29.404068 32031 net.cpp:84] Creating Layer bn7
I0817 07:54:29.404073 32031 net.cpp:406] bn7 <- conv7
I0817 07:54:29.404088 32031 net.cpp:380] bn7 -> bn7
I0817 07:54:29.404335 32031 net.cpp:122] Setting up bn7
I0817 07:54:29.404345 32031 net.cpp:129] Top shape: 12 128 1 4096 (6291456)
I0817 07:54:29.404348 32031 net.cpp:137] Memory required for data: 1352466432
I0817 07:54:29.404377 32031 layer_factory.hpp:77] Creating layer relu7
I0817 07:54:29.404389 32031 net.cpp:84] Creating Layer relu7
I0817 07:54:29.404393 32031 net.cpp:406] relu7 <- bn7
I0817 07:54:29.404399 32031 net.cpp:367] relu7 -> bn7 (in-place)
I0817 07:54:29.404748 32031 net.cpp:122] Setting up relu7
I0817 07:54:29.404762 32031 net.cpp:129] Top shape: 12 128 1 4096 (6291456)
I0817 07:54:29.404767 32031 net.cpp:137] Memory required for data: 1377632256
I0817 07:54:29.404770 32031 layer_factory.hpp:77] Creating layer conv8
I0817 07:54:29.404795 32031 net.cpp:84] Creating Layer conv8
I0817 07:54:29.404803 32031 net.cpp:406] conv8 <- bn7
I0817 07:54:29.404811 32031 net.cpp:380] conv8 -> conv8
I0817 07:54:29.406991 32031 net.cpp:122] Setting up conv8
I0817 07:54:29.407009 32031 net.cpp:129] Top shape: 12 13 1 4096 (638976)
I0817 07:54:29.407014 32031 net.cpp:137] Memory required for data: 1380188160
I0817 07:54:29.407023 32031 layer_factory.hpp:77] Creating layer conv8_conv8_0_split
I0817 07:54:29.407033 32031 net.cpp:84] Creating Layer conv8_conv8_0_split
I0817 07:54:29.407039 32031 net.cpp:406] conv8_conv8_0_split <- conv8
I0817 07:54:29.407047 32031 net.cpp:380] conv8_conv8_0_split -> conv8_conv8_0_split_0
I0817 07:54:29.407058 32031 net.cpp:380] conv8_conv8_0_split -> conv8_conv8_0_split_1
I0817 07:54:29.407105 32031 net.cpp:122] Setting up conv8_conv8_0_split
I0817 07:54:29.407114 32031 net.cpp:129] Top shape: 12 13 1 4096 (638976)
I0817 07:54:29.407119 32031 net.cpp:129] Top shape: 12 13 1 4096 (638976)
I0817 07:54:29.407122 32031 net.cpp:137] Memory required for data: 1385299968
I0817 07:54:29.407125 32031 layer_factory.hpp:77] Creating layer loss
I0817 07:54:29.407179 32031 net.cpp:84] Creating Layer loss
I0817 07:54:29.407188 32031 net.cpp:406] loss <- conv8_conv8_0_split_0
I0817 07:54:29.407194 32031 net.cpp:406] loss <- label_data_1_split_0
I0817 07:54:29.407202 32031 net.cpp:380] loss -> loss
…
