…
I0729 00:09:31.003352 26877 net.cpp:294] The NetState phase (0) differed from the phase (1) specified by a rule in layer data
I0729 00:09:31.004015 26877 net.cpp:51] Initializing net from parameters: 
state {
  phase: TRAIN
}
layer {
  name: "data"
  type: "Python"
  top: "data"
  top: "label"
  include {
    phase: TRAIN
  }
  python_param {
    module: "dataset_lidar"
    layer: "InputShapenet"
    param_str: "{\'sample_size\': 70000, \'test_area\': \'6\', \'batch_size\': 1, \'feat_dims\': \'x_y_z\', \'subset\': \'train\', \'root\': \'../../data/shapenet_ericyi_ply\', \'jitter_xyz\': 0.01, \'jitter_stretch\': 0.05, \'jitter_rotation\': 5.0}"
  }
}
layer {
  name: "data_feat"
  type: "Python"
  bottom: "data"
  top: "data_feat"
  python_param {
    module: "custom_layers"
    layer: "PickAndScale"
    param_str: "0_1_2"
  }
}
layer {
  name: "conv1"
  type: "Convolution"
  bottom: "data_feat"
  top: "conv1"
  param {
    lr_mult: 1
  }
  param {
    lr_mult: 0.1
  }
  convolution_param {
    num_output: 32
    pad: 0
    kernel_size: 1
    stride: 1
    weight_filler {
      type: "xavier"
    }
    bias_filler {
      type: "constant"
      value: 0
    }
  }
}
layer {
  name: "bn1"
  type: "BatchNorm"
  bottom: "conv1"
  top: "bn1"
}
layer {
  name: "relu1"
  type: "ReLU"
  bottom: "bn1"
  top: "bn1"
}
layer {
  name: "fconv1"
  type: "Convolution"
  bottom: "bn1"
  top: "fconv1"
  param {
    lr_mult: 0.5
  }
  param {
    lr_mult: 0.05
  }
  convolution_param {
    num_output: 3
    pad: 0
    kernel_size: 1
    stride: 1
    weight_filler {
      type: "xavier"
    }
    bias_filler {
      type: "constant"
      value: 0
    }
  }
}
layer {
  name: "fbn1"
  type: "BatchNorm"
  bottom: "fconv1"
  top: "fbn1"
}
layer {
  name: "frelu1"
  type: "ReLU"
  bottom: "fbn1"
  top: "fbn1"
}
layer {
  name: "data_lattice0"
  type: "Python"
  bottom: "data"
  top: "data_lattice0"
  python_param {
    module: "custom_layers"
    layer: "PickAndScale"
    param_str: "0*48_1*48_2*48"
  }
}
layer {
  name: "feat1"
  type: "Eltwise"
  bottom: "data_lattice0"
  bottom: "fbn1"
  top: "feat1"
  eltwise_param {
    operation: SUM
  }
}
layer {
  name: "conv2"
  type: "Permutohedral"
  bottom: "bn1"
  bottom: "feat1"
  bottom: "feat1"
  top: "conv2"
  param {
    lr_mult: 1
    decay_mult: 1
  }
  param {
    lr_mult: 2
    decay_mult: 0
  }
  permutohedral_param {
    num_output: 64
    neighborhood_size: 4
    filter_filler {
      type: "gaussian"
      std: 0.001
    }
    bias_term: true
    bias_filler {
      type: "constant"
      value: 0
    }
    group: 1
    norm_type: AFTER
    offset_type: NONE
  }
}
layer {
  name: "bn2"
  type: "BatchNorm"
  bottom: "conv2"
  top: "bn2"
}
layer {
  name: "relu2"
  type: "ReLU"
  bottom: "bn2"
  top: "bn2"
}
layer {
  name: "fconv2"
  type: "Convolution"
  bottom: "bn2"
  top: "fconv2"
  param {
    lr_mult: 0.5
  }
  param {
    lr_mult: 0.05
  }
  convolution_param {
    num_output: 3
    pad: 0
    kernel_size: 1
    stride: 1
    weight_filler {
      type: "xavier"
    }
    bias_filler {
      type: "constant"
      value: 0
    }
  }
}
layer {
  name: "fbn2"
  type: "BatchNorm"
  bottom: "fconv2"
  top: "fbn2"
}
layer {
  name: "frelu2"
  type: "ReLU"
  bottom: "fbn2"
  top: "fbn2"
}
layer {
  name: "data_lattice1"
  type: "Python"
  bottom: "data"
  top: "data_lattice1"
  python_param {
    module: "custom_layers"
    layer: "PickAndScale"
    param_str: "0*24_1*24_2*24"
  }
}
layer {
  name: "feat2"
  type: "Eltwise"
  bottom: "data_lattice1"
  bottom: "fbn2"
  top: "feat2"
  eltwise_param {
    operation: SUM
  }
}
layer {
  name: "conv3"
  type: "Permutohedral"
  bottom: "bn2"
  bottom: "feat2"
  bottom: "feat2"
  top: "conv3"
  param {
    lr_mult: 1
    decay_mult: 1
  }
  param {
    lr_mult: 2
    decay_mult: 0
  }
  permutohedral_param {
    num_output: 128
    neighborhood_size: 4
    filter_filler {
      type: "gaussian"
      std: 0.001
    }
    bias_term: true
    bias_filler {
      type: "constant"
      value: 0
    }
    group: 1
    norm_type: AFTER
    offset_type: NONE
  }
}
layer {
  name: "bn3"
  type: "BatchNorm"
  bottom: "conv3"
  top: "bn3"
}
layer {
  name: "relu3"
  type: "ReLU"
  bottom: "bn3"
  top: "bn3"
}
layer {
  name: "fconv3"
  type: "Convolution"
  bottom: "bn3"
  top: "fconv3"
  param {
    lr_mult: 0.5
  }
  param {
    lr_mult: 0.05
  }
  convolution_param {
    num_output: 3
    pad: 0
    kernel_size: 1
    stride: 1
    weight_filler {
      type: "xavier"
    }
    bias_filler {
      type: "constant"
      value: 0
    }
  }
}
layer {
  name: "fbn3"
  type: "BatchNorm"
  bottom: "fconv3"
  top: "fbn3"
}
layer {
  name: "frelu3"
  type: "ReLU"
  bottom: "fbn3"
  top: "fbn3"
}
layer {
  name: "data_lattice2"
  type: "Python"
  bottom: "data"
  top: "data_lattice2"
  python_param {
    module: "custom_layers"
    layer: "PickAndScale"
    param_str: "0*12_1*12_2*12"
  }
}
layer {
  name: "feat3"
  type: "Eltwise"
  bottom: "data_lattice2"
  bottom: "fbn3"
  top: "feat3"
  eltwise_param {
    operation: SUM
  }
}
layer {
  name: "conv4"
  type: "Permutohedral"
  bottom: "bn3"
  bottom: "feat3"
  bottom: "feat3"
  top: "conv4"
  param {
    lr_mult: 1
    decay_mult: 1
  }
  param {
    lr_mult: 2
    decay_mult: 0
  }
  permutohedral_param {
    num_output: 256
    neighborhood_size: 2
    filter_filler {
      type: "gaussian"
      std: 0.001
    }
    bias_term: true
    bias_filler {
      type: "constant"
      value: 0
    }
    group: 1
    norm_type: AFTER
    offset_type: NONE
  }
}
layer {
  name: "bn4"
  type: "BatchNorm"
  bottom: "conv4"
  top: "bn4"
}
layer {
  name: "relu4"
  type: "ReLU"
  bottom: "bn4"
  top: "bn4"
}
layer {
  name: "fconv4"
  type: "Convolution"
  bottom: "bn4"
  top: "fconv4"
  param {
    lr_mult: 0.5
  }
  param {
    lr_mult: 0.05
  }
  convolution_param {
    num_output: 3
    pad: 0
    kernel_size: 1
    stride: 1
    weight_filler {
      type: "xavier"
    }
    bias_filler {
      type: "constant"
      value: 0
    }
  }
}
layer {
  name: "fbn4"
  type: "BatchNorm"
  bottom: "fconv4"
  top: "fbn4"
}
layer {
  name: "frelu4"
  type: "ReLU"
  bottom: "fbn4"
  top: "fbn4"
}
layer {
  name: "data_lattice3"
  type: "Python"
  bottom: "data"
  top: "data_lattice3"
  python_param {
    module: "custom_layers"
    layer: "PickAndScale"
    param_str: "0*6_1*6_2*6"
  }
}
layer {
  name: "feat4"
  type: "Eltwise"
  bottom: "data_lattice3"
  bottom: "fbn4"
  top: "feat4"
  eltwise_param {
    operation: SUM
  }
}
layer {
  name: "conv5"
  type: "Permutohedral"
  bottom: "bn4"
  bottom: "feat4"
  bottom: "feat4"
  top: "conv5"
  param {
    lr_mult: 1
    decay_mult: 1
  }
  param {
    lr_mult: 2
    decay_mult: 0
  }
  permutohedral_param {
    num_output: 256
    neighborhood_size: 2
    filter_filler {
      type: "gaussian"
      std: 0.001
    }
    bias_term: true
    bias_filler {
      type: "constant"
      value: 0
    }
    group: 1
    norm_type: AFTER
    offset_type: NONE
  }
}
layer {
  name: "bn5"
  type: "BatchNorm"
  bottom: "conv5"
  top: "bn5"
}
layer {
  name: "relu5"
  type: "ReLU"
  bottom: "bn5"
  top: "bn5"
}
layer {
  name: "fconv5"
  type: "Convolution"
  bottom: "bn5"
  top: "fconv5"
  param {
    lr_mult: 0.5
  }
  param {
    lr_mult: 0.05
  }
  convolution_param {
    num_output: 3
    pad: 0
    kernel_size: 1
    stride: 1
    weight_filler {
      type: "xavier"
    }
    bias_filler {
      type: "constant"
      value: 0
    }
  }
}
layer {
  name: "fbn5"
  type: "BatchNorm"
  bottom: "fconv5"
  top: "fbn5"
}
layer {
  name: "frelu5"
  type: "ReLU"
  bottom: "fbn5"
  top: "fbn5"
}
layer {
  name: "data_lattice4"
  type: "Python"
  bottom: "data"
  top: "data_lattice4"
  python_param {
    module: "custom_layers"
    layer: "PickAndScale"
    param_str: "0*3_1*3_2*3"
  }
}
layer {
  name: "feat5"
  type: "Eltwise"
  bottom: "data_lattice4"
  bottom: "fbn5"
  top: "feat5"
  eltwise_param {
    operation: SUM
  }
}
layer {
  name: "conv6"
  type: "Permutohedral"
  bottom: "bn5"
  bottom: "feat5"
  bottom: "feat5"
  top: "conv6"
  param {
    lr_mult: 1
    decay_mult: 1
  }
  param {
    lr_mult: 2
    decay_mult: 0
  }
  permutohedral_param {
    num_output: 256
    neighborhood_size: 1
    filter_filler {
      type: "gaussian"
      std: 0.001
    }
    bias_term: true
    bias_filler {
      type: "constant"
      value: 0
    }
    group: 1
    norm_type: AFTER
    offset_type: NONE
  }
}
layer {
  name: "bn6"
  type: "BatchNorm"
  bottom: "conv6"
  top: "bn6"
}
layer {
  name: "relu6"
  type: "ReLU"
  bottom: "bn6"
  top: "bn6"
}
layer {
  name: "concat6"
  type: "Concat"
  bottom: "bn6"
  bottom: "bn2"
  bottom: "bn3"
  bottom: "bn4"
  bottom: "bn5"
  top: "concat6"
}
layer {
  name: "conv7"
  type: "Convolution"
  bottom: "concat6"
  top: "conv7"
  param {
    lr_mult: 1
  }
  param {
    lr_mult: 0.1
  }
  convolution_param {
    num_output: 128
    pad: 0
    kernel_size: 1
    stride: 1
    weight_filler {
      type: "xavier"
    }
    bias_filler {
      type: "constant"
      value: 0
    }
  }
}
layer {
  name: "bn7"
  type: "BatchNorm"
  bottom: "conv7"
  top: "bn7"
}
layer {
  name: "relu7"
  type: "ReLU"
  bottom: "bn7"
  top: "bn7"
}
layer {
  name: "conv8"
  type: "Convolution"
  bottom: "bn7"
  top: "conv8"
  param {
    lr_mult: 1
  }
  param {
    lr_mult: 0.1
  }
  convolution_param {
    num_output: 13
    pad: 0
    kernel_size: 1
    stride: 1
    weight_filler {
      type: "xavier"
    }
    bias_filler {
      type: "constant"
      value: 0
    }
  }
}
layer {
  name: "loss"
  type: "SoftmaxWithLoss"
  bottom: "conv8"
  bottom: "label"
  top: "loss"
}
layer {
  name: "accuracy"
  type: "Accuracy"
  bottom: "conv8"
  bottom: "label"
  top: "accuracy"
}
I0729 00:09:31.023540 26877 layer_factory.hpp:77] Creating layer data
I0729 00:09:31.051707 26877 net.cpp:84] Creating Layer data
I0729 00:09:31.051771 26877 net.cpp:380] data -> data
I0729 00:09:31.051908 26877 net.cpp:380] data -> label
I0729 00:09:31.472342 26881 upgrade_proto.cpp:1084] Attempting to upgrade input file specified using deprecated 'solver_type' field (enum)': /mnt/lustre/wangjiayun/repos/splatnet/exp/lidar3d/area6/6_solver.prototxt
…
I0729 00:09:31.495546 26879 upgrade_proto.cpp:1084] Attempting to upgrade input file specified using deprecated 'solver_type' field (enum)': /mnt/lustre/wangjiayun/repos/splatnet/exp/lidar3d/area6/6_solver.prototxt
I0729 00:09:31.495630 26879 upgrade_proto.cpp:1091] Successfully upgraded file specified using deprecated 'solver_type' field (enum) to 'type' field (string).
W0729 00:09:31.495637 26879 upgrade_proto.cpp:1093] Note that future Caffe releases will only support 'type' field (string) for a solver's type.
I0729 00:17:01.874063 26877 net.cpp:122] Setting up data
I0729 00:17:01.879727 26877 net.cpp:129] Top shape: 1 3 1 70000 (210000)
I0729 00:17:01.879751 26877 net.cpp:129] Top shape: 1 1 1 70000 (70000)
I0729 00:17:01.879760 26877 net.cpp:137] Memory required for data: 1120000
I0729 00:17:01.879869 26877 layer_factory.hpp:77] Creating layer data_data_0_split
I0729 00:17:01.880095 26877 net.cpp:84] Creating Layer data_data_0_split
I0729 00:17:01.880380 26877 net.cpp:406] data_data_0_split <- data
I0729 00:17:01.880468 26877 net.cpp:380] data_data_0_split -> data_data_0_split_0
I0729 00:17:01.888887 26877 net.cpp:380] data_data_0_split -> data_data_0_split_1
I0729 00:17:01.888911 26877 net.cpp:380] data_data_0_split -> data_data_0_split_2
I0729 00:17:01.888924 26877 net.cpp:380] data_data_0_split -> data_data_0_split_3
I0729 00:17:01.888934 26877 net.cpp:380] data_data_0_split -> data_data_0_split_4
I0729 00:17:01.888952 26877 net.cpp:380] data_data_0_split -> data_data_0_split_5
I0729 00:17:01.898875 26877 net.cpp:122] Setting up data_data_0_split
I0729 00:17:01.898898 26877 net.cpp:129] Top shape: 1 3 1 70000 (210000)
I0729 00:17:01.898907 26877 net.cpp:129] Top shape: 1 3 1 70000 (210000)
I0729 00:17:01.898916 26877 net.cpp:129] Top shape: 1 3 1 70000 (210000)
I0729 00:17:01.898923 26877 net.cpp:129] Top shape: 1 3 1 70000 (210000)
I0729 00:17:01.898929 26877 net.cpp:129] Top shape: 1 3 1 70000 (210000)
I0729 00:17:01.898936 26877 net.cpp:129] Top shape: 1 3 1 70000 (210000)
I0729 00:17:01.898943 26877 net.cpp:137] Memory required for data: 6160000
I0729 00:17:01.898949 26877 layer_factory.hpp:77] Creating layer label_data_1_split
I0729 00:17:01.898967 26877 net.cpp:84] Creating Layer label_data_1_split
I0729 00:17:01.898972 26877 net.cpp:406] label_data_1_split <- label
I0729 00:17:01.898988 26877 net.cpp:380] label_data_1_split -> label_data_1_split_0
I0729 00:17:01.899000 26877 net.cpp:380] label_data_1_split -> label_data_1_split_1
I0729 00:17:01.899051 26877 net.cpp:122] Setting up label_data_1_split
I0729 00:17:01.899065 26877 net.cpp:129] Top shape: 1 1 1 70000 (70000)
I0729 00:17:01.899072 26877 net.cpp:129] Top shape: 1 1 1 70000 (70000)
I0729 00:17:01.899077 26877 net.cpp:137] Memory required for data: 6720000
I0729 00:17:01.899082 26877 layer_factory.hpp:77] Creating layer data_feat
I0729 00:17:01.934655 26877 net.cpp:84] Creating Layer data_feat
I0729 00:17:01.934684 26877 net.cpp:406] data_feat <- data_data_0_split_0
I0729 00:17:01.934693 26877 net.cpp:380] data_feat -> data_feat
I0729 00:17:01.952299 26877 net.cpp:122] Setting up data_feat
I0729 00:17:01.952332 26877 net.cpp:129] Top shape: 1 3 1 70000 (210000)
I0729 00:17:01.952343 26877 net.cpp:137] Memory required for data: 7560000
I0729 00:17:01.952355 26877 layer_factory.hpp:77] Creating layer conv1
I0729 00:17:01.969241 26877 net.cpp:84] Creating Layer conv1
I0729 00:17:01.969270 26877 net.cpp:406] conv1 <- data_feat
I0729 00:17:01.969288 26877 net.cpp:380] conv1 -> conv1
I0729 00:17:07.007943 26877 net.cpp:122] Setting up conv1
I0729 00:17:07.008049 26877 net.cpp:129] Top shape: 1 32 1 70000 (2240000)
I0729 00:17:07.008060 26877 net.cpp:137] Memory required for data: 16520000
I0729 00:17:07.017933 26877 layer_factory.hpp:77] Creating layer bn1
I0729 00:17:07.019081 26877 net.cpp:84] Creating Layer bn1
I0729 00:17:07.019124 26877 net.cpp:406] bn1 <- conv1
I0729 00:17:07.019165 26877 net.cpp:380] bn1 -> bn1
I0729 00:17:07.036605 26877 net.cpp:122] Setting up bn1
I0729 00:17:07.036646 26877 net.cpp:129] Top shape: 1 32 1 70000 (2240000)
I0729 00:17:07.036656 26877 net.cpp:137] Memory required for data: 25480000
I0729 00:17:07.036682 26877 layer_factory.hpp:77] Creating layer relu1
I0729 00:17:07.037864 26877 net.cpp:84] Creating Layer relu1
I0729 00:17:07.037894 26877 net.cpp:406] relu1 <- bn1
I0729 00:17:07.037909 26877 net.cpp:367] relu1 -> bn1 (in-place)
I0729 00:17:07.046845 26877 net.cpp:122] Setting up relu1
I0729 00:17:07.046878 26877 net.cpp:129] Top shape: 1 32 1 70000 (2240000)
I0729 00:17:07.046890 26877 net.cpp:137] Memory required for data: 34440000
I0729 00:17:07.046902 26877 layer_factory.hpp:77] Creating layer bn1_relu1_0_split
I0729 00:17:07.046917 26877 net.cpp:84] Creating Layer bn1_relu1_0_split
I0729 00:17:07.046926 26877 net.cpp:406] bn1_relu1_0_split <- bn1
I0729 00:17:07.046938 26877 net.cpp:380] bn1_relu1_0_split -> bn1_relu1_0_split_0
I0729 00:17:07.046955 26877 net.cpp:380] bn1_relu1_0_split -> bn1_relu1_0_split_1
I0729 00:17:07.047035 26877 net.cpp:122] Setting up bn1_relu1_0_split
I0729 00:17:07.047052 26877 net.cpp:129] Top shape: 1 32 1 70000 (2240000)
I0729 00:17:07.047062 26877 net.cpp:129] Top shape: 1 32 1 70000 (2240000)
I0729 00:17:07.047070 26877 net.cpp:137] Memory required for data: 52360000
I0729 00:17:07.047077 26877 layer_factory.hpp:77] Creating layer fconv1
I0729 00:17:07.047101 26877 net.cpp:84] Creating Layer fconv1
I0729 00:17:07.047112 26877 net.cpp:406] fconv1 <- bn1_relu1_0_split_0
I0729 00:17:07.047125 26877 net.cpp:380] fconv1 -> fconv1
I0729 00:17:07.051764 26877 net.cpp:122] Setting up fconv1
I0729 00:17:07.051795 26877 net.cpp:129] Top shape: 1 3 1 70000 (210000)
I0729 00:17:07.051805 26877 net.cpp:137] Memory required for data: 53200000
I0729 00:17:07.051821 26877 layer_factory.hpp:77] Creating layer fbn1
I0729 00:17:07.051836 26877 net.cpp:84] Creating Layer fbn1
I0729 00:17:07.051846 26877 net.cpp:406] fbn1 <- fconv1
I0729 00:17:07.051858 26877 net.cpp:380] fbn1 -> fbn1
I0729 00:17:07.052404 26877 net.cpp:122] Setting up fbn1
I0729 00:17:07.052426 26877 net.cpp:129] Top shape: 1 3 1 70000 (210000)
I0729 00:17:07.052435 26877 net.cpp:137] Memory required for data: 54040000
I0729 00:17:07.052458 26877 layer_factory.hpp:77] Creating layer frelu1
I0729 00:17:07.052474 26877 net.cpp:84] Creating Layer frelu1
I0729 00:17:07.052482 26877 net.cpp:406] frelu1 <- fbn1
I0729 00:17:07.052495 26877 net.cpp:367] frelu1 -> fbn1 (in-place)
I0729 00:17:07.053055 26877 net.cpp:122] Setting up frelu1
I0729 00:17:07.053077 26877 net.cpp:129] Top shape: 1 3 1 70000 (210000)
I0729 00:17:07.053086 26877 net.cpp:137] Memory required for data: 54880000
I0729 00:17:07.053094 26877 layer_factory.hpp:77] Creating layer data_lattice0
I0729 00:17:07.053280 26877 net.cpp:84] Creating Layer data_lattice0
I0729 00:17:07.053297 26877 net.cpp:406] data_lattice0 <- data_data_0_split_1
I0729 00:17:07.053313 26877 net.cpp:380] data_lattice0 -> data_lattice0
I0729 00:17:07.055842 26877 net.cpp:122] Setting up data_lattice0
I0729 00:17:07.055881 26877 net.cpp:129] Top shape: 1 3 1 70000 (210000)
I0729 00:17:07.055891 26877 net.cpp:137] Memory required for data: 55720000
I0729 00:17:07.055902 26877 layer_factory.hpp:77] Creating layer feat1
I0729 00:17:07.056990 26877 net.cpp:84] Creating Layer feat1
I0729 00:17:07.057020 26877 net.cpp:406] feat1 <- data_lattice0
I0729 00:17:07.057035 26877 net.cpp:406] feat1 <- fbn1
I0729 00:17:07.057051 26877 net.cpp:380] feat1 -> feat1
I0729 00:17:07.057488 26877 net.cpp:122] Setting up feat1
I0729 00:17:07.057520 26877 net.cpp:129] Top shape: 1 3 1 70000 (210000)
I0729 00:17:07.057528 26877 net.cpp:137] Memory required for data: 56560000
I0729 00:17:07.057538 26877 layer_factory.hpp:77] Creating layer feat1_feat1_0_split
I0729 00:17:07.057551 26877 net.cpp:84] Creating Layer feat1_feat1_0_split
I0729 00:17:07.057560 26877 net.cpp:406] feat1_feat1_0_split <- feat1
I0729 00:17:07.057574 26877 net.cpp:380] feat1_feat1_0_split -> feat1_feat1_0_split_0
I0729 00:17:07.057588 26877 net.cpp:380] feat1_feat1_0_split -> feat1_feat1_0_split_1
I0729 00:17:07.057662 26877 net.cpp:122] Setting up feat1_feat1_0_split
I0729 00:17:07.057679 26877 net.cpp:129] Top shape: 1 3 1 70000 (210000)
I0729 00:17:07.057694 26877 net.cpp:129] Top shape: 1 3 1 70000 (210000)
I0729 00:17:07.057701 26877 net.cpp:137] Memory required for data: 58240000
I0729 00:17:07.057713 26877 layer_factory.hpp:77] Creating layer conv2
I0729 00:17:07.058019 26877 net.cpp:84] Creating Layer conv2
I0729 00:17:07.058043 26877 net.cpp:406] conv2 <- bn1_relu1_0_split_1
I0729 00:17:07.058056 26877 net.cpp:406] conv2 <- feat1_feat1_0_split_0
I0729 00:17:07.058071 26877 net.cpp:406] conv2 <- feat1_feat1_0_split_1
I0729 00:17:07.058084 26877 net.cpp:380] conv2 -> conv2
I0729 00:17:07.104780 26877 net.cpp:122] Setting up conv2
I0729 00:17:07.104820 26877 net.cpp:129] Top shape: 1 64 1 70000 (4480000)
I0729 00:17:07.104828 26877 net.cpp:137] Memory required for data: 76160000
I0729 00:17:07.104841 26877 layer_factory.hpp:77] Creating layer bn2
I0729 00:17:07.104853 26877 net.cpp:84] Creating Layer bn2
I0729 00:17:07.104861 26877 net.cpp:406] bn2 <- conv2
I0729 00:17:07.104871 26877 net.cpp:380] bn2 -> bn2
I0729 00:17:07.105309 26877 net.cpp:122] Setting up bn2
I0729 00:17:07.105324 26877 net.cpp:129] Top shape: 1 64 1 70000 (4480000)
I0729 00:17:07.105335 26877 net.cpp:137] Memory required for data: 94080000
I0729 00:17:07.105348 26877 layer_factory.hpp:77] Creating layer relu2
I0729 00:17:07.105370 26877 net.cpp:84] Creating Layer relu2
I0729 00:17:07.105377 26877 net.cpp:406] relu2 <- bn2
I0729 00:17:07.105386 26877 net.cpp:367] relu2 -> bn2 (in-place)
I0729 00:17:07.106468 26877 net.cpp:122] Setting up relu2
I0729 00:17:07.106490 26877 net.cpp:129] Top shape: 1 64 1 70000 (4480000)
I0729 00:17:07.106500 26877 net.cpp:137] Memory required for data: 112000000
I0729 00:17:07.106508 26877 layer_factory.hpp:77] Creating layer bn2_relu2_0_split
I0729 00:17:07.106518 26877 net.cpp:84] Creating Layer bn2_relu2_0_split
I0729 00:17:07.106525 26877 net.cpp:406] bn2_relu2_0_split <- bn2
I0729 00:17:07.106536 26877 net.cpp:380] bn2_relu2_0_split -> bn2_relu2_0_split_0
I0729 00:17:07.106549 26877 net.cpp:380] bn2_relu2_0_split -> bn2_relu2_0_split_1
I0729 00:17:07.106559 26877 net.cpp:380] bn2_relu2_0_split -> bn2_relu2_0_split_2
I0729 00:17:07.106640 26877 net.cpp:122] Setting up bn2_relu2_0_split
I0729 00:17:07.106653 26877 net.cpp:129] Top shape: 1 64 1 70000 (4480000)
I0729 00:17:07.106660 26877 net.cpp:129] Top shape: 1 64 1 70000 (4480000)
I0729 00:17:07.106667 26877 net.cpp:129] Top shape: 1 64 1 70000 (4480000)
I0729 00:17:07.106673 26877 net.cpp:137] Memory required for data: 165760000
I0729 00:17:07.106683 26877 layer_factory.hpp:77] Creating layer fconv2
I0729 00:17:07.106698 26877 net.cpp:84] Creating Layer fconv2
I0729 00:17:07.106704 26877 net.cpp:406] fconv2 <- bn2_relu2_0_split_0
I0729 00:17:07.106716 26877 net.cpp:380] fconv2 -> fconv2
I0729 00:17:07.109463 26877 net.cpp:122] Setting up fconv2
I0729 00:17:07.109491 26877 net.cpp:129] Top shape: 1 3 1 70000 (210000)
I0729 00:17:07.109498 26877 net.cpp:137] Memory required for data: 166600000
I0729 00:17:07.109516 26877 layer_factory.hpp:77] Creating layer fbn2
I0729 00:17:07.109529 26877 net.cpp:84] Creating Layer fbn2
I0729 00:17:07.109534 26877 net.cpp:406] fbn2 <- fconv2
I0729 00:17:07.109544 26877 net.cpp:380] fbn2 -> fbn2
I0729 00:17:07.109941 26877 net.cpp:122] Setting up fbn2
I0729 00:17:07.109956 26877 net.cpp:129] Top shape: 1 3 1 70000 (210000)
I0729 00:17:07.109961 26877 net.cpp:137] Memory required for data: 167440000
I0729 00:17:07.109973 26877 layer_factory.hpp:77] Creating layer frelu2
I0729 00:17:07.109985 26877 net.cpp:84] Creating Layer frelu2
I0729 00:17:07.109992 26877 net.cpp:406] frelu2 <- fbn2
I0729 00:17:07.110002 26877 net.cpp:367] frelu2 -> fbn2 (in-place)
I0729 00:17:07.110436 26877 net.cpp:122] Setting up frelu2
I0729 00:17:07.110455 26877 net.cpp:129] Top shape: 1 3 1 70000 (210000)
I0729 00:17:07.110462 26877 net.cpp:137] Memory required for data: 168280000
I0729 00:17:07.110468 26877 layer_factory.hpp:77] Creating layer data_lattice1
I0729 00:17:07.110533 26877 net.cpp:84] Creating Layer data_lattice1
I0729 00:17:07.110546 26877 net.cpp:406] data_lattice1 <- data_data_0_split_2
I0729 00:17:07.110558 26877 net.cpp:380] data_lattice1 -> data_lattice1
I0729 00:17:07.112308 26877 net.cpp:122] Setting up data_lattice1
I0729 00:17:07.112330 26877 net.cpp:129] Top shape: 1 3 1 70000 (210000)
I0729 00:17:07.112341 26877 net.cpp:137] Memory required for data: 169120000
I0729 00:17:07.112349 26877 layer_factory.hpp:77] Creating layer feat2
I0729 00:17:07.112360 26877 net.cpp:84] Creating Layer feat2
I0729 00:17:07.112367 26877 net.cpp:406] feat2 <- data_lattice1
I0729 00:17:07.112376 26877 net.cpp:406] feat2 <- fbn2
I0729 00:17:07.112385 26877 net.cpp:380] feat2 -> feat2
I0729 00:17:07.112426 26877 net.cpp:122] Setting up feat2
I0729 00:17:07.112437 26877 net.cpp:129] Top shape: 1 3 1 70000 (210000)
I0729 00:17:07.112443 26877 net.cpp:137] Memory required for data: 169960000
I0729 00:17:07.112448 26877 layer_factory.hpp:77] Creating layer feat2_feat2_0_split
I0729 00:17:07.112458 26877 net.cpp:84] Creating Layer feat2_feat2_0_split
I0729 00:17:07.112463 26877 net.cpp:406] feat2_feat2_0_split <- feat2
I0729 00:17:07.112473 26877 net.cpp:380] feat2_feat2_0_split -> feat2_feat2_0_split_0
I0729 00:17:07.112483 26877 net.cpp:380] feat2_feat2_0_split -> feat2_feat2_0_split_1
I0729 00:17:07.112534 26877 net.cpp:122] Setting up feat2_feat2_0_split
I0729 00:17:07.112543 26877 net.cpp:129] Top shape: 1 3 1 70000 (210000)
I0729 00:17:07.112550 26877 net.cpp:129] Top shape: 1 3 1 70000 (210000)
I0729 00:17:07.112555 26877 net.cpp:137] Memory required for data: 171640000
I0729 00:17:07.112561 26877 layer_factory.hpp:77] Creating layer conv3
I0729 00:17:07.112573 26877 net.cpp:84] Creating Layer conv3
I0729 00:17:07.112579 26877 net.cpp:406] conv3 <- bn2_relu2_0_split_1
I0729 00:17:07.112591 26877 net.cpp:406] conv3 <- feat2_feat2_0_split_0
I0729 00:17:07.112597 26877 net.cpp:406] conv3 <- feat2_feat2_0_split_1
I0729 00:17:07.112607 26877 net.cpp:380] conv3 -> conv3
I0729 00:17:07.233168 26877 net.cpp:122] Setting up conv3
I0729 00:17:07.233220 26877 net.cpp:129] Top shape: 1 128 1 70000 (8960000)
I0729 00:17:07.233227 26877 net.cpp:137] Memory required for data: 207480000
I0729 00:17:07.233239 26877 layer_factory.hpp:77] Creating layer bn3
I0729 00:17:07.233263 26877 net.cpp:84] Creating Layer bn3
I0729 00:17:07.233270 26877 net.cpp:406] bn3 <- conv3
I0729 00:17:07.233283 26877 net.cpp:380] bn3 -> bn3
I0729 00:17:07.233589 26877 net.cpp:122] Setting up bn3
I0729 00:17:07.233600 26877 net.cpp:129] Top shape: 1 128 1 70000 (8960000)
I0729 00:17:07.233605 26877 net.cpp:137] Memory required for data: 243320000
I0729 00:17:07.233615 26877 layer_factory.hpp:77] Creating layer relu3
I0729 00:17:07.233625 26877 net.cpp:84] Creating Layer relu3
I0729 00:17:07.233630 26877 net.cpp:406] relu3 <- bn3
I0729 00:17:07.233636 26877 net.cpp:367] relu3 -> bn3 (in-place)
I0729 00:17:07.234598 26877 net.cpp:122] Setting up relu3
I0729 00:17:07.234616 26877 net.cpp:129] Top shape: 1 128 1 70000 (8960000)
I0729 00:17:07.234621 26877 net.cpp:137] Memory required for data: 279160000
I0729 00:17:07.234625 26877 layer_factory.hpp:77] Creating layer bn3_relu3_0_split
I0729 00:17:07.234634 26877 net.cpp:84] Creating Layer bn3_relu3_0_split
I0729 00:17:07.234640 26877 net.cpp:406] bn3_relu3_0_split <- bn3
I0729 00:17:07.234648 26877 net.cpp:380] bn3_relu3_0_split -> bn3_relu3_0_split_0
I0729 00:17:07.234658 26877 net.cpp:380] bn3_relu3_0_split -> bn3_relu3_0_split_1
I0729 00:17:07.234666 26877 net.cpp:380] bn3_relu3_0_split -> bn3_relu3_0_split_2
I0729 00:17:07.234725 26877 net.cpp:122] Setting up bn3_relu3_0_split
I0729 00:17:07.234735 26877 net.cpp:129] Top shape: 1 128 1 70000 (8960000)
I0729 00:17:07.234741 26877 net.cpp:129] Top shape: 1 128 1 70000 (8960000)
I0729 00:17:07.234745 26877 net.cpp:129] Top shape: 1 128 1 70000 (8960000)
I0729 00:17:07.234750 26877 net.cpp:137] Memory required for data: 386680000
I0729 00:17:07.234755 26877 layer_factory.hpp:77] Creating layer fconv3
I0729 00:17:07.234769 26877 net.cpp:84] Creating Layer fconv3
I0729 00:17:07.234774 26877 net.cpp:406] fconv3 <- bn3_relu3_0_split_0
I0729 00:17:07.234783 26877 net.cpp:380] fconv3 -> fconv3
I0729 00:17:07.238806 26877 net.cpp:122] Setting up fconv3
I0729 00:17:07.238824 26877 net.cpp:129] Top shape: 1 3 1 70000 (210000)
I0729 00:17:07.238831 26877 net.cpp:137] Memory required for data: 387520000
I0729 00:17:07.238839 26877 layer_factory.hpp:77] Creating layer fbn3
I0729 00:17:07.238852 26877 net.cpp:84] Creating Layer fbn3
I0729 00:17:07.238857 26877 net.cpp:406] fbn3 <- fconv3
I0729 00:17:07.238865 26877 net.cpp:380] fbn3 -> fbn3
I0729 00:17:07.239195 26877 net.cpp:122] Setting up fbn3
I0729 00:17:07.239207 26877 net.cpp:129] Top shape: 1 3 1 70000 (210000)
I0729 00:17:07.239212 26877 net.cpp:137] Memory required for data: 388360000
I0729 00:17:07.239222 26877 layer_factory.hpp:77] Creating layer frelu3
I0729 00:17:07.239228 26877 net.cpp:84] Creating Layer frelu3
I0729 00:17:07.239233 26877 net.cpp:406] frelu3 <- fbn3
I0729 00:17:07.239240 26877 net.cpp:367] frelu3 -> fbn3 (in-place)
I0729 00:17:07.239565 26877 net.cpp:122] Setting up frelu3
I0729 00:17:07.239578 26877 net.cpp:129] Top shape: 1 3 1 70000 (210000)
I0729 00:17:07.239583 26877 net.cpp:137] Memory required for data: 389200000
I0729 00:17:07.239588 26877 layer_factory.hpp:77] Creating layer data_lattice2
I0729 00:17:07.239666 26877 net.cpp:84] Creating Layer data_lattice2
I0729 00:17:07.239675 26877 net.cpp:406] data_lattice2 <- data_data_0_split_3
I0729 00:17:07.239686 26877 net.cpp:380] data_lattice2 -> data_lattice2
I0729 00:17:07.241194 26877 net.cpp:122] Setting up data_lattice2
I0729 00:17:07.241211 26877 net.cpp:129] Top shape: 1 3 1 70000 (210000)
I0729 00:17:07.241217 26877 net.cpp:137] Memory required for data: 390040000
I0729 00:17:07.241223 26877 layer_factory.hpp:77] Creating layer feat3
I0729 00:17:07.241240 26877 net.cpp:84] Creating Layer feat3
I0729 00:17:07.241245 26877 net.cpp:406] feat3 <- data_lattice2
I0729 00:17:07.241253 26877 net.cpp:406] feat3 <- fbn3
I0729 00:17:07.241261 26877 net.cpp:380] feat3 -> feat3
I0729 00:17:07.241295 26877 net.cpp:122] Setting up feat3
I0729 00:17:07.241307 26877 net.cpp:129] Top shape: 1 3 1 70000 (210000)
I0729 00:17:07.241312 26877 net.cpp:137] Memory required for data: 390880000
I0729 00:17:07.241317 26877 layer_factory.hpp:77] Creating layer feat3_feat3_0_split
I0729 00:17:07.241325 26877 net.cpp:84] Creating Layer feat3_feat3_0_split
I0729 00:17:07.241330 26877 net.cpp:406] feat3_feat3_0_split <- feat3
I0729 00:17:07.241338 26877 net.cpp:380] feat3_feat3_0_split -> feat3_feat3_0_split_0
I0729 00:17:07.241346 26877 net.cpp:380] feat3_feat3_0_split -> feat3_feat3_0_split_1
I0729 00:17:07.241385 26877 net.cpp:122] Setting up feat3_feat3_0_split
I0729 00:17:07.241394 26877 net.cpp:129] Top shape: 1 3 1 70000 (210000)
I0729 00:17:07.241400 26877 net.cpp:129] Top shape: 1 3 1 70000 (210000)
I0729 00:17:07.241403 26877 net.cpp:137] Memory required for data: 392560000
I0729 00:17:07.241407 26877 layer_factory.hpp:77] Creating layer conv4
I0729 00:17:07.241417 26877 net.cpp:84] Creating Layer conv4
I0729 00:17:07.241422 26877 net.cpp:406] conv4 <- bn3_relu3_0_split_1
I0729 00:17:07.241428 26877 net.cpp:406] conv4 <- feat3_feat3_0_split_0
I0729 00:17:07.241433 26877 net.cpp:406] conv4 <- feat3_feat3_0_split_1
I0729 00:17:07.241441 26877 net.cpp:380] conv4 -> conv4
I0729 00:17:07.321455 26877 net.cpp:122] Setting up conv4
I0729 00:17:07.321506 26877 net.cpp:129] Top shape: 1 256 1 70000 (17920000)
I0729 00:17:07.321512 26877 net.cpp:137] Memory required for data: 464240000
I0729 00:17:07.321527 26877 layer_factory.hpp:77] Creating layer bn4
I0729 00:17:07.321540 26877 net.cpp:84] Creating Layer bn4
I0729 00:17:07.321547 26877 net.cpp:406] bn4 <- conv4
I0729 00:17:07.321557 26877 net.cpp:380] bn4 -> bn4
I0729 00:17:07.321876 26877 net.cpp:122] Setting up bn4
I0729 00:17:07.321885 26877 net.cpp:129] Top shape: 1 256 1 70000 (17920000)
I0729 00:17:07.321895 26877 net.cpp:137] Memory required for data: 535920000
I0729 00:17:07.321923 26877 layer_factory.hpp:77] Creating layer relu4
I0729 00:17:07.321939 26877 net.cpp:84] Creating Layer relu4
I0729 00:17:07.321944 26877 net.cpp:406] relu4 <- bn4
I0729 00:17:07.321951 26877 net.cpp:367] relu4 -> bn4 (in-place)
I0729 00:17:07.322926 26877 net.cpp:122] Setting up relu4
I0729 00:17:07.322943 26877 net.cpp:129] Top shape: 1 256 1 70000 (17920000)
I0729 00:17:07.322952 26877 net.cpp:137] Memory required for data: 607600000
I0729 00:17:07.322960 26877 layer_factory.hpp:77] Creating layer bn4_relu4_0_split
I0729 00:17:07.322970 26877 net.cpp:84] Creating Layer bn4_relu4_0_split
I0729 00:17:07.322975 26877 net.cpp:406] bn4_relu4_0_split <- bn4
I0729 00:17:07.322983 26877 net.cpp:380] bn4_relu4_0_split -> bn4_relu4_0_split_0
I0729 00:17:07.322993 26877 net.cpp:380] bn4_relu4_0_split -> bn4_relu4_0_split_1
I0729 00:17:07.323000 26877 net.cpp:380] bn4_relu4_0_split -> bn4_relu4_0_split_2
I0729 00:17:07.323061 26877 net.cpp:122] Setting up bn4_relu4_0_split
I0729 00:17:07.323071 26877 net.cpp:129] Top shape: 1 256 1 70000 (17920000)
I0729 00:17:07.323076 26877 net.cpp:129] Top shape: 1 256 1 70000 (17920000)
I0729 00:17:07.323081 26877 net.cpp:129] Top shape: 1 256 1 70000 (17920000)
I0729 00:17:07.323086 26877 net.cpp:137] Memory required for data: 822640000
I0729 00:17:07.323089 26877 layer_factory.hpp:77] Creating layer fconv4
I0729 00:17:07.323104 26877 net.cpp:84] Creating Layer fconv4
I0729 00:17:07.323109 26877 net.cpp:406] fconv4 <- bn4_relu4_0_split_0
I0729 00:17:07.323118 26877 net.cpp:380] fconv4 -> fconv4
I0729 00:17:07.326267 26877 net.cpp:122] Setting up fconv4
I0729 00:17:07.326293 26877 net.cpp:129] Top shape: 1 3 1 70000 (210000)
I0729 00:17:07.326298 26877 net.cpp:137] Memory required for data: 823480000
I0729 00:17:07.326308 26877 layer_factory.hpp:77] Creating layer fbn4
I0729 00:17:07.326316 26877 net.cpp:84] Creating Layer fbn4
I0729 00:17:07.326323 26877 net.cpp:406] fbn4 <- fconv4
I0729 00:17:07.326331 26877 net.cpp:380] fbn4 -> fbn4
I0729 00:17:07.326644 26877 net.cpp:122] Setting up fbn4
I0729 00:17:07.326661 26877 net.cpp:129] Top shape: 1 3 1 70000 (210000)
I0729 00:17:07.326666 26877 net.cpp:137] Memory required for data: 824320000
I0729 00:17:07.326680 26877 layer_factory.hpp:77] Creating layer frelu4
I0729 00:17:07.326687 26877 net.cpp:84] Creating Layer frelu4
I0729 00:17:07.326692 26877 net.cpp:406] frelu4 <- fbn4
I0729 00:17:07.326701 26877 net.cpp:367] frelu4 -> fbn4 (in-place)
I0729 00:17:07.327033 26877 net.cpp:122] Setting up frelu4
I0729 00:17:07.327049 26877 net.cpp:129] Top shape: 1 3 1 70000 (210000)
I0729 00:17:07.327054 26877 net.cpp:137] Memory required for data: 825160000
I0729 00:17:07.327061 26877 layer_factory.hpp:77] Creating layer data_lattice3
I0729 00:17:07.327144 26877 net.cpp:84] Creating Layer data_lattice3
I0729 00:17:07.327155 26877 net.cpp:406] data_lattice3 <- data_data_0_split_4
I0729 00:17:07.327164 26877 net.cpp:380] data_lattice3 -> data_lattice3
I0729 00:17:07.328828 26877 net.cpp:122] Setting up data_lattice3
I0729 00:17:07.328847 26877 net.cpp:129] Top shape: 1 3 1 70000 (210000)
I0729 00:17:07.328856 26877 net.cpp:137] Memory required for data: 826000000
I0729 00:17:07.328862 26877 layer_factory.hpp:77] Creating layer feat4
I0729 00:17:07.328872 26877 net.cpp:84] Creating Layer feat4
I0729 00:17:07.328877 26877 net.cpp:406] feat4 <- data_lattice3
I0729 00:17:07.328886 26877 net.cpp:406] feat4 <- fbn4
I0729 00:17:07.328894 26877 net.cpp:380] feat4 -> feat4
I0729 00:17:07.328927 26877 net.cpp:122] Setting up feat4
I0729 00:17:07.328934 26877 net.cpp:129] Top shape: 1 3 1 70000 (210000)
I0729 00:17:07.328938 26877 net.cpp:137] Memory required for data: 826840000
I0729 00:17:07.328943 26877 layer_factory.hpp:77] Creating layer feat4_feat4_0_split
I0729 00:17:07.328950 26877 net.cpp:84] Creating Layer feat4_feat4_0_split
I0729 00:17:07.328955 26877 net.cpp:406] feat4_feat4_0_split <- feat4
I0729 00:17:07.328963 26877 net.cpp:380] feat4_feat4_0_split -> feat4_feat4_0_split_0
I0729 00:17:07.328970 26877 net.cpp:380] feat4_feat4_0_split -> feat4_feat4_0_split_1
I0729 00:17:07.329010 26877 net.cpp:122] Setting up feat4_feat4_0_split
I0729 00:17:07.329018 26877 net.cpp:129] Top shape: 1 3 1 70000 (210000)
I0729 00:17:07.329023 26877 net.cpp:129] Top shape: 1 3 1 70000 (210000)
I0729 00:17:07.329027 26877 net.cpp:137] Memory required for data: 828520000
I0729 00:17:07.329031 26877 layer_factory.hpp:77] Creating layer conv5
I0729 00:17:07.329043 26877 net.cpp:84] Creating Layer conv5
I0729 00:17:07.329048 26877 net.cpp:406] conv5 <- bn4_relu4_0_split_1
I0729 00:17:07.329056 26877 net.cpp:406] conv5 <- feat4_feat4_0_split_0
I0729 00:17:07.329061 26877 net.cpp:406] conv5 <- feat4_feat4_0_split_1
I0729 00:17:07.329067 26877 net.cpp:380] conv5 -> conv5
I0729 00:17:07.488469 26877 net.cpp:122] Setting up conv5
I0729 00:17:07.488518 26877 net.cpp:129] Top shape: 1 256 1 70000 (17920000)
I0729 00:17:07.488524 26877 net.cpp:137] Memory required for data: 900200000
I0729 00:17:07.488543 26877 layer_factory.hpp:77] Creating layer bn5
I0729 00:17:07.488557 26877 net.cpp:84] Creating Layer bn5
I0729 00:17:07.488565 26877 net.cpp:406] bn5 <- conv5
I0729 00:17:07.488576 26877 net.cpp:380] bn5 -> bn5
I0729 00:17:07.488894 26877 net.cpp:122] Setting up bn5
I0729 00:17:07.488906 26877 net.cpp:129] Top shape: 1 256 1 70000 (17920000)
I0729 00:17:07.488910 26877 net.cpp:137] Memory required for data: 971880000
I0729 00:17:07.488919 26877 layer_factory.hpp:77] Creating layer relu5
I0729 00:17:07.488929 26877 net.cpp:84] Creating Layer relu5
I0729 00:17:07.488934 26877 net.cpp:406] relu5 <- bn5
I0729 00:17:07.488940 26877 net.cpp:367] relu5 -> bn5 (in-place)
I0729 00:17:07.489951 26877 net.cpp:122] Setting up relu5
I0729 00:17:07.489969 26877 net.cpp:129] Top shape: 1 256 1 70000 (17920000)
I0729 00:17:07.489977 26877 net.cpp:137] Memory required for data: 1043560000
I0729 00:17:07.489982 26877 layer_factory.hpp:77] Creating layer bn5_relu5_0_split
I0729 00:17:07.489992 26877 net.cpp:84] Creating Layer bn5_relu5_0_split
I0729 00:17:07.489997 26877 net.cpp:406] bn5_relu5_0_split <- bn5
I0729 00:17:07.490005 26877 net.cpp:380] bn5_relu5_0_split -> bn5_relu5_0_split_0
I0729 00:17:07.490015 26877 net.cpp:380] bn5_relu5_0_split -> bn5_relu5_0_split_1
I0729 00:17:07.490022 26877 net.cpp:380] bn5_relu5_0_split -> bn5_relu5_0_split_2
I0729 00:17:07.490084 26877 net.cpp:122] Setting up bn5_relu5_0_split
I0729 00:17:07.490094 26877 net.cpp:129] Top shape: 1 256 1 70000 (17920000)
I0729 00:17:07.490100 26877 net.cpp:129] Top shape: 1 256 1 70000 (17920000)
I0729 00:17:07.490105 26877 net.cpp:129] Top shape: 1 256 1 70000 (17920000)
I0729 00:17:07.490109 26877 net.cpp:137] Memory required for data: 1258600000
I0729 00:17:07.490113 26877 layer_factory.hpp:77] Creating layer fconv5
I0729 00:17:07.490135 26877 net.cpp:84] Creating Layer fconv5
I0729 00:17:07.490142 26877 net.cpp:406] fconv5 <- bn5_relu5_0_split_0
I0729 00:17:07.490151 26877 net.cpp:380] fconv5 -> fconv5
I0729 00:17:07.492249 26877 net.cpp:122] Setting up fconv5
I0729 00:17:07.492266 26877 net.cpp:129] Top shape: 1 3 1 70000 (210000)
I0729 00:17:07.492272 26877 net.cpp:137] Memory required for data: 1259440000
I0729 00:17:07.492281 26877 layer_factory.hpp:77] Creating layer fbn5
I0729 00:17:07.492290 26877 net.cpp:84] Creating Layer fbn5
I0729 00:17:07.492295 26877 net.cpp:406] fbn5 <- fconv5
I0729 00:17:07.492303 26877 net.cpp:380] fbn5 -> fbn5
I0729 00:17:07.492619 26877 net.cpp:122] Setting up fbn5
I0729 00:17:07.492630 26877 net.cpp:129] Top shape: 1 3 1 70000 (210000)
I0729 00:17:07.492635 26877 net.cpp:137] Memory required for data: 1260280000
I0729 00:17:07.492643 26877 layer_factory.hpp:77] Creating layer frelu5
I0729 00:17:07.492651 26877 net.cpp:84] Creating Layer frelu5
I0729 00:17:07.492656 26877 net.cpp:406] frelu5 <- fbn5
I0729 00:17:07.492662 26877 net.cpp:367] frelu5 -> fbn5 (in-place)
I0729 00:17:07.493353 26877 net.cpp:122] Setting up frelu5
I0729 00:17:07.493371 26877 net.cpp:129] Top shape: 1 3 1 70000 (210000)
I0729 00:17:07.493376 26877 net.cpp:137] Memory required for data: 1261120000
I0729 00:17:07.493381 26877 layer_factory.hpp:77] Creating layer data_lattice4
I0729 00:17:07.493468 26877 net.cpp:84] Creating Layer data_lattice4
I0729 00:17:07.493477 26877 net.cpp:406] data_lattice4 <- data_data_0_split_5
I0729 00:17:07.493486 26877 net.cpp:380] data_lattice4 -> data_lattice4
I0729 00:17:07.495012 26877 net.cpp:122] Setting up data_lattice4
I0729 00:17:07.495029 26877 net.cpp:129] Top shape: 1 3 1 70000 (210000)
I0729 00:17:07.495035 26877 net.cpp:137] Memory required for data: 1261960000
I0729 00:17:07.495040 26877 layer_factory.hpp:77] Creating layer feat5
I0729 00:17:07.495050 26877 net.cpp:84] Creating Layer feat5
I0729 00:17:07.495055 26877 net.cpp:406] feat5 <- data_lattice4
I0729 00:17:07.495062 26877 net.cpp:406] feat5 <- fbn5
I0729 00:17:07.495070 26877 net.cpp:380] feat5 -> feat5
I0729 00:17:07.495103 26877 net.cpp:122] Setting up feat5
I0729 00:17:07.495111 26877 net.cpp:129] Top shape: 1 3 1 70000 (210000)
I0729 00:17:07.495115 26877 net.cpp:137] Memory required for data: 1262800000
I0729 00:17:07.495120 26877 layer_factory.hpp:77] Creating layer feat5_feat5_0_split
I0729 00:17:07.495126 26877 net.cpp:84] Creating Layer feat5_feat5_0_split
I0729 00:17:07.495137 26877 net.cpp:406] feat5_feat5_0_split <- feat5
I0729 00:17:07.495146 26877 net.cpp:380] feat5_feat5_0_split -> feat5_feat5_0_split_0
I0729 00:17:07.495153 26877 net.cpp:380] feat5_feat5_0_split -> feat5_feat5_0_split_1
I0729 00:17:07.495205 26877 net.cpp:122] Setting up feat5_feat5_0_split
I0729 00:17:07.495214 26877 net.cpp:129] Top shape: 1 3 1 70000 (210000)
I0729 00:17:07.495221 26877 net.cpp:129] Top shape: 1 3 1 70000 (210000)
I0729 00:17:07.495225 26877 net.cpp:137] Memory required for data: 1264480000
I0729 00:17:07.495229 26877 layer_factory.hpp:77] Creating layer conv6
I0729 00:17:07.495239 26877 net.cpp:84] Creating Layer conv6
I0729 00:17:07.495244 26877 net.cpp:406] conv6 <- bn5_relu5_0_split_1
I0729 00:17:07.495251 26877 net.cpp:406] conv6 <- feat5_feat5_0_split_0
I0729 00:17:07.495256 26877 net.cpp:406] conv6 <- feat5_feat5_0_split_1
I0729 00:17:07.495263 26877 net.cpp:380] conv6 -> conv6
I0729 00:17:07.532642 26877 net.cpp:122] Setting up conv6
I0729 00:17:07.532676 26877 net.cpp:129] Top shape: 1 256 1 70000 (17920000)
I0729 00:17:07.532682 26877 net.cpp:137] Memory required for data: 1336160000
I0729 00:17:07.532691 26877 layer_factory.hpp:77] Creating layer bn6
I0729 00:17:07.532701 26877 net.cpp:84] Creating Layer bn6
I0729 00:17:07.532708 26877 net.cpp:406] bn6 <- conv6
I0729 00:17:07.532717 26877 net.cpp:380] bn6 -> bn6
I0729 00:17:07.533035 26877 net.cpp:122] Setting up bn6
I0729 00:17:07.533046 26877 net.cpp:129] Top shape: 1 256 1 70000 (17920000)
I0729 00:17:07.533051 26877 net.cpp:137] Memory required for data: 1407840000
I0729 00:17:07.533059 26877 layer_factory.hpp:77] Creating layer relu6
I0729 00:17:07.533074 26877 net.cpp:84] Creating Layer relu6
I0729 00:17:07.533079 26877 net.cpp:406] relu6 <- bn6
I0729 00:17:07.533087 26877 net.cpp:367] relu6 -> bn6 (in-place)
I0729 00:17:07.533491 26877 net.cpp:122] Setting up relu6
I0729 00:17:07.533504 26877 net.cpp:129] Top shape: 1 256 1 70000 (17920000)
I0729 00:17:07.533509 26877 net.cpp:137] Memory required for data: 1479520000
I0729 00:17:07.533514 26877 layer_factory.hpp:77] Creating layer concat6
I0729 00:17:07.533596 26877 net.cpp:84] Creating Layer concat6
I0729 00:17:07.533604 26877 net.cpp:406] concat6 <- bn6
I0729 00:17:07.533612 26877 net.cpp:406] concat6 <- bn2_relu2_0_split_2
I0729 00:17:07.533618 26877 net.cpp:406] concat6 <- bn3_relu3_0_split_2
I0729 00:17:07.533623 26877 net.cpp:406] concat6 <- bn4_relu4_0_split_2
I0729 00:17:07.533627 26877 net.cpp:406] concat6 <- bn5_relu5_0_split_2
I0729 00:17:07.533634 26877 net.cpp:380] concat6 -> concat6
I0729 00:17:07.533692 26877 net.cpp:122] Setting up concat6
I0729 00:17:07.533704 26877 net.cpp:129] Top shape: 1 960 1 70000 (67200000)
I0729 00:17:07.533709 26877 net.cpp:137] Memory required for data: 1748320000
I0729 00:17:07.533713 26877 layer_factory.hpp:77] Creating layer conv7
I0729 00:17:07.533725 26877 net.cpp:84] Creating Layer conv7
I0729 00:17:07.533730 26877 net.cpp:406] conv7 <- concat6
I0729 00:17:07.533740 26877 net.cpp:380] conv7 -> conv7
I0729 00:17:07.539834 26877 net.cpp:122] Setting up conv7
I0729 00:17:07.539852 26877 net.cpp:129] Top shape: 1 128 1 70000 (8960000)
I0729 00:17:07.539857 26877 net.cpp:137] Memory required for data: 1784160000
I0729 00:17:07.539867 26877 layer_factory.hpp:77] Creating layer bn7
I0729 00:17:07.539878 26877 net.cpp:84] Creating Layer bn7
I0729 00:17:07.539885 26877 net.cpp:406] bn7 <- conv7
I0729 00:17:07.539892 26877 net.cpp:380] bn7 -> bn7
I0729 00:17:07.540204 26877 net.cpp:122] Setting up bn7
I0729 00:17:07.540215 26877 net.cpp:129] Top shape: 1 128 1 70000 (8960000)
I0729 00:17:07.540223 26877 net.cpp:137] Memory required for data: 1820000000
I0729 00:17:07.540232 26877 layer_factory.hpp:77] Creating layer relu7
I0729 00:17:07.540240 26877 net.cpp:84] Creating Layer relu7
I0729 00:17:07.540246 26877 net.cpp:406] relu7 <- bn7
I0729 00:17:07.540253 26877 net.cpp:367] relu7 -> bn7 (in-place)
I0729 00:17:07.540966 26877 net.cpp:122] Setting up relu7
I0729 00:17:07.540982 26877 net.cpp:129] Top shape: 1 128 1 70000 (8960000)
I0729 00:17:07.540987 26877 net.cpp:137] Memory required for data: 1855840000
I0729 00:17:07.540992 26877 layer_factory.hpp:77] Creating layer conv8
I0729 00:17:07.541005 26877 net.cpp:84] Creating Layer conv8
I0729 00:17:07.541010 26877 net.cpp:406] conv8 <- bn7
I0729 00:17:07.541019 26877 net.cpp:380] conv8 -> conv8
I0729 00:17:07.544600 26877 net.cpp:122] Setting up conv8
I0729 00:17:07.544617 26877 net.cpp:129] Top shape: 1 13 1 70000 (910000)
I0729 00:17:07.544622 26877 net.cpp:137] Memory required for data: 1859480000
I0729 00:17:07.544632 26877 layer_factory.hpp:77] Creating layer conv8_conv8_0_split
I0729 00:17:07.544642 26877 net.cpp:84] Creating Layer conv8_conv8_0_split
I0729 00:17:07.544647 26877 net.cpp:406] conv8_conv8_0_split <- conv8
I0729 00:17:07.544656 26877 net.cpp:380] conv8_conv8_0_split -> conv8_conv8_0_split_0
I0729 00:17:07.544665 26877 net.cpp:380] conv8_conv8_0_split -> conv8_conv8_0_split_1
I0729 00:17:07.544718 26877 net.cpp:122] Setting up conv8_conv8_0_split
I0729 00:17:07.544728 26877 net.cpp:129] Top shape: 1 13 1 70000 (910000)
I0729 00:17:07.544734 26877 net.cpp:129] Top shape: 1 13 1 70000 (910000)
I0729 00:17:07.544737 26877 net.cpp:137] Memory required for data: 1866760000
I0729 00:17:07.544742 26877 layer_factory.hpp:77] Creating layer loss
I0729 00:17:07.544790 26877 net.cpp:84] Creating Layer loss
I0729 00:17:07.544800 26877 net.cpp:406] loss <- conv8_conv8_0_split_0
I0729 00:17:07.544806 26877 net.cpp:406] loss <- label_data_1_split_0
I0729 00:17:07.544813 26877 net.cpp:380] loss -> loss
…
