…
I0729 18:41:13.337536 23035 net.cpp:294] The NetState phase (0) differed from the phase (1) specified by a rule in layer data
I0729 18:41:13.338279 23035 net.cpp:51] Initializing net from parameters: 
state {
  phase: TRAIN
}
layer {
  name: "data"
  type: "Python"
  top: "data"
  top: "label"
  include {
    phase: TRAIN
  }
  python_param {
    module: "dataset_lidar"
    layer: "InputShapenet"
    param_str: "{\'sample_size\': 70000, \'test_area\': \'6\', \'batch_size\': 1, \'feat_dims\': \'x_y_z\', \'subset\': \'train\', \'root\': \'../../data/shapenet_ericyi_ply\', \'jitter_xyz\': 0.01, \'jitter_stretch\': 0.05, \'jitter_rotation\': 5.0}"
  }
}
layer {
  name: "data_feat"
  type: "Python"
  bottom: "data"
  top: "data_feat"
  python_param {
    module: "custom_layers"
    layer: "PickAndScale"
    param_str: "0_1_2"
  }
}
layer {
  name: "conv1"
  type: "Convolution"
  bottom: "data_feat"
  top: "conv1"
  param {
    lr_mult: 1
  }
  param {
    lr_mult: 0.1
  }
  convolution_param {
    num_output: 32
    pad: 0
    kernel_size: 1
    stride: 1
    weight_filler {
      type: "xavier"
    }
    bias_filler {
      type: "constant"
      value: 0
    }
  }
}
layer {
  name: "bn1"
  type: "BatchNorm"
  bottom: "conv1"
  top: "bn1"
}
layer {
  name: "relu1"
  type: "ReLU"
  bottom: "bn1"
  top: "bn1"
}
layer {
  name: "fconv1"
  type: "Convolution"
  bottom: "bn1"
  top: "fconv1"
  param {
    lr_mult: 0.5
  }
  param {
    lr_mult: 0.05
  }
  convolution_param {
    num_output: 3
    pad: 0
    kernel_size: 1
    stride: 1
    weight_filler {
      type: "xavier"
    }
    bias_filler {
      type: "constant"
      value: 0
    }
  }
}
layer {
  name: "fbn1"
  type: "BatchNorm"
  bottom: "fconv1"
  top: "fbn1"
}
layer {
  name: "frelu1"
  type: "ReLU"
  bottom: "fbn1"
  top: "fbn1"
}
layer {
  name: "data_lattice0"
  type: "Python"
  bottom: "data"
  top: "data_lattice0"
  python_param {
    module: "custom_layers"
    layer: "PickAndScale"
    param_str: "0*64_1*64_2*64"
  }
}
layer {
  name: "feat1"
  type: "Eltwise"
  bottom: "data_lattice0"
  bottom: "fbn1"
  top: "feat1"
  eltwise_param {
    operation: SUM
  }
}
layer {
  name: "conv2"
  type: "Permutohedral"
  bottom: "bn1"
  bottom: "feat1"
  bottom: "feat1"
  top: "conv2"
  param {
    lr_mult: 1
    decay_mult: 1
  }
  param {
    lr_mult: 2
    decay_mult: 0
  }
  permutohedral_param {
    num_output: 64
    neighborhood_size: 4
    filter_filler {
      type: "gaussian"
      std: 0.001
    }
    bias_term: true
    bias_filler {
      type: "constant"
      value: 0
    }
    group: 1
    norm_type: AFTER
    offset_type: NONE
  }
}
layer {
  name: "bn2"
  type: "BatchNorm"
  bottom: "conv2"
  top: "bn2"
}
layer {
  name: "relu2"
  type: "ReLU"
  bottom: "bn2"
  top: "bn2"
}
layer {
  name: "fconv2"
  type: "Convolution"
  bottom: "bn2"
  top: "fconv2"
  param {
    lr_mult: 0.5
  }
  param {
    lr_mult: 0.05
  }
  convolution_param {
    num_output: 3
    pad: 0
    kernel_size: 1
    stride: 1
    weight_filler {
      type: "xavier"
    }
    bias_filler {
      type: "constant"
      value: 0
    }
  }
}
layer {
  name: "fbn2"
  type: "BatchNorm"
  bottom: "fconv2"
  top: "fbn2"
}
layer {
  name: "frelu2"
  type: "ReLU"
  bottom: "fbn2"
  top: "fbn2"
}
layer {
  name: "data_lattice1"
  type: "Python"
  bottom: "data"
  top: "data_lattice1"
  python_param {
    module: "custom_layers"
    layer: "PickAndScale"
    param_str: "0*32_1*32_2*32"
  }
}
layer {
  name: "feat2"
  type: "Eltwise"
  bottom: "data_lattice1"
  bottom: "fbn2"
  top: "feat2"
  eltwise_param {
    operation: SUM
  }
}
layer {
  name: "conv3"
  type: "Permutohedral"
  bottom: "bn2"
  bottom: "feat2"
  bottom: "feat2"
  top: "conv3"
  param {
    lr_mult: 1
    decay_mult: 1
  }
  param {
    lr_mult: 2
    decay_mult: 0
  }
  permutohedral_param {
    num_output: 128
    neighborhood_size: 4
    filter_filler {
      type: "gaussian"
      std: 0.001
    }
    bias_term: true
    bias_filler {
      type: "constant"
      value: 0
    }
    group: 1
    norm_type: AFTER
    offset_type: NONE
  }
}
layer {
  name: "bn3"
  type: "BatchNorm"
  bottom: "conv3"
  top: "bn3"
}
layer {
  name: "relu3"
  type: "ReLU"
  bottom: "bn3"
  top: "bn3"
}
layer {
  name: "fconv3"
  type: "Convolution"
  bottom: "bn3"
  top: "fconv3"
  param {
    lr_mult: 0.5
  }
  param {
    lr_mult: 0.05
  }
  convolution_param {
    num_output: 3
    pad: 0
    kernel_size: 1
    stride: 1
    weight_filler {
      type: "xavier"
    }
    bias_filler {
      type: "constant"
      value: 0
    }
  }
}
layer {
  name: "fbn3"
  type: "BatchNorm"
  bottom: "fconv3"
  top: "fbn3"
}
layer {
  name: "frelu3"
  type: "ReLU"
  bottom: "fbn3"
  top: "fbn3"
}
layer {
  name: "data_lattice2"
  type: "Python"
  bottom: "data"
  top: "data_lattice2"
  python_param {
    module: "custom_layers"
    layer: "PickAndScale"
    param_str: "0*16_1*16_2*16"
  }
}
layer {
  name: "feat3"
  type: "Eltwise"
  bottom: "data_lattice2"
  bottom: "fbn3"
  top: "feat3"
  eltwise_param {
    operation: SUM
  }
}
layer {
  name: "conv4"
  type: "Permutohedral"
  bottom: "bn3"
  bottom: "feat3"
  bottom: "feat3"
  top: "conv4"
  param {
    lr_mult: 1
    decay_mult: 1
  }
  param {
    lr_mult: 2
    decay_mult: 0
  }
  permutohedral_param {
    num_output: 256
    neighborhood_size: 2
    filter_filler {
      type: "gaussian"
      std: 0.001
    }
    bias_term: true
    bias_filler {
      type: "constant"
      value: 0
    }
    group: 1
    norm_type: AFTER
    offset_type: NONE
  }
}
layer {
  name: "bn4"
  type: "BatchNorm"
  bottom: "conv4"
  top: "bn4"
}
layer {
  name: "relu4"
  type: "ReLU"
  bottom: "bn4"
  top: "bn4"
}
layer {
  name: "fconv4"
  type: "Convolution"
  bottom: "bn4"
  top: "fconv4"
  param {
    lr_mult: 0.5
  }
  param {
    lr_mult: 0.05
  }
  convolution_param {
    num_output: 3
    pad: 0
    kernel_size: 1
    stride: 1
    weight_filler {
      type: "xavier"
    }
    bias_filler {
      type: "constant"
      value: 0
    }
  }
}
layer {
  name: "fbn4"
  type: "BatchNorm"
  bottom: "fconv4"
  top: "fbn4"
}
layer {
  name: "frelu4"
  type: "ReLU"
  bottom: "fbn4"
  top: "fbn4"
}
layer {
  name: "data_lattice3"
  type: "Python"
  bottom: "data"
  top: "data_lattice3"
  python_param {
    module: "custom_layers"
    layer: "PickAndScale"
    param_str: "0*8_1*8_2*8"
  }
}
layer {
  name: "feat4"
  type: "Eltwise"
  bottom: "data_lattice3"
  bottom: "fbn4"
  top: "feat4"
  eltwise_param {
    operation: SUM
  }
}
layer {
  name: "conv5"
  type: "Permutohedral"
  bottom: "bn4"
  bottom: "feat4"
  bottom: "feat4"
  top: "conv5"
  param {
    lr_mult: 1
    decay_mult: 1
  }
  param {
    lr_mult: 2
    decay_mult: 0
  }
  permutohedral_param {
    num_output: 256
    neighborhood_size: 2
    filter_filler {
      type: "gaussian"
      std: 0.001
    }
    bias_term: true
    bias_filler {
      type: "constant"
      value: 0
    }
    group: 1
    norm_type: AFTER
    offset_type: NONE
  }
}
layer {
  name: "bn5"
  type: "BatchNorm"
  bottom: "conv5"
  top: "bn5"
}
layer {
  name: "relu5"
  type: "ReLU"
  bottom: "bn5"
  top: "bn5"
}
layer {
  name: "fconv5"
  type: "Convolution"
  bottom: "bn5"
  top: "fconv5"
  param {
    lr_mult: 0.5
  }
  param {
    lr_mult: 0.05
  }
  convolution_param {
    num_output: 3
    pad: 0
    kernel_size: 1
    stride: 1
    weight_filler {
      type: "xavier"
    }
    bias_filler {
      type: "constant"
      value: 0
    }
  }
}
layer {
  name: "fbn5"
  type: "BatchNorm"
  bottom: "fconv5"
  top: "fbn5"
}
layer {
  name: "frelu5"
  type: "ReLU"
  bottom: "fbn5"
  top: "fbn5"
}
layer {
  name: "data_lattice4"
  type: "Python"
  bottom: "data"
  top: "data_lattice4"
  python_param {
    module: "custom_layers"
    layer: "PickAndScale"
    param_str: "0*4_1*4_2*4"
  }
}
layer {
  name: "feat5"
  type: "Eltwise"
  bottom: "data_lattice4"
  bottom: "fbn5"
  top: "feat5"
  eltwise_param {
    operation: SUM
  }
}
layer {
  name: "conv6"
  type: "Permutohedral"
  bottom: "bn5"
  bottom: "feat5"
  bottom: "feat5"
  top: "conv6"
  param {
    lr_mult: 1
    decay_mult: 1
  }
  param {
    lr_mult: 2
    decay_mult: 0
  }
  permutohedral_param {
    num_output: 256
    neighborhood_size: 1
    filter_filler {
      type: "gaussian"
      std: 0.001
    }
    bias_term: true
    bias_filler {
      type: "constant"
      value: 0
    }
    group: 1
    norm_type: AFTER
    offset_type: NONE
  }
}
layer {
  name: "bn6"
  type: "BatchNorm"
  bottom: "conv6"
  top: "bn6"
}
layer {
  name: "relu6"
  type: "ReLU"
  bottom: "bn6"
  top: "bn6"
}
layer {
  name: "concat6"
  type: "Concat"
  bottom: "bn6"
  bottom: "bn2"
  bottom: "bn3"
  bottom: "bn4"
  bottom: "bn5"
  top: "concat6"
}
layer {
  name: "conv7"
  type: "Convolution"
  bottom: "concat6"
  top: "conv7"
  param {
    lr_mult: 1
  }
  param {
    lr_mult: 0.1
  }
  convolution_param {
    num_output: 128
    pad: 0
    kernel_size: 1
    stride: 1
    weight_filler {
      type: "xavier"
    }
    bias_filler {
      type: "constant"
      value: 0
    }
  }
}
layer {
  name: "bn7"
  type: "BatchNorm"
  bottom: "conv7"
  top: "bn7"
}
layer {
  name: "relu7"
  type: "ReLU"
  bottom: "bn7"
  top: "bn7"
}
layer {
  name: "conv8"
  type: "Convolution"
  bottom: "bn7"
  top: "conv8"
  param {
    lr_mult: 1
  }
  param {
    lr_mult: 0.1
  }
  convolution_param {
    num_output: 13
    pad: 0
    kernel_size: 1
    stride: 1
    weight_filler {
      type: "xavier"
    }
    bias_filler {
      type: "constant"
      value: 0
    }
  }
}
layer {
  name: "loss"
  type: "SoftmaxWithLoss"
  bottom: "conv8"
  bottom: "label"
  top: "loss"
}
layer {
  name: "accuracy"
  type: "Accuracy"
  bottom: "conv8"
  bottom: "label"
  top: "accuracy"
}
I0729 18:41:13.339064 23035 layer_factory.hpp:77] Creating layer data
I0729 18:41:13.359721 23035 net.cpp:84] Creating Layer data
I0729 18:41:13.359778 23035 net.cpp:380] data -> data
I0729 18:41:13.359889 23035 net.cpp:380] data -> label
I0729 18:48:53.376725 23035 net.cpp:122] Setting up data
I0729 18:48:53.376801 23035 net.cpp:129] Top shape: 1 3 1 70000 (210000)
I0729 18:48:53.376808 23035 net.cpp:129] Top shape: 1 1 1 70000 (70000)
I0729 18:48:53.376812 23035 net.cpp:137] Memory required for data: 1120000
I0729 18:48:53.376822 23035 layer_factory.hpp:77] Creating layer data_data_0_split
I0729 18:48:53.376857 23035 net.cpp:84] Creating Layer data_data_0_split
I0729 18:48:53.376869 23035 net.cpp:406] data_data_0_split <- data
I0729 18:48:53.376879 23035 net.cpp:380] data_data_0_split -> data_data_0_split_0
I0729 18:48:53.376891 23035 net.cpp:380] data_data_0_split -> data_data_0_split_1
I0729 18:48:53.376899 23035 net.cpp:380] data_data_0_split -> data_data_0_split_2
I0729 18:48:53.376904 23035 net.cpp:380] data_data_0_split -> data_data_0_split_3
I0729 18:48:53.376909 23035 net.cpp:380] data_data_0_split -> data_data_0_split_4
I0729 18:48:53.376914 23035 net.cpp:380] data_data_0_split -> data_data_0_split_5
I0729 18:48:53.376988 23035 net.cpp:122] Setting up data_data_0_split
I0729 18:48:53.376999 23035 net.cpp:129] Top shape: 1 3 1 70000 (210000)
I0729 18:48:53.377005 23035 net.cpp:129] Top shape: 1 3 1 70000 (210000)
I0729 18:48:53.377008 23035 net.cpp:129] Top shape: 1 3 1 70000 (210000)
I0729 18:48:53.377012 23035 net.cpp:129] Top shape: 1 3 1 70000 (210000)
I0729 18:48:53.377017 23035 net.cpp:129] Top shape: 1 3 1 70000 (210000)
I0729 18:48:53.377019 23035 net.cpp:129] Top shape: 1 3 1 70000 (210000)
I0729 18:48:53.377023 23035 net.cpp:137] Memory required for data: 6160000
I0729 18:48:53.377027 23035 layer_factory.hpp:77] Creating layer label_data_1_split
I0729 18:48:53.377032 23035 net.cpp:84] Creating Layer label_data_1_split
I0729 18:48:53.377037 23035 net.cpp:406] label_data_1_split <- label
I0729 18:48:53.377041 23035 net.cpp:380] label_data_1_split -> label_data_1_split_0
I0729 18:48:53.377051 23035 net.cpp:380] label_data_1_split -> label_data_1_split_1
I0729 18:48:53.377076 23035 net.cpp:122] Setting up label_data_1_split
I0729 18:48:53.377084 23035 net.cpp:129] Top shape: 1 1 1 70000 (70000)
I0729 18:48:53.377089 23035 net.cpp:129] Top shape: 1 1 1 70000 (70000)
I0729 18:48:53.377091 23035 net.cpp:137] Memory required for data: 6720000
I0729 18:48:53.377094 23035 layer_factory.hpp:77] Creating layer data_feat
I0729 18:48:53.381171 23035 net.cpp:84] Creating Layer data_feat
I0729 18:48:53.381207 23035 net.cpp:406] data_feat <- data_data_0_split_0
I0729 18:48:53.381217 23035 net.cpp:380] data_feat -> data_feat
I0729 18:48:53.382840 23035 net.cpp:122] Setting up data_feat
I0729 18:48:53.382874 23035 net.cpp:129] Top shape: 1 3 1 70000 (210000)
I0729 18:48:53.382877 23035 net.cpp:137] Memory required for data: 7560000
I0729 18:48:53.382882 23035 layer_factory.hpp:77] Creating layer conv1
I0729 18:48:53.382921 23035 net.cpp:84] Creating Layer conv1
I0729 18:48:53.382928 23035 net.cpp:406] conv1 <- data_feat
I0729 18:48:53.382936 23035 net.cpp:380] conv1 -> conv1
I0729 18:48:56.756484 23035 net.cpp:122] Setting up conv1
I0729 18:48:56.756548 23035 net.cpp:129] Top shape: 1 32 1 70000 (2240000)
I0729 18:48:56.756561 23035 net.cpp:137] Memory required for data: 16520000
I0729 18:48:56.756695 23035 layer_factory.hpp:77] Creating layer bn1
I0729 18:48:56.769429 23035 net.cpp:84] Creating Layer bn1
I0729 18:48:56.769466 23035 net.cpp:406] bn1 <- conv1
I0729 18:48:56.769486 23035 net.cpp:380] bn1 -> bn1
I0729 18:48:56.797931 23035 net.cpp:122] Setting up bn1
I0729 18:48:56.797976 23035 net.cpp:129] Top shape: 1 32 1 70000 (2240000)
I0729 18:48:56.797988 23035 net.cpp:137] Memory required for data: 25480000
I0729 18:48:56.798020 23035 layer_factory.hpp:77] Creating layer relu1
I0729 18:48:56.798096 23035 net.cpp:84] Creating Layer relu1
I0729 18:48:56.798117 23035 net.cpp:406] relu1 <- bn1
I0729 18:48:56.798133 23035 net.cpp:367] relu1 -> bn1 (in-place)
I0729 18:48:56.798878 23035 net.cpp:122] Setting up relu1
I0729 18:48:56.798912 23035 net.cpp:129] Top shape: 1 32 1 70000 (2240000)
I0729 18:48:56.798921 23035 net.cpp:137] Memory required for data: 34440000
I0729 18:48:56.798931 23035 layer_factory.hpp:77] Creating layer bn1_relu1_0_split
I0729 18:48:56.798950 23035 net.cpp:84] Creating Layer bn1_relu1_0_split
I0729 18:48:56.798959 23035 net.cpp:406] bn1_relu1_0_split <- bn1
I0729 18:48:56.798972 23035 net.cpp:380] bn1_relu1_0_split -> bn1_relu1_0_split_0
I0729 18:48:56.798990 23035 net.cpp:380] bn1_relu1_0_split -> bn1_relu1_0_split_1
I0729 18:48:56.799078 23035 net.cpp:122] Setting up bn1_relu1_0_split
I0729 18:48:56.799098 23035 net.cpp:129] Top shape: 1 32 1 70000 (2240000)
I0729 18:48:56.799108 23035 net.cpp:129] Top shape: 1 32 1 70000 (2240000)
I0729 18:48:56.799115 23035 net.cpp:137] Memory required for data: 52360000
I0729 18:48:56.799124 23035 layer_factory.hpp:77] Creating layer fconv1
I0729 18:48:56.799149 23035 net.cpp:84] Creating Layer fconv1
I0729 18:48:56.799162 23035 net.cpp:406] fconv1 <- bn1_relu1_0_split_0
I0729 18:48:56.799178 23035 net.cpp:380] fconv1 -> fconv1
I0729 18:48:56.804632 23035 net.cpp:122] Setting up fconv1
I0729 18:48:56.804671 23035 net.cpp:129] Top shape: 1 3 1 70000 (210000)
I0729 18:48:56.804697 23035 net.cpp:137] Memory required for data: 53200000
I0729 18:48:56.804718 23035 layer_factory.hpp:77] Creating layer fbn1
I0729 18:48:56.804738 23035 net.cpp:84] Creating Layer fbn1
I0729 18:48:56.804749 23035 net.cpp:406] fbn1 <- fconv1
I0729 18:48:56.804766 23035 net.cpp:380] fbn1 -> fbn1
I0729 18:48:56.805347 23035 net.cpp:122] Setting up fbn1
I0729 18:48:56.805371 23035 net.cpp:129] Top shape: 1 3 1 70000 (210000)
I0729 18:48:56.805380 23035 net.cpp:137] Memory required for data: 54040000
I0729 18:48:56.805407 23035 layer_factory.hpp:77] Creating layer frelu1
I0729 18:48:56.805423 23035 net.cpp:84] Creating Layer frelu1
I0729 18:48:56.805433 23035 net.cpp:406] frelu1 <- fbn1
I0729 18:48:56.805445 23035 net.cpp:367] frelu1 -> fbn1 (in-place)
I0729 18:48:56.806092 23035 net.cpp:122] Setting up frelu1
I0729 18:48:56.806121 23035 net.cpp:129] Top shape: 1 3 1 70000 (210000)
I0729 18:48:56.806130 23035 net.cpp:137] Memory required for data: 54880000
I0729 18:48:56.806139 23035 layer_factory.hpp:77] Creating layer data_lattice0
I0729 18:48:56.806308 23035 net.cpp:84] Creating Layer data_lattice0
I0729 18:48:56.806326 23035 net.cpp:406] data_lattice0 <- data_data_0_split_1
I0729 18:48:56.806342 23035 net.cpp:380] data_lattice0 -> data_lattice0
I0729 18:48:56.809093 23035 net.cpp:122] Setting up data_lattice0
I0729 18:48:56.809129 23035 net.cpp:129] Top shape: 1 3 1 70000 (210000)
I0729 18:48:56.809139 23035 net.cpp:137] Memory required for data: 55720000
I0729 18:48:56.809149 23035 layer_factory.hpp:77] Creating layer feat1
I0729 18:48:56.809219 23035 net.cpp:84] Creating Layer feat1
I0729 18:48:56.809239 23035 net.cpp:406] feat1 <- data_lattice0
I0729 18:48:56.809252 23035 net.cpp:406] feat1 <- fbn1
I0729 18:48:56.809264 23035 net.cpp:380] feat1 -> feat1
I0729 18:48:56.809397 23035 net.cpp:122] Setting up feat1
I0729 18:48:56.809420 23035 net.cpp:129] Top shape: 1 3 1 70000 (210000)
I0729 18:48:56.809429 23035 net.cpp:137] Memory required for data: 56560000
I0729 18:48:56.809437 23035 layer_factory.hpp:77] Creating layer feat1_feat1_0_split
I0729 18:48:56.809450 23035 net.cpp:84] Creating Layer feat1_feat1_0_split
I0729 18:48:56.809459 23035 net.cpp:406] feat1_feat1_0_split <- feat1
I0729 18:48:56.809475 23035 net.cpp:380] feat1_feat1_0_split -> feat1_feat1_0_split_0
I0729 18:48:56.809492 23035 net.cpp:380] feat1_feat1_0_split -> feat1_feat1_0_split_1
I0729 18:48:56.809568 23035 net.cpp:122] Setting up feat1_feat1_0_split
I0729 18:48:56.809584 23035 net.cpp:129] Top shape: 1 3 1 70000 (210000)
I0729 18:48:56.809593 23035 net.cpp:129] Top shape: 1 3 1 70000 (210000)
I0729 18:48:56.809600 23035 net.cpp:137] Memory required for data: 58240000
I0729 18:48:56.809607 23035 layer_factory.hpp:77] Creating layer conv2
I0729 18:48:56.809659 23035 net.cpp:84] Creating Layer conv2
I0729 18:48:56.809692 23035 net.cpp:406] conv2 <- bn1_relu1_0_split_1
I0729 18:48:56.809706 23035 net.cpp:406] conv2 <- feat1_feat1_0_split_0
I0729 18:48:56.809716 23035 net.cpp:406] conv2 <- feat1_feat1_0_split_1
I0729 18:48:56.809731 23035 net.cpp:380] conv2 -> conv2
I0729 18:48:56.872030 23035 net.cpp:122] Setting up conv2
I0729 18:48:56.872074 23035 net.cpp:129] Top shape: 1 64 1 70000 (4480000)
I0729 18:48:56.872086 23035 net.cpp:137] Memory required for data: 76160000
I0729 18:48:56.872107 23035 layer_factory.hpp:77] Creating layer bn2
I0729 18:48:56.872125 23035 net.cpp:84] Creating Layer bn2
I0729 18:48:56.872135 23035 net.cpp:406] bn2 <- conv2
I0729 18:48:56.872149 23035 net.cpp:380] bn2 -> bn2
I0729 18:48:56.872596 23035 net.cpp:122] Setting up bn2
I0729 18:48:56.872612 23035 net.cpp:129] Top shape: 1 64 1 70000 (4480000)
I0729 18:48:56.872618 23035 net.cpp:137] Memory required for data: 94080000
I0729 18:48:56.872632 23035 layer_factory.hpp:77] Creating layer relu2
I0729 18:48:56.872648 23035 net.cpp:84] Creating Layer relu2
I0729 18:48:56.872654 23035 net.cpp:406] relu2 <- bn2
I0729 18:48:56.872663 23035 net.cpp:367] relu2 -> bn2 (in-place)
I0729 18:48:56.874517 23035 net.cpp:122] Setting up relu2
I0729 18:48:56.874544 23035 net.cpp:129] Top shape: 1 64 1 70000 (4480000)
I0729 18:48:56.874552 23035 net.cpp:137] Memory required for data: 112000000
I0729 18:48:56.874559 23035 layer_factory.hpp:77] Creating layer bn2_relu2_0_split
I0729 18:48:56.874572 23035 net.cpp:84] Creating Layer bn2_relu2_0_split
I0729 18:48:56.874580 23035 net.cpp:406] bn2_relu2_0_split <- bn2
I0729 18:48:56.874593 23035 net.cpp:380] bn2_relu2_0_split -> bn2_relu2_0_split_0
I0729 18:48:56.874605 23035 net.cpp:380] bn2_relu2_0_split -> bn2_relu2_0_split_1
I0729 18:48:56.874617 23035 net.cpp:380] bn2_relu2_0_split -> bn2_relu2_0_split_2
I0729 18:48:56.874718 23035 net.cpp:122] Setting up bn2_relu2_0_split
I0729 18:48:56.874734 23035 net.cpp:129] Top shape: 1 64 1 70000 (4480000)
I0729 18:48:56.874742 23035 net.cpp:129] Top shape: 1 64 1 70000 (4480000)
I0729 18:48:56.874749 23035 net.cpp:129] Top shape: 1 64 1 70000 (4480000)
I0729 18:48:56.874755 23035 net.cpp:137] Memory required for data: 165760000
I0729 18:48:56.874761 23035 layer_factory.hpp:77] Creating layer fconv2
I0729 18:48:56.874780 23035 net.cpp:84] Creating Layer fconv2
I0729 18:48:56.874788 23035 net.cpp:406] fconv2 <- bn2_relu2_0_split_0
I0729 18:48:56.874800 23035 net.cpp:380] fconv2 -> fconv2
I0729 18:48:56.878432 23035 net.cpp:122] Setting up fconv2
I0729 18:48:56.878463 23035 net.cpp:129] Top shape: 1 3 1 70000 (210000)
I0729 18:48:56.878470 23035 net.cpp:137] Memory required for data: 166600000
I0729 18:48:56.878494 23035 layer_factory.hpp:77] Creating layer fbn2
I0729 18:48:56.878509 23035 net.cpp:84] Creating Layer fbn2
I0729 18:48:56.878518 23035 net.cpp:406] fbn2 <- fconv2
I0729 18:48:56.878530 23035 net.cpp:380] fbn2 -> fbn2
I0729 18:48:56.879000 23035 net.cpp:122] Setting up fbn2
I0729 18:48:56.879020 23035 net.cpp:129] Top shape: 1 3 1 70000 (210000)
I0729 18:48:56.879026 23035 net.cpp:137] Memory required for data: 167440000
I0729 18:48:56.879040 23035 layer_factory.hpp:77] Creating layer frelu2
I0729 18:48:56.879051 23035 net.cpp:84] Creating Layer frelu2
I0729 18:48:56.879058 23035 net.cpp:406] frelu2 <- fbn2
I0729 18:48:56.879067 23035 net.cpp:367] frelu2 -> fbn2 (in-place)
I0729 18:48:56.879568 23035 net.cpp:122] Setting up frelu2
I0729 18:48:56.879590 23035 net.cpp:129] Top shape: 1 3 1 70000 (210000)
I0729 18:48:56.879596 23035 net.cpp:137] Memory required for data: 168280000
I0729 18:48:56.879603 23035 layer_factory.hpp:77] Creating layer data_lattice1
I0729 18:48:56.879688 23035 net.cpp:84] Creating Layer data_lattice1
I0729 18:48:56.879703 23035 net.cpp:406] data_lattice1 <- data_data_0_split_2
I0729 18:48:56.879719 23035 net.cpp:380] data_lattice1 -> data_lattice1
I0729 18:48:56.881878 23035 net.cpp:122] Setting up data_lattice1
I0729 18:48:56.881907 23035 net.cpp:129] Top shape: 1 3 1 70000 (210000)
I0729 18:48:56.881916 23035 net.cpp:137] Memory required for data: 169120000
I0729 18:48:56.881922 23035 layer_factory.hpp:77] Creating layer feat2
I0729 18:48:56.881937 23035 net.cpp:84] Creating Layer feat2
I0729 18:48:56.881945 23035 net.cpp:406] feat2 <- data_lattice1
I0729 18:48:56.881954 23035 net.cpp:406] feat2 <- fbn2
I0729 18:48:56.881966 23035 net.cpp:380] feat2 -> feat2
I0729 18:48:56.882016 23035 net.cpp:122] Setting up feat2
I0729 18:48:56.882030 23035 net.cpp:129] Top shape: 1 3 1 70000 (210000)
I0729 18:48:56.882036 23035 net.cpp:137] Memory required for data: 169960000
I0729 18:48:56.882046 23035 layer_factory.hpp:77] Creating layer feat2_feat2_0_split
I0729 18:48:56.882056 23035 net.cpp:84] Creating Layer feat2_feat2_0_split
I0729 18:48:56.882063 23035 net.cpp:406] feat2_feat2_0_split <- feat2
I0729 18:48:56.882073 23035 net.cpp:380] feat2_feat2_0_split -> feat2_feat2_0_split_0
I0729 18:48:56.882086 23035 net.cpp:380] feat2_feat2_0_split -> feat2_feat2_0_split_1
I0729 18:48:56.882146 23035 net.cpp:122] Setting up feat2_feat2_0_split
I0729 18:48:56.882159 23035 net.cpp:129] Top shape: 1 3 1 70000 (210000)
I0729 18:48:56.882167 23035 net.cpp:129] Top shape: 1 3 1 70000 (210000)
I0729 18:48:56.882172 23035 net.cpp:137] Memory required for data: 171640000
I0729 18:48:56.882179 23035 layer_factory.hpp:77] Creating layer conv3
I0729 18:48:56.882194 23035 net.cpp:84] Creating Layer conv3
I0729 18:48:56.882200 23035 net.cpp:406] conv3 <- bn2_relu2_0_split_1
I0729 18:48:56.882210 23035 net.cpp:406] conv3 <- feat2_feat2_0_split_0
I0729 18:48:56.882217 23035 net.cpp:406] conv3 <- feat2_feat2_0_split_1
I0729 18:48:56.882227 23035 net.cpp:380] conv3 -> conv3
I0729 18:48:57.009259 23035 net.cpp:122] Setting up conv3
I0729 18:48:57.009296 23035 net.cpp:129] Top shape: 1 128 1 70000 (8960000)
I0729 18:48:57.009302 23035 net.cpp:137] Memory required for data: 207480000
I0729 18:48:57.009312 23035 layer_factory.hpp:77] Creating layer bn3
I0729 18:48:57.009325 23035 net.cpp:84] Creating Layer bn3
I0729 18:48:57.009331 23035 net.cpp:406] bn3 <- conv3
I0729 18:48:57.009341 23035 net.cpp:380] bn3 -> bn3
I0729 18:48:57.009660 23035 net.cpp:122] Setting up bn3
I0729 18:48:57.009678 23035 net.cpp:129] Top shape: 1 128 1 70000 (8960000)
I0729 18:48:57.009683 23035 net.cpp:137] Memory required for data: 243320000
I0729 18:48:57.009693 23035 layer_factory.hpp:77] Creating layer relu3
I0729 18:48:57.009707 23035 net.cpp:84] Creating Layer relu3
I0729 18:48:57.009713 23035 net.cpp:406] relu3 <- bn3
I0729 18:48:57.009719 23035 net.cpp:367] relu3 -> bn3 (in-place)
I0729 18:48:57.010885 23035 net.cpp:122] Setting up relu3
I0729 18:48:57.010903 23035 net.cpp:129] Top shape: 1 128 1 70000 (8960000)
I0729 18:48:57.010908 23035 net.cpp:137] Memory required for data: 279160000
I0729 18:48:57.010915 23035 layer_factory.hpp:77] Creating layer bn3_relu3_0_split
I0729 18:48:57.010924 23035 net.cpp:84] Creating Layer bn3_relu3_0_split
I0729 18:48:57.010929 23035 net.cpp:406] bn3_relu3_0_split <- bn3
I0729 18:48:57.010937 23035 net.cpp:380] bn3_relu3_0_split -> bn3_relu3_0_split_0
I0729 18:48:57.010946 23035 net.cpp:380] bn3_relu3_0_split -> bn3_relu3_0_split_1
I0729 18:48:57.010954 23035 net.cpp:380] bn3_relu3_0_split -> bn3_relu3_0_split_2
I0729 18:48:57.011015 23035 net.cpp:122] Setting up bn3_relu3_0_split
I0729 18:48:57.011024 23035 net.cpp:129] Top shape: 1 128 1 70000 (8960000)
I0729 18:48:57.011030 23035 net.cpp:129] Top shape: 1 128 1 70000 (8960000)
I0729 18:48:57.011035 23035 net.cpp:129] Top shape: 1 128 1 70000 (8960000)
I0729 18:48:57.011039 23035 net.cpp:137] Memory required for data: 386680000
I0729 18:48:57.011044 23035 layer_factory.hpp:77] Creating layer fconv3
I0729 18:48:57.011055 23035 net.cpp:84] Creating Layer fconv3
I0729 18:48:57.011060 23035 net.cpp:406] fconv3 <- bn3_relu3_0_split_0
I0729 18:48:57.011070 23035 net.cpp:380] fconv3 -> fconv3
I0729 18:48:57.022814 23035 net.cpp:122] Setting up fconv3
I0729 18:48:57.022835 23035 net.cpp:129] Top shape: 1 3 1 70000 (210000)
I0729 18:48:57.022840 23035 net.cpp:137] Memory required for data: 387520000
I0729 18:48:57.022850 23035 layer_factory.hpp:77] Creating layer fbn3
I0729 18:48:57.022859 23035 net.cpp:84] Creating Layer fbn3
I0729 18:48:57.022864 23035 net.cpp:406] fbn3 <- fconv3
I0729 18:48:57.022873 23035 net.cpp:380] fbn3 -> fbn3
I0729 18:48:57.023192 23035 net.cpp:122] Setting up fbn3
I0729 18:48:57.023205 23035 net.cpp:129] Top shape: 1 3 1 70000 (210000)
I0729 18:48:57.023210 23035 net.cpp:137] Memory required for data: 388360000
I0729 18:48:57.023218 23035 layer_factory.hpp:77] Creating layer frelu3
I0729 18:48:57.023229 23035 net.cpp:84] Creating Layer frelu3
I0729 18:48:57.023234 23035 net.cpp:406] frelu3 <- fbn3
I0729 18:48:57.023242 23035 net.cpp:367] frelu3 -> fbn3 (in-place)
I0729 18:48:57.023592 23035 net.cpp:122] Setting up frelu3
I0729 18:48:57.023607 23035 net.cpp:129] Top shape: 1 3 1 70000 (210000)
I0729 18:48:57.023612 23035 net.cpp:137] Memory required for data: 389200000
I0729 18:48:57.023617 23035 layer_factory.hpp:77] Creating layer data_lattice2
I0729 18:48:57.023718 23035 net.cpp:84] Creating Layer data_lattice2
I0729 18:48:57.023730 23035 net.cpp:406] data_lattice2 <- data_data_0_split_3
I0729 18:48:57.023741 23035 net.cpp:380] data_lattice2 -> data_lattice2
I0729 18:48:57.025403 23035 net.cpp:122] Setting up data_lattice2
I0729 18:48:57.025422 23035 net.cpp:129] Top shape: 1 3 1 70000 (210000)
I0729 18:48:57.025427 23035 net.cpp:137] Memory required for data: 390040000
I0729 18:48:57.025432 23035 layer_factory.hpp:77] Creating layer feat3
I0729 18:48:57.025450 23035 net.cpp:84] Creating Layer feat3
I0729 18:48:57.025456 23035 net.cpp:406] feat3 <- data_lattice2
I0729 18:48:57.025463 23035 net.cpp:406] feat3 <- fbn3
I0729 18:48:57.025472 23035 net.cpp:380] feat3 -> feat3
I0729 18:48:57.025507 23035 net.cpp:122] Setting up feat3
I0729 18:48:57.025519 23035 net.cpp:129] Top shape: 1 3 1 70000 (210000)
I0729 18:48:57.025523 23035 net.cpp:137] Memory required for data: 390880000
I0729 18:48:57.025527 23035 layer_factory.hpp:77] Creating layer feat3_feat3_0_split
I0729 18:48:57.025534 23035 net.cpp:84] Creating Layer feat3_feat3_0_split
I0729 18:48:57.025539 23035 net.cpp:406] feat3_feat3_0_split <- feat3
I0729 18:48:57.025547 23035 net.cpp:380] feat3_feat3_0_split -> feat3_feat3_0_split_0
I0729 18:48:57.025554 23035 net.cpp:380] feat3_feat3_0_split -> feat3_feat3_0_split_1
I0729 18:48:57.025595 23035 net.cpp:122] Setting up feat3_feat3_0_split
I0729 18:48:57.025604 23035 net.cpp:129] Top shape: 1 3 1 70000 (210000)
I0729 18:48:57.025609 23035 net.cpp:129] Top shape: 1 3 1 70000 (210000)
I0729 18:48:57.025614 23035 net.cpp:137] Memory required for data: 392560000
I0729 18:48:57.025617 23035 layer_factory.hpp:77] Creating layer conv4
I0729 18:48:57.025630 23035 net.cpp:84] Creating Layer conv4
I0729 18:48:57.025635 23035 net.cpp:406] conv4 <- bn3_relu3_0_split_1
I0729 18:48:57.025641 23035 net.cpp:406] conv4 <- feat3_feat3_0_split_0
I0729 18:48:57.025646 23035 net.cpp:406] conv4 <- feat3_feat3_0_split_1
I0729 18:48:57.025653 23035 net.cpp:380] conv4 -> conv4
I0729 18:48:57.106210 23035 net.cpp:122] Setting up conv4
I0729 18:48:57.106253 23035 net.cpp:129] Top shape: 1 256 1 70000 (17920000)
I0729 18:48:57.106259 23035 net.cpp:137] Memory required for data: 464240000
I0729 18:48:57.106271 23035 layer_factory.hpp:77] Creating layer bn4
I0729 18:48:57.106284 23035 net.cpp:84] Creating Layer bn4
I0729 18:48:57.106292 23035 net.cpp:406] bn4 <- conv4
I0729 18:48:57.106302 23035 net.cpp:380] bn4 -> bn4
I0729 18:48:57.106618 23035 net.cpp:122] Setting up bn4
I0729 18:48:57.106629 23035 net.cpp:129] Top shape: 1 256 1 70000 (17920000)
I0729 18:48:57.106634 23035 net.cpp:137] Memory required for data: 535920000
I0729 18:48:57.106653 23035 layer_factory.hpp:77] Creating layer relu4
I0729 18:48:57.106662 23035 net.cpp:84] Creating Layer relu4
I0729 18:48:57.106667 23035 net.cpp:406] relu4 <- bn4
I0729 18:48:57.106679 23035 net.cpp:367] relu4 -> bn4 (in-place)
I0729 18:48:57.107590 23035 net.cpp:122] Setting up relu4
I0729 18:48:57.107609 23035 net.cpp:129] Top shape: 1 256 1 70000 (17920000)
I0729 18:48:57.107614 23035 net.cpp:137] Memory required for data: 607600000
I0729 18:48:57.107619 23035 layer_factory.hpp:77] Creating layer bn4_relu4_0_split
I0729 18:48:57.107628 23035 net.cpp:84] Creating Layer bn4_relu4_0_split
I0729 18:48:57.107633 23035 net.cpp:406] bn4_relu4_0_split <- bn4
I0729 18:48:57.107641 23035 net.cpp:380] bn4_relu4_0_split -> bn4_relu4_0_split_0
I0729 18:48:57.107650 23035 net.cpp:380] bn4_relu4_0_split -> bn4_relu4_0_split_1
I0729 18:48:57.107657 23035 net.cpp:380] bn4_relu4_0_split -> bn4_relu4_0_split_2
I0729 18:48:57.107729 23035 net.cpp:122] Setting up bn4_relu4_0_split
I0729 18:48:57.107741 23035 net.cpp:129] Top shape: 1 256 1 70000 (17920000)
I0729 18:48:57.107748 23035 net.cpp:129] Top shape: 1 256 1 70000 (17920000)
I0729 18:48:57.107751 23035 net.cpp:129] Top shape: 1 256 1 70000 (17920000)
I0729 18:48:57.107755 23035 net.cpp:137] Memory required for data: 822640000
I0729 18:48:57.107759 23035 layer_factory.hpp:77] Creating layer fconv4
I0729 18:48:57.107779 23035 net.cpp:84] Creating Layer fconv4
I0729 18:48:57.107789 23035 net.cpp:406] fconv4 <- bn4_relu4_0_split_0
I0729 18:48:57.107797 23035 net.cpp:380] fconv4 -> fconv4
I0729 18:48:57.111245 23035 net.cpp:122] Setting up fconv4
I0729 18:48:57.111265 23035 net.cpp:129] Top shape: 1 3 1 70000 (210000)
I0729 18:48:57.111271 23035 net.cpp:137] Memory required for data: 823480000
I0729 18:48:57.111280 23035 layer_factory.hpp:77] Creating layer fbn4
I0729 18:48:57.111289 23035 net.cpp:84] Creating Layer fbn4
I0729 18:48:57.111294 23035 net.cpp:406] fbn4 <- fconv4
I0729 18:48:57.111304 23035 net.cpp:380] fbn4 -> fbn4
I0729 18:48:57.111623 23035 net.cpp:122] Setting up fbn4
I0729 18:48:57.111634 23035 net.cpp:129] Top shape: 1 3 1 70000 (210000)
I0729 18:48:57.111639 23035 net.cpp:137] Memory required for data: 824320000
I0729 18:48:57.111647 23035 layer_factory.hpp:77] Creating layer frelu4
I0729 18:48:57.111655 23035 net.cpp:84] Creating Layer frelu4
I0729 18:48:57.111660 23035 net.cpp:406] frelu4 <- fbn4
I0729 18:48:57.111666 23035 net.cpp:367] frelu4 -> fbn4 (in-place)
I0729 18:48:57.112010 23035 net.cpp:122] Setting up frelu4
I0729 18:48:57.112025 23035 net.cpp:129] Top shape: 1 3 1 70000 (210000)
I0729 18:48:57.112030 23035 net.cpp:137] Memory required for data: 825160000
I0729 18:48:57.112035 23035 layer_factory.hpp:77] Creating layer data_lattice3
I0729 18:48:57.112107 23035 net.cpp:84] Creating Layer data_lattice3
I0729 18:48:57.112116 23035 net.cpp:406] data_lattice3 <- data_data_0_split_4
I0729 18:48:57.112125 23035 net.cpp:380] data_lattice3 -> data_lattice3
I0729 18:48:57.113785 23035 net.cpp:122] Setting up data_lattice3
I0729 18:48:57.113804 23035 net.cpp:129] Top shape: 1 3 1 70000 (210000)
I0729 18:48:57.113809 23035 net.cpp:137] Memory required for data: 826000000
I0729 18:48:57.113814 23035 layer_factory.hpp:77] Creating layer feat4
I0729 18:48:57.113827 23035 net.cpp:84] Creating Layer feat4
I0729 18:48:57.113833 23035 net.cpp:406] feat4 <- data_lattice3
I0729 18:48:57.113840 23035 net.cpp:406] feat4 <- fbn4
I0729 18:48:57.113848 23035 net.cpp:380] feat4 -> feat4
I0729 18:48:57.113883 23035 net.cpp:122] Setting up feat4
I0729 18:48:57.113893 23035 net.cpp:129] Top shape: 1 3 1 70000 (210000)
I0729 18:48:57.113898 23035 net.cpp:137] Memory required for data: 826840000
I0729 18:48:57.113903 23035 layer_factory.hpp:77] Creating layer feat4_feat4_0_split
I0729 18:48:57.113909 23035 net.cpp:84] Creating Layer feat4_feat4_0_split
I0729 18:48:57.113914 23035 net.cpp:406] feat4_feat4_0_split <- feat4
I0729 18:48:57.113922 23035 net.cpp:380] feat4_feat4_0_split -> feat4_feat4_0_split_0
I0729 18:48:57.113930 23035 net.cpp:380] feat4_feat4_0_split -> feat4_feat4_0_split_1
I0729 18:48:57.113971 23035 net.cpp:122] Setting up feat4_feat4_0_split
I0729 18:48:57.113979 23035 net.cpp:129] Top shape: 1 3 1 70000 (210000)
I0729 18:48:57.113986 23035 net.cpp:129] Top shape: 1 3 1 70000 (210000)
I0729 18:48:57.113988 23035 net.cpp:137] Memory required for data: 828520000
I0729 18:48:57.113992 23035 layer_factory.hpp:77] Creating layer conv5
I0729 18:48:57.114002 23035 net.cpp:84] Creating Layer conv5
I0729 18:48:57.114007 23035 net.cpp:406] conv5 <- bn4_relu4_0_split_1
I0729 18:48:57.114013 23035 net.cpp:406] conv5 <- feat4_feat4_0_split_0
I0729 18:48:57.114018 23035 net.cpp:406] conv5 <- feat4_feat4_0_split_1
I0729 18:48:57.114027 23035 net.cpp:380] conv5 -> conv5
I0729 18:48:57.273998 23035 net.cpp:122] Setting up conv5
I0729 18:48:57.274041 23035 net.cpp:129] Top shape: 1 256 1 70000 (17920000)
I0729 18:48:57.274046 23035 net.cpp:137] Memory required for data: 900200000
I0729 18:48:57.274060 23035 layer_factory.hpp:77] Creating layer bn5
I0729 18:48:57.274075 23035 net.cpp:84] Creating Layer bn5
I0729 18:48:57.274083 23035 net.cpp:406] bn5 <- conv5
I0729 18:48:57.274094 23035 net.cpp:380] bn5 -> bn5
I0729 18:48:57.274416 23035 net.cpp:122] Setting up bn5
I0729 18:48:57.274428 23035 net.cpp:129] Top shape: 1 256 1 70000 (17920000)
I0729 18:48:57.274432 23035 net.cpp:137] Memory required for data: 971880000
I0729 18:48:57.274441 23035 layer_factory.hpp:77] Creating layer relu5
I0729 18:48:57.274456 23035 net.cpp:84] Creating Layer relu5
I0729 18:48:57.274461 23035 net.cpp:406] relu5 <- bn5
I0729 18:48:57.274466 23035 net.cpp:367] relu5 -> bn5 (in-place)
I0729 18:48:57.275457 23035 net.cpp:122] Setting up relu5
I0729 18:48:57.275476 23035 net.cpp:129] Top shape: 1 256 1 70000 (17920000)
I0729 18:48:57.275481 23035 net.cpp:137] Memory required for data: 1043560000
I0729 18:48:57.275486 23035 layer_factory.hpp:77] Creating layer bn5_relu5_0_split
I0729 18:48:57.275496 23035 net.cpp:84] Creating Layer bn5_relu5_0_split
I0729 18:48:57.275501 23035 net.cpp:406] bn5_relu5_0_split <- bn5
I0729 18:48:57.275508 23035 net.cpp:380] bn5_relu5_0_split -> bn5_relu5_0_split_0
I0729 18:48:57.275517 23035 net.cpp:380] bn5_relu5_0_split -> bn5_relu5_0_split_1
I0729 18:48:57.275524 23035 net.cpp:380] bn5_relu5_0_split -> bn5_relu5_0_split_2
I0729 18:48:57.275586 23035 net.cpp:122] Setting up bn5_relu5_0_split
I0729 18:48:57.275598 23035 net.cpp:129] Top shape: 1 256 1 70000 (17920000)
I0729 18:48:57.275604 23035 net.cpp:129] Top shape: 1 256 1 70000 (17920000)
I0729 18:48:57.275607 23035 net.cpp:129] Top shape: 1 256 1 70000 (17920000)
I0729 18:48:57.275611 23035 net.cpp:137] Memory required for data: 1258600000
I0729 18:48:57.275615 23035 layer_factory.hpp:77] Creating layer fconv5
I0729 18:48:57.275629 23035 net.cpp:84] Creating Layer fconv5
I0729 18:48:57.275635 23035 net.cpp:406] fconv5 <- bn5_relu5_0_split_0
I0729 18:48:57.275645 23035 net.cpp:380] fconv5 -> fconv5
I0729 18:48:57.277889 23035 net.cpp:122] Setting up fconv5
I0729 18:48:57.277906 23035 net.cpp:129] Top shape: 1 3 1 70000 (210000)
I0729 18:48:57.277911 23035 net.cpp:137] Memory required for data: 1259440000
I0729 18:48:57.277921 23035 layer_factory.hpp:77] Creating layer fbn5
I0729 18:48:57.277930 23035 net.cpp:84] Creating Layer fbn5
I0729 18:48:57.277935 23035 net.cpp:406] fbn5 <- fconv5
I0729 18:48:57.277942 23035 net.cpp:380] fbn5 -> fbn5
I0729 18:48:57.278257 23035 net.cpp:122] Setting up fbn5
I0729 18:48:57.278270 23035 net.cpp:129] Top shape: 1 3 1 70000 (210000)
I0729 18:48:57.278273 23035 net.cpp:137] Memory required for data: 1260280000
I0729 18:48:57.278282 23035 layer_factory.hpp:77] Creating layer frelu5
I0729 18:48:57.278293 23035 net.cpp:84] Creating Layer frelu5
I0729 18:48:57.278298 23035 net.cpp:406] frelu5 <- fbn5
I0729 18:48:57.278304 23035 net.cpp:367] frelu5 -> fbn5 (in-place)
I0729 18:48:57.279100 23035 net.cpp:122] Setting up frelu5
I0729 18:48:57.279117 23035 net.cpp:129] Top shape: 1 3 1 70000 (210000)
I0729 18:48:57.279122 23035 net.cpp:137] Memory required for data: 1261120000
I0729 18:48:57.279127 23035 layer_factory.hpp:77] Creating layer data_lattice4
I0729 18:48:57.279196 23035 net.cpp:84] Creating Layer data_lattice4
I0729 18:48:57.279204 23035 net.cpp:406] data_lattice4 <- data_data_0_split_5
I0729 18:48:57.279213 23035 net.cpp:380] data_lattice4 -> data_lattice4
I0729 18:48:57.280783 23035 net.cpp:122] Setting up data_lattice4
I0729 18:48:57.280802 23035 net.cpp:129] Top shape: 1 3 1 70000 (210000)
I0729 18:48:57.280807 23035 net.cpp:137] Memory required for data: 1261960000
I0729 18:48:57.280812 23035 layer_factory.hpp:77] Creating layer feat5
I0729 18:48:57.280823 23035 net.cpp:84] Creating Layer feat5
I0729 18:48:57.280829 23035 net.cpp:406] feat5 <- data_lattice4
I0729 18:48:57.280835 23035 net.cpp:406] feat5 <- fbn5
I0729 18:48:57.280844 23035 net.cpp:380] feat5 -> feat5
I0729 18:48:57.280879 23035 net.cpp:122] Setting up feat5
I0729 18:48:57.280887 23035 net.cpp:129] Top shape: 1 3 1 70000 (210000)
I0729 18:48:57.280890 23035 net.cpp:137] Memory required for data: 1262800000
I0729 18:48:57.280894 23035 layer_factory.hpp:77] Creating layer feat5_feat5_0_split
I0729 18:48:57.280902 23035 net.cpp:84] Creating Layer feat5_feat5_0_split
I0729 18:48:57.280906 23035 net.cpp:406] feat5_feat5_0_split <- feat5
I0729 18:48:57.280915 23035 net.cpp:380] feat5_feat5_0_split -> feat5_feat5_0_split_0
I0729 18:48:57.280921 23035 net.cpp:380] feat5_feat5_0_split -> feat5_feat5_0_split_1
I0729 18:48:57.280977 23035 net.cpp:122] Setting up feat5_feat5_0_split
I0729 18:48:57.280987 23035 net.cpp:129] Top shape: 1 3 1 70000 (210000)
I0729 18:48:57.280994 23035 net.cpp:129] Top shape: 1 3 1 70000 (210000)
I0729 18:48:57.280997 23035 net.cpp:137] Memory required for data: 1264480000
I0729 18:48:57.281002 23035 layer_factory.hpp:77] Creating layer conv6
I0729 18:48:57.281015 23035 net.cpp:84] Creating Layer conv6
I0729 18:48:57.281020 23035 net.cpp:406] conv6 <- bn5_relu5_0_split_1
I0729 18:48:57.281026 23035 net.cpp:406] conv6 <- feat5_feat5_0_split_0
I0729 18:48:57.281031 23035 net.cpp:406] conv6 <- feat5_feat5_0_split_1
I0729 18:48:57.281039 23035 net.cpp:380] conv6 -> conv6
I0729 18:48:57.318522 23035 net.cpp:122] Setting up conv6
I0729 18:48:57.318547 23035 net.cpp:129] Top shape: 1 256 1 70000 (17920000)
I0729 18:48:57.318552 23035 net.cpp:137] Memory required for data: 1336160000
I0729 18:48:57.318560 23035 layer_factory.hpp:77] Creating layer bn6
I0729 18:48:57.318569 23035 net.cpp:84] Creating Layer bn6
I0729 18:48:57.318575 23035 net.cpp:406] bn6 <- conv6
I0729 18:48:57.318583 23035 net.cpp:380] bn6 -> bn6
I0729 18:48:57.318899 23035 net.cpp:122] Setting up bn6
I0729 18:48:57.318912 23035 net.cpp:129] Top shape: 1 256 1 70000 (17920000)
I0729 18:48:57.318915 23035 net.cpp:137] Memory required for data: 1407840000
I0729 18:48:57.318925 23035 layer_factory.hpp:77] Creating layer relu6
I0729 18:48:57.318933 23035 net.cpp:84] Creating Layer relu6
I0729 18:48:57.318938 23035 net.cpp:406] relu6 <- bn6
I0729 18:48:57.318944 23035 net.cpp:367] relu6 -> bn6 (in-place)
I0729 18:48:57.319329 23035 net.cpp:122] Setting up relu6
I0729 18:48:57.319342 23035 net.cpp:129] Top shape: 1 256 1 70000 (17920000)
I0729 18:48:57.319347 23035 net.cpp:137] Memory required for data: 1479520000
I0729 18:48:57.319355 23035 layer_factory.hpp:77] Creating layer concat6
I0729 18:48:57.319437 23035 net.cpp:84] Creating Layer concat6
I0729 18:48:57.319447 23035 net.cpp:406] concat6 <- bn6
I0729 18:48:57.319454 23035 net.cpp:406] concat6 <- bn2_relu2_0_split_2
I0729 18:48:57.319459 23035 net.cpp:406] concat6 <- bn3_relu3_0_split_2
I0729 18:48:57.319464 23035 net.cpp:406] concat6 <- bn4_relu4_0_split_2
I0729 18:48:57.319468 23035 net.cpp:406] concat6 <- bn5_relu5_0_split_2
I0729 18:48:57.319475 23035 net.cpp:380] concat6 -> concat6
I0729 18:48:57.319537 23035 net.cpp:122] Setting up concat6
I0729 18:48:57.319550 23035 net.cpp:129] Top shape: 1 960 1 70000 (67200000)
I0729 18:48:57.319555 23035 net.cpp:137] Memory required for data: 1748320000
I0729 18:48:57.319559 23035 layer_factory.hpp:77] Creating layer conv7
I0729 18:48:57.319572 23035 net.cpp:84] Creating Layer conv7
I0729 18:48:57.319577 23035 net.cpp:406] conv7 <- concat6
I0729 18:48:57.319586 23035 net.cpp:380] conv7 -> conv7
I0729 18:48:57.325829 23035 net.cpp:122] Setting up conv7
I0729 18:48:57.325848 23035 net.cpp:129] Top shape: 1 128 1 70000 (8960000)
I0729 18:48:57.325855 23035 net.cpp:137] Memory required for data: 1784160000
I0729 18:48:57.325865 23035 layer_factory.hpp:77] Creating layer bn7
I0729 18:48:57.325873 23035 net.cpp:84] Creating Layer bn7
I0729 18:48:57.325878 23035 net.cpp:406] bn7 <- conv7
I0729 18:48:57.325886 23035 net.cpp:380] bn7 -> bn7
I0729 18:48:57.326179 23035 net.cpp:122] Setting up bn7
I0729 18:48:57.326191 23035 net.cpp:129] Top shape: 1 128 1 70000 (8960000)
I0729 18:48:57.326195 23035 net.cpp:137] Memory required for data: 1820000000
I0729 18:48:57.326205 23035 layer_factory.hpp:77] Creating layer relu7
I0729 18:48:57.326215 23035 net.cpp:84] Creating Layer relu7
I0729 18:48:57.326220 23035 net.cpp:406] relu7 <- bn7
I0729 18:48:57.326225 23035 net.cpp:367] relu7 -> bn7 (in-place)
I0729 18:48:57.326962 23035 net.cpp:122] Setting up relu7
I0729 18:48:57.326980 23035 net.cpp:129] Top shape: 1 128 1 70000 (8960000)
I0729 18:48:57.326985 23035 net.cpp:137] Memory required for data: 1855840000
I0729 18:48:57.326990 23035 layer_factory.hpp:77] Creating layer conv8
I0729 18:48:57.327003 23035 net.cpp:84] Creating Layer conv8
I0729 18:48:57.327009 23035 net.cpp:406] conv8 <- bn7
I0729 18:48:57.327019 23035 net.cpp:380] conv8 -> conv8
I0729 18:48:57.330559 23035 net.cpp:122] Setting up conv8
I0729 18:48:57.330579 23035 net.cpp:129] Top shape: 1 13 1 70000 (910000)
I0729 18:48:57.330585 23035 net.cpp:137] Memory required for data: 1859480000
I0729 18:48:57.330593 23035 layer_factory.hpp:77] Creating layer conv8_conv8_0_split
I0729 18:48:57.330602 23035 net.cpp:84] Creating Layer conv8_conv8_0_split
I0729 18:48:57.330607 23035 net.cpp:406] conv8_conv8_0_split <- conv8
I0729 18:48:57.330615 23035 net.cpp:380] conv8_conv8_0_split -> conv8_conv8_0_split_0
I0729 18:48:57.330624 23035 net.cpp:380] conv8_conv8_0_split -> conv8_conv8_0_split_1
I0729 18:48:57.330685 23035 net.cpp:122] Setting up conv8_conv8_0_split
I0729 18:48:57.330698 23035 net.cpp:129] Top shape: 1 13 1 70000 (910000)
I0729 18:48:57.330703 23035 net.cpp:129] Top shape: 1 13 1 70000 (910000)
I0729 18:48:57.330706 23035 net.cpp:137] Memory required for data: 1866760000
I0729 18:48:57.330710 23035 layer_factory.hpp:77] Creating layer loss
I0729 18:48:57.330760 23035 net.cpp:84] Creating Layer loss
I0729 18:48:57.330770 23035 net.cpp:406] loss <- conv8_conv8_0_split_0
I0729 18:48:57.330777 23035 net.cpp:406] loss <- label_data_1_split_0
I0729 18:48:57.330785 23035 net.cpp:380] loss -> loss
…
