…
I0817 10:23:37.403151 15693 net.cpp:294] The NetState phase (0) differed from the phase (1) specified by a rule in layer data
I0817 10:23:37.403779 15693 net.cpp:51] Initializing net from parameters: 
state {
  phase: TRAIN
}
layer {
  name: "data"
  type: "Python"
  top: "data"
  top: "label"
  include {
    phase: TRAIN
  }
  python_param {
    module: "dataset_lidar"
    layer: "InputShapenet"
    param_str: "{\'sample_size\': 4096, \'test_area\': \'6\', \'batch_size\': 12, \'feat_dims\': \'x_y_z_r_g_b\', \'subset\': \'train\', \'root\': \'../../data/shapenet_ericyi_ply\', \'jitter_xyz\': 0.01, \'jitter_stretch\': 0.05, \'jitter_rotation\': 5.0}"
  }
}
layer {
  name: "data_feat"
  type: "Python"
  bottom: "data"
  top: "data_feat"
  python_param {
    module: "custom_layers"
    layer: "PickAndScale"
    param_str: "0_1_2"
  }
}
layer {
  name: "conv1"
  type: "Convolution"
  bottom: "data"
  top: "conv1"
  param {
    lr_mult: 1
  }
  param {
    lr_mult: 0.1
  }
  convolution_param {
    num_output: 64
    pad: 0
    kernel_size: 1
    stride: 1
    weight_filler {
      type: "xavier"
    }
    bias_filler {
      type: "constant"
      value: 0
    }
  }
}
layer {
  name: "bn1"
  type: "BatchNorm"
  bottom: "conv1"
  top: "bn1"
}
layer {
  name: "relu1"
  type: "ReLU"
  bottom: "bn1"
  top: "bn1"
}
layer {
  name: "conv1a"
  type: "Convolution"
  bottom: "bn1"
  top: "conv1a"
  param {
    lr_mult: 1
  }
  param {
    lr_mult: 0.1
  }
  convolution_param {
    num_output: 64
    pad: 0
    kernel_size: 1
    stride: 1
    weight_filler {
      type: "xavier"
    }
    bias_filler {
      type: "constant"
      value: 0
    }
  }
}
layer {
  name: "bn1a"
  type: "BatchNorm"
  bottom: "conv1a"
  top: "bn1a"
}
layer {
  name: "relu1a"
  type: "ReLU"
  bottom: "bn1a"
  top: "bn1a"
}
layer {
  name: "fconv1"
  type: "Convolution"
  bottom: "bn1a"
  top: "fconv1"
  param {
    lr_mult: 1
  }
  param {
    lr_mult: 0.1
  }
  convolution_param {
    num_output: 3
    pad: 0
    kernel_size: 1
    stride: 1
    weight_filler {
      type: "xavier"
    }
    bias_filler {
      type: "constant"
      value: 0
    }
  }
}
layer {
  name: "fbn1"
  type: "BatchNorm"
  bottom: "fconv1"
  top: "fbn1"
}
layer {
  name: "frelu1"
  type: "ReLU"
  bottom: "fbn1"
  top: "fbn1"
}
layer {
  name: "fbn1_"
  type: "ReLU2"
  bottom: "fbn1"
  top: "fbn1_"
  relu2_param {
    threshold: 0.02
  }
}
layer {
  name: "feat1"
  type: "Eltwise"
  bottom: "data_feat"
  bottom: "fbn1_"
  top: "feat1"
  eltwise_param {
    operation: SUM
  }
}
layer {
  name: "data_lattice0"
  type: "Python"
  bottom: "feat1"
  top: "data_lattice0"
  python_param {
    module: "custom_layers"
    layer: "PickAndScale"
    param_str: "0*48_1*48_2*48"
  }
}
layer {
  name: "conv2"
  type: "Permutohedral"
  bottom: "bn1a"
  bottom: "data_lattice0"
  bottom: "data_lattice0"
  top: "conv2"
  param {
    lr_mult: 1
    decay_mult: 1
  }
  param {
    lr_mult: 2
    decay_mult: 0
  }
  permutohedral_param {
    num_output: 64
    neighborhood_size: 1
    filter_filler {
      type: "gaussian"
      std: 0.001
    }
    bias_term: true
    bias_filler {
      type: "constant"
      value: 0
    }
    group: 1
    norm_type: AFTER
    offset_type: NONE
  }
}
layer {
  name: "bn2"
  type: "BatchNorm"
  bottom: "conv2"
  top: "bn2"
}
layer {
  name: "relu2"
  type: "ReLU"
  bottom: "bn2"
  top: "bn2"
}
layer {
  name: "fconv2"
  type: "Convolution"
  bottom: "bn2"
  top: "fconv2"
  param {
    lr_mult: 1
  }
  param {
    lr_mult: 0.1
  }
  convolution_param {
    num_output: 3
    pad: 0
    kernel_size: 1
    stride: 1
    weight_filler {
      type: "xavier"
    }
    bias_filler {
      type: "constant"
      value: 0
    }
  }
}
layer {
  name: "fbn2"
  type: "BatchNorm"
  bottom: "fconv2"
  top: "fbn2"
}
layer {
  name: "frelu2"
  type: "ReLU"
  bottom: "fbn2"
  top: "fbn2"
}
layer {
  name: "fbn2_"
  type: "ReLU2"
  bottom: "fbn2"
  top: "fbn2_"
  relu2_param {
    threshold: 0.02
  }
}
layer {
  name: "feat2"
  type: "Eltwise"
  bottom: "data_feat"
  bottom: "fbn2_"
  top: "feat2"
  eltwise_param {
    operation: SUM
  }
}
layer {
  name: "data_lattice1"
  type: "Python"
  bottom: "feat2"
  top: "data_lattice1"
  python_param {
    module: "custom_layers"
    layer: "PickAndScale"
    param_str: "0*24_1*24_2*24"
  }
}
layer {
  name: "conv3"
  type: "Permutohedral"
  bottom: "bn2"
  bottom: "data_lattice1"
  bottom: "data_lattice1"
  top: "conv3"
  param {
    lr_mult: 1
    decay_mult: 1
  }
  param {
    lr_mult: 2
    decay_mult: 0
  }
  permutohedral_param {
    num_output: 128
    neighborhood_size: 1
    filter_filler {
      type: "gaussian"
      std: 0.001
    }
    bias_term: true
    bias_filler {
      type: "constant"
      value: 0
    }
    group: 1
    norm_type: AFTER
    offset_type: NONE
  }
}
layer {
  name: "bn3"
  type: "BatchNorm"
  bottom: "conv3"
  top: "bn3"
}
layer {
  name: "relu3"
  type: "ReLU"
  bottom: "bn3"
  top: "bn3"
}
layer {
  name: "fconv3"
  type: "Convolution"
  bottom: "bn3"
  top: "fconv3"
  param {
    lr_mult: 1
  }
  param {
    lr_mult: 0.1
  }
  convolution_param {
    num_output: 3
    pad: 0
    kernel_size: 1
    stride: 1
    weight_filler {
      type: "xavier"
    }
    bias_filler {
      type: "constant"
      value: 0
    }
  }
}
layer {
  name: "fbn3"
  type: "BatchNorm"
  bottom: "fconv3"
  top: "fbn3"
}
layer {
  name: "frelu3"
  type: "ReLU"
  bottom: "fbn3"
  top: "fbn3"
}
layer {
  name: "fbn3_"
  type: "ReLU2"
  bottom: "fbn3"
  top: "fbn3_"
  relu2_param {
    threshold: 0.02
  }
}
layer {
  name: "feat3"
  type: "Eltwise"
  bottom: "data_feat"
  bottom: "fbn3_"
  top: "feat3"
  eltwise_param {
    operation: SUM
  }
}
layer {
  name: "data_lattice2"
  type: "Python"
  bottom: "feat3"
  top: "data_lattice2"
  python_param {
    module: "custom_layers"
    layer: "PickAndScale"
    param_str: "0*12_1*12_2*12"
  }
}
layer {
  name: "conv4"
  type: "Permutohedral"
  bottom: "bn3"
  bottom: "data_lattice2"
  bottom: "data_lattice2"
  top: "conv4"
  param {
    lr_mult: 1
    decay_mult: 1
  }
  param {
    lr_mult: 2
    decay_mult: 0
  }
  permutohedral_param {
    num_output: 256
    neighborhood_size: 1
    filter_filler {
      type: "gaussian"
      std: 0.001
    }
    bias_term: true
    bias_filler {
      type: "constant"
      value: 0
    }
    group: 1
    norm_type: AFTER
    offset_type: NONE
  }
}
layer {
  name: "bn4"
  type: "BatchNorm"
  bottom: "conv4"
  top: "bn4"
}
layer {
  name: "relu4"
  type: "ReLU"
  bottom: "bn4"
  top: "bn4"
}
layer {
  name: "fconv4"
  type: "Convolution"
  bottom: "bn4"
  top: "fconv4"
  param {
    lr_mult: 1
  }
  param {
    lr_mult: 0.1
  }
  convolution_param {
    num_output: 3
    pad: 0
    kernel_size: 1
    stride: 1
    weight_filler {
      type: "xavier"
    }
    bias_filler {
      type: "constant"
      value: 0
    }
  }
}
layer {
  name: "fbn4"
  type: "BatchNorm"
  bottom: "fconv4"
  top: "fbn4"
}
layer {
  name: "frelu4"
  type: "ReLU"
  bottom: "fbn4"
  top: "fbn4"
}
layer {
  name: "fbn4_"
  type: "ReLU2"
  bottom: "fbn4"
  top: "fbn4_"
  relu2_param {
    threshold: 0.02
  }
}
layer {
  name: "feat4"
  type: "Eltwise"
  bottom: "data_feat"
  bottom: "fbn4_"
  top: "feat4"
  eltwise_param {
    operation: SUM
  }
}
layer {
  name: "data_lattice3"
  type: "Python"
  bottom: "feat4"
  top: "data_lattice3"
  python_param {
    module: "custom_layers"
    layer: "PickAndScale"
    param_str: "0*6_1*6_2*6"
  }
}
layer {
  name: "conv5"
  type: "Permutohedral"
  bottom: "bn4"
  bottom: "data_lattice3"
  bottom: "data_lattice3"
  top: "conv5"
  param {
    lr_mult: 1
    decay_mult: 1
  }
  param {
    lr_mult: 2
    decay_mult: 0
  }
  permutohedral_param {
    num_output: 256
    neighborhood_size: 1
    filter_filler {
      type: "gaussian"
      std: 0.001
    }
    bias_term: true
    bias_filler {
      type: "constant"
      value: 0
    }
    group: 1
    norm_type: AFTER
    offset_type: NONE
  }
}
layer {
  name: "bn5"
  type: "BatchNorm"
  bottom: "conv5"
  top: "bn5"
}
layer {
  name: "relu5"
  type: "ReLU"
  bottom: "bn5"
  top: "bn5"
}
layer {
  name: "fconv5"
  type: "Convolution"
  bottom: "bn5"
  top: "fconv5"
  param {
    lr_mult: 1
  }
  param {
    lr_mult: 0.1
  }
  convolution_param {
    num_output: 3
    pad: 0
    kernel_size: 1
    stride: 1
    weight_filler {
      type: "xavier"
    }
    bias_filler {
      type: "constant"
      value: 0
    }
  }
}
layer {
  name: "fbn5"
  type: "BatchNorm"
  bottom: "fconv5"
  top: "fbn5"
}
layer {
  name: "frelu5"
  type: "ReLU"
  bottom: "fbn5"
  top: "fbn5"
}
layer {
  name: "fbn5_"
  type: "ReLU2"
  bottom: "fbn5"
  top: "fbn5_"
  relu2_param {
    threshold: 0.02
  }
}
layer {
  name: "feat5"
  type: "Eltwise"
  bottom: "data_feat"
  bottom: "fbn5_"
  top: "feat5"
  eltwise_param {
    operation: SUM
  }
}
layer {
  name: "data_lattice4"
  type: "Python"
  bottom: "feat5"
  top: "data_lattice4"
  python_param {
    module: "custom_layers"
    layer: "PickAndScale"
    param_str: "0*3_1*3_2*3"
  }
}
layer {
  name: "conv6"
  type: "Permutohedral"
  bottom: "bn5"
  bottom: "data_lattice4"
  bottom: "data_lattice4"
  top: "conv6"
  param {
    lr_mult: 1
    decay_mult: 1
  }
  param {
    lr_mult: 2
    decay_mult: 0
  }
  permutohedral_param {
    num_output: 256
    neighborhood_size: 1
    filter_filler {
      type: "gaussian"
      std: 0.001
    }
    bias_term: true
    bias_filler {
      type: "constant"
      value: 0
    }
    group: 1
    norm_type: AFTER
    offset_type: NONE
  }
}
layer {
  name: "bn6"
  type: "BatchNorm"
  bottom: "conv6"
  top: "bn6"
}
layer {
  name: "relu6"
  type: "ReLU"
  bottom: "bn6"
  top: "bn6"
}
layer {
  name: "concat6"
  type: "Concat"
  bottom: "bn6"
  bottom: "bn2"
  bottom: "bn3"
  bottom: "bn4"
  bottom: "bn5"
  top: "concat6"
}
layer {
  name: "conv7"
  type: "Convolution"
  bottom: "concat6"
  top: "conv7"
  param {
    lr_mult: 1
  }
  param {
    lr_mult: 0.1
  }
  convolution_param {
    num_output: 128
    pad: 0
    kernel_size: 1
    stride: 1
    weight_filler {
      type: "xavier"
    }
    bias_filler {
      type: "constant"
      value: 0
    }
  }
}
layer {
  name: "bn7"
  type: "BatchNorm"
  bottom: "conv7"
  top: "bn7"
}
layer {
  name: "relu7"
  type: "ReLU"
  bottom: "bn7"
  top: "bn7"
}
layer {
  name: "conv8"
  type: "Convolution"
  bottom: "bn7"
  top: "conv8"
  param {
    lr_mult: 1
  }
  param {
    lr_mult: 0.1
  }
  convolution_param {
    num_output: 13
    pad: 0
    kernel_size: 1
    stride: 1
    weight_filler {
      type: "xavier"
    }
    bias_filler {
      type: "constant"
      value: 0
    }
  }
}
layer {
  name: "loss"
  type: "SoftmaxWithLoss"
  bottom: "conv8"
  bottom: "label"
  top: "loss"
}
layer {
  name: "accuracy"
  type: "Accuracy"
  bottom: "conv8"
  bottom: "label"
  top: "accuracy"
}
I0817 10:23:37.425308 15693 layer_factory.hpp:77] Creating layer data
I0817 10:23:37.473227 15693 net.cpp:84] Creating Layer data
I0817 10:23:37.473796 15693 net.cpp:380] data -> data
I0817 10:23:37.474716 15693 net.cpp:380] data -> label
I0817 10:23:37.514024 15695 upgrade_proto.cpp:1084] Attempting to upgrade input file specified using deprecated 'solver_type' field (enum)': /mnt/lustre/wangjiayun/repos/splatnet/exp/lidar3d/area6/6_solver.prototxt
…
I0817 10:23:37.532389 15697 upgrade_proto.cpp:1084] Attempting to upgrade input file specified using deprecated 'solver_type' field (enum)': /mnt/lustre/wangjiayun/repos/splatnet/exp/lidar3d/area6/6_solver.prototxt
I0817 10:23:37.532480 15697 upgrade_proto.cpp:1091] Successfully upgraded file specified using deprecated 'solver_type' field (enum) to 'type' field (string).
W0817 10:23:37.532486 15697 upgrade_proto.cpp:1093] Note that future Caffe releases will only support 'type' field (string) for a solver's type.
I0817 10:25:04.229897 15693 net.cpp:122] Setting up data
I0817 10:25:04.230000 15693 net.cpp:129] Top shape: 12 6 1 4096 (294912)
I0817 10:25:04.230010 15693 net.cpp:129] Top shape: 12 1 1 4096 (49152)
I0817 10:25:04.230013 15693 net.cpp:137] Memory required for data: 1376256
I0817 10:25:04.230038 15693 layer_factory.hpp:77] Creating layer data_data_0_split
I0817 10:25:04.230096 15693 net.cpp:84] Creating Layer data_data_0_split
I0817 10:25:04.230106 15693 net.cpp:406] data_data_0_split <- data
I0817 10:25:04.230132 15693 net.cpp:380] data_data_0_split -> data_data_0_split_0
I0817 10:25:04.230176 15693 net.cpp:380] data_data_0_split -> data_data_0_split_1
I0817 10:25:04.230269 15693 net.cpp:122] Setting up data_data_0_split
I0817 10:25:04.230283 15693 net.cpp:129] Top shape: 12 6 1 4096 (294912)
I0817 10:25:04.230288 15693 net.cpp:129] Top shape: 12 6 1 4096 (294912)
I0817 10:25:04.230293 15693 net.cpp:137] Memory required for data: 3735552
I0817 10:25:04.230296 15693 layer_factory.hpp:77] Creating layer label_data_1_split
I0817 10:25:04.230305 15693 net.cpp:84] Creating Layer label_data_1_split
I0817 10:25:04.230309 15693 net.cpp:406] label_data_1_split <- label
I0817 10:25:04.230315 15693 net.cpp:380] label_data_1_split -> label_data_1_split_0
I0817 10:25:04.230324 15693 net.cpp:380] label_data_1_split -> label_data_1_split_1
I0817 10:25:04.230363 15693 net.cpp:122] Setting up label_data_1_split
I0817 10:25:04.230372 15693 net.cpp:129] Top shape: 12 1 1 4096 (49152)
I0817 10:25:04.230377 15693 net.cpp:129] Top shape: 12 1 1 4096 (49152)
I0817 10:25:04.230383 15693 net.cpp:137] Memory required for data: 4128768
I0817 10:25:04.230387 15693 layer_factory.hpp:77] Creating layer data_feat
I0817 10:25:04.238483 15693 net.cpp:84] Creating Layer data_feat
I0817 10:25:04.238498 15693 net.cpp:406] data_feat <- data_data_0_split_0
I0817 10:25:04.238507 15693 net.cpp:380] data_feat -> data_feat
I0817 10:25:04.240085 15693 net.cpp:122] Setting up data_feat
I0817 10:25:04.240101 15693 net.cpp:129] Top shape: 12 3 1 4096 (147456)
I0817 10:25:04.240105 15693 net.cpp:137] Memory required for data: 4718592
I0817 10:25:04.240109 15693 layer_factory.hpp:77] Creating layer data_feat_data_feat_0_split
I0817 10:25:04.240118 15693 net.cpp:84] Creating Layer data_feat_data_feat_0_split
I0817 10:25:04.240123 15693 net.cpp:406] data_feat_data_feat_0_split <- data_feat
I0817 10:25:04.240129 15693 net.cpp:380] data_feat_data_feat_0_split -> data_feat_data_feat_0_split_0
I0817 10:25:04.240137 15693 net.cpp:380] data_feat_data_feat_0_split -> data_feat_data_feat_0_split_1
I0817 10:25:04.240144 15693 net.cpp:380] data_feat_data_feat_0_split -> data_feat_data_feat_0_split_2
I0817 10:25:04.240150 15693 net.cpp:380] data_feat_data_feat_0_split -> data_feat_data_feat_0_split_3
I0817 10:25:04.240156 15693 net.cpp:380] data_feat_data_feat_0_split -> data_feat_data_feat_0_split_4
I0817 10:25:04.240221 15693 net.cpp:122] Setting up data_feat_data_feat_0_split
I0817 10:25:04.240229 15693 net.cpp:129] Top shape: 12 3 1 4096 (147456)
I0817 10:25:04.240234 15693 net.cpp:129] Top shape: 12 3 1 4096 (147456)
I0817 10:25:04.240238 15693 net.cpp:129] Top shape: 12 3 1 4096 (147456)
I0817 10:25:04.240242 15693 net.cpp:129] Top shape: 12 3 1 4096 (147456)
I0817 10:25:04.240245 15693 net.cpp:129] Top shape: 12 3 1 4096 (147456)
I0817 10:25:04.240250 15693 net.cpp:137] Memory required for data: 7667712
I0817 10:25:04.240253 15693 layer_factory.hpp:77] Creating layer conv1
I0817 10:25:04.240289 15693 net.cpp:84] Creating Layer conv1
I0817 10:25:04.240298 15693 net.cpp:406] conv1 <- data_data_0_split_1
I0817 10:25:04.240305 15693 net.cpp:380] conv1 -> conv1
I0817 10:25:04.900152 15699 solver.cpp:190] Creating test net (#0) specified by test_net file: area6_netm6_sumTH.prototxt
I0817 10:25:04.900163 15695 solver.cpp:190] Creating test net (#0) specified by test_net file: area6_netm6_sumTH.prototxt
I0817 10:25:04.900180 15697 solver.cpp:190] Creating test net (#0) specified by test_net file: area6_netm6_sumTH.prototxt
I0817 10:25:05.676520 15693 net.cpp:122] Setting up conv1
I0817 10:25:05.676561 15693 net.cpp:129] Top shape: 12 64 1 4096 (3145728)
I0817 10:25:05.676566 15693 net.cpp:137] Memory required for data: 20250624
I0817 10:25:05.676618 15693 layer_factory.hpp:77] Creating layer bn1
I0817 10:25:05.676645 15693 net.cpp:84] Creating Layer bn1
I0817 10:25:05.676652 15693 net.cpp:406] bn1 <- conv1
I0817 10:25:05.676659 15693 net.cpp:380] bn1 -> bn1
I0817 10:25:05.676883 15693 net.cpp:122] Setting up bn1
I0817 10:25:05.676895 15693 net.cpp:129] Top shape: 12 64 1 4096 (3145728)
I0817 10:25:05.676898 15693 net.cpp:137] Memory required for data: 32833536
I0817 10:25:05.676909 15693 layer_factory.hpp:77] Creating layer relu1
I0817 10:25:05.676939 15693 net.cpp:84] Creating Layer relu1
I0817 10:25:05.676947 15693 net.cpp:406] relu1 <- bn1
I0817 10:25:05.676954 15693 net.cpp:367] relu1 -> bn1 (in-place)
I0817 10:25:05.677232 15693 net.cpp:122] Setting up relu1
I0817 10:25:05.677244 15693 net.cpp:129] Top shape: 12 64 1 4096 (3145728)
I0817 10:25:05.677248 15693 net.cpp:137] Memory required for data: 45416448
I0817 10:25:05.677251 15693 layer_factory.hpp:77] Creating layer conv1a
I0817 10:25:05.677266 15693 net.cpp:84] Creating Layer conv1a
I0817 10:25:05.677270 15693 net.cpp:406] conv1a <- bn1
I0817 10:25:05.677275 15693 net.cpp:380] conv1a -> conv1a
I0817 10:25:05.678894 15693 net.cpp:122] Setting up conv1a
I0817 10:25:05.678908 15693 net.cpp:129] Top shape: 12 64 1 4096 (3145728)
I0817 10:25:05.678912 15693 net.cpp:137] Memory required for data: 57999360
I0817 10:25:05.678918 15693 layer_factory.hpp:77] Creating layer bn1a
I0817 10:25:05.678925 15693 net.cpp:84] Creating Layer bn1a
I0817 10:25:05.678930 15693 net.cpp:406] bn1a <- conv1a
I0817 10:25:05.678936 15693 net.cpp:380] bn1a -> bn1a
I0817 10:25:05.679122 15693 net.cpp:122] Setting up bn1a
I0817 10:25:05.679132 15693 net.cpp:129] Top shape: 12 64 1 4096 (3145728)
I0817 10:25:05.679136 15693 net.cpp:137] Memory required for data: 70582272
I0817 10:25:05.679147 15693 layer_factory.hpp:77] Creating layer relu1a
I0817 10:25:05.679152 15693 net.cpp:84] Creating Layer relu1a
I0817 10:25:05.679155 15693 net.cpp:406] relu1a <- bn1a
I0817 10:25:05.679160 15693 net.cpp:367] relu1a -> bn1a (in-place)
I0817 10:25:05.679442 15693 net.cpp:122] Setting up relu1a
I0817 10:25:05.679455 15693 net.cpp:129] Top shape: 12 64 1 4096 (3145728)
I0817 10:25:05.679457 15693 net.cpp:137] Memory required for data: 83165184
I0817 10:25:05.679461 15693 layer_factory.hpp:77] Creating layer bn1a_relu1a_0_split
I0817 10:25:05.679468 15693 net.cpp:84] Creating Layer bn1a_relu1a_0_split
I0817 10:25:05.679472 15693 net.cpp:406] bn1a_relu1a_0_split <- bn1a
I0817 10:25:05.679479 15693 net.cpp:380] bn1a_relu1a_0_split -> bn1a_relu1a_0_split_0
I0817 10:25:05.679488 15693 net.cpp:380] bn1a_relu1a_0_split -> bn1a_relu1a_0_split_1
I0817 10:25:05.679541 15693 net.cpp:122] Setting up bn1a_relu1a_0_split
I0817 10:25:05.679550 15693 net.cpp:129] Top shape: 12 64 1 4096 (3145728)
I0817 10:25:05.679554 15693 net.cpp:129] Top shape: 12 64 1 4096 (3145728)
I0817 10:25:05.679558 15693 net.cpp:137] Memory required for data: 108331008
I0817 10:25:05.679560 15693 layer_factory.hpp:77] Creating layer fconv1
I0817 10:25:05.679576 15693 net.cpp:84] Creating Layer fconv1
I0817 10:25:05.679585 15693 net.cpp:406] fconv1 <- bn1a_relu1a_0_split_0
I0817 10:25:05.679591 15693 net.cpp:380] fconv1 -> fconv1
I0817 10:25:05.680779 15693 net.cpp:122] Setting up fconv1
I0817 10:25:05.680794 15693 net.cpp:129] Top shape: 12 3 1 4096 (147456)
I0817 10:25:05.680797 15693 net.cpp:137] Memory required for data: 108920832
I0817 10:25:05.680811 15693 layer_factory.hpp:77] Creating layer fbn1
I0817 10:25:05.680819 15693 net.cpp:84] Creating Layer fbn1
I0817 10:25:05.680824 15693 net.cpp:406] fbn1 <- fconv1
I0817 10:25:05.680832 15693 net.cpp:380] fbn1 -> fbn1
I0817 10:25:05.681001 15693 net.cpp:122] Setting up fbn1
I0817 10:25:05.681011 15693 net.cpp:129] Top shape: 12 3 1 4096 (147456)
I0817 10:25:05.681015 15693 net.cpp:137] Memory required for data: 109510656
I0817 10:25:05.681023 15693 layer_factory.hpp:77] Creating layer frelu1
I0817 10:25:05.681028 15693 net.cpp:84] Creating Layer frelu1
I0817 10:25:05.681032 15693 net.cpp:406] frelu1 <- fbn1
I0817 10:25:05.681036 15693 net.cpp:367] frelu1 -> fbn1 (in-place)
I0817 10:25:05.681602 15693 net.cpp:122] Setting up frelu1
I0817 10:25:05.681615 15693 net.cpp:129] Top shape: 12 3 1 4096 (147456)
I0817 10:25:05.681619 15693 net.cpp:137] Memory required for data: 110100480
I0817 10:25:05.681622 15693 layer_factory.hpp:77] Creating layer fbn1_
I0817 10:25:05.681654 15693 net.cpp:84] Creating Layer fbn1_
I0817 10:25:05.681663 15693 net.cpp:406] fbn1_ <- fbn1
I0817 10:25:05.681668 15693 net.cpp:380] fbn1_ -> fbn1_
I0817 10:25:05.681699 15693 net.cpp:122] Setting up fbn1_
I0817 10:25:05.681707 15693 net.cpp:129] Top shape: 12 3 1 4096 (147456)
I0817 10:25:05.681710 15693 net.cpp:137] Memory required for data: 110690304
I0817 10:25:05.681713 15693 layer_factory.hpp:77] Creating layer feat1
I0817 10:25:05.681741 15693 net.cpp:84] Creating Layer feat1
I0817 10:25:05.681749 15693 net.cpp:406] feat1 <- data_feat_data_feat_0_split_0
I0817 10:25:05.681754 15693 net.cpp:406] feat1 <- fbn1_
I0817 10:25:05.681759 15693 net.cpp:380] feat1 -> feat1
I0817 10:25:05.681808 15693 net.cpp:122] Setting up feat1
I0817 10:25:05.681820 15693 net.cpp:129] Top shape: 12 3 1 4096 (147456)
I0817 10:25:05.681823 15693 net.cpp:137] Memory required for data: 111280128
I0817 10:25:05.681828 15693 layer_factory.hpp:77] Creating layer data_lattice0
I0817 10:25:05.681893 15693 net.cpp:84] Creating Layer data_lattice0
I0817 10:25:05.681901 15693 net.cpp:406] data_lattice0 <- feat1
I0817 10:25:05.681910 15693 net.cpp:380] data_lattice0 -> data_lattice0
I0817 10:25:05.682098 15693 net.cpp:122] Setting up data_lattice0
I0817 10:25:05.682111 15693 net.cpp:129] Top shape: 12 3 1 4096 (147456)
I0817 10:25:05.682113 15693 net.cpp:137] Memory required for data: 111869952
I0817 10:25:05.682118 15693 layer_factory.hpp:77] Creating layer data_lattice0_data_lattice0_0_split
I0817 10:25:05.682124 15693 net.cpp:84] Creating Layer data_lattice0_data_lattice0_0_split
I0817 10:25:05.682128 15693 net.cpp:406] data_lattice0_data_lattice0_0_split <- data_lattice0
I0817 10:25:05.682133 15693 net.cpp:380] data_lattice0_data_lattice0_0_split -> data_lattice0_data_lattice0_0_split_0
I0817 10:25:05.682139 15693 net.cpp:380] data_lattice0_data_lattice0_0_split -> data_lattice0_data_lattice0_0_split_1
I0817 10:25:05.682174 15693 net.cpp:122] Setting up data_lattice0_data_lattice0_0_split
I0817 10:25:05.682183 15693 net.cpp:129] Top shape: 12 3 1 4096 (147456)
I0817 10:25:05.682186 15693 net.cpp:129] Top shape: 12 3 1 4096 (147456)
I0817 10:25:05.682189 15693 net.cpp:137] Memory required for data: 113049600
I0817 10:25:05.682199 15693 layer_factory.hpp:77] Creating layer conv2
I0817 10:25:05.682229 15693 net.cpp:84] Creating Layer conv2
I0817 10:25:05.682238 15693 net.cpp:406] conv2 <- bn1a_relu1a_0_split_1
I0817 10:25:05.682243 15693 net.cpp:406] conv2 <- data_lattice0_data_lattice0_0_split_0
I0817 10:25:05.682247 15693 net.cpp:406] conv2 <- data_lattice0_data_lattice0_0_split_1
I0817 10:25:05.682251 15693 net.cpp:380] conv2 -> conv2
I0817 10:25:05.685444 15693 net.cpp:122] Setting up conv2
I0817 10:25:05.685459 15693 net.cpp:129] Top shape: 12 64 1 4096 (3145728)
I0817 10:25:05.685463 15693 net.cpp:137] Memory required for data: 125632512
I0817 10:25:05.685473 15693 layer_factory.hpp:77] Creating layer bn2
I0817 10:25:05.685480 15693 net.cpp:84] Creating Layer bn2
I0817 10:25:05.685484 15693 net.cpp:406] bn2 <- conv2
I0817 10:25:05.685490 15693 net.cpp:380] bn2 -> bn2
I0817 10:25:05.685685 15693 net.cpp:122] Setting up bn2
I0817 10:25:05.685694 15693 net.cpp:129] Top shape: 12 64 1 4096 (3145728)
I0817 10:25:05.685698 15693 net.cpp:137] Memory required for data: 138215424
I0817 10:25:05.685704 15693 layer_factory.hpp:77] Creating layer relu2
I0817 10:25:05.685709 15693 net.cpp:84] Creating Layer relu2
I0817 10:25:05.685714 15693 net.cpp:406] relu2 <- bn2
I0817 10:25:05.685720 15693 net.cpp:367] relu2 -> bn2 (in-place)
I0817 10:25:05.685966 15693 net.cpp:122] Setting up relu2
I0817 10:25:05.685976 15693 net.cpp:129] Top shape: 12 64 1 4096 (3145728)
I0817 10:25:05.685981 15693 net.cpp:137] Memory required for data: 150798336
I0817 10:25:05.685983 15693 layer_factory.hpp:77] Creating layer bn2_relu2_0_split
I0817 10:25:05.685989 15693 net.cpp:84] Creating Layer bn2_relu2_0_split
I0817 10:25:05.685993 15693 net.cpp:406] bn2_relu2_0_split <- bn2
I0817 10:25:05.685998 15693 net.cpp:380] bn2_relu2_0_split -> bn2_relu2_0_split_0
I0817 10:25:05.686005 15693 net.cpp:380] bn2_relu2_0_split -> bn2_relu2_0_split_1
I0817 10:25:05.686012 15693 net.cpp:380] bn2_relu2_0_split -> bn2_relu2_0_split_2
I0817 10:25:05.686061 15693 net.cpp:122] Setting up bn2_relu2_0_split
I0817 10:25:05.686069 15693 net.cpp:129] Top shape: 12 64 1 4096 (3145728)
I0817 10:25:05.686074 15693 net.cpp:129] Top shape: 12 64 1 4096 (3145728)
I0817 10:25:05.686077 15693 net.cpp:129] Top shape: 12 64 1 4096 (3145728)
I0817 10:25:05.686079 15693 net.cpp:137] Memory required for data: 188547072
I0817 10:25:05.686082 15693 layer_factory.hpp:77] Creating layer fconv2
I0817 10:25:05.686101 15693 net.cpp:84] Creating Layer fconv2
I0817 10:25:05.686105 15693 net.cpp:406] fconv2 <- bn2_relu2_0_split_0
I0817 10:25:05.686117 15693 net.cpp:380] fconv2 -> fconv2
I0817 10:25:05.687764 15693 net.cpp:122] Setting up fconv2
I0817 10:25:05.687779 15693 net.cpp:129] Top shape: 12 3 1 4096 (147456)
I0817 10:25:05.687783 15693 net.cpp:137] Memory required for data: 189136896
I0817 10:25:05.687789 15693 layer_factory.hpp:77] Creating layer fbn2
I0817 10:25:05.687798 15693 net.cpp:84] Creating Layer fbn2
I0817 10:25:05.687801 15693 net.cpp:406] fbn2 <- fconv2
I0817 10:25:05.687808 15693 net.cpp:380] fbn2 -> fbn2
I0817 10:25:05.687999 15693 net.cpp:122] Setting up fbn2
I0817 10:25:05.688009 15693 net.cpp:129] Top shape: 12 3 1 4096 (147456)
I0817 10:25:05.688012 15693 net.cpp:137] Memory required for data: 189726720
I0817 10:25:05.688026 15693 layer_factory.hpp:77] Creating layer frelu2
I0817 10:25:05.688035 15693 net.cpp:84] Creating Layer frelu2
I0817 10:25:05.688040 15693 net.cpp:406] frelu2 <- fbn2
I0817 10:25:05.688045 15693 net.cpp:367] frelu2 -> fbn2 (in-place)
I0817 10:25:05.688315 15693 net.cpp:122] Setting up frelu2
I0817 10:25:05.688325 15693 net.cpp:129] Top shape: 12 3 1 4096 (147456)
I0817 10:25:05.688329 15693 net.cpp:137] Memory required for data: 190316544
I0817 10:25:05.688333 15693 layer_factory.hpp:77] Creating layer fbn2_
I0817 10:25:05.688350 15693 net.cpp:84] Creating Layer fbn2_
I0817 10:25:05.688356 15693 net.cpp:406] fbn2_ <- fbn2
I0817 10:25:05.688364 15693 net.cpp:380] fbn2_ -> fbn2_
I0817 10:25:05.688392 15693 net.cpp:122] Setting up fbn2_
I0817 10:25:05.688400 15693 net.cpp:129] Top shape: 12 3 1 4096 (147456)
I0817 10:25:05.688402 15693 net.cpp:137] Memory required for data: 190906368
I0817 10:25:05.688405 15693 layer_factory.hpp:77] Creating layer feat2
I0817 10:25:05.688412 15693 net.cpp:84] Creating Layer feat2
I0817 10:25:05.688416 15693 net.cpp:406] feat2 <- data_feat_data_feat_0_split_1
I0817 10:25:05.688431 15693 net.cpp:406] feat2 <- fbn2_
I0817 10:25:05.688436 15693 net.cpp:380] feat2 -> feat2
I0817 10:25:05.688462 15693 net.cpp:122] Setting up feat2
I0817 10:25:05.688469 15693 net.cpp:129] Top shape: 12 3 1 4096 (147456)
I0817 10:25:05.688472 15693 net.cpp:137] Memory required for data: 191496192
I0817 10:25:05.688475 15693 layer_factory.hpp:77] Creating layer data_lattice1
I0817 10:25:05.688500 15693 net.cpp:84] Creating Layer data_lattice1
I0817 10:25:05.688508 15693 net.cpp:406] data_lattice1 <- feat2
I0817 10:25:05.688514 15693 net.cpp:380] data_lattice1 -> data_lattice1
I0817 10:25:05.689772 15693 net.cpp:122] Setting up data_lattice1
I0817 10:25:05.689786 15693 net.cpp:129] Top shape: 12 3 1 4096 (147456)
I0817 10:25:05.689790 15693 net.cpp:137] Memory required for data: 192086016
I0817 10:25:05.689801 15693 layer_factory.hpp:77] Creating layer data_lattice1_data_lattice1_0_split
I0817 10:25:05.689808 15693 net.cpp:84] Creating Layer data_lattice1_data_lattice1_0_split
I0817 10:25:05.689813 15693 net.cpp:406] data_lattice1_data_lattice1_0_split <- data_lattice1
I0817 10:25:05.689821 15693 net.cpp:380] data_lattice1_data_lattice1_0_split -> data_lattice1_data_lattice1_0_split_0
I0817 10:25:05.689828 15693 net.cpp:380] data_lattice1_data_lattice1_0_split -> data_lattice1_data_lattice1_0_split_1
I0817 10:25:05.689870 15693 net.cpp:122] Setting up data_lattice1_data_lattice1_0_split
I0817 10:25:05.689879 15693 net.cpp:129] Top shape: 12 3 1 4096 (147456)
I0817 10:25:05.689883 15693 net.cpp:129] Top shape: 12 3 1 4096 (147456)
I0817 10:25:05.689887 15693 net.cpp:137] Memory required for data: 193265664
I0817 10:25:05.689890 15693 layer_factory.hpp:77] Creating layer conv3
I0817 10:25:05.689904 15693 net.cpp:84] Creating Layer conv3
I0817 10:25:05.689910 15693 net.cpp:406] conv3 <- bn2_relu2_0_split_1
I0817 10:25:05.689915 15693 net.cpp:406] conv3 <- data_lattice1_data_lattice1_0_split_0
I0817 10:25:05.689919 15693 net.cpp:406] conv3 <- data_lattice1_data_lattice1_0_split_1
I0817 10:25:05.689926 15693 net.cpp:380] conv3 -> conv3
I0817 10:25:05.693472 15693 net.cpp:122] Setting up conv3
I0817 10:25:05.693482 15693 net.cpp:129] Top shape: 12 128 1 4096 (6291456)
I0817 10:25:05.693486 15693 net.cpp:137] Memory required for data: 218431488
I0817 10:25:05.693492 15693 layer_factory.hpp:77] Creating layer bn3
I0817 10:25:05.693498 15693 net.cpp:84] Creating Layer bn3
I0817 10:25:05.693502 15693 net.cpp:406] bn3 <- conv3
I0817 10:25:05.693509 15693 net.cpp:380] bn3 -> bn3
I0817 10:25:05.693709 15693 net.cpp:122] Setting up bn3
I0817 10:25:05.693718 15693 net.cpp:129] Top shape: 12 128 1 4096 (6291456)
I0817 10:25:05.693722 15693 net.cpp:137] Memory required for data: 243597312
I0817 10:25:05.693728 15693 layer_factory.hpp:77] Creating layer relu3
I0817 10:25:05.693737 15693 net.cpp:84] Creating Layer relu3
I0817 10:25:05.693742 15693 net.cpp:406] relu3 <- bn3
I0817 10:25:05.693747 15693 net.cpp:367] relu3 -> bn3 (in-place)
I0817 10:25:05.694039 15693 net.cpp:122] Setting up relu3
I0817 10:25:05.694049 15693 net.cpp:129] Top shape: 12 128 1 4096 (6291456)
I0817 10:25:05.694053 15693 net.cpp:137] Memory required for data: 268763136
I0817 10:25:05.694062 15693 layer_factory.hpp:77] Creating layer bn3_relu3_0_split
I0817 10:25:05.694069 15693 net.cpp:84] Creating Layer bn3_relu3_0_split
I0817 10:25:05.694072 15693 net.cpp:406] bn3_relu3_0_split <- bn3
I0817 10:25:05.694092 15693 net.cpp:380] bn3_relu3_0_split -> bn3_relu3_0_split_0
I0817 10:25:05.694098 15693 net.cpp:380] bn3_relu3_0_split -> bn3_relu3_0_split_1
I0817 10:25:05.694104 15693 net.cpp:380] bn3_relu3_0_split -> bn3_relu3_0_split_2
I0817 10:25:05.694161 15693 net.cpp:122] Setting up bn3_relu3_0_split
I0817 10:25:05.694170 15693 net.cpp:129] Top shape: 12 128 1 4096 (6291456)
I0817 10:25:05.694175 15693 net.cpp:129] Top shape: 12 128 1 4096 (6291456)
I0817 10:25:05.694178 15693 net.cpp:129] Top shape: 12 128 1 4096 (6291456)
I0817 10:25:05.694191 15693 net.cpp:137] Memory required for data: 344260608
I0817 10:25:05.694195 15693 layer_factory.hpp:77] Creating layer fconv3
I0817 10:25:05.694205 15693 net.cpp:84] Creating Layer fconv3
I0817 10:25:05.694208 15693 net.cpp:406] fconv3 <- bn3_relu3_0_split_0
I0817 10:25:05.694216 15693 net.cpp:380] fconv3 -> fconv3
I0817 10:25:05.695936 15693 net.cpp:122] Setting up fconv3
I0817 10:25:05.695951 15693 net.cpp:129] Top shape: 12 3 1 4096 (147456)
I0817 10:25:05.695955 15693 net.cpp:137] Memory required for data: 344850432
I0817 10:25:05.695961 15693 layer_factory.hpp:77] Creating layer fbn3
I0817 10:25:05.695977 15693 net.cpp:84] Creating Layer fbn3
I0817 10:25:05.695982 15693 net.cpp:406] fbn3 <- fconv3
I0817 10:25:05.695989 15693 net.cpp:380] fbn3 -> fbn3
I0817 10:25:05.696180 15693 net.cpp:122] Setting up fbn3
I0817 10:25:05.696190 15693 net.cpp:129] Top shape: 12 3 1 4096 (147456)
I0817 10:25:05.696193 15693 net.cpp:137] Memory required for data: 345440256
I0817 10:25:05.696207 15693 layer_factory.hpp:77] Creating layer frelu3
I0817 10:25:05.696214 15693 net.cpp:84] Creating Layer frelu3
I0817 10:25:05.696219 15693 net.cpp:406] frelu3 <- fbn3
I0817 10:25:05.696224 15693 net.cpp:367] frelu3 -> fbn3 (in-place)
I0817 10:25:05.696547 15693 net.cpp:122] Setting up frelu3
I0817 10:25:05.696570 15693 net.cpp:129] Top shape: 12 3 1 4096 (147456)
I0817 10:25:05.696573 15693 net.cpp:137] Memory required for data: 346030080
I0817 10:25:05.696585 15693 layer_factory.hpp:77] Creating layer fbn3_
I0817 10:25:05.696593 15693 net.cpp:84] Creating Layer fbn3_
I0817 10:25:05.696596 15693 net.cpp:406] fbn3_ <- fbn3
I0817 10:25:05.696604 15693 net.cpp:380] fbn3_ -> fbn3_
I0817 10:25:05.696633 15693 net.cpp:122] Setting up fbn3_
I0817 10:25:05.696642 15693 net.cpp:129] Top shape: 12 3 1 4096 (147456)
I0817 10:25:05.696645 15693 net.cpp:137] Memory required for data: 346619904
I0817 10:25:05.696648 15693 layer_factory.hpp:77] Creating layer feat3
I0817 10:25:05.696672 15693 net.cpp:84] Creating Layer feat3
I0817 10:25:05.696682 15693 net.cpp:406] feat3 <- data_feat_data_feat_0_split_2
I0817 10:25:05.696688 15693 net.cpp:406] feat3 <- fbn3_
I0817 10:25:05.696694 15693 net.cpp:380] feat3 -> feat3
I0817 10:25:05.696720 15693 net.cpp:122] Setting up feat3
I0817 10:25:05.696728 15693 net.cpp:129] Top shape: 12 3 1 4096 (147456)
I0817 10:25:05.696732 15693 net.cpp:137] Memory required for data: 347209728
I0817 10:25:05.696735 15693 layer_factory.hpp:77] Creating layer data_lattice2
I0817 10:25:05.696776 15693 net.cpp:84] Creating Layer data_lattice2
I0817 10:25:05.696784 15693 net.cpp:406] data_lattice2 <- feat3
I0817 10:25:05.696790 15693 net.cpp:380] data_lattice2 -> data_lattice2
I0817 10:25:05.696907 15693 net.cpp:122] Setting up data_lattice2
I0817 10:25:05.696919 15693 net.cpp:129] Top shape: 12 3 1 4096 (147456)
I0817 10:25:05.696923 15693 net.cpp:137] Memory required for data: 347799552
I0817 10:25:05.696926 15693 layer_factory.hpp:77] Creating layer data_lattice2_data_lattice2_0_split
I0817 10:25:05.696933 15693 net.cpp:84] Creating Layer data_lattice2_data_lattice2_0_split
I0817 10:25:05.696938 15693 net.cpp:406] data_lattice2_data_lattice2_0_split <- data_lattice2
I0817 10:25:05.696947 15693 net.cpp:380] data_lattice2_data_lattice2_0_split -> data_lattice2_data_lattice2_0_split_0
I0817 10:25:05.696965 15693 net.cpp:380] data_lattice2_data_lattice2_0_split -> data_lattice2_data_lattice2_0_split_1
I0817 10:25:05.697002 15693 net.cpp:122] Setting up data_lattice2_data_lattice2_0_split
I0817 10:25:05.697012 15693 net.cpp:129] Top shape: 12 3 1 4096 (147456)
I0817 10:25:05.697016 15693 net.cpp:129] Top shape: 12 3 1 4096 (147456)
I0817 10:25:05.697018 15693 net.cpp:137] Memory required for data: 348979200
I0817 10:25:05.697029 15693 layer_factory.hpp:77] Creating layer conv4
I0817 10:25:05.697037 15693 net.cpp:84] Creating Layer conv4
I0817 10:25:05.697041 15693 net.cpp:406] conv4 <- bn3_relu3_0_split_1
I0817 10:25:05.697046 15693 net.cpp:406] conv4 <- data_lattice2_data_lattice2_0_split_0
I0817 10:25:05.697051 15693 net.cpp:406] conv4 <- data_lattice2_data_lattice2_0_split_1
I0817 10:25:05.697057 15693 net.cpp:380] conv4 -> conv4
I0817 10:25:05.712281 15693 net.cpp:122] Setting up conv4
I0817 10:25:05.712297 15693 net.cpp:129] Top shape: 12 256 1 4096 (12582912)
I0817 10:25:05.712301 15693 net.cpp:137] Memory required for data: 399310848
I0817 10:25:05.712308 15693 layer_factory.hpp:77] Creating layer bn4
I0817 10:25:05.712316 15693 net.cpp:84] Creating Layer bn4
I0817 10:25:05.712321 15693 net.cpp:406] bn4 <- conv4
I0817 10:25:05.712328 15693 net.cpp:380] bn4 -> bn4
I0817 10:25:05.712544 15693 net.cpp:122] Setting up bn4
I0817 10:25:05.712555 15693 net.cpp:129] Top shape: 12 256 1 4096 (12582912)
I0817 10:25:05.712558 15693 net.cpp:137] Memory required for data: 449642496
I0817 10:25:05.712566 15693 layer_factory.hpp:77] Creating layer relu4
I0817 10:25:05.712581 15693 net.cpp:84] Creating Layer relu4
I0817 10:25:05.712586 15693 net.cpp:406] relu4 <- bn4
I0817 10:25:05.712594 15693 net.cpp:367] relu4 -> bn4 (in-place)
I0817 10:25:05.712899 15693 net.cpp:122] Setting up relu4
I0817 10:25:05.712910 15693 net.cpp:129] Top shape: 12 256 1 4096 (12582912)
I0817 10:25:05.712913 15693 net.cpp:137] Memory required for data: 499974144
I0817 10:25:05.712916 15693 layer_factory.hpp:77] Creating layer bn4_relu4_0_split
I0817 10:25:05.712924 15693 net.cpp:84] Creating Layer bn4_relu4_0_split
I0817 10:25:05.712927 15693 net.cpp:406] bn4_relu4_0_split <- bn4
I0817 10:25:05.712934 15693 net.cpp:380] bn4_relu4_0_split -> bn4_relu4_0_split_0
I0817 10:25:05.712941 15693 net.cpp:380] bn4_relu4_0_split -> bn4_relu4_0_split_1
I0817 10:25:05.712949 15693 net.cpp:380] bn4_relu4_0_split -> bn4_relu4_0_split_2
I0817 10:25:05.713003 15693 net.cpp:122] Setting up bn4_relu4_0_split
I0817 10:25:05.713011 15693 net.cpp:129] Top shape: 12 256 1 4096 (12582912)
I0817 10:25:05.713016 15693 net.cpp:129] Top shape: 12 256 1 4096 (12582912)
I0817 10:25:05.713018 15693 net.cpp:129] Top shape: 12 256 1 4096 (12582912)
I0817 10:25:05.713022 15693 net.cpp:137] Memory required for data: 650969088
I0817 10:25:05.713032 15693 layer_factory.hpp:77] Creating layer fconv4
I0817 10:25:05.713042 15693 net.cpp:84] Creating Layer fconv4
I0817 10:25:05.713049 15693 net.cpp:406] fconv4 <- bn4_relu4_0_split_0
I0817 10:25:05.713060 15693 net.cpp:380] fconv4 -> fconv4
I0817 10:25:05.714805 15693 net.cpp:122] Setting up fconv4
I0817 10:25:05.714820 15693 net.cpp:129] Top shape: 12 3 1 4096 (147456)
I0817 10:25:05.714824 15693 net.cpp:137] Memory required for data: 651558912
I0817 10:25:05.714830 15693 layer_factory.hpp:77] Creating layer fbn4
I0817 10:25:05.714846 15693 net.cpp:84] Creating Layer fbn4
I0817 10:25:05.714851 15693 net.cpp:406] fbn4 <- fconv4
I0817 10:25:05.714857 15693 net.cpp:380] fbn4 -> fbn4
I0817 10:25:05.715052 15693 net.cpp:122] Setting up fbn4
I0817 10:25:05.715062 15693 net.cpp:129] Top shape: 12 3 1 4096 (147456)
I0817 10:25:05.715065 15693 net.cpp:137] Memory required for data: 652148736
I0817 10:25:05.715073 15693 layer_factory.hpp:77] Creating layer frelu4
I0817 10:25:05.715080 15693 net.cpp:84] Creating Layer frelu4
I0817 10:25:05.715083 15693 net.cpp:406] frelu4 <- fbn4
I0817 10:25:05.715088 15693 net.cpp:367] frelu4 -> fbn4 (in-place)
I0817 10:25:05.715363 15693 net.cpp:122] Setting up frelu4
I0817 10:25:05.715373 15693 net.cpp:129] Top shape: 12 3 1 4096 (147456)
I0817 10:25:05.715375 15693 net.cpp:137] Memory required for data: 652738560
I0817 10:25:05.715379 15693 layer_factory.hpp:77] Creating layer fbn4_
I0817 10:25:05.715385 15693 net.cpp:84] Creating Layer fbn4_
I0817 10:25:05.715389 15693 net.cpp:406] fbn4_ <- fbn4
I0817 10:25:05.715397 15693 net.cpp:380] fbn4_ -> fbn4_
I0817 10:25:05.715423 15693 net.cpp:122] Setting up fbn4_
I0817 10:25:05.715435 15693 net.cpp:129] Top shape: 12 3 1 4096 (147456)
I0817 10:25:05.715437 15693 net.cpp:137] Memory required for data: 653328384
I0817 10:25:05.715447 15693 layer_factory.hpp:77] Creating layer feat4
I0817 10:25:05.715456 15693 net.cpp:84] Creating Layer feat4
I0817 10:25:05.715461 15693 net.cpp:406] feat4 <- data_feat_data_feat_0_split_3
I0817 10:25:05.715466 15693 net.cpp:406] feat4 <- fbn4_
I0817 10:25:05.715471 15693 net.cpp:380] feat4 -> feat4
I0817 10:25:05.715497 15693 net.cpp:122] Setting up feat4
I0817 10:25:05.715503 15693 net.cpp:129] Top shape: 12 3 1 4096 (147456)
I0817 10:25:05.715507 15693 net.cpp:137] Memory required for data: 653918208
I0817 10:25:05.715509 15693 layer_factory.hpp:77] Creating layer data_lattice3
I0817 10:25:05.715539 15693 net.cpp:84] Creating Layer data_lattice3
I0817 10:25:05.715548 15693 net.cpp:406] data_lattice3 <- feat4
I0817 10:25:05.715554 15693 net.cpp:380] data_lattice3 -> data_lattice3
I0817 10:25:05.716872 15693 net.cpp:122] Setting up data_lattice3
I0817 10:25:05.716887 15693 net.cpp:129] Top shape: 12 3 1 4096 (147456)
I0817 10:25:05.716892 15693 net.cpp:137] Memory required for data: 654508032
I0817 10:25:05.716895 15693 layer_factory.hpp:77] Creating layer data_lattice3_data_lattice3_0_split
I0817 10:25:05.716902 15693 net.cpp:84] Creating Layer data_lattice3_data_lattice3_0_split
I0817 10:25:05.716905 15693 net.cpp:406] data_lattice3_data_lattice3_0_split <- data_lattice3
I0817 10:25:05.716922 15693 net.cpp:380] data_lattice3_data_lattice3_0_split -> data_lattice3_data_lattice3_0_split_0
I0817 10:25:05.716929 15693 net.cpp:380] data_lattice3_data_lattice3_0_split -> data_lattice3_data_lattice3_0_split_1
I0817 10:25:05.716974 15693 net.cpp:122] Setting up data_lattice3_data_lattice3_0_split
I0817 10:25:05.716982 15693 net.cpp:129] Top shape: 12 3 1 4096 (147456)
I0817 10:25:05.716986 15693 net.cpp:129] Top shape: 12 3 1 4096 (147456)
I0817 10:25:05.716989 15693 net.cpp:137] Memory required for data: 655687680
I0817 10:25:05.716994 15693 layer_factory.hpp:77] Creating layer conv5
I0817 10:25:05.717002 15693 net.cpp:84] Creating Layer conv5
I0817 10:25:05.717005 15693 net.cpp:406] conv5 <- bn4_relu4_0_split_1
I0817 10:25:05.717011 15693 net.cpp:406] conv5 <- data_lattice3_data_lattice3_0_split_0
I0817 10:25:05.717015 15693 net.cpp:406] conv5 <- data_lattice3_data_lattice3_0_split_1
I0817 10:25:05.717021 15693 net.cpp:380] conv5 -> conv5
I0817 10:25:05.746244 15693 net.cpp:122] Setting up conv5
I0817 10:25:05.746260 15693 net.cpp:129] Top shape: 12 256 1 4096 (12582912)
I0817 10:25:05.746263 15693 net.cpp:137] Memory required for data: 706019328
I0817 10:25:05.746279 15693 layer_factory.hpp:77] Creating layer bn5
I0817 10:25:05.746287 15693 net.cpp:84] Creating Layer bn5
I0817 10:25:05.746291 15693 net.cpp:406] bn5 <- conv5
I0817 10:25:05.746297 15693 net.cpp:380] bn5 -> bn5
I0817 10:25:05.746492 15693 net.cpp:122] Setting up bn5
I0817 10:25:05.746515 15693 net.cpp:129] Top shape: 12 256 1 4096 (12582912)
I0817 10:25:05.746517 15693 net.cpp:137] Memory required for data: 756350976
I0817 10:25:05.746525 15693 layer_factory.hpp:77] Creating layer relu5
I0817 10:25:05.746537 15693 net.cpp:84] Creating Layer relu5
I0817 10:25:05.746541 15693 net.cpp:406] relu5 <- bn5
I0817 10:25:05.746547 15693 net.cpp:367] relu5 -> bn5 (in-place)
I0817 10:25:05.747200 15693 net.cpp:122] Setting up relu5
I0817 10:25:05.747213 15693 net.cpp:129] Top shape: 12 256 1 4096 (12582912)
I0817 10:25:05.747217 15693 net.cpp:137] Memory required for data: 806682624
I0817 10:25:05.747220 15693 layer_factory.hpp:77] Creating layer bn5_relu5_0_split
I0817 10:25:05.747227 15693 net.cpp:84] Creating Layer bn5_relu5_0_split
I0817 10:25:05.747231 15693 net.cpp:406] bn5_relu5_0_split <- bn5
I0817 10:25:05.747238 15693 net.cpp:380] bn5_relu5_0_split -> bn5_relu5_0_split_0
I0817 10:25:05.747246 15693 net.cpp:380] bn5_relu5_0_split -> bn5_relu5_0_split_1
I0817 10:25:05.747259 15693 net.cpp:380] bn5_relu5_0_split -> bn5_relu5_0_split_2
I0817 10:25:05.747318 15693 net.cpp:122] Setting up bn5_relu5_0_split
I0817 10:25:05.747326 15693 net.cpp:129] Top shape: 12 256 1 4096 (12582912)
I0817 10:25:05.747331 15693 net.cpp:129] Top shape: 12 256 1 4096 (12582912)
I0817 10:25:05.747335 15693 net.cpp:129] Top shape: 12 256 1 4096 (12582912)
I0817 10:25:05.747339 15693 net.cpp:137] Memory required for data: 957677568
I0817 10:25:05.747341 15693 layer_factory.hpp:77] Creating layer fconv5
I0817 10:25:05.747359 15693 net.cpp:84] Creating Layer fconv5
I0817 10:25:05.747364 15693 net.cpp:406] fconv5 <- bn5_relu5_0_split_0
I0817 10:25:05.747382 15693 net.cpp:380] fconv5 -> fconv5
I0817 10:25:05.748764 15693 net.cpp:122] Setting up fconv5
I0817 10:25:05.748777 15693 net.cpp:129] Top shape: 12 3 1 4096 (147456)
I0817 10:25:05.748781 15693 net.cpp:137] Memory required for data: 958267392
I0817 10:25:05.748787 15693 layer_factory.hpp:77] Creating layer fbn5
I0817 10:25:05.748795 15693 net.cpp:84] Creating Layer fbn5
I0817 10:25:05.748798 15693 net.cpp:406] fbn5 <- fconv5
I0817 10:25:05.748805 15693 net.cpp:380] fbn5 -> fbn5
I0817 10:25:05.749011 15693 net.cpp:122] Setting up fbn5
I0817 10:25:05.749020 15693 net.cpp:129] Top shape: 12 3 1 4096 (147456)
I0817 10:25:05.749024 15693 net.cpp:137] Memory required for data: 958857216
I0817 10:25:05.749032 15693 layer_factory.hpp:77] Creating layer frelu5
I0817 10:25:05.749045 15693 net.cpp:84] Creating Layer frelu5
I0817 10:25:05.749049 15693 net.cpp:406] frelu5 <- fbn5
I0817 10:25:05.749054 15693 net.cpp:367] frelu5 -> fbn5 (in-place)
I0817 10:25:05.749336 15693 net.cpp:122] Setting up frelu5
I0817 10:25:05.749354 15693 net.cpp:129] Top shape: 12 3 1 4096 (147456)
I0817 10:25:05.749358 15693 net.cpp:137] Memory required for data: 959447040
I0817 10:25:05.749362 15693 layer_factory.hpp:77] Creating layer fbn5_
I0817 10:25:05.749369 15693 net.cpp:84] Creating Layer fbn5_
I0817 10:25:05.749375 15693 net.cpp:406] fbn5_ <- fbn5
I0817 10:25:05.749382 15693 net.cpp:380] fbn5_ -> fbn5_
I0817 10:25:05.749408 15693 net.cpp:122] Setting up fbn5_
I0817 10:25:05.749416 15693 net.cpp:129] Top shape: 12 3 1 4096 (147456)
I0817 10:25:05.749419 15693 net.cpp:137] Memory required for data: 960036864
I0817 10:25:05.749423 15693 layer_factory.hpp:77] Creating layer feat5
I0817 10:25:05.749431 15693 net.cpp:84] Creating Layer feat5
I0817 10:25:05.749435 15693 net.cpp:406] feat5 <- data_feat_data_feat_0_split_4
I0817 10:25:05.749439 15693 net.cpp:406] feat5 <- fbn5_
I0817 10:25:05.749446 15693 net.cpp:380] feat5 -> feat5
I0817 10:25:05.749481 15693 net.cpp:122] Setting up feat5
I0817 10:25:05.749490 15693 net.cpp:129] Top shape: 12 3 1 4096 (147456)
I0817 10:25:05.749492 15693 net.cpp:137] Memory required for data: 960626688
I0817 10:25:05.749495 15693 layer_factory.hpp:77] Creating layer data_lattice4
I0817 10:25:05.749528 15693 net.cpp:84] Creating Layer data_lattice4
I0817 10:25:05.749536 15693 net.cpp:406] data_lattice4 <- feat5
I0817 10:25:05.749543 15693 net.cpp:380] data_lattice4 -> data_lattice4
I0817 10:25:05.749675 15693 net.cpp:122] Setting up data_lattice4
I0817 10:25:05.749686 15693 net.cpp:129] Top shape: 12 3 1 4096 (147456)
I0817 10:25:05.749688 15693 net.cpp:137] Memory required for data: 961216512
I0817 10:25:05.749692 15693 layer_factory.hpp:77] Creating layer data_lattice4_data_lattice4_0_split
I0817 10:25:05.749699 15693 net.cpp:84] Creating Layer data_lattice4_data_lattice4_0_split
I0817 10:25:05.749703 15693 net.cpp:406] data_lattice4_data_lattice4_0_split <- data_lattice4
I0817 10:25:05.749711 15693 net.cpp:380] data_lattice4_data_lattice4_0_split -> data_lattice4_data_lattice4_0_split_0
I0817 10:25:05.749717 15693 net.cpp:380] data_lattice4_data_lattice4_0_split -> data_lattice4_data_lattice4_0_split_1
I0817 10:25:05.749753 15693 net.cpp:122] Setting up data_lattice4_data_lattice4_0_split
I0817 10:25:05.749760 15693 net.cpp:129] Top shape: 12 3 1 4096 (147456)
I0817 10:25:05.749764 15693 net.cpp:129] Top shape: 12 3 1 4096 (147456)
I0817 10:25:05.749768 15693 net.cpp:137] Memory required for data: 962396160
I0817 10:25:05.749771 15693 layer_factory.hpp:77] Creating layer conv6
I0817 10:25:05.749779 15693 net.cpp:84] Creating Layer conv6
I0817 10:25:05.749783 15693 net.cpp:406] conv6 <- bn5_relu5_0_split_1
I0817 10:25:05.749788 15693 net.cpp:406] conv6 <- data_lattice4_data_lattice4_0_split_0
I0817 10:25:05.749792 15693 net.cpp:406] conv6 <- data_lattice4_data_lattice4_0_split_1
I0817 10:25:05.749799 15693 net.cpp:380] conv6 -> conv6
I0817 10:25:05.778739 15693 net.cpp:122] Setting up conv6
I0817 10:25:05.778755 15693 net.cpp:129] Top shape: 12 256 1 4096 (12582912)
I0817 10:25:05.778759 15693 net.cpp:137] Memory required for data: 1012727808
I0817 10:25:05.778774 15693 layer_factory.hpp:77] Creating layer bn6
I0817 10:25:05.778789 15693 net.cpp:84] Creating Layer bn6
I0817 10:25:05.778793 15693 net.cpp:406] bn6 <- conv6
I0817 10:25:05.778801 15693 net.cpp:380] bn6 -> bn6
I0817 10:25:05.779012 15693 net.cpp:122] Setting up bn6
I0817 10:25:05.779023 15693 net.cpp:129] Top shape: 12 256 1 4096 (12582912)
I0817 10:25:05.779029 15693 net.cpp:137] Memory required for data: 1063059456
I0817 10:25:05.779038 15693 layer_factory.hpp:77] Creating layer relu6
I0817 10:25:05.779052 15693 net.cpp:84] Creating Layer relu6
I0817 10:25:05.779059 15693 net.cpp:406] relu6 <- bn6
I0817 10:25:05.779065 15693 net.cpp:367] relu6 -> bn6 (in-place)
I0817 10:25:05.779728 15693 net.cpp:122] Setting up relu6
I0817 10:25:05.779743 15693 net.cpp:129] Top shape: 12 256 1 4096 (12582912)
I0817 10:25:05.779747 15693 net.cpp:137] Memory required for data: 1113391104
I0817 10:25:05.779750 15693 layer_factory.hpp:77] Creating layer concat6
I0817 10:25:05.779793 15693 net.cpp:84] Creating Layer concat6
I0817 10:25:05.779798 15693 net.cpp:406] concat6 <- bn6
I0817 10:25:05.779804 15693 net.cpp:406] concat6 <- bn2_relu2_0_split_2
I0817 10:25:05.779809 15693 net.cpp:406] concat6 <- bn3_relu3_0_split_2
I0817 10:25:05.779814 15693 net.cpp:406] concat6 <- bn4_relu4_0_split_2
I0817 10:25:05.779819 15693 net.cpp:406] concat6 <- bn5_relu5_0_split_2
I0817 10:25:05.779829 15693 net.cpp:380] concat6 -> concat6
I0817 10:25:05.779878 15693 net.cpp:122] Setting up concat6
I0817 10:25:05.779889 15693 net.cpp:129] Top shape: 12 960 1 4096 (47185920)
I0817 10:25:05.779892 15693 net.cpp:137] Memory required for data: 1302134784
I0817 10:25:05.779896 15693 layer_factory.hpp:77] Creating layer conv7
I0817 10:25:05.779907 15693 net.cpp:84] Creating Layer conv7
I0817 10:25:05.779912 15693 net.cpp:406] conv7 <- concat6
I0817 10:25:05.779932 15693 net.cpp:380] conv7 -> conv7
I0817 10:25:05.782104 15693 net.cpp:122] Setting up conv7
I0817 10:25:05.782119 15693 net.cpp:129] Top shape: 12 128 1 4096 (6291456)
I0817 10:25:05.782124 15693 net.cpp:137] Memory required for data: 1327300608
I0817 10:25:05.782130 15693 layer_factory.hpp:77] Creating layer bn7
I0817 10:25:05.782137 15693 net.cpp:84] Creating Layer bn7
I0817 10:25:05.782141 15693 net.cpp:406] bn7 <- conv7
I0817 10:25:05.782148 15693 net.cpp:380] bn7 -> bn7
I0817 10:25:05.782353 15693 net.cpp:122] Setting up bn7
I0817 10:25:05.782364 15693 net.cpp:129] Top shape: 12 128 1 4096 (6291456)
I0817 10:25:05.782367 15693 net.cpp:137] Memory required for data: 1352466432
I0817 10:25:05.782389 15693 layer_factory.hpp:77] Creating layer relu7
I0817 10:25:05.782409 15693 net.cpp:84] Creating Layer relu7
I0817 10:25:05.782416 15693 net.cpp:406] relu7 <- bn7
I0817 10:25:05.782421 15693 net.cpp:367] relu7 -> bn7 (in-place)
I0817 10:25:05.782712 15693 net.cpp:122] Setting up relu7
I0817 10:25:05.782723 15693 net.cpp:129] Top shape: 12 128 1 4096 (6291456)
I0817 10:25:05.782727 15693 net.cpp:137] Memory required for data: 1377632256
I0817 10:25:05.782730 15693 layer_factory.hpp:77] Creating layer conv8
I0817 10:25:05.782742 15693 net.cpp:84] Creating Layer conv8
I0817 10:25:05.782745 15693 net.cpp:406] conv8 <- bn7
I0817 10:25:05.782754 15693 net.cpp:380] conv8 -> conv8
I0817 10:25:05.784446 15693 net.cpp:122] Setting up conv8
I0817 10:25:05.784459 15693 net.cpp:129] Top shape: 12 13 1 4096 (638976)
I0817 10:25:05.784463 15693 net.cpp:137] Memory required for data: 1380188160
I0817 10:25:05.784471 15693 layer_factory.hpp:77] Creating layer conv8_conv8_0_split
I0817 10:25:05.784477 15693 net.cpp:84] Creating Layer conv8_conv8_0_split
I0817 10:25:05.784482 15693 net.cpp:406] conv8_conv8_0_split <- conv8
I0817 10:25:05.784488 15693 net.cpp:380] conv8_conv8_0_split -> conv8_conv8_0_split_0
I0817 10:25:05.784495 15693 net.cpp:380] conv8_conv8_0_split -> conv8_conv8_0_split_1
I0817 10:25:05.784538 15693 net.cpp:122] Setting up conv8_conv8_0_split
I0817 10:25:05.784548 15693 net.cpp:129] Top shape: 12 13 1 4096 (638976)
I0817 10:25:05.784551 15693 net.cpp:129] Top shape: 12 13 1 4096 (638976)
I0817 10:25:05.784554 15693 net.cpp:137] Memory required for data: 1385299968
I0817 10:25:05.784557 15693 layer_factory.hpp:77] Creating layer loss
I0817 10:25:05.784590 15693 net.cpp:84] Creating Layer loss
I0817 10:25:05.784598 15693 net.cpp:406] loss <- conv8_conv8_0_split_0
I0817 10:25:05.784605 15693 net.cpp:406] loss <- label_data_1_split_0
I0817 10:25:05.784610 15693 net.cpp:380] loss -> loss
…
