…
I0308 21:02:42.811370 30328 net.cpp:294] The NetState phase (0) differed from the phase (1) specified by a rule in layer data
I0308 21:02:42.812042 30328 net.cpp:51] Initializing net from parameters: 
state {
  phase: TRAIN
}
layer {
  name: "data"
  type: "Python"
  top: "data"
  top: "label"
  include {
    phase: TRAIN
  }
  python_param {
    module: "dataset_lidar"
    layer: "InputShapenet"
    param_str: "{\'sample_size\': 4096, \'test_area\': \'6\', \'batch_size\': 19, \'feat_dims\': \'x_y_z_r_g_b\', \'subset\': \'train\', \'root\': \'../../data/shapenet_ericyi_ply\', \'jitter_xyz\': 0.02, \'jitter_stretch\': 0.0, \'jitter_rotation\': 3.0}"
  }
}
layer {
  name: "data_feat"
  type: "Python"
  bottom: "data"
  top: "data_feat"
  python_param {
    module: "custom_layers"
    layer: "PickAndScale"
    param_str: "0_1_2"
  }
}
layer {
  name: "conv1"
  type: "Convolution"
  bottom: "data_feat"
  top: "conv1"
  param {
    lr_mult: 1
  }
  param {
    lr_mult: 0.1
  }
  convolution_param {
    num_output: 32
    pad: 0
    kernel_size: 1
    stride: 1
    weight_filler {
      type: "xavier"
    }
    bias_filler {
      type: "constant"
      value: 0
    }
  }
}
layer {
  name: "bn1"
  type: "BatchNorm"
  bottom: "conv1"
  top: "bn1"
}
layer {
  name: "relu1"
  type: "ReLU"
  bottom: "bn1"
  top: "bn1"
}
layer {
  name: "bnD1"
  type: "Concat"
  bottom: "data_feat"
  bottom: "bn1"
  top: "bnD1"
}
layer {
  name: "fconv1"
  type: "Convolution"
  bottom: "bnD1"
  top: "fconv1"
  param {
    name: "fconv1_w"
    lr_mult: 1
  }
  param {
    lr_mult: 0.1
  }
  convolution_param {
    num_output: 3
    pad: 0
    kernel_size: 1
    stride: 1
    weight_filler {
      type: "xavier"
    }
    bias_filler {
      type: "constant"
      value: 0
    }
  }
}
layer {
  name: "fbn1"
  type: "BatchNorm"
  bottom: "fconv1"
  top: "fbn1"
}
layer {
  name: "param_fconv1"
  type: "Parameter"
  top: "param_fconv1"
  param {
    name: "fconv1_w"
    lr_mult: 1
  }
  parameter_param {
    shape {
      dim: 3
      dim: 35
      dim: 1
      dim: 1
    }
  }
}
layer {
  name: "data_lattice0"
  type: "Python"
  bottom: "fbn1"
  bottom: "param_fconv1"
  top: "data_lattice0"
  python_param {
    module: "custom_layers"
    layer: "NormAndScale"
    param_str: "0*64_1*64_2*64"
  }
}
layer {
  name: "conv2"
  type: "Permutohedral"
  bottom: "bn1"
  bottom: "data_lattice0"
  bottom: "data_lattice0"
  top: "conv2"
  param {
    lr_mult: 1
    decay_mult: 1
  }
  param {
    lr_mult: 2
    decay_mult: 0
  }
  permutohedral_param {
    num_output: 64
    neighborhood_size: 2
    filter_filler {
      type: "gaussian"
      std: 0.001
    }
    bias_term: true
    bias_filler {
      type: "constant"
      value: 0
    }
    group: 1
    norm_type: AFTER
    offset_type: NONE
  }
}
layer {
  name: "bn2"
  type: "BatchNorm"
  bottom: "conv2"
  top: "bn2"
}
layer {
  name: "relu2"
  type: "ReLU"
  bottom: "bn2"
  top: "bn2"
}
layer {
  name: "bnD2"
  type: "Concat"
  bottom: "data_feat"
  bottom: "bn2"
  top: "bnD2"
}
layer {
  name: "fconv2"
  type: "Convolution"
  bottom: "bnD2"
  top: "fconv2"
  param {
    name: "fconv2_w"
    lr_mult: 1
  }
  param {
    lr_mult: 0.1
  }
  convolution_param {
    num_output: 3
    pad: 0
    kernel_size: 1
    stride: 1
    weight_filler {
      type: "xavier"
    }
    bias_filler {
      type: "constant"
      value: 0
    }
  }
}
layer {
  name: "fbn2"
  type: "BatchNorm"
  bottom: "fconv2"
  top: "fbn2"
}
layer {
  name: "param_fconv2"
  type: "Parameter"
  top: "param_fconv2"
  param {
    name: "fconv2_w"
    lr_mult: 1
  }
  parameter_param {
    shape {
      dim: 3
      dim: 67
      dim: 1
      dim: 1
    }
  }
}
layer {
  name: "data_lattice1"
  type: "Python"
  bottom: "fbn2"
  bottom: "param_fconv2"
  top: "data_lattice1"
  python_param {
    module: "custom_layers"
    layer: "NormAndScale"
    param_str: "0*32_1*32_2*32"
  }
}
layer {
  name: "conv3"
  type: "Permutohedral"
  bottom: "bn2"
  bottom: "data_lattice1"
  bottom: "data_lattice1"
  top: "conv3"
  param {
    lr_mult: 1
    decay_mult: 1
  }
  param {
    lr_mult: 2
    decay_mult: 0
  }
  permutohedral_param {
    num_output: 128
    neighborhood_size: 2
    filter_filler {
      type: "gaussian"
      std: 0.001
    }
    bias_term: true
    bias_filler {
      type: "constant"
      value: 0
    }
    group: 1
    norm_type: AFTER
    offset_type: NONE
  }
}
layer {
  name: "bn3"
  type: "BatchNorm"
  bottom: "conv3"
  top: "bn3"
}
layer {
  name: "relu3"
  type: "ReLU"
  bottom: "bn3"
  top: "bn3"
}
layer {
  name: "bnD3"
  type: "Concat"
  bottom: "data_feat"
  bottom: "bn3"
  top: "bnD3"
}
layer {
  name: "fconv3"
  type: "Convolution"
  bottom: "bnD3"
  top: "fconv3"
  param {
    name: "fconv3_w"
    lr_mult: 1
  }
  param {
    lr_mult: 0.1
  }
  convolution_param {
    num_output: 3
    pad: 0
    kernel_size: 1
    stride: 1
    weight_filler {
      type: "xavier"
    }
    bias_filler {
      type: "constant"
      value: 0
    }
  }
}
layer {
  name: "fbn3"
  type: "BatchNorm"
  bottom: "fconv3"
  top: "fbn3"
}
layer {
  name: "param_fconv3"
  type: "Parameter"
  top: "param_fconv3"
  param {
    name: "fconv3_w"
    lr_mult: 1
  }
  parameter_param {
    shape {
      dim: 3
      dim: 131
      dim: 1
      dim: 1
    }
  }
}
layer {
  name: "data_lattice2"
  type: "Python"
  bottom: "fbn3"
  bottom: "param_fconv3"
  top: "data_lattice2"
  python_param {
    module: "custom_layers"
    layer: "NormAndScale"
    param_str: "0*16_1*16_2*16"
  }
}
layer {
  name: "conv4"
  type: "Permutohedral"
  bottom: "bn3"
  bottom: "data_lattice2"
  bottom: "data_lattice2"
  top: "conv4"
  param {
    lr_mult: 1
    decay_mult: 1
  }
  param {
    lr_mult: 2
    decay_mult: 0
  }
  permutohedral_param {
    num_output: 256
    neighborhood_size: 2
    filter_filler {
      type: "gaussian"
      std: 0.001
    }
    bias_term: true
    bias_filler {
      type: "constant"
      value: 0
    }
    group: 1
    norm_type: AFTER
    offset_type: NONE
  }
}
layer {
  name: "bn4"
  type: "BatchNorm"
  bottom: "conv4"
  top: "bn4"
}
layer {
  name: "relu4"
  type: "ReLU"
  bottom: "bn4"
  top: "bn4"
}
layer {
  name: "bnD4"
  type: "Concat"
  bottom: "data_feat"
  bottom: "bn4"
  top: "bnD4"
}
layer {
  name: "fconv4"
  type: "Convolution"
  bottom: "bnD4"
  top: "fconv4"
  param {
    name: "fconv4_w"
    lr_mult: 1
  }
  param {
    lr_mult: 0.1
  }
  convolution_param {
    num_output: 3
    pad: 0
    kernel_size: 1
    stride: 1
    weight_filler {
      type: "xavier"
    }
    bias_filler {
      type: "constant"
      value: 0
    }
  }
}
layer {
  name: "fbn4"
  type: "BatchNorm"
  bottom: "fconv4"
  top: "fbn4"
}
layer {
  name: "param_fconv4"
  type: "Parameter"
  top: "param_fconv4"
  param {
    name: "fconv4_w"
    lr_mult: 1
  }
  parameter_param {
    shape {
      dim: 3
      dim: 259
      dim: 1
      dim: 1
    }
  }
}
layer {
  name: "data_lattice3"
  type: "Python"
  bottom: "fbn4"
  bottom: "param_fconv4"
  top: "data_lattice3"
  python_param {
    module: "custom_layers"
    layer: "NormAndScale"
    param_str: "0*8_1*8_2*8"
  }
}
layer {
  name: "conv5"
  type: "Permutohedral"
  bottom: "bn4"
  bottom: "data_lattice3"
  bottom: "data_lattice3"
  top: "conv5"
  param {
    lr_mult: 1
    decay_mult: 1
  }
  param {
    lr_mult: 2
    decay_mult: 0
  }
  permutohedral_param {
    num_output: 256
    neighborhood_size: 2
    filter_filler {
      type: "gaussian"
      std: 0.001
    }
    bias_term: true
    bias_filler {
      type: "constant"
      value: 0
    }
    group: 1
    norm_type: AFTER
    offset_type: NONE
  }
}
layer {
  name: "bn5"
  type: "BatchNorm"
  bottom: "conv5"
  top: "bn5"
}
layer {
  name: "relu5"
  type: "ReLU"
  bottom: "bn5"
  top: "bn5"
}
layer {
  name: "bnD5"
  type: "Concat"
  bottom: "data_feat"
  bottom: "bn5"
  top: "bnD5"
}
layer {
  name: "fconv5"
  type: "Convolution"
  bottom: "bnD5"
  top: "fconv5"
  param {
    name: "fconv5_w"
    lr_mult: 1
  }
  param {
    lr_mult: 0.1
  }
  convolution_param {
    num_output: 3
    pad: 0
    kernel_size: 1
    stride: 1
    weight_filler {
      type: "xavier"
    }
    bias_filler {
      type: "constant"
      value: 0
    }
  }
}
layer {
  name: "fbn5"
  type: "BatchNorm"
  bottom: "fconv5"
  top: "fbn5"
}
layer {
  name: "param_fconv5"
  type: "Parameter"
  top: "param_fconv5"
  param {
    name: "fconv5_w"
    lr_mult: 1
  }
  parameter_param {
    shape {
      dim: 3
      dim: 259
      dim: 1
      dim: 1
    }
  }
}
layer {
  name: "data_lattice4"
  type: "Python"
  bottom: "fbn5"
  bottom: "param_fconv5"
  top: "data_lattice4"
  python_param {
    module: "custom_layers"
    layer: "NormAndScale"
    param_str: "0*4_1*4_2*4"
  }
}
layer {
  name: "conv6"
  type: "Permutohedral"
  bottom: "bn5"
  bottom: "data_lattice4"
  bottom: "data_lattice4"
  top: "conv6"
  param {
    lr_mult: 1
    decay_mult: 1
  }
  param {
    lr_mult: 2
    decay_mult: 0
  }
  permutohedral_param {
    num_output: 256
    neighborhood_size: 2
    filter_filler {
      type: "gaussian"
      std: 0.001
    }
    bias_term: true
    bias_filler {
      type: "constant"
      value: 0
    }
    group: 1
    norm_type: AFTER
    offset_type: NONE
  }
}
layer {
  name: "bn6"
  type: "BatchNorm"
  bottom: "conv6"
  top: "bn6"
}
layer {
  name: "relu6"
  type: "ReLU"
  bottom: "bn6"
  top: "bn6"
}
layer {
  name: "bnD5_"
  type: "Concat"
  bottom: "data_feat"
  bottom: "bn6"
  top: "bnD5_"
}
layer {
  name: "fconv5_"
  type: "Convolution"
  bottom: "bnD5_"
  top: "fconv5_"
  param {
    name: "fconv5_w_"
    lr_mult: 1
  }
  param {
    lr_mult: 0.1
  }
  convolution_param {
    num_output: 3
    pad: 0
    kernel_size: 1
    stride: 1
    weight_filler {
      type: "xavier"
    }
    bias_filler {
      type: "constant"
      value: 0
    }
  }
}
layer {
  name: "fbn5_"
  type: "BatchNorm"
  bottom: "fconv5_"
  top: "fbn5_"
}
layer {
  name: "param_fconv5_"
  type: "Parameter"
  top: "param_fconv5_"
  param {
    name: "fconv5_w_"
    lr_mult: 1
  }
  parameter_param {
    shape {
      dim: 3
      dim: 259
      dim: 1
      dim: 1
    }
  }
}
layer {
  name: "data_lattice4_"
  type: "Python"
  bottom: "fbn5_"
  bottom: "param_fconv5_"
  top: "data_lattice4_"
  python_param {
    module: "custom_layers"
    layer: "NormAndScale"
    param_str: "0*2_1*2_2*2"
  }
}
layer {
  name: "conv6_"
  type: "Permutohedral"
  bottom: "bn6"
  bottom: "data_lattice4_"
  bottom: "data_lattice4_"
  top: "conv6_"
  param {
    lr_mult: 1
    decay_mult: 1
  }
  param {
    lr_mult: 2
    decay_mult: 0
  }
  permutohedral_param {
    num_output: 256
    neighborhood_size: 2
    filter_filler {
      type: "gaussian"
      std: 0.001
    }
    bias_term: true
    bias_filler {
      type: "constant"
      value: 0
    }
    group: 1
    norm_type: AFTER
    offset_type: NONE
  }
}
layer {
  name: "bn6_"
  type: "BatchNorm"
  bottom: "conv6_"
  top: "bn6_"
}
layer {
  name: "relu6_"
  type: "ReLU"
  bottom: "bn6_"
  top: "bn6_"
}
layer {
  name: "concat6"
  type: "Concat"
  bottom: "bn6_"
  bottom: "bn6"
  bottom: "bn2"
  bottom: "bn3"
  bottom: "bn4"
  bottom: "bn5"
  top: "concat6"
}
layer {
  name: "conv7"
  type: "Convolution"
  bottom: "concat6"
  top: "conv7"
  param {
    lr_mult: 1
  }
  param {
    lr_mult: 0.1
  }
  convolution_param {
    num_output: 128
    pad: 0
    kernel_size: 1
    stride: 1
    weight_filler {
      type: "xavier"
    }
    bias_filler {
      type: "constant"
      value: 0
    }
  }
}
layer {
  name: "bn7"
  type: "BatchNorm"
  bottom: "conv7"
  top: "bn7"
}
layer {
  name: "relu7"
  type: "ReLU"
  bottom: "bn7"
  top: "bn7"
}
layer {
  name: "conv8"
  type: "Convolution"
  bottom: "bn7"
  top: "conv8"
  param {
    lr_mult: 1
  }
  param {
    lr_mult: 0.1
  }
  convolution_param {
    num_output: 13
    pad: 0
    kernel_size: 1
    stride: 1
    weight_filler {
      type: "xavier"
    }
    bias_filler {
      type: "constant"
      value: 0
    }
  }
}
layer {
  name: "loss"
  type: "SoftmaxWithLoss"
  bottom: "conv8"
  bottom: "label"
  top: "loss"
}
layer {
  name: "accuracy"
  type: "Accuracy"
  bottom: "conv8"
  bottom: "label"
  top: "accuracy"
}
I0308 21:02:42.816198 30328 layer_factory.hpp:77] Creating layer data
I0308 21:02:42.817976 30328 net.cpp:84] Creating Layer data
I0308 21:02:42.817993 30328 net.cpp:380] data -> data
I0308 21:02:42.818011 30328 net.cpp:380] data -> label
I0308 22:07:09.395673 30328 net.cpp:122] Setting up data
I0308 22:07:09.418226 30328 net.cpp:129] Top shape: 19 9 1 4096 (700416)
I0308 22:07:09.425473 30328 net.cpp:129] Top shape: 19 1 1 4096 (77824)
I0308 22:07:09.425490 30328 net.cpp:137] Memory required for data: 3112960
I0308 22:07:09.460430 30328 layer_factory.hpp:77] Creating layer label_data_1_split
I0308 22:07:09.462157 30328 net.cpp:84] Creating Layer label_data_1_split
I0308 22:07:09.462173 30328 net.cpp:406] label_data_1_split <- label
I0308 22:07:09.462194 30328 net.cpp:380] label_data_1_split -> label_data_1_split_0
I0308 22:07:09.462779 30328 net.cpp:380] label_data_1_split -> label_data_1_split_1
I0308 22:07:09.463547 30328 net.cpp:122] Setting up label_data_1_split
I0308 22:07:09.463594 30328 net.cpp:129] Top shape: 19 1 1 4096 (77824)
I0308 22:07:09.463629 30328 net.cpp:129] Top shape: 19 1 1 4096 (77824)
I0308 22:07:09.463640 30328 net.cpp:137] Memory required for data: 3735552
I0308 22:07:09.463652 30328 layer_factory.hpp:77] Creating layer data_feat
I0308 22:07:09.766934 30328 net.cpp:84] Creating Layer data_feat
I0308 22:07:09.766980 30328 net.cpp:406] data_feat <- data
I0308 22:07:09.766997 30328 net.cpp:380] data_feat -> data_feat
I0308 22:07:09.795325 30328 net.cpp:122] Setting up data_feat
I0308 22:07:09.795380 30328 net.cpp:129] Top shape: 19 3 1 4096 (233472)
I0308 22:07:09.795388 30328 net.cpp:137] Memory required for data: 4669440
I0308 22:07:09.795400 30328 layer_factory.hpp:77] Creating layer data_feat_data_feat_0_split
I0308 22:07:09.795425 30328 net.cpp:84] Creating Layer data_feat_data_feat_0_split
I0308 22:07:09.795437 30328 net.cpp:406] data_feat_data_feat_0_split <- data_feat
I0308 22:07:09.795457 30328 net.cpp:380] data_feat_data_feat_0_split -> data_feat_data_feat_0_split_0
I0308 22:07:09.795481 30328 net.cpp:380] data_feat_data_feat_0_split -> data_feat_data_feat_0_split_1
I0308 22:07:09.795513 30328 net.cpp:380] data_feat_data_feat_0_split -> data_feat_data_feat_0_split_2
I0308 22:07:09.795539 30328 net.cpp:380] data_feat_data_feat_0_split -> data_feat_data_feat_0_split_3
I0308 22:07:09.795553 30328 net.cpp:380] data_feat_data_feat_0_split -> data_feat_data_feat_0_split_4
I0308 22:07:09.795567 30328 net.cpp:380] data_feat_data_feat_0_split -> data_feat_data_feat_0_split_5
I0308 22:07:09.795575 30328 net.cpp:380] data_feat_data_feat_0_split -> data_feat_data_feat_0_split_6
I0308 22:07:09.795745 30328 net.cpp:122] Setting up data_feat_data_feat_0_split
I0308 22:07:09.795758 30328 net.cpp:129] Top shape: 19 3 1 4096 (233472)
I0308 22:07:09.795764 30328 net.cpp:129] Top shape: 19 3 1 4096 (233472)
I0308 22:07:09.795771 30328 net.cpp:129] Top shape: 19 3 1 4096 (233472)
I0308 22:07:09.795778 30328 net.cpp:129] Top shape: 19 3 1 4096 (233472)
I0308 22:07:09.795783 30328 net.cpp:129] Top shape: 19 3 1 4096 (233472)
I0308 22:07:09.795789 30328 net.cpp:129] Top shape: 19 3 1 4096 (233472)
I0308 22:07:09.795794 30328 net.cpp:129] Top shape: 19 3 1 4096 (233472)
I0308 22:07:09.795799 30328 net.cpp:137] Memory required for data: 11206656
I0308 22:07:09.795802 30328 layer_factory.hpp:77] Creating layer conv1
I0308 22:07:09.796591 30328 net.cpp:84] Creating Layer conv1
I0308 22:07:09.796604 30328 net.cpp:406] conv1 <- data_feat_data_feat_0_split_0
I0308 22:07:09.796627 30328 net.cpp:380] conv1 -> conv1
I0308 22:07:12.337931 30328 net.cpp:122] Setting up conv1
I0308 22:07:12.337972 30328 net.cpp:129] Top shape: 19 32 1 4096 (2490368)
I0308 22:07:12.337976 30328 net.cpp:137] Memory required for data: 21168128
I0308 22:07:12.338006 30328 layer_factory.hpp:77] Creating layer bn1
I0308 22:07:12.338469 30328 net.cpp:84] Creating Layer bn1
I0308 22:07:12.338475 30328 net.cpp:406] bn1 <- conv1
I0308 22:07:12.338512 30328 net.cpp:380] bn1 -> bn1
I0308 22:07:12.339272 30328 net.cpp:122] Setting up bn1
I0308 22:07:12.339280 30328 net.cpp:129] Top shape: 19 32 1 4096 (2490368)
I0308 22:07:12.339283 30328 net.cpp:137] Memory required for data: 31129600
I0308 22:07:12.339308 30328 layer_factory.hpp:77] Creating layer relu1
I0308 22:07:12.339314 30328 net.cpp:84] Creating Layer relu1
I0308 22:07:12.339318 30328 net.cpp:406] relu1 <- bn1
I0308 22:07:12.339321 30328 net.cpp:367] relu1 -> bn1 (in-place)
I0308 22:07:12.340404 30328 net.cpp:122] Setting up relu1
I0308 22:07:12.340415 30328 net.cpp:129] Top shape: 19 32 1 4096 (2490368)
I0308 22:07:12.340418 30328 net.cpp:137] Memory required for data: 41091072
I0308 22:07:12.340430 30328 layer_factory.hpp:77] Creating layer bn1_relu1_0_split
I0308 22:07:12.340437 30328 net.cpp:84] Creating Layer bn1_relu1_0_split
I0308 22:07:12.340440 30328 net.cpp:406] bn1_relu1_0_split <- bn1
I0308 22:07:12.340445 30328 net.cpp:380] bn1_relu1_0_split -> bn1_relu1_0_split_0
I0308 22:07:12.340456 30328 net.cpp:380] bn1_relu1_0_split -> bn1_relu1_0_split_1
I0308 22:07:12.340502 30328 net.cpp:122] Setting up bn1_relu1_0_split
I0308 22:07:12.340508 30328 net.cpp:129] Top shape: 19 32 1 4096 (2490368)
I0308 22:07:12.340512 30328 net.cpp:129] Top shape: 19 32 1 4096 (2490368)
I0308 22:07:12.340514 30328 net.cpp:137] Memory required for data: 61014016
I0308 22:07:12.340524 30328 layer_factory.hpp:77] Creating layer bnD1
I0308 22:07:12.340534 30328 net.cpp:84] Creating Layer bnD1
I0308 22:07:12.340538 30328 net.cpp:406] bnD1 <- data_feat_data_feat_0_split_1
I0308 22:07:12.340543 30328 net.cpp:406] bnD1 <- bn1_relu1_0_split_0
I0308 22:07:12.340548 30328 net.cpp:380] bnD1 -> bnD1
I0308 22:07:12.340577 30328 net.cpp:122] Setting up bnD1
I0308 22:07:12.340584 30328 net.cpp:129] Top shape: 19 35 1 4096 (2723840)
I0308 22:07:12.340586 30328 net.cpp:137] Memory required for data: 71909376
I0308 22:07:12.340590 30328 layer_factory.hpp:77] Creating layer fconv1
I0308 22:07:12.340602 30328 net.cpp:84] Creating Layer fconv1
I0308 22:07:12.340605 30328 net.cpp:406] fconv1 <- bnD1
I0308 22:07:12.340612 30328 net.cpp:380] fconv1 -> fconv1
I0308 22:07:12.342097 30328 net.cpp:122] Setting up fconv1
I0308 22:07:12.342111 30328 net.cpp:129] Top shape: 19 3 1 4096 (233472)
I0308 22:07:12.342114 30328 net.cpp:137] Memory required for data: 72843264
I0308 22:07:12.342131 30328 layer_factory.hpp:77] Creating layer fbn1
I0308 22:07:12.342139 30328 net.cpp:84] Creating Layer fbn1
I0308 22:07:12.342141 30328 net.cpp:406] fbn1 <- fconv1
I0308 22:07:12.342154 30328 net.cpp:380] fbn1 -> fbn1
I0308 22:07:12.342387 30328 net.cpp:122] Setting up fbn1
I0308 22:07:12.342396 30328 net.cpp:129] Top shape: 19 3 1 4096 (233472)
I0308 22:07:12.342398 30328 net.cpp:137] Memory required for data: 73777152
I0308 22:07:12.342416 30328 layer_factory.hpp:77] Creating layer param_fconv1
I0308 22:07:12.342772 30328 net.cpp:84] Creating Layer param_fconv1
I0308 22:07:12.342780 30328 net.cpp:380] param_fconv1 -> param_fconv1
I0308 22:07:12.342969 30328 net.cpp:122] Setting up param_fconv1
I0308 22:07:12.342978 30328 net.cpp:129] Top shape: 3 35 1 1 (105)
I0308 22:07:12.342980 30328 net.cpp:137] Memory required for data: 73777572
I0308 22:07:12.342984 30328 net.cpp:465] Sharing parameters 'fconv1_w' owned by layer 'fconv1', param index 0
I0308 22:07:12.342988 30328 layer_factory.hpp:77] Creating layer data_lattice0
I0308 22:07:12.343047 30328 net.cpp:84] Creating Layer data_lattice0
I0308 22:07:12.343053 30328 net.cpp:406] data_lattice0 <- fbn1
I0308 22:07:12.343058 30328 net.cpp:406] data_lattice0 <- param_fconv1
I0308 22:07:12.343065 30328 net.cpp:380] data_lattice0 -> data_lattice0
I0308 22:07:12.344730 30328 net.cpp:122] Setting up data_lattice0
I0308 22:07:12.344745 30328 net.cpp:129] Top shape: 19 3 1 4096 (233472)
I0308 22:07:12.344749 30328 net.cpp:137] Memory required for data: 74711460
I0308 22:07:12.344763 30328 layer_factory.hpp:77] Creating layer data_lattice0_data_lattice0_0_split
I0308 22:07:12.344769 30328 net.cpp:84] Creating Layer data_lattice0_data_lattice0_0_split
I0308 22:07:12.344772 30328 net.cpp:406] data_lattice0_data_lattice0_0_split <- data_lattice0
I0308 22:07:12.344779 30328 net.cpp:380] data_lattice0_data_lattice0_0_split -> data_lattice0_data_lattice0_0_split_0
I0308 22:07:12.344787 30328 net.cpp:380] data_lattice0_data_lattice0_0_split -> data_lattice0_data_lattice0_0_split_1
I0308 22:07:12.344825 30328 net.cpp:122] Setting up data_lattice0_data_lattice0_0_split
I0308 22:07:12.344832 30328 net.cpp:129] Top shape: 19 3 1 4096 (233472)
I0308 22:07:12.344836 30328 net.cpp:129] Top shape: 19 3 1 4096 (233472)
I0308 22:07:12.344841 30328 net.cpp:137] Memory required for data: 76579236
I0308 22:07:12.344843 30328 layer_factory.hpp:77] Creating layer conv2
I0308 22:07:12.344852 30328 net.cpp:84] Creating Layer conv2
I0308 22:07:12.344856 30328 net.cpp:406] conv2 <- bn1_relu1_0_split_1
I0308 22:07:12.344861 30328 net.cpp:406] conv2 <- data_lattice0_data_lattice0_0_split_0
I0308 22:07:12.344866 30328 net.cpp:406] conv2 <- data_lattice0_data_lattice0_0_split_1
I0308 22:07:12.344871 30328 net.cpp:380] conv2 -> conv2
I0308 22:07:12.347314 30328 net.cpp:122] Setting up conv2
I0308 22:07:12.347326 30328 net.cpp:129] Top shape: 19 64 1 4096 (4980736)
I0308 22:07:12.347327 30328 net.cpp:137] Memory required for data: 96502180
I0308 22:07:12.347352 30328 layer_factory.hpp:77] Creating layer bn2
I0308 22:07:12.347360 30328 net.cpp:84] Creating Layer bn2
I0308 22:07:12.347363 30328 net.cpp:406] bn2 <- conv2
I0308 22:07:12.347369 30328 net.cpp:380] bn2 -> bn2
I0308 22:07:12.347592 30328 net.cpp:122] Setting up bn2
I0308 22:07:12.347599 30328 net.cpp:129] Top shape: 19 64 1 4096 (4980736)
I0308 22:07:12.347602 30328 net.cpp:137] Memory required for data: 116425124
I0308 22:07:12.347609 30328 layer_factory.hpp:77] Creating layer relu2
I0308 22:07:12.347637 30328 net.cpp:84] Creating Layer relu2
I0308 22:07:12.347640 30328 net.cpp:406] relu2 <- bn2
I0308 22:07:12.347645 30328 net.cpp:367] relu2 -> bn2 (in-place)
I0308 22:07:12.348209 30328 net.cpp:122] Setting up relu2
I0308 22:07:12.348220 30328 net.cpp:129] Top shape: 19 64 1 4096 (4980736)
I0308 22:07:12.348223 30328 net.cpp:137] Memory required for data: 136348068
I0308 22:07:12.348237 30328 layer_factory.hpp:77] Creating layer bn2_relu2_0_split
I0308 22:07:12.348243 30328 net.cpp:84] Creating Layer bn2_relu2_0_split
I0308 22:07:12.348246 30328 net.cpp:406] bn2_relu2_0_split <- bn2
I0308 22:07:12.348260 30328 net.cpp:380] bn2_relu2_0_split -> bn2_relu2_0_split_0
I0308 22:07:12.348278 30328 net.cpp:380] bn2_relu2_0_split -> bn2_relu2_0_split_1
I0308 22:07:12.348286 30328 net.cpp:380] bn2_relu2_0_split -> bn2_relu2_0_split_2
I0308 22:07:12.348345 30328 net.cpp:122] Setting up bn2_relu2_0_split
I0308 22:07:12.348352 30328 net.cpp:129] Top shape: 19 64 1 4096 (4980736)
I0308 22:07:12.348356 30328 net.cpp:129] Top shape: 19 64 1 4096 (4980736)
I0308 22:07:12.348359 30328 net.cpp:129] Top shape: 19 64 1 4096 (4980736)
I0308 22:07:12.348361 30328 net.cpp:137] Memory required for data: 196116900
I0308 22:07:12.348364 30328 layer_factory.hpp:77] Creating layer bnD2
I0308 22:07:12.348376 30328 net.cpp:84] Creating Layer bnD2
I0308 22:07:12.348379 30328 net.cpp:406] bnD2 <- data_feat_data_feat_0_split_2
I0308 22:07:12.348383 30328 net.cpp:406] bnD2 <- bn2_relu2_0_split_0
I0308 22:07:12.348389 30328 net.cpp:380] bnD2 -> bnD2
I0308 22:07:12.348414 30328 net.cpp:122] Setting up bnD2
I0308 22:07:12.348421 30328 net.cpp:129] Top shape: 19 67 1 4096 (5214208)
I0308 22:07:12.348423 30328 net.cpp:137] Memory required for data: 216973732
I0308 22:07:12.348426 30328 layer_factory.hpp:77] Creating layer fconv2
I0308 22:07:12.348438 30328 net.cpp:84] Creating Layer fconv2
I0308 22:07:12.348441 30328 net.cpp:406] fconv2 <- bnD2
I0308 22:07:12.348448 30328 net.cpp:380] fconv2 -> fconv2
I0308 22:07:12.350826 30328 net.cpp:122] Setting up fconv2
I0308 22:07:12.350839 30328 net.cpp:129] Top shape: 19 3 1 4096 (233472)
I0308 22:07:12.350842 30328 net.cpp:137] Memory required for data: 217907620
I0308 22:07:12.350855 30328 layer_factory.hpp:77] Creating layer fbn2
I0308 22:07:12.350864 30328 net.cpp:84] Creating Layer fbn2
I0308 22:07:12.350867 30328 net.cpp:406] fbn2 <- fconv2
I0308 22:07:12.350873 30328 net.cpp:380] fbn2 -> fbn2
I0308 22:07:12.351106 30328 net.cpp:122] Setting up fbn2
I0308 22:07:12.351115 30328 net.cpp:129] Top shape: 19 3 1 4096 (233472)
I0308 22:07:12.351117 30328 net.cpp:137] Memory required for data: 218841508
I0308 22:07:12.351125 30328 layer_factory.hpp:77] Creating layer param_fconv2
I0308 22:07:12.351131 30328 net.cpp:84] Creating Layer param_fconv2
I0308 22:07:12.351135 30328 net.cpp:380] param_fconv2 -> param_fconv2
I0308 22:07:12.351176 30328 net.cpp:122] Setting up param_fconv2
I0308 22:07:12.351181 30328 net.cpp:129] Top shape: 3 67 1 1 (201)
I0308 22:07:12.351183 30328 net.cpp:137] Memory required for data: 218842312
I0308 22:07:12.351187 30328 net.cpp:465] Sharing parameters 'fconv2_w' owned by layer 'fconv2', param index 0
I0308 22:07:12.351199 30328 layer_factory.hpp:77] Creating layer data_lattice1
I0308 22:07:12.351235 30328 net.cpp:84] Creating Layer data_lattice1
I0308 22:07:12.351241 30328 net.cpp:406] data_lattice1 <- fbn2
I0308 22:07:12.351246 30328 net.cpp:406] data_lattice1 <- param_fconv2
I0308 22:07:12.351251 30328 net.cpp:380] data_lattice1 -> data_lattice1
I0308 22:07:12.352879 30328 net.cpp:122] Setting up data_lattice1
I0308 22:07:12.352895 30328 net.cpp:129] Top shape: 19 3 1 4096 (233472)
I0308 22:07:12.352897 30328 net.cpp:137] Memory required for data: 219776200
I0308 22:07:12.352910 30328 layer_factory.hpp:77] Creating layer data_lattice1_data_lattice1_0_split
I0308 22:07:12.352917 30328 net.cpp:84] Creating Layer data_lattice1_data_lattice1_0_split
I0308 22:07:12.352921 30328 net.cpp:406] data_lattice1_data_lattice1_0_split <- data_lattice1
I0308 22:07:12.352928 30328 net.cpp:380] data_lattice1_data_lattice1_0_split -> data_lattice1_data_lattice1_0_split_0
I0308 22:07:12.352936 30328 net.cpp:380] data_lattice1_data_lattice1_0_split -> data_lattice1_data_lattice1_0_split_1
I0308 22:07:12.352990 30328 net.cpp:122] Setting up data_lattice1_data_lattice1_0_split
I0308 22:07:12.352998 30328 net.cpp:129] Top shape: 19 3 1 4096 (233472)
I0308 22:07:12.353004 30328 net.cpp:129] Top shape: 19 3 1 4096 (233472)
I0308 22:07:12.353006 30328 net.cpp:137] Memory required for data: 221643976
I0308 22:07:12.353008 30328 layer_factory.hpp:77] Creating layer conv3
I0308 22:07:12.353018 30328 net.cpp:84] Creating Layer conv3
I0308 22:07:12.353022 30328 net.cpp:406] conv3 <- bn2_relu2_0_split_1
I0308 22:07:12.353026 30328 net.cpp:406] conv3 <- data_lattice1_data_lattice1_0_split_0
I0308 22:07:12.353030 30328 net.cpp:406] conv3 <- data_lattice1_data_lattice1_0_split_1
I0308 22:07:12.353036 30328 net.cpp:380] conv3 -> conv3
I0308 22:07:12.361088 30328 net.cpp:122] Setting up conv3
I0308 22:07:12.361104 30328 net.cpp:129] Top shape: 19 128 1 4096 (9961472)
I0308 22:07:12.361106 30328 net.cpp:137] Memory required for data: 261489864
I0308 22:07:12.361114 30328 layer_factory.hpp:77] Creating layer bn3
I0308 22:07:12.361143 30328 net.cpp:84] Creating Layer bn3
I0308 22:07:12.361147 30328 net.cpp:406] bn3 <- conv3
I0308 22:07:12.361158 30328 net.cpp:380] bn3 -> bn3
I0308 22:07:12.361384 30328 net.cpp:122] Setting up bn3
I0308 22:07:12.361392 30328 net.cpp:129] Top shape: 19 128 1 4096 (9961472)
I0308 22:07:12.361395 30328 net.cpp:137] Memory required for data: 301335752
I0308 22:07:12.361402 30328 layer_factory.hpp:77] Creating layer relu3
I0308 22:07:12.361408 30328 net.cpp:84] Creating Layer relu3
I0308 22:07:12.361412 30328 net.cpp:406] relu3 <- bn3
I0308 22:07:12.361416 30328 net.cpp:367] relu3 -> bn3 (in-place)
I0308 22:07:12.363947 30328 net.cpp:122] Setting up relu3
I0308 22:07:12.363960 30328 net.cpp:129] Top shape: 19 128 1 4096 (9961472)
I0308 22:07:12.363963 30328 net.cpp:137] Memory required for data: 341181640
I0308 22:07:12.363965 30328 layer_factory.hpp:77] Creating layer bn3_relu3_0_split
I0308 22:07:12.363971 30328 net.cpp:84] Creating Layer bn3_relu3_0_split
I0308 22:07:12.363976 30328 net.cpp:406] bn3_relu3_0_split <- bn3
I0308 22:07:12.363982 30328 net.cpp:380] bn3_relu3_0_split -> bn3_relu3_0_split_0
I0308 22:07:12.363991 30328 net.cpp:380] bn3_relu3_0_split -> bn3_relu3_0_split_1
I0308 22:07:12.364006 30328 net.cpp:380] bn3_relu3_0_split -> bn3_relu3_0_split_2
I0308 22:07:12.364066 30328 net.cpp:122] Setting up bn3_relu3_0_split
I0308 22:07:12.364073 30328 net.cpp:129] Top shape: 19 128 1 4096 (9961472)
I0308 22:07:12.364076 30328 net.cpp:129] Top shape: 19 128 1 4096 (9961472)
I0308 22:07:12.364080 30328 net.cpp:129] Top shape: 19 128 1 4096 (9961472)
I0308 22:07:12.364082 30328 net.cpp:137] Memory required for data: 460719304
I0308 22:07:12.364085 30328 layer_factory.hpp:77] Creating layer bnD3
I0308 22:07:12.364091 30328 net.cpp:84] Creating Layer bnD3
I0308 22:07:12.364094 30328 net.cpp:406] bnD3 <- data_feat_data_feat_0_split_3
I0308 22:07:12.364099 30328 net.cpp:406] bnD3 <- bn3_relu3_0_split_0
I0308 22:07:12.364106 30328 net.cpp:380] bnD3 -> bnD3
I0308 22:07:12.364130 30328 net.cpp:122] Setting up bnD3
I0308 22:07:12.364136 30328 net.cpp:129] Top shape: 19 131 1 4096 (10194944)
I0308 22:07:12.364140 30328 net.cpp:137] Memory required for data: 501499080
I0308 22:07:12.364148 30328 layer_factory.hpp:77] Creating layer fconv3
I0308 22:07:12.364161 30328 net.cpp:84] Creating Layer fconv3
I0308 22:07:12.364166 30328 net.cpp:406] fconv3 <- bnD3
I0308 22:07:12.364174 30328 net.cpp:380] fconv3 -> fconv3
I0308 22:07:12.398468 30328 net.cpp:122] Setting up fconv3
I0308 22:07:12.398506 30328 net.cpp:129] Top shape: 19 3 1 4096 (233472)
I0308 22:07:12.398509 30328 net.cpp:137] Memory required for data: 502432968
I0308 22:07:12.398521 30328 layer_factory.hpp:77] Creating layer fbn3
I0308 22:07:12.398533 30328 net.cpp:84] Creating Layer fbn3
I0308 22:07:12.398537 30328 net.cpp:406] fbn3 <- fconv3
I0308 22:07:12.398545 30328 net.cpp:380] fbn3 -> fbn3
I0308 22:07:12.398807 30328 net.cpp:122] Setting up fbn3
I0308 22:07:12.398815 30328 net.cpp:129] Top shape: 19 3 1 4096 (233472)
I0308 22:07:12.398818 30328 net.cpp:137] Memory required for data: 503366856
I0308 22:07:12.398826 30328 layer_factory.hpp:77] Creating layer param_fconv3
I0308 22:07:12.398834 30328 net.cpp:84] Creating Layer param_fconv3
I0308 22:07:12.398852 30328 net.cpp:380] param_fconv3 -> param_fconv3
I0308 22:07:12.398896 30328 net.cpp:122] Setting up param_fconv3
I0308 22:07:12.398902 30328 net.cpp:129] Top shape: 3 131 1 1 (393)
I0308 22:07:12.398905 30328 net.cpp:137] Memory required for data: 503368428
I0308 22:07:12.398916 30328 net.cpp:465] Sharing parameters 'fconv3_w' owned by layer 'fconv3', param index 0
I0308 22:07:12.398922 30328 layer_factory.hpp:77] Creating layer data_lattice2
I0308 22:07:12.398993 30328 net.cpp:84] Creating Layer data_lattice2
I0308 22:07:12.398998 30328 net.cpp:406] data_lattice2 <- fbn3
I0308 22:07:12.399003 30328 net.cpp:406] data_lattice2 <- param_fconv3
I0308 22:07:12.399008 30328 net.cpp:380] data_lattice2 -> data_lattice2
I0308 22:07:12.399278 30328 net.cpp:122] Setting up data_lattice2
I0308 22:07:12.399288 30328 net.cpp:129] Top shape: 19 3 1 4096 (233472)
I0308 22:07:12.399291 30328 net.cpp:137] Memory required for data: 504302316
I0308 22:07:12.399294 30328 layer_factory.hpp:77] Creating layer data_lattice2_data_lattice2_0_split
I0308 22:07:12.399302 30328 net.cpp:84] Creating Layer data_lattice2_data_lattice2_0_split
I0308 22:07:12.399309 30328 net.cpp:406] data_lattice2_data_lattice2_0_split <- data_lattice2
I0308 22:07:12.399315 30328 net.cpp:380] data_lattice2_data_lattice2_0_split -> data_lattice2_data_lattice2_0_split_0
I0308 22:07:12.399323 30328 net.cpp:380] data_lattice2_data_lattice2_0_split -> data_lattice2_data_lattice2_0_split_1
I0308 22:07:12.399365 30328 net.cpp:122] Setting up data_lattice2_data_lattice2_0_split
I0308 22:07:12.399371 30328 net.cpp:129] Top shape: 19 3 1 4096 (233472)
I0308 22:07:12.399377 30328 net.cpp:129] Top shape: 19 3 1 4096 (233472)
I0308 22:07:12.399380 30328 net.cpp:137] Memory required for data: 506170092
I0308 22:07:12.399382 30328 layer_factory.hpp:77] Creating layer conv4
I0308 22:07:12.399390 30328 net.cpp:84] Creating Layer conv4
I0308 22:07:12.399395 30328 net.cpp:406] conv4 <- bn3_relu3_0_split_1
I0308 22:07:12.399400 30328 net.cpp:406] conv4 <- data_lattice2_data_lattice2_0_split_0
I0308 22:07:12.399405 30328 net.cpp:406] conv4 <- data_lattice2_data_lattice2_0_split_1
I0308 22:07:12.399411 30328 net.cpp:380] conv4 -> conv4
I0308 22:07:12.433070 30328 net.cpp:122] Setting up conv4
I0308 22:07:12.433110 30328 net.cpp:129] Top shape: 19 256 1 4096 (19922944)
I0308 22:07:12.433113 30328 net.cpp:137] Memory required for data: 585861868
I0308 22:07:12.433125 30328 layer_factory.hpp:77] Creating layer bn4
I0308 22:07:12.433148 30328 net.cpp:84] Creating Layer bn4
I0308 22:07:12.433153 30328 net.cpp:406] bn4 <- conv4
I0308 22:07:12.433161 30328 net.cpp:380] bn4 -> bn4
I0308 22:07:12.433403 30328 net.cpp:122] Setting up bn4
I0308 22:07:12.433413 30328 net.cpp:129] Top shape: 19 256 1 4096 (19922944)
I0308 22:07:12.433415 30328 net.cpp:137] Memory required for data: 665553644
I0308 22:07:12.433425 30328 layer_factory.hpp:77] Creating layer relu4
I0308 22:07:12.433434 30328 net.cpp:84] Creating Layer relu4
I0308 22:07:12.433437 30328 net.cpp:406] relu4 <- bn4
I0308 22:07:12.433442 30328 net.cpp:367] relu4 -> bn4 (in-place)
I0308 22:07:12.433645 30328 net.cpp:122] Setting up relu4
I0308 22:07:12.433655 30328 net.cpp:129] Top shape: 19 256 1 4096 (19922944)
I0308 22:07:12.433658 30328 net.cpp:137] Memory required for data: 745245420
I0308 22:07:12.433660 30328 layer_factory.hpp:77] Creating layer bn4_relu4_0_split
I0308 22:07:12.433668 30328 net.cpp:84] Creating Layer bn4_relu4_0_split
I0308 22:07:12.433671 30328 net.cpp:406] bn4_relu4_0_split <- bn4
I0308 22:07:12.433678 30328 net.cpp:380] bn4_relu4_0_split -> bn4_relu4_0_split_0
I0308 22:07:12.433686 30328 net.cpp:380] bn4_relu4_0_split -> bn4_relu4_0_split_1
I0308 22:07:12.433692 30328 net.cpp:380] bn4_relu4_0_split -> bn4_relu4_0_split_2
I0308 22:07:12.433755 30328 net.cpp:122] Setting up bn4_relu4_0_split
I0308 22:07:12.433763 30328 net.cpp:129] Top shape: 19 256 1 4096 (19922944)
I0308 22:07:12.433766 30328 net.cpp:129] Top shape: 19 256 1 4096 (19922944)
I0308 22:07:12.433769 30328 net.cpp:129] Top shape: 19 256 1 4096 (19922944)
I0308 22:07:12.433771 30328 net.cpp:137] Memory required for data: 984320748
I0308 22:07:12.433774 30328 layer_factory.hpp:77] Creating layer bnD4
I0308 22:07:12.433781 30328 net.cpp:84] Creating Layer bnD4
I0308 22:07:12.433785 30328 net.cpp:406] bnD4 <- data_feat_data_feat_0_split_4
I0308 22:07:12.433790 30328 net.cpp:406] bnD4 <- bn4_relu4_0_split_0
I0308 22:07:12.433797 30328 net.cpp:380] bnD4 -> bnD4
I0308 22:07:12.433821 30328 net.cpp:122] Setting up bnD4
I0308 22:07:12.433828 30328 net.cpp:129] Top shape: 19 259 1 4096 (20156416)
I0308 22:07:12.433830 30328 net.cpp:137] Memory required for data: 1064946412
I0308 22:07:12.433840 30328 layer_factory.hpp:77] Creating layer fconv4
I0308 22:07:12.433856 30328 net.cpp:84] Creating Layer fconv4
I0308 22:07:12.433861 30328 net.cpp:406] fconv4 <- bnD4
I0308 22:07:12.433869 30328 net.cpp:380] fconv4 -> fconv4
I0308 22:07:12.435068 30328 net.cpp:122] Setting up fconv4
I0308 22:07:12.435081 30328 net.cpp:129] Top shape: 19 3 1 4096 (233472)
I0308 22:07:12.435084 30328 net.cpp:137] Memory required for data: 1065880300
I0308 22:07:12.435092 30328 layer_factory.hpp:77] Creating layer fbn4
I0308 22:07:12.435099 30328 net.cpp:84] Creating Layer fbn4
I0308 22:07:12.435102 30328 net.cpp:406] fbn4 <- fconv4
I0308 22:07:12.435111 30328 net.cpp:380] fbn4 -> fbn4
I0308 22:07:12.435353 30328 net.cpp:122] Setting up fbn4
I0308 22:07:12.435361 30328 net.cpp:129] Top shape: 19 3 1 4096 (233472)
I0308 22:07:12.435365 30328 net.cpp:137] Memory required for data: 1066814188
I0308 22:07:12.435372 30328 layer_factory.hpp:77] Creating layer param_fconv4
I0308 22:07:12.435381 30328 net.cpp:84] Creating Layer param_fconv4
I0308 22:07:12.435387 30328 net.cpp:380] param_fconv4 -> param_fconv4
I0308 22:07:12.435428 30328 net.cpp:122] Setting up param_fconv4
I0308 22:07:12.435434 30328 net.cpp:129] Top shape: 3 259 1 1 (777)
I0308 22:07:12.435437 30328 net.cpp:137] Memory required for data: 1066817296
I0308 22:07:12.435441 30328 net.cpp:465] Sharing parameters 'fconv4_w' owned by layer 'fconv4', param index 0
I0308 22:07:12.435444 30328 layer_factory.hpp:77] Creating layer data_lattice3
I0308 22:07:12.435503 30328 net.cpp:84] Creating Layer data_lattice3
I0308 22:07:12.435508 30328 net.cpp:406] data_lattice3 <- fbn4
I0308 22:07:12.435514 30328 net.cpp:406] data_lattice3 <- param_fconv4
I0308 22:07:12.435523 30328 net.cpp:380] data_lattice3 -> data_lattice3
I0308 22:07:12.437144 30328 net.cpp:122] Setting up data_lattice3
I0308 22:07:12.437157 30328 net.cpp:129] Top shape: 19 3 1 4096 (233472)
I0308 22:07:12.437161 30328 net.cpp:137] Memory required for data: 1067751184
I0308 22:07:12.437165 30328 layer_factory.hpp:77] Creating layer data_lattice3_data_lattice3_0_split
I0308 22:07:12.437173 30328 net.cpp:84] Creating Layer data_lattice3_data_lattice3_0_split
I0308 22:07:12.437177 30328 net.cpp:406] data_lattice3_data_lattice3_0_split <- data_lattice3
I0308 22:07:12.437186 30328 net.cpp:380] data_lattice3_data_lattice3_0_split -> data_lattice3_data_lattice3_0_split_0
I0308 22:07:12.437193 30328 net.cpp:380] data_lattice3_data_lattice3_0_split -> data_lattice3_data_lattice3_0_split_1
I0308 22:07:12.437239 30328 net.cpp:122] Setting up data_lattice3_data_lattice3_0_split
I0308 22:07:12.437247 30328 net.cpp:129] Top shape: 19 3 1 4096 (233472)
I0308 22:07:12.437250 30328 net.cpp:129] Top shape: 19 3 1 4096 (233472)
I0308 22:07:12.437253 30328 net.cpp:137] Memory required for data: 1069618960
I0308 22:07:12.437255 30328 layer_factory.hpp:77] Creating layer conv5
I0308 22:07:12.437265 30328 net.cpp:84] Creating Layer conv5
I0308 22:07:12.437271 30328 net.cpp:406] conv5 <- bn4_relu4_0_split_1
I0308 22:07:12.437275 30328 net.cpp:406] conv5 <- data_lattice3_data_lattice3_0_split_0
I0308 22:07:12.437279 30328 net.cpp:406] conv5 <- data_lattice3_data_lattice3_0_split_1
I0308 22:07:12.437288 30328 net.cpp:380] conv5 -> conv5
I0308 22:07:12.498983 30328 net.cpp:122] Setting up conv5
I0308 22:07:12.499025 30328 net.cpp:129] Top shape: 19 256 1 4096 (19922944)
I0308 22:07:12.499028 30328 net.cpp:137] Memory required for data: 1149310736
I0308 22:07:12.499040 30328 layer_factory.hpp:77] Creating layer bn5
I0308 22:07:12.499053 30328 net.cpp:84] Creating Layer bn5
I0308 22:07:12.499058 30328 net.cpp:406] bn5 <- conv5
I0308 22:07:12.499078 30328 net.cpp:380] bn5 -> bn5
I0308 22:07:12.499336 30328 net.cpp:122] Setting up bn5
I0308 22:07:12.499343 30328 net.cpp:129] Top shape: 19 256 1 4096 (19922944)
I0308 22:07:12.499346 30328 net.cpp:137] Memory required for data: 1229002512
I0308 22:07:12.499353 30328 layer_factory.hpp:77] Creating layer relu5
I0308 22:07:12.499372 30328 net.cpp:84] Creating Layer relu5
I0308 22:07:12.499375 30328 net.cpp:406] relu5 <- bn5
I0308 22:07:12.499380 30328 net.cpp:367] relu5 -> bn5 (in-place)
I0308 22:07:12.499593 30328 net.cpp:122] Setting up relu5
I0308 22:07:12.499604 30328 net.cpp:129] Top shape: 19 256 1 4096 (19922944)
I0308 22:07:12.499608 30328 net.cpp:137] Memory required for data: 1308694288
I0308 22:07:12.499610 30328 layer_factory.hpp:77] Creating layer bn5_relu5_0_split
I0308 22:07:12.499621 30328 net.cpp:84] Creating Layer bn5_relu5_0_split
I0308 22:07:12.499624 30328 net.cpp:406] bn5_relu5_0_split <- bn5
I0308 22:07:12.499632 30328 net.cpp:380] bn5_relu5_0_split -> bn5_relu5_0_split_0
I0308 22:07:12.499639 30328 net.cpp:380] bn5_relu5_0_split -> bn5_relu5_0_split_1
I0308 22:07:12.499646 30328 net.cpp:380] bn5_relu5_0_split -> bn5_relu5_0_split_2
I0308 22:07:12.499709 30328 net.cpp:122] Setting up bn5_relu5_0_split
I0308 22:07:12.499717 30328 net.cpp:129] Top shape: 19 256 1 4096 (19922944)
I0308 22:07:12.499722 30328 net.cpp:129] Top shape: 19 256 1 4096 (19922944)
I0308 22:07:12.499724 30328 net.cpp:129] Top shape: 19 256 1 4096 (19922944)
I0308 22:07:12.499727 30328 net.cpp:137] Memory required for data: 1547769616
I0308 22:07:12.499729 30328 layer_factory.hpp:77] Creating layer bnD5
I0308 22:07:12.499735 30328 net.cpp:84] Creating Layer bnD5
I0308 22:07:12.499738 30328 net.cpp:406] bnD5 <- data_feat_data_feat_0_split_5
I0308 22:07:12.499743 30328 net.cpp:406] bnD5 <- bn5_relu5_0_split_0
I0308 22:07:12.499750 30328 net.cpp:380] bnD5 -> bnD5
I0308 22:07:12.499800 30328 net.cpp:122] Setting up bnD5
I0308 22:07:12.499807 30328 net.cpp:129] Top shape: 19 259 1 4096 (20156416)
I0308 22:07:12.499810 30328 net.cpp:137] Memory required for data: 1628395280
I0308 22:07:12.499814 30328 layer_factory.hpp:77] Creating layer fconv5
I0308 22:07:12.499826 30328 net.cpp:84] Creating Layer fconv5
I0308 22:07:12.499831 30328 net.cpp:406] fconv5 <- bnD5
I0308 22:07:12.499840 30328 net.cpp:380] fconv5 -> fconv5
I0308 22:07:12.501121 30328 net.cpp:122] Setting up fconv5
I0308 22:07:12.501135 30328 net.cpp:129] Top shape: 19 3 1 4096 (233472)
I0308 22:07:12.501138 30328 net.cpp:137] Memory required for data: 1629329168
I0308 22:07:12.501155 30328 layer_factory.hpp:77] Creating layer fbn5
I0308 22:07:12.501165 30328 net.cpp:84] Creating Layer fbn5
I0308 22:07:12.501168 30328 net.cpp:406] fbn5 <- fconv5
I0308 22:07:12.501174 30328 net.cpp:380] fbn5 -> fbn5
I0308 22:07:12.501428 30328 net.cpp:122] Setting up fbn5
I0308 22:07:12.501436 30328 net.cpp:129] Top shape: 19 3 1 4096 (233472)
I0308 22:07:12.501440 30328 net.cpp:137] Memory required for data: 1630263056
I0308 22:07:12.501446 30328 layer_factory.hpp:77] Creating layer param_fconv5
I0308 22:07:12.501456 30328 net.cpp:84] Creating Layer param_fconv5
I0308 22:07:12.501461 30328 net.cpp:380] param_fconv5 -> param_fconv5
I0308 22:07:12.501503 30328 net.cpp:122] Setting up param_fconv5
I0308 22:07:12.501509 30328 net.cpp:129] Top shape: 3 259 1 1 (777)
I0308 22:07:12.501511 30328 net.cpp:137] Memory required for data: 1630266164
I0308 22:07:12.501515 30328 net.cpp:465] Sharing parameters 'fconv5_w' owned by layer 'fconv5', param index 0
I0308 22:07:12.501519 30328 layer_factory.hpp:77] Creating layer data_lattice4
I0308 22:07:12.501574 30328 net.cpp:84] Creating Layer data_lattice4
I0308 22:07:12.501580 30328 net.cpp:406] data_lattice4 <- fbn5
I0308 22:07:12.501585 30328 net.cpp:406] data_lattice4 <- param_fconv5
I0308 22:07:12.501591 30328 net.cpp:380] data_lattice4 -> data_lattice4
I0308 22:07:12.501880 30328 net.cpp:122] Setting up data_lattice4
I0308 22:07:12.501890 30328 net.cpp:129] Top shape: 19 3 1 4096 (233472)
I0308 22:07:12.501893 30328 net.cpp:137] Memory required for data: 1631200052
I0308 22:07:12.501902 30328 layer_factory.hpp:77] Creating layer data_lattice4_data_lattice4_0_split
I0308 22:07:12.501909 30328 net.cpp:84] Creating Layer data_lattice4_data_lattice4_0_split
I0308 22:07:12.501912 30328 net.cpp:406] data_lattice4_data_lattice4_0_split <- data_lattice4
I0308 22:07:12.501924 30328 net.cpp:380] data_lattice4_data_lattice4_0_split -> data_lattice4_data_lattice4_0_split_0
I0308 22:07:12.501931 30328 net.cpp:380] data_lattice4_data_lattice4_0_split -> data_lattice4_data_lattice4_0_split_1
I0308 22:07:12.501974 30328 net.cpp:122] Setting up data_lattice4_data_lattice4_0_split
I0308 22:07:12.501982 30328 net.cpp:129] Top shape: 19 3 1 4096 (233472)
I0308 22:07:12.501987 30328 net.cpp:129] Top shape: 19 3 1 4096 (233472)
I0308 22:07:12.501989 30328 net.cpp:137] Memory required for data: 1633067828
I0308 22:07:12.501991 30328 layer_factory.hpp:77] Creating layer conv6
I0308 22:07:12.502002 30328 net.cpp:84] Creating Layer conv6
I0308 22:07:12.502008 30328 net.cpp:406] conv6 <- bn5_relu5_0_split_1
I0308 22:07:12.502012 30328 net.cpp:406] conv6 <- data_lattice4_data_lattice4_0_split_0
I0308 22:07:12.502017 30328 net.cpp:406] conv6 <- data_lattice4_data_lattice4_0_split_1
I0308 22:07:12.502023 30328 net.cpp:380] conv6 -> conv6
I0308 22:07:12.567013 30328 net.cpp:122] Setting up conv6
I0308 22:07:12.567057 30328 net.cpp:129] Top shape: 19 256 1 4096 (19922944)
I0308 22:07:12.567060 30328 net.cpp:137] Memory required for data: 1712759604
I0308 22:07:12.567073 30328 layer_factory.hpp:77] Creating layer bn6
I0308 22:07:12.567086 30328 net.cpp:84] Creating Layer bn6
I0308 22:07:12.567091 30328 net.cpp:406] bn6 <- conv6
I0308 22:07:12.567100 30328 net.cpp:380] bn6 -> bn6
I0308 22:07:12.567363 30328 net.cpp:122] Setting up bn6
I0308 22:07:12.567371 30328 net.cpp:129] Top shape: 19 256 1 4096 (19922944)
I0308 22:07:12.567373 30328 net.cpp:137] Memory required for data: 1792451380
I0308 22:07:12.567381 30328 layer_factory.hpp:77] Creating layer relu6
I0308 22:07:12.567392 30328 net.cpp:84] Creating Layer relu6
I0308 22:07:12.567397 30328 net.cpp:406] relu6 <- bn6
I0308 22:07:12.567402 30328 net.cpp:367] relu6 -> bn6 (in-place)
I0308 22:07:12.567623 30328 net.cpp:122] Setting up relu6
I0308 22:07:12.567646 30328 net.cpp:129] Top shape: 19 256 1 4096 (19922944)
I0308 22:07:12.567648 30328 net.cpp:137] Memory required for data: 1872143156
I0308 22:07:12.567651 30328 layer_factory.hpp:77] Creating layer bn6_relu6_0_split
I0308 22:07:12.567659 30328 net.cpp:84] Creating Layer bn6_relu6_0_split
I0308 22:07:12.567662 30328 net.cpp:406] bn6_relu6_0_split <- bn6
I0308 22:07:12.567670 30328 net.cpp:380] bn6_relu6_0_split -> bn6_relu6_0_split_0
I0308 22:07:12.567678 30328 net.cpp:380] bn6_relu6_0_split -> bn6_relu6_0_split_1
I0308 22:07:12.567687 30328 net.cpp:380] bn6_relu6_0_split -> bn6_relu6_0_split_2
I0308 22:07:12.567751 30328 net.cpp:122] Setting up bn6_relu6_0_split
I0308 22:07:12.567759 30328 net.cpp:129] Top shape: 19 256 1 4096 (19922944)
I0308 22:07:12.567764 30328 net.cpp:129] Top shape: 19 256 1 4096 (19922944)
I0308 22:07:12.567766 30328 net.cpp:129] Top shape: 19 256 1 4096 (19922944)
I0308 22:07:12.567770 30328 net.cpp:137] Memory required for data: 2111218484
I0308 22:07:12.567772 30328 layer_factory.hpp:77] Creating layer bnD5_
I0308 22:07:12.567777 30328 net.cpp:84] Creating Layer bnD5_
I0308 22:07:12.567782 30328 net.cpp:406] bnD5_ <- data_feat_data_feat_0_split_6
I0308 22:07:12.567787 30328 net.cpp:406] bnD5_ <- bn6_relu6_0_split_0
I0308 22:07:12.567793 30328 net.cpp:380] bnD5_ -> bnD5_
I0308 22:07:12.567819 30328 net.cpp:122] Setting up bnD5_
I0308 22:07:12.567826 30328 net.cpp:129] Top shape: 19 259 1 4096 (20156416)
I0308 22:07:12.567828 30328 net.cpp:137] Memory required for data: 2191844148
I0308 22:07:12.567831 30328 layer_factory.hpp:77] Creating layer fconv5_
I0308 22:07:12.567845 30328 net.cpp:84] Creating Layer fconv5_
I0308 22:07:12.567850 30328 net.cpp:406] fconv5_ <- bnD5_
I0308 22:07:12.567857 30328 net.cpp:380] fconv5_ -> fconv5_
I0308 22:07:12.569108 30328 net.cpp:122] Setting up fconv5_
I0308 22:07:12.569123 30328 net.cpp:129] Top shape: 19 3 1 4096 (233472)
I0308 22:07:12.569126 30328 net.cpp:137] Memory required for data: 2192778036
I0308 22:07:12.569134 30328 layer_factory.hpp:77] Creating layer fbn5_
I0308 22:07:12.569144 30328 net.cpp:84] Creating Layer fbn5_
I0308 22:07:12.569147 30328 net.cpp:406] fbn5_ <- fconv5_
I0308 22:07:12.569154 30328 net.cpp:380] fbn5_ -> fbn5_
I0308 22:07:12.569406 30328 net.cpp:122] Setting up fbn5_
I0308 22:07:12.569413 30328 net.cpp:129] Top shape: 19 3 1 4096 (233472)
I0308 22:07:12.569416 30328 net.cpp:137] Memory required for data: 2193711924
I0308 22:07:12.569434 30328 layer_factory.hpp:77] Creating layer param_fconv5_
I0308 22:07:12.569444 30328 net.cpp:84] Creating Layer param_fconv5_
I0308 22:07:12.569452 30328 net.cpp:380] param_fconv5_ -> param_fconv5_
I0308 22:07:12.569495 30328 net.cpp:122] Setting up param_fconv5_
I0308 22:07:12.569500 30328 net.cpp:129] Top shape: 3 259 1 1 (777)
I0308 22:07:12.569504 30328 net.cpp:137] Memory required for data: 2193715032
I0308 22:07:12.569507 30328 net.cpp:465] Sharing parameters 'fconv5_w_' owned by layer 'fconv5_', param index 0
I0308 22:07:12.569510 30328 layer_factory.hpp:77] Creating layer data_lattice4_
I0308 22:07:12.569566 30328 net.cpp:84] Creating Layer data_lattice4_
I0308 22:07:12.569571 30328 net.cpp:406] data_lattice4_ <- fbn5_
I0308 22:07:12.569576 30328 net.cpp:406] data_lattice4_ <- param_fconv5_
I0308 22:07:12.569582 30328 net.cpp:380] data_lattice4_ -> data_lattice4_
I0308 22:07:12.571194 30328 net.cpp:122] Setting up data_lattice4_
I0308 22:07:12.571208 30328 net.cpp:129] Top shape: 19 3 1 4096 (233472)
I0308 22:07:12.571213 30328 net.cpp:137] Memory required for data: 2194648920
I0308 22:07:12.571216 30328 layer_factory.hpp:77] Creating layer data_lattice4__data_lattice4__0_split
I0308 22:07:12.571223 30328 net.cpp:84] Creating Layer data_lattice4__data_lattice4__0_split
I0308 22:07:12.571228 30328 net.cpp:406] data_lattice4__data_lattice4__0_split <- data_lattice4_
I0308 22:07:12.571235 30328 net.cpp:380] data_lattice4__data_lattice4__0_split -> data_lattice4__data_lattice4__0_split_0
I0308 22:07:12.571245 30328 net.cpp:380] data_lattice4__data_lattice4__0_split -> data_lattice4__data_lattice4__0_split_1
I0308 22:07:12.571292 30328 net.cpp:122] Setting up data_lattice4__data_lattice4__0_split
I0308 22:07:12.571300 30328 net.cpp:129] Top shape: 19 3 1 4096 (233472)
I0308 22:07:12.571305 30328 net.cpp:129] Top shape: 19 3 1 4096 (233472)
I0308 22:07:12.571307 30328 net.cpp:137] Memory required for data: 2196516696
I0308 22:07:12.571310 30328 layer_factory.hpp:77] Creating layer conv6_
I0308 22:07:12.571333 30328 net.cpp:84] Creating Layer conv6_
I0308 22:07:12.571338 30328 net.cpp:406] conv6_ <- bn6_relu6_0_split_1
I0308 22:07:12.571343 30328 net.cpp:406] conv6_ <- data_lattice4__data_lattice4__0_split_0
I0308 22:07:12.571347 30328 net.cpp:406] conv6_ <- data_lattice4__data_lattice4__0_split_1
I0308 22:07:12.571352 30328 net.cpp:380] conv6_ -> conv6_
I0308 22:07:12.635130 30328 net.cpp:122] Setting up conv6_
I0308 22:07:12.635174 30328 net.cpp:129] Top shape: 19 256 1 4096 (19922944)
I0308 22:07:12.635176 30328 net.cpp:137] Memory required for data: 2276208472
I0308 22:07:12.635190 30328 layer_factory.hpp:77] Creating layer bn6_
I0308 22:07:12.635203 30328 net.cpp:84] Creating Layer bn6_
I0308 22:07:12.635208 30328 net.cpp:406] bn6_ <- conv6_
I0308 22:07:12.635218 30328 net.cpp:380] bn6_ -> bn6_
I0308 22:07:12.635470 30328 net.cpp:122] Setting up bn6_
I0308 22:07:12.635479 30328 net.cpp:129] Top shape: 19 256 1 4096 (19922944)
I0308 22:07:12.635483 30328 net.cpp:137] Memory required for data: 2355900248
I0308 22:07:12.635493 30328 layer_factory.hpp:77] Creating layer relu6_
I0308 22:07:12.635500 30328 net.cpp:84] Creating Layer relu6_
I0308 22:07:12.635504 30328 net.cpp:406] relu6_ <- bn6_
I0308 22:07:12.635509 30328 net.cpp:367] relu6_ -> bn6_ (in-place)
I0308 22:07:12.635766 30328 net.cpp:122] Setting up relu6_
I0308 22:07:12.635776 30328 net.cpp:129] Top shape: 19 256 1 4096 (19922944)
I0308 22:07:12.635778 30328 net.cpp:137] Memory required for data: 2435592024
I0308 22:07:12.635782 30328 layer_factory.hpp:77] Creating layer concat6
I0308 22:07:12.635799 30328 net.cpp:84] Creating Layer concat6
I0308 22:07:12.635802 30328 net.cpp:406] concat6 <- bn6_
I0308 22:07:12.635807 30328 net.cpp:406] concat6 <- bn6_relu6_0_split_2
I0308 22:07:12.635812 30328 net.cpp:406] concat6 <- bn2_relu2_0_split_2
I0308 22:07:12.635815 30328 net.cpp:406] concat6 <- bn3_relu3_0_split_2
I0308 22:07:12.635819 30328 net.cpp:406] concat6 <- bn4_relu4_0_split_2
I0308 22:07:12.635823 30328 net.cpp:406] concat6 <- bn5_relu5_0_split_2
I0308 22:07:12.635829 30328 net.cpp:380] concat6 -> concat6
I0308 22:07:12.635865 30328 net.cpp:122] Setting up concat6
I0308 22:07:12.635872 30328 net.cpp:129] Top shape: 19 1216 1 4096 (94633984)
I0308 22:07:12.635875 30328 net.cpp:137] Memory required for data: 2814127960
I0308 22:07:12.635879 30328 layer_factory.hpp:77] Creating layer conv7
I0308 22:07:12.635892 30328 net.cpp:84] Creating Layer conv7
I0308 22:07:12.635896 30328 net.cpp:406] conv7 <- concat6
I0308 22:07:12.635905 30328 net.cpp:380] conv7 -> conv7
I0308 22:07:12.640643 30328 net.cpp:122] Setting up conv7
I0308 22:07:12.640661 30328 net.cpp:129] Top shape: 19 128 1 4096 (9961472)
I0308 22:07:12.640674 30328 net.cpp:137] Memory required for data: 2853973848
I0308 22:07:12.640682 30328 layer_factory.hpp:77] Creating layer bn7
I0308 22:07:12.640689 30328 net.cpp:84] Creating Layer bn7
I0308 22:07:12.640693 30328 net.cpp:406] bn7 <- conv7
I0308 22:07:12.640700 30328 net.cpp:380] bn7 -> bn7
I0308 22:07:12.640944 30328 net.cpp:122] Setting up bn7
I0308 22:07:12.640960 30328 net.cpp:129] Top shape: 19 128 1 4096 (9961472)
I0308 22:07:12.640964 30328 net.cpp:137] Memory required for data: 2893819736
I0308 22:07:12.640970 30328 layer_factory.hpp:77] Creating layer relu7
I0308 22:07:12.640976 30328 net.cpp:84] Creating Layer relu7
I0308 22:07:12.640980 30328 net.cpp:406] relu7 <- bn7
I0308 22:07:12.640983 30328 net.cpp:367] relu7 -> bn7 (in-place)
I0308 22:07:12.641541 30328 net.cpp:122] Setting up relu7
I0308 22:07:12.641556 30328 net.cpp:129] Top shape: 19 128 1 4096 (9961472)
I0308 22:07:12.641557 30328 net.cpp:137] Memory required for data: 2933665624
I0308 22:07:12.641561 30328 layer_factory.hpp:77] Creating layer conv8
I0308 22:07:12.641574 30328 net.cpp:84] Creating Layer conv8
I0308 22:07:12.641578 30328 net.cpp:406] conv8 <- bn7
I0308 22:07:12.641585 30328 net.cpp:380] conv8 -> conv8
I0308 22:07:12.642356 30328 net.cpp:122] Setting up conv8
I0308 22:07:12.642369 30328 net.cpp:129] Top shape: 19 13 1 4096 (1011712)
I0308 22:07:12.642372 30328 net.cpp:137] Memory required for data: 2937712472
I0308 22:07:12.642387 30328 layer_factory.hpp:77] Creating layer conv8_conv8_0_split
I0308 22:07:12.642396 30328 net.cpp:84] Creating Layer conv8_conv8_0_split
I0308 22:07:12.642400 30328 net.cpp:406] conv8_conv8_0_split <- conv8
I0308 22:07:12.642408 30328 net.cpp:380] conv8_conv8_0_split -> conv8_conv8_0_split_0
I0308 22:07:12.642427 30328 net.cpp:380] conv8_conv8_0_split -> conv8_conv8_0_split_1
I0308 22:07:12.642479 30328 net.cpp:122] Setting up conv8_conv8_0_split
I0308 22:07:12.642486 30328 net.cpp:129] Top shape: 19 13 1 4096 (1011712)
I0308 22:07:12.642491 30328 net.cpp:129] Top shape: 19 13 1 4096 (1011712)
I0308 22:07:12.642493 30328 net.cpp:137] Memory required for data: 2945806168
I0308 22:07:12.642496 30328 layer_factory.hpp:77] Creating layer loss
I0308 22:07:12.642503 30328 net.cpp:84] Creating Layer loss
I0308 22:07:12.642505 30328 net.cpp:406] loss <- conv8_conv8_0_split_0
I0308 22:07:12.642510 30328 net.cpp:406] loss <- label_data_1_split_0
I0308 22:07:12.642515 30328 net.cpp:380] loss -> loss
…
I0308 22:07:12.685467 30328 net.cpp:294] The NetState phase (1) differed from the phase (0) specified by a rule in layer data
I0308 22:07:12.686277 30328 net.cpp:51] Initializing net from parameters: 
state {
  phase: TEST
}
layer {
  name: "data"
  type: "Python"
  top: "data"
  top: "label"
  include {
    phase: TEST
  }
  python_param {
    module: "dataset_lidar"
    layer: "InputShapenet"
    param_str: "{\'sample_size\': 4096, \'test_area\': \'6\', \'batch_size\': 8, \'feat_dims\': \'x_y_z_r_g_b\', \'subset\': \'val\', \'root\': \'../../data/shapenet_ericyi_ply\', \'jitter_xyz\': 0.0, \'jitter_stretch\': 0.0, \'jitter_rotation\': 0.0}"
  }
}
layer {
  name: "data_feat"
  type: "Python"
  bottom: "data"
  top: "data_feat"
  python_param {
    module: "custom_layers"
    layer: "PickAndScale"
    param_str: "0_1_2"
  }
}
layer {
  name: "conv1"
  type: "Convolution"
  bottom: "data_feat"
  top: "conv1"
  param {
    lr_mult: 1
  }
  param {
    lr_mult: 0.1
  }
  convolution_param {
    num_output: 32
    pad: 0
    kernel_size: 1
    stride: 1
    weight_filler {
      type: "xavier"
    }
    bias_filler {
      type: "constant"
      value: 0
    }
  }
}
layer {
  name: "bn1"
  type: "BatchNorm"
  bottom: "conv1"
  top: "bn1"
}
layer {
  name: "relu1"
  type: "ReLU"
  bottom: "bn1"
  top: "bn1"
}
layer {
  name: "bnD1"
  type: "Concat"
  bottom: "data_feat"
  bottom: "bn1"
  top: "bnD1"
}
layer {
  name: "fconv1"
  type: "Convolution"
  bottom: "bnD1"
  top: "fconv1"
  param {
    name: "fconv1_w"
    lr_mult: 1
  }
  param {
    lr_mult: 0.1
  }
  convolution_param {
    num_output: 3
    pad: 0
    kernel_size: 1
    stride: 1
    weight_filler {
      type: "xavier"
    }
    bias_filler {
      type: "constant"
      value: 0
    }
  }
}
layer {
  name: "fbn1"
  type: "BatchNorm"
  bottom: "fconv1"
  top: "fbn1"
}
layer {
  name: "param_fconv1"
  type: "Parameter"
  top: "param_fconv1"
  param {
    name: "fconv1_w"
    lr_mult: 1
  }
  parameter_param {
    shape {
      dim: 3
      dim: 35
      dim: 1
      dim: 1
    }
  }
}
layer {
  name: "data_lattice0"
  type: "Python"
  bottom: "fbn1"
  bottom: "param_fconv1"
  top: "data_lattice0"
  python_param {
    module: "custom_layers"
    layer: "NormAndScale"
    param_str: "0*64_1*64_2*64"
  }
}
layer {
  name: "conv2"
  type: "Permutohedral"
  bottom: "bn1"
  bottom: "data_lattice0"
  bottom: "data_lattice0"
  top: "conv2"
  param {
    lr_mult: 1
    decay_mult: 1
  }
  param {
    lr_mult: 2
    decay_mult: 0
  }
  permutohedral_param {
    num_output: 64
    neighborhood_size: 2
    filter_filler {
      type: "gaussian"
      std: 0.001
    }
    bias_term: true
    bias_filler {
      type: "constant"
      value: 0
    }
    group: 1
    norm_type: AFTER
    offset_type: NONE
  }
}
layer {
  name: "bn2"
  type: "BatchNorm"
  bottom: "conv2"
  top: "bn2"
}
layer {
  name: "relu2"
  type: "ReLU"
  bottom: "bn2"
  top: "bn2"
}
layer {
  name: "bnD2"
  type: "Concat"
  bottom: "data_feat"
  bottom: "bn2"
  top: "bnD2"
}
layer {
  name: "fconv2"
  type: "Convolution"
  bottom: "bnD2"
  top: "fconv2"
  param {
    name: "fconv2_w"
    lr_mult: 1
  }
  param {
    lr_mult: 0.1
  }
  convolution_param {
    num_output: 3
    pad: 0
    kernel_size: 1
    stride: 1
    weight_filler {
      type: "xavier"
    }
    bias_filler {
      type: "constant"
      value: 0
    }
  }
}
layer {
  name: "fbn2"
  type: "BatchNorm"
  bottom: "fconv2"
  top: "fbn2"
}
layer {
  name: "param_fconv2"
  type: "Parameter"
  top: "param_fconv2"
  param {
    name: "fconv2_w"
    lr_mult: 1
  }
  parameter_param {
    shape {
      dim: 3
      dim: 67
      dim: 1
      dim: 1
    }
  }
}
layer {
  name: "data_lattice1"
  type: "Python"
  bottom: "fbn2"
  bottom: "param_fconv2"
  top: "data_lattice1"
  python_param {
    module: "custom_layers"
    layer: "NormAndScale"
    param_str: "0*32_1*32_2*32"
  }
}
layer {
  name: "conv3"
  type: "Permutohedral"
  bottom: "bn2"
  bottom: "data_lattice1"
  bottom: "data_lattice1"
  top: "conv3"
  param {
    lr_mult: 1
    decay_mult: 1
  }
  param {
    lr_mult: 2
    decay_mult: 0
  }
  permutohedral_param {
    num_output: 128
    neighborhood_size: 2
    filter_filler {
      type: "gaussian"
      std: 0.001
    }
    bias_term: true
    bias_filler {
      type: "constant"
      value: 0
    }
    group: 1
    norm_type: AFTER
    offset_type: NONE
  }
}
layer {
  name: "bn3"
  type: "BatchNorm"
  bottom: "conv3"
  top: "bn3"
}
layer {
  name: "relu3"
  type: "ReLU"
  bottom: "bn3"
  top: "bn3"
}
layer {
  name: "bnD3"
  type: "Concat"
  bottom: "data_feat"
  bottom: "bn3"
  top: "bnD3"
}
layer {
  name: "fconv3"
  type: "Convolution"
  bottom: "bnD3"
  top: "fconv3"
  param {
    name: "fconv3_w"
    lr_mult: 1
  }
  param {
    lr_mult: 0.1
  }
  convolution_param {
    num_output: 3
    pad: 0
    kernel_size: 1
    stride: 1
    weight_filler {
      type: "xavier"
    }
    bias_filler {
      type: "constant"
      value: 0
    }
  }
}
layer {
  name: "fbn3"
  type: "BatchNorm"
  bottom: "fconv3"
  top: "fbn3"
}
layer {
  name: "param_fconv3"
  type: "Parameter"
  top: "param_fconv3"
  param {
    name: "fconv3_w"
    lr_mult: 1
  }
  parameter_param {
    shape {
      dim: 3
      dim: 131
      dim: 1
      dim: 1
    }
  }
}
layer {
  name: "data_lattice2"
  type: "Python"
  bottom: "fbn3"
  bottom: "param_fconv3"
  top: "data_lattice2"
  python_param {
    module: "custom_layers"
    layer: "NormAndScale"
    param_str: "0*16_1*16_2*16"
  }
}
layer {
  name: "conv4"
  type: "Permutohedral"
  bottom: "bn3"
  bottom: "data_lattice2"
  bottom: "data_lattice2"
  top: "conv4"
  param {
    lr_mult: 1
    decay_mult: 1
  }
  param {
    lr_mult: 2
    decay_mult: 0
  }
  permutohedral_param {
    num_output: 256
    neighborhood_size: 2
    filter_filler {
      type: "gaussian"
      std: 0.001
    }
    bias_term: true
    bias_filler {
      type: "constant"
      value: 0
    }
    group: 1
    norm_type: AFTER
    offset_type: NONE
  }
}
layer {
  name: "bn4"
  type: "BatchNorm"
  bottom: "conv4"
  top: "bn4"
}
layer {
  name: "relu4"
  type: "ReLU"
  bottom: "bn4"
  top: "bn4"
}
layer {
  name: "bnD4"
  type: "Concat"
  bottom: "data_feat"
  bottom: "bn4"
  top: "bnD4"
}
layer {
  name: "fconv4"
  type: "Convolution"
  bottom: "bnD4"
  top: "fconv4"
  param {
    name: "fconv4_w"
    lr_mult: 1
  }
  param {
    lr_mult: 0.1
  }
  convolution_param {
    num_output: 3
    pad: 0
    kernel_size: 1
    stride: 1
    weight_filler {
      type: "xavier"
    }
    bias_filler {
      type: "constant"
      value: 0
    }
  }
}
layer {
  name: "fbn4"
  type: "BatchNorm"
  bottom: "fconv4"
  top: "fbn4"
}
layer {
  name: "param_fconv4"
  type: "Parameter"
  top: "param_fconv4"
  param {
    name: "fconv4_w"
    lr_mult: 1
  }
  parameter_param {
    shape {
      dim: 3
      dim: 259
      dim: 1
      dim: 1
    }
  }
}
layer {
  name: "data_lattice3"
  type: "Python"
  bottom: "fbn4"
  bottom: "param_fconv4"
  top: "data_lattice3"
  python_param {
    module: "custom_layers"
    layer: "NormAndScale"
    param_str: "0*8_1*8_2*8"
  }
}
layer {
  name: "conv5"
  type: "Permutohedral"
  bottom: "bn4"
  bottom: "data_lattice3"
  bottom: "data_lattice3"
  top: "conv5"
  param {
    lr_mult: 1
    decay_mult: 1
  }
  param {
    lr_mult: 2
    decay_mult: 0
  }
  permutohedral_param {
    num_output: 256
    neighborhood_size: 2
    filter_filler {
      type: "gaussian"
      std: 0.001
    }
    bias_term: true
    bias_filler {
      type: "constant"
      value: 0
    }
    group: 1
    norm_type: AFTER
    offset_type: NONE
  }
}
layer {
  name: "bn5"
  type: "BatchNorm"
  bottom: "conv5"
  top: "bn5"
}
layer {
  name: "relu5"
  type: "ReLU"
  bottom: "bn5"
  top: "bn5"
}
layer {
  name: "bnD5"
  type: "Concat"
  bottom: "data_feat"
  bottom: "bn5"
  top: "bnD5"
}
layer {
  name: "fconv5"
  type: "Convolution"
  bottom: "bnD5"
  top: "fconv5"
  param {
    name: "fconv5_w"
    lr_mult: 1
  }
  param {
    lr_mult: 0.1
  }
  convolution_param {
    num_output: 3
    pad: 0
    kernel_size: 1
    stride: 1
    weight_filler {
      type: "xavier"
    }
    bias_filler {
      type: "constant"
      value: 0
    }
  }
}
layer {
  name: "fbn5"
  type: "BatchNorm"
  bottom: "fconv5"
  top: "fbn5"
}
layer {
  name: "param_fconv5"
  type: "Parameter"
  top: "param_fconv5"
  param {
    name: "fconv5_w"
    lr_mult: 1
  }
  parameter_param {
    shape {
      dim: 3
      dim: 259
      dim: 1
      dim: 1
    }
  }
}
layer {
  name: "data_lattice4"
  type: "Python"
  bottom: "fbn5"
  bottom: "param_fconv5"
  top: "data_lattice4"
  python_param {
    module: "custom_layers"
    layer: "NormAndScale"
    param_str: "0*4_1*4_2*4"
  }
}
layer {
  name: "conv6"
  type: "Permutohedral"
  bottom: "bn5"
  bottom: "data_lattice4"
  bottom: "data_lattice4"
  top: "conv6"
  param {
    lr_mult: 1
    decay_mult: 1
  }
  param {
    lr_mult: 2
    decay_mult: 0
  }
  permutohedral_param {
    num_output: 256
    neighborhood_size: 2
    filter_filler {
      type: "gaussian"
      std: 0.001
    }
    bias_term: true
    bias_filler {
      type: "constant"
      value: 0
    }
    group: 1
    norm_type: AFTER
    offset_type: NONE
  }
}
layer {
  name: "bn6"
  type: "BatchNorm"
  bottom: "conv6"
  top: "bn6"
}
layer {
  name: "relu6"
  type: "ReLU"
  bottom: "bn6"
  top: "bn6"
}
layer {
  name: "bnD5_"
  type: "Concat"
  bottom: "data_feat"
  bottom: "bn6"
  top: "bnD5_"
}
layer {
  name: "fconv5_"
  type: "Convolution"
  bottom: "bnD5_"
  top: "fconv5_"
  param {
    name: "fconv5_w_"
    lr_mult: 1
  }
  param {
    lr_mult: 0.1
  }
  convolution_param {
    num_output: 3
    pad: 0
    kernel_size: 1
    stride: 1
    weight_filler {
      type: "xavier"
    }
    bias_filler {
      type: "constant"
      value: 0
    }
  }
}
layer {
  name: "fbn5_"
  type: "BatchNorm"
  bottom: "fconv5_"
  top: "fbn5_"
}
layer {
  name: "param_fconv5_"
  type: "Parameter"
  top: "param_fconv5_"
  param {
    name: "fconv5_w_"
    lr_mult: 1
  }
  parameter_param {
    shape {
      dim: 3
      dim: 259
      dim: 1
      dim: 1
    }
  }
}
layer {
  name: "data_lattice4_"
  type: "Python"
  bottom: "fbn5_"
  bottom: "param_fconv5_"
  top: "data_lattice4_"
  python_param {
    module: "custom_layers"
    layer: "NormAndScale"
    param_str: "0*2_1*2_2*2"
  }
}
layer {
  name: "conv6_"
  type: "Permutohedral"
  bottom: "bn6"
  bottom: "data_lattice4_"
  bottom: "data_lattice4_"
  top: "conv6_"
  param {
    lr_mult: 1
    decay_mult: 1
  }
  param {
    lr_mult: 2
    decay_mult: 0
  }
  permutohedral_param {
    num_output: 256
    neighborhood_size: 2
    filter_filler {
      type: "gaussian"
      std: 0.001
    }
    bias_term: true
    bias_filler {
      type: "constant"
      value: 0
    }
    group: 1
    norm_type: AFTER
    offset_type: NONE
  }
}
layer {
  name: "bn6_"
  type: "BatchNorm"
  bottom: "conv6_"
  top: "bn6_"
}
layer {
  name: "relu6_"
  type: "ReLU"
  bottom: "bn6_"
  top: "bn6_"
}
layer {
  name: "concat6"
  type: "Concat"
  bottom: "bn6_"
  bottom: "bn6"
  bottom: "bn2"
  bottom: "bn3"
  bottom: "bn4"
  bottom: "bn5"
  top: "concat6"
}
layer {
  name: "conv7"
  type: "Convolution"
  bottom: "concat6"
  top: "conv7"
  param {
    lr_mult: 1
  }
  param {
    lr_mult: 0.1
  }
  convolution_param {
    num_output: 128
    pad: 0
    kernel_size: 1
    stride: 1
    weight_filler {
      type: "xavier"
    }
    bias_filler {
      type: "constant"
      value: 0
    }
  }
}
layer {
  name: "bn7"
  type: "BatchNorm"
  bottom: "conv7"
  top: "bn7"
}
layer {
  name: "relu7"
  type: "ReLU"
  bottom: "bn7"
  top: "bn7"
}
layer {
  name: "conv8"
  type: "Convolution"
  bottom: "bn7"
  top: "conv8"
  param {
    lr_mult: 1
  }
  param {
    lr_mult: 0.1
  }
  convolution_param {
    num_output: 13
    pad: 0
    kernel_size: 1
    stride: 1
    weight_filler {
      type: "xavier"
    }
    bias_filler {
      type: "constant"
      value: 0
    }
  }
}
layer {
  name: "loss"
  type: "SoftmaxWithLoss"
  bottom: "conv8"
  bottom: "label"
  top: "loss"
}
layer {
  name: "accuracy"
  type: "Accuracy"
  bottom: "conv8"
  bottom: "label"
  top: "accuracy"
}
I0308 22:07:12.686623 30328 layer_factory.hpp:77] Creating layer data
I0308 22:07:12.689570 30328 net.cpp:84] Creating Layer data
I0308 22:07:12.689580 30328 net.cpp:380] data -> data
I0308 22:07:12.689589 30328 net.cpp:380] data -> label
I0308 22:10:52.927137 30328 net.cpp:122] Setting up data
I0308 22:10:52.927184 30328 net.cpp:129] Top shape: 8 9 1 4096 (294912)
I0308 22:10:52.927191 30328 net.cpp:129] Top shape: 8 1 1 4096 (32768)
I0308 22:10:52.927193 30328 net.cpp:137] Memory required for data: 1310720
I0308 22:10:52.927212 30328 layer_factory.hpp:77] Creating layer label_data_1_split
I0308 22:10:52.927245 30328 net.cpp:84] Creating Layer label_data_1_split
I0308 22:10:52.927250 30328 net.cpp:406] label_data_1_split <- label
I0308 22:10:52.927260 30328 net.cpp:380] label_data_1_split -> label_data_1_split_0
I0308 22:10:52.927274 30328 net.cpp:380] label_data_1_split -> label_data_1_split_1
I0308 22:10:52.927321 30328 net.cpp:122] Setting up label_data_1_split
I0308 22:10:52.927328 30328 net.cpp:129] Top shape: 8 1 1 4096 (32768)
I0308 22:10:52.927332 30328 net.cpp:129] Top shape: 8 1 1 4096 (32768)
I0308 22:10:52.927335 30328 net.cpp:137] Memory required for data: 1572864
I0308 22:10:52.927337 30328 layer_factory.hpp:77] Creating layer data_feat
I0308 22:10:52.927405 30328 net.cpp:84] Creating Layer data_feat
I0308 22:10:52.927412 30328 net.cpp:406] data_feat <- data
I0308 22:10:52.927417 30328 net.cpp:380] data_feat -> data_feat
I0308 22:10:52.929702 30328 net.cpp:122] Setting up data_feat
I0308 22:10:52.929718 30328 net.cpp:129] Top shape: 8 3 1 4096 (98304)
I0308 22:10:52.929721 30328 net.cpp:137] Memory required for data: 1966080
I0308 22:10:52.929724 30328 layer_factory.hpp:77] Creating layer data_feat_data_feat_0_split
I0308 22:10:52.929735 30328 net.cpp:84] Creating Layer data_feat_data_feat_0_split
I0308 22:10:52.929738 30328 net.cpp:406] data_feat_data_feat_0_split <- data_feat
I0308 22:10:52.929745 30328 net.cpp:380] data_feat_data_feat_0_split -> data_feat_data_feat_0_split_0
I0308 22:10:52.929754 30328 net.cpp:380] data_feat_data_feat_0_split -> data_feat_data_feat_0_split_1
I0308 22:10:52.929759 30328 net.cpp:380] data_feat_data_feat_0_split -> data_feat_data_feat_0_split_2
I0308 22:10:52.929765 30328 net.cpp:380] data_feat_data_feat_0_split -> data_feat_data_feat_0_split_3
I0308 22:10:52.929774 30328 net.cpp:380] data_feat_data_feat_0_split -> data_feat_data_feat_0_split_4
I0308 22:10:52.929780 30328 net.cpp:380] data_feat_data_feat_0_split -> data_feat_data_feat_0_split_5
I0308 22:10:52.929785 30328 net.cpp:380] data_feat_data_feat_0_split -> data_feat_data_feat_0_split_6
I0308 22:10:52.929894 30328 net.cpp:122] Setting up data_feat_data_feat_0_split
I0308 22:10:52.929903 30328 net.cpp:129] Top shape: 8 3 1 4096 (98304)
I0308 22:10:52.929905 30328 net.cpp:129] Top shape: 8 3 1 4096 (98304)
I0308 22:10:52.929909 30328 net.cpp:129] Top shape: 8 3 1 4096 (98304)
I0308 22:10:52.929913 30328 net.cpp:129] Top shape: 8 3 1 4096 (98304)
I0308 22:10:52.929917 30328 net.cpp:129] Top shape: 8 3 1 4096 (98304)
I0308 22:10:52.929920 30328 net.cpp:129] Top shape: 8 3 1 4096 (98304)
I0308 22:10:52.929924 30328 net.cpp:129] Top shape: 8 3 1 4096 (98304)
I0308 22:10:52.929926 30328 net.cpp:137] Memory required for data: 4718592
I0308 22:10:52.929929 30328 layer_factory.hpp:77] Creating layer conv1
I0308 22:10:52.929947 30328 net.cpp:84] Creating Layer conv1
I0308 22:10:52.929951 30328 net.cpp:406] conv1 <- data_feat_data_feat_0_split_0
I0308 22:10:52.929957 30328 net.cpp:380] conv1 -> conv1
I0308 22:10:52.944059 30328 net.cpp:122] Setting up conv1
I0308 22:10:52.944075 30328 net.cpp:129] Top shape: 8 32 1 4096 (1048576)
I0308 22:10:52.944078 30328 net.cpp:137] Memory required for data: 8912896
I0308 22:10:52.944093 30328 layer_factory.hpp:77] Creating layer bn1
I0308 22:10:52.944103 30328 net.cpp:84] Creating Layer bn1
I0308 22:10:52.944105 30328 net.cpp:406] bn1 <- conv1
I0308 22:10:52.944111 30328 net.cpp:380] bn1 -> bn1
I0308 22:10:52.944386 30328 net.cpp:122] Setting up bn1
I0308 22:10:52.944394 30328 net.cpp:129] Top shape: 8 32 1 4096 (1048576)
I0308 22:10:52.944396 30328 net.cpp:137] Memory required for data: 13107200
I0308 22:10:52.944407 30328 layer_factory.hpp:77] Creating layer relu1
I0308 22:10:52.944413 30328 net.cpp:84] Creating Layer relu1
I0308 22:10:52.944416 30328 net.cpp:406] relu1 <- bn1
I0308 22:10:52.944422 30328 net.cpp:367] relu1 -> bn1 (in-place)
I0308 22:10:52.945580 30328 net.cpp:122] Setting up relu1
I0308 22:10:52.945592 30328 net.cpp:129] Top shape: 8 32 1 4096 (1048576)
I0308 22:10:52.945595 30328 net.cpp:137] Memory required for data: 17301504
I0308 22:10:52.945598 30328 layer_factory.hpp:77] Creating layer bn1_relu1_0_split
I0308 22:10:52.945607 30328 net.cpp:84] Creating Layer bn1_relu1_0_split
I0308 22:10:52.945611 30328 net.cpp:406] bn1_relu1_0_split <- bn1
I0308 22:10:52.945617 30328 net.cpp:380] bn1_relu1_0_split -> bn1_relu1_0_split_0
I0308 22:10:52.945626 30328 net.cpp:380] bn1_relu1_0_split -> bn1_relu1_0_split_1
I0308 22:10:52.945685 30328 net.cpp:122] Setting up bn1_relu1_0_split
I0308 22:10:52.945693 30328 net.cpp:129] Top shape: 8 32 1 4096 (1048576)
I0308 22:10:52.945696 30328 net.cpp:129] Top shape: 8 32 1 4096 (1048576)
I0308 22:10:52.945698 30328 net.cpp:137] Memory required for data: 25690112
I0308 22:10:52.945703 30328 layer_factory.hpp:77] Creating layer bnD1
I0308 22:10:52.945711 30328 net.cpp:84] Creating Layer bnD1
I0308 22:10:52.945716 30328 net.cpp:406] bnD1 <- data_feat_data_feat_0_split_1
I0308 22:10:52.945722 30328 net.cpp:406] bnD1 <- bn1_relu1_0_split_0
I0308 22:10:52.945729 30328 net.cpp:380] bnD1 -> bnD1
I0308 22:10:52.945760 30328 net.cpp:122] Setting up bnD1
I0308 22:10:52.945766 30328 net.cpp:129] Top shape: 8 35 1 4096 (1146880)
I0308 22:10:52.945768 30328 net.cpp:137] Memory required for data: 30277632
I0308 22:10:52.945771 30328 layer_factory.hpp:77] Creating layer fconv1
I0308 22:10:52.945783 30328 net.cpp:84] Creating Layer fconv1
I0308 22:10:52.945787 30328 net.cpp:406] fconv1 <- bnD1
I0308 22:10:52.945793 30328 net.cpp:380] fconv1 -> fconv1
I0308 22:10:52.946903 30328 net.cpp:122] Setting up fconv1
I0308 22:10:52.946918 30328 net.cpp:129] Top shape: 8 3 1 4096 (98304)
I0308 22:10:52.946921 30328 net.cpp:137] Memory required for data: 30670848
I0308 22:10:52.946928 30328 layer_factory.hpp:77] Creating layer fbn1
I0308 22:10:52.946935 30328 net.cpp:84] Creating Layer fbn1
I0308 22:10:52.946938 30328 net.cpp:406] fbn1 <- fconv1
I0308 22:10:52.946947 30328 net.cpp:380] fbn1 -> fbn1
I0308 22:10:52.947199 30328 net.cpp:122] Setting up fbn1
I0308 22:10:52.947206 30328 net.cpp:129] Top shape: 8 3 1 4096 (98304)
I0308 22:10:52.947209 30328 net.cpp:137] Memory required for data: 31064064
I0308 22:10:52.947221 30328 layer_factory.hpp:77] Creating layer param_fconv1
I0308 22:10:52.947232 30328 net.cpp:84] Creating Layer param_fconv1
I0308 22:10:52.947237 30328 net.cpp:380] param_fconv1 -> param_fconv1
I0308 22:10:52.947280 30328 net.cpp:122] Setting up param_fconv1
I0308 22:10:52.947286 30328 net.cpp:129] Top shape: 3 35 1 1 (105)
I0308 22:10:52.947289 30328 net.cpp:137] Memory required for data: 31064484
I0308 22:10:52.947293 30328 net.cpp:465] Sharing parameters 'fconv1_w' owned by layer 'fconv1', param index 0
I0308 22:10:52.947295 30328 layer_factory.hpp:77] Creating layer data_lattice0
I0308 22:10:52.947329 30328 net.cpp:84] Creating Layer data_lattice0
I0308 22:10:52.947333 30328 net.cpp:406] data_lattice0 <- fbn1
I0308 22:10:52.947338 30328 net.cpp:406] data_lattice0 <- param_fconv1
I0308 22:10:52.947345 30328 net.cpp:380] data_lattice0 -> data_lattice0
I0308 22:10:52.947463 30328 net.cpp:122] Setting up data_lattice0
I0308 22:10:52.947472 30328 net.cpp:129] Top shape: 8 3 1 4096 (98304)
I0308 22:10:52.947475 30328 net.cpp:137] Memory required for data: 31457700
I0308 22:10:52.947479 30328 layer_factory.hpp:77] Creating layer data_lattice0_data_lattice0_0_split
I0308 22:10:52.947487 30328 net.cpp:84] Creating Layer data_lattice0_data_lattice0_0_split
I0308 22:10:52.947491 30328 net.cpp:406] data_lattice0_data_lattice0_0_split <- data_lattice0
I0308 22:10:52.947499 30328 net.cpp:380] data_lattice0_data_lattice0_0_split -> data_lattice0_data_lattice0_0_split_0
I0308 22:10:52.947505 30328 net.cpp:380] data_lattice0_data_lattice0_0_split -> data_lattice0_data_lattice0_0_split_1
I0308 22:10:52.947546 30328 net.cpp:122] Setting up data_lattice0_data_lattice0_0_split
I0308 22:10:52.947552 30328 net.cpp:129] Top shape: 8 3 1 4096 (98304)
I0308 22:10:52.947556 30328 net.cpp:129] Top shape: 8 3 1 4096 (98304)
I0308 22:10:52.947558 30328 net.cpp:137] Memory required for data: 32244132
I0308 22:10:52.947561 30328 layer_factory.hpp:77] Creating layer conv2
I0308 22:10:52.947571 30328 net.cpp:84] Creating Layer conv2
I0308 22:10:52.947576 30328 net.cpp:406] conv2 <- bn1_relu1_0_split_1
I0308 22:10:52.947582 30328 net.cpp:406] conv2 <- data_lattice0_data_lattice0_0_split_0
I0308 22:10:52.947587 30328 net.cpp:406] conv2 <- data_lattice0_data_lattice0_0_split_1
I0308 22:10:52.947592 30328 net.cpp:380] conv2 -> conv2
I0308 22:10:52.949446 30328 net.cpp:122] Setting up conv2
I0308 22:10:52.949456 30328 net.cpp:129] Top shape: 8 64 1 4096 (2097152)
I0308 22:10:52.949460 30328 net.cpp:137] Memory required for data: 40632740
I0308 22:10:52.949467 30328 layer_factory.hpp:77] Creating layer bn2
I0308 22:10:52.949476 30328 net.cpp:84] Creating Layer bn2
I0308 22:10:52.949478 30328 net.cpp:406] bn2 <- conv2
I0308 22:10:52.949486 30328 net.cpp:380] bn2 -> bn2
I0308 22:10:52.949726 30328 net.cpp:122] Setting up bn2
I0308 22:10:52.949734 30328 net.cpp:129] Top shape: 8 64 1 4096 (2097152)
I0308 22:10:52.949736 30328 net.cpp:137] Memory required for data: 49021348
I0308 22:10:52.949743 30328 layer_factory.hpp:77] Creating layer relu2
I0308 22:10:52.949751 30328 net.cpp:84] Creating Layer relu2
I0308 22:10:52.949755 30328 net.cpp:406] relu2 <- bn2
I0308 22:10:52.949760 30328 net.cpp:367] relu2 -> bn2 (in-place)
I0308 22:10:52.952128 30328 net.cpp:122] Setting up relu2
I0308 22:10:52.952144 30328 net.cpp:129] Top shape: 8 64 1 4096 (2097152)
I0308 22:10:52.952147 30328 net.cpp:137] Memory required for data: 57409956
I0308 22:10:52.952150 30328 layer_factory.hpp:77] Creating layer bn2_relu2_0_split
I0308 22:10:52.952159 30328 net.cpp:84] Creating Layer bn2_relu2_0_split
I0308 22:10:52.952162 30328 net.cpp:406] bn2_relu2_0_split <- bn2
I0308 22:10:52.952169 30328 net.cpp:380] bn2_relu2_0_split -> bn2_relu2_0_split_0
I0308 22:10:52.952178 30328 net.cpp:380] bn2_relu2_0_split -> bn2_relu2_0_split_1
I0308 22:10:52.952184 30328 net.cpp:380] bn2_relu2_0_split -> bn2_relu2_0_split_2
I0308 22:10:52.952253 30328 net.cpp:122] Setting up bn2_relu2_0_split
I0308 22:10:52.952261 30328 net.cpp:129] Top shape: 8 64 1 4096 (2097152)
I0308 22:10:52.952265 30328 net.cpp:129] Top shape: 8 64 1 4096 (2097152)
I0308 22:10:52.952270 30328 net.cpp:129] Top shape: 8 64 1 4096 (2097152)
I0308 22:10:52.952272 30328 net.cpp:137] Memory required for data: 82575780
I0308 22:10:52.952275 30328 layer_factory.hpp:77] Creating layer bnD2
I0308 22:10:52.952282 30328 net.cpp:84] Creating Layer bnD2
I0308 22:10:52.952286 30328 net.cpp:406] bnD2 <- data_feat_data_feat_0_split_2
I0308 22:10:52.952291 30328 net.cpp:406] bnD2 <- bn2_relu2_0_split_0
I0308 22:10:52.952297 30328 net.cpp:380] bnD2 -> bnD2
I0308 22:10:52.952323 30328 net.cpp:122] Setting up bnD2
I0308 22:10:52.952330 30328 net.cpp:129] Top shape: 8 67 1 4096 (2195456)
I0308 22:10:52.952333 30328 net.cpp:137] Memory required for data: 91357604
I0308 22:10:52.952337 30328 layer_factory.hpp:77] Creating layer fconv2
I0308 22:10:52.952348 30328 net.cpp:84] Creating Layer fconv2
I0308 22:10:52.952353 30328 net.cpp:406] fconv2 <- bnD2
I0308 22:10:52.952359 30328 net.cpp:380] fconv2 -> fconv2
I0308 22:10:52.953444 30328 net.cpp:122] Setting up fconv2
I0308 22:10:52.953457 30328 net.cpp:129] Top shape: 8 3 1 4096 (98304)
I0308 22:10:52.953460 30328 net.cpp:137] Memory required for data: 91750820
I0308 22:10:52.953472 30328 layer_factory.hpp:77] Creating layer fbn2
I0308 22:10:52.953480 30328 net.cpp:84] Creating Layer fbn2
I0308 22:10:52.953485 30328 net.cpp:406] fbn2 <- fconv2
I0308 22:10:52.953491 30328 net.cpp:380] fbn2 -> fbn2
I0308 22:10:52.953743 30328 net.cpp:122] Setting up fbn2
I0308 22:10:52.953752 30328 net.cpp:129] Top shape: 8 3 1 4096 (98304)
I0308 22:10:52.953753 30328 net.cpp:137] Memory required for data: 92144036
I0308 22:10:52.953761 30328 layer_factory.hpp:77] Creating layer param_fconv2
I0308 22:10:52.953768 30328 net.cpp:84] Creating Layer param_fconv2
I0308 22:10:52.953773 30328 net.cpp:380] param_fconv2 -> param_fconv2
I0308 22:10:52.953814 30328 net.cpp:122] Setting up param_fconv2
I0308 22:10:52.953821 30328 net.cpp:129] Top shape: 3 67 1 1 (201)
I0308 22:10:52.953824 30328 net.cpp:137] Memory required for data: 92144840
I0308 22:10:52.953826 30328 net.cpp:465] Sharing parameters 'fconv2_w' owned by layer 'fconv2', param index 0
I0308 22:10:52.953830 30328 layer_factory.hpp:77] Creating layer data_lattice1
I0308 22:10:52.953860 30328 net.cpp:84] Creating Layer data_lattice1
I0308 22:10:52.953864 30328 net.cpp:406] data_lattice1 <- fbn2
I0308 22:10:52.953868 30328 net.cpp:406] data_lattice1 <- param_fconv2
I0308 22:10:52.953874 30328 net.cpp:380] data_lattice1 -> data_lattice1
I0308 22:10:52.953997 30328 net.cpp:122] Setting up data_lattice1
I0308 22:10:52.954007 30328 net.cpp:129] Top shape: 8 3 1 4096 (98304)
I0308 22:10:52.954010 30328 net.cpp:137] Memory required for data: 92538056
I0308 22:10:52.954013 30328 layer_factory.hpp:77] Creating layer data_lattice1_data_lattice1_0_split
I0308 22:10:52.954020 30328 net.cpp:84] Creating Layer data_lattice1_data_lattice1_0_split
I0308 22:10:52.954026 30328 net.cpp:406] data_lattice1_data_lattice1_0_split <- data_lattice1
I0308 22:10:52.954032 30328 net.cpp:380] data_lattice1_data_lattice1_0_split -> data_lattice1_data_lattice1_0_split_0
I0308 22:10:52.954039 30328 net.cpp:380] data_lattice1_data_lattice1_0_split -> data_lattice1_data_lattice1_0_split_1
I0308 22:10:52.954083 30328 net.cpp:122] Setting up data_lattice1_data_lattice1_0_split
I0308 22:10:52.954090 30328 net.cpp:129] Top shape: 8 3 1 4096 (98304)
I0308 22:10:52.954093 30328 net.cpp:129] Top shape: 8 3 1 4096 (98304)
I0308 22:10:52.954097 30328 net.cpp:137] Memory required for data: 93324488
I0308 22:10:52.954099 30328 layer_factory.hpp:77] Creating layer conv3
I0308 22:10:52.954110 30328 net.cpp:84] Creating Layer conv3
I0308 22:10:52.954115 30328 net.cpp:406] conv3 <- bn2_relu2_0_split_1
I0308 22:10:52.954120 30328 net.cpp:406] conv3 <- data_lattice1_data_lattice1_0_split_0
I0308 22:10:52.954124 30328 net.cpp:406] conv3 <- data_lattice1_data_lattice1_0_split_1
I0308 22:10:52.954131 30328 net.cpp:380] conv3 -> conv3
I0308 22:10:52.962229 30328 net.cpp:122] Setting up conv3
I0308 22:10:52.962244 30328 net.cpp:129] Top shape: 8 128 1 4096 (4194304)
I0308 22:10:52.962247 30328 net.cpp:137] Memory required for data: 110101704
I0308 22:10:52.962255 30328 layer_factory.hpp:77] Creating layer bn3
I0308 22:10:52.962261 30328 net.cpp:84] Creating Layer bn3
I0308 22:10:52.962265 30328 net.cpp:406] bn3 <- conv3
I0308 22:10:52.962272 30328 net.cpp:380] bn3 -> bn3
I0308 22:10:52.962512 30328 net.cpp:122] Setting up bn3
I0308 22:10:52.962519 30328 net.cpp:129] Top shape: 8 128 1 4096 (4194304)
I0308 22:10:52.962522 30328 net.cpp:137] Memory required for data: 126878920
I0308 22:10:52.962533 30328 layer_factory.hpp:77] Creating layer relu3
I0308 22:10:52.962541 30328 net.cpp:84] Creating Layer relu3
I0308 22:10:52.962544 30328 net.cpp:406] relu3 <- bn3
I0308 22:10:52.962549 30328 net.cpp:367] relu3 -> bn3 (in-place)
I0308 22:10:52.962697 30328 net.cpp:122] Setting up relu3
I0308 22:10:52.962707 30328 net.cpp:129] Top shape: 8 128 1 4096 (4194304)
I0308 22:10:52.962708 30328 net.cpp:137] Memory required for data: 143656136
I0308 22:10:52.962711 30328 layer_factory.hpp:77] Creating layer bn3_relu3_0_split
I0308 22:10:52.962718 30328 net.cpp:84] Creating Layer bn3_relu3_0_split
I0308 22:10:52.962721 30328 net.cpp:406] bn3_relu3_0_split <- bn3
I0308 22:10:52.962726 30328 net.cpp:380] bn3_relu3_0_split -> bn3_relu3_0_split_0
I0308 22:10:52.962733 30328 net.cpp:380] bn3_relu3_0_split -> bn3_relu3_0_split_1
I0308 22:10:52.962739 30328 net.cpp:380] bn3_relu3_0_split -> bn3_relu3_0_split_2
I0308 22:10:52.962805 30328 net.cpp:122] Setting up bn3_relu3_0_split
I0308 22:10:52.962810 30328 net.cpp:129] Top shape: 8 128 1 4096 (4194304)
I0308 22:10:52.962815 30328 net.cpp:129] Top shape: 8 128 1 4096 (4194304)
I0308 22:10:52.962818 30328 net.cpp:129] Top shape: 8 128 1 4096 (4194304)
I0308 22:10:52.962821 30328 net.cpp:137] Memory required for data: 193987784
I0308 22:10:52.962823 30328 layer_factory.hpp:77] Creating layer bnD3
I0308 22:10:52.962829 30328 net.cpp:84] Creating Layer bnD3
I0308 22:10:52.962833 30328 net.cpp:406] bnD3 <- data_feat_data_feat_0_split_3
I0308 22:10:52.962837 30328 net.cpp:406] bnD3 <- bn3_relu3_0_split_0
I0308 22:10:52.962843 30328 net.cpp:380] bnD3 -> bnD3
I0308 22:10:52.962868 30328 net.cpp:122] Setting up bnD3
I0308 22:10:52.962874 30328 net.cpp:129] Top shape: 8 131 1 4096 (4292608)
I0308 22:10:52.962877 30328 net.cpp:137] Memory required for data: 211158216
I0308 22:10:52.962882 30328 layer_factory.hpp:77] Creating layer fconv3
I0308 22:10:52.962893 30328 net.cpp:84] Creating Layer fconv3
I0308 22:10:52.962898 30328 net.cpp:406] fconv3 <- bnD3
I0308 22:10:52.962904 30328 net.cpp:380] fconv3 -> fconv3
I0308 22:10:52.963997 30328 net.cpp:122] Setting up fconv3
I0308 22:10:52.964011 30328 net.cpp:129] Top shape: 8 3 1 4096 (98304)
I0308 22:10:52.964015 30328 net.cpp:137] Memory required for data: 211551432
I0308 22:10:52.964022 30328 layer_factory.hpp:77] Creating layer fbn3
I0308 22:10:52.964030 30328 net.cpp:84] Creating Layer fbn3
I0308 22:10:52.964032 30328 net.cpp:406] fbn3 <- fconv3
I0308 22:10:52.964040 30328 net.cpp:380] fbn3 -> fbn3
I0308 22:10:52.964293 30328 net.cpp:122] Setting up fbn3
I0308 22:10:52.964300 30328 net.cpp:129] Top shape: 8 3 1 4096 (98304)
I0308 22:10:52.964303 30328 net.cpp:137] Memory required for data: 211944648
I0308 22:10:52.964310 30328 layer_factory.hpp:77] Creating layer param_fconv3
I0308 22:10:52.964318 30328 net.cpp:84] Creating Layer param_fconv3
I0308 22:10:52.964321 30328 net.cpp:380] param_fconv3 -> param_fconv3
I0308 22:10:52.964365 30328 net.cpp:122] Setting up param_fconv3
I0308 22:10:52.964370 30328 net.cpp:129] Top shape: 3 131 1 1 (393)
I0308 22:10:52.964372 30328 net.cpp:137] Memory required for data: 211946220
I0308 22:10:52.964380 30328 net.cpp:465] Sharing parameters 'fconv3_w' owned by layer 'fconv3', param index 0
I0308 22:10:52.964388 30328 layer_factory.hpp:77] Creating layer data_lattice2
I0308 22:10:52.964422 30328 net.cpp:84] Creating Layer data_lattice2
I0308 22:10:52.964428 30328 net.cpp:406] data_lattice2 <- fbn3
I0308 22:10:52.964432 30328 net.cpp:406] data_lattice2 <- param_fconv3
I0308 22:10:52.964438 30328 net.cpp:380] data_lattice2 -> data_lattice2
I0308 22:10:52.964615 30328 net.cpp:122] Setting up data_lattice2
I0308 22:10:52.964625 30328 net.cpp:129] Top shape: 8 3 1 4096 (98304)
I0308 22:10:52.964627 30328 net.cpp:137] Memory required for data: 212339436
I0308 22:10:52.964632 30328 layer_factory.hpp:77] Creating layer data_lattice2_data_lattice2_0_split
I0308 22:10:52.964638 30328 net.cpp:84] Creating Layer data_lattice2_data_lattice2_0_split
I0308 22:10:52.964643 30328 net.cpp:406] data_lattice2_data_lattice2_0_split <- data_lattice2
I0308 22:10:52.964649 30328 net.cpp:380] data_lattice2_data_lattice2_0_split -> data_lattice2_data_lattice2_0_split_0
I0308 22:10:52.964656 30328 net.cpp:380] data_lattice2_data_lattice2_0_split -> data_lattice2_data_lattice2_0_split_1
I0308 22:10:52.964699 30328 net.cpp:122] Setting up data_lattice2_data_lattice2_0_split
I0308 22:10:52.964706 30328 net.cpp:129] Top shape: 8 3 1 4096 (98304)
I0308 22:10:52.964710 30328 net.cpp:129] Top shape: 8 3 1 4096 (98304)
I0308 22:10:52.964712 30328 net.cpp:137] Memory required for data: 213125868
I0308 22:10:52.964715 30328 layer_factory.hpp:77] Creating layer conv4
I0308 22:10:52.964723 30328 net.cpp:84] Creating Layer conv4
I0308 22:10:52.964726 30328 net.cpp:406] conv4 <- bn3_relu3_0_split_1
I0308 22:10:52.964731 30328 net.cpp:406] conv4 <- data_lattice2_data_lattice2_0_split_0
I0308 22:10:52.964735 30328 net.cpp:406] conv4 <- data_lattice2_data_lattice2_0_split_1
I0308 22:10:52.964741 30328 net.cpp:380] conv4 -> conv4
I0308 22:10:52.995463 30328 net.cpp:122] Setting up conv4
I0308 22:10:52.995487 30328 net.cpp:129] Top shape: 8 256 1 4096 (8388608)
I0308 22:10:52.995491 30328 net.cpp:137] Memory required for data: 246680300
I0308 22:10:52.995501 30328 layer_factory.hpp:77] Creating layer bn4
I0308 22:10:52.995512 30328 net.cpp:84] Creating Layer bn4
I0308 22:10:52.995517 30328 net.cpp:406] bn4 <- conv4
I0308 22:10:52.995524 30328 net.cpp:380] bn4 -> bn4
I0308 22:10:52.995792 30328 net.cpp:122] Setting up bn4
I0308 22:10:52.995801 30328 net.cpp:129] Top shape: 8 256 1 4096 (8388608)
I0308 22:10:52.995803 30328 net.cpp:137] Memory required for data: 280234732
I0308 22:10:52.995813 30328 layer_factory.hpp:77] Creating layer relu4
I0308 22:10:52.995820 30328 net.cpp:84] Creating Layer relu4
I0308 22:10:52.995822 30328 net.cpp:406] relu4 <- bn4
I0308 22:10:52.995826 30328 net.cpp:367] relu4 -> bn4 (in-place)
I0308 22:10:52.996007 30328 net.cpp:122] Setting up relu4
I0308 22:10:52.996018 30328 net.cpp:129] Top shape: 8 256 1 4096 (8388608)
I0308 22:10:52.996021 30328 net.cpp:137] Memory required for data: 313789164
I0308 22:10:52.996027 30328 layer_factory.hpp:77] Creating layer bn4_relu4_0_split
I0308 22:10:52.996034 30328 net.cpp:84] Creating Layer bn4_relu4_0_split
I0308 22:10:52.996037 30328 net.cpp:406] bn4_relu4_0_split <- bn4
I0308 22:10:52.996043 30328 net.cpp:380] bn4_relu4_0_split -> bn4_relu4_0_split_0
I0308 22:10:52.996050 30328 net.cpp:380] bn4_relu4_0_split -> bn4_relu4_0_split_1
I0308 22:10:52.996057 30328 net.cpp:380] bn4_relu4_0_split -> bn4_relu4_0_split_2
I0308 22:10:52.996126 30328 net.cpp:122] Setting up bn4_relu4_0_split
I0308 22:10:52.996134 30328 net.cpp:129] Top shape: 8 256 1 4096 (8388608)
I0308 22:10:52.996137 30328 net.cpp:129] Top shape: 8 256 1 4096 (8388608)
I0308 22:10:52.996140 30328 net.cpp:129] Top shape: 8 256 1 4096 (8388608)
I0308 22:10:52.996143 30328 net.cpp:137] Memory required for data: 414452460
I0308 22:10:52.996145 30328 layer_factory.hpp:77] Creating layer bnD4
I0308 22:10:52.996153 30328 net.cpp:84] Creating Layer bnD4
I0308 22:10:52.996157 30328 net.cpp:406] bnD4 <- data_feat_data_feat_0_split_4
I0308 22:10:52.996162 30328 net.cpp:406] bnD4 <- bn4_relu4_0_split_0
I0308 22:10:52.996168 30328 net.cpp:380] bnD4 -> bnD4
I0308 22:10:52.996193 30328 net.cpp:122] Setting up bnD4
I0308 22:10:52.996201 30328 net.cpp:129] Top shape: 8 259 1 4096 (8486912)
I0308 22:10:52.996203 30328 net.cpp:137] Memory required for data: 448400108
I0308 22:10:52.996206 30328 layer_factory.hpp:77] Creating layer fconv4
I0308 22:10:52.996219 30328 net.cpp:84] Creating Layer fconv4
I0308 22:10:52.996224 30328 net.cpp:406] fconv4 <- bnD4
I0308 22:10:52.996232 30328 net.cpp:380] fconv4 -> fconv4
I0308 22:10:52.997388 30328 net.cpp:122] Setting up fconv4
I0308 22:10:52.997403 30328 net.cpp:129] Top shape: 8 3 1 4096 (98304)
I0308 22:10:52.997406 30328 net.cpp:137] Memory required for data: 448793324
I0308 22:10:52.997414 30328 layer_factory.hpp:77] Creating layer fbn4
I0308 22:10:52.997421 30328 net.cpp:84] Creating Layer fbn4
I0308 22:10:52.997424 30328 net.cpp:406] fbn4 <- fconv4
I0308 22:10:52.997431 30328 net.cpp:380] fbn4 -> fbn4
I0308 22:10:52.997690 30328 net.cpp:122] Setting up fbn4
I0308 22:10:52.997699 30328 net.cpp:129] Top shape: 8 3 1 4096 (98304)
I0308 22:10:52.997701 30328 net.cpp:137] Memory required for data: 449186540
I0308 22:10:52.997709 30328 layer_factory.hpp:77] Creating layer param_fconv4
I0308 22:10:52.997720 30328 net.cpp:84] Creating Layer param_fconv4
I0308 22:10:52.997726 30328 net.cpp:380] param_fconv4 -> param_fconv4
I0308 22:10:52.997773 30328 net.cpp:122] Setting up param_fconv4
I0308 22:10:52.997781 30328 net.cpp:129] Top shape: 3 259 1 1 (777)
I0308 22:10:52.997782 30328 net.cpp:137] Memory required for data: 449189648
I0308 22:10:52.997786 30328 net.cpp:465] Sharing parameters 'fconv4_w' owned by layer 'fconv4', param index 0
I0308 22:10:52.997789 30328 layer_factory.hpp:77] Creating layer data_lattice3
I0308 22:10:52.997840 30328 net.cpp:84] Creating Layer data_lattice3
I0308 22:10:52.997845 30328 net.cpp:406] data_lattice3 <- fbn4
I0308 22:10:52.997849 30328 net.cpp:406] data_lattice3 <- param_fconv4
I0308 22:10:52.997856 30328 net.cpp:380] data_lattice3 -> data_lattice3
I0308 22:10:52.999485 30328 net.cpp:122] Setting up data_lattice3
I0308 22:10:52.999500 30328 net.cpp:129] Top shape: 8 3 1 4096 (98304)
I0308 22:10:52.999501 30328 net.cpp:137] Memory required for data: 449582864
I0308 22:10:52.999505 30328 layer_factory.hpp:77] Creating layer data_lattice3_data_lattice3_0_split
I0308 22:10:52.999513 30328 net.cpp:84] Creating Layer data_lattice3_data_lattice3_0_split
I0308 22:10:52.999516 30328 net.cpp:406] data_lattice3_data_lattice3_0_split <- data_lattice3
I0308 22:10:52.999523 30328 net.cpp:380] data_lattice3_data_lattice3_0_split -> data_lattice3_data_lattice3_0_split_0
I0308 22:10:52.999531 30328 net.cpp:380] data_lattice3_data_lattice3_0_split -> data_lattice3_data_lattice3_0_split_1
I0308 22:10:52.999578 30328 net.cpp:122] Setting up data_lattice3_data_lattice3_0_split
I0308 22:10:52.999585 30328 net.cpp:129] Top shape: 8 3 1 4096 (98304)
I0308 22:10:52.999589 30328 net.cpp:129] Top shape: 8 3 1 4096 (98304)
I0308 22:10:52.999591 30328 net.cpp:137] Memory required for data: 450369296
I0308 22:10:52.999594 30328 layer_factory.hpp:77] Creating layer conv5
I0308 22:10:52.999603 30328 net.cpp:84] Creating Layer conv5
I0308 22:10:52.999606 30328 net.cpp:406] conv5 <- bn4_relu4_0_split_1
I0308 22:10:52.999621 30328 net.cpp:406] conv5 <- data_lattice3_data_lattice3_0_split_0
I0308 22:10:52.999626 30328 net.cpp:406] conv5 <- data_lattice3_data_lattice3_0_split_1
I0308 22:10:52.999634 30328 net.cpp:380] conv5 -> conv5
I0308 22:10:53.061170 30328 net.cpp:122] Setting up conv5
I0308 22:10:53.061205 30328 net.cpp:129] Top shape: 8 256 1 4096 (8388608)
I0308 22:10:53.061208 30328 net.cpp:137] Memory required for data: 483923728
I0308 22:10:53.061224 30328 layer_factory.hpp:77] Creating layer bn5
I0308 22:10:53.061239 30328 net.cpp:84] Creating Layer bn5
I0308 22:10:53.061244 30328 net.cpp:406] bn5 <- conv5
I0308 22:10:53.061254 30328 net.cpp:380] bn5 -> bn5
I0308 22:10:53.061522 30328 net.cpp:122] Setting up bn5
I0308 22:10:53.061529 30328 net.cpp:129] Top shape: 8 256 1 4096 (8388608)
I0308 22:10:53.061532 30328 net.cpp:137] Memory required for data: 517478160
I0308 22:10:53.061539 30328 layer_factory.hpp:77] Creating layer relu5
I0308 22:10:53.061556 30328 net.cpp:84] Creating Layer relu5
I0308 22:10:53.061559 30328 net.cpp:406] relu5 <- bn5
I0308 22:10:53.061564 30328 net.cpp:367] relu5 -> bn5 (in-place)
I0308 22:10:53.061779 30328 net.cpp:122] Setting up relu5
I0308 22:10:53.061787 30328 net.cpp:129] Top shape: 8 256 1 4096 (8388608)
I0308 22:10:53.061790 30328 net.cpp:137] Memory required for data: 551032592
I0308 22:10:53.061794 30328 layer_factory.hpp:77] Creating layer bn5_relu5_0_split
I0308 22:10:53.061800 30328 net.cpp:84] Creating Layer bn5_relu5_0_split
I0308 22:10:53.061803 30328 net.cpp:406] bn5_relu5_0_split <- bn5
I0308 22:10:53.061810 30328 net.cpp:380] bn5_relu5_0_split -> bn5_relu5_0_split_0
I0308 22:10:53.061817 30328 net.cpp:380] bn5_relu5_0_split -> bn5_relu5_0_split_1
I0308 22:10:53.061823 30328 net.cpp:380] bn5_relu5_0_split -> bn5_relu5_0_split_2
I0308 22:10:53.061894 30328 net.cpp:122] Setting up bn5_relu5_0_split
I0308 22:10:53.061900 30328 net.cpp:129] Top shape: 8 256 1 4096 (8388608)
I0308 22:10:53.061909 30328 net.cpp:129] Top shape: 8 256 1 4096 (8388608)
I0308 22:10:53.061913 30328 net.cpp:129] Top shape: 8 256 1 4096 (8388608)
I0308 22:10:53.061915 30328 net.cpp:137] Memory required for data: 651695888
I0308 22:10:53.061918 30328 layer_factory.hpp:77] Creating layer bnD5
I0308 22:10:53.061925 30328 net.cpp:84] Creating Layer bnD5
I0308 22:10:53.061930 30328 net.cpp:406] bnD5 <- data_feat_data_feat_0_split_5
I0308 22:10:53.061935 30328 net.cpp:406] bnD5 <- bn5_relu5_0_split_0
I0308 22:10:53.061941 30328 net.cpp:380] bnD5 -> bnD5
I0308 22:10:53.061982 30328 net.cpp:122] Setting up bnD5
I0308 22:10:53.061990 30328 net.cpp:129] Top shape: 8 259 1 4096 (8486912)
I0308 22:10:53.061991 30328 net.cpp:137] Memory required for data: 685643536
I0308 22:10:53.061995 30328 layer_factory.hpp:77] Creating layer fconv5
I0308 22:10:53.062008 30328 net.cpp:84] Creating Layer fconv5
I0308 22:10:53.062014 30328 net.cpp:406] fconv5 <- bnD5
I0308 22:10:53.062021 30328 net.cpp:380] fconv5 -> fconv5
I0308 22:10:53.065439 30328 net.cpp:122] Setting up fconv5
I0308 22:10:53.065455 30328 net.cpp:129] Top shape: 8 3 1 4096 (98304)
I0308 22:10:53.065459 30328 net.cpp:137] Memory required for data: 686036752
I0308 22:10:53.065467 30328 layer_factory.hpp:77] Creating layer fbn5
I0308 22:10:53.065475 30328 net.cpp:84] Creating Layer fbn5
I0308 22:10:53.065479 30328 net.cpp:406] fbn5 <- fconv5
I0308 22:10:53.065485 30328 net.cpp:380] fbn5 -> fbn5
I0308 22:10:53.065753 30328 net.cpp:122] Setting up fbn5
I0308 22:10:53.065762 30328 net.cpp:129] Top shape: 8 3 1 4096 (98304)
I0308 22:10:53.065764 30328 net.cpp:137] Memory required for data: 686429968
I0308 22:10:53.065773 30328 layer_factory.hpp:77] Creating layer param_fconv5
I0308 22:10:53.065783 30328 net.cpp:84] Creating Layer param_fconv5
I0308 22:10:53.065789 30328 net.cpp:380] param_fconv5 -> param_fconv5
I0308 22:10:53.065835 30328 net.cpp:122] Setting up param_fconv5
I0308 22:10:53.065841 30328 net.cpp:129] Top shape: 3 259 1 1 (777)
I0308 22:10:53.065845 30328 net.cpp:137] Memory required for data: 686433076
I0308 22:10:53.065847 30328 net.cpp:465] Sharing parameters 'fconv5_w' owned by layer 'fconv5', param index 0
I0308 22:10:53.065853 30328 layer_factory.hpp:77] Creating layer data_lattice4
I0308 22:10:53.065909 30328 net.cpp:84] Creating Layer data_lattice4
I0308 22:10:53.065914 30328 net.cpp:406] data_lattice4 <- fbn5
I0308 22:10:53.065919 30328 net.cpp:406] data_lattice4 <- param_fconv5
I0308 22:10:53.065925 30328 net.cpp:380] data_lattice4 -> data_lattice4
I0308 22:10:53.066130 30328 net.cpp:122] Setting up data_lattice4
I0308 22:10:53.066140 30328 net.cpp:129] Top shape: 8 3 1 4096 (98304)
I0308 22:10:53.066143 30328 net.cpp:137] Memory required for data: 686826292
I0308 22:10:53.066146 30328 layer_factory.hpp:77] Creating layer data_lattice4_data_lattice4_0_split
I0308 22:10:53.066154 30328 net.cpp:84] Creating Layer data_lattice4_data_lattice4_0_split
I0308 22:10:53.066157 30328 net.cpp:406] data_lattice4_data_lattice4_0_split <- data_lattice4
I0308 22:10:53.066164 30328 net.cpp:380] data_lattice4_data_lattice4_0_split -> data_lattice4_data_lattice4_0_split_0
I0308 22:10:53.066171 30328 net.cpp:380] data_lattice4_data_lattice4_0_split -> data_lattice4_data_lattice4_0_split_1
I0308 22:10:53.066212 30328 net.cpp:122] Setting up data_lattice4_data_lattice4_0_split
I0308 22:10:53.066220 30328 net.cpp:129] Top shape: 8 3 1 4096 (98304)
I0308 22:10:53.066223 30328 net.cpp:129] Top shape: 8 3 1 4096 (98304)
I0308 22:10:53.066226 30328 net.cpp:137] Memory required for data: 687612724
I0308 22:10:53.066228 30328 layer_factory.hpp:77] Creating layer conv6
I0308 22:10:53.066238 30328 net.cpp:84] Creating Layer conv6
I0308 22:10:53.066241 30328 net.cpp:406] conv6 <- bn5_relu5_0_split_1
I0308 22:10:53.066246 30328 net.cpp:406] conv6 <- data_lattice4_data_lattice4_0_split_0
I0308 22:10:53.066251 30328 net.cpp:406] conv6 <- data_lattice4_data_lattice4_0_split_1
I0308 22:10:53.066256 30328 net.cpp:380] conv6 -> conv6
I0308 22:10:53.128266 30328 net.cpp:122] Setting up conv6
I0308 22:10:53.128301 30328 net.cpp:129] Top shape: 8 256 1 4096 (8388608)
I0308 22:10:53.128305 30328 net.cpp:137] Memory required for data: 721167156
I0308 22:10:53.128325 30328 layer_factory.hpp:77] Creating layer bn6
I0308 22:10:53.128337 30328 net.cpp:84] Creating Layer bn6
I0308 22:10:53.128345 30328 net.cpp:406] bn6 <- conv6
I0308 22:10:53.128353 30328 net.cpp:380] bn6 -> bn6
I0308 22:10:53.128624 30328 net.cpp:122] Setting up bn6
I0308 22:10:53.128631 30328 net.cpp:129] Top shape: 8 256 1 4096 (8388608)
I0308 22:10:53.128634 30328 net.cpp:137] Memory required for data: 754721588
I0308 22:10:53.128643 30328 layer_factory.hpp:77] Creating layer relu6
I0308 22:10:53.128650 30328 net.cpp:84] Creating Layer relu6
I0308 22:10:53.128655 30328 net.cpp:406] relu6 <- bn6
I0308 22:10:53.128660 30328 net.cpp:367] relu6 -> bn6 (in-place)
I0308 22:10:53.128861 30328 net.cpp:122] Setting up relu6
I0308 22:10:53.128871 30328 net.cpp:129] Top shape: 8 256 1 4096 (8388608)
I0308 22:10:53.128873 30328 net.cpp:137] Memory required for data: 788276020
I0308 22:10:53.128876 30328 layer_factory.hpp:77] Creating layer bn6_relu6_0_split
I0308 22:10:53.128883 30328 net.cpp:84] Creating Layer bn6_relu6_0_split
I0308 22:10:53.128886 30328 net.cpp:406] bn6_relu6_0_split <- bn6
I0308 22:10:53.128892 30328 net.cpp:380] bn6_relu6_0_split -> bn6_relu6_0_split_0
I0308 22:10:53.128901 30328 net.cpp:380] bn6_relu6_0_split -> bn6_relu6_0_split_1
I0308 22:10:53.128909 30328 net.cpp:380] bn6_relu6_0_split -> bn6_relu6_0_split_2
I0308 22:10:53.128978 30328 net.cpp:122] Setting up bn6_relu6_0_split
I0308 22:10:53.128984 30328 net.cpp:129] Top shape: 8 256 1 4096 (8388608)
I0308 22:10:53.128988 30328 net.cpp:129] Top shape: 8 256 1 4096 (8388608)
I0308 22:10:53.128993 30328 net.cpp:129] Top shape: 8 256 1 4096 (8388608)
I0308 22:10:53.128994 30328 net.cpp:137] Memory required for data: 888939316
I0308 22:10:53.128998 30328 layer_factory.hpp:77] Creating layer bnD5_
I0308 22:10:53.129004 30328 net.cpp:84] Creating Layer bnD5_
I0308 22:10:53.129009 30328 net.cpp:406] bnD5_ <- data_feat_data_feat_0_split_6
I0308 22:10:53.129012 30328 net.cpp:406] bnD5_ <- bn6_relu6_0_split_0
I0308 22:10:53.129019 30328 net.cpp:380] bnD5_ -> bnD5_
I0308 22:10:53.129045 30328 net.cpp:122] Setting up bnD5_
I0308 22:10:53.129051 30328 net.cpp:129] Top shape: 8 259 1 4096 (8486912)
I0308 22:10:53.129055 30328 net.cpp:137] Memory required for data: 922886964
I0308 22:10:53.129056 30328 layer_factory.hpp:77] Creating layer fconv5_
I0308 22:10:53.129071 30328 net.cpp:84] Creating Layer fconv5_
I0308 22:10:53.129074 30328 net.cpp:406] fconv5_ <- bnD5_
I0308 22:10:53.129081 30328 net.cpp:380] fconv5_ -> fconv5_
I0308 22:10:53.130303 30328 net.cpp:122] Setting up fconv5_
I0308 22:10:53.130318 30328 net.cpp:129] Top shape: 8 3 1 4096 (98304)
I0308 22:10:53.130323 30328 net.cpp:137] Memory required for data: 923280180
I0308 22:10:53.130332 30328 layer_factory.hpp:77] Creating layer fbn5_
I0308 22:10:53.130339 30328 net.cpp:84] Creating Layer fbn5_
I0308 22:10:53.130342 30328 net.cpp:406] fbn5_ <- fconv5_
I0308 22:10:53.130349 30328 net.cpp:380] fbn5_ -> fbn5_
I0308 22:10:53.130611 30328 net.cpp:122] Setting up fbn5_
I0308 22:10:53.130620 30328 net.cpp:129] Top shape: 8 3 1 4096 (98304)
I0308 22:10:53.130621 30328 net.cpp:137] Memory required for data: 923673396
I0308 22:10:53.130641 30328 layer_factory.hpp:77] Creating layer param_fconv5_
I0308 22:10:53.130652 30328 net.cpp:84] Creating Layer param_fconv5_
I0308 22:10:53.130659 30328 net.cpp:380] param_fconv5_ -> param_fconv5_
I0308 22:10:53.130707 30328 net.cpp:122] Setting up param_fconv5_
I0308 22:10:53.130713 30328 net.cpp:129] Top shape: 3 259 1 1 (777)
I0308 22:10:53.130715 30328 net.cpp:137] Memory required for data: 923676504
I0308 22:10:53.130719 30328 net.cpp:465] Sharing parameters 'fconv5_w_' owned by layer 'fconv5_', param index 0
I0308 22:10:53.130722 30328 layer_factory.hpp:77] Creating layer data_lattice4_
I0308 22:10:53.130779 30328 net.cpp:84] Creating Layer data_lattice4_
I0308 22:10:53.130784 30328 net.cpp:406] data_lattice4_ <- fbn5_
I0308 22:10:53.130789 30328 net.cpp:406] data_lattice4_ <- param_fconv5_
I0308 22:10:53.130795 30328 net.cpp:380] data_lattice4_ -> data_lattice4_
I0308 22:10:53.131001 30328 net.cpp:122] Setting up data_lattice4_
I0308 22:10:53.131011 30328 net.cpp:129] Top shape: 8 3 1 4096 (98304)
I0308 22:10:53.131013 30328 net.cpp:137] Memory required for data: 924069720
I0308 22:10:53.131016 30328 layer_factory.hpp:77] Creating layer data_lattice4__data_lattice4__0_split
I0308 22:10:53.131026 30328 net.cpp:84] Creating Layer data_lattice4__data_lattice4__0_split
I0308 22:10:53.131029 30328 net.cpp:406] data_lattice4__data_lattice4__0_split <- data_lattice4_
I0308 22:10:53.131036 30328 net.cpp:380] data_lattice4__data_lattice4__0_split -> data_lattice4__data_lattice4__0_split_0
I0308 22:10:53.131043 30328 net.cpp:380] data_lattice4__data_lattice4__0_split -> data_lattice4__data_lattice4__0_split_1
I0308 22:10:53.131088 30328 net.cpp:122] Setting up data_lattice4__data_lattice4__0_split
I0308 22:10:53.131095 30328 net.cpp:129] Top shape: 8 3 1 4096 (98304)
I0308 22:10:53.131099 30328 net.cpp:129] Top shape: 8 3 1 4096 (98304)
I0308 22:10:53.131101 30328 net.cpp:137] Memory required for data: 924856152
I0308 22:10:53.131104 30328 layer_factory.hpp:77] Creating layer conv6_
I0308 22:10:53.131125 30328 net.cpp:84] Creating Layer conv6_
I0308 22:10:53.131130 30328 net.cpp:406] conv6_ <- bn6_relu6_0_split_1
I0308 22:10:53.131135 30328 net.cpp:406] conv6_ <- data_lattice4__data_lattice4__0_split_0
I0308 22:10:53.131139 30328 net.cpp:406] conv6_ <- data_lattice4__data_lattice4__0_split_1
I0308 22:10:53.131145 30328 net.cpp:380] conv6_ -> conv6_
I0308 22:10:53.192646 30328 net.cpp:122] Setting up conv6_
I0308 22:10:53.192683 30328 net.cpp:129] Top shape: 8 256 1 4096 (8388608)
I0308 22:10:53.192687 30328 net.cpp:137] Memory required for data: 958410584
I0308 22:10:53.192700 30328 layer_factory.hpp:77] Creating layer bn6_
I0308 22:10:53.192713 30328 net.cpp:84] Creating Layer bn6_
I0308 22:10:53.192719 30328 net.cpp:406] bn6_ <- conv6_
I0308 22:10:53.192730 30328 net.cpp:380] bn6_ -> bn6_
I0308 22:10:53.193001 30328 net.cpp:122] Setting up bn6_
I0308 22:10:53.193009 30328 net.cpp:129] Top shape: 8 256 1 4096 (8388608)
I0308 22:10:53.193012 30328 net.cpp:137] Memory required for data: 991965016
I0308 22:10:53.193023 30328 layer_factory.hpp:77] Creating layer relu6_
I0308 22:10:53.193029 30328 net.cpp:84] Creating Layer relu6_
I0308 22:10:53.193032 30328 net.cpp:406] relu6_ <- bn6_
I0308 22:10:53.193037 30328 net.cpp:367] relu6_ -> bn6_ (in-place)
I0308 22:10:53.193697 30328 net.cpp:122] Setting up relu6_
I0308 22:10:53.193711 30328 net.cpp:129] Top shape: 8 256 1 4096 (8388608)
I0308 22:10:53.193715 30328 net.cpp:137] Memory required for data: 1025519448
I0308 22:10:53.193725 30328 layer_factory.hpp:77] Creating layer concat6
I0308 22:10:53.193735 30328 net.cpp:84] Creating Layer concat6
I0308 22:10:53.193739 30328 net.cpp:406] concat6 <- bn6_
I0308 22:10:53.193744 30328 net.cpp:406] concat6 <- bn6_relu6_0_split_2
I0308 22:10:53.193749 30328 net.cpp:406] concat6 <- bn2_relu2_0_split_2
I0308 22:10:53.193753 30328 net.cpp:406] concat6 <- bn3_relu3_0_split_2
I0308 22:10:53.193758 30328 net.cpp:406] concat6 <- bn4_relu4_0_split_2
I0308 22:10:53.193761 30328 net.cpp:406] concat6 <- bn5_relu5_0_split_2
I0308 22:10:53.193768 30328 net.cpp:380] concat6 -> concat6
I0308 22:10:53.193812 30328 net.cpp:122] Setting up concat6
I0308 22:10:53.193819 30328 net.cpp:129] Top shape: 8 1216 1 4096 (39845888)
I0308 22:10:53.193821 30328 net.cpp:137] Memory required for data: 1184903000
I0308 22:10:53.193825 30328 layer_factory.hpp:77] Creating layer conv7
I0308 22:10:53.193838 30328 net.cpp:84] Creating Layer conv7
I0308 22:10:53.193842 30328 net.cpp:406] conv7 <- concat6
I0308 22:10:53.193850 30328 net.cpp:380] conv7 -> conv7
I0308 22:10:53.196110 30328 net.cpp:122] Setting up conv7
I0308 22:10:53.196125 30328 net.cpp:129] Top shape: 8 128 1 4096 (4194304)
I0308 22:10:53.196128 30328 net.cpp:137] Memory required for data: 1201680216
I0308 22:10:53.196135 30328 layer_factory.hpp:77] Creating layer bn7
I0308 22:10:53.196142 30328 net.cpp:84] Creating Layer bn7
I0308 22:10:53.196146 30328 net.cpp:406] bn7 <- conv7
I0308 22:10:53.196152 30328 net.cpp:380] bn7 -> bn7
I0308 22:10:53.196411 30328 net.cpp:122] Setting up bn7
I0308 22:10:53.196419 30328 net.cpp:129] Top shape: 8 128 1 4096 (4194304)
I0308 22:10:53.196421 30328 net.cpp:137] Memory required for data: 1218457432
I0308 22:10:53.196429 30328 layer_factory.hpp:77] Creating layer relu7
I0308 22:10:53.196435 30328 net.cpp:84] Creating Layer relu7
I0308 22:10:53.196439 30328 net.cpp:406] relu7 <- bn7
I0308 22:10:53.196444 30328 net.cpp:367] relu7 -> bn7 (in-place)
I0308 22:10:53.196580 30328 net.cpp:122] Setting up relu7
I0308 22:10:53.196589 30328 net.cpp:129] Top shape: 8 128 1 4096 (4194304)
I0308 22:10:53.196591 30328 net.cpp:137] Memory required for data: 1235234648
I0308 22:10:53.196595 30328 layer_factory.hpp:77] Creating layer conv8
I0308 22:10:53.196605 30328 net.cpp:84] Creating Layer conv8
I0308 22:10:53.196609 30328 net.cpp:406] conv8 <- bn7
I0308 22:10:53.196616 30328 net.cpp:380] conv8 -> conv8
I0308 22:10:53.197715 30328 net.cpp:122] Setting up conv8
I0308 22:10:53.197728 30328 net.cpp:129] Top shape: 8 13 1 4096 (425984)
I0308 22:10:53.197731 30328 net.cpp:137] Memory required for data: 1236938584
I0308 22:10:53.197738 30328 layer_factory.hpp:77] Creating layer conv8_conv8_0_split
I0308 22:10:53.197746 30328 net.cpp:84] Creating Layer conv8_conv8_0_split
I0308 22:10:53.197751 30328 net.cpp:406] conv8_conv8_0_split <- conv8
I0308 22:10:53.197758 30328 net.cpp:380] conv8_conv8_0_split -> conv8_conv8_0_split_0
I0308 22:10:53.197767 30328 net.cpp:380] conv8_conv8_0_split -> conv8_conv8_0_split_1
I0308 22:10:53.197818 30328 net.cpp:122] Setting up conv8_conv8_0_split
I0308 22:10:53.197824 30328 net.cpp:129] Top shape: 8 13 1 4096 (425984)
I0308 22:10:53.197829 30328 net.cpp:129] Top shape: 8 13 1 4096 (425984)
I0308 22:10:53.197831 30328 net.cpp:137] Memory required for data: 1240346456
I0308 22:10:53.197836 30328 layer_factory.hpp:77] Creating layer loss
I0308 22:10:53.197842 30328 net.cpp:84] Creating Layer loss
I0308 22:10:53.197845 30328 net.cpp:406] loss <- conv8_conv8_0_split_0
I0308 22:10:53.197850 30328 net.cpp:406] loss <- label_data_1_split_0
I0308 22:10:53.197856 30328 net.cpp:380] loss -> loss
…
