…
I0730 14:31:50.742406 14647 net.cpp:317] The NetState phase (0) differed from the phase (1) specified by a rule in layer data
I0730 14:31:50.745671 14647 net.cpp:50] Initializing net from parameters: 
state {
  phase: TRAIN
}
layer {
  name: "data"
  type: "Python"
  top: "data"
  top: "label"
  include {
    phase: TRAIN
  }
  python_param {
    module: "dataset_lidar"
    layer: "InputShapenet"
    param_str: "{\'sample_size\': 70000, \'test_area\': \'6\', \'batch_size\': 1, \'feat_dims\': \'x_y_z\', \'subset\': \'train\', \'root\': \'../../data/shapenet_ericyi_ply\', \'jitter_xyz\': 0.01, \'jitter_stretch\': 0.05, \'jitter_rotation\': 5.0}"
  }
}
layer {
  name: "data_feat"
  type: "Python"
  bottom: "data"
  top: "data_feat"
  python_param {
    module: "custom_layers"
    layer: "PickAndScale"
    param_str: "0_1_2"
  }
}
layer {
  name: "conv1"
  type: "Convolution"
  bottom: "data_feat"
  top: "conv1"
  param {
    lr_mult: 1
  }
  param {
    lr_mult: 0.1
  }
  convolution_param {
    num_output: 32
    pad: 0
    kernel_size: 1
    stride: 1
    weight_filler {
      type: "xavier"
    }
    bias_filler {
      type: "constant"
      value: 0
    }
  }
}
layer {
  name: "bn1"
  type: "BatchNorm"
  bottom: "conv1"
  top: "bn1"
}
layer {
  name: "relu1"
  type: "ReLU"
  bottom: "bn1"
  top: "bn1"
}
layer {
  name: "fconv1"
  type: "Convolution"
  bottom: "bn1"
  top: "fconv1"
  param {
    lr_mult: 0.5
  }
  param {
    lr_mult: 0.05
  }
  convolution_param {
    num_output: 3
    pad: 0
    kernel_size: 1
    stride: 1
    weight_filler {
      type: "xavier"
    }
    bias_filler {
      type: "constant"
      value: 0
    }
  }
}
layer {
  name: "fbn1"
  type: "BatchNorm"
  bottom: "fconv1"
  top: "fbn1"
}
layer {
  name: "frelu1"
  type: "ReLU"
  bottom: "fbn1"
  top: "fbn1"
}
layer {
  name: "data_lattice0"
  type: "Python"
  bottom: "data"
  top: "data_lattice0"
  python_param {
    module: "custom_layers"
    layer: "PickAndScale"
    param_str: "0*48_1*48_2*48"
  }
}
layer {
  name: "feat1"
  type: "Eltwise"
  bottom: "data_lattice0"
  bottom: "fbn1"
  top: "feat1"
  eltwise_param {
    operation: SUM
  }
}
layer {
  name: "conv2"
  type: "Permutohedral"
  bottom: "bn1"
  bottom: "feat1"
  bottom: "feat1"
  top: "conv2"
  param {
    lr_mult: 1
    decay_mult: 1
  }
  param {
    lr_mult: 2
    decay_mult: 0
  }
  permutohedral_param {
    num_output: 64
    neighborhood_size: 4
    filter_filler {
      type: "gaussian"
      std: 0.001
    }
    bias_term: true
    bias_filler {
      type: "constant"
      value: 0
    }
    group: 1
    norm_type: AFTER
    offset_type: NONE
  }
}
layer {
  name: "bn2"
  type: "BatchNorm"
  bottom: "conv2"
  top: "bn2"
}
layer {
  name: "relu2"
  type: "ReLU"
  bottom: "bn2"
  top: "bn2"
}
layer {
  name: "fconv2"
  type: "Convolution"
  bottom: "bn2"
  top: "fconv2"
  param {
    lr_mult: 0.5
  }
  param {
    lr_mult: 0.05
  }
  convolution_param {
    num_output: 3
    pad: 0
    kernel_size: 1
    stride: 1
    weight_filler {
      type: "xavier"
    }
    bias_filler {
      type: "constant"
      value: 0
    }
  }
}
layer {
  name: "fbn2"
  type: "BatchNorm"
  bottom: "fconv2"
  top: "fbn2"
}
layer {
  name: "frelu2"
  type: "ReLU"
  bottom: "fbn2"
  top: "fbn2"
}
layer {
  name: "data_lattice1"
  type: "Python"
  bottom: "data"
  top: "data_lattice1"
  python_param {
    module: "custom_layers"
    layer: "PickAndScale"
    param_str: "0*24_1*24_2*24"
  }
}
layer {
  name: "feat2"
  type: "Eltwise"
  bottom: "data_lattice1"
  bottom: "fbn2"
  top: "feat2"
  eltwise_param {
    operation: SUM
  }
}
layer {
  name: "conv3"
  type: "Permutohedral"
  bottom: "bn2"
  bottom: "feat2"
  bottom: "feat2"
  top: "conv3"
  param {
    lr_mult: 1
    decay_mult: 1
  }
  param {
    lr_mult: 2
    decay_mult: 0
  }
  permutohedral_param {
    num_output: 128
    neighborhood_size: 4
    filter_filler {
      type: "gaussian"
      std: 0.001
    }
    bias_term: true
    bias_filler {
      type: "constant"
      value: 0
    }
    group: 1
    norm_type: AFTER
    offset_type: NONE
  }
}
layer {
  name: "bn3"
  type: "BatchNorm"
  bottom: "conv3"
  top: "bn3"
}
layer {
  name: "relu3"
  type: "ReLU"
  bottom: "bn3"
  top: "bn3"
}
layer {
  name: "fconv3"
  type: "Convolution"
  bottom: "bn3"
  top: "fconv3"
  param {
    lr_mult: 0.5
  }
  param {
    lr_mult: 0.05
  }
  convolution_param {
    num_output: 3
    pad: 0
    kernel_size: 1
    stride: 1
    weight_filler {
      type: "xavier"
    }
    bias_filler {
      type: "constant"
      value: 0
    }
  }
}
layer {
  name: "fbn3"
  type: "BatchNorm"
  bottom: "fconv3"
  top: "fbn3"
}
layer {
  name: "frelu3"
  type: "ReLU"
  bottom: "fbn3"
  top: "fbn3"
}
layer {
  name: "data_lattice2"
  type: "Python"
  bottom: "data"
  top: "data_lattice2"
  python_param {
    module: "custom_layers"
    layer: "PickAndScale"
    param_str: "0*12_1*12_2*12"
  }
}
layer {
  name: "feat3"
  type: "Eltwise"
  bottom: "data_lattice2"
  bottom: "fbn3"
  top: "feat3"
  eltwise_param {
    operation: SUM
  }
}
layer {
  name: "conv4"
  type: "Permutohedral"
  bottom: "bn3"
  bottom: "feat3"
  bottom: "feat3"
  top: "conv4"
  param {
    lr_mult: 1
    decay_mult: 1
  }
  param {
    lr_mult: 2
    decay_mult: 0
  }
  permutohedral_param {
    num_output: 256
    neighborhood_size: 2
    filter_filler {
      type: "gaussian"
      std: 0.001
    }
    bias_term: true
    bias_filler {
      type: "constant"
      value: 0
    }
    group: 1
    norm_type: AFTER
    offset_type: NONE
  }
}
layer {
  name: "bn4"
  type: "BatchNorm"
  bottom: "conv4"
  top: "bn4"
}
layer {
  name: "relu4"
  type: "ReLU"
  bottom: "bn4"
  top: "bn4"
}
layer {
  name: "fconv4"
  type: "Convolution"
  bottom: "bn4"
  top: "fconv4"
  param {
    lr_mult: 0.5
  }
  param {
    lr_mult: 0.05
  }
  convolution_param {
    num_output: 3
    pad: 0
    kernel_size: 1
    stride: 1
    weight_filler {
      type: "xavier"
    }
    bias_filler {
      type: "constant"
      value: 0
    }
  }
}
layer {
  name: "fbn4"
  type: "BatchNorm"
  bottom: "fconv4"
  top: "fbn4"
}
layer {
  name: "frelu4"
  type: "ReLU"
  bottom: "fbn4"
  top: "fbn4"
}
layer {
  name: "data_lattice3"
  type: "Python"
  bottom: "data"
  top: "data_lattice3"
  python_param {
    module: "custom_layers"
    layer: "PickAndScale"
    param_str: "0*6_1*6_2*6"
  }
}
layer {
  name: "feat4"
  type: "Eltwise"
  bottom: "data_lattice3"
  bottom: "fbn4"
  top: "feat4"
  eltwise_param {
    operation: SUM
  }
}
layer {
  name: "conv5"
  type: "Permutohedral"
  bottom: "bn4"
  bottom: "feat4"
  bottom: "feat4"
  top: "conv5"
  param {
    lr_mult: 1
    decay_mult: 1
  }
  param {
    lr_mult: 2
    decay_mult: 0
  }
  permutohedral_param {
    num_output: 256
    neighborhood_size: 2
    filter_filler {
      type: "gaussian"
      std: 0.001
    }
    bias_term: true
    bias_filler {
      type: "constant"
      value: 0
    }
    group: 1
    norm_type: AFTER
    offset_type: NONE
  }
}
layer {
  name: "bn5"
  type: "BatchNorm"
  bottom: "conv5"
  top: "bn5"
}
layer {
  name: "relu5"
  type: "ReLU"
  bottom: "bn5"
  top: "bn5"
}
layer {
  name: "fconv5"
  type: "Convolution"
  bottom: "bn5"
  top: "fconv5"
  param {
    lr_mult: 0.5
  }
  param {
    lr_mult: 0.05
  }
  convolution_param {
    num_output: 3
    pad: 0
    kernel_size: 1
    stride: 1
    weight_filler {
      type: "xavier"
    }
    bias_filler {
      type: "constant"
      value: 0
    }
  }
}
layer {
  name: "fbn5"
  type: "BatchNorm"
  bottom: "fconv5"
  top: "fbn5"
}
layer {
  name: "frelu5"
  type: "ReLU"
  bottom: "fbn5"
  top: "fbn5"
}
layer {
  name: "data_lattice4"
  type: "Python"
  bottom: "data"
  top: "data_lattice4"
  python_param {
    module: "custom_layers"
    layer: "PickAndScale"
    param_str: "0*3_1*3_2*3"
  }
}
layer {
  name: "feat5"
  type: "Eltwise"
  bottom: "data_lattice4"
  bottom: "fbn5"
  top: "feat5"
  eltwise_param {
    operation: SUM
  }
}
layer {
  name: "conv6"
  type: "Permutohedral"
  bottom: "bn5"
  bottom: "feat5"
  bottom: "feat5"
  top: "conv6"
  param {
    lr_mult: 1
    decay_mult: 1
  }
  param {
    lr_mult: 2
    decay_mult: 0
  }
  permutohedral_param {
    num_output: 256
    neighborhood_size: 1
    filter_filler {
      type: "gaussian"
      std: 0.001
    }
    bias_term: true
    bias_filler {
      type: "constant"
      value: 0
    }
    group: 1
    norm_type: AFTER
    offset_type: NONE
  }
}
layer {
  name: "bn6"
  type: "BatchNorm"
  bottom: "conv6"
  top: "bn6"
}
layer {
  name: "relu6"
  type: "ReLU"
  bottom: "bn6"
  top: "bn6"
}
layer {
  name: "concat6"
  type: "Concat"
  bottom: "bn6"
  bottom: "bn2"
  bottom: "bn3"
  bottom: "bn4"
  bottom: "bn5"
  top: "concat6"
}
layer {
  name: "conv7"
  type: "Convolution"
  bottom: "concat6"
  top: "conv7"
  param {
    lr_mult: 1
  }
  param {
    lr_mult: 0.1
  }
  convolution_param {
    num_output: 128
    pad: 0
    kernel_size: 1
    stride: 1
    weight_filler {
      type: "xavier"
    }
    bias_filler {
      type: "constant"
      value: 0
    }
  }
}
layer {
  name: "bn7"
  type: "BatchNorm"
  bottom: "conv7"
  top: "bn7"
}
layer {
  name: "relu7"
  type: "ReLU"
  bottom: "bn7"
  top: "bn7"
}
layer {
  name: "conv8"
  type: "Convolution"
  bottom: "bn7"
  top: "conv8"
  param {
    lr_mult: 1
  }
  param {
    lr_mult: 0.1
  }
  convolution_param {
    num_output: 13
    pad: 0
    kernel_size: 1
    stride: 1
    weight_filler {
      type: "xavier"
    }
    bias_filler {
      type: "constant"
      value: 0
    }
  }
}
layer {
  name: "loss"
  type: "SoftmaxWithLoss"
  bottom: "conv8"
  bottom: "label"
  top: "loss"
}
layer {
  name: "accuracy"
  type: "Accuracy"
  bottom: "conv8"
  bottom: "label"
  top: "accuracy"
}
I0730 14:31:50.770277 14647 layer_factory.hpp:76] Creating layer data
I0730 14:31:50.800154 14647 net.cpp:98] Creating Layer data
I0730 14:31:50.802904 14647 net.cpp:398] data -> data
I0730 14:31:50.818759 14647 net.cpp:398] data -> label
I0730 14:31:50.818814 14647 net.cpp:133] Setting up data
Using network defined at area6_netm_sum4.prototxt
I0730 14:31:51.837918 14650 solver.cpp:68] Initializing solver from parameters: 
…
I0730 14:31:52.687233 14648 net.cpp:317] The NetState phase (0) differed from the phase (1) specified by a rule in layer data
I0730 14:31:52.687642 14648 net.cpp:50] Initializing net from parameters: 
state {
  phase: TRAIN
}
layer {
  name: "data"
  type: "Python"
  top: "data"
  top: "label"
  include {
    phase: TRAIN
  }
  python_param {
    module: "dataset_lidar"
    layer: "InputShapenet"
    param_str: "{\'sample_size\': 70000, \'test_area\': \'6\', \'batch_size\': 1, \'feat_dims\': \'x_y_z\', \'subset\': \'train\', \'root\': \'../../data/shapenet_ericyi_ply\', \'jitter_xyz\': 0.01, \'jitter_stretch\': 0.05, \'jitter_rotation\': 5.0}"
  }
}
layer {
  name: "data_feat"
  type: "Python"
  bottom: "data"
  top: "data_feat"
  python_param {
    module: "custom_layers"
    layer: "PickAndScale"
    param_str: "0_1_2"
  }
}
layer {
  name: "conv1"
  type: "Convolution"
  bottom: "data_feat"
  top: "conv1"
  param {
    lr_mult: 1
  }
  param {
    lr_mult: 0.1
  }
  convolution_param {
    num_output: 32
    pad: 0
    kernel_size: 1
    stride: 1
    weight_filler {
      type: "xavier"
    }
    bias_filler {
      type: "constant"
      value: 0
    }
  }
}
layer {
  name: "bn1"
  type: "BatchNorm"
  bottom: "conv1"
  top: "bn1"
}
layer {
  name: "relu1"
  type: "ReLU"
  bottom: "bn1"
  top: "bn1"
}
layer {
  name: "fconv1"
  type: "Convolution"
  bottom: "bn1"
  top: "fconv1"
  param {
    lr_mult: 0.5
  }
  param {
    lr_mult: 0.05
  }
  convolution_param {
    num_output: 3
    pad: 0
    kernel_size: 1
    stride: 1
    weight_filler {
      type: "xavier"
    }
    bias_filler {
      type: "constant"
      value: 0
    }
  }
}
layer {
  name: "fbn1"
  type: "BatchNorm"
  bottom: "fconv1"
  top: "fbn1"
}
layer {
  name: "frelu1"
  type: "ReLU"
  bottom: "fbn1"
  top: "fbn1"
}
layer {
  name: "data_lattice0"
  type: "Python"
  bottom: "data"
  top: "data_lattice0"
  python_param {
    module: "custom_layers"
    layer: "PickAndScale"
    param_str: "0*48_1*48_2*48"
  }
}
layer {
  name: "feat1"
  type: "Eltwise"
  bottom: "data_lattice0"
  bottom: "fbn1"
  top: "feat1"
  eltwise_param {
    operation: SUM
  }
}
layer {
  name: "conv2"
  type: "Permutohedral"
  bottom: "bn1"
  bottom: "feat1"
  bottom: "feat1"
  top: "conv2"
  param {
    lr_mult: 1
    decay_mult: 1
  }
  param {
    lr_mult: 2
    decay_mult: 0
  }
  permutohedral_param {
    num_output: 64
    neighborhood_size: 4
    filter_filler {
      type: "gaussian"
      std: 0.001
    }
    bias_term: true
    bias_filler {
      type: "constant"
      value: 0
    }
    group: 1
    norm_type: AFTER
    offset_type: NONE
  }
}
layer {
  name: "bn2"
  type: "BatchNorm"
  bottom: "conv2"
  top: "bn2"
}
layer {
  name: "relu2"
  type: "ReLU"
  bottom: "bn2"
  top: "bn2"
}
layer {
  name: "fconv2"
  type: "Convolution"
  bottom: "bn2"
  top: "fconv2"
  param {
    lr_mult: 0.5
  }
  param {
    lr_mult: 0.05
  }
  convolution_param {
    num_output: 3
    pad: 0
    kernel_size: 1
    stride: 1
    weight_filler {
      type: "xavier"
    }
    bias_filler {
      type: "constant"
      value: 0
    }
  }
}
layer {
  name: "fbn2"
  type: "BatchNorm"
  bottom: "fconv2"
  top: "fbn2"
}
layer {
  name: "frelu2"
  type: "ReLU"
  bottom: "fbn2"
  top: "fbn2"
}
layer {
  name: "data_lattice1"
  type: "Python"
  bottom: "data"
  top: "data_lattice1"
  python_param {
    module: "custom_layers"
    layer: "PickAndScale"
    param_str: "0*24_1*24_2*24"
  }
}
layer {
  name: "feat2"
  type: "Eltwise"
  bottom: "data_lattice1"
  bottom: "fbn2"
  top: "feat2"
  eltwise_param {
    operation: SUM
  }
}
layer {
  name: "conv3"
  type: "Permutohedral"
  bottom: "bn2"
  bottom: "feat2"
  bottom: "feat2"
  top: "conv3"
  param {
    lr_mult: 1
    decay_mult: 1
  }
  param {
    lr_mult: 2
    decay_mult: 0
  }
  permutohedral_param {
    num_output: 128
    neighborhood_size: 4
    filter_filler {
      type: "gaussian"
      std: 0.001
    }
    bias_term: true
    bias_filler {
      type: "constant"
      value: 0
    }
    group: 1
    norm_type: AFTER
    offset_type: NONE
  }
}
layer {
  name: "bn3"
  type: "BatchNorm"
  bottom: "conv3"
  top: "bn3"
}
layer {
  name: "relu3"
  type: "ReLU"
  bottom: "bn3"
  top: "bn3"
}
layer {
  name: "fconv3"
  type: "Convolution"
  bottom: "bn3"
  top: "fconv3"
  param {
    lr_mult: 0.5
  }
  param {
    lr_mult: 0.05
  }
  convolution_param {
    num_output: 3
    pad: 0
    kernel_size: 1
    stride: 1
    weight_filler {
      type: "xavier"
    }
    bias_filler {
      type: "constant"
      value: 0
    }
  }
}
layer {
  name: "fbn3"
  type: "BatchNorm"
  bottom: "fconv3"
  top: "fbn3"
}
layer {
  name: "frelu3"
  type: "ReLU"
  bottom: "fbn3"
  top: "fbn3"
}
layer {
  name: "data_lattice2"
  type: "Python"
  bottom: "data"
  top: "data_lattice2"
  python_param {
    module: "custom_layers"
    layer: "PickAndScale"
    param_str: "0*12_1*12_2*12"
  }
}
layer {
  name: "feat3"
  type: "Eltwise"
  bottom: "data_lattice2"
  bottom: "fbn3"
  top: "feat3"
  eltwise_param {
    operation: SUM
  }
}
layer {
  name: "conv4"
  type: "Permutohedral"
  bottom: "bn3"
  bottom: "feat3"
  bottom: "feat3"
  top: "conv4"
  param {
    lr_mult: 1
    decay_mult: 1
  }
  param {
    lr_mult: 2
    decay_mult: 0
  }
  permutohedral_param {
    num_output: 256
    neighborhood_size: 2
    filter_filler {
      type: "gaussian"
      std: 0.001
    }
    bias_term: true
    bias_filler {
      type: "constant"
      value: 0
    }
    group: 1
    norm_type: AFTER
    offset_type: NONE
  }
}
layer {
  name: "bn4"
  type: "BatchNorm"
  bottom: "conv4"
  top: "bn4"
}
layer {
  name: "relu4"
  type: "ReLU"
  bottom: "bn4"
  top: "bn4"
}
layer {
  name: "fconv4"
  type: "Convolution"
  bottom: "bn4"
  top: "fconv4"
  param {
    lr_mult: 0.5
  }
  param {
    lr_mult: 0.05
  }
  convolution_param {
    num_output: 3
    pad: 0
    kernel_size: 1
    stride: 1
    weight_filler {
      type: "xavier"
    }
    bias_filler {
      type: "constant"
      value: 0
    }
  }
}
layer {
  name: "fbn4"
  type: "BatchNorm"
  bottom: "fconv4"
  top: "fbn4"
}
layer {
  name: "frelu4"
  type: "ReLU"
  bottom: "fbn4"
  top: "fbn4"
}
layer {
  name: "data_lattice3"
  type: "Python"
  bottom: "data"
  top: "data_lattice3"
  python_param {
    module: "custom_layers"
    layer: "PickAndScale"
    param_str: "0*6_1*6_2*6"
  }
}
layer {
  name: "feat4"
  type: "Eltwise"
  bottom: "data_lattice3"
  bottom: "fbn4"
  top: "feat4"
  eltwise_param {
    operation: SUM
  }
}
layer {
  name: "conv5"
  type: "Permutohedral"
  bottom: "bn4"
  bottom: "feat4"
  bottom: "feat4"
  top: "conv5"
  param {
    lr_mult: 1
    decay_mult: 1
  }
  param {
    lr_mult: 2
    decay_mult: 0
  }
  permutohedral_param {
    num_output: 256
    neighborhood_size: 2
    filter_filler {
      type: "gaussian"
      std: 0.001
    }
    bias_term: true
    bias_filler {
      type: "constant"
      value: 0
    }
    group: 1
    norm_type: AFTER
    offset_type: NONE
  }
}
layer {
  name: "bn5"
  type: "BatchNorm"
  bottom: "conv5"
  top: "bn5"
}
layer {
  name: "relu5"
  type: "ReLU"
  bottom: "bn5"
  top: "bn5"
}
layer {
  name: "fconv5"
  type: "Convolution"
  bottom: "bn5"
  top: "fconv5"
  param {
    lr_mult: 0.5
  }
  param {
    lr_mult: 0.05
  }
  convolution_param {
    num_output: 3
    pad: 0
    kernel_size: 1
    stride: 1
    weight_filler {
      type: "xavier"
    }
    bias_filler {
      type: "constant"
      value: 0
    }
  }
}
layer {
  name: "fbn5"
  type: "BatchNorm"
  bottom: "fconv5"
  top: "fbn5"
}
layer {
  name: "frelu5"
  type: "ReLU"
  bottom: "fbn5"
  top: "fbn5"
}
layer {
  name: "data_lattice4"
  type: "Python"
  bottom: "data"
  top: "data_lattice4"
  python_param {
    module: "custom_layers"
    layer: "PickAndScale"
    param_str: "0*3_1*3_2*3"
  }
}
layer {
  name: "feat5"
  type: "Eltwise"
  bottom: "data_lattice4"
  bottom: "fbn5"
  top: "feat5"
  eltwise_param {
    operation: SUM
  }
}
layer {
  name: "conv6"
  type: "Permutohedral"
  bottom: "bn5"
  bottom: "feat5"
  bottom: "feat5"
  top: "conv6"
  param {
    lr_mult: 1
    decay_mult: 1
  }
  param {
    lr_mult: 2
    decay_mult: 0
  }
  permutohedral_param {
    num_output: 256
    neighborhood_size: 1
    filter_filler {
      type: "gaussian"
      std: 0.001
    }
    bias_term: true
    bias_filler {
      type: "constant"
      value: 0
    }
    group: 1
    norm_type: AFTER
    offset_type: NONE
  }
}
layer {
  name: "bn6"
  type: "BatchNorm"
  bottom: "conv6"
  top: "bn6"
}
layer {
  name: "relu6"
  type: "ReLU"
  bottom: "bn6"
  top: "bn6"
}
layer {
  name: "concat6"
  type: "Concat"
  bottom: "bn6"
  bottom: "bn2"
  bottom: "bn3"
  bottom: "bn4"
  bottom: "bn5"
  top: "concat6"
}
layer {
  name: "conv7"
  type: "Convolution"
  bottom: "concat6"
  top: "conv7"
  param {
    lr_mult: 1
  }
  param {
    lr_mult: 0.1
  }
  convolution_param {
    num_output: 128
    pad: 0
    kernel_size: 1
    stride: 1
    weight_filler {
      type: "xavier"
    }
    bias_filler {
      type: "constant"
      value: 0
    }
  }
}
layer {
  name: "bn7"
  type: "BatchNorm"
  bottom: "conv7"
  top: "bn7"
}
layer {
  name: "relu7"
  type: "ReLU"
  bottom: "bn7"
  top: "bn7"
}
layer {
  name: "conv8"
  type: "Convolution"
  bottom: "bn7"
  top: "conv8"
  param {
    lr_mult: 1
  }
  param {
    lr_mult: 0.1
  }
  convolution_param {
    num_output: 13
    pad: 0
    kernel_size: 1
    stride: 1
    weight_filler {
      type: "xavier"
    }
    bias_filler {
      type: "constant"
      value: 0
    }
  }
}
layer {
  name: "loss"
  type: "SoftmaxWithLoss"
  bottom: "conv8"
  bottom: "label"
  top: "loss"
}
layer {
  name: "accuracy"
  type: "Accuracy"
  bottom: "conv8"
  bottom: "label"
  top: "accuracy"
}
I0730 14:31:52.688053 14648 layer_factory.hpp:76] Creating layer data
I0730 14:31:52.692409 14648 net.cpp:98] Creating Layer data
I0730 14:31:52.692442 14648 net.cpp:398] data -> data
I0730 14:31:52.692495 14648 net.cpp:398] data -> label
I0730 14:31:52.692504 14648 net.cpp:133] Setting up data
I0730 14:41:04.599129 14650 net.cpp:140] Top shape: 1 3 1 70000 (210000)
I0730 14:41:04.620704 14650 net.cpp:140] Top shape: 1 1 1 70000 (70000)
I0730 14:41:04.684516 14650 layer_factory.hpp:76] Creating layer data_data_0_split
I0730 14:41:04.801359 14650 net.cpp:98] Creating Layer data_data_0_split
I0730 14:41:04.802922 14650 net.cpp:443] data_data_0_split <- data
I0730 14:41:04.809614 14650 net.cpp:398] data_data_0_split -> data_data_0_split_0
I0730 14:41:04.871706 14650 net.cpp:398] data_data_0_split -> data_data_0_split_1
I0730 14:41:04.871748 14650 net.cpp:398] data_data_0_split -> data_data_0_split_2
I0730 14:41:04.871765 14650 net.cpp:398] data_data_0_split -> data_data_0_split_3
I0730 14:41:04.871778 14650 net.cpp:398] data_data_0_split -> data_data_0_split_4
I0730 14:41:04.871791 14650 net.cpp:398] data_data_0_split -> data_data_0_split_5
I0730 14:41:04.871803 14650 net.cpp:133] Setting up data_data_0_split
I0730 14:41:04.897788 14650 net.cpp:140] Top shape: 1 3 1 70000 (210000)
I0730 14:41:04.897819 14650 net.cpp:140] Top shape: 1 3 1 70000 (210000)
I0730 14:41:04.897830 14650 net.cpp:140] Top shape: 1 3 1 70000 (210000)
I0730 14:41:04.897838 14650 net.cpp:140] Top shape: 1 3 1 70000 (210000)
I0730 14:41:04.897850 14650 net.cpp:140] Top shape: 1 3 1 70000 (210000)
I0730 14:41:04.897857 14650 net.cpp:140] Top shape: 1 3 1 70000 (210000)
I0730 14:41:04.897871 14650 layer_factory.hpp:76] Creating layer label_data_1_split
I0730 14:41:04.897891 14650 net.cpp:98] Creating Layer label_data_1_split
I0730 14:41:04.897899 14650 net.cpp:443] label_data_1_split <- label
I0730 14:41:04.897912 14650 net.cpp:398] label_data_1_split -> label_data_1_split_0
I0730 14:41:04.897930 14650 net.cpp:398] label_data_1_split -> label_data_1_split_1
I0730 14:41:04.897943 14650 net.cpp:133] Setting up label_data_1_split
I0730 14:41:04.897958 14650 net.cpp:140] Top shape: 1 1 1 70000 (70000)
I0730 14:41:04.897967 14650 net.cpp:140] Top shape: 1 1 1 70000 (70000)
I0730 14:41:04.897975 14650 layer_factory.hpp:76] Creating layer data_feat
I0730 14:41:04.990624 14650 net.cpp:98] Creating Layer data_feat
I0730 14:41:04.990655 14650 net.cpp:443] data_feat <- data_data_0_split_0
I0730 14:41:04.990672 14650 net.cpp:398] data_feat -> data_feat
I0730 14:41:04.990689 14650 net.cpp:133] Setting up data_feat
I0730 14:41:04.992606 14650 net.cpp:140] Top shape: 1 3 1 70000 (210000)
I0730 14:41:04.992636 14650 layer_factory.hpp:76] Creating layer conv1
I0730 14:41:05.010097 14650 net.cpp:98] Creating Layer conv1
I0730 14:41:05.010129 14650 net.cpp:443] conv1 <- data_feat
I0730 14:41:05.010149 14650 net.cpp:398] conv1 -> conv1
I0730 14:41:05.011214 14650 net.cpp:133] Setting up conv1
I0730 14:41:06.099123 14649 net.cpp:140] Top shape: 1 3 1 70000 (210000)
I0730 14:41:06.099198 14649 net.cpp:140] Top shape: 1 1 1 70000 (70000)
I0730 14:41:06.099293 14649 layer_factory.hpp:76] Creating layer data_data_0_split
I0730 14:41:06.099462 14649 net.cpp:98] Creating Layer data_data_0_split
I0730 14:41:06.099488 14649 net.cpp:443] data_data_0_split <- data
I0730 14:41:06.099524 14649 net.cpp:398] data_data_0_split -> data_data_0_split_0
I0730 14:41:06.099599 14649 net.cpp:398] data_data_0_split -> data_data_0_split_1
I0730 14:41:06.099611 14649 net.cpp:398] data_data_0_split -> data_data_0_split_2
I0730 14:41:06.099617 14649 net.cpp:398] data_data_0_split -> data_data_0_split_3
I0730 14:41:06.099622 14649 net.cpp:398] data_data_0_split -> data_data_0_split_4
I0730 14:41:06.099627 14649 net.cpp:398] data_data_0_split -> data_data_0_split_5
I0730 14:41:06.099632 14649 net.cpp:133] Setting up data_data_0_split
I0730 14:41:06.099666 14649 net.cpp:140] Top shape: 1 3 1 70000 (210000)
I0730 14:41:06.099673 14649 net.cpp:140] Top shape: 1 3 1 70000 (210000)
I0730 14:41:06.099676 14649 net.cpp:140] Top shape: 1 3 1 70000 (210000)
I0730 14:41:06.099679 14649 net.cpp:140] Top shape: 1 3 1 70000 (210000)
I0730 14:41:06.099683 14649 net.cpp:140] Top shape: 1 3 1 70000 (210000)
I0730 14:41:06.099685 14649 net.cpp:140] Top shape: 1 3 1 70000 (210000)
I0730 14:41:06.099689 14649 layer_factory.hpp:76] Creating layer label_data_1_split
I0730 14:41:06.099697 14649 net.cpp:98] Creating Layer label_data_1_split
I0730 14:41:06.099702 14649 net.cpp:443] label_data_1_split <- label
I0730 14:41:06.099707 14649 net.cpp:398] label_data_1_split -> label_data_1_split_0
I0730 14:41:06.099714 14649 net.cpp:398] label_data_1_split -> label_data_1_split_1
I0730 14:41:06.099719 14649 net.cpp:133] Setting up label_data_1_split
I0730 14:41:06.099723 14649 net.cpp:140] Top shape: 1 1 1 70000 (70000)
I0730 14:41:06.099727 14649 net.cpp:140] Top shape: 1 1 1 70000 (70000)
I0730 14:41:06.099730 14649 layer_factory.hpp:76] Creating layer data_feat
I0730 14:41:06.103271 14649 net.cpp:98] Creating Layer data_feat
I0730 14:41:06.103283 14649 net.cpp:443] data_feat <- data_data_0_split_0
I0730 14:41:06.103302 14649 net.cpp:398] data_feat -> data_feat
I0730 14:41:06.103309 14649 net.cpp:133] Setting up data_feat
I0730 14:41:06.103510 14649 net.cpp:140] Top shape: 1 3 1 70000 (210000)
I0730 14:41:06.103523 14649 layer_factory.hpp:76] Creating layer conv1
I0730 14:41:06.103610 14649 net.cpp:98] Creating Layer conv1
I0730 14:41:06.103694 14649 net.cpp:443] conv1 <- data_feat
I0730 14:41:06.103701 14649 net.cpp:398] conv1 -> conv1
I0730 14:41:06.103725 14649 net.cpp:133] Setting up conv1
I0730 14:41:06.164119 14648 net.cpp:140] Top shape: 1 3 1 70000 (210000)
I0730 14:41:06.164185 14648 net.cpp:140] Top shape: 1 1 1 70000 (70000)
I0730 14:41:06.164288 14648 layer_factory.hpp:76] Creating layer data_data_0_split
I0730 14:41:06.164433 14648 net.cpp:98] Creating Layer data_data_0_split
I0730 14:41:06.164458 14648 net.cpp:443] data_data_0_split <- data
I0730 14:41:06.164500 14648 net.cpp:398] data_data_0_split -> data_data_0_split_0
I0730 14:41:06.164579 14648 net.cpp:398] data_data_0_split -> data_data_0_split_1
I0730 14:41:06.164590 14648 net.cpp:398] data_data_0_split -> data_data_0_split_2
I0730 14:41:06.164597 14648 net.cpp:398] data_data_0_split -> data_data_0_split_3
I0730 14:41:06.164602 14648 net.cpp:398] data_data_0_split -> data_data_0_split_4
I0730 14:41:06.164608 14648 net.cpp:398] data_data_0_split -> data_data_0_split_5
I0730 14:41:06.164613 14648 net.cpp:133] Setting up data_data_0_split
I0730 14:41:06.164645 14648 net.cpp:140] Top shape: 1 3 1 70000 (210000)
I0730 14:41:06.164651 14648 net.cpp:140] Top shape: 1 3 1 70000 (210000)
I0730 14:41:06.164655 14648 net.cpp:140] Top shape: 1 3 1 70000 (210000)
I0730 14:41:06.164659 14648 net.cpp:140] Top shape: 1 3 1 70000 (210000)
I0730 14:41:06.164662 14648 net.cpp:140] Top shape: 1 3 1 70000 (210000)
I0730 14:41:06.164665 14648 net.cpp:140] Top shape: 1 3 1 70000 (210000)
I0730 14:41:06.164669 14648 layer_factory.hpp:76] Creating layer label_data_1_split
I0730 14:41:06.164697 14648 net.cpp:98] Creating Layer label_data_1_split
I0730 14:41:06.164701 14648 net.cpp:443] label_data_1_split <- label
I0730 14:41:06.164706 14648 net.cpp:398] label_data_1_split -> label_data_1_split_0
I0730 14:41:06.164712 14648 net.cpp:398] label_data_1_split -> label_data_1_split_1
I0730 14:41:06.164717 14648 net.cpp:133] Setting up label_data_1_split
I0730 14:41:06.164723 14648 net.cpp:140] Top shape: 1 1 1 70000 (70000)
I0730 14:41:06.164726 14648 net.cpp:140] Top shape: 1 1 1 70000 (70000)
I0730 14:41:06.164729 14648 layer_factory.hpp:76] Creating layer data_feat
I0730 14:41:06.167743 14648 net.cpp:98] Creating Layer data_feat
I0730 14:41:06.167757 14648 net.cpp:443] data_feat <- data_data_0_split_0
I0730 14:41:06.167775 14648 net.cpp:398] data_feat -> data_feat
I0730 14:41:06.167781 14648 net.cpp:133] Setting up data_feat
I0730 14:41:06.167955 14648 net.cpp:140] Top shape: 1 3 1 70000 (210000)
I0730 14:41:06.167965 14648 layer_factory.hpp:76] Creating layer conv1
I0730 14:41:06.168018 14648 net.cpp:98] Creating Layer conv1
I0730 14:41:06.168026 14648 net.cpp:443] conv1 <- data_feat
I0730 14:41:06.168032 14648 net.cpp:398] conv1 -> conv1
I0730 14:41:06.168057 14648 net.cpp:133] Setting up conv1
I0730 14:41:06.200008 14647 net.cpp:140] Top shape: 1 3 1 70000 (210000)
I0730 14:41:06.200076 14647 net.cpp:140] Top shape: 1 1 1 70000 (70000)
I0730 14:41:06.200171 14647 layer_factory.hpp:76] Creating layer data_data_0_split
I0730 14:41:06.200315 14647 net.cpp:98] Creating Layer data_data_0_split
I0730 14:41:06.200336 14647 net.cpp:443] data_data_0_split <- data
I0730 14:41:06.200381 14647 net.cpp:398] data_data_0_split -> data_data_0_split_0
I0730 14:41:06.200450 14647 net.cpp:398] data_data_0_split -> data_data_0_split_1
I0730 14:41:06.200460 14647 net.cpp:398] data_data_0_split -> data_data_0_split_2
I0730 14:41:06.200466 14647 net.cpp:398] data_data_0_split -> data_data_0_split_3
I0730 14:41:06.200471 14647 net.cpp:398] data_data_0_split -> data_data_0_split_4
I0730 14:41:06.200476 14647 net.cpp:398] data_data_0_split -> data_data_0_split_5
I0730 14:41:06.200481 14647 net.cpp:133] Setting up data_data_0_split
I0730 14:41:06.200513 14647 net.cpp:140] Top shape: 1 3 1 70000 (210000)
I0730 14:41:06.200521 14647 net.cpp:140] Top shape: 1 3 1 70000 (210000)
I0730 14:41:06.200525 14647 net.cpp:140] Top shape: 1 3 1 70000 (210000)
I0730 14:41:06.200528 14647 net.cpp:140] Top shape: 1 3 1 70000 (210000)
I0730 14:41:06.200531 14647 net.cpp:140] Top shape: 1 3 1 70000 (210000)
I0730 14:41:06.200536 14647 net.cpp:140] Top shape: 1 3 1 70000 (210000)
I0730 14:41:06.200543 14647 layer_factory.hpp:76] Creating layer label_data_1_split
I0730 14:41:06.200561 14647 net.cpp:98] Creating Layer label_data_1_split
I0730 14:41:06.200564 14647 net.cpp:443] label_data_1_split <- label
I0730 14:41:06.200569 14647 net.cpp:398] label_data_1_split -> label_data_1_split_0
I0730 14:41:06.200574 14647 net.cpp:398] label_data_1_split -> label_data_1_split_1
I0730 14:41:06.200579 14647 net.cpp:133] Setting up label_data_1_split
I0730 14:41:06.200584 14647 net.cpp:140] Top shape: 1 1 1 70000 (70000)
I0730 14:41:06.200588 14647 net.cpp:140] Top shape: 1 1 1 70000 (70000)
I0730 14:41:06.200592 14647 layer_factory.hpp:76] Creating layer data_feat
I0730 14:41:06.203641 14647 net.cpp:98] Creating Layer data_feat
I0730 14:41:06.203655 14647 net.cpp:443] data_feat <- data_data_0_split_0
I0730 14:41:06.203672 14647 net.cpp:398] data_feat -> data_feat
I0730 14:41:06.203680 14647 net.cpp:133] Setting up data_feat
I0730 14:41:06.203858 14647 net.cpp:140] Top shape: 1 3 1 70000 (210000)
I0730 14:41:06.203869 14647 layer_factory.hpp:76] Creating layer conv1
I0730 14:41:06.203929 14647 net.cpp:98] Creating Layer conv1
I0730 14:41:06.203938 14647 net.cpp:443] conv1 <- data_feat
I0730 14:41:06.203945 14647 net.cpp:398] conv1 -> conv1
I0730 14:41:06.203969 14647 net.cpp:133] Setting up conv1
I0730 14:41:07.806459 14650 net.cpp:140] Top shape: 1 32 1 70000 (2240000)
I0730 14:41:07.806630 14649 net.cpp:140] Top shape: 1 32 1 70000 (2240000)
I0730 14:41:07.841091 14649 layer_factory.hpp:76] Creating layer bn1
I0730 14:41:07.841107 14650 layer_factory.hpp:76] Creating layer bn1
I0730 14:41:07.841677 14649 net.cpp:98] Creating Layer bn1
I0730 14:41:07.841706 14649 net.cpp:443] bn1 <- conv1
I0730 14:41:07.841703 14650 net.cpp:98] Creating Layer bn1
I0730 14:41:07.841727 14650 net.cpp:443] bn1 <- conv1
I0730 14:41:07.841725 14649 net.cpp:398] bn1 -> bn1
I0730 14:41:07.841745 14649 net.cpp:133] Setting up bn1
I0730 14:41:07.841738 14650 net.cpp:398] bn1 -> bn1
I0730 14:41:07.841751 14650 net.cpp:133] Setting up bn1
I0730 14:41:07.844324 14649 net.cpp:140] Top shape: 1 32 1 70000 (2240000)
I0730 14:41:07.844367 14649 layer_factory.hpp:76] Creating layer relu1
I0730 14:41:07.844333 14650 net.cpp:140] Top shape: 1 32 1 70000 (2240000)
I0730 14:41:07.844372 14650 layer_factory.hpp:76] Creating layer relu1
I0730 14:41:07.844422 14649 net.cpp:98] Creating Layer relu1
I0730 14:41:07.844434 14649 net.cpp:443] relu1 <- bn1
I0730 14:41:07.844432 14650 net.cpp:98] Creating Layer relu1
I0730 14:41:07.844444 14650 net.cpp:443] relu1 <- bn1
I0730 14:41:07.844447 14649 net.cpp:387] relu1 -> bn1 (in-place)
I0730 14:41:07.844460 14649 net.cpp:133] Setting up relu1
I0730 14:41:07.844457 14650 net.cpp:387] relu1 -> bn1 (in-place)
I0730 14:41:07.844471 14650 net.cpp:133] Setting up relu1
I0730 14:41:07.845983 14649 net.cpp:140] Top shape: 1 32 1 70000 (2240000)
I0730 14:41:07.846006 14649 layer_factory.hpp:76] Creating layer bn1_relu1_0_split
I0730 14:41:07.845988 14650 net.cpp:140] Top shape: 1 32 1 70000 (2240000)
I0730 14:41:07.846004 14650 layer_factory.hpp:76] Creating layer bn1_relu1_0_split
I0730 14:41:07.846025 14649 net.cpp:98] Creating Layer bn1_relu1_0_split
I0730 14:41:07.846033 14649 net.cpp:443] bn1_relu1_0_split <- bn1
I0730 14:41:07.846022 14650 net.cpp:98] Creating Layer bn1_relu1_0_split
I0730 14:41:07.846029 14650 net.cpp:443] bn1_relu1_0_split <- bn1
I0730 14:41:07.846035 14650 net.cpp:398] bn1_relu1_0_split -> bn1_relu1_0_split_0
I0730 14:41:07.846043 14650 net.cpp:398] bn1_relu1_0_split -> bn1_relu1_0_split_1
I0730 14:41:07.846046 14649 net.cpp:398] bn1_relu1_0_split -> bn1_relu1_0_split_0
I0730 14:41:07.846062 14649 net.cpp:398] bn1_relu1_0_split -> bn1_relu1_0_split_1
I0730 14:41:07.846050 14650 net.cpp:133] Setting up bn1_relu1_0_split
I0730 14:41:07.846058 14650 net.cpp:140] Top shape: 1 32 1 70000 (2240000)
I0730 14:41:07.846074 14649 net.cpp:133] Setting up bn1_relu1_0_split
I0730 14:41:07.846088 14649 net.cpp:140] Top shape: 1 32 1 70000 (2240000)
I0730 14:41:07.846079 14650 net.cpp:140] Top shape: 1 32 1 70000 (2240000)
I0730 14:41:07.846087 14650 layer_factory.hpp:76] Creating layer fconv1
I0730 14:41:07.846097 14649 net.cpp:140] Top shape: 1 32 1 70000 (2240000)
I0730 14:41:07.846104 14649 layer_factory.hpp:76] Creating layer fconv1
I0730 14:41:07.846122 14649 net.cpp:98] Creating Layer fconv1
I0730 14:41:07.846130 14649 net.cpp:443] fconv1 <- bn1_relu1_0_split_0
I0730 14:41:07.846113 14650 net.cpp:98] Creating Layer fconv1
I0730 14:41:07.846122 14650 net.cpp:443] fconv1 <- bn1_relu1_0_split_0
I0730 14:41:07.846137 14650 net.cpp:398] fconv1 -> fconv1
I0730 14:41:07.846145 14649 net.cpp:398] fconv1 -> fconv1
I0730 14:41:07.846160 14649 net.cpp:133] Setting up fconv1
I0730 14:41:07.846153 14650 net.cpp:133] Setting up fconv1
I0730 14:41:08.232117 14647 net.cpp:140] Top shape: 1 32 1 70000 (2240000)
I0730 14:41:08.232201 14647 layer_factory.hpp:76] Creating layer bn1
I0730 14:41:08.232225 14647 net.cpp:98] Creating Layer bn1
I0730 14:41:08.232231 14647 net.cpp:443] bn1 <- conv1
I0730 14:41:08.232239 14647 net.cpp:398] bn1 -> bn1
I0730 14:41:08.232249 14647 net.cpp:133] Setting up bn1
I0730 14:41:08.232342 14647 net.cpp:140] Top shape: 1 32 1 70000 (2240000)
I0730 14:41:08.232357 14647 layer_factory.hpp:76] Creating layer relu1
I0730 14:41:08.232374 14647 net.cpp:98] Creating Layer relu1
I0730 14:41:08.232379 14647 net.cpp:443] relu1 <- bn1
I0730 14:41:08.232383 14647 net.cpp:387] relu1 -> bn1 (in-place)
I0730 14:41:08.232389 14647 net.cpp:133] Setting up relu1
I0730 14:41:08.232569 14647 net.cpp:140] Top shape: 1 32 1 70000 (2240000)
I0730 14:41:08.232579 14647 layer_factory.hpp:76] Creating layer bn1_relu1_0_split
I0730 14:41:08.232594 14647 net.cpp:98] Creating Layer bn1_relu1_0_split
I0730 14:41:08.232597 14647 net.cpp:443] bn1_relu1_0_split <- bn1
I0730 14:41:08.232602 14647 net.cpp:398] bn1_relu1_0_split -> bn1_relu1_0_split_0
I0730 14:41:08.232609 14647 net.cpp:398] bn1_relu1_0_split -> bn1_relu1_0_split_1
I0730 14:41:08.232614 14647 net.cpp:133] Setting up bn1_relu1_0_split
I0730 14:41:08.232620 14647 net.cpp:140] Top shape: 1 32 1 70000 (2240000)
I0730 14:41:08.232625 14647 net.cpp:140] Top shape: 1 32 1 70000 (2240000)
I0730 14:41:08.232627 14647 layer_factory.hpp:76] Creating layer fconv1
I0730 14:41:08.232637 14647 net.cpp:98] Creating Layer fconv1
I0730 14:41:08.232640 14647 net.cpp:443] fconv1 <- bn1_relu1_0_split_0
I0730 14:41:08.232646 14647 net.cpp:398] fconv1 -> fconv1
I0730 14:41:08.232653 14647 net.cpp:133] Setting up fconv1
I0730 14:41:08.236121 14647 net.cpp:140] Top shape: 1 3 1 70000 (210000)
I0730 14:41:08.236136 14647 layer_factory.hpp:76] Creating layer fbn1
I0730 14:41:08.236155 14647 net.cpp:98] Creating Layer fbn1
I0730 14:41:08.236160 14647 net.cpp:443] fbn1 <- fconv1
I0730 14:41:08.236166 14647 net.cpp:398] fbn1 -> fbn1
I0730 14:41:08.236173 14647 net.cpp:133] Setting up fbn1
I0730 14:41:08.236222 14647 net.cpp:140] Top shape: 1 3 1 70000 (210000)
I0730 14:41:08.236243 14647 layer_factory.hpp:76] Creating layer frelu1
I0730 14:41:08.236253 14647 net.cpp:98] Creating Layer frelu1
I0730 14:41:08.236258 14647 net.cpp:443] frelu1 <- fbn1
I0730 14:41:08.236263 14647 net.cpp:387] frelu1 -> fbn1 (in-place)
I0730 14:41:08.236268 14647 net.cpp:133] Setting up frelu1
I0730 14:41:08.236434 14647 net.cpp:140] Top shape: 1 3 1 70000 (210000)
I0730 14:41:08.236443 14647 layer_factory.hpp:76] Creating layer data_lattice0
I0730 14:41:08.236515 14647 net.cpp:98] Creating Layer data_lattice0
I0730 14:41:08.236521 14647 net.cpp:443] data_lattice0 <- data_data_0_split_1
I0730 14:41:08.236527 14647 net.cpp:398] data_lattice0 -> data_lattice0
I0730 14:41:08.236533 14647 net.cpp:133] Setting up data_lattice0
I0730 14:41:08.236717 14647 net.cpp:140] Top shape: 1 3 1 70000 (210000)
I0730 14:41:08.236726 14647 layer_factory.hpp:76] Creating layer feat1
I0730 14:41:08.237258 14649 net.cpp:140] Top shape: 1 3 1 70000 (210000)
I0730 14:41:08.237290 14649 layer_factory.hpp:76] Creating layer fbn1
I0730 14:41:08.237303 14649 net.cpp:98] Creating Layer fbn1
I0730 14:41:08.237308 14649 net.cpp:443] fbn1 <- fconv1
I0730 14:41:08.237290 14650 net.cpp:140] Top shape: 1 3 1 70000 (210000)
I0730 14:41:08.237308 14650 layer_factory.hpp:76] Creating layer fbn1
I0730 14:41:08.237319 14650 net.cpp:98] Creating Layer fbn1
I0730 14:41:08.237325 14650 net.cpp:443] fbn1 <- fconv1
I0730 14:41:08.237314 14649 net.cpp:398] fbn1 -> fbn1
I0730 14:41:08.237323 14649 net.cpp:133] Setting up fbn1
I0730 14:41:08.237331 14650 net.cpp:398] fbn1 -> fbn1
I0730 14:41:08.237341 14650 net.cpp:133] Setting up fbn1
I0730 14:41:08.237378 14649 net.cpp:140] Top shape: 1 3 1 70000 (210000)
I0730 14:41:08.237401 14649 layer_factory.hpp:76] Creating layer frelu1
I0730 14:41:08.237403 14650 net.cpp:140] Top shape: 1 3 1 70000 (210000)
I0730 14:41:08.237408 14649 net.cpp:98] Creating Layer frelu1
I0730 14:41:08.237412 14649 net.cpp:443] frelu1 <- fbn1
I0730 14:41:08.237417 14649 net.cpp:387] frelu1 -> fbn1 (in-place)
I0730 14:41:08.237421 14649 net.cpp:133] Setting up frelu1
I0730 14:41:08.237416 14650 layer_factory.hpp:76] Creating layer frelu1
I0730 14:41:08.237424 14650 net.cpp:98] Creating Layer frelu1
I0730 14:41:08.237428 14650 net.cpp:443] frelu1 <- fbn1
I0730 14:41:08.237433 14650 net.cpp:387] frelu1 -> fbn1 (in-place)
I0730 14:41:08.237440 14650 net.cpp:133] Setting up frelu1
I0730 14:41:08.237594 14649 net.cpp:140] Top shape: 1 3 1 70000 (210000)
I0730 14:41:08.237603 14649 layer_factory.hpp:76] Creating layer data_lattice0
I0730 14:41:08.237648 14649 net.cpp:98] Creating Layer data_lattice0
I0730 14:41:08.237654 14649 net.cpp:443] data_lattice0 <- data_data_0_split_1
I0730 14:41:08.237644 14650 net.cpp:140] Top shape: 1 3 1 70000 (210000)
I0730 14:41:08.237658 14650 layer_factory.hpp:76] Creating layer data_lattice0
I0730 14:41:08.237661 14649 net.cpp:398] data_lattice0 -> data_lattice0
I0730 14:41:08.237668 14649 net.cpp:133] Setting up data_lattice0
I0730 14:41:08.237771 14650 net.cpp:98] Creating Layer data_lattice0
I0730 14:41:08.237779 14650 net.cpp:443] data_lattice0 <- data_data_0_split_1
I0730 14:41:08.237787 14650 net.cpp:398] data_lattice0 -> data_lattice0
I0730 14:41:08.237797 14650 net.cpp:133] Setting up data_lattice0
I0730 14:41:08.237825 14649 net.cpp:140] Top shape: 1 3 1 70000 (210000)
I0730 14:41:08.237839 14649 layer_factory.hpp:76] Creating layer feat1
I0730 14:41:08.238044 14650 net.cpp:140] Top shape: 1 3 1 70000 (210000)
I0730 14:41:08.238056 14650 layer_factory.hpp:76] Creating layer feat1
I0730 14:41:08.247997 14647 net.cpp:98] Creating Layer feat1
I0730 14:41:08.248008 14647 net.cpp:443] feat1 <- data_lattice0
I0730 14:41:08.248013 14647 net.cpp:443] feat1 <- fbn1
I0730 14:41:08.248019 14647 net.cpp:398] feat1 -> feat1
I0730 14:41:08.247997 14649 net.cpp:98] Creating Layer feat1
I0730 14:41:08.248008 14649 net.cpp:443] feat1 <- data_lattice0
I0730 14:41:08.248014 14649 net.cpp:443] feat1 <- fbn1
I0730 14:41:08.248020 14649 net.cpp:398] feat1 -> feat1
I0730 14:41:08.248014 14650 net.cpp:98] Creating Layer feat1
I0730 14:41:08.248025 14650 net.cpp:443] feat1 <- data_lattice0
I0730 14:41:08.248031 14650 net.cpp:443] feat1 <- fbn1
I0730 14:41:08.248037 14650 net.cpp:398] feat1 -> feat1
I0730 14:41:08.248595 14647 net.cpp:133] Setting up feat1
I0730 14:41:08.248597 14649 net.cpp:133] Setting up feat1
I0730 14:41:08.248612 14650 net.cpp:133] Setting up feat1
I0730 14:41:08.256378 14649 net.cpp:140] Top shape: 1 3 1 70000 (210000)
I0730 14:41:08.256388 14649 layer_factory.hpp:76] Creating layer feat1_feat1_0_split
I0730 14:41:08.256395 14649 net.cpp:98] Creating Layer feat1_feat1_0_split
I0730 14:41:08.256399 14649 net.cpp:443] feat1_feat1_0_split <- feat1
I0730 14:41:08.256389 14647 net.cpp:140] Top shape: 1 3 1 70000 (210000)
I0730 14:41:08.256397 14647 layer_factory.hpp:76] Creating layer feat1_feat1_0_split
I0730 14:41:08.256410 14647 net.cpp:98] Creating Layer feat1_feat1_0_split
I0730 14:41:08.256415 14647 net.cpp:443] feat1_feat1_0_split <- feat1
I0730 14:41:08.256420 14647 net.cpp:398] feat1_feat1_0_split -> feat1_feat1_0_split_0
I0730 14:41:08.256405 14649 net.cpp:398] feat1_feat1_0_split -> feat1_feat1_0_split_0
I0730 14:41:08.256412 14649 net.cpp:398] feat1_feat1_0_split -> feat1_feat1_0_split_1
I0730 14:41:08.256417 14649 net.cpp:133] Setting up feat1_feat1_0_split
I0730 14:41:08.256423 14649 net.cpp:140] Top shape: 1 3 1 70000 (210000)
I0730 14:41:08.256427 14649 net.cpp:140] Top shape: 1 3 1 70000 (210000)
I0730 14:41:08.256430 14649 layer_factory.hpp:76] Creating layer conv2
I0730 14:41:08.256392 14650 net.cpp:140] Top shape: 1 3 1 70000 (210000)
I0730 14:41:08.256404 14650 layer_factory.hpp:76] Creating layer feat1_feat1_0_split
I0730 14:41:08.256413 14650 net.cpp:98] Creating Layer feat1_feat1_0_split
I0730 14:41:08.256417 14650 net.cpp:443] feat1_feat1_0_split <- feat1
I0730 14:41:08.256423 14650 net.cpp:398] feat1_feat1_0_split -> feat1_feat1_0_split_0
I0730 14:41:08.256431 14650 net.cpp:398] feat1_feat1_0_split -> feat1_feat1_0_split_1
I0730 14:41:08.256438 14650 net.cpp:133] Setting up feat1_feat1_0_split
I0730 14:41:08.256428 14647 net.cpp:398] feat1_feat1_0_split -> feat1_feat1_0_split_1
I0730 14:41:08.256433 14647 net.cpp:133] Setting up feat1_feat1_0_split
I0730 14:41:08.256438 14647 net.cpp:140] Top shape: 1 3 1 70000 (210000)
I0730 14:41:08.256443 14647 net.cpp:140] Top shape: 1 3 1 70000 (210000)
I0730 14:41:08.256445 14647 layer_factory.hpp:76] Creating layer conv2
I0730 14:41:08.256443 14650 net.cpp:140] Top shape: 1 3 1 70000 (210000)
I0730 14:41:08.256448 14650 net.cpp:140] Top shape: 1 3 1 70000 (210000)
I0730 14:41:08.256453 14650 layer_factory.hpp:76] Creating layer conv2
I0730 14:41:08.256901 14647 net.cpp:98] Creating Layer conv2
I0730 14:41:08.256908 14647 net.cpp:443] conv2 <- bn1_relu1_0_split_1
I0730 14:41:08.256897 14649 net.cpp:98] Creating Layer conv2
I0730 14:41:08.256908 14649 net.cpp:443] conv2 <- bn1_relu1_0_split_1
I0730 14:41:08.256914 14649 net.cpp:443] conv2 <- feat1_feat1_0_split_0
I0730 14:41:08.256918 14649 net.cpp:443] conv2 <- feat1_feat1_0_split_1
I0730 14:41:08.256913 14647 net.cpp:443] conv2 <- feat1_feat1_0_split_0
I0730 14:41:08.256917 14647 net.cpp:443] conv2 <- feat1_feat1_0_split_1
I0730 14:41:08.256923 14647 net.cpp:398] conv2 -> conv2
I0730 14:41:08.256924 14649 net.cpp:398] conv2 -> conv2
I0730 14:41:08.256908 14650 net.cpp:98] Creating Layer conv2
I0730 14:41:08.256918 14650 net.cpp:443] conv2 <- bn1_relu1_0_split_1
I0730 14:41:08.256924 14650 net.cpp:443] conv2 <- feat1_feat1_0_split_0
I0730 14:41:08.256929 14650 net.cpp:443] conv2 <- feat1_feat1_0_split_1
I0730 14:41:08.256935 14650 net.cpp:398] conv2 -> conv2
I0730 14:41:08.257376 14649 net.cpp:133] Setting up conv2
I0730 14:41:08.257385 14647 net.cpp:133] Setting up conv2
I0730 14:41:08.257390 14650 net.cpp:133] Setting up conv2
I0730 14:41:08.282398 14649 net.cpp:140] Top shape: 1 64 1 70000 (4480000)
I0730 14:41:08.282425 14649 layer_factory.hpp:76] Creating layer bn2
I0730 14:41:08.282434 14649 net.cpp:98] Creating Layer bn2
I0730 14:41:08.282438 14649 net.cpp:443] bn2 <- conv2
I0730 14:41:08.282445 14649 net.cpp:398] bn2 -> bn2
I0730 14:41:08.282452 14649 net.cpp:133] Setting up bn2
I0730 14:41:08.282507 14649 net.cpp:140] Top shape: 1 64 1 70000 (4480000)
I0730 14:41:08.282519 14649 layer_factory.hpp:76] Creating layer relu2
I0730 14:41:08.282527 14649 net.cpp:98] Creating Layer relu2
I0730 14:41:08.282531 14649 net.cpp:443] relu2 <- bn2
I0730 14:41:08.282536 14649 net.cpp:387] relu2 -> bn2 (in-place)
I0730 14:41:08.282546 14649 net.cpp:133] Setting up relu2
I0730 14:41:08.282739 14649 net.cpp:140] Top shape: 1 64 1 70000 (4480000)
I0730 14:41:08.282749 14649 layer_factory.hpp:76] Creating layer bn2_relu2_0_split
I0730 14:41:08.282776 14649 net.cpp:98] Creating Layer bn2_relu2_0_split
I0730 14:41:08.282783 14649 net.cpp:443] bn2_relu2_0_split <- bn2
I0730 14:41:08.282788 14649 net.cpp:398] bn2_relu2_0_split -> bn2_relu2_0_split_0
I0730 14:41:08.282795 14649 net.cpp:398] bn2_relu2_0_split -> bn2_relu2_0_split_1
I0730 14:41:08.282801 14649 net.cpp:398] bn2_relu2_0_split -> bn2_relu2_0_split_2
I0730 14:41:08.282807 14649 net.cpp:133] Setting up bn2_relu2_0_split
I0730 14:41:08.282814 14649 net.cpp:140] Top shape: 1 64 1 70000 (4480000)
I0730 14:41:08.282819 14649 net.cpp:140] Top shape: 1 64 1 70000 (4480000)
I0730 14:41:08.282821 14649 net.cpp:140] Top shape: 1 64 1 70000 (4480000)
I0730 14:41:08.282833 14649 layer_factory.hpp:76] Creating layer fconv2
I0730 14:41:08.282841 14649 net.cpp:98] Creating Layer fconv2
I0730 14:41:08.282845 14649 net.cpp:443] fconv2 <- bn2_relu2_0_split_0
I0730 14:41:08.282851 14649 net.cpp:398] fconv2 -> fconv2
I0730 14:41:08.282858 14649 net.cpp:133] Setting up fconv2
I0730 14:41:08.285940 14650 net.cpp:140] Top shape: 1 64 1 70000 (4480000)
I0730 14:41:08.285961 14650 layer_factory.hpp:76] Creating layer bn2
I0730 14:41:08.285970 14650 net.cpp:98] Creating Layer bn2
I0730 14:41:08.285975 14650 net.cpp:443] bn2 <- conv2
I0730 14:41:08.285982 14650 net.cpp:398] bn2 -> bn2
I0730 14:41:08.285990 14650 net.cpp:133] Setting up bn2
I0730 14:41:08.286051 14650 net.cpp:140] Top shape: 1 64 1 70000 (4480000)
I0730 14:41:08.286063 14650 layer_factory.hpp:76] Creating layer relu2
I0730 14:41:08.286072 14650 net.cpp:98] Creating Layer relu2
I0730 14:41:08.286075 14650 net.cpp:443] relu2 <- bn2
I0730 14:41:08.286082 14650 net.cpp:387] relu2 -> bn2 (in-place)
I0730 14:41:08.286087 14650 net.cpp:133] Setting up relu2
I0730 14:41:08.286289 14650 net.cpp:140] Top shape: 1 64 1 70000 (4480000)
I0730 14:41:08.286303 14650 layer_factory.hpp:76] Creating layer bn2_relu2_0_split
I0730 14:41:08.286312 14650 net.cpp:98] Creating Layer bn2_relu2_0_split
I0730 14:41:08.286316 14650 net.cpp:443] bn2_relu2_0_split <- bn2
I0730 14:41:08.286322 14650 net.cpp:398] bn2_relu2_0_split -> bn2_relu2_0_split_0
I0730 14:41:08.286330 14650 net.cpp:398] bn2_relu2_0_split -> bn2_relu2_0_split_1
I0730 14:41:08.286336 14650 net.cpp:398] bn2_relu2_0_split -> bn2_relu2_0_split_2
I0730 14:41:08.286342 14650 net.cpp:133] Setting up bn2_relu2_0_split
I0730 14:41:08.286350 14650 net.cpp:140] Top shape: 1 64 1 70000 (4480000)
I0730 14:41:08.286355 14650 net.cpp:140] Top shape: 1 64 1 70000 (4480000)
I0730 14:41:08.286358 14650 net.cpp:140] Top shape: 1 64 1 70000 (4480000)
I0730 14:41:08.286362 14650 layer_factory.hpp:76] Creating layer fconv2
I0730 14:41:08.286372 14650 net.cpp:98] Creating Layer fconv2
I0730 14:41:08.286376 14650 net.cpp:443] fconv2 <- bn2_relu2_0_split_0
I0730 14:41:08.286383 14650 net.cpp:398] fconv2 -> fconv2
I0730 14:41:08.286391 14650 net.cpp:133] Setting up fconv2
I0730 14:41:08.303906 14647 net.cpp:140] Top shape: 1 64 1 70000 (4480000)
I0730 14:41:08.303939 14647 layer_factory.hpp:76] Creating layer bn2
I0730 14:41:08.303953 14647 net.cpp:98] Creating Layer bn2
I0730 14:41:08.303961 14647 net.cpp:443] bn2 <- conv2
I0730 14:41:08.303969 14647 net.cpp:398] bn2 -> bn2
I0730 14:41:08.303982 14647 net.cpp:133] Setting up bn2
I0730 14:41:08.304059 14647 net.cpp:140] Top shape: 1 64 1 70000 (4480000)
I0730 14:41:08.304075 14647 layer_factory.hpp:76] Creating layer relu2
I0730 14:41:08.304086 14647 net.cpp:98] Creating Layer relu2
I0730 14:41:08.304092 14647 net.cpp:443] relu2 <- bn2
I0730 14:41:08.304101 14647 net.cpp:387] relu2 -> bn2 (in-place)
I0730 14:41:08.304109 14647 net.cpp:133] Setting up relu2
I0730 14:41:08.304428 14647 net.cpp:140] Top shape: 1 64 1 70000 (4480000)
I0730 14:41:08.304467 14647 layer_factory.hpp:76] Creating layer bn2_relu2_0_split
I0730 14:41:08.304478 14647 net.cpp:98] Creating Layer bn2_relu2_0_split
I0730 14:41:08.304484 14647 net.cpp:443] bn2_relu2_0_split <- bn2
I0730 14:41:08.304493 14647 net.cpp:398] bn2_relu2_0_split -> bn2_relu2_0_split_0
I0730 14:41:08.304503 14647 net.cpp:398] bn2_relu2_0_split -> bn2_relu2_0_split_1
I0730 14:41:08.304512 14647 net.cpp:398] bn2_relu2_0_split -> bn2_relu2_0_split_2
I0730 14:41:08.304522 14647 net.cpp:133] Setting up bn2_relu2_0_split
I0730 14:41:08.304530 14647 net.cpp:140] Top shape: 1 64 1 70000 (4480000)
I0730 14:41:08.304538 14647 net.cpp:140] Top shape: 1 64 1 70000 (4480000)
I0730 14:41:08.304553 14647 net.cpp:140] Top shape: 1 64 1 70000 (4480000)
I0730 14:41:08.304558 14647 layer_factory.hpp:76] Creating layer fconv2
I0730 14:41:08.304569 14647 net.cpp:98] Creating Layer fconv2
I0730 14:41:08.304574 14647 net.cpp:443] fconv2 <- bn2_relu2_0_split_0
I0730 14:41:08.304584 14647 net.cpp:398] fconv2 -> fconv2
I0730 14:41:08.304595 14647 net.cpp:133] Setting up fconv2
I0730 14:41:08.306792 14649 net.cpp:140] Top shape: 1 3 1 70000 (210000)
I0730 14:41:08.306819 14649 layer_factory.hpp:76] Creating layer fbn2
I0730 14:41:08.306828 14649 net.cpp:98] Creating Layer fbn2
I0730 14:41:08.306833 14649 net.cpp:443] fbn2 <- fconv2
I0730 14:41:08.306838 14649 net.cpp:398] fbn2 -> fbn2
I0730 14:41:08.306844 14649 net.cpp:133] Setting up fbn2
I0730 14:41:08.306900 14649 net.cpp:140] Top shape: 1 3 1 70000 (210000)
I0730 14:41:08.306918 14649 layer_factory.hpp:76] Creating layer frelu2
I0730 14:41:08.306924 14649 net.cpp:98] Creating Layer frelu2
I0730 14:41:08.306928 14649 net.cpp:443] frelu2 <- fbn2
I0730 14:41:08.306933 14649 net.cpp:387] frelu2 -> fbn2 (in-place)
I0730 14:41:08.306939 14649 net.cpp:133] Setting up frelu2
I0730 14:41:08.306936 14650 net.cpp:140] Top shape: 1 3 1 70000 (210000)
I0730 14:41:08.306953 14650 layer_factory.hpp:76] Creating layer fbn2
I0730 14:41:08.306965 14650 net.cpp:98] Creating Layer fbn2
I0730 14:41:08.306973 14650 net.cpp:443] fbn2 <- fconv2
I0730 14:41:08.306980 14650 net.cpp:398] fbn2 -> fbn2
I0730 14:41:08.306988 14650 net.cpp:133] Setting up fbn2
I0730 14:41:08.307049 14647 net.cpp:140] Top shape: 1 3 1 70000 (210000)
I0730 14:41:08.307049 14650 net.cpp:140] Top shape: 1 3 1 70000 (210000)
I0730 14:41:08.307061 14650 layer_factory.hpp:76] Creating layer frelu2
I0730 14:41:08.307075 14650 net.cpp:98] Creating Layer frelu2
I0730 14:41:08.307080 14650 net.cpp:443] frelu2 <- fbn2
I0730 14:41:08.307085 14650 net.cpp:387] frelu2 -> fbn2 (in-place)
I0730 14:41:08.307086 14647 layer_factory.hpp:76] Creating layer fbn2
I0730 14:41:08.307099 14647 net.cpp:98] Creating Layer fbn2
I0730 14:41:08.307090 14650 net.cpp:133] Setting up frelu2
I0730 14:41:08.307106 14647 net.cpp:443] fbn2 <- fconv2
I0730 14:41:08.307116 14647 net.cpp:398] fbn2 -> fbn2
I0730 14:41:08.307126 14647 net.cpp:133] Setting up fbn2
I0730 14:41:08.307129 14649 net.cpp:140] Top shape: 1 3 1 70000 (210000)
I0730 14:41:08.307137 14649 layer_factory.hpp:76] Creating layer data_lattice1
I0730 14:41:08.307186 14649 net.cpp:98] Creating Layer data_lattice1
I0730 14:41:08.307193 14649 net.cpp:443] data_lattice1 <- data_data_0_split_2
I0730 14:41:08.307201 14647 net.cpp:140] Top shape: 1 3 1 70000 (210000)
I0730 14:41:08.307199 14649 net.cpp:398] data_lattice1 -> data_lattice1
I0730 14:41:08.307205 14649 net.cpp:133] Setting up data_lattice1
I0730 14:41:08.307226 14647 layer_factory.hpp:76] Creating layer frelu2
I0730 14:41:08.307241 14647 net.cpp:98] Creating Layer frelu2
I0730 14:41:08.307247 14647 net.cpp:443] frelu2 <- fbn2
I0730 14:41:08.307255 14647 net.cpp:387] frelu2 -> fbn2 (in-place)
I0730 14:41:08.307263 14647 net.cpp:133] Setting up frelu2
I0730 14:41:08.307288 14650 net.cpp:140] Top shape: 1 3 1 70000 (210000)
I0730 14:41:08.307298 14650 layer_factory.hpp:76] Creating layer data_lattice1
I0730 14:41:08.307335 14650 net.cpp:98] Creating Layer data_lattice1
I0730 14:41:08.307344 14650 net.cpp:443] data_lattice1 <- data_data_0_split_2
I0730 14:41:08.307353 14650 net.cpp:398] data_lattice1 -> data_lattice1
I0730 14:41:08.307360 14650 net.cpp:133] Setting up data_lattice1
I0730 14:41:08.307446 14649 net.cpp:140] Top shape: 1 3 1 70000 (210000)
I0730 14:41:08.307454 14649 layer_factory.hpp:76] Creating layer feat2
I0730 14:41:08.307462 14649 net.cpp:98] Creating Layer feat2
I0730 14:41:08.307466 14649 net.cpp:443] feat2 <- data_lattice1
I0730 14:41:08.307471 14649 net.cpp:443] feat2 <- fbn2
I0730 14:41:08.307476 14649 net.cpp:398] feat2 -> feat2
I0730 14:41:08.307483 14649 net.cpp:133] Setting up feat2
I0730 14:41:08.307488 14649 net.cpp:140] Top shape: 1 3 1 70000 (210000)
I0730 14:41:08.307499 14649 layer_factory.hpp:76] Creating layer feat2_feat2_0_split
I0730 14:41:08.307505 14649 net.cpp:98] Creating Layer feat2_feat2_0_split
I0730 14:41:08.307508 14649 net.cpp:443] feat2_feat2_0_split <- feat2
I0730 14:41:08.307513 14649 net.cpp:398] feat2_feat2_0_split -> feat2_feat2_0_split_0
I0730 14:41:08.307519 14649 net.cpp:398] feat2_feat2_0_split -> feat2_feat2_0_split_1
I0730 14:41:08.307524 14649 net.cpp:133] Setting up feat2_feat2_0_split
I0730 14:41:08.307529 14649 net.cpp:140] Top shape: 1 3 1 70000 (210000)
I0730 14:41:08.307533 14649 net.cpp:140] Top shape: 1 3 1 70000 (210000)
I0730 14:41:08.307529 14647 net.cpp:140] Top shape: 1 3 1 70000 (210000)
I0730 14:41:08.307548 14647 layer_factory.hpp:76] Creating layer data_lattice1
I0730 14:41:08.307535 14649 layer_factory.hpp:76] Creating layer conv3
I0730 14:41:08.307551 14649 net.cpp:98] Creating Layer conv3
I0730 14:41:08.307555 14649 net.cpp:443] conv3 <- bn2_relu2_0_split_1
I0730 14:41:08.307546 14650 net.cpp:140] Top shape: 1 3 1 70000 (210000)
I0730 14:41:08.307555 14650 layer_factory.hpp:76] Creating layer feat2
I0730 14:41:08.307559 14649 net.cpp:443] conv3 <- feat2_feat2_0_split_0
I0730 14:41:08.307564 14649 net.cpp:443] conv3 <- feat2_feat2_0_split_1
I0730 14:41:08.307569 14649 net.cpp:398] conv3 -> conv3
I0730 14:41:08.307576 14649 net.cpp:133] Setting up conv3
I0730 14:41:08.307564 14650 net.cpp:98] Creating Layer feat2
I0730 14:41:08.307569 14650 net.cpp:443] feat2 <- data_lattice1
I0730 14:41:08.307575 14650 net.cpp:443] feat2 <- fbn2
I0730 14:41:08.307581 14650 net.cpp:398] feat2 -> feat2
I0730 14:41:08.307590 14650 net.cpp:133] Setting up feat2
I0730 14:41:08.307596 14650 net.cpp:140] Top shape: 1 3 1 70000 (210000)
I0730 14:41:08.307600 14650 layer_factory.hpp:76] Creating layer feat2_feat2_0_split
I0730 14:41:08.307610 14650 net.cpp:98] Creating Layer feat2_feat2_0_split
I0730 14:41:08.307613 14650 net.cpp:443] feat2_feat2_0_split <- feat2
I0730 14:41:08.307618 14647 net.cpp:98] Creating Layer data_lattice1
I0730 14:41:08.307621 14650 net.cpp:398] feat2_feat2_0_split -> feat2_feat2_0_split_0
I0730 14:41:08.307627 14650 net.cpp:398] feat2_feat2_0_split -> feat2_feat2_0_split_1
I0730 14:41:08.307628 14647 net.cpp:443] data_lattice1 <- data_data_0_split_2
I0730 14:41:08.307638 14647 net.cpp:398] data_lattice1 -> data_lattice1
I0730 14:41:08.307633 14650 net.cpp:133] Setting up feat2_feat2_0_split
I0730 14:41:08.307639 14650 net.cpp:140] Top shape: 1 3 1 70000 (210000)
I0730 14:41:08.307643 14650 net.cpp:140] Top shape: 1 3 1 70000 (210000)
I0730 14:41:08.307648 14650 layer_factory.hpp:76] Creating layer conv3
I0730 14:41:08.307648 14647 net.cpp:133] Setting up data_lattice1
I0730 14:41:08.307657 14650 net.cpp:98] Creating Layer conv3
I0730 14:41:08.307662 14650 net.cpp:443] conv3 <- bn2_relu2_0_split_1
I0730 14:41:08.307667 14650 net.cpp:443] conv3 <- feat2_feat2_0_split_0
I0730 14:41:08.307672 14650 net.cpp:443] conv3 <- feat2_feat2_0_split_1
I0730 14:41:08.307677 14650 net.cpp:398] conv3 -> conv3
I0730 14:41:08.307685 14650 net.cpp:133] Setting up conv3
I0730 14:41:08.307855 14647 net.cpp:140] Top shape: 1 3 1 70000 (210000)
I0730 14:41:08.307869 14647 layer_factory.hpp:76] Creating layer feat2
I0730 14:41:08.307880 14647 net.cpp:98] Creating Layer feat2
I0730 14:41:08.307888 14647 net.cpp:443] feat2 <- data_lattice1
I0730 14:41:08.307894 14647 net.cpp:443] feat2 <- fbn2
I0730 14:41:08.307904 14647 net.cpp:398] feat2 -> feat2
I0730 14:41:08.307914 14647 net.cpp:133] Setting up feat2
I0730 14:41:08.307924 14647 net.cpp:140] Top shape: 1 3 1 70000 (210000)
I0730 14:41:08.307929 14647 layer_factory.hpp:76] Creating layer feat2_feat2_0_split
I0730 14:41:08.307947 14647 net.cpp:98] Creating Layer feat2_feat2_0_split
I0730 14:41:08.307953 14647 net.cpp:443] feat2_feat2_0_split <- feat2
I0730 14:41:08.307961 14647 net.cpp:398] feat2_feat2_0_split -> feat2_feat2_0_split_0
I0730 14:41:08.307971 14647 net.cpp:398] feat2_feat2_0_split -> feat2_feat2_0_split_1
I0730 14:41:08.307979 14647 net.cpp:133] Setting up feat2_feat2_0_split
I0730 14:41:08.307988 14647 net.cpp:140] Top shape: 1 3 1 70000 (210000)
I0730 14:41:08.307996 14647 net.cpp:140] Top shape: 1 3 1 70000 (210000)
I0730 14:41:08.308001 14647 layer_factory.hpp:76] Creating layer conv3
I0730 14:41:08.308012 14647 net.cpp:98] Creating Layer conv3
I0730 14:41:08.308018 14647 net.cpp:443] conv3 <- bn2_relu2_0_split_1
I0730 14:41:08.308024 14647 net.cpp:443] conv3 <- feat2_feat2_0_split_0
I0730 14:41:08.308032 14647 net.cpp:443] conv3 <- feat2_feat2_0_split_1
I0730 14:41:08.308039 14647 net.cpp:398] conv3 -> conv3
I0730 14:41:08.308053 14647 net.cpp:133] Setting up conv3
I0730 14:41:08.353121 14648 net.cpp:140] Top shape: 1 32 1 70000 (2240000)
I0730 14:41:08.353204 14648 layer_factory.hpp:76] Creating layer bn1
I0730 14:41:08.353225 14648 net.cpp:98] Creating Layer bn1
I0730 14:41:08.353232 14648 net.cpp:443] bn1 <- conv1
I0730 14:41:08.353241 14648 net.cpp:398] bn1 -> bn1
I0730 14:41:08.353250 14648 net.cpp:133] Setting up bn1
I0730 14:41:08.353343 14648 net.cpp:140] Top shape: 1 32 1 70000 (2240000)
I0730 14:41:08.353356 14648 layer_factory.hpp:76] Creating layer relu1
I0730 14:41:08.353382 14648 net.cpp:98] Creating Layer relu1
I0730 14:41:08.353387 14648 net.cpp:443] relu1 <- bn1
I0730 14:41:08.353392 14648 net.cpp:387] relu1 -> bn1 (in-place)
I0730 14:41:08.353397 14648 net.cpp:133] Setting up relu1
I0730 14:41:08.353603 14648 net.cpp:140] Top shape: 1 32 1 70000 (2240000)
I0730 14:41:08.353615 14648 layer_factory.hpp:76] Creating layer bn1_relu1_0_split
I0730 14:41:08.353623 14648 net.cpp:98] Creating Layer bn1_relu1_0_split
I0730 14:41:08.353627 14648 net.cpp:443] bn1_relu1_0_split <- bn1
I0730 14:41:08.353632 14648 net.cpp:398] bn1_relu1_0_split -> bn1_relu1_0_split_0
I0730 14:41:08.353638 14648 net.cpp:398] bn1_relu1_0_split -> bn1_relu1_0_split_1
I0730 14:41:08.353643 14648 net.cpp:133] Setting up bn1_relu1_0_split
I0730 14:41:08.353649 14648 net.cpp:140] Top shape: 1 32 1 70000 (2240000)
I0730 14:41:08.353653 14648 net.cpp:140] Top shape: 1 32 1 70000 (2240000)
I0730 14:41:08.353657 14648 layer_factory.hpp:76] Creating layer fconv1
I0730 14:41:08.353673 14648 net.cpp:98] Creating Layer fconv1
I0730 14:41:08.353677 14648 net.cpp:443] fconv1 <- bn1_relu1_0_split_0
I0730 14:41:08.353683 14648 net.cpp:398] fconv1 -> fconv1
I0730 14:41:08.353690 14648 net.cpp:133] Setting up fconv1
I0730 14:41:08.354998 14648 net.cpp:140] Top shape: 1 3 1 70000 (210000)
I0730 14:41:08.355012 14648 layer_factory.hpp:76] Creating layer fbn1
I0730 14:41:08.355031 14648 net.cpp:98] Creating Layer fbn1
I0730 14:41:08.355036 14648 net.cpp:443] fbn1 <- fconv1
I0730 14:41:08.355041 14648 net.cpp:398] fbn1 -> fbn1
I0730 14:41:08.355048 14648 net.cpp:133] Setting up fbn1
I0730 14:41:08.355083 14648 net.cpp:140] Top shape: 1 3 1 70000 (210000)
I0730 14:41:08.355103 14648 layer_factory.hpp:76] Creating layer frelu1
I0730 14:41:08.355109 14648 net.cpp:98] Creating Layer frelu1
I0730 14:41:08.355113 14648 net.cpp:443] frelu1 <- fbn1
I0730 14:41:08.355118 14648 net.cpp:387] frelu1 -> fbn1 (in-place)
I0730 14:41:08.355123 14648 net.cpp:133] Setting up frelu1
I0730 14:41:08.355285 14648 net.cpp:140] Top shape: 1 3 1 70000 (210000)
I0730 14:41:08.355294 14648 layer_factory.hpp:76] Creating layer data_lattice0
I0730 14:41:08.355350 14648 net.cpp:98] Creating Layer data_lattice0
I0730 14:41:08.355356 14648 net.cpp:443] data_lattice0 <- data_data_0_split_1
I0730 14:41:08.355363 14648 net.cpp:398] data_lattice0 -> data_lattice0
I0730 14:41:08.355370 14648 net.cpp:133] Setting up data_lattice0
I0730 14:41:08.355531 14648 net.cpp:140] Top shape: 1 3 1 70000 (210000)
I0730 14:41:08.355546 14648 layer_factory.hpp:76] Creating layer feat1
I0730 14:41:08.355581 14648 net.cpp:98] Creating Layer feat1
I0730 14:41:08.355589 14648 net.cpp:443] feat1 <- data_lattice0
I0730 14:41:08.355594 14648 net.cpp:443] feat1 <- fbn1
I0730 14:41:08.355599 14648 net.cpp:398] feat1 -> feat1
I0730 14:41:08.355615 14648 net.cpp:133] Setting up feat1
I0730 14:41:08.355634 14648 net.cpp:140] Top shape: 1 3 1 70000 (210000)
I0730 14:41:08.355638 14648 layer_factory.hpp:76] Creating layer feat1_feat1_0_split
I0730 14:41:08.355643 14648 net.cpp:98] Creating Layer feat1_feat1_0_split
I0730 14:41:08.355648 14648 net.cpp:443] feat1_feat1_0_split <- feat1
I0730 14:41:08.355651 14648 net.cpp:398] feat1_feat1_0_split -> feat1_feat1_0_split_0
I0730 14:41:08.355657 14648 net.cpp:398] feat1_feat1_0_split -> feat1_feat1_0_split_1
I0730 14:41:08.355664 14648 net.cpp:133] Setting up feat1_feat1_0_split
I0730 14:41:08.355669 14648 net.cpp:140] Top shape: 1 3 1 70000 (210000)
I0730 14:41:08.355671 14648 net.cpp:140] Top shape: 1 3 1 70000 (210000)
I0730 14:41:08.355674 14648 layer_factory.hpp:76] Creating layer conv2
I0730 14:41:08.355700 14648 net.cpp:98] Creating Layer conv2
I0730 14:41:08.355706 14648 net.cpp:443] conv2 <- bn1_relu1_0_split_1
I0730 14:41:08.355710 14648 net.cpp:443] conv2 <- feat1_feat1_0_split_0
I0730 14:41:08.355715 14648 net.cpp:443] conv2 <- feat1_feat1_0_split_1
I0730 14:41:08.355718 14648 net.cpp:398] conv2 -> conv2
I0730 14:41:08.355733 14648 net.cpp:133] Setting up conv2
I0730 14:41:08.375746 14648 net.cpp:140] Top shape: 1 64 1 70000 (4480000)
I0730 14:41:08.375761 14648 layer_factory.hpp:76] Creating layer bn2
I0730 14:41:08.375778 14648 net.cpp:98] Creating Layer bn2
I0730 14:41:08.375782 14648 net.cpp:443] bn2 <- conv2
I0730 14:41:08.375787 14648 net.cpp:398] bn2 -> bn2
I0730 14:41:08.375792 14648 net.cpp:133] Setting up bn2
I0730 14:41:08.375844 14648 net.cpp:140] Top shape: 1 64 1 70000 (4480000)
I0730 14:41:08.375854 14648 layer_factory.hpp:76] Creating layer relu2
I0730 14:41:08.375861 14648 net.cpp:98] Creating Layer relu2
I0730 14:41:08.375864 14648 net.cpp:443] relu2 <- bn2
I0730 14:41:08.375869 14648 net.cpp:387] relu2 -> bn2 (in-place)
I0730 14:41:08.375874 14648 net.cpp:133] Setting up relu2
I0730 14:41:08.376049 14648 net.cpp:140] Top shape: 1 64 1 70000 (4480000)
I0730 14:41:08.376057 14648 layer_factory.hpp:76] Creating layer bn2_relu2_0_split
I0730 14:41:08.376065 14648 net.cpp:98] Creating Layer bn2_relu2_0_split
I0730 14:41:08.376068 14648 net.cpp:443] bn2_relu2_0_split <- bn2
I0730 14:41:08.376073 14648 net.cpp:398] bn2_relu2_0_split -> bn2_relu2_0_split_0
I0730 14:41:08.376080 14648 net.cpp:398] bn2_relu2_0_split -> bn2_relu2_0_split_1
I0730 14:41:08.376085 14648 net.cpp:398] bn2_relu2_0_split -> bn2_relu2_0_split_2
I0730 14:41:08.376091 14648 net.cpp:133] Setting up bn2_relu2_0_split
I0730 14:41:08.376096 14648 net.cpp:140] Top shape: 1 64 1 70000 (4480000)
I0730 14:41:08.376099 14648 net.cpp:140] Top shape: 1 64 1 70000 (4480000)
I0730 14:41:08.376103 14648 net.cpp:140] Top shape: 1 64 1 70000 (4480000)
I0730 14:41:08.376114 14648 layer_factory.hpp:76] Creating layer fconv2
I0730 14:41:08.376121 14648 net.cpp:98] Creating Layer fconv2
I0730 14:41:08.376125 14648 net.cpp:443] fconv2 <- bn2_relu2_0_split_0
I0730 14:41:08.376132 14648 net.cpp:398] fconv2 -> fconv2
I0730 14:41:08.376137 14648 net.cpp:133] Setting up fconv2
I0730 14:41:08.377513 14648 net.cpp:140] Top shape: 1 3 1 70000 (210000)
I0730 14:41:08.377548 14648 layer_factory.hpp:76] Creating layer fbn2
I0730 14:41:08.377563 14648 net.cpp:98] Creating Layer fbn2
I0730 14:41:08.377568 14648 net.cpp:443] fbn2 <- fconv2
I0730 14:41:08.377574 14648 net.cpp:398] fbn2 -> fbn2
I0730 14:41:08.377580 14648 net.cpp:133] Setting up fbn2
I0730 14:41:08.377635 14648 net.cpp:140] Top shape: 1 3 1 70000 (210000)
I0730 14:41:08.377645 14648 layer_factory.hpp:76] Creating layer frelu2
I0730 14:41:08.377651 14648 net.cpp:98] Creating Layer frelu2
I0730 14:41:08.377655 14648 net.cpp:443] frelu2 <- fbn2
I0730 14:41:08.377660 14648 net.cpp:387] frelu2 -> fbn2 (in-place)
I0730 14:41:08.377665 14648 net.cpp:133] Setting up frelu2
I0730 14:41:08.377831 14648 net.cpp:140] Top shape: 1 3 1 70000 (210000)
I0730 14:41:08.377840 14648 layer_factory.hpp:76] Creating layer data_lattice1
I0730 14:41:08.377876 14648 net.cpp:98] Creating Layer data_lattice1
I0730 14:41:08.377884 14648 net.cpp:443] data_lattice1 <- data_data_0_split_2
I0730 14:41:08.377890 14648 net.cpp:398] data_lattice1 -> data_lattice1
I0730 14:41:08.377897 14648 net.cpp:133] Setting up data_lattice1
I0730 14:41:08.378051 14648 net.cpp:140] Top shape: 1 3 1 70000 (210000)
I0730 14:41:08.378058 14648 layer_factory.hpp:76] Creating layer feat2
I0730 14:41:08.378072 14648 net.cpp:98] Creating Layer feat2
I0730 14:41:08.378077 14648 net.cpp:443] feat2 <- data_lattice1
I0730 14:41:08.378080 14648 net.cpp:443] feat2 <- fbn2
I0730 14:41:08.378087 14648 net.cpp:398] feat2 -> feat2
I0730 14:41:08.378093 14648 net.cpp:133] Setting up feat2
I0730 14:41:08.378098 14648 net.cpp:140] Top shape: 1 3 1 70000 (210000)
I0730 14:41:08.378101 14648 layer_factory.hpp:76] Creating layer feat2_feat2_0_split
I0730 14:41:08.378108 14648 net.cpp:98] Creating Layer feat2_feat2_0_split
I0730 14:41:08.378110 14648 net.cpp:443] feat2_feat2_0_split <- feat2
I0730 14:41:08.378115 14648 net.cpp:398] feat2_feat2_0_split -> feat2_feat2_0_split_0
I0730 14:41:08.378120 14648 net.cpp:398] feat2_feat2_0_split -> feat2_feat2_0_split_1
I0730 14:41:08.378125 14648 net.cpp:133] Setting up feat2_feat2_0_split
I0730 14:41:08.378129 14648 net.cpp:140] Top shape: 1 3 1 70000 (210000)
I0730 14:41:08.378134 14648 net.cpp:140] Top shape: 1 3 1 70000 (210000)
I0730 14:41:08.378136 14648 layer_factory.hpp:76] Creating layer conv3
I0730 14:41:08.378144 14648 net.cpp:98] Creating Layer conv3
I0730 14:41:08.378146 14648 net.cpp:443] conv3 <- bn2_relu2_0_split_1
I0730 14:41:08.378150 14648 net.cpp:443] conv3 <- feat2_feat2_0_split_0
I0730 14:41:08.378154 14648 net.cpp:443] conv3 <- feat2_feat2_0_split_1
I0730 14:41:08.378160 14648 net.cpp:398] conv3 -> conv3
I0730 14:41:08.378167 14648 net.cpp:133] Setting up conv3
I0730 14:41:08.387013 14649 net.cpp:140] Top shape: 1 128 1 70000 (8960000)
I0730 14:41:08.387042 14649 layer_factory.hpp:76] Creating layer bn3
I0730 14:41:08.387053 14649 net.cpp:98] Creating Layer bn3
I0730 14:41:08.387058 14649 net.cpp:443] bn3 <- conv3
I0730 14:41:08.387065 14649 net.cpp:398] bn3 -> bn3
I0730 14:41:08.387073 14649 net.cpp:133] Setting up bn3
I0730 14:41:08.387127 14649 net.cpp:140] Top shape: 1 128 1 70000 (8960000)
I0730 14:41:08.387137 14649 layer_factory.hpp:76] Creating layer relu3
I0730 14:41:08.387161 14649 net.cpp:98] Creating Layer relu3
I0730 14:41:08.387166 14649 net.cpp:443] relu3 <- bn3
I0730 14:41:08.387171 14649 net.cpp:387] relu3 -> bn3 (in-place)
I0730 14:41:08.387174 14649 net.cpp:133] Setting up relu3
I0730 14:41:08.387931 14649 net.cpp:140] Top shape: 1 128 1 70000 (8960000)
I0730 14:41:08.387944 14649 layer_factory.hpp:76] Creating layer bn3_relu3_0_split
I0730 14:41:08.387964 14649 net.cpp:98] Creating Layer bn3_relu3_0_split
I0730 14:41:08.387967 14649 net.cpp:443] bn3_relu3_0_split <- bn3
I0730 14:41:08.387974 14649 net.cpp:398] bn3_relu3_0_split -> bn3_relu3_0_split_0
I0730 14:41:08.387981 14649 net.cpp:398] bn3_relu3_0_split -> bn3_relu3_0_split_1
I0730 14:41:08.387987 14649 net.cpp:398] bn3_relu3_0_split -> bn3_relu3_0_split_2
I0730 14:41:08.387992 14649 net.cpp:133] Setting up bn3_relu3_0_split
I0730 14:41:08.388000 14649 net.cpp:140] Top shape: 1 128 1 70000 (8960000)
I0730 14:41:08.388002 14649 net.cpp:140] Top shape: 1 128 1 70000 (8960000)
I0730 14:41:08.388006 14649 net.cpp:140] Top shape: 1 128 1 70000 (8960000)
I0730 14:41:08.388010 14649 layer_factory.hpp:76] Creating layer fconv3
I0730 14:41:08.388018 14649 net.cpp:98] Creating Layer fconv3
I0730 14:41:08.388021 14649 net.cpp:443] fconv3 <- bn3_relu3_0_split_0
I0730 14:41:08.388027 14649 net.cpp:398] fconv3 -> fconv3
I0730 14:41:08.388034 14649 net.cpp:133] Setting up fconv3
I0730 14:41:08.404062 14650 net.cpp:140] Top shape: 1 128 1 70000 (8960000)
I0730 14:41:08.404083 14650 layer_factory.hpp:76] Creating layer bn3
I0730 14:41:08.404093 14650 net.cpp:98] Creating Layer bn3
I0730 14:41:08.404098 14650 net.cpp:443] bn3 <- conv3
I0730 14:41:08.404104 14650 net.cpp:398] bn3 -> bn3
I0730 14:41:08.404114 14650 net.cpp:133] Setting up bn3
I0730 14:41:08.404181 14650 net.cpp:140] Top shape: 1 128 1 70000 (8960000)
I0730 14:41:08.404193 14650 layer_factory.hpp:76] Creating layer relu3
I0730 14:41:08.404203 14650 net.cpp:98] Creating Layer relu3
I0730 14:41:08.404208 14650 net.cpp:443] relu3 <- bn3
I0730 14:41:08.404213 14650 net.cpp:387] relu3 -> bn3 (in-place)
I0730 14:41:08.404219 14650 net.cpp:133] Setting up relu3
I0730 14:41:08.404917 14650 net.cpp:140] Top shape: 1 128 1 70000 (8960000)
I0730 14:41:08.404945 14650 layer_factory.hpp:76] Creating layer bn3_relu3_0_split
I0730 14:41:08.404955 14650 net.cpp:98] Creating Layer bn3_relu3_0_split
I0730 14:41:08.404960 14650 net.cpp:443] bn3_relu3_0_split <- bn3
I0730 14:41:08.404968 14650 net.cpp:398] bn3_relu3_0_split -> bn3_relu3_0_split_0
I0730 14:41:08.404974 14650 net.cpp:398] bn3_relu3_0_split -> bn3_relu3_0_split_1
I0730 14:41:08.404981 14650 net.cpp:398] bn3_relu3_0_split -> bn3_relu3_0_split_2
I0730 14:41:08.404986 14650 net.cpp:133] Setting up bn3_relu3_0_split
I0730 14:41:08.404994 14650 net.cpp:140] Top shape: 1 128 1 70000 (8960000)
I0730 14:41:08.404999 14650 net.cpp:140] Top shape: 1 128 1 70000 (8960000)
I0730 14:41:08.405004 14650 net.cpp:140] Top shape: 1 128 1 70000 (8960000)
I0730 14:41:08.405007 14650 layer_factory.hpp:76] Creating layer fconv3
I0730 14:41:08.405017 14650 net.cpp:98] Creating Layer fconv3
I0730 14:41:08.405021 14650 net.cpp:443] fconv3 <- bn3_relu3_0_split_0
I0730 14:41:08.405028 14650 net.cpp:398] fconv3 -> fconv3
I0730 14:41:08.405037 14650 net.cpp:133] Setting up fconv3
I0730 14:41:08.416754 14647 net.cpp:140] Top shape: 1 128 1 70000 (8960000)
I0730 14:41:08.416785 14647 layer_factory.hpp:76] Creating layer bn3
I0730 14:41:08.416795 14647 net.cpp:98] Creating Layer bn3
I0730 14:41:08.416801 14647 net.cpp:443] bn3 <- conv3
I0730 14:41:08.416810 14647 net.cpp:398] bn3 -> bn3
I0730 14:41:08.416816 14647 net.cpp:133] Setting up bn3
I0730 14:41:08.416877 14647 net.cpp:140] Top shape: 1 128 1 70000 (8960000)
I0730 14:41:08.416889 14647 layer_factory.hpp:76] Creating layer relu3
I0730 14:41:08.416910 14647 net.cpp:98] Creating Layer relu3
I0730 14:41:08.416914 14647 net.cpp:443] relu3 <- bn3
I0730 14:41:08.416919 14647 net.cpp:387] relu3 -> bn3 (in-place)
I0730 14:41:08.416924 14647 net.cpp:133] Setting up relu3
I0730 14:41:08.417601 14647 net.cpp:140] Top shape: 1 128 1 70000 (8960000)
I0730 14:41:08.417615 14647 layer_factory.hpp:76] Creating layer bn3_relu3_0_split
I0730 14:41:08.417637 14647 net.cpp:98] Creating Layer bn3_relu3_0_split
I0730 14:41:08.417642 14647 net.cpp:443] bn3_relu3_0_split <- bn3
I0730 14:41:08.417649 14647 net.cpp:398] bn3_relu3_0_split -> bn3_relu3_0_split_0
I0730 14:41:08.417657 14647 net.cpp:398] bn3_relu3_0_split -> bn3_relu3_0_split_1
I0730 14:41:08.417665 14647 net.cpp:398] bn3_relu3_0_split -> bn3_relu3_0_split_2
I0730 14:41:08.417670 14647 net.cpp:133] Setting up bn3_relu3_0_split
I0730 14:41:08.417677 14647 net.cpp:140] Top shape: 1 128 1 70000 (8960000)
I0730 14:41:08.417682 14647 net.cpp:140] Top shape: 1 128 1 70000 (8960000)
I0730 14:41:08.417686 14647 net.cpp:140] Top shape: 1 128 1 70000 (8960000)
I0730 14:41:08.417690 14647 layer_factory.hpp:76] Creating layer fconv3
I0730 14:41:08.417698 14647 net.cpp:98] Creating Layer fconv3
I0730 14:41:08.417702 14647 net.cpp:443] fconv3 <- bn3_relu3_0_split_0
I0730 14:41:08.417711 14647 net.cpp:398] fconv3 -> fconv3
I0730 14:41:08.417718 14647 net.cpp:133] Setting up fconv3
I0730 14:41:08.419275 14647 net.cpp:140] Top shape: 1 3 1 70000 (210000)
I0730 14:41:08.419292 14647 layer_factory.hpp:76] Creating layer fbn3
I0730 14:41:08.419313 14647 net.cpp:98] Creating Layer fbn3
I0730 14:41:08.419318 14647 net.cpp:443] fbn3 <- fconv3
I0730 14:41:08.419325 14647 net.cpp:398] fbn3 -> fbn3
I0730 14:41:08.419333 14647 net.cpp:133] Setting up fbn3
I0730 14:41:08.419392 14647 net.cpp:140] Top shape: 1 3 1 70000 (210000)
I0730 14:41:08.419404 14647 layer_factory.hpp:76] Creating layer frelu3
I0730 14:41:08.419410 14647 net.cpp:98] Creating Layer frelu3
I0730 14:41:08.419414 14647 net.cpp:443] frelu3 <- fbn3
I0730 14:41:08.419420 14647 net.cpp:387] frelu3 -> fbn3 (in-place)
I0730 14:41:08.419425 14647 net.cpp:133] Setting up frelu3
I0730 14:41:08.419519 14649 net.cpp:140] Top shape: 1 3 1 70000 (210000)
I0730 14:41:08.419535 14649 layer_factory.hpp:76] Creating layer fbn3
I0730 14:41:08.419558 14649 net.cpp:98] Creating Layer fbn3
I0730 14:41:08.419564 14649 net.cpp:443] fbn3 <- fconv3
I0730 14:41:08.419569 14649 net.cpp:398] fbn3 -> fbn3
I0730 14:41:08.419576 14649 net.cpp:133] Setting up fbn3
I0730 14:41:08.419615 14647 net.cpp:140] Top shape: 1 3 1 70000 (210000)
I0730 14:41:08.419625 14647 layer_factory.hpp:76] Creating layer data_lattice2
I0730 14:41:08.419631 14649 net.cpp:140] Top shape: 1 3 1 70000 (210000)
I0730 14:41:08.419641 14649 layer_factory.hpp:76] Creating layer frelu3
I0730 14:41:08.419620 14650 net.cpp:140] Top shape: 1 3 1 70000 (210000)
I0730 14:41:08.419636 14650 layer_factory.hpp:76] Creating layer fbn3
I0730 14:41:08.419643 14650 net.cpp:98] Creating Layer fbn3
I0730 14:41:08.419647 14649 net.cpp:98] Creating Layer frelu3
I0730 14:41:08.419651 14649 net.cpp:443] frelu3 <- fbn3
I0730 14:41:08.419656 14649 net.cpp:387] frelu3 -> fbn3 (in-place)
I0730 14:41:08.419661 14649 net.cpp:133] Setting up frelu3
I0730 14:41:08.419648 14650 net.cpp:443] fbn3 <- fconv3
I0730 14:41:08.419656 14650 net.cpp:398] fbn3 -> fbn3
I0730 14:41:08.419663 14650 net.cpp:133] Setting up fbn3
I0730 14:41:08.419679 14647 net.cpp:98] Creating Layer data_lattice2
I0730 14:41:08.419685 14647 net.cpp:443] data_lattice2 <- data_data_0_split_3
I0730 14:41:08.419697 14647 net.cpp:398] data_lattice2 -> data_lattice2
I0730 14:41:08.419703 14647 net.cpp:133] Setting up data_lattice2
I0730 14:41:08.419729 14650 net.cpp:140] Top shape: 1 3 1 70000 (210000)
I0730 14:41:08.419742 14650 layer_factory.hpp:76] Creating layer frelu3
I0730 14:41:08.419749 14650 net.cpp:98] Creating Layer frelu3
I0730 14:41:08.419754 14650 net.cpp:443] frelu3 <- fbn3
I0730 14:41:08.419759 14650 net.cpp:387] frelu3 -> fbn3 (in-place)
I0730 14:41:08.419765 14650 net.cpp:133] Setting up frelu3
I0730 14:41:08.419829 14649 net.cpp:140] Top shape: 1 3 1 70000 (210000)
I0730 14:41:08.419838 14649 layer_factory.hpp:76] Creating layer data_lattice2
I0730 14:41:08.419878 14647 net.cpp:140] Top shape: 1 3 1 70000 (210000)
I0730 14:41:08.419888 14647 layer_factory.hpp:76] Creating layer feat3
I0730 14:41:08.419883 14649 net.cpp:98] Creating Layer data_lattice2
I0730 14:41:08.419889 14649 net.cpp:443] data_lattice2 <- data_data_0_split_3
I0730 14:41:08.419896 14647 net.cpp:98] Creating Layer feat3
I0730 14:41:08.419901 14647 net.cpp:443] feat3 <- data_lattice2
I0730 14:41:08.419906 14647 net.cpp:443] feat3 <- fbn3
I0730 14:41:08.419896 14649 net.cpp:398] data_lattice2 -> data_lattice2
I0730 14:41:08.419903 14649 net.cpp:133] Setting up data_lattice2
I0730 14:41:08.419912 14647 net.cpp:398] feat3 -> feat3
I0730 14:41:08.419920 14647 net.cpp:133] Setting up feat3
I0730 14:41:08.419926 14647 net.cpp:140] Top shape: 1 3 1 70000 (210000)
I0730 14:41:08.419930 14647 layer_factory.hpp:76] Creating layer feat3_feat3_0_split
I0730 14:41:08.419937 14647 net.cpp:98] Creating Layer feat3_feat3_0_split
I0730 14:41:08.419941 14647 net.cpp:443] feat3_feat3_0_split <- feat3
I0730 14:41:08.419947 14647 net.cpp:398] feat3_feat3_0_split -> feat3_feat3_0_split_0
I0730 14:41:08.419953 14647 net.cpp:398] feat3_feat3_0_split -> feat3_feat3_0_split_1
I0730 14:41:08.419958 14647 net.cpp:133] Setting up feat3_feat3_0_split
I0730 14:41:08.419965 14647 net.cpp:140] Top shape: 1 3 1 70000 (210000)
I0730 14:41:08.419970 14647 net.cpp:140] Top shape: 1 3 1 70000 (210000)
I0730 14:41:08.419972 14647 layer_factory.hpp:76] Creating layer conv4
I0730 14:41:08.419965 14650 net.cpp:140] Top shape: 1 3 1 70000 (210000)
I0730 14:41:08.419973 14650 layer_factory.hpp:76] Creating layer data_lattice2
I0730 14:41:08.419981 14647 net.cpp:98] Creating Layer conv4
I0730 14:41:08.419984 14647 net.cpp:443] conv4 <- bn3_relu3_0_split_1
I0730 14:41:08.419989 14647 net.cpp:443] conv4 <- feat3_feat3_0_split_0
I0730 14:41:08.419993 14647 net.cpp:443] conv4 <- feat3_feat3_0_split_1
I0730 14:41:08.420001 14647 net.cpp:398] conv4 -> conv4
I0730 14:41:08.420007 14647 net.cpp:133] Setting up conv4
I0730 14:41:08.420014 14650 net.cpp:98] Creating Layer data_lattice2
I0730 14:41:08.420022 14650 net.cpp:443] data_lattice2 <- data_data_0_split_3
I0730 14:41:08.420028 14650 net.cpp:398] data_lattice2 -> data_lattice2
I0730 14:41:08.420037 14650 net.cpp:133] Setting up data_lattice2
I0730 14:41:08.420059 14649 net.cpp:140] Top shape: 1 3 1 70000 (210000)
I0730 14:41:08.420065 14649 layer_factory.hpp:76] Creating layer feat3
I0730 14:41:08.420074 14649 net.cpp:98] Creating Layer feat3
I0730 14:41:08.420078 14649 net.cpp:443] feat3 <- data_lattice2
I0730 14:41:08.420083 14649 net.cpp:443] feat3 <- fbn3
I0730 14:41:08.420089 14649 net.cpp:398] feat3 -> feat3
I0730 14:41:08.420095 14649 net.cpp:133] Setting up feat3
I0730 14:41:08.420101 14649 net.cpp:140] Top shape: 1 3 1 70000 (210000)
I0730 14:41:08.420111 14649 layer_factory.hpp:76] Creating layer feat3_feat3_0_split
I0730 14:41:08.420119 14649 net.cpp:98] Creating Layer feat3_feat3_0_split
I0730 14:41:08.420121 14649 net.cpp:443] feat3_feat3_0_split <- feat3
I0730 14:41:08.420126 14649 net.cpp:398] feat3_feat3_0_split -> feat3_feat3_0_split_0
I0730 14:41:08.420132 14649 net.cpp:398] feat3_feat3_0_split -> feat3_feat3_0_split_1
I0730 14:41:08.420137 14649 net.cpp:133] Setting up feat3_feat3_0_split
I0730 14:41:08.420143 14649 net.cpp:140] Top shape: 1 3 1 70000 (210000)
I0730 14:41:08.420147 14649 net.cpp:140] Top shape: 1 3 1 70000 (210000)
I0730 14:41:08.420150 14649 layer_factory.hpp:76] Creating layer conv4
I0730 14:41:08.420157 14649 net.cpp:98] Creating Layer conv4
I0730 14:41:08.420161 14649 net.cpp:443] conv4 <- bn3_relu3_0_split_1
I0730 14:41:08.420166 14649 net.cpp:443] conv4 <- feat3_feat3_0_split_0
I0730 14:41:08.420168 14649 net.cpp:443] conv4 <- feat3_feat3_0_split_1
I0730 14:41:08.420174 14649 net.cpp:398] conv4 -> conv4
I0730 14:41:08.420181 14649 net.cpp:133] Setting up conv4
I0730 14:41:08.420209 14650 net.cpp:140] Top shape: 1 3 1 70000 (210000)
I0730 14:41:08.420218 14650 layer_factory.hpp:76] Creating layer feat3
I0730 14:41:08.420228 14650 net.cpp:98] Creating Layer feat3
I0730 14:41:08.420231 14650 net.cpp:443] feat3 <- data_lattice2
I0730 14:41:08.420238 14650 net.cpp:443] feat3 <- fbn3
I0730 14:41:08.420244 14650 net.cpp:398] feat3 -> feat3
I0730 14:41:08.420253 14650 net.cpp:133] Setting up feat3
I0730 14:41:08.420259 14650 net.cpp:140] Top shape: 1 3 1 70000 (210000)
I0730 14:41:08.420264 14650 layer_factory.hpp:76] Creating layer feat3_feat3_0_split
I0730 14:41:08.420270 14650 net.cpp:98] Creating Layer feat3_feat3_0_split
I0730 14:41:08.420274 14650 net.cpp:443] feat3_feat3_0_split <- feat3
I0730 14:41:08.420280 14650 net.cpp:398] feat3_feat3_0_split -> feat3_feat3_0_split_0
I0730 14:41:08.420286 14650 net.cpp:398] feat3_feat3_0_split -> feat3_feat3_0_split_1
I0730 14:41:08.420292 14650 net.cpp:133] Setting up feat3_feat3_0_split
I0730 14:41:08.420298 14650 net.cpp:140] Top shape: 1 3 1 70000 (210000)
I0730 14:41:08.420302 14650 net.cpp:140] Top shape: 1 3 1 70000 (210000)
I0730 14:41:08.420306 14650 layer_factory.hpp:76] Creating layer conv4
I0730 14:41:08.420315 14650 net.cpp:98] Creating Layer conv4
I0730 14:41:08.420320 14650 net.cpp:443] conv4 <- bn3_relu3_0_split_1
I0730 14:41:08.420325 14650 net.cpp:443] conv4 <- feat3_feat3_0_split_0
I0730 14:41:08.420330 14650 net.cpp:443] conv4 <- feat3_feat3_0_split_1
I0730 14:41:08.420336 14650 net.cpp:398] conv4 -> conv4
I0730 14:41:08.420343 14650 net.cpp:133] Setting up conv4
I0730 14:41:08.457876 14648 net.cpp:140] Top shape: 1 128 1 70000 (8960000)
I0730 14:41:08.457911 14648 layer_factory.hpp:76] Creating layer bn3
I0730 14:41:08.457921 14648 net.cpp:98] Creating Layer bn3
I0730 14:41:08.457926 14648 net.cpp:443] bn3 <- conv3
I0730 14:41:08.457933 14648 net.cpp:398] bn3 -> bn3
I0730 14:41:08.457940 14648 net.cpp:133] Setting up bn3
I0730 14:41:08.457996 14648 net.cpp:140] Top shape: 1 128 1 70000 (8960000)
I0730 14:41:08.458015 14648 layer_factory.hpp:76] Creating layer relu3
I0730 14:41:08.458025 14648 net.cpp:98] Creating Layer relu3
I0730 14:41:08.458029 14648 net.cpp:443] relu3 <- bn3
I0730 14:41:08.458034 14648 net.cpp:387] relu3 -> bn3 (in-place)
I0730 14:41:08.458037 14648 net.cpp:133] Setting up relu3
I0730 14:41:08.458840 14648 net.cpp:140] Top shape: 1 128 1 70000 (8960000)
I0730 14:41:08.458853 14648 layer_factory.hpp:76] Creating layer bn3_relu3_0_split
I0730 14:41:08.458873 14648 net.cpp:98] Creating Layer bn3_relu3_0_split
I0730 14:41:08.458878 14648 net.cpp:443] bn3_relu3_0_split <- bn3
I0730 14:41:08.458884 14648 net.cpp:398] bn3_relu3_0_split -> bn3_relu3_0_split_0
I0730 14:41:08.458890 14648 net.cpp:398] bn3_relu3_0_split -> bn3_relu3_0_split_1
I0730 14:41:08.458896 14648 net.cpp:398] bn3_relu3_0_split -> bn3_relu3_0_split_2
I0730 14:41:08.458902 14648 net.cpp:133] Setting up bn3_relu3_0_split
I0730 14:41:08.458909 14648 net.cpp:140] Top shape: 1 128 1 70000 (8960000)
I0730 14:41:08.458911 14648 net.cpp:140] Top shape: 1 128 1 70000 (8960000)
I0730 14:41:08.458915 14648 net.cpp:140] Top shape: 1 128 1 70000 (8960000)
I0730 14:41:08.458919 14648 layer_factory.hpp:76] Creating layer fconv3
I0730 14:41:08.458926 14648 net.cpp:98] Creating Layer fconv3
I0730 14:41:08.458930 14648 net.cpp:443] fconv3 <- bn3_relu3_0_split_0
I0730 14:41:08.458936 14648 net.cpp:398] fconv3 -> fconv3
I0730 14:41:08.458942 14648 net.cpp:133] Setting up fconv3
I0730 14:41:08.460326 14648 net.cpp:140] Top shape: 1 3 1 70000 (210000)
I0730 14:41:08.460361 14648 layer_factory.hpp:76] Creating layer fbn3
I0730 14:41:08.460369 14648 net.cpp:98] Creating Layer fbn3
I0730 14:41:08.460373 14648 net.cpp:443] fbn3 <- fconv3
I0730 14:41:08.460379 14648 net.cpp:398] fbn3 -> fbn3
I0730 14:41:08.460386 14648 net.cpp:133] Setting up fbn3
I0730 14:41:08.460438 14648 net.cpp:140] Top shape: 1 3 1 70000 (210000)
I0730 14:41:08.460449 14648 layer_factory.hpp:76] Creating layer frelu3
I0730 14:41:08.460455 14648 net.cpp:98] Creating Layer frelu3
I0730 14:41:08.460458 14648 net.cpp:443] frelu3 <- fbn3
I0730 14:41:08.460464 14648 net.cpp:387] frelu3 -> fbn3 (in-place)
I0730 14:41:08.460469 14648 net.cpp:133] Setting up frelu3
I0730 14:41:08.460645 14648 net.cpp:140] Top shape: 1 3 1 70000 (210000)
I0730 14:41:08.460655 14648 layer_factory.hpp:76] Creating layer data_lattice2
I0730 14:41:08.460706 14648 net.cpp:98] Creating Layer data_lattice2
I0730 14:41:08.460713 14648 net.cpp:443] data_lattice2 <- data_data_0_split_3
I0730 14:41:08.460721 14648 net.cpp:398] data_lattice2 -> data_lattice2
I0730 14:41:08.460726 14648 net.cpp:133] Setting up data_lattice2
I0730 14:41:08.460995 14648 net.cpp:140] Top shape: 1 3 1 70000 (210000)
I0730 14:41:08.461011 14648 layer_factory.hpp:76] Creating layer feat3
I0730 14:41:08.461020 14648 net.cpp:98] Creating Layer feat3
I0730 14:41:08.461024 14648 net.cpp:443] feat3 <- data_lattice2
I0730 14:41:08.461030 14648 net.cpp:443] feat3 <- fbn3
I0730 14:41:08.461035 14648 net.cpp:398] feat3 -> feat3
I0730 14:41:08.461041 14648 net.cpp:133] Setting up feat3
I0730 14:41:08.461047 14648 net.cpp:140] Top shape: 1 3 1 70000 (210000)
I0730 14:41:08.461050 14648 layer_factory.hpp:76] Creating layer feat3_feat3_0_split
I0730 14:41:08.461056 14648 net.cpp:98] Creating Layer feat3_feat3_0_split
I0730 14:41:08.461060 14648 net.cpp:443] feat3_feat3_0_split <- feat3
I0730 14:41:08.461064 14648 net.cpp:398] feat3_feat3_0_split -> feat3_feat3_0_split_0
I0730 14:41:08.461069 14648 net.cpp:398] feat3_feat3_0_split -> feat3_feat3_0_split_1
I0730 14:41:08.461074 14648 net.cpp:133] Setting up feat3_feat3_0_split
I0730 14:41:08.461079 14648 net.cpp:140] Top shape: 1 3 1 70000 (210000)
I0730 14:41:08.461083 14648 net.cpp:140] Top shape: 1 3 1 70000 (210000)
I0730 14:41:08.461086 14648 layer_factory.hpp:76] Creating layer conv4
I0730 14:41:08.461093 14648 net.cpp:98] Creating Layer conv4
I0730 14:41:08.461097 14648 net.cpp:443] conv4 <- bn3_relu3_0_split_1
I0730 14:41:08.461102 14648 net.cpp:443] conv4 <- feat3_feat3_0_split_0
I0730 14:41:08.461104 14648 net.cpp:443] conv4 <- feat3_feat3_0_split_1
I0730 14:41:08.461110 14648 net.cpp:398] conv4 -> conv4
I0730 14:41:08.461117 14648 net.cpp:133] Setting up conv4
I0730 14:41:08.476797 14649 net.cpp:140] Top shape: 1 256 1 70000 (17920000)
I0730 14:41:08.476827 14649 layer_factory.hpp:76] Creating layer bn4
I0730 14:41:08.476837 14649 net.cpp:98] Creating Layer bn4
I0730 14:41:08.476842 14649 net.cpp:443] bn4 <- conv4
I0730 14:41:08.476848 14649 net.cpp:398] bn4 -> bn4
I0730 14:41:08.476855 14649 net.cpp:133] Setting up bn4
I0730 14:41:08.476914 14649 net.cpp:140] Top shape: 1 256 1 70000 (17920000)
I0730 14:41:08.476929 14649 layer_factory.hpp:76] Creating layer relu4
I0730 14:41:08.476936 14649 net.cpp:98] Creating Layer relu4
I0730 14:41:08.476939 14649 net.cpp:443] relu4 <- bn4
I0730 14:41:08.476944 14649 net.cpp:387] relu4 -> bn4 (in-place)
I0730 14:41:08.476949 14649 net.cpp:133] Setting up relu4
I0730 14:41:08.477195 14649 net.cpp:140] Top shape: 1 256 1 70000 (17920000)
I0730 14:41:08.477216 14649 layer_factory.hpp:76] Creating layer bn4_relu4_0_split
I0730 14:41:08.477222 14649 net.cpp:98] Creating Layer bn4_relu4_0_split
I0730 14:41:08.477226 14649 net.cpp:443] bn4_relu4_0_split <- bn4
I0730 14:41:08.477231 14649 net.cpp:398] bn4_relu4_0_split -> bn4_relu4_0_split_0
I0730 14:41:08.477238 14649 net.cpp:398] bn4_relu4_0_split -> bn4_relu4_0_split_1
I0730 14:41:08.477244 14649 net.cpp:398] bn4_relu4_0_split -> bn4_relu4_0_split_2
I0730 14:41:08.477248 14649 net.cpp:133] Setting up bn4_relu4_0_split
I0730 14:41:08.477255 14649 net.cpp:140] Top shape: 1 256 1 70000 (17920000)
I0730 14:41:08.477259 14649 net.cpp:140] Top shape: 1 256 1 70000 (17920000)
I0730 14:41:08.477262 14649 net.cpp:140] Top shape: 1 256 1 70000 (17920000)
I0730 14:41:08.477265 14649 layer_factory.hpp:76] Creating layer fconv4
I0730 14:41:08.477274 14649 net.cpp:98] Creating Layer fconv4
I0730 14:41:08.477277 14649 net.cpp:443] fconv4 <- bn4_relu4_0_split_0
I0730 14:41:08.477283 14649 net.cpp:398] fconv4 -> fconv4
I0730 14:41:08.477291 14649 net.cpp:133] Setting up fconv4
I0730 14:41:08.487532 14647 net.cpp:140] Top shape: 1 256 1 70000 (17920000)
I0730 14:41:08.487572 14647 layer_factory.hpp:76] Creating layer bn4
I0730 14:41:08.487584 14647 net.cpp:98] Creating Layer bn4
I0730 14:41:08.487591 14647 net.cpp:443] bn4 <- conv4
I0730 14:41:08.487596 14647 net.cpp:398] bn4 -> bn4
I0730 14:41:08.487603 14647 net.cpp:133] Setting up bn4
I0730 14:41:08.487664 14647 net.cpp:140] Top shape: 1 256 1 70000 (17920000)
I0730 14:41:08.487686 14647 layer_factory.hpp:76] Creating layer relu4
I0730 14:41:08.487695 14647 net.cpp:98] Creating Layer relu4
I0730 14:41:08.487699 14647 net.cpp:443] relu4 <- bn4
I0730 14:41:08.487704 14647 net.cpp:387] relu4 -> bn4 (in-place)
I0730 14:41:08.487710 14647 net.cpp:133] Setting up relu4
I0730 14:41:08.487967 14647 net.cpp:140] Top shape: 1 256 1 70000 (17920000)
I0730 14:41:08.487977 14647 layer_factory.hpp:76] Creating layer bn4_relu4_0_split
I0730 14:41:08.487984 14647 net.cpp:98] Creating Layer bn4_relu4_0_split
I0730 14:41:08.487989 14647 net.cpp:443] bn4_relu4_0_split <- bn4
I0730 14:41:08.487995 14647 net.cpp:398] bn4_relu4_0_split -> bn4_relu4_0_split_0
I0730 14:41:08.488003 14647 net.cpp:398] bn4_relu4_0_split -> bn4_relu4_0_split_1
I0730 14:41:08.488008 14647 net.cpp:398] bn4_relu4_0_split -> bn4_relu4_0_split_2
I0730 14:41:08.488014 14647 net.cpp:133] Setting up bn4_relu4_0_split
I0730 14:41:08.488021 14647 net.cpp:140] Top shape: 1 256 1 70000 (17920000)
I0730 14:41:08.488025 14647 net.cpp:140] Top shape: 1 256 1 70000 (17920000)
I0730 14:41:08.488029 14647 net.cpp:140] Top shape: 1 256 1 70000 (17920000)
I0730 14:41:08.488032 14647 layer_factory.hpp:76] Creating layer fconv4
I0730 14:41:08.488021 14650 net.cpp:140] Top shape: 1 256 1 70000 (17920000)
I0730 14:41:08.488040 14650 layer_factory.hpp:76] Creating layer bn4
I0730 14:41:08.488041 14647 net.cpp:98] Creating Layer fconv4
I0730 14:41:08.488045 14647 net.cpp:443] fconv4 <- bn4_relu4_0_split_0
I0730 14:41:08.488054 14647 net.cpp:398] fconv4 -> fconv4
I0730 14:41:08.488060 14647 net.cpp:133] Setting up fconv4
I0730 14:41:08.488049 14650 net.cpp:98] Creating Layer bn4
I0730 14:41:08.488054 14650 net.cpp:443] bn4 <- conv4
I0730 14:41:08.488059 14650 net.cpp:398] bn4 -> bn4
I0730 14:41:08.488067 14650 net.cpp:133] Setting up bn4
I0730 14:41:08.488132 14650 net.cpp:140] Top shape: 1 256 1 70000 (17920000)
I0730 14:41:08.488149 14650 layer_factory.hpp:76] Creating layer relu4
I0730 14:41:08.488157 14650 net.cpp:98] Creating Layer relu4
I0730 14:41:08.488162 14650 net.cpp:443] relu4 <- bn4
I0730 14:41:08.488168 14650 net.cpp:387] relu4 -> bn4 (in-place)
I0730 14:41:08.488173 14650 net.cpp:133] Setting up relu4
I0730 14:41:08.488376 14650 net.cpp:140] Top shape: 1 256 1 70000 (17920000)
I0730 14:41:08.488387 14650 layer_factory.hpp:76] Creating layer bn4_relu4_0_split
I0730 14:41:08.488395 14650 net.cpp:98] Creating Layer bn4_relu4_0_split
I0730 14:41:08.488400 14650 net.cpp:443] bn4_relu4_0_split <- bn4
I0730 14:41:08.488406 14650 net.cpp:398] bn4_relu4_0_split -> bn4_relu4_0_split_0
I0730 14:41:08.488415 14650 net.cpp:398] bn4_relu4_0_split -> bn4_relu4_0_split_1
I0730 14:41:08.488421 14650 net.cpp:398] bn4_relu4_0_split -> bn4_relu4_0_split_2
I0730 14:41:08.488427 14650 net.cpp:133] Setting up bn4_relu4_0_split
I0730 14:41:08.488435 14650 net.cpp:140] Top shape: 1 256 1 70000 (17920000)
I0730 14:41:08.488438 14650 net.cpp:140] Top shape: 1 256 1 70000 (17920000)
I0730 14:41:08.488443 14650 net.cpp:140] Top shape: 1 256 1 70000 (17920000)
I0730 14:41:08.488447 14650 layer_factory.hpp:76] Creating layer fconv4
I0730 14:41:08.488456 14650 net.cpp:98] Creating Layer fconv4
I0730 14:41:08.488461 14650 net.cpp:443] fconv4 <- bn4_relu4_0_split_0
I0730 14:41:08.488467 14650 net.cpp:398] fconv4 -> fconv4
I0730 14:41:08.488474 14650 net.cpp:133] Setting up fconv4
I0730 14:41:08.489764 14647 net.cpp:140] Top shape: 1 3 1 70000 (210000)
I0730 14:41:08.489781 14647 layer_factory.hpp:76] Creating layer fbn4
I0730 14:41:08.489796 14647 net.cpp:98] Creating Layer fbn4
I0730 14:41:08.489800 14647 net.cpp:443] fbn4 <- fconv4
I0730 14:41:08.489809 14647 net.cpp:398] fbn4 -> fbn4
I0730 14:41:08.489815 14647 net.cpp:133] Setting up fbn4
I0730 14:41:08.489801 14649 net.cpp:140] Top shape: 1 3 1 70000 (210000)
I0730 14:41:08.489821 14649 layer_factory.hpp:76] Creating layer fbn4
I0730 14:41:08.489831 14649 net.cpp:98] Creating Layer fbn4
I0730 14:41:08.489835 14649 net.cpp:443] fbn4 <- fconv4
I0730 14:41:08.489842 14649 net.cpp:398] fbn4 -> fbn4
I0730 14:41:08.489850 14649 net.cpp:133] Setting up fbn4
I0730 14:41:08.489873 14647 net.cpp:140] Top shape: 1 3 1 70000 (210000)
I0730 14:41:08.489892 14647 layer_factory.hpp:76] Creating layer frelu4
I0730 14:41:08.489899 14647 net.cpp:98] Creating Layer frelu4
I0730 14:41:08.489903 14647 net.cpp:443] frelu4 <- fbn4
I0730 14:41:08.489909 14647 net.cpp:387] frelu4 -> fbn4 (in-place)
I0730 14:41:08.489914 14647 net.cpp:133] Setting up frelu4
I0730 14:41:08.489903 14649 net.cpp:140] Top shape: 1 3 1 70000 (210000)
I0730 14:41:08.489912 14649 layer_factory.hpp:76] Creating layer frelu4
I0730 14:41:08.489917 14649 net.cpp:98] Creating Layer frelu4
I0730 14:41:08.489922 14649 net.cpp:443] frelu4 <- fbn4
I0730 14:41:08.489925 14649 net.cpp:387] frelu4 -> fbn4 (in-place)
I0730 14:41:08.489930 14649 net.cpp:133] Setting up frelu4
I0730 14:41:08.490098 14647 net.cpp:140] Top shape: 1 3 1 70000 (210000)
I0730 14:41:08.490093 14649 net.cpp:140] Top shape: 1 3 1 70000 (210000)
I0730 14:41:08.490103 14649 layer_factory.hpp:76] Creating layer data_lattice3
I0730 14:41:08.490105 14647 layer_factory.hpp:76] Creating layer data_lattice3
I0730 14:41:08.490109 14650 net.cpp:140] Top shape: 1 3 1 70000 (210000)
I0730 14:41:08.490124 14650 layer_factory.hpp:76] Creating layer fbn4
I0730 14:41:08.490136 14650 net.cpp:98] Creating Layer fbn4
I0730 14:41:08.490141 14650 net.cpp:443] fbn4 <- fconv4
I0730 14:41:08.490152 14647 net.cpp:98] Creating Layer data_lattice3
I0730 14:41:08.490159 14647 net.cpp:443] data_lattice3 <- data_data_0_split_4
I0730 14:41:08.490146 14649 net.cpp:98] Creating Layer data_lattice3
I0730 14:41:08.490152 14649 net.cpp:443] data_lattice3 <- data_data_0_split_4
I0730 14:41:08.490159 14649 net.cpp:398] data_lattice3 -> data_lattice3
I0730 14:41:08.490165 14649 net.cpp:133] Setting up data_lattice3
I0730 14:41:08.490149 14650 net.cpp:398] fbn4 -> fbn4
I0730 14:41:08.490156 14650 net.cpp:133] Setting up fbn4
I0730 14:41:08.490165 14647 net.cpp:398] data_lattice3 -> data_lattice3
I0730 14:41:08.490172 14647 net.cpp:133] Setting up data_lattice3
I0730 14:41:08.490218 14650 net.cpp:140] Top shape: 1 3 1 70000 (210000)
I0730 14:41:08.490231 14650 layer_factory.hpp:76] Creating layer frelu4
I0730 14:41:08.490238 14650 net.cpp:98] Creating Layer frelu4
I0730 14:41:08.490242 14650 net.cpp:443] frelu4 <- fbn4
I0730 14:41:08.490247 14650 net.cpp:387] frelu4 -> fbn4 (in-place)
I0730 14:41:08.490252 14650 net.cpp:133] Setting up frelu4
I0730 14:41:08.490340 14647 net.cpp:140] Top shape: 1 3 1 70000 (210000)
I0730 14:41:08.490350 14647 layer_factory.hpp:76] Creating layer feat4
I0730 14:41:08.490358 14647 net.cpp:98] Creating Layer feat4
I0730 14:41:08.490362 14647 net.cpp:443] feat4 <- data_lattice3
I0730 14:41:08.490368 14647 net.cpp:443] feat4 <- fbn4
I0730 14:41:08.490375 14647 net.cpp:398] feat4 -> feat4
I0730 14:41:08.490383 14647 net.cpp:133] Setting up feat4
I0730 14:41:08.490391 14647 net.cpp:140] Top shape: 1 3 1 70000 (210000)
I0730 14:41:08.490394 14647 layer_factory.hpp:76] Creating layer feat4_feat4_0_split
I0730 14:41:08.490401 14647 net.cpp:98] Creating Layer feat4_feat4_0_split
I0730 14:41:08.490404 14647 net.cpp:443] feat4_feat4_0_split <- feat4
I0730 14:41:08.490409 14647 net.cpp:398] feat4_feat4_0_split -> feat4_feat4_0_split_0
I0730 14:41:08.490417 14647 net.cpp:398] feat4_feat4_0_split -> feat4_feat4_0_split_1
I0730 14:41:08.490422 14647 net.cpp:133] Setting up feat4_feat4_0_split
I0730 14:41:08.490427 14647 net.cpp:140] Top shape: 1 3 1 70000 (210000)
I0730 14:41:08.490432 14647 net.cpp:140] Top shape: 1 3 1 70000 (210000)
I0730 14:41:08.490429 14649 net.cpp:140] Top shape: 1 3 1 70000 (210000)
I0730 14:41:08.490435 14649 layer_factory.hpp:76] Creating layer feat4
I0730 14:41:08.490443 14649 net.cpp:98] Creating Layer feat4
I0730 14:41:08.490443 14647 layer_factory.hpp:76] Creating layer conv5
I0730 14:41:08.490453 14647 net.cpp:98] Creating Layer conv5
I0730 14:41:08.490456 14647 net.cpp:443] conv5 <- bn4_relu4_0_split_1
I0730 14:41:08.490447 14649 net.cpp:443] feat4 <- data_lattice3
I0730 14:41:08.490453 14649 net.cpp:443] feat4 <- fbn4
I0730 14:41:08.490458 14649 net.cpp:398] feat4 -> feat4
I0730 14:41:08.490463 14649 net.cpp:133] Setting up feat4
I0730 14:41:08.490448 14650 net.cpp:140] Top shape: 1 3 1 70000 (210000)
I0730 14:41:08.490456 14650 layer_factory.hpp:76] Creating layer data_lattice3
I0730 14:41:08.490461 14647 net.cpp:443] conv5 <- feat4_feat4_0_split_0
I0730 14:41:08.490465 14647 net.cpp:443] conv5 <- feat4_feat4_0_split_1
I0730 14:41:08.490471 14647 net.cpp:398] conv5 -> conv5
I0730 14:41:08.490478 14647 net.cpp:133] Setting up conv5
I0730 14:41:08.490469 14649 net.cpp:140] Top shape: 1 3 1 70000 (210000)
I0730 14:41:08.490480 14649 layer_factory.hpp:76] Creating layer feat4_feat4_0_split
I0730 14:41:08.490486 14649 net.cpp:98] Creating Layer feat4_feat4_0_split
I0730 14:41:08.490489 14649 net.cpp:443] feat4_feat4_0_split <- feat4
I0730 14:41:08.490494 14649 net.cpp:398] feat4_feat4_0_split -> feat4_feat4_0_split_0
I0730 14:41:08.490500 14649 net.cpp:398] feat4_feat4_0_split -> feat4_feat4_0_split_1
I0730 14:41:08.490505 14649 net.cpp:133] Setting up feat4_feat4_0_split
I0730 14:41:08.490494 14650 net.cpp:98] Creating Layer data_lattice3
I0730 14:41:08.490500 14650 net.cpp:443] data_lattice3 <- data_data_0_split_4
I0730 14:41:08.490507 14650 net.cpp:398] data_lattice3 -> data_lattice3
I0730 14:41:08.490514 14650 net.cpp:133] Setting up data_lattice3
I0730 14:41:08.490510 14649 net.cpp:140] Top shape: 1 3 1 70000 (210000)
I0730 14:41:08.490514 14649 net.cpp:140] Top shape: 1 3 1 70000 (210000)
I0730 14:41:08.490517 14649 layer_factory.hpp:76] Creating layer conv5
I0730 14:41:08.490525 14649 net.cpp:98] Creating Layer conv5
I0730 14:41:08.490528 14649 net.cpp:443] conv5 <- bn4_relu4_0_split_1
I0730 14:41:08.490533 14649 net.cpp:443] conv5 <- feat4_feat4_0_split_0
I0730 14:41:08.490543 14649 net.cpp:443] conv5 <- feat4_feat4_0_split_1
I0730 14:41:08.490550 14649 net.cpp:398] conv5 -> conv5
I0730 14:41:08.490556 14649 net.cpp:133] Setting up conv5
I0730 14:41:08.490692 14650 net.cpp:140] Top shape: 1 3 1 70000 (210000)
I0730 14:41:08.490705 14650 layer_factory.hpp:76] Creating layer feat4
I0730 14:41:08.490712 14650 net.cpp:98] Creating Layer feat4
I0730 14:41:08.490717 14650 net.cpp:443] feat4 <- data_lattice3
I0730 14:41:08.490722 14650 net.cpp:443] feat4 <- fbn4
I0730 14:41:08.490728 14650 net.cpp:398] feat4 -> feat4
I0730 14:41:08.490736 14650 net.cpp:133] Setting up feat4
I0730 14:41:08.490742 14650 net.cpp:140] Top shape: 1 3 1 70000 (210000)
I0730 14:41:08.490747 14650 layer_factory.hpp:76] Creating layer feat4_feat4_0_split
I0730 14:41:08.490753 14650 net.cpp:98] Creating Layer feat4_feat4_0_split
I0730 14:41:08.490757 14650 net.cpp:443] feat4_feat4_0_split <- feat4
I0730 14:41:08.490762 14650 net.cpp:398] feat4_feat4_0_split -> feat4_feat4_0_split_0
I0730 14:41:08.490769 14650 net.cpp:398] feat4_feat4_0_split -> feat4_feat4_0_split_1
I0730 14:41:08.490774 14650 net.cpp:133] Setting up feat4_feat4_0_split
I0730 14:41:08.490780 14650 net.cpp:140] Top shape: 1 3 1 70000 (210000)
I0730 14:41:08.490785 14650 net.cpp:140] Top shape: 1 3 1 70000 (210000)
I0730 14:41:08.490790 14650 layer_factory.hpp:76] Creating layer conv5
I0730 14:41:08.490798 14650 net.cpp:98] Creating Layer conv5
I0730 14:41:08.490803 14650 net.cpp:443] conv5 <- bn4_relu4_0_split_1
I0730 14:41:08.490808 14650 net.cpp:443] conv5 <- feat4_feat4_0_split_0
I0730 14:41:08.490813 14650 net.cpp:443] conv5 <- feat4_feat4_0_split_1
I0730 14:41:08.490819 14650 net.cpp:398] conv5 -> conv5
I0730 14:41:08.490826 14650 net.cpp:133] Setting up conv5
I0730 14:41:08.517606 14648 net.cpp:140] Top shape: 1 256 1 70000 (17920000)
I0730 14:41:08.517637 14648 layer_factory.hpp:76] Creating layer bn4
I0730 14:41:08.517645 14648 net.cpp:98] Creating Layer bn4
I0730 14:41:08.517650 14648 net.cpp:443] bn4 <- conv4
I0730 14:41:08.517657 14648 net.cpp:398] bn4 -> bn4
I0730 14:41:08.517663 14648 net.cpp:133] Setting up bn4
I0730 14:41:08.517743 14648 net.cpp:140] Top shape: 1 256 1 70000 (17920000)
I0730 14:41:08.517757 14648 layer_factory.hpp:76] Creating layer relu4
I0730 14:41:08.517765 14648 net.cpp:98] Creating Layer relu4
I0730 14:41:08.517768 14648 net.cpp:443] relu4 <- bn4
I0730 14:41:08.517772 14648 net.cpp:387] relu4 -> bn4 (in-place)
I0730 14:41:08.517777 14648 net.cpp:133] Setting up relu4
I0730 14:41:08.518025 14648 net.cpp:140] Top shape: 1 256 1 70000 (17920000)
I0730 14:41:08.518044 14648 layer_factory.hpp:76] Creating layer bn4_relu4_0_split
I0730 14:41:08.518052 14648 net.cpp:98] Creating Layer bn4_relu4_0_split
I0730 14:41:08.518055 14648 net.cpp:443] bn4_relu4_0_split <- bn4
I0730 14:41:08.518061 14648 net.cpp:398] bn4_relu4_0_split -> bn4_relu4_0_split_0
I0730 14:41:08.518067 14648 net.cpp:398] bn4_relu4_0_split -> bn4_relu4_0_split_1
I0730 14:41:08.518072 14648 net.cpp:398] bn4_relu4_0_split -> bn4_relu4_0_split_2
I0730 14:41:08.518077 14648 net.cpp:133] Setting up bn4_relu4_0_split
I0730 14:41:08.518084 14648 net.cpp:140] Top shape: 1 256 1 70000 (17920000)
I0730 14:41:08.518087 14648 net.cpp:140] Top shape: 1 256 1 70000 (17920000)
I0730 14:41:08.518090 14648 net.cpp:140] Top shape: 1 256 1 70000 (17920000)
I0730 14:41:08.518098 14648 layer_factory.hpp:76] Creating layer fconv4
I0730 14:41:08.518107 14648 net.cpp:98] Creating Layer fconv4
I0730 14:41:08.518111 14648 net.cpp:443] fconv4 <- bn4_relu4_0_split_0
I0730 14:41:08.518117 14648 net.cpp:398] fconv4 -> fconv4
I0730 14:41:08.518123 14648 net.cpp:133] Setting up fconv4
I0730 14:41:08.519594 14648 net.cpp:140] Top shape: 1 3 1 70000 (210000)
I0730 14:41:08.519609 14648 layer_factory.hpp:76] Creating layer fbn4
I0730 14:41:08.519629 14648 net.cpp:98] Creating Layer fbn4
I0730 14:41:08.519634 14648 net.cpp:443] fbn4 <- fconv4
I0730 14:41:08.519639 14648 net.cpp:398] fbn4 -> fbn4
I0730 14:41:08.519646 14648 net.cpp:133] Setting up fbn4
I0730 14:41:08.519699 14648 net.cpp:140] Top shape: 1 3 1 70000 (210000)
I0730 14:41:08.519709 14648 layer_factory.hpp:76] Creating layer frelu4
I0730 14:41:08.519716 14648 net.cpp:98] Creating Layer frelu4
I0730 14:41:08.519719 14648 net.cpp:443] frelu4 <- fbn4
I0730 14:41:08.519724 14648 net.cpp:387] frelu4 -> fbn4 (in-place)
I0730 14:41:08.519728 14648 net.cpp:133] Setting up frelu4
I0730 14:41:08.519893 14648 net.cpp:140] Top shape: 1 3 1 70000 (210000)
I0730 14:41:08.519902 14648 layer_factory.hpp:76] Creating layer data_lattice3
I0730 14:41:08.519950 14648 net.cpp:98] Creating Layer data_lattice3
I0730 14:41:08.519958 14648 net.cpp:443] data_lattice3 <- data_data_0_split_4
I0730 14:41:08.519963 14648 net.cpp:398] data_lattice3 -> data_lattice3
I0730 14:41:08.519969 14648 net.cpp:133] Setting up data_lattice3
I0730 14:41:08.520128 14648 net.cpp:140] Top shape: 1 3 1 70000 (210000)
I0730 14:41:08.520145 14648 layer_factory.hpp:76] Creating layer feat4
I0730 14:41:08.520153 14648 net.cpp:98] Creating Layer feat4
I0730 14:41:08.520157 14648 net.cpp:443] feat4 <- data_lattice3
I0730 14:41:08.520162 14648 net.cpp:443] feat4 <- fbn4
I0730 14:41:08.520167 14648 net.cpp:398] feat4 -> feat4
I0730 14:41:08.520174 14648 net.cpp:133] Setting up feat4
I0730 14:41:08.520180 14648 net.cpp:140] Top shape: 1 3 1 70000 (210000)
I0730 14:41:08.520184 14648 layer_factory.hpp:76] Creating layer feat4_feat4_0_split
I0730 14:41:08.520190 14648 net.cpp:98] Creating Layer feat4_feat4_0_split
I0730 14:41:08.520192 14648 net.cpp:443] feat4_feat4_0_split <- feat4
I0730 14:41:08.520197 14648 net.cpp:398] feat4_feat4_0_split -> feat4_feat4_0_split_0
I0730 14:41:08.520202 14648 net.cpp:398] feat4_feat4_0_split -> feat4_feat4_0_split_1
I0730 14:41:08.520207 14648 net.cpp:133] Setting up feat4_feat4_0_split
I0730 14:41:08.520212 14648 net.cpp:140] Top shape: 1 3 1 70000 (210000)
I0730 14:41:08.520215 14648 net.cpp:140] Top shape: 1 3 1 70000 (210000)
I0730 14:41:08.520218 14648 layer_factory.hpp:76] Creating layer conv5
I0730 14:41:08.520227 14648 net.cpp:98] Creating Layer conv5
I0730 14:41:08.520231 14648 net.cpp:443] conv5 <- bn4_relu4_0_split_1
I0730 14:41:08.520234 14648 net.cpp:443] conv5 <- feat4_feat4_0_split_0
I0730 14:41:08.520238 14648 net.cpp:443] conv5 <- feat4_feat4_0_split_1
I0730 14:41:08.520243 14648 net.cpp:398] conv5 -> conv5
I0730 14:41:08.520251 14648 net.cpp:133] Setting up conv5
I0730 14:41:08.602725 14649 net.cpp:140] Top shape: 1 256 1 70000 (17920000)
I0730 14:41:08.602773 14649 layer_factory.hpp:76] Creating layer bn5
I0730 14:41:08.602788 14649 net.cpp:98] Creating Layer bn5
I0730 14:41:08.602795 14649 net.cpp:443] bn5 <- conv5
I0730 14:41:08.602807 14649 net.cpp:398] bn5 -> bn5
I0730 14:41:08.602816 14649 net.cpp:133] Setting up bn5
I0730 14:41:08.602912 14649 net.cpp:140] Top shape: 1 256 1 70000 (17920000)
I0730 14:41:08.602926 14649 layer_factory.hpp:76] Creating layer relu5
I0730 14:41:08.602932 14649 net.cpp:98] Creating Layer relu5
I0730 14:41:08.602936 14649 net.cpp:443] relu5 <- bn5
I0730 14:41:08.602941 14649 net.cpp:387] relu5 -> bn5 (in-place)
I0730 14:41:08.602946 14649 net.cpp:133] Setting up relu5
I0730 14:41:08.603891 14649 net.cpp:140] Top shape: 1 256 1 70000 (17920000)
I0730 14:41:08.603905 14649 layer_factory.hpp:76] Creating layer bn5_relu5_0_split
I0730 14:41:08.603927 14649 net.cpp:98] Creating Layer bn5_relu5_0_split
I0730 14:41:08.603931 14649 net.cpp:443] bn5_relu5_0_split <- bn5
I0730 14:41:08.603936 14649 net.cpp:398] bn5_relu5_0_split -> bn5_relu5_0_split_0
I0730 14:41:08.603943 14649 net.cpp:398] bn5_relu5_0_split -> bn5_relu5_0_split_1
I0730 14:41:08.603950 14649 net.cpp:398] bn5_relu5_0_split -> bn5_relu5_0_split_2
I0730 14:41:08.603955 14649 net.cpp:133] Setting up bn5_relu5_0_split
I0730 14:41:08.603961 14649 net.cpp:140] Top shape: 1 256 1 70000 (17920000)
I0730 14:41:08.603965 14649 net.cpp:140] Top shape: 1 256 1 70000 (17920000)
I0730 14:41:08.603968 14649 net.cpp:140] Top shape: 1 256 1 70000 (17920000)
I0730 14:41:08.603982 14649 layer_factory.hpp:76] Creating layer fconv5
I0730 14:41:08.603994 14649 net.cpp:98] Creating Layer fconv5
I0730 14:41:08.603997 14649 net.cpp:443] fconv5 <- bn5_relu5_0_split_0
I0730 14:41:08.604003 14649 net.cpp:398] fconv5 -> fconv5
I0730 14:41:08.604012 14649 net.cpp:133] Setting up fconv5
I0730 14:41:08.625567 14647 net.cpp:140] Top shape: 1 256 1 70000 (17920000)
I0730 14:41:08.625591 14647 layer_factory.hpp:76] Creating layer bn5
I0730 14:41:08.625605 14647 net.cpp:98] Creating Layer bn5
I0730 14:41:08.625612 14647 net.cpp:443] bn5 <- conv5
I0730 14:41:08.625620 14647 net.cpp:398] bn5 -> bn5
I0730 14:41:08.625628 14647 net.cpp:133] Setting up bn5
I0730 14:41:08.625735 14647 net.cpp:140] Top shape: 1 256 1 70000 (17920000)
I0730 14:41:08.625746 14647 layer_factory.hpp:76] Creating layer relu5
I0730 14:41:08.625754 14647 net.cpp:98] Creating Layer relu5
I0730 14:41:08.625758 14647 net.cpp:443] relu5 <- bn5
I0730 14:41:08.625763 14647 net.cpp:387] relu5 -> bn5 (in-place)
I0730 14:41:08.625769 14647 net.cpp:133] Setting up relu5
I0730 14:41:08.625888 14650 net.cpp:140] Top shape: 1 256 1 70000 (17920000)
I0730 14:41:08.625913 14650 layer_factory.hpp:76] Creating layer bn5
I0730 14:41:08.625923 14650 net.cpp:98] Creating Layer bn5
I0730 14:41:08.625929 14650 net.cpp:443] bn5 <- conv5
I0730 14:41:08.625938 14650 net.cpp:398] bn5 -> bn5
I0730 14:41:08.625946 14650 net.cpp:133] Setting up bn5
I0730 14:41:08.626008 14650 net.cpp:140] Top shape: 1 256 1 70000 (17920000)
I0730 14:41:08.626020 14650 layer_factory.hpp:76] Creating layer relu5
I0730 14:41:08.626029 14650 net.cpp:98] Creating Layer relu5
I0730 14:41:08.626034 14650 net.cpp:443] relu5 <- bn5
I0730 14:41:08.626039 14650 net.cpp:387] relu5 -> bn5 (in-place)
I0730 14:41:08.626045 14650 net.cpp:133] Setting up relu5
I0730 14:41:08.626488 14647 net.cpp:140] Top shape: 1 256 1 70000 (17920000)
I0730 14:41:08.626502 14647 layer_factory.hpp:76] Creating layer bn5_relu5_0_split
I0730 14:41:08.626518 14647 net.cpp:98] Creating Layer bn5_relu5_0_split
I0730 14:41:08.626523 14647 net.cpp:443] bn5_relu5_0_split <- bn5
I0730 14:41:08.626528 14647 net.cpp:398] bn5_relu5_0_split -> bn5_relu5_0_split_0
I0730 14:41:08.626536 14647 net.cpp:398] bn5_relu5_0_split -> bn5_relu5_0_split_1
I0730 14:41:08.626550 14647 net.cpp:398] bn5_relu5_0_split -> bn5_relu5_0_split_2
I0730 14:41:08.626555 14647 net.cpp:133] Setting up bn5_relu5_0_split
I0730 14:41:08.626564 14647 net.cpp:140] Top shape: 1 256 1 70000 (17920000)
I0730 14:41:08.626567 14647 net.cpp:140] Top shape: 1 256 1 70000 (17920000)
I0730 14:41:08.626571 14647 net.cpp:140] Top shape: 1 256 1 70000 (17920000)
I0730 14:41:08.626585 14647 layer_factory.hpp:76] Creating layer fconv5
I0730 14:41:08.626597 14647 net.cpp:98] Creating Layer fconv5
I0730 14:41:08.626601 14647 net.cpp:443] fconv5 <- bn5_relu5_0_split_0
I0730 14:41:08.626607 14647 net.cpp:398] fconv5 -> fconv5
I0730 14:41:08.626616 14647 net.cpp:133] Setting up fconv5
I0730 14:41:08.626822 14650 net.cpp:140] Top shape: 1 256 1 70000 (17920000)
I0730 14:41:08.626837 14650 layer_factory.hpp:76] Creating layer bn5_relu5_0_split
I0730 14:41:08.626847 14650 net.cpp:98] Creating Layer bn5_relu5_0_split
I0730 14:41:08.626850 14650 net.cpp:443] bn5_relu5_0_split <- bn5
I0730 14:41:08.626859 14650 net.cpp:398] bn5_relu5_0_split -> bn5_relu5_0_split_0
I0730 14:41:08.626868 14650 net.cpp:398] bn5_relu5_0_split -> bn5_relu5_0_split_1
I0730 14:41:08.626873 14650 net.cpp:398] bn5_relu5_0_split -> bn5_relu5_0_split_2
I0730 14:41:08.626881 14650 net.cpp:133] Setting up bn5_relu5_0_split
I0730 14:41:08.626888 14650 net.cpp:140] Top shape: 1 256 1 70000 (17920000)
I0730 14:41:08.626893 14650 net.cpp:140] Top shape: 1 256 1 70000 (17920000)
I0730 14:41:08.626897 14650 net.cpp:140] Top shape: 1 256 1 70000 (17920000)
I0730 14:41:08.626901 14650 layer_factory.hpp:76] Creating layer fconv5
I0730 14:41:08.626910 14650 net.cpp:98] Creating Layer fconv5
I0730 14:41:08.626914 14650 net.cpp:443] fconv5 <- bn5_relu5_0_split_0
I0730 14:41:08.626922 14650 net.cpp:398] fconv5 -> fconv5
I0730 14:41:08.626932 14650 net.cpp:133] Setting up fconv5
I0730 14:41:08.628139 14647 net.cpp:140] Top shape: 1 3 1 70000 (210000)
I0730 14:41:08.628154 14647 layer_factory.hpp:76] Creating layer fbn5
I0730 14:41:08.628165 14647 net.cpp:98] Creating Layer fbn5
I0730 14:41:08.628170 14647 net.cpp:443] fbn5 <- fconv5
I0730 14:41:08.628175 14647 net.cpp:398] fbn5 -> fbn5
I0730 14:41:08.628183 14647 net.cpp:133] Setting up fbn5
I0730 14:41:08.628227 14649 net.cpp:140] Top shape: 1 3 1 70000 (210000)
I0730 14:41:08.628239 14647 net.cpp:140] Top shape: 1 3 1 70000 (210000)
I0730 14:41:08.628249 14647 layer_factory.hpp:76] Creating layer frelu5
I0730 14:41:08.628242 14649 layer_factory.hpp:76] Creating layer fbn5
I0730 14:41:08.628250 14649 net.cpp:98] Creating Layer fbn5
I0730 14:41:08.628255 14649 net.cpp:443] fbn5 <- fconv5
I0730 14:41:08.628255 14647 net.cpp:98] Creating Layer frelu5
I0730 14:41:08.628259 14647 net.cpp:443] frelu5 <- fbn5
I0730 14:41:08.628265 14647 net.cpp:387] frelu5 -> fbn5 (in-place)
I0730 14:41:08.628270 14647 net.cpp:133] Setting up frelu5
I0730 14:41:08.628263 14649 net.cpp:398] fbn5 -> fbn5
I0730 14:41:08.628270 14649 net.cpp:133] Setting up fbn5
I0730 14:41:08.628358 14649 net.cpp:140] Top shape: 1 3 1 70000 (210000)
I0730 14:41:08.628370 14649 layer_factory.hpp:76] Creating layer frelu5
I0730 14:41:08.628377 14649 net.cpp:98] Creating Layer frelu5
I0730 14:41:08.628381 14649 net.cpp:443] frelu5 <- fbn5
I0730 14:41:08.628386 14649 net.cpp:387] frelu5 -> fbn5 (in-place)
I0730 14:41:08.628391 14649 net.cpp:133] Setting up frelu5
I0730 14:41:08.628458 14647 net.cpp:140] Top shape: 1 3 1 70000 (210000)
I0730 14:41:08.628468 14647 layer_factory.hpp:76] Creating layer data_lattice4
I0730 14:41:08.628465 14650 net.cpp:140] Top shape: 1 3 1 70000 (210000)
I0730 14:41:08.628484 14650 layer_factory.hpp:76] Creating layer fbn5
I0730 14:41:08.628492 14650 net.cpp:98] Creating Layer fbn5
I0730 14:41:08.628497 14650 net.cpp:443] fbn5 <- fconv5
I0730 14:41:08.628506 14650 net.cpp:398] fbn5 -> fbn5
I0730 14:41:08.628515 14650 net.cpp:133] Setting up fbn5
I0730 14:41:08.628545 14647 net.cpp:98] Creating Layer data_lattice4
I0730 14:41:08.628552 14647 net.cpp:443] data_lattice4 <- data_data_0_split_5
I0730 14:41:08.628559 14647 net.cpp:398] data_lattice4 -> data_lattice4
I0730 14:41:08.628566 14647 net.cpp:133] Setting up data_lattice4
I0730 14:41:08.628572 14649 net.cpp:140] Top shape: 1 3 1 70000 (210000)
I0730 14:41:08.628579 14649 layer_factory.hpp:76] Creating layer data_lattice4
I0730 14:41:08.628585 14650 net.cpp:140] Top shape: 1 3 1 70000 (210000)
I0730 14:41:08.628595 14650 layer_factory.hpp:76] Creating layer frelu5
I0730 14:41:08.628602 14650 net.cpp:98] Creating Layer frelu5
I0730 14:41:08.628607 14650 net.cpp:443] frelu5 <- fbn5
I0730 14:41:08.628613 14650 net.cpp:387] frelu5 -> fbn5 (in-place)
I0730 14:41:08.628624 14649 net.cpp:98] Creating Layer data_lattice4
I0730 14:41:08.628630 14649 net.cpp:443] data_lattice4 <- data_data_0_split_5
I0730 14:41:08.628619 14650 net.cpp:133] Setting up frelu5
I0730 14:41:08.628638 14649 net.cpp:398] data_lattice4 -> data_lattice4
I0730 14:41:08.628643 14649 net.cpp:133] Setting up data_lattice4
I0730 14:41:08.628753 14647 net.cpp:140] Top shape: 1 3 1 70000 (210000)
I0730 14:41:08.628763 14647 layer_factory.hpp:76] Creating layer feat5
I0730 14:41:08.628772 14647 net.cpp:98] Creating Layer feat5
I0730 14:41:08.628777 14647 net.cpp:443] feat5 <- data_lattice4
I0730 14:41:08.628782 14647 net.cpp:443] feat5 <- fbn5
I0730 14:41:08.628788 14647 net.cpp:398] feat5 -> feat5
I0730 14:41:08.628796 14647 net.cpp:133] Setting up feat5
I0730 14:41:08.628803 14647 net.cpp:140] Top shape: 1 3 1 70000 (210000)
I0730 14:41:08.628815 14647 layer_factory.hpp:76] Creating layer feat5_feat5_0_split
I0730 14:41:08.628804 14649 net.cpp:140] Top shape: 1 3 1 70000 (210000)
I0730 14:41:08.628810 14649 layer_factory.hpp:76] Creating layer feat5
I0730 14:41:08.628818 14649 net.cpp:98] Creating Layer feat5
I0730 14:41:08.628821 14649 net.cpp:443] feat5 <- data_lattice4
I0730 14:41:08.628826 14649 net.cpp:443] feat5 <- fbn5
I0730 14:41:08.628823 14647 net.cpp:98] Creating Layer feat5_feat5_0_split
I0730 14:41:08.628826 14647 net.cpp:443] feat5_feat5_0_split <- feat5
I0730 14:41:08.628832 14647 net.cpp:398] feat5_feat5_0_split -> feat5_feat5_0_split_0
I0730 14:41:08.628839 14647 net.cpp:398] feat5_feat5_0_split -> feat5_feat5_0_split_1
I0730 14:41:08.628832 14649 net.cpp:398] feat5 -> feat5
I0730 14:41:08.628839 14649 net.cpp:133] Setting up feat5
I0730 14:41:08.628844 14649 net.cpp:140] Top shape: 1 3 1 70000 (210000)
I0730 14:41:08.628849 14649 layer_factory.hpp:76] Creating layer feat5_feat5_0_split
I0730 14:41:08.628818 14650 net.cpp:140] Top shape: 1 3 1 70000 (210000)
I0730 14:41:08.628825 14650 layer_factory.hpp:76] Creating layer data_lattice4
I0730 14:41:08.628847 14647 net.cpp:133] Setting up feat5_feat5_0_split
I0730 14:41:08.628854 14647 net.cpp:140] Top shape: 1 3 1 70000 (210000)
I0730 14:41:08.628859 14647 net.cpp:140] Top shape: 1 3 1 70000 (210000)
I0730 14:41:08.628861 14647 layer_factory.hpp:76] Creating layer conv6
I0730 14:41:08.628871 14647 net.cpp:98] Creating Layer conv6
I0730 14:41:08.628854 14649 net.cpp:98] Creating Layer feat5_feat5_0_split
I0730 14:41:08.628857 14649 net.cpp:443] feat5_feat5_0_split <- feat5
I0730 14:41:08.628861 14649 net.cpp:398] feat5_feat5_0_split -> feat5_feat5_0_split_0
I0730 14:41:08.628867 14649 net.cpp:398] feat5_feat5_0_split -> feat5_feat5_0_split_1
I0730 14:41:08.628875 14649 net.cpp:133] Setting up feat5_feat5_0_split
I0730 14:41:08.628875 14647 net.cpp:443] conv6 <- bn5_relu5_0_split_1
I0730 14:41:08.628880 14647 net.cpp:443] conv6 <- feat5_feat5_0_split_0
I0730 14:41:08.628885 14647 net.cpp:443] conv6 <- feat5_feat5_0_split_1
I0730 14:41:08.628891 14647 net.cpp:398] conv6 -> conv6
I0730 14:41:08.628880 14649 net.cpp:140] Top shape: 1 3 1 70000 (210000)
I0730 14:41:08.628885 14649 net.cpp:140] Top shape: 1 3 1 70000 (210000)
I0730 14:41:08.628888 14649 layer_factory.hpp:76] Creating layer conv6
I0730 14:41:08.628896 14649 net.cpp:98] Creating Layer conv6
I0730 14:41:08.628873 14650 net.cpp:98] Creating Layer data_lattice4
I0730 14:41:08.628880 14650 net.cpp:443] data_lattice4 <- data_data_0_split_5
I0730 14:41:08.628888 14650 net.cpp:398] data_lattice4 -> data_lattice4
I0730 14:41:08.628895 14650 net.cpp:133] Setting up data_lattice4
I0730 14:41:08.628897 14647 net.cpp:133] Setting up conv6
I0730 14:41:08.628899 14649 net.cpp:443] conv6 <- bn5_relu5_0_split_1
I0730 14:41:08.628904 14649 net.cpp:443] conv6 <- feat5_feat5_0_split_0
I0730 14:41:08.628908 14649 net.cpp:443] conv6 <- feat5_feat5_0_split_1
I0730 14:41:08.628913 14649 net.cpp:398] conv6 -> conv6
I0730 14:41:08.628921 14649 net.cpp:133] Setting up conv6
I0730 14:41:08.629078 14650 net.cpp:140] Top shape: 1 3 1 70000 (210000)
I0730 14:41:08.629091 14650 layer_factory.hpp:76] Creating layer feat5
I0730 14:41:08.629097 14650 net.cpp:98] Creating Layer feat5
I0730 14:41:08.629102 14650 net.cpp:443] feat5 <- data_lattice4
I0730 14:41:08.629108 14650 net.cpp:443] feat5 <- fbn5
I0730 14:41:08.629115 14650 net.cpp:398] feat5 -> feat5
I0730 14:41:08.629123 14650 net.cpp:133] Setting up feat5
I0730 14:41:08.629129 14650 net.cpp:140] Top shape: 1 3 1 70000 (210000)
I0730 14:41:08.629137 14650 layer_factory.hpp:76] Creating layer feat5_feat5_0_split
I0730 14:41:08.629142 14650 net.cpp:98] Creating Layer feat5_feat5_0_split
I0730 14:41:08.629146 14650 net.cpp:443] feat5_feat5_0_split <- feat5
I0730 14:41:08.629151 14650 net.cpp:398] feat5_feat5_0_split -> feat5_feat5_0_split_0
I0730 14:41:08.629158 14650 net.cpp:398] feat5_feat5_0_split -> feat5_feat5_0_split_1
I0730 14:41:08.629168 14650 net.cpp:133] Setting up feat5_feat5_0_split
I0730 14:41:08.629174 14650 net.cpp:140] Top shape: 1 3 1 70000 (210000)
I0730 14:41:08.629180 14650 net.cpp:140] Top shape: 1 3 1 70000 (210000)
I0730 14:41:08.629184 14650 layer_factory.hpp:76] Creating layer conv6
I0730 14:41:08.629194 14650 net.cpp:98] Creating Layer conv6
I0730 14:41:08.629197 14650 net.cpp:443] conv6 <- bn5_relu5_0_split_1
I0730 14:41:08.629204 14650 net.cpp:443] conv6 <- feat5_feat5_0_split_0
I0730 14:41:08.629207 14650 net.cpp:443] conv6 <- feat5_feat5_0_split_1
I0730 14:41:08.629215 14650 net.cpp:398] conv6 -> conv6
I0730 14:41:08.629221 14650 net.cpp:133] Setting up conv6
I0730 14:41:08.632560 14648 net.cpp:140] Top shape: 1 256 1 70000 (17920000)
I0730 14:41:08.632587 14648 layer_factory.hpp:76] Creating layer bn5
I0730 14:41:08.632597 14648 net.cpp:98] Creating Layer bn5
I0730 14:41:08.632603 14648 net.cpp:443] bn5 <- conv5
I0730 14:41:08.632611 14648 net.cpp:398] bn5 -> bn5
I0730 14:41:08.632616 14648 net.cpp:133] Setting up bn5
I0730 14:41:08.632671 14648 net.cpp:140] Top shape: 1 256 1 70000 (17920000)
I0730 14:41:08.632694 14648 layer_factory.hpp:76] Creating layer relu5
I0730 14:41:08.632701 14648 net.cpp:98] Creating Layer relu5
I0730 14:41:08.632704 14648 net.cpp:443] relu5 <- bn5
I0730 14:41:08.632709 14648 net.cpp:387] relu5 -> bn5 (in-place)
I0730 14:41:08.632714 14648 net.cpp:133] Setting up relu5
I0730 14:41:08.633464 14648 net.cpp:140] Top shape: 1 256 1 70000 (17920000)
I0730 14:41:08.633477 14648 layer_factory.hpp:76] Creating layer bn5_relu5_0_split
I0730 14:41:08.633486 14648 net.cpp:98] Creating Layer bn5_relu5_0_split
I0730 14:41:08.633491 14648 net.cpp:443] bn5_relu5_0_split <- bn5
I0730 14:41:08.633496 14648 net.cpp:398] bn5_relu5_0_split -> bn5_relu5_0_split_0
I0730 14:41:08.633502 14648 net.cpp:398] bn5_relu5_0_split -> bn5_relu5_0_split_1
I0730 14:41:08.633508 14648 net.cpp:398] bn5_relu5_0_split -> bn5_relu5_0_split_2
I0730 14:41:08.633513 14648 net.cpp:133] Setting up bn5_relu5_0_split
I0730 14:41:08.633519 14648 net.cpp:140] Top shape: 1 256 1 70000 (17920000)
I0730 14:41:08.633523 14648 net.cpp:140] Top shape: 1 256 1 70000 (17920000)
I0730 14:41:08.633527 14648 net.cpp:140] Top shape: 1 256 1 70000 (17920000)
I0730 14:41:08.633530 14648 layer_factory.hpp:76] Creating layer fconv5
I0730 14:41:08.633548 14648 net.cpp:98] Creating Layer fconv5
I0730 14:41:08.633553 14648 net.cpp:443] fconv5 <- bn5_relu5_0_split_0
I0730 14:41:08.633560 14648 net.cpp:398] fconv5 -> fconv5
I0730 14:41:08.633568 14648 net.cpp:133] Setting up fconv5
I0730 14:41:08.634896 14648 net.cpp:140] Top shape: 1 3 1 70000 (210000)
I0730 14:41:08.634912 14648 layer_factory.hpp:76] Creating layer fbn5
I0730 14:41:08.634920 14648 net.cpp:98] Creating Layer fbn5
I0730 14:41:08.634924 14648 net.cpp:443] fbn5 <- fconv5
I0730 14:41:08.634930 14648 net.cpp:398] fbn5 -> fbn5
I0730 14:41:08.634938 14648 net.cpp:133] Setting up fbn5
I0730 14:41:08.634990 14648 net.cpp:140] Top shape: 1 3 1 70000 (210000)
I0730 14:41:08.635000 14648 layer_factory.hpp:76] Creating layer frelu5
I0730 14:41:08.635006 14648 net.cpp:98] Creating Layer frelu5
I0730 14:41:08.635010 14648 net.cpp:443] frelu5 <- fbn5
I0730 14:41:08.635015 14648 net.cpp:387] frelu5 -> fbn5 (in-place)
I0730 14:41:08.635020 14648 net.cpp:133] Setting up frelu5
I0730 14:41:08.635186 14648 net.cpp:140] Top shape: 1 3 1 70000 (210000)
I0730 14:41:08.635195 14648 layer_factory.hpp:76] Creating layer data_lattice4
I0730 14:41:08.635241 14648 net.cpp:98] Creating Layer data_lattice4
I0730 14:41:08.635248 14648 net.cpp:443] data_lattice4 <- data_data_0_split_5
I0730 14:41:08.635254 14648 net.cpp:398] data_lattice4 -> data_lattice4
I0730 14:41:08.635260 14648 net.cpp:133] Setting up data_lattice4
I0730 14:41:08.635417 14648 net.cpp:140] Top shape: 1 3 1 70000 (210000)
I0730 14:41:08.635426 14648 layer_factory.hpp:76] Creating layer feat5
I0730 14:41:08.635432 14648 net.cpp:98] Creating Layer feat5
I0730 14:41:08.635437 14648 net.cpp:443] feat5 <- data_lattice4
I0730 14:41:08.635442 14648 net.cpp:443] feat5 <- fbn5
I0730 14:41:08.635447 14648 net.cpp:398] feat5 -> feat5
I0730 14:41:08.635453 14648 net.cpp:133] Setting up feat5
I0730 14:41:08.635458 14648 net.cpp:140] Top shape: 1 3 1 70000 (210000)
I0730 14:41:08.635462 14648 layer_factory.hpp:76] Creating layer feat5_feat5_0_split
I0730 14:41:08.635468 14648 net.cpp:98] Creating Layer feat5_feat5_0_split
I0730 14:41:08.635470 14648 net.cpp:443] feat5_feat5_0_split <- feat5
I0730 14:41:08.635475 14648 net.cpp:398] feat5_feat5_0_split -> feat5_feat5_0_split_0
I0730 14:41:08.635480 14648 net.cpp:398] feat5_feat5_0_split -> feat5_feat5_0_split_1
I0730 14:41:08.635488 14648 net.cpp:133] Setting up feat5_feat5_0_split
I0730 14:41:08.635493 14648 net.cpp:140] Top shape: 1 3 1 70000 (210000)
I0730 14:41:08.635496 14648 net.cpp:140] Top shape: 1 3 1 70000 (210000)
I0730 14:41:08.635499 14648 layer_factory.hpp:76] Creating layer conv6
I0730 14:41:08.635509 14648 net.cpp:98] Creating Layer conv6
I0730 14:41:08.635511 14648 net.cpp:443] conv6 <- bn5_relu5_0_split_1
I0730 14:41:08.635516 14648 net.cpp:443] conv6 <- feat5_feat5_0_split_0
I0730 14:41:08.635519 14648 net.cpp:443] conv6 <- feat5_feat5_0_split_1
I0730 14:41:08.635525 14648 net.cpp:398] conv6 -> conv6
I0730 14:41:08.635531 14648 net.cpp:133] Setting up conv6
I0730 14:41:08.654863 14649 net.cpp:140] Top shape: 1 256 1 70000 (17920000)
I0730 14:41:08.654898 14649 layer_factory.hpp:76] Creating layer bn6
I0730 14:41:08.654906 14649 net.cpp:98] Creating Layer bn6
I0730 14:41:08.654911 14649 net.cpp:443] bn6 <- conv6
I0730 14:41:08.654917 14649 net.cpp:398] bn6 -> bn6
I0730 14:41:08.654923 14649 net.cpp:133] Setting up bn6
I0730 14:41:08.654983 14649 net.cpp:140] Top shape: 1 256 1 70000 (17920000)
I0730 14:41:08.654992 14649 layer_factory.hpp:76] Creating layer relu6
I0730 14:41:08.654999 14649 net.cpp:98] Creating Layer relu6
I0730 14:41:08.655002 14649 net.cpp:443] relu6 <- bn6
I0730 14:41:08.655006 14649 net.cpp:387] relu6 -> bn6 (in-place)
I0730 14:41:08.655011 14649 net.cpp:133] Setting up relu6
I0730 14:41:08.655220 14649 net.cpp:140] Top shape: 1 256 1 70000 (17920000)
I0730 14:41:08.655230 14649 layer_factory.hpp:76] Creating layer concat6
I0730 14:41:08.655916 14649 net.cpp:98] Creating Layer concat6
I0730 14:41:08.655927 14649 net.cpp:443] concat6 <- bn6
I0730 14:41:08.655932 14649 net.cpp:443] concat6 <- bn2_relu2_0_split_2
I0730 14:41:08.655937 14649 net.cpp:443] concat6 <- bn3_relu3_0_split_2
I0730 14:41:08.655941 14649 net.cpp:443] concat6 <- bn4_relu4_0_split_2
I0730 14:41:08.655946 14649 net.cpp:443] concat6 <- bn5_relu5_0_split_2
I0730 14:41:08.655951 14649 net.cpp:398] concat6 -> concat6
I0730 14:41:08.655957 14649 net.cpp:133] Setting up concat6
I0730 14:41:08.656338 14649 net.cpp:140] Top shape: 1 960 1 70000 (67200000)
I0730 14:41:08.656349 14649 layer_factory.hpp:76] Creating layer conv7
I0730 14:41:08.656360 14649 net.cpp:98] Creating Layer conv7
I0730 14:41:08.656364 14649 net.cpp:443] conv7 <- concat6
I0730 14:41:08.656373 14649 net.cpp:398] conv7 -> conv7
I0730 14:41:08.656380 14649 net.cpp:133] Setting up conv7
I0730 14:41:08.660048 14647 net.cpp:140] Top shape: 1 256 1 70000 (17920000)
I0730 14:41:08.660063 14647 layer_factory.hpp:76] Creating layer bn6
I0730 14:41:08.660074 14647 net.cpp:98] Creating Layer bn6
I0730 14:41:08.660079 14647 net.cpp:443] bn6 <- conv6
I0730 14:41:08.660084 14647 net.cpp:398] bn6 -> bn6
I0730 14:41:08.660090 14647 net.cpp:133] Setting up bn6
I0730 14:41:08.660148 14647 net.cpp:140] Top shape: 1 256 1 70000 (17920000)
I0730 14:41:08.660163 14647 layer_factory.hpp:76] Creating layer relu6
I0730 14:41:08.660169 14647 net.cpp:98] Creating Layer relu6
I0730 14:41:08.660173 14647 net.cpp:443] relu6 <- bn6
I0730 14:41:08.660178 14647 net.cpp:387] relu6 -> bn6 (in-place)
I0730 14:41:08.660183 14647 net.cpp:133] Setting up relu6
I0730 14:41:08.660414 14647 net.cpp:140] Top shape: 1 256 1 70000 (17920000)
I0730 14:41:08.660434 14647 layer_factory.hpp:76] Creating layer concat6
I0730 14:41:08.660470 14647 net.cpp:98] Creating Layer concat6
I0730 14:41:08.660478 14647 net.cpp:443] concat6 <- bn6
I0730 14:41:08.660485 14647 net.cpp:443] concat6 <- bn2_relu2_0_split_2
I0730 14:41:08.660490 14647 net.cpp:443] concat6 <- bn3_relu3_0_split_2
I0730 14:41:08.660495 14647 net.cpp:443] concat6 <- bn4_relu4_0_split_2
I0730 14:41:08.660485 14650 net.cpp:140] Top shape: 1 256 1 70000 (17920000)
I0730 14:41:08.660498 14650 layer_factory.hpp:76] Creating layer bn6
I0730 14:41:08.660497 14647 net.cpp:443] concat6 <- bn5_relu5_0_split_2
I0730 14:41:08.660503 14647 net.cpp:398] concat6 -> concat6
I0730 14:41:08.660511 14647 net.cpp:133] Setting up concat6
I0730 14:41:08.660508 14650 net.cpp:98] Creating Layer bn6
I0730 14:41:08.660513 14650 net.cpp:443] bn6 <- conv6
I0730 14:41:08.660521 14650 net.cpp:398] bn6 -> bn6
I0730 14:41:08.660528 14650 net.cpp:133] Setting up bn6
I0730 14:41:08.660550 14647 net.cpp:140] Top shape: 1 960 1 70000 (67200000)
I0730 14:41:08.660557 14647 layer_factory.hpp:76] Creating layer conv7
I0730 14:41:08.660565 14647 net.cpp:98] Creating Layer conv7
I0730 14:41:08.660569 14647 net.cpp:443] conv7 <- concat6
I0730 14:41:08.660576 14647 net.cpp:398] conv7 -> conv7
I0730 14:41:08.660584 14647 net.cpp:133] Setting up conv7
I0730 14:41:08.660598 14650 net.cpp:140] Top shape: 1 256 1 70000 (17920000)
I0730 14:41:08.660607 14650 layer_factory.hpp:76] Creating layer relu6
I0730 14:41:08.660616 14650 net.cpp:98] Creating Layer relu6
I0730 14:41:08.660620 14650 net.cpp:443] relu6 <- bn6
I0730 14:41:08.660627 14650 net.cpp:387] relu6 -> bn6 (in-place)
I0730 14:41:08.660634 14650 net.cpp:133] Setting up relu6
I0730 14:41:08.660854 14650 net.cpp:140] Top shape: 1 256 1 70000 (17920000)
I0730 14:41:08.660867 14650 layer_factory.hpp:76] Creating layer concat6
I0730 14:41:08.660920 14650 net.cpp:98] Creating Layer concat6
I0730 14:41:08.660929 14650 net.cpp:443] concat6 <- bn6
I0730 14:41:08.660935 14650 net.cpp:443] concat6 <- bn2_relu2_0_split_2
I0730 14:41:08.660940 14650 net.cpp:443] concat6 <- bn3_relu3_0_split_2
I0730 14:41:08.660945 14650 net.cpp:443] concat6 <- bn4_relu4_0_split_2
I0730 14:41:08.660949 14650 net.cpp:443] concat6 <- bn5_relu5_0_split_2
I0730 14:41:08.660956 14650 net.cpp:398] concat6 -> concat6
I0730 14:41:08.660964 14650 net.cpp:133] Setting up concat6
I0730 14:41:08.660998 14650 net.cpp:140] Top shape: 1 960 1 70000 (67200000)
I0730 14:41:08.661005 14650 layer_factory.hpp:76] Creating layer conv7
I0730 14:41:08.661015 14650 net.cpp:98] Creating Layer conv7
I0730 14:41:08.661020 14650 net.cpp:443] conv7 <- concat6
I0730 14:41:08.661026 14650 net.cpp:398] conv7 -> conv7
I0730 14:41:08.661034 14650 net.cpp:133] Setting up conv7
I0730 14:41:08.661581 14648 net.cpp:140] Top shape: 1 256 1 70000 (17920000)
I0730 14:41:08.661603 14648 layer_factory.hpp:76] Creating layer bn6
I0730 14:41:08.661610 14648 net.cpp:98] Creating Layer bn6
I0730 14:41:08.661614 14648 net.cpp:443] bn6 <- conv6
I0730 14:41:08.661619 14648 net.cpp:398] bn6 -> bn6
I0730 14:41:08.661625 14648 net.cpp:133] Setting up bn6
I0730 14:41:08.661680 14648 net.cpp:140] Top shape: 1 256 1 70000 (17920000)
I0730 14:41:08.661691 14648 layer_factory.hpp:76] Creating layer relu6
I0730 14:41:08.661697 14648 net.cpp:98] Creating Layer relu6
I0730 14:41:08.661701 14648 net.cpp:443] relu6 <- bn6
I0730 14:41:08.661705 14648 net.cpp:387] relu6 -> bn6 (in-place)
I0730 14:41:08.661710 14648 net.cpp:133] Setting up relu6
I0730 14:41:08.661908 14648 net.cpp:140] Top shape: 1 256 1 70000 (17920000)
I0730 14:41:08.661917 14648 layer_factory.hpp:76] Creating layer concat6
I0730 14:41:08.661949 14648 net.cpp:98] Creating Layer concat6
I0730 14:41:08.661957 14648 net.cpp:443] concat6 <- bn6
I0730 14:41:08.661962 14648 net.cpp:443] concat6 <- bn2_relu2_0_split_2
I0730 14:41:08.661965 14648 net.cpp:443] concat6 <- bn3_relu3_0_split_2
I0730 14:41:08.661969 14648 net.cpp:443] concat6 <- bn4_relu4_0_split_2
I0730 14:41:08.661972 14648 net.cpp:443] concat6 <- bn5_relu5_0_split_2
I0730 14:41:08.661978 14648 net.cpp:398] concat6 -> concat6
I0730 14:41:08.661984 14648 net.cpp:133] Setting up concat6
I0730 14:41:08.662011 14648 net.cpp:140] Top shape: 1 960 1 70000 (67200000)
I0730 14:41:08.662025 14648 layer_factory.hpp:76] Creating layer conv7
I0730 14:41:08.662034 14648 net.cpp:98] Creating Layer conv7
I0730 14:41:08.662037 14648 net.cpp:443] conv7 <- concat6
I0730 14:41:08.662044 14648 net.cpp:398] conv7 -> conv7
I0730 14:41:08.662050 14648 net.cpp:133] Setting up conv7
I0730 14:41:08.663664 14647 net.cpp:140] Top shape: 1 128 1 70000 (8960000)
I0730 14:41:08.663681 14647 layer_factory.hpp:76] Creating layer bn7
I0730 14:41:08.663693 14647 net.cpp:98] Creating Layer bn7
I0730 14:41:08.663697 14647 net.cpp:443] bn7 <- conv7
I0730 14:41:08.663704 14647 net.cpp:398] bn7 -> bn7
I0730 14:41:08.663713 14647 net.cpp:133] Setting up bn7
I0730 14:41:08.663707 14649 net.cpp:140] Top shape: 1 128 1 70000 (8960000)
I0730 14:41:08.663719 14649 layer_factory.hpp:76] Creating layer bn7
I0730 14:41:08.663735 14649 net.cpp:98] Creating Layer bn7
I0730 14:41:08.663739 14649 net.cpp:443] bn7 <- conv7
I0730 14:41:08.663748 14649 net.cpp:398] bn7 -> bn7
I0730 14:41:08.663754 14649 net.cpp:133] Setting up bn7
I0730 14:41:08.663815 14647 net.cpp:140] Top shape: 1 128 1 70000 (8960000)
I0730 14:41:08.663828 14647 layer_factory.hpp:76] Creating layer relu7
I0730 14:41:08.663836 14647 net.cpp:98] Creating Layer relu7
I0730 14:41:08.663839 14647 net.cpp:443] relu7 <- bn7
I0730 14:41:08.663846 14647 net.cpp:387] relu7 -> bn7 (in-place)
I0730 14:41:08.663851 14647 net.cpp:133] Setting up relu7
I0730 14:41:08.663843 14649 net.cpp:140] Top shape: 1 128 1 70000 (8960000)
I0730 14:41:08.663851 14649 layer_factory.hpp:76] Creating layer relu7
I0730 14:41:08.663858 14649 net.cpp:98] Creating Layer relu7
I0730 14:41:08.663861 14649 net.cpp:443] relu7 <- bn7
I0730 14:41:08.663867 14649 net.cpp:387] relu7 -> bn7 (in-place)
I0730 14:41:08.663872 14649 net.cpp:133] Setting up relu7
I0730 14:41:08.663938 14648 net.cpp:140] Top shape: 1 128 1 70000 (8960000)
I0730 14:41:08.663951 14648 layer_factory.hpp:76] Creating layer bn7
I0730 14:41:08.663960 14648 net.cpp:98] Creating Layer bn7
I0730 14:41:08.663964 14648 net.cpp:443] bn7 <- conv7
I0730 14:41:08.663970 14648 net.cpp:398] bn7 -> bn7
I0730 14:41:08.663976 14648 net.cpp:133] Setting up bn7
I0730 14:41:08.664028 14650 net.cpp:140] Top shape: 1 128 1 70000 (8960000)
I0730 14:41:08.664043 14647 net.cpp:140] Top shape: 1 128 1 70000 (8960000)
I0730 14:41:08.664050 14647 layer_factory.hpp:76] Creating layer conv8
I0730 14:41:08.664059 14647 net.cpp:98] Creating Layer conv8
I0730 14:41:08.664047 14649 net.cpp:140] Top shape: 1 128 1 70000 (8960000)
I0730 14:41:08.664053 14649 layer_factory.hpp:76] Creating layer conv8
I0730 14:41:08.664062 14649 net.cpp:98] Creating Layer conv8
I0730 14:41:08.664065 14649 net.cpp:443] conv8 <- bn7
I0730 14:41:08.664047 14650 layer_factory.hpp:76] Creating layer bn7
I0730 14:41:08.664057 14650 net.cpp:98] Creating Layer bn7
I0730 14:41:08.664060 14650 net.cpp:443] bn7 <- conv7
I0730 14:41:08.664068 14650 net.cpp:398] bn7 -> bn7
I0730 14:41:08.664063 14647 net.cpp:443] conv8 <- bn7
I0730 14:41:08.664070 14647 net.cpp:398] conv8 -> conv8
I0730 14:41:08.664077 14647 net.cpp:133] Setting up conv8
I0730 14:41:08.664067 14648 net.cpp:140] Top shape: 1 128 1 70000 (8960000)
I0730 14:41:08.664074 14648 layer_factory.hpp:76] Creating layer relu7
I0730 14:41:08.664081 14648 net.cpp:98] Creating Layer relu7
I0730 14:41:08.664085 14648 net.cpp:443] relu7 <- bn7
I0730 14:41:08.664089 14648 net.cpp:387] relu7 -> bn7 (in-place)
I0730 14:41:08.664094 14648 net.cpp:133] Setting up relu7
I0730 14:41:08.664072 14649 net.cpp:398] conv8 -> conv8
I0730 14:41:08.664078 14649 net.cpp:133] Setting up conv8
I0730 14:41:08.664077 14650 net.cpp:133] Setting up bn7
I0730 14:41:08.664139 14650 net.cpp:140] Top shape: 1 128 1 70000 (8960000)
I0730 14:41:08.664150 14650 layer_factory.hpp:76] Creating layer relu7
I0730 14:41:08.664157 14650 net.cpp:98] Creating Layer relu7
I0730 14:41:08.664161 14650 net.cpp:443] relu7 <- bn7
I0730 14:41:08.664167 14650 net.cpp:387] relu7 -> bn7 (in-place)
I0730 14:41:08.664173 14650 net.cpp:133] Setting up relu7
I0730 14:41:08.664268 14648 net.cpp:140] Top shape: 1 128 1 70000 (8960000)
I0730 14:41:08.664276 14648 layer_factory.hpp:76] Creating layer conv8
I0730 14:41:08.664284 14648 net.cpp:98] Creating Layer conv8
I0730 14:41:08.664288 14648 net.cpp:443] conv8 <- bn7
I0730 14:41:08.664295 14648 net.cpp:398] conv8 -> conv8
I0730 14:41:08.664301 14648 net.cpp:133] Setting up conv8
I0730 14:41:08.664378 14650 net.cpp:140] Top shape: 1 128 1 70000 (8960000)
I0730 14:41:08.664392 14650 layer_factory.hpp:76] Creating layer conv8
I0730 14:41:08.664404 14650 net.cpp:98] Creating Layer conv8
I0730 14:41:08.664409 14650 net.cpp:443] conv8 <- bn7
I0730 14:41:08.664417 14650 net.cpp:398] conv8 -> conv8
I0730 14:41:08.664424 14650 net.cpp:133] Setting up conv8
I0730 14:41:08.665751 14647 net.cpp:140] Top shape: 1 13 1 70000 (910000)
I0730 14:41:08.665768 14647 layer_factory.hpp:76] Creating layer conv8_conv8_0_split
I0730 14:41:08.665777 14647 net.cpp:98] Creating Layer conv8_conv8_0_split
I0730 14:41:08.665782 14647 net.cpp:443] conv8_conv8_0_split <- conv8
I0730 14:41:08.665789 14647 net.cpp:398] conv8_conv8_0_split -> conv8_conv8_0_split_0
I0730 14:41:08.665797 14647 net.cpp:398] conv8_conv8_0_split -> conv8_conv8_0_split_1
I0730 14:41:08.665779 14649 net.cpp:140] Top shape: 1 13 1 70000 (910000)
I0730 14:41:08.665791 14649 layer_factory.hpp:76] Creating layer conv8_conv8_0_split
I0730 14:41:08.665798 14649 net.cpp:98] Creating Layer conv8_conv8_0_split
I0730 14:41:08.665803 14649 net.cpp:443] conv8_conv8_0_split <- conv8
I0730 14:41:08.665803 14647 net.cpp:133] Setting up conv8_conv8_0_split
I0730 14:41:08.665810 14647 net.cpp:140] Top shape: 1 13 1 70000 (910000)
I0730 14:41:08.665814 14647 net.cpp:140] Top shape: 1 13 1 70000 (910000)
I0730 14:41:08.665818 14647 layer_factory.hpp:76] Creating layer loss
I0730 14:41:08.665809 14649 net.cpp:398] conv8_conv8_0_split -> conv8_conv8_0_split_0
I0730 14:41:08.665817 14649 net.cpp:398] conv8_conv8_0_split -> conv8_conv8_0_split_1
I0730 14:41:08.665822 14649 net.cpp:133] Setting up conv8_conv8_0_split
I0730 14:41:08.665827 14649 net.cpp:140] Top shape: 1 13 1 70000 (910000)
I0730 14:41:08.665832 14649 net.cpp:140] Top shape: 1 13 1 70000 (910000)
I0730 14:41:08.665833 14649 layer_factory.hpp:76] Creating layer loss
I0730 14:41:08.666033 14648 net.cpp:140] Top shape: 1 13 1 70000 (910000)
I0730 14:41:08.666049 14648 layer_factory.hpp:76] Creating layer conv8_conv8_0_split
I0730 14:41:08.666059 14648 net.cpp:98] Creating Layer conv8_conv8_0_split
I0730 14:41:08.666062 14648 net.cpp:443] conv8_conv8_0_split <- conv8
I0730 14:41:08.666070 14648 net.cpp:398] conv8_conv8_0_split -> conv8_conv8_0_split_0
I0730 14:41:08.666079 14648 net.cpp:398] conv8_conv8_0_split -> conv8_conv8_0_split_1
I0730 14:41:08.666064 14650 net.cpp:140] Top shape: 1 13 1 70000 (910000)
I0730 14:41:08.666076 14650 layer_factory.hpp:76] Creating layer conv8_conv8_0_split
I0730 14:41:08.666083 14648 net.cpp:133] Setting up conv8_conv8_0_split
I0730 14:41:08.666090 14648 net.cpp:140] Top shape: 1 13 1 70000 (910000)
I0730 14:41:08.666093 14648 net.cpp:140] Top shape: 1 13 1 70000 (910000)
I0730 14:41:08.666097 14648 layer_factory.hpp:76] Creating layer loss
I0730 14:41:08.666085 14650 net.cpp:98] Creating Layer conv8_conv8_0_split
I0730 14:41:08.666090 14650 net.cpp:443] conv8_conv8_0_split <- conv8
I0730 14:41:08.666095 14650 net.cpp:398] conv8_conv8_0_split -> conv8_conv8_0_split_0
I0730 14:41:08.666102 14650 net.cpp:398] conv8_conv8_0_split -> conv8_conv8_0_split_1
I0730 14:41:08.666108 14650 net.cpp:133] Setting up conv8_conv8_0_split
I0730 14:41:08.666113 14650 net.cpp:140] Top shape: 1 13 1 70000 (910000)
I0730 14:41:08.666117 14650 net.cpp:140] Top shape: 1 13 1 70000 (910000)
I0730 14:41:08.666121 14650 layer_factory.hpp:76] Creating layer loss
I0730 14:41:08.679067 14649 net.cpp:98] Creating Layer loss
I0730 14:41:08.679077 14649 net.cpp:443] loss <- conv8_conv8_0_split_0
I0730 14:41:08.679082 14649 net.cpp:443] loss <- label_data_1_split_0
I0730 14:41:08.679090 14649 net.cpp:398] loss -> loss
I0730 14:41:08.679077 14650 net.cpp:98] Creating Layer loss
…
I0730 14:41:08.875566 14650 net.cpp:317] The NetState phase (1) differed from the phase (0) specified by a rule in layer data
I0730 14:41:08.893021 14647 net.cpp:50] Initializing net from parameters: 
state {
  phase: TEST
}
layer {
  name: "data"
  type: "Python"
  top: "data"
  top: "label"
  include {
    phase: TEST
  }
  python_param {
    module: "dataset_lidar"
    layer: "InputShapenet"
    param_str: "{\'sample_size\': 70000, \'test_area\': \'6\', \'batch_size\': 1, \'feat_dims\': \'x_y_z\', \'subset\': \'val\', \'root\': \'../../data/shapenet_ericyi_ply\', \'jitter_xyz\': 0.0, \'jitter_stretch\': 0.0, \'jitter_rotation\': 0.0}"
  }
}
layer {
  name: "data_feat"
  type: "Python"
  bottom: "data"
  top: "data_feat"
  python_param {
    module: "custom_layers"
    layer: "PickAndScale"
    param_str: "0_1_2"
  }
}
layer {
  name: "conv1"
  type: "Convolution"
  bottom: "data_feat"
  top: "conv1"
  param {
    lr_mult: 1
  }
  param {
    lr_mult: 0.1
  }
  convolution_param {
    num_output: 32
    pad: 0
    kernel_size: 1
    stride: 1
    weight_filler {
      type: "xavier"
    }
    bias_filler {
      type: "constant"
      value: 0
    }
  }
}
layer {
  name: "bn1"
  type: "BatchNorm"
  bottom: "conv1"
  top: "bn1"
}
layer {
  name: "relu1"
  type: "ReLU"
  bottom: "bn1"
  top: "bn1"
}
layer {
  name: "fconv1"
  type: "Convolution"
  bottom: "bn1"
  top: "fconv1"
  param {
    lr_mult: 0.5
  }
  param {
    lr_mult: 0.05
  }
  convolution_param {
    num_output: 3
    pad: 0
    kernel_size: 1
    stride: 1
    weight_filler {
      type: "xavier"
    }
    bias_filler {
      type: "constant"
      value: 0
    }
  }
}
layer {
  name: "fbn1"
  type: "BatchNorm"
  bottom: "fconv1"
  top: "fbn1"
}
layer {
  name: "frelu1"
  type: "ReLU"
  bottom: "fbn1"
  top: "fbn1"
}
layer {
  name: "data_lattice0"
  type: "Python"
  bottom: "data"
  top: "data_lattice0"
  python_param {
    module: "custom_layers"
    layer: "PickAndScale"
    param_str: "0*48_1*48_2*48"
  }
}
layer {
  name: "feat1"
  type: "Eltwise"
  bottom: "data_lattice0"
  bottom: "fbn1"
  top: "feat1"
  eltwise_param {
    operation: SUM
  }
}
layer {
  name: "conv2"
  type: "Permutohedral"
  bottom: "bn1"
  bottom: "feat1"
  bottom: "feat1"
  top: "conv2"
  param {
    lr_mult: 1
    decay_mult: 1
  }
  param {
    lr_mult: 2
    decay_mult: 0
  }
  permutohedral_param {
    num_output: 64
    neighborhood_size: 4
    filter_filler {
      type: "gaussian"
      std: 0.001
    }
    bias_term: true
    bias_filler {
      type: "constant"
      value: 0
    }
    group: 1
    norm_type: AFTER
    offset_type: NONE
  }
}
layer {
  name: "bn2"
  type: "BatchNorm"
  bottom: "conv2"
  top: "bn2"
}
layer {
  name: "relu2"
  type: "ReLU"
  bottom: "bn2"
  top: "bn2"
}
layer {
  name: "fconv2"
  type: "Convolution"
  bottom: "bn2"
  top: "fconv2"
  param {
    lr_mult: 0.5
  }
  param {
    lr_mult: 0.05
  }
  convolution_param {
    num_output: 3
    pad: 0
    kernel_size: 1
    stride: 1
    weight_filler {
      type: "xavier"
    }
    bias_filler {
      type: "constant"
      value: 0
    }
  }
}
layer {
  name: "fbn2"
  type: "BatchNorm"
  bottom: "fconv2"
  top: "fbn2"
}
layer {
  name: "frelu2"
  type: "ReLU"
  bottom: "fbn2"
  top: "fbn2"
}
layer {
  name: "data_lattice1"
  type: "Python"
  bottom: "data"
  top: "data_lattice1"
  python_param {
    module: "custom_layers"
    layer: "PickAndScale"
    param_str: "0*24_1*24_2*24"
  }
}
layer {
  name: "feat2"
  type: "Eltwise"
  bottom: "data_lattice1"
  bottom: "fbn2"
  top: "feat2"
  eltwise_param {
    operation: SUM
  }
}
layer {
  name: "conv3"
  type: "Permutohedral"
  bottom: "bn2"
  bottom: "feat2"
  bottom: "feat2"
  top: "conv3"
  param {
    lr_mult: 1
    decay_mult: 1
  }
  param {
    lr_mult: 2
    decay_mult: 0
  }
  permutohedral_param {
    num_output: 128
    neighborhood_size: 4
    filter_filler {
      type: "gaussian"
      std: 0.001
    }
    bias_term: true
    bias_filler {
      type: "constant"
      value: 0
    }
    group: 1
    norm_type: AFTER
    offset_type: NONE
  }
}
layer {
  name: "bn3"
  type: "BatchNorm"
  bottom: "conv3"
  top: "bn3"
}
layer {
  name: "relu3"
  type: "ReLU"
 I0730 14:41:08.893023 14649 net.cpp:50] Initializing net from parameters: 
state {
  phase: TEST
}
layer {
  name: "data"
  type: "Python"
  top: "data"
  top: "label"
  include {
    phase: TEST
  }
  python_param {
    module: "dataset_lidar"
    layer: "InputShapenet"
    param_str: "{\'sample_size\': 70000, \'test_area\': \'6\', \'batch_size\': 1, \'feat_dims\': \'x_y_z\', \'subset\': \'val\', \'root\': \'../../data/shapenet_ericyi_ply\', \'jitter_xyz\': 0.0, \'jitter_stretch\': 0.0, \'jitter_rotation\': 0.0}"
  }
}
layer {
  name: "data_feat"
  type: "Python"
  bottom: "data"
  top: "data_feat"
  python_param {
    module: "custom_layers"
    layer: "PickAndScale"
    param_str: "0_1_2"
  }
}
layer {
  name: "conv1"
  type: "Convolution"
  bottom: "data_feat"
  top: "conv1"
  param {
    lr_mult: 1
  }
  param {
    lr_mult: 0.1
  }
  convolution_param {
    num_output: 32
    pad: 0
    kernel_size: 1
    stride: 1
    weight_filler {
      type: "xavier"
    }
    bias_filler {
      type: "constant"
      value: 0
    }
  }
}
layer {
  name: "bn1"
  type: "BatchNorm"
  bottom: "conv1"
  top: "bn1"
}
layer {
  name: "relu1"
  type: "ReLU"
  bottom: "bn1"
  top: "bn1"
}
layer {
  name: "fconv1"
  type: "Convolution"
  bottom: "bn1"
  top: "fconv1"
  param {
    lr_mult: 0.5
  }
  param {
    lr_mult: 0.05
  }
  convolution_param {
    num_output: 3
    pad: 0
    kernel_size: 1
    stride: 1
    weight_filler {
      type: "xavier"
    }
    bias_filler {
      type: "constant"
      value: 0
    }
  }
}
layer {
  name: "fbn1"
  type: "BatchNorm"
  bottom: "fconv1"
  top: "fbn1"
}
layer {
  name: "frelu1"
  type: "ReLU"
  bottom: "fbn1"
  top: "fbn1"
}
layer {
  name: "data_lattice0"
  type: "Python"
  bottom: "data"
  top: "data_lattice0"
  python_param {
    module: "custom_layers"
    layer: "PickAndScale"
    param_str: "0*48_1*48_2*48"
  }
}
layer {
  name: "feat1"
  type: "Eltwise"
  bottom: "data_lattice0"
  bottom: "fbn1"
  top: "feat1"
  eltwise_param {
    operation: SUM
  }
}
layer {
  name: "conv2"
  type: "Permutohedral"
  bottom: "bn1"
  bottom: "feat1"
  bottom: "feat1"
  top: "conv2"
  param {
    lr_mult: 1
    decay_mult: 1
  }
  param {
    lr_mult: 2
    decay_mult: 0
  }
  permutohedral_param {
    num_output: 64
    neighborhood_size: 4
    filter_filler {
      type: "gaussian"
      std: 0.001
    }
    bias_term: true
    bias_filler {
      type: "constant"
      value: 0
    }
    group: 1
    norm_type: AFTER
    offset_type: NONE
  }
}
layer {
  name: "bn2"
  type: "BatchNorm"
  bottom: "conv2"
  top: "bn2"
}
layer {
  name: "relu2"
  type: "ReLU"
  bottom: "bn2"
  top: "bn2"
}
layer {
  name: "fconv2"
  type: "Convolution"
  bottom: "bn2"
  top: "fconv2"
  param {
    lr_mult: 0.5
  }
  param {
    lr_mult: 0.05
  }
  convolution_param {
    num_output: 3
    pad: 0
    kernel_size: 1
    stride: 1
    weight_filler {
      type: "xavier"
    }
    bias_filler {
      type: "constant"
      value: 0
    }
  }
}
layer {
  name: "fbn2"
  type: "BatchNorm"
  bottom: "fconv2"
  top: "fbn2"
}
layer {
  name: "frelu2"
  type: "ReLU"
  bottom: "fbn2"
  top: "fbn2"
}
layer {
  name: "data_lattice1"
  type: "Python"
  bottom: "data"
  top: "data_lattice1"
  python_param {
    module: "custom_layers"
    layer: "PickAndScale"
    param_str: "0*24_1*24_2*24"
  }
}
layer {
  name: "feat2"
  type: "Eltwise"
  bottom: "data_lattice1"
  bottom: "fbn2"
  top: "feat2"
  eltwise_param {
    operation: SUM
  }
}
layer {
  name: "conv3"
  type: "Permutohedral"
  bottom: "bn2"
  bottom: "feat2"
  bottom: "feat2"
  top: "conv3"
  param {
    lr_mult: 1
    decay_mult: 1
  }
  param {
    lr_mult: 2
    decay_mult: 0
  }
  permutohedral_param {
    num_output: 128
    neighborhood_size: 4
    filter_filler {
      type: "gaussian"
      std: 0.001
    }
    bias_term: true
    bias_filler {
      type: "constant"
      value: 0
    }
    group: 1
    norm_type: AFTER
    offset_type: NONE
  }
}
layer {
  name: "bn3"
  type: "BatchNorm"
  bottom: "conv3"
  top: "bn3"
}
layer {
  name: "relu3"
  type: "ReLU"
  bottom: "bn3"
  top: "bn3"
}
layer {
  name: "fconv3"
  type: "Convolution"
  bottom: "bn3"
  top: "fconv3"
  param {
    lr_mult: 0.5
  }
  param {
    lr_mult: 0.05
  }
  convolution_param {
    num_output: 3
    pad: 0
    kernel_size: 1
    stride: 1
    weight_filler {
      type: "xavier"
    }
    bias_filler {
      type: "constant"
      value: 0
    }
  }
}
layer {
  name: "fbn3"
  type: "BatchNorm"
  bottom: "fconv3"
  top: "fbn3"
}
layer {
  name: "frelu3"
  type: "ReLU"
  bottom: "fbn3"
  top: "fbn3"
}
layer {
  name: "data_lattice2"
  type: "Python"
  bottom: "data"
  top: "data_lattice2"
  python_param {
    module: "custom_layers"
    layer: "PickAndScale"
    param_str: "0*12_1*12_2*12"
  }
}
layer {
  name: "feat3"
  type: "Eltwise"
  bottom: "data_lattice2"
  bottom: "fbn3"
  top: "feat3"
  eltwise_param {
    operation: SUM
  }
}
layer {
  name: "conv4"
  type: "Permutohedral"
  bottom: "bn3"
  bottom: "feat3"
  bottom: "feat3"
  top: "conv4"
  param {
    lr_mult: 1
    decay_mult: 1
  }
  param {
    lr_mult: 2
    decay_mult: 0
  }
  permutohedral_param {
    num_output: 256
    neighborhood_size: 2
    filter_filler {
      type: "gaussian"
      std: 0.001
    }
    bias_term: true
    bias_filler {
      type: "constant"
      value: 0
    }
    group: 1
    norm_type: AFTER
    offset_type: NONE
  }
}
layer {
  name: "bn4"
  type: "BatchNorm"
  bottom: "conv4"
  top: "bn4"
}
layer {
  name: "relu4"
  type: "ReLU"
  bottom: "bn4"
  top: "bn4"
}
layer {
  name: "fconv4"
  type: "Convolution"
  bottom: "bn4"
  top: "fconv4"
  param {
    lr_mult: 0.5
  }
  param {
    lr_mult: 0.05
  }
  convolution_param {
    num_output: 3
    pad: 0
    kernel_size: 1
    stride: 1
    weight_filler {
      type: "xavier"
    }
    bias_filler {
      type: "constant"
      value: 0
    }
  }
}
layer {
  name: "fbn4"
  type: "BatchNorm"
  bottom: "fconv4"
  top: "fbn4"
}
layer {
  name: "frelu4"
  type: "ReLU"
  bottom: "fbn4"
…
I0730 14:42:08.149031 14649 net.cpp:398] feat4 -> feat4
I0730 14:42:08.149039 14649 net.cpp:133] Setting up feat4
I0730 14:42:08.149046 14649 net.cpp:140] Top shape: 1 3 1 70000 (210000)
I0730 14:42:08.149049 14649 layer_factory.hpp:76] Creating layer feat4_feat4_0_split
I0730 14:42:08.149056 14649 net.cpp:98] Creating Layer feat4_feat4_0_split
I0730 14:42:08.149060 14649 net.cpp:443] feat4_feat4_0_split <- feat4
I0730 14:42:08.149068 14649 net.cpp:398] feat4_feat4_0_split -> feat4_feat4_0_split_0
I0730 14:42:08.149075 14649 net.cpp:398] feat4_feat4_0_split -> feat4_feat4_0_split_1
I0730 14:42:08.149081 14649 net.cpp:133] Setting up feat4_feat4_0_split
I0730 14:42:08.149087 14649 net.cpp:140] Top shape: 1 3 1 70000 (210000)
I0730 14:42:08.149091 14649 net.cpp:140] Top shape: 1 3 1 70000 (210000)
I0730 14:42:08.149094 14649 layer_factory.hpp:76] Creating layer conv5
I0730 14:42:08.149106 14649 net.cpp:98] Creating Layer conv5
I0730 14:42:08.149109 14649 net.cpp:443] conv5 <- bn4_relu4_0_split_1
I0730 14:42:08.149114 14649 net.cpp:443] conv5 <- feat4_feat4_0_split_0
I0730 14:42:08.149119 14649 net.cpp:443] conv5 <- feat4_feat4_0_split_1
I0730 14:42:08.149124 14649 net.cpp:398] conv5 -> conv5
I0730 14:42:08.149132 14649 net.cpp:133] Setting up conv5
I0730 14:42:08.230810 14648 net.cpp:140] Top shape: 1 3 1 70000 (210000)
I0730 14:42:08.230892 14648 net.cpp:140] Top shape: 1 1 1 70000 (70000)
I0730 14:42:08.230906 14648 layer_factory.hpp:76] Creating layer data_data_0_split
I0730 14:42:08.230973 14648 net.cpp:98] Creating Layer data_data_0_split
I0730 14:42:08.230979 14648 net.cpp:443] data_data_0_split <- data
I0730 14:42:08.230993 14648 net.cpp:398] data_data_0_split -> data_data_0_split_0
I0730 14:42:08.231009 14648 net.cpp:398] data_data_0_split -> data_data_0_split_1
I0730 14:42:08.231015 14648 net.cpp:398] data_data_0_split -> data_data_0_split_2
I0730 14:42:08.231032 14648 net.cpp:398] data_data_0_split -> data_data_0_split_3
I0730 14:42:08.231037 14648 net.cpp:398] data_data_0_split -> data_data_0_split_4
I0730 14:42:08.231042 14648 net.cpp:398] data_data_0_split -> data_data_0_split_5
I0730 14:42:08.231048 14648 net.cpp:133] Setting up data_data_0_split
I0730 14:42:08.231057 14648 net.cpp:140] Top shape: 1 3 1 70000 (210000)
I0730 14:42:08.231061 14648 net.cpp:140] Top shape: 1 3 1 70000 (210000)
I0730 14:42:08.231065 14648 net.cpp:140] Top shape: 1 3 1 70000 (210000)
I0730 14:42:08.231070 14648 net.cpp:140] Top shape: 1 3 1 70000 (210000)
I0730 14:42:08.231072 14648 net.cpp:140] Top shape: 1 3 1 70000 (210000)
I0730 14:42:08.231076 14648 net.cpp:140] Top shape: 1 3 1 70000 (210000)
I0730 14:42:08.231079 14648 layer_factory.hpp:76] Creating layer label_data_1_split
I0730 14:42:08.231086 14648 net.cpp:98] Creating Layer label_data_1_split
I0730 14:42:08.231089 14648 net.cpp:443] label_data_1_split <- label
I0730 14:42:08.231094 14648 net.cpp:398] label_data_1_split -> label_data_1_split_0
I0730 14:42:08.231101 14648 net.cpp:398] label_data_1_split -> label_data_1_split_1
I0730 14:42:08.231106 14648 net.cpp:133] Setting up label_data_1_split
I0730 14:42:08.231111 14648 net.cpp:140] Top shape: 1 1 1 70000 (70000)
I0730 14:42:08.231114 14648 net.cpp:140] Top shape: 1 1 1 70000 (70000)
I0730 14:42:08.231117 14648 layer_factory.hpp:76] Creating layer data_feat
I0730 14:42:08.231207 14648 net.cpp:98] Creating Layer data_feat
I0730 14:42:08.231216 14648 net.cpp:443] data_feat <- data_data_0_split_0
I0730 14:42:08.231223 14648 net.cpp:398] data_feat -> data_feat
I0730 14:42:08.231230 14648 net.cpp:133] Setting up data_feat
I0730 14:42:08.231376 14648 net.cpp:140] Top shape: 1 3 1 70000 (210000)
I0730 14:42:08.231386 14648 layer_factory.hpp:76] Creating layer conv1
I0730 14:42:08.231400 14648 net.cpp:98] Creating Layer conv1
I0730 14:42:08.231415 14648 net.cpp:443] conv1 <- data_feat
I0730 14:42:08.231420 14648 net.cpp:398] conv1 -> conv1
I0730 14:42:08.231441 14648 net.cpp:133] Setting up conv1
I0730 14:42:08.240620 14648 net.cpp:140] Top shape: 1 32 1 70000 (2240000)
I0730 14:42:08.240658 14648 layer_factory.hpp:76] Creating layer bn1
I0730 14:42:08.240669 14648 net.cpp:98] Creating Layer bn1
I0730 14:42:08.240671 14648 net.cpp:443] bn1 <- conv1
I0730 14:42:08.240679 14648 net.cpp:398] bn1 -> bn1
I0730 14:42:08.240685 14648 net.cpp:133] Setting up bn1
I0730 14:42:08.240794 14648 net.cpp:140] Top shape: 1 32 1 70000 (2240000)
I0730 14:42:08.240808 14648 layer_factory.hpp:76] Creating layer relu1
I0730 14:42:08.240821 14648 net.cpp:98] Creating Layer relu1
I0730 14:42:08.240824 14648 net.cpp:443] relu1 <- bn1
I0730 14:42:08.240829 14648 net.cpp:387] relu1 -> bn1 (in-place)
I0730 14:42:08.240835 14648 net.cpp:133] Setting up relu1
I0730 14:42:08.241446 14648 net.cpp:140] Top shape: 1 32 1 70000 (2240000)
I0730 14:42:08.241459 14648 layer_factory.hpp:76] Creating layer bn1_relu1_0_split
I0730 14:42:08.241480 14648 net.cpp:98] Creating Layer bn1_relu1_0_split
I0730 14:42:08.241484 14648 net.cpp:443] bn1_relu1_0_split <- bn1
I0730 14:42:08.241490 14648 net.cpp:398] bn1_relu1_0_split -> bn1_relu1_0_split_0
I0730 14:42:08.241497 14648 net.cpp:398] bn1_relu1_0_split -> bn1_relu1_0_split_1
I0730 14:42:08.241502 14648 net.cpp:133] Setting up bn1_relu1_0_split
I0730 14:42:08.241508 14648 net.cpp:140] Top shape: 1 32 1 70000 (2240000)
I0730 14:42:08.241511 14648 net.cpp:140] Top shape: 1 32 1 70000 (2240000)
I0730 14:42:08.241514 14648 layer_factory.hpp:76] Creating layer fconv1
I0730 14:42:08.241521 14648 net.cpp:98] Creating Layer fconv1
I0730 14:42:08.241525 14648 net.cpp:443] fconv1 <- bn1_relu1_0_split_0
I0730 14:42:08.241564 14648 net.cpp:398] fconv1 -> fconv1
I0730 14:42:08.241570 14648 net.cpp:133] Setting up fconv1
I0730 14:42:08.242606 14648 net.cpp:140] Top shape: 1 3 1 70000 (210000)
I0730 14:42:08.242622 14648 layer_factory.hpp:76] Creating layer fbn1
I0730 14:42:08.242630 14648 net.cpp:98] Creating Layer fbn1
I0730 14:42:08.242635 14648 net.cpp:443] fbn1 <- fconv1
I0730 14:42:08.242640 14648 net.cpp:398] fbn1 -> fbn1
I0730 14:42:08.242647 14648 net.cpp:133] Setting up fbn1
I0730 14:42:08.242760 14648 net.cpp:140] Top shape: 1 3 1 70000 (210000)
I0730 14:42:08.242772 14648 layer_factory.hpp:76] Creating layer frelu1
I0730 14:42:08.242779 14648 net.cpp:98] Creating Layer frelu1
I0730 14:42:08.242781 14648 net.cpp:443] frelu1 <- fbn1
I0730 14:42:08.242786 14648 net.cpp:387] frelu1 -> fbn1 (in-place)
I0730 14:42:08.242791 14648 net.cpp:133] Setting up frelu1
I0730 14:42:08.243384 14648 net.cpp:140] Top shape: 1 3 1 70000 (210000)
I0730 14:42:08.243399 14648 layer_factory.hpp:76] Creating layer data_lattice0
I0730 14:42:08.243435 14648 net.cpp:98] Creating Layer data_lattice0
I0730 14:42:08.243443 14648 net.cpp:443] data_lattice0 <- data_data_0_split_1
I0730 14:42:08.243451 14648 net.cpp:398] data_lattice0 -> data_lattice0
I0730 14:42:08.243458 14648 net.cpp:133] Setting up data_lattice0
I0730 14:42:08.243669 14648 net.cpp:140] Top shape: 1 3 1 70000 (210000)
I0730 14:42:08.243680 14648 layer_factory.hpp:76] Creating layer feat1
I0730 14:42:08.243688 14648 net.cpp:98] Creating Layer feat1
I0730 14:42:08.243692 14648 net.cpp:443] feat1 <- data_lattice0
I0730 14:42:08.243696 14648 net.cpp:443] feat1 <- fbn1
I0730 14:42:08.243702 14648 net.cpp:398] feat1 -> feat1
I0730 14:42:08.243710 14648 net.cpp:133] Setting up feat1
I0730 14:42:08.243716 14648 net.cpp:140] Top shape: 1 3 1 70000 (210000)
I0730 14:42:08.243721 14648 layer_factory.hpp:76] Creating layer feat1_feat1_0_split
I0730 14:42:08.243726 14648 net.cpp:98] Creating Layer feat1_feat1_0_split
I0730 14:42:08.243729 14648 net.cpp:443] feat1_feat1_0_split <- feat1
I0730 14:42:08.243741 14648 net.cpp:398] feat1_feat1_0_split -> feat1_feat1_0_split_0
I0730 14:42:08.243747 14648 net.cpp:398] feat1_feat1_0_split -> feat1_feat1_0_split_1
I0730 14:42:08.243752 14648 net.cpp:133] Setting up feat1_feat1_0_split
I0730 14:42:08.243757 14648 net.cpp:140] Top shape: 1 3 1 70000 (210000)
I0730 14:42:08.243762 14648 net.cpp:140] Top shape: 1 3 1 70000 (210000)
I0730 14:42:08.243767 14648 layer_factory.hpp:76] Creating layer conv2
I0730 14:42:08.243775 14648 net.cpp:98] Creating Layer conv2
I0730 14:42:08.243779 14648 net.cpp:443] conv2 <- bn1_relu1_0_split_1
I0730 14:42:08.243783 14648 net.cpp:443] conv2 <- feat1_feat1_0_split_0
I0730 14:42:08.243788 14648 net.cpp:443] conv2 <- feat1_feat1_0_split_1
I0730 14:42:08.243796 14648 net.cpp:398] conv2 -> conv2
I0730 14:42:08.243803 14648 net.cpp:133] Setting up conv2
I0730 14:42:08.261358 14650 net.cpp:140] Top shape: 1 256 1 70000 (17920000)
I0730 14:42:08.261379 14650 layer_factory.hpp:76] Creating layer bn5
I0730 14:42:08.261394 14650 net.cpp:98] Creating Layer bn5
I0730 14:42:08.261399 14650 net.cpp:443] bn5 <- conv5
I0730 14:42:08.261405 14650 net.cpp:398] bn5 -> bn5
I0730 14:42:08.261412 14650 net.cpp:133] Setting up bn5
I0730 14:42:08.261499 14650 net.cpp:140] Top shape: 1 256 1 70000 (17920000)
I0730 14:42:08.261510 14650 layer_factory.hpp:76] Creating layer relu5
I0730 14:42:08.261519 14650 net.cpp:98] Creating Layer relu5
I0730 14:42:08.261523 14650 net.cpp:443] relu5 <- bn5
I0730 14:42:08.261528 14650 net.cpp:387] relu5 -> bn5 (in-place)
I0730 14:42:08.261531 14650 net.cpp:133] Setting up relu5
I0730 14:42:08.261772 14650 net.cpp:140] Top shape: 1 256 1 70000 (17920000)
I0730 14:42:08.261782 14650 layer_factory.hpp:76] Creating layer bn5_relu5_0_split
I0730 14:42:08.261790 14650 net.cpp:98] Creating Layer bn5_relu5_0_split
I0730 14:42:08.261793 14650 net.cpp:443] bn5_relu5_0_split <- bn5
I0730 14:42:08.261799 14650 net.cpp:398] bn5_relu5_0_split -> bn5_relu5_0_split_0
I0730 14:42:08.261807 14650 net.cpp:398] bn5_relu5_0_split -> bn5_relu5_0_split_1
I0730 14:42:08.261813 14650 net.cpp:398] bn5_relu5_0_split -> bn5_relu5_0_split_2
I0730 14:42:08.261819 14650 net.cpp:133] Setting up bn5_relu5_0_split
I0730 14:42:08.261826 14650 net.cpp:140] Top shape: 1 256 1 70000 (17920000)
I0730 14:42:08.261829 14650 net.cpp:140] Top shape: 1 256 1 70000 (17920000)
I0730 14:42:08.261833 14650 net.cpp:140] Top shape: 1 256 1 70000 (17920000)
I0730 14:42:08.261837 14650 layer_factory.hpp:76] Creating layer fconv5
I0730 14:42:08.261845 14650 net.cpp:98] Creating Layer fconv5
I0730 14:42:08.261849 14650 net.cpp:443] fconv5 <- bn5_relu5_0_split_0
I0730 14:42:08.261857 14650 net.cpp:398] fconv5 -> fconv5
I0730 14:42:08.261862 14650 net.cpp:133] Setting up fconv5
I0730 14:42:08.264526 14648 net.cpp:140] Top shape: 1 64 1 70000 (4480000)
I0730 14:42:08.264551 14648 layer_factory.hpp:76] Creating layer bn2
I0730 14:42:08.264557 14648 net.cpp:98] Creating Layer bn2
I0730 14:42:08.264560 14648 net.cpp:443] bn2 <- conv2
I0730 14:42:08.264567 14648 net.cpp:398] bn2 -> bn2
I0730 14:42:08.264572 14648 net.cpp:133] Setting up bn2
I0730 14:42:08.264623 14648 net.cpp:140] Top shape: 1 64 1 70000 (4480000)
I0730 14:42:08.264634 14648 layer_factory.hpp:76] Creating layer relu2
I0730 14:42:08.264641 14648 net.cpp:98] Creating Layer relu2
I0730 14:42:08.264643 14648 net.cpp:443] relu2 <- bn2
I0730 14:42:08.264647 14648 net.cpp:387] relu2 -> bn2 (in-place)
I0730 14:42:08.264652 14648 net.cpp:133] Setting up relu2
I0730 14:42:08.264832 14648 net.cpp:140] Top shape: 1 64 1 70000 (4480000)
I0730 14:42:08.264842 14648 layer_factory.hpp:76] Creating layer bn2_relu2_0_split
I0730 14:42:08.264849 14648 net.cpp:98] Creating Layer bn2_relu2_0_split
I0730 14:42:08.264853 14648 net.cpp:443] bn2_relu2_0_split <- bn2
I0730 14:42:08.264859 14648 net.cpp:398] bn2_relu2_0_split -> bn2_relu2_0_split_0
I0730 14:42:08.264865 14648 net.cpp:398] bn2_relu2_0_split -> bn2_relu2_0_split_1
I0730 14:42:08.264870 14648 net.cpp:398] bn2_relu2_0_split -> bn2_relu2_0_split_2
I0730 14:42:08.264875 14648 net.cpp:133] Setting up bn2_relu2_0_split
I0730 14:42:08.264880 14648 net.cpp:140] Top shape: 1 64 1 70000 (4480000)
I0730 14:42:08.264883 14648 net.cpp:140] Top shape: 1 64 1 70000 (4480000)
I0730 14:42:08.264888 14648 net.cpp:140] Top shape: 1 64 1 70000 (4480000)
I0730 14:42:08.264890 14648 layer_factory.hpp:76] Creating layer fconv2
I0730 14:42:08.264896 14648 net.cpp:98] Creating Layer fconv2
I0730 14:42:08.264899 14648 net.cpp:443] fconv2 <- bn2_relu2_0_split_0
I0730 14:42:08.264906 14648 net.cpp:398] fconv2 -> fconv2
I0730 14:42:08.264911 14648 net.cpp:133] Setting up fconv2
I0730 14:42:08.266322 14648 net.cpp:140] Top shape: 1 3 1 70000 (210000)
I0730 14:42:08.266350 14648 layer_factory.hpp:76] Creating layer fbn2
I0730 14:42:08.266357 14648 net.cpp:98] Creating Layer fbn2
I0730 14:42:08.266361 14648 net.cpp:443] fbn2 <- fconv2
I0730 14:42:08.266366 14648 net.cpp:398] fbn2 -> fbn2
I0730 14:42:08.266372 14648 net.cpp:133] Setting up fbn2
I0730 14:42:08.266474 14648 net.cpp:140] Top shape: 1 3 1 70000 (210000)
I0730 14:42:08.266485 14648 layer_factory.hpp:76] Creating layer frelu2
I0730 14:42:08.266491 14648 net.cpp:98] Creating Layer frelu2
I0730 14:42:08.266494 14648 net.cpp:443] frelu2 <- fbn2
I0730 14:42:08.266499 14648 net.cpp:387] frelu2 -> fbn2 (in-place)
I0730 14:42:08.266504 14648 net.cpp:133] Setting up frelu2
I0730 14:42:08.266700 14648 net.cpp:140] Top shape: 1 3 1 70000 (210000)
I0730 14:42:08.266710 14648 layer_factory.hpp:76] Creating layer data_lattice1
I0730 14:42:08.266737 14648 net.cpp:98] Creating Layer data_lattice1
I0730 14:42:08.266746 14648 net.cpp:443] data_lattice1 <- data_data_0_split_2
I0730 14:42:08.266752 14648 net.cpp:398] data_lattice1 -> data_lattice1
I0730 14:42:08.266757 14648 net.cpp:133] Setting up data_lattice1
I0730 14:42:08.266894 14648 net.cpp:140] Top shape: 1 3 1 70000 (210000)
I0730 14:42:08.266902 14648 layer_factory.hpp:76] Creating layer feat2
I0730 14:42:08.266908 14648 net.cpp:98] Creating Layer feat2
I0730 14:42:08.266911 14648 net.cpp:443] feat2 <- data_lattice1
I0730 14:42:08.266916 14648 net.cpp:443] feat2 <- fbn2
I0730 14:42:08.266922 14648 net.cpp:398] feat2 -> feat2
I0730 14:42:08.266929 14648 net.cpp:133] Setting up feat2
I0730 14:42:08.266934 14648 net.cpp:140] Top shape: 1 3 1 70000 (210000)
I0730 14:42:08.266938 14648 layer_factory.hpp:76] Creating layer feat2_feat2_0_split
I0730 14:42:08.266943 14648 net.cpp:98] Creating Layer feat2_feat2_0_split
I0730 14:42:08.266947 14648 net.cpp:443] feat2_feat2_0_split <- feat2
I0730 14:42:08.266950 14648 net.cpp:398] feat2_feat2_0_split -> feat2_feat2_0_split_0
I0730 14:42:08.266955 14648 net.cpp:398] feat2_feat2_0_split -> feat2_feat2_0_split_1
I0730 14:42:08.266960 14648 net.cpp:133] Setting up feat2_feat2_0_split
I0730 14:42:08.266965 14648 net.cpp:140] Top shape: 1 3 1 70000 (210000)
I0730 14:42:08.266968 14648 net.cpp:140] Top shape: 1 3 1 70000 (210000)
I0730 14:42:08.266971 14648 layer_factory.hpp:76] Creating layer conv3
I0730 14:42:08.266978 14648 net.cpp:98] Creating Layer conv3
I0730 14:42:08.266981 14648 net.cpp:443] conv3 <- bn2_relu2_0_split_1
I0730 14:42:08.266985 14648 net.cpp:443] conv3 <- feat2_feat2_0_split_0
I0730 14:42:08.266988 14648 net.cpp:443] conv3 <- feat2_feat2_0_split_1
I0730 14:42:08.266993 14648 net.cpp:398] conv3 -> conv3
I0730 14:42:08.266999 14648 net.cpp:133] Setting up conv3
I0730 14:42:08.284471 14649 net.cpp:140] Top shape: 1 256 1 70000 (17920000)
I0730 14:42:08.284497 14649 layer_factory.hpp:76] Creating layer bn5
I0730 14:42:08.284510 14649 net.cpp:98] Creating Layer bn5
I0730 14:42:08.284519 14649 net.cpp:443] bn5 <- conv5
I0730 14:42:08.284526 14649 net.cpp:398] bn5 -> bn5
I0730 14:42:08.284533 14649 net.cpp:133] Setting up bn5
I0730 14:42:08.284646 14649 net.cpp:140] Top shape: 1 256 1 70000 (17920000)
I0730 14:42:08.284659 14649 layer_factory.hpp:76] Creating layer relu5
I0730 14:42:08.284667 14649 net.cpp:98] Creating Layer relu5
I0730 14:42:08.284672 14649 net.cpp:443] relu5 <- bn5
I0730 14:42:08.284678 14649 net.cpp:387] relu5 -> bn5 (in-place)
I0730 14:42:08.284683 14649 net.cpp:133] Setting up relu5
I0730 14:42:08.285014 14649 net.cpp:140] Top shape: 1 256 1 70000 (17920000)
I0730 14:42:08.285024 14649 layer_factory.hpp:76] Creating layer bn5_relu5_0_split
I0730 14:42:08.285038 14649 net.cpp:98] Creating Layer bn5_relu5_0_split
I0730 14:42:08.285043 14649 net.cpp:443] bn5_relu5_0_split <- bn5
I0730 14:42:08.285048 14649 net.cpp:398] bn5_relu5_0_split -> bn5_relu5_0_split_0
I0730 14:42:08.285055 14649 net.cpp:398] bn5_relu5_0_split -> bn5_relu5_0_split_1
I0730 14:42:08.285063 14649 net.cpp:398] bn5_relu5_0_split -> bn5_relu5_0_split_2
I0730 14:42:08.285068 14649 net.cpp:133] Setting up bn5_relu5_0_split
I0730 14:42:08.285074 14649 net.cpp:140] Top shape: 1 256 1 70000 (17920000)
I0730 14:42:08.285079 14649 net.cpp:140] Top shape: 1 256 1 70000 (17920000)
I0730 14:42:08.285082 14649 net.cpp:140] Top shape: 1 256 1 70000 (17920000)
I0730 14:42:08.285086 14649 layer_factory.hpp:76] Creating layer fconv5
I0730 14:42:08.285096 14649 net.cpp:98] Creating Layer fconv5
I0730 14:42:08.285100 14649 net.cpp:443] fconv5 <- bn5_relu5_0_split_0
I0730 14:42:08.285109 14649 net.cpp:398] fconv5 -> fconv5
I0730 14:42:08.285115 14649 net.cpp:133] Setting up fconv5
I0730 14:42:08.287034 14650 net.cpp:140] Top shape: 1 3 1 70000 (210000)
I0730 14:42:08.287046 14650 layer_factory.hpp:76] Creating layer fbn5
I0730 14:42:08.287053 14650 net.cpp:98] Creating Layer fbn5
I0730 14:42:08.287057 14650 net.cpp:443] fbn5 <- fconv5
I0730 14:42:08.287063 14650 net.cpp:398] fbn5 -> fbn5
I0730 14:42:08.287068 14650 net.cpp:133] Setting up fbn5
I0730 14:42:08.287163 14650 net.cpp:140] Top shape: 1 3 1 70000 (210000)
I0730 14:42:08.287173 14650 layer_factory.hpp:76] Creating layer frelu5
I0730 14:42:08.287178 14650 net.cpp:98] Creating Layer frelu5
I0730 14:42:08.287183 14650 net.cpp:443] frelu5 <- fbn5
I0730 14:42:08.287186 14650 net.cpp:387] frelu5 -> fbn5 (in-place)
I0730 14:42:08.287191 14650 net.cpp:133] Setting up frelu5
I0730 14:42:08.287351 14649 net.cpp:140] Top shape: 1 3 1 70000 (210000)
I0730 14:42:08.287369 14649 layer_factory.hpp:76] Creating layer fbn5
I0730 14:42:08.287377 14649 net.cpp:98] Creating Layer fbn5
I0730 14:42:08.287365 14650 net.cpp:140] Top shape: 1 3 1 70000 (210000)
I0730 14:42:08.287372 14650 layer_factory.hpp:76] Creating layer data_lattice4
I0730 14:42:08.287382 14649 net.cpp:443] fbn5 <- fconv5
I0730 14:42:08.287391 14649 net.cpp:398] fbn5 -> fbn5
I0730 14:42:08.287400 14649 net.cpp:133] Setting up fbn5
I0730 14:42:08.287410 14650 net.cpp:98] Creating Layer data_lattice4
I0730 14:42:08.287416 14650 net.cpp:443] data_lattice4 <- data_data_0_split_5
I0730 14:42:08.287422 14650 net.cpp:398] data_lattice4 -> data_lattice4
I0730 14:42:08.287428 14650 net.cpp:133] Setting up data_lattice4
I0730 14:42:08.287461 14649 net.cpp:140] Top shape: 1 3 1 70000 (210000)
I0730 14:42:08.287469 14649 layer_factory.hpp:76] Creating layer frelu5
I0730 14:42:08.287478 14649 net.cpp:98] Creating Layer frelu5
I0730 14:42:08.287482 14649 net.cpp:443] frelu5 <- fbn5
I0730 14:42:08.287487 14649 net.cpp:387] frelu5 -> fbn5 (in-place)
I0730 14:42:08.287493 14649 net.cpp:133] Setting up frelu5
I0730 14:42:08.287617 14650 net.cpp:140] Top shape: 1 3 1 70000 (210000)
I0730 14:42:08.287627 14650 layer_factory.hpp:76] Creating layer feat5
I0730 14:42:08.287634 14650 net.cpp:98] Creating Layer feat5
I0730 14:42:08.287638 14650 net.cpp:443] feat5 <- data_lattice4
I0730 14:42:08.287643 14650 net.cpp:443] feat5 <- fbn5
I0730 14:42:08.287649 14650 net.cpp:398] feat5 -> feat5
I0730 14:42:08.287655 14650 net.cpp:133] Setting up feat5
I0730 14:42:08.287660 14650 net.cpp:140] Top shape: 1 3 1 70000 (210000)
I0730 14:42:08.287664 14650 layer_factory.hpp:76] Creating layer feat5_feat5_0_split
I0730 14:42:08.287669 14650 net.cpp:98] Creating Layer feat5_feat5_0_split
I0730 14:42:08.287672 14650 net.cpp:443] feat5_feat5_0_split <- feat5
I0730 14:42:08.287681 14650 net.cpp:398] feat5_feat5_0_split -> feat5_feat5_0_split_0
I0730 14:42:08.287688 14650 net.cpp:398] feat5_feat5_0_split -> feat5_feat5_0_split_1
I0730 14:42:08.287694 14650 net.cpp:133] Setting up feat5_feat5_0_split
I0730 14:42:08.287699 14650 net.cpp:140] Top shape: 1 3 1 70000 (210000)
I0730 14:42:08.287703 14650 net.cpp:140] Top shape: 1 3 1 70000 (210000)
I0730 14:42:08.287708 14649 net.cpp:140] Top shape: 1 3 1 70000 (210000)
I0730 14:42:08.287716 14649 layer_factory.hpp:76] Creating layer data_lattice4
I0730 14:42:08.287708 14650 layer_factory.hpp:76] Creating layer conv6
I0730 14:42:08.287714 14650 net.cpp:98] Creating Layer conv6
I0730 14:42:08.287719 14650 net.cpp:443] conv6 <- bn5_relu5_0_split_1
I0730 14:42:08.287724 14650 net.cpp:443] conv6 <- feat5_feat5_0_split_0
I0730 14:42:08.287726 14650 net.cpp:443] conv6 <- feat5_feat5_0_split_1
I0730 14:42:08.287732 14650 net.cpp:398] conv6 -> conv6
I0730 14:42:08.287739 14650 net.cpp:133] Setting up conv6
I0730 14:42:08.287765 14649 net.cpp:98] Creating Layer data_lattice4
I0730 14:42:08.287770 14649 net.cpp:443] data_lattice4 <- data_data_0_split_5
I0730 14:42:08.287780 14649 net.cpp:398] data_lattice4 -> data_lattice4
I0730 14:42:08.287786 14649 net.cpp:133] Setting up data_lattice4
I0730 14:42:08.288005 14649 net.cpp:140] Top shape: 1 3 1 70000 (210000)
I0730 14:42:08.288017 14649 layer_factory.hpp:76] Creating layer feat5
I0730 14:42:08.288025 14649 net.cpp:98] Creating Layer feat5
I0730 14:42:08.288030 14649 net.cpp:443] feat5 <- data_lattice4
I0730 14:42:08.288035 14649 net.cpp:443] feat5 <- fbn5
I0730 14:42:08.288043 14649 net.cpp:398] feat5 -> feat5
I0730 14:42:08.288049 14649 net.cpp:133] Setting up feat5
I0730 14:42:08.288055 14649 net.cpp:140] Top shape: 1 3 1 70000 (210000)
I0730 14:42:08.288059 14649 layer_factory.hpp:76] Creating layer feat5_feat5_0_split
I0730 14:42:08.288066 14649 net.cpp:98] Creating Layer feat5_feat5_0_split
I0730 14:42:08.288069 14649 net.cpp:443] feat5_feat5_0_split <- feat5
I0730 14:42:08.288075 14649 net.cpp:398] feat5_feat5_0_split -> feat5_feat5_0_split_0
I0730 14:42:08.288082 14649 net.cpp:398] feat5_feat5_0_split -> feat5_feat5_0_split_1
I0730 14:42:08.288091 14649 net.cpp:133] Setting up feat5_feat5_0_split
I0730 14:42:08.288097 14649 net.cpp:140] Top shape: 1 3 1 70000 (210000)
I0730 14:42:08.288102 14649 net.cpp:140] Top shape: 1 3 1 70000 (210000)
I0730 14:42:08.288105 14649 layer_factory.hpp:76] Creating layer conv6
I0730 14:42:08.288115 14649 net.cpp:98] Creating Layer conv6
I0730 14:42:08.288120 14649 net.cpp:443] conv6 <- bn5_relu5_0_split_1
I0730 14:42:08.288125 14649 net.cpp:443] conv6 <- feat5_feat5_0_split_0
I0730 14:42:08.288130 14649 net.cpp:443] conv6 <- feat5_feat5_0_split_1
I0730 14:42:08.288136 14649 net.cpp:398] conv6 -> conv6
I0730 14:42:08.288143 14649 net.cpp:133] Setting up conv6
I0730 14:42:08.311846 14650 net.cpp:140] Top shape: 1 256 1 70000 (17920000)
I0730 14:42:08.311857 14650 layer_factory.hpp:76] Creating layer bn6
I0730 14:42:08.311863 14650 net.cpp:98] Creating Layer bn6
I0730 14:42:08.311867 14650 net.cpp:443] bn6 <- conv6
I0730 14:42:08.311872 14650 net.cpp:398] bn6 -> bn6
I0730 14:42:08.311877 14650 net.cpp:133] Setting up bn6
I0730 14:42:08.311986 14650 net.cpp:140] Top shape: 1 256 1 70000 (17920000)
I0730 14:42:08.311997 14650 layer_factory.hpp:76] Creating layer relu6
I0730 14:42:08.312002 14650 net.cpp:98] Creating Layer relu6
I0730 14:42:08.312005 14650 net.cpp:443] relu6 <- bn6
I0730 14:42:08.312011 14650 net.cpp:387] relu6 -> bn6 (in-place)
I0730 14:42:08.312024 14650 net.cpp:133] Setting up relu6
I0730 14:42:08.312602 14650 net.cpp:140] Top shape: 1 256 1 70000 (17920000)
I0730 14:42:08.312615 14650 layer_factory.hpp:76] Creating layer concat6
I0730 14:42:08.312623 14650 net.cpp:98] Creating Layer concat6
I0730 14:42:08.312628 14650 net.cpp:443] concat6 <- bn6
I0730 14:42:08.312631 14650 net.cpp:443] concat6 <- bn2_relu2_0_split_2
I0730 14:42:08.312635 14650 net.cpp:443] concat6 <- bn3_relu3_0_split_2
I0730 14:42:08.312639 14650 net.cpp:443] concat6 <- bn4_relu4_0_split_2
I0730 14:42:08.312642 14650 net.cpp:443] concat6 <- bn5_relu5_0_split_2
I0730 14:42:08.312646 14650 net.cpp:398] concat6 -> concat6
I0730 14:42:08.312652 14650 net.cpp:133] Setting up concat6
I0730 14:42:08.312659 14650 net.cpp:140] Top shape: 1 960 1 70000 (67200000)
I0730 14:42:08.312662 14650 layer_factory.hpp:76] Creating layer conv7
I0730 14:42:08.312670 14650 net.cpp:98] Creating Layer conv7
I0730 14:42:08.312674 14650 net.cpp:443] conv7 <- concat6
I0730 14:42:08.312680 14650 net.cpp:398] conv7 -> conv7
I0730 14:42:08.312685 14650 net.cpp:133] Setting up conv7
I0730 14:42:08.319367 14649 net.cpp:140] Top shape: 1 256 1 70000 (17920000)
I0730 14:42:08.319382 14649 layer_factory.hpp:76] Creating layer bn6
I0730 14:42:08.319389 14649 net.cpp:98] Creating Layer bn6
I0730 14:42:08.319394 14649 net.cpp:443] bn6 <- conv6
I0730 14:42:08.319399 14649 net.cpp:398] bn6 -> bn6
I0730 14:42:08.319406 14649 net.cpp:133] Setting up bn6
I0730 14:42:08.319463 14649 net.cpp:140] Top shape: 1 256 1 70000 (17920000)
I0730 14:42:08.319475 14649 layer_factory.hpp:76] Creating layer relu6
I0730 14:42:08.319481 14649 net.cpp:98] Creating Layer relu6
I0730 14:42:08.319485 14649 net.cpp:443] relu6 <- bn6
I0730 14:42:08.319491 14649 net.cpp:387] relu6 -> bn6 (in-place)
I0730 14:42:08.319496 14649 net.cpp:133] Setting up relu6
I0730 14:42:08.320184 14649 net.cpp:140] Top shape: 1 256 1 70000 (17920000)
I0730 14:42:08.320197 14649 layer_factory.hpp:76] Creating layer concat6
I0730 14:42:08.320209 14649 net.cpp:98] Creating Layer concat6
I0730 14:42:08.320215 14649 net.cpp:443] concat6 <- bn6
I0730 14:42:08.320221 14649 net.cpp:443] concat6 <- bn2_relu2_0_split_2
I0730 14:42:08.320226 14649 net.cpp:443] concat6 <- bn3_relu3_0_split_2
I0730 14:42:08.320230 14649 net.cpp:443] concat6 <- bn4_relu4_0_split_2
I0730 14:42:08.320235 14649 net.cpp:443] concat6 <- bn5_relu5_0_split_2
I0730 14:42:08.320240 14649 net.cpp:398] concat6 -> concat6
I0730 14:42:08.320248 14649 net.cpp:133] Setting up concat6
I0730 14:42:08.320257 14649 net.cpp:140] Top shape: 1 960 1 70000 (67200000)
I0730 14:42:08.320261 14649 layer_factory.hpp:76] Creating layer conv7
I0730 14:42:08.320268 14649 net.cpp:98] Creating Layer conv7
I0730 14:42:08.320272 14649 net.cpp:443] conv7 <- concat6
I0730 14:42:08.320279 14649 net.cpp:398] conv7 -> conv7
I0730 14:42:08.320287 14649 net.cpp:133] Setting up conv7
I0730 14:42:08.322052 14650 net.cpp:140] Top shape: 1 128 1 70000 (8960000)
I0730 14:42:08.322067 14650 layer_factory.hpp:76] Creating layer bn7
I0730 14:42:08.322073 14650 net.cpp:98] Creating Layer bn7
I0730 14:42:08.322077 14650 net.cpp:443] bn7 <- conv7
I0730 14:42:08.322082 14650 net.cpp:398] bn7 -> bn7
I0730 14:42:08.322088 14650 net.cpp:133] Setting up bn7
I0730 14:42:08.322140 14650 net.cpp:140] Top shape: 1 128 1 70000 (8960000)
I0730 14:42:08.322149 14650 layer_factory.hpp:76] Creating layer relu7
I0730 14:42:08.322155 14650 net.cpp:98] Creating Layer relu7
I0730 14:42:08.322160 14650 net.cpp:443] relu7 <- bn7
I0730 14:42:08.322165 14650 net.cpp:387] relu7 -> bn7 (in-place)
I0730 14:42:08.322170 14650 net.cpp:133] Setting up relu7
I0730 14:42:08.322338 14649 net.cpp:140] Top shape: 1 128 1 70000 (8960000)
I0730 14:42:08.322343 14650 net.cpp:140] Top shape: 1 128 1 70000 (8960000)
I0730 14:42:08.322351 14650 layer_factory.hpp:76] Creating layer conv8
I0730 14:42:08.322360 14650 net.cpp:98] Creating Layer conv8
I0730 14:42:08.322355 14649 layer_factory.hpp:76] Creating layer bn7
I0730 14:42:08.322365 14649 net.cpp:98] Creating Layer bn7
I0730 14:42:08.322371 14649 net.cpp:443] bn7 <- conv7
I0730 14:42:08.322363 14650 net.cpp:443] conv8 <- bn7
I0730 14:42:08.322371 14650 net.cpp:398] conv8 -> conv8
I0730 14:42:08.322376 14650 net.cpp:133] Setting up conv8
I0730 14:42:08.322378 14649 net.cpp:398] bn7 -> bn7
I0730 14:42:08.322386 14649 net.cpp:133] Setting up bn7
I0730 14:42:08.322494 14649 net.cpp:140] Top shape: 1 128 1 70000 (8960000)
I0730 14:42:08.322507 14649 layer_factory.hpp:76] Creating layer relu7
I0730 14:42:08.322513 14649 net.cpp:98] Creating Layer relu7
I0730 14:42:08.322518 14649 net.cpp:443] relu7 <- bn7
I0730 14:42:08.322523 14649 net.cpp:387] relu7 -> bn7 (in-place)
I0730 14:42:08.322530 14649 net.cpp:133] Setting up relu7
I0730 14:42:08.322748 14649 net.cpp:140] Top shape: 1 128 1 70000 (8960000)
I0730 14:42:08.322759 14649 layer_factory.hpp:76] Creating layer conv8
I0730 14:42:08.322768 14649 net.cpp:98] Creating Layer conv8
I0730 14:42:08.322773 14649 net.cpp:443] conv8 <- bn7
I0730 14:42:08.322782 14649 net.cpp:398] conv8 -> conv8
I0730 14:42:08.322790 14649 net.cpp:133] Setting up conv8
I0730 14:42:08.324160 14650 net.cpp:140] Top shape: 1 13 1 70000 (910000)
I0730 14:42:08.324175 14650 layer_factory.hpp:76] Creating layer conv8_conv8_0_split
I0730 14:42:08.324184 14650 net.cpp:98] Creating Layer conv8_conv8_0_split
I0730 14:42:08.324188 14650 net.cpp:443] conv8_conv8_0_split <- conv8
I0730 14:42:08.324194 14650 net.cpp:398] conv8_conv8_0_split -> conv8_conv8_0_split_0
I0730 14:42:08.324201 14650 net.cpp:398] conv8_conv8_0_split -> conv8_conv8_0_split_1
I0730 14:42:08.324206 14650 net.cpp:133] Setting up conv8_conv8_0_split
I0730 14:42:08.324211 14650 net.cpp:140] Top shape: 1 13 1 70000 (910000)
I0730 14:42:08.324214 14650 net.cpp:140] Top shape: 1 13 1 70000 (910000)
I0730 14:42:08.324218 14650 layer_factory.hpp:76] Creating layer loss
I0730 14:42:08.324224 14650 net.cpp:98] Creating Layer loss
I0730 14:42:08.324228 14650 net.cpp:443] loss <- conv8_conv8_0_split_0
I0730 14:42:08.324231 14650 net.cpp:443] loss <- label_data_1_split_0
I0730 14:42:08.324237 14650 net.cpp:398] loss -> loss
I0730 14:42:08.324254 14650 net.cpp:133] Setting up loss
I0730 14:42:08.324260 14650 layer_factory.hpp:76] Creating layer loss
I0730 14:42:08.324483 14649 net.cpp:140] Top shape: 1 13 1 70000 (910000)
I0730 14:42:08.324501 14649 layer_factory.hpp:76] Creating layer conv8_conv8_0_split
I0730 14:42:08.324510 14649 net.cpp:98] Creating Layer conv8_conv8_0_split
I0730 14:42:08.324523 14649 net.cpp:443] conv8_conv8_0_split <- conv8
I0730 14:42:08.324532 14649 net.cpp:398] conv8_conv8_0_split -> conv8_conv8_0_split_0
I0730 14:42:08.324548 14649 net.cpp:398] conv8_conv8_0_split -> conv8_conv8_0_split_1
I0730 14:42:08.324555 14649 net.cpp:133] Setting up conv8_conv8_0_split
I0730 14:42:08.324566 14649 net.cpp:140] Top shape: 1 13 1 70000 (910000)
I0730 14:42:08.324571 14649 net.cpp:140] Top shape: 1 13 1 70000 (910000)
I0730 14:42:08.324574 14649 layer_factory.hpp:76] Creating layer loss
I0730 14:42:08.324584 14649 net.cpp:98] Creating Layer loss
I0730 14:42:08.324589 14649 net.cpp:443] loss <- conv8_conv8_0_split_0
I0730 14:42:08.324594 14649 net.cpp:443] loss <- label_data_1_split_0
I0730 14:42:08.324599 14649 net.cpp:398] loss -> loss
I0730 14:42:08.324604 14649 net.cpp:133] Setting up loss
…
I0730 14:42:08.325886 14649 net.cpp:255] This network produces output loss
I0730 14:42:08.325937 14649 net.cpp:515] Collecting Learning Rate and Weight Decay.
I0730 14:42:08.325953 14649 net.cpp:532] Geting PQC Status For Parameter Blobs.
I0730 14:42:08.325959 14649 net.cpp:556] Geting Prune Threshold For Parameter Blobs.
I0730 14:42:08.325965 14649 net.cpp:273] Network initialization done.
I0730 14:42:08.325968 14649 net.cpp:274] Memory required for data: 1866760008
I0730 14:42:08.326136 14650 solver.cpp:79] Solver scaffolding done.
I0730 14:42:08.326740 14649 solver.cpp:79] Solver scaffolding done.
I0730 14:42:08.346670 14648 net.cpp:140] Top shape: 1 128 1 70000 (8960000)
I0730 14:42:08.346699 14648 layer_factory.hpp:76] Creating layer bn3
I0730 14:42:08.346714 14648 net.cpp:98] Creating Layer bn3
I0730 14:42:08.346721 14648 net.cpp:443] bn3 <- conv3
I0730 14:42:08.346729 14648 net.cpp:398] bn3 -> bn3
I0730 14:42:08.346738 14648 net.cpp:133] Setting up bn3
I0730 14:42:08.346849 14648 net.cpp:140] Top shape: 1 128 1 70000 (8960000)
I0730 14:42:08.346859 14648 layer_factory.hpp:76] Creating layer relu3
I0730 14:42:08.346870 14648 net.cpp:98] Creating Layer relu3
I0730 14:42:08.346873 14648 net.cpp:443] relu3 <- bn3
I0730 14:42:08.346879 14648 net.cpp:387] relu3 -> bn3 (in-place)
I0730 14:42:08.346882 14648 net.cpp:133] Setting up relu3
I0730 14:42:08.347160 14648 net.cpp:140] Top shape: 1 128 1 70000 (8960000)
I0730 14:42:08.347170 14648 layer_factory.hpp:76] Creating layer bn3_relu3_0_split
I0730 14:42:08.347178 14648 net.cpp:98] Creating Layer bn3_relu3_0_split
I0730 14:42:08.347182 14648 net.cpp:443] bn3_relu3_0_split <- bn3
I0730 14:42:08.347187 14648 net.cpp:398] bn3_relu3_0_split -> bn3_relu3_0_split_0
I0730 14:42:08.347193 14648 net.cpp:398] bn3_relu3_0_split -> bn3_relu3_0_split_1
I0730 14:42:08.347198 14648 net.cpp:398] bn3_relu3_0_split -> bn3_relu3_0_split_2
I0730 14:42:08.347201 14648 net.cpp:133] Setting up bn3_relu3_0_split
I0730 14:42:08.347208 14648 net.cpp:140] Top shape: 1 128 1 70000 (8960000)
I0730 14:42:08.347210 14648 net.cpp:140] Top shape: 1 128 1 70000 (8960000)
I0730 14:42:08.347213 14648 net.cpp:140] Top shape: 1 128 1 70000 (8960000)
I0730 14:42:08.347216 14648 layer_factory.hpp:76] Creating layer fconv3
I0730 14:42:08.347224 14648 net.cpp:98] Creating Layer fconv3
I0730 14:42:08.347227 14648 net.cpp:443] fconv3 <- bn3_relu3_0_split_0
I0730 14:42:08.347234 14648 net.cpp:398] fconv3 -> fconv3
I0730 14:42:08.347241 14648 net.cpp:133] Setting up fconv3
I0730 14:42:08.349304 14648 net.cpp:140] Top shape: 1 3 1 70000 (210000)
I0730 14:42:08.349378 14648 layer_factory.hpp:76] Creating layer fbn3
I0730 14:42:08.349421 14648 net.cpp:98] Creating Layer fbn3
I0730 14:42:08.349452 14648 net.cpp:443] fbn3 <- fconv3
I0730 14:42:08.349484 14648 net.cpp:398] fbn3 -> fbn3
I0730 14:42:08.349517 14648 net.cpp:133] Setting up fbn3
I0730 14:42:08.349679 14648 net.cpp:140] Top shape: 1 3 1 70000 (210000)
I0730 14:42:08.349728 14648 layer_factory.hpp:76] Creating layer frelu3
I0730 14:42:08.349763 14648 net.cpp:98] Creating Layer frelu3
I0730 14:42:08.349793 14648 net.cpp:443] frelu3 <- fbn3
I0730 14:42:08.349823 14648 net.cpp:387] frelu3 -> fbn3 (in-place)
I0730 14:42:08.349855 14648 net.cpp:133] Setting up frelu3
I0730 14:42:08.350760 14648 net.cpp:140] Top shape: 1 3 1 70000 (210000)
I0730 14:42:08.350817 14648 layer_factory.hpp:76] Creating layer data_lattice2
I0730 14:42:08.350925 14648 net.cpp:98] Creating Layer data_lattice2
I0730 14:42:08.350963 14648 net.cpp:443] data_lattice2 <- data_data_0_split_3
I0730 14:42:08.350998 14648 net.cpp:398] data_lattice2 -> data_lattice2
I0730 14:42:08.351032 14648 net.cpp:133] Setting up data_lattice2
I0730 14:42:08.351301 14648 net.cpp:140] Top shape: 1 3 1 70000 (210000)
I0730 14:42:08.351341 14648 layer_factory.hpp:76] Creating layer feat3
I0730 14:42:08.351382 14648 net.cpp:98] Creating Layer feat3
I0730 14:42:08.351413 14648 net.cpp:443] feat3 <- data_lattice2
I0730 14:42:08.351446 14648 net.cpp:443] feat3 <- fbn3
I0730 14:42:08.351482 14648 net.cpp:398] feat3 -> feat3
I0730 14:42:08.351518 14648 net.cpp:133] Setting up feat3
I0730 14:42:08.351562 14648 net.cpp:140] Top shape: 1 3 1 70000 (210000)
I0730 14:42:08.351593 14648 layer_factory.hpp:76] Creating layer feat3_feat3_0_split
I0730 14:42:08.351624 14648 net.cpp:98] Creating Layer feat3_feat3_0_split
I0730 14:42:08.351634 14648 net.cpp:443] feat3_feat3_0_split <- feat3
I0730 14:42:08.351641 14648 net.cpp:398] feat3_feat3_0_split -> feat3_feat3_0_split_0
I0730 14:42:08.351651 14648 net.cpp:398] feat3_feat3_0_split -> feat3_feat3_0_split_1
I0730 14:42:08.351660 14648 net.cpp:133] Setting up feat3_feat3_0_split
I0730 14:42:08.351670 14648 net.cpp:140] Top shape: 1 3 1 70000 (210000)
I0730 14:42:08.351677 14648 net.cpp:140] Top shape: 1 3 1 70000 (210000)
I0730 14:42:08.351682 14648 layer_factory.hpp:76] Creating layer conv4
I0730 14:42:08.351692 14648 net.cpp:98] Creating Layer conv4
I0730 14:42:08.351697 14648 net.cpp:443] conv4 <- bn3_relu3_0_split_1
I0730 14:42:08.351702 14648 net.cpp:443] conv4 <- feat3_feat3_0_split_0
I0730 14:42:08.351706 14648 net.cpp:443] conv4 <- feat3_feat3_0_split_1
I0730 14:42:08.351711 14648 net.cpp:398] conv4 -> conv4
I0730 14:42:08.351718 14648 net.cpp:133] Setting up conv4
I0730 14:42:08.412087 14648 net.cpp:140] Top shape: 1 256 1 70000 (17920000)
I0730 14:42:08.412122 14648 layer_factory.hpp:76] Creating layer bn4
I0730 14:42:08.412139 14648 net.cpp:98] Creating Layer bn4
I0730 14:42:08.412145 14648 net.cpp:443] bn4 <- conv4
I0730 14:42:08.412153 14648 net.cpp:398] bn4 -> bn4
I0730 14:42:08.412163 14648 net.cpp:133] Setting up bn4
I0730 14:42:08.412242 14648 net.cpp:140] Top shape: 1 256 1 70000 (17920000)
I0730 14:42:08.412256 14648 layer_factory.hpp:76] Creating layer relu4
I0730 14:42:08.412263 14648 net.cpp:98] Creating Layer relu4
I0730 14:42:08.412266 14648 net.cpp:443] relu4 <- bn4
I0730 14:42:08.412271 14648 net.cpp:387] relu4 -> bn4 (in-place)
I0730 14:42:08.412276 14648 net.cpp:133] Setting up relu4
I0730 14:42:08.412571 14648 net.cpp:140] Top shape: 1 256 1 70000 (17920000)
I0730 14:42:08.412582 14648 layer_factory.hpp:76] Creating layer bn4_relu4_0_split
I0730 14:42:08.412590 14648 net.cpp:98] Creating Layer bn4_relu4_0_split
I0730 14:42:08.412592 14648 net.cpp:443] bn4_relu4_0_split <- bn4
I0730 14:42:08.412600 14648 net.cpp:398] bn4_relu4_0_split -> bn4_relu4_0_split_0
I0730 14:42:08.412606 14648 net.cpp:398] bn4_relu4_0_split -> bn4_relu4_0_split_1
I0730 14:42:08.412611 14648 net.cpp:398] bn4_relu4_0_split -> bn4_relu4_0_split_2
I0730 14:42:08.412614 14648 net.cpp:133] Setting up bn4_relu4_0_split
I0730 14:42:08.412621 14648 net.cpp:140] Top shape: 1 256 1 70000 (17920000)
I0730 14:42:08.412624 14648 net.cpp:140] Top shape: 1 256 1 70000 (17920000)
I0730 14:42:08.412627 14648 net.cpp:140] Top shape: 1 256 1 70000 (17920000)
I0730 14:42:08.412631 14648 layer_factory.hpp:76] Creating layer fconv4
I0730 14:42:08.412641 14648 net.cpp:98] Creating Layer fconv4
I0730 14:42:08.412644 14648 net.cpp:443] fconv4 <- bn4_relu4_0_split_0
I0730 14:42:08.412650 14648 net.cpp:398] fconv4 -> fconv4
I0730 14:42:08.412657 14648 net.cpp:133] Setting up fconv4
I0730 14:42:08.414342 14648 net.cpp:140] Top shape: 1 3 1 70000 (210000)
I0730 14:42:08.414357 14648 layer_factory.hpp:76] Creating layer fbn4
I0730 14:42:08.414368 14648 net.cpp:98] Creating Layer fbn4
I0730 14:42:08.414372 14648 net.cpp:443] fbn4 <- fconv4
I0730 14:42:08.414378 14648 net.cpp:398] fbn4 -> fbn4
I0730 14:42:08.414386 14648 net.cpp:133] Setting up fbn4
I0730 14:42:08.414481 14648 net.cpp:140] Top shape: 1 3 1 70000 (210000)
I0730 14:42:08.414491 14648 layer_factory.hpp:76] Creating layer frelu4
I0730 14:42:08.414499 14648 net.cpp:98] Creating Layer frelu4
I0730 14:42:08.414502 14648 net.cpp:443] frelu4 <- fbn4
I0730 14:42:08.414507 14648 net.cpp:387] frelu4 -> fbn4 (in-place)
I0730 14:42:08.414512 14648 net.cpp:133] Setting up frelu4
I0730 14:42:08.414724 14648 net.cpp:140] Top shape: 1 3 1 70000 (210000)
I0730 14:42:08.414733 14648 layer_factory.hpp:76] Creating layer data_lattice3
I0730 14:42:08.414799 14648 net.cpp:98] Creating Layer data_lattice3
I0730 14:42:08.414808 14648 net.cpp:443] data_lattice3 <- data_data_0_split_4
I0730 14:42:08.414813 14648 net.cpp:398] data_lattice3 -> data_lattice3
I0730 14:42:08.414819 14648 net.cpp:133] Setting up data_lattice3
I0730 14:42:08.415050 14648 net.cpp:140] Top shape: 1 3 1 70000 (210000)
I0730 14:42:08.415058 14648 layer_factory.hpp:76] Creating layer feat4
I0730 14:42:08.415068 14648 net.cpp:98] Creating Layer feat4
I0730 14:42:08.415073 14648 net.cpp:443] feat4 <- data_lattice3
I0730 14:42:08.415077 14648 net.cpp:443] feat4 <- fbn4
I0730 14:42:08.415082 14648 net.cpp:398] feat4 -> feat4
I0730 14:42:08.415088 14648 net.cpp:133] Setting up feat4
I0730 14:42:08.415094 14648 net.cpp:140] Top shape: 1 3 1 70000 (210000)
I0730 14:42:08.415097 14648 layer_factory.hpp:76] Creating layer feat4_feat4_0_split
I0730 14:42:08.415103 14648 net.cpp:98] Creating Layer feat4_feat4_0_split
I0730 14:42:08.415105 14648 net.cpp:443] feat4_feat4_0_split <- feat4
I0730 14:42:08.415110 14648 net.cpp:398] feat4_feat4_0_split -> feat4_feat4_0_split_0
I0730 14:42:08.415115 14648 net.cpp:398] feat4_feat4_0_split -> feat4_feat4_0_split_1
I0730 14:42:08.415119 14648 net.cpp:133] Setting up feat4_feat4_0_split
I0730 14:42:08.415124 14648 net.cpp:140] Top shape: 1 3 1 70000 (210000)
I0730 14:42:08.415127 14648 net.cpp:140] Top shape: 1 3 1 70000 (210000)
I0730 14:42:08.415130 14648 layer_factory.hpp:76] Creating layer conv5
I0730 14:42:08.415139 14648 net.cpp:98] Creating Layer conv5
I0730 14:42:08.415143 14648 net.cpp:443] conv5 <- bn4_relu4_0_split_1
I0730 14:42:08.415148 14648 net.cpp:443] conv5 <- feat4_feat4_0_split_0
I0730 14:42:08.415151 14648 net.cpp:443] conv5 <- feat4_feat4_0_split_1
I0730 14:42:08.415155 14648 net.cpp:398] conv5 -> conv5
…
I0730 14:42:08.445179 14650 net.cpp:1213] Source blobs info (from source layer conv8_conv8_0_split)
I0730 14:42:08.445183 14650 net.cpp:1240] Copying source layer conv8_conv8_0_split
I0730 14:42:08.445186 14650 net.cpp:1213] Source blobs info (from source layer loss)
I0730 14:42:08.445190 14650 net.cpp:1240] Copying source layer loss
I0730 14:42:08.445194 14650 net.cpp:1213] Source blobs info (from source layer accuracy)
I0730 14:42:08.445196 14650 net.cpp:1240] Copying source layer accuracy
I0730 14:42:08.445552 14650 solver.cpp:568] Solving 
I0730 14:42:08.445565 14650 solver.cpp:569] Learning Rate Policy: step
I0730 14:42:08.536988 14648 net.cpp:140] Top shape: 1 256 1 70000 (17920000)
I0730 14:42:08.537024 14648 layer_factory.hpp:76] Creating layer bn5
I0730 14:42:08.537041 14648 net.cpp:98] Creating Layer bn5
I0730 14:42:08.537048 14648 net.cpp:443] bn5 <- conv5
I0730 14:42:08.537056 14648 net.cpp:398] bn5 -> bn5
I0730 14:42:08.537066 14648 net.cpp:133] Setting up bn5
I0730 14:42:08.537170 14648 net.cpp:140] Top shape: 1 256 1 70000 (17920000)
I0730 14:42:08.537180 14648 layer_factory.hpp:76] Creating layer relu5
I0730 14:42:08.537187 14648 net.cpp:98] Creating Layer relu5
I0730 14:42:08.537191 14648 net.cpp:443] relu5 <- bn5
I0730 14:42:08.537195 14648 net.cpp:387] relu5 -> bn5 (in-place)
I0730 14:42:08.537200 14648 net.cpp:133] Setting up relu5
I0730 14:42:08.537498 14648 net.cpp:140] Top shape: 1 256 1 70000 (17920000)
I0730 14:42:08.537508 14648 layer_factory.hpp:76] Creating layer bn5_relu5_0_split
I0730 14:42:08.537518 14648 net.cpp:98] Creating Layer bn5_relu5_0_split
I0730 14:42:08.537521 14648 net.cpp:443] bn5_relu5_0_split <- bn5
I0730 14:42:08.537526 14648 net.cpp:398] bn5_relu5_0_split -> bn5_relu5_0_split_0
I0730 14:42:08.537531 14648 net.cpp:398] bn5_relu5_0_split -> bn5_relu5_0_split_1
I0730 14:42:08.537536 14648 net.cpp:398] bn5_relu5_0_split -> bn5_relu5_0_split_2
I0730 14:42:08.537549 14648 net.cpp:133] Setting up bn5_relu5_0_split
I0730 14:42:08.537554 14648 net.cpp:140] Top shape: 1 256 1 70000 (17920000)
I0730 14:42:08.537560 14648 net.cpp:140] Top shape: 1 256 1 70000 (17920000)
I0730 14:42:08.537564 14648 net.cpp:140] Top shape: 1 256 1 70000 (17920000)
I0730 14:42:08.537566 14648 layer_factory.hpp:76] Creating layer fconv5
I0730 14:42:08.537576 14648 net.cpp:98] Creating Layer fconv5
I0730 14:42:08.537580 14648 net.cpp:443] fconv5 <- bn5_relu5_0_split_0
I0730 14:42:08.537585 14648 net.cpp:398] fconv5 -> fconv5
I0730 14:42:08.537592 14648 net.cpp:133] Setting up fconv5
I0730 14:42:08.539602 14648 net.cpp:140] Top shape: 1 3 1 70000 (210000)
I0730 14:42:08.539616 14648 layer_factory.hpp:76] Creating layer fbn5
I0730 14:42:08.539623 14648 net.cpp:98] Creating Layer fbn5
I0730 14:42:08.539628 14648 net.cpp:443] fbn5 <- fconv5
I0730 14:42:08.539634 14648 net.cpp:398] fbn5 -> fbn5
I0730 14:42:08.539640 14648 net.cpp:133] Setting up fbn5
I0730 14:42:08.539705 14648 net.cpp:140] Top shape: 1 3 1 70000 (210000)
I0730 14:42:08.539722 14648 layer_factory.hpp:76] Creating layer frelu5
I0730 14:42:08.539729 14648 net.cpp:98] Creating Layer frelu5
I0730 14:42:08.539733 14648 net.cpp:443] frelu5 <- fbn5
I0730 14:42:08.539737 14648 net.cpp:387] frelu5 -> fbn5 (in-place)
I0730 14:42:08.539741 14648 net.cpp:133] Setting up frelu5
I0730 14:42:08.539918 14648 net.cpp:140] Top shape: 1 3 1 70000 (210000)
I0730 14:42:08.539927 14648 layer_factory.hpp:76] Creating layer data_lattice4
I0730 14:42:08.539997 14648 net.cpp:98] Creating Layer data_lattice4
I0730 14:42:08.540004 14648 net.cpp:443] data_lattice4 <- data_data_0_split_5
I0730 14:42:08.540011 14648 net.cpp:398] data_lattice4 -> data_lattice4
I0730 14:42:08.540016 14648 net.cpp:133] Setting up data_lattice4
I0730 14:42:08.540262 14648 net.cpp:140] Top shape: 1 3 1 70000 (210000)
I0730 14:42:08.540271 14648 layer_factory.hpp:76] Creating layer feat5
I0730 14:42:08.540278 14648 net.cpp:98] Creating Layer feat5
I0730 14:42:08.540282 14648 net.cpp:443] feat5 <- data_lattice4
I0730 14:42:08.540287 14648 net.cpp:443] feat5 <- fbn5
I0730 14:42:08.540297 14648 net.cpp:398] feat5 -> feat5
I0730 14:42:08.540304 14648 net.cpp:133] Setting up feat5
I0730 14:42:08.540310 14648 net.cpp:140] Top shape: 1 3 1 70000 (210000)
I0730 14:42:08.540313 14648 layer_factory.hpp:76] Creating layer feat5_feat5_0_split
I0730 14:42:08.540318 14648 net.cpp:98] Creating Layer feat5_feat5_0_split
I0730 14:42:08.540321 14648 net.cpp:443] feat5_feat5_0_split <- feat5
I0730 14:42:08.540325 14648 net.cpp:398] feat5_feat5_0_split -> feat5_feat5_0_split_0
I0730 14:42:08.540331 14648 net.cpp:398] feat5_feat5_0_split -> feat5_feat5_0_split_1
I0730 14:42:08.540340 14648 net.cpp:133] Setting up feat5_feat5_0_split
I0730 14:42:08.540345 14648 net.cpp:140] Top shape: 1 3 1 70000 (210000)
I0730 14:42:08.540349 14648 net.cpp:140] Top shape: 1 3 1 70000 (210000)
I0730 14:42:08.540352 14648 layer_factory.hpp:76] Creating layer conv6
I0730 14:42:08.540361 14648 net.cpp:98] Creating Layer conv6
I0730 14:42:08.540365 14648 net.cpp:443] conv6 <- bn5_relu5_0_split_1
I0730 14:42:08.540369 14648 net.cpp:443] conv6 <- feat5_feat5_0_split_0
I0730 14:42:08.540374 14648 net.cpp:443] conv6 <- feat5_feat5_0_split_1
I0730 14:42:08.540379 14648 net.cpp:398] conv6 -> conv6
I0730 14:42:08.540383 14648 net.cpp:133] Setting up conv6
I0730 14:42:08.565747 14648 net.cpp:140] Top shape: 1 256 1 70000 (17920000)
I0730 14:42:08.565765 14648 layer_factory.hpp:76] Creating layer bn6
I0730 14:42:08.565774 14648 net.cpp:98] Creating Layer bn6
I0730 14:42:08.565779 14648 net.cpp:443] bn6 <- conv6
I0730 14:42:08.565785 14648 net.cpp:398] bn6 -> bn6
I0730 14:42:08.565793 14648 net.cpp:133] Setting up bn6
I0730 14:42:08.565863 14648 net.cpp:140] Top shape: 1 256 1 70000 (17920000)
I0730 14:42:08.565872 14648 layer_factory.hpp:76] Creating layer relu6
I0730 14:42:08.565877 14648 net.cpp:98] Creating Layer relu6
I0730 14:42:08.565881 14648 net.cpp:443] relu6 <- bn6
I0730 14:42:08.565886 14648 net.cpp:387] relu6 -> bn6 (in-place)
I0730 14:42:08.565893 14648 net.cpp:133] Setting up relu6
I0730 14:42:08.566596 14648 net.cpp:140] Top shape: 1 256 1 70000 (17920000)
I0730 14:42:08.566608 14648 layer_factory.hpp:76] Creating layer concat6
I0730 14:42:08.566617 14648 net.cpp:98] Creating Layer concat6
I0730 14:42:08.566620 14648 net.cpp:443] concat6 <- bn6
I0730 14:42:08.566625 14648 net.cpp:443] concat6 <- bn2_relu2_0_split_2
I0730 14:42:08.566629 14648 net.cpp:443] concat6 <- bn3_relu3_0_split_2
I0730 14:42:08.566633 14648 net.cpp:443] concat6 <- bn4_relu4_0_split_2
I0730 14:42:08.566637 14648 net.cpp:443] concat6 <- bn5_relu5_0_split_2
I0730 14:42:08.566642 14648 net.cpp:398] concat6 -> concat6
I0730 14:42:08.566648 14648 net.cpp:133] Setting up concat6
I0730 14:42:08.566656 14648 net.cpp:140] Top shape: 1 960 1 70000 (67200000)
I0730 14:42:08.566659 14648 layer_factory.hpp:76] Creating layer conv7
I0730 14:42:08.566666 14648 net.cpp:98] Creating Layer conv7
I0730 14:42:08.566669 14648 net.cpp:443] conv7 <- concat6
I0730 14:42:08.566676 14648 net.cpp:398] conv7 -> conv7
I0730 14:42:08.566682 14648 net.cpp:133] Setting up conv7
I0730 14:42:08.568317 14648 net.cpp:140] Top shape: 1 128 1 70000 (8960000)
I0730 14:42:08.568331 14648 layer_factory.hpp:76] Creating layer bn7
I0730 14:42:08.568338 14648 net.cpp:98] Creating Layer bn7
I0730 14:42:08.568341 14648 net.cpp:443] bn7 <- conv7
I0730 14:42:08.568347 14648 net.cpp:398] bn7 -> bn7
I0730 14:42:08.568353 14648 net.cpp:133] Setting up bn7
I0730 14:42:08.568409 14648 net.cpp:140] Top shape: 1 128 1 70000 (8960000)
I0730 14:42:08.568421 14648 layer_factory.hpp:76] Creating layer relu7
I0730 14:42:08.568428 14648 net.cpp:98] Creating Layer relu7
I0730 14:42:08.568430 14648 net.cpp:443] relu7 <- bn7
I0730 14:42:08.568436 14648 net.cpp:387] relu7 -> bn7 (in-place)
I0730 14:42:08.568441 14648 net.cpp:133] Setting up relu7
I0730 14:42:08.568652 14648 net.cpp:140] Top shape: 1 128 1 70000 (8960000)
I0730 14:42:08.568662 14648 layer_factory.hpp:76] Creating layer conv8
I0730 14:42:08.568671 14648 net.cpp:98] Creating Layer conv8
I0730 14:42:08.568675 14648 net.cpp:443] conv8 <- bn7
I0730 14:42:08.568681 14648 net.cpp:398] conv8 -> conv8
I0730 14:42:08.568688 14648 net.cpp:133] Setting up conv8
I0730 14:42:08.570042 14648 net.cpp:140] Top shape: 1 13 1 70000 (910000)
I0730 14:42:08.570056 14648 layer_factory.hpp:76] Creating layer conv8_conv8_0_split
I0730 14:42:08.570065 14648 net.cpp:98] Creating Layer conv8_conv8_0_split
I0730 14:42:08.570070 14648 net.cpp:443] conv8_conv8_0_split <- conv8
I0730 14:42:08.570076 14648 net.cpp:398] conv8_conv8_0_split -> conv8_conv8_0_split_0
I0730 14:42:08.570083 14648 net.cpp:398] conv8_conv8_0_split -> conv8_conv8_0_split_1
I0730 14:42:08.570088 14648 net.cpp:133] Setting up conv8_conv8_0_split
I0730 14:42:08.570096 14648 net.cpp:140] Top shape: 1 13 1 70000 (910000)
I0730 14:42:08.570101 14648 net.cpp:140] Top shape: 1 13 1 70000 (910000)
I0730 14:42:08.570103 14648 layer_factory.hpp:76] Creating layer loss
I0730 14:42:08.570122 14648 net.cpp:98] Creating Layer loss
I0730 14:42:08.570124 14648 net.cpp:443] loss <- conv8_conv8_0_split_0
I0730 14:42:08.570128 14648 net.cpp:443] loss <- label_data_1_split_0
I0730 14:42:08.570134 14648 net.cpp:398] loss -> loss
I0730 14:42:08.570140 14648 net.cpp:133] Setting up loss
…
