…
I0810 13:46:47.234484 32067 net.cpp:294] The NetState phase (0) differed from the phase (1) specified by a rule in layer data
I0810 13:46:47.235307 32067 net.cpp:51] Initializing net from parameters: 
state {
  phase: TRAIN
}
layer {
  name: "data"
  type: "Python"
  top: "data"
  top: "label"
  include {
    phase: TRAIN
  }
  python_param {
    module: "dataset_lidar"
    layer: "InputShapenet"
    param_str: "{\'sample_size\': 8192, \'test_area\': \'6\', \'batch_size\': 12, \'feat_dims\': \'x_y_z\', \'subset\': \'train\', \'root\': \'../../data/shapenet_ericyi_ply\', \'jitter_xyz\': 0.02, \'jitter_stretch\': 0.1, \'jitter_rotation\': 10.0}"
  }
}
layer {
  name: "data_feat"
  type: "Python"
  bottom: "data"
  top: "data_feat"
  python_param {
    module: "custom_layers"
    layer: "PickAndScale"
    param_str: "0_1_2"
  }
}
layer {
  name: "edge_feature"
  type: "Python"
  bottom: "data_feat"
  top: "edge_feature"
  python_param {
    module: "custom_layers"
    layer: "GraphFeature"
    param_str: "20"
  }
}
layer {
  name: "conv1_"
  type: "Convolution"
  bottom: "edge_feature"
  top: "conv1_"
  param {
    lr_mult: 1
  }
  param {
    lr_mult: 0.1
  }
  convolution_param {
    num_output: 32
    pad: 0
    kernel_size: 1
    stride: 1
    weight_filler {
      type: "xavier"
    }
    bias_filler {
      type: "constant"
      value: 0
    }
  }
}
layer {
  name: "bn1_"
  type: "BatchNorm"
  bottom: "conv1_"
  top: "bn1_"
}
layer {
  name: "relu1"
  type: "ReLU"
  bottom: "bn1_"
  top: "bn1_"
}
layer {
  name: "conv1a"
  type: "Convolution"
  bottom: "bn1_"
  top: "conv1a"
  param {
    lr_mult: 1
  }
  param {
    lr_mult: 0.1
  }
  convolution_param {
    num_output: 32
    pad: 0
    kernel_size: 1
    stride: 1
    weight_filler {
      type: "xavier"
    }
    bias_filler {
      type: "constant"
      value: 0
    }
  }
}
layer {
  name: "bn1a"
  type: "BatchNorm"
  bottom: "conv1a"
  top: "bn1a"
}
layer {
  name: "relu1a"
  type: "ReLU"
  bottom: "bn1a"
  top: "bn1a"
}
layer {
  name: "pool1max"
  type: "Pooling"
  bottom: "bn1a"
  top: "pool1max"
  pooling_param {
    pool: MAX
    kernel_h: 21
    kernel_w: 1
    stride_h: 21
    stride_w: 1
  }
}
layer {
  name: "pool1ave"
  type: "Pooling"
  bottom: "bn1a"
  top: "pool1ave"
  pooling_param {
    pool: AVE
    kernel_h: 21
    kernel_w: 1
    stride_h: 21
    stride_w: 1
  }
}
layer {
  name: "pool1"
  type: "Concat"
  bottom: "pool1ave"
  bottom: "pool1max"
  top: "pool1"
}
layer {
  name: "conv1c"
  type: "Convolution"
  bottom: "pool1"
  top: "conv1c"
  param {
    lr_mult: 1
  }
  param {
    lr_mult: 0.1
  }
  convolution_param {
    num_output: 32
    pad: 0
    kernel_size: 1
    stride: 1
    weight_filler {
      type: "xavier"
    }
    bias_filler {
      type: "constant"
      value: 0
    }
  }
}
layer {
  name: "bn1c"
  type: "BatchNorm"
  bottom: "conv1c"
  top: "bn1c"
}
layer {
  name: "relu1c"
  type: "ReLU"
  bottom: "bn1c"
  top: "bn1c"
}
layer {
  name: "fconv1_"
  type: "Convolution"
  bottom: "bn1c"
  top: "fconv1_"
  param {
    lr_mult: 1
  }
  param {
    lr_mult: 0.1
  }
  convolution_param {
    num_output: 3
    pad: 0
    kernel_size: 1
    stride: 1
    weight_filler {
      type: "xavier"
    }
    bias_filler {
      type: "constant"
      value: 0
    }
  }
}
layer {
  name: "fbn1_"
  type: "BatchNorm"
  bottom: "fconv1_"
  top: "fbn1_"
}
layer {
  name: "frelu1"
  type: "ReLU"
  bottom: "fbn1_"
  top: "fbn1_"
}
layer {
  name: "feat1"
  type: "Eltwise"
  bottom: "data"
  bottom: "fbn1_"
  top: "feat1"
  eltwise_param {
    operation: SUM
  }
}
layer {
  name: "data_lattice0"
  type: "Python"
  bottom: "feat1"
  top: "data_lattice0"
  python_param {
    module: "custom_layers"
    layer: "PickAndScale"
    param_str: "0*48_1*48_2*48"
  }
}
layer {
  name: "conv2"
  type: "Permutohedral"
  bottom: "bn1c"
  bottom: "data_lattice0"
  bottom: "data_lattice0"
  top: "conv2"
  param {
    lr_mult: 1
    decay_mult: 1
  }
  param {
    lr_mult: 2
    decay_mult: 0
  }
  permutohedral_param {
    num_output: 64
    neighborhood_size: 2
    filter_filler {
      type: "gaussian"
      std: 0.001
    }
    bias_term: true
    bias_filler {
      type: "constant"
      value: 0
    }
    group: 1
    norm_type: AFTER
    offset_type: NONE
  }
}
layer {
  name: "bn2"
  type: "BatchNorm"
  bottom: "conv2"
  top: "bn2"
}
layer {
  name: "relu2"
  type: "ReLU"
  bottom: "bn2"
  top: "bn2"
}
layer {
  name: "fconv2"
  type: "Convolution"
  bottom: "bn2"
  top: "fconv2"
  param {
    lr_mult: 1
  }
  param {
    lr_mult: 0.1
  }
  convolution_param {
    num_output: 3
    pad: 0
    kernel_size: 1
    stride: 1
    weight_filler {
      type: "xavier"
    }
    bias_filler {
      type: "constant"
      value: 0
    }
  }
}
layer {
  name: "fbn2"
  type: "BatchNorm"
  bottom: "fconv2"
  top: "fbn2"
}
layer {
  name: "frelu2"
  type: "ReLU"
  bottom: "fbn2"
  top: "fbn2"
}
layer {
  name: "feat2"
  type: "Eltwise"
  bottom: "data"
  bottom: "fbn2"
  top: "feat2"
  eltwise_param {
    operation: SUM
  }
}
layer {
  name: "data_lattice1"
  type: "Python"
  bottom: "feat2"
  top: "data_lattice1"
  python_param {
    module: "custom_layers"
    layer: "PickAndScale"
    param_str: "0*24_1*24_2*24"
  }
}
layer {
  name: "conv3"
  type: "Permutohedral"
  bottom: "bn2"
  bottom: "data_lattice1"
  bottom: "data_lattice1"
  top: "conv3"
  param {
    lr_mult: 1
    decay_mult: 1
  }
  param {
    lr_mult: 2
    decay_mult: 0
  }
  permutohedral_param {
    num_output: 128
    neighborhood_size: 2
    filter_filler {
      type: "gaussian"
      std: 0.001
    }
    bias_term: true
    bias_filler {
      type: "constant"
      value: 0
    }
    group: 1
    norm_type: AFTER
    offset_type: NONE
  }
}
layer {
  name: "bn3"
  type: "BatchNorm"
  bottom: "conv3"
  top: "bn3"
}
layer {
  name: "relu3"
  type: "ReLU"
  bottom: "bn3"
  top: "bn3"
}
layer {
  name: "fconv3"
  type: "Convolution"
  bottom: "bn3"
  top: "fconv3"
  param {
    lr_mult: 1
  }
  param {
    lr_mult: 0.1
  }
  convolution_param {
    num_output: 3
    pad: 0
    kernel_size: 1
    stride: 1
    weight_filler {
      type: "xavier"
    }
    bias_filler {
      type: "constant"
      value: 0
    }
  }
}
layer {
  name: "fbn3"
  type: "BatchNorm"
  bottom: "fconv3"
  top: "fbn3"
}
layer {
  name: "frelu3"
  type: "ReLU"
  bottom: "fbn3"
  top: "fbn3"
}
layer {
  name: "feat3"
  type: "Eltwise"
  bottom: "data"
  bottom: "fbn3"
  top: "feat3"
  eltwise_param {
    operation: SUM
  }
}
layer {
  name: "data_lattice2"
  type: "Python"
  bottom: "feat3"
  top: "data_lattice2"
  python_param {
    module: "custom_layers"
    layer: "PickAndScale"
    param_str: "0*12_1*12_2*12"
  }
}
layer {
  name: "conv4"
  type: "Permutohedral"
  bottom: "bn3"
  bottom: "data_lattice2"
  bottom: "data_lattice2"
  top: "conv4"
  param {
    lr_mult: 1
    decay_mult: 1
  }
  param {
    lr_mult: 2
    decay_mult: 0
  }
  permutohedral_param {
    num_output: 256
    neighborhood_size: 2
    filter_filler {
      type: "gaussian"
      std: 0.001
    }
    bias_term: true
    bias_filler {
      type: "constant"
      value: 0
    }
    group: 1
    norm_type: AFTER
    offset_type: NONE
  }
}
layer {
  name: "bn4"
  type: "BatchNorm"
  bottom: "conv4"
  top: "bn4"
}
layer {
  name: "relu4"
  type: "ReLU"
  bottom: "bn4"
  top: "bn4"
}
layer {
  name: "fconv4"
  type: "Convolution"
  bottom: "bn4"
  top: "fconv4"
  param {
    lr_mult: 1
  }
  param {
    lr_mult: 0.1
  }
  convolution_param {
    num_output: 3
    pad: 0
    kernel_size: 1
    stride: 1
    weight_filler {
      type: "xavier"
    }
    bias_filler {
      type: "constant"
      value: 0
    }
  }
}
layer {
  name: "fbn4"
  type: "BatchNorm"
  bottom: "fconv4"
  top: "fbn4"
}
layer {
  name: "frelu4"
  type: "ReLU"
  bottom: "fbn4"
  top: "fbn4"
}
layer {
  name: "feat4"
  type: "Eltwise"
  bottom: "data"
  bottom: "fbn4"
  top: "feat4"
  eltwise_param {
    operation: SUM
  }
}
layer {
  name: "data_lattice3"
  type: "Python"
  bottom: "feat4"
  top: "data_lattice3"
  python_param {
    module: "custom_layers"
    layer: "PickAndScale"
    param_str: "0*6_1*6_2*6"
  }
}
layer {
  name: "conv5"
  type: "Permutohedral"
  bottom: "bn4"
  bottom: "data_lattice3"
  bottom: "data_lattice3"
  top: "conv5"
  param {
    lr_mult: 1
    decay_mult: 1
  }
  param {
    lr_mult: 2
    decay_mult: 0
  }
  permutohedral_param {
    num_output: 256
    neighborhood_size: 2
    filter_filler {
      type: "gaussian"
      std: 0.001
    }
    bias_term: true
    bias_filler {
      type: "constant"
      value: 0
    }
    group: 1
    norm_type: AFTER
    offset_type: NONE
  }
}
layer {
  name: "bn5"
  type: "BatchNorm"
  bottom: "conv5"
  top: "bn5"
}
layer {
  name: "relu5"
  type: "ReLU"
  bottom: "bn5"
  top: "bn5"
}
layer {
  name: "fconv5"
  type: "Convolution"
  bottom: "bn5"
  top: "fconv5"
  param {
    lr_mult: 1
  }
  param {
    lr_mult: 0.1
  }
  convolution_param {
    num_output: 3
    pad: 0
    kernel_size: 1
    stride: 1
    weight_filler {
      type: "xavier"
    }
    bias_filler {
      type: "constant"
      value: 0
    }
  }
}
layer {
  name: "fbn5"
  type: "BatchNorm"
  bottom: "fconv5"
  top: "fbn5"
}
layer {
  name: "frelu5"
  type: "ReLU"
  bottom: "fbn5"
  top: "fbn5"
}
layer {
  name: "feat5"
  type: "Eltwise"
  bottom: "data"
  bottom: "fbn5"
  top: "feat5"
  eltwise_param {
    operation: SUM
  }
}
layer {
  name: "data_lattice4"
  type: "Python"
  bottom: "feat5"
  top: "data_lattice4"
  python_param {
    module: "custom_layers"
    layer: "PickAndScale"
    param_str: "0*3_1*3_2*3"
  }
}
layer {
  name: "conv6"
  type: "Permutohedral"
  bottom: "bn5"
  bottom: "data_lattice4"
  bottom: "data_lattice4"
  top: "conv6"
  param {
    lr_mult: 1
    decay_mult: 1
  }
  param {
    lr_mult: 2
    decay_mult: 0
  }
  permutohedral_param {
    num_output: 256
    neighborhood_size: 2
    filter_filler {
      type: "gaussian"
      std: 0.001
    }
    bias_term: true
    bias_filler {
      type: "constant"
      value: 0
    }
    group: 1
    norm_type: AFTER
    offset_type: NONE
  }
}
layer {
  name: "bn6"
  type: "BatchNorm"
  bottom: "conv6"
  top: "bn6"
}
layer {
  name: "relu6"
  type: "ReLU"
  bottom: "bn6"
  top: "bn6"
}
layer {
  name: "concat6"
  type: "Concat"
  bottom: "bn6"
  bottom: "bn2"
  bottom: "bn3"
  bottom: "bn4"
  bottom: "bn5"
  bottom: "pool1"
  top: "concat6"
}
layer {
  name: "conv7_"
  type: "Convolution"
  bottom: "concat6"
  top: "conv7_"
  param {
    lr_mult: 1
  }
  param {
    lr_mult: 0.1
  }
  convolution_param {
    num_output: 128
    pad: 0
    kernel_size: 1
    stride: 1
    weight_filler {
      type: "xavier"
    }
    bias_filler {
      type: "constant"
      value: 0
    }
  }
}
layer {
  name: "bn7_"
  type: "BatchNorm"
  bottom: "conv7_"
  top: "bn7_"
}
layer {
  name: "relu7"
  type: "ReLU"
  bottom: "bn7_"
  top: "bn7_"
}
layer {
  name: "conv8"
  type: "Convolution"
  bottom: "bn7_"
  top: "conv8"
  param {
    lr_mult: 1
  }
  param {
    lr_mult: 0.1
  }
  convolution_param {
    num_output: 13
    pad: 0
    kernel_size: 1
    stride: 1
    weight_filler {
      type: "xavier"
    }
    bias_filler {
      type: "constant"
      value: 0
    }
  }
}
layer {
  name: "loss"
  type: "SoftmaxWithLoss"
  bottom: "conv8"
  bottom: "label"
  top: "loss"
}
layer {
  name: "accuracy"
  type: "Accuracy"
  bottom: "conv8"
  bottom: "label"
  top: "accuracy"
}
I0810 13:46:47.288204 32067 layer_factory.hpp:77] Creating layer data
I0810 13:46:47.325395 32071 upgrade_proto.cpp:1084] Attempting to upgrade input file specified using deprecated 'solver_type' field (enum)': /mnt/lustre/wangjiayun/repos/splatnet/exp/lidar3d/area6/6_solver.prototxt
I0810 13:46:47.325486 32071 upgrade_proto.cpp:1091] Successfully upgraded file specified using deprecated 'solver_type' field (enum) to 'type' field (string).
…
I0810 13:46:47.368074 32069 upgrade_proto.cpp:1084] Attempting to upgrade input file specified using deprecated 'solver_type' field (enum)': /mnt/lustre/wangjiayun/repos/splatnet/exp/lidar3d/area6/6_solver.prototxt
I0810 13:46:47.368181 32069 upgrade_proto.cpp:1091] Successfully upgraded file specified using deprecated 'solver_type' field (enum) to 'type' field (string).
W0810 13:46:47.368187 32069 upgrade_proto.cpp:1093] Note that future Caffe releases will only support 'type' field (string) for a solver's type.
I0810 13:48:17.596468 32067 net.cpp:122] Setting up data
I0810 13:48:17.596581 32067 net.cpp:129] Top shape: 12 3 1 8192 (294912)
I0810 13:48:17.596591 32067 net.cpp:129] Top shape: 12 1 1 8192 (98304)
I0810 13:48:17.596596 32067 net.cpp:137] Memory required for data: 1572864
I0810 13:48:17.596628 32067 layer_factory.hpp:77] Creating layer data_data_0_split
I0810 13:48:17.596685 32067 net.cpp:84] Creating Layer data_data_0_split
I0810 13:48:17.596702 32067 net.cpp:406] data_data_0_split <- data
I0810 13:48:17.596722 32067 net.cpp:380] data_data_0_split -> data_data_0_split_0
I0810 13:48:17.596740 32067 net.cpp:380] data_data_0_split -> data_data_0_split_1
I0810 13:48:17.596750 32067 net.cpp:380] data_data_0_split -> data_data_0_split_2
I0810 13:48:17.596756 32067 net.cpp:380] data_data_0_split -> data_data_0_split_3
I0810 13:48:17.596762 32067 net.cpp:380] data_data_0_split -> data_data_0_split_4
I0810 13:48:17.596770 32067 net.cpp:380] data_data_0_split -> data_data_0_split_5
I0810 13:48:17.596858 32067 net.cpp:122] Setting up data_data_0_split
I0810 13:48:17.596868 32067 net.cpp:129] Top shape: 12 3 1 8192 (294912)
I0810 13:48:17.596873 32067 net.cpp:129] Top shape: 12 3 1 8192 (294912)
I0810 13:48:17.596879 32067 net.cpp:129] Top shape: 12 3 1 8192 (294912)
I0810 13:48:17.596882 32067 net.cpp:129] Top shape: 12 3 1 8192 (294912)
I0810 13:48:17.596886 32067 net.cpp:129] Top shape: 12 3 1 8192 (294912)
I0810 13:48:17.596890 32067 net.cpp:129] Top shape: 12 3 1 8192 (294912)
I0810 13:48:17.596894 32067 net.cpp:137] Memory required for data: 8650752
I0810 13:48:17.596896 32067 layer_factory.hpp:77] Creating layer label_data_1_split
I0810 13:48:17.596904 32067 net.cpp:84] Creating Layer label_data_1_split
I0810 13:48:17.596907 32067 net.cpp:406] label_data_1_split <- label
I0810 13:48:17.596913 32067 net.cpp:380] label_data_1_split -> label_data_1_split_0
I0810 13:48:17.596920 32067 net.cpp:380] label_data_1_split -> label_data_1_split_1
I0810 13:48:17.596949 32067 net.cpp:122] Setting up label_data_1_split
I0810 13:48:17.596956 32067 net.cpp:129] Top shape: 12 1 1 8192 (98304)
I0810 13:48:17.596961 32067 net.cpp:129] Top shape: 12 1 1 8192 (98304)
I0810 13:48:17.596964 32067 net.cpp:137] Memory required for data: 9437184
I0810 13:48:17.596967 32067 layer_factory.hpp:77] Creating layer data_feat
I0810 13:48:17.604585 32067 net.cpp:84] Creating Layer data_feat
I0810 13:48:17.604625 32067 net.cpp:406] data_feat <- data_data_0_split_0
I0810 13:48:17.604637 32067 net.cpp:380] data_feat -> data_feat
I0810 13:48:17.606500 32067 net.cpp:122] Setting up data_feat
I0810 13:48:17.606546 32067 net.cpp:129] Top shape: 12 3 1 8192 (294912)
I0810 13:48:17.606551 32067 net.cpp:137] Memory required for data: 10616832
I0810 13:48:17.606559 32067 layer_factory.hpp:77] Creating layer edge_feature
I0810 13:48:17.606611 32067 net.cpp:84] Creating Layer edge_feature
I0810 13:48:17.606627 32067 net.cpp:406] edge_feature <- data_feat
I0810 13:48:17.606638 32067 net.cpp:380] edge_feature -> edge_feature
I0810 13:48:30.492080 32067 net.cpp:122] Setting up edge_feature
I0810 13:48:30.492125 32067 net.cpp:129] Top shape: 12 3 21 8192 (6193152)
I0810 13:48:30.492130 32067 net.cpp:137] Memory required for data: 35389440
I0810 13:48:30.492138 32067 layer_factory.hpp:77] Creating layer conv1_
I0810 13:48:30.492216 32067 net.cpp:84] Creating Layer conv1_
I0810 13:48:30.492228 32067 net.cpp:406] conv1_ <- edge_feature
I0810 13:48:30.492242 32067 net.cpp:380] conv1_ -> conv1_
I0810 13:48:35.630498 32067 net.cpp:122] Setting up conv1_
I0810 13:48:35.630709 32067 net.cpp:129] Top shape: 12 32 21 8192 (66060288)
I0810 13:48:35.630718 32067 net.cpp:137] Memory required for data: 299630592
I0810 13:48:35.630808 32067 layer_factory.hpp:77] Creating layer bn1_
I0810 13:48:35.642150 32067 net.cpp:84] Creating Layer bn1_
I0810 13:48:35.642189 32067 net.cpp:406] bn1_ <- conv1_
I0810 13:48:35.642210 32067 net.cpp:380] bn1_ -> bn1_
I0810 13:48:35.672046 32067 net.cpp:122] Setting up bn1_
I0810 13:48:35.672089 32067 net.cpp:129] Top shape: 12 32 21 8192 (66060288)
I0810 13:48:35.672106 32067 net.cpp:137] Memory required for data: 563871744
I0810 13:48:35.672158 32067 layer_factory.hpp:77] Creating layer relu1
I0810 13:48:35.672245 32067 net.cpp:84] Creating Layer relu1
I0810 13:48:35.672268 32067 net.cpp:406] relu1 <- bn1_
I0810 13:48:35.672286 32067 net.cpp:367] relu1 -> bn1_ (in-place)
I0810 13:48:35.673286 32067 net.cpp:122] Setting up relu1
I0810 13:48:35.673321 32067 net.cpp:129] Top shape: 12 32 21 8192 (66060288)
I0810 13:48:35.673333 32067 net.cpp:137] Memory required for data: 828112896
I0810 13:48:35.673344 32067 layer_factory.hpp:77] Creating layer conv1a
I0810 13:48:35.673377 32067 net.cpp:84] Creating Layer conv1a
I0810 13:48:35.673390 32067 net.cpp:406] conv1a <- bn1_
I0810 13:48:35.673408 32067 net.cpp:380] conv1a -> conv1a
I0810 13:48:35.685407 32067 net.cpp:122] Setting up conv1a
I0810 13:48:35.685444 32067 net.cpp:129] Top shape: 12 32 21 8192 (66060288)
I0810 13:48:35.685452 32067 net.cpp:137] Memory required for data: 1092354048
I0810 13:48:35.685472 32067 layer_factory.hpp:77] Creating layer bn1a
I0810 13:48:35.685492 32067 net.cpp:84] Creating Layer bn1a
I0810 13:48:35.685503 32067 net.cpp:406] bn1a <- conv1a
I0810 13:48:35.685539 32067 net.cpp:380] bn1a -> bn1a
I0810 13:48:35.686113 32067 net.cpp:122] Setting up bn1a
I0810 13:48:35.686136 32067 net.cpp:129] Top shape: 12 32 21 8192 (66060288)
I0810 13:48:35.686141 32067 net.cpp:137] Memory required for data: 1356595200
I0810 13:48:35.686167 32067 layer_factory.hpp:77] Creating layer relu1a
I0810 13:48:35.686209 32067 net.cpp:84] Creating Layer relu1a
I0810 13:48:35.686221 32067 net.cpp:406] relu1a <- bn1a
I0810 13:48:35.686234 32067 net.cpp:367] relu1a -> bn1a (in-place)
I0810 13:48:35.686838 32067 net.cpp:122] Setting up relu1a
I0810 13:48:35.686878 32067 net.cpp:129] Top shape: 12 32 21 8192 (66060288)
I0810 13:48:35.686892 32067 net.cpp:137] Memory required for data: 1620836352
I0810 13:48:35.686902 32067 layer_factory.hpp:77] Creating layer bn1a_relu1a_0_split
I0810 13:48:35.686936 32067 net.cpp:84] Creating Layer bn1a_relu1a_0_split
I0810 13:48:35.686947 32067 net.cpp:406] bn1a_relu1a_0_split <- bn1a
I0810 13:48:35.686964 32067 net.cpp:380] bn1a_relu1a_0_split -> bn1a_relu1a_0_split_0
I0810 13:48:35.686987 32067 net.cpp:380] bn1a_relu1a_0_split -> bn1a_relu1a_0_split_1
I0810 13:48:35.687089 32067 net.cpp:122] Setting up bn1a_relu1a_0_split
I0810 13:48:35.687115 32067 net.cpp:129] Top shape: 12 32 21 8192 (66060288)
I0810 13:48:35.687126 32067 net.cpp:129] Top shape: 12 32 21 8192 (66060288)
I0810 13:48:35.687134 32067 net.cpp:137] Memory required for data: 2149318656
I0810 13:48:35.687144 32067 layer_factory.hpp:77] Creating layer pool1max
I0810 13:48:35.687166 32067 net.cpp:84] Creating Layer pool1max
I0810 13:48:35.687176 32067 net.cpp:406] pool1max <- bn1a_relu1a_0_split_0
I0810 13:48:35.687191 32067 net.cpp:380] pool1max -> pool1max
I0810 13:48:35.687397 32067 net.cpp:122] Setting up pool1max
I0810 13:48:35.687419 32067 net.cpp:129] Top shape: 12 32 1 8192 (3145728)
I0810 13:48:35.687427 32067 net.cpp:137] Memory required for data: 2161901568
I0810 13:48:35.687450 32067 layer_factory.hpp:77] Creating layer pool1ave
I0810 13:48:35.687470 32067 net.cpp:84] Creating Layer pool1ave
I0810 13:48:35.687479 32067 net.cpp:406] pool1ave <- bn1a_relu1a_0_split_1
I0810 13:48:35.687521 32067 net.cpp:380] pool1ave -> pool1ave
I0810 13:48:35.689020 32067 net.cpp:122] Setting up pool1ave
I0810 13:48:35.689054 32067 net.cpp:129] Top shape: 12 32 1 8192 (3145728)
I0810 13:48:35.689069 32067 net.cpp:137] Memory required for data: 2174484480
I0810 13:48:35.689082 32067 layer_factory.hpp:77] Creating layer pool1
I0810 13:48:35.689146 32067 net.cpp:84] Creating Layer pool1
I0810 13:48:35.689167 32067 net.cpp:406] pool1 <- pool1ave
I0810 13:48:35.689178 32067 net.cpp:406] pool1 <- pool1max
I0810 13:48:35.689191 32067 net.cpp:380] pool1 -> pool1
I0810 13:48:35.689312 32067 net.cpp:122] Setting up pool1
I0810 13:48:35.689338 32067 net.cpp:129] Top shape: 12 64 1 8192 (6291456)
I0810 13:48:35.689348 32067 net.cpp:137] Memory required for data: 2199650304
I0810 13:48:35.689357 32067 layer_factory.hpp:77] Creating layer pool1_pool1_0_split
I0810 13:48:35.689371 32067 net.cpp:84] Creating Layer pool1_pool1_0_split
I0810 13:48:35.689380 32067 net.cpp:406] pool1_pool1_0_split <- pool1
I0810 13:48:35.689396 32067 net.cpp:380] pool1_pool1_0_split -> pool1_pool1_0_split_0
I0810 13:48:35.689414 32067 net.cpp:380] pool1_pool1_0_split -> pool1_pool1_0_split_1
I0810 13:48:35.689501 32067 net.cpp:122] Setting up pool1_pool1_0_split
I0810 13:48:35.689532 32067 net.cpp:129] Top shape: 12 64 1 8192 (6291456)
I0810 13:48:35.689543 32067 net.cpp:129] Top shape: 12 64 1 8192 (6291456)
I0810 13:48:35.689551 32067 net.cpp:137] Memory required for data: 2249981952
I0810 13:48:35.689559 32067 layer_factory.hpp:77] Creating layer conv1c
I0810 13:48:35.689587 32067 net.cpp:84] Creating Layer conv1c
I0810 13:48:35.689601 32067 net.cpp:406] conv1c <- pool1_pool1_0_split_0
I0810 13:48:35.689618 32067 net.cpp:380] conv1c -> conv1c
I0810 13:48:35.699010 32067 net.cpp:122] Setting up conv1c
I0810 13:48:35.699050 32067 net.cpp:129] Top shape: 12 32 1 8192 (3145728)
I0810 13:48:35.699060 32067 net.cpp:137] Memory required for data: 2262564864
I0810 13:48:35.699079 32067 layer_factory.hpp:77] Creating layer bn1c
I0810 13:48:35.699095 32067 net.cpp:84] Creating Layer bn1c
I0810 13:48:35.699105 32067 net.cpp:406] bn1c <- conv1c
I0810 13:48:35.699118 32067 net.cpp:380] bn1c -> bn1c
I0810 13:48:35.699590 32067 net.cpp:122] Setting up bn1c
I0810 13:48:35.699615 32067 net.cpp:129] Top shape: 12 32 1 8192 (3145728)
I0810 13:48:35.699623 32067 net.cpp:137] Memory required for data: 2275147776
I0810 13:48:35.699641 32067 layer_factory.hpp:77] Creating layer relu1c
I0810 13:48:35.699681 32067 net.cpp:84] Creating Layer relu1c
I0810 13:48:35.699692 32067 net.cpp:406] relu1c <- bn1c
I0810 13:48:35.699703 32067 net.cpp:367] relu1c -> bn1c (in-place)
I0810 13:48:35.700378 32067 net.cpp:122] Setting up relu1c
I0810 13:48:35.700408 32067 net.cpp:129] Top shape: 12 32 1 8192 (3145728)
I0810 13:48:35.700418 32067 net.cpp:137] Memory required for data: 2287730688
I0810 13:48:35.700429 32067 layer_factory.hpp:77] Creating layer bn1c_relu1c_0_split
I0810 13:48:35.700444 32067 net.cpp:84] Creating Layer bn1c_relu1c_0_split
I0810 13:48:35.700455 32067 net.cpp:406] bn1c_relu1c_0_split <- bn1c
I0810 13:48:35.700484 32067 net.cpp:380] bn1c_relu1c_0_split -> bn1c_relu1c_0_split_0
I0810 13:48:35.700505 32067 net.cpp:380] bn1c_relu1c_0_split -> bn1c_relu1c_0_split_1
I0810 13:48:35.700623 32067 net.cpp:122] Setting up bn1c_relu1c_0_split
I0810 13:48:35.700646 32067 net.cpp:129] Top shape: 12 32 1 8192 (3145728)
I0810 13:48:35.700657 32067 net.cpp:129] Top shape: 12 32 1 8192 (3145728)
I0810 13:48:35.700665 32067 net.cpp:137] Memory required for data: 2312896512
I0810 13:48:35.700685 32067 layer_factory.hpp:77] Creating layer fconv1_
I0810 13:48:35.700706 32067 net.cpp:84] Creating Layer fconv1_
I0810 13:48:35.700721 32067 net.cpp:406] fconv1_ <- bn1c_relu1c_0_split_0
I0810 13:48:35.700739 32067 net.cpp:380] fconv1_ -> fconv1_
I0810 13:48:35.704403 32067 net.cpp:122] Setting up fconv1_
I0810 13:48:35.704432 32067 net.cpp:129] Top shape: 12 3 1 8192 (294912)
I0810 13:48:35.704442 32067 net.cpp:137] Memory required for data: 2314076160
I0810 13:48:35.704466 32067 layer_factory.hpp:77] Creating layer fbn1_
I0810 13:48:35.704481 32067 net.cpp:84] Creating Layer fbn1_
I0810 13:48:35.704493 32067 net.cpp:406] fbn1_ <- fconv1_
I0810 13:48:35.704505 32067 net.cpp:380] fbn1_ -> fbn1_
I0810 13:48:35.704964 32067 net.cpp:122] Setting up fbn1_
I0810 13:48:35.704991 32067 net.cpp:129] Top shape: 12 3 1 8192 (294912)
I0810 13:48:35.704999 32067 net.cpp:137] Memory required for data: 2315255808
I0810 13:48:35.705018 32067 layer_factory.hpp:77] Creating layer frelu1
I0810 13:48:35.705052 32067 net.cpp:84] Creating Layer frelu1
I0810 13:48:35.705063 32067 net.cpp:406] frelu1 <- fbn1_
I0810 13:48:35.705075 32067 net.cpp:367] frelu1 -> fbn1_ (in-place)
I0810 13:48:35.705693 32067 net.cpp:122] Setting up frelu1
I0810 13:48:35.705719 32067 net.cpp:129] Top shape: 12 3 1 8192 (294912)
I0810 13:48:35.705729 32067 net.cpp:137] Memory required for data: 2316435456
I0810 13:48:35.705737 32067 layer_factory.hpp:77] Creating layer feat1
I0810 13:48:35.705799 32067 net.cpp:84] Creating Layer feat1
I0810 13:48:35.705818 32067 net.cpp:406] feat1 <- data_data_0_split_1
I0810 13:48:35.705832 32067 net.cpp:406] feat1 <- fbn1_
I0810 13:48:35.705843 32067 net.cpp:380] feat1 -> feat1
I0810 13:48:35.705979 32067 net.cpp:122] Setting up feat1
I0810 13:48:35.706004 32067 net.cpp:129] Top shape: 12 3 1 8192 (294912)
I0810 13:48:35.706012 32067 net.cpp:137] Memory required for data: 2317615104
I0810 13:48:35.706020 32067 layer_factory.hpp:77] Creating layer data_lattice0
I0810 13:48:35.706125 32067 net.cpp:84] Creating Layer data_lattice0
I0810 13:48:35.706141 32067 net.cpp:406] data_lattice0 <- feat1
I0810 13:48:35.706156 32067 net.cpp:380] data_lattice0 -> data_lattice0
I0810 13:48:35.708698 32067 net.cpp:122] Setting up data_lattice0
I0810 13:48:35.708725 32067 net.cpp:129] Top shape: 12 3 1 8192 (294912)
I0810 13:48:35.708736 32067 net.cpp:137] Memory required for data: 2318794752
I0810 13:48:35.708745 32067 layer_factory.hpp:77] Creating layer data_lattice0_data_lattice0_0_split
I0810 13:48:35.708756 32067 net.cpp:84] Creating Layer data_lattice0_data_lattice0_0_split
I0810 13:48:35.708768 32067 net.cpp:406] data_lattice0_data_lattice0_0_split <- data_lattice0
I0810 13:48:35.708781 32067 net.cpp:380] data_lattice0_data_lattice0_0_split -> data_lattice0_data_lattice0_0_split_0
I0810 13:48:35.708798 32067 net.cpp:380] data_lattice0_data_lattice0_0_split -> data_lattice0_data_lattice0_0_split_1
I0810 13:48:35.708887 32067 net.cpp:122] Setting up data_lattice0_data_lattice0_0_split
I0810 13:48:35.708909 32067 net.cpp:129] Top shape: 12 3 1 8192 (294912)
I0810 13:48:35.708920 32067 net.cpp:129] Top shape: 12 3 1 8192 (294912)
I0810 13:48:35.708926 32067 net.cpp:137] Memory required for data: 2321154048
I0810 13:48:35.708947 32067 layer_factory.hpp:77] Creating layer conv2
I0810 13:48:35.709023 32067 net.cpp:84] Creating Layer conv2
I0810 13:48:35.709043 32067 net.cpp:406] conv2 <- bn1c_relu1c_0_split_1
I0810 13:48:35.709055 32067 net.cpp:406] conv2 <- data_lattice0_data_lattice0_0_split_0
I0810 13:48:35.709067 32067 net.cpp:406] conv2 <- data_lattice0_data_lattice0_0_split_1
I0810 13:48:35.709081 32067 net.cpp:380] conv2 -> conv2
I0810 13:48:35.726080 32067 net.cpp:122] Setting up conv2
I0810 13:48:35.726110 32067 net.cpp:129] Top shape: 12 64 1 8192 (6291456)
I0810 13:48:35.726119 32067 net.cpp:137] Memory required for data: 2346319872
I0810 13:48:35.726132 32067 layer_factory.hpp:77] Creating layer bn2
I0810 13:48:35.726145 32067 net.cpp:84] Creating Layer bn2
I0810 13:48:35.726153 32067 net.cpp:406] bn2 <- conv2
I0810 13:48:35.726164 32067 net.cpp:380] bn2 -> bn2
I0810 13:48:35.726624 32067 net.cpp:122] Setting up bn2
I0810 13:48:35.726645 32067 net.cpp:129] Top shape: 12 64 1 8192 (6291456)
I0810 13:48:35.726652 32067 net.cpp:137] Memory required for data: 2371485696
I0810 13:48:35.726668 32067 layer_factory.hpp:77] Creating layer relu2
I0810 13:48:35.726681 32067 net.cpp:84] Creating Layer relu2
I0810 13:48:35.726689 32067 net.cpp:406] relu2 <- bn2
I0810 13:48:35.726699 32067 net.cpp:367] relu2 -> bn2 (in-place)
I0810 13:48:35.727283 32067 net.cpp:122] Setting up relu2
I0810 13:48:35.727308 32067 net.cpp:129] Top shape: 12 64 1 8192 (6291456)
I0810 13:48:35.727314 32067 net.cpp:137] Memory required for data: 2396651520
I0810 13:48:35.727322 32067 layer_factory.hpp:77] Creating layer bn2_relu2_0_split
I0810 13:48:35.727334 32067 net.cpp:84] Creating Layer bn2_relu2_0_split
I0810 13:48:35.727341 32067 net.cpp:406] bn2_relu2_0_split <- bn2
I0810 13:48:35.727355 32067 net.cpp:380] bn2_relu2_0_split -> bn2_relu2_0_split_0
I0810 13:48:35.727375 32067 net.cpp:380] bn2_relu2_0_split -> bn2_relu2_0_split_1
I0810 13:48:35.727389 32067 net.cpp:380] bn2_relu2_0_split -> bn2_relu2_0_split_2
I0810 13:48:35.727496 32067 net.cpp:122] Setting up bn2_relu2_0_split
I0810 13:48:35.727525 32067 net.cpp:129] Top shape: 12 64 1 8192 (6291456)
I0810 13:48:35.727535 32067 net.cpp:129] Top shape: 12 64 1 8192 (6291456)
I0810 13:48:35.727543 32067 net.cpp:129] Top shape: 12 64 1 8192 (6291456)
I0810 13:48:35.727659 32067 net.cpp:137] Memory required for data: 2472148992
I0810 13:48:35.727718 32067 layer_factory.hpp:77] Creating layer fconv2
I0810 13:48:35.727756 32067 net.cpp:84] Creating Layer fconv2
I0810 13:48:35.727772 32067 net.cpp:406] fconv2 <- bn2_relu2_0_split_0
I0810 13:48:35.727792 32067 net.cpp:380] fconv2 -> fconv2
I0810 13:48:35.732170 32067 net.cpp:122] Setting up fconv2
I0810 13:48:35.732203 32067 net.cpp:129] Top shape: 12 3 1 8192 (294912)
I0810 13:48:35.732213 32067 net.cpp:137] Memory required for data: 2473328640
I0810 13:48:35.732229 32067 layer_factory.hpp:77] Creating layer fbn2
I0810 13:48:35.732244 32067 net.cpp:84] Creating Layer fbn2
I0810 13:48:35.732254 32067 net.cpp:406] fbn2 <- fconv2
I0810 13:48:35.732270 32067 net.cpp:380] fbn2 -> fbn2
I0810 13:48:35.732745 32067 net.cpp:122] Setting up fbn2
I0810 13:48:35.732765 32067 net.cpp:129] Top shape: 12 3 1 8192 (294912)
I0810 13:48:35.732774 32067 net.cpp:137] Memory required for data: 2474508288
I0810 13:48:35.732789 32067 layer_factory.hpp:77] Creating layer frelu2
I0810 13:48:35.732810 32067 net.cpp:84] Creating Layer frelu2
I0810 13:48:35.732820 32067 net.cpp:406] frelu2 <- fbn2
I0810 13:48:35.732831 32067 net.cpp:367] frelu2 -> fbn2 (in-place)
I0810 13:48:35.733450 32067 net.cpp:122] Setting up frelu2
I0810 13:48:35.733474 32067 net.cpp:129] Top shape: 12 3 1 8192 (294912)
I0810 13:48:35.733481 32067 net.cpp:137] Memory required for data: 2475687936
I0810 13:48:35.733490 32067 layer_factory.hpp:77] Creating layer feat2
I0810 13:48:35.733530 32067 net.cpp:84] Creating Layer feat2
I0810 13:48:35.733542 32067 net.cpp:406] feat2 <- data_data_0_split_2
I0810 13:48:35.733554 32067 net.cpp:406] feat2 <- fbn2
I0810 13:48:35.733566 32067 net.cpp:380] feat2 -> feat2
I0810 13:48:35.733630 32067 net.cpp:122] Setting up feat2
I0810 13:48:35.733647 32067 net.cpp:129] Top shape: 12 3 1 8192 (294912)
I0810 13:48:35.733654 32067 net.cpp:137] Memory required for data: 2476867584
I0810 13:48:35.733672 32067 layer_factory.hpp:77] Creating layer data_lattice1
I0810 13:48:35.733747 32067 net.cpp:84] Creating Layer data_lattice1
I0810 13:48:35.733763 32067 net.cpp:406] data_lattice1 <- feat2
I0810 13:48:35.733778 32067 net.cpp:380] data_lattice1 -> data_lattice1
I0810 13:48:35.736479 32067 net.cpp:122] Setting up data_lattice1
I0810 13:48:35.736526 32067 net.cpp:129] Top shape: 12 3 1 8192 (294912)
I0810 13:48:35.736537 32067 net.cpp:137] Memory required for data: 2478047232
I0810 13:48:35.736546 32067 layer_factory.hpp:77] Creating layer data_lattice1_data_lattice1_0_split
I0810 13:48:35.736562 32067 net.cpp:84] Creating Layer data_lattice1_data_lattice1_0_split
I0810 13:48:35.736572 32067 net.cpp:406] data_lattice1_data_lattice1_0_split <- data_lattice1
I0810 13:48:35.736588 32067 net.cpp:380] data_lattice1_data_lattice1_0_split -> data_lattice1_data_lattice1_0_split_0
I0810 13:48:35.736605 32067 net.cpp:380] data_lattice1_data_lattice1_0_split -> data_lattice1_data_lattice1_0_split_1
I0810 13:48:35.736694 32067 net.cpp:122] Setting up data_lattice1_data_lattice1_0_split
I0810 13:48:35.736711 32067 net.cpp:129] Top shape: 12 3 1 8192 (294912)
I0810 13:48:35.736719 32067 net.cpp:129] Top shape: 12 3 1 8192 (294912)
I0810 13:48:35.736728 32067 net.cpp:137] Memory required for data: 2480406528
I0810 13:48:35.736735 32067 layer_factory.hpp:77] Creating layer conv3
I0810 13:48:35.736750 32067 net.cpp:84] Creating Layer conv3
I0810 13:48:35.736760 32067 net.cpp:406] conv3 <- bn2_relu2_0_split_1
I0810 13:48:35.736773 32067 net.cpp:406] conv3 <- data_lattice1_data_lattice1_0_split_0
I0810 13:48:35.736781 32067 net.cpp:406] conv3 <- data_lattice1_data_lattice1_0_split_1
I0810 13:48:35.736795 32067 net.cpp:380] conv3 -> conv3
I0810 13:48:35.772619 32067 net.cpp:122] Setting up conv3
I0810 13:48:35.772657 32067 net.cpp:129] Top shape: 12 128 1 8192 (12582912)
I0810 13:48:35.772665 32067 net.cpp:137] Memory required for data: 2530738176
I0810 13:48:35.772677 32067 layer_factory.hpp:77] Creating layer bn3
I0810 13:48:35.772691 32067 net.cpp:84] Creating Layer bn3
I0810 13:48:35.772701 32067 net.cpp:406] bn3 <- conv3
I0810 13:48:35.772711 32067 net.cpp:380] bn3 -> bn3
I0810 13:48:35.773057 32067 net.cpp:122] Setting up bn3
I0810 13:48:35.773072 32067 net.cpp:129] Top shape: 12 128 1 8192 (12582912)
I0810 13:48:35.773077 32067 net.cpp:137] Memory required for data: 2581069824
I0810 13:48:35.773119 32067 layer_factory.hpp:77] Creating layer relu3
I0810 13:48:35.773139 32067 net.cpp:84] Creating Layer relu3
I0810 13:48:35.773146 32067 net.cpp:406] relu3 <- bn3
I0810 13:48:35.773156 32067 net.cpp:367] relu3 -> bn3 (in-place)
I0810 13:48:35.773738 32067 net.cpp:122] Setting up relu3
I0810 13:48:35.773759 32067 net.cpp:129] Top shape: 12 128 1 8192 (12582912)
I0810 13:48:35.773766 32067 net.cpp:137] Memory required for data: 2631401472
I0810 13:48:35.773772 32067 layer_factory.hpp:77] Creating layer bn3_relu3_0_split
I0810 13:48:35.773782 32067 net.cpp:84] Creating Layer bn3_relu3_0_split
I0810 13:48:35.773789 32067 net.cpp:406] bn3_relu3_0_split <- bn3
I0810 13:48:35.773800 32067 net.cpp:380] bn3_relu3_0_split -> bn3_relu3_0_split_0
I0810 13:48:35.773813 32067 net.cpp:380] bn3_relu3_0_split -> bn3_relu3_0_split_1
I0810 13:48:35.773824 32067 net.cpp:380] bn3_relu3_0_split -> bn3_relu3_0_split_2
I0810 13:48:35.773913 32067 net.cpp:122] Setting up bn3_relu3_0_split
I0810 13:48:35.773926 32067 net.cpp:129] Top shape: 12 128 1 8192 (12582912)
I0810 13:48:35.773933 32067 net.cpp:129] Top shape: 12 128 1 8192 (12582912)
I0810 13:48:35.773939 32067 net.cpp:129] Top shape: 12 128 1 8192 (12582912)
I0810 13:48:35.773944 32067 net.cpp:137] Memory required for data: 2782396416
I0810 13:48:35.773949 32067 layer_factory.hpp:77] Creating layer fconv3
I0810 13:48:35.773967 32067 net.cpp:84] Creating Layer fconv3
I0810 13:48:35.773973 32067 net.cpp:406] fconv3 <- bn3_relu3_0_split_0
I0810 13:48:35.773985 32067 net.cpp:380] fconv3 -> fconv3
I0810 13:48:35.777366 32067 net.cpp:122] Setting up fconv3
I0810 13:48:35.777393 32067 net.cpp:129] Top shape: 12 3 1 8192 (294912)
I0810 13:48:35.777400 32067 net.cpp:137] Memory required for data: 2783576064
I0810 13:48:35.777412 32067 layer_factory.hpp:77] Creating layer fbn3
I0810 13:48:35.777424 32067 net.cpp:84] Creating Layer fbn3
I0810 13:48:35.777432 32067 net.cpp:406] fbn3 <- fconv3
I0810 13:48:35.777444 32067 net.cpp:380] fbn3 -> fbn3
I0810 13:48:35.777814 32067 net.cpp:122] Setting up fbn3
I0810 13:48:35.777829 32067 net.cpp:129] Top shape: 12 3 1 8192 (294912)
I0810 13:48:35.777835 32067 net.cpp:137] Memory required for data: 2784755712
I0810 13:48:35.777861 32067 layer_factory.hpp:77] Creating layer frelu3
I0810 13:48:35.777878 32067 net.cpp:84] Creating Layer frelu3
I0810 13:48:35.777886 32067 net.cpp:406] frelu3 <- fbn3
I0810 13:48:35.777895 32067 net.cpp:367] frelu3 -> fbn3 (in-place)
I0810 13:48:35.778374 32067 net.cpp:122] Setting up frelu3
I0810 13:48:35.778393 32067 net.cpp:129] Top shape: 12 3 1 8192 (294912)
I0810 13:48:35.778399 32067 net.cpp:137] Memory required for data: 2785935360
I0810 13:48:35.778405 32067 layer_factory.hpp:77] Creating layer feat3
I0810 13:48:35.778417 32067 net.cpp:84] Creating Layer feat3
I0810 13:48:35.778425 32067 net.cpp:406] feat3 <- data_data_0_split_3
I0810 13:48:35.778434 32067 net.cpp:406] feat3 <- fbn3
I0810 13:48:35.778443 32067 net.cpp:380] feat3 -> feat3
I0810 13:48:35.778491 32067 net.cpp:122] Setting up feat3
I0810 13:48:35.778503 32067 net.cpp:129] Top shape: 12 3 1 8192 (294912)
I0810 13:48:35.778522 32067 net.cpp:137] Memory required for data: 2787115008
I0810 13:48:35.778527 32067 layer_factory.hpp:77] Creating layer data_lattice2
I0810 13:48:35.778626 32067 net.cpp:84] Creating Layer data_lattice2
I0810 13:48:35.778640 32067 net.cpp:406] data_lattice2 <- feat3
I0810 13:48:35.778651 32067 net.cpp:380] data_lattice2 -> data_lattice2
I0810 13:48:35.780726 32067 net.cpp:122] Setting up data_lattice2
I0810 13:48:35.780750 32067 net.cpp:129] Top shape: 12 3 1 8192 (294912)
I0810 13:48:35.780757 32067 net.cpp:137] Memory required for data: 2788294656
I0810 13:48:35.780763 32067 layer_factory.hpp:77] Creating layer data_lattice2_data_lattice2_0_split
I0810 13:48:35.780774 32067 net.cpp:84] Creating Layer data_lattice2_data_lattice2_0_split
I0810 13:48:35.780781 32067 net.cpp:406] data_lattice2_data_lattice2_0_split <- data_lattice2
I0810 13:48:35.780792 32067 net.cpp:380] data_lattice2_data_lattice2_0_split -> data_lattice2_data_lattice2_0_split_0
I0810 13:48:35.780807 32067 net.cpp:380] data_lattice2_data_lattice2_0_split -> data_lattice2_data_lattice2_0_split_1
I0810 13:48:35.780867 32067 net.cpp:122] Setting up data_lattice2_data_lattice2_0_split
I0810 13:48:35.780879 32067 net.cpp:129] Top shape: 12 3 1 8192 (294912)
I0810 13:48:35.780886 32067 net.cpp:129] Top shape: 12 3 1 8192 (294912)
I0810 13:48:35.780891 32067 net.cpp:137] Memory required for data: 2790653952
I0810 13:48:35.780908 32067 layer_factory.hpp:77] Creating layer conv4
I0810 13:48:35.780923 32067 net.cpp:84] Creating Layer conv4
I0810 13:48:35.780930 32067 net.cpp:406] conv4 <- bn3_relu3_0_split_1
I0810 13:48:35.780939 32067 net.cpp:406] conv4 <- data_lattice2_data_lattice2_0_split_0
I0810 13:48:35.780946 32067 net.cpp:406] conv4 <- data_lattice2_data_lattice2_0_split_1
I0810 13:48:35.780956 32067 net.cpp:380] conv4 -> conv4
I0810 13:48:35.874830 32067 net.cpp:122] Setting up conv4
I0810 13:48:35.874883 32067 net.cpp:129] Top shape: 12 256 1 8192 (25165824)
I0810 13:48:35.874888 32067 net.cpp:137] Memory required for data: 2891317248
I0810 13:48:35.874902 32067 layer_factory.hpp:77] Creating layer bn4
I0810 13:48:35.874917 32067 net.cpp:84] Creating Layer bn4
I0810 13:48:35.874927 32067 net.cpp:406] bn4 <- conv4
I0810 13:48:35.874938 32067 net.cpp:380] bn4 -> bn4
I0810 13:48:35.875197 32067 net.cpp:122] Setting up bn4
I0810 13:48:35.875208 32067 net.cpp:129] Top shape: 12 256 1 8192 (25165824)
I0810 13:48:35.875212 32067 net.cpp:137] Memory required for data: 2991980544
I0810 13:48:35.875221 32067 layer_factory.hpp:77] Creating layer relu4
I0810 13:48:35.875231 32067 net.cpp:84] Creating Layer relu4
I0810 13:48:35.875236 32067 net.cpp:406] relu4 <- bn4
I0810 13:48:35.875242 32067 net.cpp:367] relu4 -> bn4 (in-place)
I0810 13:48:35.876238 32067 net.cpp:122] Setting up relu4
I0810 13:48:35.876256 32067 net.cpp:129] Top shape: 12 256 1 8192 (25165824)
I0810 13:48:35.876260 32067 net.cpp:137] Memory required for data: 3092643840
I0810 13:48:35.876266 32067 layer_factory.hpp:77] Creating layer bn4_relu4_0_split
I0810 13:48:35.876274 32067 net.cpp:84] Creating Layer bn4_relu4_0_split
I0810 13:48:35.876281 32067 net.cpp:406] bn4_relu4_0_split <- bn4
I0810 13:48:35.876288 32067 net.cpp:380] bn4_relu4_0_split -> bn4_relu4_0_split_0
I0810 13:48:35.876297 32067 net.cpp:380] bn4_relu4_0_split -> bn4_relu4_0_split_1
I0810 13:48:35.876305 32067 net.cpp:380] bn4_relu4_0_split -> bn4_relu4_0_split_2
I0810 13:48:35.876370 32067 net.cpp:122] Setting up bn4_relu4_0_split
I0810 13:48:35.876379 32067 net.cpp:129] Top shape: 12 256 1 8192 (25165824)
I0810 13:48:35.876384 32067 net.cpp:129] Top shape: 12 256 1 8192 (25165824)
I0810 13:48:35.876389 32067 net.cpp:129] Top shape: 12 256 1 8192 (25165824)
I0810 13:48:35.876392 32067 net.cpp:137] Memory required for data: 3394633728
I0810 13:48:35.876410 32067 layer_factory.hpp:77] Creating layer fconv4
I0810 13:48:35.876436 32067 net.cpp:84] Creating Layer fconv4
I0810 13:48:35.876441 32067 net.cpp:406] fconv4 <- bn4_relu4_0_split_0
I0810 13:48:35.876451 32067 net.cpp:380] fconv4 -> fconv4
I0810 13:48:35.878304 32067 net.cpp:122] Setting up fconv4
I0810 13:48:35.878324 32067 net.cpp:129] Top shape: 12 3 1 8192 (294912)
I0810 13:48:35.878329 32067 net.cpp:137] Memory required for data: 3395813376
I0810 13:48:35.878336 32067 layer_factory.hpp:77] Creating layer fbn4
I0810 13:48:35.878345 32067 net.cpp:84] Creating Layer fbn4
I0810 13:48:35.878350 32067 net.cpp:406] fbn4 <- fconv4
I0810 13:48:35.878360 32067 net.cpp:380] fbn4 -> fbn4
I0810 13:48:35.878626 32067 net.cpp:122] Setting up fbn4
I0810 13:48:35.878638 32067 net.cpp:129] Top shape: 12 3 1 8192 (294912)
I0810 13:48:35.878641 32067 net.cpp:137] Memory required for data: 3396993024
I0810 13:48:35.878650 32067 layer_factory.hpp:77] Creating layer frelu4
I0810 13:48:35.878657 32067 net.cpp:84] Creating Layer frelu4
I0810 13:48:35.878662 32067 net.cpp:406] frelu4 <- fbn4
I0810 13:48:35.878669 32067 net.cpp:367] frelu4 -> fbn4 (in-place)
I0810 13:48:35.879004 32067 net.cpp:122] Setting up frelu4
I0810 13:48:35.879017 32067 net.cpp:129] Top shape: 12 3 1 8192 (294912)
I0810 13:48:35.879021 32067 net.cpp:137] Memory required for data: 3398172672
I0810 13:48:35.879026 32067 layer_factory.hpp:77] Creating layer feat4
I0810 13:48:35.879051 32067 net.cpp:84] Creating Layer feat4
I0810 13:48:35.879057 32067 net.cpp:406] feat4 <- data_data_0_split_4
I0810 13:48:35.879063 32067 net.cpp:406] feat4 <- fbn4
I0810 13:48:35.879071 32067 net.cpp:380] feat4 -> feat4
I0810 13:48:35.879106 32067 net.cpp:122] Setting up feat4
I0810 13:48:35.879120 32067 net.cpp:129] Top shape: 12 3 1 8192 (294912)
I0810 13:48:35.879124 32067 net.cpp:137] Memory required for data: 3399352320
I0810 13:48:35.879129 32067 layer_factory.hpp:77] Creating layer data_lattice3
I0810 13:48:35.879204 32067 net.cpp:84] Creating Layer data_lattice3
I0810 13:48:35.879214 32067 net.cpp:406] data_lattice3 <- feat4
I0810 13:48:35.879222 32067 net.cpp:380] data_lattice3 -> data_lattice3
I0810 13:48:35.880904 32067 net.cpp:122] Setting up data_lattice3
I0810 13:48:35.880923 32067 net.cpp:129] Top shape: 12 3 1 8192 (294912)
I0810 13:48:35.880928 32067 net.cpp:137] Memory required for data: 3400531968
I0810 13:48:35.880933 32067 layer_factory.hpp:77] Creating layer data_lattice3_data_lattice3_0_split
I0810 13:48:35.880940 32067 net.cpp:84] Creating Layer data_lattice3_data_lattice3_0_split
I0810 13:48:35.880945 32067 net.cpp:406] data_lattice3_data_lattice3_0_split <- data_lattice3
I0810 13:48:35.880964 32067 net.cpp:380] data_lattice3_data_lattice3_0_split -> data_lattice3_data_lattice3_0_split_0
I0810 13:48:35.880987 32067 net.cpp:380] data_lattice3_data_lattice3_0_split -> data_lattice3_data_lattice3_0_split_1
I0810 13:48:35.881036 32067 net.cpp:122] Setting up data_lattice3_data_lattice3_0_split
I0810 13:48:35.881047 32067 net.cpp:129] Top shape: 12 3 1 8192 (294912)
I0810 13:48:35.881053 32067 net.cpp:129] Top shape: 12 3 1 8192 (294912)
I0810 13:48:35.881057 32067 net.cpp:137] Memory required for data: 3402891264
I0810 13:48:35.881060 32067 layer_factory.hpp:77] Creating layer conv5
I0810 13:48:35.881072 32067 net.cpp:84] Creating Layer conv5
I0810 13:48:35.881078 32067 net.cpp:406] conv5 <- bn4_relu4_0_split_1
I0810 13:48:35.881083 32067 net.cpp:406] conv5 <- data_lattice3_data_lattice3_0_split_0
I0810 13:48:35.881089 32067 net.cpp:406] conv5 <- data_lattice3_data_lattice3_0_split_1
I0810 13:48:35.881096 32067 net.cpp:380] conv5 -> conv5
I0810 13:48:36.047483 32067 net.cpp:122] Setting up conv5
I0810 13:48:36.047541 32067 net.cpp:129] Top shape: 12 256 1 8192 (25165824)
I0810 13:48:36.047547 32067 net.cpp:137] Memory required for data: 3503554560
I0810 13:48:36.047583 32067 layer_factory.hpp:77] Creating layer bn5
I0810 13:48:36.047600 32067 net.cpp:84] Creating Layer bn5
I0810 13:48:36.047608 32067 net.cpp:406] bn5 <- conv5
I0810 13:48:36.047621 32067 net.cpp:380] bn5 -> bn5
I0810 13:48:36.047884 32067 net.cpp:122] Setting up bn5
I0810 13:48:36.047895 32067 net.cpp:129] Top shape: 12 256 1 8192 (25165824)
I0810 13:48:36.047899 32067 net.cpp:137] Memory required for data: 3604217856
I0810 13:48:36.047907 32067 layer_factory.hpp:77] Creating layer relu5
I0810 13:48:36.047924 32067 net.cpp:84] Creating Layer relu5
I0810 13:48:36.047930 32067 net.cpp:406] relu5 <- bn5
I0810 13:48:36.047936 32067 net.cpp:367] relu5 -> bn5 (in-place)
I0810 13:48:36.048946 32067 net.cpp:122] Setting up relu5
I0810 13:48:36.048964 32067 net.cpp:129] Top shape: 12 256 1 8192 (25165824)
I0810 13:48:36.048969 32067 net.cpp:137] Memory required for data: 3704881152
I0810 13:48:36.048974 32067 layer_factory.hpp:77] Creating layer bn5_relu5_0_split
I0810 13:48:36.048982 32067 net.cpp:84] Creating Layer bn5_relu5_0_split
I0810 13:48:36.048987 32067 net.cpp:406] bn5_relu5_0_split <- bn5
I0810 13:48:36.048996 32067 net.cpp:380] bn5_relu5_0_split -> bn5_relu5_0_split_0
I0810 13:48:36.049005 32067 net.cpp:380] bn5_relu5_0_split -> bn5_relu5_0_split_1
I0810 13:48:36.049015 32067 net.cpp:380] bn5_relu5_0_split -> bn5_relu5_0_split_2
I0810 13:48:36.049082 32067 net.cpp:122] Setting up bn5_relu5_0_split
I0810 13:48:36.049093 32067 net.cpp:129] Top shape: 12 256 1 8192 (25165824)
I0810 13:48:36.049096 32067 net.cpp:129] Top shape: 12 256 1 8192 (25165824)
I0810 13:48:36.049103 32067 net.cpp:129] Top shape: 12 256 1 8192 (25165824)
I0810 13:48:36.049106 32067 net.cpp:137] Memory required for data: 4006871040
I0810 13:48:36.049110 32067 layer_factory.hpp:77] Creating layer fconv5
I0810 13:48:36.049127 32067 net.cpp:84] Creating Layer fconv5
I0810 13:48:36.049134 32067 net.cpp:406] fconv5 <- bn5_relu5_0_split_0
I0810 13:48:36.049144 32067 net.cpp:380] fconv5 -> fconv5
I0810 13:48:36.050930 32067 net.cpp:122] Setting up fconv5
I0810 13:48:36.050947 32067 net.cpp:129] Top shape: 12 3 1 8192 (294912)
I0810 13:48:36.050952 32067 net.cpp:137] Memory required for data: 4008050688
I0810 13:48:36.050961 32067 layer_factory.hpp:77] Creating layer fbn5
I0810 13:48:36.050968 32067 net.cpp:84] Creating Layer fbn5
I0810 13:48:36.050973 32067 net.cpp:406] fbn5 <- fconv5
I0810 13:48:36.050981 32067 net.cpp:380] fbn5 -> fbn5
I0810 13:48:36.051229 32067 net.cpp:122] Setting up fbn5
I0810 13:48:36.051240 32067 net.cpp:129] Top shape: 12 3 1 8192 (294912)
I0810 13:48:36.051245 32067 net.cpp:137] Memory required for data: 4009230336
I0810 13:48:36.051264 32067 layer_factory.hpp:77] Creating layer frelu5
I0810 13:48:36.051276 32067 net.cpp:84] Creating Layer frelu5
I0810 13:48:36.051282 32067 net.cpp:406] frelu5 <- fbn5
I0810 13:48:36.051288 32067 net.cpp:367] frelu5 -> fbn5 (in-place)
I0810 13:48:36.051625 32067 net.cpp:122] Setting up frelu5
I0810 13:48:36.051638 32067 net.cpp:129] Top shape: 12 3 1 8192 (294912)
I0810 13:48:36.051642 32067 net.cpp:137] Memory required for data: 4010409984
I0810 13:48:36.051646 32067 layer_factory.hpp:77] Creating layer feat5
I0810 13:48:36.051657 32067 net.cpp:84] Creating Layer feat5
I0810 13:48:36.051662 32067 net.cpp:406] feat5 <- data_data_0_split_5
I0810 13:48:36.051668 32067 net.cpp:406] feat5 <- fbn5
I0810 13:48:36.051676 32067 net.cpp:380] feat5 -> feat5
I0810 13:48:36.051713 32067 net.cpp:122] Setting up feat5
I0810 13:48:36.051722 32067 net.cpp:129] Top shape: 12 3 1 8192 (294912)
I0810 13:48:36.051724 32067 net.cpp:137] Memory required for data: 4011589632
I0810 13:48:36.051728 32067 layer_factory.hpp:77] Creating layer data_lattice4
I0810 13:48:36.051823 32067 net.cpp:84] Creating Layer data_lattice4
I0810 13:48:36.051834 32067 net.cpp:406] data_lattice4 <- feat5
I0810 13:48:36.051843 32067 net.cpp:380] data_lattice4 -> data_lattice4
I0810 13:48:36.053524 32067 net.cpp:122] Setting up data_lattice4
I0810 13:48:36.053542 32067 net.cpp:129] Top shape: 12 3 1 8192 (294912)
I0810 13:48:36.053546 32067 net.cpp:137] Memory required for data: 4012769280
I0810 13:48:36.053551 32067 layer_factory.hpp:77] Creating layer data_lattice4_data_lattice4_0_split
I0810 13:48:36.053560 32067 net.cpp:84] Creating Layer data_lattice4_data_lattice4_0_split
I0810 13:48:36.053566 32067 net.cpp:406] data_lattice4_data_lattice4_0_split <- data_lattice4
I0810 13:48:36.053575 32067 net.cpp:380] data_lattice4_data_lattice4_0_split -> data_lattice4_data_lattice4_0_split_0
I0810 13:48:36.053583 32067 net.cpp:380] data_lattice4_data_lattice4_0_split -> data_lattice4_data_lattice4_0_split_1
I0810 13:48:36.053632 32067 net.cpp:122] Setting up data_lattice4_data_lattice4_0_split
I0810 13:48:36.053648 32067 net.cpp:129] Top shape: 12 3 1 8192 (294912)
I0810 13:48:36.053653 32067 net.cpp:129] Top shape: 12 3 1 8192 (294912)
I0810 13:48:36.053656 32067 net.cpp:137] Memory required for data: 4015128576
I0810 13:48:36.053660 32067 layer_factory.hpp:77] Creating layer conv6
I0810 13:48:36.053669 32067 net.cpp:84] Creating Layer conv6
I0810 13:48:36.053675 32067 net.cpp:406] conv6 <- bn5_relu5_0_split_1
I0810 13:48:36.053680 32067 net.cpp:406] conv6 <- data_lattice4_data_lattice4_0_split_0
I0810 13:48:36.053686 32067 net.cpp:406] conv6 <- data_lattice4_data_lattice4_0_split_1
I0810 13:48:36.053695 32067 net.cpp:380] conv6 -> conv6
I0810 13:48:36.195554 32069 solver.cpp:190] Creating test net (#0) specified by test_net file: area6_netm_sum_dg.prototxt
I0810 13:48:36.220068 32067 net.cpp:122] Setting up conv6
I0810 13:48:36.220103 32067 net.cpp:129] Top shape: 12 256 1 8192 (25165824)
I0810 13:48:36.220108 32067 net.cpp:137] Memory required for data: 4115791872
I0810 13:48:36.220118 32067 layer_factory.hpp:77] Creating layer bn6
I0810 13:48:36.220127 32067 net.cpp:84] Creating Layer bn6
I0810 13:48:36.220135 32067 net.cpp:406] bn6 <- conv6
I0810 13:48:36.220144 32067 net.cpp:380] bn6 -> bn6
I0810 13:48:36.220393 32067 net.cpp:122] Setting up bn6
I0810 13:48:36.220405 32067 net.cpp:129] Top shape: 12 256 1 8192 (25165824)
I0810 13:48:36.220409 32067 net.cpp:137] Memory required for data: 4216455168
I0810 13:48:36.220439 32067 layer_factory.hpp:77] Creating layer relu6
I0810 13:48:36.220448 32067 net.cpp:84] Creating Layer relu6
I0810 13:48:36.220453 32067 net.cpp:406] relu6 <- bn6
I0810 13:48:36.220459 32067 net.cpp:367] relu6 -> bn6 (in-place)
I0810 13:48:36.221195 32071 solver.cpp:190] Creating test net (#0) specified by test_net file: area6_netm_sum_dg.prototxt
I0810 13:48:36.221369 32067 net.cpp:122] Setting up relu6
I0810 13:48:36.221386 32067 net.cpp:129] Top shape: 12 256 1 8192 (25165824)
I0810 13:48:36.221391 32067 net.cpp:137] Memory required for data: 4317118464
I0810 13:48:36.221396 32067 layer_factory.hpp:77] Creating layer concat6
I0810 13:48:36.221421 32067 net.cpp:84] Creating Layer concat6
I0810 13:48:36.221428 32067 net.cpp:406] concat6 <- bn6
I0810 13:48:36.221436 32067 net.cpp:406] concat6 <- bn2_relu2_0_split_2
I0810 13:48:36.221441 32067 net.cpp:406] concat6 <- bn3_relu3_0_split_2
I0810 13:48:36.221446 32067 net.cpp:406] concat6 <- bn4_relu4_0_split_2
I0810 13:48:36.221451 32067 net.cpp:406] concat6 <- bn5_relu5_0_split_2
I0810 13:48:36.221457 32067 net.cpp:406] concat6 <- pool1_pool1_0_split_1
I0810 13:48:36.221462 32067 net.cpp:380] concat6 -> concat6
I0810 13:48:36.221499 32067 net.cpp:122] Setting up concat6
I0810 13:48:36.221515 32067 net.cpp:129] Top shape: 12 1024 1 8192 (100663296)
I0810 13:48:36.221520 32067 net.cpp:137] Memory required for data: 4719771648
I0810 13:48:36.221524 32067 layer_factory.hpp:77] Creating layer conv7_
I0810 13:48:36.221539 32067 net.cpp:84] Creating Layer conv7_
I0810 13:48:36.221544 32067 net.cpp:406] conv7_ <- concat6
I0810 13:48:36.221551 32067 net.cpp:380] conv7_ -> conv7_
I0810 13:48:36.221841 32073 solver.cpp:190] Creating test net (#0) specified by test_net file: area6_netm_sum_dg.prototxt
I0810 13:48:36.224400 32067 net.cpp:122] Setting up conv7_
I0810 13:48:36.224418 32067 net.cpp:129] Top shape: 12 128 1 8192 (12582912)
I0810 13:48:36.224423 32067 net.cpp:137] Memory required for data: 4770103296
I0810 13:48:36.224431 32067 layer_factory.hpp:77] Creating layer bn7_
I0810 13:48:36.224440 32067 net.cpp:84] Creating Layer bn7_
I0810 13:48:36.224445 32067 net.cpp:406] bn7_ <- conv7_
I0810 13:48:36.224452 32067 net.cpp:380] bn7_ -> bn7_
I0810 13:48:36.224701 32067 net.cpp:122] Setting up bn7_
I0810 13:48:36.224712 32067 net.cpp:129] Top shape: 12 128 1 8192 (12582912)
I0810 13:48:36.224715 32067 net.cpp:137] Memory required for data: 4820434944
I0810 13:48:36.224725 32067 layer_factory.hpp:77] Creating layer relu7
I0810 13:48:36.224740 32067 net.cpp:84] Creating Layer relu7
I0810 13:48:36.224745 32067 net.cpp:406] relu7 <- bn7_
I0810 13:48:36.224751 32067 net.cpp:367] relu7 -> bn7_ (in-place)
I0810 13:48:36.225076 32067 net.cpp:122] Setting up relu7
I0810 13:48:36.225090 32067 net.cpp:129] Top shape: 12 128 1 8192 (12582912)
I0810 13:48:36.225093 32067 net.cpp:137] Memory required for data: 4870766592
I0810 13:48:36.225097 32067 layer_factory.hpp:77] Creating layer conv8
I0810 13:48:36.225109 32067 net.cpp:84] Creating Layer conv8
I0810 13:48:36.225114 32067 net.cpp:406] conv8 <- bn7_
I0810 13:48:36.225122 32067 net.cpp:380] conv8 -> conv8
I0810 13:48:36.227206 32067 net.cpp:122] Setting up conv8
I0810 13:48:36.227224 32067 net.cpp:129] Top shape: 12 13 1 8192 (1277952)
I0810 13:48:36.227229 32067 net.cpp:137] Memory required for data: 4875878400
I0810 13:48:36.227236 32067 layer_factory.hpp:77] Creating layer conv8_conv8_0_split
I0810 13:48:36.227246 32067 net.cpp:84] Creating Layer conv8_conv8_0_split
I0810 13:48:36.227250 32067 net.cpp:406] conv8_conv8_0_split <- conv8
I0810 13:48:36.227260 32067 net.cpp:380] conv8_conv8_0_split -> conv8_conv8_0_split_0
I0810 13:48:36.227270 32067 net.cpp:380] conv8_conv8_0_split -> conv8_conv8_0_split_1
I0810 13:48:36.227318 32067 net.cpp:122] Setting up conv8_conv8_0_split
I0810 13:48:36.227326 32067 net.cpp:129] Top shape: 12 13 1 8192 (1277952)
I0810 13:48:36.227332 32067 net.cpp:129] Top shape: 12 13 1 8192 (1277952)
I0810 13:48:36.227336 32067 net.cpp:137] Memory required for data: 4886102016
I0810 13:48:36.227339 32067 layer_factory.hpp:77] Creating layer loss
I0810 13:48:36.227380 32067 net.cpp:84] Creating Layer loss
I0810 13:48:36.227389 32067 net.cpp:406] loss <- conv8_conv8_0_split_0
I0810 13:48:36.227396 32067 net.cpp:406] loss <- label_data_1_split_0
I0810 13:48:36.227403 32067 net.cpp:380] loss -> loss
…
