…
I0728 17:29:46.109028  8706 net.cpp:294] The NetState phase (0) differed from the phase (1) specified by a rule in layer data
I0728 17:29:46.109411  8706 net.cpp:51] Initializing net from parameters: 
state {
  phase: TRAIN
}
layer {
  name: "data"
  type: "Python"
  top: "data"
  top: "label"
  include {
    phase: TRAIN
  }
  python_param {
    module: "dataset_lidar"
    layer: "InputShapenet"
    param_str: "{\'sample_size\': 70000, \'test_area\': \'6\', \'batch_size\': 1, \'feat_dims\': \'x_y_z\', \'subset\': \'train\', \'root\': \'../../data/shapenet_ericyi_ply\', \'jitter_xyz\': 0.01, \'jitter_stretch\': 0.05, \'jitter_rotation\': 5.0}"
  }
}
layer {
  name: "data_feat"
  type: "Python"
  bottom: "data"
  top: "data_feat"
  python_param {
    module: "custom_layers"
    layer: "PickAndScale"
    param_str: "0_1_2"
  }
}
layer {
  name: "conv1"
  type: "Convolution"
  bottom: "data_feat"
  top: "conv1"
  param {
    lr_mult: 1
  }
  param {
    lr_mult: 0.1
  }
  convolution_param {
    num_output: 32
    pad: 0
    kernel_size: 1
    stride: 1
    weight_filler {
      type: "xavier"
    }
    bias_filler {
      type: "constant"
      value: 0
    }
  }
}
layer {
  name: "bn1"
  type: "BatchNorm"
  bottom: "conv1"
  top: "bn1"
}
layer {
  name: "relu1"
  type: "ReLU"
  bottom: "bn1"
  top: "bn1"
}
layer {
  name: "fconv1"
  type: "Convolution"
  bottom: "bn1"
  top: "fconv1"
  param {
    lr_mult: 0.5
  }
  param {
    lr_mult: 0.05
  }
  convolution_param {
    num_output: 3
    pad: 0
    kernel_size: 1
    stride: 1
    weight_filler {
      type: "xavier"
    }
    bias_filler {
      type: "constant"
      value: 0
    }
  }
}
layer {
  name: "fbn1"
  type: "BatchNorm"
  bottom: "fconv1"
  top: "fbn1"
}
layer {
  name: "frelu1"
  type: "ReLU"
  bottom: "fbn1"
  top: "fbn1"
}
layer {
  name: "data_lattice0"
  type: "Python"
  bottom: "data"
  top: "data_lattice0"
  python_param {
    module: "custom_layers"
    layer: "PickAndScale"
    param_str: "0*48_1*48_2*48"
  }
}
layer {
  name: "feat1"
  type: "Eltwise"
  bottom: "data_lattice0"
  bottom: "fbn1"
  top: "feat1"
  eltwise_param {
    operation: SUM
  }
}
layer {
  name: "conv2"
  type: "Permutohedral"
  bottom: "bn1"
  bottom: "feat1"
  bottom: "feat1"
  top: "conv2"
  param {
    lr_mult: 1
    decay_mult: 1
  }
  param {
    lr_mult: 2
    decay_mult: 0
  }
  permutohedral_param {
    num_output: 64
    neighborhood_size: 4
    filter_filler {
      type: "gaussian"
      std: 0.001
    }
    bias_term: true
    bias_filler {
      type: "constant"
      value: 0
    }
    group: 1
    norm_type: AFTER
    offset_type: NONE
  }
}
layer {
  name: "bn2"
  type: "BatchNorm"
  bottom: "conv2"
  top: "bn2"
}
layer {
  name: "relu2"
  type: "ReLU"
  bottom: "bn2"
  top: "bn2"
}
layer {
  name: "fconv2"
  type: "Convolution"
  bottom: "bn2"
  top: "fconv2"
  param {
    lr_mult: 0.5
  }
  param {
    lr_mult: 0.05
  }
  convolution_param {
    num_output: 3
    pad: 0
    kernel_size: 1
    stride: 1
    weight_filler {
      type: "xavier"
    }
    bias_filler {
      type: "constant"
      value: 0
    }
  }
}
layer {
  name: "fbn2"
  type: "BatchNorm"
  bottom: "fconv2"
  top: "fbn2"
}
layer {
  name: "frelu2"
  type: "ReLU"
  bottom: "fbn2"
  top: "fbn2"
}
layer {
  name: "data_lattice1"
  type: "Python"
  bottom: "data"
  top: "data_lattice1"
  python_param {
    module: "custom_layers"
    layer: "PickAndScale"
    param_str: "0*24_1*24_2*24"
  }
}
layer {
  name: "feat2"
  type: "Eltwise"
  bottom: "data_lattice1"
  bottom: "fbn2"
  top: "feat2"
  eltwise_param {
    operation: SUM
  }
}
layer {
  name: "conv3"
  type: "Permutohedral"
  bottom: "bn2"
  bottom: "feat2"
  bottom: "feat2"
  top: "conv3"
  param {
    lr_mult: 1
    decay_mult: 1
  }
  param {
    lr_mult: 2
    decay_mult: 0
  }
  permutohedral_param {
    num_output: 128
    neighborhood_size: 4
    filter_filler {
      type: "gaussian"
      std: 0.001
    }
    bias_term: true
    bias_filler {
      type: "constant"
      value: 0
    }
    group: 1
    norm_type: AFTER
    offset_type: NONE
  }
}
layer {
  name: "bn3"
  type: "BatchNorm"
  bottom: "conv3"
  top: "bn3"
}
layer {
  name: "relu3"
  type: "ReLU"
  bottom: "bn3"
  top: "bn3"
}
layer {
  name: "fconv3"
  type: "Convolution"
  bottom: "bn3"
  top: "fconv3"
  param {
    lr_mult: 0.5
  }
  param {
    lr_mult: 0.05
  }
  convolution_param {
    num_output: 3
    pad: 0
    kernel_size: 1
    stride: 1
    weight_filler {
      type: "xavier"
    }
    bias_filler {
      type: "constant"
      value: 0
    }
  }
}
layer {
  name: "fbn3"
  type: "BatchNorm"
  bottom: "fconv3"
  top: "fbn3"
}
layer {
  name: "frelu3"
  type: "ReLU"
  bottom: "fbn3"
  top: "fbn3"
}
layer {
  name: "data_lattice2"
  type: "Python"
  bottom: "data"
  top: "data_lattice2"
  python_param {
    module: "custom_layers"
    layer: "PickAndScale"
    param_str: "0*12_1*12_2*12"
  }
}
layer {
  name: "feat3"
  type: "Eltwise"
  bottom: "data_lattice2"
  bottom: "fbn3"
  top: "feat3"
  eltwise_param {
    operation: SUM
  }
}
layer {
  name: "conv4"
  type: "Permutohedral"
  bottom: "bn3"
  bottom: "feat3"
  bottom: "feat3"
  top: "conv4"
  param {
    lr_mult: 1
    decay_mult: 1
  }
  param {
    lr_mult: 2
    decay_mult: 0
  }
  permutohedral_param {
    num_output: 256
    neighborhood_size: 2
    filter_filler {
      type: "gaussian"
      std: 0.001
    }
    bias_term: true
    bias_filler {
      type: "constant"
      value: 0
    }
    group: 1
    norm_type: AFTER
    offset_type: NONE
  }
}
layer {
  name: "bn4"
  type: "BatchNorm"
  bottom: "conv4"
  top: "bn4"
}
layer {
  name: "relu4"
  type: "ReLU"
  bottom: "bn4"
  top: "bn4"
}
layer {
  name: "fconv4"
  type: "Convolution"
  bottom: "bn4"
  top: "fconv4"
  param {
    lr_mult: 0.5
  }
  param {
    lr_mult: 0.05
  }
  convolution_param {
    num_output: 3
    pad: 0
    kernel_size: 1
    stride: 1
    weight_filler {
      type: "xavier"
    }
    bias_filler {
      type: "constant"
      value: 0
    }
  }
}
layer {
  name: "fbn4"
  type: "BatchNorm"
  bottom: "fconv4"
  top: "fbn4"
}
layer {
  name: "frelu4"
  type: "ReLU"
  bottom: "fbn4"
  top: "fbn4"
}
layer {
  name: "data_lattice3"
  type: "Python"
  bottom: "data"
  top: "data_lattice3"
  python_param {
    module: "custom_layers"
    layer: "PickAndScale"
    param_str: "0*6_1*6_2*6"
  }
}
layer {
  name: "feat4"
  type: "Eltwise"
  bottom: "data_lattice3"
  bottom: "fbn4"
  top: "feat4"
  eltwise_param {
    operation: SUM
  }
}
layer {
  name: "conv5"
  type: "Permutohedral"
  bottom: "bn4"
  bottom: "feat4"
  bottom: "feat4"
  top: "conv5"
  param {
    lr_mult: 1
    decay_mult: 1
  }
  param {
    lr_mult: 2
    decay_mult: 0
  }
  permutohedral_param {
    num_output: 256
    neighborhood_size: 2
    filter_filler {
      type: "gaussian"
      std: 0.001
    }
    bias_term: true
    bias_filler {
      type: "constant"
      value: 0
    }
    group: 1
    norm_type: AFTER
    offset_type: NONE
  }
}
layer {
  name: "bn5"
  type: "BatchNorm"
  bottom: "conv5"
  top: "bn5"
}
layer {
  name: "relu5"
  type: "ReLU"
  bottom: "bn5"
  top: "bn5"
}
layer {
  name: "fconv5"
  type: "Convolution"
  bottom: "bn5"
  top: "fconv5"
  param {
    lr_mult: 0.5
  }
  param {
    lr_mult: 0.05
  }
  convolution_param {
    num_output: 3
    pad: 0
    kernel_size: 1
    stride: 1
    weight_filler {
      type: "xavier"
    }
    bias_filler {
      type: "constant"
      value: 0
    }
  }
}
layer {
  name: "fbn5"
  type: "BatchNorm"
  bottom: "fconv5"
  top: "fbn5"
}
layer {
  name: "frelu5"
  type: "ReLU"
  bottom: "fbn5"
  top: "fbn5"
}
layer {
  name: "data_lattice4"
  type: "Python"
  bottom: "data"
  top: "data_lattice4"
  python_param {
    module: "custom_layers"
    layer: "PickAndScale"
    param_str: "0*3_1*3_2*3"
  }
}
layer {
  name: "feat5"
  type: "Eltwise"
  bottom: "data_lattice4"
  bottom: "fbn5"
  top: "feat5"
  eltwise_param {
    operation: SUM
  }
}
layer {
  name: "conv6"
  type: "Permutohedral"
  bottom: "bn5"
  bottom: "feat5"
  bottom: "feat5"
  top: "conv6"
  param {
    lr_mult: 1
    decay_mult: 1
  }
  param {
    lr_mult: 2
    decay_mult: 0
  }
  permutohedral_param {
    num_output: 256
    neighborhood_size: 1
    filter_filler {
      type: "gaussian"
      std: 0.001
    }
    bias_term: true
    bias_filler {
      type: "constant"
      value: 0
    }
    group: 1
    norm_type: AFTER
    offset_type: NONE
  }
}
layer {
  name: "bn6"
  type: "BatchNorm"
  bottom: "conv6"
  top: "bn6"
}
layer {
  name: "relu6"
  type: "ReLU"
  bottom: "bn6"
  top: "bn6"
}
layer {
  name: "concat6"
  type: "Concat"
  bottom: "bn6"
  bottom: "bn2"
  bottom: "bn3"
  bottom: "bn4"
  bottom: "bn5"
  top: "concat6"
}
layer {
  name: "conv7"
  type: "Convolution"
  bottom: "concat6"
  top: "conv7"
  param {
    lr_mult: 1
  }
  param {
    lr_mult: 0.1
  }
  convolution_param {
    num_output: 128
    pad: 0
    kernel_size: 1
    stride: 1
    weight_filler {
      type: "xavier"
    }
    bias_filler {
      type: "constant"
      value: 0
    }
  }
}
layer {
  name: "bn7"
  type: "BatchNorm"
  bottom: "conv7"
  top: "bn7"
}
layer {
  name: "relu7"
  type: "ReLU"
  bottom: "bn7"
  top: "bn7"
}
layer {
  name: "conv8"
  type: "Convolution"
  bottom: "bn7"
  top: "conv8"
  param {
    lr_mult: 1
  }
  param {
    lr_mult: 0.1
  }
  convolution_param {
    num_output: 13
    pad: 0
    kernel_size: 1
    stride: 1
    weight_filler {
      type: "xavier"
    }
    bias_filler {
      type: "constant"
      value: 0
    }
  }
}
layer {
  name: "loss"
  type: "SoftmaxWithLoss"
  bottom: "conv8"
  bottom: "label"
  top: "loss"
}
layer {
  name: "accuracy"
  type: "Accuracy"
  bottom: "conv8"
  bottom: "label"
  top: "accuracy"
}
I0728 17:29:46.109838  8706 layer_factory.hpp:77] Creating layer data
I0728 17:29:46.142815  8706 net.cpp:84] Creating Layer data
I0728 17:29:46.142871  8706 net.cpp:380] data -> data
I0728 17:29:46.142982  8706 net.cpp:380] data -> label
I0728 17:29:47.270803  8709 upgrade_proto.cpp:1084] Attempting to upgrade input file specified using deprecated 'solver_type' field (enum)': /mnt/lustre/wangjiayun/repos/splatnet/exp/lidar3d/area6/6_solver.prototxt
…
I0728 17:29:47.347826  8708 upgrade_proto.cpp:1084] Attempting to upgrade input file specified using deprecated 'solver_type' field (enum)': /mnt/lustre/wangjiayun/repos/splatnet/exp/lidar3d/area6/6_solver.prototxt
I0728 17:29:47.347903  8708 upgrade_proto.cpp:1091] Successfully upgraded file specified using deprecated 'solver_type' field (enum) to 'type' field (string).
W0728 17:29:47.347910  8708 upgrade_proto.cpp:1093] Note that future Caffe releases will only support 'type' field (string) for a solver's type.
I0728 17:54:56.558545  8706 net.cpp:122] Setting up data
I0728 17:54:56.559218  8706 net.cpp:129] Top shape: 1 3 1 70000 (210000)
I0728 17:54:56.559254  8706 net.cpp:129] Top shape: 1 1 1 70000 (70000)
I0728 17:54:56.559262  8706 net.cpp:137] Memory required for data: 1120000
I0728 17:54:56.559376  8706 layer_factory.hpp:77] Creating layer data_data_0_split
I0728 17:54:56.559545  8706 net.cpp:84] Creating Layer data_data_0_split
I0728 17:54:56.559569  8706 net.cpp:406] data_data_0_split <- data
I0728 17:54:56.559593  8706 net.cpp:380] data_data_0_split -> data_data_0_split_0
I0728 17:54:56.559641  8706 net.cpp:380] data_data_0_split -> data_data_0_split_1
I0728 17:54:56.559650  8706 net.cpp:380] data_data_0_split -> data_data_0_split_2
I0728 17:54:56.559657  8706 net.cpp:380] data_data_0_split -> data_data_0_split_3
I0728 17:54:56.559662  8706 net.cpp:380] data_data_0_split -> data_data_0_split_4
I0728 17:54:56.559667  8706 net.cpp:380] data_data_0_split -> data_data_0_split_5
I0728 17:54:56.559751  8706 net.cpp:122] Setting up data_data_0_split
I0728 17:54:56.559761  8706 net.cpp:129] Top shape: 1 3 1 70000 (210000)
I0728 17:54:56.559764  8706 net.cpp:129] Top shape: 1 3 1 70000 (210000)
I0728 17:54:56.559768  8706 net.cpp:129] Top shape: 1 3 1 70000 (210000)
I0728 17:54:56.559772  8706 net.cpp:129] Top shape: 1 3 1 70000 (210000)
I0728 17:54:56.559774  8706 net.cpp:129] Top shape: 1 3 1 70000 (210000)
I0728 17:54:56.559777  8706 net.cpp:129] Top shape: 1 3 1 70000 (210000)
I0728 17:54:56.559782  8706 net.cpp:137] Memory required for data: 6160000
I0728 17:54:56.559784  8706 layer_factory.hpp:77] Creating layer label_data_1_split
I0728 17:54:56.559790  8706 net.cpp:84] Creating Layer label_data_1_split
I0728 17:54:56.559793  8706 net.cpp:406] label_data_1_split <- label
I0728 17:54:56.559798  8706 net.cpp:380] label_data_1_split -> label_data_1_split_0
I0728 17:54:56.559806  8706 net.cpp:380] label_data_1_split -> label_data_1_split_1
I0728 17:54:56.559830  8706 net.cpp:122] Setting up label_data_1_split
I0728 17:54:56.559837  8706 net.cpp:129] Top shape: 1 1 1 70000 (70000)
I0728 17:54:56.559840  8706 net.cpp:129] Top shape: 1 1 1 70000 (70000)
I0728 17:54:56.559844  8706 net.cpp:137] Memory required for data: 6720000
I0728 17:54:56.559846  8706 layer_factory.hpp:77] Creating layer data_feat
I0728 17:54:56.564648  8706 net.cpp:84] Creating Layer data_feat
I0728 17:54:56.564661  8706 net.cpp:406] data_feat <- data_data_0_split_0
I0728 17:54:56.564669  8706 net.cpp:380] data_feat -> data_feat
I0728 17:54:56.565835  8706 net.cpp:122] Setting up data_feat
I0728 17:54:56.565850  8706 net.cpp:129] Top shape: 1 3 1 70000 (210000)
I0728 17:54:56.565853  8706 net.cpp:137] Memory required for data: 7560000
I0728 17:54:56.565857  8706 layer_factory.hpp:77] Creating layer conv1
I0728 17:54:56.565908  8706 net.cpp:84] Creating Layer conv1
I0728 17:54:56.565915  8706 net.cpp:406] conv1 <- data_feat
I0728 17:54:56.565922  8706 net.cpp:380] conv1 -> conv1
I0728 17:55:00.069746  8706 net.cpp:122] Setting up conv1
I0728 17:55:00.069803  8706 net.cpp:129] Top shape: 1 32 1 70000 (2240000)
I0728 17:55:00.069813  8706 net.cpp:137] Memory required for data: 16520000
I0728 17:55:00.078105  8706 layer_factory.hpp:77] Creating layer bn1
I0728 17:55:00.079193  8706 net.cpp:84] Creating Layer bn1
I0728 17:55:00.079226  8706 net.cpp:406] bn1 <- conv1
I0728 17:55:00.079243  8706 net.cpp:380] bn1 -> bn1
I0728 17:55:00.100236  8706 net.cpp:122] Setting up bn1
I0728 17:55:00.100276  8706 net.cpp:129] Top shape: 1 32 1 70000 (2240000)
I0728 17:55:00.100286  8706 net.cpp:137] Memory required for data: 25480000
I0728 17:55:00.100314  8706 layer_factory.hpp:77] Creating layer relu1
I0728 17:55:00.101500  8706 net.cpp:84] Creating Layer relu1
I0728 17:55:00.101536  8706 net.cpp:406] relu1 <- bn1
I0728 17:55:00.101567  8706 net.cpp:367] relu1 -> bn1 (in-place)
I0728 17:55:00.113801  8706 net.cpp:122] Setting up relu1
I0728 17:55:00.113837  8706 net.cpp:129] Top shape: 1 32 1 70000 (2240000)
I0728 17:55:00.113847  8706 net.cpp:137] Memory required for data: 34440000
I0728 17:55:00.113859  8706 layer_factory.hpp:77] Creating layer bn1_relu1_0_split
I0728 17:55:00.113875  8706 net.cpp:84] Creating Layer bn1_relu1_0_split
I0728 17:55:00.113883  8706 net.cpp:406] bn1_relu1_0_split <- bn1
I0728 17:55:00.113898  8706 net.cpp:380] bn1_relu1_0_split -> bn1_relu1_0_split_0
I0728 17:55:00.113914  8706 net.cpp:380] bn1_relu1_0_split -> bn1_relu1_0_split_1
I0728 17:55:00.114002  8706 net.cpp:122] Setting up bn1_relu1_0_split
I0728 17:55:00.114020  8706 net.cpp:129] Top shape: 1 32 1 70000 (2240000)
I0728 17:55:00.114029  8706 net.cpp:129] Top shape: 1 32 1 70000 (2240000)
I0728 17:55:00.114035  8706 net.cpp:137] Memory required for data: 52360000
I0728 17:55:00.114042  8706 layer_factory.hpp:77] Creating layer fconv1
I0728 17:55:00.114066  8706 net.cpp:84] Creating Layer fconv1
I0728 17:55:00.114078  8706 net.cpp:406] fconv1 <- bn1_relu1_0_split_0
I0728 17:55:00.114096  8706 net.cpp:380] fconv1 -> fconv1
I0728 17:55:00.118602  8706 net.cpp:122] Setting up fconv1
I0728 17:55:00.118634  8706 net.cpp:129] Top shape: 1 3 1 70000 (210000)
I0728 17:55:00.118643  8706 net.cpp:137] Memory required for data: 53200000
I0728 17:55:00.118660  8706 layer_factory.hpp:77] Creating layer fbn1
I0728 17:55:00.118680  8706 net.cpp:84] Creating Layer fbn1
I0728 17:55:00.118690  8706 net.cpp:406] fbn1 <- fconv1
I0728 17:55:00.118703  8706 net.cpp:380] fbn1 -> fbn1
I0728 17:55:00.119238  8706 net.cpp:122] Setting up fbn1
I0728 17:55:00.119259  8706 net.cpp:129] Top shape: 1 3 1 70000 (210000)
I0728 17:55:00.119266  8706 net.cpp:137] Memory required for data: 54040000
I0728 17:55:00.119289  8706 layer_factory.hpp:77] Creating layer frelu1
I0728 17:55:00.119305  8706 net.cpp:84] Creating Layer frelu1
I0728 17:55:00.119313  8706 net.cpp:406] frelu1 <- fbn1
I0728 17:55:00.119326  8706 net.cpp:367] frelu1 -> fbn1 (in-place)
I0728 17:55:00.119927  8706 net.cpp:122] Setting up frelu1
I0728 17:55:00.119954  8706 net.cpp:129] Top shape: 1 3 1 70000 (210000)
I0728 17:55:00.119961  8706 net.cpp:137] Memory required for data: 54880000
I0728 17:55:00.119969  8706 layer_factory.hpp:77] Creating layer data_lattice0
I0728 17:55:00.120069  8706 net.cpp:84] Creating Layer data_lattice0
I0728 17:55:00.120085  8706 net.cpp:406] data_lattice0 <- data_data_0_split_1
I0728 17:55:00.120100  8706 net.cpp:380] data_lattice0 -> data_lattice0
I0728 17:55:00.122659  8706 net.cpp:122] Setting up data_lattice0
I0728 17:55:00.122694  8706 net.cpp:129] Top shape: 1 3 1 70000 (210000)
I0728 17:55:00.122704  8706 net.cpp:137] Memory required for data: 55720000
I0728 17:55:00.122711  8706 layer_factory.hpp:77] Creating layer feat1
I0728 17:55:00.123777  8706 net.cpp:84] Creating Layer feat1
I0728 17:55:00.123809  8706 net.cpp:406] feat1 <- data_lattice0
I0728 17:55:00.123824  8706 net.cpp:406] feat1 <- fbn1
I0728 17:55:00.123839  8706 net.cpp:380] feat1 -> feat1
I0728 17:55:00.124500  8706 net.cpp:122] Setting up feat1
I0728 17:55:00.124528  8706 net.cpp:129] Top shape: 1 3 1 70000 (210000)
I0728 17:55:00.124536  8706 net.cpp:137] Memory required for data: 56560000
I0728 17:55:00.124568  8706 layer_factory.hpp:77] Creating layer feat1_feat1_0_split
I0728 17:55:00.124583  8706 net.cpp:84] Creating Layer feat1_feat1_0_split
I0728 17:55:00.124591  8706 net.cpp:406] feat1_feat1_0_split <- feat1
I0728 17:55:00.124604  8706 net.cpp:380] feat1_feat1_0_split -> feat1_feat1_0_split_0
I0728 17:55:00.124619  8706 net.cpp:380] feat1_feat1_0_split -> feat1_feat1_0_split_1
I0728 17:55:00.124697  8706 net.cpp:122] Setting up feat1_feat1_0_split
I0728 17:55:00.124714  8706 net.cpp:129] Top shape: 1 3 1 70000 (210000)
I0728 17:55:00.124722  8706 net.cpp:129] Top shape: 1 3 1 70000 (210000)
I0728 17:55:00.124728  8706 net.cpp:137] Memory required for data: 58240000
I0728 17:55:00.124735  8706 layer_factory.hpp:77] Creating layer conv2
I0728 17:55:00.125141  8706 net.cpp:84] Creating Layer conv2
I0728 17:55:00.125165  8706 net.cpp:406] conv2 <- bn1_relu1_0_split_1
I0728 17:55:00.125177  8706 net.cpp:406] conv2 <- feat1_feat1_0_split_0
I0728 17:55:00.125186  8706 net.cpp:406] conv2 <- feat1_feat1_0_split_1
I0728 17:55:00.125198  8706 net.cpp:380] conv2 -> conv2
I0728 17:55:00.170514  8706 net.cpp:122] Setting up conv2
I0728 17:55:00.170547  8706 net.cpp:129] Top shape: 1 64 1 70000 (4480000)
I0728 17:55:00.170554  8706 net.cpp:137] Memory required for data: 76160000
I0728 17:55:00.170567  8706 layer_factory.hpp:77] Creating layer bn2
I0728 17:55:00.170578  8706 net.cpp:84] Creating Layer bn2
I0728 17:55:00.170585  8706 net.cpp:406] bn2 <- conv2
I0728 17:55:00.170595  8706 net.cpp:380] bn2 -> bn2
I0728 17:55:00.170979  8706 net.cpp:122] Setting up bn2
I0728 17:55:00.170992  8706 net.cpp:129] Top shape: 1 64 1 70000 (4480000)
I0728 17:55:00.170997  8706 net.cpp:137] Memory required for data: 94080000
I0728 17:55:00.171010  8706 layer_factory.hpp:77] Creating layer relu2
I0728 17:55:00.171025  8706 net.cpp:84] Creating Layer relu2
I0728 17:55:00.171031  8706 net.cpp:406] relu2 <- bn2
I0728 17:55:00.171038  8706 net.cpp:367] relu2 -> bn2 (in-place)
I0728 17:55:00.172024  8706 net.cpp:122] Setting up relu2
I0728 17:55:00.172050  8706 net.cpp:129] Top shape: 1 64 1 70000 (4480000)
I0728 17:55:00.172056  8706 net.cpp:137] Memory required for data: 112000000
I0728 17:55:00.172062  8706 layer_factory.hpp:77] Creating layer bn2_relu2_0_split
I0728 17:55:00.172077  8706 net.cpp:84] Creating Layer bn2_relu2_0_split
I0728 17:55:00.172085  8706 net.cpp:406] bn2_relu2_0_split <- bn2
I0728 17:55:00.172094  8706 net.cpp:380] bn2_relu2_0_split -> bn2_relu2_0_split_0
I0728 17:55:00.172106  8706 net.cpp:380] bn2_relu2_0_split -> bn2_relu2_0_split_1
I0728 17:55:00.172114  8706 net.cpp:380] bn2_relu2_0_split -> bn2_relu2_0_split_2
I0728 17:55:00.172194  8706 net.cpp:122] Setting up bn2_relu2_0_split
I0728 17:55:00.172206  8706 net.cpp:129] Top shape: 1 64 1 70000 (4480000)
I0728 17:55:00.172212  8706 net.cpp:129] Top shape: 1 64 1 70000 (4480000)
I0728 17:55:00.172219  8706 net.cpp:129] Top shape: 1 64 1 70000 (4480000)
I0728 17:55:00.172224  8706 net.cpp:137] Memory required for data: 165760000
I0728 17:55:00.172228  8706 layer_factory.hpp:77] Creating layer fconv2
I0728 17:55:00.172243  8706 net.cpp:84] Creating Layer fconv2
I0728 17:55:00.172250  8706 net.cpp:406] fconv2 <- bn2_relu2_0_split_0
I0728 17:55:00.172260  8706 net.cpp:380] fconv2 -> fconv2
I0728 17:55:00.175499  8706 net.cpp:122] Setting up fconv2
I0728 17:55:00.175524  8706 net.cpp:129] Top shape: 1 3 1 70000 (210000)
I0728 17:55:00.175530  8706 net.cpp:137] Memory required for data: 166600000
I0728 17:55:00.175555  8706 layer_factory.hpp:77] Creating layer fbn2
I0728 17:55:00.175567  8706 net.cpp:84] Creating Layer fbn2
I0728 17:55:00.175573  8706 net.cpp:406] fbn2 <- fconv2
I0728 17:55:00.175583  8706 net.cpp:380] fbn2 -> fbn2
I0728 17:55:00.175966  8706 net.cpp:122] Setting up fbn2
I0728 17:55:00.175981  8706 net.cpp:129] Top shape: 1 3 1 70000 (210000)
I0728 17:55:00.175985  8706 net.cpp:137] Memory required for data: 167440000
I0728 17:55:00.175995  8706 layer_factory.hpp:77] Creating layer frelu2
I0728 17:55:00.176008  8706 net.cpp:84] Creating Layer frelu2
I0728 17:55:00.176014  8706 net.cpp:406] frelu2 <- fbn2
I0728 17:55:00.176023  8706 net.cpp:367] frelu2 -> fbn2 (in-place)
I0728 17:55:00.176440  8706 net.cpp:122] Setting up frelu2
I0728 17:55:00.176458  8706 net.cpp:129] Top shape: 1 3 1 70000 (210000)
I0728 17:55:00.176463  8706 net.cpp:137] Memory required for data: 168280000
I0728 17:55:00.176468  8706 layer_factory.hpp:77] Creating layer data_lattice1
I0728 17:55:00.176537  8706 net.cpp:84] Creating Layer data_lattice1
I0728 17:55:00.176558  8706 net.cpp:406] data_lattice1 <- data_data_0_split_2
I0728 17:55:00.176569  8706 net.cpp:380] data_lattice1 -> data_lattice1
I0728 17:55:00.178360  8706 net.cpp:122] Setting up data_lattice1
I0728 17:55:00.178385  8706 net.cpp:129] Top shape: 1 3 1 70000 (210000)
I0728 17:55:00.178391  8706 net.cpp:137] Memory required for data: 169120000
I0728 17:55:00.178397  8706 layer_factory.hpp:77] Creating layer feat2
I0728 17:55:00.178408  8706 net.cpp:84] Creating Layer feat2
I0728 17:55:00.178414  8706 net.cpp:406] feat2 <- data_lattice1
I0728 17:55:00.178423  8706 net.cpp:406] feat2 <- fbn2
I0728 17:55:00.178431  8706 net.cpp:380] feat2 -> feat2
I0728 17:55:00.178472  8706 net.cpp:122] Setting up feat2
I0728 17:55:00.178480  8706 net.cpp:129] Top shape: 1 3 1 70000 (210000)
I0728 17:55:00.178484  8706 net.cpp:137] Memory required for data: 169960000
I0728 17:55:00.178489  8706 layer_factory.hpp:77] Creating layer feat2_feat2_0_split
I0728 17:55:00.178498  8706 net.cpp:84] Creating Layer feat2_feat2_0_split
I0728 17:55:00.178503  8706 net.cpp:406] feat2_feat2_0_split <- feat2
I0728 17:55:00.178509  8706 net.cpp:380] feat2_feat2_0_split -> feat2_feat2_0_split_0
I0728 17:55:00.178519  8706 net.cpp:380] feat2_feat2_0_split -> feat2_feat2_0_split_1
I0728 17:55:00.178575  8706 net.cpp:122] Setting up feat2_feat2_0_split
I0728 17:55:00.178588  8706 net.cpp:129] Top shape: 1 3 1 70000 (210000)
I0728 17:55:00.178593  8706 net.cpp:129] Top shape: 1 3 1 70000 (210000)
I0728 17:55:00.178597  8706 net.cpp:137] Memory required for data: 171640000
I0728 17:55:00.178602  8706 layer_factory.hpp:77] Creating layer conv3
I0728 17:55:00.178617  8706 net.cpp:84] Creating Layer conv3
I0728 17:55:00.178622  8706 net.cpp:406] conv3 <- bn2_relu2_0_split_1
I0728 17:55:00.178630  8706 net.cpp:406] conv3 <- feat2_feat2_0_split_0
I0728 17:55:00.178637  8706 net.cpp:406] conv3 <- feat2_feat2_0_split_1
I0728 17:55:00.178644  8706 net.cpp:380] conv3 -> conv3
I0728 17:55:00.297523  8706 net.cpp:122] Setting up conv3
I0728 17:55:00.297574  8706 net.cpp:129] Top shape: 1 128 1 70000 (8960000)
I0728 17:55:00.297580  8706 net.cpp:137] Memory required for data: 207480000
I0728 17:55:00.297596  8706 layer_factory.hpp:77] Creating layer bn3
I0728 17:55:00.297610  8706 net.cpp:84] Creating Layer bn3
I0728 17:55:00.297616  8706 net.cpp:406] bn3 <- conv3
I0728 17:55:00.297626  8706 net.cpp:380] bn3 -> bn3
I0728 17:55:00.297935  8706 net.cpp:122] Setting up bn3
I0728 17:55:00.297945  8706 net.cpp:129] Top shape: 1 128 1 70000 (8960000)
I0728 17:55:00.297948  8706 net.cpp:137] Memory required for data: 243320000
I0728 17:55:00.297958  8706 layer_factory.hpp:77] Creating layer relu3
I0728 17:55:00.297966  8706 net.cpp:84] Creating Layer relu3
I0728 17:55:00.297971  8706 net.cpp:406] relu3 <- bn3
I0728 17:55:00.297976  8706 net.cpp:367] relu3 -> bn3 (in-place)
I0728 17:55:00.298945  8706 net.cpp:122] Setting up relu3
I0728 17:55:00.298964  8706 net.cpp:129] Top shape: 1 128 1 70000 (8960000)
I0728 17:55:00.298969  8706 net.cpp:137] Memory required for data: 279160000
I0728 17:55:00.298974  8706 layer_factory.hpp:77] Creating layer bn3_relu3_0_split
I0728 17:55:00.298982  8706 net.cpp:84] Creating Layer bn3_relu3_0_split
I0728 17:55:00.298986  8706 net.cpp:406] bn3_relu3_0_split <- bn3
I0728 17:55:00.298995  8706 net.cpp:380] bn3_relu3_0_split -> bn3_relu3_0_split_0
I0728 17:55:00.299003  8706 net.cpp:380] bn3_relu3_0_split -> bn3_relu3_0_split_1
I0728 17:55:00.299010  8706 net.cpp:380] bn3_relu3_0_split -> bn3_relu3_0_split_2
I0728 17:55:00.299072  8706 net.cpp:122] Setting up bn3_relu3_0_split
I0728 17:55:00.299082  8706 net.cpp:129] Top shape: 1 128 1 70000 (8960000)
I0728 17:55:00.299087  8706 net.cpp:129] Top shape: 1 128 1 70000 (8960000)
I0728 17:55:00.299090  8706 net.cpp:129] Top shape: 1 128 1 70000 (8960000)
I0728 17:55:00.299093  8706 net.cpp:137] Memory required for data: 386680000
I0728 17:55:00.299098  8706 layer_factory.hpp:77] Creating layer fconv3
I0728 17:55:00.299115  8706 net.cpp:84] Creating Layer fconv3
I0728 17:55:00.299119  8706 net.cpp:406] fconv3 <- bn3_relu3_0_split_0
I0728 17:55:00.299129  8706 net.cpp:380] fconv3 -> fconv3
I0728 17:55:00.303340  8706 net.cpp:122] Setting up fconv3
I0728 17:55:00.303360  8706 net.cpp:129] Top shape: 1 3 1 70000 (210000)
I0728 17:55:00.303365  8706 net.cpp:137] Memory required for data: 387520000
I0728 17:55:00.303376  8706 layer_factory.hpp:77] Creating layer fbn3
I0728 17:55:00.303385  8706 net.cpp:84] Creating Layer fbn3
I0728 17:55:00.303390  8706 net.cpp:406] fbn3 <- fconv3
I0728 17:55:00.303397  8706 net.cpp:380] fbn3 -> fbn3
I0728 17:55:00.303719  8706 net.cpp:122] Setting up fbn3
I0728 17:55:00.303731  8706 net.cpp:129] Top shape: 1 3 1 70000 (210000)
I0728 17:55:00.303735  8706 net.cpp:137] Memory required for data: 388360000
I0728 17:55:00.303743  8706 layer_factory.hpp:77] Creating layer frelu3
I0728 17:55:00.303750  8706 net.cpp:84] Creating Layer frelu3
I0728 17:55:00.303755  8706 net.cpp:406] frelu3 <- fbn3
I0728 17:55:00.303761  8706 net.cpp:367] frelu3 -> fbn3 (in-place)
I0728 17:55:00.304095  8706 net.cpp:122] Setting up frelu3
I0728 17:55:00.304108  8706 net.cpp:129] Top shape: 1 3 1 70000 (210000)
I0728 17:55:00.304112  8706 net.cpp:137] Memory required for data: 389200000
I0728 17:55:00.304116  8706 layer_factory.hpp:77] Creating layer data_lattice2
I0728 17:55:00.304188  8706 net.cpp:84] Creating Layer data_lattice2
I0728 17:55:00.304198  8706 net.cpp:406] data_lattice2 <- data_data_0_split_3
I0728 17:55:00.304206  8706 net.cpp:380] data_lattice2 -> data_lattice2
I0728 17:55:00.305685  8706 net.cpp:122] Setting up data_lattice2
I0728 17:55:00.305704  8706 net.cpp:129] Top shape: 1 3 1 70000 (210000)
I0728 17:55:00.305708  8706 net.cpp:137] Memory required for data: 390040000
I0728 17:55:00.305713  8706 layer_factory.hpp:77] Creating layer feat3
I0728 17:55:00.305729  8706 net.cpp:84] Creating Layer feat3
I0728 17:55:00.305734  8706 net.cpp:406] feat3 <- data_lattice2
I0728 17:55:00.305742  8706 net.cpp:406] feat3 <- fbn3
I0728 17:55:00.305748  8706 net.cpp:380] feat3 -> feat3
I0728 17:55:00.305783  8706 net.cpp:122] Setting up feat3
I0728 17:55:00.305789  8706 net.cpp:129] Top shape: 1 3 1 70000 (210000)
I0728 17:55:00.305793  8706 net.cpp:137] Memory required for data: 390880000
I0728 17:55:00.305799  8706 layer_factory.hpp:77] Creating layer feat3_feat3_0_split
I0728 17:55:00.305806  8706 net.cpp:84] Creating Layer feat3_feat3_0_split
I0728 17:55:00.305809  8706 net.cpp:406] feat3_feat3_0_split <- feat3
I0728 17:55:00.305816  8706 net.cpp:380] feat3_feat3_0_split -> feat3_feat3_0_split_0
I0728 17:55:00.305824  8706 net.cpp:380] feat3_feat3_0_split -> feat3_feat3_0_split_1
I0728 17:55:00.305862  8706 net.cpp:122] Setting up feat3_feat3_0_split
I0728 17:55:00.305871  8706 net.cpp:129] Top shape: 1 3 1 70000 (210000)
I0728 17:55:00.305876  8706 net.cpp:129] Top shape: 1 3 1 70000 (210000)
I0728 17:55:00.305879  8706 net.cpp:137] Memory required for data: 392560000
I0728 17:55:00.305883  8706 layer_factory.hpp:77] Creating layer conv4
I0728 17:55:00.305892  8706 net.cpp:84] Creating Layer conv4
I0728 17:55:00.305896  8706 net.cpp:406] conv4 <- bn3_relu3_0_split_1
I0728 17:55:00.305902  8706 net.cpp:406] conv4 <- feat3_feat3_0_split_0
I0728 17:55:00.305907  8706 net.cpp:406] conv4 <- feat3_feat3_0_split_1
I0728 17:55:00.305913  8706 net.cpp:380] conv4 -> conv4
I0728 17:55:00.386124  8706 net.cpp:122] Setting up conv4
I0728 17:55:00.386164  8706 net.cpp:129] Top shape: 1 256 1 70000 (17920000)
I0728 17:55:00.386170  8706 net.cpp:137] Memory required for data: 464240000
I0728 17:55:00.386180  8706 layer_factory.hpp:77] Creating layer bn4
I0728 17:55:00.386193  8706 net.cpp:84] Creating Layer bn4
I0728 17:55:00.386198  8706 net.cpp:406] bn4 <- conv4
I0728 17:55:00.386209  8706 net.cpp:380] bn4 -> bn4
I0728 17:55:00.386523  8706 net.cpp:122] Setting up bn4
I0728 17:55:00.386533  8706 net.cpp:129] Top shape: 1 256 1 70000 (17920000)
I0728 17:55:00.386538  8706 net.cpp:137] Memory required for data: 535920000
I0728 17:55:00.386560  8706 layer_factory.hpp:77] Creating layer relu4
I0728 17:55:00.386575  8706 net.cpp:84] Creating Layer relu4
I0728 17:55:00.386580  8706 net.cpp:406] relu4 <- bn4
I0728 17:55:00.386585  8706 net.cpp:367] relu4 -> bn4 (in-place)
I0728 17:55:00.387488  8706 net.cpp:122] Setting up relu4
I0728 17:55:00.387506  8706 net.cpp:129] Top shape: 1 256 1 70000 (17920000)
I0728 17:55:00.387511  8706 net.cpp:137] Memory required for data: 607600000
I0728 17:55:00.387518  8706 layer_factory.hpp:77] Creating layer bn4_relu4_0_split
I0728 17:55:00.387527  8706 net.cpp:84] Creating Layer bn4_relu4_0_split
I0728 17:55:00.387531  8706 net.cpp:406] bn4_relu4_0_split <- bn4
I0728 17:55:00.387547  8706 net.cpp:380] bn4_relu4_0_split -> bn4_relu4_0_split_0
I0728 17:55:00.387557  8706 net.cpp:380] bn4_relu4_0_split -> bn4_relu4_0_split_1
I0728 17:55:00.387565  8706 net.cpp:380] bn4_relu4_0_split -> bn4_relu4_0_split_2
I0728 17:55:00.387629  8706 net.cpp:122] Setting up bn4_relu4_0_split
I0728 17:55:00.387639  8706 net.cpp:129] Top shape: 1 256 1 70000 (17920000)
I0728 17:55:00.387645  8706 net.cpp:129] Top shape: 1 256 1 70000 (17920000)
I0728 17:55:00.387648  8706 net.cpp:129] Top shape: 1 256 1 70000 (17920000)
I0728 17:55:00.387651  8706 net.cpp:137] Memory required for data: 822640000
I0728 17:55:00.387655  8706 layer_factory.hpp:77] Creating layer fconv4
I0728 17:55:00.387668  8706 net.cpp:84] Creating Layer fconv4
I0728 17:55:00.387675  8706 net.cpp:406] fconv4 <- bn4_relu4_0_split_0
I0728 17:55:00.387682  8706 net.cpp:380] fconv4 -> fconv4
I0728 17:55:00.390735  8706 net.cpp:122] Setting up fconv4
I0728 17:55:00.390754  8706 net.cpp:129] Top shape: 1 3 1 70000 (210000)
I0728 17:55:00.390759  8706 net.cpp:137] Memory required for data: 823480000
I0728 17:55:00.390769  8706 layer_factory.hpp:77] Creating layer fbn4
I0728 17:55:00.390777  8706 net.cpp:84] Creating Layer fbn4
I0728 17:55:00.390782  8706 net.cpp:406] fbn4 <- fconv4
I0728 17:55:00.390789  8706 net.cpp:380] fbn4 -> fbn4
I0728 17:55:00.391108  8706 net.cpp:122] Setting up fbn4
I0728 17:55:00.391120  8706 net.cpp:129] Top shape: 1 3 1 70000 (210000)
I0728 17:55:00.391124  8706 net.cpp:137] Memory required for data: 824320000
I0728 17:55:00.391132  8706 layer_factory.hpp:77] Creating layer frelu4
I0728 17:55:00.391139  8706 net.cpp:84] Creating Layer frelu4
I0728 17:55:00.391144  8706 net.cpp:406] frelu4 <- fbn4
I0728 17:55:00.391149  8706 net.cpp:367] frelu4 -> fbn4 (in-place)
I0728 17:55:00.391486  8706 net.cpp:122] Setting up frelu4
I0728 17:55:00.391500  8706 net.cpp:129] Top shape: 1 3 1 70000 (210000)
I0728 17:55:00.391505  8706 net.cpp:137] Memory required for data: 825160000
I0728 17:55:00.391510  8706 layer_factory.hpp:77] Creating layer data_lattice3
I0728 17:55:00.391577  8706 net.cpp:84] Creating Layer data_lattice3
I0728 17:55:00.391588  8706 net.cpp:406] data_lattice3 <- data_data_0_split_4
I0728 17:55:00.391597  8706 net.cpp:380] data_lattice3 -> data_lattice3
I0728 17:55:00.393095  8706 net.cpp:122] Setting up data_lattice3
I0728 17:55:00.393115  8706 net.cpp:129] Top shape: 1 3 1 70000 (210000)
I0728 17:55:00.393118  8706 net.cpp:137] Memory required for data: 826000000
I0728 17:55:00.393123  8706 layer_factory.hpp:77] Creating layer feat4
I0728 17:55:00.393133  8706 net.cpp:84] Creating Layer feat4
I0728 17:55:00.393138  8706 net.cpp:406] feat4 <- data_lattice3
I0728 17:55:00.393144  8706 net.cpp:406] feat4 <- fbn4
I0728 17:55:00.393152  8706 net.cpp:380] feat4 -> feat4
I0728 17:55:00.393185  8706 net.cpp:122] Setting up feat4
I0728 17:55:00.393191  8706 net.cpp:129] Top shape: 1 3 1 70000 (210000)
I0728 17:55:00.393195  8706 net.cpp:137] Memory required for data: 826840000
I0728 17:55:00.393198  8706 layer_factory.hpp:77] Creating layer feat4_feat4_0_split
I0728 17:55:00.393205  8706 net.cpp:84] Creating Layer feat4_feat4_0_split
I0728 17:55:00.393209  8706 net.cpp:406] feat4_feat4_0_split <- feat4
I0728 17:55:00.393215  8706 net.cpp:380] feat4_feat4_0_split -> feat4_feat4_0_split_0
I0728 17:55:00.393223  8706 net.cpp:380] feat4_feat4_0_split -> feat4_feat4_0_split_1
I0728 17:55:00.393261  8706 net.cpp:122] Setting up feat4_feat4_0_split
I0728 17:55:00.393270  8706 net.cpp:129] Top shape: 1 3 1 70000 (210000)
I0728 17:55:00.393275  8706 net.cpp:129] Top shape: 1 3 1 70000 (210000)
I0728 17:55:00.393277  8706 net.cpp:137] Memory required for data: 828520000
I0728 17:55:00.393281  8706 layer_factory.hpp:77] Creating layer conv5
I0728 17:55:00.393293  8706 net.cpp:84] Creating Layer conv5
I0728 17:55:00.393297  8706 net.cpp:406] conv5 <- bn4_relu4_0_split_1
I0728 17:55:00.393303  8706 net.cpp:406] conv5 <- feat4_feat4_0_split_0
I0728 17:55:00.393308  8706 net.cpp:406] conv5 <- feat4_feat4_0_split_1
I0728 17:55:00.393314  8706 net.cpp:380] conv5 -> conv5
I0728 17:55:00.552894  8706 net.cpp:122] Setting up conv5
I0728 17:55:00.552939  8706 net.cpp:129] Top shape: 1 256 1 70000 (17920000)
I0728 17:55:00.552944  8706 net.cpp:137] Memory required for data: 900200000
I0728 17:55:00.552964  8706 layer_factory.hpp:77] Creating layer bn5
I0728 17:55:00.552978  8706 net.cpp:84] Creating Layer bn5
I0728 17:55:00.552989  8706 net.cpp:406] bn5 <- conv5
I0728 17:55:00.552997  8706 net.cpp:380] bn5 -> bn5
I0728 17:55:00.553316  8706 net.cpp:122] Setting up bn5
I0728 17:55:00.553328  8706 net.cpp:129] Top shape: 1 256 1 70000 (17920000)
I0728 17:55:00.553330  8706 net.cpp:137] Memory required for data: 971880000
I0728 17:55:00.553339  8706 layer_factory.hpp:77] Creating layer relu5
I0728 17:55:00.553346  8706 net.cpp:84] Creating Layer relu5
I0728 17:55:00.553351  8706 net.cpp:406] relu5 <- bn5
I0728 17:55:00.553357  8706 net.cpp:367] relu5 -> bn5 (in-place)
I0728 17:55:00.554355  8706 net.cpp:122] Setting up relu5
I0728 17:55:00.554374  8706 net.cpp:129] Top shape: 1 256 1 70000 (17920000)
I0728 17:55:00.554379  8706 net.cpp:137] Memory required for data: 1043560000
I0728 17:55:00.554383  8706 layer_factory.hpp:77] Creating layer bn5_relu5_0_split
I0728 17:55:00.554392  8706 net.cpp:84] Creating Layer bn5_relu5_0_split
I0728 17:55:00.554396  8706 net.cpp:406] bn5_relu5_0_split <- bn5
I0728 17:55:00.554404  8706 net.cpp:380] bn5_relu5_0_split -> bn5_relu5_0_split_0
I0728 17:55:00.554414  8706 net.cpp:380] bn5_relu5_0_split -> bn5_relu5_0_split_1
I0728 17:55:00.554419  8706 net.cpp:380] bn5_relu5_0_split -> bn5_relu5_0_split_2
I0728 17:55:00.554481  8706 net.cpp:122] Setting up bn5_relu5_0_split
I0728 17:55:00.554491  8706 net.cpp:129] Top shape: 1 256 1 70000 (17920000)
I0728 17:55:00.554495  8706 net.cpp:129] Top shape: 1 256 1 70000 (17920000)
I0728 17:55:00.554499  8706 net.cpp:129] Top shape: 1 256 1 70000 (17920000)
I0728 17:55:00.554502  8706 net.cpp:137] Memory required for data: 1258600000
I0728 17:55:00.554507  8706 layer_factory.hpp:77] Creating layer fconv5
I0728 17:55:00.554523  8706 net.cpp:84] Creating Layer fconv5
I0728 17:55:00.554527  8706 net.cpp:406] fconv5 <- bn5_relu5_0_split_0
I0728 17:55:00.554536  8706 net.cpp:380] fconv5 -> fconv5
I0728 17:55:00.556679  8706 net.cpp:122] Setting up fconv5
I0728 17:55:00.556697  8706 net.cpp:129] Top shape: 1 3 1 70000 (210000)
I0728 17:55:00.556702  8706 net.cpp:137] Memory required for data: 1259440000
I0728 17:55:00.556711  8706 layer_factory.hpp:77] Creating layer fbn5
I0728 17:55:00.556720  8706 net.cpp:84] Creating Layer fbn5
I0728 17:55:00.556725  8706 net.cpp:406] fbn5 <- fconv5
I0728 17:55:00.556731  8706 net.cpp:380] fbn5 -> fbn5
I0728 17:55:00.557051  8706 net.cpp:122] Setting up fbn5
I0728 17:55:00.557061  8706 net.cpp:129] Top shape: 1 3 1 70000 (210000)
I0728 17:55:00.557066  8706 net.cpp:137] Memory required for data: 1260280000
I0728 17:55:00.557075  8706 layer_factory.hpp:77] Creating layer frelu5
I0728 17:55:00.557081  8706 net.cpp:84] Creating Layer frelu5
I0728 17:55:00.557086  8706 net.cpp:406] frelu5 <- fbn5
I0728 17:55:00.557092  8706 net.cpp:367] frelu5 -> fbn5 (in-place)
I0728 17:55:00.557797  8706 net.cpp:122] Setting up frelu5
I0728 17:55:00.557816  8706 net.cpp:129] Top shape: 1 3 1 70000 (210000)
I0728 17:55:00.557819  8706 net.cpp:137] Memory required for data: 1261120000
I0728 17:55:00.557824  8706 layer_factory.hpp:77] Creating layer data_lattice4
I0728 17:55:00.557889  8706 net.cpp:84] Creating Layer data_lattice4
I0728 17:55:00.557900  8706 net.cpp:406] data_lattice4 <- data_data_0_split_5
I0728 17:55:00.557909  8706 net.cpp:380] data_lattice4 -> data_lattice4
I0728 17:55:00.559439  8706 net.cpp:122] Setting up data_lattice4
I0728 17:55:00.559458  8706 net.cpp:129] Top shape: 1 3 1 70000 (210000)
I0728 17:55:00.559461  8706 net.cpp:137] Memory required for data: 1261960000
I0728 17:55:00.559466  8706 layer_factory.hpp:77] Creating layer feat5
I0728 17:55:00.559475  8706 net.cpp:84] Creating Layer feat5
I0728 17:55:00.559480  8706 net.cpp:406] feat5 <- data_lattice4
I0728 17:55:00.559486  8706 net.cpp:406] feat5 <- fbn5
I0728 17:55:00.559494  8706 net.cpp:380] feat5 -> feat5
I0728 17:55:00.559528  8706 net.cpp:122] Setting up feat5
I0728 17:55:00.559535  8706 net.cpp:129] Top shape: 1 3 1 70000 (210000)
I0728 17:55:00.559545  8706 net.cpp:137] Memory required for data: 1262800000
I0728 17:55:00.559548  8706 layer_factory.hpp:77] Creating layer feat5_feat5_0_split
I0728 17:55:00.559556  8706 net.cpp:84] Creating Layer feat5_feat5_0_split
I0728 17:55:00.559559  8706 net.cpp:406] feat5_feat5_0_split <- feat5
I0728 17:55:00.559566  8706 net.cpp:380] feat5_feat5_0_split -> feat5_feat5_0_split_0
I0728 17:55:00.559572  8706 net.cpp:380] feat5_feat5_0_split -> feat5_feat5_0_split_1
I0728 17:55:00.559623  8706 net.cpp:122] Setting up feat5_feat5_0_split
I0728 17:55:00.559633  8706 net.cpp:129] Top shape: 1 3 1 70000 (210000)
I0728 17:55:00.559638  8706 net.cpp:129] Top shape: 1 3 1 70000 (210000)
I0728 17:55:00.559641  8706 net.cpp:137] Memory required for data: 1264480000
I0728 17:55:00.559645  8706 layer_factory.hpp:77] Creating layer conv6
I0728 17:55:00.559654  8706 net.cpp:84] Creating Layer conv6
I0728 17:55:00.559659  8706 net.cpp:406] conv6 <- bn5_relu5_0_split_1
I0728 17:55:00.559664  8706 net.cpp:406] conv6 <- feat5_feat5_0_split_0
I0728 17:55:00.559669  8706 net.cpp:406] conv6 <- feat5_feat5_0_split_1
I0728 17:55:00.559674  8706 net.cpp:380] conv6 -> conv6
I0728 17:55:00.597012  8706 net.cpp:122] Setting up conv6
I0728 17:55:00.597056  8706 net.cpp:129] Top shape: 1 256 1 70000 (17920000)
I0728 17:55:00.597062  8706 net.cpp:137] Memory required for data: 1336160000
I0728 17:55:00.597074  8706 layer_factory.hpp:77] Creating layer bn6
I0728 17:55:00.597085  8706 net.cpp:84] Creating Layer bn6
I0728 17:55:00.597091  8706 net.cpp:406] bn6 <- conv6
I0728 17:55:00.597102  8706 net.cpp:380] bn6 -> bn6
I0728 17:55:00.597425  8706 net.cpp:122] Setting up bn6
I0728 17:55:00.597435  8706 net.cpp:129] Top shape: 1 256 1 70000 (17920000)
I0728 17:55:00.597440  8706 net.cpp:137] Memory required for data: 1407840000
I0728 17:55:00.597448  8706 layer_factory.hpp:77] Creating layer relu6
I0728 17:55:00.597465  8706 net.cpp:84] Creating Layer relu6
I0728 17:55:00.597470  8706 net.cpp:406] relu6 <- bn6
I0728 17:55:00.597476  8706 net.cpp:367] relu6 -> bn6 (in-place)
I0728 17:55:00.597911  8706 net.cpp:122] Setting up relu6
I0728 17:55:00.597926  8706 net.cpp:129] Top shape: 1 256 1 70000 (17920000)
I0728 17:55:00.597930  8706 net.cpp:137] Memory required for data: 1479520000
I0728 17:55:00.597937  8706 layer_factory.hpp:77] Creating layer concat6
I0728 17:55:00.598019  8706 net.cpp:84] Creating Layer concat6
I0728 17:55:00.598028  8706 net.cpp:406] concat6 <- bn6
I0728 17:55:00.598035  8706 net.cpp:406] concat6 <- bn2_relu2_0_split_2
I0728 17:55:00.598040  8706 net.cpp:406] concat6 <- bn3_relu3_0_split_2
I0728 17:55:00.598045  8706 net.cpp:406] concat6 <- bn4_relu4_0_split_2
I0728 17:55:00.598049  8706 net.cpp:406] concat6 <- bn5_relu5_0_split_2
I0728 17:55:00.598057  8706 net.cpp:380] concat6 -> concat6
I0728 17:55:00.598116  8706 net.cpp:122] Setting up concat6
I0728 17:55:00.598129  8706 net.cpp:129] Top shape: 1 960 1 70000 (67200000)
I0728 17:55:00.598132  8706 net.cpp:137] Memory required for data: 1748320000
I0728 17:55:00.598136  8706 layer_factory.hpp:77] Creating layer conv7
I0728 17:55:00.598152  8706 net.cpp:84] Creating Layer conv7
I0728 17:55:00.598160  8706 net.cpp:406] conv7 <- concat6
I0728 17:55:00.598168  8706 net.cpp:380] conv7 -> conv7
I0728 17:55:00.604661  8706 net.cpp:122] Setting up conv7
I0728 17:55:00.604681  8706 net.cpp:129] Top shape: 1 128 1 70000 (8960000)
I0728 17:55:00.604686  8706 net.cpp:137] Memory required for data: 1784160000
I0728 17:55:00.604696  8706 layer_factory.hpp:77] Creating layer bn7
I0728 17:55:00.604704  8706 net.cpp:84] Creating Layer bn7
I0728 17:55:00.604709  8706 net.cpp:406] bn7 <- conv7
I0728 17:55:00.604717  8706 net.cpp:380] bn7 -> bn7
I0728 17:55:00.605016  8706 net.cpp:122] Setting up bn7
I0728 17:55:00.605026  8706 net.cpp:129] Top shape: 1 128 1 70000 (8960000)
I0728 17:55:00.605031  8706 net.cpp:137] Memory required for data: 1820000000
I0728 17:55:00.605038  8706 layer_factory.hpp:77] Creating layer relu7
I0728 17:55:00.605046  8706 net.cpp:84] Creating Layer relu7
I0728 17:55:00.605051  8706 net.cpp:406] relu7 <- bn7
I0728 17:55:00.605057  8706 net.cpp:367] relu7 -> bn7 (in-place)
I0728 17:55:00.605937  8706 net.cpp:122] Setting up relu7
I0728 17:55:00.605955  8706 net.cpp:129] Top shape: 1 128 1 70000 (8960000)
I0728 17:55:00.605960  8706 net.cpp:137] Memory required for data: 1855840000
I0728 17:55:00.605965  8706 layer_factory.hpp:77] Creating layer conv8
I0728 17:55:00.605978  8706 net.cpp:84] Creating Layer conv8
I0728 17:55:00.605983  8706 net.cpp:406] conv8 <- bn7
I0728 17:55:00.605993  8706 net.cpp:380] conv8 -> conv8
I0728 17:55:00.609836  8706 net.cpp:122] Setting up conv8
I0728 17:55:00.609855  8706 net.cpp:129] Top shape: 1 13 1 70000 (910000)
I0728 17:55:00.609860  8706 net.cpp:137] Memory required for data: 1859480000
I0728 17:55:00.609869  8706 layer_factory.hpp:77] Creating layer conv8_conv8_0_split
I0728 17:55:00.609879  8706 net.cpp:84] Creating Layer conv8_conv8_0_split
I0728 17:55:00.609884  8706 net.cpp:406] conv8_conv8_0_split <- conv8
I0728 17:55:00.609890  8706 net.cpp:380] conv8_conv8_0_split -> conv8_conv8_0_split_0
I0728 17:55:00.609899  8706 net.cpp:380] conv8_conv8_0_split -> conv8_conv8_0_split_1
I0728 17:55:00.609952  8706 net.cpp:122] Setting up conv8_conv8_0_split
I0728 17:55:00.609961  8706 net.cpp:129] Top shape: 1 13 1 70000 (910000)
I0728 17:55:00.609966  8706 net.cpp:129] Top shape: 1 13 1 70000 (910000)
I0728 17:55:00.609969  8706 net.cpp:137] Memory required for data: 1866760000
I0728 17:55:00.609973  8706 layer_factory.hpp:77] Creating layer loss
I0728 17:55:00.610025  8706 net.cpp:84] Creating Layer loss
I0728 17:55:00.610034  8706 net.cpp:406] loss <- conv8_conv8_0_split_0
I0728 17:55:00.610041  8706 net.cpp:406] loss <- label_data_1_split_0
I0728 17:55:00.610047  8706 net.cpp:380] loss -> loss
…
