…
I0809 10:28:34.234928 29059 net.cpp:294] The NetState phase (0) differed from the phase (1) specified by a rule in layer data
I0809 10:28:34.235750 29059 net.cpp:51] Initializing net from parameters: 
state {
  phase: TRAIN
}
layer {
  name: "data"
  type: "Python"
  top: "data"
  top: "label"
  include {
    phase: TRAIN
  }
  python_param {
    module: "dataset_lidar"
    layer: "InputShapenet"
    param_str: "{\'sample_size\': 8192, \'test_area\': \'6\', \'batch_size\': 12, \'feat_dims\': \'x_y_z\', \'subset\': \'train\', \'root\': \'../../data/shapenet_ericyi_ply\', \'jitter_xyz\': 0.02, \'jitter_stretch\': 0.1, \'jitter_rotation\': 10.0}"
  }
}
layer {
  name: "data_feat"
  type: "Python"
  bottom: "data"
  top: "data_feat"
  python_param {
    module: "custom_layers"
    layer: "PickAndScale"
    param_str: "0_1_2"
  }
}
layer {
  name: "conv1"
  type: "Convolution"
  bottom: "data_feat"
  top: "conv1"
  param {
    lr_mult: 1
  }
  param {
    lr_mult: 0.1
  }
  convolution_param {
    num_output: 32
    pad: 0
    kernel_size: 1
    stride: 1
    weight_filler {
      type: "xavier"
    }
    bias_filler {
      type: "constant"
      value: 0
    }
  }
}
layer {
  name: "bn1"
  type: "BatchNorm"
  bottom: "conv1"
  top: "bn1"
}
layer {
  name: "relu1"
  type: "ReLU"
  bottom: "bn1"
  top: "bn1"
}
layer {
  name: "fconv1"
  type: "Convolution"
  bottom: "bn1"
  top: "fconv1"
  param {
    lr_mult: 1
  }
  param {
    lr_mult: 0.1
  }
  convolution_param {
    num_output: 3
    pad: 0
    kernel_size: 1
    stride: 1
    weight_filler {
      type: "xavier"
    }
    bias_filler {
      type: "constant"
      value: 0
    }
  }
}
layer {
  name: "fbn1"
  type: "BatchNorm"
  bottom: "fconv1"
  top: "fbn1"
}
layer {
  name: "frelu1"
  type: "ReLU"
  bottom: "fbn1"
  top: "fbn1"
}
layer {
  name: "feat1"
  type: "Eltwise"
  bottom: "data"
  bottom: "fbn1"
  top: "feat1"
  eltwise_param {
    operation: SUM
  }
}
layer {
  name: "data_lattice0"
  type: "Python"
  bottom: "feat1"
  top: "data_lattice0"
  python_param {
    module: "custom_layers"
    layer: "PickAndScale"
    param_str: "0*48_1*48_2*48"
  }
}
layer {
  name: "conv2"
  type: "Permutohedral"
  bottom: "bn1"
  bottom: "data_lattice0"
  bottom: "data_lattice0"
  top: "conv2"
  param {
    lr_mult: 1
    decay_mult: 1
  }
  param {
    lr_mult: 2
    decay_mult: 0
  }
  permutohedral_param {
    num_output: 64
    neighborhood_size: 2
    filter_filler {
      type: "gaussian"
      std: 0.001
    }
    bias_term: true
    bias_filler {
      type: "constant"
      value: 0
    }
    group: 1
    norm_type: AFTER
    offset_type: NONE
  }
}
layer {
  name: "bn2"
  type: "BatchNorm"
  bottom: "conv2"
  top: "bn2"
}
layer {
  name: "relu2"
  type: "ReLU"
  bottom: "bn2"
  top: "bn2"
}
layer {
  name: "fconv2"
  type: "Convolution"
  bottom: "bn2"
  top: "fconv2"
  param {
    lr_mult: 1
  }
  param {
    lr_mult: 0.1
  }
  convolution_param {
    num_output: 3
    pad: 0
    kernel_size: 1
    stride: 1
    weight_filler {
      type: "xavier"
    }
    bias_filler {
      type: "constant"
      value: 0
    }
  }
}
layer {
  name: "fbn2"
  type: "BatchNorm"
  bottom: "fconv2"
  top: "fbn2"
}
layer {
  name: "frelu2"
  type: "ReLU"
  bottom: "fbn2"
  top: "fbn2"
}
layer {
  name: "feat2"
  type: "Eltwise"
  bottom: "data"
  bottom: "fbn2"
  top: "feat2"
  eltwise_param {
    operation: SUM
  }
}
layer {
  name: "data_lattice1"
  type: "Python"
  bottom: "feat2"
  top: "data_lattice1"
  python_param {
    module: "custom_layers"
    layer: "PickAndScale"
    param_str: "0*24_1*24_2*24"
  }
}
layer {
  name: "conv3"
  type: "Permutohedral"
  bottom: "bn2"
  bottom: "data_lattice1"
  bottom: "data_lattice1"
  top: "conv3"
  param {
    lr_mult: 1
    decay_mult: 1
  }
  param {
    lr_mult: 2
    decay_mult: 0
  }
  permutohedral_param {
    num_output: 128
    neighborhood_size: 2
    filter_filler {
      type: "gaussian"
      std: 0.001
    }
    bias_term: true
    bias_filler {
      type: "constant"
      value: 0
    }
    group: 1
    norm_type: AFTER
    offset_type: NONE
  }
}
layer {
  name: "bn3"
  type: "BatchNorm"
  bottom: "conv3"
  top: "bn3"
}
layer {
  name: "relu3"
  type: "ReLU"
  bottom: "bn3"
  top: "bn3"
}
layer {
  name: "fconv3"
  type: "Convolution"
  bottom: "bn3"
  top: "fconv3"
  param {
    lr_mult: 1
  }
  param {
    lr_mult: 0.1
  }
  convolution_param {
    num_output: 3
    pad: 0
    kernel_size: 1
    stride: 1
    weight_filler {
      type: "xavier"
    }
    bias_filler {
      type: "constant"
      value: 0
    }
  }
}
layer {
  name: "fbn3"
  type: "BatchNorm"
  bottom: "fconv3"
  top: "fbn3"
}
layer {
  name: "frelu3"
  type: "ReLU"
  bottom: "fbn3"
  top: "fbn3"
}
layer {
  name: "feat3"
  type: "Eltwise"
  bottom: "data"
  bottom: "fbn3"
  top: "feat3"
  eltwise_param {
    operation: SUM
  }
}
layer {
  name: "data_lattice2"
  type: "Python"
  bottom: "feat3"
  top: "data_lattice2"
  python_param {
    module: "custom_layers"
    layer: "PickAndScale"
    param_str: "0*12_1*12_2*12"
  }
}
layer {
  name: "conv4"
  type: "Permutohedral"
  bottom: "bn3"
  bottom: "data_lattice2"
  bottom: "data_lattice2"
  top: "conv4"
  param {
    lr_mult: 1
    decay_mult: 1
  }
  param {
    lr_mult: 2
    decay_mult: 0
  }
  permutohedral_param {
    num_output: 256
    neighborhood_size: 2
    filter_filler {
      type: "gaussian"
      std: 0.001
    }
    bias_term: true
    bias_filler {
      type: "constant"
      value: 0
    }
    group: 1
    norm_type: AFTER
    offset_type: NONE
  }
}
layer {
  name: "bn4"
  type: "BatchNorm"
  bottom: "conv4"
  top: "bn4"
}
layer {
  name: "relu4"
  type: "ReLU"
  bottom: "bn4"
  top: "bn4"
}
layer {
  name: "fconv4"
  type: "Convolution"
  bottom: "bn4"
  top: "fconv4"
  param {
    lr_mult: 1
  }
  param {
    lr_mult: 0.1
  }
  convolution_param {
    num_output: 3
    pad: 0
    kernel_size: 1
    stride: 1
    weight_filler {
      type: "xavier"
    }
    bias_filler {
      type: "constant"
      value: 0
    }
  }
}
layer {
  name: "fbn4"
  type: "BatchNorm"
  bottom: "fconv4"
  top: "fbn4"
}
layer {
  name: "frelu4"
  type: "ReLU"
  bottom: "fbn4"
  top: "fbn4"
}
layer {
  name: "feat4"
  type: "Eltwise"
  bottom: "data"
  bottom: "fbn4"
  top: "feat4"
  eltwise_param {
    operation: SUM
  }
}
layer {
  name: "data_lattice3"
  type: "Python"
  bottom: "feat4"
  top: "data_lattice3"
  python_param {
    module: "custom_layers"
    layer: "PickAndScale"
    param_str: "0*6_1*6_2*6"
  }
}
layer {
  name: "conv5"
  type: "Permutohedral"
  bottom: "bn4"
  bottom: "data_lattice3"
  bottom: "data_lattice3"
  top: "conv5"
  param {
    lr_mult: 1
    decay_mult: 1
  }
  param {
    lr_mult: 2
    decay_mult: 0
  }
  permutohedral_param {
    num_output: 256
    neighborhood_size: 2
    filter_filler {
      type: "gaussian"
      std: 0.001
    }
    bias_term: true
    bias_filler {
      type: "constant"
      value: 0
    }
    group: 1
    norm_type: AFTER
    offset_type: NONE
  }
}
layer {
  name: "bn5"
  type: "BatchNorm"
  bottom: "conv5"
  top: "bn5"
}
layer {
  name: "relu5"
  type: "ReLU"
  bottom: "bn5"
  top: "bn5"
}
layer {
  name: "fconv5"
  type: "Convolution"
  bottom: "bn5"
  top: "fconv5"
  param {
    lr_mult: 1
  }
  param {
    lr_mult: 0.1
  }
  convolution_param {
    num_output: 3
    pad: 0
    kernel_size: 1
    stride: 1
    weight_filler {
      type: "xavier"
    }
    bias_filler {
      type: "constant"
      value: 0
    }
  }
}
layer {
  name: "fbn5"
  type: "BatchNorm"
  bottom: "fconv5"
  top: "fbn5"
}
layer {
  name: "frelu5"
  type: "ReLU"
  bottom: "fbn5"
  top: "fbn5"
}
layer {
  name: "feat5"
  type: "Eltwise"
  bottom: "data"
  bottom: "fbn5"
  top: "feat5"
  eltwise_param {
    operation: SUM
  }
}
layer {
  name: "data_lattice4"
  type: "Python"
  bottom: "feat5"
  top: "data_lattice4"
  python_param {
    module: "custom_layers"
    layer: "PickAndScale"
    param_str: "0*3_1*3_2*3"
  }
}
layer {
  name: "conv6"
  type: "Permutohedral"
  bottom: "bn5"
  bottom: "data_lattice4"
  bottom: "data_lattice4"
  top: "conv6"
  param {
    lr_mult: 1
    decay_mult: 1
  }
  param {
    lr_mult: 2
    decay_mult: 0
  }
  permutohedral_param {
    num_output: 256
    neighborhood_size: 2
    filter_filler {
      type: "gaussian"
      std: 0.001
    }
    bias_term: true
    bias_filler {
      type: "constant"
      value: 0
    }
    group: 1
    norm_type: AFTER
    offset_type: NONE
  }
}
layer {
  name: "bn6"
  type: "BatchNorm"
  bottom: "conv6"
  top: "bn6"
}
layer {
  name: "relu6"
  type: "ReLU"
  bottom: "bn6"
  top: "bn6"
}
layer {
  name: "concat6"
  type: "Concat"
  bottom: "bn6"
  bottom: "bn2"
  bottom: "bn3"
  bottom: "bn4"
  bottom: "bn5"
  top: "concat6"
}
layer {
  name: "conv7"
  type: "Convolution"
  bottom: "concat6"
  top: "conv7"
  param {
    lr_mult: 1
  }
  param {
    lr_mult: 0.1
  }
  convolution_param {
    num_output: 128
    pad: 0
    kernel_size: 1
    stride: 1
    weight_filler {
      type: "xavier"
    }
    bias_filler {
      type: "constant"
      value: 0
    }
  }
}
layer {
  name: "bn7"
  type: "BatchNorm"
  bottom: "conv7"
  top: "bn7"
}
layer {
  name: "relu7"
  type: "ReLU"
  bottom: "bn7"
  top: "bn7"
}
layer {
  name: "conv8"
  type: "Convolution"
  bottom: "bn7"
  top: "conv8"
  param {
    lr_mult: 1
  }
  param {
    lr_mult: 0.1
  }
  convolution_param {
    num_output: 13
    pad: 0
    kernel_size: 1
    stride: 1
    weight_filler {
      type: "xavier"
    }
    bias_filler {
      type: "constant"
      value: 0
    }
  }
}
layer {
  name: "loss"
  type: "SoftmaxWithLoss"
  bottom: "conv8"
  bottom: "label"
  top: "loss"
}
layer {
  name: "accuracy"
  type: "Accuracy"
  bottom: "conv8"
  bottom: "label"
  top: "accuracy"
}
I0809 10:28:34.254374 29059 layer_factory.hpp:77] Creating layer data
I0809 10:28:34.279147 29059 net.cpp:84] Creating Layer data
I0809 10:28:34.279201 29059 net.cpp:380] data -> data
I0809 10:28:34.279340 29059 net.cpp:380] data -> label
I0809 10:28:34.573415 29065 upgrade_proto.cpp:1084] Attempting to upgrade input file specified using deprecated 'solver_type' field (enum)': /mnt/lustre/wangjiayun/repos/splatnet/exp/lidar3d/area6/6_solver.prototxt
…
I0809 10:28:34.634745 29063 upgrade_proto.cpp:1084] Attempting to upgrade input file specified using deprecated 'solver_type' field (enum)': /mnt/lustre/wangjiayun/repos/splatnet/exp/lidar3d/area6/6_solver.prototxt
I0809 10:28:34.634825 29063 upgrade_proto.cpp:1091] Successfully upgraded file specified using deprecated 'solver_type' field (enum) to 'type' field (string).
W0809 10:28:34.634832 29063 upgrade_proto.cpp:1093] Note that future Caffe releases will only support 'type' field (string) for a solver's type.
I0809 10:40:17.701702 29059 net.cpp:122] Setting up data
I0809 10:40:17.702386 29059 net.cpp:129] Top shape: 12 3 1 8192 (294912)
I0809 10:40:17.702405 29059 net.cpp:129] Top shape: 12 1 1 8192 (98304)
I0809 10:40:17.702409 29059 net.cpp:137] Memory required for data: 1572864
I0809 10:40:17.702472 29059 layer_factory.hpp:77] Creating layer data_data_0_split
I0809 10:40:17.702584 29059 net.cpp:84] Creating Layer data_data_0_split
I0809 10:40:17.702603 29059 net.cpp:406] data_data_0_split <- data
I0809 10:40:17.702649 29059 net.cpp:380] data_data_0_split -> data_data_0_split_0
I0809 10:40:17.702692 29059 net.cpp:380] data_data_0_split -> data_data_0_split_1
I0809 10:40:17.702704 29059 net.cpp:380] data_data_0_split -> data_data_0_split_2
I0809 10:40:17.702711 29059 net.cpp:380] data_data_0_split -> data_data_0_split_3
I0809 10:40:17.702716 29059 net.cpp:380] data_data_0_split -> data_data_0_split_4
I0809 10:40:17.702721 29059 net.cpp:380] data_data_0_split -> data_data_0_split_5
I0809 10:40:17.702826 29059 net.cpp:122] Setting up data_data_0_split
I0809 10:40:17.702836 29059 net.cpp:129] Top shape: 12 3 1 8192 (294912)
I0809 10:40:17.702841 29059 net.cpp:129] Top shape: 12 3 1 8192 (294912)
I0809 10:40:17.702844 29059 net.cpp:129] Top shape: 12 3 1 8192 (294912)
I0809 10:40:17.702848 29059 net.cpp:129] Top shape: 12 3 1 8192 (294912)
I0809 10:40:17.702852 29059 net.cpp:129] Top shape: 12 3 1 8192 (294912)
I0809 10:40:17.702855 29059 net.cpp:129] Top shape: 12 3 1 8192 (294912)
I0809 10:40:17.702857 29059 net.cpp:137] Memory required for data: 8650752
I0809 10:40:17.702862 29059 layer_factory.hpp:77] Creating layer label_data_1_split
I0809 10:40:17.702868 29059 net.cpp:84] Creating Layer label_data_1_split
I0809 10:40:17.702872 29059 net.cpp:406] label_data_1_split <- label
I0809 10:40:17.702877 29059 net.cpp:380] label_data_1_split -> label_data_1_split_0
I0809 10:40:17.702884 29059 net.cpp:380] label_data_1_split -> label_data_1_split_1
I0809 10:40:17.702914 29059 net.cpp:122] Setting up label_data_1_split
I0809 10:40:17.702921 29059 net.cpp:129] Top shape: 12 1 1 8192 (98304)
I0809 10:40:17.702925 29059 net.cpp:129] Top shape: 12 1 1 8192 (98304)
I0809 10:40:17.702929 29059 net.cpp:137] Memory required for data: 9437184
I0809 10:40:17.702931 29059 layer_factory.hpp:77] Creating layer data_feat
I0809 10:40:17.711318 29059 net.cpp:84] Creating Layer data_feat
I0809 10:40:17.711335 29059 net.cpp:406] data_feat <- data_data_0_split_0
I0809 10:40:17.711344 29059 net.cpp:380] data_feat -> data_feat
I0809 10:40:17.712929 29059 net.cpp:122] Setting up data_feat
I0809 10:40:17.712946 29059 net.cpp:129] Top shape: 12 3 1 8192 (294912)
I0809 10:40:17.712949 29059 net.cpp:137] Memory required for data: 10616832
I0809 10:40:17.712954 29059 layer_factory.hpp:77] Creating layer conv1
I0809 10:40:17.713013 29059 net.cpp:84] Creating Layer conv1
I0809 10:40:17.713021 29059 net.cpp:406] conv1 <- data_feat
I0809 10:40:17.713029 29059 net.cpp:380] conv1 -> conv1
I0809 10:40:23.125072 29059 net.cpp:122] Setting up conv1
I0809 10:40:23.125129 29059 net.cpp:129] Top shape: 12 32 1 8192 (3145728)
I0809 10:40:23.125140 29059 net.cpp:137] Memory required for data: 23199744
I0809 10:40:23.129493 29059 layer_factory.hpp:77] Creating layer bn1
I0809 10:40:23.130656 29059 net.cpp:84] Creating Layer bn1
I0809 10:40:23.130694 29059 net.cpp:406] bn1 <- conv1
I0809 10:40:23.130714 29059 net.cpp:380] bn1 -> bn1
I0809 10:40:23.150882 29059 net.cpp:122] Setting up bn1
I0809 10:40:23.150923 29059 net.cpp:129] Top shape: 12 32 1 8192 (3145728)
I0809 10:40:23.150933 29059 net.cpp:137] Memory required for data: 35782656
I0809 10:40:23.150960 29059 layer_factory.hpp:77] Creating layer relu1
I0809 10:40:23.151810 29059 net.cpp:84] Creating Layer relu1
I0809 10:40:23.151846 29059 net.cpp:406] relu1 <- bn1
I0809 10:40:23.151865 29059 net.cpp:367] relu1 -> bn1 (in-place)
I0809 10:40:23.167277 29059 net.cpp:122] Setting up relu1
I0809 10:40:23.167318 29059 net.cpp:129] Top shape: 12 32 1 8192 (3145728)
I0809 10:40:23.167328 29059 net.cpp:137] Memory required for data: 48365568
I0809 10:40:23.167338 29059 layer_factory.hpp:77] Creating layer bn1_relu1_0_split
I0809 10:40:23.167354 29059 net.cpp:84] Creating Layer bn1_relu1_0_split
I0809 10:40:23.167363 29059 net.cpp:406] bn1_relu1_0_split <- bn1
I0809 10:40:23.167378 29059 net.cpp:380] bn1_relu1_0_split -> bn1_relu1_0_split_0
I0809 10:40:23.167395 29059 net.cpp:380] bn1_relu1_0_split -> bn1_relu1_0_split_1
I0809 10:40:23.167508 29059 net.cpp:122] Setting up bn1_relu1_0_split
I0809 10:40:23.167529 29059 net.cpp:129] Top shape: 12 32 1 8192 (3145728)
I0809 10:40:23.167539 29059 net.cpp:129] Top shape: 12 32 1 8192 (3145728)
I0809 10:40:23.167546 29059 net.cpp:137] Memory required for data: 73531392
I0809 10:40:23.167558 29059 layer_factory.hpp:77] Creating layer fconv1
I0809 10:40:23.167585 29059 net.cpp:84] Creating Layer fconv1
I0809 10:40:23.167598 29059 net.cpp:406] fconv1 <- bn1_relu1_0_split_0
I0809 10:40:23.167614 29059 net.cpp:380] fconv1 -> fconv1
I0809 10:40:23.171667 29059 net.cpp:122] Setting up fconv1
I0809 10:40:23.171705 29059 net.cpp:129] Top shape: 12 3 1 8192 (294912)
I0809 10:40:23.171715 29059 net.cpp:137] Memory required for data: 74711040
I0809 10:40:23.171732 29059 layer_factory.hpp:77] Creating layer fbn1
I0809 10:40:23.171751 29059 net.cpp:84] Creating Layer fbn1
I0809 10:40:23.171761 29059 net.cpp:406] fbn1 <- fconv1
I0809 10:40:23.171775 29059 net.cpp:380] fbn1 -> fbn1
I0809 10:40:23.172220 29059 net.cpp:122] Setting up fbn1
I0809 10:40:23.172242 29059 net.cpp:129] Top shape: 12 3 1 8192 (294912)
I0809 10:40:23.172250 29059 net.cpp:137] Memory required for data: 75890688
I0809 10:40:23.172273 29059 layer_factory.hpp:77] Creating layer frelu1
I0809 10:40:23.172289 29059 net.cpp:84] Creating Layer frelu1
I0809 10:40:23.172298 29059 net.cpp:406] frelu1 <- fbn1
I0809 10:40:23.172310 29059 net.cpp:367] frelu1 -> fbn1 (in-place)
I0809 10:40:23.172963 29059 net.cpp:122] Setting up frelu1
I0809 10:40:23.172991 29059 net.cpp:129] Top shape: 12 3 1 8192 (294912)
I0809 10:40:23.172999 29059 net.cpp:137] Memory required for data: 77070336
I0809 10:40:23.173008 29059 layer_factory.hpp:77] Creating layer feat1
I0809 10:40:23.174023 29059 net.cpp:84] Creating Layer feat1
I0809 10:40:23.174058 29059 net.cpp:406] feat1 <- data_data_0_split_1
I0809 10:40:23.174074 29059 net.cpp:406] feat1 <- fbn1
I0809 10:40:23.174090 29059 net.cpp:380] feat1 -> feat1
I0809 10:40:23.174751 29059 net.cpp:122] Setting up feat1
I0809 10:40:23.174791 29059 net.cpp:129] Top shape: 12 3 1 8192 (294912)
I0809 10:40:23.174800 29059 net.cpp:137] Memory required for data: 78249984
I0809 10:40:23.174809 29059 layer_factory.hpp:77] Creating layer data_lattice0
I0809 10:40:23.174907 29059 net.cpp:84] Creating Layer data_lattice0
I0809 10:40:23.174927 29059 net.cpp:406] data_lattice0 <- feat1
I0809 10:40:23.174944 29059 net.cpp:380] data_lattice0 -> data_lattice0
I0809 10:40:23.177675 29059 net.cpp:122] Setting up data_lattice0
I0809 10:40:23.177711 29059 net.cpp:129] Top shape: 12 3 1 8192 (294912)
I0809 10:40:23.177721 29059 net.cpp:137] Memory required for data: 79429632
I0809 10:40:23.177729 29059 layer_factory.hpp:77] Creating layer data_lattice0_data_lattice0_0_split
I0809 10:40:23.177744 29059 net.cpp:84] Creating Layer data_lattice0_data_lattice0_0_split
I0809 10:40:23.177754 29059 net.cpp:406] data_lattice0_data_lattice0_0_split <- data_lattice0
I0809 10:40:23.177768 29059 net.cpp:380] data_lattice0_data_lattice0_0_split -> data_lattice0_data_lattice0_0_split_0
I0809 10:40:23.177785 29059 net.cpp:380] data_lattice0_data_lattice0_0_split -> data_lattice0_data_lattice0_0_split_1
I0809 10:40:23.177863 29059 net.cpp:122] Setting up data_lattice0_data_lattice0_0_split
I0809 10:40:23.177881 29059 net.cpp:129] Top shape: 12 3 1 8192 (294912)
I0809 10:40:23.177891 29059 net.cpp:129] Top shape: 12 3 1 8192 (294912)
I0809 10:40:23.177896 29059 net.cpp:137] Memory required for data: 81788928
I0809 10:40:23.177907 29059 layer_factory.hpp:77] Creating layer conv2
I0809 10:40:23.178454 29059 net.cpp:84] Creating Layer conv2
I0809 10:40:23.178486 29059 net.cpp:406] conv2 <- bn1_relu1_0_split_1
I0809 10:40:23.178503 29059 net.cpp:406] conv2 <- data_lattice0_data_lattice0_0_split_0
I0809 10:40:23.178511 29059 net.cpp:406] conv2 <- data_lattice0_data_lattice0_0_split_1
I0809 10:40:23.178524 29059 net.cpp:380] conv2 -> conv2
I0809 10:40:23.189204 29059 net.cpp:122] Setting up conv2
I0809 10:40:23.189242 29059 net.cpp:129] Top shape: 12 64 1 8192 (6291456)
I0809 10:40:23.189252 29059 net.cpp:137] Memory required for data: 106954752
I0809 10:40:23.189267 29059 layer_factory.hpp:77] Creating layer bn2
I0809 10:40:23.189281 29059 net.cpp:84] Creating Layer bn2
I0809 10:40:23.189291 29059 net.cpp:406] bn2 <- conv2
I0809 10:40:23.189303 29059 net.cpp:380] bn2 -> bn2
I0809 10:40:23.189743 29059 net.cpp:122] Setting up bn2
I0809 10:40:23.189764 29059 net.cpp:129] Top shape: 12 64 1 8192 (6291456)
I0809 10:40:23.189771 29059 net.cpp:137] Memory required for data: 132120576
I0809 10:40:23.189791 29059 layer_factory.hpp:77] Creating layer relu2
I0809 10:40:23.189810 29059 net.cpp:84] Creating Layer relu2
I0809 10:40:23.189817 29059 net.cpp:406] relu2 <- bn2
I0809 10:40:23.189828 29059 net.cpp:367] relu2 -> bn2 (in-place)
I0809 10:40:23.191435 29059 net.cpp:122] Setting up relu2
I0809 10:40:23.191479 29059 net.cpp:129] Top shape: 12 64 1 8192 (6291456)
I0809 10:40:23.191490 29059 net.cpp:137] Memory required for data: 157286400
I0809 10:40:23.191499 29059 layer_factory.hpp:77] Creating layer bn2_relu2_0_split
I0809 10:40:23.191514 29059 net.cpp:84] Creating Layer bn2_relu2_0_split
I0809 10:40:23.191522 29059 net.cpp:406] bn2_relu2_0_split <- bn2
I0809 10:40:23.191535 29059 net.cpp:380] bn2_relu2_0_split -> bn2_relu2_0_split_0
I0809 10:40:23.191550 29059 net.cpp:380] bn2_relu2_0_split -> bn2_relu2_0_split_1
I0809 10:40:23.191572 29059 net.cpp:380] bn2_relu2_0_split -> bn2_relu2_0_split_2
I0809 10:40:23.191684 29059 net.cpp:122] Setting up bn2_relu2_0_split
I0809 10:40:23.191702 29059 net.cpp:129] Top shape: 12 64 1 8192 (6291456)
I0809 10:40:23.191711 29059 net.cpp:129] Top shape: 12 64 1 8192 (6291456)
I0809 10:40:23.191720 29059 net.cpp:129] Top shape: 12 64 1 8192 (6291456)
I0809 10:40:23.191725 29059 net.cpp:137] Memory required for data: 232783872
I0809 10:40:23.191737 29059 layer_factory.hpp:77] Creating layer fconv2
I0809 10:40:23.191759 29059 net.cpp:84] Creating Layer fconv2
I0809 10:40:23.191771 29059 net.cpp:406] fconv2 <- bn2_relu2_0_split_0
I0809 10:40:23.191787 29059 net.cpp:380] fconv2 -> fconv2
I0809 10:40:23.194790 29059 net.cpp:122] Setting up fconv2
I0809 10:40:23.194824 29059 net.cpp:129] Top shape: 12 3 1 8192 (294912)
I0809 10:40:23.194833 29059 net.cpp:137] Memory required for data: 233963520
I0809 10:40:23.194857 29059 layer_factory.hpp:77] Creating layer fbn2
I0809 10:40:23.194871 29059 net.cpp:84] Creating Layer fbn2
I0809 10:40:23.194880 29059 net.cpp:406] fbn2 <- fconv2
I0809 10:40:23.194893 29059 net.cpp:380] fbn2 -> fbn2
I0809 10:40:23.195317 29059 net.cpp:122] Setting up fbn2
I0809 10:40:23.195336 29059 net.cpp:129] Top shape: 12 3 1 8192 (294912)
I0809 10:40:23.195343 29059 net.cpp:137] Memory required for data: 235143168
I0809 10:40:23.195358 29059 layer_factory.hpp:77] Creating layer frelu2
I0809 10:40:23.195370 29059 net.cpp:84] Creating Layer frelu2
I0809 10:40:23.195379 29059 net.cpp:406] frelu2 <- fbn2
I0809 10:40:23.195389 29059 net.cpp:367] frelu2 -> fbn2 (in-place)
I0809 10:40:23.195994 29059 net.cpp:122] Setting up frelu2
I0809 10:40:23.196020 29059 net.cpp:129] Top shape: 12 3 1 8192 (294912)
I0809 10:40:23.196028 29059 net.cpp:137] Memory required for data: 236322816
I0809 10:40:23.196036 29059 layer_factory.hpp:77] Creating layer feat2
I0809 10:40:23.196055 29059 net.cpp:84] Creating Layer feat2
I0809 10:40:23.196064 29059 net.cpp:406] feat2 <- data_data_0_split_2
I0809 10:40:23.196075 29059 net.cpp:406] feat2 <- fbn2
I0809 10:40:23.196086 29059 net.cpp:380] feat2 -> feat2
I0809 10:40:23.196146 29059 net.cpp:122] Setting up feat2
I0809 10:40:23.196162 29059 net.cpp:129] Top shape: 12 3 1 8192 (294912)
I0809 10:40:23.196168 29059 net.cpp:137] Memory required for data: 237502464
I0809 10:40:23.196177 29059 layer_factory.hpp:77] Creating layer data_lattice1
I0809 10:40:23.196240 29059 net.cpp:84] Creating Layer data_lattice1
I0809 10:40:23.196257 29059 net.cpp:406] data_lattice1 <- feat2
I0809 10:40:23.196271 29059 net.cpp:380] data_lattice1 -> data_lattice1
I0809 10:40:23.198745 29059 net.cpp:122] Setting up data_lattice1
I0809 10:40:23.198777 29059 net.cpp:129] Top shape: 12 3 1 8192 (294912)
I0809 10:40:23.198786 29059 net.cpp:137] Memory required for data: 238682112
I0809 10:40:23.198794 29059 layer_factory.hpp:77] Creating layer data_lattice1_data_lattice1_0_split
I0809 10:40:23.198807 29059 net.cpp:84] Creating Layer data_lattice1_data_lattice1_0_split
I0809 10:40:23.198817 29059 net.cpp:406] data_lattice1_data_lattice1_0_split <- data_lattice1
I0809 10:40:23.198828 29059 net.cpp:380] data_lattice1_data_lattice1_0_split -> data_lattice1_data_lattice1_0_split_0
I0809 10:40:23.198844 29059 net.cpp:380] data_lattice1_data_lattice1_0_split -> data_lattice1_data_lattice1_0_split_1
I0809 10:40:23.198920 29059 net.cpp:122] Setting up data_lattice1_data_lattice1_0_split
I0809 10:40:23.198937 29059 net.cpp:129] Top shape: 12 3 1 8192 (294912)
I0809 10:40:23.198945 29059 net.cpp:129] Top shape: 12 3 1 8192 (294912)
I0809 10:40:23.198951 29059 net.cpp:137] Memory required for data: 241041408
I0809 10:40:23.198957 29059 layer_factory.hpp:77] Creating layer conv3
I0809 10:40:23.198972 29059 net.cpp:84] Creating Layer conv3
I0809 10:40:23.198979 29059 net.cpp:406] conv3 <- bn2_relu2_0_split_1
I0809 10:40:23.198989 29059 net.cpp:406] conv3 <- data_lattice1_data_lattice1_0_split_0
I0809 10:40:23.198997 29059 net.cpp:406] conv3 <- data_lattice1_data_lattice1_0_split_1
I0809 10:40:23.199007 29059 net.cpp:380] conv3 -> conv3
I0809 10:40:23.231166 29059 net.cpp:122] Setting up conv3
I0809 10:40:23.231200 29059 net.cpp:129] Top shape: 12 128 1 8192 (12582912)
I0809 10:40:23.231207 29059 net.cpp:137] Memory required for data: 291373056
I0809 10:40:23.231220 29059 layer_factory.hpp:77] Creating layer bn3
I0809 10:40:23.231232 29059 net.cpp:84] Creating Layer bn3
I0809 10:40:23.231240 29059 net.cpp:406] bn3 <- conv3
I0809 10:40:23.231251 29059 net.cpp:380] bn3 -> bn3
I0809 10:40:23.231586 29059 net.cpp:122] Setting up bn3
I0809 10:40:23.231601 29059 net.cpp:129] Top shape: 12 128 1 8192 (12582912)
I0809 10:40:23.231607 29059 net.cpp:137] Memory required for data: 341704704
I0809 10:40:23.231623 29059 layer_factory.hpp:77] Creating layer relu3
I0809 10:40:23.231636 29059 net.cpp:84] Creating Layer relu3
I0809 10:40:23.231642 29059 net.cpp:406] relu3 <- bn3
I0809 10:40:23.231650 29059 net.cpp:367] relu3 -> bn3 (in-place)
I0809 10:40:23.232741 29059 net.cpp:122] Setting up relu3
I0809 10:40:23.232766 29059 net.cpp:129] Top shape: 12 128 1 8192 (12582912)
I0809 10:40:23.232774 29059 net.cpp:137] Memory required for data: 392036352
I0809 10:40:23.232780 29059 layer_factory.hpp:77] Creating layer bn3_relu3_0_split
I0809 10:40:23.232791 29059 net.cpp:84] Creating Layer bn3_relu3_0_split
I0809 10:40:23.232797 29059 net.cpp:406] bn3_relu3_0_split <- bn3
I0809 10:40:23.232808 29059 net.cpp:380] bn3_relu3_0_split -> bn3_relu3_0_split_0
I0809 10:40:23.232820 29059 net.cpp:380] bn3_relu3_0_split -> bn3_relu3_0_split_1
I0809 10:40:23.232830 29059 net.cpp:380] bn3_relu3_0_split -> bn3_relu3_0_split_2
I0809 10:40:23.232918 29059 net.cpp:122] Setting up bn3_relu3_0_split
I0809 10:40:23.232931 29059 net.cpp:129] Top shape: 12 128 1 8192 (12582912)
I0809 10:40:23.232939 29059 net.cpp:129] Top shape: 12 128 1 8192 (12582912)
I0809 10:40:23.232944 29059 net.cpp:129] Top shape: 12 128 1 8192 (12582912)
I0809 10:40:23.232949 29059 net.cpp:137] Memory required for data: 543031296
I0809 10:40:23.232954 29059 layer_factory.hpp:77] Creating layer fconv3
I0809 10:40:23.232971 29059 net.cpp:84] Creating Layer fconv3
I0809 10:40:23.232978 29059 net.cpp:406] fconv3 <- bn3_relu3_0_split_0
I0809 10:40:23.232990 29059 net.cpp:380] fconv3 -> fconv3
I0809 10:40:23.237218 29059 net.cpp:122] Setting up fconv3
I0809 10:40:23.237244 29059 net.cpp:129] Top shape: 12 3 1 8192 (294912)
I0809 10:40:23.237251 29059 net.cpp:137] Memory required for data: 544210944
I0809 10:40:23.237263 29059 layer_factory.hpp:77] Creating layer fbn3
I0809 10:40:23.237278 29059 net.cpp:84] Creating Layer fbn3
I0809 10:40:23.237285 29059 net.cpp:406] fbn3 <- fconv3
I0809 10:40:23.237296 29059 net.cpp:380] fbn3 -> fbn3
I0809 10:40:23.237624 29059 net.cpp:122] Setting up fbn3
I0809 10:40:23.237639 29059 net.cpp:129] Top shape: 12 3 1 8192 (294912)
I0809 10:40:23.237645 29059 net.cpp:137] Memory required for data: 545390592
I0809 10:40:23.237656 29059 layer_factory.hpp:77] Creating layer frelu3
I0809 10:40:23.237668 29059 net.cpp:84] Creating Layer frelu3
I0809 10:40:23.237674 29059 net.cpp:406] frelu3 <- fbn3
I0809 10:40:23.237682 29059 net.cpp:367] frelu3 -> fbn3 (in-place)
I0809 10:40:23.238133 29059 net.cpp:122] Setting up frelu3
I0809 10:40:23.238152 29059 net.cpp:129] Top shape: 12 3 1 8192 (294912)
I0809 10:40:23.238175 29059 net.cpp:137] Memory required for data: 546570240
I0809 10:40:23.238181 29059 layer_factory.hpp:77] Creating layer feat3
I0809 10:40:23.238194 29059 net.cpp:84] Creating Layer feat3
I0809 10:40:23.238201 29059 net.cpp:406] feat3 <- data_data_0_split_3
I0809 10:40:23.238210 29059 net.cpp:406] feat3 <- fbn3
I0809 10:40:23.238219 29059 net.cpp:380] feat3 -> feat3
I0809 10:40:23.238263 29059 net.cpp:122] Setting up feat3
I0809 10:40:23.238276 29059 net.cpp:129] Top shape: 12 3 1 8192 (294912)
I0809 10:40:23.238281 29059 net.cpp:137] Memory required for data: 547749888
I0809 10:40:23.238286 29059 layer_factory.hpp:77] Creating layer data_lattice2
I0809 10:40:23.238370 29059 net.cpp:84] Creating Layer data_lattice2
I0809 10:40:23.238384 29059 net.cpp:406] data_lattice2 <- feat3
I0809 10:40:23.238392 29059 net.cpp:380] data_lattice2 -> data_lattice2
I0809 10:40:23.240371 29059 net.cpp:122] Setting up data_lattice2
I0809 10:40:23.240396 29059 net.cpp:129] Top shape: 12 3 1 8192 (294912)
I0809 10:40:23.240403 29059 net.cpp:137] Memory required for data: 548929536
I0809 10:40:23.240409 29059 layer_factory.hpp:77] Creating layer data_lattice2_data_lattice2_0_split
I0809 10:40:23.240424 29059 net.cpp:84] Creating Layer data_lattice2_data_lattice2_0_split
I0809 10:40:23.240432 29059 net.cpp:406] data_lattice2_data_lattice2_0_split <- data_lattice2
I0809 10:40:23.240442 29059 net.cpp:380] data_lattice2_data_lattice2_0_split -> data_lattice2_data_lattice2_0_split_0
I0809 10:40:23.240454 29059 net.cpp:380] data_lattice2_data_lattice2_0_split -> data_lattice2_data_lattice2_0_split_1
I0809 10:40:23.240525 29059 net.cpp:122] Setting up data_lattice2_data_lattice2_0_split
I0809 10:40:23.240540 29059 net.cpp:129] Top shape: 12 3 1 8192 (294912)
I0809 10:40:23.240546 29059 net.cpp:129] Top shape: 12 3 1 8192 (294912)
I0809 10:40:23.240550 29059 net.cpp:137] Memory required for data: 551288832
I0809 10:40:23.240556 29059 layer_factory.hpp:77] Creating layer conv4
I0809 10:40:23.240567 29059 net.cpp:84] Creating Layer conv4
I0809 10:40:23.240573 29059 net.cpp:406] conv4 <- bn3_relu3_0_split_1
I0809 10:40:23.240581 29059 net.cpp:406] conv4 <- data_lattice2_data_lattice2_0_split_0
I0809 10:40:23.240588 29059 net.cpp:406] conv4 <- data_lattice2_data_lattice2_0_split_1
I0809 10:40:23.240597 29059 net.cpp:380] conv4 -> conv4
I0809 10:40:23.328568 29059 net.cpp:122] Setting up conv4
I0809 10:40:23.328611 29059 net.cpp:129] Top shape: 12 256 1 8192 (25165824)
I0809 10:40:23.328618 29059 net.cpp:137] Memory required for data: 651952128
I0809 10:40:23.328631 29059 layer_factory.hpp:77] Creating layer bn4
I0809 10:40:23.328646 29059 net.cpp:84] Creating Layer bn4
I0809 10:40:23.328655 29059 net.cpp:406] bn4 <- conv4
I0809 10:40:23.328665 29059 net.cpp:380] bn4 -> bn4
I0809 10:40:23.328909 29059 net.cpp:122] Setting up bn4
I0809 10:40:23.328920 29059 net.cpp:129] Top shape: 12 256 1 8192 (25165824)
I0809 10:40:23.328925 29059 net.cpp:137] Memory required for data: 752615424
I0809 10:40:23.328943 29059 layer_factory.hpp:77] Creating layer relu4
I0809 10:40:23.328953 29059 net.cpp:84] Creating Layer relu4
I0809 10:40:23.328956 29059 net.cpp:406] relu4 <- bn4
I0809 10:40:23.328963 29059 net.cpp:367] relu4 -> bn4 (in-place)
I0809 10:40:23.329951 29059 net.cpp:122] Setting up relu4
I0809 10:40:23.329968 29059 net.cpp:129] Top shape: 12 256 1 8192 (25165824)
I0809 10:40:23.329973 29059 net.cpp:137] Memory required for data: 853278720
I0809 10:40:23.329978 29059 layer_factory.hpp:77] Creating layer bn4_relu4_0_split
I0809 10:40:23.329991 29059 net.cpp:84] Creating Layer bn4_relu4_0_split
I0809 10:40:23.329996 29059 net.cpp:406] bn4_relu4_0_split <- bn4
I0809 10:40:23.330004 29059 net.cpp:380] bn4_relu4_0_split -> bn4_relu4_0_split_0
I0809 10:40:23.330013 29059 net.cpp:380] bn4_relu4_0_split -> bn4_relu4_0_split_1
I0809 10:40:23.330020 29059 net.cpp:380] bn4_relu4_0_split -> bn4_relu4_0_split_2
I0809 10:40:23.330085 29059 net.cpp:122] Setting up bn4_relu4_0_split
I0809 10:40:23.330093 29059 net.cpp:129] Top shape: 12 256 1 8192 (25165824)
I0809 10:40:23.330098 29059 net.cpp:129] Top shape: 12 256 1 8192 (25165824)
I0809 10:40:23.330102 29059 net.cpp:129] Top shape: 12 256 1 8192 (25165824)
I0809 10:40:23.330106 29059 net.cpp:137] Memory required for data: 1155268608
I0809 10:40:23.330111 29059 layer_factory.hpp:77] Creating layer fconv4
I0809 10:40:23.330127 29059 net.cpp:84] Creating Layer fconv4
I0809 10:40:23.330132 29059 net.cpp:406] fconv4 <- bn4_relu4_0_split_0
I0809 10:40:23.330142 29059 net.cpp:380] fconv4 -> fconv4
I0809 10:40:23.332569 29059 net.cpp:122] Setting up fconv4
I0809 10:40:23.332588 29059 net.cpp:129] Top shape: 12 3 1 8192 (294912)
I0809 10:40:23.332593 29059 net.cpp:137] Memory required for data: 1156448256
I0809 10:40:23.332602 29059 layer_factory.hpp:77] Creating layer fbn4
I0809 10:40:23.332610 29059 net.cpp:84] Creating Layer fbn4
I0809 10:40:23.332615 29059 net.cpp:406] fbn4 <- fconv4
I0809 10:40:23.332623 29059 net.cpp:380] fbn4 -> fbn4
I0809 10:40:23.332870 29059 net.cpp:122] Setting up fbn4
I0809 10:40:23.332881 29059 net.cpp:129] Top shape: 12 3 1 8192 (294912)
I0809 10:40:23.332885 29059 net.cpp:137] Memory required for data: 1157627904
I0809 10:40:23.332893 29059 layer_factory.hpp:77] Creating layer frelu4
I0809 10:40:23.332901 29059 net.cpp:84] Creating Layer frelu4
I0809 10:40:23.332906 29059 net.cpp:406] frelu4 <- fbn4
I0809 10:40:23.332911 29059 net.cpp:367] frelu4 -> fbn4 (in-place)
I0809 10:40:23.333242 29059 net.cpp:122] Setting up frelu4
I0809 10:40:23.333256 29059 net.cpp:129] Top shape: 12 3 1 8192 (294912)
I0809 10:40:23.333261 29059 net.cpp:137] Memory required for data: 1158807552
I0809 10:40:23.333267 29059 layer_factory.hpp:77] Creating layer feat4
I0809 10:40:23.333277 29059 net.cpp:84] Creating Layer feat4
I0809 10:40:23.333283 29059 net.cpp:406] feat4 <- data_data_0_split_4
I0809 10:40:23.333289 29059 net.cpp:406] feat4 <- fbn4
I0809 10:40:23.333297 29059 net.cpp:380] feat4 -> feat4
I0809 10:40:23.333329 29059 net.cpp:122] Setting up feat4
I0809 10:40:23.333336 29059 net.cpp:129] Top shape: 12 3 1 8192 (294912)
I0809 10:40:23.333340 29059 net.cpp:137] Memory required for data: 1159987200
I0809 10:40:23.333344 29059 layer_factory.hpp:77] Creating layer data_lattice3
I0809 10:40:23.333420 29059 net.cpp:84] Creating Layer data_lattice3
I0809 10:40:23.333429 29059 net.cpp:406] data_lattice3 <- feat4
I0809 10:40:23.333438 29059 net.cpp:380] data_lattice3 -> data_lattice3
I0809 10:40:23.335103 29059 net.cpp:122] Setting up data_lattice3
I0809 10:40:23.335122 29059 net.cpp:129] Top shape: 12 3 1 8192 (294912)
I0809 10:40:23.335127 29059 net.cpp:137] Memory required for data: 1161166848
I0809 10:40:23.335132 29059 layer_factory.hpp:77] Creating layer data_lattice3_data_lattice3_0_split
I0809 10:40:23.335140 29059 net.cpp:84] Creating Layer data_lattice3_data_lattice3_0_split
I0809 10:40:23.335145 29059 net.cpp:406] data_lattice3_data_lattice3_0_split <- data_lattice3
I0809 10:40:23.335153 29059 net.cpp:380] data_lattice3_data_lattice3_0_split -> data_lattice3_data_lattice3_0_split_0
I0809 10:40:23.335163 29059 net.cpp:380] data_lattice3_data_lattice3_0_split -> data_lattice3_data_lattice3_0_split_1
I0809 10:40:23.335209 29059 net.cpp:122] Setting up data_lattice3_data_lattice3_0_split
I0809 10:40:23.335219 29059 net.cpp:129] Top shape: 12 3 1 8192 (294912)
I0809 10:40:23.335224 29059 net.cpp:129] Top shape: 12 3 1 8192 (294912)
I0809 10:40:23.335228 29059 net.cpp:137] Memory required for data: 1163526144
I0809 10:40:23.335232 29059 layer_factory.hpp:77] Creating layer conv5
I0809 10:40:23.335242 29059 net.cpp:84] Creating Layer conv5
I0809 10:40:23.335247 29059 net.cpp:406] conv5 <- bn4_relu4_0_split_1
I0809 10:40:23.335252 29059 net.cpp:406] conv5 <- data_lattice3_data_lattice3_0_split_0
I0809 10:40:23.335256 29059 net.cpp:406] conv5 <- data_lattice3_data_lattice3_0_split_1
I0809 10:40:23.335263 29059 net.cpp:380] conv5 -> conv5
I0809 10:40:23.495340 29059 net.cpp:122] Setting up conv5
I0809 10:40:23.495388 29059 net.cpp:129] Top shape: 12 256 1 8192 (25165824)
I0809 10:40:23.495393 29059 net.cpp:137] Memory required for data: 1264189440
I0809 10:40:23.495416 29059 layer_factory.hpp:77] Creating layer bn5
I0809 10:40:23.495432 29059 net.cpp:84] Creating Layer bn5
I0809 10:40:23.495440 29059 net.cpp:406] bn5 <- conv5
I0809 10:40:23.495450 29059 net.cpp:380] bn5 -> bn5
I0809 10:40:23.496124 29059 net.cpp:122] Setting up bn5
I0809 10:40:23.496137 29059 net.cpp:129] Top shape: 12 256 1 8192 (25165824)
I0809 10:40:23.496141 29059 net.cpp:137] Memory required for data: 1364852736
I0809 10:40:23.496150 29059 layer_factory.hpp:77] Creating layer relu5
I0809 10:40:23.496160 29059 net.cpp:84] Creating Layer relu5
I0809 10:40:23.496163 29059 net.cpp:406] relu5 <- bn5
I0809 10:40:23.496170 29059 net.cpp:367] relu5 -> bn5 (in-place)
I0809 10:40:23.497246 29059 net.cpp:122] Setting up relu5
I0809 10:40:23.497264 29059 net.cpp:129] Top shape: 12 256 1 8192 (25165824)
I0809 10:40:23.497268 29059 net.cpp:137] Memory required for data: 1465516032
I0809 10:40:23.497273 29059 layer_factory.hpp:77] Creating layer bn5_relu5_0_split
I0809 10:40:23.497282 29059 net.cpp:84] Creating Layer bn5_relu5_0_split
I0809 10:40:23.497287 29059 net.cpp:406] bn5_relu5_0_split <- bn5
I0809 10:40:23.497295 29059 net.cpp:380] bn5_relu5_0_split -> bn5_relu5_0_split_0
I0809 10:40:23.497303 29059 net.cpp:380] bn5_relu5_0_split -> bn5_relu5_0_split_1
I0809 10:40:23.497310 29059 net.cpp:380] bn5_relu5_0_split -> bn5_relu5_0_split_2
I0809 10:40:23.497375 29059 net.cpp:122] Setting up bn5_relu5_0_split
I0809 10:40:23.497383 29059 net.cpp:129] Top shape: 12 256 1 8192 (25165824)
I0809 10:40:23.497390 29059 net.cpp:129] Top shape: 12 256 1 8192 (25165824)
I0809 10:40:23.497393 29059 net.cpp:129] Top shape: 12 256 1 8192 (25165824)
I0809 10:40:23.497396 29059 net.cpp:137] Memory required for data: 1767505920
I0809 10:40:23.497400 29059 layer_factory.hpp:77] Creating layer fconv5
I0809 10:40:23.497416 29059 net.cpp:84] Creating Layer fconv5
I0809 10:40:23.497421 29059 net.cpp:406] fconv5 <- bn5_relu5_0_split_0
I0809 10:40:23.497429 29059 net.cpp:380] fconv5 -> fconv5
I0809 10:40:23.499169 29059 net.cpp:122] Setting up fconv5
I0809 10:40:23.499187 29059 net.cpp:129] Top shape: 12 3 1 8192 (294912)
I0809 10:40:23.499192 29059 net.cpp:137] Memory required for data: 1768685568
I0809 10:40:23.499200 29059 layer_factory.hpp:77] Creating layer fbn5
I0809 10:40:23.499212 29059 net.cpp:84] Creating Layer fbn5
I0809 10:40:23.499217 29059 net.cpp:406] fbn5 <- fconv5
I0809 10:40:23.499225 29059 net.cpp:380] fbn5 -> fbn5
I0809 10:40:23.499475 29059 net.cpp:122] Setting up fbn5
I0809 10:40:23.499487 29059 net.cpp:129] Top shape: 12 3 1 8192 (294912)
I0809 10:40:23.499491 29059 net.cpp:137] Memory required for data: 1769865216
I0809 10:40:23.499500 29059 layer_factory.hpp:77] Creating layer frelu5
I0809 10:40:23.499507 29059 net.cpp:84] Creating Layer frelu5
I0809 10:40:23.499512 29059 net.cpp:406] frelu5 <- fbn5
I0809 10:40:23.499518 29059 net.cpp:367] frelu5 -> fbn5 (in-place)
I0809 10:40:23.500222 29059 net.cpp:122] Setting up frelu5
I0809 10:40:23.500239 29059 net.cpp:129] Top shape: 12 3 1 8192 (294912)
I0809 10:40:23.500244 29059 net.cpp:137] Memory required for data: 1771044864
I0809 10:40:23.500248 29059 layer_factory.hpp:77] Creating layer feat5
I0809 10:40:23.500259 29059 net.cpp:84] Creating Layer feat5
I0809 10:40:23.500264 29059 net.cpp:406] feat5 <- data_data_0_split_5
I0809 10:40:23.500270 29059 net.cpp:406] feat5 <- fbn5
I0809 10:40:23.500277 29059 net.cpp:380] feat5 -> feat5
I0809 10:40:23.500313 29059 net.cpp:122] Setting up feat5
I0809 10:40:23.500324 29059 net.cpp:129] Top shape: 12 3 1 8192 (294912)
I0809 10:40:23.500327 29059 net.cpp:137] Memory required for data: 1772224512
I0809 10:40:23.500331 29059 layer_factory.hpp:77] Creating layer data_lattice4
I0809 10:40:23.500411 29059 net.cpp:84] Creating Layer data_lattice4
I0809 10:40:23.500421 29059 net.cpp:406] data_lattice4 <- feat5
I0809 10:40:23.500429 29059 net.cpp:380] data_lattice4 -> data_lattice4
I0809 10:40:23.502287 29059 net.cpp:122] Setting up data_lattice4
I0809 10:40:23.502306 29059 net.cpp:129] Top shape: 12 3 1 8192 (294912)
I0809 10:40:23.502311 29059 net.cpp:137] Memory required for data: 1773404160
I0809 10:40:23.502315 29059 layer_factory.hpp:77] Creating layer data_lattice4_data_lattice4_0_split
I0809 10:40:23.502324 29059 net.cpp:84] Creating Layer data_lattice4_data_lattice4_0_split
I0809 10:40:23.502328 29059 net.cpp:406] data_lattice4_data_lattice4_0_split <- data_lattice4
I0809 10:40:23.502337 29059 net.cpp:380] data_lattice4_data_lattice4_0_split -> data_lattice4_data_lattice4_0_split_0
I0809 10:40:23.502346 29059 net.cpp:380] data_lattice4_data_lattice4_0_split -> data_lattice4_data_lattice4_0_split_1
I0809 10:40:23.502401 29059 net.cpp:122] Setting up data_lattice4_data_lattice4_0_split
I0809 10:40:23.502410 29059 net.cpp:129] Top shape: 12 3 1 8192 (294912)
I0809 10:40:23.502418 29059 net.cpp:129] Top shape: 12 3 1 8192 (294912)
I0809 10:40:23.502421 29059 net.cpp:137] Memory required for data: 1775763456
I0809 10:40:23.502426 29059 layer_factory.hpp:77] Creating layer conv6
I0809 10:40:23.502436 29059 net.cpp:84] Creating Layer conv6
I0809 10:40:23.502440 29059 net.cpp:406] conv6 <- bn5_relu5_0_split_1
I0809 10:40:23.502446 29059 net.cpp:406] conv6 <- data_lattice4_data_lattice4_0_split_0
I0809 10:40:23.502451 29059 net.cpp:406] conv6 <- data_lattice4_data_lattice4_0_split_1
I0809 10:40:23.502459 29059 net.cpp:380] conv6 -> conv6
I0809 10:40:23.662376 29059 net.cpp:122] Setting up conv6
I0809 10:40:23.662423 29059 net.cpp:129] Top shape: 12 256 1 8192 (25165824)
I0809 10:40:23.662430 29059 net.cpp:137] Memory required for data: 1876426752
I0809 10:40:23.662443 29059 layer_factory.hpp:77] Creating layer bn6
I0809 10:40:23.662458 29059 net.cpp:84] Creating Layer bn6
I0809 10:40:23.662470 29059 net.cpp:406] bn6 <- conv6
I0809 10:40:23.662483 29059 net.cpp:380] bn6 -> bn6
I0809 10:40:23.662744 29059 net.cpp:122] Setting up bn6
I0809 10:40:23.662755 29059 net.cpp:129] Top shape: 12 256 1 8192 (25165824)
I0809 10:40:23.662760 29059 net.cpp:137] Memory required for data: 1977090048
I0809 10:40:23.662768 29059 layer_factory.hpp:77] Creating layer relu6
I0809 10:40:23.662786 29059 net.cpp:84] Creating Layer relu6
I0809 10:40:23.662791 29059 net.cpp:406] relu6 <- bn6
I0809 10:40:23.662796 29059 net.cpp:367] relu6 -> bn6 (in-place)
I0809 10:40:23.663252 29059 net.cpp:122] Setting up relu6
I0809 10:40:23.663266 29059 net.cpp:129] Top shape: 12 256 1 8192 (25165824)
I0809 10:40:23.663270 29059 net.cpp:137] Memory required for data: 2077753344
I0809 10:40:23.663275 29059 layer_factory.hpp:77] Creating layer concat6
I0809 10:40:23.663368 29059 net.cpp:84] Creating Layer concat6
I0809 10:40:23.663378 29059 net.cpp:406] concat6 <- bn6
I0809 10:40:23.663385 29059 net.cpp:406] concat6 <- bn2_relu2_0_split_2
I0809 10:40:23.663390 29059 net.cpp:406] concat6 <- bn3_relu3_0_split_2
I0809 10:40:23.663396 29059 net.cpp:406] concat6 <- bn4_relu4_0_split_2
I0809 10:40:23.663400 29059 net.cpp:406] concat6 <- bn5_relu5_0_split_2
I0809 10:40:23.663406 29059 net.cpp:380] concat6 -> concat6
I0809 10:40:23.663475 29059 net.cpp:122] Setting up concat6
I0809 10:40:23.663489 29059 net.cpp:129] Top shape: 12 960 1 8192 (94371840)
I0809 10:40:23.663493 29059 net.cpp:137] Memory required for data: 2455240704
I0809 10:40:23.663499 29059 layer_factory.hpp:77] Creating layer conv7
I0809 10:40:23.663516 29059 net.cpp:84] Creating Layer conv7
I0809 10:40:23.663520 29059 net.cpp:406] conv7 <- concat6
I0809 10:40:23.663529 29059 net.cpp:380] conv7 -> conv7
I0809 10:40:23.667263 29059 net.cpp:122] Setting up conv7
I0809 10:40:23.667284 29059 net.cpp:129] Top shape: 12 128 1 8192 (12582912)
I0809 10:40:23.667289 29059 net.cpp:137] Memory required for data: 2505572352
I0809 10:40:23.667297 29059 layer_factory.hpp:77] Creating layer bn7
I0809 10:40:23.667306 29059 net.cpp:84] Creating Layer bn7
I0809 10:40:23.667311 29059 net.cpp:406] bn7 <- conv7
I0809 10:40:23.667320 29059 net.cpp:380] bn7 -> bn7
I0809 10:40:23.667577 29059 net.cpp:122] Setting up bn7
I0809 10:40:23.667589 29059 net.cpp:129] Top shape: 12 128 1 8192 (12582912)
I0809 10:40:23.667593 29059 net.cpp:137] Memory required for data: 2555904000
I0809 10:40:23.667603 29059 layer_factory.hpp:77] Creating layer relu7
I0809 10:40:23.667613 29059 net.cpp:84] Creating Layer relu7
I0809 10:40:23.667618 29059 net.cpp:406] relu7 <- bn7
I0809 10:40:23.667624 29059 net.cpp:367] relu7 -> bn7 (in-place)
I0809 10:40:23.668368 29059 net.cpp:122] Setting up relu7
I0809 10:40:23.668387 29059 net.cpp:129] Top shape: 12 128 1 8192 (12582912)
I0809 10:40:23.668392 29059 net.cpp:137] Memory required for data: 2606235648
I0809 10:40:23.668396 29059 layer_factory.hpp:77] Creating layer conv8
I0809 10:40:23.668411 29059 net.cpp:84] Creating Layer conv8
I0809 10:40:23.668416 29059 net.cpp:406] conv8 <- bn7
I0809 10:40:23.668426 29059 net.cpp:380] conv8 -> conv8
I0809 10:40:23.671660 29059 net.cpp:122] Setting up conv8
I0809 10:40:23.671679 29059 net.cpp:129] Top shape: 12 13 1 8192 (1277952)
I0809 10:40:23.671684 29059 net.cpp:137] Memory required for data: 2611347456
I0809 10:40:23.671692 29059 layer_factory.hpp:77] Creating layer conv8_conv8_0_split
I0809 10:40:23.671701 29059 net.cpp:84] Creating Layer conv8_conv8_0_split
I0809 10:40:23.671706 29059 net.cpp:406] conv8_conv8_0_split <- conv8
I0809 10:40:23.671715 29059 net.cpp:380] conv8_conv8_0_split -> conv8_conv8_0_split_0
I0809 10:40:23.671723 29059 net.cpp:380] conv8_conv8_0_split -> conv8_conv8_0_split_1
I0809 10:40:23.671772 29059 net.cpp:122] Setting up conv8_conv8_0_split
I0809 10:40:23.671782 29059 net.cpp:129] Top shape: 12 13 1 8192 (1277952)
I0809 10:40:23.671787 29059 net.cpp:129] Top shape: 12 13 1 8192 (1277952)
I0809 10:40:23.671790 29059 net.cpp:137] Memory required for data: 2621571072
I0809 10:40:23.671794 29059 layer_factory.hpp:77] Creating layer loss
I0809 10:40:23.671842 29059 net.cpp:84] Creating Layer loss
I0809 10:40:23.671854 29059 net.cpp:406] loss <- conv8_conv8_0_split_0
I0809 10:40:23.671860 29059 net.cpp:406] loss <- label_data_1_split_0
I0809 10:40:23.671869 29059 net.cpp:380] loss -> loss
…
