…
I0728 23:47:39.203179 30194 net.cpp:294] The NetState phase (0) differed from the phase (1) specified by a rule in layer data
I0728 23:47:39.203845 30194 net.cpp:51] Initializing net from parameters: 
state {
  phase: TRAIN
}
layer {
  name: "data"
  type: "Python"
  top: "data"
  top: "label"
  include {
    phase: TRAIN
  }
  python_param {
    module: "dataset_lidar"
    layer: "InputShapenet"
    param_str: "{\'sample_size\': 70000, \'test_area\': \'6\', \'batch_size\': 1, \'feat_dims\': \'x_y_z\', \'subset\': \'train\', \'root\': \'../../data/shapenet_ericyi_ply\', \'jitter_xyz\': 0.02, \'jitter_stretch\': 0.1, \'jitter_rotation\': 10.0}"
  }
}
layer {
  name: "data_feat"
  type: "Python"
  bottom: "data"
  top: "data_feat"
  python_param {
    module: "custom_layers"
    layer: "PickAndScale"
    param_str: "0_1_2"
  }
}
layer {
  name: "conv1"
  type: "Convolution"
  bottom: "data_feat"
  top: "conv1"
  param {
    lr_mult: 1
  }
  param {
    lr_mult: 0.1
  }
  convolution_param {
    num_output: 32
    pad: 0
    kernel_size: 1
    stride: 1
    weight_filler {
      type: "xavier"
    }
    bias_filler {
      type: "constant"
      value: 0
    }
  }
}
layer {
  name: "bn1"
  type: "BatchNorm"
  bottom: "conv1"
  top: "bn1"
}
layer {
  name: "relu1"
  type: "ReLU"
  bottom: "bn1"
  top: "bn1"
}
layer {
  name: "fconv1"
  type: "Convolution"
  bottom: "bn1"
  top: "fconv1"
  param {
    lr_mult: 0.5
  }
  param {
    lr_mult: 0.05
  }
  convolution_param {
    num_output: 3
    pad: 0
    kernel_size: 1
    stride: 1
    weight_filler {
      type: "xavier"
    }
    bias_filler {
      type: "constant"
      value: 0
    }
  }
}
layer {
  name: "fbn1"
  type: "BatchNorm"
  bottom: "fconv1"
  top: "fbn1"
}
layer {
  name: "frelu1"
  type: "ReLU"
  bottom: "fbn1"
  top: "fbn1"
}
layer {
  name: "data_lattice0"
  type: "Python"
  bottom: "data"
  top: "data_lattice0"
  python_param {
    module: "custom_layers"
    layer: "PickAndScale"
    param_str: "0*48_1*48_2*48"
  }
}
layer {
  name: "feat1"
  type: "Eltwise"
  bottom: "data_lattice0"
  bottom: "fbn1"
  top: "feat1"
  eltwise_param {
    operation: SUM
  }
}
layer {
  name: "conv2"
  type: "Permutohedral"
  bottom: "bn1"
  bottom: "feat1"
  bottom: "feat1"
  top: "conv2"
  param {
    lr_mult: 1
    decay_mult: 1
  }
  param {
    lr_mult: 2
    decay_mult: 0
  }
  permutohedral_param {
    num_output: 64
    neighborhood_size: 4
    filter_filler {
      type: "gaussian"
      std: 0.001
    }
    bias_term: true
    bias_filler {
      type: "constant"
      value: 0
    }
    group: 1
    norm_type: AFTER
    offset_type: NONE
  }
}
layer {
  name: "bn2"
  type: "BatchNorm"
  bottom: "conv2"
  top: "bn2"
}
layer {
  name: "relu2"
  type: "ReLU"
  bottom: "bn2"
  top: "bn2"
}
layer {
  name: "fconv2"
  type: "Convolution"
  bottom: "bn2"
  top: "fconv2"
  param {
    lr_mult: 0.5
  }
  param {
    lr_mult: 0.05
  }
  convolution_param {
    num_output: 3
    pad: 0
    kernel_size: 1
    stride: 1
    weight_filler {
      type: "xavier"
    }
    bias_filler {
      type: "constant"
      value: 0
    }
  }
}
layer {
  name: "fbn2"
  type: "BatchNorm"
  bottom: "fconv2"
  top: "fbn2"
}
layer {
  name: "frelu2"
  type: "ReLU"
  bottom: "fbn2"
  top: "fbn2"
}
layer {
  name: "data_lattice1"
  type: "Python"
  bottom: "data"
  top: "data_lattice1"
  python_param {
    module: "custom_layers"
    layer: "PickAndScale"
    param_str: "0*24_1*24_2*24"
  }
}
layer {
  name: "feat2"
  type: "Eltwise"
  bottom: "data_lattice1"
  bottom: "fbn2"
  top: "feat2"
  eltwise_param {
    operation: SUM
  }
}
layer {
  name: "conv3"
  type: "Permutohedral"
  bottom: "bn2"
  bottom: "feat2"
  bottom: "feat2"
  top: "conv3"
  param {
    lr_mult: 1
    decay_mult: 1
  }
  param {
    lr_mult: 2
    decay_mult: 0
  }
  permutohedral_param {
    num_output: 128
    neighborhood_size: 4
    filter_filler {
      type: "gaussian"
      std: 0.001
    }
    bias_term: true
    bias_filler {
      type: "constant"
      value: 0
    }
    group: 1
    norm_type: AFTER
    offset_type: NONE
  }
}
layer {
  name: "bn3"
  type: "BatchNorm"
  bottom: "conv3"
  top: "bn3"
}
layer {
  name: "relu3"
  type: "ReLU"
  bottom: "bn3"
  top: "bn3"
}
layer {
  name: "fconv3"
  type: "Convolution"
  bottom: "bn3"
  top: "fconv3"
  param {
    lr_mult: 0.5
  }
  param {
    lr_mult: 0.05
  }
  convolution_param {
    num_output: 3
    pad: 0
    kernel_size: 1
    stride: 1
    weight_filler {
      type: "xavier"
    }
    bias_filler {
      type: "constant"
      value: 0
    }
  }
}
layer {
  name: "fbn3"
  type: "BatchNorm"
  bottom: "fconv3"
  top: "fbn3"
}
layer {
  name: "frelu3"
  type: "ReLU"
  bottom: "fbn3"
  top: "fbn3"
}
layer {
  name: "data_lattice2"
  type: "Python"
  bottom: "data"
  top: "data_lattice2"
  python_param {
    module: "custom_layers"
    layer: "PickAndScale"
    param_str: "0*12_1*12_2*12"
  }
}
layer {
  name: "feat3"
  type: "Eltwise"
  bottom: "data_lattice2"
  bottom: "fbn3"
  top: "feat3"
  eltwise_param {
    operation: SUM
  }
}
layer {
  name: "conv4"
  type: "Permutohedral"
  bottom: "bn3"
  bottom: "feat3"
  bottom: "feat3"
  top: "conv4"
  param {
    lr_mult: 1
    decay_mult: 1
  }
  param {
    lr_mult: 2
    decay_mult: 0
  }
  permutohedral_param {
    num_output: 256
    neighborhood_size: 2
    filter_filler {
      type: "gaussian"
      std: 0.001
    }
    bias_term: true
    bias_filler {
      type: "constant"
      value: 0
    }
    group: 1
    norm_type: AFTER
    offset_type: NONE
  }
}
layer {
  name: "bn4"
  type: "BatchNorm"
  bottom: "conv4"
  top: "bn4"
}
layer {
  name: "relu4"
  type: "ReLU"
  bottom: "bn4"
  top: "bn4"
}
layer {
  name: "fconv4"
  type: "Convolution"
  bottom: "bn4"
  top: "fconv4"
  param {
    lr_mult: 0.5
  }
  param {
    lr_mult: 0.05
  }
  convolution_param {
    num_output: 3
    pad: 0
    kernel_size: 1
    stride: 1
    weight_filler {
      type: "xavier"
    }
    bias_filler {
      type: "constant"
      value: 0
    }
  }
}
layer {
  name: "fbn4"
  type: "BatchNorm"
  bottom: "fconv4"
  top: "fbn4"
}
layer {
  name: "frelu4"
  type: "ReLU"
  bottom: "fbn4"
  top: "fbn4"
}
layer {
  name: "data_lattice3"
  type: "Python"
  bottom: "data"
  top: "data_lattice3"
  python_param {
    module: "custom_layers"
    layer: "PickAndScale"
    param_str: "0*6_1*6_2*6"
  }
}
layer {
  name: "feat4"
  type: "Eltwise"
  bottom: "data_lattice3"
  bottom: "fbn4"
  top: "feat4"
  eltwise_param {
    operation: SUM
  }
}
layer {
  name: "conv5"
  type: "Permutohedral"
  bottom: "bn4"
  bottom: "feat4"
  bottom: "feat4"
  top: "conv5"
  param {
    lr_mult: 1
    decay_mult: 1
  }
  param {
    lr_mult: 2
    decay_mult: 0
  }
  permutohedral_param {
    num_output: 256
    neighborhood_size: 2
    filter_filler {
      type: "gaussian"
      std: 0.001
    }
    bias_term: true
    bias_filler {
      type: "constant"
      value: 0
    }
    group: 1
    norm_type: AFTER
    offset_type: NONE
  }
}
layer {
  name: "bn5"
  type: "BatchNorm"
  bottom: "conv5"
  top: "bn5"
}
layer {
  name: "relu5"
  type: "ReLU"
  bottom: "bn5"
  top: "bn5"
}
layer {
  name: "fconv5"
  type: "Convolution"
  bottom: "bn5"
  top: "fconv5"
  param {
    lr_mult: 0.5
  }
  param {
    lr_mult: 0.05
  }
  convolution_param {
    num_output: 3
    pad: 0
    kernel_size: 1
    stride: 1
    weight_filler {
      type: "xavier"
    }
    bias_filler {
      type: "constant"
      value: 0
    }
  }
}
layer {
  name: "fbn5"
  type: "BatchNorm"
  bottom: "fconv5"
  top: "fbn5"
}
layer {
  name: "frelu5"
  type: "ReLU"
  bottom: "fbn5"
  top: "fbn5"
}
layer {
  name: "data_lattice4"
  type: "Python"
  bottom: "data"
  top: "data_lattice4"
  python_param {
    module: "custom_layers"
    layer: "PickAndScale"
    param_str: "0*3_1*3_2*3"
  }
}
layer {
  name: "feat5"
  type: "Eltwise"
  bottom: "data_lattice4"
  bottom: "fbn5"
  top: "feat5"
  eltwise_param {
    operation: SUM
  }
}
layer {
  name: "conv6"
  type: "Permutohedral"
  bottom: "bn5"
  bottom: "feat5"
  bottom: "feat5"
  top: "conv6"
  param {
    lr_mult: 1
    decay_mult: 1
  }
  param {
    lr_mult: 2
    decay_mult: 0
  }
  permutohedral_param {
    num_output: 256
    neighborhood_size: 1
    filter_filler {
      type: "gaussian"
      std: 0.001
    }
    bias_term: true
    bias_filler {
      type: "constant"
      value: 0
    }
    group: 1
    norm_type: AFTER
    offset_type: NONE
  }
}
layer {
  name: "bn6"
  type: "BatchNorm"
  bottom: "conv6"
  top: "bn6"
}
layer {
  name: "relu6"
  type: "ReLU"
  bottom: "bn6"
  top: "bn6"
}
layer {
  name: "concat6"
  type: "Concat"
  bottom: "bn6"
  bottom: "bn2"
  bottom: "bn3"
  bottom: "bn4"
  bottom: "bn5"
  top: "concat6"
}
layer {
  name: "conv7"
  type: "Convolution"
  bottom: "concat6"
  top: "conv7"
  param {
    lr_mult: 1
  }
  param {
    lr_mult: 0.1
  }
  convolution_param {
    num_output: 128
    pad: 0
    kernel_size: 1
    stride: 1
    weight_filler {
      type: "xavier"
    }
    bias_filler {
      type: "constant"
      value: 0
    }
  }
}
layer {
  name: "bn7"
  type: "BatchNorm"
  bottom: "conv7"
  top: "bn7"
}
layer {
  name: "relu7"
  type: "ReLU"
  bottom: "bn7"
  top: "bn7"
}
layer {
  name: "conv8"
  type: "Convolution"
  bottom: "bn7"
  top: "conv8"
  param {
    lr_mult: 1
  }
  param {
    lr_mult: 0.1
  }
  convolution_param {
    num_output: 13
    pad: 0
    kernel_size: 1
    stride: 1
    weight_filler {
      type: "xavier"
    }
    bias_filler {
      type: "constant"
      value: 0
    }
  }
}
layer {
  name: "loss"
  type: "SoftmaxWithLoss"
  bottom: "conv8"
  bottom: "label"
  top: "loss"
}
layer {
  name: "accuracy"
  type: "Accuracy"
  bottom: "conv8"
  bottom: "label"
  top: "accuracy"
}
I0728 23:47:39.224205 30194 layer_factory.hpp:77] Creating layer data
I0728 23:47:39.259503 30194 net.cpp:84] Creating Layer data
I0728 23:47:39.259568 30194 net.cpp:380] data -> data
I0728 23:47:39.259696 30194 net.cpp:380] data -> label
I0728 23:47:39.808284 30196 upgrade_proto.cpp:1084] Attempting to upgrade input file specified using deprecated 'solver_type' field (enum)': /mnt/lustre/wangjiayun/repos/splatnet/exp/lidar3d/area6/6_solver.prototxt
…
I0728 23:47:39.867990 30198 upgrade_proto.cpp:1084] Attempting to upgrade input file specified using deprecated 'solver_type' field (enum)': /mnt/lustre/wangjiayun/repos/splatnet/exp/lidar3d/area6/6_solver.prototxt
I0728 23:47:39.868058 30198 upgrade_proto.cpp:1091] Successfully upgraded file specified using deprecated 'solver_type' field (enum) to 'type' field (string).
W0728 23:47:39.868065 30198 upgrade_proto.cpp:1093] Note that future Caffe releases will only support 'type' field (string) for a solver's type.
I0728 23:52:43.567281 30200 solver.cpp:190] Creating test net (#0) specified by test_net file: area6_netm_sum4_aug.prototxt
I0728 23:53:16.373744 30194 net.cpp:122] Setting up data
I0728 23:53:16.373860 30194 net.cpp:129] Top shape: 1 3 1 70000 (210000)
I0728 23:53:16.373868 30194 net.cpp:129] Top shape: 1 1 1 70000 (70000)
I0728 23:53:16.373872 30194 net.cpp:137] Memory required for data: 1120000
I0728 23:53:16.373919 30194 layer_factory.hpp:77] Creating layer data_data_0_split
I0728 23:53:16.374018 30194 net.cpp:84] Creating Layer data_data_0_split
I0728 23:53:16.374037 30194 net.cpp:406] data_data_0_split <- data
I0728 23:53:16.374074 30194 net.cpp:380] data_data_0_split -> data_data_0_split_0
I0728 23:53:16.374111 30194 net.cpp:380] data_data_0_split -> data_data_0_split_1
I0728 23:53:16.374121 30194 net.cpp:380] data_data_0_split -> data_data_0_split_2
I0728 23:53:16.374127 30194 net.cpp:380] data_data_0_split -> data_data_0_split_3
I0728 23:53:16.374131 30194 net.cpp:380] data_data_0_split -> data_data_0_split_4
I0728 23:53:16.374137 30194 net.cpp:380] data_data_0_split -> data_data_0_split_5
I0728 23:53:16.374215 30194 net.cpp:122] Setting up data_data_0_split
I0728 23:53:16.374225 30194 net.cpp:129] Top shape: 1 3 1 70000 (210000)
I0728 23:53:16.374229 30194 net.cpp:129] Top shape: 1 3 1 70000 (210000)
I0728 23:53:16.374233 30194 net.cpp:129] Top shape: 1 3 1 70000 (210000)
I0728 23:53:16.374236 30194 net.cpp:129] Top shape: 1 3 1 70000 (210000)
I0728 23:53:16.374240 30194 net.cpp:129] Top shape: 1 3 1 70000 (210000)
I0728 23:53:16.374243 30194 net.cpp:129] Top shape: 1 3 1 70000 (210000)
I0728 23:53:16.374246 30194 net.cpp:137] Memory required for data: 6160000
I0728 23:53:16.374250 30194 layer_factory.hpp:77] Creating layer label_data_1_split
I0728 23:53:16.374255 30194 net.cpp:84] Creating Layer label_data_1_split
I0728 23:53:16.374259 30194 net.cpp:406] label_data_1_split <- label
I0728 23:53:16.374264 30194 net.cpp:380] label_data_1_split -> label_data_1_split_0
I0728 23:53:16.374271 30194 net.cpp:380] label_data_1_split -> label_data_1_split_1
I0728 23:53:16.374296 30194 net.cpp:122] Setting up label_data_1_split
I0728 23:53:16.374303 30194 net.cpp:129] Top shape: 1 1 1 70000 (70000)
I0728 23:53:16.374307 30194 net.cpp:129] Top shape: 1 1 1 70000 (70000)
I0728 23:53:16.374310 30194 net.cpp:137] Memory required for data: 6720000
I0728 23:53:16.374312 30194 layer_factory.hpp:77] Creating layer data_feat
I0728 23:53:16.378736 30194 net.cpp:84] Creating Layer data_feat
I0728 23:53:16.378751 30194 net.cpp:406] data_feat <- data_data_0_split_0
I0728 23:53:16.378770 30194 net.cpp:380] data_feat -> data_feat
I0728 23:53:16.380213 30194 net.cpp:122] Setting up data_feat
I0728 23:53:16.380231 30194 net.cpp:129] Top shape: 1 3 1 70000 (210000)
I0728 23:53:16.380235 30194 net.cpp:137] Memory required for data: 7560000
I0728 23:53:16.380240 30194 layer_factory.hpp:77] Creating layer conv1
I0728 23:53:16.380308 30194 net.cpp:84] Creating Layer conv1
I0728 23:53:16.380318 30194 net.cpp:406] conv1 <- data_feat
I0728 23:53:16.380326 30194 net.cpp:380] conv1 -> conv1
I0728 23:53:16.952617 30196 solver.cpp:190] Creating test net (#0) specified by test_net file: area6_netm_sum4_aug.prototxt
I0728 23:53:16.959628 30194 net.cpp:122] Setting up conv1
I0728 23:53:16.959666 30194 net.cpp:129] Top shape: 1 32 1 70000 (2240000)
I0728 23:53:16.959671 30194 net.cpp:137] Memory required for data: 16520000
I0728 23:53:16.959718 30194 layer_factory.hpp:77] Creating layer bn1
I0728 23:53:16.959748 30194 net.cpp:84] Creating Layer bn1
I0728 23:53:16.959754 30194 net.cpp:406] bn1 <- conv1
I0728 23:53:16.959761 30194 net.cpp:380] bn1 -> bn1
I0728 23:53:16.960049 30194 net.cpp:122] Setting up bn1
I0728 23:53:16.960073 30194 net.cpp:129] Top shape: 1 32 1 70000 (2240000)
I0728 23:53:16.960077 30194 net.cpp:137] Memory required for data: 25480000
I0728 23:53:16.960098 30194 layer_factory.hpp:77] Creating layer relu1
I0728 23:53:16.960124 30194 net.cpp:84] Creating Layer relu1
I0728 23:53:16.960129 30194 net.cpp:406] relu1 <- bn1
I0728 23:53:16.960134 30194 net.cpp:367] relu1 -> bn1 (in-place)
I0728 23:53:16.960463 30194 net.cpp:122] Setting up relu1
I0728 23:53:16.960476 30194 net.cpp:129] Top shape: 1 32 1 70000 (2240000)
I0728 23:53:16.960491 30194 net.cpp:137] Memory required for data: 34440000
I0728 23:53:16.960497 30194 layer_factory.hpp:77] Creating layer bn1_relu1_0_split
I0728 23:53:16.960505 30194 net.cpp:84] Creating Layer bn1_relu1_0_split
I0728 23:53:16.960508 30194 net.cpp:406] bn1_relu1_0_split <- bn1
I0728 23:53:16.960513 30194 net.cpp:380] bn1_relu1_0_split -> bn1_relu1_0_split_0
I0728 23:53:16.960520 30194 net.cpp:380] bn1_relu1_0_split -> bn1_relu1_0_split_1
I0728 23:53:16.960561 30194 net.cpp:122] Setting up bn1_relu1_0_split
I0728 23:53:16.960568 30194 net.cpp:129] Top shape: 1 32 1 70000 (2240000)
I0728 23:53:16.960572 30194 net.cpp:129] Top shape: 1 32 1 70000 (2240000)
I0728 23:53:16.960575 30194 net.cpp:137] Memory required for data: 52360000
I0728 23:53:16.960578 30194 layer_factory.hpp:77] Creating layer fconv1
I0728 23:53:16.960590 30194 net.cpp:84] Creating Layer fconv1
I0728 23:53:16.960594 30194 net.cpp:406] fconv1 <- bn1_relu1_0_split_0
I0728 23:53:16.960602 30194 net.cpp:380] fconv1 -> fconv1
I0728 23:53:16.962829 30194 net.cpp:122] Setting up fconv1
I0728 23:53:16.962843 30194 net.cpp:129] Top shape: 1 3 1 70000 (210000)
I0728 23:53:16.962859 30194 net.cpp:137] Memory required for data: 53200000
I0728 23:53:16.962867 30194 layer_factory.hpp:77] Creating layer fbn1
I0728 23:53:16.962877 30194 net.cpp:84] Creating Layer fbn1
I0728 23:53:16.962880 30194 net.cpp:406] fbn1 <- fconv1
I0728 23:53:16.962887 30194 net.cpp:380] fbn1 -> fbn1
I0728 23:53:16.963135 30194 net.cpp:122] Setting up fbn1
I0728 23:53:16.963146 30194 net.cpp:129] Top shape: 1 3 1 70000 (210000)
I0728 23:53:16.963150 30194 net.cpp:137] Memory required for data: 54040000
I0728 23:53:16.963160 30194 layer_factory.hpp:77] Creating layer frelu1
I0728 23:53:16.963166 30194 net.cpp:84] Creating Layer frelu1
I0728 23:53:16.963171 30194 net.cpp:406] frelu1 <- fbn1
I0728 23:53:16.963176 30194 net.cpp:367] frelu1 -> fbn1 (in-place)
I0728 23:53:16.963465 30194 net.cpp:122] Setting up frelu1
I0728 23:53:16.963479 30194 net.cpp:129] Top shape: 1 3 1 70000 (210000)
I0728 23:53:16.963482 30194 net.cpp:137] Memory required for data: 54880000
I0728 23:53:16.963485 30194 layer_factory.hpp:77] Creating layer data_lattice0
I0728 23:53:16.963538 30194 net.cpp:84] Creating Layer data_lattice0
I0728 23:53:16.963546 30194 net.cpp:406] data_lattice0 <- data_data_0_split_1
I0728 23:53:16.963554 30194 net.cpp:380] data_lattice0 -> data_lattice0
I0728 23:53:16.964836 30194 net.cpp:122] Setting up data_lattice0
I0728 23:53:16.964850 30194 net.cpp:129] Top shape: 1 3 1 70000 (210000)
I0728 23:53:16.964866 30194 net.cpp:137] Memory required for data: 55720000
I0728 23:53:16.964870 30194 layer_factory.hpp:77] Creating layer feat1
I0728 23:53:16.964911 30194 net.cpp:84] Creating Layer feat1
I0728 23:53:16.964923 30194 net.cpp:406] feat1 <- data_lattice0
I0728 23:53:16.964929 30194 net.cpp:406] feat1 <- fbn1
I0728 23:53:16.964936 30194 net.cpp:380] feat1 -> feat1
I0728 23:53:16.964989 30194 net.cpp:122] Setting up feat1
I0728 23:53:16.964999 30194 net.cpp:129] Top shape: 1 3 1 70000 (210000)
I0728 23:53:16.965003 30194 net.cpp:137] Memory required for data: 56560000
I0728 23:53:16.965006 30194 layer_factory.hpp:77] Creating layer feat1_feat1_0_split
I0728 23:53:16.965013 30194 net.cpp:84] Creating Layer feat1_feat1_0_split
I0728 23:53:16.965016 30194 net.cpp:406] feat1_feat1_0_split <- feat1
I0728 23:53:16.965023 30194 net.cpp:380] feat1_feat1_0_split -> feat1_feat1_0_split_0
I0728 23:53:16.965029 30194 net.cpp:380] feat1_feat1_0_split -> feat1_feat1_0_split_1
I0728 23:53:16.965062 30194 net.cpp:122] Setting up feat1_feat1_0_split
I0728 23:53:16.965068 30194 net.cpp:129] Top shape: 1 3 1 70000 (210000)
I0728 23:53:16.965072 30194 net.cpp:129] Top shape: 1 3 1 70000 (210000)
I0728 23:53:16.965075 30194 net.cpp:137] Memory required for data: 58240000
I0728 23:53:16.965078 30194 layer_factory.hpp:77] Creating layer conv2
I0728 23:53:16.965103 30194 net.cpp:84] Creating Layer conv2
I0728 23:53:16.965111 30194 net.cpp:406] conv2 <- bn1_relu1_0_split_1
I0728 23:53:16.965116 30194 net.cpp:406] conv2 <- feat1_feat1_0_split_0
I0728 23:53:16.965121 30194 net.cpp:406] conv2 <- feat1_feat1_0_split_1
I0728 23:53:16.965126 30194 net.cpp:380] conv2 -> conv2
I0728 23:53:16.989014 30194 net.cpp:122] Setting up conv2
I0728 23:53:16.989063 30194 net.cpp:129] Top shape: 1 64 1 70000 (4480000)
I0728 23:53:16.989068 30194 net.cpp:137] Memory required for data: 76160000
I0728 23:53:16.989079 30194 layer_factory.hpp:77] Creating layer bn2
I0728 23:53:16.989091 30194 net.cpp:84] Creating Layer bn2
I0728 23:53:16.989096 30194 net.cpp:406] bn2 <- conv2
I0728 23:53:16.989105 30194 net.cpp:380] bn2 -> bn2
I0728 23:53:16.989388 30194 net.cpp:122] Setting up bn2
I0728 23:53:16.989398 30194 net.cpp:129] Top shape: 1 64 1 70000 (4480000)
I0728 23:53:16.989401 30194 net.cpp:137] Memory required for data: 94080000
I0728 23:53:16.989409 30194 layer_factory.hpp:77] Creating layer relu2
I0728 23:53:16.989424 30194 net.cpp:84] Creating Layer relu2
I0728 23:53:16.989428 30194 net.cpp:406] relu2 <- bn2
I0728 23:53:16.989434 30194 net.cpp:367] relu2 -> bn2 (in-place)
I0728 23:53:16.990299 30194 net.cpp:122] Setting up relu2
I0728 23:53:16.990314 30194 net.cpp:129] Top shape: 1 64 1 70000 (4480000)
I0728 23:53:16.990330 30194 net.cpp:137] Memory required for data: 112000000
I0728 23:53:16.990336 30194 layer_factory.hpp:77] Creating layer bn2_relu2_0_split
I0728 23:53:16.990350 30194 net.cpp:84] Creating Layer bn2_relu2_0_split
I0728 23:53:16.990355 30194 net.cpp:406] bn2_relu2_0_split <- bn2
I0728 23:53:16.990360 30194 net.cpp:380] bn2_relu2_0_split -> bn2_relu2_0_split_0
I0728 23:53:16.990368 30194 net.cpp:380] bn2_relu2_0_split -> bn2_relu2_0_split_1
I0728 23:53:16.990375 30194 net.cpp:380] bn2_relu2_0_split -> bn2_relu2_0_split_2
I0728 23:53:16.990424 30194 net.cpp:122] Setting up bn2_relu2_0_split
I0728 23:53:16.990432 30194 net.cpp:129] Top shape: 1 64 1 70000 (4480000)
I0728 23:53:16.990435 30194 net.cpp:129] Top shape: 1 64 1 70000 (4480000)
I0728 23:53:16.990438 30194 net.cpp:129] Top shape: 1 64 1 70000 (4480000)
I0728 23:53:16.990442 30194 net.cpp:137] Memory required for data: 165760000
I0728 23:53:16.990444 30194 layer_factory.hpp:77] Creating layer fconv2
I0728 23:53:16.990456 30194 net.cpp:84] Creating Layer fconv2
I0728 23:53:16.990460 30194 net.cpp:406] fconv2 <- bn2_relu2_0_split_0
I0728 23:53:16.990468 30194 net.cpp:380] fconv2 -> fconv2
I0728 23:53:16.992223 30194 net.cpp:122] Setting up fconv2
I0728 23:53:16.992238 30194 net.cpp:129] Top shape: 1 3 1 70000 (210000)
I0728 23:53:16.992254 30194 net.cpp:137] Memory required for data: 166600000
I0728 23:53:16.992266 30194 layer_factory.hpp:77] Creating layer fbn2
I0728 23:53:16.992274 30194 net.cpp:84] Creating Layer fbn2
I0728 23:53:16.992280 30194 net.cpp:406] fbn2 <- fconv2
I0728 23:53:16.992285 30194 net.cpp:380] fbn2 -> fbn2
I0728 23:53:16.992557 30194 net.cpp:122] Setting up fbn2
I0728 23:53:16.992568 30194 net.cpp:129] Top shape: 1 3 1 70000 (210000)
I0728 23:53:16.992570 30194 net.cpp:137] Memory required for data: 167440000
I0728 23:53:16.992578 30194 layer_factory.hpp:77] Creating layer frelu2
I0728 23:53:16.992588 30194 net.cpp:84] Creating Layer frelu2
I0728 23:53:16.992591 30194 net.cpp:406] frelu2 <- fbn2
I0728 23:53:16.992596 30194 net.cpp:367] frelu2 -> fbn2 (in-place)
I0728 23:53:16.992880 30194 net.cpp:122] Setting up frelu2
I0728 23:53:16.992892 30194 net.cpp:129] Top shape: 1 3 1 70000 (210000)
I0728 23:53:16.992895 30194 net.cpp:137] Memory required for data: 168280000
I0728 23:53:16.992900 30194 layer_factory.hpp:77] Creating layer data_lattice1
I0728 23:53:16.992966 30194 net.cpp:84] Creating Layer data_lattice1
I0728 23:53:16.992974 30194 net.cpp:406] data_lattice1 <- data_data_0_split_2
I0728 23:53:16.992981 30194 net.cpp:380] data_lattice1 -> data_lattice1
I0728 23:53:16.994279 30194 net.cpp:122] Setting up data_lattice1
I0728 23:53:16.994293 30194 net.cpp:129] Top shape: 1 3 1 70000 (210000)
I0728 23:53:16.994310 30194 net.cpp:137] Memory required for data: 169120000
I0728 23:53:16.994313 30194 layer_factory.hpp:77] Creating layer feat2
I0728 23:53:16.994323 30194 net.cpp:84] Creating Layer feat2
I0728 23:53:16.994326 30194 net.cpp:406] feat2 <- data_lattice1
I0728 23:53:16.994333 30194 net.cpp:406] feat2 <- fbn2
I0728 23:53:16.994338 30194 net.cpp:380] feat2 -> feat2
I0728 23:53:16.994374 30194 net.cpp:122] Setting up feat2
I0728 23:53:16.994380 30194 net.cpp:129] Top shape: 1 3 1 70000 (210000)
I0728 23:53:16.994382 30194 net.cpp:137] Memory required for data: 169960000
I0728 23:53:16.994385 30194 layer_factory.hpp:77] Creating layer feat2_feat2_0_split
I0728 23:53:16.994391 30194 net.cpp:84] Creating Layer feat2_feat2_0_split
I0728 23:53:16.994395 30194 net.cpp:406] feat2_feat2_0_split <- feat2
I0728 23:53:16.994400 30194 net.cpp:380] feat2_feat2_0_split -> feat2_feat2_0_split_0
I0728 23:53:16.994405 30194 net.cpp:380] feat2_feat2_0_split -> feat2_feat2_0_split_1
I0728 23:53:16.994437 30194 net.cpp:122] Setting up feat2_feat2_0_split
I0728 23:53:16.994446 30194 net.cpp:129] Top shape: 1 3 1 70000 (210000)
I0728 23:53:16.994448 30194 net.cpp:129] Top shape: 1 3 1 70000 (210000)
I0728 23:53:16.994451 30194 net.cpp:137] Memory required for data: 171640000
I0728 23:53:16.994454 30194 layer_factory.hpp:77] Creating layer conv3
I0728 23:53:16.994465 30194 net.cpp:84] Creating Layer conv3
I0728 23:53:16.994469 30194 net.cpp:406] conv3 <- bn2_relu2_0_split_1
I0728 23:53:16.994474 30194 net.cpp:406] conv3 <- feat2_feat2_0_split_0
I0728 23:53:16.994477 30194 net.cpp:406] conv3 <- feat2_feat2_0_split_1
I0728 23:53:16.994483 30194 net.cpp:380] conv3 -> conv3
I0728 23:53:17.088908 30194 net.cpp:122] Setting up conv3
I0728 23:53:17.088963 30194 net.cpp:129] Top shape: 1 128 1 70000 (8960000)
I0728 23:53:17.088968 30194 net.cpp:137] Memory required for data: 207480000
I0728 23:53:17.088989 30194 layer_factory.hpp:77] Creating layer bn3
I0728 23:53:17.089001 30194 net.cpp:84] Creating Layer bn3
I0728 23:53:17.089006 30194 net.cpp:406] bn3 <- conv3
I0728 23:53:17.089026 30194 net.cpp:380] bn3 -> bn3
I0728 23:53:17.089321 30194 net.cpp:122] Setting up bn3
I0728 23:53:17.089332 30194 net.cpp:129] Top shape: 1 128 1 70000 (8960000)
I0728 23:53:17.089335 30194 net.cpp:137] Memory required for data: 243320000
I0728 23:53:17.089349 30194 layer_factory.hpp:77] Creating layer relu3
I0728 23:53:17.089356 30194 net.cpp:84] Creating Layer relu3
I0728 23:53:17.089359 30194 net.cpp:406] relu3 <- bn3
I0728 23:53:17.089365 30194 net.cpp:367] relu3 -> bn3 (in-place)
I0728 23:53:17.090340 30194 net.cpp:122] Setting up relu3
I0728 23:53:17.090363 30194 net.cpp:129] Top shape: 1 128 1 70000 (8960000)
I0728 23:53:17.090366 30194 net.cpp:137] Memory required for data: 279160000
I0728 23:53:17.090371 30194 layer_factory.hpp:77] Creating layer bn3_relu3_0_split
I0728 23:53:17.090379 30194 net.cpp:84] Creating Layer bn3_relu3_0_split
I0728 23:53:17.090384 30194 net.cpp:406] bn3_relu3_0_split <- bn3
I0728 23:53:17.090389 30194 net.cpp:380] bn3_relu3_0_split -> bn3_relu3_0_split_0
I0728 23:53:17.090397 30194 net.cpp:380] bn3_relu3_0_split -> bn3_relu3_0_split_1
I0728 23:53:17.090404 30194 net.cpp:380] bn3_relu3_0_split -> bn3_relu3_0_split_2
I0728 23:53:17.090459 30194 net.cpp:122] Setting up bn3_relu3_0_split
I0728 23:53:17.090467 30194 net.cpp:129] Top shape: 1 128 1 70000 (8960000)
I0728 23:53:17.090472 30194 net.cpp:129] Top shape: 1 128 1 70000 (8960000)
I0728 23:53:17.090476 30194 net.cpp:129] Top shape: 1 128 1 70000 (8960000)
I0728 23:53:17.090478 30194 net.cpp:137] Memory required for data: 386680000
I0728 23:53:17.090482 30194 layer_factory.hpp:77] Creating layer fconv3
I0728 23:53:17.090497 30194 net.cpp:84] Creating Layer fconv3
I0728 23:53:17.090502 30194 net.cpp:406] fconv3 <- bn3_relu3_0_split_0
I0728 23:53:17.090509 30194 net.cpp:380] fconv3 -> fconv3
I0728 23:53:17.094355 30194 net.cpp:122] Setting up fconv3
I0728 23:53:17.094395 30194 net.cpp:129] Top shape: 1 3 1 70000 (210000)
I0728 23:53:17.094399 30194 net.cpp:137] Memory required for data: 387520000
I0728 23:53:17.094414 30194 layer_factory.hpp:77] Creating layer fbn3
I0728 23:53:17.094424 30194 net.cpp:84] Creating Layer fbn3
I0728 23:53:17.094430 30194 net.cpp:406] fbn3 <- fconv3
I0728 23:53:17.094439 30194 net.cpp:380] fbn3 -> fbn3
I0728 23:53:17.094730 30194 net.cpp:122] Setting up fbn3
I0728 23:53:17.094740 30194 net.cpp:129] Top shape: 1 3 1 70000 (210000)
I0728 23:53:17.094744 30194 net.cpp:137] Memory required for data: 388360000
I0728 23:53:17.094753 30194 layer_factory.hpp:77] Creating layer frelu3
I0728 23:53:17.094759 30194 net.cpp:84] Creating Layer frelu3
I0728 23:53:17.094763 30194 net.cpp:406] frelu3 <- fbn3
I0728 23:53:17.094769 30194 net.cpp:367] frelu3 -> fbn3 (in-place)
I0728 23:53:17.095067 30194 net.cpp:122] Setting up frelu3
I0728 23:53:17.095089 30194 net.cpp:129] Top shape: 1 3 1 70000 (210000)
I0728 23:53:17.095104 30194 net.cpp:137] Memory required for data: 389200000
I0728 23:53:17.095108 30194 layer_factory.hpp:77] Creating layer data_lattice2
I0728 23:53:17.095182 30194 net.cpp:84] Creating Layer data_lattice2
I0728 23:53:17.095191 30194 net.cpp:406] data_lattice2 <- data_data_0_split_3
I0728 23:53:17.095198 30194 net.cpp:380] data_lattice2 -> data_lattice2
I0728 23:53:17.096650 30194 net.cpp:122] Setting up data_lattice2
I0728 23:53:17.096681 30194 net.cpp:129] Top shape: 1 3 1 70000 (210000)
I0728 23:53:17.096686 30194 net.cpp:137] Memory required for data: 390040000
I0728 23:53:17.096700 30194 layer_factory.hpp:77] Creating layer feat3
I0728 23:53:17.096716 30194 net.cpp:84] Creating Layer feat3
I0728 23:53:17.096721 30194 net.cpp:406] feat3 <- data_lattice2
I0728 23:53:17.096727 30194 net.cpp:406] feat3 <- fbn3
I0728 23:53:17.096735 30194 net.cpp:380] feat3 -> feat3
I0728 23:53:17.096768 30194 net.cpp:122] Setting up feat3
I0728 23:53:17.096774 30194 net.cpp:129] Top shape: 1 3 1 70000 (210000)
I0728 23:53:17.096778 30194 net.cpp:137] Memory required for data: 390880000
I0728 23:53:17.096784 30194 layer_factory.hpp:77] Creating layer feat3_feat3_0_split
I0728 23:53:17.096792 30194 net.cpp:84] Creating Layer feat3_feat3_0_split
I0728 23:53:17.096796 30194 net.cpp:406] feat3_feat3_0_split <- feat3
I0728 23:53:17.096801 30194 net.cpp:380] feat3_feat3_0_split -> feat3_feat3_0_split_0
I0728 23:53:17.096807 30194 net.cpp:380] feat3_feat3_0_split -> feat3_feat3_0_split_1
I0728 23:53:17.096840 30194 net.cpp:122] Setting up feat3_feat3_0_split
I0728 23:53:17.096848 30194 net.cpp:129] Top shape: 1 3 1 70000 (210000)
I0728 23:53:17.096851 30194 net.cpp:129] Top shape: 1 3 1 70000 (210000)
I0728 23:53:17.096854 30194 net.cpp:137] Memory required for data: 392560000
I0728 23:53:17.096858 30194 layer_factory.hpp:77] Creating layer conv4
I0728 23:53:17.096866 30194 net.cpp:84] Creating Layer conv4
I0728 23:53:17.096871 30194 net.cpp:406] conv4 <- bn3_relu3_0_split_1
I0728 23:53:17.096876 30194 net.cpp:406] conv4 <- feat3_feat3_0_split_0
I0728 23:53:17.096879 30194 net.cpp:406] conv4 <- feat3_feat3_0_split_1
I0728 23:53:17.096885 30194 net.cpp:380] conv4 -> conv4
I0728 23:53:17.166127 30194 net.cpp:122] Setting up conv4
I0728 23:53:17.166182 30194 net.cpp:129] Top shape: 1 256 1 70000 (17920000)
I0728 23:53:17.166187 30194 net.cpp:137] Memory required for data: 464240000
I0728 23:53:17.166198 30194 layer_factory.hpp:77] Creating layer bn4
I0728 23:53:17.166211 30194 net.cpp:84] Creating Layer bn4
I0728 23:53:17.166216 30194 net.cpp:406] bn4 <- conv4
I0728 23:53:17.166224 30194 net.cpp:380] bn4 -> bn4
I0728 23:53:17.166512 30194 net.cpp:122] Setting up bn4
I0728 23:53:17.166522 30194 net.cpp:129] Top shape: 1 256 1 70000 (17920000)
I0728 23:53:17.166524 30194 net.cpp:137] Memory required for data: 535920000
I0728 23:53:17.166540 30194 layer_factory.hpp:77] Creating layer relu4
I0728 23:53:17.166555 30194 net.cpp:84] Creating Layer relu4
I0728 23:53:17.166559 30194 net.cpp:406] relu4 <- bn4
I0728 23:53:17.166564 30194 net.cpp:367] relu4 -> bn4 (in-place)
I0728 23:53:17.167608 30194 net.cpp:122] Setting up relu4
I0728 23:53:17.167626 30194 net.cpp:129] Top shape: 1 256 1 70000 (17920000)
I0728 23:53:17.167631 30194 net.cpp:137] Memory required for data: 607600000
I0728 23:53:17.167637 30194 layer_factory.hpp:77] Creating layer bn4_relu4_0_split
I0728 23:53:17.167645 30194 net.cpp:84] Creating Layer bn4_relu4_0_split
I0728 23:53:17.167649 30194 net.cpp:406] bn4_relu4_0_split <- bn4
I0728 23:53:17.167656 30194 net.cpp:380] bn4_relu4_0_split -> bn4_relu4_0_split_0
I0728 23:53:17.167663 30194 net.cpp:380] bn4_relu4_0_split -> bn4_relu4_0_split_1
I0728 23:53:17.167670 30194 net.cpp:380] bn4_relu4_0_split -> bn4_relu4_0_split_2
I0728 23:53:17.167743 30194 net.cpp:122] Setting up bn4_relu4_0_split
I0728 23:53:17.167752 30194 net.cpp:129] Top shape: 1 256 1 70000 (17920000)
I0728 23:53:17.167755 30194 net.cpp:129] Top shape: 1 256 1 70000 (17920000)
I0728 23:53:17.167759 30194 net.cpp:129] Top shape: 1 256 1 70000 (17920000)
I0728 23:53:17.167762 30194 net.cpp:137] Memory required for data: 822640000
I0728 23:53:17.167765 30194 layer_factory.hpp:77] Creating layer fconv4
I0728 23:53:17.167778 30194 net.cpp:84] Creating Layer fconv4
I0728 23:53:17.167780 30194 net.cpp:406] fconv4 <- bn4_relu4_0_split_0
I0728 23:53:17.167788 30194 net.cpp:380] fconv4 -> fconv4
I0728 23:53:17.169632 30194 net.cpp:122] Setting up fconv4
I0728 23:53:17.169659 30194 net.cpp:129] Top shape: 1 3 1 70000 (210000)
I0728 23:53:17.169675 30194 net.cpp:137] Memory required for data: 823480000
I0728 23:53:17.169683 30194 layer_factory.hpp:77] Creating layer fbn4
I0728 23:53:17.169690 30194 net.cpp:84] Creating Layer fbn4
I0728 23:53:17.169694 30194 net.cpp:406] fbn4 <- fconv4
I0728 23:53:17.169701 30194 net.cpp:380] fbn4 -> fbn4
I0728 23:53:17.169967 30194 net.cpp:122] Setting up fbn4
I0728 23:53:17.169977 30194 net.cpp:129] Top shape: 1 3 1 70000 (210000)
I0728 23:53:17.169981 30194 net.cpp:137] Memory required for data: 824320000
I0728 23:53:17.169988 30194 layer_factory.hpp:77] Creating layer frelu4
I0728 23:53:17.169994 30194 net.cpp:84] Creating Layer frelu4
I0728 23:53:17.169998 30194 net.cpp:406] frelu4 <- fbn4
I0728 23:53:17.170002 30194 net.cpp:367] frelu4 -> fbn4 (in-place)
I0728 23:53:17.170282 30194 net.cpp:122] Setting up frelu4
I0728 23:53:17.170295 30194 net.cpp:129] Top shape: 1 3 1 70000 (210000)
I0728 23:53:17.170297 30194 net.cpp:137] Memory required for data: 825160000
I0728 23:53:17.170303 30194 layer_factory.hpp:77] Creating layer data_lattice3
I0728 23:53:17.170377 30194 net.cpp:84] Creating Layer data_lattice3
I0728 23:53:17.170387 30194 net.cpp:406] data_lattice3 <- data_data_0_split_4
I0728 23:53:17.170393 30194 net.cpp:380] data_lattice3 -> data_lattice3
I0728 23:53:17.171695 30194 net.cpp:122] Setting up data_lattice3
I0728 23:53:17.171710 30194 net.cpp:129] Top shape: 1 3 1 70000 (210000)
I0728 23:53:17.171725 30194 net.cpp:137] Memory required for data: 826000000
I0728 23:53:17.171730 30194 layer_factory.hpp:77] Creating layer feat4
I0728 23:53:17.171737 30194 net.cpp:84] Creating Layer feat4
I0728 23:53:17.171741 30194 net.cpp:406] feat4 <- data_lattice3
I0728 23:53:17.171746 30194 net.cpp:406] feat4 <- fbn4
I0728 23:53:17.171753 30194 net.cpp:380] feat4 -> feat4
I0728 23:53:17.171782 30194 net.cpp:122] Setting up feat4
I0728 23:53:17.171787 30194 net.cpp:129] Top shape: 1 3 1 70000 (210000)
I0728 23:53:17.171789 30194 net.cpp:137] Memory required for data: 826840000
I0728 23:53:17.171792 30194 layer_factory.hpp:77] Creating layer feat4_feat4_0_split
I0728 23:53:17.171799 30194 net.cpp:84] Creating Layer feat4_feat4_0_split
I0728 23:53:17.171802 30194 net.cpp:406] feat4_feat4_0_split <- feat4
I0728 23:53:17.171809 30194 net.cpp:380] feat4_feat4_0_split -> feat4_feat4_0_split_0
I0728 23:53:17.171815 30194 net.cpp:380] feat4_feat4_0_split -> feat4_feat4_0_split_1
I0728 23:53:17.171849 30194 net.cpp:122] Setting up feat4_feat4_0_split
I0728 23:53:17.171855 30194 net.cpp:129] Top shape: 1 3 1 70000 (210000)
I0728 23:53:17.171859 30194 net.cpp:129] Top shape: 1 3 1 70000 (210000)
I0728 23:53:17.171862 30194 net.cpp:137] Memory required for data: 828520000
I0728 23:53:17.171864 30194 layer_factory.hpp:77] Creating layer conv5
I0728 23:53:17.171875 30194 net.cpp:84] Creating Layer conv5
I0728 23:53:17.171880 30194 net.cpp:406] conv5 <- bn4_relu4_0_split_1
I0728 23:53:17.171883 30194 net.cpp:406] conv5 <- feat4_feat4_0_split_0
I0728 23:53:17.171887 30194 net.cpp:406] conv5 <- feat4_feat4_0_split_1
I0728 23:53:17.171892 30194 net.cpp:380] conv5 -> conv5
I0728 23:53:17.309463 30194 net.cpp:122] Setting up conv5
I0728 23:53:17.309514 30194 net.cpp:129] Top shape: 1 256 1 70000 (17920000)
I0728 23:53:17.309518 30194 net.cpp:137] Memory required for data: 900200000
I0728 23:53:17.309530 30194 layer_factory.hpp:77] Creating layer bn5
I0728 23:53:17.309553 30194 net.cpp:84] Creating Layer bn5
I0728 23:53:17.309558 30194 net.cpp:406] bn5 <- conv5
I0728 23:53:17.309566 30194 net.cpp:380] bn5 -> bn5
I0728 23:53:17.309885 30194 net.cpp:122] Setting up bn5
I0728 23:53:17.309895 30194 net.cpp:129] Top shape: 1 256 1 70000 (17920000)
I0728 23:53:17.309898 30194 net.cpp:137] Memory required for data: 971880000
I0728 23:53:17.309906 30194 layer_factory.hpp:77] Creating layer relu5
I0728 23:53:17.309914 30194 net.cpp:84] Creating Layer relu5
I0728 23:53:17.309918 30194 net.cpp:406] relu5 <- bn5
I0728 23:53:17.309923 30194 net.cpp:367] relu5 -> bn5 (in-place)
I0728 23:53:17.310864 30194 net.cpp:122] Setting up relu5
I0728 23:53:17.310879 30194 net.cpp:129] Top shape: 1 256 1 70000 (17920000)
I0728 23:53:17.310895 30194 net.cpp:137] Memory required for data: 1043560000
I0728 23:53:17.310899 30194 layer_factory.hpp:77] Creating layer bn5_relu5_0_split
I0728 23:53:17.310907 30194 net.cpp:84] Creating Layer bn5_relu5_0_split
I0728 23:53:17.310910 30194 net.cpp:406] bn5_relu5_0_split <- bn5
I0728 23:53:17.310917 30194 net.cpp:380] bn5_relu5_0_split -> bn5_relu5_0_split_0
I0728 23:53:17.310925 30194 net.cpp:380] bn5_relu5_0_split -> bn5_relu5_0_split_1
I0728 23:53:17.310942 30194 net.cpp:380] bn5_relu5_0_split -> bn5_relu5_0_split_2
I0728 23:53:17.311012 30194 net.cpp:122] Setting up bn5_relu5_0_split
I0728 23:53:17.311020 30194 net.cpp:129] Top shape: 1 256 1 70000 (17920000)
I0728 23:53:17.311025 30194 net.cpp:129] Top shape: 1 256 1 70000 (17920000)
I0728 23:53:17.311028 30194 net.cpp:129] Top shape: 1 256 1 70000 (17920000)
I0728 23:53:17.311033 30194 net.cpp:137] Memory required for data: 1258600000
I0728 23:53:17.311035 30194 layer_factory.hpp:77] Creating layer fconv5
I0728 23:53:17.311051 30194 net.cpp:84] Creating Layer fconv5
I0728 23:53:17.311056 30194 net.cpp:406] fconv5 <- bn5_relu5_0_split_0
I0728 23:53:17.311064 30194 net.cpp:380] fconv5 -> fconv5
I0728 23:53:17.313037 30194 net.cpp:122] Setting up fconv5
I0728 23:53:17.313052 30194 net.cpp:129] Top shape: 1 3 1 70000 (210000)
I0728 23:53:17.313068 30194 net.cpp:137] Memory required for data: 1259440000
I0728 23:53:17.313076 30194 layer_factory.hpp:77] Creating layer fbn5
I0728 23:53:17.313083 30194 net.cpp:84] Creating Layer fbn5
I0728 23:53:17.313088 30194 net.cpp:406] fbn5 <- fconv5
I0728 23:53:17.313096 30194 net.cpp:380] fbn5 -> fbn5
I0728 23:53:17.313405 30194 net.cpp:122] Setting up fbn5
I0728 23:53:17.313416 30194 net.cpp:129] Top shape: 1 3 1 70000 (210000)
I0728 23:53:17.313419 30194 net.cpp:137] Memory required for data: 1260280000
I0728 23:53:17.313427 30194 layer_factory.hpp:77] Creating layer frelu5
I0728 23:53:17.313434 30194 net.cpp:84] Creating Layer frelu5
I0728 23:53:17.313438 30194 net.cpp:406] frelu5 <- fbn5
I0728 23:53:17.313444 30194 net.cpp:367] frelu5 -> fbn5 (in-place)
I0728 23:53:17.314110 30194 net.cpp:122] Setting up frelu5
I0728 23:53:17.314124 30194 net.cpp:129] Top shape: 1 3 1 70000 (210000)
I0728 23:53:17.314139 30194 net.cpp:137] Memory required for data: 1261120000
I0728 23:53:17.314143 30194 layer_factory.hpp:77] Creating layer data_lattice4
I0728 23:53:17.314214 30194 net.cpp:84] Creating Layer data_lattice4
I0728 23:53:17.314222 30194 net.cpp:406] data_lattice4 <- data_data_0_split_5
I0728 23:53:17.314230 30194 net.cpp:380] data_lattice4 -> data_lattice4
I0728 23:53:17.315667 30194 net.cpp:122] Setting up data_lattice4
I0728 23:53:17.315685 30194 net.cpp:129] Top shape: 1 3 1 70000 (210000)
I0728 23:53:17.315688 30194 net.cpp:137] Memory required for data: 1261960000
I0728 23:53:17.315692 30194 layer_factory.hpp:77] Creating layer feat5
I0728 23:53:17.315712 30194 net.cpp:84] Creating Layer feat5
I0728 23:53:17.315717 30194 net.cpp:406] feat5 <- data_lattice4
I0728 23:53:17.315722 30194 net.cpp:406] feat5 <- fbn5
I0728 23:53:17.315729 30194 net.cpp:380] feat5 -> feat5
I0728 23:53:17.315762 30194 net.cpp:122] Setting up feat5
I0728 23:53:17.315768 30194 net.cpp:129] Top shape: 1 3 1 70000 (210000)
I0728 23:53:17.315771 30194 net.cpp:137] Memory required for data: 1262800000
I0728 23:53:17.315774 30194 layer_factory.hpp:77] Creating layer feat5_feat5_0_split
I0728 23:53:17.315780 30194 net.cpp:84] Creating Layer feat5_feat5_0_split
I0728 23:53:17.315784 30194 net.cpp:406] feat5_feat5_0_split <- feat5
I0728 23:53:17.315790 30194 net.cpp:380] feat5_feat5_0_split -> feat5_feat5_0_split_0
I0728 23:53:17.315804 30194 net.cpp:380] feat5_feat5_0_split -> feat5_feat5_0_split_1
I0728 23:53:17.315848 30194 net.cpp:122] Setting up feat5_feat5_0_split
I0728 23:53:17.315856 30194 net.cpp:129] Top shape: 1 3 1 70000 (210000)
I0728 23:53:17.315861 30194 net.cpp:129] Top shape: 1 3 1 70000 (210000)
I0728 23:53:17.315865 30194 net.cpp:137] Memory required for data: 1264480000
I0728 23:53:17.315867 30194 layer_factory.hpp:77] Creating layer conv6
I0728 23:53:17.315877 30194 net.cpp:84] Creating Layer conv6
I0728 23:53:17.315881 30194 net.cpp:406] conv6 <- bn5_relu5_0_split_1
I0728 23:53:17.315886 30194 net.cpp:406] conv6 <- feat5_feat5_0_split_0
I0728 23:53:17.315891 30194 net.cpp:406] conv6 <- feat5_feat5_0_split_1
I0728 23:53:17.315897 30194 net.cpp:380] conv6 -> conv6
I0728 23:53:17.347710 30194 net.cpp:122] Setting up conv6
I0728 23:53:17.347759 30194 net.cpp:129] Top shape: 1 256 1 70000 (17920000)
I0728 23:53:17.347764 30194 net.cpp:137] Memory required for data: 1336160000
I0728 23:53:17.347775 30194 layer_factory.hpp:77] Creating layer bn6
I0728 23:53:17.347787 30194 net.cpp:84] Creating Layer bn6
I0728 23:53:17.347793 30194 net.cpp:406] bn6 <- conv6
I0728 23:53:17.347801 30194 net.cpp:380] bn6 -> bn6
I0728 23:53:17.348080 30194 net.cpp:122] Setting up bn6
I0728 23:53:17.348089 30194 net.cpp:129] Top shape: 1 256 1 70000 (17920000)
I0728 23:53:17.348093 30194 net.cpp:137] Memory required for data: 1407840000
I0728 23:53:17.348099 30194 layer_factory.hpp:77] Creating layer relu6
I0728 23:53:17.348115 30194 net.cpp:84] Creating Layer relu6
I0728 23:53:17.348119 30194 net.cpp:406] relu6 <- bn6
I0728 23:53:17.348124 30194 net.cpp:367] relu6 -> bn6 (in-place)
I0728 23:53:17.348515 30194 net.cpp:122] Setting up relu6
I0728 23:53:17.348526 30194 net.cpp:129] Top shape: 1 256 1 70000 (17920000)
I0728 23:53:17.348541 30194 net.cpp:137] Memory required for data: 1479520000
I0728 23:53:17.348544 30194 layer_factory.hpp:77] Creating layer concat6
I0728 23:53:17.348590 30194 net.cpp:84] Creating Layer concat6
I0728 23:53:17.348597 30194 net.cpp:406] concat6 <- bn6
I0728 23:53:17.348603 30194 net.cpp:406] concat6 <- bn2_relu2_0_split_2
I0728 23:53:17.348608 30194 net.cpp:406] concat6 <- bn3_relu3_0_split_2
I0728 23:53:17.348610 30194 net.cpp:406] concat6 <- bn4_relu4_0_split_2
I0728 23:53:17.348613 30194 net.cpp:406] concat6 <- bn5_relu5_0_split_2
I0728 23:53:17.348619 30194 net.cpp:380] concat6 -> concat6
I0728 23:53:17.348666 30194 net.cpp:122] Setting up concat6
I0728 23:53:17.348676 30194 net.cpp:129] Top shape: 1 960 1 70000 (67200000)
I0728 23:53:17.348680 30194 net.cpp:137] Memory required for data: 1748320000
I0728 23:53:17.348685 30194 layer_factory.hpp:77] Creating layer conv7
I0728 23:53:17.348697 30194 net.cpp:84] Creating Layer conv7
I0728 23:53:17.348701 30194 net.cpp:406] conv7 <- concat6
I0728 23:53:17.348708 30194 net.cpp:380] conv7 -> conv7
I0728 23:53:17.352943 30194 net.cpp:122] Setting up conv7
I0728 23:53:17.352972 30194 net.cpp:129] Top shape: 1 128 1 70000 (8960000)
I0728 23:53:17.352975 30194 net.cpp:137] Memory required for data: 1784160000
I0728 23:53:17.352984 30194 layer_factory.hpp:77] Creating layer bn7
I0728 23:53:17.353003 30194 net.cpp:84] Creating Layer bn7
I0728 23:53:17.353006 30194 net.cpp:406] bn7 <- conv7
I0728 23:53:17.353013 30194 net.cpp:380] bn7 -> bn7
I0728 23:53:17.353266 30194 net.cpp:122] Setting up bn7
I0728 23:53:17.353276 30194 net.cpp:129] Top shape: 1 128 1 70000 (8960000)
I0728 23:53:17.353278 30194 net.cpp:137] Memory required for data: 1820000000
I0728 23:53:17.353289 30194 layer_factory.hpp:77] Creating layer relu7
I0728 23:53:17.353298 30194 net.cpp:84] Creating Layer relu7
I0728 23:53:17.353302 30194 net.cpp:406] relu7 <- bn7
I0728 23:53:17.353307 30194 net.cpp:367] relu7 -> bn7 (in-place)
I0728 23:53:17.354032 30194 net.cpp:122] Setting up relu7
I0728 23:53:17.354048 30194 net.cpp:129] Top shape: 1 128 1 70000 (8960000)
I0728 23:53:17.354063 30194 net.cpp:137] Memory required for data: 1855840000
I0728 23:53:17.354068 30194 layer_factory.hpp:77] Creating layer conv8
I0728 23:53:17.354084 30194 net.cpp:84] Creating Layer conv8
I0728 23:53:17.354089 30194 net.cpp:406] conv8 <- bn7
I0728 23:53:17.354095 30194 net.cpp:380] conv8 -> conv8
I0728 23:53:17.357168 30194 net.cpp:122] Setting up conv8
I0728 23:53:17.357184 30194 net.cpp:129] Top shape: 1 13 1 70000 (910000)
I0728 23:53:17.357199 30194 net.cpp:137] Memory required for data: 1859480000
I0728 23:53:17.357208 30194 layer_factory.hpp:77] Creating layer conv8_conv8_0_split
I0728 23:53:17.357216 30194 net.cpp:84] Creating Layer conv8_conv8_0_split
I0728 23:53:17.357220 30194 net.cpp:406] conv8_conv8_0_split <- conv8
I0728 23:53:17.357228 30194 net.cpp:380] conv8_conv8_0_split -> conv8_conv8_0_split_0
I0728 23:53:17.357235 30194 net.cpp:380] conv8_conv8_0_split -> conv8_conv8_0_split_1
I0728 23:53:17.357283 30194 net.cpp:122] Setting up conv8_conv8_0_split
I0728 23:53:17.357291 30194 net.cpp:129] Top shape: 1 13 1 70000 (910000)
I0728 23:53:17.357295 30194 net.cpp:129] Top shape: 1 13 1 70000 (910000)
I0728 23:53:17.357298 30194 net.cpp:137] Memory required for data: 1866760000
I0728 23:53:17.357301 30194 layer_factory.hpp:77] Creating layer loss
I0728 23:53:17.357359 30194 net.cpp:84] Creating Layer loss
I0728 23:53:17.357368 30194 net.cpp:406] loss <- conv8_conv8_0_split_0
I0728 23:53:17.357374 30194 net.cpp:406] loss <- label_data_1_split_0
I0728 23:53:17.357380 30194 net.cpp:380] loss -> loss
…
