…
I0817 07:53:32.434085  3006 net.cpp:294] The NetState phase (0) differed from the phase (1) specified by a rule in layer data
I0817 07:53:32.434959  3006 net.cpp:51] Initializing net from parameters: 
state {
  phase: TRAIN
}
layer {
  name: "data"
  type: "Python"
  top: "data"
  top: "label"
  include {
    phase: TRAIN
  }
  python_param {
    module: "dataset_lidar"
    layer: "InputShapenet"
    param_str: "{\'sample_size\': 4096, \'test_area\': \'6\', \'batch_size\': 12, \'feat_dims\': \'x_y_z_r_g_b\', \'subset\': \'train\', \'root\': \'../../data/shapenet_ericyi_ply\', \'jitter_xyz\': 0.01, \'jitter_stretch\': 0.05, \'jitter_rotation\': 5.0}"
  }
}
layer {
  name: "data_feat"
  type: "Python"
  bottom: "data"
  top: "data_feat"
  python_param {
    module: "custom_layers"
    layer: "PickAndScale"
    param_str: "0_1_2"
  }
}
layer {
  name: "conv1"
  type: "Convolution"
  bottom: "data"
  top: "conv1"
  param {
    lr_mult: 1
  }
  param {
    lr_mult: 0.1
  }
  convolution_param {
    num_output: 64
    pad: 0
    kernel_size: 1
    stride: 1
    weight_filler {
      type: "xavier"
    }
    bias_filler {
      type: "constant"
      value: 0
    }
  }
}
layer {
  name: "bn1"
  type: "BatchNorm"
  bottom: "conv1"
  top: "bn1"
}
layer {
  name: "relu1"
  type: "ReLU"
  bottom: "bn1"
  top: "bn1"
}
layer {
  name: "conv1a"
  type: "Convolution"
  bottom: "bn1"
  top: "conv1a"
  param {
    lr_mult: 1
  }
  param {
    lr_mult: 0.1
  }
  convolution_param {
    num_output: 64
    pad: 0
    kernel_size: 1
    stride: 1
    weight_filler {
      type: "xavier"
    }
    bias_filler {
      type: "constant"
      value: 0
    }
  }
}
layer {
  name: "bn1a"
  type: "BatchNorm"
  bottom: "conv1a"
  top: "bn1a"
}
layer {
  name: "relu1a"
  type: "ReLU"
  bottom: "bn1a"
  top: "bn1a"
}
layer {
  name: "fconv1"
  type: "Convolution"
  bottom: "bn1a"
  top: "fconv1"
  param {
    lr_mult: 1
  }
  param {
    lr_mult: 0.1
  }
  convolution_param {
    num_output: 3
    pad: 0
    kernel_size: 1
    stride: 1
    weight_filler {
      type: "xavier"
    }
    bias_filler {
      type: "constant"
      value: 0
    }
  }
}
layer {
  name: "fbn1"
  type: "BatchNorm"
  bottom: "fconv1"
  top: "fbn1"
}
layer {
  name: "frelu1"
  type: "ReLU"
  bottom: "fbn1"
  top: "fbn1"
}
layer {
  name: "fbn1_"
  type: "ReLU2"
  bottom: "fbn1"
  top: "fbn1_"
  relu2_param {
    threshold: 0.02
  }
}
layer {
  name: "feat1"
  type: "Eltwise"
  bottom: "data_feat"
  bottom: "fbn1_"
  top: "feat1"
  eltwise_param {
    operation: SUM
  }
}
layer {
  name: "data_lattice0"
  type: "Python"
  bottom: "feat1"
  top: "data_lattice0"
  python_param {
    module: "custom_layers"
    layer: "PickAndScale"
    param_str: "0*48_1*48_2*48"
  }
}
layer {
  name: "conv2"
  type: "Permutohedral"
  bottom: "bn1a"
  bottom: "data_lattice0"
  bottom: "data_lattice0"
  top: "conv2"
  param {
    lr_mult: 1
    decay_mult: 1
  }
  param {
    lr_mult: 2
    decay_mult: 0
  }
  permutohedral_param {
    num_output: 64
    neighborhood_size: 1
    filter_filler {
      type: "gaussian"
      std: 0.001
    }
    bias_term: true
    bias_filler {
      type: "constant"
      value: 0
    }
    group: 1
    norm_type: AFTER
    offset_type: NONE
  }
}
layer {
  name: "bn2"
  type: "BatchNorm"
  bottom: "conv2"
  top: "bn2"
}
layer {
  name: "relu2"
  type: "ReLU"
  bottom: "bn2"
  top: "bn2"
}
layer {
  name: "fconv2"
  type: "Convolution"
  bottom: "bn2"
  top: "fconv2"
  param {
    lr_mult: 1
  }
  param {
    lr_mult: 0.1
  }
  convolution_param {
    num_output: 3
    pad: 0
    kernel_size: 1
    stride: 1
    weight_filler {
      type: "xavier"
    }
    bias_filler {
      type: "constant"
      value: 0
    }
  }
}
layer {
  name: "fbn2"
  type: "BatchNorm"
  bottom: "fconv2"
  top: "fbn2"
}
layer {
  name: "frelu2"
  type: "ReLU"
  bottom: "fbn2"
  top: "fbn2"
}
layer {
  name: "fbn2_"
  type: "ReLU2"
  bottom: "fbn2"
  top: "fbn2_"
  relu2_param {
    threshold: 0.02
  }
}
layer {
  name: "feat2"
  type: "Eltwise"
  bottom: "data_feat"
  bottom: "fbn2_"
  top: "feat2"
  eltwise_param {
    operation: SUM
  }
}
layer {
  name: "data_lattice1"
  type: "Python"
  bottom: "feat2"
  top: "data_lattice1"
  python_param {
    module: "custom_layers"
    layer: "PickAndScale"
    param_str: "0*24_1*24_2*24"
  }
}
layer {
  name: "conv3"
  type: "Permutohedral"
  bottom: "bn2"
  bottom: "data_lattice1"
  bottom: "data_lattice1"
  top: "conv3"
  param {
    lr_mult: 1
    decay_mult: 1
  }
  param {
    lr_mult: 2
    decay_mult: 0
  }
  permutohedral_param {
    num_output: 128
    neighborhood_size: 1
    filter_filler {
      type: "gaussian"
      std: 0.001
    }
    bias_term: true
    bias_filler {
      type: "constant"
      value: 0
    }
    group: 1
    norm_type: AFTER
    offset_type: NONE
  }
}
layer {
  name: "bn3"
  type: "BatchNorm"
  bottom: "conv3"
  top: "bn3"
}
layer {
  name: "relu3"
  type: "ReLU"
  bottom: "bn3"
  top: "bn3"
}
layer {
  name: "fconv3"
  type: "Convolution"
  bottom: "bn3"
  top: "fconv3"
  param {
    lr_mult: 1
  }
  param {
    lr_mult: 0.1
  }
  convolution_param {
    num_output: 3
    pad: 0
    kernel_size: 1
    stride: 1
    weight_filler {
      type: "xavier"
    }
    bias_filler {
      type: "constant"
      value: 0
    }
  }
}
layer {
  name: "fbn3"
  type: "BatchNorm"
  bottom: "fconv3"
  top: "fbn3"
}
layer {
  name: "frelu3"
  type: "ReLU"
  bottom: "fbn3"
  top: "fbn3"
}
layer {
  name: "fbn3_"
  type: "ReLU2"
  bottom: "fbn3"
  top: "fbn3_"
  relu2_param {
    threshold: 0.02
  }
}
layer {
  name: "feat3"
  type: "Eltwise"
  bottom: "data_feat"
  bottom: "fbn3_"
  top: "feat3"
  eltwise_param {
    operation: SUM
  }
}
layer {
  name: "data_lattice2"
  type: "Python"
  bottom: "feat3"
  top: "data_lattice2"
  python_param {
    module: "custom_layers"
    layer: "PickAndScale"
    param_str: "0*12_1*12_2*12"
  }
}
layer {
  name: "conv4"
  type: "Permutohedral"
  bottom: "bn3"
  bottom: "data_lattice2"
  bottom: "data_lattice2"
  top: "conv4"
  param {
    lr_mult: 1
    decay_mult: 1
  }
  param {
    lr_mult: 2
    decay_mult: 0
  }
  permutohedral_param {
    num_output: 256
    neighborhood_size: 1
    filter_filler {
      type: "gaussian"
      std: 0.001
    }
    bias_term: true
    bias_filler {
      type: "constant"
      value: 0
    }
    group: 1
    norm_type: AFTER
    offset_type: NONE
  }
}
layer {
  name: "bn4"
  type: "BatchNorm"
  bottom: "conv4"
  top: "bn4"
}
layer {
  name: "relu4"
  type: "ReLU"
  bottom: "bn4"
  top: "bn4"
}
layer {
  name: "fconv4"
  type: "Convolution"
  bottom: "bn4"
  top: "fconv4"
  param {
    lr_mult: 1
  }
  param {
    lr_mult: 0.1
  }
  convolution_param {
    num_output: 3
    pad: 0
    kernel_size: 1
    stride: 1
    weight_filler {
      type: "xavier"
    }
    bias_filler {
      type: "constant"
      value: 0
    }
  }
}
layer {
  name: "fbn4"
  type: "BatchNorm"
  bottom: "fconv4"
  top: "fbn4"
}
layer {
  name: "frelu4"
  type: "ReLU"
  bottom: "fbn4"
  top: "fbn4"
}
layer {
  name: "fbn4_"
  type: "ReLU2"
  bottom: "fbn4"
  top: "fbn4_"
  relu2_param {
    threshold: 0.02
  }
}
layer {
  name: "feat4"
  type: "Eltwise"
  bottom: "data_feat"
  bottom: "fbn4_"
  top: "feat4"
  eltwise_param {
    operation: SUM
  }
}
layer {
  name: "data_lattice3"
  type: "Python"
  bottom: "feat4"
  top: "data_lattice3"
  python_param {
    module: "custom_layers"
    layer: "PickAndScale"
    param_str: "0*6_1*6_2*6"
  }
}
layer {
  name: "conv5"
  type: "Permutohedral"
  bottom: "bn4"
  bottom: "data_lattice3"
  bottom: "data_lattice3"
  top: "conv5"
  param {
    lr_mult: 1
    decay_mult: 1
  }
  param {
    lr_mult: 2
    decay_mult: 0
  }
  permutohedral_param {
    num_output: 256
    neighborhood_size: 1
    filter_filler {
      type: "gaussian"
      std: 0.001
    }
    bias_term: true
    bias_filler {
      type: "constant"
      value: 0
    }
    group: 1
    norm_type: AFTER
    offset_type: NONE
  }
}
layer {
  name: "bn5"
  type: "BatchNorm"
  bottom: "conv5"
  top: "bn5"
}
layer {
  name: "relu5"
  type: "ReLU"
  bottom: "bn5"
  top: "bn5"
}
layer {
  name: "fconv5"
  type: "Convolution"
  bottom: "bn5"
  top: "fconv5"
  param {
    lr_mult: 1
  }
  param {
    lr_mult: 0.1
  }
  convolution_param {
    num_output: 3
    pad: 0
    kernel_size: 1
    stride: 1
    weight_filler {
      type: "xavier"
    }
    bias_filler {
      type: "constant"
      value: 0
    }
  }
}
layer {
  name: "fbn5"
  type: "BatchNorm"
  bottom: "fconv5"
  top: "fbn5"
}
layer {
  name: "frelu5"
  type: "ReLU"
  bottom: "fbn5"
  top: "fbn5"
}
layer {
  name: "fbn5_"
  type: "ReLU2"
  bottom: "fbn5"
  top: "fbn5_"
  relu2_param {
    threshold: 0.02
  }
}
layer {
  name: "feat5"
  type: "Eltwise"
  bottom: "data_feat"
  bottom: "fbn5_"
  top: "feat5"
  eltwise_param {
    operation: SUM
  }
}
layer {
  name: "data_lattice4"
  type: "Python"
  bottom: "feat5"
  top: "data_lattice4"
  python_param {
    module: "custom_layers"
    layer: "PickAndScale"
    param_str: "0*3_1*3_2*3"
  }
}
layer {
  name: "conv6"
  type: "Permutohedral"
  bottom: "bn5"
  bottom: "data_lattice4"
  bottom: "data_lattice4"
  top: "conv6"
  param {
    lr_mult: 1
    decay_mult: 1
  }
  param {
    lr_mult: 2
    decay_mult: 0
  }
  permutohedral_param {
    num_output: 256
    neighborhood_size: 1
    filter_filler {
      type: "gaussian"
      std: 0.001
    }
    bias_term: true
    bias_filler {
      type: "constant"
      value: 0
    }
    group: 1
    norm_type: AFTER
    offset_type: NONE
  }
}
layer {
  name: "bn6"
  type: "BatchNorm"
  bottom: "conv6"
  top: "bn6"
}
layer {
  name: "relu6"
  type: "ReLU"
  bottom: "bn6"
  top: "bn6"
}
layer {
  name: "concat6"
  type: "Concat"
  bottom: "bn6"
  bottom: "bn2"
  bottom: "bn3"
  bottom: "bn4"
  bottom: "bn5"
  top: "concat6"
}
layer {
  name: "conv7"
  type: "Convolution"
  bottom: "concat6"
  top: "conv7"
  param {
    lr_mult: 1
  }
  param {
    lr_mult: 0.1
  }
  convolution_param {
    num_output: 128
    pad: 0
    kernel_size: 1
    stride: 1
    weight_filler {
      type: "xavier"
    }
    bias_filler {
      type: "constant"
      value: 0
    }
  }
}
layer {
  name: "bn7"
  type: "BatchNorm"
  bottom: "conv7"
  top: "bn7"
}
layer {
  name: "relu7"
  type: "ReLU"
  bottom: "bn7"
  top: "bn7"
}
layer {
  name: "conv8"
  type: "Convolution"
  bottom: "bn7"
  top: "conv8"
  param {
    lr_mult: 1
  }
  param {
    lr_mult: 0.1
  }
  convolution_param {
    num_output: 13
    pad: 0
    kernel_size: 1
    stride: 1
    weight_filler {
      type: "xavier"
    }
    bias_filler {
      type: "constant"
      value: 0
    }
  }
}
layer {
  name: "loss"
  type: "SoftmaxWithLoss"
  bottom: "conv8"
  bottom: "label"
  top: "loss"
}
layer {
  name: "accuracy"
  type: "Accuracy"
  bottom: "conv8"
  bottom: "label"
  top: "accuracy"
}
I0817 07:53:32.442109  3006 layer_factory.hpp:77] Creating layer data
I0817 07:53:32.479490  3006 net.cpp:84] Creating Layer data
I0817 07:53:32.482702  3006 net.cpp:380] data -> data
I0817 07:53:32.483544  3006 net.cpp:380] data -> label
I0817 07:53:33.257300  3008 upgrade_proto.cpp:1084] Attempting to upgrade input file specified using deprecated 'solver_type' field (enum)': /mnt/lustre/wangjiayun/repos/splatnet/exp/lidar3d/area6/6_solver.prototxt
…
I0817 07:53:34.302062  3010 upgrade_proto.cpp:1084] Attempting to upgrade input file specified using deprecated 'solver_type' field (enum)': /mnt/lustre/wangjiayun/repos/splatnet/exp/lidar3d/area6/6_solver.prototxt
I0817 07:53:34.302141  3010 upgrade_proto.cpp:1091] Successfully upgraded file specified using deprecated 'solver_type' field (enum) to 'type' field (string).
W0817 07:53:34.302148  3010 upgrade_proto.cpp:1093] Note that future Caffe releases will only support 'type' field (string) for a solver's type.
I0817 07:54:48.215298  3006 net.cpp:122] Setting up data
I0817 07:54:48.215400  3006 net.cpp:129] Top shape: 12 6 1 4096 (294912)
I0817 07:54:48.215410  3006 net.cpp:129] Top shape: 12 1 1 4096 (49152)
I0817 07:54:48.215415  3006 net.cpp:137] Memory required for data: 1376256
I0817 07:54:48.215435  3006 layer_factory.hpp:77] Creating layer data_data_0_split
I0817 07:54:48.215479  3006 net.cpp:84] Creating Layer data_data_0_split
I0817 07:54:48.215487  3006 net.cpp:406] data_data_0_split <- data
I0817 07:54:48.215503  3006 net.cpp:380] data_data_0_split -> data_data_0_split_0
I0817 07:54:48.215523  3006 net.cpp:380] data_data_0_split -> data_data_0_split_1
I0817 07:54:48.215577  3006 net.cpp:122] Setting up data_data_0_split
I0817 07:54:48.215589  3006 net.cpp:129] Top shape: 12 6 1 4096 (294912)
I0817 07:54:48.215592  3006 net.cpp:129] Top shape: 12 6 1 4096 (294912)
I0817 07:54:48.215596  3006 net.cpp:137] Memory required for data: 3735552
I0817 07:54:48.215600  3006 layer_factory.hpp:77] Creating layer label_data_1_split
I0817 07:54:48.215616  3006 net.cpp:84] Creating Layer label_data_1_split
I0817 07:54:48.215620  3006 net.cpp:406] label_data_1_split <- label
I0817 07:54:48.215626  3006 net.cpp:380] label_data_1_split -> label_data_1_split_0
I0817 07:54:48.215634  3006 net.cpp:380] label_data_1_split -> label_data_1_split_1
I0817 07:54:48.215682  3006 net.cpp:122] Setting up label_data_1_split
I0817 07:54:48.215692  3006 net.cpp:129] Top shape: 12 1 1 4096 (49152)
I0817 07:54:48.215698  3006 net.cpp:129] Top shape: 12 1 1 4096 (49152)
I0817 07:54:48.215700  3006 net.cpp:137] Memory required for data: 4128768
I0817 07:54:48.215703  3006 layer_factory.hpp:77] Creating layer data_feat
I0817 07:54:48.222592  3006 net.cpp:84] Creating Layer data_feat
I0817 07:54:48.222606  3006 net.cpp:406] data_feat <- data_data_0_split_0
I0817 07:54:48.222613  3006 net.cpp:380] data_feat -> data_feat
I0817 07:54:48.224308  3006 net.cpp:122] Setting up data_feat
I0817 07:54:48.224324  3006 net.cpp:129] Top shape: 12 3 1 4096 (147456)
I0817 07:54:48.224328  3006 net.cpp:137] Memory required for data: 4718592
I0817 07:54:48.224331  3006 layer_factory.hpp:77] Creating layer data_feat_data_feat_0_split
I0817 07:54:48.224339  3006 net.cpp:84] Creating Layer data_feat_data_feat_0_split
I0817 07:54:48.224361  3006 net.cpp:406] data_feat_data_feat_0_split <- data_feat
I0817 07:54:48.224383  3006 net.cpp:380] data_feat_data_feat_0_split -> data_feat_data_feat_0_split_0
I0817 07:54:48.224391  3006 net.cpp:380] data_feat_data_feat_0_split -> data_feat_data_feat_0_split_1
I0817 07:54:48.224400  3006 net.cpp:380] data_feat_data_feat_0_split -> data_feat_data_feat_0_split_2
I0817 07:54:48.224406  3006 net.cpp:380] data_feat_data_feat_0_split -> data_feat_data_feat_0_split_3
I0817 07:54:48.224411  3006 net.cpp:380] data_feat_data_feat_0_split -> data_feat_data_feat_0_split_4
I0817 07:54:48.224508  3006 net.cpp:122] Setting up data_feat_data_feat_0_split
I0817 07:54:48.224519  3006 net.cpp:129] Top shape: 12 3 1 4096 (147456)
I0817 07:54:48.224524  3006 net.cpp:129] Top shape: 12 3 1 4096 (147456)
I0817 07:54:48.224527  3006 net.cpp:129] Top shape: 12 3 1 4096 (147456)
I0817 07:54:48.224531  3006 net.cpp:129] Top shape: 12 3 1 4096 (147456)
I0817 07:54:48.224534  3006 net.cpp:129] Top shape: 12 3 1 4096 (147456)
I0817 07:54:48.224537  3006 net.cpp:137] Memory required for data: 7667712
I0817 07:54:48.224550  3006 layer_factory.hpp:77] Creating layer conv1
I0817 07:54:48.224601  3006 net.cpp:84] Creating Layer conv1
I0817 07:54:48.224609  3006 net.cpp:406] conv1 <- data_data_0_split_1
I0817 07:54:48.224617  3006 net.cpp:380] conv1 -> conv1
I0817 07:54:52.061472  3006 net.cpp:122] Setting up conv1
I0817 07:54:52.061538  3006 net.cpp:129] Top shape: 12 64 1 4096 (3145728)
I0817 07:54:52.061549  3006 net.cpp:137] Memory required for data: 20250624
I0817 07:54:52.062052  3006 layer_factory.hpp:77] Creating layer bn1
I0817 07:54:52.062444  3006 net.cpp:84] Creating Layer bn1
I0817 07:54:52.062474  3006 net.cpp:406] bn1 <- conv1
I0817 07:54:52.062491  3006 net.cpp:380] bn1 -> bn1
I0817 07:54:52.066480  3006 net.cpp:122] Setting up bn1
I0817 07:54:52.066514  3006 net.cpp:129] Top shape: 12 64 1 4096 (3145728)
I0817 07:54:52.066524  3006 net.cpp:137] Memory required for data: 32833536
I0817 07:54:52.066550  3006 layer_factory.hpp:77] Creating layer relu1
I0817 07:54:52.067309  3006 net.cpp:84] Creating Layer relu1
I0817 07:54:52.067337  3006 net.cpp:406] relu1 <- bn1
I0817 07:54:52.067353  3006 net.cpp:367] relu1 -> bn1 (in-place)
I0817 07:54:52.068159  3006 net.cpp:122] Setting up relu1
I0817 07:54:52.068190  3006 net.cpp:129] Top shape: 12 64 1 4096 (3145728)
I0817 07:54:52.068199  3006 net.cpp:137] Memory required for data: 45416448
I0817 07:54:52.068212  3006 layer_factory.hpp:77] Creating layer conv1a
I0817 07:54:52.068239  3006 net.cpp:84] Creating Layer conv1a
I0817 07:54:52.068248  3006 net.cpp:406] conv1a <- bn1
I0817 07:54:52.068264  3006 net.cpp:380] conv1a -> conv1a
I0817 07:54:52.072659  3006 net.cpp:122] Setting up conv1a
I0817 07:54:52.072707  3006 net.cpp:129] Top shape: 12 64 1 4096 (3145728)
I0817 07:54:52.072717  3006 net.cpp:137] Memory required for data: 57999360
I0817 07:54:52.072733  3006 layer_factory.hpp:77] Creating layer bn1a
I0817 07:54:52.072748  3006 net.cpp:84] Creating Layer bn1a
I0817 07:54:52.072757  3006 net.cpp:406] bn1a <- conv1a
I0817 07:54:52.072772  3006 net.cpp:380] bn1a -> bn1a
I0817 07:54:52.073197  3006 net.cpp:122] Setting up bn1a
I0817 07:54:52.073216  3006 net.cpp:129] Top shape: 12 64 1 4096 (3145728)
I0817 07:54:52.073223  3006 net.cpp:137] Memory required for data: 70582272
I0817 07:54:52.073245  3006 layer_factory.hpp:77] Creating layer relu1a
I0817 07:54:52.073262  3006 net.cpp:84] Creating Layer relu1a
I0817 07:54:52.073271  3006 net.cpp:406] relu1a <- bn1a
I0817 07:54:52.073282  3006 net.cpp:367] relu1a -> bn1a (in-place)
I0817 07:54:52.073882  3006 net.cpp:122] Setting up relu1a
I0817 07:54:52.073909  3006 net.cpp:129] Top shape: 12 64 1 4096 (3145728)
I0817 07:54:52.073918  3006 net.cpp:137] Memory required for data: 83165184
I0817 07:54:52.073926  3006 layer_factory.hpp:77] Creating layer bn1a_relu1a_0_split
I0817 07:54:52.073941  3006 net.cpp:84] Creating Layer bn1a_relu1a_0_split
I0817 07:54:52.073951  3006 net.cpp:406] bn1a_relu1a_0_split <- bn1a
I0817 07:54:52.073964  3006 net.cpp:380] bn1a_relu1a_0_split -> bn1a_relu1a_0_split_0
I0817 07:54:52.073983  3006 net.cpp:380] bn1a_relu1a_0_split -> bn1a_relu1a_0_split_1
I0817 07:54:52.074071  3006 net.cpp:122] Setting up bn1a_relu1a_0_split
I0817 07:54:52.074088  3006 net.cpp:129] Top shape: 12 64 1 4096 (3145728)
I0817 07:54:52.074097  3006 net.cpp:129] Top shape: 12 64 1 4096 (3145728)
I0817 07:54:52.074103  3006 net.cpp:137] Memory required for data: 108331008
I0817 07:54:52.074113  3006 layer_factory.hpp:77] Creating layer fconv1
I0817 07:54:52.074136  3006 net.cpp:84] Creating Layer fconv1
I0817 07:54:52.074146  3006 net.cpp:406] fconv1 <- bn1a_relu1a_0_split_0
I0817 07:54:52.074162  3006 net.cpp:380] fconv1 -> fconv1
I0817 07:54:52.077180  3006 net.cpp:122] Setting up fconv1
I0817 07:54:52.077214  3006 net.cpp:129] Top shape: 12 3 1 4096 (147456)
I0817 07:54:52.077224  3006 net.cpp:137] Memory required for data: 108920832
I0817 07:54:52.077239  3006 layer_factory.hpp:77] Creating layer fbn1
I0817 07:54:52.077256  3006 net.cpp:84] Creating Layer fbn1
I0817 07:54:52.077265  3006 net.cpp:406] fbn1 <- fconv1
I0817 07:54:52.077284  3006 net.cpp:380] fbn1 -> fbn1
I0817 07:54:52.077726  3006 net.cpp:122] Setting up fbn1
I0817 07:54:52.077745  3006 net.cpp:129] Top shape: 12 3 1 4096 (147456)
I0817 07:54:52.077754  3006 net.cpp:137] Memory required for data: 109510656
I0817 07:54:52.077769  3006 layer_factory.hpp:77] Creating layer frelu1
I0817 07:54:52.077786  3006 net.cpp:84] Creating Layer frelu1
I0817 07:54:52.077795  3006 net.cpp:406] frelu1 <- fbn1
I0817 07:54:52.077805  3006 net.cpp:367] frelu1 -> fbn1 (in-place)
I0817 07:54:52.079018  3006 net.cpp:122] Setting up frelu1
I0817 07:54:52.079049  3006 net.cpp:129] Top shape: 12 3 1 4096 (147456)
I0817 07:54:52.079057  3006 net.cpp:137] Memory required for data: 110100480
I0817 07:54:52.079066  3006 layer_factory.hpp:77] Creating layer fbn1_
I0817 07:54:52.079780  3006 net.cpp:84] Creating Layer fbn1_
I0817 07:54:52.079803  3006 net.cpp:406] fbn1_ <- fbn1
I0817 07:54:52.079819  3006 net.cpp:380] fbn1_ -> fbn1_
I0817 07:54:52.079890  3006 net.cpp:122] Setting up fbn1_
I0817 07:54:52.079906  3006 net.cpp:129] Top shape: 12 3 1 4096 (147456)
I0817 07:54:52.079913  3006 net.cpp:137] Memory required for data: 110690304
I0817 07:54:52.079919  3006 layer_factory.hpp:77] Creating layer feat1
I0817 07:54:52.079968  3006 net.cpp:84] Creating Layer feat1
I0817 07:54:52.079984  3006 net.cpp:406] feat1 <- data_feat_data_feat_0_split_0
I0817 07:54:52.079995  3006 net.cpp:406] feat1 <- fbn1_
I0817 07:54:52.080006  3006 net.cpp:380] feat1 -> feat1
I0817 07:54:52.080449  3006 net.cpp:122] Setting up feat1
I0817 07:54:52.080476  3006 net.cpp:129] Top shape: 12 3 1 4096 (147456)
I0817 07:54:52.080482  3006 net.cpp:137] Memory required for data: 111280128
I0817 07:54:52.080490  3006 layer_factory.hpp:77] Creating layer data_lattice0
I0817 07:54:52.080579  3006 net.cpp:84] Creating Layer data_lattice0
I0817 07:54:52.080595  3006 net.cpp:406] data_lattice0 <- feat1
I0817 07:54:52.080611  3006 net.cpp:380] data_lattice0 -> data_lattice0
I0817 07:54:52.081029  3006 net.cpp:122] Setting up data_lattice0
I0817 07:54:52.081055  3006 net.cpp:129] Top shape: 12 3 1 4096 (147456)
I0817 07:54:52.081061  3006 net.cpp:137] Memory required for data: 111869952
I0817 07:54:52.081073  3006 layer_factory.hpp:77] Creating layer data_lattice0_data_lattice0_0_split
I0817 07:54:52.081085  3006 net.cpp:84] Creating Layer data_lattice0_data_lattice0_0_split
I0817 07:54:52.081094  3006 net.cpp:406] data_lattice0_data_lattice0_0_split <- data_lattice0
I0817 07:54:52.081106  3006 net.cpp:380] data_lattice0_data_lattice0_0_split -> data_lattice0_data_lattice0_0_split_0
I0817 07:54:52.081120  3006 net.cpp:380] data_lattice0_data_lattice0_0_split -> data_lattice0_data_lattice0_0_split_1
I0817 07:54:52.081194  3006 net.cpp:122] Setting up data_lattice0_data_lattice0_0_split
I0817 07:54:52.081212  3006 net.cpp:129] Top shape: 12 3 1 4096 (147456)
I0817 07:54:52.081219  3006 net.cpp:129] Top shape: 12 3 1 4096 (147456)
I0817 07:54:52.081225  3006 net.cpp:137] Memory required for data: 113049600
I0817 07:54:52.081231  3006 layer_factory.hpp:77] Creating layer conv2
I0817 07:54:52.081292  3006 net.cpp:84] Creating Layer conv2
I0817 07:54:52.081308  3006 net.cpp:406] conv2 <- bn1a_relu1a_0_split_1
I0817 07:54:52.081320  3006 net.cpp:406] conv2 <- data_lattice0_data_lattice0_0_split_0
I0817 07:54:52.081327  3006 net.cpp:406] conv2 <- data_lattice0_data_lattice0_0_split_1
I0817 07:54:52.081339  3006 net.cpp:380] conv2 -> conv2
I0817 07:54:52.089233  3006 net.cpp:122] Setting up conv2
I0817 07:54:52.089273  3006 net.cpp:129] Top shape: 12 64 1 4096 (3145728)
I0817 07:54:52.089282  3006 net.cpp:137] Memory required for data: 125632512
I0817 07:54:52.089306  3006 layer_factory.hpp:77] Creating layer bn2
I0817 07:54:52.089323  3006 net.cpp:84] Creating Layer bn2
I0817 07:54:52.089332  3006 net.cpp:406] bn2 <- conv2
I0817 07:54:52.089345  3006 net.cpp:380] bn2 -> bn2
I0817 07:54:52.089804  3006 net.cpp:122] Setting up bn2
I0817 07:54:52.089823  3006 net.cpp:129] Top shape: 12 64 1 4096 (3145728)
I0817 07:54:52.089830  3006 net.cpp:137] Memory required for data: 138215424
I0817 07:54:52.089846  3006 layer_factory.hpp:77] Creating layer relu2
I0817 07:54:52.089864  3006 net.cpp:84] Creating Layer relu2
I0817 07:54:52.089872  3006 net.cpp:406] relu2 <- bn2
I0817 07:54:52.089884  3006 net.cpp:367] relu2 -> bn2 (in-place)
I0817 07:54:52.090528  3006 net.cpp:122] Setting up relu2
I0817 07:54:52.090553  3006 net.cpp:129] Top shape: 12 64 1 4096 (3145728)
I0817 07:54:52.090561  3006 net.cpp:137] Memory required for data: 150798336
I0817 07:54:52.090569  3006 layer_factory.hpp:77] Creating layer bn2_relu2_0_split
I0817 07:54:52.090582  3006 net.cpp:84] Creating Layer bn2_relu2_0_split
I0817 07:54:52.090591  3006 net.cpp:406] bn2_relu2_0_split <- bn2
I0817 07:54:52.090605  3006 net.cpp:380] bn2_relu2_0_split -> bn2_relu2_0_split_0
I0817 07:54:52.090620  3006 net.cpp:380] bn2_relu2_0_split -> bn2_relu2_0_split_1
I0817 07:54:52.090631  3006 net.cpp:380] bn2_relu2_0_split -> bn2_relu2_0_split_2
I0817 07:54:52.090754  3006 net.cpp:122] Setting up bn2_relu2_0_split
I0817 07:54:52.090770  3006 net.cpp:129] Top shape: 12 64 1 4096 (3145728)
I0817 07:54:52.090778  3006 net.cpp:129] Top shape: 12 64 1 4096 (3145728)
I0817 07:54:52.090786  3006 net.cpp:129] Top shape: 12 64 1 4096 (3145728)
I0817 07:54:52.090793  3006 net.cpp:137] Memory required for data: 188547072
I0817 07:54:52.090800  3006 layer_factory.hpp:77] Creating layer fconv2
I0817 07:54:52.090821  3006 net.cpp:84] Creating Layer fconv2
I0817 07:54:52.090832  3006 net.cpp:406] fconv2 <- bn2_relu2_0_split_0
I0817 07:54:52.090848  3006 net.cpp:380] fconv2 -> fconv2
I0817 07:54:52.094460  3006 net.cpp:122] Setting up fconv2
I0817 07:54:52.094493  3006 net.cpp:129] Top shape: 12 3 1 4096 (147456)
I0817 07:54:52.094502  3006 net.cpp:137] Memory required for data: 189136896
I0817 07:54:52.094521  3006 layer_factory.hpp:77] Creating layer fbn2
I0817 07:54:52.094535  3006 net.cpp:84] Creating Layer fbn2
I0817 07:54:52.094543  3006 net.cpp:406] fbn2 <- fconv2
I0817 07:54:52.094557  3006 net.cpp:380] fbn2 -> fbn2
I0817 07:54:52.094974  3006 net.cpp:122] Setting up fbn2
I0817 07:54:52.094992  3006 net.cpp:129] Top shape: 12 3 1 4096 (147456)
I0817 07:54:52.094998  3006 net.cpp:137] Memory required for data: 189726720
I0817 07:54:52.095012  3006 layer_factory.hpp:77] Creating layer frelu2
I0817 07:54:52.095024  3006 net.cpp:84] Creating Layer frelu2
I0817 07:54:52.095032  3006 net.cpp:406] frelu2 <- fbn2
I0817 07:54:52.095042  3006 net.cpp:367] frelu2 -> fbn2 (in-place)
I0817 07:54:52.095602  3006 net.cpp:122] Setting up frelu2
I0817 07:54:52.095626  3006 net.cpp:129] Top shape: 12 3 1 4096 (147456)
I0817 07:54:52.095633  3006 net.cpp:137] Memory required for data: 190316544
I0817 07:54:52.095640  3006 layer_factory.hpp:77] Creating layer fbn2_
I0817 07:54:52.095656  3006 net.cpp:84] Creating Layer fbn2_
I0817 07:54:52.095664  3006 net.cpp:406] fbn2_ <- fbn2
I0817 07:54:52.095687  3006 net.cpp:380] fbn2_ -> fbn2_
I0817 07:54:52.095752  3006 net.cpp:122] Setting up fbn2_
I0817 07:54:52.095769  3006 net.cpp:129] Top shape: 12 3 1 4096 (147456)
I0817 07:54:52.095775  3006 net.cpp:137] Memory required for data: 190906368
I0817 07:54:52.095782  3006 layer_factory.hpp:77] Creating layer feat2
I0817 07:54:52.095796  3006 net.cpp:84] Creating Layer feat2
I0817 07:54:52.095803  3006 net.cpp:406] feat2 <- data_feat_data_feat_0_split_1
I0817 07:54:52.095814  3006 net.cpp:406] feat2 <- fbn2_
I0817 07:54:52.095824  3006 net.cpp:380] feat2 -> feat2
I0817 07:54:52.095873  3006 net.cpp:122] Setting up feat2
I0817 07:54:52.095886  3006 net.cpp:129] Top shape: 12 3 1 4096 (147456)
I0817 07:54:52.095892  3006 net.cpp:137] Memory required for data: 191496192
I0817 07:54:52.095901  3006 layer_factory.hpp:77] Creating layer data_lattice1
I0817 07:54:52.095969  3006 net.cpp:84] Creating Layer data_lattice1
I0817 07:54:52.095984  3006 net.cpp:406] data_lattice1 <- feat2
I0817 07:54:52.095998  3006 net.cpp:380] data_lattice1 -> data_lattice1
I0817 07:54:52.098879  3006 net.cpp:122] Setting up data_lattice1
I0817 07:54:52.098917  3006 net.cpp:129] Top shape: 12 3 1 4096 (147456)
I0817 07:54:52.098927  3006 net.cpp:137] Memory required for data: 192086016
I0817 07:54:52.098934  3006 layer_factory.hpp:77] Creating layer data_lattice1_data_lattice1_0_split
I0817 07:54:52.098948  3006 net.cpp:84] Creating Layer data_lattice1_data_lattice1_0_split
I0817 07:54:52.098956  3006 net.cpp:406] data_lattice1_data_lattice1_0_split <- data_lattice1
I0817 07:54:52.098969  3006 net.cpp:380] data_lattice1_data_lattice1_0_split -> data_lattice1_data_lattice1_0_split_0
I0817 07:54:52.098985  3006 net.cpp:380] data_lattice1_data_lattice1_0_split -> data_lattice1_data_lattice1_0_split_1
I0817 07:54:52.099063  3006 net.cpp:122] Setting up data_lattice1_data_lattice1_0_split
I0817 07:54:52.099078  3006 net.cpp:129] Top shape: 12 3 1 4096 (147456)
I0817 07:54:52.099086  3006 net.cpp:129] Top shape: 12 3 1 4096 (147456)
I0817 07:54:52.099092  3006 net.cpp:137] Memory required for data: 193265664
I0817 07:54:52.099098  3006 layer_factory.hpp:77] Creating layer conv3
I0817 07:54:52.099117  3006 net.cpp:84] Creating Layer conv3
I0817 07:54:52.099128  3006 net.cpp:406] conv3 <- bn2_relu2_0_split_1
I0817 07:54:52.099138  3006 net.cpp:406] conv3 <- data_lattice1_data_lattice1_0_split_0
I0817 07:54:52.099146  3006 net.cpp:406] conv3 <- data_lattice1_data_lattice1_0_split_1
I0817 07:54:52.099158  3006 net.cpp:380] conv3 -> conv3
I0817 07:54:52.106549  3006 net.cpp:122] Setting up conv3
I0817 07:54:52.106570  3006 net.cpp:129] Top shape: 12 128 1 4096 (6291456)
I0817 07:54:52.106576  3006 net.cpp:137] Memory required for data: 218431488
I0817 07:54:52.106587  3006 layer_factory.hpp:77] Creating layer bn3
I0817 07:54:52.106598  3006 net.cpp:84] Creating Layer bn3
I0817 07:54:52.106606  3006 net.cpp:406] bn3 <- conv3
I0817 07:54:52.106616  3006 net.cpp:380] bn3 -> bn3
I0817 07:54:52.106981  3006 net.cpp:122] Setting up bn3
I0817 07:54:52.106997  3006 net.cpp:129] Top shape: 12 128 1 4096 (6291456)
I0817 07:54:52.107003  3006 net.cpp:137] Memory required for data: 243597312
I0817 07:54:52.107019  3006 layer_factory.hpp:77] Creating layer relu3
I0817 07:54:52.107038  3006 net.cpp:84] Creating Layer relu3
I0817 07:54:52.107044  3006 net.cpp:406] relu3 <- bn3
I0817 07:54:52.107053  3006 net.cpp:367] relu3 -> bn3 (in-place)
I0817 07:54:52.107599  3006 net.cpp:122] Setting up relu3
I0817 07:54:52.107621  3006 net.cpp:129] Top shape: 12 128 1 4096 (6291456)
I0817 07:54:52.107628  3006 net.cpp:137] Memory required for data: 268763136
I0817 07:54:52.107635  3006 layer_factory.hpp:77] Creating layer bn3_relu3_0_split
I0817 07:54:52.107646  3006 net.cpp:84] Creating Layer bn3_relu3_0_split
I0817 07:54:52.107653  3006 net.cpp:406] bn3_relu3_0_split <- bn3
I0817 07:54:52.107666  3006 net.cpp:380] bn3_relu3_0_split -> bn3_relu3_0_split_0
I0817 07:54:52.107687  3006 net.cpp:380] bn3_relu3_0_split -> bn3_relu3_0_split_1
I0817 07:54:52.107699  3006 net.cpp:380] bn3_relu3_0_split -> bn3_relu3_0_split_2
I0817 07:54:52.107797  3006 net.cpp:122] Setting up bn3_relu3_0_split
I0817 07:54:52.107810  3006 net.cpp:129] Top shape: 12 128 1 4096 (6291456)
I0817 07:54:52.107818  3006 net.cpp:129] Top shape: 12 128 1 4096 (6291456)
I0817 07:54:52.107825  3006 net.cpp:129] Top shape: 12 128 1 4096 (6291456)
I0817 07:54:52.107831  3006 net.cpp:137] Memory required for data: 344260608
I0817 07:54:52.107836  3006 layer_factory.hpp:77] Creating layer fconv3
I0817 07:54:52.107856  3006 net.cpp:84] Creating Layer fconv3
I0817 07:54:52.107863  3006 net.cpp:406] fconv3 <- bn3_relu3_0_split_0
I0817 07:54:52.107875  3006 net.cpp:380] fconv3 -> fconv3
I0817 07:54:52.111238  3006 net.cpp:122] Setting up fconv3
I0817 07:54:52.111268  3006 net.cpp:129] Top shape: 12 3 1 4096 (147456)
I0817 07:54:52.111276  3006 net.cpp:137] Memory required for data: 344850432
I0817 07:54:52.111289  3006 layer_factory.hpp:77] Creating layer fbn3
I0817 07:54:52.111304  3006 net.cpp:84] Creating Layer fbn3
I0817 07:54:52.111310  3006 net.cpp:406] fbn3 <- fconv3
I0817 07:54:52.111322  3006 net.cpp:380] fbn3 -> fbn3
I0817 07:54:52.111721  3006 net.cpp:122] Setting up fbn3
I0817 07:54:52.111737  3006 net.cpp:129] Top shape: 12 3 1 4096 (147456)
I0817 07:54:52.111744  3006 net.cpp:137] Memory required for data: 345440256
I0817 07:54:52.111771  3006 layer_factory.hpp:77] Creating layer frelu3
I0817 07:54:52.111783  3006 net.cpp:84] Creating Layer frelu3
I0817 07:54:52.111789  3006 net.cpp:406] frelu3 <- fbn3
I0817 07:54:52.111799  3006 net.cpp:367] frelu3 -> fbn3 (in-place)
I0817 07:54:52.112331  3006 net.cpp:122] Setting up frelu3
I0817 07:54:52.112354  3006 net.cpp:129] Top shape: 12 3 1 4096 (147456)
I0817 07:54:52.112360  3006 net.cpp:137] Memory required for data: 346030080
I0817 07:54:52.112367  3006 layer_factory.hpp:77] Creating layer fbn3_
I0817 07:54:52.112381  3006 net.cpp:84] Creating Layer fbn3_
I0817 07:54:52.112388  3006 net.cpp:406] fbn3_ <- fbn3
I0817 07:54:52.112399  3006 net.cpp:380] fbn3_ -> fbn3_
I0817 07:54:52.112452  3006 net.cpp:122] Setting up fbn3_
I0817 07:54:52.112466  3006 net.cpp:129] Top shape: 12 3 1 4096 (147456)
I0817 07:54:52.112471  3006 net.cpp:137] Memory required for data: 346619904
I0817 07:54:52.112478  3006 layer_factory.hpp:77] Creating layer feat3
I0817 07:54:52.112488  3006 net.cpp:84] Creating Layer feat3
I0817 07:54:52.112495  3006 net.cpp:406] feat3 <- data_feat_data_feat_0_split_2
I0817 07:54:52.112504  3006 net.cpp:406] feat3 <- fbn3_
I0817 07:54:52.112514  3006 net.cpp:380] feat3 -> feat3
I0817 07:54:52.112558  3006 net.cpp:122] Setting up feat3
I0817 07:54:52.112571  3006 net.cpp:129] Top shape: 12 3 1 4096 (147456)
I0817 07:54:52.112576  3006 net.cpp:137] Memory required for data: 347209728
I0817 07:54:52.112582  3006 layer_factory.hpp:77] Creating layer data_lattice2
I0817 07:54:52.112633  3006 net.cpp:84] Creating Layer data_lattice2
I0817 07:54:52.112645  3006 net.cpp:406] data_lattice2 <- feat3
I0817 07:54:52.112658  3006 net.cpp:380] data_lattice2 -> data_lattice2
I0817 07:54:52.112880  3006 net.cpp:122] Setting up data_lattice2
I0817 07:54:52.112902  3006 net.cpp:129] Top shape: 12 3 1 4096 (147456)
I0817 07:54:52.112908  3006 net.cpp:137] Memory required for data: 347799552
I0817 07:54:52.112917  3006 layer_factory.hpp:77] Creating layer data_lattice2_data_lattice2_0_split
I0817 07:54:52.112929  3006 net.cpp:84] Creating Layer data_lattice2_data_lattice2_0_split
I0817 07:54:52.112937  3006 net.cpp:406] data_lattice2_data_lattice2_0_split <- data_lattice2
I0817 07:54:52.112948  3006 net.cpp:380] data_lattice2_data_lattice2_0_split -> data_lattice2_data_lattice2_0_split_0
I0817 07:54:52.112962  3006 net.cpp:380] data_lattice2_data_lattice2_0_split -> data_lattice2_data_lattice2_0_split_1
I0817 07:54:52.113029  3006 net.cpp:122] Setting up data_lattice2_data_lattice2_0_split
I0817 07:54:52.113042  3006 net.cpp:129] Top shape: 12 3 1 4096 (147456)
I0817 07:54:52.113049  3006 net.cpp:129] Top shape: 12 3 1 4096 (147456)
I0817 07:54:52.113054  3006 net.cpp:137] Memory required for data: 348979200
I0817 07:54:52.113060  3006 layer_factory.hpp:77] Creating layer conv4
I0817 07:54:52.113075  3006 net.cpp:84] Creating Layer conv4
I0817 07:54:52.113082  3006 net.cpp:406] conv4 <- bn3_relu3_0_split_1
I0817 07:54:52.113091  3006 net.cpp:406] conv4 <- data_lattice2_data_lattice2_0_split_0
I0817 07:54:52.113098  3006 net.cpp:406] conv4 <- data_lattice2_data_lattice2_0_split_1
I0817 07:54:52.113109  3006 net.cpp:380] conv4 -> conv4
I0817 07:54:52.141387  3006 net.cpp:122] Setting up conv4
I0817 07:54:52.141413  3006 net.cpp:129] Top shape: 12 256 1 4096 (12582912)
I0817 07:54:52.141420  3006 net.cpp:137] Memory required for data: 399310848
I0817 07:54:52.141432  3006 layer_factory.hpp:77] Creating layer bn4
I0817 07:54:52.141443  3006 net.cpp:84] Creating Layer bn4
I0817 07:54:52.141453  3006 net.cpp:406] bn4 <- conv4
I0817 07:54:52.141461  3006 net.cpp:380] bn4 -> bn4
I0817 07:54:52.141808  3006 net.cpp:122] Setting up bn4
I0817 07:54:52.141822  3006 net.cpp:129] Top shape: 12 256 1 4096 (12582912)
I0817 07:54:52.141829  3006 net.cpp:137] Memory required for data: 449642496
I0817 07:54:52.141839  3006 layer_factory.hpp:77] Creating layer relu4
I0817 07:54:52.141849  3006 net.cpp:84] Creating Layer relu4
I0817 07:54:52.141856  3006 net.cpp:406] relu4 <- bn4
I0817 07:54:52.141865  3006 net.cpp:367] relu4 -> bn4 (in-place)
I0817 07:54:52.142347  3006 net.cpp:122] Setting up relu4
I0817 07:54:52.142366  3006 net.cpp:129] Top shape: 12 256 1 4096 (12582912)
I0817 07:54:52.142371  3006 net.cpp:137] Memory required for data: 499974144
I0817 07:54:52.142380  3006 layer_factory.hpp:77] Creating layer bn4_relu4_0_split
I0817 07:54:52.142391  3006 net.cpp:84] Creating Layer bn4_relu4_0_split
I0817 07:54:52.142397  3006 net.cpp:406] bn4_relu4_0_split <- bn4
I0817 07:54:52.142406  3006 net.cpp:380] bn4_relu4_0_split -> bn4_relu4_0_split_0
I0817 07:54:52.142417  3006 net.cpp:380] bn4_relu4_0_split -> bn4_relu4_0_split_1
I0817 07:54:52.142426  3006 net.cpp:380] bn4_relu4_0_split -> bn4_relu4_0_split_2
I0817 07:54:52.142513  3006 net.cpp:122] Setting up bn4_relu4_0_split
I0817 07:54:52.142524  3006 net.cpp:129] Top shape: 12 256 1 4096 (12582912)
I0817 07:54:52.142530  3006 net.cpp:129] Top shape: 12 256 1 4096 (12582912)
I0817 07:54:52.142536  3006 net.cpp:129] Top shape: 12 256 1 4096 (12582912)
I0817 07:54:52.142540  3006 net.cpp:137] Memory required for data: 650969088
I0817 07:54:52.142545  3006 layer_factory.hpp:77] Creating layer fconv4
I0817 07:54:52.142563  3006 net.cpp:84] Creating Layer fconv4
I0817 07:54:52.142570  3006 net.cpp:406] fconv4 <- bn4_relu4_0_split_0
I0817 07:54:52.142580  3006 net.cpp:380] fconv4 -> fconv4
I0817 07:54:52.146935  3006 net.cpp:122] Setting up fconv4
I0817 07:54:52.146960  3006 net.cpp:129] Top shape: 12 3 1 4096 (147456)
I0817 07:54:52.146966  3006 net.cpp:137] Memory required for data: 651558912
I0817 07:54:52.146977  3006 layer_factory.hpp:77] Creating layer fbn4
I0817 07:54:52.146991  3006 net.cpp:84] Creating Layer fbn4
I0817 07:54:52.146998  3006 net.cpp:406] fbn4 <- fconv4
I0817 07:54:52.147007  3006 net.cpp:380] fbn4 -> fbn4
I0817 07:54:52.147351  3006 net.cpp:122] Setting up fbn4
I0817 07:54:52.147363  3006 net.cpp:129] Top shape: 12 3 1 4096 (147456)
I0817 07:54:52.147369  3006 net.cpp:137] Memory required for data: 652148736
I0817 07:54:52.147379  3006 layer_factory.hpp:77] Creating layer frelu4
I0817 07:54:52.147390  3006 net.cpp:84] Creating Layer frelu4
I0817 07:54:52.147397  3006 net.cpp:406] frelu4 <- fbn4
I0817 07:54:52.147405  3006 net.cpp:367] frelu4 -> fbn4 (in-place)
I0817 07:54:52.147887  3006 net.cpp:122] Setting up frelu4
I0817 07:54:52.147907  3006 net.cpp:129] Top shape: 12 3 1 4096 (147456)
I0817 07:54:52.147913  3006 net.cpp:137] Memory required for data: 652738560
I0817 07:54:52.147922  3006 layer_factory.hpp:77] Creating layer fbn4_
I0817 07:54:52.147931  3006 net.cpp:84] Creating Layer fbn4_
I0817 07:54:52.147938  3006 net.cpp:406] fbn4_ <- fbn4
I0817 07:54:52.147946  3006 net.cpp:380] fbn4_ -> fbn4_
I0817 07:54:52.147994  3006 net.cpp:122] Setting up fbn4_
I0817 07:54:52.148006  3006 net.cpp:129] Top shape: 12 3 1 4096 (147456)
I0817 07:54:52.148011  3006 net.cpp:137] Memory required for data: 653328384
I0817 07:54:52.148016  3006 layer_factory.hpp:77] Creating layer feat4
I0817 07:54:52.148026  3006 net.cpp:84] Creating Layer feat4
I0817 07:54:52.148033  3006 net.cpp:406] feat4 <- data_feat_data_feat_0_split_3
I0817 07:54:52.148041  3006 net.cpp:406] feat4 <- fbn4_
I0817 07:54:52.148049  3006 net.cpp:380] feat4 -> feat4
I0817 07:54:52.148092  3006 net.cpp:122] Setting up feat4
I0817 07:54:52.148102  3006 net.cpp:129] Top shape: 12 3 1 4096 (147456)
I0817 07:54:52.148106  3006 net.cpp:137] Memory required for data: 653918208
I0817 07:54:52.148111  3006 layer_factory.hpp:77] Creating layer data_lattice3
I0817 07:54:52.148152  3006 net.cpp:84] Creating Layer data_lattice3
I0817 07:54:52.148164  3006 net.cpp:406] data_lattice3 <- feat4
I0817 07:54:52.148172  3006 net.cpp:380] data_lattice3 -> data_lattice3
I0817 07:54:52.150645  3006 net.cpp:122] Setting up data_lattice3
I0817 07:54:52.150671  3006 net.cpp:129] Top shape: 12 3 1 4096 (147456)
I0817 07:54:52.150686  3006 net.cpp:137] Memory required for data: 654508032
I0817 07:54:52.150691  3006 layer_factory.hpp:77] Creating layer data_lattice3_data_lattice3_0_split
I0817 07:54:52.150705  3006 net.cpp:84] Creating Layer data_lattice3_data_lattice3_0_split
I0817 07:54:52.150712  3006 net.cpp:406] data_lattice3_data_lattice3_0_split <- data_lattice3
I0817 07:54:52.150722  3006 net.cpp:380] data_lattice3_data_lattice3_0_split -> data_lattice3_data_lattice3_0_split_0
I0817 07:54:52.150733  3006 net.cpp:380] data_lattice3_data_lattice3_0_split -> data_lattice3_data_lattice3_0_split_1
I0817 07:54:52.150797  3006 net.cpp:122] Setting up data_lattice3_data_lattice3_0_split
I0817 07:54:52.150810  3006 net.cpp:129] Top shape: 12 3 1 4096 (147456)
I0817 07:54:52.150815  3006 net.cpp:129] Top shape: 12 3 1 4096 (147456)
I0817 07:54:52.150820  3006 net.cpp:137] Memory required for data: 655687680
I0817 07:54:52.150827  3006 layer_factory.hpp:77] Creating layer conv5
I0817 07:54:52.150840  3006 net.cpp:84] Creating Layer conv5
I0817 07:54:52.150846  3006 net.cpp:406] conv5 <- bn4_relu4_0_split_1
I0817 07:54:52.150854  3006 net.cpp:406] conv5 <- data_lattice3_data_lattice3_0_split_0
I0817 07:54:52.150861  3006 net.cpp:406] conv5 <- data_lattice3_data_lattice3_0_split_1
I0817 07:54:52.150868  3006 net.cpp:380] conv5 -> conv5
I0817 07:54:52.196835  3006 net.cpp:122] Setting up conv5
I0817 07:54:52.196868  3006 net.cpp:129] Top shape: 12 256 1 4096 (12582912)
I0817 07:54:52.196874  3006 net.cpp:137] Memory required for data: 706019328
I0817 07:54:52.196885  3006 layer_factory.hpp:77] Creating layer bn5
I0817 07:54:52.196895  3006 net.cpp:84] Creating Layer bn5
I0817 07:54:52.196903  3006 net.cpp:406] bn5 <- conv5
I0817 07:54:52.196914  3006 net.cpp:380] bn5 -> bn5
I0817 07:54:52.197196  3006 net.cpp:122] Setting up bn5
I0817 07:54:52.197207  3006 net.cpp:129] Top shape: 12 256 1 4096 (12582912)
I0817 07:54:52.197211  3006 net.cpp:137] Memory required for data: 756350976
I0817 07:54:52.197221  3006 layer_factory.hpp:77] Creating layer relu5
I0817 07:54:52.197230  3006 net.cpp:84] Creating Layer relu5
I0817 07:54:52.197235  3006 net.cpp:406] relu5 <- bn5
I0817 07:54:52.197242  3006 net.cpp:367] relu5 -> bn5 (in-place)
I0817 07:54:52.198243  3006 net.cpp:122] Setting up relu5
I0817 07:54:52.198264  3006 net.cpp:129] Top shape: 12 256 1 4096 (12582912)
I0817 07:54:52.198271  3006 net.cpp:137] Memory required for data: 806682624
I0817 07:54:52.198276  3006 layer_factory.hpp:77] Creating layer bn5_relu5_0_split
I0817 07:54:52.198284  3006 net.cpp:84] Creating Layer bn5_relu5_0_split
I0817 07:54:52.198289  3006 net.cpp:406] bn5_relu5_0_split <- bn5
I0817 07:54:52.198315  3006 net.cpp:380] bn5_relu5_0_split -> bn5_relu5_0_split_0
I0817 07:54:52.198324  3006 net.cpp:380] bn5_relu5_0_split -> bn5_relu5_0_split_1
I0817 07:54:52.198346  3006 net.cpp:380] bn5_relu5_0_split -> bn5_relu5_0_split_2
I0817 07:54:52.198421  3006 net.cpp:122] Setting up bn5_relu5_0_split
I0817 07:54:52.198431  3006 net.cpp:129] Top shape: 12 256 1 4096 (12582912)
I0817 07:54:52.198437  3006 net.cpp:129] Top shape: 12 256 1 4096 (12582912)
I0817 07:54:52.198441  3006 net.cpp:129] Top shape: 12 256 1 4096 (12582912)
I0817 07:54:52.198446  3006 net.cpp:137] Memory required for data: 957677568
I0817 07:54:52.198453  3006 layer_factory.hpp:77] Creating layer fconv5
I0817 07:54:52.198468  3006 net.cpp:84] Creating Layer fconv5
I0817 07:54:52.198473  3006 net.cpp:406] fconv5 <- bn5_relu5_0_split_0
I0817 07:54:52.198484  3006 net.cpp:380] fconv5 -> fconv5
I0817 07:54:52.200418  3006 net.cpp:122] Setting up fconv5
I0817 07:54:52.200439  3006 net.cpp:129] Top shape: 12 3 1 4096 (147456)
I0817 07:54:52.200444  3006 net.cpp:137] Memory required for data: 958267392
I0817 07:54:52.200453  3006 layer_factory.hpp:77] Creating layer fbn5
I0817 07:54:52.200466  3006 net.cpp:84] Creating Layer fbn5
I0817 07:54:52.200471  3006 net.cpp:406] fbn5 <- fconv5
I0817 07:54:52.200480  3006 net.cpp:380] fbn5 -> fbn5
I0817 07:54:52.200768  3006 net.cpp:122] Setting up fbn5
I0817 07:54:52.200780  3006 net.cpp:129] Top shape: 12 3 1 4096 (147456)
I0817 07:54:52.200784  3006 net.cpp:137] Memory required for data: 958857216
I0817 07:54:52.200794  3006 layer_factory.hpp:77] Creating layer frelu5
I0817 07:54:52.200803  3006 net.cpp:84] Creating Layer frelu5
I0817 07:54:52.200808  3006 net.cpp:406] frelu5 <- fbn5
I0817 07:54:52.200814  3006 net.cpp:367] frelu5 -> fbn5 (in-place)
I0817 07:54:52.201194  3006 net.cpp:122] Setting up frelu5
I0817 07:54:52.201208  3006 net.cpp:129] Top shape: 12 3 1 4096 (147456)
I0817 07:54:52.201213  3006 net.cpp:137] Memory required for data: 959447040
I0817 07:54:52.201217  3006 layer_factory.hpp:77] Creating layer fbn5_
I0817 07:54:52.201226  3006 net.cpp:84] Creating Layer fbn5_
I0817 07:54:52.201231  3006 net.cpp:406] fbn5_ <- fbn5
I0817 07:54:52.201241  3006 net.cpp:380] fbn5_ -> fbn5_
I0817 07:54:52.201275  3006 net.cpp:122] Setting up fbn5_
I0817 07:54:52.201284  3006 net.cpp:129] Top shape: 12 3 1 4096 (147456)
I0817 07:54:52.201288  3006 net.cpp:137] Memory required for data: 960036864
I0817 07:54:52.201292  3006 layer_factory.hpp:77] Creating layer feat5
I0817 07:54:52.201304  3006 net.cpp:84] Creating Layer feat5
I0817 07:54:52.201309  3006 net.cpp:406] feat5 <- data_feat_data_feat_0_split_4
I0817 07:54:52.201316  3006 net.cpp:406] feat5 <- fbn5_
I0817 07:54:52.201324  3006 net.cpp:380] feat5 -> feat5
I0817 07:54:52.201356  3006 net.cpp:122] Setting up feat5
I0817 07:54:52.201365  3006 net.cpp:129] Top shape: 12 3 1 4096 (147456)
I0817 07:54:52.201369  3006 net.cpp:137] Memory required for data: 960626688
I0817 07:54:52.201372  3006 layer_factory.hpp:77] Creating layer data_lattice4
I0817 07:54:52.201431  3006 net.cpp:84] Creating Layer data_lattice4
I0817 07:54:52.201442  3006 net.cpp:406] data_lattice4 <- feat5
I0817 07:54:52.201452  3006 net.cpp:380] data_lattice4 -> data_lattice4
I0817 07:54:52.201665  3006 net.cpp:122] Setting up data_lattice4
I0817 07:54:52.201691  3006 net.cpp:129] Top shape: 12 3 1 4096 (147456)
I0817 07:54:52.201696  3006 net.cpp:137] Memory required for data: 961216512
I0817 07:54:52.201701  3006 layer_factory.hpp:77] Creating layer data_lattice4_data_lattice4_0_split
I0817 07:54:52.201710  3006 net.cpp:84] Creating Layer data_lattice4_data_lattice4_0_split
I0817 07:54:52.201715  3006 net.cpp:406] data_lattice4_data_lattice4_0_split <- data_lattice4
I0817 07:54:52.201725  3006 net.cpp:380] data_lattice4_data_lattice4_0_split -> data_lattice4_data_lattice4_0_split_0
I0817 07:54:52.201733  3006 net.cpp:380] data_lattice4_data_lattice4_0_split -> data_lattice4_data_lattice4_0_split_1
I0817 07:54:52.201784  3006 net.cpp:122] Setting up data_lattice4_data_lattice4_0_split
I0817 07:54:52.201793  3006 net.cpp:129] Top shape: 12 3 1 4096 (147456)
I0817 07:54:52.201798  3006 net.cpp:129] Top shape: 12 3 1 4096 (147456)
I0817 07:54:52.201802  3006 net.cpp:137] Memory required for data: 962396160
I0817 07:54:52.201805  3006 layer_factory.hpp:77] Creating layer conv6
I0817 07:54:52.201815  3006 net.cpp:84] Creating Layer conv6
I0817 07:54:52.201819  3006 net.cpp:406] conv6 <- bn5_relu5_0_split_1
I0817 07:54:52.201825  3006 net.cpp:406] conv6 <- data_lattice4_data_lattice4_0_split_0
I0817 07:54:52.201831  3006 net.cpp:406] conv6 <- data_lattice4_data_lattice4_0_split_1
I0817 07:54:52.201839  3006 net.cpp:380] conv6 -> conv6
I0817 07:54:52.239600  3006 net.cpp:122] Setting up conv6
I0817 07:54:52.239621  3006 net.cpp:129] Top shape: 12 256 1 4096 (12582912)
I0817 07:54:52.239626  3006 net.cpp:137] Memory required for data: 1012727808
I0817 07:54:52.239634  3006 layer_factory.hpp:77] Creating layer bn6
I0817 07:54:52.239655  3006 net.cpp:84] Creating Layer bn6
I0817 07:54:52.239660  3006 net.cpp:406] bn6 <- conv6
I0817 07:54:52.239667  3006 net.cpp:380] bn6 -> bn6
I0817 07:54:52.239913  3006 net.cpp:122] Setting up bn6
I0817 07:54:52.239925  3006 net.cpp:129] Top shape: 12 256 1 4096 (12582912)
I0817 07:54:52.239929  3006 net.cpp:137] Memory required for data: 1063059456
I0817 07:54:52.239938  3006 layer_factory.hpp:77] Creating layer relu6
I0817 07:54:52.239949  3006 net.cpp:84] Creating Layer relu6
I0817 07:54:52.239955  3006 net.cpp:406] relu6 <- bn6
I0817 07:54:52.239961  3006 net.cpp:367] relu6 -> bn6 (in-place)
I0817 07:54:52.240746  3006 net.cpp:122] Setting up relu6
I0817 07:54:52.240764  3006 net.cpp:129] Top shape: 12 256 1 4096 (12582912)
I0817 07:54:52.240769  3006 net.cpp:137] Memory required for data: 1113391104
I0817 07:54:52.240773  3006 layer_factory.hpp:77] Creating layer concat6
I0817 07:54:52.240811  3006 net.cpp:84] Creating Layer concat6
I0817 07:54:52.240819  3006 net.cpp:406] concat6 <- bn6
I0817 07:54:52.240826  3006 net.cpp:406] concat6 <- bn2_relu2_0_split_2
I0817 07:54:52.240831  3006 net.cpp:406] concat6 <- bn3_relu3_0_split_2
I0817 07:54:52.240835  3006 net.cpp:406] concat6 <- bn4_relu4_0_split_2
I0817 07:54:52.240839  3006 net.cpp:406] concat6 <- bn5_relu5_0_split_2
I0817 07:54:52.240846  3006 net.cpp:380] concat6 -> concat6
I0817 07:54:52.240907  3006 net.cpp:122] Setting up concat6
I0817 07:54:52.240919  3006 net.cpp:129] Top shape: 12 960 1 4096 (47185920)
I0817 07:54:52.240923  3006 net.cpp:137] Memory required for data: 1302134784
I0817 07:54:52.240929  3006 layer_factory.hpp:77] Creating layer conv7
I0817 07:54:52.240944  3006 net.cpp:84] Creating Layer conv7
I0817 07:54:52.240948  3006 net.cpp:406] conv7 <- concat6
I0817 07:54:52.240958  3006 net.cpp:380] conv7 -> conv7
I0817 07:54:52.244029  3006 net.cpp:122] Setting up conv7
I0817 07:54:52.244048  3006 net.cpp:129] Top shape: 12 128 1 4096 (6291456)
I0817 07:54:52.244053  3006 net.cpp:137] Memory required for data: 1327300608
I0817 07:54:52.244061  3006 layer_factory.hpp:77] Creating layer bn7
I0817 07:54:52.244071  3006 net.cpp:84] Creating Layer bn7
I0817 07:54:52.244076  3006 net.cpp:406] bn7 <- conv7
I0817 07:54:52.244083  3006 net.cpp:380] bn7 -> bn7
I0817 07:54:52.244326  3006 net.cpp:122] Setting up bn7
I0817 07:54:52.244336  3006 net.cpp:129] Top shape: 12 128 1 4096 (6291456)
I0817 07:54:52.244340  3006 net.cpp:137] Memory required for data: 1352466432
I0817 07:54:52.244365  3006 layer_factory.hpp:77] Creating layer relu7
I0817 07:54:52.244375  3006 net.cpp:84] Creating Layer relu7
I0817 07:54:52.244380  3006 net.cpp:406] relu7 <- bn7
I0817 07:54:52.244386  3006 net.cpp:367] relu7 -> bn7 (in-place)
I0817 07:54:52.244740  3006 net.cpp:122] Setting up relu7
I0817 07:54:52.244755  3006 net.cpp:129] Top shape: 12 128 1 4096 (6291456)
I0817 07:54:52.244760  3006 net.cpp:137] Memory required for data: 1377632256
I0817 07:54:52.244763  3006 layer_factory.hpp:77] Creating layer conv8
I0817 07:54:52.244776  3006 net.cpp:84] Creating Layer conv8
I0817 07:54:52.244781  3006 net.cpp:406] conv8 <- bn7
I0817 07:54:52.244791  3006 net.cpp:380] conv8 -> conv8
I0817 07:54:52.247313  3006 net.cpp:122] Setting up conv8
I0817 07:54:52.247331  3006 net.cpp:129] Top shape: 12 13 1 4096 (638976)
I0817 07:54:52.247336  3006 net.cpp:137] Memory required for data: 1380188160
I0817 07:54:52.247344  3006 layer_factory.hpp:77] Creating layer conv8_conv8_0_split
I0817 07:54:52.247354  3006 net.cpp:84] Creating Layer conv8_conv8_0_split
I0817 07:54:52.247359  3006 net.cpp:406] conv8_conv8_0_split <- conv8
I0817 07:54:52.247366  3006 net.cpp:380] conv8_conv8_0_split -> conv8_conv8_0_split_0
I0817 07:54:52.247375  3006 net.cpp:380] conv8_conv8_0_split -> conv8_conv8_0_split_1
I0817 07:54:52.247424  3006 net.cpp:122] Setting up conv8_conv8_0_split
I0817 07:54:52.247433  3006 net.cpp:129] Top shape: 12 13 1 4096 (638976)
I0817 07:54:52.247438  3006 net.cpp:129] Top shape: 12 13 1 4096 (638976)
I0817 07:54:52.247442  3006 net.cpp:137] Memory required for data: 1385299968
I0817 07:54:52.247445  3006 layer_factory.hpp:77] Creating layer loss
I0817 07:54:52.247481  3006 net.cpp:84] Creating Layer loss
I0817 07:54:52.247491  3006 net.cpp:406] loss <- conv8_conv8_0_split_0
I0817 07:54:52.247498  3006 net.cpp:406] loss <- label_data_1_split_0
I0817 07:54:52.247505  3006 net.cpp:380] loss -> loss
…
