…
I0808 00:28:55.280894 24358 net.cpp:294] The NetState phase (0) differed from the phase (1) specified by a rule in layer data
I0808 00:28:55.281188 24358 net.cpp:51] Initializing net from parameters: 
state {
  phase: TRAIN
}
layer {
  name: "data"
  type: "Python"
  top: "data"
  top: "label"
  include {
    phase: TRAIN
  }
  python_param {
    module: "dataset_modelnet"
    layer: "InputShapenet"
    param_str: "{\'sample_size\': 2048, \'batch_size\': 30, \'feat_dims\': \'x_y_z\', \'subset\': \'train\', \'jitter_xyz\': 0.01, \'jitter_stretch\': 0.05, \'jitter_rotation\': 5.0}"
  }
}
layer {
  name: "data_feat"
  type: "Python"
  bottom: "data"
  top: "data_feat"
  python_param {
    module: "custom_layers"
    layer: "PickAndScale"
    param_str: "0_1_2"
  }
}
layer {
  name: "conv1"
  type: "Convolution"
  bottom: "data_feat"
  top: "conv1"
  param {
    lr_mult: 1
  }
  param {
    lr_mult: 0.1
  }
  convolution_param {
    num_output: 32
    pad: 0
    kernel_size: 1
    stride: 1
    weight_filler {
      type: "xavier"
    }
    bias_filler {
      type: "constant"
      value: 0
    }
  }
}
layer {
  name: "bn1"
  type: "BatchNorm"
  bottom: "conv1"
  top: "bn1"
}
layer {
  name: "relu1"
  type: "ReLU"
  bottom: "bn1"
  top: "bn1"
}
layer {
  name: "data_lattice0"
  type: "Python"
  bottom: "data"
  top: "data_lattice0"
  python_param {
    module: "custom_layers"
    layer: "PickAndScale"
    param_str: "0*64_1*64_2*64"
  }
}
layer {
  name: "conv2"
  type: "Permutohedral"
  bottom: "bn1"
  bottom: "data_lattice0"
  bottom: "data_lattice0"
  top: "conv2"
  param {
    lr_mult: 1
    decay_mult: 1
  }
  param {
    lr_mult: 2
    decay_mult: 0
  }
  permutohedral_param {
    num_output: 64
    neighborhood_size: 1
    filter_filler {
      type: "gaussian"
      std: 0.001
    }
    bias_term: true
    bias_filler {
      type: "constant"
      value: 0
    }
    group: 1
    norm_type: AFTER
    offset_type: NONE
  }
}
layer {
  name: "bn2"
  type: "BatchNorm"
  bottom: "conv2"
  top: "bn2"
}
layer {
  name: "relu2"
  type: "ReLU"
  bottom: "bn2"
  top: "bn2"
}
layer {
  name: "data_lattice1"
  type: "Python"
  bottom: "data"
  top: "data_lattice1"
  python_param {
    module: "custom_layers"
    layer: "PickAndScale"
    param_str: "0*32_1*32_2*32"
  }
}
layer {
  name: "conv3"
  type: "Permutohedral"
  bottom: "bn2"
  bottom: "data_lattice1"
  bottom: "data_lattice1"
  top: "conv3"
  param {
    lr_mult: 1
    decay_mult: 1
  }
  param {
    lr_mult: 2
    decay_mult: 0
  }
  permutohedral_param {
    num_output: 128
    neighborhood_size: 1
    filter_filler {
      type: "gaussian"
      std: 0.001
    }
    bias_term: true
    bias_filler {
      type: "constant"
      value: 0
    }
    group: 1
    norm_type: AFTER
    offset_type: NONE
  }
}
layer {
  name: "bn3"
  type: "BatchNorm"
  bottom: "conv3"
  top: "bn3"
}
layer {
  name: "relu3"
  type: "ReLU"
  bottom: "bn3"
  top: "bn3"
}
layer {
  name: "data_lattice2"
  type: "Python"
  bottom: "data"
  top: "data_lattice2"
  python_param {
    module: "custom_layers"
    layer: "PickAndScale"
    param_str: "0*16_1*16_2*16"
  }
}
layer {
  name: "conv4"
  type: "Permutohedral"
  bottom: "bn3"
  bottom: "data_lattice2"
  bottom: "data_lattice2"
  top: "conv4"
  param {
    lr_mult: 1
    decay_mult: 1
  }
  param {
    lr_mult: 2
    decay_mult: 0
  }
  permutohedral_param {
    num_output: 256
    neighborhood_size: 1
    filter_filler {
      type: "gaussian"
      std: 0.001
    }
    bias_term: true
    bias_filler {
      type: "constant"
      value: 0
    }
    group: 1
    norm_type: AFTER
    offset_type: NONE
  }
}
layer {
  name: "bn4"
  type: "BatchNorm"
  bottom: "conv4"
  top: "bn4"
}
layer {
  name: "relu4"
  type: "ReLU"
  bottom: "bn4"
  top: "bn4"
}
layer {
  name: "data_lattice3"
  type: "Python"
  bottom: "data"
  top: "data_lattice3"
  python_param {
    module: "custom_layers"
    layer: "PickAndScale"
    param_str: "0*8_1*8_2*8"
  }
}
layer {
  name: "conv5"
  type: "Permutohedral"
  bottom: "bn4"
  bottom: "data_lattice3"
  bottom: "data_lattice3"
  top: "conv5"
  param {
    lr_mult: 1
    decay_mult: 1
  }
  param {
    lr_mult: 2
    decay_mult: 0
  }
  permutohedral_param {
    num_output: 256
    neighborhood_size: 1
    filter_filler {
      type: "gaussian"
      std: 0.001
    }
    bias_term: true
    bias_filler {
      type: "constant"
      value: 0
    }
    group: 1
    norm_type: AFTER
    offset_type: NONE
  }
}
layer {
  name: "bn5"
  type: "BatchNorm"
  bottom: "conv5"
  top: "bn5"
}
layer {
  name: "relu5"
  type: "ReLU"
  bottom: "bn5"
  top: "bn5"
}
layer {
  name: "data_lattice4"
  type: "Python"
  bottom: "data"
  top: "data_lattice4"
  python_param {
    module: "custom_layers"
    layer: "PickAndScale"
    param_str: "0*4_1*4_2*4"
  }
}
layer {
  name: "conv6"
  type: "Permutohedral"
  bottom: "bn5"
  bottom: "data_lattice4"
  bottom: "data_lattice4"
  top: "conv6"
  param {
    lr_mult: 1
    decay_mult: 1
  }
  param {
    lr_mult: 2
    decay_mult: 0
  }
  permutohedral_param {
    num_output: 256
    neighborhood_size: 1
    filter_filler {
      type: "gaussian"
      std: 0.001
    }
    bias_term: true
    bias_filler {
      type: "constant"
      value: 0
    }
    group: 1
    norm_type: AFTER
    offset_type: NONE
  }
}
layer {
  name: "bn6"
  type: "BatchNorm"
  bottom: "conv6"
  top: "bn6"
}
layer {
  name: "relu6"
  type: "ReLU"
  bottom: "bn6"
  top: "bn6"
}
layer {
  name: "concat6"
  type: "Concat"
  bottom: "bn6"
  bottom: "bn2"
  bottom: "bn3"
  bottom: "bn4"
  bottom: "bn5"
  top: "concat6"
}
layer {
  name: "conv7"
  type: "Convolution"
  bottom: "concat6"
  top: "conv7"
  param {
    lr_mult: 1
  }
  param {
    lr_mult: 0.1
  }
  convolution_param {
    num_output: 128
    pad: 0
    kernel_size: 1
    stride: 1
    weight_filler {
      type: "xavier"
    }
    bias_filler {
      type: "constant"
      value: 0
    }
  }
}
layer {
  name: "bn7"
  type: "BatchNorm"
  bottom: "conv7"
  top: "bn7"
}
layer {
  name: "relu7"
  type: "ReLU"
  bottom: "bn7"
  top: "bn7"
}
layer {
  name: "pool1"
  type: "Pooling"
  bottom: "bn7"
  top: "pool1"
  pooling_param {
    pool: MAX
    global_pooling: true
  }
}
layer {
  name: "conv7A"
  type: "Convolution"
  bottom: "pool1"
  top: "conv7A"
  param {
    lr_mult: 1
  }
  param {
    lr_mult: 0.1
  }
  convolution_param {
    num_output: 128
    pad: 0
    kernel_size: 1
    stride: 1
    weight_filler {
      type: "xavier"
    }
    bias_filler {
      type: "constant"
      value: 0
    }
  }
}
layer {
  name: "bn7A"
  type: "BatchNorm"
  bottom: "conv7A"
  top: "bn7A"
}
layer {
  name: "relu7A"
  type: "ReLU"
  bottom: "bn7A"
  top: "bn7A"
}
layer {
  name: "conv7B"
  type: "Convolution"
  bottom: "bn7A"
  top: "conv7B"
  param {
    lr_mult: 1
  }
  param {
    lr_mult: 0.1
  }
  convolution_param {
    num_output: 64
    pad: 0
    kernel_size: 1
    stride: 1
    weight_filler {
      type: "xavier"
    }
    bias_filler {
      type: "constant"
      value: 0
    }
  }
}
layer {
  name: "bn7B"
  type: "BatchNorm"
  bottom: "conv7B"
  top: "bn7B"
}
layer {
  name: "relu7B"
  type: "ReLU"
  bottom: "bn7B"
  top: "bn7B"
}
layer {
  name: "conv8"
  type: "Convolution"
  bottom: "bn7B"
  top: "conv8"
  param {
    lr_mult: 1
  }
  param {
    lr_mult: 0.1
  }
  convolution_param {
    num_output: 40
    pad: 0
    kernel_size: 1
    stride: 1
    weight_filler {
      type: "xavier"
    }
    bias_filler {
      type: "constant"
      value: 0
    }
  }
}
layer {
  name: "loss"
  type: "SoftmaxWithLoss"
  bottom: "conv8"
  bottom: "label"
  top: "loss"
}
layer {
  name: "accuracy"
  type: "Accuracy"
  bottom: "conv8"
  bottom: "label"
  top: "accuracy"
}
I0808 00:28:55.281566 24358 layer_factory.hpp:77] Creating layer data
I0808 00:28:55.306125 24358 net.cpp:84] Creating Layer data
I0808 00:28:55.306157 24358 net.cpp:380] data -> data
I0808 00:28:55.306221 24358 net.cpp:380] data -> label
I0808 00:29:01.681027 24358 net.cpp:122] Setting up data
I0808 00:29:01.681093 24358 net.cpp:129] Top shape: 30 3 1 2048 (184320)
I0808 00:29:01.681102 24358 net.cpp:129] Top shape: 30 1 1 1 (30)
I0808 00:29:01.681105 24358 net.cpp:137] Memory required for data: 737400
I0808 00:29:01.681121 24358 layer_factory.hpp:77] Creating layer data_data_0_split
I0808 00:29:01.681164 24358 net.cpp:84] Creating Layer data_data_0_split
I0808 00:29:01.681177 24358 net.cpp:406] data_data_0_split <- data
I0808 00:29:01.681190 24358 net.cpp:380] data_data_0_split -> data_data_0_split_0
I0808 00:29:01.681205 24358 net.cpp:380] data_data_0_split -> data_data_0_split_1
I0808 00:29:01.681211 24358 net.cpp:380] data_data_0_split -> data_data_0_split_2
I0808 00:29:01.681217 24358 net.cpp:380] data_data_0_split -> data_data_0_split_3
I0808 00:29:01.681222 24358 net.cpp:380] data_data_0_split -> data_data_0_split_4
I0808 00:29:01.681228 24358 net.cpp:380] data_data_0_split -> data_data_0_split_5
I0808 00:29:01.681308 24358 net.cpp:122] Setting up data_data_0_split
I0808 00:29:01.681315 24358 net.cpp:129] Top shape: 30 3 1 2048 (184320)
I0808 00:29:01.681319 24358 net.cpp:129] Top shape: 30 3 1 2048 (184320)
I0808 00:29:01.681322 24358 net.cpp:129] Top shape: 30 3 1 2048 (184320)
I0808 00:29:01.681326 24358 net.cpp:129] Top shape: 30 3 1 2048 (184320)
I0808 00:29:01.681329 24358 net.cpp:129] Top shape: 30 3 1 2048 (184320)
I0808 00:29:01.681332 24358 net.cpp:129] Top shape: 30 3 1 2048 (184320)
I0808 00:29:01.681335 24358 net.cpp:137] Memory required for data: 5161080
I0808 00:29:01.681339 24358 layer_factory.hpp:77] Creating layer label_data_1_split
I0808 00:29:01.681345 24358 net.cpp:84] Creating Layer label_data_1_split
I0808 00:29:01.681349 24358 net.cpp:406] label_data_1_split <- label
I0808 00:29:01.681354 24358 net.cpp:380] label_data_1_split -> label_data_1_split_0
I0808 00:29:01.681361 24358 net.cpp:380] label_data_1_split -> label_data_1_split_1
I0808 00:29:01.681396 24358 net.cpp:122] Setting up label_data_1_split
I0808 00:29:01.681401 24358 net.cpp:129] Top shape: 30 1 1 1 (30)
I0808 00:29:01.681406 24358 net.cpp:129] Top shape: 30 1 1 1 (30)
I0808 00:29:01.681408 24358 net.cpp:137] Memory required for data: 5161320
I0808 00:29:01.681411 24358 layer_factory.hpp:77] Creating layer data_feat
I0808 00:29:01.687379 24358 net.cpp:84] Creating Layer data_feat
I0808 00:29:01.687415 24358 net.cpp:406] data_feat <- data_data_0_split_0
I0808 00:29:01.687436 24358 net.cpp:380] data_feat -> data_feat
I0808 00:29:01.689031 24358 net.cpp:122] Setting up data_feat
I0808 00:29:01.689059 24358 net.cpp:129] Top shape: 30 3 1 2048 (184320)
I0808 00:29:01.689062 24358 net.cpp:137] Memory required for data: 5898600
I0808 00:29:01.689066 24358 layer_factory.hpp:77] Creating layer conv1
I0808 00:29:01.689136 24358 net.cpp:84] Creating Layer conv1
I0808 00:29:01.689143 24358 net.cpp:406] conv1 <- data_feat
I0808 00:29:01.689152 24358 net.cpp:380] conv1 -> conv1
I0808 00:29:02.476236 24358 net.cpp:122] Setting up conv1
I0808 00:29:02.476280 24358 net.cpp:129] Top shape: 30 32 1 2048 (1966080)
I0808 00:29:02.476284 24358 net.cpp:137] Memory required for data: 13762920
I0808 00:29:02.476347 24358 layer_factory.hpp:77] Creating layer bn1
I0808 00:29:02.476382 24358 net.cpp:84] Creating Layer bn1
I0808 00:29:02.476397 24358 net.cpp:406] bn1 <- conv1
I0808 00:29:02.476405 24358 net.cpp:380] bn1 -> bn1
I0808 00:29:02.476656 24358 net.cpp:122] Setting up bn1
I0808 00:29:02.476668 24358 net.cpp:129] Top shape: 30 32 1 2048 (1966080)
I0808 00:29:02.476671 24358 net.cpp:137] Memory required for data: 21627240
I0808 00:29:02.476682 24358 layer_factory.hpp:77] Creating layer relu1
I0808 00:29:02.476722 24358 net.cpp:84] Creating Layer relu1
I0808 00:29:02.476727 24358 net.cpp:406] relu1 <- bn1
I0808 00:29:02.476732 24358 net.cpp:367] relu1 -> bn1 (in-place)
I0808 00:29:02.477093 24358 net.cpp:122] Setting up relu1
I0808 00:29:02.477108 24358 net.cpp:129] Top shape: 30 32 1 2048 (1966080)
I0808 00:29:02.477110 24358 net.cpp:137] Memory required for data: 29491560
I0808 00:29:02.477114 24358 layer_factory.hpp:77] Creating layer data_lattice0
I0808 00:29:02.477206 24358 net.cpp:84] Creating Layer data_lattice0
I0808 00:29:02.477212 24358 net.cpp:406] data_lattice0 <- data_data_0_split_1
I0808 00:29:02.477221 24358 net.cpp:380] data_lattice0 -> data_lattice0
I0808 00:29:02.477478 24358 net.cpp:122] Setting up data_lattice0
I0808 00:29:02.477490 24358 net.cpp:129] Top shape: 30 3 1 2048 (184320)
I0808 00:29:02.477494 24358 net.cpp:137] Memory required for data: 30228840
I0808 00:29:02.477497 24358 layer_factory.hpp:77] Creating layer data_lattice0_data_lattice0_0_split
I0808 00:29:02.477507 24358 net.cpp:84] Creating Layer data_lattice0_data_lattice0_0_split
I0808 00:29:02.477511 24358 net.cpp:406] data_lattice0_data_lattice0_0_split <- data_lattice0
I0808 00:29:02.477519 24358 net.cpp:380] data_lattice0_data_lattice0_0_split -> data_lattice0_data_lattice0_0_split_0
I0808 00:29:02.477525 24358 net.cpp:380] data_lattice0_data_lattice0_0_split -> data_lattice0_data_lattice0_0_split_1
I0808 00:29:02.477564 24358 net.cpp:122] Setting up data_lattice0_data_lattice0_0_split
I0808 00:29:02.477569 24358 net.cpp:129] Top shape: 30 3 1 2048 (184320)
I0808 00:29:02.477573 24358 net.cpp:129] Top shape: 30 3 1 2048 (184320)
I0808 00:29:02.477576 24358 net.cpp:137] Memory required for data: 31703400
I0808 00:29:02.477579 24358 layer_factory.hpp:77] Creating layer conv2
I0808 00:29:02.477609 24358 net.cpp:84] Creating Layer conv2
I0808 00:29:02.477615 24358 net.cpp:406] conv2 <- bn1
I0808 00:29:02.477620 24358 net.cpp:406] conv2 <- data_lattice0_data_lattice0_0_split_0
I0808 00:29:02.477625 24358 net.cpp:406] conv2 <- data_lattice0_data_lattice0_0_split_1
I0808 00:29:02.477632 24358 net.cpp:380] conv2 -> conv2
I0808 00:29:02.480298 24358 net.cpp:122] Setting up conv2
I0808 00:29:02.480325 24358 net.cpp:129] Top shape: 30 64 1 2048 (3932160)
I0808 00:29:02.480329 24358 net.cpp:137] Memory required for data: 47432040
I0808 00:29:02.480348 24358 layer_factory.hpp:77] Creating layer bn2
I0808 00:29:02.480355 24358 net.cpp:84] Creating Layer bn2
I0808 00:29:02.480357 24358 net.cpp:406] bn2 <- conv2
I0808 00:29:02.480363 24358 net.cpp:380] bn2 -> bn2
I0808 00:29:02.480551 24358 net.cpp:122] Setting up bn2
I0808 00:29:02.480561 24358 net.cpp:129] Top shape: 30 64 1 2048 (3932160)
I0808 00:29:02.480563 24358 net.cpp:137] Memory required for data: 63160680
I0808 00:29:02.480576 24358 layer_factory.hpp:77] Creating layer relu2
I0808 00:29:02.480582 24358 net.cpp:84] Creating Layer relu2
I0808 00:29:02.480587 24358 net.cpp:406] relu2 <- bn2
I0808 00:29:02.480592 24358 net.cpp:367] relu2 -> bn2 (in-place)
I0808 00:29:02.481199 24358 net.cpp:122] Setting up relu2
I0808 00:29:02.481214 24358 net.cpp:129] Top shape: 30 64 1 2048 (3932160)
I0808 00:29:02.481217 24358 net.cpp:137] Memory required for data: 78889320
I0808 00:29:02.481232 24358 layer_factory.hpp:77] Creating layer bn2_relu2_0_split
I0808 00:29:02.481238 24358 net.cpp:84] Creating Layer bn2_relu2_0_split
I0808 00:29:02.481242 24358 net.cpp:406] bn2_relu2_0_split <- bn2
I0808 00:29:02.481247 24358 net.cpp:380] bn2_relu2_0_split -> bn2_relu2_0_split_0
I0808 00:29:02.481254 24358 net.cpp:380] bn2_relu2_0_split -> bn2_relu2_0_split_1
I0808 00:29:02.481293 24358 net.cpp:122] Setting up bn2_relu2_0_split
I0808 00:29:02.481298 24358 net.cpp:129] Top shape: 30 64 1 2048 (3932160)
I0808 00:29:02.481302 24358 net.cpp:129] Top shape: 30 64 1 2048 (3932160)
I0808 00:29:02.481304 24358 net.cpp:137] Memory required for data: 110346600
I0808 00:29:02.481307 24358 layer_factory.hpp:77] Creating layer data_lattice1
I0808 00:29:02.481333 24358 net.cpp:84] Creating Layer data_lattice1
I0808 00:29:02.481338 24358 net.cpp:406] data_lattice1 <- data_data_0_split_2
I0808 00:29:02.481346 24358 net.cpp:380] data_lattice1 -> data_lattice1
I0808 00:29:02.482700 24358 net.cpp:122] Setting up data_lattice1
I0808 00:29:02.482715 24358 net.cpp:129] Top shape: 30 3 1 2048 (184320)
I0808 00:29:02.482719 24358 net.cpp:137] Memory required for data: 111083880
I0808 00:29:02.482723 24358 layer_factory.hpp:77] Creating layer data_lattice1_data_lattice1_0_split
I0808 00:29:02.482729 24358 net.cpp:84] Creating Layer data_lattice1_data_lattice1_0_split
I0808 00:29:02.482733 24358 net.cpp:406] data_lattice1_data_lattice1_0_split <- data_lattice1
I0808 00:29:02.482740 24358 net.cpp:380] data_lattice1_data_lattice1_0_split -> data_lattice1_data_lattice1_0_split_0
I0808 00:29:02.482748 24358 net.cpp:380] data_lattice1_data_lattice1_0_split -> data_lattice1_data_lattice1_0_split_1
I0808 00:29:02.482782 24358 net.cpp:122] Setting up data_lattice1_data_lattice1_0_split
I0808 00:29:02.482787 24358 net.cpp:129] Top shape: 30 3 1 2048 (184320)
I0808 00:29:02.482791 24358 net.cpp:129] Top shape: 30 3 1 2048 (184320)
I0808 00:29:02.482794 24358 net.cpp:137] Memory required for data: 112558440
I0808 00:29:02.482796 24358 layer_factory.hpp:77] Creating layer conv3
I0808 00:29:02.482808 24358 net.cpp:84] Creating Layer conv3
I0808 00:29:02.482811 24358 net.cpp:406] conv3 <- bn2_relu2_0_split_0
I0808 00:29:02.482817 24358 net.cpp:406] conv3 <- data_lattice1_data_lattice1_0_split_0
I0808 00:29:02.482821 24358 net.cpp:406] conv3 <- data_lattice1_data_lattice1_0_split_1
I0808 00:29:02.482827 24358 net.cpp:380] conv3 -> conv3
I0808 00:29:02.486379 24358 net.cpp:122] Setting up conv3
I0808 00:29:02.486392 24358 net.cpp:129] Top shape: 30 128 1 2048 (7864320)
I0808 00:29:02.486404 24358 net.cpp:137] Memory required for data: 144015720
I0808 00:29:02.486410 24358 layer_factory.hpp:77] Creating layer bn3
I0808 00:29:02.486418 24358 net.cpp:84] Creating Layer bn3
I0808 00:29:02.486423 24358 net.cpp:406] bn3 <- conv3
I0808 00:29:02.486428 24358 net.cpp:380] bn3 -> bn3
I0808 00:29:02.486599 24358 net.cpp:122] Setting up bn3
I0808 00:29:02.486606 24358 net.cpp:129] Top shape: 30 128 1 2048 (7864320)
I0808 00:29:02.486609 24358 net.cpp:137] Memory required for data: 175473000
I0808 00:29:02.486616 24358 layer_factory.hpp:77] Creating layer relu3
I0808 00:29:02.486623 24358 net.cpp:84] Creating Layer relu3
I0808 00:29:02.486625 24358 net.cpp:406] relu3 <- bn3
I0808 00:29:02.486630 24358 net.cpp:367] relu3 -> bn3 (in-place)
I0808 00:29:02.486912 24358 net.cpp:122] Setting up relu3
I0808 00:29:02.486922 24358 net.cpp:129] Top shape: 30 128 1 2048 (7864320)
I0808 00:29:02.486927 24358 net.cpp:137] Memory required for data: 206930280
I0808 00:29:02.486929 24358 layer_factory.hpp:77] Creating layer bn3_relu3_0_split
I0808 00:29:02.486935 24358 net.cpp:84] Creating Layer bn3_relu3_0_split
I0808 00:29:02.486939 24358 net.cpp:406] bn3_relu3_0_split <- bn3
I0808 00:29:02.486945 24358 net.cpp:380] bn3_relu3_0_split -> bn3_relu3_0_split_0
I0808 00:29:02.486951 24358 net.cpp:380] bn3_relu3_0_split -> bn3_relu3_0_split_1
I0808 00:29:02.486989 24358 net.cpp:122] Setting up bn3_relu3_0_split
I0808 00:29:02.486994 24358 net.cpp:129] Top shape: 30 128 1 2048 (7864320)
I0808 00:29:02.486999 24358 net.cpp:129] Top shape: 30 128 1 2048 (7864320)
I0808 00:29:02.487000 24358 net.cpp:137] Memory required for data: 269844840
I0808 00:29:02.487005 24358 layer_factory.hpp:77] Creating layer data_lattice2
I0808 00:29:02.487030 24358 net.cpp:84] Creating Layer data_lattice2
I0808 00:29:02.487035 24358 net.cpp:406] data_lattice2 <- data_data_0_split_3
I0808 00:29:02.487041 24358 net.cpp:380] data_lattice2 -> data_lattice2
I0808 00:29:02.487148 24358 net.cpp:122] Setting up data_lattice2
I0808 00:29:02.487157 24358 net.cpp:129] Top shape: 30 3 1 2048 (184320)
I0808 00:29:02.487161 24358 net.cpp:137] Memory required for data: 270582120
I0808 00:29:02.487164 24358 layer_factory.hpp:77] Creating layer data_lattice2_data_lattice2_0_split
I0808 00:29:02.487170 24358 net.cpp:84] Creating Layer data_lattice2_data_lattice2_0_split
I0808 00:29:02.487174 24358 net.cpp:406] data_lattice2_data_lattice2_0_split <- data_lattice2
I0808 00:29:02.487179 24358 net.cpp:380] data_lattice2_data_lattice2_0_split -> data_lattice2_data_lattice2_0_split_0
I0808 00:29:02.487186 24358 net.cpp:380] data_lattice2_data_lattice2_0_split -> data_lattice2_data_lattice2_0_split_1
I0808 00:29:02.487220 24358 net.cpp:122] Setting up data_lattice2_data_lattice2_0_split
I0808 00:29:02.487224 24358 net.cpp:129] Top shape: 30 3 1 2048 (184320)
I0808 00:29:02.487227 24358 net.cpp:129] Top shape: 30 3 1 2048 (184320)
I0808 00:29:02.487229 24358 net.cpp:137] Memory required for data: 272056680
I0808 00:29:02.487232 24358 layer_factory.hpp:77] Creating layer conv4
I0808 00:29:02.487241 24358 net.cpp:84] Creating Layer conv4
I0808 00:29:02.487244 24358 net.cpp:406] conv4 <- bn3_relu3_0_split_0
I0808 00:29:02.487249 24358 net.cpp:406] conv4 <- data_lattice2_data_lattice2_0_split_0
I0808 00:29:02.487253 24358 net.cpp:406] conv4 <- data_lattice2_data_lattice2_0_split_1
I0808 00:29:02.487258 24358 net.cpp:380] conv4 -> conv4
I0808 00:29:02.502573 24358 net.cpp:122] Setting up conv4
I0808 00:29:02.502599 24358 net.cpp:129] Top shape: 30 256 1 2048 (15728640)
I0808 00:29:02.502602 24358 net.cpp:137] Memory required for data: 334971240
I0808 00:29:02.502614 24358 layer_factory.hpp:77] Creating layer bn4
I0808 00:29:02.502620 24358 net.cpp:84] Creating Layer bn4
I0808 00:29:02.502624 24358 net.cpp:406] bn4 <- conv4
I0808 00:29:02.502630 24358 net.cpp:380] bn4 -> bn4
I0808 00:29:02.502823 24358 net.cpp:122] Setting up bn4
I0808 00:29:02.502830 24358 net.cpp:129] Top shape: 30 256 1 2048 (15728640)
I0808 00:29:02.502832 24358 net.cpp:137] Memory required for data: 397885800
I0808 00:29:02.502841 24358 layer_factory.hpp:77] Creating layer relu4
I0808 00:29:02.502847 24358 net.cpp:84] Creating Layer relu4
I0808 00:29:02.502851 24358 net.cpp:406] relu4 <- bn4
I0808 00:29:02.502856 24358 net.cpp:367] relu4 -> bn4 (in-place)
I0808 00:29:02.503484 24358 net.cpp:122] Setting up relu4
I0808 00:29:02.503497 24358 net.cpp:129] Top shape: 30 256 1 2048 (15728640)
I0808 00:29:02.503501 24358 net.cpp:137] Memory required for data: 460800360
I0808 00:29:02.503505 24358 layer_factory.hpp:77] Creating layer bn4_relu4_0_split
I0808 00:29:02.503512 24358 net.cpp:84] Creating Layer bn4_relu4_0_split
I0808 00:29:02.503516 24358 net.cpp:406] bn4_relu4_0_split <- bn4
I0808 00:29:02.503522 24358 net.cpp:380] bn4_relu4_0_split -> bn4_relu4_0_split_0
I0808 00:29:02.503532 24358 net.cpp:380] bn4_relu4_0_split -> bn4_relu4_0_split_1
I0808 00:29:02.503571 24358 net.cpp:122] Setting up bn4_relu4_0_split
I0808 00:29:02.503576 24358 net.cpp:129] Top shape: 30 256 1 2048 (15728640)
I0808 00:29:02.503581 24358 net.cpp:129] Top shape: 30 256 1 2048 (15728640)
I0808 00:29:02.503582 24358 net.cpp:137] Memory required for data: 586629480
I0808 00:29:02.503585 24358 layer_factory.hpp:77] Creating layer data_lattice3
I0808 00:29:02.503612 24358 net.cpp:84] Creating Layer data_lattice3
I0808 00:29:02.503618 24358 net.cpp:406] data_lattice3 <- data_data_0_split_4
I0808 00:29:02.503624 24358 net.cpp:380] data_lattice3 -> data_lattice3
I0808 00:29:02.504910 24358 net.cpp:122] Setting up data_lattice3
I0808 00:29:02.504933 24358 net.cpp:129] Top shape: 30 3 1 2048 (184320)
I0808 00:29:02.504937 24358 net.cpp:137] Memory required for data: 587366760
I0808 00:29:02.504941 24358 layer_factory.hpp:77] Creating layer data_lattice3_data_lattice3_0_split
I0808 00:29:02.504947 24358 net.cpp:84] Creating Layer data_lattice3_data_lattice3_0_split
I0808 00:29:02.504951 24358 net.cpp:406] data_lattice3_data_lattice3_0_split <- data_lattice3
I0808 00:29:02.504958 24358 net.cpp:380] data_lattice3_data_lattice3_0_split -> data_lattice3_data_lattice3_0_split_0
I0808 00:29:02.504966 24358 net.cpp:380] data_lattice3_data_lattice3_0_split -> data_lattice3_data_lattice3_0_split_1
I0808 00:29:02.505002 24358 net.cpp:122] Setting up data_lattice3_data_lattice3_0_split
I0808 00:29:02.505007 24358 net.cpp:129] Top shape: 30 3 1 2048 (184320)
I0808 00:29:02.505012 24358 net.cpp:129] Top shape: 30 3 1 2048 (184320)
I0808 00:29:02.505013 24358 net.cpp:137] Memory required for data: 588841320
I0808 00:29:02.505018 24358 layer_factory.hpp:77] Creating layer conv5
I0808 00:29:02.505026 24358 net.cpp:84] Creating Layer conv5
I0808 00:29:02.505030 24358 net.cpp:406] conv5 <- bn4_relu4_0_split_0
I0808 00:29:02.505035 24358 net.cpp:406] conv5 <- data_lattice3_data_lattice3_0_split_0
I0808 00:29:02.505039 24358 net.cpp:406] conv5 <- data_lattice3_data_lattice3_0_split_1
I0808 00:29:02.505045 24358 net.cpp:380] conv5 -> conv5
I0808 00:29:02.534250 24358 net.cpp:122] Setting up conv5
I0808 00:29:02.534262 24358 net.cpp:129] Top shape: 30 256 1 2048 (15728640)
I0808 00:29:02.534276 24358 net.cpp:137] Memory required for data: 651755880
I0808 00:29:02.534282 24358 layer_factory.hpp:77] Creating layer bn5
I0808 00:29:02.534289 24358 net.cpp:84] Creating Layer bn5
I0808 00:29:02.534294 24358 net.cpp:406] bn5 <- conv5
I0808 00:29:02.534299 24358 net.cpp:380] bn5 -> bn5
I0808 00:29:02.534484 24358 net.cpp:122] Setting up bn5
I0808 00:29:02.534494 24358 net.cpp:129] Top shape: 30 256 1 2048 (15728640)
I0808 00:29:02.534497 24358 net.cpp:137] Memory required for data: 714670440
I0808 00:29:02.534503 24358 layer_factory.hpp:77] Creating layer relu5
I0808 00:29:02.534512 24358 net.cpp:84] Creating Layer relu5
I0808 00:29:02.534517 24358 net.cpp:406] relu5 <- bn5
I0808 00:29:02.534521 24358 net.cpp:367] relu5 -> bn5 (in-place)
I0808 00:29:02.534801 24358 net.cpp:122] Setting up relu5
I0808 00:29:02.534811 24358 net.cpp:129] Top shape: 30 256 1 2048 (15728640)
I0808 00:29:02.534813 24358 net.cpp:137] Memory required for data: 777585000
I0808 00:29:02.534816 24358 layer_factory.hpp:77] Creating layer bn5_relu5_0_split
I0808 00:29:02.534822 24358 net.cpp:84] Creating Layer bn5_relu5_0_split
I0808 00:29:02.534826 24358 net.cpp:406] bn5_relu5_0_split <- bn5
I0808 00:29:02.534832 24358 net.cpp:380] bn5_relu5_0_split -> bn5_relu5_0_split_0
I0808 00:29:02.534839 24358 net.cpp:380] bn5_relu5_0_split -> bn5_relu5_0_split_1
I0808 00:29:02.534876 24358 net.cpp:122] Setting up bn5_relu5_0_split
I0808 00:29:02.534881 24358 net.cpp:129] Top shape: 30 256 1 2048 (15728640)
I0808 00:29:02.534885 24358 net.cpp:129] Top shape: 30 256 1 2048 (15728640)
I0808 00:29:02.534888 24358 net.cpp:137] Memory required for data: 903414120
I0808 00:29:02.534891 24358 layer_factory.hpp:77] Creating layer data_lattice4
I0808 00:29:02.534916 24358 net.cpp:84] Creating Layer data_lattice4
I0808 00:29:02.534921 24358 net.cpp:406] data_lattice4 <- data_data_0_split_5
I0808 00:29:02.534927 24358 net.cpp:380] data_lattice4 -> data_lattice4
I0808 00:29:02.535037 24358 net.cpp:122] Setting up data_lattice4
I0808 00:29:02.535044 24358 net.cpp:129] Top shape: 30 3 1 2048 (184320)
I0808 00:29:02.535048 24358 net.cpp:137] Memory required for data: 904151400
I0808 00:29:02.535050 24358 layer_factory.hpp:77] Creating layer data_lattice4_data_lattice4_0_split
I0808 00:29:02.535059 24358 net.cpp:84] Creating Layer data_lattice4_data_lattice4_0_split
I0808 00:29:02.535063 24358 net.cpp:406] data_lattice4_data_lattice4_0_split <- data_lattice4
I0808 00:29:02.535069 24358 net.cpp:380] data_lattice4_data_lattice4_0_split -> data_lattice4_data_lattice4_0_split_0
I0808 00:29:02.535076 24358 net.cpp:380] data_lattice4_data_lattice4_0_split -> data_lattice4_data_lattice4_0_split_1
I0808 00:29:02.535109 24358 net.cpp:122] Setting up data_lattice4_data_lattice4_0_split
I0808 00:29:02.535113 24358 net.cpp:129] Top shape: 30 3 1 2048 (184320)
I0808 00:29:02.535117 24358 net.cpp:129] Top shape: 30 3 1 2048 (184320)
I0808 00:29:02.535120 24358 net.cpp:137] Memory required for data: 905625960
I0808 00:29:02.535122 24358 layer_factory.hpp:77] Creating layer conv6
I0808 00:29:02.535130 24358 net.cpp:84] Creating Layer conv6
I0808 00:29:02.535133 24358 net.cpp:406] conv6 <- bn5_relu5_0_split_0
I0808 00:29:02.535138 24358 net.cpp:406] conv6 <- data_lattice4_data_lattice4_0_split_0
I0808 00:29:02.535142 24358 net.cpp:406] conv6 <- data_lattice4_data_lattice4_0_split_1
I0808 00:29:02.535147 24358 net.cpp:380] conv6 -> conv6
I0808 00:29:02.564301 24358 net.cpp:122] Setting up conv6
I0808 00:29:02.564327 24358 net.cpp:129] Top shape: 30 256 1 2048 (15728640)
I0808 00:29:02.564330 24358 net.cpp:137] Memory required for data: 968540520
I0808 00:29:02.564337 24358 layer_factory.hpp:77] Creating layer bn6
I0808 00:29:02.564343 24358 net.cpp:84] Creating Layer bn6
I0808 00:29:02.564347 24358 net.cpp:406] bn6 <- conv6
I0808 00:29:02.564354 24358 net.cpp:380] bn6 -> bn6
I0808 00:29:02.564540 24358 net.cpp:122] Setting up bn6
I0808 00:29:02.564550 24358 net.cpp:129] Top shape: 30 256 1 2048 (15728640)
I0808 00:29:02.564553 24358 net.cpp:137] Memory required for data: 1031455080
I0808 00:29:02.564560 24358 layer_factory.hpp:77] Creating layer relu6
I0808 00:29:02.564568 24358 net.cpp:84] Creating Layer relu6
I0808 00:29:02.564573 24358 net.cpp:406] relu6 <- bn6
I0808 00:29:02.564577 24358 net.cpp:367] relu6 -> bn6 (in-place)
I0808 00:29:02.564849 24358 net.cpp:122] Setting up relu6
I0808 00:29:02.564858 24358 net.cpp:129] Top shape: 30 256 1 2048 (15728640)
I0808 00:29:02.564862 24358 net.cpp:137] Memory required for data: 1094369640
I0808 00:29:02.564864 24358 layer_factory.hpp:77] Creating layer concat6
I0808 00:29:02.564896 24358 net.cpp:84] Creating Layer concat6
I0808 00:29:02.564903 24358 net.cpp:406] concat6 <- bn6
I0808 00:29:02.564908 24358 net.cpp:406] concat6 <- bn2_relu2_0_split_1
I0808 00:29:02.564911 24358 net.cpp:406] concat6 <- bn3_relu3_0_split_1
I0808 00:29:02.564915 24358 net.cpp:406] concat6 <- bn4_relu4_0_split_1
I0808 00:29:02.564918 24358 net.cpp:406] concat6 <- bn5_relu5_0_split_1
I0808 00:29:02.564924 24358 net.cpp:380] concat6 -> concat6
I0808 00:29:02.564970 24358 net.cpp:122] Setting up concat6
I0808 00:29:02.564976 24358 net.cpp:129] Top shape: 30 960 1 2048 (58982400)
I0808 00:29:02.564980 24358 net.cpp:137] Memory required for data: 1330299240
I0808 00:29:02.564982 24358 layer_factory.hpp:77] Creating layer conv7
I0808 00:29:02.564997 24358 net.cpp:84] Creating Layer conv7
I0808 00:29:02.565001 24358 net.cpp:406] conv7 <- concat6
I0808 00:29:02.565007 24358 net.cpp:380] conv7 -> conv7
I0808 00:29:02.567553 24358 net.cpp:122] Setting up conv7
I0808 00:29:02.567576 24358 net.cpp:129] Top shape: 30 128 1 2048 (7864320)
I0808 00:29:02.567580 24358 net.cpp:137] Memory required for data: 1361756520
I0808 00:29:02.567586 24358 layer_factory.hpp:77] Creating layer bn7
I0808 00:29:02.567595 24358 net.cpp:84] Creating Layer bn7
I0808 00:29:02.567598 24358 net.cpp:406] bn7 <- conv7
I0808 00:29:02.567605 24358 net.cpp:380] bn7 -> bn7
I0808 00:29:02.567786 24358 net.cpp:122] Setting up bn7
I0808 00:29:02.567793 24358 net.cpp:129] Top shape: 30 128 1 2048 (7864320)
I0808 00:29:02.567796 24358 net.cpp:137] Memory required for data: 1393213800
I0808 00:29:02.567809 24358 layer_factory.hpp:77] Creating layer relu7
I0808 00:29:02.567816 24358 net.cpp:84] Creating Layer relu7
I0808 00:29:02.567819 24358 net.cpp:406] relu7 <- bn7
I0808 00:29:02.567824 24358 net.cpp:367] relu7 -> bn7 (in-place)
I0808 00:29:02.568091 24358 net.cpp:122] Setting up relu7
I0808 00:29:02.568100 24358 net.cpp:129] Top shape: 30 128 1 2048 (7864320)
I0808 00:29:02.568104 24358 net.cpp:137] Memory required for data: 1424671080
I0808 00:29:02.568107 24358 layer_factory.hpp:77] Creating layer pool1
I0808 00:29:02.568115 24358 net.cpp:84] Creating Layer pool1
I0808 00:29:02.568120 24358 net.cpp:406] pool1 <- bn7
I0808 00:29:02.568125 24358 net.cpp:380] pool1 -> pool1
I0808 00:29:02.568202 24358 net.cpp:122] Setting up pool1
I0808 00:29:02.568209 24358 net.cpp:129] Top shape: 30 128 1 1 (3840)
I0808 00:29:02.568212 24358 net.cpp:137] Memory required for data: 1424686440
I0808 00:29:02.568215 24358 layer_factory.hpp:77] Creating layer conv7A
I0808 00:29:02.568226 24358 net.cpp:84] Creating Layer conv7A
I0808 00:29:02.568230 24358 net.cpp:406] conv7A <- pool1
I0808 00:29:02.568236 24358 net.cpp:380] conv7A -> conv7A
I0808 00:29:02.571087 24358 net.cpp:122] Setting up conv7A
I0808 00:29:02.571102 24358 net.cpp:129] Top shape: 30 128 1 1 (3840)
I0808 00:29:02.571106 24358 net.cpp:137] Memory required for data: 1424701800
I0808 00:29:02.571113 24358 layer_factory.hpp:77] Creating layer bn7A
I0808 00:29:02.571121 24358 net.cpp:84] Creating Layer bn7A
I0808 00:29:02.571125 24358 net.cpp:406] bn7A <- conv7A
I0808 00:29:02.571131 24358 net.cpp:380] bn7A -> bn7A
I0808 00:29:02.571312 24358 net.cpp:122] Setting up bn7A
I0808 00:29:02.571318 24358 net.cpp:129] Top shape: 30 128 1 1 (3840)
I0808 00:29:02.571321 24358 net.cpp:137] Memory required for data: 1424717160
I0808 00:29:02.571331 24358 layer_factory.hpp:77] Creating layer relu7A
I0808 00:29:02.571338 24358 net.cpp:84] Creating Layer relu7A
I0808 00:29:02.571342 24358 net.cpp:406] relu7A <- bn7A
I0808 00:29:02.571346 24358 net.cpp:367] relu7A -> bn7A (in-place)
I0808 00:29:02.572000 24358 net.cpp:122] Setting up relu7A
I0808 00:29:02.572015 24358 net.cpp:129] Top shape: 30 128 1 1 (3840)
I0808 00:29:02.572018 24358 net.cpp:137] Memory required for data: 1424732520
I0808 00:29:02.572022 24358 layer_factory.hpp:77] Creating layer conv7B
I0808 00:29:02.572032 24358 net.cpp:84] Creating Layer conv7B
I0808 00:29:02.572036 24358 net.cpp:406] conv7B <- bn7A
I0808 00:29:02.572043 24358 net.cpp:380] conv7B -> conv7B
I0808 00:29:02.573532 24358 net.cpp:122] Setting up conv7B
I0808 00:29:02.573546 24358 net.cpp:129] Top shape: 30 64 1 1 (1920)
I0808 00:29:02.573561 24358 net.cpp:137] Memory required for data: 1424740200
I0808 00:29:02.573568 24358 layer_factory.hpp:77] Creating layer bn7B
I0808 00:29:02.573575 24358 net.cpp:84] Creating Layer bn7B
I0808 00:29:02.573578 24358 net.cpp:406] bn7B <- conv7B
I0808 00:29:02.573585 24358 net.cpp:380] bn7B -> bn7B
I0808 00:29:02.573771 24358 net.cpp:122] Setting up bn7B
I0808 00:29:02.573779 24358 net.cpp:129] Top shape: 30 64 1 1 (1920)
I0808 00:29:02.573782 24358 net.cpp:137] Memory required for data: 1424747880
I0808 00:29:02.573788 24358 layer_factory.hpp:77] Creating layer relu7B
I0808 00:29:02.573794 24358 net.cpp:84] Creating Layer relu7B
I0808 00:29:02.573798 24358 net.cpp:406] relu7B <- bn7B
I0808 00:29:02.573803 24358 net.cpp:367] relu7B -> bn7B (in-place)
I0808 00:29:02.574374 24358 net.cpp:122] Setting up relu7B
I0808 00:29:02.574405 24358 net.cpp:129] Top shape: 30 64 1 1 (1920)
I0808 00:29:02.574420 24358 net.cpp:137] Memory required for data: 1424755560
I0808 00:29:02.574426 24358 layer_factory.hpp:77] Creating layer conv8
I0808 00:29:02.574440 24358 net.cpp:84] Creating Layer conv8
I0808 00:29:02.574445 24358 net.cpp:406] conv8 <- bn7B
I0808 00:29:02.574452 24358 net.cpp:380] conv8 -> conv8
I0808 00:29:02.575805 24358 net.cpp:122] Setting up conv8
I0808 00:29:02.575831 24358 net.cpp:129] Top shape: 30 40 1 1 (1200)
I0808 00:29:02.575835 24358 net.cpp:137] Memory required for data: 1424760360
I0808 00:29:02.575851 24358 layer_factory.hpp:77] Creating layer conv8_conv8_0_split
I0808 00:29:02.575858 24358 net.cpp:84] Creating Layer conv8_conv8_0_split
I0808 00:29:02.575862 24358 net.cpp:406] conv8_conv8_0_split <- conv8
I0808 00:29:02.575868 24358 net.cpp:380] conv8_conv8_0_split -> conv8_conv8_0_split_0
I0808 00:29:02.575875 24358 net.cpp:380] conv8_conv8_0_split -> conv8_conv8_0_split_1
I0808 00:29:02.575922 24358 net.cpp:122] Setting up conv8_conv8_0_split
I0808 00:29:02.575928 24358 net.cpp:129] Top shape: 30 40 1 1 (1200)
I0808 00:29:02.575932 24358 net.cpp:129] Top shape: 30 40 1 1 (1200)
I0808 00:29:02.575934 24358 net.cpp:137] Memory required for data: 1424769960
I0808 00:29:02.575937 24358 layer_factory.hpp:77] Creating layer loss
I0808 00:29:02.575978 24358 net.cpp:84] Creating Layer loss
I0808 00:29:02.575984 24358 net.cpp:406] loss <- conv8_conv8_0_split_0
I0808 00:29:02.575989 24358 net.cpp:406] loss <- label_data_1_split_0
I0808 00:29:02.575994 24358 net.cpp:380] loss -> loss
…
