I0309 20:45:02.072592  3336 _caffe.cpp:68] Using devices [0]
[0]
Using network defined at area2_net_deform_nobn.prototxt
I0309 20:45:04.225311  3373 upgrade_proto.cpp:1084] Attempting to upgrade input file specified using deprecated 'solver_type' field (enum)': /home/peterwg/repos/deformableSplatnet/exp/lidar3d/area2/2_solver.prototxt
I0309 20:45:04.225347  3373 upgrade_proto.cpp:1091] Successfully upgraded file specified using deprecated 'solver_type' field (enum) to 'type' field (string).
W0309 20:45:04.225368  3373 upgrade_proto.cpp:1093] Note that future Caffe releases will only support 'type' field (string) for a solver's type.
I0309 20:45:04.250497  3373 solver.cpp:45] Initializing solver from parameters: 
train_net: "area2_net_deform_nobn.prototxt"
test_net: "area2_net_deform_nobn.prototxt"
test_iter: 10
test_interval: 50
base_lr: 0.0001
display: 1
max_iter: 20000
lr_policy: "step"
gamma: 0.2
momentum: 0.9
weight_decay: 0.001
stepsize: 2000
snapshot: 50
snapshot_prefix: "/home/peterwg/repos/deformableSplatnet/exp/lidar3d/area2/2_net_deform_lr1e-4"
solver_mode: GPU
random_seed: 0
debug_info: false
iter_size: 10
momentum2: 0.999
type: "Adam"
I0309 20:45:04.250649  3373 solver.cpp:92] Creating training net from train_net file: area2_net_deform_nobn.prototxt
I0309 20:45:04.251355  3373 net.cpp:294] The NetState phase (0) differed from the phase (1) specified by a rule in layer data
I0309 20:45:04.251646  3373 net.cpp:51] Initializing net from parameters: 
state {
  phase: TRAIN
}
layer {
  name: "data"
  type: "Python"
  top: "data"
  top: "label"
  include {
    phase: TRAIN
  }
  python_param {
    module: "dataset_lidar"
    layer: "InputShapenet"
    param_str: "{\'sample_size\': 4096, \'test_area\': \'2\', \'batch_size\': 19, \'feat_dims\': \'x_y_z_r_g_b\', \'subset\': \'train\', \'root\': \'../../data/shapenet_ericyi_ply\', \'jitter_xyz\': 0.00, \'jitter_stretch\': 0.0, \'jitter_rotation\': 3.0}"
  }
}
layer {
  name: "data_feat"
  type: "Python"
  bottom: "data"
  top: "data_feat"
  python_param {
    module: "custom_layers"
    layer: "PickAndScale_noback"
    param_str: "0_1_2"
  }
}
layer {
  name: "conv1"
  type: "Convolution"
  bottom: "data_feat"
  top: "conv1"
  param {
    lr_mult: 1
  }
  param {
    lr_mult: 0.1
  }
  convolution_param {
    num_output: 32
    pad: 0
    kernel_size: 1
    stride: 1
    weight_filler {
      type: "xavier"
    }
    bias_filler {
      type: "constant"
      value: 0
    }
  }
}
layer {
  name: "bn1"
  type: "BatchNorm"
  bottom: "conv1"
  top: "bn1"
}
layer {
  name: "relu1"
  type: "ReLU"
  bottom: "bn1"
  top: "bn1"
}
layer {
  name: "bnD1"
  type: "Concat"
  bottom: "data_feat"
  bottom: "bn1"
  top: "bnD1"
}
layer {
  name: "fconv1"
  type: "Convolution"
  bottom: "bnD1"
  top: "fconv1"
  param {
    name: "fconv1_w"
    lr_mult: 1
  }
  param {
    lr_mult: 0.1
  }
  convolution_param {
    num_output: 3
    pad: 0
    kernel_size: 1
    stride: 1
    weight_filler {
      type: "xavier"
    }
    bias_filler {
      type: "constant"
      value: 0
    }
  }
}
layer {
  name: "param_fconv1"
  type: "Parameter"
  top: "param_fconv1"
  param {
    name: "fconv1_w"
    lr_mult: 1
  }
  parameter_param {
    shape {
      dim: 3
      dim: 35
      dim: 1
      dim: 1
    }
  }
}
layer {
  name: "data_lattice0"
  type: "Python"
  bottom: "fconv1"
  bottom: "param_fconv1"
  top: "data_lattice0"
  python_param {
    module: "custom_layers"
    layer: "NormAndScale"
    param_str: "0*64_1*64_2*64"
  }
}
layer {
  name: "conv2"
  type: "Permutohedral"
  bottom: "bn1"
  bottom: "data_lattice0"
  bottom: "data_lattice0"
  top: "conv2"
  param {
    lr_mult: 1
    decay_mult: 1
  }
  param {
    lr_mult: 2
    decay_mult: 0
  }
  permutohedral_param {
    num_output: 64
    neighborhood_size: 2
    filter_filler {
      type: "gaussian"
      std: 0.001
    }
    bias_term: true
    bias_filler {
      type: "constant"
      value: 0
    }
    group: 1
    norm_type: AFTER
    offset_type: NONE
  }
}
layer {
  name: "bn2"
  type: "BatchNorm"
  bottom: "conv2"
  top: "bn2"
}
layer {
  name: "relu2"
  type: "ReLU"
  bottom: "bn2"
  top: "bn2"
}
layer {
  name: "bnD2"
  type: "Concat"
  bottom: "data_feat"
  bottom: "bn2"
  top: "bnD2"
}
layer {
  name: "fconv2"
  type: "Convolution"
  bottom: "bnD2"
  top: "fconv2"
  param {
    name: "fconv2_w"
    lr_mult: 1
  }
  param {
    lr_mult: 0.1
  }
  convolution_param {
    num_output: 3
    pad: 0
    kernel_size: 1
    stride: 1
    weight_filler {
      type: "xavier"
    }
    bias_filler {
      type: "constant"
      value: 0
    }
  }
}
layer {
  name: "param_fconv2"
  type: "Parameter"
  top: "param_fconv2"
  param {
    name: "fconv2_w"
    lr_mult: 1
  }
  parameter_param {
    shape {
      dim: 3
      dim: 67
      dim: 1
      dim: 1
    }
  }
}
layer {
  name: "data_lattice1"
  type: "Python"
  bottom: "fconv2"
  bottom: "param_fconv2"
  top: "data_lattice1"
  python_param {
    module: "custom_layers"
    layer: "NormAndScale"
    param_str: "0*32_1*32_2*32"
  }
}
layer {
  name: "conv3"
  type: "Permutohedral"
  bottom: "bn2"
  bottom: "data_lattice1"
  bottom: "data_lattice1"
  top: "conv3"
  param {
    lr_mult: 1
    decay_mult: 1
  }
  param {
    lr_mult: 2
    decay_mult: 0
  }
  permutohedral_param {
    num_output: 128
    neighborhood_size: 2
    filter_filler {
      type: "gaussian"
      std: 0.001
    }
    bias_term: true
    bias_filler {
      type: "constant"
      value: 0
    }
    group: 1
    norm_type: AFTER
    offset_type: NONE
  }
}
layer {
  name: "bn3"
  type: "BatchNorm"
  bottom: "conv3"
  top: "bn3"
}
layer {
  name: "relu3"
  type: "ReLU"
  bottom: "bn3"
  top: "bn3"
}
layer {
  name: "bnD3"
  type: "Concat"
  bottom: "data_feat"
  bottom: "bn3"
  top: "bnD3"
}
layer {
  name: "fconv3"
  type: "Convolution"
  bottom: "bnD3"
  top: "fconv3"
  param {
    name: "fconv3_w"
    lr_mult: 1
  }
  param {
    lr_mult: 0.1
  }
  convolution_param {
    num_output: 3
    pad: 0
    kernel_size: 1
    stride: 1
    weight_filler {
      type: "xavier"
    }
    bias_filler {
      type: "constant"
      value: 0
    }
  }
}
layer {
  name: "param_fconv3"
  type: "Parameter"
  top: "param_fconv3"
  param {
    name: "fconv3_w"
    lr_mult: 1
  }
  parameter_param {
    shape {
      dim: 3
      dim: 131
      dim: 1
      dim: 1
    }
  }
}
layer {
  name: "data_lattice2"
  type: "Python"
  bottom: "fconv3"
  bottom: "param_fconv3"
  top: "data_lattice2"
  python_param {
    module: "custom_layers"
    layer: "NormAndScale"
    param_str: "0*16_1*16_2*16"
  }
}
layer {
  name: "conv4"
  type: "Permutohedral"
  bottom: "bn3"
  bottom: "data_lattice2"
  bottom: "data_lattice2"
  top: "conv4"
  param {
    lr_mult: 1
    decay_mult: 1
  }
  param {
    lr_mult: 2
    decay_mult: 0
  }
  permutohedral_param {
    num_output: 256
    neighborhood_size: 2
    filter_filler {
      type: "gaussian"
      std: 0.001
    }
    bias_term: true
    bias_filler {
      type: "constant"
      value: 0
    }
    group: 1
    norm_type: AFTER
    offset_type: NONE
  }
}
layer {
  name: "bn4"
  type: "BatchNorm"
  bottom: "conv4"
  top: "bn4"
}
layer {
  name: "relu4"
  type: "ReLU"
  bottom: "bn4"
  top: "bn4"
}
layer {
  name: "bnD4"
  type: "Concat"
  bottom: "data_feat"
  bottom: "bn4"
  top: "bnD4"
}
layer {
  name: "fconv4"
  type: "Convolution"
  bottom: "bnD4"
  top: "fconv4"
  param {
    name: "fconv4_w"
    lr_mult: 1
  }
  param {
    lr_mult: 0.1
  }
  convolution_param {
    num_output: 3
    pad: 0
    kernel_size: 1
    stride: 1
    weight_filler {
      type: "xavier"
    }
    bias_filler {
      type: "constant"
      value: 0
    }
  }
}
layer {
  name: "param_fconv4"
  type: "Parameter"
  top: "param_fconv4"
  param {
    name: "fconv4_w"
    lr_mult: 1
  }
  parameter_param {
    shape {
      dim: 3
      dim: 259
      dim: 1
      dim: 1
    }
  }
}
layer {
  name: "data_lattice3"
  type: "Python"
  bottom: "fconv4"
  bottom: "param_fconv4"
  top: "data_lattice3"
  python_param {
    module: "custom_layers"
    layer: "NormAndScale"
    param_str: "0*8_1*8_2*8"
  }
}
layer {
  name: "conv5"
  type: "Permutohedral"
  bottom: "bn4"
  bottom: "data_lattice3"
  bottom: "data_lattice3"
  top: "conv5"
  param {
    lr_mult: 1
    decay_mult: 1
  }
  param {
    lr_mult: 2
    decay_mult: 0
  }
  permutohedral_param {
    num_output: 256
    neighborhood_size: 2
    filter_filler {
      type: "gaussian"
      std: 0.001
    }
    bias_term: true
    bias_filler {
      type: "constant"
      value: 0
    }
    group: 1
    norm_type: AFTER
    offset_type: NONE
  }
}
layer {
  name: "bn5"
  type: "BatchNorm"
  bottom: "conv5"
  top: "bn5"
}
layer {
  name: "relu5"
  type: "ReLU"
  bottom: "bn5"
  top: "bn5"
}
layer {
  name: "bnD5"
  type: "Concat"
  bottom: "data_feat"
  bottom: "bn5"
  top: "bnD5"
}
layer {
  name: "fconv5"
  type: "Convolution"
  bottom: "bnD5"
  top: "fconv5"
  param {
    name: "fconv5_w"
    lr_mult: 1
  }
  param {
    lr_mult: 0.1
  }
  convolution_param {
    num_output: 3
    pad: 0
    kernel_size: 1
    stride: 1
    weight_filler {
      type: "xavier"
    }
    bias_filler {
      type: "constant"
      value: 0
    }
  }
}
layer {
  name: "param_fconv5"
  type: "Parameter"
  top: "param_fconv5"
  param {
    name: "fconv5_w"
    lr_mult: 1
  }
  parameter_param {
    shape {
      dim: 3
      dim: 259
      dim: 1
      dim: 1
    }
  }
}
layer {
  name: "data_lattice4"
  type: "Python"
  bottom: "fconv5"
  bottom: "param_fconv5"
  top: "data_lattice4"
  python_param {
    module: "custom_layers"
    layer: "NormAndScale"
    param_str: "0*4_1*4_2*4"
  }
}
layer {
  name: "conv6"
  type: "Permutohedral"
  bottom: "bn5"
  bottom: "data_lattice4"
  bottom: "data_lattice4"
  top: "conv6"
  param {
    lr_mult: 1
    decay_mult: 1
  }
  param {
    lr_mult: 2
    decay_mult: 0
  }
  permutohedral_param {
    num_output: 256
    neighborhood_size: 2
    filter_filler {
      type: "gaussian"
      std: 0.001
    }
    bias_term: true
    bias_filler {
      type: "constant"
      value: 0
    }
    group: 1
    norm_type: AFTER
    offset_type: NONE
  }
}
layer {
  name: "bn6"
  type: "BatchNorm"
  bottom: "conv6"
  top: "bn6"
}
layer {
  name: "relu6"
  type: "ReLU"
  bottom: "bn6"
  top: "bn6"
}
layer {
  name: "bnD5_"
  type: "Concat"
  bottom: "data_feat"
  bottom: "bn6"
  top: "bnD5_"
}
layer {
  name: "fconv5_"
  type: "Convolution"
  bottom: "bnD5_"
  top: "fconv5_"
  param {
    name: "fconv5_w_"
    lr_mult: 1
  }
  param {
    lr_mult: 0.1
  }
  convolution_param {
    num_output: 3
    pad: 0
    kernel_size: 1
    stride: 1
    weight_filler {
      type: "xavier"
    }
    bias_filler {
      type: "constant"
      value: 0
    }
  }
}
layer {
  name: "param_fconv5_"
  type: "Parameter"
  top: "param_fconv5_"
  param {
    name: "fconv5_w_"
    lr_mult: 1
  }
  parameter_param {
    shape {
      dim: 3
      dim: 259
      dim: 1
      dim: 1
    }
  }
}
layer {
  name: "data_lattice4_"
  type: "Python"
  bottom: "fconv5_"
  bottom: "param_fconv5_"
  top: "data_lattice4_"
  python_param {
    module: "custom_layers"
    layer: "NormAndScale"
    param_str: "0*2_1*2_2*2"
  }
}
layer {
  name: "conv6_"
  type: "Permutohedral"
  bottom: "bn6"
  bottom: "data_lattice4_"
  bottom: "data_lattice4_"
  top: "conv6_"
  param {
    lr_mult: 1
    decay_mult: 1
  }
  param {
    lr_mult: 2
    decay_mult: 0
  }
  permutohedral_param {
    num_output: 256
    neighborhood_size: 2
    filter_filler {
      type: "gaussian"
      std: 0.001
    }
    bias_term: true
    bias_filler {
      type: "constant"
      value: 0
    }
    group: 1
    norm_type: AFTER
    offset_type: NONE
  }
}
layer {
  name: "bn6_"
  type: "BatchNorm"
  bottom: "conv6_"
  top: "bn6_"
}
layer {
  name: "relu6_"
  type: "ReLU"
  bottom: "bn6_"
  top: "bn6_"
}
layer {
  name: "concat6"
  type: "Concat"
  bottom: "bn6"
  bottom: "bn6_"
  bottom: "bn2"
  bottom: "bn3"
  bottom: "bn4"
  bottom: "bn5"
  top: "concat6"
}
layer {
  name: "conv7"
  type: "Convolution"
  bottom: "concat6"
  top: "conv7"
  param {
    lr_mult: 1
  }
  param {
    lr_mult: 0.1
  }
  convolution_param {
    num_output: 128
    pad: 0
    kernel_size: 1
    stride: 1
    weight_filler {
      type: "xavier"
    }
    bias_filler {
      type: "constant"
      value: 0
    }
  }
}
layer {
  name: "bn7"
  type: "BatchNorm"
  bottom: "conv7"
  top: "bn7"
}
layer {
  name: "relu7"
  type: "ReLU"
  bottom: "bn7"
  top: "bn7"
}
layer {
  name: "conv8"
  type: "Convolution"
  bottom: "bn7"
  top: "conv8"
  param {
    lr_mult: 1
  }
  param {
    lr_mult: 0.1
  }
  convolution_param {
    num_output: 3
    pad: 0
    kernel_size: 1
    stride: 1
    weight_filler {
      type: "xavier"
    }
    bias_filler {
      type: "constant"
      value: 0
    }
  }
}
layer {
  name: "loss"
  type: "SoftmaxWithLoss"
  bottom: "conv8"
  bottom: "label"
  top: "loss"
}
layer {
  name: "accuracy"
  type: "Accuracy"
  bottom: "conv8"
  bottom: "label"
  top: "accuracy"
}
I0309 20:45:04.252002  3373 layer_factory.hpp:77] Creating layer data
I0309 20:45:04.257443  3373 net.cpp:84] Creating Layer data
I0309 20:45:04.257458  3373 net.cpp:380] data -> data
I0309 20:45:04.257469  3373 net.cpp:380] data -> label
